m4_ws/src/morphing_lander/learned_models/2024-05-21_16-56-45/model_160.pth (torch, 33928 bytes, 22 tensors)

cond_normalizer.mean f4 [12]
-0.46838453 -0.008681463 -0.000445269 0.00092873466 0.028820124 0.00853126 -0.006485488 0.5481251
0.5613629 0.5487373 0.5602352 38.775974
00000000: 19d0 efbe b23c 0ebc fe72 e9b9 5476 733a
00000010: 2e18 ec3c b3c6 0b3c 3784 d4bb ed51 0c3f
00000020: 7bb5 0f3f 0c7a 0c3f 936b 0f3f 991a 1b42

cond_normalizer.variance f4 [12]
0.12790407 0.0013156364 0.0013130592 0.0013049494 0.07172706 0.056344423 0.10955782 0.022795731
0.023291709 0.022831915 0.02361128 288.81543
00000000: 49f9 023e 6f71 ac3a f51a ac3a d60a ab3a
00000010: a3e5 923d 69c9 663d da5f e03d 1dbe ba3c
00000020: 41ce be3c ff09 bb3c 716c c13c 6068 9043

output_normalizer.mean f4 [12]
-0.0031246985 -0.0017610617 0.0141943535 4.7671238e-05 0.0025263801 0.0007660262 0.011826931 0.001178454
2.663379 0.076909296 0.45082295 -0.00027952067
00000000: bec7 4cbb 6dd3 e6ba 6f8f 683c 9af2 4738
00000010: a091 253b 26cf 483a bec5 413c 5b76 9a3a
00000020: cd74 2a40 9f82 9d3d 44d2 e63e a18c 92b9

output_normalizer.variance f4 [12]
0.1516345 0.0826122 0.034771502 0.00010813441 0.005342483 0.02041495 0.25661984 2.1100676
71.67659 173.34534 6.5525503 0.38536644
00000000: 1346 1b3e 9630 a93d 906c 0e3d 38c6 e238
00000010: ff0f af3b 413d a73c ad63 833e 590b 0740
00000020: 6a5a 8f42 6858 2d43 7eae d140 c04e c53e

encoder.layers.0.weight f4 [32, 24]
-0.000713951 6.023094e-05 -0.016998004 -0.14677702 -0.21145567 0.29347375 0.03654479 -0.4832324
0.0020122225 -0.30026087 0.01655441 -0.10660159 0.0006781229 0.011788054 0.03582393 0.23538904
-0.0053603207 -0.0096839415 0.007042048 0.03208989 0.03687402 -0.005795555 -0.057165038 -0.007989851
0.10608345 0.012384766 0.16183574 0.07400554 -0.042104535 -0.019362627 -0.14357533 0.121787645
0.23548716 0.12584417 0.02979196 -0.02877254 0.14515504 -0.06181947 -0.109743506 -0.08189622
-0.035657465 -0.10087335 -0.18088585 0.04886761 -0.118718006 0.11032005 -0.09027151 0.08151599
0.0063750506 0.022868004 -0.004453168 -0.33119607 0.033426523 -0.29758516 -0.12185919 0.16000052
-0.03191293 -0.13068753 -0.12910742 -0.1707729 0.007832328 0.0012078267 -0.08476115 -0.2550727
-0.002790875 0.01879744 -0.0057189693 -0.09334165 -0.0063046752 0.0896476 0.020383604 0.0014809006
0.008176978 -0.02384723 0.038564634 0.0014208463 -0.027485002 0.27401298 -0.2486697 0.19902751
0.11891101 -0.16036114 0.032806072 -0.027179578 -0.06611441 0.056558672 0.17497034 -0.21632248
-0.024965283 -0.017950844 0.077284746 0.11928624 0.08822081 0.029791195 0.045019675 -0.041977357
-0.0010467464 0.0039280998 -0.060075756 -0.20751666 -0.25251603 0.2487239 -0.27801993 0.17640832
-0.017400336 -0.119994275 0.07616367 -0.29758456 0.08581888 0.024979122 0.051230982 0.12889133
0.028414488 -0.009501875 -0.07963678 -0.12536962 -0.074643075 0.124844 0.071849406 0.046287302
0.00070138753 -0.013504859 0.010736266 0.011172704 -0.17342792 -0.22413692 -0.06262161 -0.14742592
0.026126167 0.060052514 0.21881786 -0.2692725 0.044497147 0.014442718 -0.2738759 -0.08250202
-0.019643394 0.02977436 -0.0128373355 0.09705713 -0.07252452 -0.11793894 0.10508583 -0.03254092
0.07414882 -0.06227994 -0.18230885 0.006475116 -0.07053625 -0.0779506 0.033543646 0.00877227
-0.11034033 0.019834224 0.012842163 -0.025018988 0.012184397 0.21039009 -0.0044331485 0.022507187
0.14596659 -0.119098864 -0.1342561 0.14933048 0.015232349 0.1268692 0.05412715 -0.0170255
-0.09512701 0.037908822 0.11111903 0.03738695 0.022090852 0.06755836 -0.042367008 0.013888837
-0.11988459 0.011085338 0.069227934 -0.006115929 0.068753816 -0.07677115 0.05568688 -0.030328112
0.14107807 0.1035742 -0.10565807 0.09818627 -0.108245715 0.07752332 0.004770924 -0.0780254
-0.006516895 0.00044663122 -0.024398364 0.20780474 0.30796018 0.35919192 -0.3231626 -0.006576713
-0.010374693 0.2711551 -0.15981019 0.001751597 0.04831953 0.014243071 -0.055695184 -0.026073096
0.017975966 -0.0042996923 -0.0077497447 -0.060503274 0.042421 0.15097584 -0.1024617 -0.040486824
-0.0111207655 0.0026167063 -0.007587934 0.077749245 -0.17480701 -0.121853374 0.14482652 0.28672895
0.0014883087 -0.113304086 0.016217288 0.026458362 -0.05138758 -0.041794866 0.044702273 0.14809774
0.11811199 -0.22559117 0.025884487 0.10106544 -0.085629374 0.014639653 -0.00057275017 -0.0061160713
0.002227947 -0.0047782836 -0.0001685269 -0.22264205 -0.10250676 0.52109087 -0.006785899 0.14810376
-0.079463325 0.09477555 -0.24724251 0.22641902 0.03312568 -0.011677299 0.018415393 -0.16301247
00000000: 7128 3bba 7ba0 7c38 663f 8bbc b74c 16be
00000010: d687 58be 3142 963e fdaf 153d 3d6a f7be
00000020: 7edf 033b cbbb 99be 1d9d 873c ef51 dabd
00000030: 0fc4 313a af22 413c 1dbc 123d d309 713e
00000040: a1a5 afbb 65a9 1ebc fbc0 e63b b070 033d
00000050: 3609 173d a4e8 bdbb e325 6abd dde7 02bc
00000060: 4842 d93d 79e9 4a3c 45b8 253e 3790 973d
00000070: ce75 2cbd 5f9e 9ebc 6905 13be cd6b f93d
00000080: 8c23 713e 4bdd 003e 450e f43c 64b4 ebbc
00000090: 86a3 143e 6a36 7dbd 34c1 e0bd 35b9 a7bd
000000a0: 900d 12bd b096 cebd 243a 39be 6729 483d
000000b0: 6d22 f3bd 7aef e13d 45e0 b8bd dbf1 a63d
000000c0: cde5 d03b ae55 bb3c e1eb 91bb 8892 a9be
000000d0: 40ea 083d 155d 98be 5091 f9bd 2dd7 233e
000000e0: 22b7 02bd f4d2 05be bc34 04be 17df 2ebe
000000f0: 2a53 003c f04f 9e3a 4197 adbd e498 82be
00000100: 1de7 36bb 17fd 993c 3166 bbbb e829 bfbd
00000110: 7397 cebb 2999 b73d 84fb a63c c71a c23a
00000120: bbf8 053c 445b c3bc f3f5 1d3d b13b ba3a
00000130: 3a28 e1bc 6e4b 8c3e 45a3 7ebe decd 4b3e
00000140: 9e87 f33d b635 24be a95f 063d b5a7 debc
00000150: fe66 87bd 11aa 673d 6d2b 333e a483 5dbe
00000160: fe83 ccbc a60d 93bc 7747 9e3d 584c f43d
00000170: 1dad b43d aa0c f43c 8d66 383d 73f0 2bbd
00000180: fb32 89ba 4ab7 803b ff11 76bd 3f7f 54be
00000190: c849 81be 7ab1 7e3e a158 8ebe 62a4 343e
000001a0: 268b 8ebc 8fbf f5bd b3fb 9b3d 015d 98be
000001b0: cfc1 af3d 04a1 cc3c 94d7 513d 17fc 033e
000001c0: 80c5 e83c c1ad 1bbc 9c18 a3bd e560 00be
000001d0: 78de 98bd 36ae ff3d c825 933d c197 3d3d
000001e0: 52dd 373a 7c43 5dbc 2ae7 2f3c b80d 373c
000001f0: 1797 31be 2684 65be c23f 80bd d2f6 16be
00000200: 8b06 d63c a0f9 753d ca11 603e 16de 89be
00000210: a442 363d 26a1 6c3c 7639 8cbe d2f6 a8bd
00000220: 2feb a0bc 5ce9 f33c b053 52bc e3c5 c63d
00000230: bc87 94bd f989 f1bd 3d37 d73d a149 05bd
00000240: 56db 973d 4019 7fbd 2caf 3abe 362d d43b
00000250: 4f75 90bd 90a4 9fbd 1065 093d 91b9 0f3c
00000260: 1cfa e1bd 627b a23c f067 523c 9ff4 ccbc
00000270: 11a1 473c 8070 573e f243 91bb fe60 b83c
00000280: 4478 153e 1bea f3bd 6e7a 09be 17ea 183e
00000290: 1a91 793c 00ea 013e 6eb4 5d3d 1079 8bbc
000002a0: f3d1 c2bd 4846 1b3d 6092 e33d 0f23 193d
000002b0: e0f7 b43c 0a5c 8a3d 0789 2dbd 018e 633c
000002c0: 0d86 f5bd 479f 353c 60c7 8d3d 2268 c8bb
000002d0: cdce 8c3d 313a 9dbd ed17 643d a972 f8bc
000002e0: c576 103e b61e d43d 4263 d8bd e215 c93d
000002f0: eeaf ddbd 8cc4 9e3d 6955 9c3b c8cb 9fbd
00000300: ad8b d5bb d429 ea39 14df c7bc c4ca 543e
00000310: f5ac 9d3e 01e8 b73e 9175 a5be 7881 d7bb
00000320: 9efa 29bc d7d4 8a3e 48a5 23be d895 e53a
00000330: b3ea 453d c55b 693c a220 64bd 3f97 d5bc
00000340: 5542 933c 6fe4 8cbb 92f1 fdbb 48d2 77bd
00000350: a4c1 2d3d 6999 1a3e 71d7 d1bd 83d5 25bd
00000360: df33 36bc 0c7d 2b3b 34a4 f8bb ff3a 9f3d
00000370: 9c00 33be 438e f9bd 674d 143e 23ce 923e
00000380: 5a13 c33a f90b e8bd 1eda 843c 35bf d83c
00000390: c87b 52bd 1831 2bbd bb19 373d efa6 173e
000003a0: b3e4 f13d 5f01 67be b40b d43c 66fb ce3d
000003b0: 745e afbd 28db 6f3c 9d24 16ba 5369 c8bb
000003c0: c002 123b 2693 9cbb 98b6 30b9 47fc 63be
000003d0: 10ef d1bd 3666 053f 3f5c debb 83a8 173e
000003e0: abbd a2bd af19 c23d 242d 7dbe 63da 673e
000003f0: cbae 073d 2452 3fbc e1db 963c beec 26be

encoder.layers.0.bias f4 [32]
-0.003433912 0.32548833 0.0011740983 -0.09925035 -0.08720953 -0.028752185 0.3118104 0.34452748
0.015288796 -0.02209705 0.0042814114 -0.0017619154 -0.056930054 -0.031308625 0.3215492 -0.01809357
0.4554061 -0.11334796 -0.07046709 0.45351508 0.31214157 -0.0039702295 -0.024426855 -0.053294014
0.39323154 0.0026112576 0.16281176 -0.012230776 -0.004275461 0.17148672 -0.045457285 0.40614265
00000000: 7c0b 61bb 68a6 a63e 34e4 993a c443 cbbd
00000010: e99a b2bd b489 ebbc 9da5 9f3e e865 b03e
00000020: dc7d 7a3c df04 b5bc 154b 8c3b 12f0 e6ba
00000030: 7d2f 69bd 793d 00bd 19a2 a43e f738 94bc
00000040: fd2a e93e fa22 e8bd 0d51 90bd 2133 e83e
00000050: 05d1 9f3e b318 82bb d41a c8bc d34a 5abd
00000060: a555 c93e a221 2b3b 20b8 263e 9863 48bc
00000070: 2b19 8cbb 379a 2f3e 6b31 3abd eef1 cf3e

encoder.layers.2.weight f4 [32, 32]
-0.13570331 0.03139103 -0.1423517 -0.12920822 -0.12536514 -0.11338393 0.031733554 0.17279479
-0.24083403 -0.12120862 -0.23271206 -0.06495462 -0.076997556 -0.08524047 0.06399239 -0.13092087
0.01647679 -0.07156738 -0.024537582 0.046376996 -0.061419047 -0.23283635 -0.3899745 -0.20142213
0.1257904 -0.14746834 -0.013129769 -0.20627692 -0.05775977 -0.06719658 -0.24698026 0.024515439
-0.45367453 0.10494164 -0.31529525 -0.14619213 -0.32992432 -0.36567056 -0.06231242 0.10569725
-0.38846824 -0.23746087 -0.3550696 -0.26721475 -0.15077615 -0.3828554 0.11705635 -0.48317277
0.17721449 -0.34114876 -0.051119268 0.11901327 0.07505707 -0.37808552 -0.32360825 -0.22418983
0.007010449 -0.12755245 -0.03572214 -0.21409789 -0.24242046 -0.034409996 -0.44676733 -0.035148934
0.13690108 -0.03834838 0.16223827 0.035893917 0.17368464 0.05670174 0.014285747 0.09129402
0.15983216 -0.0195013 -0.0812558 0.08426028 0.15844692 0.167395 0.14658709 0.12961288
0.08785365 0.15177795 0.110333115 0.10890093 0.059079446 0.06033311 -0.060416475 0.1342329
-0.024350422 0.039342154 -0.0026372478 0.15067619 0.06456946 0.02340823 0.23215021 0.12249846
0.029209591 -0.03903363 -0.02106449 0.06294062 0.0043412433 0.16842258 0.027947431 0.082516916
0.026452543 -0.012792349 -0.13768871 0.13397172 -0.055142973 -0.07864203 0.053018585 -0.068849355
0.17511652 -0.053663373 0.12509228 0.1093924 0.09065037 0.104719765 -0.039232593 0.08649348
0.09688605 0.023875069 0.02309563 -0.037779756 0.08216021 -0.045940388 0.04224944 0.17283015
0.13313395 0.2074362 0.087137714 -0.004695154 -0.02846084 0.15937763 0.099997595 0.055960022
0.021748167 0.079147995 -0.024795376 0.0018573068 0.07595985 0.067838974 -0.048514627 0.071288005
0.04438126 0.009251013 0.1534293 0.05198429 0.040310606 0.15106738 0.06428446 0.08036347
-0.051587496 0.12878396 0.039885923 0.13379873 0.010821203 0.046906818 0.025303198 0.17927052
0.08964984 0.03539788 0.103522204 0.022265073 0.1580032 -0.0028175986 0.048570164 -0.038134802
0.042886972 0.020329453 0.149771 0.062298495 0.15509781 0.088211395 -0.017253492 -0.060286455
0.070250005 -0.024224212 0.04015365 0.10822096 0.1256031 0.09114912 0.007870147 0.12281723
0.14765836 0.17816065 0.06179576 0.14673394 0.07294436 0.040359523 0.05417481 0.08793383
-0.0041983514 0.120749675 0.087099515 0.15792392 -0.08527461 0.13729014 0.16986987 -0.016971972
-0.0023065154 -0.03400693 0.07036787 -0.065294184 0.05186469 -0.0046374532 0.08410252 -0.07592254
0.21370047 0.081819125 -0.018504713 0.033992723 0.08237096 0.063842386 -0.05892614 0.011450626
0.15043834 -0.029313507 0.022953141 -0.05013525 -0.00540759 -0.0075134095 -0.010965379 0.21971399
-0.24479611 -0.033641767 -0.18478696 -0.16393892 -0.0808853 -0.15032563 0.14780651 0.20814745
-0.42292875 -0.2035182 -0.28389725 -0.2817386 -0.3293789 -0.2748757 0.19050808 -0.25341868
0.07569935 -0.14335091 -0.034170277 0.1887368 0.17015864 -0.18202029 -0.32452184 -0.05343527
0.24009453 -0.05354408 0.047446962 -0.20391944 -0.16918394 0.16286509 -0.3514709 0.053464584
00000000: cff5 0abe e193 003d a5c4 11be 294f 04be
00000010: b85f 00be d535 e8bd 0bfb 013d 1ef1 303e
00000020: 329d 76be 3a3c f8bd 124c 6ebe ee06 85bd
00000030: e5b0 9dbd 8e92 aebd 710e 833d 1f10 06be
00000040: 55fa 863c eb91 92bd 0a03 c9bc cef5 3d3d
00000050: 8a92 7bbd a76c 6ebe bdaa c7be 9a41 4ebe
00000060: 33cf 003e f101 17be 3e1e 57bc 423a 53be
00000070: 8295 6cbd 5c9e 89bd 65e8 7cbe 9ad4 c83c
00000080: 0748 e8be a4eb d63d 616e a1be 64b3 15be
00000090: d7eb a8be 2c39 bbbe 4f3b 7fbd cd77 d83d
000000a0: 4fe5 c6be f128 73be afcb b5be 5fd0 88be
000000b0: 1065 1abe 9f05 c4be 3dbb ef3d 6c62 f7be
000000c0: b777 353e 0dab aebe 7062 51bd 3bbd f33d
000000d0: 85b7 993d 6d94 c1be fbaf a5be 0592 65be
000000e0: e9b7 e53b 1c9d 02be 6151 12bd 7a3c 5bbe
000000f0: 123d 78be 7ff1 0cbd b0be e4be 54f8 0fbd
00000100: cc2f 0c3e 3113 1dbd ca21 263e 8005 133d
00000110: 63da 313e 1540 683d c40e 6a3c 5cf8 ba3d
00000120: 0bab 233e 31c1 9fbc 7169 a6bd a790 ac3d
00000130: e93f 223e 9869 2b3e ed1a 163e 3db9 043e
00000140: 9dec b33d ae6b 1b3e 54f6 e13d 7307 df3d
00000150: 4afd 713d da1f 773d 4477 77bd 5974 093e
00000160: 897a c7bc 3d25 213d add5 2cbb dc4a 1a3e
00000170: fe3c 843d 9ec2 bf3c c9b8 6d3e 79e0 fa3d
00000180: f448 ef3c bae1 1fbd 708f acbc 03e7 803d
00000190: fd40 8e3b f876 2c3e 03f2 e43c a1fe a83d
000001a0: 01b3 d83c 0097 51bc 45fe 0cbe e22f 093e
000001b0: 99dd 61bd 130f a1bd 042a 593d e400 8dbd
000001c0: bf51 333e 20ce 5bbd 3118 003e 1f09 e03d
000001d0: e7a6 b93d 5177 d63d 5bb2 20bd 7e23 b13d
000001e0: 326c c63d a695 c33c 0c33 bd3c f2be 1abd
000001f0: 9d43 a83d fd2b 3cbd c00d 2d3d 63fa 303e
00000200: 4454 083e 286a 543e 4275 b23d ced9 99bb
00000210: b526 e9bc e433 233e 8acb cc3d 5636 653d
00000220: 3629 b23c 5818 a23d ac1f cbbc e070 f33a
00000230: d690 9b3d 29ef 8a3d 46b7 46bd 72ff 913d
00000240: 20c9 353d 9091 173c 921c 1d3e 7bed 543d
00000250: bc1c 253d 68b1 1a3e 92a7 833d 9a95 a43d
00000260: 694d 53bd f1df 033e 6c5f 233d 8902 093e
00000270: 6a4b 313c 5d21 403d a748 cf3c b192 373e
00000280: 569a b73d 5efd 103d 7303 d43d 3e65 b63c
00000290: 97cb 213e 76a7 38bb 82f1 463d 3d33 1cbd
000002a0: 40aa 2f3d f489 a63c 925d 193e b52c 7f3d
000002b0: f6d1 1e3e 2da8 b43d 3257 8dbc eeee 76bd
000002c0: 3cdf 8f3d db71 c6bc 2778 243d f3a2 dd3d
000002d0: 199e 003e 64ac ba3d caf1 003c 9a87 fb3d
000002e0: c133 173e bf6f 363e 8d1d 7d3d 6c41 163e
000002f0: da63 953d 0750 253d 68e6 5d3d a716 b43d
00000300: 5392 89bb 9b4b f73d 3b61 b23d cfb6 213e
00000310: 74a4 aebd c995 0c3e 5ef2 2d3e ce08 8bbc
00000320: e828 17bb da4a 0bbd 081d 903d f5b8 85bd
00000330: 1270 543d c7f5 97bb f13d ac3d 477d 9bbd
00000340: 4cd4 5a3e c990 a73d 3297 97bc f43b 0b3d
00000350: 1bb2 a83d ccbf 823d 895c 71bd 689b 3b3c
00000360: 820c 1a3e e122 f0bc 3a08 bc3c 9f5a 4dbd
00000370: 2732 b1bb 0c33 f6bb 22a8 33bc b4fc 603e
00000380: d5ab 7abe f3cb 09bd cb38 3dbe 9bdf 27be
00000390: 31a7 a5bd f6ee 19be 975a 173e 9b24 553e
000003a0: 1e8a d8be 1367 50be fb5a 91be 0b40 90be
000003b0: 5aa4 a8be 82bc 8cbe 8d14 433e 18c0 81be
000003c0: 4308 9b3d 95ca 12be 22f6 0bbd 3844 413e
000003d0: 113e 2e3e 8763 3abe ba27 a6be f1de 5abd
000003e0: 57db 753e 0a51 5bbd bf57 423d 42d0 50be
000003f0: 8e3e 2dbe 1bc6 263e fef3 b3be aefd 5a3d

encoder.layers.2.bias f4 [32]
0.15033479 0.31301862 -0.12643376 -0.09264366 -0.12558106 -0.18848425 0.016076965 0.4085944
-0.06599204 -0.14931819 0.26626822 0.34915677 0.04608006 -0.038741484 0.40873522 0.026807303
0.18239784 -0.11715494 -0.14645164 -0.012760929 0.028007576 -0.07916388 -0.045370642 0.2127818
0.16103837 -0.25418183 0.22728445 -0.094197765 -0.016204674 -0.05292886 0.2874524 0.33112413
00000000: 5df1 193e fa43 a03e da77 01be f6bb bdbd
00000010: 5298 00be 0402 41be d7b3 833c 4933 d13e
00000020: d626 87bd dee6 18be 4f54 883e adc4 b23e
00000030: 72be 3c3d 64af 1ebd be45 d13e fd9a db3c
00000040: 80c6 3a3e eeee efbd 6bf7 15be 3713 51bc
00000050: 2570 e53c ac20 a2bd 91d6 39bd 79e3 593e
00000060: 3ee7 243e 1f24 82be 41bd 683e c2ea c0bd
00000070: aabf 84bc efcb 58bd f62c 933e 1a89 a93e

encoder.layers.4.weight f4 [12, 32]
0.2800103 0.35529518 -0.2311128 -0.1985324 -0.16459526 -0.10419503 -0.21027018 0.24067494
-0.11516902 -0.16567391 0.49798265 -0.031165693 -0.0675486 -0.088501535 0.33650127 0.07664618
0.13233382 -0.22925934 0.059201498 -0.16703223 -0.13154978 0.0028096943 0.04482266 0.088382915
-0.13051623 -0.17164922 0.3019508 0.005331787 -0.16644025 -0.17670281 0.2944299 0.48517185
-0.10195905 0.13264939 0.10656188 0.03077381 -0.1381486 0.010035059 -0.05686218 0.14004424
-0.09557995 0.03020806 0.22007313 0.012435833 -0.1404342 0.015285593 0.12590852 0.09285431
0.046261787 -0.15592273 -0.11081928 -0.09031438 0.14565386 -0.018501567 -0.091252 0.019815372
0.053713188 -0.109569244 -0.11244776 -0.08474994 0.018214043 0.07642318 0.10011904 0.15474613
-0.13815905 -0.11007234 -0.010968191 0.022991912 0.08269857 -0.039238013 -0.05073915 -0.21528617
0.049884994 0.061781805 -0.08898855 -0.13512811 -0.022919402 0.008530539 -0.097859524 -0.022843929
-0.10663985 -0.003431636 -0.07608767 -0.13379839 -0.016707042 0.043281022 -0.044568352 -0.12537028
-0.06613686 -0.0047925864 -0.16051075 0.022926256 -0.14231436 -0.012779508 -0.2260874 -0.18821803
0.054123327 0.085328296 0.054057233 -0.030865902 -0.1082376 -0.06835507 -0.08589159 0.052559976
-0.16387513 -0.06293123 0.10458116 -0.1671302 -0.089267835 -0.047247633 -0.04475259 -0.10935644
-0.044135872 -0.11578927 -0.09869847 0.07949749 0.12660304 -0.007274209 0.0385527 -0.117231146
-0.14326853 -0.12818544 -0.14012337 0.074705325 -0.10276739 -0.07302431 -0.09578517 0.0047743954
-0.29218656 -0.5641443 0.27535468 -0.033639804 0.12820417 0.23936222 -0.017514832 -0.4301692
-0.047595527 0.22873005 -0.38700053 -0.18886599 0.049397632 0.10227064 -0.39553353 0.17764162
-0.362422 0.2206145 0.24133258 0.081800275 0.15040068 0.17266193 0.15484825 -0.323241
-0.027119469 0.27028352 -0.3052928 0.10562794 0.18257047 0.10505472 -0.41087624 -0.4821209
0.10438293 0.15406118 -0.040936705 -0.065789655 -0.060244475 0.13080764 0.1753224 0.015533947
0.041093323 0.03380202 0.1712749 0.17027353 -0.06052494 0.03365844 0.24397905 0.029461894
0.11769086 0.040594257 0.11962157 0.08018073 -0.009561664 -0.026563505 0.1095431 0.059841268
0.06584471 0.07150596 0.03233004 0.02860088 0.14844464 -0.019017002 0.24259016 0.0825113
-0.024253001 -0.021233747 -0.05897777 -0.20987338 0.006379828 0.08555426 -0.098692 -0.0782271
-0.028189512 0.09722186 0.074144624 -0.32589158 -0.058810823 -0.06447157 -0.17549418 -0.051043782
-0.11615742 -0.020090068 0.06368389 0.053950924 0.019804597 0.05326798 -0.14580168 -0.29214245
-0.23369908 -0.028129864 -0.06452895 0.023152346 -0.10018149 -0.07264587 -0.22070724 0.0017076087
-0.07517895 -0.08767685 -0.060405515 -0.114369296 0.09097859 -0.03784113 -0.01649671 -0.12797661
-0.038065936 0.049266327 0.015832566 -0.14540981 -0.097142 -0.032859843 -0.11641534 -0.14355342
-0.077366725 0.018284315 0.092212826 0.02649495 0.015822696 -0.044224452 -0.034543145 0.030306753
-0.14289758 -0.059654213 -0.003003663 -0.06515829 0.095548205 -0.06551965 -0.14205411 0.003814001
00000000: 835d 8f3e 40e9 b53e d5a8 6cbe 144c 4bbe
00000010: a98b 28be 3464 d5bd 1151 57be 7e73 763e
00000020: bcdd ebbd 6ca6 29be 95f7 fe3e 324f ffbc
00000030: ec56 8abd 4b40 b5bd e549 ac3e acf8 9c3d
00000040: 8482 073e f6c2 6abe 457d 723d 7f0a 2bbe
00000050: fcb4 06be d922 383b f797 373d 1a02 b53d
00000060: 0ca6 05be d0c4 2fbe 4c99 9a3e 45b6 ae3b
00000070: 506f 2abe 95f1 34be 84bf 963e 7268 f83e
00000080: e8cf d0bd 3ed5 073e 1d3d da3d 5b19 fc3c
00000090: d476 0dbe 176a 243c 51e8 68bd c267 0f3e
000000a0: 6cbf c3bd e576 f73c da5a 613e aabf 4b3c
000000b0: fccd 0fbe 6d70 7a3c 2aee 003e 672a be3d
000000c0: 007d 3d3d 35aa 1fbe 38f5 e2bd bff6 b8bd
000000d0: 4926 153e 9990 97bc 54e2 babd d953 a23c
000000e0: 5c02 5c3d d765 e0bd 034b e6bd 6091 adbd
000000f0: 9e35 953c c283 9c3d 360b cd3d c575 1e3e
00000100: 9179 0dbe 9b6d e1bd edb3 33bc 8959 bc3c
00000110: de5d a93d 0ab8 20bd dbd3 4fbd fa73 5cbe
00000120: 3554 4c3d eb0e 7d3d a13f b6bd 065f 0abe
00000130: 78c1 bbbc adc3 0b3c 936a c8bd 3123 bbbc
00000140: fe65 dabd 4ce5 60bb dad3 9bbd 7202 09be
00000150: 35dd 88bc 7147 313d 4e8d 36bd 1161 00be
00000160: c372 87bd 210b 9dbb ee5c 24be d8cf bb3c
00000170: dbba 11be 2461 51bc 7583 67be 3abc 40be
00000180: 6cb0 5d3d 9ac0 ae3d 1e6b 5d3d 7dda fcbc
00000190: adab ddbd befd 8bbd eee7 afbd 2149 573d
000001a0: e2ce 27be 17e2 80bd a62e d63d 2e24 2bbe
000001b0: 0ed2 b6bd bc86 41bd 7e4e 37bd 45f6 dfbd
000001c0: d1c7 34bd ed22 edbd 6c22 cabd 94cf a23d
000001d0: 3aa4 013e 7d5c eebb 70e9 1d3d e216 f0bd
000001e0: fcb4 12be 0b43 03be 807c 0fbe 1bff 983d
000001f0: b677 d2bd c58d 95bd 042b c4bd 8872 9c3b
00000200: 7a99 95be c36b 10bf 4afb 8c3e e4c9 09bd
00000210: f447 033e 5f1b 753e 447b 8fbc 233f dcbe
00000220: 87f3 42bd 3638 6a3e ef24 c6be 1666 41be
00000230: 2c55 4a3d 4573 d13d 5f83 cabe afe7 353e
00000240: 608f b9be c4e8 613e e31f 773e e786 a73d
00000250: a302 1a3e 4ace 303e 8a90 1e3e d87f a5be
00000260: a629 debc 9a62 8a3e 564f 9cbe 7653 d83d
00000270: c1f3 3a3e ee26 d73d 5f5e d2be 8dd8 f6be
00000280: b8c6 d53d 37c2 1d3e 3fad 27bd babc 86bd
00000290: e9c2 76bd 70f2 053e b787 333e 1982 7e3c
000002a0: 7951 283d fd73 0a3d b062 2f3e 2f5c 2e3e
000002b0: 00e9 77bd 6fdd 093d a5d5 793e 125a f13c
000002c0: e807 f13d 2a46 263d 27fc f43d cb35 a43d
000002d0: 87a8 1cbc b59b d9bc 2258 e03d 1e1c 753d
000002e0: 97d9 863d b771 923d 816c 043d 654c ea3c
000002f0: df01 183e 8bc9 9bbc 8e69 783e affb a83d
00000300: 3bae c6bc 65f2 adbc ad92 71bd 0ce9 56be
00000310: e00d d13b 1237 af3d 081f cabd 8835 a0bd
00000320: b1ed e6bc 411c c73d 23d9 973d 43db a6be
00000330: 9ee3 70bd ac09 84bd bfb4 33be 4913 51bd
00000340: f1e3 edbd ed93 a4bc b36c 823d a5fb 5c3d
00000350: 403d a23c 872f 5a3d 094d 15be b293 95be
00000360: d04e 6fbe 9a70 e6bc c127 84bd fda9 bd3c
00000370: f42b cdbd 5cc7 94bd 1401 62be d7d1 df3a
00000380: 6cf7 99bd ec8f b3bd c66b 77bd 733a eabd
00000390: fc52 ba3d 4dff 1abd 1c24 87bc 4d0c 03be
000003a0: 07eb 1bbd 7dcb 493d 4cb3 813c 4fe6 14be
000003b0: 63f2 c6bd 0b98 06bd 2a6b eebd abff 12be
000003c0: 7272 9ebd fdc8 953c 14da bc3d f00b d93c
000003d0: 999e 813c b324 35bd 1d7d 0dbd de45 f83c
000003e0: be53 12be fa57 74bd 1ad9 44bb b671 85bd
000003f0: c7ae c33d 2b2f 86bd a276 11be 52f4 793b

encoder.layers.4.bias f4 [12]
0.21434328 0.14707394 -0.016253749 -0.15136345 -0.30171221 0.20998895 -0.18528873 -0.13620745
0.013181084 0.08683037 -0.30589113 -0.10150228
00000000: ce7c 5b3e 8d9a 163e 9526 85bc 05ff 1abe
00000010: 067a 9abe 5807 573e 54bc 3dbe f779 0bbe
00000020: 79f5 573c 1fd4 b13d c39d 9cbe 6de0 cfbd

decoder.layers.0.weight f4 [32, 18]
0.33330554 -0.09317926 0.09911465 -0.12898482 -0.18866411 0.016290933 -0.16170508 -0.040354315
-0.20260893 0.02648009 0.37234974 0.19608742 -0.29735053 -0.103405215 0.035220366 -0.03420712
0.17351496 -0.060427334 -0.014144584 -0.09920877 -0.081526406 -0.072049476 0.10263872 0.01398656
0.042145967 0.16237122 0.1624003 -0.08139494 0.22416615 -0.029888678 0.33434704 -0.10972428
0.14963385 -0.13231236 0.053023823 -0.15573469 -0.03532581 -0.065339394 -0.06420159 0.08660872
0.121946536 0.17787635 -0.13847473 0.0032298074 -0.41098726 -0.12629849 0.14119188 -0.17808378
-0.07175809 0.015799966 0.10612743 -0.10634648 -0.09919923 0.039473854 -0.13610755 -0.0155773405
0.04948594 0.037967645 0.22843638 0.02891611 0.3853981 0.1303437 -0.016363887 0.362732
0.05188643 -0.13363563 0.049519714 0.09521862 0.011583969 0.101443216 0.057077833 0.315721
-0.07120377 0.1053887 -0.01342824 0.21967998 -0.29182965 0.16393334 -0.022922287 -0.0762425
0.046512324 -0.09850809 -0.34636757 -0.14940234 -0.10618551 0.19034873 -0.22502999 0.2116828
0.021377197 -0.2017449 -0.12074196 -0.09281516 0.0689673 -0.12784833 -0.011355751 -0.057933766
0.33599618 0.050354544 -0.024109097 -0.31544775 -0.09346009 0.123010695 0.058124043 -0.19066842
-0.07543898 -0.20133051 -0.17760985 -0.001904305 0.06079632 -0.09117469 -0.13934231 0.05931506
-0.10634008 -0.054659493 -0.01740867 -0.10514551 -0.34478799 0.09328209 0.07588551 -0.12942465
0.059167597 -0.04110102 0.12610565 -0.23383035 0.07539362 0.215211 0.2590171 0.010163516
0.10257302 0.122090206 -0.1599923 0.07994188 0.20035478 0.11377176 0.09351758 0.23659219
0.078458466 -0.026655149 0.08612098 -0.14195341 0.12419952 -0.05549663 -0.14171651 0.24250111
-0.18981798 -0.10451935 -0.0014786548 0.031465705 0.27228904 -0.0069964724 0.21806605 -0.17374563
0.0026933404 -0.33889183 0.164068 -0.0026787014 0.028613469 0.23234221 -0.1899946 -0.14644468
0.16186677 0.2690574 -0.16989583 0.066646256 0.19325387 -0.2552324 0.24043931 -0.13737142
-0.061948575 -0.05862719 0.30489045 -0.0005583083 -0.15432973 -0.21768145 -0.12413175 0.23651461
0.2728704 0.27101165 0.18662423 0.06320392 0.026097242 0.00958162 0.24269165 -0.22897896
-0.34365124 0.15098107 -0.06460934 0.25694048 -0.042882632 0.13202105 0.07980335 0.17004097
0.334953 0.16236009 0.18397014 -0.059783548 0.112391554 0.34738138 0.07277727 0.08180279
-0.24390845 -0.19648583 -0.187117 -0.1796779 -0.2805267 0.14402802 -0.12583323 -0.02413559
0.26184246 -0.17283145 0.07211535 0.08519671 -0.22082223 0.101769 -0.04349696 0.13293754
-0.20982222 -0.0071669356 -0.13363075 -0.13850513 0.14547724 0.010001914 -0.07127589 0.1329929
-0.2137956 0.28011814 -0.07331468 0.18466629 -0.06894628 -0.093418755 -0.03105757 0.013252447
-0.14381789 0.019039977 0.30873424 -0.060339484 -0.18071963 0.0465208 -0.3245562 -0.13751513
0.22353303 -0.21005125 0.110683 -0.09233924 -0.18741791 0.13087781 -0.03934174 0.062293448
-0.031482782 0.16595517 -0.10752425 0.15996748 0.18930423 -0.061997164 0.17765771 -0.10704532
00000000: 06a7 aa3e c5d4 bebd 9ffc ca3d 9914 04be
00000010: 2a31 41be 9074 853c 0496 25be 914a 25bd
00000020: b778 4fbe c6ec d83c a0a4 be3e 24cb 483e
00000030: 543e 98be 1dc6 d3bd 3b43 103d c41c 0cbd
00000040: e8ad 313e a782 77bd afbe 67bc f82d cbbd
00000050: 51f7 a6bd ad8e 93bd 4034 d23d e227 653c
00000060: 40a1 2c3d a444 263e 444c 263e 64b2 a6bd
00000070: d08b 653e 1ad9 f4bc 892f ab3e 20b7 e0bd
00000080: 9e39 193e e47c 07be 822f 593d ea78 1fbe
00000090: ccb1 10bd a9d0 85bd 207c 83bd ea5f b13d
000000a0: 1bbf f93d 3825 363e 52cc 0dbe 2dab 533b
000000b0: ec6c d2be 6454 01be 9b94 103e 985b 36be
000000c0: e8f5 92bd ee6e 813c 5759 d93d 2fcc d9bd
000000d0: f728 cbbd 56af 213d c75f 0bbe 1a38 7fbc
000000e0: c5b1 4a3d f683 1b3d 3aeb 693e 7ae1 ec3c
000000f0: e652 c53e d278 053e 8f0d 86bc 02b8 b93e
00000100: dd86 543d c7d7 08be 2fd5 4a3d fb01 c33d
00000110: b0ca 3d3c 76c1 cf3d 72ca 693d 2fa6 a13e
00000120: 48d3 91bd 08d6 d73d 1f02 5cbc caf3 603e
00000130: b26a 95be 24de 273e 85c7 bbbc 0725 9cbd
00000140: b583 3e3d 9cbe c9bd 1757 b1be edfc 18be
00000150: ca77 d9bd c7ea 423e 436e 66be 60c3 583e
00000160: 3b1f af3c 3796 4ebe 9047 f7bd e015 bebd
00000170: ba3e 8d3d acea 02be 790d 3abc f54b 6dbd
00000180: b107 ac3e 9140 4e3d 7180 c5bc 5e82 a1be
00000190: 0168 bfbd 08ed fb3d 7a13 6e3d 953e 43be
000001a0: c07f 9abd 9629 4ebe 5bdf 35be df99 f9ba
000001b0: 9005 793d ccb9 babd c0af 0ebe 59f4 723d
000001c0: d4c8 d9bd a2e2 5fbd a19c 8ebc 8756 d7bd
000001d0: 0d88 b0be ae0a bf3d dd69 9b3d e587 04be
000001e0: b959 723d 8b59 28bd d721 013e 3971 6fbe
000001f0: f867 9a3d 4660 5c3e e49d 843e e084 263c
00000200: ce11 d23d 6e0a fa3d 06d5 23be 92b8 a33d
00000210: ce29 4d3e 2b01 e93d 2586 bf3d 3945 723e
00000220: d5ae a03d e65b dabc 3260 b03d 3c5c 11be
00000230: 515c fe3d 6f50 63bd 221e 11be 3652 783e
00000240: a55f 42be 3e0e d6bd 6ccf c1ba 2fe2 003d
00000250: 7869 8b3e aa42 e5bb b54c 5f3e 60ea 31be
00000260: c182 303b 3b83 adbe 7101 283e 278d 2fbb
00000270: cb66 ea3c 1eeb 6d3e f28d 42be 98f5 15be
00000280: 67c0 253e e4c1 893e 2cf9 2dbe d57d 883d
00000290: 58e4 453e d2ad 82be b935 763e 18ab 0cbe
000002a0: cabd 7dbd 1023 70bd 9a1a 9c3e 705b 12ba
000002b0: 9d08 1ebe e3e7 5ebe c938 febd e330 723e
000002c0: abb5 8b3e 0ac2 8a3e 6c1a 3f3e 0f71 813d
000002d0: e2c9 d53c 3afc 1c3c 2984 783e 7679 6abe
000002e0: 0ef3 afbe c89a 1a3e e751 84bd b48d 833e
000002f0: b3a5 2fbd 8730 073e f06f a33d 381f 2e3e
00000300: f67e ab3e b941 263e ab62 3c3e 98df 74bd
00000310: 8b2d e63d f9db b13e 400c 953d 3988 a73d
00000320: 23c3 79be 9533 49be 999b 3fbe 7cfd 37be
00000330: 32a1 8fbe 157c 133e 6dda 00be 00b8 c5bc
00000340: 3710 863e bafa 30be 36b1 933d 9d7b ae3d
00000350: 391f 62be 446c d03d de29 32bd c720 083e
00000360: a3db 56be 9dd8 eabb 80d6 08be 4ad4 0dbe
00000370: fcf7 143e 11df 233c 18f9 91bd 4a2f 083e
00000380: 3ced 5abe a56b 8f3e 0226 96bd 2919 3d3e
00000390: b533 8dbd 5552 bfbd 726c febc cb20 593c
000003a0: ff44 13be baf9 9b3c 6a12 9e3e 8926 77bd
000003b0: 910e 39be 988c 3e3d 3b2c a6be c4d0 0cbe
000003c0: d8e5 643e ad17 57be c5ad e23d 5b1c bdbd
000003d0: 7bea 3fbe d504 063e ce24 21bd 6a27 7f3d
000003e0: 17f4 00bd 27f0 293e ad35 dcbd 84ce 233e
000003f0: f8d8 413e bdf0 7dbd e7eb 353e 943a dbbd

decoder.layers.0.bias f4 [32]
0.20987305 0.32121804 0.085838325 -0.047599953 0.3200145 -0.16775022 0.08445335 -0.07355572
0.055943377 -0.010442817 0.16921765 0.15436505 0.19849722 0.3604645 0.28615627 -0.039603334
0.08008335 0.15079871 -0.26921046 0.35180435 0.18038216 0.017391706 0.2450219 -0.0971758
0.3270879 0.3489945 0.3972766 0.19705042 0.20904529 -0.00093018345 -0.15216298 0.06958048
00000000: f6e8 563e b176 a43e 01cc af3d 2bf8 42bd
00000010: f1d8 a33e b7c6 2bbe e1f5 ac3d 62a4 96bd
00000020: e224 653d 5918 2bbc 6447 2d3e df11 1e3e
00000030: db42 4b3e ce8e b83e 1383 923e 1b37 22bd
00000040: bd02 a43d fa6a 1a3e f4d5 89be b31f b43e
00000050: 1ab6 383e 0d79 8e3c 05e7 7a3e 1b04 c7bd
00000060: 1178 a73e 68af b23e d767 cb3e 96c7 493e
00000070: f80f 563e 8ed7 73ba 9dd0 1bbe 3680 8e3d

decoder.layers.2.weight f4 [32, 32]
0.23655996 0.036041524 0.05144939 -0.21724656 0.1391013 0.048732653 0.021089358 0.08767556
-0.1944261 -0.07169099 0.10098035 0.11079331 -0.14243907 0.16228572 0.16703358 -0.009069585
-0.04279887 -0.07701165 -0.12494856 0.15303425 0.10135101 -0.0041671703 0.16051863 0.04680348
0.1698248 -0.12986344 0.06438585 0.10686429 0.19842605 0.14531986 -0.055596817 0.09674198
0.14942527 -0.11100092 -0.072506614 -0.13157366 0.10997304 -0.07336839 0.12427644 0.087474704
-0.026719213 -0.048853938 -0.012502239 0.08547796 -0.19057843 0.2763743 0.3260792 -0.17273866
-0.02429853 -0.1537318 -0.024897011 0.097839646 0.088976495 -0.07985038 0.112237014 -0.0029246388
0.34484148 0.117055714 0.09453588 0.101169735 0.13758844 0.18366486 -0.16835317 0.09969038
0.17435123 0.19418685 -0.028618263 -0.13370575 0.20670122 -0.122989066 0.035157412 0.09170084
0.021568017 0.18108094 0.2785144 0.28050816 -0.016122881 0.24024966 0.11978189 -0.112550706
0.15803753 0.25290966 -0.115339704 0.08376854 0.02747262 0.22177067 0.2634126 -0.03068292
0.10175952 -0.03094795 0.27506846 0.03444905 0.13715826 -0.0018767118 -0.08492839 -0.05115036
0.05968647 -0.20467262 -0.110655114 0.17147797 0.14811821 0.072865486 -0.017752234 0.114388876
0.13126805 0.08368282 0.14255005 0.040342227 0.0139904795 0.109565236 0.04728222 -0.09989179
-0.14156139 0.3156712 -0.06797912 -0.15058097 0.021838522 -0.09393885 0.11617856 0.04175374
0.20547198 0.19061176 0.040944956 0.22675179 -0.10338692 0.08323174 0.13157302 -0.022398049
0.10945834 -0.10596246 0.2198443 0.05794677 -0.1030388 0.012077435 0.052973185 0.07598836
0.13284962 -0.06382566 0.19066371 0.17698061 0.14752564 0.13585503 -0.005500813 0.06924139
-0.12711823 0.18768336 0.014198225 -0.081217006 -0.1254384 0.16435675 -0.06065533 -0.054685038
0.12946992 0.27630517 0.1427268 0.28224397 -0.2580708 0.115657516 0.10018657 -0.14068463
0.2519852 0.17044139 0.076905176 -0.026227413 0.19565152 -0.018589837 -0.034807477 0.077877015
-0.13831258 0.014465545 0.06561937 0.083595574 0.0386647 0.06526752 0.24740289 -0.1584607
0.065594144 -0.027768865 -0.066556245 -0.0004964413 0.1439058 0.17685373 0.104448706 0.13238885
0.08886673 0.06329014 0.21094926 -0.02426457 0.029209195 -0.04476949 0.07563456 0.0362419
0.09671771 0.13073024 -0.02257763 0.09565504 0.0031507711 0.045648534 -0.050050836 -0.08120442
0.03348568 0.08106093 -0.013603526 0.17010315 0.26032457 -0.15284638 0.025743889 0.22759871
0.10132205 0.1383058 0.10091994 -0.01579031 0.23299533 0.06258799 0.08827555 0.11789031
-0.16692294 0.15263346 -0.09018574 0.04557079 -0.053690396 -0.09747134 0.06082475 0.18268797
0.06869688 0.080192715 0.0013251763 0.17444693 -0.15831189 -0.050111625 0.15996364 0.020946879
0.026012305 0.14431633 0.0006992888 0.06530717 0.026409978 0.059437666 0.0016166004 0.029702876
-0.0601242 0.22360879 0.08336108 0.07679095 -0.21854863 0.04286206 -0.07433785 0.0240734
0.10426791 0.27494115 -0.059106905 0.14636722 -0.13868776 0.15473498 -0.12433483 -0.120692074
00000000: c63c 723e 47a0 133d 98bc 523d e275 5ebe
00000010: 9270 0e3e e49b 473d 97c3 ac3c 3e8f b33d
00000020: a317 47be bad2 92bd c9ce ce3d 9ae7 e23d
00000030: 8cdb 11be 3a2e 263e da0a 2b3e 9998 14bc
00000040: de4d 2fbd 49b8 9dbd 08e5 ffbd 03b5 1c3e
00000050: 1e91 cf3d c28c 88bb ff5e 243e 01b5 3f3d
00000060: 8de6 2d3e ecfa 04be bbdc 833d aadb da3d
00000070: 3330 4b3e bbce 143e 7db9 63bd a920 c63d
00000080: f002 193e 7354 e3bd 597e 94bd 3fbb 06be
00000090: 8c39 e13d 2b42 96bd a584 fe3d f025 b33d
000000a0: 40e2 dabc 111b 48bd 31d6 4cbc 120f af3d
000000b0: fe26 43be ef80 8d3e daf3 a63e 67e2 30be
000000c0: b60d c7bc de6b 1dbe d1f4 cbbc 2760 c83d
000000d0: 4f39 b63d 9988 a3bd 85dc e53d 4cab 3fbb
000000e0: 108f b03e e8ba ef3d 079c c13d 1432 cf3d
000000f0: fce3 0c3e a412 3c3e c664 2cbe 782a cc3d
00000100: 2189 323e ebd8 463e d970 eabc 29ea 08be
00000110: 7ca9 533e b1e1 fbbd 3801 103d a6cd bb3d
00000120: 69af b03c 486d 393e 7099 8e3e c49e 8f3e
00000130: 2214 84bc 0204 763e 3550 f53d fc80 e6bd
00000140: 97d4 213e 607d 813e 3937 ecbd d78e ab3d
00000150: 430e e13c da17 633e 04de 863e bf5a fbbc
00000160: 4c67 d03d 8e86 fdbc c6d5 8c3e 721a 0d3d
00000170: 3773 0c3e 00fc f5ba f0ee adbd 0a83 51bd
00000180: cd79 743d b395 51be 269f e2bd ec97 2f3e
00000190: 4dac 173e 803a 953d 226d 91bc b744 ea3d
000001a0: 226b 063e e661 ab3d a4f8 113e e43d 253d
000001b0: 5338 653c bd63 e03d 00ab 413d 1194 ccbd
000001c0: 78f5 10be a89f a13e a338 8bbd e631 1abe
000001d0: b3e6 b23c 0363 c0bd 06ef ed3d f805 2b3d
000001e0: 3f67 523e bb2f 433e e6b5 273d 9f31 683e
000001f0: 86bc d3bd 6775 aa3d 14bb 063e 1d7c b7bc
00000200: b22b e03d d902 d9bd dd1e 613e 9859 6d3d
00000210: 0206 d3bd 6fe0 453c 69fa 583d c99f 9b3d
00000220: bb09 083e 07b7 82bd 593d 433e 683a 353e
00000230: f610 173e 951d 0b3e 2a40 b4bb 6ece 8d3d
00000240: 482b 02be 1130 403e ac9f 683c 1a55 a6bd
00000250: ed72 00be 234d 283e b971 78bd 6bfd 5fbd
00000260: c393 043e df77 8d3e f926 123e 4882 903e
00000270: db21 84be d9dd ec3d 9e2e cd3d a20f 10be
00000280: 3404 813e 3088 2e3e 7680 9d3d dfda d6bc
00000290: df58 483e b749 98bc 4992 0ebd fc7d 9f3d
000002a0: d0a1 0dbe e500 6d3c 7363 863d 2834 ab3d
000002b0: e05e 1e3d faaa 853d 2f57 7d3e 8643 22be
000002c0: 3956 863d 887b e3bc a44e 88bd 9d23 02ba
000002d0: 0b5c 133e 2519 353e 34e9 d53d f190 073e
000002e0: c3ff b53d 439e 813d 1503 583e 7ec6 c6bc
000002f0: 1f48 ef3c 3660 37bd 4be6 9a3d 6372 143d
00000300: ef13 c63d 26de 053e b9f4 b8bc cae6 c33d
00000310: 2b7d 4e3b f5f9 3a3d 1b02 4dbd 814e a6bd
00000320: 4828 093d 4603 a63d 53e1 5ebc 852f 2e3e
00000330: 4349 853e c383 1cbe d9e4 d23c a30f 693e
00000340: ef81 cf3d 09a0 0d3e 1daf ce3d ae5a 81bc
00000350: 5496 6e3e 222e 803d d0c9 b43d 7a70 f13d
00000360: d9ed 2abe f24b 1c3e 4db3 b8bd 70a8 3a3d
00000370: 76ea 5bbd 0e9f c7bd 6023 793d 8e12 3b3e
00000380: f3b0 8c3d 143c a43d 8ab1 ad3a 37a2 323e
00000390: 831c 22be d941 4dbd 82cd 233e ca98 ab3c
000003a0: c217 d53c a9c7 133e 7a50 373a c4bf 853d
000003b0: bd59 d83c e974 733d 1ce4 d33a 7253 f33c
000003c0: cb44 76bd b4f9 643e 37b9 aa3d 9344 9d3d
000003d0: 36cb 5fbe 2190 2f3d 713e 98bd 9435 c53c
000003e0: 6a8a d53d 16c5 8c3e 151a 72bd 4ae1 153e
000003f0: 2a04 0ebe d972 1e3e 42a3 febd 682d f7bd

decoder.layers.2.bias f4 [32]
0.3541342 0.23104611 0.14827022 -0.019148903 -0.096077695 0.21654303 0.046664435 0.015953561
0.038230542 0.073618345 0.24018541 0.2924687 0.29586494 0.09691805 -0.021789325 -0.076892525
-0.02103064 0.10949848 -0.03623983 0.24432987 0.09666465 0.019132327 0.28773332 0.057725675
0.049388755 0.08809418 -0.13634765 -0.14678383 -0.11470852 0.25247893 -0.0750577 -0.13791044
00000000: 1451 b53e 5a97 6c3e 26d4 173e 29de 9cbc
00000010: 62c4 c4bd 75bd 5d3e 3523 3f3d 0bb1 823c
00000020: a197 1c3d 37c5 963d 2af3 753e 75be 953e
00000030: 9c7b 973e f87c c63d 877f b2bc d479 9dbd
00000040: 7348 acbc bd40 e03d 3770 14bd 9c31 7a3e
00000050: 1ef8 c53d 66bb 9c3c c851 933e c271 6c3d
00000060: dd4b 4a3d b96a b43d b89e 0bbe 804e 16be
00000070: 4dec eabd eb44 813e dab7 99bd 6538 0dbe

decoder.layers.4.weight f4 [24, 32]
-0.008538958 0.13059127 0.039917745 -0.13424729 0.026961423 0.029921707 -0.06831972 -0.026106799
0.06188639 -0.05589748 0.072291374 -0.0127944825 -0.051640313 -0.007355108 0.009420708 0.09790385
-0.015849771 0.08920201 0.044958837 -0.06103484 -0.06799917 0.025565222 0.007008723 -0.001583218
0.07292454 0.053543895 -0.043322615 -0.11826604 0.015528061 -0.03620545 -0.023900434 -0.051252585
-0.01214304 -0.062314082 0.07763356 0.116763756 -0.07819407 0.032388505 -0.092398 0.07957441
0.04652716 0.0042522606 -0.1264943 -0.052324057 0.08465711 0.032627616 -0.022908323 0.013555595
0.09944103 -0.061973743 0.006650752 0.10353809 0.014573254 -0.03181969 0.09114035 -0.080813274
-0.0077735763 -0.031024905 0.041451853 0.0028191176 -0.012193474 -0.075616285 -0.089044265 0.026128463
0.15295349 -0.023725944 -0.0035266497 -0.0999951 0.049009822 0.089576885 -0.12321934 0.029916218
-0.06568448 0.060221963 -0.14005944 -0.11271794 0.072815835 -0.057031088 0.010618126 -0.03155428
0.028302034 0.0059393803 0.08990065 0.115833245 0.059762195 -0.04098425 -0.15106608 0.07217269
0.04291794 -0.104370475 0.037295736 0.065509595 -0.019051006 -0.11321165 0.0019161983 -0.02467596
0.05661235 -0.046241384 -0.09102911 -0.071447685 0.013045777 -0.018114887 -0.06298177 -0.027354924
-0.016454635 -0.10447645 0.11703545 0.09542635 -0.04847555 -0.057981756 0.124770775 0.061460987
-0.02571012 0.03170648 0.019666087 -0.09350195 0.059066903 0.019094512 0.071714744 -0.019056996
-0.03924245 -0.042041425 -0.0065251435 0.029317813 0.0070577604 -0.09677024 0.056252 0.07648547
0.032799892 0.093006775 0.11135553 -0.09404468 0.07313661 -0.052282438 -0.00048104825 0.002686528
0.062475447 -0.009864784 -0.022253921 0.111241795 -0.09723166 -0.016297475 -0.00810004 0.06658447
0.076880924 -0.03615149 -0.074435376 -0.0794192 -0.08263009 0.00086639257 -0.1373608 -0.009492624
0.040558565 -0.041314773 0.04489621 -0.05739285 0.036003135 0.0028119227 0.014287892 0.0011366403
0.14302485 0.027799299 -0.022604365 0.07659498 -0.059900135 -0.014405268 0.063146405 0.06196545
0.053532343 0.035264894 0.016562259 -0.110529006 -0.098893665 0.048001166 -0.014160637 0.017251767
-0.033546302 0.06359657 -0.012205632 0.00066414627 0.017330622 -0.027175074 0.058713827 -0.060636006
-0.03044954 0.00028965902 0.058652602 -0.053136643 0.025701854 0.016242746 0.006790599 0.05287696
-0.0830878 0.09086751 0.07305427 0.015953882 0.028524373 -0.13446677 0.03520574 0.14013952
-0.017619647 0.1362406 -0.0029404983 -0.14062865 0.15008616 -0.03431347 -0.13635528 0.01514815
0.08320187 0.048261218 -0.044056173 0.12901114 -0.020357653 -0.037788674 0.08136214 0.11095226
0.03629252 0.097692326 0.0400159 -0.11761301 -0.04511274 -0.031321272 -0.2053345 -0.12907465
-0.08461683 0.11065844 0.018101996 -0.05177498 -0.013900154 -0.03397511 0.056109197 0.03883332
0.08826704 0.093890235 -0.054592792 -0.09698557 -0.07055733 -0.11656742 -0.016854785 0.048637763
0.06936695 -0.142189 -0.11745128 0.001226993 0.06705955 -0.013168325 -0.0792156 0.008252442
-0.08902546 -0.12882288 0.07260489 0.0031334527 0.04227257 0.13210057 0.09305974 -0.036518063
00000000: fce6 0bbc b8b9 053e ca80 233d 1f78 09be
00000010: 34de dc3c 5e1e f53c 36eb 8bbd eddd d5bc
00000020: 957c 7d3d c2f4 64bd 800d 943d f39f 51bc
00000030: cb84 53bd 1e03 f1bb 5059 1a3c d081 c83d
00000040: 61d7 81bc 8baf b63d c226 383d abff 79bd
00000050: 2643 8bbd 286e d13c 6ea9 e53b fb83 cfba
00000060: 7659 953d d850 5b3d 0e73 31bd 7735 f2bd
00000070: 6969 7e3c 2a4c 14bd d8ca c3bc 3bee 51bd
00000080: 9af3 46bc 0d3d 7fbd 58fe 9e3d d621 ef3d
00000090: 3624 a0bd cfa9 043d 2a3b bdbd e9f7 a23d
000000a0: 4393 3e3d 8c56 8b3b b987 01be c051 56bd
000000b0: b560 ad3d 89a4 053d 3caa bbbc 4918 5e3c
000000c0: bda7 cb3d 2ed8 7dbd 8dee d93b c70b d43d
000000d0: a8c4 6e3c 5d55 02bd cba7 ba3d 6e81 a5bd
000000e0: 7cb9 febb f127 febc 6bc9 293d f2c0 383b
000000f0: 23c7 47bc b6dc 9abd d75c b6bd 5c0b d63c
00000100: d79f 1c3e e95c c2bc 5d1f 67bb 3bca ccbd
00000110: 86be 483d 1674 b73d 6c5a fcbd db12 f53c
00000120: 9685 86bd 4eab 763d be6b 0fbe aad8 e6bd
00000130: 7820 953d 6e99 69bd a6f7 2d3c 103f 01bd
00000140: abd9 e73c 229f c23b d51d b83d fb39 ed3d
00000150: 34c9 743d 1adf 27bd 11b1 1abe 46cf 933d
00000160: b9ca 2f3d 30c0 d5bd 6ac3 183d e529 863d
00000170: db10 9cbc 82db e7bd f228 fb3a 3d25 cabc
00000180: 5ae2 673d 9b67 3dbd 786d babd 2a53 92bd
00000190: f4bd 553c ac65 94bc 96fc 80bd 6f17 e0bc
000001a0: dfcb 86bc c0f7 d5bd 48b0 ef3d e46e c33d
000001b0: 4c8e 46bd 477e 6dbd d287 ff3d 84be 7b3d
000001c0: 089e d2bc a7de 013d c61a a13c f37d bfbd
000001d0: 23f0 713d 186c 9c3c 2edf 923d 6b1d 9cbc
000001e0: b1bc 20bd a133 2cbd dfd0 d5bb e92b f03c
000001f0: c944 e73b 7a2f c6bd 7f68 663d 6aa4 9c3d
00000200: 2e59 063d 567a be3d 5e0e e43d 7f9a c0bd
00000210: a6c8 953d 1c26 56bd 3435 fcb9 7610 303b
00000220: 41e6 7f3d e79f 21bc db4d b6bc bdd2 e33d
00000230: 6421 c7bd 4882 85bc 08b6 04bc 705d 883d
00000240: bf73 9d3d 9613 14bd 9371 98bd 89a6 a2bd
00000250: f739 a9bd 9f1e 633a 4fa8 0cbe f386 1bbc
00000260: bd20 263d ae39 29bd 17e5 373d c414 6bbd
00000270: 0678 133d 3c48 383b c317 6a3c 52fb 943a
00000280: 1b75 123e 5bbb e33c ca2c b9bc d4dd 9c3d
00000290: d859 75bd 1304 6cbc e752 813d 7ccf 7d3d
000002a0: bb44 5b3d ec71 103d 93ad 873c 085d e2bd
000002b0: c388 cabd df9c 443d 0402 68bc 9453 8d3c
000002c0: d967 09bd eb3e 823d 22fa 47bc 1a1a 2e3a
000002d0: f3f8 8d3c 439e debc e97d 703d 765d 78bd
000002e0: 5071 f9bc 60dd 9739 b63d 703d cfa5 59bd
000002f0: b28c d23c 820f 853c ac83 de3b 8395 583d
00000300: f029 aabd bf18 ba3d 7a9d 953d b7b1 823c
00000310: f2ab e93c a8b1 09be e533 103d bc80 0f3e
00000320: 1457 90bc a882 0b3e 60b5 40bb f500 10be
00000330: 30b0 193e 488c 0cbd b8a0 0bbe f22f 783c
00000340: be65 aa3d 8ead 453d 3f74 34bd 7f1b 043e
00000350: 18c5 a6bc 4cc8 1abd 32a1 a63d f03a e33d
00000360: 77a7 143d ea12 c83d b6e7 233d 17df f0bd
00000370: 23c8 38bd bc4a 00bd 3543 52be 252c 04be
00000380: 974b adbd e4a0 e23d a34a 943c 0012 54bd
00000390: 79bd 63bc 7c29 0bbd c2d2 653d b00f 1f3d
000003a0: 5ac5 b43d 8649 c03d b19c 5fbd 5fa0 c6bd
000003b0: 5d80 90bd e6ba eebd 0c13 8abc 6438 473d
000003c0: 4210 8e3d fe99 11be 4c8a f0bd 0ed3 a03a
000003d0: 8456 893d f5bf 57bc ca3b a2bd 4035 073c
000003e0: fb52 b6bd 25ea 03be dfb1 943d 9d5a 4d3b
000003f0: 0126 2d3d 5f45 073e 1b96 be3d f793 15bd

decoder.layers.4.bias f4 [24]
-0.0482111 -0.0041777627 0.13541636 0.07466835 -0.014376634 -0.03255015 -0.07595766 0.12007497
0.18691649 0.0857019 0.025897523 -0.020614354 0.068558015 0.14831848 -0.058550887 -0.100648664
-0.08204908 -0.0917065 0.031871907 -0.22879861 0.026160758 -0.14878725 -0.043135386 -0.05590412
00000000: 0179 45bd 9de5 88bb 96aa 0a3e b8eb 983d
00000010: f98b 6bbc 4e53 05bd b18f 9bbd dee9 f53d
00000020: 0967 3f3e 7a84 af3d 0b27 d43c 6fdf a8bc
00000030: 2568 8c3d cde0 173e 0ed3 6fbd e320 cebd
00000040: 5909 a8bd 9ed0 bbbd 1e8c 023d 2f4a 6abe
00000050: 164f d63c af5b 18be bbae 30bd b8fb 64bd

prior_network.layers.0.weight f4 [32, 12]
-0.006319497 0.097805336 0.05213364 -0.053581145 0.07510614 0.16630682 -0.15174718 0.023423577
0.068004906 0.035454173 0.038740057 -0.012250954 0.10484667 -0.09283733 0.018147007 -0.050376024
-0.033730384 0.0426604 -0.008766729 0.14874072 0.17874616 0.19538541 0.21769789 -0.18808144
-0.02916876 -0.1041192 0.040292047 -0.01634942 0.013314416 -0.10661453 -0.20510526 -0.0986622
0.049103998 -0.08039561 -0.081227705 -0.039424755 0.050951 0.016111655 -0.32806453 -0.34380594
-0.02991865 0.022026611 -0.016242879 -0.06300264 0.09855155 -0.00882991 -0.029259821 -0.03684371
0.114448145 0.045313973 0.19464052 0.3594999 -0.15231363 0.0032082687 0.12083295 -0.09401517
0.13791059 0.14740407 0.09639295 -0.135474 -0.04825503 0.096315235 0.21221122 0.0029771137
0.05166887 -0.041920565 0.017630234 0.174568 0.10144786 0.07035395 0.040570743 0.019527806
0.24332488 -0.0016382934 -0.4413892 0.27432024 -0.04112436 -0.05716783 -0.084926896 -0.15296078
0.19573905 0.13157423 -0.11747713 -0.11544352 0.012396037 0.014517745 -0.1106952 -0.025887439
-0.033614725 0.024624005 -0.07351132 0.003564702 -0.077182375 0.012882171 0.014152214 0.15243684
-0.035517704 -0.14795585 -0.026251186 -0.09401044 -0.185773 -0.02369695 0.04224713 -0.00037914526
0.11521018 0.12931414 0.06264994 -0.02065421 -0.030229207 -0.13072522 0.1873258 -0.091693655
-0.10512251 0.26719233 0.12145114 0.12427127 0.18126048 -0.07871947 -0.105319865 0.06040933
0.07281232 0.08751185 -0.25436145 -0.19950107 0.09253235 -0.2686727 0.06514557 -0.053058706
-0.028532235 -0.022352163 -0.016968878 -0.11548496 -0.10282369 -0.077262536 0.13971959 -0.33595553
-0.08048653 0.17247175 0.10788195 0.031503566 0.051226567 -0.057429884 0.01607451 0.03924723
-0.13533045 0.035168495 -0.12682562 -0.0728192 0.13840435 0.11885126 -0.08886552 0.03431782
0.14896038 -0.028567316 -0.071145914 -0.05726695 -0.012733442 0.0054368535 -0.42351946 0.22945009
-0.116275005 0.15250479 -0.02771709 0.06621987 -0.053148773 -0.109858476 0.049815983 0.029571652
0.066838 -0.0058826827 0.33112675 0.4412746 0.035715077 -0.04152299 -0.038929135 0.3411219
-0.066715576 -0.059293155 -0.18605463 0.0024337862 0.15976943 -0.14870782 -0.21072567 -0.08711292
-0.0028733085 0.19362323 0.073908225 -0.10017927 0.126208 -0.30463207 0.05966938 0.05421665
0.16463818 0.039949343 0.09880482 -0.025575545 -0.06773315 -0.14533903 0.12607159 0.14732778
-0.053374756 -0.16842379 -0.0142496 -0.007306921 0.14495479 0.0042021945 -0.047175612 0.02139059
-0.12643744 0.16702749 0.09572315 -0.1409753 -0.15179278 -0.2869598 -0.03661876 -0.041334167
0.10075593 -0.017032877 0.10570656 -0.03669779 0.14263938 -0.12413621 -0.08533195 0.082623936
0.096245565 0.15339051 0.0062137423 -0.15305807 0.10757618 -0.0013852197 -0.40164787 -0.3575639
-0.053557232 0.074764684 0.018248929 0.076817535 -0.07995986 -0.24072723 0.26298422 0.008564466
0.002432349 -0.019325614 0.30339217 -0.19940567 0.062287915 0.071427114 0.114651136 -0.105635226
0.03834682 -0.089560166 0.060645163 0.012510599 0.07880403 0.030436503 -0.07449784 0.019646011
00000000: c813 cfbb 2a4e c83d 158a 553d e777 5bbd
00000010: 3fd1 993d 564c 2a3e 9d63 1bbe cde2 bf3c
00000020: 2846 8b3d 6538 113d e5ad 1e3d 3ab8 48bc
00000030: dab9 d63d 8021 bebd 08a9 943c 1757 4ebd
00000040: df28 0abd acbc 2e3d 54a2 0fbc 7d4f 183e
00000050: 3c09 373e 1d13 483e 32ec 5e3e 6c98 40be
00000060: 53f3 eebc 723c d5bd 4609 253d 38ef 85bc
00000070: b524 5a3c b858 dabd 1d07 52be 680f cabd
00000080: 4621 493d 74a6 a4bd b65a a6bd da7b 21bd
00000090: ffb1 503d 97fc 833c 13f8 a7be 5507 b0be
000000a0: f517 f5bc 2771 b43c c90f 85bc 8707 81bd
000000b0: 65d5 c93d 54ab 10bc 4bb2 efbc 6ee9 16bd
000000c0: ca63 ea3d 259b 393d d84f 473e 5f10 b83e
000000d0: 1bf8 1bbe d141 523b 4477 f73d 078b c0bd
000000e0: 6f38 0d3e 18f1 163e ab69 c53d b2b9 0abe
000000f0: 11a7 45bd ec40 c53d e64d 593e ae1b 433b
00000100: bda2 533d e6b4 2bbd 486d 903c f4c1 323e
00000110: e5c3 cf3d bb15 903d 822d 263d c7f8 9f3c
00000120: 282a 793e 01bc d6ba c4fd e1be b473 8c3e
00000130: 0472 28bd d128 6abd 27ee adbd c0a1 1cbe
00000140: d16f 483e 65bb 063e d997 f0bd a76d ecbd
00000150: bf18 4b3c d6db 6d3c 2ab4 e2bd e511 d4bc
00000160: 98af 09bd 48b8 c93c 1a8d 96bd c79d 693b
00000170: cb11 9ebd be0f 533c b0de 673c 6718 1c3e
00000180: 037b 11bd bd81 17be ba0c d7bc 8c88 c0bd
00000190: 473b 3ebe 1b20 c2bc 540b 2d3d 04c8 c6b9
000001a0: 51f3 eb3d ed6a 043e 9d4e 803d 0533 a9bc
000001b0: 3ea3 f7bc d5dc 05be 56d2 3f3e e2c9 bbbd
000001c0: 784a d7bd 6fcd 883e 60bb f83d f081 fe3d
000001d0: 599c 393e ac37 a1bd f1b1 d7bd c66f 773d
000001e0: a01e 953d 6a39 b33d aa3b 82be 024a 4cbe
000001f0: 9a81 bd3d 788f 89be 0a6b 853d 1654 59bd
00000200: 6fbc e9bc e21b b7bc 5102 8bbc 6183 ecbd
00000210: 3a95 d2bd d23b 9ebd a712 0f3e 5d02 acbe
00000220: 1fd6 a4bd 6f9c 303e 36f1 dc3d e209 013d
00000230: f3d2 513d 993b 6bbd b1ae 833c b4c1 203d
00000240: 1194 0abe d70c 103d 93de 01be 3c22 95bd
00000250: dfb9 0d3e 4a68 f33d 20ff b5bd d890 0c3d
00000260: 1289 183e 0106 eabc f3b4 91bd c090 6abd
00000270: ed9f 50bc a227 b23b 8bd7 d8be f7f4 6a3e
00000280: 9721 eebd 372a 1c3e f30e e3bc 489e 873d
00000290: 87b2 59bd 7bfd e0bd d80b 4c3d 4040 f23c
000002a0: 5de2 883d 85c3 c0bb 7289 a93e bfee e13e
000002b0: f949 123d 0314 2abd 2874 1fbd 88a7 ae3e
000002c0: 2da2 88bd 61dd 72bd 1b85 3ebe 2880 1f3b
000002d0: 999a 233e dd46 18be 78c8 57be 4268 b2bd
000002e0: 1e4e 3cbb 2b45 463e 325d 973d ca2a cdbd
000002f0: ac3c 013e bcf8 9bbe e167 743d 4712 5e3d
00000300: e996 283e eca1 233d 2e5a ca3d ce83 d1bc
00000310: aeb7 8abd c1d3 14be e918 013e 18dd 163e
00000320: 7d9f 5abd 4977 2cbe 2777 69bc e56e efbb
00000330: 076f 143e 90b2 893b 373b 41bd 523b af3c
00000340: d178 01be 4109 2b3e 800a c43d d45b 10be
00000350: 916f 1bbe 65ec 92be 8efd 15bd 044e 29bd
00000360: 2059 ce3d 8888 8bbc ae7c d83d 6c50 16bd
00000370: 0f10 123e 203b febd 84c2 aebd bd36 a93d
00000380: 651c c53d 6712 1d3e a69c cb3b 41bb 1cbe
00000390: e650 dc3d 4390 b5ba caa4 cdbe 9e12 b7be
000003a0: d45e 5bbd 3a1e 993d c77e 953c 8352 9d3d
000003b0: ffc1 a3bd 3381 76be dea5 863e f951 0c3c
000003c0: 0b68 1f3b c050 9ebc 3856 9b3e 0031 4cbe
000003d0: 9d21 7f3d 6148 923d 37ce ea3d 4857 d8bd
000003e0: 8e11 1d3d 526b b7bd 1067 783d 41f9 4c3c
000003f0: 0264 a13d f955 f93c 5392 98bd acf0 a03c

prior_network.layers.0.bias f4 [32]
0.06393434 0.23955107 0.10135588 -0.009023319 -0.14277166 -0.0968426 -0.055310402 0.43965116
0.15287742 -0.2302018 -0.06703741 -0.12520519 0.3453196 -0.020320652 -0.033522666 -0.03085994
0.17920995 0.09084018 -0.059795402 -0.04789243 0.061941016 0.16983913 0.07001804 0.31510743
0.19489937 -0.22030568 -0.13976723 -0.14194363 0.3376835 -0.06176082 -0.17327397 0.08180795
00000000: 02f0 823d e04c 753e ac93 cf3d 8bd6 13bc
00000010: bc32 12be 6a55 c6bd 298d 62bd f519 e13e
00000020: e68b 1c3e 05ba 6bbe e94a 89bd ca35 00be
00000030: bbcd b03e 7f77 a6bc 104f 09bd fccd fcbc
00000040: d082 373e 6b0a ba3d 06ec 74bd da2a 44bd
00000050: ddb5 7d3d 4fea 2d3e 9e65 8f3d c355 a13e
00000060: b393 473e d097 61be 241f 0fbe ac59 11be
00000070: dae4 ac3e eaf8 7cbd bb6e 31be ed8a a73d
