m4_ws/src/morphing_lander/learned_models/2024-05-21_16-56-45/model_100.pth (torch, 33928 bytes, 22 tensors)

cond_normalizer.mean f4 [12]
0	0xbeefd019	-0.46838453
1	0xbc0e3cb2	-0.008681463
2	0xb9e972fe	-0.000445269
3	0x3a737654	0.00092873466
4	0x3cec182e	0.028820124
5	0x3c0bc6b3	0.00853126
6	0xbbd48437	-0.006485488
7	0x3f0c51ed	0.5481251
8	0x3f0fb57b	0.5613629
9	0x3f0c7a0c	0.5487373
10	0x3f0f6b93	0.5602352
11	0x421b1a99	38.775974

cond_normalizer.variance f4 [12]
0	0x3e02f949	0.12790407
1	0x3aac716f	0.0013156364
2	0x3aac1af5	0.0013130592
3	0x3aab0ad6	0.0013049494
4	0x3d92e5a3	0.07172706
5	0x3d66c969	0.056344423
6	0x3de05fda	0.10955782
7	0x3cbabe1d	0.022795731
8	0x3cbece41	0.023291709
9	0x3cbb09ff	0.022831915
10	0x3cc16c71	0.02361128
11	0x43906860	288.81543

output_normalizer.mean f4 [12]
0	0xbb4cc7be	-0.0031246985
1	0xbae6d36d	-0.0017610617
2	0x3c688f6f	0.0141943535
3	0x3847f29a	4.7671238e-05
4	0x3b2591a0	0.0025263801
5	0x3a48cf26	0.0007660262
6	0x3c41c5be	0.011826931
7	0x3a9a765b	0.001178454
8	0x402a74cd	2.663379
9	0x3d9d829f	0.076909296
10	0x3ee6d244	0.45082295
11	0xb9928ca1	-0.00027952067

output_normalizer.variance f4 [12]
0	0x3e1b4613	0.1516345
1	0x3da93096	0.0826122
2	0x3d0e6c90	0.034771502
3	0x38e2c638	0.00010813441
4	0x3baf0fff	0.005342483
5	0x3ca73d41	0.02041495
6	0x3e8363ad	0.25661984
7	0x40070b59	2.1100676
8	0x428f5a6a	71.67659
9	0x432d5868	173.34534
10	0x40d1ae7e	6.5525503
11	0x3ec54ec0	0.38536644

encoder.layers.0.weight f4 [32, 24]
0	0x3a528a4a	0.0008031471
1	0xb9f69eae	-0.00047039002
2	0xbc1cc857	-0.009569249
3	0xbe2cdba7	-0.16880666
4	0xbe58fca4	-0.21190125
5	0x3e881c8e	0.26584285
6	0x3d5926db	0.05301557
7	0xbebcc9ea	-0.36872798
8	0xbc054dc9	-0.008136221
9	0xbe95aa57	-0.2923152
10	0x3cbf020c	0.023316406
11	0xbdea4f31	-0.11440886
12	0x3c4ef136	0.012630751
13	0x3b02c0ba	0.00199513
14	0x3cdcfbba	0.026975501
15	0x3e736c54	0.23771793
16	0xbbb6165b	-0.005556864
17	0xbc214bee	-0.009844763
18	0x3a39c545	0.00070865854
19	0x3ce5ea1c	0.028065734
20	0x3d19a638	0.037512034
21	0xbbee0ea8	-0.0072649308
22	0xbd74cc54	-0.059765175
23	0xbbf81e55	-0.0075719752
24	0x3dcfa276	0.10138409
25	0x3c692721	0.01423052
26	0x3e0cce6f	0.13750623
27	0x3dca99ad	0.098925926
28	0xbd7a5dfa	-0.06112478
29	0xbd135aba	-0.035975195
30	0xbe1a43e0	-0.15064955
31	0x3e02a9fa	0.12760153
32	0x3e57944f	0.21052669
33	0x3dfd7b40	0.12377024
34	0x3cb7f3a8	0.022455052
35	0xbd2406cd	-0.04004555
36	0x3e117540	0.14204884
37	0xbdb0deef	-0.08636271
38	0xbde97def	-0.11400973
39	0xbd9690f6	-0.07351868
40	0xbd1079aa	-0.035272278
41	0xbdefc486	-0.11707406
42	0xbe1eba5e	-0.15500781
43	0x3cfe40b8	0.03103672
44	0xbe134383	-0.14381222
45	0x3dc4522e	0.09585987
46	0xbde7df24	-0.113218576
47	0x3d6cf55e	0.057851188
48	0xbb0b9540	-0.0021298677
49	0x3d5cc41d	0.053897966
50	0xbc68799c	-0.01418915
51	0xbea72953	-0.32648715
52	0x3d0762c6	0.033053182
53	0xbe909613	-0.28239498
54	0xbe0c046a	-0.13673559
55	0x3def798c	0.11693105
56	0xbce72b4f	-0.028218893
57	0xbdf20937	-0.11818164
58	0xbe0d7caf	-0.13817094
59	0xbe1a7dfa	-0.15087119
60	0x3b5d2b42	0.0033747707
61	0xbaae419c	-0.00132947
62	0xbd93a688	-0.07209498
63	0xbe77159d	-0.24129339
64	0x3b66a64e	0.003519434
65	0x3d1b8877	0.03797194
66	0x3b2d8dcd	0.0026482225
67	0xbdcdc197	-0.1004669
68	0xbbfa774b	-0.0076436154
69	0x3db3afc4	0.08773759
70	0x3c5b2e6d	0.013377768
71	0xbae578bd	-0.0017507296
72	0x39f3b2d2	0.00046481803
73	0xbd02017a	-0.03173969
74	0x3d2cb10b	0.04216103
75	0x3c004748	0.007829495
76	0xbc3f1094	-0.011661667
77	0x3e894ffd	0.2681884
78	0xbe84c3e3	-0.259307
79	0x3e496cb2	0.1967037
80	0x3df7140f	0.12064373
81	0xbe2d91fd	-0.16950221
82	0x3cdae896	0.026722234
83	0xbcbe08b1	-0.023197504
84	0xbd5dacb6	-0.054119788
85	0x3d920759	0.07130308
86	0x3e32ef90	0.17474198
87	0xbe56e106	-0.20984277
88	0xbd1186fd	-0.035529125
89	0xbc8ec0ff	-0.017426012
90	0x3d81b100	0.06332588
91	0x3df1d2da	0.11807795
92	0x3dc922c9	0.09821088
93	0x3d0f9fed	0.035064626
94	0x3d3288c8	0.043587476
95	0xbcebabb1	-0.028768392
96	0xbb5810ca	-0.0032968991
97	0x3ac4dcd1	0.0015019422
98	0xbd98ed45	-0.074671306
99	0xbe68b4b9	-0.2272519
100	0xbe81982a	-0.25311404
101	0x3e5cea11	0.21573664
102	0xbe813a6d	-0.25239888
103	0x3de95406	0.11392979
104	0xbc817b26	-0.015805792
105	0xbe05f83a	-0.13082972
106	0x3da0f6fe	0.0785961
107	0xbe8759be	-0.26435655
108	0x3d9e36eb	0.077253185
109	0x3bd9d24c	0.006647384
110	0x3d5573a0	0.05211222
111	0x3dcb759b	0.09934541
112	0x3d01c381	0.031680588
113	0xbc8fd483	-0.017557388
114	0xbd845b54	-0.06462732
115	0xbdfe3e84	-0.12414268
116	0xbda0cc11	-0.078514226
117	0x3df9fbde	0.12206243
118	0x3d9c594a	0.07634218
119	0x3d83c75f	0.064345114
120	0xbbc652e4	-0.006052362
121	0xbc94a2ac	-0.018143974
122	0x3c06933b	0.008213813
123	0x3c94e856	0.018177193
124	0xbe29f697	-0.16597973
125	0xbe5aeada	-0.21378651
126	0xbd927811	-0.07151807
127	0xbda78f9b	-0.081816874
128	0x3d103564	0.035207167
129	0x3d84cfcc	0.064849466
130	0x3e64fd4e	0.22362253
131	0xbe809f1c	-0.2512139
132	0x3d69b113	0.057053637
133	0x3c984a46	0.018590104
134	0xbe89e1f8	-0.26930213
135	0xbd8856e2	-0.066571966
136	0xbc01e109	-0.007927188
137	0x3d1908fa	0.037362076
138	0xbc4d3938	-0.012525849
139	0x3dc5e060	0.09661937
140	0xbd7ebf43	-0.06219412
141	0xbde5035f	-0.111822836
142	0x3dd7da7c	0.105397195
143	0xbd05148d	-0.032490302
144	0x3d8f13d5	0.069862045
145	0xbdae0fb6	-0.084990904
146	0xbe24155f	-0.16023777
147	0x3c796b8a	0.015223393
148	0xbdaf293d	-0.085527875
149	0xbdad494e	-0.084612474
150	0x3d68e173	0.05685563
151	0xbd4413a1	-0.047870282
152	0xbe039e56	-0.12853369
153	0x3d0ffe87	0.035154846
154	0x3cf1e488	0.029527918
155	0xbcbb8786	-0.022891771
156	0x3d05c54f	0.03265887
157	0x3e6b3bc2	0.22972015
158	0xbc5ba2ab	-0.013405482
159	0x3d06e740	0.03293538
160	0x3e06bc71	0.13157822
161	0xbe17a0f3	-0.14807491
162	0xbe0ac61d	-0.13552137
163	0x3e208964	0.1567741
164	0x3d0103f7	0.03149792
165	0x3e1f6089	0.15564169
166	0x3d5872a7	0.052843716
167	0xbd08081f	-0.03321087
168	0xbdc8b40d	-0.09799967
169	0x3d095c08	0.033535033
170	0x3de11170	0.10989654
171	0x3d39e376	0.04538294
172	0x3c0d4a77	0.008623711
173	0x3d89df11	0.06732
174	0xbd2ee44a	-0.042698182
175	0x3ce103dd	0.027467662
176	0xbdeddd5b	-0.11614486
177	0x3cce5d24	0.025190897
178	0x3d7681ab	0.060182255
179	0xbd17d27b	-0.037065964
180	0x3d89a7a4	0.06721428
181	0xbd94ad46	-0.07259612
182	0x3d3031d5	0.043016274
183	0xbd3e65f8	-0.046483964
184	0x3e180703	0.14846425
185	0x3ded6b12	0.11592688
186	0xbdc6680a	-0.096878126
187	0x3dcf574d	0.10124073
188	0xbddba4bb	-0.10724779
189	0x3da72b98	0.08162612
190	0x3bb5e3ba	0.0055508288
191	0xbda99006	-0.082794234
192	0xbc268ef6	-0.0101659205
193	0xbacf3168	-0.0015807571
194	0xbd34a617	-0.044103708
195	0x3e5b8c02	0.21440127
196	0x3e981226	0.29701346
197	0x3ea9a709	0.3313525
198	0xbe9738b5	-0.29535452
199	0xbd1ab3ec	-0.037769243
200	0xbcaa6b9b	-0.020803263
201	0x3e6e944b	0.23298757
202	0xbe28c59c	-0.16481632
203	0xbc29cc2b	-0.010363619
204	0x3d73565c	0.05940853
205	0x3c21426d	0.009842497
206	0xbd691a01	-0.056909565
207	0xbd242a00	-0.040079117
208	0x3c8f4f06	0.017493736
209	0xbbda6473	-0.0066648065
210	0xbca328c1	-0.019916894
211	0xbd7a2d78	-0.06107852
212	0x3d26017a	0.040528752
213	0x3e15cf06	0.14629754
214	0xbdcdf295	-0.100560345
215	0xbd26e60c	-0.040746734
216	0xbd004a6d	-0.031320978
217	0xbb142162	-0.0022602906
218	0x3bba4ded	0.005685559
219	0x3da773cf	0.081763856
220	0xbe286054	-0.16442996
221	0xbdbf1bef	-0.093315
222	0x3e14d684	0.14534956
223	0x3e2d5ffa	0.16931143
224	0x3abdc559	0.001447837
225	0xbdb9a279	-0.09064192
226	0x3caa8742	0.02081645
227	0x3ca35b1c	0.019940905
228	0xbd6a87ef	-0.057258543
229	0xbd5dfe36	-0.054197513
230	0x3d3dd174	0.04634233
231	0x3e101fbc	0.14074606
232	0x3e04ee81	0.12981607
233	0xbe661be0	-0.22471571
234	0x3cf4c31d	0.029878194
235	0x3dcd2cba	0.100182965
236	0xbdbf0199	-0.093264766
237	0x3bdd9009	0.006761555
238	0xbb0ff95c	-0.0021968698
239	0xbb5f05d8	-0.0034030583
240	0x3c57891f	0.013155251
241	0xbb95afdf	-0.0045680846
242	0x3c839481	0.016062023
243	0xbe637c03	-0.22215275
244	0xbdd7e689	-0.10542018
245	0x3ee740a0	0.45166492
246	0xbd0a7d37	-0.03381082
247	0x3dc5280d	0.0962678
248	0xbdbcbe1b	-0.09215947
249	0x3d9318fe	0.07182501
250	0xbe75e281	-0.24012186
251	0x3e60ef11	0.21966197
252	0x3d3bc585	0.045842666
253	0xbcb29c60	-0.021803081
254	0x3d401fce	0.04690533
255	0xbe2ae138	-0.16687477

encoder.layers.0.bias f4 [32]
0	0xbbcc95cc	-0.006243443
1	0x3e9e2b43	0.3089238
2	0xbbfb6eb6	-0.00767311
3	0xbdefb67a	-0.117047265
4	0xbdc044c2	-0.093881145
5	0xbd0ac14e	-0.033875756
6	0x3e8cceb5	0.27501455
7	0x3eb12bc9	0.34603718
8	0x3b8afba1	0.0042414223
9	0xbd318b49	-0.043345723
10	0xbbbcb9fd	-0.005759476
11	0xbba721dd	-0.0051004724
12	0xbd9f1975	-0.077685274
13	0xbce41896	-0.027843755
14	0x3ea1bc00	0.31588745
15	0xbc1bfb88	-0.009520419
16	0x3ee63f05	0.44969955
17	0xbdefa8dd	-0.1170213
18	0xbd8b4182	-0.06799604
19	0x3edc5666	0.43034667
20	0x3e9fac5c	0.31186187
21	0xbbf15c0a	-0.0073657082
22	0xbcd33704	-0.02578307
23	0xbd30d0f1	-0.043168012
24	0x3ec80c92	0.3907209
25	0xbbf931e2	-0.0076048234
26	0x3e10c01d	0.14135785
27	0xbc7893db	-0.01517197
28	0xbc0fd713	-0.008779305
29	0x3e2d90dc	0.1694979
30	0xbd5a7eed	-0.053343702
31	0x3ec173c5	0.37783638

encoder.layers.2.weight f4 [32, 32]
0	0xbd952844	-0.07283071
1	0x3d27ef77	0.040999856
2	0xbdea5dec	-0.114436954
3	0xbe0022da	-0.12513295
4	0xbd5338af	-0.05156773
5	0xbda21f10	-0.07916081
6	0x3d0cc19d	0.03436433
7	0x3e3b9e4e	0.18322107
8	0xbe33b740	-0.17550373
9	0xbdd825c0	-0.10554075
10	0xbe533b4b	-0.20628087
11	0xbacf9d4a	-0.0015839722
12	0xbd78f1c7	-0.06077745
13	0xbb6fa58a	-0.0036567175
14	0x3d8f5f27	0.07000571
15	0xbd8ac451	-0.06775726
16	0x3cac8afa	0.021062363
17	0xbd46440e	-0.048404746
18	0xbc39b6dc	-0.011335101
19	0x3d3d73c0	0.046252966
20	0xbd6ff95c	-0.058587417
21	0xbe4341cc	-0.19068068
22	0xbec0d11b	-0.37659535
23	0xbe45ca70	-0.19315505
24	0x3e0938dd	0.13400598
25	0xbe0f8d00	-0.14018631
26	0xbbcf87d2	-0.0063333297
27	0xbe19d91f	-0.15024231
28	0xbcf75b49	-0.030194895
29	0xbd86a685	-0.0657473
30	0xbe429e88	-0.19005787
31	0x3d0f84a3	0.0350386
32	0xbeb9fa19	-0.36323622
33	0x3dde5637	0.10856288
34	0xbe8b24df	-0.27176568
35	0xbe00919f	-0.1255555
36	0xbe7d06fc	-0.24709696
37	0xbeaf892d	-0.34284344
38	0xbd6c6a14	-0.05771835
39	0x3de9d95c	0.11418411
40	0xbeadf294	-0.33974135
41	0xbe5fe909	-0.2186624
42	0xbea2911f	-0.31751344
43	0xbe541f9e	-0.20715186
44	0xbe08680b	-0.13320939
45	0xbea08177	-0.31348774
46	0x3df40c62	0.11916424
47	0xbed1d906	-0.40985888
48	0x3e459de0	0.19298506
49	0xbea04a70	-0.3130679
50	0xbd31490a	-0.043282546
51	0x3e005d3a	0.12535563
52	0x3da9294b	0.08259829
53	0xbea168e1	-0.3152533
54	0xbe89cf5a	-0.2691601
55	0xbe5f5378	-0.21809185
56	0x3c34a7dd	0.01102635
57	0xbe00ea76	-0.1258944
58	0xbcb82817	-0.022480054
59	0xbe190fb2	-0.14947394
60	0xbe57cd02	-0.21074298
61	0xbc9d9ca3	-0.01923973
62	0xbec91192	-0.39271218
63	0xbcdc6d17	-0.026907487
64	0x3e2d8f0b	0.16949098
65	0xbd2b8d61	-0.041882876
66	0x3e21e30d	0.15809269
67	0x3d390b7d	0.04517697
68	0x3e4d042a	0.2002112
69	0x3d67cedd	0.056593765
70	0x3c0ef42b	0.008725206
71	0x3db795c4	0.089641124
72	0x3e39f9f8	0.18161762
73	0x3bec96d6	0.0072201295
74	0xbd7745f2	-0.06036944
75	0x3dea74e8	0.11448079
76	0x3e406e46	0.18792066
77	0x3e49aecd	0.19695587
78	0x3e138f84	0.14410216
79	0x3e232374	0.15931493
80	0x3da56a3c	0.08076903
81	0x3e1b22a3	0.15149932
82	0x3de043c4	0.10950425
83	0x3dd00464	0.101570874
84	0x3d684614	0.056707457
85	0x3d7d4570	0.0618338
86	0xbd835d5d	-0.06414292
87	0x3e23e8af	0.1600673
88	0xbcd6e165	-0.026230523
89	0x3d5715f1	0.05251116
90	0xbbbd7804	-0.0057821292
91	0x3e2a1d17	0.1661266
92	0x3d9d6761	0.076857336
93	0x3cf8f49b	0.030390074
94	0x3e7d1d06	0.24718103
95	0x3df88eb0	0.121365905
96	0x3d88a33d	0.0667176
97	0xbd369f47	-0.044585492
98	0xbcee05ee	-0.029055562
99	0x3d9913c1	0.07474471
100	0x3c841481	0.016123058
101	0x3e31da0a	0.17368332
102	0x3c9c8a4d	0.019108916
103	0x3d952c2b	0.07283815
104	0x3d753aa4	0.059870377
105	0x3cb7acc3	0.022421246
106	0xbe00b5fd	-0.12569423
107	0x3e30d04c	0.17266959
108	0xbc66f95f	-0.014097541
109	0xbd3cf286	-0.046129726
110	0x3d335b78	0.043788403
111	0xbd07bc30	-0.033138454
112	0x3e29ba96	0.16575083
113	0xbd78c4fa	-0.060734726
114	0x3e0932ac	0.13398236
115	0x3dc8ac5f	0.09798502
116	0x3db51306	0.08841519
117	0x3de4d01a	0.11172505
118	0xbd2b06e8	-0.041754633
119	0x3dedae20	0.11605477
120	0x3dc01a09	0.09379966
121	0x3d0b32e5	0.033984084
122	0x3c8c7caa	0.017149288
123	0xbca70790	-0.020389348
124	0x3dcd619f	0.10028385
125	0xbd15eb60	-0.036601424
126	0x3db3ebfa	0.08785243
127	0x3e2b8597	0.16750179
128	0x3e23bb0c	0.15989321
129	0x3e57528e	0.21027586
130	0x3db3920e	0.08768092
131	0x3b82dcb8	0.003993597
132	0xbc85a204	-0.016312607
133	0x3e2ebda4	0.1706453
134	0x3dc5247d	0.096261
135	0x3d5e468f	0.05426651
136	0x3d2d9d28	0.042386204
137	0x3dda8cc6	0.10671382
138	0xbbfea0dc	-0.007770641
139	0x3c71e03f	0.014762937
140	0x3dd5f27e	0.10446642
141	0x3dd3a954	0.10335031
142	0xbd62595e	-0.05526101
143	0x3dd053f1	0.101722606
144	0x3d1a299c	0.037637338
145	0x3c1fa241	0.009743274
146	0x3e1ec507	0.15504847
147	0x3d37fca8	0.044918686
148	0x3d1b5485	0.0379224
149	0x3e22cdd7	0.15898834
150	0x3d88cc5c	0.066796035
151	0x3de1f354	0.11032739
152	0xbd684f46	-0.056716226
153	0x3e19409f	0.14966057
154	0x3d2219a9	0.039575253
155	0x3e1c17b3	0.15243416
156	0x3d020405	0.031742115
157	0x3d581e1f	0.0527631
158	0x3d2a3b32	0.04156036
159	0x3e3d2a9e	0.18473288
160	0x3df8135e	0.12113069
161	0x3ced8011	0.02899173
162	0x3dd64a85	0.10463432
163	0x3cf35020	0.029701293
164	0x3e3a11a2	0.18170789
165	0x3aa1325e	0.0012298336
166	0x3d415970	0.047204435
167	0xbd11f711	-0.03563601
168	0x3d4a8216	0.049440466
169	0x3d21ccbd	0.039501894
170	0x3e3033d4	0.17207271
171	0x3da8bc12	0.082389966
172	0x3e322815	0.17398103
173	0x3deb409c	0.11486933
174	0xbc9b3b41	-0.018949153
175	0xbd36d22a	-0.04463402
176	0x3d85c778	0.06532186
177	0xbcdd6e36	-0.027030092
178	0x3d110014	0.035400465
179	0x3dd541e3	0.104129575
180	0x3e00abbc	0.12565511
181	0x3dc82dd5	0.09774367
182	0x3c25e7cb	0.0101260645
183	0x3e144b6f	0.144819
184	0x3e16ea1d	0.14737745
185	0x3e4c431e	0.19947478
186	0x3d6c8bed	0.05775063
187	0x3e1dca8c	0.15409297
188	0x3da68538	0.08130878
189	0x3d2ee829	0.042701874
190	0x3d5aa468	0.053379446
191	0x3dbdceb1	0.09267939
192	0x3c18c264	0.00932369
193	0x3dd1ac97	0.10237997
194	0x3dbdf181	0.09274579
195	0x3e35b508	0.17744839
196	0xbdadd64f	-0.08488142
197	0x3e195858	0.14975107
198	0x3e24faa8	0.16111243
199	0xbd1655e9	-0.036703024
200	0xbc8a50e1	-0.01688427
201	0xbbe4a2bd	-0.0069774077
202	0x3d9f9305	0.077917136
203	0xbd9e42ab	-0.0772756
204	0x3dc2403b	0.09484907
205	0x3a2ab40c	0.00065118144
206	0x3d887b81	0.066641815
207	0xbd7a9c26	-0.06118407
208	0x3e4c77d5	0.19967587
209	0x3da84bb5	0.08217565
210	0xbcd83fc1	-0.026397588
211	0x3c96dd95	0.018416205
212	0x3d8dbd2c	0.06920847
213	0x3d9e3b68	0.077261746
214	0xbd486196	-0.04892119
215	0x3c842b88	0.016134039
216	0x3e033ef7	0.12816988
217	0xbd0dfd67	-0.03466549
218	0x3bb9ea48	0.0056736805
219	0xbd5a4b5b	-0.05329452
220	0xbc031b1a	-0.008002067
221	0xbba5a1dc	-0.0050546955
222	0x3c575860	0.013143629
223	0x3e5413d4	0.20710689
224	0xbe738291	-0.23780276
225	0xbd133053	-0.035934757
226	0xbe4c82b3	-0.19971733
227	0xbe540c79	-0.20707883
228	0xbd8c0f02	-0.068388
229	0xbe13d1dd	-0.14435525
230	0x3e051594	0.12996513
231	0x3e4df2fd	0.20112224
232	0xbed504aa	-0.4160512
233	0xbe58ab92	-0.21159199
234	0xbe8eddac	-0.27903497
235	0xbe7d26ac	-0.24721783
236	0xbea8ecc2	-0.32993132
237	0xbe808ba3	-0.25106534
238	0x3e4006f8	0.18752658
239	0xbe796605	-0.24355324
240	0x3d7c808c	0.06164603
241	0xbe42abc8	-0.19010842
242	0xbca91929	-0.02064188
243	0x3e2c7299	0.1684059
244	0x3e33d9c7	0.17563544
245	0xbe25a29b	-0.1617531
246	0xbeab3976	-0.33442277
247	0xbd3b6647	-0.045751836
248	0x3e7882b9	0.24268617
249	0xbd6d3df1	-0.0579204
250	0x3d32a020	0.04360974
251	0xbe50329e	-0.20331809
252	0xbe36a252	-0.17835358
253	0x3e277c08	0.16355908
254	0xbea33ce9	-0.31882408
255	0x3d164f5f	0.036696788

encoder.layers.2.bias f4 [32]
0	0x3e1e7d55	0.15477498
1	0x3ea3601c	0.31909263
2	0xbe0a269c	-0.13491291
3	0xbddf937b	-0.109168015
4	0xbe07ae6f	-0.13250135
5	0xbe461cea	-0.19346967
6	0xbc30f72e	-0.01080112
7	0x3ecca066	0.39966124
8	0xbd8d7256	-0.069065735
9	0xbe1b0d66	-0.1514183
10	0x3e8b48f9	0.2720411
11	0x3e9b2835	0.30304113
12	0x3d44eef0	0.04807943
13	0xbd5052b2	-0.050860114
14	0x3ed17620	0.40910435
15	0x3c2bf947	0.010496444
16	0x3e3b4f57	0.18291984
17	0xbe008b61	-0.12553169
18	0xbe184b5d	-0.14872499
19	0xbc872648	-0.016497746
20	0x3cb2d0d0	0.021828085
21	0xbda6c153	-0.081423424
22	0xbd664805	-0.056221027
23	0x3e53dc48	0.206895
24	0x3e03cda1	0.1287141
25	0xbe8478ad	-0.25873318
26	0x3e72585b	0.23666517
27	0xbdd14048	-0.10217339
28	0xbce7240c	-0.02821543
29	0xbd83b92e	-0.064318046
30	0x3e9569b7	0.29182217
31	0x3ead16c0	0.3380642

encoder.layers.4.weight f4 [12, 32]
0	0x3e7f82a0	0.24952173
1	0x3e9db59c	0.3080262
2	0xbe81e5cc	-0.25370634
3	0xbe53d325	-0.20686014
4	0xbe365dbc	-0.17809194
5	0xbe002a42	-0.1251612
6	0xbe564b2e	-0.20927116
7	0x3e693fc9	0.22778238
8	0xbdf4a14b	-0.11944827
9	0xbe3b7c76	-0.18309197
10	0x3ee76f40	0.45202065
11	0xbccadeea	-0.024764497
12	0xbd97040a	-0.07373817
13	0xbdc06c75	-0.093956865
14	0x3ea99905	0.33124557
15	0x3d9f42da	0.07776423
16	0x3dfa1528	0.122110665
17	0xbe72e7b1	-0.23721196
18	0x3d3aaef4	0.045577005
19	0xbe4110a5	-0.18854006
20	0xbe17393c	-0.14767927
21	0x3c01e696	0.007928511
22	0x3d24667c	0.0401368
23	0x3da93774	0.0826253
24	0xbe01c37c	-0.12672228
25	0xbe479134	-0.19488984
26	0x3e8ed21b	0.27894673
27	0xbb178aab	-0.0023123424
28	0xbe36c777	-0.17849527
29	0xbe4320f9	-0.19055547
30	0x3e927f8f	0.28612944
31	0x3ee38650	0.4443841
32	0xbdcb5e46	-0.099300906
33	0x3e0e481d	0.13894697
34	0x3dcad8bd	0.09904621
35	0x3cfc4f1e	0.030799445
36	0xbe1defa8	-0.15423453
37	0x39e3ec4d	0.00043472872
38	0xbd778b34	-0.06043549
39	0x3e25210d	0.16125889
40	0xbdf3e2a0	-0.1190846
41	0x3c9a39da	0.018826414
42	0x3e6bfada	0.23044911
43	0x3c955da7	0.018233133
44	0xbe19e035	-0.15026934
45	0x3c1cb4f8	0.009564631
46	0x3e10111d	0.14069028
47	0x3dc6cfa8	0.09707576
48	0x3d6fd51b	0.058552843
49	0xbe2d2742	-0.16909507
50	0xbe028520	-0.12746096
51	0xbdd66ec4	-0.104703456
52	0x3e174f0a	0.14776245
53	0xbcc90224	-0.024537154
54	0xbdd4d1f1	-0.10391606
55	0x3d1b9d9d	0.03799211
56	0x3d5d12c5	0.05397298
57	0xbdfe39ac	-0.12413344
58	0xbdd97072	-0.1061715
59	0xbdc7e743	-0.097609065
60	0x3c274f2d	0.010211748
61	0x3d944fab	0.07241758
62	0x3df3ec20	0.11910272
63	0x3e2aa5b0	0.16664767
64	0xbe33b6ee	-0.17550251
65	0xbe01f6ca	-0.12691799
66	0xbc5380be	-0.0129091125
67	0x3cd79208	0.02631475
68	0x3db53426	0.08847837
69	0xbceca566	-0.028887462
70	0xbd329caf	-0.043606456
71	0xbe728e4b	-0.23687093
72	0x3dbeaced	0.09310327
73	0x3d85897e	0.06520365
74	0xbdc39fc0	-0.09551954
75	0xbdf76517	-0.12079828
76	0xbcda6bc9	-0.026662724
77	0x3c910291	0.01770142
78	0xbde0e243	-0.10980656
79	0xbcec99dc	-0.02888196
80	0xbe003fe2	-0.1252437
81	0xbbeafaf9	-0.0071710316
82	0xbd8a6ddc	-0.06759235
83	0xbe1755f8	-0.14778888
84	0xbcf8c6c2	-0.030368213
85	0x3d225541	0.039632086
86	0xbd41ea57	-0.047342625
87	0xbe171a0e	-0.14756033
88	0xbd675d63	-0.056485545
89	0xb9ec41a3	-0.0004506233
90	0xbe43c1f3	-0.19116955
91	0x3ca34e73	0.019934868
92	0xbe0bad2e	-0.13640282
93	0xbc71860d	-0.014741433
94	0xbe7f5735	-0.2493561
95	0xbe4e3976	-0.20139107
96	0x3d1890fa	0.037247635
97	0x3d963eb5	0.07336179
98	0x3cf4c396	0.029878419
99	0xbd500963	-0.050790202
100	0xbe0e2592	-0.1388152
101	0xbda14be9	-0.07875807
102	0xbdbbe4db	-0.0917451
103	0x3d14beda	0.036314823
104	0xbe27de36	-0.1639336
105	0xbdac39b9	-0.08409447
106	0x3d9f3765	0.077742375
107	0xbe25c496	-0.16188273
108	0xbdebe8fb	-0.11519047
109	0xbd763d8b	-0.060117286
110	0xbd6b1b79	-0.057399247
111	0xbe13e26e	-0.14441845
112	0xbd1c2b80	-0.038127422
113	0xbe14f62d	-0.14547034
114	0xbde85c93	-0.11345782
115	0x3d6debc1	0.05808616
116	0x3de27eea	0.11059363
117	0xbd646d53	-0.055768322
118	0x3d41c486	0.04730656
119	0xbdff21aa	-0.12457593
120	0xbe19aa19	-0.15006293
121	0xbe11b5c3	-0.14229493
122	0xbe242ce8	-0.16032755
123	0x3d7eab25	0.062174935
124	0xbe054afd	-0.13016887
125	0xbdcf1012	-0.10110487
126	0xbdeb9d42	-0.11504604
127	0xbc9c22cf	-0.019059567
128	0xbe79e660	-0.24404287
129	0xbf00b089	-0.5026937
130	0x3e911488	0.28335977
131	0xbcfdfe8d	-0.031005168
132	0x3e084290	0.13306642
133	0x3e7f0432	0.24903944
134	0xbca9010c	-0.020630382
135	0xbecf62f1	-0.40505174
136	0xbd173e45	-0.03692462
137	0x3e70ec0f	0.23527549
138	0xbea714b7	-0.32632992
139	0xbe4324ef	-0.19057058
140	0x3d4ee129	0.0505077
141	0x3dd88314	0.10571876
142	0xbec1cdb4	-0.37852252
143	0x3e352e32	0.17693403
144	0xbead36fc	-0.33831012
145	0x3e635020	0.22198534
146	0x3e836705	0.25664535
147	0x3db3370d	0.087507345
148	0x3e22b525	0.15889414
149	0x3e3866f5	0.18008025
150	0x3e23fded	0.16014834
151	0xbe9d04bf	-0.30667683
152	0xbcf38b7f	-0.029729603
153	0x3e8fc008	0.28076196
154	0xbe88e6bb	-0.26738533
155	0x3de30447	0.110848
156	0x3e3f9210	0.18708062
157	0x3ddf0d13	0.108911656
158	0xbec8c1b2	-0.39210278
159	0xbed9f0f3	-0.42566642
160	0x3e1f59cd	0.155616
161	0x3e3e7a67	0.1860138
162	0xbd2a2984	-0.0415435
163	0xbd975685	-0.07389549
164	0xbd9409c2	-0.07228424
165	0x3e0222fc	0.12708658
166	0x3e30a371	0.17249848
167	0x3d1461dd	0.036226142
168	0xbc826eee	-0.015922036
169	0x3cf6f63f	0.030146716
170	0x3e5bafd6	0.21453795
171	0x3e1dde20	0.15416765
172	0xbd6475dc	-0.055776462
173	0x3d0107b8	0.0315015
174	0x3e83eef0	0.25768232
175	0x3cec4e8e	0.028846052
176	0x3e096d04	0.13420492
177	0x3d0cd77a	0.034385182
178	0x3de58a2c	0.11207995
179	0x3daf22a1	0.08551527
180	0xbc3c69a6	-0.011499798
181	0xbcaa2181	-0.020767929
182	0x3dd4b757	0.10386532
183	0x3d9d6087	0.07684427
184	0x3d5011c4	0.050798193
185	0x3d8a020d	0.067386724
186	0x3d844a86	0.06459527
187	0x3d1f1175	0.038835008
188	0x3e167ab7	0.1469525
189	0xbcdf500e	-0.027259853
190	0x3e8a3d38	0.2699983
191	0x3de8ddc7	0.11370426
192	0xbd8cf687	-0.06882959
193	0xbd888ca1	-0.06667448
194	0xbd62b82f	-0.055351432
195	0xbe4b3a7d	-0.1984653
196	0x3c46f28a	0.012142787
197	0x3dade883	0.08491614
198	0xbd9cb4fc	-0.076517075
199	0xbdc627a7	-0.09675532
200	0xbd734ba0	-0.059398293
201	0x3dd5f642	0.104473606
202	0x3d106920	0.035256505
203	0xbe9c1c7c	-0.30490482
204	0xbd560112	-0.052247114
205	0xbd4cdc53	-0.050014805
206	0xbe360018	-0.17773473
207	0xbd0818e6	-0.03322687
208	0xbe0ea830	-0.13931346
209	0xbc1e1b27	-0.009650028
210	0x3d88ce30	0.06679952
211	0x3d7b3117	0.061326113
212	0x3ce69c48	0.028150693
213	0x3d29cd8c	0.04145579
214	0xbe0e97b2	-0.13925055
215	0xbe982688	-0.29716897
216	0xbe58a703	-0.2115746
217	0xbd0b74cd	-0.034046937
218	0xbdbe0a31	-0.092792876
219	0x3d02e866	0.031959914
220	0xbdbb4fc1	-0.09146071
221	0xbd86f468	-0.065895855
222	0xbe616ad9	-0.22013415
223	0xbd1c534c	-0.038165376
224	0xbdc2a2cc	-0.09503707
225	0xbdb527d9	-0.08845491
226	0xbd4d11ac	-0.05006568
227	0xbdf0387a	-0.11729522
228	0x3de2b05d	0.11068795
229	0xbca2345a	-0.019800354
230	0xbc50d405	-0.012745862
231	0xbdf61eb2	-0.120175734
232	0xbccd97fd	-0.025096888
233	0x3d893f45	0.06701521
234	0x3d4715b9	0.0486047
235	0xbe0e80ca	-0.13916317
236	0xbdbc09b7	-0.091815405
237	0xbd036a8a	-0.032084025
238	0xbddca5ea	-0.10773833
239	0xbe1d403c	-0.15356535
240	0xbd82f2c8	-0.06393963
241	0x3cffd79f	0.031230746
242	0x3de3f6e2	0.111310735
243	0x3d55e02d	0.052215744
244	0x3d133979	0.035943482
245	0xbd09c2e1	-0.033633117
246	0xbd59d888	-0.053185016
247	0x3d3568fb	0.04428957
248	0xbe12f572	-0.14351442
249	0xbd7b949e	-0.06142103
250	0x3c1d6412	0.009606378
251	0xbd94c6ca	-0.072644785
252	0x3dfb9d9a	0.122859195
253	0xbd783a5d	-0.060602535
254	0xbe16c79a	-0.1472458
255	0x3cb9e571	0.022692414

encoder.layers.4.bias f4 [12]
0	0x3e6330c6	0.22186574
1	0x3e1f8391	0.15577532
2	0xbc047cda	-0.008086408
3	0xbe1c57b0	-0.15267825
4	0xbe9c7510	-0.30558062
5	0x3e4b669d	0.19863363
6	0xbe259a21	-0.16172077
7	0xbdfa3b4c	-0.12218341
8	0x3d1bb997	0.03801879
9	0x3e0df7f6	0.13864121
10	0xbe888e1e	-0.26670927
11	0xbda80ea1	-0.08205915

decoder.layers.0.weight f4 [32, 18]
0	0x3eb60f75	0.35558668
1	0xbdafe462	-0.085884824
2	0x3dc184ad	0.09449134
3	0xbe0b9277	-0.1363009
4	0xbe37c802	-0.1794739
5	0x3ce58a71	0.028020116
6	0xbe482e45	-0.195489
7	0xbcd19fd1	-0.025588902
8	0xbe42a499	-0.19008102
9	0x3c2f2db0	0.010692045
10	0x3eb5f096	0.35535115
11	0x3e47a356	0.19495901
12	0xbe966bc0	-0.29379082
13	0xbdbeff88	-0.093260825
14	0x3d1248b2	0.03571386
15	0xbd032f1e	-0.032027356
16	0x3e3d461d	0.18483777
17	0xbd8be2b4	-0.068303496
18	0x3c849d71	0.016188355
19	0xbdf1d960	-0.11809039
20	0xbdbdfa1b	-0.092762195
21	0xbdbf13e2	-0.09329964
22	0x3db20179	0.08691687
23	0x3c2b636e	0.010460718
24	0x3c820975	0.01587365
25	0x3e47f3a5	0.19526537
26	0x3e2f98ed	0.1714818
27	0xbe10cc93	-0.14140539
28	0x3e3cad93	0.18425588
29	0xbd1b887f	-0.03797197
30	0x3e9eb0a0	0.3099413
31	0xbdeede58	-0.116635025
32	0x3e1a3d7d	0.15062518
33	0xbe0c16fd	-0.13680644
34	0x3d47231a	0.04861746
35	0xbe36c3d9	-0.17848147
36	0xbd7e4a71	-0.06208271
37	0xbe021cd2	-0.12706307
38	0xbd4e592b	-0.050378006
39	0x3defbaf7	0.117055826
40	0x3e14a4e1	0.14516021
41	0x3e211711	0.15731455
42	0xbe098263	-0.13428645
43	0x3c1f90e2	0.009739133
44	0xbeb745a7	-0.35795328
45	0xbde7b5c3	-0.11313965
46	0x3ddc066a	0.10743411
47	0xbe3b5b68	-0.18296587
48	0xbda1f223	-0.07907512
49	0xb9b8c2dd	-0.000352404
50	0x3dc59fb6	0.09649603
51	0xbded3b85	-0.11583618
52	0xbe067cb0	-0.13133502
53	0x3c185bfe	0.009299276
54	0xbdd19e24	-0.10235241
55	0xbce6298f	-0.028095989
56	0x3d648d85	0.055799026
57	0x3cebde09	0.028792398
58	0x3e23e30a	0.16004577
59	0x3d09102c	0.03346269
60	0x3e9af869	0.30267647
61	0x3dd39793	0.10331645
62	0xbb30313f	-0.0026884822
63	0x3e9534bc	0.29141796
64	0x3d02c905	0.03192999
65	0xbe13b8ef	-0.14426015
66	0x3d98935b	0.07449981
67	0x3deb8150	0.11499274
68	0x3ccb073f	0.024783729
69	0x3dfb712a	0.12277444
70	0x3d94d18e	0.07266532
71	0x3e866c85	0.2625467
72	0xbd6470c2	-0.055771597
73	0x3e057c2a	0.13035646
74	0xbc941d47	-0.018080367
75	0x3e62b25c	0.22138351
76	0xbe8eb108	-0.2786944
77	0x3e355683	0.17708783
78	0xbcf40573	-0.029787755
79	0xbd8990b8	-0.06717056
80	0x3d2601f4	0.040529206
81	0xbdd8a975	-0.10579196
82	0xbeb08cf8	-0.3448255
83	0xbe293770	-0.16525054
84	0xbdd556c9	-0.104169436
85	0x3e4c213f	0.19934557
86	0xbe61d82c	-0.2205512
87	0x3e61a03f	0.22033785
88	0x3cffafbc	0.031211726
89	0xbe48a18e	-0.19592878
90	0xbded4c9f	-0.1158688
91	0xbe08a493	-0.1334403
92	0x3dae12a9	0.08499653
93	0xbe15b028	-0.1461798
94	0xbd4d87f2	-0.050178476
95	0xbd866ba8	-0.065635026
96	0x3ea01610	0.31266832
97	0x3cd05771	0.02543232
98	0xbcf3e29a	-0.029771138
99	0xbe99c3eb	-0.30032286
100	0xbd3b1e59	-0.04568324
101	0x3dfb2660	0.12263179
102	0x3cd0ef54	0.025504746
103	0xbe4c5d42	-0.1995745
104	0xbd9730c7	-0.073823504
105	0xbe4437b0	-0.19161868
106	0xbe455cf3	-0.19273739
107	0x3c27992e	0.010229392
108	0x3d74fc64	0.05981101
109	0xbdf1c09d	-0.11804316
110	0xbe1a2927	-0.15054761
111	0x3d913388	0.07089907
112	0xbdd3051f	-0.10303711
113	0xbd812dad	-0.0630754
114	0xbc6ab231	-0.014324711
115	0xbdf45e89	-0.11932094
116	0xbe587051	-0.21136595
117	0x3d3cffcf	0.046142396
118	0x3d5d415d	0.054017413
119	0xbe121e9f	-0.14269494
120	0x38b1954d	8.467827e-05
121	0xbd83af2a	-0.06429894
122	0x3de7f4e2	0.113260046
123	0xbe82051e	-0.2539453
124	0x3d60f95d	0.05492531
125	0x3e601308	0.2188226
126	0x3e7fdd4b	0.2498676
127	0x3d170d9a	0.036878206
128	0x3df521f6	0.11969368
129	0x3e193f93	0.14965658
130	0xbe05399c	-0.13010257
131	0x3d98081c	0.07423422
132	0x3e542f6f	0.2072122
133	0x3e16cbf1	0.14726235
134	0x3d6f2f3a	0.058394648
135	0x3e3adfed	0.18249483
136	0x3db185dd	0.086681105
137	0xbc2dfa53	-0.010618764
138	0x3d474128	0.048646122
139	0xbe1fd762	-0.15609506
140	0x3ddf4045	0.1090093
141	0xbd9d1e28	-0.076717675
142	0xbe1dc424	-0.15406853
143	0x3e70a75e	0.23501346
144	0xbe4a489b	-0.1975426
145	0xbdf8e5a5	-0.12153176
146	0x3c29204a	0.01032264
147	0x3ce21210	0.027596503
148	0x3e6260a3	0.22107176
149	0xbc8df7bb	-0.017330041
150	0x3e16d6cb	0.14730375
151	0xbe46dd67	-0.19420396
152	0xbc9a7fa3	-0.01885969
153	0xbea8ddb3	-0.32981643
154	0x3e1ec8c7	0.15506278
155	0x3bbe32c4	0.0058043916
156	0x3d6846a2	0.056707986
157	0x3e5f7bc5	0.21824558
158	0xbe417704	-0.18893057
159	0xbe120aa9	-0.14261879
160	0x3e15f1bc	0.14642996
161	0x3e801924	0.2501918
162	0xbe34a519	-0.17641105
163	0x3d3db3a5	0.0463139
164	0x3e3f0a09	0.18656172
165	0xbe8810dd	-0.26575366
166	0x3e75a28f	0.23987792
167	0xbe10577e	-0.14095876
168	0xbdc0f5ce	-0.094218835
169	0xbd49655b	-0.049168926
170	0x3e911b88	0.28341317
171	0xbbca142b	-0.006166955
172	0xbe1eb0b7	-0.15497099
173	0xbe5c8ec7	-0.2153884
174	0xbe1c9dea	-0.15294614
175	0x3e89a93d	0.2688693
176	0x3e9f6b06	0.3113634
177	0x3e982eec	0.297233
178	0x3e67fcfd	0.22655101
179	0x3dafdb79	0.08586783
180	0x3d4ff8d6	0.050774418
181	0x3c5f3fcd	0.013626051
182	0x3e6ba738	0.23013008
183	0xbe6dca2a	-0.2322165
184	0xbeb2c809	-0.3491824
185	0x3e2eb523	0.17061286
186	0xbd6a0b1f	-0.057139512
187	0x3e8a2cf0	0.2698741
188	0xbcdf998b	-0.027294895
189	0x3df063d7	0.11737793
190	0x3de01844	0.10942128
191	0x3e091d30	0.1339004
192	0x3ea1ffd7	0.31640503
193	0x3e3b8a00	0.18314362
194	0x3e41db83	0.18931393
195	0xbd74820a	-0.059694327
196	0x3e07c996	0.13260493
197	0x3e98e0b4	0.29858935
198	0x3dab0a12	0.0835153
199	0x3ddc40a0	0.10754514
200	0xbe8436a5	-0.2582294
201	0xbe5490b0	-0.20758319
202	0xbe35b82c	-0.17746037
203	0xbe2c0a7f	-0.16800879
204	0xbe8a5be4	-0.27023232
205	0x3e1b8ba9	0.15189995
206	0xbdf4a4bc	-0.11945483
207	0xbd03c997	-0.032174673
208	0x3e7422e6	0.23841438
209	0xbe42f2c4	-0.1903792
210	0x3d7efba2	0.062251695
211	0x3dc4bebf	0.096066944
212	0xbe5bdb35	-0.2147034
213	0x3de613f3	0.11234274
214	0xbd095417	-0.03352746
215	0x3e03badc	0.1286425
216	0xbe4be86f	-0.19912885
217	0xbcd81e3d	-0.026381606
218	0xbe085064	-0.13311917
219	0xbe14d7b3	-0.14535408
220	0x3e09e8a4	0.13467652
221	0xbc673c1f	-0.014113455
222	0xbda6a760	-0.08137393
223	0x3e0f29c7	0.1398078
224	0xbe4fe503	-0.20302205
225	0x3e888b83	0.2666894
226	0xbd4300a0	-0.047608018
227	0x3e3206fb	0.17385475
228	0xbd917672	-0.0710267
229	0xbdcfa6e1	-0.101392515
230	0xbd3a26fa	-0.045447327
231	0x3790e438	1.727241e-05
232	0xbe1d4424	-0.15358025
233	0xbc333616	-0.010938188
234	0x3e9d740e	0.30752605
235	0xbd53bb87	-0.051692512
236	0xbe38710c	-0.18011874
237	0x3d3ebd22	0.04656709
238	0xbe98b86e	-0.2982821
239	0xbe094fef	-0.13409398
240	0x3e85deb1	0.26146463
241	0xbe4daf69	-0.20086445
242	0x3dc7b70f	0.097517125
243	0xbdc8f369	-0.09812052
244	0xbe4deb9d	-0.2010941
245	0x3e0e0240	0.13868046
246	0xbd1b83fb	-0.037967663
247	0x3d7cc1c5	0.06170823
248	0xbd221bf6	-0.039577447
249	0x3e23a00e	0.15979025
250	0xbddb7d21	-0.10717226
251	0x3e34bb95	0.17649682
252	0x3e5312a9	0.20612587
253	0xbd2acc86	-0.041698955
254	0x3e38e3c5	0.18055637
255	0xbddca56a	-0.10773738

decoder.layers.0.bias f4 [32]
0	0x3e5474b3	0.20747642
1	0x3e94455b	0.28959164
2	0x3cdb0a83	0.02673841
3	0xbd9c3245	-0.07626776
4	0x3ea17ebf	0.31542012
5	0xbe27cc99	-0.16386642
6	0x3db652aa	0.08902486
7	0xbd9e2d8a	-0.0772353
8	0x3d117a66	0.03551712
9	0xbd33dae2	-0.043909915
10	0x3e213d86	0.15746126
11	0x3e1d1949	0.15341677
12	0x3e18c334	0.14918214
13	0x3eba9446	0.3644125
14	0x3e8f49f9	0.27986124
15	0xbd7b8c9a	-0.061413385
16	0x3d168af4	0.03675361
17	0x3df9520d	0.12173853
18	0xbe8b7b70	-0.27242613
19	0x3e9ca093	0.30591258
20	0x3e37ad68	0.17937243
21	0x3b627773	0.003455606
22	0x3e7abf16	0.24486956
23	0xbdd8befb	-0.10583302
24	0x3ea570ca	0.32312614
25	0x3ea06c5f	0.3133268
26	0x3eb4cae0	0.3531103
27	0x3e528d4d	0.20561714
28	0x3e57454c	0.21022528
29	0x3b8c939d	0.004290058
30	0xbe1bc85a	-0.15213147
31	0x3d8c8ddb	0.06862994

decoder.layers.2.weight f4 [32, 32]
0	0x3e6fbec2	0.23412612
1	0x3d360c6a	0.044445433
2	0x3dc8c3a6	0.09802942
3	0xbe53afd4	-0.20672542
4	0x3e0aff90	0.13574052
5	0x3d60bd1f	0.05486786
6	0x3cd3d400	0.025857925
7	0x3dd1da18	0.10246676
8	0xbe4ea09f	-0.2017846
9	0xbd7d6dea	-0.0618724
10	0x3dd543c4	0.10413316
11	0x3de81d97	0.11333769
12	0xbe0cd09f	-0.13751458
13	0x3e1a1843	0.15048318
14	0x3e24cebc	0.16094488
15	0xbb6f7fca	-0.0036544674
16	0xbd21b486	-0.0394788
17	0xbd8e8a85	-0.06960014
18	0xbe02b9fe	-0.12766263
19	0x3e1cee6e	0.15325329
20	0x3dbd2155	0.09234873
21	0x3b42a828	0.002970228
22	0x3e24ea0c	0.16104907
23	0x3d356d98	0.04429397
24	0x3e31e845	0.1737376
25	0xbdf94f16	-0.121732876
26	0x3d52e2f1	0.05148596
27	0x3df3b63f	0.11899995
28	0x3e492edf	0.19646786
29	0x3e09234f	0.13392375
30	0xbd0ee2e2	-0.03488434
31	0x3db9d2c6	0.09073405
32	0x3e1b7b7b	0.15183823
33	0xbdcce0c4	-0.10003808
34	0xbd83dc43	-0.06438496
35	0xbe183091	-0.14862277
36	0x3de30aef	0.1108607
37	0xbd7821d9	-0.060579155
38	0x3de57210	0.11203396
39	0x3db5fda6	0.0888627
40	0xbc77f138	-0.015133195
41	0xbda8d032	-0.08242835
42	0xbc2f4b5e	-0.010699121
43	0x3db8f173	0.09030428
44	0xbe4ea321	-0.20179416
45	0x3e8ed150	0.27894068
46	0x3ea90d58	0.33017993
47	0xbe3e7640	-0.18599796
48	0xbc5eeeda	-0.013606751
49	0xbe03308a	-0.12811485
50	0x3c338203	0.01095629
51	0x3dcf61a8	0.10126048
52	0x3dca089a	0.09864922
53	0xbdaad000	-0.08340454
54	0x3de639b2	0.11241473
55	0xbc395a69	-0.011313059
56	0x3eb0300b	0.34411654
57	0x3df14849	0.117813654
58	0x3dd9f21f	0.10641884
59	0x3dc80044	0.09765676
60	0x3e096f06	0.13421258
61	0x3e2414d9	0.16023578
62	0xbe1eecc6	-0.1552001
63	0x3db17886	0.08665566
64	0x3e3159f2	0.17319468
65	0x3e4b3b00	0.19846725
66	0xbd2ff926	-0.042962216
67	0xbde7e74b	-0.113234125
68	0x3e53db76	0.20689186
69	0xbe03aa6d	-0.12857981
70	0x3d0b920e	0.034074835
71	0x3dae8c11	0.08522809
72	0x3cb78343	0.022401458
73	0x3e463248	0.19355118
74	0x3e8f1eea	0.27953273
75	0x3e8f0fda	0.2794178
76	0xbd52ed1d	-0.05149566
77	0x3e7bdbbe	0.24595544
78	0x3df49736	0.11942904
79	0xbe0d3ce0	-0.13792753
80	0x3e243f55	0.16039784
81	0x3e7d1673	0.24715595
82	0xbdda4bb1	-0.10658968
83	0x3da62197	0.081118755
84	0x3cc2621d	0.023728425
85	0x3e619edb	0.22033255
86	0x3e88ce22	0.26719767
87	0xbd04dac9	-0.032435212
88	0x3dd4e3b9	0.10394997
89	0xbd472b88	-0.0486255
90	0x3e8e08f4	0.27741206
91	0x3d0142cb	0.03155784
92	0x3e10f968	0.14157641
93	0x3bc76b4a	0.006085788
94	0xbdabafdf	-0.08383154
95	0xbd4f7977	-0.050652947
96	0x3d724512	0.0591479
97	0xbe40cd15	-0.18828233
98	0xbdfae312	-0.122503415
99	0x3e1696f4	0.14706022
100	0x3e174214	0.147713
101	0x3db8555f	0.09000658
102	0xbcb0edcf	-0.021597771
103	0x3dea0232	0.114262
104	0x3de68f7b	0.112578355
105	0x3dd11bba	0.102103665
106	0x3e12ad85	0.14324005
107	0x3d13f68b	0.036123794
108	0x3b266688	0.0025390703
109	0x3dd4eec0	0.103971004
110	0x3d23b591	0.039968077
111	0xbdb39da0	-0.08770299
112	0xbdd66a19	-0.10469455
113	0x3e8a800b	0.27050814
114	0xbd648b63	-0.055796992
115	0xbe0e14c0	-0.13875103
116	0x3d4cd679	0.050009225
117	0xbdcfdad1	-0.10149158
118	0x3df48341	0.11939097
119	0x3d2afd4a	0.04174546
120	0x3e567372	0.20942476
121	0x3e3df6ab	0.18551128
122	0x3d8dba59	0.069203086
123	0x3e6a89f8	0.22904193
124	0xbdd36f33	-0.10323944
125	0x3da9a6ef	0.08283793
126	0x3e129d83	0.14317898
127	0xbcc94e4b	-0.024573466
128	0x3dda924b	0.106724344
129	0xbda5baf0	-0.08092296
130	0x3e363a24	0.17795616
131	0x3c186533	0.0093014715
132	0xbdd4ff90	-0.10400307
133	0x3c5e8ec8	0.013583846
134	0x3d2a9eb7	0.04165527
135	0x3d66859f	0.056279775
136	0x3de656ae	0.112470016
137	0xbcac159d	-0.0210064
138	0x3e343d9e	0.1760163
139	0x3e2b6cfa	0.1674079
140	0x3dd01061	0.10159374
141	0x3e0e3713	0.13888197
142	0xbbcfe5e9	-0.006344546
143	0x3da64ded	0.08120332
144	0xbde0b974	-0.109728724
145	0x3de165e6	0.11005764
146	0x3d2de022	0.042450078
147	0xbd2b949b	-0.041889768
148	0xbd89956e	-0.067179546
149	0x3e0f798b	0.14011209
150	0xbd73c113	-0.0595103
151	0xbd42fc3c	-0.04760383
152	0x3e027df8	0.12743366
153	0x3e6b562f	0.22982095
154	0x3e3cdba5	0.18443163
155	0x3e865413	0.2623602
156	0xbe78b074	-0.24286062
157	0x3dfb4398	0.12268752
158	0x3dc2cb7f	0.0951147
159	0xbe099e8f	-0.13439392
160	0x3e84fb86	0.25973147
161	0x3e293f71	0.16528107
162	0x3da988b3	0.082780264
163	0x3b797906	0.003806652
164	0x3e4dceed	0.20098467
165	0xbd3d9305	-0.046282787
166	0xbd283bc4	-0.041072622
167	0x3d7182d7	0.05896267
168	0xbe05a602	-0.13051608
169	0xba779c9f	-0.00094456406
170	0x3d842da5	0.064540185
171	0x3da6c930	0.08143842
172	0x3d74ef3d	0.059798468
173	0x3d85509e	0.06509517
174	0x3e7cb091	0.2467673
175	0xbe24b032	-0.16082838
176	0x3d647dcb	0.055784028
177	0xbd187ce4	-0.03722848
178	0xbd5719f7	-0.052514996
179	0xbbc5b660	-0.0060337037
180	0x3e16c109	0.14722075
181	0x3e352d55	0.17693074
182	0x3dd19ed4	0.10235372
183	0x3df85775	0.12126056
184	0x3dba03b5	0.09082738
185	0x3d8f9551	0.07010902
186	0x3e338683	0.17531781
187	0xbc6a386b	-0.014295678
188	0x3ce4130a	0.02784111
189	0xbd4fbbd8	-0.05071625
190	0x3db38031	0.08764685
191	0x3d20e699	0.039282415
192	0x3dcacfc5	0.0990291
193	0x3df069ba	0.11738916
194	0xbd081687	-0.03322461
195	0x3dc6db99	0.09709854
196	0x3b777b31	0.0037762637
197	0x3d9f5cd2	0.07781376
198	0xbd4f2ddf	-0.050580855
199	0xbda38200	-0.0798378
200	0x3a18db07	0.00058309775
201	0x3dd33980	0.10313702
202	0xbc520fe0	-0.012821168
203	0x3e308c0e	0.17240927
204	0x3e722d72	0.23650149
205	0xbe1aa171	-0.15100648
206	0x3cf0337a	0.029321421
207	0x3e5891b5	0.21149333
208	0x3dc60343	0.09668591
209	0x3e0561fd	0.13025661
210	0x3df041b9	0.117312856
211	0xbc9da4fe	-0.019243713
212	0x3e6135ab	0.21993129
213	0x3d6a6759	0.057227466
214	0x3db98ab2	0.09059657
215	0x3e036cec	0.12834519
216	0xbe2839c5	-0.16428287
217	0x3e13fec8	0.1445266
218	0xbdc686bb	-0.096936665
219	0x3d238048	0.03991726
220	0xbd4894de	-0.048970096
221	0xbdb90fd4	-0.09036222
222	0x3d7605c8	0.060064107
223	0x3e43f474	0.1913622
224	0x3d7af43c	0.061268076
225	0x3dc80f6c	0.097685665
226	0xbd8dc59e	-0.06922458
227	0x3e057101	0.13031389
228	0xbe16a8cb	-0.14712827
229	0xbd79b47a	-0.06096313
230	0x3e06194d	0.13095589
231	0xb9e5f8c2	-0.00043863623
232	0x3cd8dde1	0.026472988
233	0x3e254ffd	0.16143794
234	0xbc01a25d	-0.007912246
235	0x3d7884fb	0.060673695
236	0xbd151e17	-0.03640565
237	0x3d83e222	0.06439616
238	0x3c2e955b	0.010655726
239	0x3d1ac323	0.037783753
240	0xbd48b447	-0.04900005
241	0x3e5164a0	0.20448542
242	0x3dc225f2	0.09479894
243	0x3dcde364	0.10053137
244	0xbe20604b	-0.15661733
245	0x3cbd1a1c	0.023083739
246	0xbd99b68b	-0.075055204
247	0x3d00ae59	0.03141627
248	0x3dcfca6c	0.10146031
249	0x3e864394	0.26223433
250	0xbd3af2c6	-0.045641683
251	0x3dff8bb4	0.12477818
252	0xbe029d2b	-0.12755267
253	0x3e20e71b	0.1571316
254	0xbdf15688	-0.11784083
255	0xbde63867	-0.11241227

decoder.layers.2.bias f4 [32]
0	0x3eb459c2	0.3522473
1	0x3e701bbc	0.2344808
2	0x3e11f0a5	0.14251955
3	0xbc9e7263	-0.019341653
4	0xbdcc641f	-0.09980034
5	0x3e5a3597	0.21309505
6	0x3d18028b	0.0371118
7	0x39aa7ed0	0.0003251941
8	0x3d0aa124	0.033845082
9	0x3d8aed45	0.06783537
10	0x3e709b9c	0.2349686
11	0x3e969971	0.29413942
12	0x3e96c9fe	0.29450983
13	0x3dead191	0.11465753
14	0xbd193c84	-0.037411228
15	0xbd800563	-0.062510274
16	0xbd0ead7b	-0.034833413
17	0x3dd105fb	0.10206219
18	0xbd5a50f5	-0.053299863
19	0x3e69b454	0.22822696
20	0x3dd11c32	0.10210456
21	0x3d1bc492	0.03802926
22	0x3e913dc0	0.28367424
23	0x3d2a172d	0.04152601
24	0x3d84ad0d	0.06478319
25	0x3d8a97da	0.06767245
26	0xbe101c8d	-0.14073391
27	0xbe0ec5c0	-0.13942623
28	0xbdce22b3	-0.10065212
29	0x3e8203b5	0.25393453
30	0xbda3300c	-0.079681486
31	0xbdee66e5	-0.11640719

decoder.layers.4.weight f4 [24, 32]
0	0xbbec4643	-0.0072105243
1	0x3e07d836	0.13266072
2	0x3d259146	0.040421747
3	0xbe0df4a4	-0.13862854
4	0x3d812241	0.063053615
5	0x3cfab93e	0.030605908
6	0xbd839810	-0.06425488
7	0xbbd93037	-0.006628062
8	0x3d6c62b3	0.057711314
9	0xbd5f346c	-0.054493353
10	0x3d9dccab	0.07705053
11	0xbc7851f2	-0.015156256
12	0xbd498002	-0.049194343
13	0x3cf6e284	0.030137308
14	0x3a8a9845	0.0010573944
15	0x3df9ced0	0.121976495
16	0xbc107d14	-0.008818883
17	0x3d9dc44b	0.077034555
18	0x3d1e7387	0.038684394
19	0xbd9bbbe2	-0.07604195
20	0xbd8c0616	-0.06837098
21	0x3d3665a1	0.044530515
22	0x3c9d795c	0.019222908
23	0xbcb17e44	-0.021666653
24	0x3da76b6d	0.08174787
25	0x3d8187c0	0.063247204
26	0xbd1193ea	-0.035541452
27	0xbdda5e47	-0.10662513
28	0x3c9892f6	0.018624764
29	0xbd067029	-0.032821808
30	0xbd10a529	-0.03531376
31	0xbd4cd5e4	-0.05000867
32	0xbc006052	-0.007835465
33	0xbd778af9	-0.06043527
34	0x3da49ee9	0.08038122
35	0x3def4397	0.116828136
36	0xbdb75678	-0.089520395
37	0x3d05e2af	0.032686885
38	0xbdb2f9c6	-0.08739047
39	0x3dcb3425	0.09922055
40	0x3d481e1b	0.048856836
41	0x3b0438d2	0.002017547
42	0xbe04d562	-0.12972024
43	0xbd4ffa58	-0.050775856
44	0x3db42a2c	0.08797106
45	0xbc3d4c64	-0.0115538575
46	0xbc899f99	-0.016799735
47	0xbb9cbbf7	-0.0047831493
48	0x3dee603a	0.116394475
49	0xbd98bd15	-0.074579395
50	0x3c5d1135	0.013492872
51	0x3ddc83c2	0.10767318
52	0x3c9fccd5	0.019506851
53	0xbca1d15a	-0.019753147
54	0x3dd6386d	0.10459981
55	0xbdd0555e	-0.101725325
56	0xbb9c24b5	-0.004765118
57	0xbc36cee0	-0.011157721
58	0x3cd62b1f	0.026143609
59	0xbc551485	-0.0130053805
60	0x3c83bc1b	0.016080907
61	0xbd9b8da3	-0.075953744
62	0xbdbae50f	-0.09125721
63	0x3d518ba9	0.05115858
64	0x3e216afb	0.15763466
65	0xbcb85331	-0.022500606
66	0xbb2c5b55	-0.0026299555
67	0xbdda3875	-0.106552996
68	0x3d4373dd	0.047717918
69	0x3dbd4d8b	0.09243306
70	0xbdfe23ac	-0.124091476
71	0x3c98b754	0.018642105
72	0xbd857aa2	-0.06517531
73	0x3d631f34	0.05544968
74	0xbe1418bc	-0.1446256
75	0xbde59ccb	-0.112115465
76	0x3d9b642c	0.07587466
77	0xbd89afed	-0.06723008
78	0x3d0dafa0	0.034591317
79	0xbd3c5670	-0.04598087
80	0x3d175cca	0.036953725
81	0x3cd70c60	0.026251018
82	0x3da9682a	0.08271821
83	0x3dfd2844	0.12361196
84	0x3d85ada2	0.065272585
85	0xbd4fefa6	-0.050765656
86	0xbe22ee05	-0.1591111
87	0x3db5f375	0.08884326
88	0x3d1fe9f3	0.03904147
89	0xbdeeca1e	-0.116596445
90	0x3cf3ecf6	0.029776078
91	0x3d572345	0.05252387
92	0x3990ac0b	0.00027594002
93	0xbde5cfcc	-0.11221275
94	0xbbb6423a	-0.005562094
95	0xbd377428	-0.04478851
96	0x3d67e3cc	0.05661373
97	0xbd41d9d2	-0.04732687
98	0xbdb87e90	-0.09008515
99	0xbd97a9c7	-0.07405429
100	0x3bbfbe3e	0.005851536
101	0xbc94c4a2	-0.018160168
102	0xbd7f2742	-0.0622933
103	0xbd08e711	-0.033423487
104	0xbca9b08c	-0.020714067
105	0xbdf637e0	-0.12022376
106	0x3dee826b	0.11645969
107	0x3dc6520b	0.09683617
108	0xbd471ea4	-0.048613206
109	0xbd6eb667	-0.05827942
110	0x3e01243c	0.12611479
111	0x3d868b9a	0.06569596
112	0xbd1616cb	-0.03664283
113	0x3d173c5a	0.03692279
114	0x3cf6b0b3	0.030113554
115	0xbdc81efc	-0.09771535
116	0x3d709e5a	0.058744766
117	0x3bfbb00d	0.007680899
118	0x3d9ad7bb	0.075606786
119	0xbbf382b4	-0.0074313525
120	0xbd285cee	-0.04110425
121	0xbd806ccf	-0.062707536
122	0xbc0cb658	-0.008588396
123	0xbacf80ea	-0.0015831266
124	0x3bc5e420	0.0060391575
125	0xbdc7babf	-0.09752416
126	0x3d6825da	0.056676723
127	0x3da60419	0.0810625
128	0x3d04f5b6	0.03246089
129	0x3db9eea0	0.09078717
130	0x3de93c22	0.113884225
131	0xbdbb2dce	-0.09139596
132	0x3da588e0	0.080827475
133	0xbd6707f8	-0.056404084
134	0xbbed60f4	-0.0072442237
135	0x3cd240ef	0.025665728
136	0x3d83e0f9	0.064393945
137	0xbca84dd5	-0.020544926
138	0xbca246f0	-0.019809216
139	0x3de3f86a	0.111313656
140	0xbdca4590	-0.09876549
141	0xbd327feb	-0.043579023
142	0xbc456543	-0.012048068
143	0x3da266c4	0.07929757
144	0x3dab0eaa	0.08352406
145	0xbd243c90	-0.04009682
146	0xbda2545a	-0.07926245
147	0xbdaa0c9e	-0.08303188
148	0xbdb3d282	-0.087803856
149	0xbb8a8bd9	-0.004228097
150	0xbe0e33e5	-0.13886984
151	0xbc959c7f	-0.0182631
152	0x3d1242c1	0.035708193
153	0xbd55c53d	-0.052190054
154	0x3cde3000	0.027122498
155	0xbdd247a3	-0.1026757
156	0x3cdc7a17	0.026913686
157	0x3aed0864	0.0018084166
158	0x3c5295c9	0.012853094
159	0x3bdfe908	0.0068331994
160	0x3e139550	0.14412427
161	0x3ce7ef30	0.028312296
162	0xbcb93cea	-0.022612054
163	0x3da374fd	0.07981298
164	0xbd9006a3	-0.07032516
165	0xbc7a891e	-0.01529148
166	0x3d876906	0.066118285
167	0x3d70049c	0.058598146
168	0x3d702b30	0.058634937
169	0x3d2167e9	0.039405737
170	0x3c90d831	0.017681213
171	0xbde2aa54	-0.11067644
172	0xbdc93be6	-0.09825878
173	0x3d039e00	0.032133102
174	0xbc9f8841	-0.01947415
175	0x3d01773c	0.03160785
176	0xbd03aa29	-0.0321447
177	0x3d7704e5	0.060307402
178	0xbcd60278	-0.026124224
179	0xbb3e7236	-0.0029059774
180	0x3c94763d	0.018122787
181	0xbcfcacca	-0.030844111
182	0x3d6ff4c1	0.058583025
183	0xbdb0a905	-0.08625988
184	0xbd080ec2	-0.0332172
185	0x3bbd7877	0.005782183
186	0x3d68ac47	0.05680492
187	0xbd80a4aa	-0.06281407
188	0x3ce29613	0.027659452
189	0x3c8ba645	0.017047057
190	0x3bc5e4e8	0.0060392506
191	0x3d75e80a	0.060035743
192	0xbdac5e09	-0.08416373
193	0x3db75366	0.08951454
194	0x3da1eaf3	0.07906141
195	0x3c87ca53	0.016575968
196	0x3ca64199	0.020294951
197	0xbe0ac6f1	-0.13552453
198	0x3cca88d5	0.02472345
199	0x3e1700dc	0.14746422
200	0x3b9289f5	0.004472012
201	0x3e03b95a	0.12863675
202	0xbb75c614	-0.0037502097
203	0xbe127b21	-0.14304782
204	0x3e1a722c	0.15082616
205	0xbcce6cc5	-0.02519835
206	0xbe01a75f	-0.12661503
207	0x3d3af64c	0.045645043
208	0x3d9c383a	0.07627912
209	0x3cc72e06	0.024313938
210	0xbcd27c98	-0.025694177
211	0x3e03d303	0.12873463
212	0xbcb6dd7f	-0.022322414
213	0xbd3cc500	-0.04608631
214	0x3db5f3d3	0.088843964
215	0x3df50fe6	0.11965923
216	0x3d0fb659	0.03508601
217	0x3dfa39f6	0.122180864
218	0x3d8d4163	0.06897237
219	0xbe0cfa92	-0.1376746
220	0xbd20a2fd	-0.039217938
221	0xbd0e9901	-0.034813885
222	0xbe508a05	-0.2036515
223	0xbdf52937	-0.11970752
224	0xbdade1cd	-0.08490334
225	0x3de6b32e	0.112646446
226	0x3c8eb43f	0.017419932
227	0xbd53e469	-0.0517315
228	0xbc55dfc5	-0.013053839
229	0xbd0db71a	-0.034598447
230	0x3d5c8a90	0.05384308
231	0x3cff3ba5	0.03115637
232	0x3dc6aba0	0.097007036
233	0x3db41a5f	0.087940924
234	0xbd6cceef	-0.057814535
235	0xbdc67827	-0.09690886
236	0xbd8ecc55	-0.06972567
237	0xbcf7b72e	-0.030238714
238	0xbbf19e9d	-0.0073736445
239	0x3ccd30f5	0.025047759
240	0x3d59a412	0.053134985
241	0xbe0f7f39	-0.14013375
242	0xbe1b2de4	-0.15154225
243	0xba8de36b	-0.0010825222
244	0x3d8a93a7	0.06766444
245	0xbcd5890c	-0.026066326
246	0xbda00d74	-0.07815066
247	0x3d6b192b	0.05739705
248	0xbd9e7531	-0.07737196
249	0xbe1a45ef	-0.1506574
250	0x3da52017	0.08062761
251	0x3cff5218	0.031167075
252	0x3cd93541	0.026514651
253	0x3e08404b	0.13305776
254	0x3dbf29d9	0.09334154
255	0xbd362cf5	-0.044476468

decoder.layers.4.bias f4 [24]
0	0xbd3a7ff4	-0.04553218
1	0x39c3636f	0.00037267382
2	0x3e0b8320	0.13624239
3	0x3da7f681	0.08201314
4	0xbbfc4edc	-0.0076998305
5	0xbd209efe	-0.039214127
6	0xbd925bc2	-0.07146408
7	0x3e01c92d	0.12674399
8	0x3e35af24	0.17742592
9	0x3dafd1d4	0.085849434
10	0x3d4c4a60	0.049875617
11	0xbca0456b	-0.019564351
12	0x3d59d250	0.053179085
13	0x3e0be907	0.13663112
14	0xbd29b057	-0.041427936
15	0xbdc51485	-0.096230544
16	0xbdcbc6b5	-0.0995001
17	0xbd9a9df7	-0.07549661
18	0xbbed67a2	-0.00724502
19	0xbe671b4e	-0.2256901
20	0x3d383d35	0.044980247
21	0xbe0953c0	-0.13410854
22	0xbd6fe424	-0.05856718
23	0xbcc4da7c	-0.024029963
