m4_ws/src/morphing_lander/learned_models/2024-05-21_16-56-45/model_150.pth (torch, 33928 bytes, 22 tensors)

cond_normalizer.mean f4 [12]
0	0xbeefd019	-0.46838453
1	0xbc0e3cb2	-0.008681463
2	0xb9e972fe	-0.000445269
3	0x3a737654	0.00092873466
4	0x3cec182e	0.028820124
5	0x3c0bc6b3	0.00853126
6	0xbbd48437	-0.006485488
7	0x3f0c51ed	0.5481251
8	0x3f0fb57b	0.5613629
9	0x3f0c7a0c	0.5487373
10	0x3f0f6b93	0.5602352
11	0x421b1a99	38.775974

cond_normalizer.variance f4 [12]
0	0x3e02f949	0.12790407
1	0x3aac716f	0.0013156364
2	0x3aac1af5	0.0013130592
3	0x3aab0ad6	0.0013049494
4	0x3d92e5a3	0.07172706
5	0x3d66c969	0.056344423
6	0x3de05fda	0.10955782
7	0x3cbabe1d	0.022795731
8	0x3cbece41	0.023291709
9	0x3cbb09ff	0.022831915
10	0x3cc16c71	0.02361128
11	0x43906860	288.81543

output_normalizer.mean f4 [12]
0	0xbb4cc7be	-0.0031246985
1	0xbae6d36d	-0.0017610617
2	0x3c688f6f	0.0141943535
3	0x3847f29a	4.7671238e-05
4	0x3b2591a0	0.0025263801
5	0x3a48cf26	0.0007660262
6	0x3c41c5be	0.011826931
7	0x3a9a765b	0.001178454
8	0x402a74cd	2.663379
9	0x3d9d829f	0.076909296
10	0x3ee6d244	0.45082295
11	0xb9928ca1	-0.00027952067

output_normalizer.variance f4 [12]
0	0x3e1b4613	0.1516345
1	0x3da93096	0.0826122
2	0x3d0e6c90	0.034771502
3	0x38e2c638	0.00010813441
4	0x3baf0fff	0.005342483
5	0x3ca73d41	0.02041495
6	0x3e8363ad	0.25661984
7	0x40070b59	2.1100676
8	0x428f5a6a	71.67659
9	0x432d5868	173.34534
10	0x40d1ae7e	6.5525503
11	0x3ec54ec0	0.38536644

encoder.layers.0.weight f4 [32, 24]
0	0xbaa198cf	-0.0012328866
1	0x3a6c6f5e	0.00090192806
2	0xbc4ff340	-0.012692273
3	0xbe1982a0	-0.14991236
4	0xbe59b444	-0.21260172
5	0x3e91b455	0.28457895
6	0x3d1ce1a8	0.03830114
7	0xbeee8e5e	-0.46592993
8	0xba82235e	-0.0009928753
9	0xbe9752c1	-0.29555324
10	0x3cae99a2	0.021313492
11	0xbde145ae	-0.109996185
12	0x3badcd49	0.005304013
13	0x3c289f2c	0.010291856
14	0x3d13e697	0.03610858
15	0x3e728ce5	0.2368656
16	0xbc3df735	-0.011594583
17	0xbb353fee	-0.0027656513
18	0xba930f53	-0.0011219777
19	0x3cf85b47	0.030316962
20	0x3d14a2a3	0.036287915
21	0xbbdd6972	-0.006756955
22	0xbd7022e7	-0.058627035
23	0xbb2d2f91	-0.0026426057
24	0x3ddcb6d2	0.10777058
25	0x3c2002c8	0.009766288
26	0x3e268240	0.16260624
27	0x3d99219a	0.07477112
28	0xbd32e29c	-0.043673143
29	0xbca74cf4	-0.020422436
30	0xbe126f68	-0.1430031
31	0x3defd0eb	0.1170977
32	0x3e69bdfe	0.22826383
33	0x3dff263a	0.12458463
34	0x3cf5896b	0.029972753
35	0xbcff0b83	-0.031133419
36	0x3e116e9c	0.1420235
37	0xbd785185	-0.060624618
38	0xbdd9bc28	-0.10631591
39	0xbdaafb6e	-0.08348738
40	0xbd23b9fa	-0.039972283
41	0xbde07e17	-0.1096155
42	0xbe3b9515	-0.18318589
43	0x3d4dac39	0.050213072
44	0xbdf03449	-0.117287226
45	0x3de67cff	0.1125431
46	0xbdb71c70	-0.08940971
47	0x3da269ca	0.07930334
48	0x3bed5886	0.007243219
49	0x3ce3903d	0.02777874
50	0xbb719dac	-0.0036867661
51	0xbeaa2b02	-0.33235937
52	0x3d0c0aaf	0.034189876
53	0xbe97ff59	-0.29687002
54	0xbe03abd7	-0.1285852
55	0x3e19806f	0.149904
56	0xbcf0e7bc	-0.029407375
57	0xbe05772b	-0.1303374
58	0xbe03ef8c	-0.12884349
59	0xbe2e8d94	-0.17046195
60	0x3ae84354	0.0017720261
61	0x3b1f2707	0.0024284737
62	0xbda4b1d4	-0.080417305
63	0xbe82ccfa	-0.2554701
64	0xbb93b824	-0.0045080353
65	0x3caed36e	0.021341052
66	0xbb35ea52	-0.0027758074
67	0xbdba2505	-0.09089092
68	0xbb6370e8	-0.0034704749
69	0x3dbe5e62	0.09295346
70	0x3cb8b1ab	0.022545656
71	0xbac0569c	-0.0014674249
72	0x3c216c15	0.009852429
73	0xbcad9661	-0.02118987
74	0x3d279c95	0.040920813
75	0xb992a229	-0.0002796811
76	0xbcd0038c	-0.025392316
77	0x3e8a6618	0.27031016
78	0xbe81821d	-0.2529458
79	0x3e4a7f10	0.19775033
80	0x3de7ea43	0.11323979
81	0xbe259777	-0.1617106
82	0x3d14ce0f	0.036329325
83	0xbcf98145	-0.030457148
84	0xbd84db0e	-0.06487094
85	0x3d73c7f8	0.059516877
86	0x3e318f6d	0.17339869
87	0xbe5ec86f	-0.21756147
88	0xbcd71f28	-0.026259974
89	0xbc278a1e	-0.010225801
90	0x3d94a5c0	0.07258177
91	0x3df276e6	0.11839084
92	0x3db22023	0.08697536
93	0x3ce6494b	0.02811112
94	0x3d34ad0b	0.04411034
95	0xbd29ff6f	-0.041503366
96	0x3a45d3ff	0.00075465435
97	0x3b928be9	0.004472245
98	0xbd8fb57c	-0.07017037
99	0xbe549653	-0.20760469
100	0xbe80d73b	-0.25164208
101	0x3e7a41bf	0.24439143
102	0xbe8ff394	-0.28115523
103	0x3e26bf51	0.16283919
104	0xbc8712f5	-0.016488532
105	0xbdf27e66	-0.11840515
106	0x3d9ab5b6	0.0755419
107	0xbe94b8c5	-0.29047218
108	0x3da0d5b4	0.07853261
109	0x3c94ea7b	0.018178215
110	0x3d4e8b57	0.050425854
111	0x3e01aa4f	0.12662624
112	0x3cee3acb	0.029080769
113	0xbc0a7582	-0.008450868
114	0xbd8c5616	-0.06852357
115	0xbdf9875d	-0.121840216
116	0xbd920c79	-0.07131285
117	0x3e036bbb	0.12834065
118	0x3d9bb10d	0.07602129
119	0x3d48bfe0	0.04901111
120	0x3af51775	0.0018699007
121	0xbc945a09	-0.018109338
122	0x3c427149	0.01186783
123	0x3c28cc30	0.010302588
124	0xbe30536e	-0.17219326
125	0xbe661905	-0.22470482
126	0xbd86f840	-0.06590319
127	0xbe0eb88a	-0.13937584
128	0x3cdfaf1a	0.027305175
129	0x3d73c3fb	0.059513073
130	0x3e605e84	0.21911055
131	0xbe8a0c3f	-0.26962468
132	0x3d2c9633	0.04213543
133	0x3c7989ef	0.01523064
134	0xbe8ba4f3	-0.27274284
135	0xbda9b943	-0.08287289
136	0xbca09536	-0.0196024
137	0x3cf8e9ed	0.030384982
138	0xbc0ae062	-0.008476349
139	0x3dd02f8d	0.101653196
140	0xbd88408e	-0.06652938
141	0xbde5d39d	-0.11222003
142	0x3de08223	0.109623216
143	0xbd0d850b	-0.034550708
144	0x3d99ef58	0.07516354
145	0xbd93a8e0	-0.07209945
146	0xbe344d13	-0.17607526
147	0x3bbbd74d	0.005732453
148	0xbd91dd8a	-0.07122333
149	0xbda42932	-0.0801567
150	0x3d2206b5	0.039557178
151	0xbb53872b	-0.0032276611
152	0xbde9bc0f	-0.114128225
153	0x3c9cb274	0.019128062
154	0x3c8afa05	0.016964922
155	0xbcd9eae4	-0.026601262
156	0x3c952e7d	0.018210644
157	0x3e59c461	0.21266319
158	0xba9c4f76	-0.0011925537
159	0x3cb4b5d2	0.022059355
160	0x3e124f77	0.14288126
161	0xbdff755b	-0.12473556
162	0xbe0c8917	-0.1372417
163	0x3e1af37c	0.15131944
164	0x3c87af39	0.016563045
165	0x3e059466	0.13044891
166	0x3d6161b1	0.055024806
167	0xbc8fcb00	-0.017552853
168	0xbdc0d6d0	-0.09415972
169	0x3d1b4ca2	0.03791488
170	0x3de06478	0.10956663
171	0x3d1f758a	0.038930453
172	0x3ca71d53	0.020399725
173	0x3d8e3d73	0.06945314
174	0xbd2b40ed	-0.041809965
175	0x3c8d1835	0.017223457
176	0xbdfc457d	-0.12317941
177	0x3c46732c	0.01211242
178	0x3d8c6efc	0.06857106
179	0xbbdafc55	-0.0066829124
180	0x3d948227	0.07251387
181	0xbd973037	-0.07382243
182	0x3d6642f7	0.056216206
183	0xbd0207df	-0.031745788
184	0x3e1042c4	0.14087969
185	0x3dd2105a	0.10257025
186	0xbddd71f9	-0.10812754
187	0x3dcc5078	0.09976286
188	0xbddaabe9	-0.106773205
189	0x3da25806	0.079269454
190	0x3bc918e9	0.0061370027
191	0xbd9ac73f	-0.075575344
192	0xbbde1f0c	-0.0067786034
193	0xb8f92f68	-0.00011882075
194	0xbccba90b	-0.02486088
195	0x3e569a8d	0.20957394
196	0x3e9de655	0.30839792
197	0x3eb48d00	0.35263824
198	0xbea79f35	-0.32738653
199	0xbc33e9f4	-0.010981072
200	0xbca328a4	-0.01991684
201	0x3e89ad30	0.26889944
202	0xbe1ca16c	-0.15295953
203	0xbb98906c	-0.0046558883
204	0x3d471f6e	0.048613958
205	0x3c5efce9	0.013610103
206	0xbd7eab48	-0.062175065
207	0xbcefcb75	-0.02927182
208	0x3ccae2fd	0.02476644
209	0xba1326fc	-0.0005613414
210	0xbc52be95	-0.012862821
211	0xbd6d1f9a	-0.057891466
212	0x3d38f5e8	0.04515639
213	0x3e1d002a	0.15332094
214	0xbdcbc6d3	-0.09950032
215	0xbd21566b	-0.039389055
216	0xbc607843	-0.013700548
217	0x3ba677f4	0.0050802175
218	0xbb402ed7	-0.0029324794
219	0x3d9f6869	0.077835865
220	0xbe2f5b94	-0.17124778
221	0xbdef3afa	-0.11681171
222	0x3e150372	0.14552096
223	0x3e885072	0.26623875
224	0xbbe1c42e	-0.0068898415
225	0xbdc9b6f9	-0.098493524
226	0x3cba93e9	0.022775607
227	0x3c7ea146	0.01554138
228	0xbd461fe4	-0.048370257
229	0xbd3239cf	-0.04351216
230	0x3d23e5c3	0.04001404
231	0x3e14b4e2	0.14522126
232	0x3df77a7b	0.12083908
233	0xbe5f83e3	-0.21827655
234	0x3c417f62	0.011810156
235	0x3dcceb5a	0.10005827
236	0xbdb32a37	-0.08748286
237	0x3c4b4169	0.012405732
238	0xbabc8008	-0.0014381418
239	0x3adbc5ac	0.0016767285
240	0x3c0dbaf1	0.008650527
241	0xbbb15539	-0.0054117707
242	0x3afd26f9	0.0019313983
243	0xbe64a487	-0.22328387
244	0xbdd38d54	-0.103296906
245	0x3f01b817	0.50671524
246	0xbcaf4dc4	-0.021399386
247	0x3e0f47b9	0.13992204
248	0xbdb750c2	-0.0895095
249	0x3dbfb89e	0.09361385
250	0xbe75bf06	-0.23998651
251	0x3e625ea6	0.22106418
252	0x3d126fa4	0.035751
253	0xbc34bffd	-0.011032102
254	0x3c9f9d64	0.01948423
255	0xbe283e09	-0.16429915

encoder.layers.0.bias f4 [32]
0	0xbc12df88	-0.008964427
1	0x3ea484cc	0.32132566
2	0x3a8f52fd	0.0010934767
3	0xbdcedc09	-0.10100562
4	0xbdbc955c	-0.092081755
5	0xbceb29b7	-0.028706415
6	0x3e9aa93a	0.30207235
7	0x3eafb66c	0.34318864
8	0x3c4d81b0	0.012543127
9	0xbd0f2d69	-0.034955416
10	0x3b122407	0.0022299306
11	0xba9216e3	-0.0011145737
12	0xbd6a444a	-0.05719403
13	0xbce6c87d	-0.028171772
14	0x3ea45c7f	0.3210182
15	0xbc8ab34e	-0.016931202
16	0x3ee8f5aa	0.45499927
17	0xbdf85dac	-0.121272415
18	0xbd8fb8a5	-0.0701764
19	0x3ee85550	0.45377588
20	0x3e9f468c	0.3110851
21	0xbc2fdbfc	-0.010733601
22	0xbcc62c03	-0.024190908
23	0xbd533fee	-0.05157464
24	0x3ec96866	0.39337462
25	0x3a9b6862	0.001185667
26	0x3e2407a0	0.16018534
27	0xbc8f5b07	-0.01749946
28	0xbba6d6d0	-0.0050915256
29	0x3e2fbb0c	0.17161196
30	0xbd48070e	-0.048834853
31	0x3ece8945	0.40339103

encoder.layers.2.weight f4 [32, 32]
0	0xbdf762fc	-0.12079427
1	0x3cfd4ae7	0.030919505
2	0xbe0ae1ca	-0.13562694
3	0xbdf888ee	-0.12135492
4	0xbde3b46f	-0.11118399
5	0xbdde0461	-0.10840679
6	0x3d149572	0.036275335
7	0x3e326bcb	0.17423932
8	0xbe6c2d32	-0.23064116
9	0xbddc8547	-0.10767608
10	0xbe681ce1	-0.22667266
11	0xbd55c990	-0.052194178
12	0xbd99b784	-0.07505706
13	0xbd91558a	-0.070963934
14	0x3d859e03	0.06524279
15	0xbdf6bf9d	-0.12048266
16	0x3caffc25	0.021482537
17	0xbd836aed	-0.06416879
18	0xbcb5df79	-0.022201287
19	0x3d4eb736	0.050467692
20	0xbd71d850	-0.059044182
21	0xbe610a38	-0.21976554
22	0xbec3b42d	-0.382234
23	0xbe4bb0d7	-0.19891678
24	0x3e03d5fd	0.12874599
25	0xbe162cd1	-0.14665534
26	0xbc270576	-0.010194173
27	0xbe4748fb	-0.19461434
28	0xbd65d7f7	-0.056114163
29	0xbd85b814	-0.06529251
30	0xbe72a810	-0.23696923
31	0x3cf8c4f2	0.030367348
32	0xbee110e7	-0.43958208
33	0x3dd51e59	0.10406179
34	0xbe9e2b4e	-0.30892414
35	0xbe0e363c	-0.13887876
36	0xbea24f81	-0.31701282
37	0xbeba2ff5	-0.36364713
38	0xbd70e91b	-0.058816057
39	0x3dd7af63	0.10531499
40	0xbec2fbb7	-0.38082668
41	0xbe682748	-0.22671235
42	0xbeb2a667	-0.3489258
43	0xbe832fb5	-0.25622335
44	0xbe187361	-0.14887764
45	0xbebf513c	-0.37366664
46	0x3df02fb0	0.11727846
47	0xbef2ee1f	-0.47447297
48	0x3e3a0af9	0.18168248
49	0xbeabd062	-0.3355742
50	0xbd495889	-0.0491567
51	0x3dfc015c	0.12304947
52	0x3d9d8e60	0.076931715
53	0xbebab131	-0.3646331
54	0xbe9f324a	-0.31093055
55	0xbe627d83	-0.22118191
56	0x3c19b3f3	0.009381282
57	0xbe025539	-0.12727822
58	0xbd09cab0	-0.033640563
59	0xbe4f0f42	-0.20220664
60	0xbe77cb0a	-0.24198547
61	0xbd06ff1b	-0.03295813
62	0xbedf64fc	-0.43631732
63	0xbcfed932	-0.031109426
64	0x3e122d0b	0.14274995
65	0xbd1c02f1	-0.038088743
66	0x3e27b9d4	0.16379482
67	0x3d1ba24f	0.037996586
68	0x3e337b75	0.17527564
69	0x3d70327c	0.058641896
70	0x3c71d0e9	0.014759281
71	0x3dbcd658	0.0922057
72	0x3e2951e2	0.16535142
73	0xbca13bd8	-0.019681856
74	0xbdaf3cb7	-0.08556502
75	0x3daf3f66	0.08557014
76	0x3e25ada5	0.16179521
77	0x3e33bc30	0.17552257
78	0x3e15df07	0.1463586
79	0x3e09e3f2	0.1346586
80	0x3db42444	0.087959796
81	0x3e1e49e9	0.15457882
82	0x3de0fd3d	0.10985801
83	0x3ddfdc61	0.10930706
84	0x3d701097	0.05860957
85	0x3d7a9990	0.061181605
86	0xbd737fee	-0.059448175
87	0x3e0fca70	0.14042068
88	0xbcd0faf7	-0.025510294
89	0x3d2a125c	0.041521415
90	0xbafbbbe2	-0.0019205774
91	0x3e1dc62e	0.15407631
92	0x3d870539	0.06592793
93	0x3ccb7e79	0.02484058
94	0x3e6c9e7e	0.23107335
95	0x3dfa7cd8	0.12230843
96	0x3d0481a2	0.03235019
97	0xbd246e83	-0.040144455
98	0xbca273b9	-0.019830571
99	0x3d868b24	0.06569508
100	0x3ae16ed1	0.0017199164
101	0x3e2ebcdc	0.17064232
102	0x3ce28da6	0.027655434
103	0x3da72ab8	0.08162445
104	0x3d037c7f	0.03210115
105	0xbc270189	-0.010193237
106	0xbe14278b	-0.1446821
107	0x3e0b522f	0.1360557
108	0xbd45b0fe	-0.048264496
109	0xbd942c57	-0.0723502
110	0x3d50d5a0	0.05098498
111	0xbd83f323	-0.06442859
112	0x3e330b9c	0.17484897
113	0xbd5692a8	-0.052385956
114	0x3e00ace4	0.12565953
115	0x3ddfb379	0.109229036
116	0x3db800a7	0.089844994
117	0x3ddbc30f	0.10730564
118	0xbd190a40	-0.03736329
119	0x3db94f98	0.090483844
120	0x3dc147b5	0.09437505
121	0x3cbcd479	0.023050534
122	0x3cbc9fbe	0.02302539
123	0xbd0e6855	-0.034767468
124	0x3dabb64c	0.0838438
125	0xbd37c423	-0.044864785
126	0x3d4c9c5e	0.04995381
127	0x3e2fe7eb	0.17178313
128	0x3e0d3362	0.13789132
129	0x3e55c627	0.2087637
130	0x3db60419	0.088875
131	0xbb3c9547	-0.00287755
132	0xbcee94cb	-0.029123684
133	0x3e26a6ad	0.1627452
134	0x3dcdaa88	0.10042292
135	0x3d67a206	0.056551002
136	0x3cd79f37	0.026321037
137	0x3da3034b	0.079596125
138	0xbcecd8de	-0.028912004
139	0x3a978de5	0.0011562674
140	0x3d9ec0a8	0.0775159
141	0x3d9b3a6a	0.07579501
142	0xbd4a6dbc	-0.049421057
143	0x3d9942fe	0.07483481
144	0x3d357d82	0.044309147
145	0x3c3df083	0.011592987
146	0x3e1d897b	0.15384476
147	0x3d5582ee	0.052126817
148	0x3d237844	0.039909616
149	0x3e1bd2a7	0.15217076
150	0x3d858cf1	0.06521023
151	0x3db0633a	0.08612676
152	0xbd59c66b	-0.05316774
153	0x3e077aa1	0.13230373
154	0x3d281f86	0.041045688
155	0x3e0bb1e1	0.13642074
156	0x3c576e31	0.01314883
157	0x3d46f1e9	0.048570547
158	0x3cb52e32	0.022116754
159	0x3e37cab0	0.17948413
160	0x3dc640e8	0.09680349
161	0x3d112650	0.03543693
162	0x3dd850a9	0.1056226
163	0x3cc984ff	0.02459955
164	0x3e245079	0.16046323
165	0xba115ced	-0.0005545158
166	0x3d4b7cdd	0.049679626
167	0xbd13d23d	-0.03608917
168	0x3d3e34d5	0.046437103
169	0x3ca04780	0.019565344
170	0x3e1766ad	0.14785261
171	0x3d82a09f	0.06378292
172	0x3e1f9202	0.15583041
173	0x3dc5c1f0	0.09656131
174	0xbc88dabc	-0.016705863
175	0xbd693b13	-0.056941103
176	0x3d90dcaa	0.07073338
177	0xbcb2746c	-0.02178403
178	0x3d22430c	0.039614722
179	0x3de008ac	0.10939154
180	0x3e00e93c	0.12588972
181	0x3dbbb175	0.091647066
182	0x3c0fd69e	0.008779196
183	0x3e04b5e8	0.12960017
184	0x3e173779	0.14767255
185	0x3e3a695c	0.18204254
186	0x3d808ed2	0.06277241
187	0x3e1842e0	0.14869261
188	0x3d97bcae	0.07409035
189	0x3d2dbc35	0.042415816
190	0x3d4c6ed1	0.04991037
191	0x3db67c01	0.089103706
192	0xbb8d5f73	-0.004314357
193	0x3df00e97	0.11721533
194	0x3db73fad	0.08947692
195	0x3e2653a6	0.16242847
196	0xbdb88f4f	-0.09011709
197	0x3e0e882c	0.13919133
198	0x3e2cdd2b	0.16881244
199	0xbc9fb443	-0.019495135
200	0xbb931237	-0.0044882554
201	0xbd08d5e4	-0.033407107
202	0x3d823add	0.063588835
203	0xbd92aac4	-0.07161477
204	0x3d696005	0.056976337
205	0xbb413db3	-0.0029486238
206	0x3da474d7	0.08030098
207	0xbd97beb8	-0.074094236
208	0x3e59fb46	0.2128726
209	0x3daae085	0.08343605
210	0xbc91050a	-0.017702598
211	0x3d06a40a	0.032871284
212	0x3daa17d7	0.08305328
213	0x3d868385	0.06568054
214	0xbd674a9a	-0.05646763
215	0x3c615e3d	0.013755378
216	0x3e1716c1	0.14754774
217	0xbd05efa8	-0.032699257
218	0x3cb5c163	0.02218694
219	0xbd529b1a	-0.051417448
220	0xbbefa974	-0.0073139016
221	0xbb96840a	-0.004593377
222	0xbbf53d2c	-0.007484099
223	0x3e5d9cc9	0.2164184
224	0xbe7c9da8	-0.24669516
225	0xbd0f3956	-0.03496679
226	0xbe3f2891	-0.18667819
227	0xbe2bb082	-0.16766551
228	0xbdac6122	-0.08416964
229	0xbe1b5026	-0.15167293
230	0x3e1707f8	0.14749134
231	0x3e527a08	0.20554364
232	0xbedce868	-0.43146062
233	0xbe4a5d75	-0.19762214
234	0xbe9015e1	-0.28141692
235	0xbe8c16b1	-0.27361062
236	0xbeaa1d19	-0.33225325
237	0xbe8fff7f	-0.28124616
238	0x3e4238a8	0.18966925
239	0xbe838c01	-0.25692752
240	0x3d99b393	0.07504954
241	0xbe231746	-0.15926847
242	0xbd04a3f1	-0.03238291
243	0x3e3f94cb	0.18709104
244	0x3e2f1f51	0.1710179
245	0xbe33ec77	-0.17570673
246	0xbea5dc2e	-0.32394546
247	0xbd683410	-0.056690276
248	0x3e76b974	0.24094182
249	0xbd5dba7e	-0.05413293
250	0x3d434b5c	0.04767929
251	0xbe55251d	-0.20814939
252	0xbe2fb75f	-0.17159794
253	0x3e25d619	0.16194953
254	0xbeb0aa5f	-0.34504983
255	0x3d5a0437	0.053226676

encoder.layers.2.bias f4 [32]
0	0x3e1cc3c2	0.1530905
1	0x3ea13f64	0.31493676
2	0xbe0202c0	-0.12696362
3	0xbdc243d6	-0.09485595
4	0xbe013c5b	-0.1262068
5	0xbe40c26f	-0.1882417
6	0x3c4be915	0.012445708
7	0x3ed0ecfa	0.408058
8	0xbd8a6325	-0.067571916
9	0xbe18d7a2	-0.14926007
10	0x3e891df8	0.26780677
11	0x3eaf34b5	0.342199
12	0x3d3c7dd1	0.046018425
13	0xbd23e7a8	-0.040015846
14	0x3ed0d9ea	0.40791255
15	0x3ccb3d4a	0.024809498
16	0x3e3baaf1	0.18326928
17	0xbdf12e83	-0.117764495
18	0xbe15683a	-0.1459054
19	0xbc517b52	-0.0127857495
20	0x3ce19bc8	0.027540103
21	0xbda32908	-0.079668105
22	0xbd452df5	-0.04813953
23	0x3e57c311	0.21070506
24	0x3e20a13c	0.15686506
25	0xbe821d7e	-0.25413126
26	0x3e6b249d	0.22963186
27	0xbdc27149	-0.09494264
28	0xbc8c6285	-0.017136822
29	0xbd5cfdec	-0.053953096
30	0x3e933321	0.28749946
31	0x3eaab9ce	0.33344883

encoder.layers.4.weight f4 [12, 32]
0	0x3e8c8226	0.27443045
1	0x3eb2dc84	0.34933865
2	0xbe71d5cf	-0.23616718
3	0xbe4c902b	-0.1997687
4	0xbe2bf4f2	-0.16792658
5	0xbddcd9b7	-0.10783713
6	0xbe58178b	-0.21102731
7	0x3e7634e2	0.2404361
8	0xbdeee0e2	-0.11663987
9	0xbe2d87a1	-0.1694627
10	0x3efc4147	0.49268553
11	0xbcff9304	-0.031198032
12	0xbd8e8ef1	-0.06960858
13	0xbdb7c975	-0.08973972
14	0x3eac54ad	0.33658352
15	0x3d9af2ae	0.07565819
16	0x3e064f3a	0.1311616
17	0xbe6cf2c9	-0.2313949
18	0x3d654017	0.055969324
19	0xbe2ed90e	-0.17074987
20	0xbe08f349	-0.13374056
21	0x3b0309de	0.0019994895
22	0x3d337a92	0.043818064
23	0x3db52a15	0.08845917
24	0xbe065399	-0.13117827
25	0xbe33ab6c	-0.17545861
26	0x3e99294d	0.29914322
27	0x3b35921d	0.0027705499
28	0xbe2d85d3	-0.16945581
29	0xbe380da2	-0.1797395
30	0x3e9671f3	0.2938381
31	0x3ef5e72a	0.48027927
32	0xbdcd4311	-0.100225575
33	0x3e0b631f	0.1361203
34	0x3dda5802	0.106613174
35	0x3d02be45	0.031919736
36	0xbe0f9778	-0.14022624
37	0x3c20adc7	0.009807057
38	0xbd6910b3	-0.05690069
39	0x3e1557c7	0.14584266
40	0xbdcce4b7	-0.100045614
41	0x3ceccfa2	0.0289076
42	0x3e65e2ac	0.2244975
43	0x3c5aa391	0.013344661
44	0xbe113469	-0.14180149
45	0x3c793b4a	0.0152118895
46	0x3e052213	0.1300128
47	0x3dbfb710	0.09361088
48	0x3d4a3ca9	0.049374256
49	0xbe2149fd	-0.1575088
50	0xbde8c9ed	-0.11366639
51	0xbdbbaedf	-0.091642134
52	0x3e16e9c4	0.14737612
53	0xbc9ecd5f	-0.019385038
54	0xbdbc089a	-0.09181328
55	0x3cc7f5e6	0.024409246
56	0x3d5c1ef4	0.053740457
57	0xbde25932	-0.11052169
58	0xbddfec7b	-0.10933777
59	0xbdb28b1e	-0.08717941
60	0x3c90f6e6	0.017695855
61	0x3d9d520a	0.07681663
62	0x3dd68083	0.104737304
63	0x3e2290c5	0.15875538
64	0xbe10a459	-0.14125194
65	0xbde642bb	-0.112431966
66	0xbc59540e	-0.013264669
67	0x3caf7839	0.021419631
68	0x3daa0af9	0.08302874
69	0xbd26182f	-0.040550407
70	0xbd50013b	-0.050782423
71	0xbe6166ce	-0.22011873
72	0x3d6ac018	0.0573121
73	0x3d7fe51a	0.062474348
74	0xbdbc54c8	-0.09195858
75	0xbe09edf4	-0.13469678
76	0xbcdd7fe8	-0.02703853
77	0x3c0cf217	0.008602641
78	0xbdcf6332	-0.10126342
79	0xbccbebfd	-0.024892801
80	0xbde0aae5	-0.109700955
81	0xbb8d9c7c	-0.004321633
82	0xbd970032	-0.07373084
83	0xbe0bb261	-0.13642265
84	0xbca89afe	-0.020581719
85	0x3d283f8c	0.041076228
86	0xbd3b7e27	-0.045774605
87	0xbe0400f1	-0.12890984
88	0xbd85cef9	-0.065336175
89	0xbbd72357	-0.006565492
90	0xbe291567	-0.1651207
91	0x3cb9dcb8	0.022688255
92	0xbe126dca	-0.14299694
93	0xbc66e9fb	-0.014093871
94	0xbe6be23a	-0.23035517
95	0xbe4375e8	-0.19087946
96	0x3d581058	0.05274996
97	0x3da9bdc0	0.08288145
98	0x3d518332	0.05115051
99	0xbd0b4e6e	-0.034010343
100	0xbde53c25	-0.11193112
101	0xbd8e0218	-0.06933993
102	0xbdb46293	-0.08807864
103	0x3d4c5470	0.049885213
104	0xbe2a1f31	-0.16613461
105	0xbd857a02	-0.06517412
106	0x3dcd81ee	0.10034548
107	0xbe2c88ff	-0.16849135
108	0xbdbac24d	-0.09119091
109	0xbd4c15da	-0.049825527
110	0xbd45fc48	-0.048336297
111	0xbdea2dd8	-0.11434525
112	0xbd3dad2a	-0.04630772
113	0xbdf400c6	-0.1191421
114	0xbdcef497	-0.101052456
115	0x3da28562	0.07935597
116	0x3e024ebe	0.1272535
117	0xbc46214b	-0.012092899
118	0x3d2578b7	0.040398326
119	0xbdf5cc05	-0.12001804
120	0xbe152dca	-0.14568248
121	0xbe06379f	-0.13107155
122	0xbe141800	-0.1446228
123	0x3d93829d	0.07202647
124	0xbdd9c5ae	-0.106334075
125	0xbd9d003b	-0.076660596
126	0xbdcb30e4	-0.099214345
127	0x3ad25786	0.0016047813
128	0xbe9144a4	-0.2837268
129	0xbf0e3a5a	-0.5555779
130	0x3e8e3682	0.2777596
131	0xbd0777b7	-0.033073153
132	0x3e0551b9	0.13019456
133	0x3e76af52	0.24090317
134	0xbc8a589e	-0.01688796
135	0xbedb5390	-0.4283719
136	0xbd3a34f9	-0.045460675
137	0x3e6c73d2	0.23091057
138	0xbec2492d	-0.37946454
139	0xbe409524	-0.18806893
140	0x3d503ab2	0.050837226
141	0x3dd3889f	0.10328793
142	0xbec9ca0f	-0.3941197
143	0x3e36dbc5	0.17857273
144	0xbeb80dbd	-0.3594798
145	0x3e632ab5	0.2218426
146	0x3e7b4b1c	0.2454037
147	0x3da9a93a	0.082842305
148	0x3e1afadd	0.15134759
149	0x3e31ef95	0.1737655
150	0x3e1fd3fe	0.15608212
151	0xbea4c096	-0.3217818
152	0xbcd5e102	-0.026108269
153	0x3e8b1cce	0.27170414
154	0xbe99ab72	-0.30013615
155	0x3ddcc2eb	0.10779365
156	0x3e3cc6d0	0.18435216
157	0x3dda4a75	0.10658733
158	0xbed14233	-0.40870818
159	0xbef32bf8	-0.47494483
160	0x3de39db8	0.11114067
161	0x3e233757	0.15939079
162	0xbd2482ce	-0.040163808
163	0xbd88cdf1	-0.06679905
164	0xbd825da3	-0.06365516
165	0x3e06b9d4	0.13156825
166	0x3e323d06	0.17406091
167	0x3ca21210	0.019784003
168	0x3d1c770d	0.038199473
169	0x3d03ca20	0.032175183
170	0x3e3658c7	0.17807303
171	0x3e2c98e1	0.16855194
172	0xbd732a3e	-0.059366457
173	0x3d0728cd	0.032997895
174	0x3e7d619e	0.24744269
175	0x3ce778b1	0.028255792
176	0x3df8422f	0.121219985
177	0x3d1b1586	0.037862323
178	0x3deffae9	0.11717779
179	0x3da60366	0.08106117
180	0xbc3828b3	-0.011240172
181	0xbcc5412f	-0.024078934
182	0x3ddea0f8	0.10870546
183	0x3d819ebf	0.063291065
184	0x3d8197bf	0.063277714
185	0x3d9698da	0.07353373
186	0x3d1be713	0.038062166
187	0x3ceaf311	0.028680356
188	0x3e17c514	0.14821273
189	0xbca70721	-0.020389142
190	0x3e7cdebc	0.24694341
191	0x3db2a4f1	0.08722866
192	0xbccf04a9	-0.025270777
193	0xbcb726d5	-0.022357384
194	0xbd77a2fc	-0.06045817
195	0xbe55d780	-0.20882988
196	0x3bb1b6e6	0.0054234145
197	0x3dacc12c	0.08435282
198	0xbdc77871	-0.09739769
199	0xbd99e406	-0.07514195
200	0xbcf105cf	-0.029421715
201	0x3dc67cad	0.09691749
202	0x3d9741ad	0.073855735
203	0xbea55b30	-0.32296133
204	0xbd70ac22	-0.05875791
205	0xbd81ce11	-0.06338132
206	0xbe2fab45	-0.17155178
207	0xbd4e857b	-0.050420266
208	0xbdec39ef	-0.115344875
209	0xbcaa16da	-0.02076285
210	0x3d82dc84	0.06389716
211	0x3d5a66fa	0.053320862
212	0x3ca0464e	0.019564774
213	0x3d5e95be	0.054342024
214	0xbe1567d4	-0.14590389
215	0xbe943766	-0.28948516
216	0xbe6db72f	-0.2321441
217	0xbcf663ca	-0.03007688
218	0xbd82fba5	-0.06395654
219	0x3cbd9c21	0.023145737
220	0xbdcc878c	-0.09986791
221	0xbd960cc0	-0.073266506
222	0xbe60bf9f	-0.21948098
223	0x3a55b244	0.0008151869
224	0xbda78675	-0.081799425
225	0xbdb7d517	-0.089761905
226	0xbd773024	-0.060348645
227	0xbdeb50d4	-0.11490026
228	0x3dc01ee8	0.09380895
229	0xbd103abd	-0.035212267
230	0xbc8243c8	-0.015901461
231	0xbe03fd9e	-0.12889716
232	0xbd1b8f7c	-0.037978634
233	0x3d53f88c	0.051750705
234	0x3ca28e1f	0.01984316
235	0xbe14c408	-0.14527905
236	0xbdc5a5f1	-0.096507914
237	0xbd01f8c3	-0.03173138
238	0xbdefa101	-0.11700631
239	0xbe14d288	-0.14533436
240	0xbd9cb5ac	-0.07651839
241	0x3ca62a16	0.02028374
242	0x3dc1ae73	0.09457102
243	0x3cf7f8f8	0.030270085
244	0x3c9f2935	0.019428829
245	0xbd2b48dd	-0.041817535
246	0xbd1c9fcf	-0.038238343
247	0x3cf9d4fd	0.030497069
248	0xbe12c928	-0.14334548
249	0xbd7950bd	-0.060868014
250	0xbb2a3099	-0.0025968908
251	0xbd87102e	-0.06594883
252	0x3dcce483	0.10004523
253	0xbd860bd4	-0.06545225
254	0xbe12e0ed	-0.14343615
255	0x3b9ea845	0.0048418366

encoder.layers.4.bias f4 [12]
0	0x3e5bd730	0.21468806
1	0x3e1837b8	0.14865005
2	0xbc862a23	-0.016377514
3	0xbe1c13f0	-0.1524198
4	0xbe9a6088	-0.30151772
5	0x3e55c8ae	0.20877334
6	0xbe3ac279	-0.18238248
7	0xbe0a16c0	-0.13485241
8	0x3ca2d58b	0.019877216
9	0x3dbd2925	0.09236363
10	0xbe999161	-0.29993728
11	0xbdced884	-0.10099891

decoder.layers.0.weight f4 [32, 18]
0	0x3eac54fd	0.3365859
1	0xbdb9fa28	-0.09080917
2	0x3dc4de56	0.0961272
3	0xbe026d36	-0.12736973
4	0xbe3fac9b	-0.18718188
5	0x3c8993c0	0.016794086
6	0xbe28a81c	-0.16470379
7	0xbd10759b	-0.035268407
8	0xbe515fb7	-0.20446669
9	0x3cd49bfb	0.025953284
10	0x3ebf41b0	0.37354803
11	0x3e451f2e	0.19250175
12	0xbe956219	-0.29176405
13	0xbdd1a94b	-0.10237368
14	0x3d11d350	0.035601914
15	0xbd09c0b2	-0.033631034
16	0x3e32bcc9	0.17454828
17	0xbd802258	-0.062565506
18	0xbc373a70	-0.011183366
19	0xbdc625a5	-0.09675149
20	0xbdaf7a61	-0.08568264
21	0xbd984ec0	-0.07436895
22	0x3dcb3973	0.09923067
23	0x3c84bda1	0.016203703
24	0x3d09ec96	0.03367289
25	0x3e2a21ca	0.16614452
26	0x3e2d53a7	0.16926442
27	0xbda9d12c	-0.082918495
28	0x3e69d0f9	0.22833623
29	0xbcde39b8	-0.027127132
30	0x3eab6041	0.33471873
31	0xbddb0575	-0.106944
32	0x3e1d4c86	0.15361223
33	0xbe05290e	-0.13003942
34	0x3d677eb4	0.056517318
35	0xbe26efc1	-0.16302396
36	0xbd1bef5f	-0.03807008
37	0xbd9b452f	-0.07581555
38	0xbd8034a8	-0.062600434
39	0x3db8ef36	0.09030001
40	0x3dfc7cf2	0.12328519
41	0x3e351c04	0.17686468
42	0xbe0d0ec4	-0.13775164
43	0x38b0de76	8.4337706e-05
44	0xbecb4356	-0.3969981
45	0xbe013583	-0.1261807
46	0x3e0a0557	0.134786
47	0xbe36dc9c	-0.17857593
48	0xbda29463	-0.07938459
49	0x3c3955af	0.0113119325
50	0x3dcfa4fd	0.10138891
51	0xbde33ce5	-0.11095599
52	0xbdd7ecf4	-0.10543242
53	0x3d06611a	0.032807447
54	0xbe06c0ae	-0.13159439
55	0xbcd33d59	-0.025786089
56	0x3d417995	0.04723509
57	0x3d03d87c	0.032188877
58	0x3e6407f1	0.22268654
59	0x3d036384	0.032077327
60	0x3ebf2a36	0.37336892
61	0x3e08f498	0.13374555
62	0xbc758504	-0.014985327
63	0x3eb753b7	0.35806057
64	0x3d24f1e3	0.040269744
65	0xbe0b49c7	-0.13602363
66	0x3d461832	0.04836292
67	0x3dd1f926	0.102525994
68	0x3c90fcfc	0.017698757
69	0x3de1fce1	0.11034561
70	0x3d82ccb7	0.063867025
71	0x3e9df8ba	0.30853826
72	0xbd8b8b75	-0.06813709
73	0x3de41d83	0.111384414
74	0xbc89ee41	-0.016837241
75	0x3e63fb65	0.22263868
76	0xbe95589c	-0.29169166
77	0x3e293583	0.1652432
78	0xbce2c594	-0.027682103
79	0xbd94940d	-0.07254801
80	0x3d3b48eb	0.045723837
81	0xbdc59688	-0.09647852
82	0xbeb086ca	-0.34477836
83	0xbe1e8970	-0.15482116
84	0xbdd360ab	-0.10321172
85	0x3e429e8b	0.19005792
86	0xbe665395	-0.22492822
87	0x3e595e44	0.21227366
88	0x3cae3e70	0.021270007
89	0xbe51d232	-0.2049034
90	0xbdea4ef1	-0.11440838
91	0xbdc761eb	-0.09735473
92	0x3d90c93a	0.07069631
93	0xbe086894	-0.13321143
94	0xbc9f5495	-0.019449512
95	0xbd73f0a7	-0.059555676
96	0x3ea9885a	0.3311184
97	0x3d452d45	0.048138876
98	0xbcbf497d	-0.023350472
99	0xbea14827	-0.3150036
100	0xbdb00613	-0.085949086
101	0x3df9cebe	0.12197636
102	0x3d49d474	0.049274877
103	0xbe4103c6	-0.18849096
104	0xbd925157	-0.071444206
105	0xbe48f7ea	-0.19625822
106	0xbe33d9d7	-0.17563568
107	0x3ad3fcaa	0.0016173322
108	0x3d71fd1d	0.05907928
109	0xbdcce739	-0.1000504
110	0xbe107cf9	-0.14110173
111	0x3d733436	0.059375964
112	0xbdd85351	-0.10562766
113	0xbd5b71ec	-0.05357544
114	0xbc7519aa	-0.014959732
115	0xbdcb12d2	-0.09915699
116	0xbea8148b	-0.32828173
117	0x3d9fba35	0.07799188
118	0x3d9203f0	0.07129657
119	0xbe059b61	-0.13047554
120	0x3d4a8381	0.04944182
121	0xbd2d2fc5	-0.042281885
122	0x3e00d6f4	0.12581998
123	0xbe70adb4	-0.23503762
124	0x3d98786f	0.07444846
125	0x3e5f03e0	0.21778822
126	0x3e84962e	0.25895828
127	0x3c0f641e	0.008751897
128	0x3dd7fbf3	0.105461024
129	0x3e027ba6	0.1274248
130	0xbe1fb5a4	-0.15596634
131	0x3da54958	0.0807063
132	0x3e51eaaf	0.20499681
133	0x3df6a9fd	0.120441414
134	0x3daa966d	0.08329473
135	0x3e632c3f	0.22184847
136	0x3d9cee7f	0.07662677
137	0xbd12504b	-0.035721105
138	0x3d9c1852	0.07621826
139	0xbe128f23	-0.14312415
140	0x3df905ae	0.121592864
141	0xbd71661e	-0.058935277
142	0xbe123e54	-0.14281589
143	0x3e7a172d	0.24422903
144	0xbe408195	-0.18799432
145	0xbddb3b6b	-0.107046925
146	0xbab4e0ba	-0.0013799884
147	0x3ce39f1a	0.027785826
148	0x3e89b38b	0.26894793
149	0xbbd70398	-0.0065617077
150	0x3e537483	0.20649914
151	0xbe2f6214	-0.17127258
152	0x39a06006	0.0003058912
153	0xbead9152	-0.33899933
154	0x3e2036e4	0.15645939
155	0xbb7d78f2	-0.0038676825
156	0x3cfec941	0.031101825
157	0x3e708696	0.2348884
158	0xbe3b60ec	-0.18298692
159	0xbe0db434	-0.13838273
160	0x3e286e94	0.16448432
161	0x3e88986b	0.26678786
162	0xbe2f3e03	-0.171135
163	0x3d8b99da	0.06816454
164	0x3e482abc	0.19547552
165	0xbe84ba82	-0.25923544
166	0x3e757024	0.2396856
167	0xbe0dd7dd	-0.13851877
168	0xbd9823a3	-0.07428672
169	0xbd714a91	-0.058909003
170	0x3e9ae326	0.30251426
171	0x3af664d6	0.0018798362
172	0xbe1ea030	-0.15490794
173	0xbe5b0d2e	-0.21391746
174	0xbe07268d	-0.131983
175	0x3e7a068a	0.24416557
176	0x3e902af7	0.2815778
177	0x3e8e238b	0.27761492
178	0x3e4849e5	0.19559439
179	0x3d83f63c	0.0644345
180	0x3cec23ac	0.028825603
181	0x3c153abd	0.009108243
182	0x3e74adc9	0.23894419
183	0xbe67ce78	-0.22637355
184	0xbeb0959e	-0.3448915
185	0x3e1ce15b	0.15320341
186	0xbd677dcd	-0.056516457
187	0x3e855227	0.2603924
188	0xbd442340	-0.04788518
189	0x3e050737	0.12991033
190	0x3da94e71	0.08266915
191	0x3e20acb1	0.15690877
192	0x3eabf648	0.33586335
193	0x3e264599	0.16237487
194	0x3e39faf7	0.18162142
195	0xbd8190d8	-0.06326455
196	0x3de51c11	0.11186994
197	0x3eae46ba	0.34038335
198	0x3d9938da	0.07481547
199	0x3daf5495	0.085610546
200	0xbe7eca76	-0.2488192
201	0xbe4867c1	-0.19570829
202	0xbe3ea644	-0.18618113
203	0xbe370656	-0.1787351
204	0xbe8f797d	-0.28022376
205	0x3e153192	0.14569691
206	0xbe02ac52	-0.12761047
207	0xbcc3f303	-0.023919588
208	0x3e849711	0.25896505
209	0xbe370ac4	-0.178752
210	0x3d9d59bb	0.0768313
211	0x3db006e3	0.085950635
212	0xbe61356d	-0.21993037
213	0x3dd3c40e	0.10340129
214	0xbd3070cc	-0.04307632
215	0x3e05ac07	0.13053904
216	0xbe5a5472	-0.21321276
217	0xbbe4f284	-0.006986918
218	0xbe0b7c73	-0.13621692
219	0xbe10f20d	-0.14154835
220	0x3e139fa2	0.14416364
221	0x3c2fb761	0.010724873
222	0xbd9b2a76	-0.07576458
223	0x3e07f1fc	0.13275903
224	0xbe55adfe	-0.20867154
225	0x3e91098d	0.283276
226	0xbd92bfed	-0.07165513
227	0x3e397f37	0.18114935
228	0xbd8d296e	-0.06892668
229	0xbdb88813	-0.09010329
230	0xbce97bb6	-0.028501373
231	0x3c7c838b	0.015412222
232	0xbe0f9a44	-0.14023691
233	0x3c39b80b	0.011335383
234	0x3e9e4661	0.3091307
235	0xbd7bd15f	-0.06147897
236	0xbe3a39a2	-0.18186048
237	0x3d498de8	0.049207598
238	0xbea4b403	-0.32168588
239	0xbe0c9d67	-0.13731919
240	0x3e6ba497	0.23012005
241	0xbe531b51	-0.20615889
242	0x3de0270d	0.10944948
243	0xbdbc0150	-0.09179938
244	0xbe432257	-0.19056068
245	0x3dffa77b	0.12483116
246	0xbd1ec589	-0.038762603
247	0x3d72fe74	0.059324697
248	0xbd0d64df	-0.034520026
249	0x3e26a55d	0.16274019
250	0xbde15d5c	-0.11004135
251	0x3e25db24	0.16196877
252	0x3e45d9c2	0.1932135
253	0xbd6a5ee8	-0.057219416
254	0x3e333881	0.17502023
255	0xbdd39039	-0.10330243

decoder.layers.0.bias f4 [32]
0	0x3e5674b7	0.2094296
1	0x3ea2902d	0.31750622
2	0x3d9d7431	0.076881774
3	0xbd4b73f5	-0.049671132
4	0x3ea376e0	0.31926632
5	0xbe2b1752	-0.16708115
6	0x3daff62b	0.08591875
7	0xbd94eb0b	-0.072713934
8	0x3d5e8c11	0.054332796
9	0xbc539a4e	-0.012915207
10	0x3e2a9187	0.16657077
11	0x3e1dc62e	0.15407631
12	0x3e43c292	0.19117191
13	0x3eb8db5c	0.36104858
14	0x3e9197a4	0.28436005
15	0xbd1f4f84	-0.03889419
16	0x3d94a9b2	0.07258929
17	0x3e1b1d6b	0.15147941
18	0xbe8a6f6e	-0.2703814
19	0x3eb3a452	0.35086304
20	0x3e3b2666	0.18276367
21	0x3c9085b0	0.017641872
22	0x3e7aefe1	0.24505569
23	0xbdc836a3	-0.09776046
24	0x3ea6f5a1	0.32609275
25	0x3eb053e2	0.34438998
26	0x3ec7d606	0.39030474
27	0x3e4f82b4	0.20264703
28	0x3e585940	0.21127796
29	0x398291ab	0.00024904063
30	0xbe1c213e	-0.15247056
31	0x3d8f4cc2	0.06997062

decoder.layers.2.weight f4 [32, 32]
0	0x3e7225fd	0.23647304
1	0x3d125dff	0.035734173
2	0x3d7bfe85	0.061522026
3	0xbe5da7d9	-0.2164606
4	0x3e0f2aa5	0.13981111
5	0x3d463a62	0.048395522
6	0x3cb17463	0.021661943
7	0x3db74840	0.089493275
8	0xbe4e325e	-0.20136401
9	0xbd8b3971	-0.067980655
10	0x3dce9dd9	0.10088701
11	0x3de2de14	0.11077514
12	0xbe0e6a15	-0.13907655
13	0x3e2596a6	0.16170749
14	0x3e2b115f	0.16705845
15	0xbbd45c10	-0.0064807013
16	0xbd2e0ea3	-0.042494427
17	0xbd944e91	-0.07241548
18	0xbe070e75	-0.13189109
19	0x3e1d3ee5	0.15356024
20	0x3dcadda5	0.099055566
21	0xbb6298b9	-0.0034575893
22	0x3e254008	0.16137707
23	0x3d4157fa	0.04720304
24	0x3e2e54a4	0.17024475
25	0xbe045ea7	-0.12926732
26	0x3d806d92	0.06270899
27	0x3dde30a6	0.10849123
28	0x3e4b2b79	0.19840802
29	0x3e13e7be	0.14443871
30	0xbd73c610	-0.05951506
31	0x3dc4ada4	0.09603432
32	0x3e19dcb1	0.15025593
33	0xbde44370	-0.11145675
34	0xbd8e4465	-0.06946639
35	0xbe0dc9a8	-0.13846457
36	0x3ddefe87	0.10888391
37	0xbd8f23d8	-0.069892585
38	0x3dfe6a66	0.12422638
39	0x3db36afb	0.08760639
40	0xbce89868	-0.028392985
41	0xbd68762c	-0.056753322
42	0xbc55d357	-0.013050876
43	0x3db1a321	0.086736925
44	0xbe42f0de	-0.19037196
45	0x3e8d85e0	0.276412
46	0x3ea6f861	0.32611373
47	0xbe365b02	-0.17808154
48	0xbcaa8bef	-0.020818679
49	0xbe1a9571	-0.1509607
50	0xbcaa8442	-0.020815019
51	0x3dc8ef35	0.0981125
52	0x3db4fe04	0.08837512
53	0xbda3750a	-0.07981308
54	0x3de66550	0.112497926
55	0xbb89e18b	-0.004207795
56	0x3eb09cf6	0.34494752
57	0x3def6124	0.1168845
58	0x3dcbd926	0.09953527
59	0x3dcd40c2	0.10022117
60	0x3e0c8004	0.13720709
61	0x3e38c240	0.1804285
62	0xbe2d9fec	-0.16955537
63	0x3dc74928	0.0973075
64	0x3e33017c	0.17481035
65	0x3e441757	0.19149528
66	0xbcaf2463	-0.021379655
67	0xbe0bc135	-0.13647921
68	0x3e5429ab	0.2071902
69	0xbdf36c71	-0.11885918
70	0x3d196c01	0.037456516
71	0x3dbfd47d	0.09366701
72	0x3ca18fa0	0.019721806
73	0x3e35f994	0.17770988
74	0x3e8e1cc8	0.27756333
75	0x3e8f689d	0.280095
76	0xbc93f26c	-0.018059932
77	0x3e7651cc	0.2405464
78	0x3df568ee	0.119829044
79	0xbdf04329	-0.1173156
80	0x3e24b05e	0.16082904
81	0x3e81733e	0.25283235
82	0xbde31ced	-0.110895015
83	0x3dad4e7d	0.08462236
84	0x3cb5ff7d	0.022216553
85	0x3e63ffa4	0.22265488
86	0x3e87b96d	0.26508656
87	0xbcffe4dd	-0.03123706
88	0x3dd16e47	0.10226112
89	0xbd10ea6d	-0.035379816
90	0x3e8dbd77	0.27683613
91	0x3d0dffac	0.034667656
92	0x3e0c5aa1	0.13706447
93	0xbb469c03	-0.0030305393
94	0xbdaead97	-0.085292034
95	0xbd58a16a	-0.05288831
96	0x3d72fb02	0.05932141
97	0xbe525fb3	-0.20544319
98	0xbde554f3	-0.111978434
99	0x3e264a11	0.16239192
100	0x3e1849e9	0.14871944
101	0x3d9276d7	0.07151573
102	0xbca1e5f6	-0.019762974
103	0x3de87469	0.113503285
104	0x3e02937f	0.12751578
105	0x3dad15b7	0.084514074
106	0x3e115c2a	0.14195314
107	0x3d1f5b87	0.038905647
108	0x3c4a7f9b	0.012359525
109	0x3de08689	0.109631605
110	0x3d402e41	0.04691911
111	0xbdc95599	-0.098307796
112	0xbe100227	-0.14063321
113	0x3e9eedbc	0.31040752
114	0xbd9221d3	-0.07135358
115	0xbe199d3f	-0.15001391
116	0x3cb0bc76	0.02157424
117	0xbdc234ac	-0.094827026
118	0x3def794b	0.11693057
119	0x3d295729	0.041342888
120	0x3e528339	0.2055787
121	0x3e40a58b	0.1881315
122	0x3d2ed8cf	0.042687234
123	0x3e680938	0.22659767
124	0xbdd4a160	-0.10382342
125	0x3da8514c	0.08218631
126	0x3e066ec3	0.1312819
127	0xbcbe02c4	-0.023194678
128	0x3ddae9a1	0.106890924
129	0xbde4ab99	-0.11165542
130	0x3e5b7b50	0.21433759
131	0x3d4efa1d	0.050531495
132	0xbdd6d210	-0.10489285
133	0x3c1e94f4	0.009679068
134	0x3d57bbef	0.05266946
135	0x3d9615a4	0.07328346
136	0x3e022fe5	0.12713583
137	0xbd809034	-0.062775046
138	0x3e3eeece	0.18645784
139	0x3e30bb3b	0.17258923
140	0x3e0e15fc	0.13875574
141	0x3e0a275e	0.1349158
142	0xbc090919	-0.008363985
143	0x3d8ae074	0.06781092
144	0xbe0069d3	-0.12540369
145	0x3e2ee0ee	0.17077991
146	0x3cacdb51	0.021100672
147	0xbda53834	-0.080673605
148	0xbdf4252d	-0.11921153
149	0x3e201f5d	0.15636964
150	0xbd7d1445	-0.06178691
151	0xbd6b8fea	-0.057510294
152	0x3e0296b3	0.127528
153	0x3e890527	0.26761743
154	0x3e10f260	0.14154959
155	0x3e904218	0.28175426
156	0xbe84873c	-0.25884426
157	0x3def4f9b	0.116851054
158	0x3dcaafc6	0.098968074
159	0xbe113bb0	-0.14182925
160	0x3e81a9f0	0.25324965
161	0x3e2c20f3	0.16809444
162	0x3da7405f	0.08166575
163	0xbcbbd019	-0.022926377
164	0x3e48e6ce	0.19619295
165	0xbcd16184	-0.025559194
166	0xbd0ed795	-0.034873564
167	0x3d9a8928	0.07545692
168	0xbe0d2e81	-0.13787271
169	0x3be08966	0.0068523167
170	0x3d86440c	0.06555948
171	0x3daa60b3	0.08319225
172	0x3d2e8e9b	0.042616468
173	0x3d81fac4	0.06346658
174	0x3e7d16cd	0.24715729
175	0xbe24fc69	-0.16111912
176	0x3d821d1e	0.0635321
177	0xbcfc4aa6	-0.030797314
178	0xbd85aab1	-0.065266974
179	0xba9d29ae	-0.0011990571
180	0x3e114581	0.1418667
181	0x3e35a18c	0.17737406
182	0x3dd4e416	0.103950664
183	0x3e04ed65	0.12981184
184	0x3db75bc7	0.08953052
185	0x3d822bce	0.06356011
186	0x3e52294e	0.20523569
187	0xbccc00e5	-0.02490277
188	0x3ce6e2ad	0.02818426
189	0xbd3f03a1	-0.04663432
190	0x3d9bc85a	0.076065734
191	0x3d1120dc	0.035431728
192	0x3dc19eda	0.09454127
193	0x3e0a8863	0.1352859
194	0xbcf9a305	-0.030473242
195	0x3dc6a7ce	0.09699975
196	0x3b579861	0.0032897221
197	0x3d3b77be	0.045768492
198	0xbd4e60bd	-0.050385226
199	0xbdac78b7	-0.08421462
200	0x3cfbfe2d	0.030760849
201	0x3db5da47	0.08879524
202	0xbc51b136	-0.012798598
203	0x3e2ff5b7	0.17183577
204	0x3e82d6df	0.2555456
205	0xbe1b841e	-0.15187117
206	0x3cd3f217	0.025872273
207	0x3e6d427a	0.2316989
208	0x3dc74d7c	0.09731576
209	0x3e0d3c4b	0.13792531
210	0x3dc98a82	0.098408714
211	0xbc86ca38	-0.016453847
212	0x3e769191	0.24078967
213	0x3d807af3	0.06273451
214	0x3db26a0c	0.08711633
215	0x3dfa7be7	0.12230664
216	0xbe29f7ac	-0.16598386
217	0x3e1d5aa8	0.15366614
218	0xbdc0cf16	-0.094144985
219	0x3d32431d	0.043521035
220	0xbd51892e	-0.051156215
221	0xbdc4cd68	-0.09609491
222	0x3d807d4b	0.06273898
223	0x3e4052f7	0.18781649
224	0x3d89ed00	0.06734657
225	0x3daba0dd	0.083802916
226	0xbc387cfb	-0.011260266
227	0x3e2cb07a	0.16864195
228	0xbe1ff1ba	-0.15619555
229	0xbd51e90c	-0.05124764
230	0x3e21bbc3	0.15794282
231	0x3ca15fdf	0.019699035
232	0x3cd50e41	0.026007773
233	0x3e1751d2	0.14777306
234	0x39dfb548	0.0004266894
235	0x3d86003d	0.06543014
236	0x3c89100f	0.01673129
237	0x3d7e7108	0.062119514
238	0x3b749fe3	0.0037326745
239	0x3d07b0e5	0.033127684
240	0xbd6c997b	-0.057763558
241	0x3e61e23d	0.2205896
242	0x3dae132c	0.084997505
243	0x3da706c4	0.08155587
244	0xbe4f03e6	-0.20216331
245	0x3d209521	0.03920472
246	0xbd95da75	-0.07317058
247	0x3ce43399	0.027856635
248	0x3dd7bcc6	0.105340526
249	0x3e8b54b5	0.27213064
250	0xbd625b95	-0.05526312
251	0x3e143f72	0.14477327
252	0xbe0a5d03	-0.13512044
253	0x3e20f1c0	0.1571722
254	0xbdfcd013	-0.123443745
255	0xbdefddef	-0.11712252

decoder.layers.2.bias f4 [32]
0	0x3eb58f43	0.35460863
1	0x3e6c7179	0.23090161
2	0x3e170b8d	0.147505
3	0xbc9dc7cb	-0.019260308
4	0xbdcb3603	-0.09922411
5	0x3e5c9375	0.21540625
6	0x3d399caf	0.04531544
7	0x3c7649fe	0.01503229
8	0x3d1b1b0f	0.037867602
9	0x3d96a31a	0.07355328
10	0x3e752b59	0.23942317
11	0x3e95e04a	0.2927268
12	0x3e9762f6	0.2956769
13	0x3dd100f1	0.10205258
14	0xbccf4909	-0.02530338
15	0xbd9b090b	-0.07570084
16	0xbcb61bf2	-0.022230122
17	0x3ddfb9ce	0.10924111
18	0xbd12928a	-0.03578428
19	0x3e7a9cc6	0.24473867
20	0x3dc708d2	0.09718479
21	0x3cd21c2c	0.025648199
22	0x3e930803	0.2871705
23	0x3d5a0657	0.053228702
24	0x3d5649b9	0.0523164
25	0x3db142f1	0.08655346
26	0xbe0bdeac	-0.13659161
27	0xbe12e33c	-0.14344496
28	0xbde5dda9	-0.11223919
29	0x3e813574	0.25236094
30	0xbd9b9849	-0.075974055
31	0xbe0d4765	-0.13796766

decoder.layers.4.weight f4 [24, 32]
0	0xbbd7bb72	-0.0065836245
1	0x3e074060	0.13208151
2	0x3d25df96	0.04049643
3	0xbe0a4dee	-0.1350629
4	0x3cfc90aa	0.0308307
5	0x3cfcc287	0.030854477
6	0xbd89af0e	-0.06722842
7	0xbca7b365	-0.020471284
8	0x3d7ba13b	0.06143306
9	0xbd5f5615	-0.054525454
10	0x3d953af9	0.07286639
11	0xbc451a66	-0.01203022
12	0xbd4c0f35	-0.04981919
13	0xbb71e6f4	-0.003691134
14	0x3b5bdfc7	0.003355013
15	0x3dbe968c	0.09306058
16	0xbc6acc9d	-0.01433101
17	0x3daada8b	0.08342465
18	0x3d2ddc9b	0.042446714
19	0xbd83f0e4	-0.064424306
20	0xbd877b96	-0.06615369
21	0x3d077c97	0.033077803
22	0x3c52cea9	0.012866654
23	0xbc6df203	-0.014523032
24	0x3da503a9	0.08057339
25	0x3d79be62	0.06097258
26	0xbd3501c8	-0.04419115
27	0xbdf1483a	-0.11781354
28	0x3cbf167d	0.023326153
29	0xbd0e6c23	-0.034771096
30	0xbccfa7e4	-0.025348611
31	0xbd3765f6	-0.044774972
32	0xbc40896f	-0.011751517
33	0xbd7e1a3e	-0.062036745
34	0x3d9c2a6e	0.0762528
35	0x3df037f2	0.11729421
36	0xbd9e965d	-0.07743523
37	0x3cfcc926	0.030857634
38	0xbdc1ccf3	-0.09462919
39	0x3da6c9c9	0.08143956
40	0x3d380fcd	0.044936944
41	0x3a7d5b27	0.0009664767
42	0xbe02b5d9	-0.12764682
43	0xbd59093d	-0.052987326
44	0x3daea8ee	0.085283145
45	0x3cd28fd2	0.025703344
46	0xbcdbb378	-0.026818976
47	0x3c44f36e	0.012020929
48	0x3dc6f6a3	0.09715011
49	0xbd84b526	-0.06479864
50	0x3b67e6db	0.0035385403
51	0x3dcd5da4	0.10027626
52	0x3c7181da	0.014740432
53	0xbcfb92e8	-0.030709699
54	0x3dbb1954	0.0913569
55	0xbdb68d67	-0.08913689
56	0xbbd0dfa8	-0.006374318
57	0xbd103b2c	-0.03521268
58	0x3d076e9d	0.033064473
59	0xba859755	-0.0010192195
60	0xbb8c927f	-0.0042899246
61	0xbd99465a	-0.074841216
62	0xbdc0ff6c	-0.09423718
63	0x3cef6723	0.029223984
64	0x3e1e6ea4	0.15471894
65	0xbcb9924f	-0.022652773
66	0xbb09a1d3	-0.0021000996
67	0xbdcc14ef	-0.0996493
68	0x3d528cfc	0.051403984
69	0x3dba76b5	0.09104673
70	0xbdfe0a00	-0.12404251
71	0x3cf78997	0.030216975
72	0xbd8abf5c	-0.0677478
73	0x3d71953b	0.058980208
74	0xbe0e98bc	-0.13925451
75	0xbde49d3e	-0.11162804
76	0x3d98019b	0.07422181
77	0xbd809bd9	-0.062797256
78	0x3c4e4f03	0.01259208
79	0xbd002590	-0.031285822
80	0x3cf2112c	0.029549204
81	0x3c1da3f6	0.009621611
82	0x3db250a3	0.087067865
83	0x3df24dd6	0.11831252
84	0x3d7a5fe3	0.0611266
85	0xbd35e017	-0.04440316
86	0xbe1a402a	-0.15063539
87	0x3d99e3da	0.07514162
88	0x3d2d7ef3	0.042357396
89	0xbddf0f6d	-0.10891614
90	0x3d172d26	0.03690829
91	0x3d795757	0.06087431
92	0xbc8f9c2a	-0.01753052
93	0xbde54093	-0.11193957
94	0x3afaee6c	0.0019144542
95	0xbceb5143	-0.028725272
96	0x3d6a4f10	0.057204306
97	0xbd3bec95	-0.04587992
98	0xbdb94b0f	-0.090475194
99	0xbd928e21	-0.07156015
100	0x3c40c9bb	0.011766846
101	0xbc92394e	-0.01784959
102	0xbd83cdc7	-0.06435733
103	0xbcf80548	-0.030275956
104	0xbcad6ef2	-0.021171067
105	0xbddb2f80	-0.10702419
106	0x3df02805	0.11726383
107	0x3dc48eb8	0.09597534
108	0xbd43c78b	-0.04779772
109	0xbd888a95	-0.066670574
110	0x3dfa590d	0.12224016
111	0x3d7f8b9e	0.06238901
112	0xbced1815	-0.028942147
113	0x3d008fe4	0.031387225
114	0x3c815892	0.015789304
115	0xbdc30685	-0.09522728
116	0x3d747122	0.059678204
117	0x3c8face2	0.017538492
118	0x3d965e97	0.0734226
119	0xbcb9e8e5	-0.02269406
120	0xbd10fb94	-0.035396174
121	0xbd3e6002	-0.04647828
122	0xbbce09d4	-0.0062877927
123	0x3ccee8b8	0.025257453
124	0x3c016d7a	0.007899636
125	0xbdc53be7	-0.09630566
126	0x3d6490e7	0.055802252
127	0x3da7174a	0.08158739
128	0x3d03f649	0.032217298
129	0x3dbc7d63	0.09203603
130	0x3de3be47	0.11120277
131	0xbdbf4891	-0.09340013
132	0x3d9989d5	0.074969925
133	0xbd5c1c25	-0.05373778
134	0x3b6a47be	0.0035748328
135	0x3c241ee0	0.010017127
136	0x3d8d5011	0.06900037
137	0xbc3210c7	-0.010868258
138	0xbcbe8adb	-0.02325957
139	0x3de2c9fa	0.1107368
140	0xbdc843ed	-0.09778581
141	0xbbb2bd83	-0.0054547205
142	0xbbd6e2fc	-0.0065578204
143	0x3d8cfb8e	0.06883918
144	0x3da3584b	0.07975825
145	0xbd1b4c76	-0.037914716
146	0xbd8963a6	-0.067084596
147	0xbda8839b	-0.08228227
148	0xbdab2973	-0.08357515
149	0x3badbc57	0.005301993
150	0xbe0d2bcc	-0.13786238
151	0xbb896dc5	-0.0041939938
152	0x3d34b3ca	0.044116773
153	0xbd38b5af	-0.045095142
154	0x3d16ef26	0.036849163
155	0xbd67f48e	-0.05662971
156	0x3d222788	0.03958848
157	0x3b0071bf	0.0019599048
158	0x3c52bb66	0.012862062
159	0x3b99f1b4	0.0046980027
160	0x3e128e4e	0.14312097
161	0x3ce42dc2	0.02785385
162	0xbcb8ac17	-0.022542996
163	0x3d9d66ac	0.07685599
164	0xbd7fd35d	-0.06245743
165	0xbc6effa8	-0.01458732
166	0x3d82cdec	0.06386933
167	0x3d7dcb7b	0.061961632
168	0x3d52926a	0.051409163
169	0x3d10e94e	0.035378747
170	0x3c87ca5f	0.01657599
171	0xbde23654	-0.110455185
172	0xbdca7b81	-0.09886838
173	0x3d5587f6	0.052131616
174	0xbc5821ee	-0.013191683
175	0x3c829820	0.01594168
176	0xbd07ac90	-0.033123553
177	0x3d81ea34	0.06343499
178	0xbc5743c8	-0.013138719
179	0x39cf9d6e	0.0003959941
180	0x3c8eda27	0.017438008
181	0xbcfab936	-0.030605894
182	0x3d6f8466	0.058475874
183	0xbd88d91c	-0.06682035
184	0xbd0abb51	-0.033870045
185	0x3b52f42a	0.003218899
186	0x3d6c8391	0.05774266
187	0xbd65c35e	-0.05609452
188	0x3cd8cab8	0.026463851
189	0x3c84da14	0.016217269
190	0x3be7598e	0.0070602363
191	0x3d4d59f2	0.050134607
192	0xbda9d76a	-0.0829304
193	0x3db938ae	0.09044014
194	0x3d970fda	0.0737607
195	0x3c7c2b91	0.015391246
196	0x3cfb4b5d	0.030675584
197	0xbe09d6e1	-0.13460876
198	0x3d131b86	0.03591492
199	0x3e125884	0.14291579
200	0xbc318b50	-0.010836437
201	0x3e0d4abc	0.1379804
202	0xbb392afa	-0.0028254376
203	0xbe106a83	-0.14103131
204	0x3e19e167	0.1502739
205	0xbd1c0a9b	-0.03809605
206	0xbe0a6c8c	-0.1351797
207	0x3c7567ff	0.014978408
208	0x3dafcb1e	0.085836634
209	0x3d23ed1b	0.040021043
210	0xbd252b2f	-0.040324386
211	0x3e034c6a	0.12822118
212	0xbca7a58a	-0.020464677
213	0xbd21b72a	-0.03948132
214	0x3dacd6c9	0.084394045
215	0x3de61e3a	0.11236234
216	0x3d200cd9	0.039074752
217	0x3dda4a87	0.10658746
218	0x3d3858ee	0.045006685
219	0xbdf76310	-0.120794415
220	0xbd3374a6	-0.043812416
221	0xbd01b6ed	-0.031668592
222	0xbe532d16	-0.20622668
223	0xbe037d5f	-0.12840794
224	0xbdadda17	-0.08488863
225	0x3de2b3d6	0.11069457
226	0x3c943e20	0.01809603
227	0xbd551d3c	-0.052029833
228	0xbc5a324b	-0.013317655
229	0xbd0bf9dd	-0.034173835
230	0x3d6adacd	0.05733757
231	0x3d185bb4	0.03719683
232	0x3dba5e43	0.0910001
233	0x3dc0722a	0.09396775
234	0xbd615827	-0.05501571
235	0xbdc6a44e	-0.096993074
236	0xbd9076e8	-0.070539296
237	0xbdd3d01f	-0.1034243
238	0xbc553e05	-0.013015275
239	0x3d23e4a9	0.04001299
240	0x3d8a8a3e	0.06764649
241	0xbe0fef3f	-0.14056109
242	0xbdf91e8c	-0.121640295
243	0x3ac46cb0	0.0014986005
244	0x3d894f32	0.067045584
245	0xbc9671a3	-0.018364733
246	0xbda18db4	-0.07888356
247	0x3c600def	0.013675197
248	0xbdb5bfe2	-0.08874489
249	0xbe09cab3	-0.1345623
250	0x3d98e2a8	0.07465106
251	0x3bf87025	0.007581728
252	0x3d193245	0.037401456
253	0x3e075acf	0.13218234
254	0x3dbea4ac	0.093087524
255	0xbd290cc5	-0.041271944

decoder.layers.4.bias f4 [24]
0	0xbd3c3f1d	-0.045958627
1	0xbb5f3fff	-0.0034065244
2	0x3e0b9b36	0.13633427
3	0x3d9b2921	0.07576204
4	0xbc577ab1	-0.0131518105
5	0xbd081cd4	-0.033230618
6	0xbd98ab92	-0.074545994
7	0x3df6c041	0.12048388
8	0x3e3dadc5	0.18523319
9	0x3daf2e25	0.08553723
10	0x3cf03b70	0.029325217
11	0xbca8369b	-0.02053385
12	0x3d82d607	0.06388479
13	0x3e17880b	0.1479799
14	0xbd64d985	-0.055871505
15	0xbdc9e3ef	-0.09857928
16	0xbda920cd	-0.082582094
17	0xbdb73fae	-0.08947693
18	0x3ccb21c3	0.024796372
19	0xbe6d16ff	-0.23153304
20	0x3cee1a2a	0.02906521
21	0xbe132394	-0.1436904
22	0xbd37a7b6	-0.044837676
23	0xbd778fb1	-0.06043977
