m4_ws/src/morphing_lander/learned_models/2024-05-21_16-56-45/model_90.pth (torch, 33902 bytes, 22 tensors)

cond_normalizer.mean f4 [12]
0	0xbeefd019	-0.46838453
1	0xbc0e3cb2	-0.008681463
2	0xb9e972fe	-0.000445269
3	0x3a737654	0.00092873466
4	0x3cec182e	0.028820124
5	0x3c0bc6b3	0.00853126
6	0xbbd48437	-0.006485488
7	0x3f0c51ed	0.5481251
8	0x3f0fb57b	0.5613629
9	0x3f0c7a0c	0.5487373
10	0x3f0f6b93	0.5602352
11	0x421b1a99	38.775974

cond_normalizer.variance f4 [12]
0	0x3e02f949	0.12790407
1	0x3aac716f	0.0013156364
2	0x3aac1af5	0.0013130592
3	0x3aab0ad6	0.0013049494
4	0x3d92e5a3	0.07172706
5	0x3d66c969	0.056344423
6	0x3de05fda	0.10955782
7	0x3cbabe1d	0.022795731
8	0x3cbece41	0.023291709
9	0x3cbb09ff	0.022831915
10	0x3cc16c71	0.02361128
11	0x43906860	288.81543

output_normalizer.mean f4 [12]
0	0xbb4cc7be	-0.0031246985
1	0xbae6d36d	-0.0017610617
2	0x3c688f6f	0.0141943535
3	0x3847f29a	4.7671238e-05
4	0x3b2591a0	0.0025263801
5	0x3a48cf26	0.0007660262
6	0x3c41c5be	0.011826931
7	0x3a9a765b	0.001178454
8	0x402a74cd	2.663379
9	0x3d9d829f	0.076909296
10	0x3ee6d244	0.45082295
11	0xb9928ca1	-0.00027952067

output_normalizer.variance f4 [12]
0	0x3e1b4613	0.1516345
1	0x3da93096	0.0826122
2	0x3d0e6c90	0.034771502
3	0x38e2c638	0.00010813441
4	0x3baf0fff	0.005342483
5	0x3ca73d41	0.02041495
6	0x3e8363ad	0.25661984
7	0x40070b59	2.1100676
8	0x428f5a6a	71.67659
9	0x432d5868	173.34534
10	0x40d1ae7e	6.5525503
11	0x3ec54ec0	0.38536644

encoder.layers.0.weight f4 [32, 24]
0	0xbae302d0	-0.0017319564
1	0x3b2ab3ea	0.0026047179
2	0xbc06ac92	-0.008219855
3	0xbe2de87e	-0.1698322
4	0xbe58219f	-0.21106575
5	0x3e878d8e	0.26475185
6	0x3d6c6061	0.0577091
7	0xbeb093ea	-0.3448785
8	0x377d5a50	1.5101003e-05
9	0xbe8f573a	-0.27996236
10	0x3ccfb417	0.025354428
11	0xbdeff0f8	-0.11715883
12	0x3bf0634e	0.007336057
13	0x3b646f33	0.003485632
14	0x3cf4c08d	0.029876972
15	0x3e728c63	0.23686366
16	0xbc0ba14f	-0.008522346
17	0xbbbc7783	-0.0057515516
18	0xbab16dff	-0.001353681
19	0x3cd91613	0.026499784
20	0x3d20acc6	0.03922727
21	0xbbdd6058	-0.00675587
22	0xbd755b7b	-0.059901696
23	0xbc03155d	-0.008000699
24	0x3dd44792	0.103652135
25	0x3c0d57a5	0.008626853
26	0x3e025b55	0.12730153
27	0x3de55094	0.1119701
28	0xbd81a2b0	-0.06329858
29	0xbd114fb3	-0.035476398
30	0xbe185697	-0.14876781
31	0x3e05466b	0.13015144
32	0x3e436b51	0.19083907
33	0x3e029411	0.12751795
34	0x3ca97957	0.020687742
35	0xbd4144c2	-0.047184713
36	0x3e0b7247	0.13617812
37	0xbdb69b2f	-0.08916318
38	0xbdf524cf	-0.11969911
39	0xbdaab6f6	-0.08335678
40	0xbd138b22	-0.03602136
41	0xbde46aad	-0.11153159
42	0xbe1a40fc	-0.15063852
43	0x3cd5cfd7	0.026100082
44	0xbe19658b	-0.14980142
45	0x3dba286e	0.090897426
46	0xbdf3c403	-0.11902621
47	0x3d68ef65	0.05686893
48	0xba18ed32	-0.00058336847
49	0x3d778334	0.06042786
50	0xbca35bc4	-0.019941218
51	0xbea494fe	-0.32144922
52	0x3d02e54c	0.031956956
53	0xbe8bb69e	-0.27287763
54	0xbe03dce1	-0.12877227
55	0x3deae0f5	0.114686884
56	0xbcffdc36	-0.031232934
57	0xbdd27a4d	-0.10277233
58	0xbe0ac1dc	-0.13550514
59	0xbe147ce9	-0.14500774
60	0x3b9bf6c9	0.0047596437
61	0x3b5d9fb4	0.0033817114
62	0xbda05678	-0.078289926
63	0xbe7b1b99	-0.24522246
64	0x3a918765	0.0011102973
65	0x3d152027	0.036407616
66	0xbab7e96a	-0.0014031355
67	0xbdc8b51c	-0.09800169
68	0xbb5dd8b6	-0.0033851094
69	0x3dbc3f6a	0.09191783
70	0x3c84238f	0.016130237
71	0x3b309457	0.0026943886
72	0x3b171c67	0.00230577
73	0xbcf72dae	-0.030173149
74	0x3d34eaf1	0.04416937
75	0x3c16e32a	0.009209434
76	0xbc51a942	-0.012796702
77	0x3e85a8af	0.26105258
78	0xbe8003f3	-0.25003013
79	0x3e4b73ab	0.19868343
80	0x3e00c795	0.12576135
81	0xbe3006b1	-0.17190053
82	0x3cbfafce	0.02339926
83	0xbcca8575	-0.02472184
84	0xbd38efa4	-0.045150414
85	0x3da45076	0.08023159
86	0x3e32c7c3	0.17459016
87	0xbe5a0c0e	-0.21293661
88	0xbd1a5661	-0.037680034
89	0xbc891ce8	-0.016737416
90	0x3d4eb9cb	0.050470155
91	0x3df6f19b	0.12057801
92	0x3dd0d4df	0.10196852
93	0x3d1f76b1	0.038931552
94	0x3d3b04ee	0.045659
95	0xbcccbaaa	-0.024991352
96	0xbb74e5a8	-0.003736833
97	0x3b9a3cd8	0.00470696
98	0xbda982d3	-0.08276906
99	0xbe67557f	-0.22591208
100	0xbe81fe9c	-0.25389564
101	0x3e5877d2	0.21139458
102	0xbe7cd401	-0.24690248
103	0x3ddefd84	0.10888198
104	0xbc97fc8c	-0.01855304
105	0xbe04ca7e	-0.1296787
106	0x3d9bccaa	0.07607396
107	0xbe854f01	-0.26036838
108	0x3da55043	0.08071949
109	0x3b444255	0.0029946764
110	0x3d4efe9c	0.050535783
111	0x3dc8605e	0.097840056
112	0x3cffdcfd	0.031233305
113	0xbc8f6a87	-0.01750685
114	0xbd5b7e43	-0.05358721
115	0xbdfeb16a	-0.12436183
116	0xbda3a344	-0.07990125
117	0x3df7588a	0.12077434
118	0x3d9d5020	0.07681298
119	0x3d8db415	0.069191135
120	0xbc06a7c1	-0.008218707
121	0xbc35f0f7	-0.011104814
122	0x3c31c9b3	0.0108513115
123	0x3c926f78	0.017875418
124	0xbe28f957	-0.16501366
125	0xbe571fcc	-0.21008223
126	0xbd8b620b	-0.068058096
127	0xbd958af5	-0.073018946
128	0x3d2dd412	0.042438574
129	0x3d941efc	0.07232472
130	0x3e643aa4	0.22287995
131	0xbe7f3f5e	-0.24926516
132	0x3d8354fb	0.06412693
133	0x3caa3273	0.02077601
134	0xbe880c7b	-0.26572022
135	0xbd933d70	-0.07189453
136	0xbc07b8a4	-0.008283768
137	0x3d1106f2	0.035407014
138	0xbc8cf4cb	-0.01720657
139	0x3dbed66f	0.09318244
140	0xbd827894	-0.06370655
141	0xbde81176	-0.113314554
142	0x3dd0ed56	0.10201518
143	0xbcc39d92	-0.023878846
144	0x3d8e75e4	0.069560796
145	0xbdc2d5da	-0.09513445
146	0xbe19c91c	-0.15018123
147	0x3ca7d0a4	0.02048523
148	0xbdb36dad	-0.08761153
149	0xbdb99185	-0.09060959
150	0x3d89a432	0.06720771
151	0xbd5326ee	-0.051550798
152	0xbe12d5a1	-0.14339305
153	0x3d121f59	0.035674427
154	0x3cf3f5c6	0.02978028
155	0xbd0e32c2	-0.034716375
156	0x3d14d8db	0.036339622
157	0x3e5b3287	0.21405993
158	0xbbe7ed0c	-0.0070778187
159	0x3d0e87bf	0.034797426
160	0x3e0302c8	0.1279403
161	0xbe0d600c	-0.1380617
162	0xbe0547ec	-0.13015717
163	0x3e24d658	0.1609739
164	0x3d009ca9	0.031399403
165	0x3e238c47	0.1597148
166	0x3d5acf81	0.053420547
167	0xbd1c8f92	-0.038222857
168	0xbdcdffa7	-0.100585274
169	0x3cfa8eef	0.030585734
170	0x3ddad80f	0.10685741
171	0x3d463e30	0.04839915
172	0x3be70076	0.0070496155
173	0x3d935ca6	0.07195406
174	0xbd2e1e94	-0.04250963
175	0x3ce4408e	0.027862813
176	0xbdf66dd4	-0.12032667
177	0x3cc362cc	0.023850821
178	0x3d67ef17	0.0566245
179	0xbd2acce2	-0.041699298
180	0x3d85dcf9	0.06536288
181	0xbd932eb7	-0.071866445
182	0x3d26bbaa	0.040706314
183	0xbd36532b	-0.04451291
184	0x3e1a8977	0.15091501
185	0x3df19263	0.11795499
186	0xbdbea2ba	-0.093083814
187	0x3dd09b02	0.101858154
188	0xbddc169d	-0.10746501
189	0x3da7724a	0.08176096
190	0x3bbeac4f	0.0058188806
191	0xbdaf3aab	-0.08556112
192	0xbc32284f	-0.010873868
193	0x3b115cd0	0.0022180565
194	0xbd5b0352	-0.053469963
195	0x3e5c2ef8	0.21502292
196	0x3e967cc3	0.2939206
197	0x3ea519a4	0.32246125
198	0xbe921181	-0.2852898
199	0xbd18daed	-0.03731816
200	0xbcd3688f	-0.025806693
201	0x3e6c3f69	0.23071064
202	0xbe26c4da	-0.1628603
203	0xbc47aae2	-0.012186738
204	0x3d74dce0	0.059780955
205	0x3c1a4137	0.0094149625
206	0xbd90614d	-0.07049809
207	0xbd45ad9a	-0.048261262
208	0x3c80733f	0.015679954
209	0xbc3866ec	-0.011255007
210	0xbcb1b277	-0.021691544
211	0xbd7d9bd2	-0.06191618
212	0x3d23cc59	0.039989803
213	0x3e14e245	0.1453944
214	0xbdcedc60	-0.10100627
215	0xbd1a0302	-0.037600525
216	0xbd0c49c0	-0.03425002
217	0xba73b303	-0.0009296389
218	0x3afb7193	0.0019183628
219	0x3da6d335	0.08145753
220	0xbe239580	-0.15974998
221	0xbdb82213	-0.08990874
222	0x3e0e6ca8	0.13908637
223	0x3e1fd35e	0.15607974
224	0xbba60f50	-0.0050677434
225	0xbdb58f9d	-0.08865283
226	0x3cd7a773	0.026324963
227	0x3cd9202d	0.0265046
228	0xbd53c003	-0.05169679
229	0xbd60d9f4	-0.054895356
230	0x3d328add	0.04358946
231	0x3e0836b4	0.13302118
232	0x3e00cbb1	0.12577702
233	0xbe6b0148	-0.22949708
234	0x3cf72013	0.030166661
235	0x3dd5e512	0.10444082
236	0xbdb7b68f	-0.08970367
237	0x3c215d12	0.00984885
238	0x3b1bb0ad	0.002375643
239	0x3bcf43a1	0.0063252007
240	0x3c850f18	0.016242549
241	0x3aadae61	0.0013250822
242	0x3cbf2d52	0.02333704
243	0xbe5cc289	-0.21558584
244	0xbdd8bd4d	-0.10582981
245	0x3ede1885	0.43378082
246	0xbd2b1189	-0.04176477
247	0x3dbb0217	0.09131258
248	0xbdd3c6b5	-0.10340635
249	0x3d90dd69	0.07073481
250	0xbe71f65d	-0.23629136
251	0x3e60d138	0.2195481
252	0x3d4dc7d0	0.050239384
253	0xbcbfa9ec	-0.023396455
254	0x3d24ab11	0.040202204
255	0xbe2d91b7	-0.16950117

encoder.layers.0.bias f4 [32]
0	0xbc09375a	-0.008375013
1	0x3e98e745	0.29863945
2	0xbc302887	-0.01075185
3	0xbdf4c6b0	-0.11951959
4	0xbdbd37cd	-0.09239159
5	0xbcf47bc8	-0.02984418
6	0x3e7e5a42	0.24839118
7	0x3eb09070	0.34485197
8	0x3ab652df	0.0013910196
9	0xbd5c2039	-0.053741667
10	0xbc07306b	-0.00825129
11	0xbba9e1cc	-0.005184388
12	0xbda2b7c0	-0.07945204
13	0xbcd813b9	-0.026376592
14	0x3ea01dbc	0.31272686
15	0xbc2c1eec	-0.010505419
16	0x3ee356d3	0.4440218
17	0xbdf07595	-0.11741177
18	0xbd8996c0	-0.067182064
19	0x3ed822a7	0.42213938
20	0x3e9cfc70	0.30661345
21	0xbbd004dd	-0.006348236
22	0xbcd457c4	-0.025920756
23	0xbd332298	-0.043734163
24	0x3ec628b3	0.38702926
25	0xbbdd404f	-0.006752051
26	0x3e062121	0.13098575
27	0xbca26828	-0.019825056
28	0xbc1e41dd	-0.009659258
29	0x3e29e72f	0.16592096
30	0xbd5d4e4a	-0.05402974
31	0x3eb9f22e	0.3631758

encoder.layers.2.weight f4 [32, 32]
0	0xbd61c666	-0.055120848
1	0x3d244023	0.040100228
2	0xbde372af	-0.111058585
3	0xbe055a07	-0.13022624
4	0xbd24e86c	-0.040260717
5	0xbd9210c1	-0.07132102
6	0x3d1f7569	0.03893033
7	0x3e3ba02e	0.18322822
8	0xbe28e433	-0.16493301
9	0xbdcea3d4	-0.100898415
10	0xbe49e412	-0.19715908
11	0x3c546fc5	0.012966101
12	0xbd697766	-0.056998633
13	0x3c0c6388	0.008568652
14	0x3d925bb4	0.07146397
15	0xbd4c5869	-0.049889002
16	0x3c85969c	0.016307168
17	0xbd205b51	-0.039149586
18	0xbbede066	-0.0072594164
19	0x3d3a54e5	0.045491118
20	0xbd78664d	-0.060644437
21	0xbe3ba2b8	-0.18323791
22	0xbebe72cf	-0.37196967
23	0xbe3bfb47	-0.18357573
24	0x3e078aed	0.1323659
25	0xbe08b413	-0.13349943
26	0xbbff3175	-0.007787878
27	0xbe1044e7	-0.14088784
28	0xbce8f708	-0.028438106
29	0xbd9593cf	-0.07303583
30	0xbe36814d	-0.17822762
31	0x3d0e10a2	0.03468383
32	0xbead5764	-0.33855736
33	0x3ddf6108	0.10907179
34	0xbe868df7	-0.26280186
35	0xbdff5d04	-0.12468913
36	0xbe6b2a84	-0.22965437
37	0xbea8e780	-0.3298912
38	0xbd4bbc03	-0.04973985
39	0x3dee8bbc	0.11647746
40	0xbea77e32	-0.32713467
41	0xbe503200	-0.20331573
42	0xbe9c4fc0	-0.30529594
43	0xbe43a11e	-0.1910443
44	0xbe018e3b	-0.12651913
45	0xbe9a8948	-0.30182862
46	0x3dfa759e	0.12229465
47	0xbec4cc23	-0.38436994
48	0x3e465292	0.19367436
49	0xbe9b91f5	-0.30384794
50	0xbd186d93	-0.037213873
51	0x3e028ed0	0.12749791
52	0x3db28819	0.08717365
53	0xbe9b5541	-0.3033848
54	0xbe84114e	-0.25794452
55	0xbe53d51f	-0.20686768
56	0x3c2de6d8	0.0106141195
57	0xbde9582e	-0.11393772
58	0xbc9104a9	-0.017702417
59	0xbe0a67e4	-0.13516194
60	0xbe4da937	-0.20084082
61	0xbc7316ec	-0.014837008
62	0xbec4107e	-0.38293833
63	0xbcd13f0a	-0.025542755
64	0x3e31a2e4	0.17347294
65	0xbd2b44bb	-0.041813593
66	0x3e2a1410	0.16609216
67	0x3d48c5f6	0.049016915
68	0x3e523f12	0.20531872
69	0x3d738b3d	0.05945896
70	0x3c108540	0.008820832
71	0x3db732f3	0.08945265
72	0x3e42159f	0.1895356
73	0x3c259703	0.010106805
74	0xbd61c01a	-0.055114843
75	0x3df4ce18	0.11953372
76	0x3e495377	0.19660746
77	0x3e4ea1d0	0.20178914
78	0x3e130dd5	0.14360745
79	0x3e31cec6	0.17364034
80	0x3da28236	0.07934992
81	0x3e1e69ab	0.15469997
82	0x3dde218a	0.10846241
83	0x3dd23099	0.102631755
84	0x3d58f0df	0.052964088
85	0x3d8266ad	0.0636724
86	0xbd7dd7a0	-0.061973214
87	0x3e2734d9	0.16328754
88	0xbce365eb	-0.02775856
89	0x3d61b01d	0.055099595
90	0xbbc84771	-0.006112032
91	0x3e2bc074	0.16772634
92	0x3da988b6	0.08278029
93	0x3ce1f5a2	0.027582947
94	0x3e812682	0.25224692
95	0x3df56856	0.11982791
96	0x3d8ea213	0.06964507
97	0xbd3aea45	-0.045633573
98	0xbcb1a747	-0.02168621
99	0x3daa6d01	0.08321572
100	0x3c93fb53	0.018064177
101	0x3e385b16	0.18003497
102	0x3c8565cd	0.016283894
103	0x3d924977	0.071429186
104	0x3d8fb435	0.07016794
105	0x3cc639fe	0.024197575
106	0xbdfbc142	-0.122927204
107	0x3e364f3d	0.17803665
108	0xbbe4e30b	-0.0069850734
109	0xbd23d829	-0.04000107
110	0x3d2a7048	0.041610986
111	0xbcbbe57d	-0.022936577
112	0x3e2789b7	0.16361128
113	0xbd7443d8	-0.059635013
114	0x3e098b76	0.13432106
115	0x3dc7df98	0.09759444
116	0x3daeb096	0.08529775
117	0x3debe0e9	0.115175076
118	0xbd0637ec	-0.032768175
119	0x3df3c750	0.1190325
120	0x3dbbf4a6	0.09177522
121	0x3d0b5e74	0.034025624
122	0x3c6a1fef	0.01428984
123	0xbc99894e	-0.01874223
124	0x3ddb1824	0.10697964
125	0xbd20f438	-0.039295405
126	0x3dc29c2f	0.09502446
127	0x3e2a7771	0.16647126
128	0x3e26f1e7	0.16303216
129	0x3e577510	0.2104075
130	0x3dcaf219	0.09909458
131	0x3bca0bcb	0.0061659566
132	0xbc55dbef	-0.013052925
133	0x3e353005	0.17694099
134	0x3dc6ec30	0.09713018
135	0x3d5ead9d	0.05436479
136	0x3d4ff963	0.050774943
137	0x3de359ac	0.11101088
138	0xbb04e47d	-0.0020277791
139	0x3c9757b1	0.018474432
140	0x3de90010	0.11376965
141	0x3de3d37e	0.11124323
142	0xbd67890a	-0.056527175
143	0x3df68d1d	0.12038634
144	0x3d0f6789	0.03501085
145	0x3c544271	0.012955294
146	0x3e1e9561	0.15486671
147	0x3d3d034f	0.046145733
148	0x3d0e7001	0.034774784
149	0x3e274781	0.1633587
150	0x3d9a6dfb	0.07540508
151	0x3dea1c09	0.114311285
152	0xbd72ca52	-0.05927498
153	0x3e1c1a1c	0.15244335
154	0x3d1d384b	0.038383763
155	0x3e1dfb24	0.15427834
156	0x3d1d846b	0.03845636
157	0x3d4ec997	0.05048522
158	0x3d4953e6	0.049152277
159	0x3e3ce57b	0.18446915
160	0x3e00dfdd	0.12585397
161	0x3cef1e5e	0.029189285
162	0x3de6e97c	0.11275002
163	0x3cfe14f4	0.03101585
164	0x3e3f49b3	0.18680458
165	0x3b5b730f	0.0033485328
166	0x3d45b781	0.048270706
167	0xbd1296d6	-0.03578838
168	0x3d672c92	0.05643899
169	0x3d2f4c91	0.04279763
170	0x3e3942b4	0.18091851
171	0x3db3eab1	0.08784998
172	0x3e3ae2bc	0.18250555
173	0x3df5d2e1	0.120031126
174	0xbc9f9966	-0.019482326
175	0xbd032863	-0.032020938
176	0x3d81f420	0.06345391
177	0xbcd1bb2e	-0.02560195
178	0x3d0dee09	0.034650836
179	0x3dd8a0d4	0.105775505
180	0x3dfc8f23	0.12331989
181	0x3dcd8709	0.100355215
182	0x3c440958	0.011965118
183	0x3e17da55	0.14829381
184	0x3e160323	0.14649634
185	0x3e504258	0.20337808
186	0x3d69c2a6	0.057070397
187	0x3e1f7d9a	0.15575257
188	0x3db14d0c	0.08657274
189	0x3d2497c1	0.040183786
190	0x3d714b14	0.05890949
191	0x3dbabbf9	0.09117884
192	0x3c324a0f	0.010881915
193	0x3dc78879	0.09742827
194	0x3dda34ee	0.10654627
195	0x3e3cdb0f	0.18442939
196	0xbdab3261	-0.083592184
197	0x3e1ff33e	0.15620133
198	0x3e20883a	0.15676966
199	0xbd2bff2d	-0.0419914
200	0xbc8cafa0	-0.017173588
201	0xbb9cff03	-0.004791142
202	0x3da65717	0.0812208
203	0xbd9e05ce	-0.07715951
204	0x3dd90fe6	0.105987355
205	0x3a7a3c0f	0.00095456926
206	0x3d79f0dd	0.06102072
207	0xbd59dcf3	-0.05318923
208	0x3e433cd0	0.19066167
209	0x3daf6963	0.08565023
210	0xbcf8246a	-0.030290801
211	0x3c59ff0b	0.013305436
212	0x3d7fa6ba	0.062414862
213	0x3da78a8d	0.08180723
214	0xbd178b39	-0.036998007
215	0x3c86a859	0.016437696
216	0x3df73938	0.120714605
217	0xbd117f0d	-0.035521556
218	0xbb4847c4	-0.0030560354
219	0xbd5baafa	-0.053629853
220	0xbbe15ca5	-0.006877499
221	0xbc25a27c	-0.01010954
222	0x3cb7ba7b	0.022427788
223	0x3e4d7e8d	0.20067807
224	0xbe67b773	-0.22628574
225	0xbd1a9f80	-0.037749767
226	0xbe4aea57	-0.19815956
227	0xbe54f819	-0.20797767
228	0xbd822d43	-0.06356289
229	0xbe0ddee4	-0.13854557
230	0x3e0485ca	0.12941661
231	0x3e4ef207	0.20209514
232	0xbed2930b	-0.4112781
233	0xbe587219	-0.21137275
234	0xbe8b6528	-0.27225614
235	0xbe71846c	-0.23585671
236	0xbea8aeb3	-0.32945785
237	0xbe76a4f3	-0.2408636
238	0x3e3fff85	0.18749817
239	0xbe6aa767	-0.22915421
240	0x3d7a0e91	0.061049048
241	0xbe3bc7f8	-0.18338001
242	0xbc8ab1ef	-0.016930548
243	0x3e2a0f10	0.16607308
244	0x3e3763cb	0.17909162
245	0xbe1dd4ac	-0.15413159
246	0xbea5978e	-0.3234219
247	0xbd157ff5	-0.036498982
248	0x3e798099	0.24365462
249	0xbd6d91c1	-0.05800033
250	0x3d3c4f27	0.045973923
251	0xbe4c2fd0	-0.19940114
252	0xbe3c78a3	-0.18405394
253	0x3e2a1b7c	0.16612047
254	0xbe9f8b99	-0.31161192
255	0x3d187825	0.037223954

encoder.layers.2.bias f4 [32]
0	0x3e1bec69	0.15226902
1	0x3ea455f2	0.3209682
2	0xbe0b9f95	-0.13635094
3	0xbde7d10f	-0.11319172
4	0xbe0950f2	-0.13409784
5	0xbe4705ac	-0.19435757
6	0xbca71ee8	-0.02040048
7	0x3ecc0fb0	0.3985572
8	0xbd8f8352	-0.07007469
9	0xbe1b5666	-0.15169677
10	0x3e8aed23	0.27134046
11	0x3e93a858	0.28839374
12	0x3d3ce124	0.04611315
13	0xbd5dd2ff	-0.0541563
14	0x3ed06dca	0.40708762
15	0x3b594a02	0.0033155684
16	0x3e3c4c5c	0.18388504
17	0xbe027275	-0.12738974
18	0xbe19903f	-0.14996432
19	0xbc7f6943	-0.015589061
20	0x3ca71f5a	0.020400692
21	0xbdab1c26	-0.08354978
22	0xbd759c30	-0.059963405
23	0x3e4edc85	0.20201309
24	0x3deb8fdc	0.115020484
25	0xbe848dcc	-0.25889432
26	0x3e71727b	0.23578827
27	0xbdd22ccc	-0.102624506
28	0xbd036218	-0.03207597
29	0xbd89b807	-0.067245536
30	0x3e941a22	0.28926188
31	0x3ead0b44	0.33797657

encoder.layers.4.weight f4 [12, 32]
0	0x3e7401d9	0.2382883
1	0x3e960b3d	0.2930545
2	0xbe85b28d	-0.26112786
3	0xbe56cdcd	-0.20976944
4	0xbe3af3cb	-0.18257062
5	0xbe05d11f	-0.13068055
6	0xbe588eff	-0.21148299
7	0x3e6420ea	0.2227818
8	0xbe003739	-0.12521066
9	0xbe42f6aa	-0.19039407
10	0x3edee86e	0.43536705
11	0xbcc401fa	-0.023926724
12	0xbd9b03c0	-0.07569075
13	0xbdc6169a	-0.0967228
14	0x3ea86353	0.32888278
15	0x3d9d9dad	0.0769609
16	0x3def658a	0.11689289
17	0xbe77e005	-0.2420655
18	0x3d2c4475	0.042057473
19	0xbe4906a0	-0.19631433
20	0xbe1cec4d	-0.15324517
21	0x3c143f2d	0.009048265
22	0x3d22fdb9	0.03979275
23	0x3da0aa2c	0.07844958
24	0xbe029762	-0.1275306
25	0xbe4dfa17	-0.20114933
26	0x3e8a725f	0.27040383
27	0xbbbece9b	-0.005822969
28	0xbe3ba091	-0.1832297
29	0xbe486afe	-0.19572064
30	0x3e8f2320	0.27956486
31	0x3edc35d3	0.43009815
32	0xbdd31f57	-0.10308712
33	0x3e0b76a8	0.13619483
34	0x3dc0187f	0.09379672
35	0x3cec3bcf	0.028837113
36	0xbe2366a6	-0.15957126
37	0xbb7720c9	-0.003770875
38	0xbd836e39	-0.06417508
39	0x3e27e168	0.1639458
40	0xbe01d783	-0.12679867
41	0x3c6219fa	0.013800139
42	0x3e697cf6	0.22801575
43	0x3ca41b34	0.020032503
44	0xbe1c4445	-0.15260418
45	0x3beb975c	0.0071896743
46	0x3e12993d	0.14316268
47	0x3dc43a7c	0.095814675
48	0x3d74541e	0.059650533
49	0xbe331264	-0.17487484
50	0xbe060c11	-0.1309054
51	0xbde3bc8a	-0.11119945
52	0x3e15163f	0.14559267
53	0xbce14f5d	-0.027503664
54	0xbddd9a34	-0.108204275
55	0x3d243770	0.04009193
56	0x3d5ae194	0.053437784
57	0xbe04fa88	-0.12986195
58	0xbddd85bd	-0.10816524
59	0xbdd2c2be	-0.102910504
60	0x3bd3428d	0.0064471425
61	0x3d8d34b3	0.06894817
62	0x3df605fe	0.12012862
63	0x3e2914fe	0.16511914
64	0xbe362ed8	-0.17791307
65	0xbe02cc13	-0.1277316
66	0xbc216cd1	-0.009852604
67	0x3d0060bb	0.03134225
68	0x3dbd674a	0.092482165
69	0xbcd3d4f3	-0.025858378
70	0xbd15e1e2	-0.03659237
71	0xbe7368b2	-0.23770407
72	0x3dd4e087	0.10394388
73	0x3d8b117d	0.06790445
74	0xbdbd924d	-0.0925642
75	0xbde9d518	-0.114175975
76	0xbccfe597	-0.025378032
77	0x3cc6b319	0.024255322
78	0xbddfbb14	-0.10924354
79	0xbcdc6d3b	-0.026907554
80	0xbe025123	-0.12726264
81	0xbba90150	-0.005157627
82	0xbd8759b5	-0.06608907
83	0xbe183dc2	-0.14867309
84	0xbcfc3c1e	-0.030790385
85	0x3d2273b5	0.039661128
86	0xbd30dda9	-0.04318014
87	0xbe18df17	-0.14928852
88	0xbd4e4997	-0.05036315
89	0x3ac03eeb	0.0014667189
90	0xbe4671a5	-0.1937929
91	0x3cbe5b8e	0.023237016
92	0xbe07f253	-0.13276033
93	0xbc583a4b	-0.013197492
94	0xbe7f740b	-0.2494661
95	0xbe4d841d	-0.20069928
96	0x3d18a42d	0.037265945
97	0x3d98037b	0.07422539
98	0x3cbe7b1b	0.02325206
99	0xbd4cdb2b	-0.050013702
100	0xbe1100cb	-0.14160459
101	0xbda51867	-0.08061295
102	0xbda4878b	-0.08033665
103	0x3d23034c	0.039798066
104	0xbe24a71f	-0.16079377
105	0xbdb1e6da	-0.086866096
106	0x3d94ca7e	0.07265185
107	0xbe181d96	-0.14855036
108	0xbdf27bfa	-0.11840053
109	0xbd637f03	-0.05554105
110	0xbd50bc7f	-0.050961014
111	0xbe132d0e	-0.14372656
112	0xbd01679e	-0.031592958
113	0xbe150763	-0.14553599
114	0xbde6902a	-0.11257966
115	0x3d5b3196	0.053514086
116	0x3dde6fce	0.10861169
117	0xbd8bfc8a	-0.068352774
118	0x3d688fa1	0.0567776
119	0xbdef4de7	-0.116847806
120	0xbe0a32ea	-0.13495985
121	0xbe160774	-0.1465128
122	0xbe249053	-0.1607068
123	0x3d847864	0.06468275
124	0xbe08192a	-0.1329085
125	0xbdd825d4	-0.1055409
126	0xbde5987d	-0.112107255
127	0xbcb85c77	-0.022505028
128	0xbe6cc3c1	-0.23121549
129	0xbef97695	-0.48723283
130	0x3e939f90	0.28832674
131	0xbcf5eb53	-0.030019438
132	0x3e0b99f8	0.13632953
133	0x3e81d217	0.25355598
134	0xbc9fcf9e	-0.01950818
135	0xbecc1930	-0.39862967
136	0xbcf4074c	-0.029788636
137	0x3e76c036	0.2409676
138	0xbe9e92f6	-0.30971497
139	0xbe42d0d9	-0.19024982
140	0x3d535de3	0.05160321
141	0x3ddce63c	0.10786101
142	0xbebfc745	-0.37456718
143	0x3e367743	0.17818932
144	0xbea9d1a5	-0.3316776
145	0x3e66bb9e	0.22532508
146	0x3e85f63b	0.2616442
147	0x3dbe2054	0.0928351
148	0x3e27b881	0.16378976
149	0x3e3ae6c1	0.18252088
150	0x3e255ffa	0.16149893
151	0xbe9a2fbb	-0.3011454
152	0xbceb41fc	-0.028717987
153	0x3e91cf73	0.28478584
154	0xbe83de04	-0.25755322
155	0x3dea2268	0.11432344
156	0x3e42ff9f	0.19042824
157	0x3de50f98	0.11184615
158	0xbec4aa5e	-0.3841123
159	0xbed22da5	-0.4105045
160	0x3e200d7a	0.15630141
161	0x3e3bd7fd	0.18344112
162	0xbd291099	-0.041275594
163	0xbda13e0a	-0.07873161
164	0xbd9e3ca1	-0.07726408
165	0x3e02149e	0.12703177
166	0x3e26a8a3	0.16275267
167	0x3d108b68	0.0352892
168	0xbcf784a0	-0.030214608
169	0x3ce2e81c	0.027698569
170	0x3e5c5cf1	0.2151983
171	0x3e146983	0.14493375
172	0xbd664a08	-0.056222945
173	0x3ccda65c	0.02510374
174	0x3e83402f	0.25634906
175	0x3cb37297	0.021905227
176	0x3e09951f	0.13435791
177	0x3cdae933	0.026722526
178	0x3de1e2dd	0.11029599
179	0x3dadff01	0.08495904
180	0xbc8be812	-0.017078433
181	0xbc8d987e	-0.017284628
182	0x3dc41d41	0.09575892
183	0x3d9a47a1	0.075331934
184	0x3d12561d	0.035726655
185	0x3d8ba86a	0.06819232
186	0x3d828e69	0.06374819
187	0x3d16dff2	0.036834665
188	0x3e155c1b	0.14585917
189	0xbcf8a83e	-0.030353662
190	0x3e89548c	0.26822317
191	0x3de5d2cd	0.11221848
192	0xbd9ad517	-0.07560175
193	0xbd9cdecb	-0.07659682
194	0xbd6adbf1	-0.05733866
195	0xbe4b0d8e	-0.1982939
196	0x3c49e38e	0.01232232
197	0x3dab6384	0.083685905
198	0xbd8ffd43	-0.07030728
199	0xbdc7d2a9	-0.09756977
200	0xbd80531c	-0.06265852
201	0x3dd3b3d7	0.10337036
202	0x3cce426d	0.025178159
203	0xbe97d1a7	-0.2965214
204	0xbd4c6f0c	-0.04991059
205	0xbd3fb2a0	-0.04680121
206	0xbe347d0f	-0.17625831
207	0xbcd31e9a	-0.025771428
208	0xbe11be83	-0.1423283
209	0xbc1c80ab	-0.009552161
210	0x3d8b55e6	0.06803493
211	0x3d7e5599	0.06209335
212	0x3d01ce5c	0.03169094
213	0x3d20d2bf	0.039263483
214	0xbe0be294	-0.13660651
215	0xbe98db5d	-0.2985486
216	0xbe4fdf10	-0.20299935
217	0xbd1a3ffd	-0.03765868
218	0xbdc64a24	-0.0968211
219	0x3d054c8d	0.032543708
220	0xbdba827c	-0.09106919
221	0xbd86c4cd	-0.065805055
222	0xbe63bad9	-0.22239245
223	0xbd3ecb33	-0.046580505
224	0xbdcd98d6	-0.10038917
225	0xbdbb15e7	-0.09135037
226	0xbd499aa5	-0.049219746
227	0xbdf308ab	-0.11866888
228	0x3de59e9d	0.11211894
229	0xbc9c764d	-0.019099379
230	0xbc77bac4	-0.015120212
231	0xbdf84a5f	-0.1212356
232	0xbce4b682	-0.027919058
233	0x3d8d2690	0.06892121
234	0x3d54ead0	0.051981747
235	0xbe11efac	-0.14251584
236	0xbdb8844f	-0.09009611
237	0xbd04b036	-0.03239461
238	0xbde14e8a	-0.11001308
239	0xbe1f1df6	-0.15538773
240	0xbd8afbf9	-0.06786341
241	0x3d07db68	0.033168226
242	0x3de9e77c	0.11421105
243	0x3d6805b7	0.056646075
244	0x3d2800b0	0.04101628
245	0xbd152b3d	-0.03641819
246	0xbd7dabcd	-0.06193142
247	0x3d332fa8	0.04374662
248	0xbe180dea	-0.14849058
249	0xbd80b054	-0.06283632
250	0x3bfae64e	0.007656849
251	0xbd98dbda	-0.07463808
252	0x3e00876b	0.12551658
253	0xbd76c0d2	-0.06024248
254	0xbe199f83	-0.15002255
255	0x3cc5cdac	0.024145924

encoder.layers.4.bias f4 [12]
0	0x3e639635	0.22225268
1	0x3e20a0f0	0.15686393
2	0xbb52178d	-0.0032057494
3	0xbe130306	-0.14356622
4	0xbe9c3561	-0.30509475
5	0x3e432be6	0.19059715
6	0xbe1d11b5	-0.15338786
7	0xbdfbda6a	-0.122975186
8	0x3d283814	0.041069105
9	0x3e16540e	0.14680502
10	0xbe81ac4e	-0.2532677
11	0xbd95b13e	-0.07309197

decoder.layers.0.weight f4 [32, 18]
0	0x3eb7d7d2	0.35906845
1	0xbdae209e	-0.08502315
2	0x3dc9b6bb	0.09849306
3	0xbe0956fd	-0.1341209
4	0xbe369a8c	-0.17832392
5	0x3cfa3473	0.030542588
6	0xbe4d16c4	-0.20028216
7	0xbcca9e39	-0.02473365
8	0xbe2fd0f0	-0.17169547
9	0x3c00eaca	0.007868478
10	0x3eb6982d	0.35662976
11	0x3e44b064	0.19207913
12	0xbe95fdae	-0.29295105
13	0xbdc3219f	-0.09527897
14	0x3d042cbd	0.03226923
15	0xbd0f837e	-0.03503751
16	0x3e3b0c8b	0.18266504
17	0xbd96903e	-0.07351731
18	0x3c95ae6e	0.018271651
19	0xbdfb5eb5	-0.12273923
20	0xbdb986e6	-0.09058933
21	0xbdb28aab	-0.08717855
22	0x3db6a540	0.08918238
23	0xbbdc4abf	-0.0067227776
24	0x3c1f893c	0.009737309
25	0x3e48cd01	0.19609453
26	0x3e35cd6a	0.1775414
27	0xbe26279d	-0.16226049
28	0x3e2e4263	0.17017512
29	0xbc5cb86c	-0.013471704
30	0x3e9b4807	0.3032839
31	0xbe064bdb	-0.13114874
32	0x3e103061	0.14080955
33	0xbe18ff19	-0.14941062
34	0x3d14a8fc	0.03629397
35	0xbe36cd71	-0.17851807
36	0xbd8aa895	-0.06770436
37	0xbe0ac094	-0.13550025
38	0xbd2f65a9	-0.04282156
39	0x3df14e3a	0.11782499
40	0x3e1c306e	0.1525285
41	0x3e1f0987	0.15530978
42	0xbe0374c3	-0.1283751
43	0x3c0d2031	0.008613632
44	0xbeb39eed	-0.35082188
45	0xbdf32d94	-0.11873928
46	0x3db7998e	0.08964835
47	0xbe38672e	-0.1800811
48	0xbda5f0a5	-0.0810254
49	0xbc053d1e	-0.008132247
50	0x3db74e69	0.089505024
51	0xbdfbff85	-0.12304596
52	0xbe11972f	-0.14217828
53	0x3c348afe	0.011019466
54	0xbdcbbb94	-0.09947887
55	0xbcbe6706	-0.023242485
56	0x3d6e2d45	0.05814864
57	0x3cd2980c	0.025707267
58	0x3e17623f	0.14783572
59	0x3d0b7cf8	0.034054726
60	0x3e913eb4	0.2836815
61	0x3ddfd5d6	0.10929458
62	0xbc834baf	-0.0160273
63	0x3e855d39	0.26047686
64	0x3d0c3f53	0.03424008
65	0xbe1f8412	-0.15577725
66	0x3d9ef7c9	0.07762105
67	0x3e042a65	0.12906797
68	0x3d14536e	0.036212377
69	0x3e0ad5b4	0.13558084
70	0x3daf2510	0.08551991
71	0x3e81d7ca	0.25359946
72	0xbd65a3d9	-0.05606446
73	0x3e07bdab	0.13255946
74	0xbc61a13b	-0.0137713505
75	0x3e684290	0.22681642
76	0xbe8d52a0	-0.276021
77	0x3e3680ee	0.1782262
78	0xbd00e2e9	-0.0314664
79	0xbd8efe8c	-0.06982145
80	0x3d4179bd	0.04723524
81	0xbdcd119c	-0.10013124
82	0xbeade811	-0.33966115
83	0xbe230268	-0.15918887
84	0xbdc683cc	-0.09693107
85	0x3e4ac592	0.1980193
86	0xbe63d410	-0.22248864
87	0x3e606153	0.21912126
88	0x3cf348ae	0.029697742
89	0xbe4a9810	-0.1978457
90	0xbde430e4	-0.11142138
91	0xbe14218c	-0.14465922
92	0x3dab0466	0.08350448
93	0xbe1a326e	-0.150583
94	0xbd7037c4	-0.058646932
95	0xbd867c67	-0.065666966
96	0x3e9d286d	0.30694905
97	0x3cc3a465	0.0238821
98	0xbcfb4e0a	-0.03067686
99	0xbe971931	-0.29511407
100	0xbd038406	-0.03210833
101	0x3dfb0240	0.122562885
102	0x3c362470	0.011117086
103	0xbe4d31f6	-0.2003859
104	0xbd95ec52	-0.07320465
105	0xbe421730	-0.18954158
106	0xbe47b2fc	-0.19501871
107	0x3c9269c7	0.017872704
108	0x3d7a0ff1	0.06105036
109	0xbdf4f63c	-0.11961028
110	0xbe1b9656	-0.15194067
111	0x3d8aed4a	0.067835405
112	0xbdd50e2a	-0.10403092
113	0xbd7e0bfb	-0.062023144
114	0xbc604912	-0.013689296
115	0xbdfed279	-0.12442488
116	0xbe3b345b	-0.18281691
117	0x3d3e72de	0.046496265
118	0x3d48ec13	0.049053263
119	0xbe0e7a14	-0.13913757
120	0xbb981c3e	-0.0046420386
121	0xbd8cf909	-0.06883437
122	0x3de1c7fb	0.11024471
123	0xbe83f5a7	-0.25773355
124	0x3d4ec2d5	0.050478775
125	0x3e5d8105	0.21631248
126	0x3e779fad	0.24182005
127	0x3d0d2d11	0.034466807
128	0x3e030c1a	0.12797585
129	0x3e1cfe55	0.15331395
130	0xbdfa348a	-0.12217052
131	0x3d95e751	0.07319511
132	0x3e56d204	0.20978552
133	0x3e1e5957	0.15463768
134	0x3d42dac0	0.047571898
135	0x3e2e6373	0.17030124
136	0x3dc06029	0.09393341
137	0xbc79f2ef	-0.015255674
138	0x3d12403c	0.03570579
139	0xbe2113c5	-0.15730198
140	0x3ddab4ab	0.10678991
141	0xbda1b5b6	-0.07895987
142	0xbe1fbeb1	-0.15600087
143	0x3e6a56d5	0.22884686
144	0xbe4a5f84	-0.19762999
145	0xbe049d5b	-0.12950651
146	0x3cb1f9a2	0.02172548
147	0x3caae205	0.020859728
148	0x3e5b7972	0.21433046
149	0xbca378d1	-0.01995507
150	0x3e004712	0.12527111
151	0xbe3aed5e	-0.18254611
152	0xbd127453	-0.035755467
153	0xbeabe427	-0.33572504
154	0x3e195c6f	0.14976667
155	0xbc03c0cf	-0.008041575
156	0x3d531785	0.0515361
157	0x3e5c8a7a	0.215372
158	0xbe3ec397	-0.18629299
159	0xbe0ef9e3	-0.13962512
160	0x3e13226c	0.143686
161	0x3e822ecf	0.25426337
162	0xbe38f5ba	-0.18062487
163	0x3d25e2d7	0.040499534
164	0x3e455c35	0.19273455
165	0xbe8742b6	-0.26418084
166	0x3e7a9424	0.24470574
167	0xbe16fdaa	-0.14745203
168	0xbdcfa99d	-0.10139773
169	0xbd67a5b5	-0.056554515
170	0x3e92ae77	0.2864873
171	0xbc00a343	-0.007851425
172	0xbe27af99	-0.16375579
173	0xbe616b42	-0.22013572
174	0xbe22d721	-0.15902378
175	0x3e89702c	0.26843393
176	0x3ea0330e	0.31288952
177	0x3e97955a	0.29606134
178	0x3e698392	0.22804096
179	0x3da27231	0.079319365
180	0x3d5ec6c2	0.05438877
181	0x3c49ecc0	0.012324512
182	0x3e665941	0.22494985
183	0xbe6cd7c3	-0.23129182
184	0xbeb49dca	-0.35276634
185	0x3e381f06	0.17980585
186	0xbd5d1a36	-0.053980075
187	0x3e858b5d	0.26082888
188	0xbc7fb2d2	-0.015606599
189	0x3df1c724	0.11805561
190	0x3ddea2cd	0.108708955
191	0x3e07508f	0.13214324
192	0x3ea0565f	0.31315896
193	0x3e3d9e81	0.18517496
194	0x3e3ff245	0.18744762
195	0xbd81ba38	-0.063343465
196	0x3e0a168f	0.13485168
197	0x3e90f037	0.2830827
198	0x3dacf017	0.08444231
199	0x3ddff5bd	0.10935543
200	0xbe8521e9	-0.26002434
201	0xbe53bfe8	-0.20678675
202	0xbe34698f	-0.17618392
203	0xbe2874f7	-0.16450869
204	0xbe89e383	-0.2693139
205	0x3e1c6df2	0.15276316
206	0xbde548f2	-0.11195554
207	0xbcd4d284	-0.025979288
208	0x3e6f20f4	0.23352414
209	0xbe46ce2a	-0.19414583
210	0x3d7b0fac	0.061294243
211	0x3dc963a2	0.098334566
212	0xbe59b46e	-0.21260235
213	0x3deb57a9	0.11491329
214	0xbd00cdd3	-0.03144629
215	0x3e004e03	0.12529759
216	0xbe4a7116	-0.19769701
217	0xbcedbec5	-0.02902163
218	0xbe03b8dc	-0.12863487
219	0xbe1340ec	-0.14380234
220	0x3e0af380	0.1356945
221	0xbcbb8824	-0.022892065
222	0xbdaf569d	-0.08561442
223	0x3e0c0847	0.13675033
224	0xbe5113bc	-0.20417684
225	0x3e83d163	0.25745687
226	0xbd33d24a	-0.04390172
227	0x3e33981a	0.17538491
228	0xbd9cdfe5	-0.07659892
229	0xbdd883a3	-0.10571983
230	0xbd4ae15c	-0.049531326
231	0xbb82360f	-0.0039737294
232	0xbe21b945	-0.15793331
233	0xbc15ed6f	-0.009150847
234	0x3e9b2c23	0.3030711
235	0xbd5ba86a	-0.05362741
236	0xbe35cfd9	-0.17755069
237	0x3d3bc035	0.0458376
238	0xbe9609fb	-0.2930449
239	0xbe062563	-0.131002
240	0x3e8b1e15	0.27171388
241	0xbe4d3da5	-0.20043047
242	0x3dbb14b3	0.091348074
243	0xbdbe521e	-0.09293006
244	0xbe502f6f	-0.20330594
245	0x3e16c6e9	0.14724316
246	0xbd14bbed	-0.036312032
247	0x3d820ae8	0.063497365
248	0xbd221c4d	-0.03957777
249	0x3e2441c3	0.16040711
250	0xbdd8fea7	-0.10595446
251	0x3e341b81	0.17588617
252	0x3e536c2b	0.20646732
253	0xbd2857cb	-0.04109935
254	0x3e3b3b95	0.18284447
255	0xbdd5e344	-0.10443738

decoder.layers.0.bias f4 [32]
0	0x3e50052d	0.20314474
1	0x3e8c86cc	0.27446592
2	0x3c92e5d4	0.017931856
3	0xbd9dd480	-0.07706547
4	0x3e9f3723	0.31096753
5	0xbe24d3f5	-0.1609648
6	0x3db97711	0.09055913
7	0xbda43856	-0.08018558
8	0x3cff67cd	0.031177426
9	0xbd60d809	-0.054893527
10	0x3e1de1fa	0.15418234
11	0x3e182e5d	0.14861436
12	0x3e0cd838	0.13754356
13	0x3ebbf5a1	0.36710837
14	0x3e8e84d8	0.27835727
15	0xbd8eddd2	-0.069759026
16	0x3c97ffd8	0.018554613
17	0x3dee1115	0.11624352
18	0xbe8c804e	-0.2744164
19	0x3e93afee	0.2884516
20	0x3e313b75	0.17307837
21	0xbbaa67d6	-0.0052003665
22	0x3e767644	0.24068552
23	0xbddfbe85	-0.109250106
24	0x3ea46e2f	0.32115313
25	0x3e9f7243	0.31141862
26	0x3eb172f4	0.34658015
27	0x3e52cebc	0.20586675
28	0x3e56129d	0.20905538
29	0xbac7f7b5	-0.0015256318
30	0xbe1a51f1	-0.1507032
31	0x3d8bc1c7	0.068240695

decoder.layers.2.weight f4 [32, 32]
0	0x3e6f7a70	0.2338655
1	0x3d32b488	0.0436292
2	0x3dcf2ab3	0.10115566
3	0xbe4cfa43	-0.20017342
4	0x3e0a76b2	0.13521841
5	0x3d5e215f	0.054231044
6	0x3ccf8b7f	0.025335072
7	0x3dd47ad5	0.10374991
8	0xbe559deb	-0.20861022
9	0xbd6d5ab8	-0.057947844
10	0x3dd68f0d	0.104765035
11	0x3de8a72e	0.11360012
12	0xbe0cac3e	-0.1373758
13	0x3e16b75e	0.14718387
14	0x3e231cbf	0.15928935
15	0xbb84dd9a	-0.0040547373
16	0xbd1609ac	-0.036630318
17	0xbd8dbc5e	-0.06920694
18	0xbe081a5f	-0.1329131
19	0x3e1bbb38	0.15208137
20	0x3db29fe8	0.08721906
21	0x3b947441	0.00453046
22	0x3e24e67b	0.16103546
23	0x3d2e56fc	0.042563424
24	0x3e323a07	0.17404948
25	0xbdf7f144	-0.12106565
26	0x3d4dd1d7	0.050248947
27	0x3df5a4ea	0.119943455
28	0x3e47961b	0.19490854
29	0x3e06d2a8	0.13166296
30	0xbd0aba58	-0.033869117
31	0x3db5c273	0.08874979
32	0x3e1c0406	0.1523591
33	0xbdc46d6c	-0.09591183
34	0xbd8109ef	-0.06300723
35	0xbe1539a2	-0.14572766
36	0x3de264c3	0.11054375
37	0xbd6e3aba	-0.058161475
38	0x3de553cb	0.11197623
39	0x3dbad76f	0.09123122
40	0xbcd50fdc	-0.026008539
41	0xbdc35285	-0.09537224
42	0xbc1b22cc	-0.009468745
43	0x3dbcc1fb	0.09216686
44	0xbe503a51	-0.20334746
45	0x3e8f4605	0.27983108
46	0x3ea95ba8	0.3307774
47	0xbe36d901	-0.17856218
48	0xbc4bf096	-0.012447497
49	0xbdf9f1eb	-0.12204345
50	0x3c4321e5	0.011909937
51	0x3dd5957d	0.10428903
52	0x3dd40df6	0.10354225
53	0xbdb14921	-0.08656526
54	0x3de6defe	0.11273001
55	0xbc3cb589	-0.011517891
56	0x3eb07d48	0.34470582
57	0x3df387c6	0.11891131
58	0x3dd87b14	0.1057035
59	0x3dc3b3ee	0.09555803
60	0x3e09b2c2	0.13447097
61	0x3e1f68ee	0.15567371
62	0xbe260a3f	-0.16214846
63	0x3dad6733	0.08466949
64	0x3e312c03	0.17301945
65	0x3e4cdf2a	0.20007005
66	0xbd542e93	-0.05180223
67	0xbde5d923	-0.11223056
68	0x3e532f74	0.2062357
69	0xbdfd92af	-0.12381493
70	0x3d00bc58	0.03142962
71	0x3db397b3	0.08769169
72	0x3c98fffb	0.018676748
73	0x3e463f88	0.19360173
74	0x3e8fe553	0.28104648
75	0x3e8e51d3	0.27796802
76	0xbd667931	-0.05626792
77	0x3e7de35b	0.2479376
78	0x3df70c40	0.120628834
79	0xbe0e40ed	-0.13891955
80	0x3e215444	0.15754801
81	0x3e7878c3	0.24264817
82	0xbdde275d	-0.10847352
83	0x3dab0f0f	0.083524816
84	0x3cceb181	0.025231125
85	0x3e5ccd68	0.21562731
86	0x3e88fad5	0.2675387
87	0xbd01a120	-0.0316478
88	0x3dd516f1	0.10404766
89	0xbd5d4328	-0.054019123
90	0x3e8d1566	0.27555388
91	0x3ccf619b	0.025315097
92	0x3e131d38	0.14366615
93	0x3c29e740	0.010370076
94	0xbdb14444	-0.08655599
95	0xbd4d84f1	-0.05017561
96	0x3d6dd2fa	0.05806253
97	0xbe40452d	-0.18776388
98	0xbe011805	-0.12606819
99	0x3e17ecca	0.14836422
100	0x3e18539e	0.14875647
101	0x3dba9e14	0.09112182
102	0xbcbc66fc	-0.022998326
103	0x3de2a540	0.11066675
104	0x3dda335d	0.10654328
105	0x3dd37bcf	0.10326349
106	0x3e10fbc7	0.14158545
107	0x3d05b869	0.03264657
108	0x3b65126d	0.003495361
109	0x3dd14c4a	0.10219629
110	0x3d1d332c	0.03837888
111	0xbdac2e66	-0.08407287
112	0xbdbd06c3	-0.09229805
113	0x3e857f33	0.26073608
114	0xbd65b5a8	-0.056081444
115	0xbe09e791	-0.13467242
116	0x3d6a83de	0.057254665
117	0xbdd64704	-0.10462764
118	0x3df60d85	0.120142974
119	0x3d2be677	0.041967835
120	0x3e566048	0.20935166
121	0x3e3c6f99	0.18401946
122	0x3d998c6e	0.07497488
123	0x3e675f39	0.22594918
124	0xbdd3372e	-0.10313259
125	0x3da565fa	0.08076091
126	0x3e12b864	0.14328152
127	0xbcce3417	-0.025171323
128	0x3dd773f4	0.10520163
129	0xbd9ebd08	-0.077508986
130	0x3e2de9cf	0.16983722
131	0xbb18269c	-0.0023216372
132	0xbdcffc11	-0.101555
133	0x3b6dc1c1	0.0036278816
134	0x3d123a82	0.03570033
135	0x3d42d67b	0.047567826
136	0x3dd8fe65	0.10595397
137	0xbc89434d	-0.016755724
138	0x3e31c397	0.17359768
139	0x3e28f062	0.16497949
140	0x3dc590a9	0.09646732
141	0x3e0f0e83	0.1397038
142	0xbb95d982	-0.004573048
143	0x3dab9e7c	0.08379838
144	0xbde196db	-0.110151015
145	0x3dc3e17d	0.09564493
146	0x3d2e09b9	0.04248974
147	0xbcec90cf	-0.028877644
148	0xbd74bf2a	-0.05975262
149	0x3e0c148b	0.13679712
150	0xbd6f9d4e	-0.058499627
151	0xbd3a32c7	-0.04545858
152	0x3e032a04	0.12808996
153	0x3e68c9ab	0.2273318
154	0x3e458468	0.1928879
155	0x3e817807	0.25286886
156	0xbe7585e4	-0.23976856
157	0x3dde126b	0.10843357
158	0x3dbeda29	0.093189545
159	0xbe08e871	-0.1336992
160	0x3e8622f9	0.26198557
161	0x3e280306	0.16407403
162	0x3da36b09	0.079794
163	0x3ba00cea	0.004884352
164	0x3e4e1131	0.20123746
165	0xbd52b9e6	-0.051446818
166	0xbd2a31c8	-0.04155138
167	0x3d66f8d1	0.056389634
168	0xbe05489f	-0.13015984
169	0xbbad0ffa	-0.0052814456
170	0x3d83caf1	0.064351924
171	0x3da82398	0.08209914
172	0x3d70af74	0.058761075
173	0x3d85e63e	0.06538056
174	0x3e7b662b	0.24550693
175	0xbe20681f	-0.15664719
176	0x3d502396	0.050815187
177	0xbd295e1a	-0.041349508
178	0xbd545cb7	-0.051846232
179	0xbbe27d54	-0.006911913
180	0x3e1acf06	0.15118036
181	0x3e3403d0	0.1757958
182	0x3dd06663	0.10175779
183	0x3df3a0f9	0.118959375
184	0x3dbb2f86	0.09139924
185	0x3d953244	0.07284978
186	0x3e2bad92	0.1676543
187	0xbc476a8c	-0.012171399
188	0x3cdf9950	0.027294785
189	0xbd4a84c6	-0.04944303
190	0x3db292fc	0.08719441
191	0x3d25048d	0.040287543
192	0x3dca1758	0.09867734
193	0x3de13ab9	0.109975286
194	0xbcf00a5d	-0.029301817
195	0x3dd47e3c	0.1037564
196	0x3c1520f6	0.009102097
197	0x3da450ee	0.080232486
198	0xbd34b483	-0.044117462
199	0xbd9ee4d2	-0.07758488
200	0xbb7c4206	-0.0038491501
201	0x3dd95007	0.10610967
202	0xbc63b2a3	-0.013897571
203	0x3e319519	0.17342032
204	0x3e6f2459	0.2335371
205	0xbe17a0d2	-0.14807442
206	0x3cfcdab4	0.030866005
207	0x3e55a150	0.20862317
208	0x3dce8fcb	0.1008602
209	0x3e090437	0.13380514
210	0x3df97f36	0.12182467
211	0xbca72f22	-0.020408217
212	0x3e5b93f6	0.21443161
213	0x3d651a6a	0.055933394
214	0x3dc22381	0.09479428
215	0x3e0a1ea8	0.13488257
216	0xbe2485bd	-0.16066642
217	0x3e1a1771	0.15048005
218	0xbdbf3b72	-0.0933751
219	0x3d3aae86	0.045576595
220	0xbd403733	-0.046927642
221	0xbdbef0f2	-0.093233004
222	0x3d7ca6c7	0.06168249
223	0x3e4701f7	0.19434343
224	0x3d782460	0.060581565
225	0x3dd54172	0.10412873
226	0xbd9e80ff	-0.07739448
227	0x3df64411	0.120247014
228	0xbe0ee125	-0.13953073
229	0xbd85ff7a	-0.06542869
230	0x3e0549d6	0.13016447
231	0xbbbd2529	-0.005772252
232	0x3cb00bc9	0.021489995
233	0x3e2600d0	0.16211247
234	0xbc2b8df6	-0.010470858
235	0x3d78bb0f	0.060725268
236	0xbd2edb8f	-0.042689856
237	0x3d89cb06	0.06728177
238	0x3c67761b	0.01412728
239	0x3d33ee58	0.043928474
240	0xbd2e4938	-0.042550296
241	0x3e4c0057	0.19922005
242	0x3dc2f43e	0.09519242
243	0x3de3e276	0.11127178
244	0xbe1075f3	-0.14107494
245	0x3ca4e421	0.020128312
246	0xbd947533	-0.072489165
247	0x3d1a558f	0.03767925
248	0x3dd3bcb5	0.103387274
249	0x3e86c71e	0.2632379
250	0xbd249b67	-0.040187266
251	0x3df3ba42	0.1190076
252	0xbdfa1baa	-0.12212308
253	0x3e1f2371	0.15540864
254	0xbdf2d30a	-0.11856659
255	0xbdddea50	-0.10835707

decoder.layers.2.bias f4 [32]
0	0x3eb3df6f	0.35131404
1	0x3e71c847	0.23611556
2	0x3e11158f	0.1416838
3	0xbca698c8	-0.020336524
4	0xbdce12ab	-0.100621544
5	0x3e592b5d	0.21207948
6	0x3d17cfd3	0.03706343
7	0x39d88bf7	0.00041303012
8	0x3cec41f2	0.028840039
9	0x3d85f856	0.06541507
10	0x3e6f24a3	0.2335382
11	0x3e96909b	0.294072
12	0x3e962d7c	0.29331577
13	0x3deaedeb	0.114711605
14	0xbd24f611	-0.04027373
15	0xbd79b4bc	-0.060963377
16	0xbd281631	-0.04103679
17	0x3dcc95f7	0.09989541
18	0xbd7fe471	-0.062473718
19	0x3e655b42	0.22398093
20	0x3dd31200	0.103061676
21	0x3d169918	0.036767095
22	0x3e9066b9	0.2820337
23	0x3d201935	0.03908654
24	0x3d8f7a7d	0.07005785
25	0x3d82c0f2	0.06384458
26	0xbe11ce91	-0.14238955
27	0xbe0d6c5e	-0.1381087
28	0xbdca8c74	-0.098900706
29	0x3e82929c	0.2550248
30	0xbda72027	-0.081604294
31	0xbdea4477	-0.1143884

decoder.layers.4.weight f4 [24, 32]
0	0xbbef0e04	-0.007295372
1	0x3e085e94	0.13317329
2	0x3d268584	0.040654674
3	0xbe0c0231	-0.13672711
4	0x3d9aa863	0.075516485
5	0x3cf9bd1d	0.030485684
6	0xbd85cd59	-0.065333076
7	0x3a891dcf	0.0010461154
8	0x3d631c74	0.055447057
9	0xbd6bc193	-0.057557654
10	0x3d9f27d6	0.0777127
11	0xbc7ff9e0	-0.01562354
12	0xbd478462	-0.048710234
13	0x3d2d698d	0.04233699
14	0x3ad84e88	0.0016502896
15	0x3e031f24	0.12804848
16	0xbc3bd430	-0.011464164
17	0x3d9158b8	0.07097
18	0x3d16ba7c	0.03679894
19	0xbdaa77ac	-0.08323607
20	0xbd8c5958	-0.068529785
21	0x3d2f4e76	0.042799436
22	0x3cb6a04a	0.022293229
23	0xbcbaf135	-0.022820095
24	0x3db9431b	0.090460025
25	0x3d817d33	0.06322708
26	0xbd0f43f0	-0.0349769
27	0xbdd97857	-0.10618656
28	0x3ccb1265	0.024789045
29	0xbd01eae2	-0.031718142
30	0xbd19cb6b	-0.03754751
31	0xbd50490d	-0.050850917
32	0xbc20f18c	-0.009823214
33	0xbd801171	-0.06253327
34	0x3d9d6e0d	0.07687006
35	0x3de7daca	0.113210276
36	0xbdc6b452	-0.09702362
37	0x3cf33789	0.029689567
38	0xbdb9d9bc	-0.09074733
39	0x3dc6bc6f	0.097039096
40	0x3d426d4e	0.047467522
41	0xbb305911	-0.0026908556
42	0xbe09ecb2	-0.13469198
43	0xbd59e1a7	-0.053193714
44	0x3dafd6f8	0.08585924
45	0xbcdc812a	-0.026917059
46	0xbc5f4c6a	-0.013629058
47	0xbc26c871	-0.010179625
48	0x3de7679f	0.11299061
49	0xbda3cad6	-0.07997672
50	0x3c1038b7	0.008802584
51	0x3dd98b03	0.106222175
52	0x3c9835d2	0.018580351
53	0xbcd3b9fe	-0.025845524
54	0x3dd185b1	0.10230578
55	0xbdd93d91	-0.10607446
56	0xbacc4c12	-0.0015586636
57	0xbc193b19	-0.009352469
58	0x3cbe3eff	0.023223398
59	0xbd04f324	-0.03245844
60	0x3ccb2cc3	0.024801617
61	0xbda0fdd0	-0.07860911
62	0xbdc1de41	-0.0946622
63	0x3d5c3b46	0.053767465
64	0x3e218c35	0.15776141
65	0xbcba641a	-0.02275281
66	0xbb21e638	-0.0024703871
67	0xbdd90d3a	-0.10598226
68	0x3d56a538	0.05240366
69	0x3dbd5241	0.09244204
70	0xbdffbbd5	-0.12486998
71	0x3cb8f5b9	0.022578107
72	0xbd83315d	-0.064059
73	0x3d516ce9	0.051129255
74	0xbe144e19	-0.14482917
75	0xbde6742a	-0.11252625
76	0x3d9bb1ce	0.07602273
77	0xbd858f73	-0.065215014
78	0x3d1a81fc	0.03772162
79	0xbd486585	-0.04892494
80	0x3d0faa27	0.03507438
81	0x3ce0630b	0.027390977
82	0x3da3a421	0.079902895
83	0x3dfb1ade	0.12260984
84	0x3d85a1f5	0.065250315
85	0xbd585cfe	-0.05282306
86	0xbe244f37	-0.16045843
87	0x3dbd3d56	0.092402145
88	0x3d1ddcfe	0.038540833
89	0xbdf9b7d0	-0.121932626
90	0x3cf15594	0.029459752
91	0x3d55fb63	0.052241694
92	0x3be416a4	0.006960707
93	0xbde542ef	-0.11194407
94	0xbbe02dd2	-0.0068413997
95	0xbd45c376	-0.04828211
96	0x3d671fe1	0.056426886
97	0xbd4474e6	-0.047963046
98	0xbdb825da	-0.089915946
99	0xbd9a1ddb	-0.07525226
100	0x3be2a65b	0.006916804
101	0xbc96382b	-0.01833733
102	0xbd7fa0cc	-0.062409207
103	0xbd043c81	-0.032284264
104	0xbcb2e88a	-0.021839399
105	0xbdfc0ddc	-0.12307331
106	0x3def51e5	0.11685542
107	0x3dc54366	0.09631996
108	0xbd4883fe	-0.048954003
109	0xbd851117	-0.064974
110	0x3e03a7e6	0.12857017
111	0x3d8daff5	0.06918327
112	0xbd104360	-0.035220504
113	0x3d144d2c	0.03620641
114	0x3d152f41	0.036422018
115	0xbdc7b7b9	-0.09751839
116	0x3d6de93d	0.05808376
117	0x3c2720b4	0.010200668
118	0x3d9e7c8c	0.07738599
119	0x3b21b05a	0.0024671764
120	0xbd44e375	-0.048068482
121	0xbd870438	-0.065926015
122	0xbc080adb	-0.008303369
123	0xbb77224e	-0.0037709656
124	0xbb2b1f1c	-0.0026111072
125	0xbdc89eca	-0.097959116
126	0x3d64024e	0.05566626
127	0x3dae0f6c	0.08499035
128	0x3d068c26	0.0328485
129	0x3db9f35b	0.090796195
130	0x3deadd5a	0.11468001
131	0xbdb9eed9	-0.0907876
132	0x3daabb38	0.083364904
133	0xbd6830e0	-0.056687236
134	0xbbec41bd	-0.007209985
135	0x3d00ebfa	0.031475045
136	0x3d8dc49e	0.069222674
137	0xbca98415	-0.020692864
138	0xbc98de78	-0.018660769
139	0x3de54312	0.11194433
140	0xbdca41c4	-0.09875825
141	0xbd574885	-0.052559394
142	0xbc7c87d4	-0.015413243
143	0x3d9cfae8	0.07665044
144	0x3dab45fe	0.08362959
145	0xbd240000	-0.040039062
146	0xbda13cd3	-0.078729294
147	0xbda7e4a1	-0.081979044
148	0xbdb51a91	-0.08842958
149	0xbc0a1640	-0.008428156
150	0xbe0e664c	-0.1390621
151	0xbc97da22	-0.018536631
152	0x3d1a9d3b	0.037747603
153	0xbd568e74	-0.052381948
154	0x3cd2a7bb	0.025714746
155	0xbddf1843	-0.108932994
156	0x3cc4f704	0.024043567
157	0x3b057d8c	0.0020369021
158	0x3c625521	0.013814242
159	0x3b8fa0ea	0.004383196
160	0x3e13a6e1	0.14419128
161	0x3cec48a7	0.028843237
162	0xbcb6b8e8	-0.022304967
163	0x3da76edd	0.08175442
164	0xbd93901e	-0.072052225
165	0xbc7a8d83	-0.015292528
166	0x3d87265e	0.06599115
167	0x3d727ec0	0.05920291
168	0x3d635047	0.05549648
169	0x3d218c05	0.039440174
170	0x3c945256	0.018105667
171	0xbde20002	-0.11035158
172	0xbdc8cfaf	-0.098052375
173	0x3cc7dcdc	0.024397306
174	0xbcc18968	-0.02362509
175	0x3d01ca9e	0.03168737
176	0xbd02b761	-0.031913165
177	0x3d755986	0.05989983
178	0xbcffe344	-0.031236298
179	0xbb808bfc	-0.0039229374
180	0x3c9646eb	0.018344363
181	0xbcfe6918	-0.031055972
182	0x3d716aa1	0.05893958
183	0xbdbe3969	-0.09288294
184	0xbd15274a	-0.036414422
185	0x3bb407f6	0.005494113
186	0x3d6297de	0.055320613
187	0xbd84b0e6	-0.06479053
188	0x3cdcd64b	0.026957652
189	0x3c8bc1ea	0.017060239
190	0x3be69104	0.00703633
191	0x3d79e3f3	0.061008405
192	0xbdac5212	-0.08414091
193	0x3db90485	0.09034065
194	0x3da4138a	0.08011539
195	0x3c899d35	0.016798595
196	0x3c55d792	0.013051884
197	0xbe0ab4c9	-0.13545527
198	0x3c9bcd41	0.019018771
199	0x3e1229d9	0.14273776
200	0x3c447591	0.011990921
201	0x3e03e9d3	0.12882166
202	0xbb9687d4	-0.0045938287
203	0xbe1267d8	-0.14297426
204	0x3e1b17b8	0.15145767
205	0xbcf061a4	-0.029343434
206	0xbdfd9121	-0.12381197
207	0x3d3ee7e8	0.04660788
208	0x3d9015ce	0.07035409
209	0x3ce91354	0.0284516
210	0xbc815dd0	-0.015791804
211	0x3e042bda	0.12907353
212	0xbcb306e0	-0.021853864
213	0xbd3d059f	-0.04614794
214	0x3db224ef	0.08698451
215	0x3df56de7	0.11983853
216	0x3cd6e860	0.026233852
217	0x3e01900f	0.1265261
218	0x3d9a9fbf	0.075500004
219	0xbe05c596	-0.13063654
220	0xbd225d26	-0.039639615
221	0xbd100681	-0.035162453
222	0xbe5028d4	-0.20328075
223	0xbe059084	-0.1304341
224	0xbdad7c72	-0.08471002
225	0x3de795db	0.113078795
226	0x3c8ec937	0.017429931
227	0xbd54867a	-0.05188606
228	0xbc7400c0	-0.014892757
229	0xbd0d9ba0	-0.034572244
230	0x3d55b816	0.05217751
231	0x3cfc82cf	0.030824093
232	0x3dc6bd42	0.09704067
233	0x3db1b2fc	0.08676717
234	0xbd6fc3c8	-0.05853632
235	0xbdc5f4e8	-0.09665853
236	0xbd8e5ea3	-0.06951644
237	0xbccedc26	-0.02525146
238	0xbbce9183	-0.0063039674
239	0x3cab9079	0.020942913
240	0x3d50d3c9	0.050983224
241	0xbe0e1f9c	-0.13879246
242	0xbe1cee64	-0.15325314
243	0xba7d4069	-0.0009660782
244	0x3d8b08f6	0.067888185
245	0xbce207fa	-0.027591694
246	0xbda095a2	-0.0784104
247	0x3d7ed0d2	0.062210865
248	0xbd9f032b	-0.07764276
249	0xbe1c87dd	-0.15286203
250	0x3da561fd	0.080753304
251	0x3cf47e47	0.02984537
252	0x3cb7f33e	0.022454854
253	0x3e086cf2	0.1332281
254	0x3dbf55be	0.09342526
255	0xbd43e931	-0.04782981

decoder.layers.4.bias f4 [24]
0	0xbd3e9bcd	-0.046535302
1	0xbb4a460c	-0.0030864505
2	0x3e0b52c6	0.13605794
3	0x3daaa7e6	0.08332805
4	0xbba4612a	-0.0050164657
5	0xbd277a6b	-0.04088823
6	0xbd910386	-0.0708075
7	0x3e037767	0.12838517
8	0x3e341caa	0.1758906
9	0x3db021cc	0.08600196
10	0x3d60d64b	0.054891866
11	0xbc993be0	-0.018705308
12	0x3d477d21	0.048703317
13	0x3e079c34	0.1324318
14	0xbd19b0f9	-0.03752229
15	0xbdc4eb39	-0.09615178
16	0xbdce7427	-0.10080748
17	0xbd972ecb	-0.07381972
18	0xbc93785b	-0.018001726
19	0xbe637701	-0.22213365
20	0x3d43b6c5	0.047781724
21	0xbe04fd5a	-0.12987271
22	0xbd8078af	-0.062730186
23	0xbc8dffaf	-0.017333834
