m4_ws/src/morphing_lander/learned_models/2024-05-21_16-56-45/model_40.pth (torch, 33902 bytes, 22 tensors)

cond_normalizer.mean f4 [12]
0	0xbeefd019	-0.46838453
1	0xbc0e3cb2	-0.008681463
2	0xb9e972fe	-0.000445269
3	0x3a737654	0.00092873466
4	0x3cec182e	0.028820124
5	0x3c0bc6b3	0.00853126
6	0xbbd48437	-0.006485488
7	0x3f0c51ed	0.5481251
8	0x3f0fb57b	0.5613629
9	0x3f0c7a0c	0.5487373
10	0x3f0f6b93	0.5602352
11	0x421b1a99	38.775974

cond_normalizer.variance f4 [12]
0	0x3e02f949	0.12790407
1	0x3aac716f	0.0013156364
2	0x3aac1af5	0.0013130592
3	0x3aab0ad6	0.0013049494
4	0x3d92e5a3	0.07172706
5	0x3d66c969	0.056344423
6	0x3de05fda	0.10955782
7	0x3cbabe1d	0.022795731
8	0x3cbece41	0.023291709
9	0x3cbb09ff	0.022831915
10	0x3cc16c71	0.02361128
11	0x43906860	288.81543

output_normalizer.mean f4 [12]
0	0xbb4cc7be	-0.0031246985
1	0xbae6d36d	-0.0017610617
2	0x3c688f6f	0.0141943535
3	0x3847f29a	4.7671238e-05
4	0x3b2591a0	0.0025263801
5	0x3a48cf26	0.0007660262
6	0x3c41c5be	0.011826931
7	0x3a9a765b	0.001178454
8	0x402a74cd	2.663379
9	0x3d9d829f	0.076909296
10	0x3ee6d244	0.45082295
11	0xb9928ca1	-0.00027952067

output_normalizer.variance f4 [12]
0	0x3e1b4613	0.1516345
1	0x3da93096	0.0826122
2	0x3d0e6c90	0.034771502
3	0x38e2c638	0.00010813441
4	0x3baf0fff	0.005342483
5	0x3ca73d41	0.02041495
6	0x3e8363ad	0.25661984
7	0x40070b59	2.1100676
8	0x428f5a6a	71.67659
9	0x432d5868	173.34534
10	0x40d1ae7e	6.5525503
11	0x3ec54ec0	0.38536644

encoder.layers.0.weight f4 [32, 24]
0	0xbb28d219	-0.0025759994
1	0xbba8a27a	-0.005146322
2	0xbc690279	-0.014221781
3	0xbe131093	-0.14361791
4	0xbe53490d	-0.20633335
5	0x3e7c8f2d	0.24663992
6	0x3d78ea1d	0.060770143
7	0xbe5927d1	-0.21206595
8	0xba82c698	-0.0009977398
9	0xbe54bb2a	-0.20774522
10	0x3c726a66	0.014795875
11	0xbde32c43	-0.11092427
12	0x3c1d1361	0.00958714
13	0x3bff41b9	0.007789817
14	0x3cf40f2c	0.02979239
15	0x3e64a870	0.22329879
16	0xbc68d697	-0.014211318
17	0xbc333d81	-0.010939957
18	0xbbe736ee	-0.0070561087
19	0x3ca62a4f	0.020283846
20	0x3d29a209	0.041414294
21	0xbc1c38df	-0.0095350435
22	0xbd803b52	-0.062613145
23	0xba5f51d2	-0.0008518967
24	0x3dd3a9e8	0.103351414
25	0x3b4fe39b	0.0031721357
26	0x3da44952	0.08021797
27	0x3e16adb1	0.14714696
28	0xbd9b5b91	-0.07585824
29	0xbcc051e4	-0.023476548
30	0xbe265181	-0.16242029
31	0x3e2bba68	0.16770327
32	0x3e0edd71	0.1395166
33	0x3e04def8	0.12975681
34	0xbc3d041d	-0.011536625
35	0xbd9aba08	-0.07555014
36	0x3df562ee	0.1198176
37	0xbd9564e4	-0.07294634
38	0xbe160c66	-0.14653167
39	0xbe014d4b	-0.12627141
40	0xbd5718af	-0.052513774
41	0xbdb37295	-0.08762089
42	0xbe1810ea	-0.14850202
43	0xbbb15df7	-0.005412813
44	0xbe425888	-0.18979084
45	0x3d6b9719	0.057517145
46	0xbe202734	-0.15639955
47	0x3d45561c	0.048177823
48	0xbccc3398	-0.024926946
49	0x3d97d00f	0.07412731
50	0xbd551dc3	-0.052030336
51	0xbe8b1ef8	-0.27172065
52	0x3c8b6516	0.017015975
53	0xbe6891a0	-0.22711802
54	0xbdf5d02f	-0.120025985
55	0x3da804ff	0.08204078
56	0xbca225c3	-0.019793397
57	0xbd856b4a	-0.065146044
58	0xbe165811	-0.14682032
59	0xbd9d36a9	-0.07676441
60	0xbc088c71	-0.008334265
61	0x3ce8578e	0.028362062
62	0xbd70a559	-0.058751438
63	0xbe659918	-0.22421682
64	0xbb587b03	-0.0033032305
65	0x3d2477c1	0.04015327
66	0xbc7122bc	-0.014717754
67	0xbdda3127	-0.10653906
68	0xbc30ce34	-0.01079135
69	0x3dafe90f	0.08589374
70	0x3be78c49	0.007066284
71	0xba897fcd	-0.0010490358
72	0x3b55027f	0.0032502708
73	0xbdac927a	-0.08426376
74	0x3cbed587	0.023295177
75	0x3c320137	0.010864547
76	0x3b653ed4	0.0034980075
77	0x3e496580	0.19667625
78	0xbe6c78bb	-0.2309293
79	0x3e312028	0.17297423
80	0x3deef747	0.11668258
81	0xbe55fde7	-0.20897637
82	0xbbf05f89	-0.0073356074
83	0xbc9d23d2	-0.01918212
84	0xbd1cd992	-0.03829343
85	0x3dd5079c	0.10401842
86	0x3df768c5	0.1208053
87	0xbe4bc7b0	-0.19900393
88	0xbb9986b7	-0.0046852487
89	0x3cb856d3	0.022502339
90	0x3caba67e	0.020953413
91	0x3e08ba3b	0.13352291
92	0x3df07ab8	0.11742157
93	0x3d4b3b7a	0.04961727
94	0x3d6f7bcd	0.058467675
95	0xbc96c03e	-0.018402215
96	0xbd195624	-0.037435666
97	0x3b2e9dc6	0.0026644333
98	0xbe140e5d	-0.14458604
99	0xbe522901	-0.20523454
100	0xbe7de282	-0.24793437
101	0x3e4fccfb	0.20293038
102	0xbe28731f	-0.16450165
103	0x3c4ca6a6	0.012490904
104	0xbc864136	-0.016388517
105	0xbddac39d	-0.106818415
106	0x3d558aa9	0.05213419
107	0xbe332062	-0.17492822
108	0x3cdee645	0.02720941
109	0xbd248e4c	-0.040174767
110	0x3d090660	0.033453345
111	0x3dc492fd	0.09598348
112	0x3bcb0a45	0.0061962926
113	0xbd6f29a3	-0.058389317
114	0xbd707884	-0.058708683
115	0xbde32db3	-0.11092701
116	0xbda840df	-0.08215498
117	0x3df3f71a	0.11912365
118	0x3dc02882	0.09382726
119	0x3d77827c	0.060427174
120	0x3c389803	0.011266711
121	0xbbc99f30	-0.00615301
122	0x3d09a695	0.03360613
123	0x3bbff56c	0.005858114
124	0xbe21fa7b	-0.15818207
125	0xbe307d85	-0.17235382
126	0xbd9ea078	-0.07745451
127	0xbd28994a	-0.041161813
128	0x3d1d1a79	0.038355324
129	0x3dcd2c62	0.10018231
130	0x3e6a171b	0.22860377
131	0xbe47fe16	-0.1953052
132	0x3d5411db	0.05177484
133	0x3d68554a	0.056721963
134	0xbe655bd6	-0.22398314
135	0xbd6a88b9	-0.057259295
136	0xbcbc4afa	-0.02298497
137	0x3c9a9fce	0.018875029
138	0xbcc872cd	-0.024468804
139	0x3db44181	0.088015564
140	0xbd649530	-0.05580634
141	0xbddfb88b	-0.10923871
142	0x3dcbcd95	0.09951321
143	0xbc1a5d99	-0.0094217295
144	0x3d86337c	0.065527886
145	0xbdd73763	-0.10508611
146	0xbd9d7b99	-0.0768959
147	0x3d1b86ec	0.03797047
148	0xbdc528d9	-0.09626932
149	0xbde8a596	-0.11359708
150	0x3dbb961a	0.09159489
151	0xbdc31a56	-0.095265076
152	0xbe277455	-0.16352971
153	0x3d55df22	0.05221475
154	0x3d0957cd	0.033531
155	0xbd8034a8	-0.062600434
156	0x3d1bb9ce	0.038018994
157	0x3e3f2da3	0.18669753
158	0xbcd706ee	-0.026248422
159	0x3c622aa3	0.013804111
160	0x3e006246	0.12537488
161	0xbdf62c12	-0.120201245
162	0xbdbd43dc	-0.09241459
163	0x3e2c6f3b	0.16839306
164	0x3ccfc03f	0.025360225
165	0x3e2cc562	0.1687217
166	0x3d4344d5	0.047673065
167	0xbd695bdd	-0.056972373
168	0xbdd3ee98	-0.103482425
169	0x3d75806a	0.05993692
170	0x3db5cb26	0.08876638
171	0x3d87bb2c	0.06627497
172	0xbb6a2e24	-0.0035733068
173	0x3dfafe1d	0.122554995
174	0xbd313dbb	-0.04327176
175	0x3d46787e	0.048454754
176	0xbdfaec07	-0.1225205
177	0x3d54c214	0.0519429
178	0x3d0b4069	0.033996973
179	0xbda23fa0	-0.07922292
180	0x3da52b01	0.08064843
181	0xbd922d97	-0.07137602
182	0x3c2c7cde	0.0105278175
183	0xbd839a79	-0.06425948
184	0x3e23e90a	0.16006866
185	0x3e1a2631	0.15053631
186	0xbdda876a	-0.106703594
187	0x3da5fc95	0.08104817
188	0xbe06435a	-0.1311163
189	0x3d7aa439	0.06119177
190	0xbc8dd8b6	-0.01731525
191	0xbda947df	-0.082656614
192	0x3c9af37f	0.018914936
193	0xbbd05c39	-0.00635865
194	0xbd9ccd63	-0.07656362
195	0x3e4514d7	0.19246231
196	0x3e72515a	0.23663846
197	0x3e6dc6b4	0.2322033
198	0xbe612959	-0.21988429
199	0xbce6a150	-0.028153092
200	0xbc85e721	-0.016345562
201	0x3e2f2070	0.17102218
202	0xbe34f497	-0.17671429
203	0xbd02bb43	-0.031916868
204	0x3d73a86c	0.05948679
205	0x3ca54ba5	0.020177672
206	0xbd6891b8	-0.056779593
207	0xbd651650	-0.055929482
208	0xbc7f9a72	-0.0156007875
209	0xbca66f52	-0.020316754
210	0xbb09faa5	-0.0021053937
211	0xbd7b9bef	-0.061428007
212	0x3d0647b3	0.03278322
213	0x3e0b1cd4	0.13585216
214	0xbdcace18	-0.099025905
215	0xbd47d06f	-0.048782762
216	0xbd6713e1	-0.056415442
217	0xbb9597e4	-0.004565226
218	0xbc4dfd03	-0.01257253
219	0x3d89277c	0.06696984
220	0xbe12f428	-0.1435095
221	0xbd0d3d10	-0.034482062
222	0x3debd2e4	0.115148336
223	0x3d12eb1e	0.035868756
224	0xbc8857f4	-0.016643502
225	0xbe03cd6c	-0.12871331
226	0x3ce8f5ea	0.028437573
227	0x3d123f92	0.035705157
228	0xbd3c2c19	-0.045940492
229	0xbd87c925	-0.06630162
230	0x3cdf3c9c	0.02725058
231	0x3e0cd054	0.13751346
232	0x3dcb07d5	0.09913603
233	0xbe2febf1	-0.17179848
234	0x3cfaf345	0.030633578
235	0x3dfcc9a8	0.123431504
236	0xbdc157f5	-0.094406046
237	0x3b34ece2	0.0027607013
238	0x3c97a931	0.018513294
239	0x3cbbc8a9	0.02292283
240	0x3c620fb8	0.013797693
241	0xbb9f1eaf	-0.0048559527
242	0x3da63d9c	0.0811722
243	0xbe41151d	-0.1885571
244	0xbdd6ca78	-0.104878366
245	0x3ea8db71	0.3297992
246	0xbd9aa786	-0.07551484
247	0x3d4e882a	0.050422825
248	0xbdf1aa5f	-0.11800074
249	0x3d7522bc	0.05984758
250	0xbe645ec4	-0.22301775
251	0x3e3dcbf6	0.18534836
252	0x3d772270	0.060335577
253	0xbbcac9b1	-0.0061885943
254	0x3d4e3cd4	0.05035098
255	0xbe118c0d	-0.14213581

encoder.layers.0.bias f4 [32]
0	0xbc5c3c4a	-0.013442108
1	0x3e647478	0.22310054
2	0xbcd49f76	-0.025954943
3	0xbe034842	-0.12820533
4	0xbe04b590	-0.12959886
5	0xbd6b6833	-0.05747242
6	0x3df2aafa	0.118490174
7	0x3e9e508f	0.30920836
8	0xbcaf95a3	-0.021433657
9	0xbdbd852d	-0.09253917
10	0xbd73c055	-0.059509594
11	0xbcf08881	-0.029361965
12	0xbdf7f0ba	-0.12106462
13	0xbd092a4f	-0.033487614
14	0x3e8f4134	0.27979434
15	0xbc83239b	-0.016008189
16	0x3ec1f52d	0.37882367
17	0xbe061f07	-0.13097773
18	0xbd740f6e	-0.059585027
19	0x3eaad6b1	0.33366922
20	0x3e823027	0.25427362
21	0xbb9f754b	-0.0048662773
22	0xbd89af43	-0.06722882
23	0xbd63799c	-0.055535898
24	0x3eac80d5	0.3369204
25	0xb7cfba5e	-2.4763107e-05
26	0x3de0255b	0.10944625
27	0xbd3751a2	-0.044755585
28	0xbd3cfa5d	-0.046137203
29	0x3e012d48	0.1261493
30	0xbda9c9f3	-0.08290472
31	0x3e863d16	0.2621848

encoder.layers.2.weight f4 [32, 32]
0	0x3d00faa0	0.031489015
1	0x3d3d11ca	0.046159543
2	0xbd35aeb6	-0.04435607
3	0xbdb9934e	-0.09061299
4	0x3bf0a5ac	0.0073439684
5	0xba4fbefb	-0.00079248816
6	0x3d2d688e	0.04233604
7	0x3e3436c1	0.17599012
8	0xbdc19cb0	-0.09453714
9	0xbdb82710	-0.089918256
10	0xbe007927	-0.12546216
11	0x3dacd46e	0.08438955
12	0x3b42a75c	0.0029701805
13	0x3da6d605	0.0814629
14	0x3d6a70e1	0.057236556
15	0x3d33047f	0.04370546
16	0xbca64cb6	-0.02030025
17	0x3d115df0	0.035489976
18	0x3c9fcb46	0.019506108
19	0x3cf223d5	0.029558102
20	0xbda64455	-0.08118502
21	0xbdd9260f	-0.10602962
22	0xbe576d2a	-0.21037737
23	0xbe156e35	-0.14592822
24	0x3de3a14b	0.111147486
25	0xbdb93a3a	-0.09044309
26	0x3c37e232	0.011223363
27	0xbd9d0910	-0.07667744
28	0x3bf415fa	0.007448909
29	0xbda80a9a	-0.08205147
30	0xbdb8b001	-0.09017945
31	0x3ccc646d	0.02495023
32	0xbe4aa016	-0.1978763
33	0x3dfb589e	0.12272762
34	0xbe3cc0a6	-0.18432865
35	0xbd96735f	-0.07346224
36	0xbe14871b	-0.14504664
37	0xbe6219b3	-0.22080116
38	0xbd2f4b96	-0.042796694
39	0x3df18ba0	0.117942095
40	0xbe4a9621	-0.19783832
41	0xbe181407	-0.1485139
42	0xbe52c089	-0.20581259
43	0xbdc2a67e	-0.09504412
44	0xbd661474	-0.05617185
45	0xbe2f016f	-0.1709039
46	0x3deffcfd	0.117181756
47	0xbe687070	-0.22699142
48	0x3e40fa84	0.18845564
49	0xbe5f5eb9	-0.21813478
50	0xbc0e7a5c	-0.008696165
51	0x3df97185	0.12179855
52	0x3db55422	0.08853938
53	0xbe2d490d	-0.16922398
54	0xbdc66673	-0.096875094
55	0xbe2349ef	-0.15946172
56	0xbb574dd3	-0.0032852783
57	0xbd352b76	-0.0442309
58	0x3c0c3d8b	0.008559595
59	0xbd22bd12	-0.039731093
60	0xbe076eec	-0.13225907
61	0xbb5b3d0d	-0.0033453137
62	0xbe985b20	-0.29757023
63	0xbd0ec8e3	-0.03485955
64	0x3e40d607	0.18831645
65	0xbd6da6b2	-0.0580203
66	0x3e3c6c9f	0.1840081
67	0x3d361e5a	0.04446254
68	0x3e6a6a46	0.22892103
69	0x3d82cbc4	0.063865215
70	0xbb13857d	-0.0022509985
71	0x3db6936e	0.08914839
72	0x3e57e83d	0.21084686
73	0x3cb87276	0.022515517
74	0xbcd3e10a	-0.025864143
75	0x3e0b1102	0.13580707
76	0x3e5cc112	0.21558025
77	0x3e62962b	0.22127597
78	0x3e0a6ac4	0.1351729
79	0x3e5c6f3e	0.2152681
80	0x3d8dfa9e	0.06932567
81	0x3e2f306b	0.17108314
82	0x3dc9da71	0.098561175
83	0x3db8383f	0.08995103
84	0x3d4d8fae	0.05018585
85	0x3d86fd6b	0.065913044
86	0xbcda87b9	-0.026676046
87	0x3e420690	0.18947816
88	0xbd1f81c0	-0.0389421
89	0x3d814325	0.06311635
90	0xbcdbfc49	-0.026853697
91	0x3e3416fe	0.17586896
92	0x3ddaf7f4	0.106918246
93	0x3cce21c1	0.02516258
94	0x3e868439	0.26272753
95	0x3de0de39	0.109798856
96	0x3dacb01e	0.08432029
97	0xbd78320f	-0.060594615
98	0x3c14c368	0.009079792
99	0x3dd3fa40	0.10350466
100	0x3d0b3a29	0.033991013
101	0x3e540f51	0.20708968
102	0xbb59fb61	-0.0033261406
103	0x3d787806	0.06066134
104	0x3de956c2	0.11393501
105	0x3d10cd96	0.035352312
106	0xbdc4385b	-0.095810615
107	0x3e4e4028	0.20141661
108	0x3c554610	0.0130171925
109	0xbbaf6b43	-0.0053533628
110	0x3c98393e	0.018581983
111	0x3cc822c8	0.024430647
112	0x3e1a89b6	0.15091595
113	0xbd5cf3fb	-0.053943615
114	0x3e0ee4e0	0.13954496
115	0x3d9f06a3	0.07764938
116	0x3db19f18	0.08672923
117	0x3e076c91	0.13225009
118	0x3d7343f8	0.059390992
119	0x3e1052ae	0.1409404
120	0x3da50f45	0.08059553
121	0x3d0ceee2	0.034407504
122	0xbc69e40a	-0.01427556
123	0xbc2772fc	-0.0102202855
124	0x3e0d05ad	0.13771696
125	0xbd35fc18	-0.04442987
126	0x3e02765e	0.12740466
127	0x3e1e40b0	0.15454364
128	0x3e353a20	0.17697954
129	0x3e508082	0.20361522
130	0x3e10b290	0.14130616
131	0x3bd76e56	0.0065744324
132	0x3be19942	0.006884725
133	0x3e4e294c	0.20132941
134	0x3db75095	0.08950917
135	0x3d5f2c18	0.05448541
136	0x3dcb4bfd	0.09926603
137	0x3e02a1f3	0.12757091
138	0x3d1f68dd	0.038918365
139	0x3d1cbe32	0.038267322
140	0x3e1234a3	0.14277892
141	0x3e2e9f28	0.17052901
142	0xbd99cded	-0.0750998
143	0x3e4fcc9b	0.20292895
144	0x3cec12ab	0.028817495
145	0x3d06f27a	0.032946087
146	0x3e20b6fd	0.15694804
147	0x3d0dc2e0	0.034609675
148	0x3d1ba62a	0.038000263
149	0x3e3bf5c0	0.18355465
150	0x3e3b9805	0.1831971
151	0x3e165fae	0.14684936
152	0xbd8815df	-0.066447966
153	0x3e26997b	0.16269486
154	0x3ce0ad8f	0.02742651
155	0x3e29c4bc	0.16578954
156	0x3d899134	0.067171484
157	0x3d55ce77	0.052198853
158	0x3db4c08b	0.08825787
159	0x3e3c2ab9	0.18375672
160	0x3e0ea54b	0.13930242
161	0x3c86e195	0.016464988
162	0x3e03171f	0.12801789
163	0x3cd89a16	0.026440661
164	0x3e5539ab	0.2082278
165	0x3b1127ed	0.0022149042
166	0x3d403ad8	0.046931118
167	0xbd1baa29	-0.038004074
168	0x3d9273dc	0.07151005
169	0x3d60299e	0.05472719
170	0x3e5e917f	0.2173519
171	0x3dd41988	0.10356432
172	0x3e4de07d	0.20105167
173	0x3e09b3f1	0.13447548
174	0xbd0f13f7	-0.03493115
175	0xbc3eebb3	-0.011652875
176	0x3d8089cd	0.062762834
177	0xbc91a8d1	-0.017780693
178	0x3cf26304	0.02958823
179	0x3dce3893	0.100693844
180	0x3e051e08	0.12999737
181	0x3dda65c6	0.10663943
182	0x3d451fa4	0.048125878
183	0x3e2e94b1	0.17048909
184	0x3e15a68a	0.14614311
185	0x3e5e31fa	0.21698752
186	0x3d4a782a	0.049431004
187	0x3e26067e	0.16213414
188	0x3dd2e59d	0.102977015
189	0x3d2f5bc6	0.04281213
190	0x3d947774	0.072493464
191	0x3db854f6	0.0900058
192	0x3cb46ec0	0.022025466
193	0x3d943987	0.07237535
194	0x3e24bf2e	0.16088554
195	0x3e559eee	0.20861408
196	0xbd90d9bb	-0.07072779
197	0x3e3c172c	0.18368214
198	0x3e080537	0.1328324
199	0xbd8ceb58	-0.06880826
200	0xbc618a8b	-0.013765941
201	0x3b5dddaf	0.0033854058
202	0x3de61f75	0.11236469
203	0xbd968a88	-0.073506415
204	0x3e134b10	0.14384103
205	0x3c01d0e7	0.007923341
206	0x3ca91db9	0.020644056
207	0xbca0fc0e	-0.019651439
208	0x3e1c563e	0.15267274
209	0x3dd210e8	0.10257131
210	0xbd26094b	-0.040536206
211	0xbd036aec	-0.03208439
212	0x3d44598d	0.047936965
213	0x3dcb5c73	0.09929743
214	0x3d80628e	0.06268798
215	0x3d0213ed	0.031757284
216	0x3db7ed2e	0.08980785
217	0xbd128462	-0.03577078
218	0xbd4739fe	-0.04863929
219	0xbd4b677a	-0.04965923
220	0x3bb103eb	0.0054020784
221	0xbce81de5	-0.028334567
222	0x3d864ee2	0.065580145
223	0x3e2feebb	0.17180912
224	0xbe0bb314	-0.13642532
225	0xbccfde23	-0.025374478
226	0xbe028a4b	-0.12748067
227	0xbe2ca3b0	-0.16859317
228	0xbc114030	-0.008865401
229	0xbd534bc5	-0.05158593
230	0x3e0ddb98	0.138533
231	0x3e4acf32	0.19805601
232	0xbe9a0e07	-0.30088827
233	0xbe41b19e	-0.18915412
234	0xbe40f0a7	-0.18841802
235	0xbe1d66ed	-0.15371294
236	0xbe8e8814	-0.27838194
237	0xbdf941c5	-0.12170748
238	0x3e3f4e0e	0.18682119
239	0xbdba7e76	-0.09106152
240	0x3d4178ca	0.047234334
241	0xbdf4e66c	-0.11958012
242	0x3cad76a6	0.02117474
243	0x3e2bebb4	0.16789132
244	0x3e39a02c	0.18127507
245	0xbd82b130	-0.06381452
246	0xbe397cf8	-0.18114078
247	0x3ba5d3c3	0.0050606444
248	0x3e749f82	0.23888972
249	0xbce3dc82	-0.027815107
250	0x3d84890a	0.064714506
251	0xbe119e7f	-0.14220618
252	0xbe16ab1a	-0.14713708
253	0x3e2d389a	0.16916123
254	0xbe71a3b4	-0.23597604
255	0x3d31809b	0.04333554

encoder.layers.2.bias f4 [32]
0	0x3dea6471	0.11444939
1	0x3e9aa066	0.302005
2	0xbe1381ed	-0.14405032
3	0xbe08d32c	-0.13361806
4	0xbe0d4c4f	-0.1379864
5	0xbe45e028	-0.1932379
6	0xbd80f88c	-0.062974066
7	0x3ec3153a	0.38102132
8	0xbd9543bf	-0.07288312
9	0xbe15faf7	-0.14646517
10	0x3e816143	0.25269517
11	0x3e24e615	0.16103394
12	0x3d3bbcb1	0.045834247
13	0xbd7b17f8	-0.061302155
14	0x3ec0ceb7	0.3765771
15	0xbcbfd44c	-0.02341666
16	0x3e1fde7a	0.15612212
17	0xbe048694	-0.12941962
18	0xbe191460	-0.14949179
19	0xbc8e39ca	-0.01736154
20	0x3c8f8b89	0.01752259
21	0xbd9a1dd6	-0.07525222
22	0xbd9c0dee	-0.076198444
23	0x3e215abf	0.15757273
24	0x3d4ff7b2	0.05077333
25	0xbe823892	-0.25433785
26	0x3e600c83	0.21879773
27	0xbdd36fda	-0.10324068
28	0xbd2f3b75	-0.042781312
29	0xbd9927a0	-0.07478261
30	0x3e85ccf9	0.26132944
31	0x3ea71c1b	0.3263863

encoder.layers.4.weight f4 [12, 32]
0	0x3e2b7bc6	0.16746435
1	0x3e439ea9	0.19103493
2	0xbe90e3fa	-0.28298932
3	0xbe67db1b	-0.22642176
4	0xbe4810d5	-0.19537671
5	0xbe1838c5	-0.14865406
6	0xbe68c355	-0.22730763
7	0x3e3151a7	0.17316304
8	0xbdfcfcf2	-0.12352933
9	0xbe57aa6d	-0.21061106
10	0x3ea83883	0.32855615
11	0xbd0c7baa	-0.034297623
12	0xbdb9a402	-0.09064485
13	0xbddacf89	-0.106841154
14	0x3e9821fb	0.29713425
15	0x3d89f3ed	0.06735978
16	0x3d971bfc	0.073783845
17	0xbe833f1f	-0.25634095
18	0x3d1e4c7e	0.038647167
19	0xbe65e0c9	-0.2244903
20	0xbe33881e	-0.17532393
21	0x3cbe6370	0.023240775
22	0x3d0a19bf	0.03371596
23	0x3d174f05	0.036940593
24	0xbe0e4e8a	-0.13897148
25	0xbe5c9660	-0.21541739
26	0x3e5980c0	0.2124052
27	0xbc205169	-0.009785035
28	0xbe4d80fc	-0.20068735
29	0xbe597c91	-0.21238925
30	0x3e69fb03	0.2284966
31	0x3ea96538	0.33085036
32	0xbe16d619	-0.1473011
33	0x3dc735f4	0.097270876
34	0x3d669e4e	0.056303315
35	0x3b50e8fe	0.0031877155
36	0xbe465110	-0.1936686
37	0xbd0cc6bf	-0.034369227
38	0xbdd5106d	-0.104035236
39	0x3e25e7c3	0.16201691
40	0xbe142a11	-0.14469172
41	0xbcb74a2f	-0.02237424
42	0x3e45eef1	0.1932943
43	0x3cd109db	0.025517395
44	0xbe3001b1	-0.17188145
45	0xbc2453f4	-0.010029782
46	0x3e15faee	0.14646503
47	0x3d9c0856	0.076187775
48	0x3d66f5a5	0.05638661
49	0xbe5a9fcb	-0.21350019
50	0xbe1d18f9	-0.15341558
51	0xbe201fff	-0.15637206
52	0x3e02aa9f	0.127604
53	0xbceaee23	-0.028678006
54	0xbe044257	-0.12915932
55	0x3d3447b7	0.044013705
56	0x3d06c224	0.03289999
57	0xbe2fce1b	-0.17168467
58	0xbe056df9	-0.13030232
59	0xbe03d525	-0.12874277
60	0xbcba53ce	-0.02274504
61	0x3d146a40	0.03623414
62	0x3df24727	0.118299775
63	0x3e049fe8	0.12951624
64	0xbe1f9c74	-0.15587026
65	0xbdb512d8	-0.08841485
66	0x3c8405d4	0.01611606
67	0x3d6d5118	0.057938665
68	0x3de06425	0.10956601
69	0xbb7cd960	-0.0038581714
70	0xbc93d169	-0.01804419
71	0xbe6080f4	-0.21924192
72	0x3dfae294	0.122502476
73	0x3dbdcd2c	0.09267649
74	0xbcf119fc	-0.029431336
75	0xbdb9523b	-0.09048887
76	0xbbc38951	-0.005967297
77	0x3d2ae8c7	0.0417259
78	0xbdc04c49	-0.0938955
79	0xbcfbb299	-0.03072481
80	0xbde999e5	-0.11406306
81	0x3b0a0aef	0.0021063646
82	0xbd77b1aa	-0.060472168
83	0xbe0d4e45	-0.13799389
84	0xbcf6eadc	-0.030141287
85	0x3d282427	0.041050103
86	0xbd1cb547	-0.038258817
87	0xbe138f78	-0.14410198
88	0xbd4900a3	-0.049072873
89	0x3cb0a395	0.021562377
90	0xbe36a4d3	-0.17836313
91	0x3cd60fad	0.026130522
92	0xbde303ef	-0.11084735
93	0x3a9d1447	0.0011984193
94	0xbe74b4fe	-0.23897168
95	0xbe1d9620	-0.153893
96	0x3d3ee20c	0.046602294
97	0x3dc30740	0.09522867
98	0xbc734812	-0.014848726
99	0xbd959e2f	-0.07305562
100	0xbe28bcdb	-0.16478293
101	0xbdc08cdc	-0.09401867
102	0xbdac239d	-0.0840523
103	0x3d877396	0.06613843
104	0xbdfd8862	-0.123795286
105	0xbddc018f	-0.10742485
106	0x3da78f6d	0.08181653
107	0xbdc60045	-0.0966802
108	0xbe070924	-0.1318708
109	0xbd76a786	-0.060218357
110	0xbbcbc520	-0.0062185675
111	0xbe2ab534	-0.16670686
112	0x3ceb8b40	0.028752923
113	0xbe25fc82	-0.16209605
114	0xbdeb16c5	-0.11478952
115	0x3cc0e051	0.023544462
116	0x3dbbcfc8	0.091704905
117	0xbdba59c3	-0.09099152
118	0x3d8d6cf2	0.06905545
119	0xbd8f16ca	-0.069867685
120	0xbdd86c3f	-0.10567521
121	0xbe34288e	-0.17593595
122	0xbe1463b8	-0.14491165
123	0x3d828a91	0.06374086
124	0xbe1d497d	-0.15360065
125	0xbe0f7cd3	-0.1401246
126	0xbdb78524	-0.089609414
127	0xbcb68675	-0.022280911
128	0xbe1b43c3	-0.15162568
129	0xbec765da	-0.38944894
130	0x3e997fdb	0.29980358
131	0xbcc79cdb	-0.024366787
132	0x3e10cad6	0.14139876
133	0x3e898093	0.26855907
134	0xbc80d832	-0.01572809
135	0xbeb07a62	-0.3446837
136	0xbcd6a961	-0.026203813
137	0x3e81e942	0.25373274
138	0xbe58be10	-0.21166253
139	0xbe2ef9d9	-0.17087497
140	0x3d8d1b44	0.06889966
141	0x3de819bf	0.11333036
142	0xbeac2c04	-0.3362733
143	0x3e417eb7	0.18895994
144	0xbe912e99	-0.28355864
145	0x3e6b7241	0.22992803
146	0x3e8b9c1d	0.27267542
147	0x3ddfa328	0.109197915
148	0x3e3acddc	0.18242592
149	0x3e46a320	0.19398165
150	0x3e3283d0	0.17433095
151	0xbe831b9e	-0.25607008
152	0xbc997354	-0.01873175
153	0x3e939109	0.2882159
154	0xbe472edb	-0.19451468
155	0x3deeb5c5	0.116557635
156	0x3e506b73	0.20353489
157	0x3deed561	0.116617925
158	0xbea8b298	-0.32948756
159	0xbea02b0a	-0.31282836
160	0x3e01da17	0.12680851
161	0x3e0b28b8	0.13589752
162	0xbd38761a	-0.045034505
163	0xbdc5140b	-0.096229635
164	0xbdc4321c	-0.0957987
165	0x3df8c1a1	0.12146307
166	0x3e038894	0.12845069
167	0x3bf24827	0.007393855
168	0xbd9ccef5	-0.076566614
169	0x3c5726e5	0.013131832
170	0x3e292296	0.165171
171	0x3de17191	0.11007989
172	0xbd9828fe	-0.07429694
173	0x3c044795	0.008073707
174	0x3e6db89b	0.23214953
175	0xba0d3346	-0.00053863635
176	0x3de3eee4	0.11129549
177	0xba081fc5	-0.00051927223
178	0x3de19696	0.1101505
179	0x3d8f8cfe	0.07009314
180	0xbd1586be	-0.036505453
181	0xbd02224b	-0.031770986
182	0x3dc46315	0.09589211
183	0x3d631334	0.055438235
184	0xbd45dc06	-0.048305534
185	0x3d928511	0.07154287
186	0x3d08e1e5	0.033418555
187	0x3d24e40c	0.040256545
188	0x3e08553e	0.13313767
189	0xbd3189a8	-0.04334417
190	0x3e7f3f80	0.24926567
191	0x3d7d4f1d	0.061843026
192	0xbc4a645c	-0.012353029
193	0xbd3f03ce	-0.046634488
194	0xbd9d9409	-0.07694251
195	0xbe48add8	-0.19597566
196	0xbbd97872	-0.0066366727
197	0x3d69049f	0.056889173
198	0xbcec8d91	-0.028876098
199	0xbd190406	-0.037357353
200	0xbdb4fd8b	-0.08837422
201	0x3da0ea0b	0.0785714
202	0x3d2ce8d5	0.042214233
203	0xbe59a52c	-0.21254414
204	0xbd8039e2	-0.0626104
205	0xbd2a0d19	-0.041516397
206	0xbdd35842	-0.10319568
207	0x3bcbdc12	0.006221303
208	0xbdcaff38	-0.0991196
209	0xbcd45c68	-0.025922969
210	0x3d80c102	0.06286813
211	0x3d27c16c	0.040955946
212	0x3cbebfc1	0.023284795
213	0x3cb78beb	0.022405585
214	0xbe0e9e46	-0.13927564
215	0xbe7421b6	-0.23840985
216	0xbe183e96	-0.14867625
217	0xbd81adcc	-0.06331977
218	0xbd3cdf09	-0.04611114
219	0x3d0985ea	0.033574976
220	0xbdd62ea6	-0.10458116
221	0xbda526c5	-0.08064035
222	0xbe27dd83	-0.16393094
223	0xbc8ce3c0	-0.017198443
224	0xbdede715	-0.11616341
225	0xbd9e73f6	-0.077369615
226	0xbd2fb811	-0.04290015
227	0xbdf2ff87	-0.11865144
228	0x3e01d042	0.126771
229	0xbc1058e4	-0.008810256
230	0xbb437aff	-0.002982795
231	0xbdb51b93	-0.0884315
232	0xbc670c23	-0.014102015
233	0x3da846af	0.08216607
234	0x3dca8f98	0.098906696
235	0xbdf8a54f	-0.12140905
236	0xbda42a59	-0.0801589
237	0xbcd8203f	-0.026382564
238	0xbd9e725c	-0.07736656
239	0xbe19e006	-0.15026864
240	0xbd0cf5b5	-0.034414012
241	0x3d481f1a	0.048857786
242	0x3e088e63	0.13335566
243	0x3d968e90	0.073514104
244	0x3d71bccf	0.059017953
245	0xbd4d6233	-0.05014248
246	0xbda5aeb4	-0.080899626
247	0x3db11d9e	0.08648227
248	0xbe038ee2	-0.12847474
249	0xbd7de910	-0.061989844
250	0x3cdbb5fb	0.026820173
251	0xbd9df6a7	-0.07713061
252	0x3e12fae1	0.14353515
253	0xbd55892d	-0.052132774
254	0xbdfeb0f6	-0.12436096
255	0x3d765957	0.060143795

encoder.layers.4.bias f4 [12]
0	0x3e54e0dd	0.20788904
1	0x3e2083e8	0.15675318
2	0x3c8e48b4	0.017368652
3	0xbddeb507	-0.10874372
4	0xbe91a78c	-0.2844814
5	0x3e171777	0.14755045
6	0xbd9aa199	-0.075503536
7	0xbdb91099	-0.09036369
8	0x3dd11ca8	0.10210544
9	0x3e546644	0.20742136
10	0xbe2b08b1	-0.16702534
11	0xbc524c99	-0.012835645

decoder.layers.0.weight f4 [32, 18]
0	0x3eb9dd05	0.36301437
1	0xbd863630	-0.06553304
2	0x3dc8680c	0.0978547
3	0xbe04a779	-0.12954511
4	0xbe28fdfa	-0.16503134
5	0x3c884bb7	0.016637666
6	0xbe4b4c94	-0.19853431
7	0xbcd718f7	-0.026257021
8	0xbe1a619a	-0.15076295
9	0xbce404d0	-0.027834326
10	0x3ebae954	0.3650614
11	0x3e49d550	0.19710279
12	0xbe93f48a	-0.28897506
13	0xbdcbc265	-0.09949187
14	0x3cc628e6	0.024189424
15	0xbd310b66	-0.04322376
16	0x3e383ea1	0.17992641
17	0xbd817100	-0.06320381
18	0x3cfb00b7	0.03063999
19	0xbe1d8f20	-0.15386629
20	0xbdba46d7	-0.09095543
21	0xbddc954f	-0.10770666
22	0x3db56044	0.08856252
23	0xbd1dbc6a	-0.038509764
24	0x3b72ab43	0.003702835
25	0x3e44949a	0.19197312
26	0x3e033b76	0.12815651
27	0xbe818876	-0.25299424
28	0x3d99dbcf	0.07512628
29	0x3cef4450	0.029207379
30	0x3e756ef1	0.23968102
31	0xbe212018	-0.15734899
32	0x3e0e027f	0.1386814
33	0xbe249185	-0.16071136
34	0x3c70a867	0.014688588
35	0xbe24051a	-0.16017571
36	0xbdc268de	-0.09492658
37	0xbe3deaec	-0.18546647
38	0x3c525b20	0.012839109
39	0x3de91801	0.113815315
40	0x3e3e0aa2	0.18558744
41	0x3e075ede	0.13219783
42	0xbdcaf0ba	-0.09909196
43	0xbc1a7ec3	-0.009429636
44	0xbe9d1b5a	-0.3068493
45	0xbe13ac5f	-0.14421223
46	0x3d018819	0.031623933
47	0xbe1c67db	-0.15273993
48	0xbd2879e6	-0.041131876
49	0xbd03a607	-0.032140758
50	0x3d8c9ae8	0.068654835
51	0xbe173f5a	-0.1477026
52	0xbe38d8fc	-0.18051523
53	0x3d9b3460	0.07578349
54	0xbd996927	-0.07490759
55	0xbd475825	-0.048668046
56	0x3de277e5	0.11058024
57	0x3d8de102	0.069276825
58	0x3de5886c	0.11207661
59	0x3d0345a5	0.03204884
60	0x3e3a9fa0	0.18224955
61	0x3dacfdca	0.08446844
62	0xbc9f121b	-0.019417813
63	0x3e156f61	0.14593269
64	0x3daba1d8	0.083804786
65	0xbde388a5	-0.11110047
66	0x3dec6723	0.11543109
67	0x3de9826b	0.114018284
68	0x3ba2a683	0.0049636974
69	0x3de56458	0.1120078
70	0x3d80f1ed	0.06296144
71	0x3e0f2e12	0.13982418
72	0xbd87052a	-0.06592782
73	0x3e2ac592	0.1667693
74	0xbcca84bf	-0.024721501
75	0x3e7902a9	0.24317421
76	0xbe825711	-0.2545705
77	0x3e282a6b	0.16422431
78	0xbc86c806	-0.0164528
79	0xbda5b280	-0.08090687
80	0x3d2900b6	0.041260444
81	0xbde7f5d5	-0.113261856
82	0xbea39653	-0.31950626
83	0xbe380a44	-0.17972666
84	0xbde01c2a	-0.10942872
85	0x3e3c68d8	0.1839937
86	0xbe6f9472	-0.23396471
87	0x3e59d4a4	0.21272522
88	0x3c7e2c14	0.015513439
89	0xbe1f2ed2	-0.15545204
90	0xbdcf4113	-0.10119834
91	0xbe68d9d1	-0.2273934
92	0x3dc507c6	0.09620623
93	0xbe24c568	-0.1609093
94	0xbd976c30	-0.07393682
95	0xbd8a412b	-0.06750711
96	0x3e64aa06	0.22330484
97	0x3d904f27	0.07046347
98	0xbd1d6dc5	-0.038434763
99	0xbe90b74c	-0.28264844
100	0x3d987378	0.07443899
101	0x3de8ddfb	0.113704644
102	0xbd1525a5	-0.036412854
103	0xbe25940f	-0.16169761
104	0xbc65a084	-0.014015321
105	0xbe0871a7	-0.13324605
106	0xbe252a71	-0.16129471
107	0xbb3fad93	-0.0029247745
108	0x3d7c66f1	0.06162161
109	0xbe020b0f	-0.12699531
110	0xbe23c640	-0.15993595
111	0x3dac2bca	0.084067896
112	0xbdcf0e73	-0.10110178
113	0xbdbeb005	-0.09310917
114	0xbd18db35	-0.037318427
115	0xbe0943bb	-0.13404743
116	0xbdad2479	-0.08454222
117	0x3d4c5751	0.04988796
118	0x3d42f51e	0.047597043
119	0xbe1594e1	-0.14607574
120	0xbd2a7507	-0.041615512
121	0xbdb92f88	-0.09042269
122	0x3dda8710	0.106702924
123	0xbe888c4d	-0.2666954
124	0x3cf05a1a	0.029339839
125	0x3e4b2720	0.19839144
126	0x3e5ac346	0.21363553
127	0x3d7d3116	0.06181439
128	0x3e27cba5	0.16386278
129	0x3e369352	0.17829636
130	0xbd9f23a3	-0.07770469
131	0x3d3e7028	0.04649368
132	0x3e4e9092	0.20172337
133	0x3e440deb	0.19145934
134	0x3c6d46ff	0.014482259
135	0x3df39f26	0.118955895
136	0x3e19c93b	0.1501817
137	0xbd2d2fa2	-0.042281754
138	0xbc85e68e	-0.016345289
139	0xbe2b50db	-0.16730063
140	0x3dcfdad2	0.101491585
141	0xbdba1798	-0.090865314
142	0xbe295214	-0.16535217
143	0x3e5c21f3	0.21497326
144	0xbe4b57d6	-0.19857726
145	0xbe338780	-0.17532158
146	0x3da0e401	0.07855988
147	0x3c6da816	0.014505407
148	0x3e4a74ff	0.19771193
149	0xbd3214e7	-0.043476965
150	0x3ba5df42	0.005062015
151	0xbdc0d070	-0.09414756
152	0xbd802855	-0.06257693
153	0xbea7d7cc	-0.32781827
154	0x3df646f8	0.12025255
155	0x3bc05f0c	0.0058707055
156	0x3d6bb6f2	0.057547517
157	0x3e5bf5b2	0.21480444
158	0xbe35a11a	-0.17737237
159	0xbe0681c7	-0.13135444
160	0x3e138705	0.14406975
161	0x3e2a5683	0.16634564
162	0xbe3d8dd3	-0.18511133
163	0x3d07e306	0.03317549
164	0x3e5f197c	0.21787065
165	0xbe89e3d0	-0.2693162
166	0x3e7cb99e	0.24680182
167	0xbe20ea89	-0.15714468
168	0xbdc5a1fb	-0.09650036
169	0xbd9dc4ba	-0.07703538
170	0x3e8ddb57	0.27706406
171	0xbb83eacc	-0.0040257927
172	0xbe1b08a8	-0.15140021
173	0xbe60e9ff	-0.21964262
174	0xbe4a8927	-0.19778882
175	0x3e8cbf9b	0.27489933
176	0x3ea71bd9	0.32638434
177	0x3e968fcf	0.29406592
178	0x3e78c5ed	0.24294253
179	0x3d8f7355	0.0700442
180	0x3d87611a	0.066103175
181	0x3d120f32	0.035659023
182	0x3e60baaa	0.21946207
183	0xbe5e92f6	-0.21735749
184	0xbeb89320	-0.36049747
185	0x3e32d333	0.17463379
186	0xbd095be4	-0.0335349
187	0x3e811bc9	0.2521651
188	0x3c7af205	0.015316491
189	0x3dd642e9	0.10461981
190	0x3de55337	0.111975126
191	0x3e05df3f	0.13073443
192	0x3e9477fd	0.28997794
193	0x3e81630e	0.25270885
194	0x3e77d941	0.2420397
195	0xbcbeb4e5	-0.023279617
196	0x3e4e63ea	0.20155302
197	0x3e755bc0	0.23960781
198	0x3db5b2b1	0.08871973
199	0x3e1dd745	0.1541415
200	0xbe89c436	-0.2690751
201	0xbe510fbc	-0.20416158
202	0xbe2d04e9	-0.16896404
203	0xbe3a1fc3	-0.18176179
204	0xbe76afd5	-0.24090512
205	0x3e1d04b9	0.15333833
206	0xbdb53119	-0.08847255
207	0xbcae9b44	-0.02131427
208	0x3e5e0bdb	0.2168421
209	0xbe4a110d	-0.19733067
210	0x3d767701	0.060172085
211	0x3dd05491	0.1017238
212	0xbe53b7a9	-0.2067553
213	0x3e00b345	0.12568386
214	0xbcf8535a	-0.030313183
215	0x3e08e171	0.13367249
216	0xbe38aaa2	-0.18033841
217	0xbd8cd867	-0.06877213
218	0xbdcbf8c6	-0.09959559
219	0xbe170e2a	-0.14751497
220	0x3de2a794	0.11067119
221	0xbcabe0eb	-0.020981273
222	0xbdae8e9a	-0.08523293
223	0x3e082cb0	0.13298297
224	0xbe512eef	-0.2042806
225	0x3e794263	0.24341731
226	0xbd684f75	-0.0567164
227	0x3e33861a	0.17531624
228	0xbd98d642	-0.074627414
229	0xbdebae0f	-0.115078084
230	0xbd75e56b	-0.060033243
231	0xbc776c8c	-0.015101563
232	0xbe2a7399	-0.1664566
233	0x3ce1bbd0	0.027555376
234	0x3e9247de	0.28570455
235	0xbd1f862d	-0.03894632
236	0xbe3a0744	-0.18166834
237	0x3d6f9852	0.058494873
238	0xbe837a48	-0.2567923
239	0xbe280c1b	-0.16410868
240	0x3e9df964	0.30854332
241	0xbe4d70a4	-0.200625
242	0x3d32f032	0.0436861
243	0xbddd0efd	-0.107938744
244	0xbe6d4b93	-0.2317336
245	0x3e265511	0.16243388
246	0xbd35cec5	-0.044386644
247	0x3d8e3c70	0.06945121
248	0xbd178090	-0.03698784
249	0x3e286c96	0.16447672
250	0xbdcdb7bf	-0.100448124
251	0x3e59662e	0.21230385
252	0x3e57ecb4	0.21086389
253	0xbd07214c	-0.03299074
254	0x3e4246ae	0.18972275
255	0xbdd1630f	-0.10223972

decoder.layers.0.bias f4 [32]
0	0x3e2fb29b	0.17157976
1	0x3e65b2e1	0.22431518
2	0xbd1f03af	-0.038821872
3	0xbe0bb8a8	-0.1364466
4	0x3e8ee098	0.27905726
5	0xbe37023a	-0.17871943
6	0x3db94913	0.09047141
7	0xbdd695b7	-0.104777746
8	0xbd387102	-0.045029648
9	0xbdd7ee05	-0.105434455
10	0x3de8d894	0.11369434
11	0x3df05d4e	0.117365465
12	0x3dbcaff3	0.09213247
13	0x3eb53943	0.3539525
14	0x3e7a1118	0.24420583
15	0xbdebd111	-0.115144856
16	0xbd632932	-0.05545921
17	0x3dad0efa	0.08450122
18	0xbe8879e1	-0.26655486
19	0x3e4c28d6	0.19937453
20	0x3e1516f3	0.14559536
21	0xbd2a0712	-0.04151065
22	0x3e5be758	0.2147497
23	0xbdf0675d	-0.11738465
24	0x3e960c40	0.2930622
25	0x3e8c56e7	0.2741005
26	0x3e935ee9	0.28783348
27	0x3e47b096	0.19500956
28	0x3e466422	0.19374135
29	0xbcfe97e8	-0.031078294
30	0xbe2eee42	-0.17083076
31	0x3d54f08a	0.05198721

decoder.layers.2.weight f4 [32, 32]
0	0x3e6f7836	0.233857
1	0x3d92d51c	0.07169554
2	0x3dd91652	0.105999604
3	0xbdf2cab1	-0.118550666
4	0x3dfb710d	0.12277422
5	0x3d21c79c	0.039497003
6	0x3c9f3803	0.019435888
7	0x3df181be	0.117923245
8	0xbe4ca034	-0.19982988
9	0xbcbeb8f5	-0.023281554
10	0x3dd2eca4	0.10299042
11	0x3df35dc9	0.118831225
12	0xbe03f457	-0.12886177
13	0x3df39365	0.11893348
14	0x3e113558	0.14180505
15	0xbc570ab4	-0.01312511
16	0xbc40305a	-0.011730278
17	0xbda52b25	-0.0806487
18	0xbe26761b	-0.16255991
19	0x3e107325	0.14106424
20	0x3dac8e68	0.08425599
21	0x3c8d5fa6	0.017257523
22	0x3e2103e2	0.15724137
23	0x3d641db3	0.055692386
24	0x3e378c04	0.17924505
25	0xbdcd038c	-0.10010442
26	0x3d70066b	0.05859987
27	0x3dfc2a59	0.12312765
28	0x3e3f7168	0.18695605
29	0x3d98f902	0.074693695
30	0xbd56485e	-0.05231511
31	0x3d9a6c8e	0.075402364
32	0x3e142b92	0.14469746
33	0xbda5ee84	-0.08102134
34	0xbabade10	-0.0014256854
35	0xbdc2982c	-0.09501681
36	0x3dd725a6	0.10505228
37	0xbcb304ee	-0.021852937
38	0x3de21006	0.110382125
39	0x3dba1af0	0.09087169
40	0xbc378739	-0.011201673
41	0xbdd19b33	-0.1023468
42	0xbc70a2a4	-0.014687214
43	0x3dd40217	0.10351961
44	0xbe4c7ce4	-0.19969517
45	0x3e8b52e8	0.2721169
46	0x3ea23916	0.31684178
47	0xbe159cc5	-0.14610584
48	0x3c01bc8f	0.007918491
49	0xbda107b2	-0.07862796
50	0x3d67acbc	0.056561217
51	0x3e03b835	0.12863238
52	0x3df7af1d	0.12093947
53	0xbdc4b55d	-0.09604905
54	0x3dd458db	0.1036851
55	0xbcc63e06	-0.024199497
56	0x3ead3de1	0.33836272
57	0x3df0d089	0.11758525
58	0x3e03cfcb	0.12872235
59	0x3da5a54f	0.08088171
60	0x3df401d3	0.119144104
61	0x3e0190d5	0.12652905
62	0xbe2c8adb	-0.16849844
63	0x3d6e456b	0.05817167
64	0x3e2e8d34	0.17046052
65	0x3e49ce5d	0.19707628
66	0xbd9eb326	-0.077490136
67	0xbdc6b080	-0.097016335
68	0x3e540c6f	0.20707868
69	0xbdebcda7	-0.115138344
70	0x3d14d2ea	0.036333956
71	0x3d9667b6	0.07344
72	0x3c0aecd2	0.008479314
73	0x3e457645	0.19283397
74	0x3e8bf738	0.2733705
75	0x3e8e5a2d	0.27803174
76	0xbdc56303	-0.096380256
77	0x3e844011	0.2583013
78	0x3df3b7a6	0.119002625
79	0xbe1899de	-0.14902446
80	0x3e1157c8	0.14193642
81	0x3e616800	0.22012329
82	0xbdede831	-0.116165526
83	0x3d6459ac	0.05574958
84	0x3d183ad5	0.03716548
85	0x3e4fec45	0.20304973
86	0x3e8a2dcf	0.26988074
87	0xbcd744bf	-0.026277898
88	0x3dd95072	0.10611047
89	0xbd99c3ff	-0.075080864
90	0x3e9110e2	0.28333193
91	0x3bbc088c	0.0057383236
92	0x3e18d0db	0.14923422
93	0x3d49c2f6	0.049258195
94	0xbdcf87ce	-0.101333246
95	0xbd392069	-0.045196924
96	0x3d7d0fe3	0.06178273
97	0xbe2a9886	-0.16659746
98	0xbe1d81dd	-0.1538157
99	0x3e1be794	0.15225059
100	0x3e1c8ee3	0.15288882
101	0x3d8ce90d	0.068803884
102	0xbd293281	-0.04130793
103	0x3db99137	0.09060901
104	0x3db0500e	0.08609019
105	0x3ddbf893	0.10740771
106	0x3e01cd64	0.12676007
107	0x3ca1a9dd	0.019734317
108	0xba5cb730	-0.0008419631
109	0x3da35686	0.079754874
110	0x3cdbdd5a	0.026838947
111	0xbdaae2fb	-0.08344074
112	0xbd4643d5	-0.048404533
113	0x3e4a6754	0.19765979
114	0xbd7d517a	-0.06184528
115	0xbdfd284c	-0.12361202
116	0x3dceffc0	0.10107374
117	0xbdf3a2dc	-0.11896297
118	0x3df558a1	0.11979795
119	0x3d790389	0.060794387
120	0x3e5a4b25	0.21317728
121	0x3e309d6d	0.17247553
122	0x3ddbd602	0.10734178
123	0x3e53cfa5	0.20684679
124	0xbdd0a132	-0.101869956
125	0x3d2a477a	0.04157207
126	0x3e031582	0.12801173
127	0xbcb90ed0	-0.022590071
128	0x3ddd4e9b	0.108060084
129	0xbd8a3962	-0.06749226
130	0x3e171354	0.14753467
131	0xbd80a4e6	-0.06281452
132	0xbdd09c26	-0.10186033
133	0xbc6c7567	-0.014432288
134	0x3c658536	0.014008811
135	0x3cea9cf6	0.028639298
136	0x3db1182b	0.08647188
137	0xbc1b99d4	-0.009497125
138	0x3e255381	0.16145135
139	0x3e1f43a7	0.15553151
140	0x3dae3a0f	0.085071675
141	0x3e15bd67	0.14623033
142	0x3b95fa53	0.00457696
143	0x3db87218	0.09006137
144	0xbe0604b5	-0.13087733
145	0x3ca74e97	0.020423217
146	0x3d247bd4	0.040157154
147	0x3ad9e32f	0.0016623492
148	0xbd110ec2	-0.035414465
149	0x3e02ca2a	0.12772432
150	0xbd70922f	-0.05873316
151	0xbd50b4d5	-0.050953705
152	0x3e02085e	0.12698504
153	0x3e4a1008	0.19732678
154	0x3e53f4fa	0.2069892
155	0x3e63950b	0.22224824
156	0xbe69fbaf	-0.22849916
157	0x3dfc06e7	0.12306004
158	0x3dafbbde	0.08580755
159	0xbe03006f	-0.12793134
160	0x3e857dca	0.26072532
161	0x3e0c5910	0.1370585
162	0x3da488aa	0.08033879
163	0x3cbd9568	0.023142532
164	0x3e5c9870	0.21542525
165	0xbd6543de	-0.055972926
166	0xbd0e90fb	-0.034806233
167	0x3d40029a	0.04687748
168	0xbdf555dd	-0.11979268
169	0xbc988b7a	-0.018621195
170	0x3d82fe29	0.063961335
171	0x3db9f76e	0.090803966
172	0x3d6a8700	0.057257652
173	0x3da18798	0.078871906
174	0x3e71d87f	0.23617743
175	0xbe158c89	-0.14604391
176	0x3cff3dde	0.03115743
177	0xbd350fd0	-0.044204533
178	0xbd35cd5b	-0.044385295
179	0xbd0003e7	-0.03125372
180	0x3e21b3e9	0.15791287
181	0x3e1d26cb	0.1534683
182	0x3dd41cf3	0.10357084
183	0x3dd2fe54	0.103024155
184	0x3dcc69fb	0.09981152
185	0x3dab5217	0.08365267
186	0x3e2001b1	0.15625645
187	0x3b97c009	0.0046310467
188	0x3c7d2fff	0.015453338
189	0xbd3d4dc8	-0.046216756
190	0x3db80b1a	0.089864925
191	0x3d2a63c7	0.04159906
192	0x3dc7dd6d	0.097590305
193	0x3d753248	0.059862405
194	0xbd130d02	-0.035901077
195	0x3e1c5684	0.15267378
196	0xbb0beb38	-0.0021349918
197	0x3e02b26d	0.12763377
198	0xbd2a5e3d	-0.04159378
199	0xbd4109fa	-0.047128655
200	0xbc59b079	-0.013286703
201	0x3e0ef669	0.13961186
202	0x3c882dc1	0.01662338
203	0x3e1d810b	0.15381257
204	0x3e6a8811	0.22903468
205	0xbe2398f5	-0.15976317
206	0x3ce60c6b	0.028082093
207	0x3e42b413	0.19014005
208	0x3dc69e54	0.096981674
209	0x3e04006a	0.12890783
210	0x3e207750	0.15670514
211	0x3b8d2149	0.0043069464
212	0x3e3d9072	0.18512133
213	0xbc13c36c	-0.00901876
214	0x3dcc45db	0.099742614
215	0x3e1e229d	0.15442891
216	0xbe1eae8b	-0.1549627
217	0x3e371217	0.17877994
218	0xbdf7770a	-0.12083252
219	0x3dbddc7d	0.092705704
220	0xbd328c61	-0.043590907
221	0xbdf75cbd	-0.12078235
222	0x3da564a0	0.08075833
223	0x3e571482	0.21003917
224	0x3cccb1d4	0.024987139
225	0x3df9e96e	0.12202726
226	0xbde4f913	-0.1118032
227	0x3db1cd90	0.08681786
228	0xbe02211c	-0.12707943
229	0xbd23f6e4	-0.040030375
230	0x3dfa456e	0.12220274
231	0xbc92d497	-0.017923636
232	0x3bfd3218	0.007726919
233	0x3e200c37	0.1562966
234	0xbce5ab97	-0.028035922
235	0x3d3fd3c2	0.046832807
236	0xbdb2681c	-0.087112635
237	0x3d6fc92f	0.058541473
238	0x3b9f0e20	0.0048539788
239	0x3d4b6012	0.049652167
240	0xbd564a4c	-0.05231695
241	0x3e218c9e	0.15776297
242	0x3dda1fb5	0.10650579
243	0x3debf290	0.115208745
244	0xbd9b25db	-0.0757558
245	0xbd03a2b4	-0.032137588
246	0xbdace987	-0.08442979
247	0x3cf589cf	0.029972939
248	0x3dd8bed5	0.10583273
249	0x3e6618b3	0.2247036
250	0xbcc8412f	-0.024445144
251	0x3dcdceeb	0.10049232
252	0xbe1376e8	-0.14400828
253	0x3deade04	0.11468127
254	0xbde5f949	-0.11229188
255	0xbdd49920	-0.10380769

decoder.layers.2.bias f4 [32]
0	0x3eac1936	0.33612984
1	0x3e78cea3	0.24297576
2	0x3e080476	0.13282952
3	0xbd18a85f	-0.037269946
4	0xbde14fe9	-0.1100157
5	0x3e5ca799	0.21548308
6	0x3c645c97	0.013938091
7	0xbc9474fa	-0.018122185
8	0x3b817005	0.0039501213
9	0x3d6f6069	0.058441553
10	0x3e6c202b	0.23059146
11	0x3e93789f	0.28802964
12	0x3e91f37b	0.28506073
13	0x3df68091	0.12036241
14	0xbd7c6525	-0.061619896
15	0xbce15224	-0.027504988
16	0xbd8efd26	-0.06981878
17	0x3d9e0f45	0.07717756
18	0xbdc86ca5	-0.09786347
19	0x3e51ffbc	0.20507711
20	0x3deccd37	0.11562579
21	0x3d1be790	0.038062632
22	0x3e8b2ce6	0.27182692
23	0x3c5b110e	0.013370765
24	0x3dd2f040	0.1029973
25	0x3d0dfc8e	0.034664683
26	0xbe14756c	-0.14497918
27	0xbe129f30	-0.14318538
28	0xbdd52e11	-0.10409177
29	0x3e828dad	0.25498715
30	0xbdc387de	-0.09547399
31	0xbdbd44aa	-0.09241612

decoder.layers.4.weight f4 [24, 32]
0	0xbbfafb3e	-0.007659345
1	0x3e07d893	0.1326621
2	0x3d317e34	0.043333247
3	0xbe1576fb	-0.14596169
4	0x3dd9cb08	0.10634428
5	0x3d03b88a	0.032158412
6	0xbd8c717c	-0.06857583
7	0x3bb5b1eb	0.005544891
8	0x3d3b5f3b	0.045745116
9	0xbd51afa4	-0.051192895
10	0x3da9f22b	0.08298143
11	0xbc8eb1b8	-0.017418727
12	0xbd47e76b	-0.04880468
13	0x3d8a5993	0.06755366
14	0xbcce0fca	-0.025154013
15	0x3e012402	0.12611392
16	0xb9b73936	-0.00034947105
17	0x3d4e7766	0.050406836
18	0x3cd8e71b	0.026477387
19	0xbdca28ee	-0.09871088
20	0xbd93215c	-0.07184097
21	0x3d24516e	0.04011672
22	0x3d34b68a	0.044119395
23	0xbd0dd49a	-0.03462658
24	0x3db30d3d	0.087427594
25	0x3da48ed5	0.080350555
26	0xbc460bfa	-0.012087816
27	0xbdb56e4a	-0.088589266
28	0x3cb477c4	0.022029765
29	0xbd008bf6	-0.031383477
30	0xbd2e6016	-0.042572103
31	0xbdb6ec3f	-0.08931779
32	0xbb322db4	-0.0027187886
33	0xbd780536	-0.060551845
34	0x3da56191	0.0807525
35	0x3dde8144	0.10864499
36	0xbdd71cb4	-0.105035216
37	0x3d09de4e	0.033659272
38	0xbdc0ef49	-0.0942064
39	0x3dda187f	0.106492035
40	0x3d2d9e91	0.04238755
41	0x3b26c13a	0.0025444762
42	0xbe0da696	-0.13833079
43	0xbd5488bf	-0.051888224
44	0x3db9f6e8	0.09080297
45	0xbd453d7f	-0.04815435
46	0x3c1b4e05	0.0094790505
47	0xbc0f0423	-0.008729014
48	0x3e0d0994	0.13773185
49	0xbdb4c9f7	-0.08827584
50	0x3ba71e5d	0.005100055
51	0x3df8f468	0.12155992
52	0x3cbc24b1	0.022966715
53	0xbc01ae35	-0.007915069
54	0x3df1435b	0.11780425
55	0xbdfeac15	-0.12435166
56	0x3a3c3452	0.0007179427
57	0x3c604214	0.013687629
58	0x3c467294	0.0121122785
59	0xbd7c45fd	-0.061590184
60	0x3d08226c	0.033235952
61	0xbda0873a	-0.078382924
62	0xbdcfebce	-0.10152398
63	0x3da9a52c	0.08283457
64	0x3e247690	0.16060853
65	0xbcc08b6e	-0.023503985
66	0xba35c620	-0.0006934125
67	0xbde84b53	-0.11342492
68	0x3d842c02	0.06453706
69	0x3dc0e821	0.09419275
70	0xbdff8d08	-0.124780715
71	0x3cee36ef	0.029078929
72	0xbd69b2ff	-0.05705547
73	0x3d5c9d4f	0.05386096
74	0xbe16eb0f	-0.14738105
75	0xbde4bf7a	-0.11169334
76	0x3d9f1466	0.077675626
77	0xbdc4a8c3	-0.09602501
78	0x3d4507fe	0.048103325
79	0xbd8e1ac7	-0.06938701
80	0x3d4a9121	0.049454812
81	0x3d092549	0.033482824
82	0x3d9e7d7c	0.07738778
83	0x3dfde811	0.12397779
84	0x3d8a8c03	0.06764986
85	0xbd8dd469	-0.0692528
86	0xbe269b4f	-0.16270183
87	0x3de7a9ea	0.113117054
88	0x3d691a3a	0.056909777
89	0xbe148a41	-0.14505865
90	0x3d0ae741	0.033911947
91	0x3cf4a06b	0.02986165
92	0x3d3e7405	0.046497364
93	0xbde2bbb5	-0.110709585
94	0xbc2404b9	-0.010010892
95	0xbda4a7b9	-0.08039803
96	0x3d673884	0.056450382
97	0xbd44b835	-0.048027236
98	0xbdba415d	-0.09094498
99	0xbd9defc1	-0.07711745
100	0xbbc0160e	-0.005862004
101	0xbca01e32	-0.019545648
102	0xbdbb5b3e	-0.091482624
103	0xbd2c9598	-0.04213485
104	0xbc40bdd8	-0.011764012
105	0xbe01a267	-0.12659608
106	0x3dee25f8	0.11628336
107	0x3dc67ef3	0.096921824
108	0xbd4d1bed	-0.05007546
109	0xbddb65a6	-0.10712747
110	0x3e0b6322	0.13612035
111	0x3d70fb37	0.058833327
112	0xbd5347bc	-0.051582083
113	0x3d3a7ec5	0.045531053
114	0x3d4f03bc	0.05054067
115	0xbdc7cbfb	-0.09755703
116	0x3d655377	0.0559878
117	0x3c3a2b4a	0.01136286
118	0x3da6de02	0.081478134
119	0x3d28a889	0.041176353
120	0xbd947979	-0.072497316
121	0xbd8a7d19	-0.06762142
122	0xbbabf0a1	-0.005247191
123	0xbd081121	-0.03321946
124	0xbd3287cf	-0.04358655
125	0xbdccbeec	-0.09997353
126	0x3d56a545	0.052403707
127	0x3d9a7dcb	0.07543524
128	0x3d0a5fbd	0.03378271
129	0x3db7267c	0.08942887
130	0x3df0fb07	0.1176663
131	0xbdbc6324	-0.09198597
132	0x3dd4b500	0.103860855
133	0xbd747b30	-0.059687793
134	0xb962694a	-0.00021592263
135	0x3dc8e172	0.09808625
136	0x3da9357a	0.08262153
137	0xbcf63dfd	-0.030058855
138	0xbc803d6d	-0.01565429
139	0x3de82e12	0.11336912
140	0xbdcc4edc	-0.09975979
141	0xbde53bd5	-0.11193053
142	0xbca73a7f	-0.020413635
143	0x3da141d9	0.078738876
144	0x3dd74e22	0.105129495
145	0xbd2eabfb	-0.042644482
146	0xbd9e681c	-0.07734701
147	0xbda53bda	-0.080680564
148	0xbdbbf539	-0.09177632
149	0xbc93c843	-0.018039828
150	0xbe0c7343	-0.13715844
151	0xbca84c49	-0.020544188
152	0x3d9b6956	0.075884506
153	0xbd92fc8a	-0.07177074
154	0x3c89e99c	0.016835026
155	0xbe04950d	-0.12947483
156	0x3d458389	0.048221145
157	0x3b0bf494	0.0021355497
158	0x3c3e36ac	0.0116097145
159	0x3ab8ef44	0.0014109393
160	0x3e13f4a7	0.14448796
161	0x3ce9b02a	0.028526384
162	0xbcc36b40	-0.023854852
163	0x3db00cb1	0.08596171
164	0xbdb2c43b	-0.08728834
165	0xbc7fc720	-0.01561144
166	0x3dbf6d23	0.09346988
167	0x3da2b056	0.0794379
168	0x3d383d2b	0.04498021
169	0x3d6ac56f	0.057317194
170	0x3ca5fde6	0.02026267
171	0xbde44330	-0.111456275
172	0xbdca2bdf	-0.09871649
173	0x3dbf7895	0.09349171
174	0xbc63fd10	-0.013915315
175	0x3d4e3d2a	0.0503513
176	0xbd134023	-0.035949837
177	0x3d64975f	0.05580842
178	0xbcc71d86	-0.02430607
179	0xbb92a887	-0.0044756564
180	0x3c974cb8	0.0184692
181	0xbc987171	-0.01860878
182	0x3d74675f	0.059668895
183	0xbdcb9706	-0.09940915
184	0xbd10aa85	-0.03531887
185	0x3d7d38d1	0.061821762
186	0x3db0ce47	0.08633094
187	0xbdada826	-0.084793374
188	0xbc573c4a	-0.013136933
189	0x3c87eeae	0.016593304
190	0x3bffefd5	0.0078105726
191	0x3dba2096	0.090882465
192	0xbdab511e	-0.08365081
193	0x3dcf1e19	0.101131625
194	0x3db2b6c6	0.087262675
195	0x3cf93245	0.030419478
196	0xbca1de34	-0.019759275
197	0xbe0e321d	-0.13886304
198	0xbc1eba7b	-0.009688015
199	0x3e142c2c	0.14469975
200	0x3cae1c5e	0.02125376
201	0x3d6d12ab	0.05787913
202	0xbc4add2b	-0.012381832
203	0xbe1058ba	-0.14096346
204	0x3e22bff6	0.1589354
205	0xbd5ae98e	-0.05344539
206	0xbdba6dad	-0.0910295
207	0x3daa3ecf	0.08312761
208	0xbc7eed10	-0.01555945
209	0x3d67eb16	0.05662068
210	0xbbf372a4	-0.0074294377
211	0x3ddd2c3b	0.10799452
212	0xbc7d3808	-0.015455253
213	0xbd1e247a	-0.038609006
214	0x3d907974	0.07054415
215	0x3dfbe441	0.12299395
216	0x3ca41309	0.020028608
217	0x3dbd0733	0.09229889
218	0x3da079c5	0.07835726
219	0xbde4ef5d	-0.111784674
220	0x3d907631	0.07053793
221	0xbd06b7e0	-0.0328902
222	0xbe4e741b	-0.20161478
223	0xbdc7f098	-0.097626865
224	0xbdac09db	-0.08400317
225	0x3def8c34	0.116966635
226	0x3c7ace98	0.015308045
227	0xbd6b6a86	-0.057474636
228	0xbcd7a470	-0.026323527
229	0xbd0bb265	-0.034105677
230	0x3d0ab2d9	0.03386197
231	0x3cf0f5b9	0.029414045
232	0x3dbd4904	0.09242442
233	0x3dc82046	0.09771781
234	0xbd8c8ef7	-0.06863206
235	0xbdc592ec	-0.09647164
236	0xbd8b164b	-0.067913614
237	0xbd6ae2ee	-0.057345323
238	0x3a6e3fab	0.0009088467
239	0x3cc2ed4e	0.023794796
240	0x3d478739	0.048712943
241	0xbe1773ce	-0.1479027
242	0xbe320ed8	-0.17388475
243	0xbb708432	-0.0036699888
244	0x3d925566	0.07145195
245	0xbd21a480	-0.03946352
246	0xbd993310	-0.074804425
247	0x3dab84a2	0.08374907
248	0xbddcc561	-0.107798345
249	0xbe2280be	-0.15869424
250	0x3db9a5d1	0.0906483
251	0x3caa5b45	0.020795474
252	0xbca6ec05	-0.020376215
253	0x3e08f7fe	0.13375852
254	0x3dbc1a26	0.09184675
255	0xbd11deab	-0.035612743

decoder.layers.4.bias f4 [24]
0	0xbd4b5836	-0.04964467
1	0x3c02d3fb	0.00798511
2	0x3e0b77ec	0.13619965
3	0x3dcb3a0d	0.09923182
4	0x3b44620b	0.0029965665
5	0xbd41b024	-0.04728712
6	0xbd94cafa	-0.07265277
7	0x3e08ffb6	0.13378796
8	0x3e2fbcce	0.17161867
9	0x3dbfaa5a	0.09358664
10	0x3da2bd22	0.079462305
11	0xbc749f47	-0.014930553
12	0x3d01e3da	0.031711437
13	0x3de28ab0	0.11061609
14	0xbd319d65	-0.043362994
15	0xbdcf3702	-0.10117914
16	0xbde53833	-0.1119236
17	0xbd801999	-0.06254882
18	0xbd418a02	-0.047250755
19	0xbe68f7f5	-0.22750838
20	0x3d8abc05	0.06774143
21	0xbdc876d4	-0.0978829
22	0xbda6a062	-0.08136059
23	0x3d266d80	0.04063177
