m4_ws/src/morphing_lander/learned_models/2024-05-21_16-56-45/model_130.pth (torch, 33928 bytes, 22 tensors)

cond_normalizer.mean f4 [12]
00000000: 19d0 efbe b23c 0ebc fe72 e9b9 5476 733a
00000010: 2e18 ec3c b3c6 0b3c 3784 d4bb ed51 0c3f
00000020: 7bb5 0f3f 0c7a 0c3f 936b 0f3f 991a 1b42
-0.46838453 -0.008681463 -0.000445269 0.00092873466 0.028820124 0.00853126 -0.006485488 0.5481251
0.5613629 0.5487373 0.5602352 38.775974

cond_normalizer.variance f4 [12]
00000000: 49f9 023e 6f71 ac3a f51a ac3a d60a ab3a
00000010: a3e5 923d 69c9 663d da5f e03d 1dbe ba3c
00000020: 41ce be3c ff09 bb3c 716c c13c 6068 9043
0.12790407 0.0013156364 0.0013130592 0.0013049494 0.07172706 0.056344423 0.10955782 0.022795731
0.023291709 0.022831915 0.02361128 288.81543

output_normalizer.mean f4 [12]
00000000: bec7 4cbb 6dd3 e6ba 6f8f 683c 9af2 4738
00000010: a091 253b 26cf 483a bec5 413c 5b76 9a3a
00000020: cd74 2a40 9f82 9d3d 44d2 e63e a18c 92b9
-0.0031246985 -0.0017610617 0.0141943535 4.7671238e-05 0.0025263801 0.0007660262 0.011826931 0.001178454
2.663379 0.076909296 0.45082295 -0.00027952067

output_normalizer.variance f4 [12]
00000000: 1346 1b3e 9630 a93d 906c 0e3d 38c6 e238
00000010: ff0f af3b 413d a73c ad63 833e 590b 0740
00000020: 6a5a 8f42 6858 2d43 7eae d140 c04e c53e
0.1516345 0.0826122 0.034771502 0.00010813441 0.005342483 0.02041495 0.25661984 2.1100676
71.67659 173.34534 6.5525503 0.38536644

encoder.layers.0.weight f4 [32, 24]
00000000: 0872 8ebb 416f b2bb 997f 0fbc afac 1bbe
00000010: 1998 59be 411f 893e f543 253d 85f3 d7be
00000020: f633 4ebc c2b1 96be 5908 c83c 0ffd f1bd
00000030: af31 f53b 7346 8bbb a2fa d03c cda5 713e
00000040: adb5 0cbc 3129 26bc c9b2 00bc 482c ef3c
00000050: 224e 1a3d 2185 c8bb 846a 72bd 9830 6abb
00000060: 4919 e83d 2569 0f3c 6c59 203e 9b6b 9d3d
00000070: 4e96 4dbd c71b ccbc 159c 13be 8727 da3d
00000080: 08dc 613e d468 fc3d 5790 df3c b887 14bd
00000090: aa8c 1b3e 36bf 93bd fb9b d1bd 346c aebd
000000a0: a935 26bd 3f25 d2bd 39ac 2fbe 97dc 3b3d
000000b0: 3e0b 08be e64a d23d d805 c3bd 8bf8 9f3d
000000c0: 5a00 b13b 86ca 2f3d 9be3 533b 035a abbe
000000d0: 5b5d e23c fc31 99be 47ae 03be 2ad7 093e
000000e0: b32d b1bc c1ed 05be 96c1 07be 1a9b 2ebe
000000f0: 022b 2bbc b65f 0c3c 4364 a1bd d733 83be
00000100: c840 d13b a419 023d beb5 663b 15d8 c2bd
00000110: 3f1c 0bbc d87f b53d 9cfd 953c 3d3d 35bc
00000120: da26 3b3c bce4 96bc ceda 403d 1b54 44bb
00000130: 516a c5bc 5048 883e 5bcb 80be 5af5 493e
00000140: 0d5d fc3d 0b91 28be 269e f63c 7edb 09bd
00000150: 6c05 94bd 5a9f 873d e5e0 2e3e ba06 60be
00000160: 1bbd dcbc 0bb7 4bbc 06c1 a23d e56b eb3d
00000170: 9522 aa3d 1968 c53c da32 263d 50a9 45bd
00000180: 204c 8fba 43d4 a5bb f458 91bd 52c1 55be
00000190: 7bdc 80be 1501 693e 81cc 85be aeef 133e
000001a0: ef3d 00bd 9802 02be 088e a43d 0fd4 93be
000001b0: ae3f af3d 9916 a63b da66 373d 5e4d f43d
000001c0: 3a5f f83c 1632 74bc ab8d 8bbd bb5a eebd
000001d0: 580d 88bd ea96 083e 72b6 a93d 6536 843d
000001e0: 2362 ee3b 33ea 61bc 7c48 8b3c 31e3 053c
000001f0: 55c9 30be 4150 69be 1e5f 84bd b374 f7bd
00000200: dd31 123d db4c 723d 750c 603e 5e7f 8abe
00000210: 6ac7 223d 5913 b83c 374b 8bbe 79af abbd
00000220: 29a5 10bc 2b73 0b3d ba53 b7bb cbe5 c33d
00000230: a6dd 95bd 26bd f4bd e9a5 d53d 9604 28bd
00000240: 212a a43d 4be7 a7bd b285 31be a667 943a
00000250: 5125 9abd 01c2 aebd 9bea 4b3d 3d07 afbc
00000260: 4936 fabd 10b6 a03c 7735 d13c 7d15 e9bc
00000270: d36a be3c 7871 593e 0672 883a 8ccb a53c
00000280: c840 133e 997a 01be 9681 0cbe 03e7 1a3e
00000290: feeb 263c b86d 043e 56e2 593d 3685 dabc
000002a0: 069e c1bd 62c1 ea3c 9a1c d63d a12b 3a3d
000002b0: 2062 ac3c b486 9a3d f5f0 1dbd fda9 873c
000002c0: b815 fabd cdef 853c 01db 8b3d 4903 6dbc
000002d0: 62c0 a43d 405b a7bd 5a77 713d f6f6 fdbc
000002e0: 372e 133e f462 e03d d2a4 e5bd 75d1 ca3d
000002f0: 94b1 ddbd 17bc a03d 3930 9a3b 71b4 8cbd
00000300: 38cd ffbb 13b3 af3b 65e2 a6bc b613 583e
00000310: b409 9a3e 23c2 ad3e fbc2 a3be ff33 a5bc
00000320: 1532 14bc 7a2b 873e 59e0 25be d647 fbbb
00000330: 7997 333d 959d 973c 9901 86bd 25ca 10bd
00000340: 6224 f73c 0830 c3ba 0f03 fcbb 3c42 78bd
00000350: 5d2e 2d3d 0795 193e 5f2b d0bd d081 40bd
00000360: 150b eabc 650f 5a3b cf34 9f3b 9cf7 9e3d
00000370: 6521 2fbe ab16 e0bd b062 103e b0ab 6a3e
00000380: 66ab 5dbc 2430 bfbd 71fe c93c 522b 0d3c
00000390: 3607 6cbd c18f 56bd d5d2 1a3d 46f3 153e
000003a0: 4fbd f03d e85a 66be 8c25 e83c f74f d33d
000003b0: dc4a b0bd 1268 633c 72f6 ba3a 12a9 51bb
000003c0: 7156 033c a322 c5bb 78c3 153c 6217 63be
000003d0: 00e7 dcbd eb7e f63e d737 fabc 1606 fe3d
000003e0: 0f72 aabd db1f bd3d e5b5 78be 3750 5e3e
000003f0: 4d39 ee3c ad20 43bc b369 ac3c e398 28be
-0.0043470897 -0.0054453914 -0.008758449 -0.15202592 -0.21249427 0.26781657 0.040348012 -0.42177978
-0.012585631 -0.29432493 0.024418043 -0.11815845 0.0074827294 -0.0042503416 0.025510136 0.23598404
-0.008588237 -0.010141657 -0.007855126 0.02919592 0.03767217 -0.006119386 -0.059183612 -0.003573453
0.11332948 0.008753096 0.15659112 0.0768654 -0.05019217 -0.024915589 -0.1441501 0.106520705
0.22056592 0.12324682 0.027290506 -0.036262244 0.15190378 -0.07214205 -0.10234829 -0.08516732
-0.040578518 -0.102610104 -0.17155541 0.045864668 -0.13285539 0.10268192 -0.09522599 0.07811078
0.0054016532 0.04291775 0.0032331708 -0.3346711 0.027632406 -0.29920948 -0.1285945 0.13460985
-0.021628236 -0.13078977 -0.13257441 -0.17051354 -0.010447266 0.008567741 -0.078804515 -0.25625488
0.0063858964 0.031762734 0.0035203542 -0.095138706 -0.008490621 0.08862275 0.018309407 -0.011061964
0.011422837 -0.018419616 0.04708367 -0.0029957357 -0.024098547 0.2661767 -0.25155148 0.197225
0.123224355 -0.1646158 0.030104708 -0.03365659 -0.07227597 0.06622191 0.17077978 -0.21877566
-0.026945641 -0.012433778 0.079469725 0.114951886 0.08307377 0.02409749 0.04057584 -0.048257172
-0.0010932721 -0.005060704 -0.070970446 -0.20874527 -0.25168213 0.22754319 -0.26132587 0.144469
-0.031309064 -0.12696302 0.08034903 -0.28872725 0.08557068 0.005068612 0.04477582 0.11928819
0.030318845 -0.01490452 -0.068141304 -0.11638399 -0.0664317 0.13338819 0.08286752 0.064556874
0.0072748824 -0.013788748 0.017002337 0.008171842 -0.17264302 -0.2278452 -0.06463455 -0.120828055
0.035692085 0.059155326 0.21879752 -0.27050298 0.039740957 0.022470163 -0.27205822 -0.08383078
-0.00882844 0.03404538 -0.005594698 0.09565314 -0.07317667 -0.1195014 0.104320355 -0.04102
0.08015848 -0.081984125 -0.17336157 0.0011322394 -0.07526649 -0.08533097 0.049784284 -0.021365756
-0.12217385 0.019618064 0.02553819 -0.02845263 0.023244297 0.21234691 0.0010409958 0.02023866
0.14380181 -0.12644424 -0.13721308 0.15127186 0.010188101 0.1293248 0.053194366 -0.026674848
-0.09453969 0.028656665 0.10454674 0.045451764 0.021042883 0.07545224 -0.038559873 0.016560549
-0.12211174 0.016349697 0.06828881 -0.014466115 0.080445066 -0.081717014 0.058951713 -0.03100155
0.14373098 0.10956374 -0.112130776 0.09903232 -0.10824886 0.07848375 0.0047054556 -0.06870354
-0.0078064464 0.0053619235 -0.020371625 0.21101269 0.30085528 0.33937177 -0.31984696 -0.020166395
-0.009045144 0.26400357 -0.16198863 -0.0076684756 0.043845627 0.018507758 -0.065432735 -0.03534903
0.030168716 -0.0014891634 -0.0076907943 -0.06061004 0.042280544 0.14998256 -0.101645224 -0.0469988
-0.028569737 0.0033273336 0.00485859 0.077620715 -0.17102583 -0.109418236 0.14100146 0.22917056
-0.013529634 -0.09335354 0.02465746 0.008616285 -0.057624064 -0.05238319 0.03779872 0.14643583
0.11754858 -0.22495615 0.028338216 0.103179865 -0.08608028 0.013879793 0.001426412 -0.0031991643
0.008016215 -0.006016092 0.009140842 -0.22176889 -0.10786247 0.48143706 -0.030544205 0.124035046
-0.08322536 0.092345916 -0.24288137 0.21710287 0.029080058 -0.011909646 0.021046495 -0.16464572

encoder.layers.0.bias f4 [32]
00000000: 6edc 53bc 3474 a23e 5ce2 113c 18fd c6bd
00000010: d2b2 acbd a914 b6bc 5dcc 973e 91ea aa3e
00000020: e1f0 ae3c 8664 cfbc 1bc4 253c 12b7 e53b
00000030: 173a 8abd fa92 bfbc 6a0e a03e 6c52 5cbc
00000040: 565b e33e 3cae f1bd 6388 7fbd f6a7 de3e
00000050: 0f29 9a3e 1a15 b5bb 42e5 bebc f28e 59bd
00000060: 5b50 c43e 09ee 493b 25f2 263e fe87 19bc
00000070: 2981 a13b 324f 273e 89e8 3cbd 5f48 ca3e
-0.0129309725 0.3172928 0.008904066 -0.097162426 -0.08432545 -0.022226648 0.29648104 0.33382085
0.021355094 -0.025316488 0.010117556 0.007010349 -0.06749361 -0.023385514 0.31260997 -0.013447385
0.4440562 -0.11800811 -0.062385928 0.4348752 0.3010945 -0.005526197 -0.023302678 -0.05311484
0.38342556 0.0030812046 0.16303308 -0.009370802 0.004928727 0.16338804 -0.0461202 0.3950834

encoder.layers.2.weight f4 [32, 32]
00000000: 2d47 c3bd 5966 fe3c 223a 07be 08b4 00be
00000010: d12f a8bd 1e74 d8bd 9acd 083d 900c 2e3e
00000020: c527 5ebe 0711 e4bd b25a 63be b11b 04bd
00000030: 5976 89bd f6f0 20bd 160c 883d 8b26 c8bd
00000040: 0f29 843c 4b91 2cbd 85e1 e2bc 4c46 443d
00000050: 0b50 8abd e8a7 50be 7d45 c0be 73fa 4abe
00000060: e571 fb3d b02c 1cbe 2bb6 7bbc 0f15 2ebe
00000070: 6059 64bd 736f 94bd 351a 64be 81dc db3c
00000080: 7d6d d3be fdba cd3d 3ac5 9cbe a7fa 14be
00000090: f717 98be bc3f bcbe 9c28 85bd 65c7 c63d
000000a0: 2de3 c1be 1bb0 71be 7320 b1be 59a4 78be
000000b0: d3ff 11be edd7 b2be 11d6 e93d 8569 eabe
000000c0: 4618 333e 40cb a2be d4e5 67bd 9e53 f33d
000000d0: 2d91 893d f0f6 b1be 36d2 96be 9cf2 62be
000000e0: 4201 3d3a 85a2 0cbe 3244 28bd 12e8 36be
000000f0: f805 7bbe 1ea3 28bd f7d1 d8be ef27 25bd
00000100: 7b5a 123e 844f 14bd 8291 2b3e b08e 343d
00000110: bc59 353e 39a4 813d 4179 783c 768d c33d
00000120: 2ffb 2a3e 53cd 9bbc fcb1 a7bd 045b bb3d
00000130: 6c47 2c3e 702a 2f3e 6b20 163e e2f3 013e
00000140: 3de1 bb3d 4813 1e3e 879f e93d adfa e13d
00000150: b2a4 843d dc75 813d 18c3 6abd e731 0a3e
00000160: 3c47 b6bc 1ff3 333d 3401 1f3b cfed 1a3e
00000170: b4dc 913d efec fd3c 2322 653e 7746 003e
00000180: 25c1 163d 1a77 1cbd d51e 8bbc e5ae 933d
00000190: 474c bbba 2047 343e bedb db3c 74af a73d
000001a0: 9caf 143d 7e38 02bc 3f15 14be d821 163e
000001b0: bdcd 1cbd 6bfa 97bd d86f 4b3d acd5 95bd
000001c0: 21f7 353e 649f 56bd 6bee 063e ffac e03d
000001d0: d3cb c13d 7a2c e43d a0e5 0dbd e9df af3d
000001e0: ec23 c63d efc5 b53c 9a6a dd3c 4359 13bd
000001f0: 48d5 b63d 6c37 22bd e265 4b3d 5d09 313e
00000200: 8d6c 0e3e b735 593e b8b6 be3d 8c9d 233b
00000210: fed0 01bd e009 2e3e da41 ce3d c891 723d
00000220: a318 e23c 5d86 a63d 8ebe dfbc d6e2 013b
00000230: d136 ae3d 3e26 973d 3b0e 52bd 5518 8c3d
00000240: f203 443d d249 443c 7d28 213e 0d4d 583d
00000250: f8ab 3c3d 346a 1f3e 6429 8b3d dc81 ab3d
00000260: c37d 52bd 9a1c 0d3e 3ec5 3e3d 9794 0d3e
00000270: 9d86 aa3c 1dd9 613d cb3f 7d3c 122c 3c3e
00000280: 5b2b cb3d 6630 0e3d ee65 e13d f0a4 ec3c
00000290: ae51 263e 0523 903b 15f0 4d3d 970d 05bd
000002a0: da20 3a3d 23ee a23c 5b80 1c3e c433 8b3d
000002b0: 785f 233e 7678 be3d aff7 91bc cba8 85bd
000002c0: 9ad3 963d f5b5 c4bc 7bc4 2c3d 548b e13d
000002d0: 1eb3 083e ecfb c03d c0f6 383c 05ba 003e
000002e0: 7bb8 193e e4f9 403e c7d1 873d ecd5 143e
000002f0: dd2d a23d 77d5 463d 2566 243d acf8 bc3d
00000300: 477f 56bb 8fb4 e93d ab92 c13d 6000 2d3e
00000310: d69d c1bd 8af6 143e 57e1 2a3e 1cde c0bc
00000320: 2455 60bc 1bd7 06bd eb13 833d a236 9cbd
00000330: 4014 8c3d 97bc 84bc ec59 993d a21e b0bd
00000340: d573 5a3e 6a44 ac3d b45e 99bc e2bf fe3c
00000350: 48aa ae3d db95 913d 5ed6 56bd f1e8 7ab8
00000360: 615b 113e f6cc 1abd 2033 b23c 824e 6abd
00000370: 9abc fbbb b87a 66b9 a268 65bc 51bc 593e
00000380: 3d93 6fbe 8f16 16bd be09 43be 2bc9 38be
00000390: 922e 94bd d0b0 1dbe 8b59 153e af16 4d3e
000003a0: 105e dbbe c946 47be eb57 8ebe 8bc9 84be
000003b0: 55ec a7be 752b 85be 2ccf 443e d68d 6fbe
000003c0: 3fe9 8b3d bc6d 16be de48 12bd 1a6b 3d3e
000003d0: f616 273e 94ea 20be 8bbb a2be cffd 39bd
000003e0: cba5 723e 5fd5 6ebd 3289 2a3d cb5e 4cbe
000003f0: adba 35be 7c0d 1e3e 161c a8be 6d8d 413d
-0.0953506 0.031054663 -0.1320577 -0.12568676 -0.08212245 -0.105690226 0.033399202 0.1699698
-0.21694858 -0.1113606 -0.22202566 -0.03225297 -0.06712026 -0.0392923 0.0664293 -0.097729765
0.01613286 -0.04213075 -0.027695427 0.047918603 -0.06753548 -0.20376551 -0.37553015 -0.19822101
0.12277583 -0.15251422 -0.015363256 -0.1700022 -0.055749297 -0.0724782 -0.22275622 0.026838543
-0.4129447 0.10045431 -0.30619222 -0.14548741 -0.29705784 -0.36767375 -0.06501886 0.09706
-0.37868634 -0.23602335 -0.3459507 -0.24281444 -0.14257745 -0.34930363 0.11417783 -0.4578363
0.17489728 -0.31795692 -0.056615666 0.11881183 0.06717143 -0.3475871 -0.29457253 -0.2216286
0.0007209965 -0.13733871 -0.04108066 -0.17861965 -0.24513996 -0.041171186 -0.4234769 -0.040321287
0.14292328 -0.036208645 0.16754726 0.04408139 0.17710012 0.06330151 0.015165628 0.09548466
0.16697381 -0.019018805 -0.08188245 0.09148219 0.1682412 0.17106032 0.14660804 0.1269069
0.0917382 0.15437043 0.114073806 0.11034141 0.06476726 0.06321308 -0.057314962 0.13495599
-0.022250764 0.04393303 0.0024262192 0.1512978 0.07122174 0.030996768 0.22376303 0.1252688
0.03680529 -0.03819952 -0.016982475 0.07211093 -0.00142897 0.17605257 0.02683818 0.08187762
0.036300287 -0.007948039 -0.1446123 0.14661348 -0.038282145 -0.0742081 0.04966721 -0.07316145
0.17770053 -0.0523981 0.13176887 0.109704964 0.094627045 0.11141296 -0.034642816 0.08587629
0.0967482 0.022189109 0.02702837 -0.0359738 0.08927399 -0.039603636 0.04965771 0.17288728
0.13908596 0.21211897 0.093121946 0.0024965731 -0.03169345 0.16995955 0.10071154 0.05922106
0.027599638 0.081310965 -0.027312543 0.0019819043 0.08506549 0.07380341 -0.051283102 0.068405785
0.047855325 0.011980491 0.15738101 0.052807856 0.04606244 0.15567857 0.06795004 0.08374378
-0.051389467 0.13780442 0.046574824 0.13826214 0.020816142 0.055138696 0.015457104 0.18376186
0.09920379 0.034714125 0.1100577 0.028887242 0.16242096 0.004398706 0.05027779 -0.032483663
0.045441486 0.019888943 0.15283339 0.06796983 0.15954387 0.0930032 -0.0178183 -0.06526335
0.073645785 -0.024012545 0.042179566 0.11012903 0.13349578 0.0942305 0.011289299 0.12570961
0.1501178 0.18845326 0.06631809 0.1453473 0.07918904 0.04854342 0.040136475 0.09227118
-0.0032729672 0.11411392 0.09451803 0.16894674 -0.09453933 0.14547172 0.16687523 -0.02354341
-0.013692174 -0.032919984 0.064002834 -0.07627608 0.068398 -0.016203208 0.07487854 -0.08599593
0.21333249 0.084114864 -0.018721916 0.031097356 0.08528572 0.07108661 -0.05245053 -5.982159e-05
0.14195015 -0.037793122 0.021752894 -0.057203777 -0.007682395 -0.00021980226 -0.014001997 0.21263243
-0.2339601 -0.036642607 -0.19046685 -0.1804549 -0.07235445 -0.1539948 0.14584939 0.20028184
-0.42845201 -0.19460596 -0.2780145 -0.25935015 -0.32797495 -0.26009718 0.19219655 -0.2339395
0.068315975 -0.14690298 -0.035714023 0.18497887 0.16317353 -0.15714484 -0.3178371 -0.045408066
0.23696057 -0.058308955 0.041634746 -0.19958036 -0.17746992 0.15434831 -0.32833928 0.047254015

encoder.layers.2.bias f4 [32]
00000000: 91e9 143e 90f5 9b3e 7587 fbbd a69a c0bd
00000010: be93 fabd 48c0 3cbe b50b 0a3c 8d00 cd3e
00000020: fabb 98bd 4798 13be 6da1 833e 411a a53e
00000030: 43b0 5a3d 507f 19bd 9f51 cd3e d6e9 dd3c
00000040: 36c8 333e 997d eabd 8ac3 10be 1675 32bc
00000050: 89ac 093d 597f 91bd 5192 43bd f834 4e3e
00000060: 592b 1c3e e900 80be f4eb 623e c2f5 b8bd
00000070: 0d3c 80bc 6c5a 52bd dd6f 8f3e 4bb3 a53e
0.14542224 0.30460787 -0.12281696 -0.09404497 -0.12235211 -0.18432724 0.008425643 0.40039483
-0.07457729 -0.14413558 0.25709096 0.32246593 0.053390753 -0.03747493 0.40101334 0.02708904
0.17556843 -0.11449737 -0.14137092 -0.010892173 0.033611808 -0.07104368 -0.04774696 0.20137393
0.15250911 -0.25000694 0.22160321 -0.090312496 -0.015653634 -0.051355764 0.28015032 0.32363352

encoder.layers.4.weight f4 [12, 32]
00000000: 58d2 853e 44f5 a83e 2c8d 76be 4525 51be
00000010: c02a 30be fefc e9bd 0eb7 5bbe 6a5e 6d3e
00000020: 3af8 f3bd d7f2 32be 5727 f23e ece2 09bd
00000030: d7ac 97bd eae7 c0bd 19c9 a83e 94cf 933d
00000040: 719f f83d 519d 71be 1c71 5e3d ad20 35be
00000050: a90a 0dbe 5c1d 1bbb 7199 3c3d 1041 a63d
00000060: 94ff 09be b8a9 38be 825b 923e b866 41ba
00000070: 5a69 33be f2dd 3bbe 8893 913e 2ba5 ec3e
00000080: fcfe c8bd 0484 0d3e 09a8 d73d c7b2 fc3c
00000090: a7fb 14be eea7 d03b cda7 77bd 046f 193e
000000a0: ed22 ddbd ba49 d23c 21c9 663e 4fde 363c
000000b0: 371a 18be 7f38 443c 66b0 063e 0651 bd3d
000000c0: b563 4a3d 698f 27be c9ac f2bd 2841 c4bd
000000d0: a240 183e 65f6 e4bc 3cc2 bebd 25e8 dc3c
000000e0: 19b8 4c3d 261c eabd abdb dfbd e672 bbbd
000000f0: 8ad0 603c 2998 9b3d 1980 db3d 701f 243e
00000100: 651c 0fbe 3d53 d2bd 8741 49bc b7f4 003d
00000110: 06ca b73d 062c 0cbd 0706 1ebd d49e 59be
00000120: 1c3e 8e3d 0347 883d 2797 9fbd acde f2bd
00000130: ffde 97bc f1e5 a93c 6b68 bbbd ae24 89bc
00000140: a8e4 cfbd a5ee 133b d4c7 84bd 7f10 0ebe
00000150: 0794 aebc e55c 373d 1107 2ebd e492 f6bd
00000160: 7149 4ebd bda4 40bb 9d62 24be 7d03 d73c
00000170: 262d 09be 6cb1 11bc 5cbf 62be a7dc 37be
00000180: c87d 803d a6fb bd3d a2bb 493d 86c0 f4bc
00000190: 9553 edbd 6508 8bbd 4b33 9fbd ab6f 6d3d
000001a0: c969 29be b5bc 89bd 027f d83d d830 22be
000001b0: da56 c1bd 75de 2bbd 5e33 28bd 66c7 e5bd
000001c0: 4a45 18bd 0aa9 f7bd e7bf cabd 64e7 9f3d
000001d0: 84d2 023e d2c3 73bc 4317 573d f07e e2bd
000001e0: 1b26 0dbe 0bac 06be d795 0ebe 0178 9c3d
000001f0: 1ab5 dcbd a259 9ebd 612f bcbd 1247 f53b
00000200: d791 86be 3096 07bf be7b 8e3e 388b e5bc
00000210: a20e 083e d0ae 7a3e 0819 40bc 1825 d4be
00000220: 2102 29bd 770e 6f3e 9846 b5be 776e 3abe
00000230: 3350 633d 3f41 e03d b099 c3be cc61 3c3e
00000240: 585f b0be cc02 673e a53d 7f3e bdd5 ad3d
00000250: c76f 1d3e 4d03 393e e9b3 1f3e eb38 9ebe
00000260: 034a a4bc 2401 8c3e 5377 8fbe 5d5e e53d
00000270: 47e2 413e c302 df3d c1b1 c9be 22fc e6be
00000280: cbcd de3d 250f 1b3e 5358 38bd 04ce a4bd
00000290: 792f 9abd ac13 003e 5fd7 223e 56ca 393c
000002a0: 01ba ed3c f1e1 cc3c 1ff1 303e 3151 1d3e
000002b0: 0cba 86bd 6342 973c 3337 743e 5092 813c
000002c0: 4d43 e73d 858f d93c a82f dd3d ed90 9c3d
000002d0: d41e 8dbc dbf1 ecbc 6af4 c73d db8d 573d
000002e0: 751e 3e3d c2fe 8b3d e3cb f93c 1e56 b43c
000002f0: 3f31 0d3e b457 02bd 5c07 743e 4aab a43d
00000300: bf44 40bd 5846 2abd b575 7cbd 0a99 57be
00000310: 334d 763b a59e a63d 674b c9bd e8a0 abbd
00000320: c286 1bbd 2386 c23d d52b 733d 96a7 a5be
00000330: a81a 7bbd 327b 86bd 40d9 35be e546 54bd
00000340: 7451 01be 472a b8bc 8df9 783d c8ff 543d
00000350: 0a7c 9c3c 474c 503d 3a81 16be 4001 99be
00000360: 582e 6fbe 12a2 0cbd f136 a3bd 6981 ac3c
00000370: 5e4e d1bd e627 9abd f05b 68be 1d70 69bc
00000380: 4653 c5bd 37de cabd 40eb 61bd 4569 eebd
00000390: 8e43 d03d 3b7e f0bc acad 5ebc 8b92 0bbe
000003a0: f93c 2cbd 4eb6 713d 8e43 983c fd7a 16be
000003b0: e067 c6bd 16ea fcbc bd99 fdbd c18c 17be
000003c0: 7088 a9bd d346 dc3c 75f3 cc3d 8dfa 213d
000003d0: 5190 ef3c b0e4 44bd 33a7 28bd 3e1c d03c
000003e0: 3303 14be 6588 7ebd 277b ffbb 7a69 87bd
000003f0: 24c9 df3d 9946 81bd 35c6 1abe c5ab af3a
0.26137042 0.32999623 -0.2407729 -0.20424373 -0.17203808 -0.114252076 -0.21456549 0.23180547
-0.1191258 -0.17475449 0.4729564 -0.033663675 -0.074060135 -0.09419234 0.32965925 0.07217327
0.12139786 -0.23595168 0.05430709 -0.17688246 -0.13773598 -0.0023668623 0.04604477 0.081178784
-0.13476402 -0.18033493 0.2858544 -0.0007377672 -0.17520657 -0.18346384 0.2843287 0.46219763
-0.098142594 0.13819891 0.10530097 0.030846966 -0.14549123 0.006367675 -0.06046276 0.14983755
-0.10797677 0.025669921 0.22537662 0.011161401 -0.1485375 0.01197636 0.13153228 0.092439696
0.049411494 -0.163633 -0.118493624 -0.0958274 0.14868405 -0.027949521 -0.09314391 0.026966164
0.049980257 -0.1143115 -0.1093057 -0.091527745 0.013721595 0.075973816 0.10717792 0.16027617
-0.13975675 -0.10269783 -0.012283689 0.03148338 0.0897408 -0.03422167 -0.038579967 -0.21251994
0.0694544 0.066541694 -0.07792502 -0.118588775 -0.01853895 0.020739527 -0.091507755 -0.016741123
-0.101510346 0.0022572663 -0.06483427 -0.1387348 -0.02131082 0.044766326 -0.042487208 -0.12039736
-0.050363008 -0.0029395067 -0.16053243 0.02624678 -0.13396129 -0.008892398 -0.2214331 -0.17955266
0.06273991 0.09276514 0.049251206 -0.029876959 -0.11588208 -0.067887105 -0.07773455 0.057967823
-0.1654426 -0.06725446 0.105711 -0.15838945 -0.09440394 -0.0419602 -0.041064613 -0.11219673
-0.037175454 -0.120927885 -0.09899884 0.07807806 0.12775618 -0.01487823 0.05251242 -0.11059368
-0.13784067 -0.13151567 -0.13924347 0.076400764 -0.1077673 -0.0773194 -0.09188724 0.007485279
-0.26283142 -0.5296354 0.27828783 -0.028020486 0.13286832 0.24480748 -0.011724718 -0.4143455
-0.041261796 0.23345362 -0.3540542 -0.18206201 0.055496406 0.10949945 -0.38203192 0.18396682
-0.34447742 0.2255966 0.2492586 0.08488033 0.15374671 0.18067665 0.15595974 -0.309028
-0.020054823 0.2734462 -0.28020725 0.11199639 0.18933974 0.10889199 -0.39393428 -0.45114237
0.10879096 0.15142496 -0.045006108 -0.08047107 -0.07528586 0.12507504 0.1590247 0.011339745
0.029019358 0.025010081 0.1727948 0.15363003 -0.065784544 0.018464273 0.23849182 0.015816838
0.112921335 0.026557693 0.10800105 0.0764483 -0.017226614 -0.02892392 0.09763415 0.05262552
0.046415765 0.068357006 0.030492729 0.02201372 0.13788317 -0.03182192 0.23830932 0.08040483
-0.04694056 -0.04157099 -0.06163569 -0.21054474 0.0037582635 0.08135728 -0.09828835 -0.083803
-0.037970312 0.09498241 0.059367973 -0.3235442 -0.06130472 -0.065664664 -0.17758656 -0.051825423
-0.12628728 -0.022481097 0.060784865 0.052001745 0.019102115 0.050853994 -0.14697734 -0.29883766
-0.23357522 -0.03433425 -0.079694636 0.021057801 -0.102200255 -0.07527141 -0.22691321 -0.014247921
-0.09635024 -0.09905665 -0.055155993 -0.11641172 0.10169135 -0.029357066 -0.013591211 -0.1363012
-0.042050336 0.05901175 0.0185869 -0.14695354 -0.09687781 -0.03087334 -0.12382839 -0.14799787
-0.082779765 0.02688924 0.10007373 0.039545584 0.02924362 -0.048069656 -0.04117508 0.025404092
-0.14454345 -0.062141795 -0.0077966633 -0.06611915 0.109270364 -0.063122936 -0.15114672 0.0013402632

encoder.layers.4.bias f4 [12]
00000000: 2b02 593e f6f1 163e 0a4b 26bb c9c7 12be
00000010: 9a42 97be 2b27 463e 2f1d 3abe 0b32 09be
00000020: c4a9 e83c 97fd cf3d 6b13 97be f6bf ccbd
0.21192233 0.14740738 -0.0025374317 -0.14334024 -0.29543 0.19350879 -0.18175195 -0.13397996
0.028401263 0.1015579 -0.29507002 -0.09997551

decoder.layers.0.weight f4 [32, 18]
00000000: 2412 a73e a805 d1bd 0897 e13d b665 f6bd
00000010: 8290 2dbe af01 1a3c b4a5 30be 2266 26bd
00000020: 3eee 4fbe 11e1 e63c 4975 ba3e 07bb 463e
00000030: 152d 98be b4df d5bd 1ff4 033d ea2c 19bd
00000040: b75b 313e f148 6fbd aa99 2dbc 3dbe dabd
00000050: 2823 a9bd d194 8bbd b7e1 d23d 867d 913b
00000060: 4fda e73c 876a 2b3e 2dbc 203e 574a bfbd
00000070: 8531 593e c1ee b9bc bbb2 a63e df26 e5bd
00000080: 9f5b 1b3e c867 0abe 0f19 5b3d 68cc 29be
00000090: aee0 3cbd 4acc bdbd 7ec6 73bd 8148 d43d
000000a0: 16bf 083e 32ba 303e 61b2 04be 88d3 353c
000000b0: 9056 bfbe d559 ffbd d705 053e b318 28be
000000c0: 6c02 98bd d26c 663c 5f3a d13d a269 ddbd
000000d0: 244e dfbd 31ed e93c 78a7 e5bd e0d5 18bd
000000e0: 7058 793d 82ff 173d f511 473e 2bbf 813c
000000f0: 5abb ae3e 8dba f73d 0973 6ebc 854d ac3e
00000100: 798a 013d 1f74 16be 5bf9 5e3d c973 bf3d
00000110: 9f7c 803b 4edd cd3d 8ca2 543d 0fa0 923e
00000120: 6cc8 9cbd 2aed e03d a4ce 04bc c029 6b3e
00000130: 0ce1 8dbe dbf0 233e ed75 ddbc 1990 9dbd
00000140: 71d0 393d 9a1b bfbd 2c65 b1be 48c0 26be
00000150: a5fd e6bd b31c 433e 9c54 64be 7613 5b3e
00000160: 57b5 b93c d8f4 4abe 8dc5 e4bd 8fe0 f1bd
00000170: 00e1 8d3d d3b7 12be d85b 02bd 2760 6ebd
00000180: 378e a93e e6da 1f3d 7b81 8dbc e1cb a0be
00000190: bd81 a2bd bf45 fe3d 064b ea3c 74a1 45be
000001a0: 2741 9abd b3db 49be 9e7a 3abe ac8b 763c
000001b0: 5297 823d 5098 e6bd c110 19be dcad 713d
000001c0: 362a d8bd dbe1 51bd 4923 e1bb 9d99 ecbd
000001d0: fbc5 91be 7259 893d 4217 713d e71c 0cbe
000001e0: 4134 a83c bee0 49bd 20af f93d 618d 77be
000001f0: aaa6 8c3d d022 6b3e a746 7f3e 173c fd3b
00000200: 4c6a f43d 6cba 0c3e 2b8f 0ebe 8115 943d
00000210: ed2f 533e 05ac 013e 87c3 a03d cdcb 5c3e
00000220: f151 9f3d 31de d8bc 33f9 843d b29e 20be
00000230: ac4a df3d e856 97bd 7e65 1fbe 0da3 773e
00000240: 9876 39be a9ea eabd db35 ba39 a827 db3c
00000250: a66b 753e 5542 f7bb cfff 493e ecb7 3bbe
00000260: efdc a9bb 1900 aebe 78a6 103e 8d87 e0ba
00000270: 8964 0e3d 4191 683e 78a4 4cbe 1b31 1abe
00000280: 38ff 1f3e d00b 873e 8d21 31be d879 473d
00000290: d3ec 533e 952b 83be c4e6 783e 625b 21be
000002a0: 164b 98bd 56a9 7abd afdb 903e e9f3 4a3a
000002b0: 9e03 23be 18cf 5abe b2b1 0ebe cf83 703e
000002c0: a1be 8c3e d60b 893e 3fc2 413e bf72 7f3d
000002d0: fc57 bb3c 1c5f b3ba 1823 803e 734b 5fbe
000002e0: 4fad a9be 8c7f 193e 8c44 82bd af73 853e
000002f0: 0bd3 24bd bdbf 073e 4216 c13d 6e1d 193e
00000300: 3ea3 a83e b2b7 283e 96f4 393e 240e 86bd
00000310: d380 e93d 66c3 a43e e6e9 863d 0ca9 a73d
00000320: 79ac 78be 12ac 42be 11cc 2fbe 20ce 3dbe
00000330: e14a 8cbe 4817 113e ea90 00be a406 b1bc
00000340: 62f7 7d3e d626 41be d387 863d 1889 b23d
00000350: b071 5fbe 9db7 d83d 8e35 2cbd 0217 0c3e
00000360: c3ef 53be 05b6 1dbc 94ed 03be 3fc9 0dbe
00000370: efff 0f3e 9fed f9bb 06d3 9bbd 1049 103e
00000380: f381 55be 0e91 8c3e 0a41 58bd 1c43 313e
00000390: 0d51 6abd 9e24 bdbd 117a 0abd 5b53 3e3c
000003a0: ac8b 13be c67e 59bb dee9 983e aa8f 88bd
000003b0: b4bf 2fbe 5a0d 653d 7063 9cbe fffc 12be
000003c0: d798 7d3e e311 59be 62c5 e23d a374 b4bd
000003d0: 258e 49be 217c 063e 7337 2fbd 9c28 653d
000003e0: 41f2 1bbd 43e9 223e 26a5 e7bd 4c37 333e
000003f0: 466f 3c3e be2d 7cbd 224b 403e 2536 c0bd
0.32631028 -0.10206157 0.11015135 -0.120311186 -0.16949657 0.009399815 -0.1725071 -0.040624745
-0.20305726 0.028183492 0.36417606 0.19407283 -0.29721895 -0.104430586 0.032215234 -0.03739635
0.17320143 -0.05841917 -0.010595718 -0.10680816 -0.08258659 -0.06815494 0.10296958 0.0044400124
0.02830234 0.16739856 0.15696783 -0.09340351 0.21210296 -0.022696855 0.32558236 -0.11189055
0.1517167 -0.13516152 0.053490695 -0.16581881 -0.04611271 -0.09267481 -0.05951547 0.103653915
0.13354144 0.17258528 -0.12958671 0.011097796 -0.3737073 -0.12468306 0.12990509 -0.16415672
-0.07422337 0.014064031 0.102162115 -0.108111635 -0.10903576 0.028555484 -0.11213583 -0.037313342
0.060875356 0.037108906 0.19440444 0.015838226 0.34127313 0.120961286 -0.014553794 0.33652893
0.0316262 -0.14692734 0.054437023 0.09348256 0.003921106 0.10051976 0.05191283 0.2863774
-0.07655415 0.109827355 -0.008105908 0.22965145 -0.2771076 0.16009848 -0.02703377 -0.076935
0.0453648 -0.093314365 -0.346475 -0.16284287 -0.112788476 0.19053917 -0.22297901 0.21394143
0.022669477 -0.19819963 -0.11170492 -0.11810409 0.06927681 -0.14327936 -0.03182587 -0.058197167
0.33116314 0.039027117 -0.017273655 -0.31405547 -0.07934902 0.12415647 0.028600227 -0.1929987
-0.07531958 -0.19712715 -0.18210837 0.015047949 0.06376518 -0.1125952 -0.14947797 0.059003696
-0.10554926 -0.051240783 -0.0068706614 -0.11552737 -0.2847136 0.067065135 0.05886007 -0.136829
0.02053273 -0.049286596 0.121916056 -0.24175026 0.06867726 0.22962499 0.24929295 0.0077281105
0.11934337 0.1374299 -0.13921802 0.07230664 0.20623751 0.12663276 0.07849794 0.21562119
0.07779301 -0.026473137 0.064928435 -0.15685537 0.109029144 -0.07389623 -0.1556606 0.24183293
-0.18111646 -0.11470539 0.0003551681 0.026752308 0.23966846 -0.007545749 0.1972649 -0.1833188
-0.005183808 -0.3398445 0.14126003 -0.0017130241 0.034763847 0.2271166 -0.19984615 -0.15057795
0.15624702 0.263762 -0.17297955 0.048700184 0.2069581 -0.25619188 0.2430678 -0.15757516
-0.074361965 -0.061196648 0.28292605 0.0007742034 -0.15919349 -0.21368062 -0.13934973 0.23487781
0.27489188 0.26766843 0.18921755 0.06236529 0.022869103 -0.0013684961 0.25026774 -0.21806125
-0.33140036 0.14990062 -0.063607305 0.26064822 -0.04024033 0.13256736 0.094280735 0.14952633
0.32937044 0.16476324 0.18159708 -0.06545666 0.114015244 0.32180327 0.06587581 0.0818654
-0.24284543 -0.19010952 -0.17167689 -0.18535662 -0.27400878 0.14169037 -0.1255528 -0.021609612
0.248014 -0.18862471 0.06568875 0.08717555 -0.21820712 0.105818965 -0.04204326 0.13680652
-0.2069693 -0.009625916 -0.12883598 -0.138463 0.14062475 -0.0076272036 -0.07608609 0.14090371
-0.20850353 0.27454418 -0.0527964 0.17310756 -0.057206202 -0.092355 -0.033807818 0.011616553
-0.1440875 -0.0033187135 0.29865927 -0.06668027 -0.17162973 0.055920936 -0.30544615 -0.14354323
0.24765335 -0.2119823 0.11072804 -0.08811309 -0.1968313 0.13133289 -0.04277749 0.05594693
-0.03807283 0.15909295 -0.113107964 0.17501563 0.18401822 -0.06156706 0.18778661 -0.09385327

decoder.layers.0.bias f4 [32]
00000000: 6202 4a3e 3f47 983e f46a 5b3d 54cc 99bd
00000010: fcd6 9d3e 5a9d 26be e6c2 ba3d 8abd a3bd
00000020: 7aa5 4b3d fc71 28bd 857c 1b3e 8003 133e
00000030: 1a4f 2c3e 73df b43e 008d 8b3e 3031 4bbd
00000040: 505d 3d3d dcc3 053e 8714 8abe 2d6a a53e
00000050: 25a7 2c3e 1f34 a43b a519 703e a035 ccbd
00000060: ff53 a13e df74 9f3e 2b5e ba3e 64d9 4b3e
00000070: 1801 573e d7c9 c9bb a8fb 1dbe 6974 833d
0.19727471 0.29741856 0.053568795 -0.075096756 0.30828083 -0.16270962 0.09119205 -0.07995136
0.049718358 -0.04112433 0.15184219 0.14356804 0.1682705 0.35326728 0.27256012 -0.049607456
0.046231568 0.13062996 -0.26968786 0.32307568 0.16860636 0.005011096 0.23447283 -0.09971166
0.31509396 0.31143853 0.3639997 0.19907147 0.20996511 -0.0061580944 -0.1542803 0.06418688

decoder.layers.2.weight f4 [32, 32]
00000000: 876d 703e fc64 ef3c cf52 b93d 75f1 48be
00000010: c15d 0b3e 46c8 643d 249c 173d 4c0c c83d
00000020: c8b6 50be 759d 65bd abee c83d faa6 e03d
00000030: 6062 03be 9bb1 233e 5c26 263e 6637 953a
00000040: 6192 8cbc 3381 68bd 2b1e e9bd 7d4c 183e
00000050: fd4e b83d 11da 15bc d398 273e b90a 3b3d
00000060: 1753 2d3e 43ff e5bd 1adc 9d3d a0fb fc3d
00000070: c7aa 463e cfe2 0f3e 9b66 44bd 121d b73d
00000080: 98c2 183e c9b9 dabd 5186 9ebd fad6 0dbe
00000090: c15e da3d 4d48 8abd 37b4 e43d 70cc a93d
000000a0: 03b1 f1bc bc13 7dbd 6cea 59bc 5a86 af3d
000000b0: e827 49be 1fb9 8b3e 2666 a73e b975 3fbe
000000c0: 2e99 abbc a38d 18be 3c7c 9abb c770 ce3d
000000d0: cb52 c03d dea8 9abd 4463 db3d 4a37 11bc
000000e0: dd97 ae3e 8794 e23d 0776 bd3d 93b1 ba3d
000000f0: f482 0c3e d17d 373e 75b4 2ebe 50a5 c63d
00000100: c2b8 2e3e 4c4f 3e3e c4b6 cabc 3518 fcbd
00000110: 263a 4d3e c5ac ffbd 5bee 243d f0c5 b93d
00000120: 018b 9f3c f043 3e3e 5955 8b3e ab1a 8d3e
00000130: f38a aabc 1e41 743e f1a0 e83d 3b0b fbbd
00000140: 3ba8 2d3e 4be1 7d3e 6db0 e0bd 795c a23d
00000150: 3145 823c c534 5d3e df72 863e 43d2 0dbd
00000160: 5c26 c83d 8371 15bd 9a3f 8f3e be52 113d
00000170: ba4a 073e bda2 e0bb 6488 b2bd d419 72bd
00000180: 0c6d 673d 42ae 57be ca9c e9bd 7a46 203e
00000190: 1913 153e c6c4 a23d fb20 29bc 3a5d ee3d
000001a0: 9878 f03d 15fd bd3d 8ce9 0d3e 0558 113d
000001b0: 78c3 483c deca dd3d f3af 2c3d 90a1 c6bd
000001c0: aa87 e9bd cf7c 9d3e b7bf 76bd d834 1dbe
000001d0: 61fd 8c3c 5f12 d2bd 1323 f33d 708a 243d
000001e0: 1509 513e 45c7 483e 10c2 893d 27ae 703e
000001f0: 75ae ddbd 543c 9f3d 7203 0d3e 6e9b eebc
00000200: 53a3 d63d 3ea3 d8bd 75e7 4b3e 1c9b 0e3d
00000210: 381a dbbd 58d6 a93c 5971 313d f5cf 883d
00000220: 02bd f33d ff43 49bd b5ab 343e 720b 2a3e
00000230: 38b8 f63d cf65 073e fe86 30bc 9a1b 8c3d
00000240: 9a14 efbd 555e 0d3e 3e1a 093d 00f8 8bbd
00000250: 3cbd d2bd 59a9 133e f2b4 82bd 9cb1 5dbd
00000260: 5383 fe3d 8576 783e 5f1e 1e3e 55a7 883e
00000270: 19c0 82be 49f5 e43d 179c cc3d 9328 13be
00000280: bc3d 813e b3d2 313e 9dd1 9e3d dfc1 f3bb
00000290: 60a1 463e 5d83 0dbd 6991 40bd 07ee 7c3d
000002a0: 09e8 0cbe 86ee 113c dfc0 833d a64b a73d
000002b0: b6e7 503d fa65 673d 13ca 7b3e f99e 21be
000002c0: 3b0d 5d3d baa5 29bd 3ea5 71bd bcfa 3a3b
000002d0: c0af 183e 6d11 3e3e 5116 c53d b759 003e
000002e0: c279 af3d f4f6 733d 3e55 3c3e 2b67 08bd
000002f0: f3d5 eb3c 807a 42bd 9bda 9f3d a1ca 1d3d
00000300: 694d bc3d 6265 063e f5d9 31bd 2495 bd3d
00000310: 09ad 2f3b f1f0 5b3d a989 7ebd 3052 bebd
00000320: 9b3f 9c3c e60b bb3d 4b53 88bc 05a3 2c3e
00000330: 5034 773e 3da3 20be c6cb d03c 0a61 5f3e
00000340: 58bf b63d e1c6 033e 07ce dc3d 06ab 9bbc
00000350: c7e2 743e c5b4 8a3d 8288 a73d 410a f33d
00000360: 35de 2ebe 99fb 103e 5b5e dfbd 14c2 d63c
00000370: a351 55bd 7c09 c5bd 1544 893d 8fe8 423e
00000380: dcc0 573d a330 a53d dc53 38bd 7b00 143e
00000390: de7d 27be d11f 87bd 798d 093e 2fc6 a53a
000003a0: d17f a53c 19dd 183e 8d30 3cbc aa36 563d
000003b0: 219e 77bc 4535 553d 7544 44bb cac9 c53c
000003c0: 0886 8dbd 5c97 513e 6a27 b43d b591 9c3d
000003d0: 1d32 3cbe 60b7 f03c 3bf0 afbd 489e 953c
000003e0: a703 bd3d dcbb 823e 9894 8dbd 4ab2 fa3d
000003f0: 2247 13be 8eca 173e 94d9 ffbd 4365 fbbd
0.23479281 0.029222958 0.090489976 -0.19623359 0.13609983 0.055855058 0.03701414 0.097679704
-0.20382226 -0.056058366 0.09811147 0.10969348 -0.12830496 0.1598572 0.1622557 0.0011384308
-0.017159643 -0.05676384 -0.11382707 0.14872928 0.08999441 -0.009146229 0.16366892 0.045664523
0.16926228 -0.11230328 0.07707997 0.12352681 0.19401084 0.14051364 -0.047949415 0.089410916
0.14917982 -0.10679967 -0.077404626 -0.13851538 0.10662604 -0.067520715 0.11167186 0.082909465
-0.029503351 -0.0617864 -0.013300519 0.085705474 -0.1964413 0.27289674 0.3269512 -0.18697251
-0.020947065 -0.1489778 -0.004714517 0.10080104 0.093907915 -0.0755174 0.10712293 -0.00886328
0.34100237 0.110634856 0.092510276 0.09115901 0.1372183 0.17919089 -0.17061026 0.096994996
0.17062667 0.18584937 -0.024745353 -0.123093046 0.20041713 -0.12484125 0.040266376 0.09070957
0.019475462 0.18580604 0.27213553 0.2755941 -0.02081821 0.23852965 0.11358822 -0.122580014
0.16958706 0.24792974 -0.109711505 0.07927794 0.015902134 0.21602161 0.26259515 -0.03462435
0.097729415 -0.036485206 0.27978212 0.0354793 0.132121 -0.0068553374 -0.08717421 -0.059106663
0.05650048 -0.21062568 -0.11406858 0.15651885 0.14558066 0.07947688 -0.010322805 0.11638875
0.117417514 0.09276787 0.13858622 0.035484333 0.012253635 0.108297095 0.042159986 -0.09698784
-0.11402829 0.30759284 -0.060241427 -0.1535219 0.017210664 -0.1025741 0.11871924 0.040171087
0.20413621 0.19607265 0.067264676 0.23503934 -0.10824291 0.077751786 0.13770846 -0.029126849
0.104803704 -0.10578011 0.19912513 0.034815893 -0.1069836 0.02073209 0.043320987 0.0668029
0.11901285 -0.04913711 0.17643626 0.16605929 0.12046856 0.1322243 -0.010774372 0.06841202
-0.11673851 0.13805516 0.033472292 -0.068344116 -0.1029 0.1442007 -0.06382169 -0.05412446
0.12427392 0.24263962 0.15441273 0.26690164 -0.25537184 0.11179597 0.09990709 -0.14370947
0.25242412 0.17365532 0.07754824 -0.0074388827 0.19397497 -0.034549106 -0.047013674 0.061750438
-0.1376039 0.008906966 0.064332716 0.08168726 0.051002227 0.056493737 0.24588804 -0.157833
0.053967696 -0.041417815 -0.058995478 0.0028530797 0.14910793 0.18561335 0.09623397 0.12534223
0.08568145 0.059561685 0.18391892 -0.033301514 0.028788542 -0.047480106 0.078053676 0.03852332
0.09194452 0.13124612 -0.04342075 0.09256962 0.0026806018 0.053696577 -0.062143 -0.0929302
0.019073298 0.09133129 -0.01664128 0.16859062 0.2414105 -0.1568727 0.025487792 0.21814361
0.08923215 0.12868835 0.10781484 -0.019002449 0.23914634 0.0677276 0.08180334 0.1186719
-0.17076953 0.14158477 -0.10906669 0.02621559 -0.052079808 -0.096209496 0.06702439 0.19034027
0.05267416 0.08065917 -0.04500185 0.14453308 -0.16356608 -0.065978654 0.13432874 0.0012647564
0.02020255 0.14928092 -0.011486185 0.052298225 -0.015113384 0.052052755 -0.002994803 0.024144072
-0.0691033 0.20467895 0.0879658 0.07644979 -0.18378492 0.029384315 -0.08590742 0.018263951
0.09229212 0.2553395 -0.06913108 0.12241037 -0.14382604 0.14823362 -0.124926716 -0.122751735

decoder.layers.2.bias f4 [32]
00000000: 9409 b43e 627a 6b3e a06a 0f3e 630f c0bc
00000010: 1ac3 d3bd 3053 593e 9e3a 1b3d b8b6 8fbb
00000020: 3c97 f43c 1e4d 893d 070d 723e 90f8 943e
00000030: fbb7 953e c013 e13d 7372 1dbd 9015 8ebd
00000040: f6d7 d3bc 29b3 d43d 4494 31bd 8307 713e
00000050: d74b cc3d 3d8c af3c 5280 903e 38e7 333d
00000060: c79b 803d 56d7 8c3d dd3d 0cbe e3cf 0abe
00000070: 022b eebd 8e5d 803e 4fa4 a9bd eeac 03be
0.35163558 0.22995904 0.14005518 -0.023444837 -0.10339947 0.2122314 0.0378977 -0.0043857954
0.02985727 0.06704162 0.23637782 0.29095888 0.29241928 0.10990095 -0.038439225 -0.069377065
-0.025859814 0.103857346 -0.043354288 0.23538022 0.09975403 0.021429176 0.282229 0.04392168
0.06279712 0.068770096 -0.13695474 -0.13555865 -0.11629297 0.25071377 -0.082832925 -0.12858936

decoder.layers.4.weight f4 [24, 32]
00000000: 8422 d7bb c75f 073e e783 2a3d 6938 0cbe
00000010: c280 2a3d 0b28 023d f146 85bd fad8 60bc
00000020: 02cb 813d ae58 58bd 9da3 9a3d 6fd1 50bc
00000030: e202 4abd f67b bf3b 6140 ff3b 7703 dd3d
00000040: 65af 3cbc f6cd a53d 8565 353d aa3f 87bd
00000050: 08a3 88bd 9070 063d 5471 7a3c 71e2 3dbc
00000060: c02e a93d fd17 803d ed58 1bbd 9e0a f2bd
00000070: e468 893c 6716 0bbd a41f dfbc 2187 36bd
00000080: eec2 16bc ff7c 75bd 1b18 a03d 343d f23d
00000090: 7cbd a4bd 6f54 053d d9ba bfbd 2adf af3d
000000a0: 7462 2f3d c53f 913b feb3 02be d6b5 51bd
000000b0: 8430 b33d 0360 c33b 7eee e1bc 7c11 083c
000000c0: 28f4 d33d 22cb 8bbd 6f77 4e3b cca3 d13d
000000d0: 726d 923c dcfe c9bc 7448 c93d 2dab c8bd
000000e0: 8dce 15bb 8f61 ecbc fc2c 023d daf1 1f3a
000000f0: 96da 9e3b 38ea 97bd cc88 bdbd 43d8 223d
00000100: 4d90 1c3e 187c dbbc 44fb 98bb 01e3 debd
00000110: cde4 3b3d 30db b73d ffce febd e83c ba3c
00000120: 89de 8dbd 7405 833d 2672 12be c6bd eabd
00000130: 5801 923d 4d5f 8bbd 2376 503c c1af 0fbd
00000140: 762f 153d 3c58 5a3c 21aa ab3d 626b fc3d
00000150: 9b99 713d 4c9f 39bd 046d 1dbe eeb7 a03d
00000160: 9399 413d 6591 e6bd c500 153d b826 6c3d
00000170: ed5c a6bc af37 edbd 5e30 bbba 0a53 04bd
00000180: b5a6 693d ed2d 3fbd f36d b9bd ef2d 96bd
00000190: cc87 0c3c 1084 92bc 0cd9 7ebd 0500 fdbc
000001a0: 0e7a a5bc 16b5 dfbd fda7 ef3d 3722 c53d
000001b0: c8af 45bd ada1 6ebd 7f26 013e 8c4c 7e3d
000001c0: 5a26 edbc 5027 0a3d 6649 b33c 3fbb c2bd
000001d0: 5393 723d a098 1a3c 1a70 983d 3491 5bbc
000001e0: 3c94 14bd e407 4bbd ecf5 c9bb 0580 823c
000001f0: 87b7 a93b a13c c6bd 70ad 653d 4bb4 9f3d
00000200: e328 083d e56b be3d d437 e83d 371b babd
00000210: 35c3 a23d dfd8 5cbd e0a9 d7bb b101 983c
00000220: 1e93 843d 895d 7fbc 7ac8 a7bc 971b e63d
00000230: 7fe5 c6bd 0842 823c b64c 5abc f30e 953d
00000240: 992f a83d c82f 25bd 2a1e 99bd ff59 adbd
00000250: c1d5 acbd 53bd 093a 5d12 0cbe 4dc6 c9bb
00000260: a6f7 183d 4239 2dbd 0d6a 0c3d 2eb6 a2bd
00000270: cf77 0a3d 604f 433b 92ab 763c 4a12 643b
00000280: 5681 123e 7de7 e53c 4d01 b7bc f17e a13d
00000290: 6609 86bd e119 72bc 771b 833d 8e49 813d
000002a0: 4bc1 563d 2852 123d 1c42 8a3c fc2d e2bd
000002b0: db1d cabd d1d5 6b3d d389 7dbc c6f6 013d
000002c0: a421 15bd 1b39 7a3d c6a5 9abc 4e85 59bb
000002d0: 6c53 8f3c a8c0 e9bc 39bf 723d 9f09 8bbd
000002e0: 37f1 fdbc 5c34 9539 83ba 6e3d a9ef 67bd
000002f0: 7b22 dc3c 9208 863c b0d1 fa3b d908 723d
00000300: b130 acbd e11e b93d b2dc 983d 5db0 8e3c
00000310: aae6 ec3c ce74 0abe 2953 de3c 0616 163e
00000320: 32a1 9bbb e341 0a3e 83fb 75bb 564c 11be
00000330: d4d6 193e 8163 30bd 0c5f 06be 3722 1e3d
00000340: a93c 9e3d f347 103d f467 23bd 5c8d ff3d
00000350: 60c5 adbc 2cea 1bbd 942d ad3d 2d5a e73d
00000360: 62c5 3e3d b92e e73d 0cff 5e3d 0289 0abe
00000370: 234a 33bd bcb1 05bd 4efb 52be e079 e5bd
00000380: 87ae acbd 732e e53d fec8 8f3c 74d1 54bd
00000390: 3a06 8fbc 1712 0cbd 886c 693d 19f1 093d
000003a0: f5f3 d93d dbd9 ba3d fd26 68bd fa64 c5bd
000003b0: 230a 8fbd fe89 b0bd ba82 0cbc 08d7 083d
000003c0: d198 783d 50f3 0ebe b7e5 07be 3aa5 a83a
000003d0: f0c2 8a3d b06c 8fbc f65c a3bd b970 1a3d
000003e0: 57f6 9abd 3a56 0ebe 4b6a 9d3d d671 723c
000003f0: 97e6 1c3d a821 083e f6a2 be3d 5085 19bd
-0.006565394 0.1322013 0.041629698 -0.13693394 0.0416267 0.03177647 -0.065076716 -0.013723606
0.06337549 -0.052818947 0.07550738 -0.012745245 -0.049319156 0.0058436347 0.007789657 0.107916765
-0.011516427 0.080959246 0.04428627 -0.0660394 -0.06671721 0.03282219 0.015285809 -0.011589632
0.0826087 0.062545754 -0.037926603 -0.11818431 0.016773649 -0.03395691 -0.027236767 -0.044562463
-0.009201748 -0.05993366 0.07817098 0.1182808 -0.08043954 0.032551225 -0.0936181 0.08587487
0.0428185 0.0044326507 -0.12763974 -0.051198803 0.08749488 0.005962373 -0.027579542 0.00830495
0.103493035 -0.06825854 0.0031504293 0.1023632 0.017874453 -0.02465766 0.098282725 -0.09798274
-0.002285871 -0.028855113 0.03178118 0.00061014073 0.004847835 -0.074177206 -0.092546076 0.039757024
0.15289421 -0.026792571 -0.004668625 -0.10883141 0.0458725 0.089773536 -0.12441825 0.02273412
-0.06927211 0.063975245 -0.14301357 -0.11461978 0.071291625 -0.068052866 0.0127234785 -0.03507972
0.036422215 0.013326701 0.08382059 0.12325169 0.05898438 -0.045317933 -0.15373617 0.07847582
0.0472656 -0.112582006 0.036377687 0.057654113 -0.020307982 -0.115828864 -0.0014281382 -0.032305755
0.05704375 -0.046674658 -0.09054174 -0.0733298 0.008577298 -0.017885238 -0.06221871 -0.030883798
-0.020199802 -0.10923211 0.11701963 0.096256666 -0.04826334 -0.058259655 0.12612341 0.06208472
-0.028948952 0.033728898 0.021885585 -0.095083706 0.05922253 0.009435803 0.07443257 -0.013401318
-0.03627418 -0.049568072 -0.0061633494 0.015930185 0.005179349 -0.09679533 0.056073606 0.0779806
0.033242118 0.09297923 0.11338773 -0.09087222 0.07947389 -0.053917762 -0.00658153 0.018555494
0.06473373 -0.015586265 -0.020481337 0.11235731 -0.09711742 0.015900627 -0.013323953 0.07278242
0.082122035 -0.04032877 -0.074764565 -0.08464431 -0.08439208 0.0005254347 -0.1367888 -0.0061576725
0.03734555 -0.042290933 0.034280825 -0.07944904 0.033805665 0.002980195 0.015055554 0.003480094
0.1430715 0.028064484 -0.022339487 0.0788554 -0.06544761 -0.014776678 0.06401723 0.063128576
0.052430432 0.03572288 0.016877227 -0.11043927 -0.09868976 0.057576958 -0.015474754 0.031729482
-0.036409035 0.061089616 -0.018877875 -0.0033191028 0.017495833 -0.028534248 0.059264395 -0.067889445
-0.03099881 0.00028458505 0.05828334 -0.056625042 0.02687191 0.016361509 0.007654391 0.05909047
-0.08407725 0.09039093 0.07463969 0.017418081 0.028918583 -0.1352112 0.027139263 0.14656839
-0.0047494406 0.13501696 -0.0037533946 -0.14189276 0.15023357 -0.043063644 -0.13122195 0.03860685
0.07726414 0.035224866 -0.03989406 0.12478134 -0.02121228 -0.03806512 0.08455959 0.112964965
0.046574958 0.112882085 0.05444245 -0.13528827 -0.043771874 -0.032640204 -0.20603678 -0.112048864
-0.08431726 0.111905 0.017551895 -0.051957563 -0.017459024 -0.03419694 0.05698827 0.033677194
0.10642234 0.09123584 -0.056677807 -0.096384004 -0.06984355 -0.0862007 -0.0085760895 0.033408195
0.060692612 -0.13960004 -0.13271223 0.0012866624 0.067754626 -0.01750788 -0.07976715 0.037705157
-0.07566517 -0.1390008 0.076862894 0.014797648 0.038305845 0.13294089 0.09308426 -0.037480652

decoder.layers.4.bias f4 [24]
00000000: 3ec3 3cbd 06a3 24bb dd67 083e 07e9 a13d
00000010: 993e 2dbc d3d9 12bd 0da1 99bd 6a07 003e
00000020: 207b 343e caf7 b23d 0c82 2a3d 902f b1bc
00000030: 04a6 713d fb1e 163e 010b 30bd 1a63 d0bd
00000040: dd85 c4bd 8e5c b1bd 7343 403b 0043 6fbe
00000050: 7c69 f13c 45d1 fcbd 5823 72bd 5a52 20bd
-0.046084635 -0.0025121584 0.1332087 0.079057746 -0.0105740065 -0.035852265 -0.07501421 0.12502828
0.17625093 0.08738668 0.04162793 -0.021629125 0.058996215 0.14660256 -0.042979244 -0.10175152
-0.09595845 -0.086602315 0.0029337078 -0.23365402 0.029469244 -0.123446025 -0.059115738 -0.039141037

prior_network.layers.0.weight f4 [32, 12]
00000000: 73bb 4dbc 3960 c13d 9f00 8a3d 3912 83bd
00000010: 9a6a bc3d 2ddd 2d3e 5a6e 18be 3829 8b3c
00000020: 33e0 983d 51f3 fc3c e480 313d 3749 bbbc
00000030: 3eda ce3d aad1 8ebd 9c24 cf3c f015 77bd
00000040: 8ee0 d3bc 7877 f13c be4e 703c 6578 143e
00000050: c617 393e 7e88 4a3e 5848 613e 20f4 36be
00000060: 4c33 0dbd a518 a6bd 5374 083d 0542 2ebc
00000070: 8afc 883c f63d e5bd 6a67 50be 1ef3 c7bd
00000080: 9299 543d 2f34 a5bd 84dc a6bd 02b9 49bd
00000090: 8898 933d 0305 bb3b 77a4 a2be bd58 a1be
000000a0: 2b0e f6bc 9f07 863c ddce 51bc e4f9 3bbd
000000b0: 4ab1 bf3d 607e 073c 2857 febc 95b5 efbc
000000c0: 5513 cf3d c2b1 213d 5992 4d3e e88a b73e
000000d0: a514 1abe 60f7 193c 3e95 ea3d 3b9a b5bd
000000e0: c844 123e 2f75 1d3e 2ea7 d03d 013f 13be
000000f0: 95ad 95bd 8f51 933d 4d38 633e 3989 5e3c
00000100: 1107 4d3d 3b37 27bd 5604 383d 962c 3a3e
00000110: ff7d de3d 49a2 973d 5a31 453d 30b2 5b3c
00000120: 8596 7a3e f4d0 0abb c669 e1be fcdd 8a3e
00000130: e8e1 1ebd 338d 81bd eba2 c0bd 3bbf 11be
00000140: 751e 3f3e 5dde 0a3e d4b7 f3bd 9c0f f0bd
00000150: 8181 473c 6be8 603c f97e d8bd 1d44 babc
00000160: 01e9 10bd 29ab d33c eda6 8cbd d5b2 80ba
00000170: d13c 9dbd 164c ac3b 022b 823c a3f8 1d3e
00000180: 0ddc 3bbd 8396 12be 6f01 03bd 1876 bfbd
00000190: d6f6 3cbe 41b3 c0bc b18b 433d f8d5 abbc
000001a0: d0f9 d63d a4b8 ec3d 5010 413d e9fd c7bc
000001b0: 09a2 c7bc 405c 02be af9c 3c3e 4d1b a2bd
000001c0: f37b b2bd 3628 8e3e b4f3 f63d b686 003e
000001d0: f680 413e 3a8c 9cbd 299e d4bd e9c7 963d
000001e0: b9b3 b13d 6bc4 be3d bdec 83be ac53 46be
000001f0: 38b0 ca3d d1d3 86be 2d30 8b3d 37d1 54bd
00000200: 6398 1abd d15e c2bc 3ec0 b9bc d601 e4bd
00000210: acf1 c3bd a2b8 bebd ffe7 163e 3d0f a3be
00000220: 43ce 84bd 35df 2e3e c68d c53d c361 0e3d
00000230: a3f9 7e3d 366c 53bd 67e2 cc3c 8c3c 4d3d
00000240: c963 0dbe c0fd 263d 702a 06be 7052 9dbd
00000250: 0f59 063e 121b 013e e283 aabd 0870 be3c
00000260: dadf 153e 1c7f 22bd ff85 a2bd 7a39 6fbd
00000270: e46c 69bc 2fd4 bcba 12c3 d7be 9ea0 613e
00000280: 590b dbbd 15dc 283e 84ed 03bd 9667 9e3d
00000290: 4462 66bd 97f2 c0bd 8d93 3c3d cfd5 883c
000002a0: c209 963d 31e5 edbb b1b7 973e 5792 d73e
000002b0: 3cbb 4b3d f5b1 40bd df40 94bd 388a ac3e
000002c0: 19a6 5cbd 723e 85bd d637 35be c9fa 9d3c
000002d0: d908 113e 4d70 29be db21 6cbe a7cf d3bd
000002e0: ad45 afbb a512 443e b8d5 783d 51fc dbbd
000002f0: 8d3f f93d 7aa5 9dbe 245c 4a3d 85e6 693d
00000300: 36a6 143e 71ca 193d ba45 fd3d fcad f2bc
00000310: 94e7 42bd 4e9b 0ebe 0ea3 e73d 65fe 173e
00000320: 6e16 65bd 7317 37be a250 9cbc 0d39 c93c
00000330: 95a7 053e d445 7b39 538d 47bd cf57 413d
00000340: 94f4 e8bd 8277 2d3e 4093 e33d b90c 19be
00000350: 2286 20be 6ffc 93be 3375 32bd e46b 05bd
00000360: 3ec1 bd3d 72ef 8ebc a0c6 e73d 4013 d4bc
00000370: d75d 143e ac3b f9bd dbf1 c0bd 5e03 a93d
00000380: 895f c83d c65d 1d3e 164d db3b be60 27be
00000390: 8b13 dc3d d40b 733c 7bfd c9be 60e5 aebe
000003a0: fd96 8fbd 0bc0 bc3d f154 a73c abca a83d
000003b0: 8fe7 aabd 2a7c 62be 6111 803e bed0 903b
000003c0: 7890 fe3b a41a 05bd 4863 9b3e a7fa 3cbe
000003d0: f0f4 8b3d d508 8a3d ee65 e93d 6566 d6bd
000003e0: ad32 203d fd5b b7bd 4215 833d 0f78 c43c
000003f0: 739f 9b3d ffdf d83c 99a1 a4bd 727a ca3b
-0.012556898 0.09442181 0.067384 -0.0639996 0.0920002 0.16978903 -0.14885846 0.016987428
0.074646376 0.030877741 0.04333581 -0.02286206 0.1010022 -0.06973584 0.025286011 -0.060323656
-0.025863912 0.029475912 0.014667211 0.14499052 0.18075475 0.1977863 0.22000253 -0.17866564
-0.03447275 -0.08110169 0.03331406 -0.0106358575 0.016721983 -0.11193459 -0.2035195 -0.09763168
0.05190427 -0.08066594 -0.08147529 -0.049248703 0.072068274 0.0057073846 -0.31766102 -0.31513014
-0.030036053 0.016361056 -0.012805668 -0.04589261 0.09359987 0.008269876 -0.031047419 -0.02926139
0.10111109 0.039476164 0.20075358 0.35848165 -0.15046938 0.009397358 0.11454247 -0.08867308
0.1428405 0.15376733 0.10188137 -0.14379503 -0.07308499 0.071932904 0.22189446 0.013582521
0.050055567 -0.040824156 0.04492601 0.1818107 0.108638756 0.07404 0.04814277 0.013409182
0.24471481 -0.0021181675 -0.4402601 0.27122486 -0.03878966 -0.0632576 -0.09406074 -0.14233105
0.18663962 0.13561387 -0.11900297 -0.11721727 0.012176872 0.013727288 -0.10571093 -0.022737557
-0.03537846 0.025838451 -0.06867776 -0.0009818921 -0.076776154 0.0052580936 0.015889648 0.15426879
-0.045864154 -0.14315228 -0.03198379 -0.093486965 -0.18453535 -0.023522975 0.047740642 -0.020976052
0.10496867 0.11558655 0.047134697 -0.024413066 -0.024369257 -0.12730503 0.18419145 -0.079153635
-0.08715048 0.27765054 0.120582014 0.12551388 0.18896851 -0.076439336 -0.10381729 0.073623486
0.086768575 0.093148075 -0.25766554 -0.19367856 0.09896892 -0.26333478 0.06796298 -0.051957335
-0.037742984 -0.023726853 -0.022674676 -0.11133163 -0.095675796 -0.0931256 0.14736937 -0.31847563
-0.06484654 0.17077334 0.09646182 0.0347612 0.06224979 -0.05161687 0.0250103 0.05010657
-0.13807596 0.04076934 -0.13102126 -0.07681739 0.1311991 0.12607983 -0.08325936 0.02324678
0.14636174 -0.039672002 -0.07935714 -0.058404423 -0.014247153 -0.0014406497 -0.42141014 0.22033927
-0.10695524 0.16490205 -0.032208934 0.07734601 -0.056246057 -0.0942127 0.046039153 0.016703514
0.0732608 -0.0072599878 0.29632333 0.42103836 0.049739107 -0.047044713 -0.07238936 0.33699203
-0.05386934 -0.06506051 -0.17697081 0.019284623 0.14163531 -0.16546746 -0.2305979 -0.10342341
-0.005348882 0.19147737 0.060750693 -0.10741485 0.121703245 -0.3079031 0.04940428 0.057104606
0.1451653 0.03754658 0.12366815 -0.029623978 -0.04758413 -0.13926432 0.11310397 0.14843138
-0.055929594 -0.17880039 -0.019081417 0.024563337 0.13052209 0.00023963238 -0.04871876 0.04720288
-0.113747746 0.1694012 0.1111207 -0.1494626 -0.15676168 -0.2890353 -0.0435688 -0.032573596
0.09265374 -0.01744816 0.113171816 -0.025888085 0.14488922 -0.12169585 -0.0942113 0.08252595
0.09783847 0.15367803 0.006692539 -0.16345498 0.10745915 0.014834363 -0.39451203 -0.34159374
-0.070112206 0.09216317 0.020426245 0.08241781 -0.083449475 -0.22117677 0.2501326 0.0044194153
0.007768687 -0.03249611 0.30349183 -0.18454991 0.068338275 0.06739966 0.11396395 -0.10468749
0.03911083 -0.08953092 0.06400539 0.02398303 0.07598772 0.026473997 -0.08038635 0.0061791474

prior_network.layers.0.bias f4 [32]
00000000: abf6 a73d f748 673e bfef f43d f901 3fbc
00000010: 809c 0fbe 6664 c4bd 81c4 13bd 7365 dc3e
00000020: 8da5 183e 5c82 5cbe fc68 85bd b558 03be
00000030: 320b aa3e 188f 89bc 496c bbbc 853b a0bc
00000040: 79db 4b3e 0260 cc3d 3a80 3cbd 86c4 28bd
00000050: 6cc0 9c3d f532 313e 9823 be3d 807f 9e3e
00000060: 3a4c 3d3e 4025 56be 303f 05be fb35 11be
00000070: 14c9 a83e 812c 80bd d95e 1dbe f34f a63d
0.08201345 0.22586428 0.119597904 -0.011658185 -0.14024544 -0.09589462 -0.036076073 0.4304615
0.14906903 -0.21534103 -0.06514165 -0.12826808 0.33211666 -0.016791865 -0.022878783 -0.019559631
0.19907941 0.099792495 -0.046020724 -0.041203044 0.07653889 0.17304595 0.09284133 0.3095665
0.1848611 -0.20912647 -0.13012385 -0.14180748 0.3296591 -0.062584884 -0.15368213 0.08120718
