m4_ws/src/morphing_lander/learned_models/2024-05-21_16-56-45/model_170.pth (torch, 33928 bytes, 22 tensors)

cond_normalizer.mean f4 [12]
00000000: 19d0 efbe b23c 0ebc fe72 e9b9 5476 733a
00000010: 2e18 ec3c b3c6 0b3c 3784 d4bb ed51 0c3f
00000020: 7bb5 0f3f 0c7a 0c3f 936b 0f3f 991a 1b42
-0.46838453 -0.008681463 -0.000445269 0.00092873466 0.028820124 0.00853126 -0.006485488 0.5481251
0.5613629 0.5487373 0.5602352 38.775974

cond_normalizer.variance f4 [12]
00000000: 49f9 023e 6f71 ac3a f51a ac3a d60a ab3a
00000010: a3e5 923d 69c9 663d da5f e03d 1dbe ba3c
00000020: 41ce be3c ff09 bb3c 716c c13c 6068 9043
0.12790407 0.0013156364 0.0013130592 0.0013049494 0.07172706 0.056344423 0.10955782 0.022795731
0.023291709 0.022831915 0.02361128 288.81543

output_normalizer.mean f4 [12]
00000000: bec7 4cbb 6dd3 e6ba 6f8f 683c 9af2 4738
00000010: a091 253b 26cf 483a bec5 413c 5b76 9a3a
00000020: cd74 2a40 9f82 9d3d 44d2 e63e a18c 92b9
-0.0031246985 -0.0017610617 0.0141943535 4.7671238e-05 0.0025263801 0.0007660262 0.011826931 0.001178454
2.663379 0.076909296 0.45082295 -0.00027952067

output_normalizer.variance f4 [12]
00000000: 1346 1b3e 9630 a93d 906c 0e3d 38c6 e238
00000010: ff0f af3b 413d a73c ad63 833e 590b 0740
00000020: 6a5a 8f42 6858 2d43 7eae d140 c04e c53e
0.1516345 0.0826122 0.034771502 0.00010813441 0.005342483 0.02041495 0.25661984 2.1100676
71.67659 173.34534 6.5525503 0.38536644

encoder.layers.0.weight f4 [32, 24]
00000000: 6133 edba e00a a83a fe07 5abc 584d 15be
00000010: bfe3 58be 18cd 983e 92c5 f83c 9cad ffbe
00000020: cfda 78bb 0073 99be 4927 bb3c 6d4b d8bd
00000030: 864a c73b dee7 0e3a 5d01 2b3d 66f7 653e
00000040: 4523 b5bb fec7 f7bb 38c0 3c39 c5a2 053d
00000050: e49e 183d 380f b6bb 9365 67bd 6a76 ecba
00000060: 459b d43d 7143 893c f10c 223e 1967 883d
00000070: 9ee6 28bd 02fe b1bc 5ad0 17be 7d04 e83d
00000080: 8db3 6f3e aaca fd3d 9f3c 193d edf0 ddbc
00000090: 1da9 183e b75a 62bd e1c9 dabd 5a67 acbd
000000a0: 1825 16bd 2004 cabd 975a 3dbe a55e 663d
000000b0: b41a e3bd 052c f23d fa63 a9bd 2072 ba3d
000000c0: 004f ca3b fea5 a43c 94fc 33bb cbd2 abbe
000000d0: e6c9 0d3d dec0 97be 4ed2 03be e983 223e
000000e0: c50a 08bd d3ef 06be 336b fbbd f28e 2fbe
000000f0: 4ea9 c53b 9dcc 40bb 2add a2bd b036 84be
00000100: cbfc 0fbb 5669 a53c edde dbbb c138 b9bd
00000110: a14e 96bb cf09 bb3d dca4 c03c c48d 023b
00000120: 2ce7 c63b 63e9 56bc 5fde 1e3d e5fa 8dbb
00000130: a8cc dfbc 03f4 8b3e df48 82be 36b5 463e
00000140: 0f02 e83d ada0 23be 99d6 213d 6465 d9bc
00000150: 60a2 86bd b34d 4a3d 78ee 383e 04cd 60be
00000160: 977d b1bc 63ea 25bc ebd1 963d f388 fc3d
00000170: fba6 bb3d b634 083d 5a9b 4a3d 1fa5 20bd
00000180: a2f5 23bb 76f0 f63b cf18 42bd a8f2 60be
00000190: 4df3 80be f45a 813e 0702 95be 25c1 363e
000001a0: b8f5 b7bc 02d8 f9bd cb4d ad3d 2a01 9bbe
000001b0: 7ca9 b33d 34ae 633c c7e2 7c3d bd1d e43d
000001c0: 041f da3c 28d2 d6bb dfdd 97bd bbe2 f3bd
000001d0: 993a 8dbd 8b7d 053e b11e a03d 8920 403d
000001e0: e11d 12bb c17a 37bb d550 1e3c e8ef 013c
000001f0: 7549 30be 6879 67be 98fa 84bd e041 23be
00000200: 05c3 c73c ab61 703d 6272 613e f2dc 89be
00000210: 45c5 383d 6eb2 753c 9eff 8abe d107 adbd
00000220: 6ab5 8cbc 75ca 043d 2cea 57bc 9d7e c13d
00000230: 2f70 a1bd 3c03 fdbd f868 d23d 4bfa 02bd
00000240: 988a 923d 9e05 49bd 9f26 3dbe ab37 ad3b
00000250: 331d 90bd 6756 9bbd 6c0c d93c 2598 993b
00000260: a03f edbd 10b7 a33c b9dc 813c 70ce bdbc
00000270: 08a6 703c 1e13 4f3e dcf5 2eba 531d b83c
00000280: 09de 0e3e 7b2e f0bd d743 0bbe 7a94 1a3e
00000290: 0df3 863c 2067 013e af46 693d c9a9 d9bb
000002a0: 2522 bdbd 6ae9 1b3d 3551 e23d 872f 1f3d
000002b0: 0d29 a73c 82e2 873d 496c 12bd 0382 853c
000002c0: b2e0 eabd c9aa 233c 380a 823d 0dd9 acbb
000002d0: 5599 8b3d 15d0 96bd ebbb 573d 8e29 cabc
000002e0: 2d9f 113e 5225 d03d c47e d1bd 9eae c53d
000002f0: bf24 e0bd 69d5 9b3d 4c27 533b 4873 a3bd
00000300: 8785 acbb 74e9 a73b af42 bcbc 52e3 4f3e
00000310: d5b2 9e3e 8333 ba3e 6228 a8be a8dc 74bb
00000320: 1adf 6bbc 6513 8c3e ec38 1ebe cab0 2a3b
00000330: ec9e 4e3d e65d 0d3c a761 54bd 0244 e4bc
00000340: bea9 a33c d2e3 33bb 4994 22bc de47 6fbd
00000350: 81a8 373d 4df5 1c3e 277c cdbd fba7 1cbd
00000360: e2f5 67bc fa46 f9bb 2b85 2fbc 2021 9e3d
00000370: 191f 32be 693b 02be e0e4 133e 657b 9a3e
00000380: e757 beba 805d f3bd 9861 a43c 4c2c e43c
00000390: 830c 57bd b130 23bd 4c12 2e3d db93 163e
000003a0: ed83 de3d 75c7 64be ec58 a53c 34f5 c33d
000003b0: 9c2c b9bd fdfa 253c 40c0 c8bb ae44 babb
000003c0: c9f1 4b3a e725 7ebb bf16 a3b9 6d2e 71be
000003d0: 811e ccbd 2fcc 063f 5a2a 6cbc ef7f 183e
000003e0: 2a0f acbd a430 c13d 0716 76be 5710 663e
000003f0: 5545 143d aecb 89bc 8461 cd3c 9c67 2fbe
-0.0018096977 0.0012820624 -0.01330757 -0.14580286 -0.21180628 0.29843974 0.030367646 -0.4993714
-0.0037972217 -0.2997055 0.022845881 -0.10561261 0.006081882 0.0005451421 0.041749347 0.22457656
-0.005527886 -0.0075616827 0.00018000684 0.032625932 0.037260905 -0.0055560134 -0.056493353 -0.0018040661
0.10381178 0.016755791 0.15825249 0.06660289 -0.04123556 -0.021727566 -0.14825574 0.11328981
0.23408337 0.12392171 0.03741133 -0.027092421 0.14908262 -0.055262294 -0.106830366 -0.0841815
-0.03665647 -0.09864068 -0.18491589 0.056242604 -0.110890776 0.11824802 -0.08271022 0.09103799
0.0061739683 0.020098682 -0.002746378 -0.3355926 0.034616373 -0.29639333 -0.12873194 0.15870632
-0.033213396 -0.13177423 -0.12276306 -0.17144373 0.0060321456 -0.0029418834 -0.0795234 -0.25822973
-0.0021970745 0.02019183 -0.0067099244 -0.09044028 -0.00458701 0.0913273 0.023516111 0.0019920925
0.0060700383 -0.013117167 0.03878629 -0.0043328875 -0.027319267 0.27334604 -0.2544622 0.19405064
0.11328518 -0.15979262 0.039511297 -0.026537605 -0.06573939 0.049390506 0.18059719 -0.21953207
-0.021666331 -0.010126683 0.073642574 0.123308085 0.09162708 0.033253394 0.04946456 -0.03921997
-0.0025018235 0.0075359894 -0.04738694 -0.21967566 -0.25185624 0.25264704 -0.2910311 0.17847116
-0.022456035 -0.12199403 0.084621035 -0.30274326 0.08772561 0.013896514 0.06173971 0.111384846
0.026626118 -0.0065558143 -0.074153654 -0.1190848 -0.06895942 0.13036172 0.07818354 0.046906028
-0.0022295641 -0.002799675 0.009662827 0.007930733 -0.17215522 -0.22604907 -0.064931095 -0.15943098
0.024384985 0.058686893 0.2201629 -0.2692638 0.045110006 0.014996154 -0.27148145 -0.084487565
-0.017176349 0.03241964 -0.0131783895 0.09447978 -0.078827254 -0.123541325 0.102739275 -0.03197698
0.07155341 -0.049077623 -0.18471764 0.005286177 -0.07036819 -0.07584839 0.026495181 0.0046873265
-0.11584401 0.019984752 0.01585232 -0.023169726 0.014688022 0.20222136 -0.0006674209 0.02247492
0.13951887 -0.117276154 -0.13600098 0.15095702 0.016473318 0.12636995 0.056952175 -0.0066425544
-0.09235028 0.038064398 0.11050645 0.038863685 0.020405317 0.06635 -0.0357478 0.016297346
-0.114686385 0.009989449 0.06349605 -0.005274898 0.06816355 -0.07363907 0.052669447 -0.024678018
0.14220877 0.10163368 -0.10229257 0.09652446 -0.10944509 0.07609064 0.0032219468 -0.079809725
-0.005264941 0.0051242653 -0.022981016 0.2030156 0.30995813 0.36367425 -0.3284331 -0.0037362967
-0.014396453 0.27358547 -0.15451401 0.0026045316 0.05044453 0.008628344 -0.05185094 -0.02786446
0.0199784 -0.0027449024 -0.009923049 -0.058418147 0.044838432 0.1532795 -0.10033446 -0.038246136
-0.014157744 -0.007607338 -0.010712902 0.07721162 -0.17394675 -0.12717976 0.14442778 0.30172268
-0.0014522047 -0.11883068 0.020066068 0.027853154 -0.052502166 -0.039841358 0.042497918 0.1470484
0.108650066 -0.22341712 0.020184003 0.09568253 -0.09041712 0.010130641 -0.0061264336 -0.005684457
0.0007779864 -0.0038779916 -0.0003110673 -0.23552866 -0.09966756 0.5265531 -0.014414394 0.14892553
-0.0840133 0.094331056 -0.2403184 0.2246717 0.036198933 -0.016820755 0.025070913 -0.17129368

encoder.layers.0.bias f4 [32]
00000000: cdcf abbb d9e1 a93e b903 343b 201a cbbd
00000010: 96a1 aebd 0046 f5bc 822c a43e 5953 b03e
00000020: e7b8 663c b35b c8bc f921 9f3b 912c 4cbb
00000030: 7c01 69bd 45be 0abd bc68 a43e 1fd0 bfbc
00000040: d732 eb3e bfe6 efbd 8da9 93bd 06dc e93e
00000050: 5544 a13e 78f9 07bc c95b f2bc 37f6 65bd
00000060: 6fb9 c93e dc7d 823a 076d 2a3e d1e8 a4bc
00000070: 94ce e0ba fc9d 2f3e 32a6 3fbd 2134 d33e
-0.0052432776 0.3318012 0.002746804 -0.09917092 -0.08526914 -0.029940605 0.32065207 0.3443859
0.01408217 -0.024457788 0.004856345 -0.0031154493 -0.05688618 -0.03387286 0.32111156 -0.02341467
0.45937225 -0.11713933 -0.072100736 0.45675677 0.31497446 -0.008299224 -0.029584782 -0.056143012
0.39399287 0.0009955722 0.16643153 -0.020130547 -0.0017151409 0.1715011 -0.046789356 0.4125071

encoder.layers.2.weight f4 [32, 32]
00000000: b4d7 0dbe 068e fd3c bb7e 12be bd01 03be
00000010: a128 03be e595 eabd 7e3d 013d b236 2d3e
00000020: 9989 79be a521 ecbd 55d8 71be e821 98bd
00000030: e798 a3bd f866 c1bd 8640 7a3d 3587 0abe
00000040: 25ec 833c 6043 8fbd 6a6a c9bc f1c9 363d
00000050: 4c97 73bd 4ab4 6cbe c022 c7be 962b 4cbe
00000060: e77b 023e 7be1 14be fa59 56bc fe36 53be
00000070: cf22 70bd e5d7 87bd 511b 80be 9c24 b13c
00000080: e379 e7be e742 d83d 9c0e a2be 1797 14be
00000090: 3251 a9be 0150 babe 3881 7abd f8b7 d33d
000000a0: 9254 c7be 3250 6dbe b12a b8be 8437 8dbe
000000b0: 7ce7 1cbe add2 c5be de42 ec3d 76f0 f6be
000000c0: 0293 353e 2b30 abbe d978 4fbd 22cd f03d
000000d0: 261c 9e3d 82b0 c1be 9a0d a8be 4e2d 63be
000000e0: 65b0 1c3c bb49 ffbd 3d40 10bd 85d2 5bbe
000000f0: 6253 78be 8096 08bd d3ae e6be 810c 18bd
00000100: fbc7 063e 8a79 18bd c51f 273e 4761 193d
00000110: cc04 353e 4b5a 6e3d fe77 823c e658 c53d
00000120: 6a70 1d3e dc39 b5bc f48e b0bd dde9 9e3d
00000130: 2d5b 1e3e 492d 333e 225c 193e 1003 053e
00000140: 826e b73d 2d2e 193e a2a6 de3d 9092 e33d
00000150: d3a9 6d3d 1feb 773d de00 73bd 0638 063e
00000160: ee38 d1bc 0f20 283d 1b09 51bb fd2e 173e
00000170: add3 863d a971 c33c 145b 6a3e d3e9 013e
00000180: cbdf c73c 9b8f 19bd 7453 a6bc 418f 833d
00000190: e2a3 273c 3906 2c3e 6184 f83c ce86 b53d
000001a0: f2b5 973c cc50 87bc a659 0ebe 69ff 003e
000001b0: bfad 6abd 1e4c 93bd b9dd 6b3d a7c9 8abd
000001c0: 3c77 353e 00a0 60bd 946d f93d 97ca e53d
000001d0: 9f2a b83d 4018 d43d 59e0 1fbd 212b ab3d
000001e0: e6d0 c73d 0ecc d53c 4b16 bc3c 84dc 21bd
000001f0: 4917 a93d 65f4 38bd 710c 163d 62fb 363e
00000200: dfd3 033e 7a95 543e 0417 b43d 4fbe 10bb
00000210: 8720 c3bc 0f53 233e 45d2 cf3d b046 7b3d
00000220: a8d3 863c e8ed 9c3d 755f eebc d2dd d8ba
00000230: a7fa 913d 56d6 973d 3536 37bd c72c 933d
00000240: 7cc7 3e3d 05e8 f23b 3066 1b3e 5e60 5f3d
00000250: 8cc5 233d 4a36 1a3e bf52 853d d759 9d3d
00000260: 464b 52bd 948d 033e 8a27 213d 0cef 043e
00000270: 382f 373c 4cf8 433d 20b0 b33c 18d7 3b3e
00000280: 5779 ae3d 2f9c 183d 6fc4 d43d addc c33c
00000290: 320f 233e 500b a0ba e642 473d 9f56 0cbd
000002a0: 9f59 233d 22ae 973c 46e6 133e 0bea 6a3d
000002b0: 4670 1b3e b6c7 c03d be70 78bc 815a 72bd
000002c0: ebd4 923d 0991 ccbc db41 253d c1c8 df3d
000002d0: 7daf ff3d b85b ba3d 27a8 0b3c bebf f73d
000002e0: 2c1f 163e fd12 373e 558e 7d3d 8df4 153e
000002f0: 5daa 993d cd5c 283d a2af 573d 752d b93d
00000300: c080 65bb 3494 003e aa4f b33d 85e2 243e
00000310: cb5a 9fbd d8dc 0c3e 2d80 313e 15aa fbbb
00000320: a9aa d2ba 00f3 1cbd 5c05 8f3d 9f3d 82bd
00000330: eead 363d 96de ae3b 553c bb3d f1fe 95bd
00000340: ba8c 5f3e 4def a33d ce33 9ebc 21da 1f3d
00000350: 1466 a93d 2656 7e3d 4727 72bd bd73 4b3c
00000360: ef5c 1e3e c7c6 ccbc 8e16 cf3c 14e0 45bd
00000370: 3c16 6cba 1e36 c1bb b1ef 91bc 01e0 6a3e
00000380: 45a3 6fbe 1387 0dbd 0aa0 46be e8bd 29be
00000390: 5908 aabd 6192 20be 3a93 173e 1a30 503e
000003a0: d1f8 d4be d929 4bbe 0547 91be 387c 90be
000003b0: ec65 a8be f35e 92be 4f04 403e a87e 84be
000003c0: 3876 973d 20d6 0dbe d1c7 11bd 7863 3e3e
000003d0: dc78 2e3e 9bcc 41be bd07 adbe df3d 5dbd
000003e0: 2edb 763e 2d45 59bd d9f6 403d 7b2e 4abe
000003f0: 6ca2 2ebe b269 263e 0a4d b5be 5427 4b3d
-0.13851815 0.030951511 -0.14306156 -0.12793632 -0.12808467 -0.11454371 0.031552784 0.16915396
-0.24368896 -0.11529855 -0.2361768 -0.07428342 -0.07988148 -0.09443468 0.06109669 -0.1352814
0.016103813 -0.06995273 -0.024586875 0.04462618 -0.05947046 -0.2311565 -0.388937 -0.19938502
0.12742577 -0.14539139 -0.0130829755 -0.20626447 -0.058626946 -0.066329755 -0.2502084 0.021623902
-0.4521018 0.105596356 -0.3165177 -0.14510761 -0.3306976 -0.36389163 -0.06115839 0.10337824
-0.3893171 -0.23175123 -0.3597007 -0.27581418 -0.1532268 -0.38637295 0.115361914 -0.48230332
0.1773186 -0.33435187 -0.05065236 0.11757876 0.07720213 -0.37829977 -0.32822877 -0.22185251
0.00956354 -0.12465235 -0.035217512 -0.21467026 -0.24250558 -0.033346653 -0.45055255 -0.0371213
0.13162224 -0.037225284 0.16320713 0.037446287 0.17677611 0.05819158 0.015926357 0.09636097
0.15374914 -0.022122316 -0.08621016 0.0775945 0.15464468 0.17497744 0.14976552 0.1298945
0.089566246 0.14959021 0.108716264 0.11111939 0.058023285 0.060526963 -0.059327 0.13107309
-0.025539842 0.0410462 -0.0031896296 0.14764018 0.06583343 0.023857908 0.22886306 0.12686853
0.024398705 -0.03749047 -0.020303465 0.06423808 0.010231944 0.16799249 0.03033656 0.088636026
0.018519375 -0.01651802 -0.13901386 0.12597431 -0.057294603 -0.071922526 0.057584498 -0.067767434
0.17721266 -0.054840088 0.121791035 0.112202816 0.08992504 0.10356188 -0.039032314 0.083578356
0.09756641 0.026098277 0.022959849 -0.03951694 0.082563944 -0.045154948 0.03663296 0.17869332
0.12873791 0.20760146 0.087934524 -0.002208609 -0.023819221 0.15949653 0.101475276 0.06134671
0.016458347 0.076625645 -0.029098252 -0.00165456 0.07127886 0.07413928 -0.04472943 0.07186275
0.046576962 0.007412913 0.151757 0.054535262 0.039983317 0.15059772 0.06509923 0.07683151
-0.051341318 0.12846977 0.039344348 0.12981814 0.011180691 0.047844216 0.021934569 0.1834377
0.085192375 0.037258323 0.10389029 0.023908937 0.15923765 -0.0012210403 0.048647784 -0.034262296
0.03988039 0.01851565 0.14443311 0.057352107 0.15179548 0.09413092 -0.015163599 -0.059168343
0.07169517 -0.024971502 0.040346008 0.10926963 0.124846436 0.09099525 0.008523977 0.12097119
0.14660329 0.17878337 0.061903317 0.1464407 0.07503197 0.041104127 0.05265773 0.09041873
-0.0035019368 0.12556535 0.08755429 0.16102035 -0.07780989 0.1375612 0.17334051 -0.0076801875
-0.0016072589 -0.03831768 0.06983444 -0.063594095 0.044599466 0.005336593 0.09142367 -0.07324017
0.21831027 0.080046274 -0.019311812 0.039026383 0.08271423 0.062093876 -0.05911949 0.012417731
0.15465139 -0.024997128 0.02527931 -0.0483094 -0.0009005999 -0.005896344 -0.01781449 0.22937013
-0.23402126 -0.034552645 -0.19396988 -0.1657635 -0.083023734 -0.15680839 0.14802256 0.2033085
-0.41596082 -0.19840182 -0.28374496 -0.2821977 -0.3289026 -0.28588066 0.18751644 -0.2587788
0.07395595 -0.13851213 -0.03559095 0.18592632 0.17038292 -0.18925707 -0.33794966 -0.054014083
0.24107048 -0.053044487 0.047110412 -0.19744293 -0.17054147 0.16251257 -0.3541034 0.049598053

encoder.layers.2.bias f4 [32]
00000000: 8afa 193e cca3 a03e b3c6 febd 4397 b5bd
00000010: badc fbbd 448d 3fbe d6df bd3c 229f d03e
00000020: f764 82bd 32f3 17be 7661 883e 0cbb b63e
00000030: a842 373d e1e6 10bd ae5b d13e 4b64 013d
00000040: 6fee 3a3e 88d5 eabd 3baf 14be 8d45 5abc
00000050: 747c ef3c 7449 a3bd 1124 2bbd b718 5b3e
00000060: 5675 2c3e 9f6c 81be b059 683e 4c34 bebd
00000070: cdbb 59bc 1c7f 4cbd f4ad 923e 288c a93e
0.1503698 0.31374967 -0.124402426 -0.088667415 -0.122979596 -0.18706232 0.023178022 0.4074641
-0.06366914 -0.14838865 0.26636857 0.3568958 0.044741303 -0.035376433 0.4089026 0.031589787
0.18255018 -0.11466509 -0.1451997 -0.013322246 0.029234149 -0.079729944 -0.041782442 0.21396147
0.16841635 -0.25278184 0.22690463 -0.092873186 -0.013289404 -0.04992591 0.2864834 0.33114743

encoder.layers.4.weight f4 [12, 32]
00000000: 7ee6 8e3e 3967 b63e b9ba 6abe 7a25 4cbe
00000010: 5fb2 27be 6a8e cfbd 9865 58be 2761 753e
00000020: c26b ecbd 0518 27be 1a94 ff3e b9f1 09bd
00000030: 1fbb 86bd 2a24 b5bd 0a4e ab3e 03af 9a3d
00000040: 78b2 063e fd12 6abe 105a 713d b965 27be
00000050: 1504 05be 206a 483b 9c60 363d 99b7 b23d
00000060: bb1f 07be f04e 2dbe bb79 9a3e e445 bd3b
00000070: 6012 29be bccb 33be 6d75 963e 3291 f83e
00000080: 82bd d3bd 873a 053e ea36 d73d 151f e93c
00000090: 7ccd 0cbe d661 253c cb1e 6cbd 0f93 0b3e
000000a0: 3c18 bcbd efdc f53c c304 5e3e a8ec 323c
000000b0: 8df3 0cbe 046d 6c3c fa0e fb3d 8393 b93d
000000c0: dad7 353d 1ef2 1ebe d3c1 e0bd 5aee b6bd
000000d0: 795a 123e 3ddb 97bc ef4c b8bd 396c 8f3c
000000e0: 500d 583d 7f00 dfbd 1aa0 e9bd cdea acbd
000000f0: e8fc 933c afe1 993d 8874 c73d e727 1b3e
00000100: 84e2 00be 0a3e cdbd 863e 34bc fe4b d53c
00000110: 3a9b a63d 3026 32bd ac36 47bd 61e0 52be
00000120: f971 323d 5d36 6f3d 7650 a3bd 5b38 08be
00000130: 7d2a c8bc 7861 1c3c bf60 b8bd cea1 99bc
00000140: 8be0 cbbd cb25 6dbb 623d 9fbd 4b5b 0abe
00000150: 7a10 7bbc cc38 3a3d 5843 36bd 0b80 f1bd
00000160: c1b9 83bd a835 efbb c087 19be c424 cc3c
00000170: 5e84 12be f6d6 4cbc f2be 5ebe b9ad 36be
00000180: 5f96 5c3d bd9c a63d 37df 5a3d e433 0ebd
00000190: 94e8 dcbd 4370 93bd 4e10 bdbd 167a 4a3d
000001a0: 751f 2abe 514b 84bd fb58 cf3d 60b0 31be
000001b0: fb8d bebd 7dc8 5ebd b962 44bd 2e9d e1bd
000001c0: e28f 48bd 3a4a f0bd 51d6 cfbd f174 9d3d
000001d0: 199a fe3d 8f9b 06bc 80f6 f73c 5709 f8bd
000001e0: 4acf 18be 3f43 05be a879 11be 402a 963d
000001f0: e12b d9bd 1722 99bd b4d8 c8bd eba3 213b
00000200: 3bd9 96be 57ac 11bf 1c12 8e3e a81b 04bd
00000210: 8ce3 043e 5f97 743e 0647 86bc 7c29 ddbe
00000220: e803 47bd c540 6a3e a0de c8be 49ea 3fbe
00000230: ef41 413d ca55 d13d c2e3 cabe 77b5 373e
00000240: aadc babe 84cd 623e 418e 773e 14bf a63d
00000250: 4b99 1a3e c11c 2f3e ce1b 1f3e 666b a6be
00000260: 46e8 d5bc 1487 8a3e 0e1f 9ebe 2f64 da3d
00000270: 03b8 3a3e 50af d83d cc7d d3be d3db f8be
00000280: 5f95 bf3d 6725 183e ca3b 30bd 0281 84bd
00000290: 8053 6fbd 30d3 073e 98fa 343e 3c56 473c
000002a0: 4ff2 3f3d 4b21 133d 27fc 283e ef95 303e
000002b0: 3776 6abd 5015 113d 4634 773e afc7 e93c
000002c0: 923c ee3d a28c 2f3d f3cc f83d c5db a33d
000002d0: fdb4 2dbc ffa8 d5bc 1eab e23d 0c88 6e3d
000002e0: cba3 8c3d e5ba 943d 7afa e13c 0609 d83c
000002f0: a726 1a3e a6dc 93bc 99f1 743e e8c9 9d3d
00000300: 5570 b9bc 01c4 8cbc fc32 79bd 9cd7 58be
00000310: a98c a73b d3ca ad3d 406d cebd 9e07 9fbd
00000320: d867 c8bc eeff c53d 5fa5 9f3d 165f a8be
00000330: 39ab 68bd 79c2 86bd a426 35be 02de 59bd
00000340: 5bb2 e6bd 11b4 acbc 0dc3 7f3d 31ba 5a3d
00000350: 83f3 933c 464b 643d 3444 17be 2ffb 94be
00000360: b554 71be cf92 e6bc 506a 79bd 400d b43c
00000370: 055d cebd 34d2 96bd 25eb 60be 9c5a 983b
00000380: a3c1 88bd df2f a5bd 7318 7ebd 536f e6bd
00000390: 4ac7 b33d 1aea 22bd 32d0 83bc 84bd f9bd
000003a0: 035c 14bd c867 3e3d 1042 963c f297 13be
000003b0: 1f95 c5bd 4c9b 03bd 3307 e4bd 8d2e 10be
000003c0: 65ce 94bd 29bb 843c 7293 b73d b763 b93c
000003d0: ab6d 4e3c 9c71 2bbd c8b4 0abd ab93 0f3d
000003e0: 286f 10be 7dd3 70bd 45a4 9e3a aa77 83bd
000003f0: 08fb bb3d 9cee 85bd 2d91 0abe 23ba f33b
0.27910227 0.35625628 -0.22922792 -0.19936171 -0.16376637 -0.10134585 -0.21132505 0.23962842
-0.11543991 -0.16317756 0.4991768 -0.03367779 -0.06578659 -0.08844788 0.33457977 0.07552912
0.13154018 -0.22858806 0.05892378 -0.16347398 -0.12989838 0.0030580834 0.044525728 0.08726425
-0.13195698 -0.16924644 0.30170998 0.005776154 -0.16510916 -0.17558187 0.29386464 0.48548275
-0.1033888 0.13010608 0.10508521 0.028457204 -0.13750261 0.010094127 -0.057646554 0.13630317
-0.0918431 0.030012576 0.21681504 0.010920681 -0.13764782 0.014430288 0.12258716 0.09061339
0.044395305 -0.15522048 -0.10974469 -0.08932181 0.14292325 -0.018537158 -0.08999049 0.01750766
0.05274707 -0.108887665 -0.1140749 -0.08443222 0.018064931 0.07513749 0.097390234 0.1515194
-0.12586409 -0.10021599 -0.011001235 0.026037212 0.08135076 -0.04349345 -0.048636124 -0.20593406
0.043565724 0.058401454 -0.07974331 -0.13302748 -0.024434322 0.009544723 -0.09002828 -0.018753912
-0.099549375 -0.0036185856 -0.0777538 -0.13511388 -0.015323753 0.045464322 -0.044497818 -0.117920004
-0.06431914 -0.0073000975 -0.14993191 0.024919875 -0.14308307 -0.012502423 -0.21752527 -0.17839707
0.053854343 0.08135364 0.05343553 -0.034717456 -0.10786548 -0.071991466 -0.092316255 0.049432836
-0.16613562 -0.06459678 0.101243936 -0.17352438 -0.093044244 -0.05439042 -0.04794571 -0.11016308
-0.048965342 -0.117329076 -0.101482995 0.076883204 0.124317355 -0.008215799 0.030268908 -0.121111564
-0.14922825 -0.13013934 -0.14206564 0.07332277 -0.10604072 -0.07477205 -0.09806958 0.0024664353
-0.2946261 -0.56903595 0.2774819 -0.032252938 0.12977427 0.23885868 -0.016391288 -0.43195713
-0.04858771 0.2287627 -0.3923235 -0.18741716 0.04718202 0.10221441 -0.3962689 0.17940317
-0.36496478 0.2214871 0.2417536 0.08141914 0.15097539 0.17100812 0.1553795 -0.32503814
-0.026111733 0.2705618 -0.30883068 0.1066364 0.18234257 0.10580313 -0.41306913 -0.48605213
0.09354662 0.14858018 -0.04302577 -0.06469919 -0.05842924 0.13264155 0.17673719 0.012166556
0.046861943 0.035920423 0.16502438 0.17244695 -0.057241645 0.035420716 0.24141034 0.0285376
0.116326466 0.042858727 0.12148466 0.08000902 -0.010602233 -0.02608156 0.11067794 0.058235213
0.068671785 0.0726221 0.027585257 0.02637149 0.15053807 -0.01804955 0.23920287 0.07704526
-0.022636572 -0.017183306 -0.060839638 -0.21175998 0.0051132035 0.08485951 -0.100794315 -0.07765125
-0.024463579 0.09667955 0.07795214 -0.32885045 -0.056803916 -0.065800615 -0.17690521 -0.05319024
-0.11264487 -0.021081956 0.062441874 0.053400222 0.018060451 0.05573585 -0.14772111 -0.29097888
-0.2356747 -0.028146176 -0.060892403 0.021978974 -0.10076336 -0.07364312 -0.219647 0.0046494734
-0.06677558 -0.08065771 -0.062035035 -0.11251702 0.08778246 -0.039774038 -0.016090486 -0.1219435
-0.03622056 0.046485692 0.018342048 -0.14413431 -0.09647583 -0.032130525 -0.11134186 -0.14080258
-0.07265929 0.016202526 0.0896367 0.022630556 0.012599389 -0.041856393 -0.033863813 0.035052937
-0.14104903 -0.05879544 0.00121034 -0.064193085 0.0917874 -0.06539652 -0.13531943 0.0074379607

encoder.layers.4.bias f4 [12]
00000000: 9a59 593e 77c1 143e 2f83 5fbc e11c 21be
00000010: 0edc 99be 047b 583e 37c7 40be 7468 0bbe
00000020: 04b8 963a f0dd a53d 9628 a2be e88b d9bd
0.21225587 0.14526926 -0.013642116 -0.15733673 -0.300507 0.21140677 -0.18825994 -0.13614064
0.0011498933 0.08098972 -0.3167159 -0.10622388

decoder.layers.0.weight f4 [32, 18]
00000000: 911e a83e 0f6b bebd 0eac d33d e3e4 04be
00000010: df27 40be 080f 6d3c ccfc 24be 50d3 20bd
00000020: 3966 4cbe 28fb d43c 1708 c33e 6bfd 4e3e
00000030: 067e 93be 36be d9bd 9c77 063d 14ef 16bd
00000040: fed7 2e3e 865e 83bd 271a 88bc d534 c8bd
00000050: 9f78 9fbd b5c8 92bd 74ad d83d d070 593c
00000060: 31ce 453d 9c33 213e 61a1 1f3e 5436 9cbd
00000070: 4345 663e 3718 cebc 29f5 ad3e 9c55 e9bd
00000080: 1aa8 153e 6e2c 0bbe 0dc4 483d 6157 1bbe
00000090: b9fe 2ebd fb0b 7bbd 53a0 6bbd 2f59 b43d
000000a0: f457 093e 243e 2f3e 427f 0dbe da90 693a
000000b0: 34b6 d9be 7b52 00be 904b 133e 5f72 32be
000000c0: 9a75 81bd e45d 983c 9081 de3d 4c0a d4bd
000000d0: ddd7 c2bd 03a4 2f3d 5f29 0dbe a994 bebc
000000e0: 44a6 553d e20e 343d 6b4e 773e 54c6 c33c
000000f0: 8108 c73e 5acd 0f3e 5439 51bc 5d62 bd3e
00000100: 355b 783d 51d3 02be 9f5c 1d3d 9884 b23d
00000110: 0401 bd3b b224 c03d 4109 4f3d cba0 9d3e
00000120: b4c8 98bd 1b2a d63d 08b0 d2bb 87f0 5d3e
00000130: dcec 95be c2eb 263e 7d31 d2bc 908b a2bd
00000140: 8b9b 2d3d 4075 c6bd 3a2e afbe 97b4 17be
00000150: bc41 cabd 532e 423e fc83 64be d2b0 593e
00000160: 9da4 a53c 7f55 53be cf31 fcbd c7b7 b8bd
00000170: d351 923d b487 ffbd 8fa6 5cbb abe3 70bd
00000180: e38e ac3e 32b6 5a3d 8be7 d9bc 680a a1be
00000190: 3cbf babd 23bd 043e 6a0e 823d 0af8 45be
000001a0: 7b06 9fbd 880f 52be 8a12 37be ab3c 0bbc
000001b0: b335 643d 7f2f bcbd 72de 08be 5ed3 7c3d
000001c0: 4221 cdbd 9c9e 7cbd 4bab 87bc dbb5 c4bd
000001d0: f336 bcbe 62e4 d33d ae07 a03d af18 02be
000001e0: 12bd 6a3d e4f2 3ebd d6b2 f53d f4f4 74be
000001f0: 9de7 8e3d a9ba 5e3e 0064 813e 4b91 0e3c
00000200: 76f8 e03d ac5d f83d 83be 21be 72e5 983d
00000210: 6471 453e c464 e53d feb2 c43d 6cce 753e
00000220: 8186 ab3d 03c8 e7bc 38b1 c83d b3ff 12be
00000230: b2d5 fd3d 3db4 61bd 82a8 12be 007f 713e
00000240: 7ff1 3cbe f2c8 c3bd 4d00 5cbc 7aaf ea3c
00000250: 635d 8a3e b07e b1bb c0bc 693e 0991 25be
00000260: 3c4d 7c3c 28eb afbe 0b36 233e c5c9 87bb
00000270: 3e66 b63c b2e7 753e 9c34 3fbe b6c7 10be
00000280: 47e2 2d3e 5c01 8d3e 34ab 2fbe a62c 863d
00000290: b67c 423e 84ce 80be 4798 7c3e 1bca 0dbe
000002a0: 9c9e 61bd 3449 64bd 6e1c a13e 5a26 9fbb
000002b0: b312 1cbe f84e 5ebe 0799 f5bd 697f 693e
000002c0: 5f1e 853e 7659 853e 12c5 353e 2ff3 5e3d
000002d0: 4314 b83c a681 2a3c 5b44 813e fa68 68be
000002e0: 0ce6 aebe 88f5 163e fb11 9fbd 5fd3 863e
000002f0: 3b56 3bbd 0aea 083e 294d b03d 07cf 393e
00000300: 91b6 ae3e ab96 1f3e 9b4c 393e 086e 80bd
00000310: ee69 d93d 74bf af3e 46c3 8f3d eb13 a63d
00000320: a10f 72be 71d9 48be 93e8 3ebe e78c 3abe
00000330: a8ac 92be 28d9 163e c29b 02be 78d7 b4bc
00000340: 331c 893e 2f3a 2fbe b502 a43d 07b9 a63d
00000350: 1155 64be c028 ca3d a489 41bd 0740 043e
00000360: fce4 57be ea5a f63a 7a12 09be 05a7 0dbe
00000370: feef 183e 839c 7e3c eea0 8ebd 6824 093e
00000380: 0aa5 57be 6157 913e 1e96 a6bd 1f9a 3b3e
00000390: b947 89bd 9638 c0bd 0e2c f9bc 0a9f 613c
000003a0: a482 13be ba14 a73c bc77 9c3e bf51 76bd
000003b0: b91b 32be cf6a 383d b161 a6be 19d5 0ebe
000003c0: 5a25 5b3e 80d6 52be 6563 d93d 74c1 b9bd
000003d0: 17ea 38be 6a68 043e d457 12bd 4f9e 6f3d
000003e0: 441c 0abd 4d53 273e cc70 e4bd ea87 1d3e
000003f0: 30c1 3d3e 8bd6 7dbd b63c 393e 1e2a dfbd
0.3283582 -0.092977636 0.10335551 -0.12977938 -0.1876521 0.014468916 -0.1611206 -0.039264023
-0.1996087 0.025998667 0.3809211 0.20213859 -0.28807086 -0.10631983 0.032828912 -0.036849096
0.17074582 -0.06414513 -0.016614033 -0.09775702 -0.077866785 -0.07167188 0.105799586 0.0132715255
0.048292343 0.15742344 0.15588905 -0.0762755 0.22487359 -0.02515803 0.33976105 -0.11393282
0.14614907 -0.13591167 0.049015094 -0.15170051 -0.04272339 -0.061290722 -0.057525944 0.08806073
0.13412458 0.17113549 -0.13818076 0.0008909829 -0.42521822 -0.12531464 0.14384294 -0.17426442
-0.06321259 0.018599458 0.10864556 -0.103535265 -0.09513829 0.042881023 -0.13785313 -0.023264246
0.052160516 0.043959506 0.24151008 0.023898281 0.38873675 0.14043179 -0.012770016 0.36989108
0.060633857 -0.12775923 0.03841841 0.087166965 0.0057679433 0.09381999 0.050545935 0.30786738
-0.07460156 0.1045725 -0.006429676 0.21673785 -0.29282272 0.16300872 -0.025658363 -0.07936776
0.042384665 -0.096903324 -0.34214956 -0.14814983 -0.09875819 0.18962984 -0.22315973 0.21258858
0.020220095 -0.20638083 -0.12314188 -0.09019428 0.07144513 -0.12477055 -0.0033668613 -0.05881087
0.33702764 0.05339641 -0.026599666 -0.31453252 -0.09118506 0.12962775 0.063504055 -0.193329
-0.07764908 -0.20513737 -0.17878166 -0.008498351 0.055715274 -0.09188747 -0.13366106 0.061725013
-0.10016109 -0.0616747 -0.016561171 -0.09604999 -0.36760673 0.10346295 0.07813965 -0.12704729
0.057309218 -0.046618357 0.11997001 -0.23921567 0.069777705 0.21750893 0.25271606 0.008701633
0.1098489 0.121272415 -0.1579533 0.07465638 0.19281536 0.1120086 0.096044526 0.24004525
0.08375264 -0.028293615 0.09799427 -0.14355354 0.12394275 -0.05510353 -0.14322093 0.23583603
-0.18451498 -0.09559812 -0.013427806 0.028648127 0.27024373 -0.0054167137 0.22825909 -0.16168608
0.0153992735 -0.34359097 0.15938585 -0.004143926 0.02226555 0.24014166 -0.18672413 -0.14138684
0.16980849 0.275401 -0.17155153 0.06551485 0.18992886 -0.2515756 0.24667464 -0.13846628
-0.055082902 -0.055733874 0.31467003 -0.004856867 -0.15241508 -0.21709812 -0.11992078 0.2280251
0.25999734 0.26044816 0.17750958 0.054431137 0.022470599 0.010406887 0.25247464 -0.22696295
-0.34159887 0.147421 -0.077671014 0.26333138 -0.045736533 0.13370529 0.08608467 0.18145381
0.34123662 0.15584819 0.18095629 -0.06270987 0.106159076 0.34325755 0.07019667 0.08109268
-0.23638774 -0.19614197 -0.18643408 -0.18217812 -0.2864735 0.14731276 -0.1275473 -0.0220754
0.26779327 -0.17112039 0.08008329 0.0814076 -0.22298075 0.09871054 -0.047250405 0.1291505
-0.21083444 0.0018795405 -0.13385954 -0.13833244 0.149353 0.015540245 -0.06964289 0.13392794
-0.21059051 0.28386977 -0.08134101 0.18320511 -0.06703133 -0.09385793 -0.030416515 0.013770828
-0.14405304 0.020395625 0.305601 -0.060136553 -0.17393388 0.045023736 -0.32496408 -0.13948478
0.21400967 -0.20589638 0.10614661 -0.090701014 -0.18058048 0.12930456 -0.03572829 0.058500584
-0.033718362 0.1634037 -0.11154327 0.15383878 0.18530726 -0.061972182 0.18089566 -0.10896705

decoder.layers.0.bias f4 [32]
00000000: 338e 583e b0ff a53e e426 b13d 74ae 52bd
00000010: b0c9 a43e 04ff 2ebe be0a a03d c347 98bd
00000020: 22f6 7f3d 3066 14bc aaff 2c3e c2f6 1c3e
00000030: cd6e 563e 5050 b83e 2dd6 923e f018 01bd
00000040: f51b a23d 4025 143e 8c48 89be a476 b83e
00000050: fffd 393e c241 b33c 090c 7b3e 0ce4 c5bd
00000060: a83f a73e f888 af3e 158d c93e e723 423e
00000070: a592 573e 4dad 2bbb 9335 18be 038d 903d
0.21147995 0.32421637 0.08649996 -0.051435903 0.32185125 -0.17089468 0.07814549 -0.074355625
0.06249059 -0.0090575665 0.16894403 0.15328506 0.20940705 0.35998774 0.28679028 -0.031517923
0.07915489 0.14467335 -0.2681316 0.36028016 0.18163298 0.021881942 0.2451631 -0.09662637
0.32665753 0.34284186 0.3936545 0.18959008 0.21052034 -0.0026195825 -0.14864187 0.07058146

decoder.layers.2.weight f4 [32, 32]
00000000: 7ec0 713e 5555 103d acd2 3b3d d2ec 5fbe
00000010: c091 103e 5fa8 413d 7e24 9f3c 8aa6 ac3d
00000020: 86c5 3bbe f68b 98bd 25af ce3d 6206 e23d
00000030: 7b0f 14be d52c 273e 85f9 2b3e bc98 1abc
00000040: 7b7e 1fbd 5300 97bd b879 f4bd 7d25 1e3e
00000050: bd02 ce3d 51bd 86bb 7e44 253e 8eaa 403d
00000060: e4c1 2d3e c5df ffbd 808a 893d 1e71 d73d
00000070: 4cd5 4b3e 104d 153e 652b 53bd 9e74 c63d
00000080: fc66 1c3e 9242 e6bd 93ad 91bd 5fdf 04be
00000090: 0d95 dc3d 482c 88bd 8f92 fa3d 8d79 b23d
000000a0: 448e e8bc d68a 25bd 9ad6 3dbc 2349 aa3d
000000b0: e023 3bbe c126 8c3e 51b8 a63e 44c4 2ebe
000000c0: 82de dbbc de24 24be 846a d9bc bbc5 cf3d
000000d0: 7bfc ac3d 197c a2bd 4681 e23d 2f35 bebb
000000e0: 40c6 af3e 5d42 e73d e85b ba3d dbd5 cd3d
000000f0: af81 0b3e 686b 3c3e a180 2bbe cef6 c93d
00000100: 19e2 333e 8388 453e 0cf0 f2bc 87d4 0cbe
00000110: 9c25 533e f666 fcbd 8963 063d 376d bb3d
00000120: f1db b43c 8706 3b3e 2675 8e3e 8dd5 8f3e
00000130: bc0a 6cbc 9ec1 743e 2ac2 f63d 5382 e6bd
00000140: 5def 203e 8d26 813e b723 f6bd 18d7 ac3d
00000150: 2b5c c73c 4d5b 623e 8a24 873e 1c94 febc
00000160: 27e9 cf3d dd58 fbbc f26c 8d3e 5b9a 053d
00000170: e436 0c3e 0f28 bbbb 9a93 aebd 94da 58bd
00000180: e7a9 703d d29f 52be 5e18 e4bd 65de 293e
00000190: ba5b 193e 7f7a 8e3d 1b7b a0bc f9f1 e33d
000001a0: 73c7 0e3e 9383 923d 4918 113e a8f7 263d
000001b0: d052 413c 2ee1 e03d 1b17 453d bab9 d4bd
000001c0: cb6a 11be 610f a53e c87a 89bd c138 1abe
000001d0: afdb 963c e21b bebd 6110 ef3d 258f 2a3d
000001e0: 4109 523e be88 483e 93ef 313d 383e 663e
000001f0: abf7 d2bd cee1 a63d f983 083e 27e3 bcbc
00000200: fa09 d73d a761 dbbd b4ac 633e eb54 593d
00000210: 59d4 dabd 25e7 113c 2486 513d ed67 9a3d
00000220: 6df7 0e3e 349e 9dbd 931d 403e 3fa0 373e
00000230: 623d 173e e549 083e b2e5 09bc cd28 823d
00000240: 3fbb 0abe 8607 483e 2d43 333b e811 c4bd
00000250: b008 0cbe 0317 2b3e 5c6a 81bd 78c6 63bd
00000260: c5b5 023e bc08 8d3e 71cc 0c3e c062 8f3e
00000270: 3bf7 85be 2f22 dc3d bd40 c83d 6625 14be
00000280: 563e 823e e2bf 2e3e d15f 9a3d 273a 00bd
00000290: eb16 463e 0361 43bc 9671 1ebd a01c 9e3d
000002a0: 3342 0fbe f033 923c 380d 893d 46a9 a63d
000002b0: ffdb ea3c 696f 813d 3499 7c3e d237 26be
000002c0: b62f 803d e95f fdbc dac3 83bd 8d38 4b3b
000002d0: f7ed 123e a2a6 343e 11ab d13d a706 033e
000002e0: 8d1e b23d 0ccd 753d 39a9 583e 2aec d0bc
000002f0: 7638 e03c e4b3 31bd 65cc 973d 624f 103d
00000300: af87 c73d e349 083e 21e8 d1bc 862f cb3d
00000310: 1336 b23b 294f 2f3d 03bd 57bd fcef a2bd
00000320: 716e 383d b102 a83d 413a 33bc a679 2d3e
00000330: 8fcf 863e 12b1 1bbe 89c2 dd3c 7cd2 6e3e
00000340: 3d2d c93d 6004 163e 1e76 cf3d fcc7 77bc
00000350: 2ada 703e de0d 823d 0408 b53d 6994 ed3d
00000360: e0de 29be 3e88 233e 9f54 adbd 95ca 463d
00000370: eddd 5fbd 997e c7bd 19f4 863d 2fac 3a3e
00000380: 6e03 983d 1e07 983d deab 363c edf8 2c3e
00000390: 0774 25be 4956 38bd e0d1 233e 621e cd3c
000003a0: 869d bf3c ea4d 053e 16cf 8f3b 6e8f 7f3d
000003b0: e815 193d 204e 6b3d 2847 be3a f78e ca3c
000003c0: fb99 93bd 8a83 613e 4282 a63d 1b33 9b3d
000003d0: 2261 75be 76a0 313d 7023 9abd c904 843c
000003e0: 31a5 d43d e153 8b3e 0eb7 86bd 665a 173e
000003f0: 4967 12be 77c9 1e3e 4528 00be ddac febd
0.23608586 0.03523763 0.04585521 -0.21867684 0.14118099 0.04727971 0.01942658 0.08430202
-0.18337068 -0.074485704 0.10092 0.11036374 -0.1445903 0.16325696 0.16794403 -0.009435829
-0.03893898 -0.07373109 -0.119372785 0.15443988 0.10059116 -0.0041119237 0.16139409 0.047037654
0.16968495 -0.124938525 0.0671587 0.10519622 0.19905585 0.14580178 -0.051555056 0.09690212
0.1527366 -0.11243166 -0.07113185 -0.12975834 0.10770617 -0.06649071 0.12234985 0.0871459
-0.02838815 -0.040415607 -0.0115868095 0.08314731 -0.18275404 0.27373317 0.32562497 -0.17067057
-0.026839498 -0.16029689 -0.026540048 0.10145136 0.08446594 -0.07933826 0.11059813 -0.00580468
0.3433094 0.11291955 0.09099561 0.10050555 0.13623689 0.18400347 -0.16748287 0.098615274
0.17566718 0.19290356 -0.029655479 -0.13752948 0.20619816 -0.12324326 0.032809768 0.091516905
0.022077532 0.18264209 0.27823752 0.28092614 -0.014406856 0.23901984 0.120487526 -0.11255326
0.1571631 0.25224724 -0.12018531 0.084394634 0.024335941 0.22105141 0.26395065 -0.031076483
0.10151892 -0.030682022 0.2762218 0.032617908 0.13692814 -0.0057115625 -0.085242465 -0.052942827
0.05875578 -0.20568779 -0.1113746 0.16588743 0.14976397 0.06956958 -0.019589951 0.11130137
0.13943271 0.07154002 0.1416942 0.040763527 0.011799529 0.109804496 0.04811774 -0.10386987
-0.14200895 0.32238296 -0.06712872 -0.15060712 0.0184153 -0.09282662 0.11673046 0.04164042
0.20511343 0.19583413 0.043441366 0.22484672 -0.10301145 0.081485376 0.13331594 -0.023057533
0.1049995 -0.10711985 0.2223385 0.0530595 -0.10685033 0.008905207 0.051153317 0.075393535
0.13961573 -0.076961905 0.18761282 0.17932223 0.1476951 0.13309439 -0.00841658 0.063554384
-0.13547991 0.1953412 0.0027353272 -0.09573728 -0.13675189 0.16707997 -0.063191146 -0.055609196
0.12764652 0.27545726 0.13749863 0.28005028 -0.26165184 0.107487075 0.09777973 -0.14467391
0.25438184 0.17065385 0.07537807 -0.03130546 0.1934468 -0.011924985 -0.038682543 0.077203035
-0.13990097 0.017847031 0.066919744 0.08137755 0.028669355 0.06320078 0.24667817 -0.16232231
0.062591 -0.030929523 -0.0643384 0.0031009049 0.14348589 0.1764169 0.102377065 0.12795506
0.08697233 0.06001 0.21158303 -0.025503237 0.027370673 -0.043384448 0.07412032 0.035231955
0.097426765 0.13309436 -0.025623383 0.09921174 0.005438575 0.042800102 -0.05267049 -0.0795593
0.0450272 0.08203638 -0.010939182 0.16940936 0.2633023 -0.15204266 0.0270703 0.23322481
0.09823082 0.14650106 0.10129951 -0.015123364 0.23520723 0.06350301 0.088394195 0.116005726
-0.16588926 0.15969941 -0.08463406 0.04853304 -0.054655004 -0.097409435 0.06589527 0.18229745
0.07422529 0.074232325 0.011149375 0.16891833 -0.16157542 -0.045004163 0.1599803 0.025038902
0.023390543 0.13018003 0.0043887002 0.062392645 0.037374407 0.057447553 0.0014517056 0.024726374
-0.07207104 0.22022834 0.081303135 0.07578107 -0.23962834 0.043365918 -0.075262904 0.016115563
0.1038307 0.27212432 -0.06577884 0.14780578 -0.14297213 0.1550654 -0.12515362 -0.12435315

decoder.layers.2.bias f4 [32]
00000000: e242 b53e e551 6d3e 53e2 183e ed02 a6bc
00000010: 8530 cebd 5a04 5e3e 8d45 4a3d 916d 7d3c
00000020: 0e83 173d d661 963d 53a8 773e 13e3 953e
00000030: 7e4b 973e a9ab c53d 28b2 adbc 3334 a2bd
00000040: 9cfe a0bc 3f1b df3d fee6 1dbd da42 7e3e
00000050: 0302 c73d 6b2e a33c 3290 923e 01e7 693d
00000060: 9db8 483d e73a c03d 491e 0cbe 3c1f 0fbe
00000070: e4d5 f1bd 2cdd 803e a9b6 98bd af5b 0bbe
0.3540259 0.23175772 0.14930086 -0.020265067 -0.10067848 0.21681347 0.049382735 0.015468017
0.036990218 0.073428795 0.24185304 0.29274806 0.29549783 0.09651882 -0.021203116 -0.079201125
-0.019652657 0.10893869 -0.03855037 0.2483019 0.097171806 0.019919595 0.28625637 0.057105068
0.049004186 0.09386235 -0.13683428 -0.13976759 -0.118083745 0.2516874 -0.07456715 -0.13609193

decoder.layers.4.weight f4 [24, 32]
00000000: 8142 98bb bbb3 093e 93cd 313d 07b8 04be
00000010: aa83 ee3c f7b5 073d 610c 89bd 6983 c5bc
00000020: 98cf 7c3d a5c1 5dbd 6d45 9b3d b82b 15bc
00000030: b434 43bd da37 0bbc 1840 2d3c aa86 c13d
00000040: b22a 71bc 2c28 b83d acc6 383d 6cac 71bd
00000050: 1ec4 82bd cd94 de3c 04a3 223c 947b 54bb
00000060: 1e63 953d c0fc 5e3d a295 29bd afad edbd
00000070: fa8d a23c 07fa 03bd ed73 adbc ebf6 43bd
00000080: 2d2a 7fbc fb46 87bd 269f 983d d316 eb3d
00000090: a24f 97bd ed91 f13c bfdc b9bd 6303 a53d
000000a0: b118 4b3d 5560 d93a 34fc 02be e371 63bd
000000b0: b1a9 a63d 6ef6 1b3d a680 c4bc bd06 433c
000000c0: fedb c53d 41f8 87bd bd95 093c 8525 cb3d
000000d0: c48f 343c d981 0bbd 2b4d b33d 400e 9fbd
000000e0: f64d a3bb d104 0dbd 491c 2b3d 1450 4e3b
000000f0: 9b56 51bc b7d8 9ebd a33e bdbd 9279 b43c
00000100: 3242 1c3e 7283 c5bc e339 bcbb 2853 d4bd
00000110: e74f 3a3d 33a3 b33d 614d 06be 7bf2 b53c
00000120: 6849 8fbd 52f2 803d 95c1 10be 96a5 e9bd
00000130: e91c 943d aaa8 7fbd 893b 8939 b198 f9bc
00000140: 5c05 b23c be4d baba daff aa3d 9240 e83d
00000150: ad6e 743d 131e 24bd 888d 19be dad2 7b3d
00000160: da36 303d b6dd cebd 41e8 273d 0f66 883d
00000170: 4006 bebc c407 eabd 9ccc 2cba e988 b8bc
00000180: 9c0e 6b3d 5e5c 3abd eac8 babd 1eab 91bd
00000190: e886 353c 0d44 93bc fb28 80bd e07a dfbc
000001a0: a98a 9bbc aff6 d4bd fd35 f03d 60df c33d
000001b0: 02e1 43bd 73f7 63bd 5ff4 f63d d113 743d
000001c0: cf61 d1bc 882f f43c 8bb7 7f3c e05c c0bd
000001d0: 94d0 763d d6ef a73c 5960 923d d525 05bd
000001e0: 1d07 15bd f5ba 2dbd f76e d9bb 222a 0b3d
000001f0: 8562 523c 6b97 c4bd 6c67 633d 736e 993d
00000200: 6077 053d 143f be3d f7ae e33d ca52 bebd
00000210: f11f 983d d40c 55bd c0a0 76ba d356 463b
00000220: f405 773d 18ec 4bbc 27e1 b3bc ca62 e33d
00000230: 564e c7bd 4ad1 a7bc 1f18 d5bb 80e5 843d
00000240: 7631 953d d230 0fbd f1a9 9bbd 31a9 a5bd
00000250: 7a85 a9bd fa5e e9ba 297f 0cbe af9c 2cbc
00000260: f34a 1e3d 4d4c 37bd 3fe1 403d cd39 6bbd
00000270: c114 133d a0ca 4d3b 9b76 6b3c 32b8 cdba
00000280: 506a 123e 7f9a e33c 3848 b8bc ef04 9d3d
00000290: edbb 67bd 8f1a 6abc daed 743d 7bd7 803d
000002a0: 2bad 673d 9816 133d c0d6 893c 6b3a e2bd
000002b0: 5256 cabd c5b7 443d e088 5abc 1cd3 923c
000002c0: 1ee2 06bd 7460 7e3d 8100 19bc 4f29 083b
000002d0: 9e33 8b3c 0b5f cfbc 0eae 703d 98ca 57bd
000002e0: 78ce e4bc da3b ba39 7160 703d 2c73 4ebd
000002f0: c363 d13c fcf4 853c 88a0 e63b f938 5d3d
00000300: a183 a9bd 4abb ba3d b978 943d ad39 823c
00000310: b8c4 e63c 6e60 09be c060 273d 1b07 103e
00000320: 4cf3 91bc 37da 0d3e cdc8 14bb 75a6 0fbe
00000330: cdd3 193e 971d 11bd b1ff 11be 4e9e 613c
00000340: 86cd a53d 7a9f 4b3d 4977 40bd c749 043e
00000350: 9022 a1bc ba7a 17bd 7362 a63d b463 d33d
00000360: 97f0 2c3d 9b07 c03d aba5 253d 7236 f5bd
00000370: 6446 35bd d449 fabc 626a 52be 7052 01be
00000380: a8ab adbd 9af5 e13d da30 933c 7401 54bd
00000390: e844 83bc 6b14 0abd 55ed 703d 0782 213d
000003a0: df71 b83d 9920 bd3d e7e0 5ebd 4f8f c6bd
000003b0: a724 91bd 7a56 f1bd dd66 b5bc 4cde 5d3d
000003c0: 5fdd 8b3d 2a14 11be d8e6 e4bd 620d eab8
000003d0: 29dc 893d 9347 65bc 7fb1 a3bd bb1c 993b
000003e0: 81e6 b3bd bfe8 05be 900d 933d de4c 6eba
000003f0: 70d5 413d a103 073e 6052 bf3d e6fc 23bd
-0.0046465998 0.13447468 0.04340894 -0.12960826 0.029115517 0.03313252 -0.06691814 -0.024110513
0.061721414 -0.054139752 0.07581601 -0.009104662 -0.047657683 -0.008497203 0.010574363 0.09449513
-0.014719652 0.08992037 0.045111343 -0.059002325 -0.06385063 0.027170563 0.009926561 -0.003242229
0.07294296 0.05444026 -0.041402467 -0.11605393 0.01984309 -0.032220867 -0.021173442 -0.0478429
-0.01557402 -0.06605335 0.0745223 0.11478963 -0.07388236 0.029488528 -0.09075307 0.080572866
0.049584094 0.0016584495 -0.1279152 -0.055528533 0.08137835 0.03807681 -0.023987126 0.011903462
0.09661101 -0.066391475 0.008397517 0.09919266 0.0110206045 -0.03405938 0.08754953 -0.0776639
-0.004983659 -0.03442842 0.04177502 0.0031480836 -0.012776996 -0.07756179 -0.09240463 0.022030625
0.15259627 -0.02411053 -0.0057442053 -0.10367423 0.045486357 0.08771362 -0.13115455 0.02221035
-0.06996423 0.06296219 -0.14136346 -0.11408536 0.07232077 -0.06241671 0.00026175033 -0.030468317
0.021731071 -0.0014213843 0.08349581 0.11340441 0.05967586 -0.040067744 -0.14995396 0.06148038
0.04302106 -0.10100882 0.04099298 0.06660091 -0.02319634 -0.114272624 -0.00065917685 -0.022526221
0.05738698 -0.045498244 -0.091203526 -0.07112716 0.011079527 -0.017976785 -0.062578164 -0.027280271
-0.018987017 -0.10398614 0.117290474 0.0956409 -0.047822006 -0.055655908 0.12058329 0.05958921
-0.025559334 0.02980782 0.015607725 -0.093927145 0.06025751 0.020500105 0.07147283 -0.032506783
-0.036383737 -0.042414624 -0.0066355425 0.033975728 0.012840872 -0.09599193 0.055518553 0.0749177
0.032584548 0.09289375 0.11117356 -0.092931345 0.07427967 -0.052014187 -0.0009408109 0.0030264154
0.06030841 -0.012446426 -0.021957947 0.11102827 -0.09731738 -0.020485539 -0.0065031196 0.06489086
0.072848246 -0.034958668 -0.07600773 -0.08088911 -0.08277412 -0.0017804794 -0.13720383 -0.010535403
0.038645696 -0.0447505 0.04708981 -0.05742817 0.035908464 0.0031401291 0.0143715395 -0.0015695153
0.14298368 0.02778363 -0.022495374 0.07666957 -0.056575704 -0.014288559 0.059797145 0.062911
0.05656163 0.03591022 0.016826034 -0.110462986 -0.098797455 0.04802682 -0.013338298 0.01792293
-0.032930486 0.062103704 -0.009338499 0.0020776575 0.016992386 -0.025313875 0.05875974 -0.052683443
-0.027930483 0.00035521277 0.058685724 -0.050402805 0.025560265 0.01635217 0.00703818 0.05400941
-0.08277059 0.09117754 0.072495885 0.015896643 0.028169975 -0.13415691 0.040863752 0.1406521
-0.017816208 0.13852774 -0.0022702694 -0.14028342 0.15022202 -0.03542861 -0.14257695 0.013770653
0.08095841 0.049712636 -0.04698876 0.12918769 -0.019669801 -0.036982276 0.081242464 0.10321751
0.04222163 0.09376451 0.040441196 -0.11973275 -0.044256583 -0.030552782 -0.20548394 -0.12629104
-0.084800065 0.11033173 0.01796763 -0.0517592 -0.016024068 -0.03371088 0.058820087 0.039430644
0.09006094 0.09234733 -0.054413702 -0.09695303 -0.07087069 -0.11784072 -0.022143776 0.054167077
0.068293326 -0.14167848 -0.111768425 -0.00011160482 0.06731445 -0.013994115 -0.07992839 0.0046726144
-0.087841995 -0.13077067 0.07180321 -0.00090904336 0.04732269 0.13184978 0.09341884 -0.040036105

decoder.layers.4.bias f4 [24]
00000000: 2ce3 39bd f2a0 debb bb1d 073e 86e4 963d
00000010: c63e 71bc 471e 04bd 5f06 9cbd 336e f43d
00000020: 580c 403e 6aac b13d 1025 b03c 05b5 a5bc
00000030: 0099 823d d8bb 223e acab 76bd 2052 ccbd
00000040: d6d8 a6bd a0f1 b8bd 1050 0a3d 5710 6dbe
00000050: 1852 c83c 1b06 16be dc53 0abd 1d08 a1bd
-0.045382664 -0.0067940885 0.13194935 0.07367806 -0.014724439 -0.032255437 -0.07618403 0.11935081
0.18754709 0.086754635 0.021502048 -0.020227918 0.06376839 0.15891969 -0.060222313 -0.099766016
-0.08146827 -0.09030461 0.03376776 -0.23150764 0.024453208 -0.14650767 -0.03377138 -0.078628756

prior_network.layers.0.weight f4 [32, 12]
00000000: c300 08bb 76dd ce3d 59a6 503d b612 5cbd
00000010: 9cfa 903d c14c 2d3e 7a6d 1cbe c541 f23c
00000020: 99aa 8c3d 6489 203d 4b8a 2c3d 41bd 06bb
00000030: 445e c43d 43ef bfbd ed40 8c3c be47 52bd
00000040: d828 0fbd 86ec 213d 8841 d63b 8222 123e
00000050: 2921 303e 5dcb 3f3e e336 583e d19b 53be
00000060: 75e4 b9bc 1f27 e7bd 8232 233d 90de 7fbc
00000070: bf3b 753c d264 d8bd 4082 53be 5c5e d1bd
00000080: 2ea4 393d c80e acbd 397f abbd d8c6 00bd
00000090: 84bc 4e3d bdcf 2d3c 5275 a8be a6df b3be
000000a0: a14e 01bd 09b5 c43c 227b a3bc af5e 89bd
000000b0: 4964 d13d 1b32 40bc 7d4e e4bc 0086 f4bc
000000c0: 223b 003e c090 293d d888 423e f91a b93e
000000d0: 3d9a 1abe d020 da3a c962 dd3d 619f b4bd
000000e0: 361f 123e 4f14 1c3e 36b4 cf3d ec32 f6bd
000000f0: 7de1 f1bc eedf c63d cfb8 583e 1575 2d3b
00000100: 40e6 2c3d e574 1bbd 4372 b33b 7aba 3a3e
00000110: bd80 dc3d e079 a13d 41b7 413d e4c1 023d
00000120: 3495 7a3e 732f d4bb 56a5 e1be 02a0 8e3e
00000130: 7984 41bd a507 80bd db6a b1bd fc08 23be
00000140: f99b 4b3e 6bfb 023e f264 f1bd a538 e4bd
00000150: 4393 013c d51b bc3c eb19 e4bd caf2 e0bc
00000160: 6375 03bd 01c6 e53c 6f67 8ebd 167c cc3a
00000170: cf8d a7bd 7051 323c 0d09 253c e3f1 113e
00000180: 0cde 1abd 2730 11be d284 a9bc b5a3 cabd
00000190: 127e 3ebe a7f9 dcbc 6923 3a3d 1c8b 3cbb
000001a0: 0a70 e13d b9e3 ff3d cde2 713d 399d eebc
000001b0: c9c7 12bd 726a 0fbe 0596 3f3e 0f7e c7bd
000001c0: b427 e2bd 0b51 813e a8f5 f23d 3510 0b3e
000001d0: ed6c 423e 9f8a 8abd 9552 c0bd aea8 8c3d
000001e0: b549 a03d 8756 a33d 0918 82be 6c42 49be
000001f0: 1947 b53d 455d 88be bdd5 723d 3a9b 76bd
00000200: a99c 01bd c540 ecbc c255 afbc 45fa d8bd
00000210: 897b bebd c6fe aabd 97b1 0c3e f129 afbe
00000220: 986f b4bd fef8 323e 3b58 cb3d d423 173d
00000230: fffd 5c3d 87a7 57bd 5e50 a13c 7b75 513d
00000240: 1a47 11be fc06 233d e2f9 02be 18f3 95bd
00000250: 3986 103e 59a5 f33d b9b1 a6bd 00fe 0e3d
00000260: 6904 153e 087b eebc dfac 92bd eb6d 87bd
00000270: ff48 15bc 949c 0f3b 915d d8be bd51 703e
00000280: d23b f7bd 6d5a 113e c9e3 e7bc c639 813d
00000290: bf6d 4ebd 2748 e8bd 5c79 533d bb57 103d
000002a0: 4064 8b3d 1c9a 41bc 5426 ab3e e2be e63e
000002b0: 1833 283d 1eea 1fbd 1325 2bbd b615 b13e
000002c0: 656d 89bd 502a 5ebd 39bb 3dbe cd87 eb3b
000002d0: 5161 2b3e 36b0 18be da53 52be d093 aabd
000002e0: 6223 b0bb 06ab 3e3e cedc 843d 9b0a debd
000002f0: 42c0 f73d aa0e a0be 4026 633d ee9f 603d
00000300: 3915 363e d62f ff3c cf91 bf3d 0255 a8bc
00000310: d38f 85bd c46b 1abe b82f fb3d 6a46 1a3e
00000320: 91d4 48bd bb6f 25be 7876 0abc 025b 14bb
00000330: 8058 103e bdbb b63b d59a 4abd 3f1b 893c
00000340: af65 fdbd 95d5 243e 6dc5 cd3d 1ad1 14be
00000350: d2d9 1ebe dd89 95be 72f9 21bd d653 5cbd
00000360: 7479 d43d d9e0 9bbc f149 d53d 1070 1fbd
00000370: 7a62 103e 64ea f7bd a8e6 b0bd c0ca ad3d
00000380: 19db c63d edb7 1e3e 98cd ff3b 03a4 18be
00000390: 1585 e03d d2b4 82bb f53c ccbe 02b0 babe
000003a0: 3d73 5bbd d5c3 863d d0c7 bb3b ee6f 923d
000003b0: 5524 a3bd bfc0 7ebe 3093 873e e5df ea3b
000003c0: a3c7 3b3c 9242 dfbc 6fc8 9b3e 344d 52be
000003d0: 7caa 633d faed 873d 7678 d93d 4061 d4bd
000003e0: 4afc 2c3d 63ef b0bd 0591 803d 9578 c03c
000003f0: 55d0 963d a2f7 273d 4604 94bd ba24 8c3c
-0.0020752407 0.10100834 0.05093989 -0.05372878 0.0707905 0.1692381 -0.15276137 0.029572377
0.068684764 0.039193526 0.042124074 -0.0020559581 0.09588292 -0.093718074 0.017120803 -0.05133795
-0.03495106 0.039532207 0.0065385737 0.14270976 0.1720015 0.1872992 0.21114688 -0.20664908
-0.022691945 -0.11286759 0.03984309 -0.015617028 0.014967858 -0.10566105 -0.20655155 -0.10223076
0.04532259 -0.08401257 -0.08373875 -0.031439632 0.05047275 0.010608611 -0.32902008 -0.35131568
-0.031569127 0.024012106 -0.019956175 -0.067075126 0.10224206 -0.011730696 -0.027869457 -0.029849052
0.12522557 0.04139781 0.18997514 0.3615339 -0.150979 0.0016641859 0.108098574 -0.088194616
0.14269719 0.15242122 0.101417944 -0.12021431 -0.029526467 0.0971068 0.21164249 0.0026467491
0.04221177 -0.037953276 0.0054762675 0.18235198 0.107667424 0.07884574 0.047293905 0.03192319
0.24470979 -0.006475383 -0.44071454 0.2785645 -0.047245476 -0.06251458 -0.08662959 -0.15921396
0.19883718 0.12791221 -0.11786832 -0.111436166 0.007908645 0.02296249 -0.11137756 -0.02745952
-0.03209437 0.028048517 -0.06953322 0.0015600945 -0.08181345 0.010883674 0.010072959 0.14252429
-0.037809417 -0.14178525 -0.020693216 -0.09894506 -0.1860278 -0.026974512 0.045443926 -0.002876944
0.11007698 0.124946065 0.059054185 -0.029127704 -0.03583506 -0.1400545 0.18709572 -0.09740841
-0.11042729 0.25257143 0.118632615 0.13580401 0.18986864 -0.06764721 -0.09390751 0.068681106
0.078265585 0.07975488 -0.25408962 -0.19654244 0.088514514 -0.2663366 0.059285868 -0.06020663
-0.031643543 -0.028839478 -0.021403197 -0.1059461 -0.09300906 -0.083493754 0.1373962 -0.34211686
-0.08810347 0.17477795 0.09928938 0.036899403 0.053953167 -0.05265 0.019691642 0.05113743
-0.1418728 0.039801583 -0.12790635 -0.07321757 0.14113702 0.11896772 -0.08139367 0.034910202
0.14552464 -0.0291114 -0.07161879 -0.06612762 -0.009111642 0.0021913396 -0.42258886 0.2346868
-0.12071957 0.14194651 -0.028306859 0.063098475 -0.05039763 -0.11341887 0.05162941 0.035239916
0.068062305 -0.011816528 0.3342768 0.45067507 0.04106435 -0.03904163 -0.041783404 0.34586877
-0.067103185 -0.05423957 -0.18528451 0.0071878196 0.16736342 -0.14910969 -0.205398 -0.08328974
-0.0053753117 0.18619928 0.06487428 -0.108418666 0.12097217 -0.31261188 0.0554564 0.05484002
0.17781533 0.03115074 0.09353983 -0.020548347 -0.06521573 -0.15080172 0.12264961 0.15065923
-0.049030844 -0.16155903 -0.008451097 -0.0022637253 0.1409626 0.0055765794 -0.049464066 0.016736625
-0.1237291 0.160971 0.100474216 -0.14532891 -0.1551278 -0.29206744 -0.03954453 -0.05379089
0.10374728 -0.019028114 0.10414494 -0.03892523 0.14100066 -0.12105253 -0.08637744 0.08485937
0.09709758 0.1549985 0.007806491 -0.14906316 0.109628834 -0.0039888406 -0.39890257 -0.36462408
-0.053576697 0.06580321 0.0057306066 0.07150255 -0.07965914 -0.24878214 0.26479483 0.0071678036
0.011461171 -0.027253423 0.30426356 -0.20537263 0.05558251 0.06637187 0.10618679 -0.103701115
0.04223279 -0.086394094 0.0627766 0.023494998 0.07363955 0.041007645 -0.072273776 0.017107356

prior_network.layers.0.bias f4 [32]
00000000: a7f4 953d 9208 783e 069c d13d cb95 2fbc
00000010: db75 19be 8879 b3bd 6c2e 4ebd 7a85 e23e
00000020: e9cc 1e3e ea0a 72be 6a46 98bd d941 04be
00000030: 6b48 b33e 3938 74bc 5478 d7bc 771e 0cbd
00000040: 15da 383e 7bfa c23d 86e3 72bd 0302 53bd
00000050: b61b 543d adaa 343e 4a46 843d 3d53 a33e
00000060: 7294 423e 90cd 6dbe f9f1 0abe aa98 13be
00000070: 7f3b af3e 0353 59bd 5eeb 35be c45e b03d
0.07322054 0.2422202 0.10234837 -0.010716866 -0.14986365 -0.087634146 -0.05033724 0.4424246
0.15507855 -0.23636976 -0.074353054 -0.12915744 0.35016188 -0.014905983 -0.026302494 -0.03420874
0.18051942 0.095204316 -0.059299015 -0.05151559 0.05178424 0.17643233 0.06458719 0.31899443
0.1900194 -0.23222947 -0.13568868 -0.14413705 0.3422508 -0.05305768 -0.17765567 0.08611825
