m4_ws/src/morphing_lander/learned_models/2024-05-21_16-56-45/model_30.pth (torch, 33902 bytes, 22 tensors)

cond_normalizer.mean f4 [12]
0	0xbeefd019	-0.46838453
1	0xbc0e3cb2	-0.008681463
2	0xb9e972fe	-0.000445269
3	0x3a737654	0.00092873466
4	0x3cec182e	0.028820124
5	0x3c0bc6b3	0.00853126
6	0xbbd48437	-0.006485488
7	0x3f0c51ed	0.5481251
8	0x3f0fb57b	0.5613629
9	0x3f0c7a0c	0.5487373
10	0x3f0f6b93	0.5602352
11	0x421b1a99	38.775974

cond_normalizer.variance f4 [12]
0	0x3e02f949	0.12790407
1	0x3aac716f	0.0013156364
2	0x3aac1af5	0.0013130592
3	0x3aab0ad6	0.0013049494
4	0x3d92e5a3	0.07172706
5	0x3d66c969	0.056344423
6	0x3de05fda	0.10955782
7	0x3cbabe1d	0.022795731
8	0x3cbece41	0.023291709
9	0x3cbb09ff	0.022831915
10	0x3cc16c71	0.02361128
11	0x43906860	288.81543

output_normalizer.mean f4 [12]
0	0xbb4cc7be	-0.0031246985
1	0xbae6d36d	-0.0017610617
2	0x3c688f6f	0.0141943535
3	0x3847f29a	4.7671238e-05
4	0x3b2591a0	0.0025263801
5	0x3a48cf26	0.0007660262
6	0x3c41c5be	0.011826931
7	0x3a9a765b	0.001178454
8	0x402a74cd	2.663379
9	0x3d9d829f	0.076909296
10	0x3ee6d244	0.45082295
11	0xb9928ca1	-0.00027952067

output_normalizer.variance f4 [12]
0	0x3e1b4613	0.1516345
1	0x3da93096	0.0826122
2	0x3d0e6c90	0.034771502
3	0x38e2c638	0.00010813441
4	0x3baf0fff	0.005342483
5	0x3ca73d41	0.02041495
6	0x3e8363ad	0.25661984
7	0x40070b59	2.1100676
8	0x428f5a6a	71.67659
9	0x432d5868	173.34534
10	0x40d1ae7e	6.5525503
11	0x3ec54ec0	0.38536644

encoder.layers.0.weight f4 [32, 24]
0	0xbc71e9bf	-0.014765202
1	0xbc8028f1	-0.015644522
2	0xbc2337fa	-0.009962076
3	0xbe100b13	-0.14066724
4	0xbe4ffc1b	-0.20311014
5	0x3e82783e	0.25482363
6	0x3d36adb1	0.04459924
7	0xbe44710b	-0.19183747
8	0xbac27b8b	-0.0014837844
9	0xbe338ba3	-0.17533736
10	0x3cc1f785	0.023677597
11	0xbdf4b1d1	-0.11947978
12	0x3c898fa9	0.016792135
13	0x3b09943e	0.00209929
14	0x3cabaf06	0.020957481
15	0x3e6414ed	0.22273608
16	0xbcabb828	-0.020961836
17	0xbae7fd01	-0.0017699302
18	0xbc37ace2	-0.011210652
19	0x3c99276f	0.018695561
20	0x3d1c8ff1	0.03822321
21	0xbc640dbd	-0.013919291
22	0xbd840664	-0.064465314
23	0x3b83f015	0.0040264227
24	0x3db3d12f	0.08780133
25	0xba8c3a6c	-0.0010698563
26	0x3d7ca96e	0.06168502
27	0x3e1b2941	0.15152456
28	0xbd9e7322	-0.077368036
29	0xbcd9a72f	-0.026568977
30	0xbe299567	-0.16560899
31	0x3e4bd75a	0.19906369
32	0x3df79ef0	0.12090862
33	0x3de25807	0.11051946
34	0xbc9f55a1	-0.01945001
35	0xbdac236d	-0.084051944
36	0x3e07f86e	0.13278362
37	0xbd96dc61	-0.07366253
38	0xbe1f3466	-0.15547332
39	0xbe25a3fa	-0.16175833
40	0xbd4bfa45	-0.049799222
41	0xbda80435	-0.082039274
42	0xbe105a2a	-0.14096895
43	0xbc79a686	-0.015237456
44	0xbe4a95e3	-0.1978374
45	0x3d48b2a5	0.048998494
46	0xbe29aa71	-0.16568924
47	0x3d88e87c	0.06684968
48	0xbcc35760	-0.023845375
49	0x3daac14b	0.08337649
50	0xbd64635c	-0.05575882
51	0xbe886adf	-0.26644036
52	0x3d0f9206	0.03505137
53	0xbe4a0c65	-0.1973129
54	0xbdee1c79	-0.116265245
55	0x3dbcb3b8	0.09213966
56	0xbcb21e22	-0.021742884
57	0xbd75d2e5	-0.060015578
58	0xbe0d83d9	-0.13819827
59	0xbd832d23	-0.064050935
60	0xbbb99c77	-0.005664404
61	0x3cbe36f2	0.02321956
62	0xbd8ba0d6	-0.068177864
63	0xbe67d80a	-0.22641006
64	0xbbde9c10	-0.0067935064
65	0x3cf2f2f6	0.029656868
66	0x3c023264	0.007946584
67	0xbdde6ec8	-0.108609736
68	0xbc4d0e50	-0.012515619
69	0x3daef1aa	0.085421875
70	0x3b6ac6aa	0.003582398
71	0x3c8efc1c	0.0174542
72	0xbc65bf9d	-0.014022735
73	0xbdc3cc82	-0.09560491
74	0x3cfed2ac	0.031106316
75	0x3b8c887e	0.004288732
76	0x3c7ca440	0.01542002
77	0x3e422aad	0.18961592
78	0xbe5cea70	-0.21573806
79	0x3e32767f	0.17428015
80	0x3dcfa518	0.10138911
81	0xbe65d4e7	-0.22444497
82	0xbb41f53b	-0.0029595632
83	0xbcc089e3	-0.02350325
84	0xbcd56965	-0.026051233
85	0x3ddc2ce6	0.10750751
86	0x3dd483d8	0.1037671
87	0xbe4ec530	-0.20192409
88	0xbb174c24	-0.0023086155
89	0x3d056324	0.03256525
90	0x3d135f27	0.035979416
91	0x3e132e52	0.14373139
92	0x3e04443d	0.12916656
93	0x3d6e4a6c	0.058176443
94	0x3d8d0028	0.068847954
95	0xbbf658a9	-0.0075178933
96	0xbd0c326f	-0.034227785
97	0xba69b928	-0.0008915835
98	0xbe1cbd1b	-0.15306513
99	0xbe50785c	-0.20358413
100	0xbe7a056e	-0.24416134
101	0x3e5877e3	0.21139483
102	0xbe1606ff	-0.14651106
103	0xbab19f8d	-0.0013551578
104	0xbc033349	-0.008007833
105	0xbdb51fac	-0.088439316
106	0x3d6707c6	0.056403898
107	0xbe31050b	-0.1728708
108	0x3c85cc23	0.016332692
109	0xbd87caea	-0.066305
110	0x3caf4af4	0.021398045
111	0x3df1193e	0.11772393
112	0x3c2d2485	0.010567789
113	0xbd8e1c1b	-0.069389544
114	0xbd6ecb75	-0.0582995
115	0xbde93f39	-0.11389012
116	0xbdb7f69a	-0.089825824
117	0x3de67014	0.11251846
118	0x3db7d988	0.08977038
119	0x3d53b712	0.05168826
120	0xbc78fd67	-0.015197135
121	0xbabfedcc	-0.0014643013
122	0x3d86b80a	0.065780714
123	0x3ba937d5	0.0051641264
124	0xbe2299af	-0.15878938
125	0xbe20491e	-0.15652892
126	0xbd99f86e	-0.07518087
127	0xbc9ae4bb	-0.018907895
128	0x3d04f0c7	0.032456186
129	0x3dc29850	0.095017076
130	0x3e6b1b6a	0.22959676
131	0xbe3cab24	-0.1842466
132	0x3d6a9357	0.05726942
133	0x3d87bf33	0.06628265
134	0xbe6312f3	-0.22175197
135	0xbd6c08ff	-0.057625767
136	0xbc94b9cc	-0.018155001
137	0x3bd95c43	0.006633313
138	0xbd1a7208	-0.037706405
139	0x3db63ed2	0.08898701
140	0xbd55c128	-0.05218616
141	0xbdd95a21	-0.10612894
142	0x3dcd865b	0.10035392
143	0xba850898	-0.0010149656
144	0x3d7c46f5	0.061591107
145	0xbdfc4b7a	-0.123190835
146	0xbdaf411f	-0.08557343
147	0x3d352681	0.044226173
148	0xbdc83161	-0.09775043
149	0xbdee024b	-0.11621531
150	0x3db8d058	0.090241134
151	0xbdc64b7c	-0.09682366
152	0xbe2ed1ef	-0.17072271
153	0x3d61cb2e	0.055125408
154	0x3d10484e	0.035225205
155	0xbd78d986	-0.06075432
156	0x3c43dc5f	0.011954396
157	0x3e39d2dd	0.18146844
158	0xbd096750	-0.033545792
159	0x3bb5f704	0.005553128
160	0x3e1d2314	0.15345412
161	0xbde5ea26	-0.11226301
162	0xbdcca8ac	-0.09993109
163	0x3e3081e6	0.17237052
164	0x3ce1317e	0.02748942
165	0x3e32378a	0.17403999
166	0x3d48a7f5	0.0489883
167	0xbd6e9eb1	-0.05825681
168	0xbded5a9b	-0.11589547
169	0x3d90f4cf	0.070779435
170	0x3dad4ef2	0.08462323
171	0x3d993b6a	0.074820355
172	0xbbec0871	-0.0072031547
173	0x3df90ac6	0.12160258
174	0xbd588aea	-0.052866854
175	0x3d70ad60	0.058759093
176	0xbdf7458c	-0.12073812
177	0x3d4c17b6	0.0498273
178	0x3c0f0852	0.008730011
179	0xbda9dc4a	-0.0829397
180	0x3d98c1c6	0.07458834
181	0xbd962e99	-0.073331065
182	0x3b6727c7	0.0035271512
183	0xbd86abc5	-0.06575731
184	0x3e27783e	0.16354463
185	0x3e2c6aec	0.16837662
186	0xbdfb5b7b	-0.12273308
187	0x3d8e213e	0.06939934
188	0xbe14714d	-0.14496346
189	0x3d4942ad	0.049135853
190	0xbcf681fa	-0.030091275
191	0xbdb31557	-0.087443046
192	0x3c32c2a4	0.010910664
193	0xbcf36c6a	-0.029714782
194	0xbdc097a3	-0.094039224
195	0x3e3ce91c	0.18448299
196	0x3e6370c1	0.22210981
197	0x3e593c7d	0.2121448
198	0xbe54a6d6	-0.20766768
199	0xbce0abaf	-0.027425615
200	0xbc8824a7	-0.01661904
201	0x3e2348b0	0.15945697
202	0xbe3a61dd	-0.18201394
203	0xbd12112d	-0.03566091
204	0x3d927d29	0.07152779
205	0x3cbd4c1a	0.023107577
206	0xbda8c1d1	-0.082400925
207	0xbd727f03	-0.05920316
208	0xbc4fef08	-0.012691267
209	0xbcfc1a1f	-0.030774174
210	0x3c910ac2	0.017705325
211	0xbd935867	-0.07194596
212	0x3cac0bcf	0.021001725
213	0x3dfcb6b3	0.123395346
214	0xbddfe651	-0.10932601
215	0xbd05af56	-0.032637917
216	0xbd6aa421	-0.05728543
217	0xbc40de2c	-0.01177172
218	0xbca41f60	-0.020034492
219	0x3d6fafc8	0.058517247
220	0xbe0b5e0b	-0.13610093
221	0xbc1c63e0	-0.009545296
222	0x3db7e46a	0.089791134
223	0x3c5f3060	0.013622373
224	0xbc9b13a4	-0.018930264
225	0xbe048c55	-0.12944157
226	0x3d440fa0	0.047866464
227	0x3ce21a8c	0.02760055
228	0xbd1f4426	-0.03888335
229	0xbd822244	-0.06354192
230	0x3c9ae20f	0.018906621
231	0x3e13c373	0.14430027
232	0x3dcfc782	0.10145475
233	0xbe241329	-0.16022934
234	0x3c9d607f	0.019211052
235	0x3e0aaad7	0.13541733
236	0xbdb3cca9	-0.0877927
237	0x3c09d972	0.008413659
238	0x3cf190ba	0.029487956
239	0x3cabaea4	0.020957299
240	0x3cb5b49f	0.022180853
241	0xbb9877b4	-0.0046529416
242	0x3df2c64c	0.118542284
243	0xbe3eb11f	-0.18622254
244	0xbdcf801e	-0.10131858
245	0x3ea1b275	0.31581464
246	0xbd9289c2	-0.071551815
247	0x3d2da6fc	0.042395577
248	0xbe00a238	-0.12561882
249	0x3d763222	0.060106404
250	0xbe5c01a8	-0.21485007
251	0x3e30901c	0.17242473
252	0x3d80befc	0.062864274
253	0xbccbc4ab	-0.024874052
254	0x3d37dfd3	0.04489119
255	0xbe142935	-0.14468844

encoder.layers.0.bias f4 [32]
0	0xbcff32da	-0.031152178
1	0x3e51aba5	0.20475633
2	0xbd4ae988	-0.04953912
3	0xbdf76044	-0.12078908
4	0xbe1045d2	-0.14089134
5	0xbd65bcad	-0.05608814
6	0x3dd51f89	0.104064055
7	0x3e978836	0.29596108
8	0xbd001e83	-0.0312791
9	0xbdcb87bc	-0.09937999
10	0xbd89e558	-0.06733197
11	0xbd4075cc	-0.04698734
12	0xbdfca9cd	-0.123370744
13	0xbcd6ef85	-0.026237259
14	0x3e891dfe	0.26780695
15	0xbc902496	-0.01759557
16	0x3eb3405c	0.3501004
17	0xbe15887d	-0.14602847
18	0xbd2e58c0	-0.042565107
19	0x3ea301fa	0.31837445
20	0x3e6b97ab	0.23007075
21	0xbaeab7ac	-0.0017907522
22	0xbdb2f209	-0.08737571
23	0xbd4fcbbb	-0.050731402
24	0x3ea5b1b9	0.32362154
25	0xba80ea86	-0.0009835518
26	0x3dc568d7	0.09639137
27	0xbd784159	-0.060609195
28	0xbd608b3c	-0.054820284
29	0x3def0026	0.1166995
30	0xbdac0a64	-0.08400419
31	0x3e80b73a	0.2513979

encoder.layers.2.weight f4 [32, 32]
0	0x3d15cbe4	0.0365714
1	0x3d479363	0.048724543
2	0xbc1049eb	-0.008806686
3	0xbd9f5692	-0.07780184
4	0x3bbf9602	0.0058467397
5	0x3b080da6	0.0020760088
6	0x3cb73db0	0.022368282
7	0x3e358e91	0.17730166
8	0xbdb15c6d	-0.08660207
9	0xbdae8c5f	-0.085228674
10	0xbdf189a7	-0.11793833
11	0x3dbb1604	0.091350585
12	0x3c97df39	0.018539058
13	0x3dae9359	0.08524198
14	0x3d3e5c16	0.04647454
15	0x3d54b53e	0.05193066
16	0xbd14cb18	-0.036326498
17	0x3d9090af	0.07058846
18	0x3cabcefb	0.02097272
19	0x3c316f95	0.010829826
20	0xbdb471da	-0.08810778
21	0xbda57b8f	-0.080802076
22	0xbe1be16a	-0.15222707
23	0xbe0f1f0d	-0.13976689
24	0x3dd6b1a6	0.104831025
25	0xbdb7aa9a	-0.089680865
26	0x3a66f4a3	0.00088102574
27	0xbd47fda8	-0.04882589
28	0x3c2762d8	0.010216437
29	0xbdcf02a5	-0.10107926
30	0xbd9b7764	-0.07591131
31	0x3c70315d	0.014660207
32	0xbe17b28c	-0.14814204
33	0x3e067d0e	0.13133642
34	0xbe1c66ac	-0.15273541
35	0xbd7b9f79	-0.06143138
36	0xbde458fe	-0.111497864
37	0xbe3cc1dc	-0.18433326
38	0xbd31b8f1	-0.043389264
39	0x3dfd7c8f	0.12377273
40	0xbe202f68	-0.15643084
41	0xbe003034	-0.12518388
42	0xbe332cb3	-0.1749752
43	0xbd54e3fc	-0.051975235
44	0xbd1bab64	-0.038005248
45	0xbe06f352	-0.13178757
46	0x3de40e36	0.11135523
47	0xbe2da95a	-0.16959134
48	0x3e407935	0.18796237
49	0xbe3a018e	-0.18164656
50	0x3c001dbe	0.007819591
51	0x3df4f750	0.119612336
52	0x3dcbf360	0.099585295
53	0xbe0877b1	-0.13326909
54	0xbd6fd12d	-0.058549095
55	0xbe18343b	-0.14863674
56	0xbb54a96a	-0.0032449611
57	0xbcdb0d27	-0.02673967
58	0x3c861585	0.016367683
59	0xbb197914	-0.0023418115
60	0xbddd166a	-0.10795291
61	0x3b79af27	0.0038098784
62	0xbe90694f	-0.28205344
63	0xbd0d1330	-0.034442127
64	0x3e43b42c	0.19111699
65	0xbd69f64d	-0.057119656
66	0x3e41eee0	0.1893878
67	0x3d4a8402	0.0494423
68	0x3e6edfff	0.23327635
69	0x3d8d0001	0.06884766
70	0xbb6bf851	-0.0036006162
71	0x3daf2d5b	0.08553573
72	0x3e66e0ba	0.22546664
73	0x3cb9544b	0.022623202
74	0xbc9f9dcf	-0.019484429
75	0x3e0c7245	0.13715465
76	0x3e62543f	0.2210245
77	0x3e754f4d	0.23956032
78	0x3e0f5168	0.13995898
79	0x3e6f9b7d	0.23399158
80	0x3d90c60c	0.070690244
81	0x3e2f3b4a	0.1711246
82	0x3dd86e15	0.105678715
83	0x3db8286d	0.089920856
84	0x3d31dd55	0.04342397
85	0x3d87badc	0.066274375
86	0xbc447fe7	-0.011993385
87	0x3e4763ac	0.19471616
88	0xbd1e3a50	-0.03862983
89	0x3d8921a8	0.066958725
90	0xbd051605	-0.032491703
91	0x3e33c901	0.17557146
92	0x3de9b448	0.11411339
93	0x3cbc3ad1	0.022977265
94	0x3e8774d6	0.26456326
95	0x3de751e2	0.11294915
96	0x3db3d7af	0.08781373
97	0xbd80055a	-0.06251021
98	0x3cb9c3f2	0.022676442
99	0x3def6364	0.11688879
100	0x3d1c6a32	0.038187213
101	0x3e5b7789	0.21432318
102	0xbbfa9ff7	-0.007648464
103	0x3d5dd4cb	0.054158013
104	0x3e091a5b	0.1338896
105	0x3d15ae04	0.036542907
106	0xbdb22b63	-0.086996816
107	0x3e523c29	0.20530762
108	0x3c9ebae3	0.019376224
109	0x3c89ca4c	0.016820095
110	0x3c8e30e4	0.017357297
111	0x3d590c21	0.052990083
112	0x3e1a384d	0.1506054
113	0xbd570d83	-0.05250312
114	0x3e169f36	0.14709172
115	0x3d993a43	0.07481816
116	0x3da7d3c5	0.08194689
117	0x3e0c97ad	0.13729735
118	0x3dc98ba9	0.09841091
119	0x3e1603a0	0.1464982
120	0x3da28ed5	0.07937399
121	0x3d197a44	0.037470117
122	0xbcbd7e53	-0.023131525
123	0xbc11fa22	-0.008909734
124	0x3e15ad0f	0.14616798
125	0xbd4c33e7	-0.049854185
126	0x3e095de1	0.13414718
127	0x3e201aaf	0.15635179
128	0x3e37b572	0.1794031
129	0x3e4f610b	0.20251863
130	0x3e226d68	0.15862048
131	0x3c54d9ce	0.012991382
132	0x3c2c16fd	0.010503528
133	0x3e5423bc	0.20716757
134	0x3db2e6ae	0.08735405
135	0x3d415f91	0.04721028
136	0x3df15bbe	0.117850766
137	0x3e044657	0.12917458
138	0x3d46ccdd	0.048535217
139	0x3d281902	0.041039474
140	0x3e1ac6bb	0.15114872
141	0x3e487fcc	0.1958
142	0xbd96840d	-0.073494054
143	0x3e6ba91e	0.23013732
144	0x3ccb6bf0	0.024831742
145	0x3d0dcd9f	0.034619924
146	0x3e2712c8	0.16315758
147	0x3d0aa22b	0.03384606
148	0x3cf9064a	0.030398507
149	0x3e413077	0.18866144
150	0x3e681eb1	0.22667958
151	0x3e1d6ea1	0.15374233
152	0xbd91a29f	-0.07111096
153	0x3e2a99a8	0.16660178
154	0x3c9d8e22	0.019232813
155	0x3e2ad412	0.16682461
156	0x3d97a365	0.07404212
157	0x3d367f6a	0.044555105
158	0x3dc7abff	0.097496025
159	0x3e3fe4eb	0.18739669
160	0x3e10ce3b	0.1414117
161	0x3c73d2ca	0.014881799
162	0x3e0da3ad	0.13831969
163	0x3d02ded8	0.0319508
164	0x3e590c2b	0.21196048
165	0x3bbdc424	0.005791204
166	0x3d46749d	0.048451055
167	0xbd33a7c0	-0.04386115
168	0x3dae2dd9	0.085048385
169	0x3d649b6a	0.055812277
170	0x3e676599	0.2259735
171	0x3dd83e6a	0.105587795
172	0x3e534370	0.20631194
173	0x3e175849	0.14779772
174	0xbd04b9f0	-0.032403886
175	0xbb453c44	-0.0030095736
176	0x3d80119c	0.06253359
177	0xbc92c253	-0.017914927
178	0x3d100791	0.035163466
179	0x3dd51fe0	0.1040647
180	0x3e01ffb9	0.12695207
181	0x3ddce978	0.10786718
182	0x3d83097b	0.06398293
183	0x3e343bc4	0.17600924
184	0x3e151760	0.14559698
185	0x3e6342b5	0.22193415
186	0x3d438806	0.047737144
187	0x3e26c0be	0.16284463
188	0x3de27a5f	0.11058497
189	0x3d289efd	0.041167248
190	0x3d967778	0.073470056
191	0x3dc7675a	0.097365096
192	0x3cbde362	0.023179714
193	0x3d94c14f	0.07263433
194	0x3e3c9920	0.18417788
195	0x3e655774	0.22396642
196	0xbd8c2ba5	-0.06844262
197	0x3e413ce5	0.18870886
198	0x3e051b45	0.12998684
199	0xbd9d89e7	-0.076923184
200	0x3a41c750	0.00073920656
201	0x3b9f058a	0.004852955
202	0x3dfa343a	0.12216993
203	0xbd93afc9	-0.07211263
204	0x3e1e120d	0.15436573
205	0x3cacb6df	0.021083293
206	0x3cb9c3d8	0.022676393
207	0xbbdf14fd	-0.006807922
208	0x3e15553d	0.14583297
209	0x3dd768de	0.10518049
210	0xbd1883f5	-0.03723522
211	0xbd10d718	-0.03536138
212	0x3d1e8aa3	0.038706433
213	0x3dd38bcf	0.10329401
214	0x3dcc671a	0.099806026
215	0x3d1eee87	0.038801696
216	0x3dad6ade	0.08467649
217	0xbd066ccb	-0.032818597
218	0xbd82f95c	-0.06395218
219	0xbd466f59	-0.048446033
220	0x3c3391d7	0.010960064
221	0xbd2789d5	-0.04090293
222	0x3d9a9804	0.07548526
223	0x3e31dd4b	0.17369573
224	0xbdde6aa4	-0.10860184
225	0xbca1eb7a	-0.019765604
226	0xbdd01165	-0.10159568
227	0xbe1f9bc9	-0.15586771
228	0x3c1b6d4e	0.0094865095
229	0xbce451eb	-0.027871093
230	0x3e0f48a0	0.13992548
231	0x3e4f33b6	0.2023457
232	0xbe88d74b	-0.26726755
233	0xbe2f6798	-0.17129362
234	0xbe2a58d3	-0.16635446
235	0xbdf7495e	-0.120745406
236	0xbe867e79	-0.26268366
237	0xbdb00cff	-0.08596229
238	0x3e3963b4	0.1810444
239	0xbd4d37c8	-0.050102025
240	0x3d39b873	0.04534192
241	0xbdaf3504	-0.08555034
242	0x3cfe4230	0.03103742
243	0x3e2af8f4	0.1669653
244	0x3e4007f2	0.18753031
245	0xbd0403ff	-0.032230373
246	0xbe175a9b	-0.14780657
247	0x3c688478	0.014191739
248	0x3e7419dc	0.2383799
249	0xbcab170c	-0.020885013
250	0x3d918aea	0.07106574
251	0xbde7b15c	-0.113131255
252	0xbe095dda	-0.13414708
253	0x3e31f636	0.17379078
254	0xbe6084c3	-0.21925645
255	0x3d3b0a79	0.045664284

encoder.layers.2.bias f4 [32]
0	0x3dc9696d	0.098345615
1	0x3e9722d2	0.29518753
2	0xbe1203c9	-0.14259256
3	0xbe0cd8b0	-0.13754535
4	0xbe103710	-0.14083505
5	0xbe4483af	-0.19190858
6	0xbd8f2d98	-0.06991118
7	0x3ebf3177	0.37342426
8	0xbd87d87c	-0.06633088
9	0xbe149ada	-0.14512196
10	0x3e7edd6d	0.24889155
11	0x3dfde724	0.12397602
12	0x3d3b7936	0.045769893
13	0xbd71dd58	-0.05904898
14	0x3eb99fb3	0.36254653
15	0xbd01336c	-0.03154318
16	0x3e13845a	0.14405957
17	0xbe056cd5	-0.13029797
18	0xbe16d292	-0.14728764
19	0xbbd9831f	-0.0066379453
20	0x3c68ab86	0.014201051
21	0xbd94840f	-0.07251751
22	0xbd8d2e9a	-0.06893654
23	0x3e0fd6ac	0.14046735
24	0x3d2b5d90	0.041837275
25	0xbe82604b	-0.2546409
26	0x3e58b13a	0.21161357
27	0xbde28d61	-0.11062122
28	0xbd36ea43	-0.044657003
29	0xbd9dec26	-0.07711057
30	0x3e7f27cf	0.2491753
31	0x3ea4d44a	0.32193214

encoder.layers.4.weight f4 [12, 32]
0	0x3e1833f2	0.14863566
1	0x3e23cd86	0.1599637
2	0xbe93c2ee	-0.28859657
3	0xbe6fdc42	-0.23423865
4	0xbe4d41ae	-0.20044586
5	0xbe1c96b0	-0.15291858
6	0xbe76c52a	-0.2409865
7	0x3e1dbaf2	0.15403345
8	0xbe0a0ef0	-0.1348226
9	0xbe5f6e17	-0.2181934
10	0x3e99a2e9	0.30007103
11	0xbd2a85f1	-0.041631643
12	0xbdc4fb9b	-0.096183024
13	0xbdf2084c	-0.11817989
14	0x3e8fbc05	0.28073135
15	0x3d799299	0.060930822
16	0x3d73ded6	0.059538685
17	0xbe86395e	-0.26215643
18	0x3d0691df	0.032853957
19	0xbe6cef38	-0.2313813
20	0xbe37f342	-0.17963889
21	0x3c926c03	0.01787377
22	0x3cce270f	0.025165109
23	0x3c977cb3	0.018492078
24	0xbe1f4516	-0.15553698
25	0xbe62c0fc	-0.2214393
26	0x3e47cdd3	0.1951211
27	0xbc957de2	-0.018248502
28	0xbe53c370	-0.20680022
29	0xbe6067fa	-0.21914664
30	0x3e55f4b3	0.20894127
31	0x3e9addb2	0.30247265
32	0xbe1c046c	-0.15236062
33	0x3da34d4d	0.07973728
34	0x3d5575da	0.052114345
35	0xbaf2b181	-0.0018516035
36	0xbe4bae62	-0.1989074
37	0xbd1ef3aa	-0.038806595
38	0xbdfa3f94	-0.12219158
39	0x3e1fffec	0.1562497
40	0xbe268b9f	-0.16264199
41	0xbce355d3	-0.027750885
42	0x3e342915	0.17593797
43	0x3cef8e52	0.029242668
44	0xbe3635b3	-0.17793922
45	0xbc90ecff	-0.017691134
46	0x3e14f5fc	0.1454696
47	0x3d92bb3b	0.07164618
48	0x3d5b7bf0	0.053584993
49	0xbe640c2f	-0.22270273
50	0xbe20a323	-0.15687232
51	0xbe27e411	-0.16395594
52	0x3dfe86a1	0.12428022
53	0xbd137642	-0.03600145
54	0xbe0ffc30	-0.14061046
55	0x3d278e35	0.040907104
56	0x3c4b7289	0.012417444
57	0xbe37ddab	-0.17955653
58	0xbe0ce4cb	-0.13759153
59	0xbe0a6c21	-0.1351781
60	0xbcdd8bd4	-0.027044214
61	0x3cfd1404	0.030893333
62	0x3de84603	0.11341479
63	0x3de58289	0.11206538
64	0xbe2069f5	-0.1566542
65	0xbd985415	-0.074379124
66	0x3cc6605d	0.024215871
67	0x3d8a1f03	0.06744196
68	0x3def1ce5	0.11675433
69	0x3b44a4f2	0.0030005542
70	0xbc01ef4e	-0.00793059
71	0xbe5dc88b	-0.21658532
72	0x3e02d500	0.12776566
73	0x3dd57b82	0.10423948
74	0xbc3a9875	-0.011388888
75	0xbdbd2340	-0.09235239
76	0x3b9c0957	0.0047618556
77	0x3d597e91	0.05309922
78	0xbdbd2bc2	-0.09236862
79	0xbcdcf245	-0.026970992
80	0xbde67c27	-0.11254149
81	0x3c3174b8	0.010831051
82	0xbd5b956c	-0.053609297
83	0xbe02f971	-0.12790467
84	0xbcd719e1	-0.026257457
85	0x3d3bae1a	0.045820333
86	0xbcf16490	-0.029466897
87	0xbe130f01	-0.14361192
88	0xbd189c4d	-0.037258435
89	0x3cff6467	0.031175805
90	0xbe34315f	-0.17596959
91	0x3ce97d10	0.028502017
92	0xbdd5376f	-0.10410964
93	0x3c3328d0	0.010935023
94	0xbe757fd2	-0.23974541
95	0xbe107e95	-0.14110787
96	0x3ce55d3f	0.027998565
97	0x3db3656c	0.08759579
98	0xbd055072	-0.03254742
99	0xbdbd164f	-0.09232771
100	0xbe385446	-0.18000898
101	0xbdd8a045	-0.10577444
102	0xbde27923	-0.11058261
103	0x3d711aa4	0.058863297
104	0xbe212dd6	-0.15740141
105	0xbdff4eb8	-0.12466186
106	0x3da1863e	0.07886933
107	0xbdd95064	-0.106110364
108	0xbe159fb2	-0.146117
109	0xbda7966e	-0.08182989
110	0xbc605eae	-0.013694448
111	0xbe3b34ce	-0.18281862
112	0x3ced614a	0.028977055
113	0xbe34a2a8	-0.17640173
114	0xbe053660	-0.13009024
115	0x3c0c53dc	0.0085649155
116	0x3dad326c	0.08456883
117	0xbde9aedc	-0.11410305
118	0x3d7916bf	0.060812708
119	0xbd915deb	-0.070979916
120	0xbe02ed84	-0.12785918
121	0xbe493c30	-0.19651866
122	0xbe1dc9db	-0.15409033
123	0x3d44fa11	0.048090044
124	0xbe2d4b08	-0.16923153
125	0xbe2233e1	-0.15840103
126	0xbdd5040e	-0.10401164
127	0xbd241c00	-0.040065765
128	0xbe08785a	-0.1332716
129	0xbeb95108	-0.36194634
130	0x3e9b4079	0.30322626
131	0xbcac18de	-0.021007951
132	0x3e133855	0.14376958
133	0x3e8aa666	0.27080077
134	0xbc3b485f	-0.011430829
135	0xbea827fe	-0.32843012
136	0xbcce4be6	-0.025182676
137	0x3e84ca9f	0.25935838
138	0xbe3d10e3	-0.18463473
139	0xbe2b0413	-0.16700773
140	0x3d95769c	0.072980136
141	0x3df72c89	0.12069041
142	0xbea5346d	-0.3226656
143	0x3e446236	0.1917809
144	0xbe8ade20	-0.27122593
145	0x3e6dee3d	0.23235412
146	0x3e8dff37	0.27733776
147	0x3de9bce6	0.11412983
148	0x3e3e6982	0.18594936
149	0x3e50c225	0.2038656
150	0x3e3b183c	0.18270963
151	0xbe767c9f	-0.24070977
152	0xbc3a2571	-0.011361466
153	0x3e94bdad	0.2905096
154	0xbe3828aa	-0.17984262
155	0x3dfa63a3	0.122260354
156	0x3e549410	0.20759606
157	0x3df58db7	0.119899206
158	0xbea0d4a0	-0.3141222
159	0xbe9329db	-0.2874287
160	0x3e07c178	0.13257396
161	0x3e099f0e	0.13439581
162	0xbd385ffe	-0.04501342
163	0xbdcaddd7	-0.09905594
164	0xbdc71252	-0.09720291
165	0x3dfcb587	0.12339311
166	0x3e04b280	0.12958717
167	0x3c41f299	0.011837625
168	0xbd764c43	-0.060131323
169	0x3c212aeb	0.009836893
170	0x3e26baf7	0.16282259
171	0x3dec9a76	0.115528986
172	0xbda5007a	-0.080567315
173	0x3ba1c1b5	0.0049364218
174	0x3e72488c	0.23660487
175	0xbb99eea6	-0.0046976386
176	0x3dfb0257	0.12256306
177	0xbb19cee2	-0.002346926
178	0x3de34a73	0.110981844
179	0x3d83e7c1	0.06440688
180	0xbd2f3db5	-0.042783458
181	0xbcdae31b	-0.02671962
182	0x3dd63e8e	0.1046115
183	0x3d7f2b1b	0.062296968
184	0xbd809b82	-0.06279661
185	0x3d9a04e7	0.07520466
186	0x3d24ab93	0.04020269
187	0x3d3835a6	0.044973038
188	0x3e06b5a3	0.13155226
189	0xbd427b88	-0.04748109
190	0x3e843156	0.2581889
191	0x3d761441	0.06007791
192	0x3cac8d4d	0.021063471
193	0xbc5ab22e	-0.013348145
194	0xbdbb2c66	-0.09139328
195	0xbe57e17b	-0.21082108
196	0xbcb04512	-0.02151731
197	0x3d227050	0.03965789
198	0xbd0558ee	-0.032555513
199	0x3a1c9958	0.0005973778
200	0xbdd209da	-0.10255785
201	0x3d6956f6	0.056967698
202	0x3d955943	0.07292416
203	0xbe414f26	-0.18877849
204	0xbda8478f	-0.08216774
205	0xbd8271dc	-0.06369373
206	0xbd89f32b	-0.06735834
207	0x3badc161	0.0053025936
208	0xbd8c7b07	-0.06859403
209	0xbd2245fc	-0.039617524
210	0x3d43501c	0.04768382
211	0x3cc71025	0.02429969
212	0x3c7a1781	0.015264393
213	0x3c7459bb	0.014913972
214	0xbe189f01	-0.14904405
215	0xbe5145c9	-0.20436777
216	0xbe1d9dfa	-0.15392295
217	0xbda56842	-0.08076526
218	0xbc46a625	-0.012124573
219	0x3cbd6160	0.023117721
220	0xbdfb298b	-0.12263783
221	0xbdc47582	-0.09592725
222	0xbe0135c7	-0.1261817
223	0x3c8ea7a5	0.017413924
224	0xbde624c8	-0.11237484
225	0xbd825941	-0.0636468
226	0xbd1cf94d	-0.03832369
227	0xbde94ff3	-0.11392202
228	0x3e075e28	0.13219512
229	0xbba3d43a	-0.0049996646
230	0xbb0ca0b2	-0.0021458087
231	0xbd8d6d57	-0.069056205
232	0xbc953a6d	-0.018216336
233	0x3db28e45	0.08718542
234	0x3dff7ecf	0.12475359
235	0xbde5317d	-0.1119108
236	0xbd9c311f	-0.076265566
237	0xbcb38881	-0.021915676
238	0xbd64ec26	-0.05588927
239	0xbe15f438	-0.14643943
240	0xbc7cf930	-0.01544027
241	0x3d50d019	0.050979707
242	0x3e0f5985	0.13998993
243	0x3da297ed	0.07939134
244	0x3d76f76b	0.06029455
245	0xbd70e6cb	-0.05881385
246	0xbdc041c7	-0.09387546
247	0x3de85670	0.11344612
248	0xbe0a0f1f	-0.1348233
249	0xbd6e1698	-0.058127016
250	0x3d2b4388	0.04181245
251	0xbd9d629d	-0.076848246
252	0x3e18edbd	0.1493444
253	0xbd3e18a6	-0.046410225
254	0xbdd658ff	-0.104661934
255	0x3da40fe1	0.08010841

encoder.layers.4.bias f4 [12]
0	0x3e47e5e2	0.19521287
1	0x3e20329d	0.15644307
2	0x3c95d1e0	0.018288553
3	0xbdf6ff3a	-0.12060399
4	0xbe8cdaf3	-0.27510795
5	0x3e150168	0.14551318
6	0xbd42f1fd	-0.04759406
7	0xbd9c5a02	-0.07634355
8	0x3e01205c	0.1261
9	0x3e5cbf67	0.21557389
10	0xbdf4943b	-0.11942335
11	0xbb1fdac2	-0.0024391864

decoder.layers.0.weight f4 [32, 18]
0	0x3ec47aa7	0.38374826
1	0xbd385bd9	-0.045009468
2	0x3dae3565	0.08506278
3	0xbdfd874f	-0.12379324
4	0xbe3183c1	-0.17335416
5	0x3cb3133f	0.021859763
6	0xbe5925ea	-0.2120587
7	0xbcc5c5c4	-0.024142154
8	0xbe140ddd	-0.14458413
9	0xbd22db16	-0.039759718
10	0x3eb92392	0.3615995
11	0x3e460154	0.19336444
12	0xbe9b1217	-0.3028724
13	0xbdc9f0d3	-0.09860387
14	0x3cce734d	0.025201464
15	0xbd2e37a0	-0.042533517
16	0x3e3a64d5	0.18202527
17	0xbd7a951e	-0.061177365
18	0x3cef555c	0.029215507
19	0xbe2e789d	-0.17038198
20	0xbda77375	-0.081763186
21	0xbe00df10	-0.12585092
22	0x3dce905c	0.10086128
23	0xbd04dd02	-0.032437332
24	0x3c843f76	0.016143542
25	0x3e3bf76c	0.18356103
26	0x3db3949c	0.08768579
27	0xbe8f9c73	-0.2804905
28	0x3d9bf711	0.076154836
29	0x3d01d480	0.031696796
30	0x3e686ad5	0.22697003
31	0xbe2723a0	-0.16322184
32	0x3e0ecb84	0.13944823
33	0xbe2806a3	-0.16408782
34	0x3c35dc9f	0.011099963
35	0xbe01b1b6	-0.12665448
36	0xbdc59bf8	-0.09648889
37	0xbe561384	-0.20905882
38	0x3cb9a242	0.022660378
39	0x3dd9ced5	0.10635153
40	0x3e3e6e36	0.1859673
41	0x3e010929	0.1260115
42	0xbda16230	-0.07880056
43	0xbbd30269	-0.0064394963
44	0xbe98460e	-0.29740947
45	0xbe229bfc	-0.15879816
46	0x3cb4477c	0.022006743
47	0xbe16b8ff	-0.14719008
48	0xbd2a06b0	-0.041510284
49	0xbd15d10e	-0.036576323
50	0x3d859221	0.065220125
51	0xbe1ab356	-0.15107474
52	0xbe40ac0a	-0.18815628
53	0x3dcbf49f	0.09958767
54	0xbda84105	-0.082155265
55	0xbd819062	-0.06326367
56	0x3df300a7	0.11865359
57	0x3d9b1c44	0.075737506
58	0x3de18599	0.1101181
59	0x3d1aa81e	0.037757985
60	0x3e3219f2	0.1739271
61	0x3dcc1646	0.09965186
62	0xbccac553	-0.024752295
63	0x3dfae633	0.12250938
64	0x3dafc7e1	0.08583046
65	0xbdc83c78	-0.097771585
66	0x3e0659f8	0.13120258
67	0x3de23b99	0.110465236
68	0xbb04ad86	-0.002024503
69	0x3dd980f5	0.106203
70	0x3d6d624b	0.057955068
71	0x3dffd566	0.124918744
72	0xbd297aa3	-0.04137672
73	0x3e4c846b	0.19972388
74	0xbd45d900	-0.04830265
75	0x3e7d8569	0.24757923
76	0xbe8a8319	-0.27053145
77	0x3e348975	0.1763056
78	0xbc6af0ce	-0.014339639
79	0xbdab1837	-0.08354228
80	0x3d5893d1	0.052875344
81	0xbdf176cd	-0.117902376
82	0xbe9ab7ff	-0.30218503
83	0xbe4082a7	-0.1879984
84	0xbdfde533	-0.12397232
85	0x3e3819b2	0.17978552
86	0xbe72dcc8	-0.23717034
87	0x3e581a35	0.21103747
88	0x3c4565d2	0.012048202
89	0xbe0ddf86	-0.13854799
90	0xbdc67490	-0.09690201
91	0xbe820a86	-0.25398654
92	0x3dc04aa0	0.093892336
93	0xbe26a1c8	-0.16272652
94	0xbda6177f	-0.0810995
95	0xbd8bb76d	-0.06822095
96	0x3e531720	0.2061429
97	0x3d964ca4	0.07338837
98	0xbd0d6bbf	-0.034526583
99	0xbe8f5ed4	-0.28002036
100	0x3dd14f09	0.10220153
101	0x3e0104c0	0.12599468
102	0xbd588d1f	-0.05286896
103	0xbe229458	-0.15876901
104	0xbbbd1150	-0.005769886
105	0xbdfcc8ff	-0.123430245
106	0xbe25469f	-0.16140221
107	0xbc89f9ad	-0.016842688
108	0x3d860e19	0.06545658
109	0xbdf9329c	-0.12167856
110	0xbe2b7ea7	-0.16747533
111	0x3dad410f	0.084596746
112	0xbdca8879	-0.09889311
113	0xbdae3f15	-0.08508126
114	0xbd302d04	-0.04301168
115	0xbe1158d2	-0.14194039
116	0xbd7ceac3	-0.061747324
117	0x3d5fc548	0.0546315
118	0x3d520c15	0.051281054
119	0xbe1d0509	-0.15333952
120	0xbd26952a	-0.040669598
121	0xbd9beb8e	-0.07613288
122	0x3e0148a0	0.1262536
123	0xbe806445	-0.250765
124	0x3d38c091	0.04510552
125	0x3e478e6d	0.19487925
126	0x3e671a3b	0.225686
127	0x3db45a01	0.088062294
128	0x3e199357	0.14997612
129	0x3e3650ed	0.17804308
130	0xbdac3392	-0.08408274
131	0x3d521ac1	0.051295046
132	0x3e470c3a	0.19438258
133	0x3e422de6	0.18962821
134	0xbb877c70	-0.004134707
135	0x3dfacfcb	0.122466646
136	0x3e2aa75b	0.16665404
137	0xbd508c23	-0.050914895
138	0xbcecbac9	-0.02889766
139	0xbe29d2bc	-0.16584295
140	0x3ddc251b	0.10749265
141	0xbdb3a375	-0.08771411
142	0xbe2662e2	-0.16248658
143	0x3e591658	0.2119993
144	0xbe4c5479	-0.19954099
145	0xbe4424a4	-0.19154602
146	0x3db58998	0.088641346
147	0x3c8ef073	0.01744864
148	0x3e47601f	0.19470261
149	0xbd408331	-0.047000114
150	0xbc223e15	-0.009902497
151	0xbd9adc00	-0.07561493
152	0xbd951f13	-0.072813176
153	0xbeaa4995	-0.33259264
154	0x3dde8cf1	0.10866726
155	0x3c82562d	0.015910232
156	0x3d65433c	0.055972323
157	0x3e56ac81	0.20964243
158	0xbe39331d	-0.18085904
159	0xbe081bcd	-0.13291855
160	0x3e0bfc74	0.13670522
161	0x3e1d4a61	0.15360405
162	0xbe435114	-0.19073898
163	0x3d07fa9e	0.03319799
164	0x3e5eedc2	0.21770385
165	0xbe8e598d	-0.27802697
166	0x3e822f6e	0.2542681
167	0xbe1af9ba	-0.15134326
168	0xbda748b5	-0.08168165
169	0xbda090f5	-0.07840148
170	0x3e825ffa	0.2546385
171	0xbc35651c	-0.01107147
172	0xbe1ccad4	-0.15311748
173	0xbe676333	-0.22596435
174	0xbe47777a	-0.1947917
175	0x3e8ec89e	0.27887434
176	0x3ea90a1b	0.33015522
177	0x3e946c49	0.28988865
178	0x3e7fbae1	0.24973632
179	0x3daac40f	0.083381765
180	0x3d8332ed	0.06406198
181	0x3d8318b0	0.06401193
182	0x3e51bec2	0.20482925
183	0xbe615bf3	-0.22007732
184	0xbeb71255	-0.35756174
185	0x3e3be3d0	0.18348622
186	0xbd345799	-0.044028852
187	0x3e8c843b	0.27444634
188	0x3c7b5c48	0.015341826
189	0x3dc513ca	0.09622915
190	0x3dce304e	0.10067807
191	0x3df00c09	0.117210455
192	0x3e934e39	0.28770617
193	0x3e89fead	0.26952115
194	0x3e82fbe8	0.25582814
195	0xbc88db93	-0.016706264
196	0x3e6226b1	0.22085072
197	0x3e64cae7	0.22343026
198	0x3db993e7	0.09061413
199	0x3e37f5ac	0.1796481
200	0xbe907f40	-0.28222084
201	0xbe566ca8	-0.20939887
202	0xbe28c92e	-0.16482994
203	0xbe31dc12	-0.17369106
204	0xbe7c4eaf	-0.2463939
205	0x3e3760cc	0.17908019
206	0xbdb69c9b	-0.08916589
207	0xbcf49776	-0.029857378
208	0x3e532854	0.20620853
209	0xbe58d19e	-0.21173713
210	0x3d531c1a	0.05154047
211	0x3de5da77	0.112233095
212	0xbe4b0e25	-0.19829614
213	0x3e069d2d	0.13145895
214	0xbc8e5993	-0.017376697
215	0x3e0761f0	0.13220954
216	0xbe2c5f6a	-0.16833273
217	0xbd9cff3e	-0.07665871
218	0xbdd29e36	-0.102840826
219	0xbe1da35a	-0.15394345
220	0x3dc17278	0.09445661
221	0xbc903108	-0.017601505
222	0xbd8a7c1f	-0.067619555
223	0x3dfaaea1	0.12240339
224	0xbe556ccb	-0.20842282
225	0x3e7d0a94	0.24711066
226	0xbd558427	-0.052127983
227	0x3e3f17dd	0.18661447
228	0xbd91ce72	-0.071194544
229	0xbdfcb24b	-0.12338694
230	0xbd89bab8	-0.06725067
231	0xbca7fb14	-0.020505466
232	0xbe34a637	-0.17641531
233	0x3d497222	0.04918111
234	0x3e97fe04	0.29685986
235	0xbcb4ca72	-0.02206919
236	0xbe45773d	-0.19283767
237	0x3d75fa6a	0.060053267
238	0xbe829639	-0.25505236
239	0xbe232a4f	-0.15934108
240	0x3e9cc211	0.3061681
241	0xbe5196b6	-0.20467648
242	0x3d1b8932	0.037972637
243	0xbde38ba0	-0.11110616
244	0xbe79da9c	-0.24399799
245	0x3e2bd035	0.16778643
246	0xbd4d4c9e	-0.050121896
247	0x3d98162d	0.07426105
248	0xbd0339c2	-0.032037504
249	0x3e2d5c39	0.16929711
250	0xbdc23465	-0.0948265
251	0x3e6a40d9	0.228763
252	0x3e62702d	0.22113104
253	0xbcb92a82	-0.022603277
254	0x3e43fea8	0.19140112
255	0xbdcbbe68	-0.099484265

decoder.layers.0.bias f4 [32]
0	0x3e26a13d	0.16272445
1	0x3e4c794b	0.19968145
2	0xbd3213c3	-0.043475877
3	0xbe05db3a	-0.1307191
4	0x3e8d9739	0.27654436
5	0xbe34b6f7	-0.1764792
6	0x3db47fcd	0.088134386
7	0xbdd8c612	-0.10584654
8	0xbd508c41	-0.050915007
9	0xbddc50c5	-0.10757593
10	0x3ddce9cb	0.1078678
11	0x3de6d6dc	0.1127145
12	0x3dce202f	0.10064732
13	0x3eb184c7	0.34671614
14	0x3e631fc6	0.2218009
15	0xbdda3fc4	-0.106566936
16	0xbd5ec95d	-0.054391254
17	0x3da235dc	0.07920429
18	0xbe817509	-0.25284603
19	0x3e3bc31e	0.1833615
20	0x3e0728a4	0.13199097
21	0xbd4a9f34	-0.049468234
22	0x3e4de77a	0.20107833
23	0xbdff29c5	-0.12459139
24	0x3e90f2eb	0.28310332
25	0x3e8f1bfb	0.27951035
26	0x3e8ac1b8	0.2710092
27	0x3e146e0c	0.14495105
28	0x3e3e073e	0.1855745
29	0xbd4bea83	-0.049784195
30	0xbe1ed860	-0.15512228
31	0x3d213601	0.039358143

decoder.layers.2.weight f4 [32, 32]
0	0x3e716e63	0.23577265
1	0x3d96cef8	0.07363695
2	0x3dd5377e	0.10410975
3	0xbddcb8db	-0.10777446
4	0x3ded000d	0.11572275
5	0x3c8611fe	0.016366001
6	0x3c7b5aa3	0.015341434
7	0x3e0ba33c	0.13636488
8	0xbe550f27	-0.20806561
9	0xbca213b6	-0.01978479
10	0x3dee258e	0.11628257
11	0x3e0215ef	0.1270368
12	0xbe0de4e9	-0.13856854
13	0x3ddd71f2	0.10812749
14	0x3e0fee9f	0.1405587
15	0xbd02ee38	-0.031965464
16	0xbc80b104	-0.015709408
17	0xbd9743a4	-0.07385948
18	0xbe355d2b	-0.17711322
19	0x3e0273d1	0.12739493
20	0x3d84cb0a	0.06484039
21	0x3c9b13b1	0.018930288
22	0x3e25780b	0.16159074
23	0x3d923a3e	0.07140015
24	0x3e412a8d	0.18863888
25	0xbdba69a0	-0.091021776
26	0x3d56e00f	0.052459773
27	0x3e05eb8b	0.13078134
28	0x3e38f7b2	0.18063238
29	0x3d1dd52c	0.038533375
30	0xbd9590b2	-0.07302989
31	0x3d8b3d53	0.06798806
32	0x3e0d5171	0.13800599
33	0xbdab0818	-0.08351153
34	0x3bcb77f5	0.0062093684
35	0xbdaa4c56	-0.08315341
36	0x3dd3a13a	0.10333486
37	0xbc0233b3	-0.007946896
38	0x3def61d8	0.11688584
39	0x3dc685ac	0.09693465
40	0xbb37adda	-0.0028027208
41	0xbdbd9eee	-0.09258829
42	0xbc4cdc06	-0.01250363
43	0x3de481ea	0.11157592
44	0xbe4d6dd5	-0.20061429
45	0x3e8a5c9d	0.27023783
46	0x3e9d3680	0.30705643
47	0xbe0a20b8	-0.13489044
48	0x3c4261f4	0.011864174
49	0xbd39b252	-0.045336075
50	0x3d90ceac	0.070706695
51	0x3e0c7ac4	0.13718706
52	0x3de941fb	0.11389538
53	0xbddf3635	-0.10899011
54	0x3dd34223	0.10315349
55	0xbce87d7b	-0.028380146
56	0x3eac3507	0.33634207
57	0x3e002428	0.12513793
58	0x3e0ded3c	0.13860029
59	0x3da35407	0.07975011
60	0x3de47009	0.111541815
61	0x3dea474f	0.11439382
62	0xbe29eb21	-0.16593601
63	0x3d2ad567	0.041707423
64	0x3e2277ee	0.15866062
65	0x3e4cb0ae	0.19989273
66	0xbd9e5354	-0.07730737
67	0xbdb4179e	-0.08793567
68	0x3e4bb86c	0.1989457
69	0xbde348e1	-0.11097885
70	0x3d12609f	0.035736676
71	0x3daffe76	0.085934564
72	0x3c5a4e28	0.013324298
73	0x3e4bfb41	0.19920065
74	0x3e91588c	0.28387868
75	0x3e8f173a	0.27947408
76	0xbdc4f32c	-0.09616694
77	0x3e8639aa	0.2621587
78	0x3ddc280a	0.10749824
79	0xbe146121	-0.14490177
80	0x3e17b1c3	0.14813904
81	0x3e77ff1d	0.24218412
82	0xbde8794f	-0.11351263
83	0x3d6f0ca3	0.05836166
84	0x3d1fc2ed	0.039004255
85	0x3e481d76	0.19542488
86	0x3e88109a	0.26575166
87	0xbcfe5f40	-0.031051278
88	0x3dd74035	0.105102934
89	0xbd74a646	-0.059728883
90	0x3e895453	0.26822147
91	0x3c880c4a	0.016607422
92	0x3e18f276	0.14936242
93	0x3d580e0b	0.052747767
94	0xbdc9530b	-0.09830292
95	0xbd3bd07c	-0.045853123
96	0x3d769e53	0.060209583
97	0xbe155473	-0.14582996
98	0xbe12eda5	-0.14348467
99	0x3e246470	0.16053939
100	0x3e279a76	0.16367516
101	0x3d6253c9	0.055255685
102	0xbd515ce7	-0.05111399
103	0x3dc62c85	0.0967646
104	0x3dbf52d7	0.09341972
105	0x3de04b94	0.109519154
106	0x3e053a15	0.13010438
107	0x3c85c68b	0.016330024
108	0x3c431e69	0.011909106
109	0x3d89cf14	0.0672895
110	0x3cde33db	0.027124336
111	0xbd9093f5	-0.070594706
112	0xbd04e3e9	-0.032443915
113	0x3e527948	0.20554078
114	0xbd5d3118	-0.054001898
115	0xbddbb2df	-0.10727476
116	0x3deed562	0.11661793
117	0xbdd51f14	-0.10406318
118	0x3df87d18	0.12133235
119	0x3dacdd71	0.08440674
120	0x3e632aa6	0.22184238
121	0x3e3bc970	0.18338561
122	0x3de4ffd0	0.11181605
123	0x3e57b279	0.21064176
124	0xbdd20bbb	-0.10256144
125	0x3cdc53a8	0.02689536
126	0x3e0a6339	0.13514413
127	0xbc80f0d2	-0.015739832
128	0x3df67f9b	0.120360576
129	0xbd52e603	-0.051488888
130	0x3e1d1589	0.15340246
131	0xbd758320	-0.059939504
132	0xbdd16d1a	-0.102258876
133	0xbc5d34cd	-0.013501358
134	0x3becc6a7	0.0072258296
135	0x3be55ab4	0.006999338
136	0x3dc13ba9	0.094352074
137	0xbc03b8ff	-0.008039712
138	0x3e259ebf	0.16173838
139	0x3e279d39	0.1636857
140	0x3db7b1c4	0.08969453
141	0x3e19a0e8	0.15002787
142	0x3cb2631c	0.021775775
143	0x3dd657f7	0.10465997
144	0xbe07ac0e	-0.13249227
145	0xbb030dba	-0.0019997195
146	0x3d41b1a6	0.04728856
147	0x3c4e27d5	0.012582739
148	0xbd09490b	-0.033516925
149	0x3e17ad8e	0.148123
150	0xbd6e67c8	-0.058204442
151	0xbd82474a	-0.063612536
152	0x3e01da0d	0.12680836
153	0x3e405fc8	0.18786538
154	0x3e53e2c6	0.20691976
155	0x3e5358c2	0.20639327
156	0xbe5f12d1	-0.21784522
157	0x3df387ff	0.118911736
158	0x3dc4bff7	0.09606927
159	0xbdfa112d	-0.12210307
160	0x3e802153	0.25025424
161	0x3e08de89	0.1336614
162	0x3dac3ebb	0.084104024
163	0x3d117a55	0.035517056
164	0x3e62ec6f	0.22160505
165	0xbd5a67e9	-0.053321753
166	0xbcfb0dd8	-0.03064625
167	0x3d4db1ce	0.050218396
168	0xbde7f1a8	-0.11325389
169	0xbc305870	-0.010763273
170	0x3d768d28	0.06019321
171	0x3dbd842b	0.09253725
172	0x3d6462b6	0.0557582
173	0x3da41221	0.0801127
174	0x3e62f4af	0.22163652
175	0xbe0feebb	-0.14055912
176	0x3d0b04ab	0.03394
177	0xbced5b2d	-0.02897414
178	0xbd21fd0e	-0.039547972
179	0xbd191e60	-0.037382483
180	0x3e218dec	0.15776795
181	0x3e17e047	0.14831649
182	0x3dcfa23d	0.10138366
183	0x3dc24ad4	0.094869286
184	0x3dd0cfa1	0.10195852
185	0x3dc445ef	0.09583651
186	0x3e180d8b	0.14848916
187	0x3c3b12be	0.011418043
188	0x3adf99fd	0.0017059442
189	0xbd410fff	-0.047134396
190	0x3dc280c0	0.09497213
191	0x3d13dfa4	0.036101952
192	0x3da4d332	0.08048095
193	0x3d541794	0.0517803
194	0xbc6ea5c8	-0.0145658925
195	0x3e227b9a	0.15867463
196	0xbc9d1401	-0.019174578
197	0x3e16f9ac	0.1474368
198	0xbd72de26	-0.05929389
199	0xbd4a275e	-0.04935395
200	0xbba5ac41	-0.0050559347
201	0x3e116718	0.14199483
202	0x3be50d66	0.0069901226
203	0x3e084af7	0.13309847
204	0x3e6d9493	0.23201208
205	0xbe3d3ae1	-0.18479492
206	0x3c0dd105	0.008655791
207	0x3e48c637	0.19606863
208	0x3dd1416b	0.102175556
209	0x3df8a2ca	0.121404245
210	0x3e361884	0.1778279
211	0x3c52965a	0.012853229
212	0x3e29b745	0.16573818
213	0xbcec2ab6	-0.02882896
214	0x3dacb197	0.0843231
215	0x3e1186dc	0.14211601
216	0xbe33a1c2	-0.17542174
217	0x3e342b6a	0.17594686
218	0xbe0049b5	-0.12528117
219	0x3db15e07	0.086605124
220	0xbd78f115	-0.06077679
221	0xbe0d5c11	-0.13804652
222	0x3dc1cfe0	0.09463477
223	0x3e409b2a	0.1880919
224	0x3c507084	0.012722138
225	0x3e0a3d0d	0.13499852
226	0xbdd45af5	-0.10368911
227	0x3dbacd6d	0.09121213
228	0xbdfd3000	-0.12362671
229	0xbcdf655f	-0.027270017
230	0x3de7b41d	0.11313651
231	0xbd3d41e7	-0.046205427
232	0x3c83c9e3	0.016087478
233	0x3e254571	0.16139771
234	0xbd02aaa6	-0.031901024
235	0x3d4cfbbc	0.05004476
236	0xbd9ce3e8	-0.07660657
237	0x3d1f7da0	0.038938165
238	0xbb67f362	-0.003539287
239	0x3d814898	0.06312674
240	0xbd2b5e2f	-0.041837867
241	0x3e289a55	0.16465123
242	0x3df60a26	0.120136544
243	0x3e0429e6	0.12906608
244	0xbd892fb9	-0.066985555
245	0xbcaf9878	-0.021435007
246	0xbdc1d141	-0.0946374
247	0x3c8a4c46	0.016882073
248	0x3dd4986d	0.103806354
249	0x3e68dde6	0.22740898
250	0xbcb06667	-0.021533204
251	0x3db22f4d	0.08700428
252	0xbe1f53fe	-0.15559384
253	0x3ddad113	0.10684409
254	0xbdcb444b	-0.09925135
255	0xbdf00028	-0.1171878

decoder.layers.2.bias f4 [32]
0	0x3ea61acd	0.32442322
1	0x3e7db5fe	0.24776456
2	0x3e035f35	0.12829287
3	0xbd2ec82e	-0.042671375
4	0xbde0e69a	-0.10981484
5	0x3e5d5653	0.21614961
6	0x3a6ac152	0.00089551986
7	0xbc615d4c	-0.013755154
8	0x3b829bb8	0.0039858483
9	0x3d4a5d78	0.049405545
10	0x3e6b9281	0.23005106
11	0x3e8f405b	0.27978787
12	0x3e8db47b	0.27676758
13	0x3dfaa4f9	0.12238497
14	0xbd83d4af	-0.064370506
15	0xbccd07ca	-0.025028128
16	0xbd94089a	-0.07228203
17	0x3d84b452	0.06479706
18	0xbdc09a07	-0.094043784
19	0x3e44215f	0.19153355
20	0x3df504c0	0.119637966
21	0x3d0c6057	0.034271564
22	0x3e85c19c	0.26124275
23	0x3c856ce9	0.016287284
24	0x3dcd574d	0.10026417
25	0x3cf18bdb	0.029485634
26	0xbe2ca7d5	-0.16860898
27	0xbe0fe47e	-0.14052007
28	0xbddedb27	-0.10881644
29	0x3e81d196	0.25355214
30	0xbdcf764c	-0.10129985
31	0xbdb0a734	-0.086256415

decoder.layers.4.weight f4 [24, 32]
0	0xbbea9c9f	-0.007159784
1	0x3e07949c	0.13240284
2	0x3d35bf34	0.0443718
3	0xbe1837a7	-0.1486498
4	0x3de08f9a	0.1096489
5	0x3cf3be0d	0.02975371
6	0xbd8c38e8	-0.068467915
7	0x3b7ae3b2	0.003828269
8	0x3d41ff73	0.047362756
9	0xbd530f27	-0.051528122
10	0x3dae6c92	0.08516802
11	0xbc9b5479	-0.018961178
12	0xbd49cec0	-0.049269438
13	0x3d934c20	0.07192254
14	0xbd03c13d	-0.03216671
15	0x3e058970	0.1304071
16	0x3b4da592	0.0031379205
17	0x3d336ca7	0.04380479
18	0x3ced03ff	0.02893257
19	0xbdd1ad12	-0.10238089
20	0xbd95e2b8	-0.07318634
21	0x3d33466b	0.043768328
22	0x3d44f45b	0.048084598
23	0xbd03fd23	-0.03222383
24	0x3db73ae2	0.08946778
25	0x3dae2f60	0.0850513
26	0xbc1929ef	-0.009348377
27	0xbda5d390	-0.08096993
28	0x3c6a51ae	0.0143017005
29	0xbcfb4cbe	-0.030676242
30	0xbd3cb611	-0.04607207
31	0xbdbb1ea1	-0.091367014
32	0x3b3341cd	0.0027352453
33	0xbd6cad37	-0.057782378
34	0x3da663cd	0.08124504
35	0x3dcfc4d2	0.10144962
36	0xbdf00b37	-0.11720889
37	0x3d0ff116	0.035142027
38	0xbdc6e2f5	-0.09711257
39	0x3dcc8123	0.099855684
40	0x3d048965	0.032357592
41	0x3b9bd276	0.0047553135
42	0xbe1281a3	-0.14307265
43	0xbd4a3494	-0.04936655
44	0x3dc22a4d	0.094807245
45	0xbd53119e	-0.051530473
46	0x3c08136b	0.008305411
47	0x3b7fbc17	0.0039022022
48	0x3e0d1bc2	0.1378012
49	0xbdb419c0	-0.08793974
50	0xbad396df	-0.0016142986
51	0x3e01716b	0.12640922
52	0x3cea548d	0.02860477
53	0x3b16cac6	0.0023009046
54	0x3df97c36	0.121818945
55	0xbe073921	-0.13205387
56	0x3c364618	0.01112511
57	0x3befd499	0.007319045
58	0xba93abda	-0.0011266426
59	0xbd8b8344	-0.06812146
60	0x3d5b0ffe	0.05348205
61	0xbd9e819d	-0.077395655
62	0xbdd69c5e	-0.104790434
63	0x3dddbb9f	0.108268015
64	0x3e227867	0.15866242
65	0xbce4645b	-0.027879884
66	0x3a108056	0.00055122876
67	0xbdebc537	-0.11512225
68	0x3d9ec2a3	0.07751968
69	0x3dbc8e4e	0.0920683
70	0xbdecc7a2	-0.115615144
71	0x3d2e8b76	0.04261347
72	0xbd3845b6	-0.044988357
73	0x3d3fe28d	0.046846915
74	0xbe14d448	-0.14534104
75	0xbdeb83e2	-0.11499764
76	0x3d98c65b	0.07459708
77	0xbdcff083	-0.10153296
78	0x3d4f65c4	0.05063416
79	0xbd964340	-0.07337046
80	0x3d6dd3e8	0.058063418
81	0x3cb28d51	0.0217959
82	0x3db51289	0.08841426
83	0x3dff62e6	0.12470035
84	0x3d7fff9e	0.062499635
85	0xbd9b5de3	-0.07586267
86	0xbe244495	-0.16041787
87	0x3df05b90	0.11736214
88	0x3d7ea93f	0.062173124
89	0xbe0feb73	-0.1405466
90	0x3d5cceca	0.053908147
91	0x3cce6189	0.025192993
92	0x3d8af158	0.06784314
93	0xbde7e7b6	-0.11323492
94	0xbc3cc895	-0.011522432
95	0xbdbd0a14	-0.09230438
96	0x3d67a3f8	0.056552857
97	0xbd485da8	-0.048917443
98	0xbdbcf9b7	-0.09227317
99	0xbda51018	-0.0805971
100	0xbc53377f	-0.012891649
101	0xbca3e958	-0.020008728
102	0xbdcd81ea	-0.10034545
103	0xbd435cb2	-0.047695823
104	0xbb9e49d0	-0.0048305765
105	0xbe0fbcdf	-0.14036892
106	0x3ded47b8	0.11585945
107	0x3dc69a14	0.09697357
108	0xbd50da17	-0.050989237
109	0xbded88a6	-0.11598329
110	0x3e039823	0.12851004
111	0x3d51ec3c	0.05125068
112	0xbd77218f	-0.06033474
113	0x3d342102	0.04397679
114	0x3d666899	0.056252096
115	0xbdc96ed7	-0.09835594
116	0x3d64b707	0.05583861
117	0x3ca5c7ce	0.020236876
118	0x3dad1d3f	0.08452844
119	0x3d8990b3	0.06717052
120	0xbdcbf52a	-0.09958871
121	0xbd66c694	-0.056341723
122	0x3bd20a18	0.0064098947
123	0xbd21f819	-0.039543245
124	0xbd85020e	-0.064945325
125	0xbdcfefe8	-0.1015318
126	0x3d62074a	0.055182733
127	0x3da28eb3	0.07937374
128	0x3d144c0c	0.036205336
129	0x3db72aa1	0.08943678
130	0x3df6aeeb	0.12045082
131	0xbdc8e85c	-0.09809944
132	0x3ddebb13	0.10875525
133	0xbd7b4789	-0.061347518
134	0xbc1bc278	-0.009506814
135	0x3db2db4c	0.08733234
136	0x3d9e52bf	0.07730626
137	0xbd522479	-0.051304314
138	0xbc6ab89c	-0.014326241
139	0x3deaad36	0.114588186
140	0xbdc9e32f	-0.09857785
141	0xbdfcae10	-0.12337887
142	0xbd070ddf	-0.032972213
143	0x3db48118	0.08813685
144	0x3dcab550	0.09897864
145	0xbd476cdd	-0.048687804
146	0xbda8b7d5	-0.08238188
147	0xbda176a6	-0.078839585
148	0xbdbb1c8e	-0.09136306
149	0xbcc82640	-0.024432302
150	0xbe0b0e29	-0.1357962
151	0xbcd81dd3	-0.026381409
152	0x3da72493	0.08161273
153	0xbd9f83dc	-0.07788822
154	0xbd2bad59	-0.041913364
155	0xbe0f7541	-0.14009573
156	0x3d90dd1f	0.070734255
157	0x3b7b2c0c	0.0038325815
158	0x3c110f14	0.008853693
159	0x3aafa2d9	0.0013399973
160	0x3e1695f7	0.14705645
161	0x3d032d25	0.032025475
162	0xbcc08a03	-0.02350331
163	0x3dc46f7c	0.095915765
164	0xbdc8d81d	-0.09806845
165	0xbc5d50b3	-0.01350801
166	0x3d971a74	0.073780924
167	0x3d81c72e	0.06336819
168	0x3d4151c0	0.047197104
169	0x3d9b00d7	0.075685196
170	0x3cc63dcd	0.02419939
171	0xbdded27d	-0.10879991
172	0xbdc6aa97	-0.09700506
173	0x3debaf1a	0.11508007
174	0xbcb29d5f	-0.021803556
175	0x3d2f4dcc	0.042798802
176	0xbd327690	-0.0435701
177	0x3d7fcba6	0.062450074
178	0xbcbd3375	-0.023095826
179	0xbc1722cb	-0.009224604
180	0x3cab65fe	0.020922657
181	0xbb74ce1b	-0.0037354294
182	0x3d75bd10	0.059994757
183	0xbde1dbfd	-0.110282876
184	0xbdb78425	-0.089607514
185	0x3d81517c	0.0631437
186	0x3cdb7e50	0.026793629
187	0xbdb5a365	-0.08869056
188	0xbd052ba6	-0.03251233
189	0x3c8f358e	0.017481592
190	0x3c64075c	0.01391777
191	0x3dd4c6b8	0.10389465
192	0xbdaadad9	-0.08342523
193	0x3deee681	0.11665059
194	0x3db5497e	0.08851908
195	0x3d32e615	0.043676455
196	0xbd1e8b5b	-0.03870712
197	0xbe13c0af	-0.14428972
198	0xbd1f56db	-0.03890119
199	0x3e04c3ea	0.1296536
200	0x3cb1ee40	0.021720052
201	0x3ca0fa4a	0.019650597
202	0xbca5d10c	-0.020241283
203	0xbe0d96de	-0.13827083
204	0x3e2cf1f5	0.16889174
205	0xbd72564a	-0.059164323
206	0xbdc37ee7	-0.09545689
207	0x3dbdba95	0.09264103
208	0xbd5faf2b	-0.054610413
209	0x3d9dce8e	0.07705413
210	0xbc763520	-0.015027314
211	0x3db538c6	0.08848719
212	0xbb7ab481	-0.0038254561
213	0xbca19b22	-0.019727293
214	0x3d57fbff	0.052730557
215	0x3df7ac12	0.12093367
216	0x3b3f0bfd	0.0029151433
217	0x3dbaf706	0.09129147
218	0x3de3871d	0.11109755
219	0xbddb13da	-0.10697146
220	0x3db5cbdc	0.08876774
221	0xbce68b32	-0.028142545
222	0xbe4f2912	-0.20230511
223	0xbd937a6e	-0.07201086
224	0xbda86c22	-0.0822375
225	0x3df599d8	0.11992234
226	0x3c81a851	0.01582733
227	0xbd6b27ee	-0.057411127
228	0xbceddc50	-0.029035717
229	0xbd080e43	-0.033216726
230	0x3d01a773	0.031653833
231	0x3d01de50	0.031706154
232	0x3db3d345	0.08780531
233	0x3ddac2b6	0.106816694
234	0xbd901908	-0.07036024
235	0xbdc24bce	-0.09487115
236	0xbd87a3ea	-0.06623061
237	0xbd82b8ca	-0.06382902
238	0x3b002281	0.0019551816
239	0x3ca78a46	0.020451676
240	0x3d521618	0.0512906
241	0xbe1a500e	-0.15069601
242	0xbe3546d4	-0.177028
243	0xbb42fa71	-0.0029751325
244	0x3d972cbb	0.073815785
245	0xbd15bf26	-0.036559246
246	0xbd94bf33	-0.07263031
247	0x3dad8ec2	0.084744945
248	0xbe024464	-0.12721401
249	0xbe26d87c	-0.1629352
250	0x3dac6e6f	0.08419501
251	0x3cc11873	0.023571229
252	0xbb5b0417	-0.0033419186
253	0x3e0a5431	0.13508679
254	0x3dbc1e4e	0.09185468
255	0xbd088cf3	-0.033337545

decoder.layers.4.bias f4 [24]
0	0xbd4be047	-0.049774434
1	0x3c3b5414	0.01143362
2	0x3e0cf4da	0.13765278
3	0x3dcd06c7	0.10011058
4	0x3b29e46a	0.00259235
5	0xbd4d4d8d	-0.050122786
6	0xbdacc5c7	-0.084361605
7	0x3e1048bb	0.14090244
8	0x3e30ea37	0.17276846
9	0x3dd0b4de	0.10190748
10	0x3da07a6d	0.07835851
11	0xbc4d24d5	-0.0125209885
12	0x3cd2b7d0	0.025722414
13	0x3ddb9ac7	0.10722881
14	0xbd331857	-0.043724384
15	0xbdc8ba04	-0.09801105
16	0xbde077b3	-0.10960331
17	0xbd40afec	-0.047042772
18	0xbd54e319	-0.05197439
19	0xbe5d6a51	-0.21622588
20	0x3d8ca3f5	0.0686721
21	0xbdb43cc4	-0.088006526
22	0xbd9e97dd	-0.07743809
23	0x3d2290b1	0.03968877
