m4_ws/src/morphing_lander/learned_models/2024-05-21_16-56-45/model_140.pth (torch, 33928 bytes, 22 tensors)

cond_normalizer.mean f4 [12]
000000 19 d0 ef be b2 3c 0e bc fe 72 e9 b9 54 76 73 3a
       -0.46838453 -0.008681463 -0.000445269 0.00092873466
000010 2e 18 ec 3c b3 c6 0b 3c 37 84 d4 bb ed 51 0c 3f
       0.028820124 0.00853126 -0.006485488 0.5481251
000020 7b b5 0f 3f 0c 7a 0c 3f 93 6b 0f 3f 99 1a 1b 42
       0.5613629 0.5487373 0.5602352 38.775974

cond_normalizer.variance f4 [12]
000000 49 f9 02 3e 6f 71 ac 3a f5 1a ac 3a d6 0a ab 3a
       0.12790407 0.0013156364 0.0013130592 0.0013049494
000010 a3 e5 92 3d 69 c9 66 3d da 5f e0 3d 1d be ba 3c
       0.07172706 0.056344423 0.10955782 0.022795731
000020 41 ce be 3c ff 09 bb 3c 71 6c c1 3c 60 68 90 43
       0.023291709 0.022831915 0.02361128 288.81543

output_normalizer.mean f4 [12]
000000 be c7 4c bb 6d d3 e6 ba 6f 8f 68 3c 9a f2 47 38
       -0.0031246985 -0.0017610617 0.0141943535 4.7671238e-05
000010 a0 91 25 3b 26 cf 48 3a be c5 41 3c 5b 76 9a 3a
       0.0025263801 0.0007660262 0.011826931 0.001178454
000020 cd 74 2a 40 9f 82 9d 3d 44 d2 e6 3e a1 8c 92 b9
       2.663379 0.076909296 0.45082295 -0.00027952067

output_normalizer.variance f4 [12]
000000 13 46 1b 3e 96 30 a9 3d 90 6c 0e 3d 38 c6 e2 38
       0.1516345 0.0826122 0.034771502 0.00010813441
000010 ff 0f af 3b 41 3d a7 3c ad 63 83 3e 59 0b 07 40
       0.005342483 0.02041495 0.25661984 2.1100676
000020 6a 5a 8f 42 68 58 2d 43 7e ae d1 40 c0 4e c5 3e
       71.67659 173.34534 6.5525503 0.38536644

encoder.layers.0.weight f4 [32, 24]
000000 4e 14 88 3b 01 07 34 3c 0d 04 78 bc 83 71 1a be
       0.004152811 0.010987998 -0.0151376845 -0.15082364
000010 b1 de 5a be f8 e3 8c 3e 4a 35 2c 3d e9 f1 df be
       -0.21374013 0.27517676 0.042043008 -0.4373925
000020 63 c7 0d bc 02 d3 97 be f3 a2 c7 3c 42 8a e1 bd
       -0.0086534945 -0.29653174 0.024369692 -0.11012699
000030 30 37 3a 3c aa a6 8e 3b b4 61 02 3d 6a 97 71 3e
       0.011365697 0.004353364 0.03183146 0.23592916
000040 14 66 85 bc 26 0a db bb 67 70 b7 bb a6 a0 f1 3c
       -0.016284026 -0.0066845594 -0.005598116 0.029495548
000050 fe ce 18 3d 58 3f c9 bb 65 26 72 bd 5c ff 89 3b
       0.037306778 -0.0061415844 -0.059118647 0.0042113494
000060 00 a3 e1 3d a9 ab 6c 3b 43 8d 27 3e c3 9e 9a 3d
       0.11017418 0.003611306 0.16362481 0.07549813
000070 d1 13 3a bd cb a8 bb bc db c7 12 be e3 5a e2 3d
       -0.045429055 -0.022907635 -0.14334051 0.110524915
000080 b4 93 64 3e 2d e6 fb 3d f3 d2 f3 3c 0a 82 0e bd
       0.2232197 0.12299762 0.029763674 -0.034791984
000090 09 eb 11 3e c8 04 8f bd e5 e5 d6 bd 54 68 ac bd
       0.14249815 -0.06983334 -0.10493068 -0.084183365
0000a0 82 b1 2a bd ce 4b d7 bd 09 ec 3c be 69 d3 38 3d
       -0.04167319 -0.105125055 -0.18449415 0.04512349
0000b0 f5 66 05 be 50 23 d1 3d c0 c5 c1 bd 70 2d 9f 3d
       -0.13027556 0.102118134 -0.09461546 0.077723384
0000c0 b4 03 07 3c 37 a6 23 3d 69 d9 06 bb 6d e6 aa be
       0.008240629 0.039953437 -0.0020576364 -0.33378926
0000d0 ee b8 03 3d 09 8c 98 be 8b 78 04 be ab 4a 0e 3e
       0.032158785 -0.29794338 -0.12936608 0.13895671
0000e0 b4 0b dd bc d2 2d 05 be 86 5e 06 be de 18 2e be
       -0.02698312 -0.1300576 -0.13121995 -0.17001674
0000f0 23 83 96 b9 41 de 29 3b 17 d7 a2 bd 11 87 82 be
       -0.00028707934 0.0025919827 -0.079511814 -0.25493672
000100 4c c1 9d ba 7f 9f b7 3c a9 bc 2c 39 e7 9e c4 bd
       -0.0012035756 0.02241492 0.0001647348 -0.09600621
000110 f2 b2 1c bc a3 95 b2 3d 70 d2 8f 3c e5 33 98 bb
       -0.009564148 0.08719947 0.0175564 -0.004644858
000120 7b 05 15 3c a6 9f 95 bc 6f 8c 2f 3d ca 5c a1 ba
       0.009095545 -0.018264603 0.042858537 -0.0012310978
000130 1b a8 c0 bc f8 8d 89 3e fb 65 81 be 52 8d 48 3e
       -0.023517659 0.26866126 -0.25273117 0.1958516
000140 2e 61 ed 3d ac cf 26 be 31 a6 0a 3d de b9 02 bd
       0.11590801 -0.16290158 0.0338499 -0.031915538
000150 be 81 86 bd 82 27 7b 3d 88 16 30 3e 8a 7f 5e be
       -0.06567715 0.061316974 0.17196095 -0.2172834
000160 a2 8a d6 bc 5d 62 47 bc a6 58 9a 3d 97 8e ec 3d
       -0.026189152 -0.012169448 0.075364396 0.11550634
000170 53 8e ab 3d eb 3b cb 3c 2b e5 28 3d 01 b0 33 bd
       0.083767556 0.024808845 0.041234177 -0.043869022
000180 85 53 c3 3b 76 37 e8 3b f0 0f 9b bd 45 cb 57 be
       0.005960884 0.0070866896 -0.07571399 -0.21073635
000190 01 30 81 be 5f 7d 71 3e 5d 1a 8e be 49 8c 1c 3e
       -0.25231937 0.23582982 -0.2775449 0.1528789
0001a0 da 24 b2 bc 15 26 fd bd 1b e0 a1 3d 92 7b 91 be
       -0.021746088 -0.12360779 0.07904073 -0.2841459
0001b0 43 65 ad 3d 58 d5 21 3c de 23 54 3d c2 37 f6 3d
       0.0846658 0.009877525 0.051792018 0.12022354
0001c0 49 ed b0 3c 5c d5 47 bc 84 eb 92 bd f2 4d 02 be
       0.021597521 -0.012196865 -0.07173827 -0.12725046
0001d0 fd b4 9d bd 8a 97 fb 3d d9 80 91 3d dc 1c 6e 3d
       -0.077005364 0.12284763 0.07104654 0.05813299
0001e0 84 96 47 3b 4e bb 5d bc cc e8 57 3c c9 26 1d 3c
       0.0030454705 -0.013533426 0.013178062 0.009591767
0001f0 dd 1a 31 be e7 c3 67 be 59 c7 85 bd bc 2b 04 be
       -0.17295404 -0.22633325 -0.06532163 -0.12907308
000200 29 7f e9 3c 3b 6c 73 3d 31 bf 60 3e ae 33 8a be
       0.028503018 0.05942939 0.21947934 -0.26992553
000210 7f fa 2c 3d cc c4 80 3c d4 67 8b be 54 0b a9 bd
       0.04223108 0.01571884 -0.27227652 -0.08254114
000220 15 95 83 bc f6 bf 0b 3d 88 cd e7 bb e3 3d cc 3d
       -0.016062299 0.034118615 -0.007074062 0.099727415
000230 be c6 8b bd e0 da e9 bd 47 00 dd 3d 33 b5 12 bd
       -0.068250164 -0.114187 0.107910685 -0.035817336
000240 af b1 9e 3d 05 b9 a3 bd 38 b7 31 be 76 f3 e2 3a
       0.07748734 -0.07994274 -0.17355049 0.0017314989
000250 5c ee 9c bd b0 07 a7 bd f9 7f 31 3d 92 c8 1d bc
       -0.07662651 -0.08155763 0.043334935 -0.009630339
000260 f9 a6 f6 bd 32 29 95 3c 36 2f a9 3c 9b af e4 bc
       -0.12043566 0.01820812 0.020652395 -0.027915766
000270 97 bd b2 3c 01 0e 57 3e 8b a7 80 ba da d3 b3 3c
       0.02181892 0.21001436 -0.0009815557 0.021951605
000280 3b 67 12 3e 59 cb f3 bd 22 7a 0d be 0c da 1a 3e
       0.14297192 -0.1190402 -0.13816121 0.15122241
000290 5b f7 53 3c 23 6c 04 3e ac 86 5d 3d e3 83 93 bc
       0.012937392 0.12931876 0.05408351 -0.018007224
0002a0 19 c2 bd bd 10 fe 02 3d 55 74 dd 3d 34 9e 28 3d
       -0.09265537 0.031980574 0.10813204 0.0411665
0002b0 bd 7f a2 3c 35 68 93 3d de c3 2d bd b8 05 93 3c
       0.019836301 0.0719761 -0.04242312 0.017947063
0002c0 c9 da f8 bd 53 21 59 3c 97 74 8e 3d 01 96 6d bc
       -0.12151105 0.013252574 0.069558315 -0.014501096
0002d0 11 41 9b 3d 2c a1 a1 bd 46 4f 69 3d 32 08 01 bd
       0.0758077 -0.07892069 0.056960367 -0.031501956
0002e0 6a a9 12 3e 52 81 db 3d 9f b1 e1 bd 94 38 c6 3d
       0.14322439 0.10718025 -0.11020207 0.0967876
0002f0 5a a4 e1 bd 26 e7 9b 3d b7 0d 3c 3b 4c 0a 95 bd
       -0.11017676 0.076124474 0.0028694698 -0.072773546
000300 3c b6 55 bc 1a 13 f9 ba f4 3d be bc 25 f8 58 3e
       -0.013043936 -0.0019002885 -0.0232229 0.2118841
000310 ec 84 9d 3e 8b c4 b0 3e 70 ff a6 be 1c e6 74 bc
       0.30765474 0.3452495 -0.32616758 -0.0149474405
000320 92 dc 85 bc 8f 9f 87 3e 3e 6f 21 be 72 e1 dd bb
       -0.016340528 0.2648892 -0.15765092 -0.00677126
000330 6e 7a 42 3d 74 79 55 3c 29 8f 83 bd 74 2b 06 bd
       0.04748004 0.013029445 -0.0642379 -0.032756284
000340 ff 28 d8 3c 62 f0 af bb 3f 0f 21 bc 12 ec 74 bd
       0.026386736 -0.005369232 -0.009830295 -0.059795447
000350 bb 32 31 3d c8 ba 1a 3e 44 e9 ce bd 72 91 2b bd
       0.04326127 0.15110314 -0.10103086 -0.041886754
000360 66 95 a4 bc b3 41 05 3c e4 c0 e7 38 bc e9 a1 3d
       -0.02009077 0.00813334 0.00011050867 0.079059094
000370 ec a8 2b be 5b 58 e5 bd 7e c8 16 3e 19 08 79 3e
       -0.16763657 -0.11198493 0.14724919 0.24319495
000380 3c ca 31 bc bb ef b6 bd 53 d5 ce 3c 4c 0e 47 3c
       -0.010851439 -0.08932444 0.025248205 0.012149405
000390 fb ec 49 bd a9 f7 49 bd 77 9a 29 3d 67 f6 14 3e
       -0.049298268 -0.049308453 0.041407075 0.1454712
0003a0 d8 81 e9 3d 21 cd 61 be b5 96 87 3c 3a bb d0 3d
       0.11401719 -0.22050907 0.016551355 0.10191961
0003b0 27 74 b1 bd 35 49 5c 3c d7 a3 06 39 0e d0 13 3b
       -0.086647324 0.013445188 0.00012840271 0.002255443
0003c0 be 43 62 3c d6 f3 c0 38 b7 d2 8b 3b 6b ea 63 be
       0.013810096 9.2006914e-05 0.0042670625 -0.22257392
0003d0 f3 0a d6 bd 76 b8 fc 3e 45 5a e7 bc 70 ab 04 3e
       -0.10451307 0.49359483 -0.028241286 0.12956023
0003e0 38 57 b4 bd 90 9b be 3d fd 73 76 be d7 dd 61 3e
       -0.08805698 0.09307015 -0.24067684 0.22057281
0003f0 1a a3 14 3d 5f a5 59 bc a5 c5 a6 3c 3a 2a 26 be
       0.03628836 -0.013284056 0.020357916 -0.16227046

encoder.layers.0.bias f4 [32]
000000 a3 74 49 bc 03 39 a4 3e a2 c7 59 3b 4d 36 cf bd
       -0.012295875 0.32074746 0.0033230563 -0.10117779
000010 cb f4 b4 bd e5 0b e3 bc f1 19 98 3e 0e e5 ae 3e
       -0.08835753 -0.027715633 0.29707292 0.3415913
000020 76 85 81 3c 2a f7 09 bd cf 1c b5 3b 7b e2 be 3a
       0.01581071 -0.03368298 0.005527116 0.0014563346
000030 e7 22 75 bd d4 61 f5 bc e3 f8 a3 3e 21 d2 99 bc
       -0.05984774 -0.029953875 0.32025823 -0.018776955
000040 4b 71 e7 3e 0a a5 f7 bd df b0 8a bd c6 e0 e4 3e
       0.45203623 -0.120920256 -0.06772017 0.4470274
000050 42 b1 9d 3e 90 a1 2a bc 26 2e dd bc 4d 12 65 bd
       0.307993 -0.010414496 -0.026999544 -0.055925656
000060 bc fe c7 3e 8c 0f aa b9 42 79 23 3e f1 a3 4d bc
       0.39061534 -0.0003243651 0.15964225 -0.012551294
000070 66 9d 43 bb 5a 65 2e 3e 8b ea 56 bd 43 31 cc 3e
       -0.0029848455 0.1703085 -0.05246977 0.39881334

encoder.layers.2.weight f4 [32, 32]
000000 45 06 d7 bd 7e 13 06 3d 0e ac 07 be 29 9d f9 bd
       -0.10499243 0.032733433 -0.13249227 -0.12188179
000010 06 9a cb bd 0a 79 d7 bd 5d 0a 25 3d 40 83 33 3e
       -0.09941487 -0.10521133 0.040293086 0.17530537
000020 c4 fb 64 be 94 eb d5 bd f3 49 64 be 43 e7 20 bd
       -0.22361666 -0.104453236 -0.22293834 -0.03928305
000030 e4 49 96 bd 8e da 52 bd 8b aa 8d 3d 56 84 dc bd
       -0.07338312 -0.05147796 0.06917294 -0.107674286
000040 3f 3c a9 3c 9c ee 51 bd 3f 7a ab bc 5f a7 4d 3d
       0.02065861 -0.051252946 -0.020932315 0.050208446
000050 27 64 7c bd 20 84 59 be 3e 51 c1 be 48 9f 4c be
       -0.06161895 -0.21241808 -0.37757295 -0.19982636
000060 7d 4d 02 3e 9a 0e 18 be c4 91 3b bc fb fb 39 be
       0.12724872 -0.1484932 -0.011448327 -0.18162529
000070 b6 e1 61 bd f1 f9 89 bd c3 07 6c be af d2 ff 3c
       -0.055146895 -0.06737126 -0.23049836 0.031228391
000080 25 d0 d7 be 27 71 d7 3d 9a 7d 9c be cd 66 0e be
       -0.4215099 0.10519629 -0.30564576 -0.13906403
000090 62 3c 9d be 01 17 ba be 1f 92 62 bd e7 a1 d6 3d
       -0.3071013 -0.36345676 -0.055315133 0.10480099
0000a0 1e b3 c0 be 24 f4 65 be dc cb b0 be e5 65 7b be
       -0.37636656 -0.22456414 -0.34530532 -0.24550588
0000b0 d8 f8 16 be 9e 5a b6 be 10 4e f5 3d b9 17 ec be
       -0.14743364 -0.3561601 0.1197778 -0.4611185
0000c0 32 8b 39 3e c8 e2 a4 be 04 11 46 bd 8b ee fb 3d
       0.18119505 -0.3220427 -0.04835607 0.12301358
0000d0 a1 7f 98 3d 9a 84 b5 be 24 f0 99 be c3 28 62 be
       0.07446218 -0.3545273 -0.30066025 -0.22085862
0000e0 ed d8 f9 3b 1b 53 04 be ad 4b 0f bd 5f e6 40 be
       0.0076247365 -0.12922327 -0.03498428 -0.1883788
0000f0 05 fc 77 be 64 c6 0e bd 9a 47 db be 7e 5f 03 bd
       -0.24217232 -0.03485717 -0.42828065 -0.03207349
000100 5f cf 15 3e 60 e2 1b bd ce 77 29 3e 8d f3 20 3d
       0.14629887 -0.038057685 0.16549608 0.039294768
000110 6e b8 3b 3e d1 96 78 3d bb 0b 5e 3c fa 8d bd 3d
       0.18332073 0.060690705 0.013552601 0.092555955
000120 ed f5 2c 3e 0b 2e 92 bc a8 eb a8 bd 81 f1 b4 3d
       0.16890688 -0.01784422 -0.08248073 0.08835126
000130 50 d9 2a 3e 78 00 38 3e 6c db 15 3e b9 b6 0c 3e
       0.1668446 0.17968929 0.14634484 0.13741578
000140 52 53 b6 3d c6 1b 1e 3e 73 88 e0 3d 92 e9 e0 3d
       0.08902611 0.15440282 0.109635256 0.1098205
000150 33 81 76 3d 8e f3 81 3d 3c 71 6d bd 6f 6d 13 3e
       0.060181808 0.063452825 -0.057969317 0.14397214
000160 f5 8a c9 bc 23 22 38 3d 1e 07 b3 ba 89 5e 1e 3e
       -0.024602393 0.04495443 -0.0013658737 0.1546575
000170 bc 51 8a 3d f2 ce d4 3c 64 f4 6e 3e c7 0f fa 3d
       0.06753871 0.025977585 0.23335415 0.122100405
000180 02 88 1a 3d 1e 6e 23 bd 82 b4 97 bc da c0 8a 3d
       0.037727363 -0.039899938 -0.01851869 0.06775065
000190 1f 08 c3 3b e0 50 31 3e 7e c7 d8 3c db 24 a6 3d
       0.005951896 0.17316008 0.026462313 0.081124984
0001a0 fd 07 17 3d b0 7f 03 bc 6e e2 12 be 28 a8 10 3e
       0.036872853 -0.008026049 -0.14344189 0.14126647
0001b0 c9 90 2a bd 1d 60 89 bd 45 d8 4e 3d 67 89 77 bd
       -0.041641984 -0.06707785 0.05049922 -0.06043377
0001c0 34 f7 33 3e fc d5 55 bd 46 4c 02 3e 0d d5 df 3d
       0.1757477 -0.052206025 0.12724409 0.10929308
0001d0 bd 84 ba 3d cf 75 e1 3d 37 13 12 bd 1a eb c3 3d
       0.09107349 0.11008798 -0.035662856 0.095663264
0001e0 5a 74 c2 3d c3 f8 ca 3c c2 82 c4 3c d4 00 0c bd
       0.094948485 0.024776822 0.023988131 -0.034180477
0001f0 d1 28 af 3d 13 de 33 bd 25 b1 64 3d d4 dc 2e 3e
       0.08552707 -0.04391296 0.055833 0.17076427
000200 09 50 10 3e 2d 98 56 3e 8d f4 b9 3d d4 a3 05 bb
       0.14093031 0.20956488 0.090798475 -0.0020391839
000210 da 7e ce bc e0 12 2a 3e 89 d1 cb 3d 89 ab 67 3d
       -0.025206972 0.16608763 0.09952075 0.056560073
000220 06 ac ed 3c 55 8d a7 3d be 12 e1 bc 7e 74 69 3a
       0.029012691 0.08181254 -0.027474757 0.00089056033
000230 e8 3b a9 3d ab af a3 3d 4c 47 4e bd b4 7a 9f 3d
       0.08263379 0.079924904 -0.050360963 0.07787076
000240 f4 d8 39 3d 0a 0b 43 3c 29 0d 1d 3e 60 b0 57 3d
       0.04537292 0.011904487 0.15337051 0.05265844
000250 c3 88 29 3d 38 c3 1e 3e 48 fa 88 3d e2 bf b9 3d
       0.04139019 0.15504158 0.06688362 0.09069802
000260 fc c3 58 bd 1f 33 0c 3e 11 c2 2c 3d 18 f7 0d 3e
       -0.05292128 0.13691376 0.042177264 0.1386379
000270 f1 b9 81 3c cf 83 4b 3d 88 9c c4 3c af 89 38 3e
       0.015835734 0.04968625 0.024000421 0.18021272
000280 0a 27 d0 3d 8c df 0b 3d a0 92 dc 3d db f5 ca 3c
       0.10163696 0.034148738 0.10770154 0.024775436
000290 01 6e 2c 3e 11 41 ce 3a e9 2b 47 3d 3a 33 12 bd
       0.16838838 0.0015735944 0.04862586 -0.035693385
0002a0 fe d2 44 3d 1b 21 b0 3c 00 95 1b 3e a7 bc 86 3d
       0.04805278 0.02150016 0.15193558 0.06578951
0002b0 26 29 23 3e 8f 8d cd 3d 83 47 8c bc 55 4e 66 bd
       0.15933666 0.10036766 -0.017123943 -0.056227047
0002c0 d5 30 92 3d 8a 8c bc bc 3e 60 1b 3d ae 86 e1 3d
       0.0713822 -0.023016233 0.03793358 0.11012016
0002d0 b6 c7 02 3e a2 02 c2 3d 2c de 2c 3c bc 23 07 3e
       0.12771496 0.094731584 0.010551017 0.13197225
0002e0 3e d4 17 3e 7c 7d 3f 3e ca 6e 7f 3d 2b 73 18 3e
       0.14827058 0.18700212 0.062361516 0.14887683
0002f0 0f 65 9a 3d 4f 42 30 3d 21 a6 4e 3d a3 40 b7 3d
       0.07538807 0.043031987 0.0504514 0.08947875
000300 27 05 23 3a 60 db eb 3d bc 47 bc 3d 87 a5 28 3e
       0.00062187243 0.11516452 0.0919337 0.16469394
000310 95 fb af bd d2 5c 11 3e 7c 5a 2b 3e 3e d1 b1 bc
       -0.08592907 0.14195564 0.16733736 -0.02170622
000320 6e 0e df bb 14 f5 fe bc b2 a6 87 3d 1d 11 96 bd
       -0.00680714 -0.031122722 0.066235915 -0.07327483
000330 94 f7 81 3d 1d 1f b6 ba f5 0b a0 3d 57 fc 94 bd
       0.0634605 -0.001389477 0.078147806 -0.072746925
000340 9d e0 59 3e df 68 ab 3d 9d c5 9b bc e2 fa 02 3d
       0.2127709 0.08369612 -0.019015128 0.03197754
000350 a2 6b ab 3d 6b 3b 8e 3d 0e 19 5c bd 51 4b 62 3c
       0.08370139 0.06944927 -0.05373483 0.013811902
000360 df 36 14 3e e2 c8 04 bd 8d 3f ad 3c df 84 59 bd
       0.14474057 -0.03241814 0.021148467 -0.05310523
000370 f2 8d 0f bc df c4 6b bb fd a6 8c bb c7 84 5a 3e
       -0.00876187 -0.0035975499 -0.0042923675 0.21339713
000380 0c df 74 be 11 5c 0a bd d6 c2 3d be ce af 2d be
       -0.2391321 -0.033779208 -0.18531355 -0.16961595
000390 f6 df a6 bd 89 e1 18 be 43 e1 19 3e e2 9c 52 3e
       -0.08148186 -0.14929785 0.15027337 0.20567659
0003a0 77 c7 dd be c2 00 48 be ef b5 8d be d8 ae 86 be
       -0.43316242 -0.19531539 -0.27677867 -0.2630527
0003b0 46 98 aa be 25 05 8b be 9f b5 44 3e f7 55 81 be
       -0.333193 -0.27152362 0.19209908 -0.25260898
0003c0 6e 43 96 3d bd 4c 1c be 81 d9 f6 bc 2c 61 3e 3e
       0.0733708 -0.15263648 -0.03013301 0.18591756
0003d0 b3 95 2d 3e 27 c6 2c be d3 d9 a3 be b6 b3 61 bd
       0.16951637 -0.16872464 -0.32002124 -0.055103026
0003e0 b8 24 76 3e 60 ec 5f bd fd ce 41 3d 0b d9 50 be
       0.24037445 -0.054668784 0.04731654 -0.20395295
0003f0 f1 4e 30 be a1 73 24 3e 12 d3 ae be 6a f1 5a 3d
       -0.17217614 0.16059734 -0.3414541 0.053452887

encoder.layers.2.bias f4 [32]
000000 29 00 1b 3e 4b 2d a0 3e 57 fa 00 be 9f 19 c3 bd
       0.1513678 0.31284556 -0.12595497 -0.09526371
000010 b7 30 00 be 40 c2 3f be 7d 44 26 3c dd 20 d0 3e
       -0.12518583 -0.18726444 0.010148165 0.40650073
000020 49 9d 94 bd c6 66 17 be 0e b8 87 3e f0 3b ab 3e
       -0.07256562 -0.14785299 0.2650761 0.33444166
000030 7f 2b 45 3d 28 e4 22 bd 56 e2 cf 3e ca 3b ca 3c
       0.048137184 -0.039768368 0.40602368 0.024686713
000040 1c 86 3a 3e 2c 89 ef bd dc 0a 14 be c4 b9 3f bc
       0.18215221 -0.11696085 -0.14457268 -0.011702005
000050 bc 55 f3 3c d9 e7 a1 bd 5f 8c 47 bd 31 17 55 3e
       0.029703967 -0.079055496 -0.048717853 0.20809628
000060 fe f6 1d 3e a0 7b 81 be fd 00 6a 3e 16 79 c0 bd
       0.15426251 -0.2528963 0.2285194 -0.09398095
000070 7c b0 8b bc 6d 59 5b bd c0 6d 92 3e 2b b6 a9 3e
       -0.017051928 -0.05355208 0.28599358 0.33146796

encoder.layers.4.weight f4 [12, 32]
000000 65 02 8a 3e 02 86 ae 3e 67 dd 75 be 2f 04 4e be
       0.26954952 0.34086615 -0.2401024 -0.20118783
000010 c8 1d 2e be e1 30 e5 bd bf c3 58 be 5e 26 74 3e
       -0.17003548 -0.111909635 -0.21168421 0.23842761
000020 41 34 ed bd 59 f8 30 be f4 e2 f7 3e c3 47 00 bd
       -0.11582232 -0.17282237 0.4841534 -0.031318437
000030 eb 86 91 bd be c2 b9 bd 2a 99 ab 3e b4 03 9a 3d
       -0.07105812 -0.09070347 0.33515292 0.075202376
000040 48 8b 03 3e b8 bb 6e be 68 d6 61 3d 14 20 33 be
       0.128461 -0.23313797 0.055136114 -0.17492706
000050 73 be 0b be aa 1f 26 3b 50 c8 36 3d 75 10 b2 3d
       -0.1364687 0.0025348463 0.044624627 0.08694545
000060 6f f4 06 be fa ae 36 be 68 6c 96 3e 87 60 22 3b
       -0.13179182 -0.17840186 0.29379582 0.0024776773
000070 2d 4d 30 be 3c 3a 3a be a0 14 95 3e f4 13 f2 3e
       -0.1721694 -0.18186277 0.29117298 0.47280848
000080 e4 9e cc bd 7d 28 0c 3e fd ad d8 3d 23 8b 01 3d
       -0.099912435 0.1368732 0.10580061 0.03162683
000090 fc a4 11 be 95 e5 12 3c 6f 97 6e bd 3d f6 17 3e
       -0.14223093 0.008965869 -0.058249887 0.14840026
0000a0 1e 7e d1 bd 7d 12 e4 3c ce 6f 66 3e 52 dd 50 3c
       -0.10229133 0.027840847 0.22503588 0.012748079
0000b0 2a 19 14 be e0 cb 67 3c b5 7d 06 3e 1e df c0 3d
       -0.14462724 0.014147729 0.13133891 0.09417556
0000c0 43 87 4e 3d 25 7b 23 be f2 be ec bd e3 1e c0 bd
       0.050421964 -0.15964945 -0.115598574 -0.09380891
0000d0 f4 f6 17 3e b3 a9 ae bc 4c e7 c0 bd b5 c3 d4 3c
       0.14840299 -0.021321153 -0.094191164 0.025972227
0000e0 72 b3 57 3d 73 83 e5 bd a9 6f e0 bd 2f 83 b4 bd
       0.052661367 -0.112067126 -0.109587975 -0.08814084
0000f0 ae ad 85 3c e3 bf 9c 3d 4a 6a da 3d 8a d7 23 3e
       0.016318168 0.07653787 0.10664804 0.1600019
000100 13 44 13 be 24 35 e2 bd d0 0c 5a bc ad ed c8 3c
       -0.14381437 -0.11045292 -0.013308719 0.024527395
000110 3b 77 ae 3d 68 20 1d bd 0b cf 3e bd ad 71 61 be
       0.08518835 -0.038360983 -0.04658417 -0.2201602
000120 e1 64 7d 3d 7b 6a 83 3d 2b ce b4 bd 49 18 04 be
       0.061863784 0.06416794 -0.08828386 -0.12899889
000130 21 fb c5 bc ba 70 4f 3c 46 22 cd bd ff 04 c2 bc
       -0.0241676 0.012661153 -0.10016303 -0.023684023
000140 b2 67 e0 bd ab 3e 08 bb da 4f 90 bd 37 19 0d be
       -0.10957278 -0.0020789306 -0.070464805 -0.1377915
000150 53 1b b0 bc 0f 0e 1c 3d 1b ff 36 bd e4 66 03 be
       -0.021497404 0.038099345 -0.04467688 -0.12832218
000160 1a dd 75 bd 29 ca c0 bb 72 f0 29 be d1 85 b2 3c
       -0.060025312 -0.0058834744 -0.16595629 0.021792324
000170 c3 cd 0e be 5d 24 4f bc 2a f4 6a be 18 d7 40 be
       -0.1394568 -0.012642947 -0.22944704 -0.18832052
000180 63 04 60 3d a3 2a b0 3d 33 f5 41 3d c2 a7 0a bd
       0.054691684 0.08601882 0.04735298 -0.033851393
000190 6f 2c ed bd 5b 09 90 bd b6 3a af bd 60 32 57 3d
       -0.11580741 -0.070330344 -0.0855612 0.052538276
0001a0 f5 36 28 be ed 78 8a bd 3e 1c d1 3d ff 9d 29 be
       -0.16427214 -0.06761346 0.10210465 -0.16564177
0001b0 0f 8a c1 bd b1 80 47 bd 66 21 3c bd d7 a6 ed bd
       -0.09450161 -0.048706714 -0.04593029 -0.11604088
0001c0 75 90 2d bd 2e 4a f9 bd 9b 0b d1 bd e2 53 9d 3d
       -0.042374093 -0.12172352 -0.10207292 0.07682015
0001d0 ae 09 ff 3d 8a be 57 bc ea 97 2e 3d f0 42 ef bd
       0.12453018 -0.013167987 0.042625345 -0.11682689
0001e0 8e 7a 13 be d0 4a 07 be 4c 35 13 be bf e1 94 3d
       -0.1440222 -0.13212132 -0.143758 0.0726962
0001f0 d2 e1 de bd f5 ef a2 bd 39 ed c6 bd f4 59 5a 3b
       -0.108829156 -0.079559244 -0.097132154 0.0033317776
000200 2d ea 8c be b5 34 0b bf ae cf 8e 3e ef 10 03 bd
       -0.27522412 -0.543773 0.27892822 -0.03199857
000210 59 2e 06 3e fc f7 78 3e c0 d1 82 bc 09 11 d9 be
       0.13103618 0.24313349 -0.015969157 -0.4239581
000220 11 ec 38 bd b7 2a 6e 3e 91 5e bc be 0a 35 3f be
       -0.045147005 0.23258482 -0.36790898 -0.18672577
000230 1e 3b 55 3d 6e 2b d6 3d 70 e2 c7 be e8 a8 37 3e
       0.05205833 0.10457502 -0.39039946 0.17935526
000240 c4 52 b5 be 16 1d 64 3e 73 c7 7c 3e a9 3b ad 3d
       -0.35414708 0.2227672 0.24685459 0.08458645
000250 e2 6d 1c 3e 38 85 32 3e bf 7b 1f 3e c3 b6 a2 be
       0.15276292 0.17433631 0.15574549 -0.3178006
000260 e6 b6 ca bc 1a 8f 8b 3e 32 3e 95 be ba e1 dc 3d
       -0.024745416 0.27257615 -0.29149014 0.107852414
000270 ff aa 3e 3e dc 06 dc 3d df b9 ce be 85 e4 ed be
       0.18619917 0.10743496 -0.40376183 -0.4646341
000280 9a 29 e8 3d 0c 6b 21 3e 3a b2 23 bd 98 f8 91 bd
       0.1133606 0.15763491 -0.039964892 -0.071274936
000290 ba e5 89 bd 15 ad 05 3e 82 e2 2c 3e 54 a4 96 3c
       -0.0673327 0.13054307 0.16883281 0.018388905
0002a0 9c 9e 07 3d df 91 f4 3c 39 9f 35 3e 25 34 27 3e
       0.033110246 0.029854713 0.1773652 0.16328485
0002b0 be 35 7b bd f5 59 e7 3c 07 ae 7b 3e e1 8c ce 3c
       -0.06133055 0.028241137 0.24578105 0.02521366
0002c0 f7 28 f4 3d 21 da 0a 3d 4c 01 ea 3d ee 50 a4 3d
       0.11921876 0.03389943 0.114260286 0.080232486
0002d0 4b 32 37 bc 46 6b c9 bc 64 0d d7 3d a7 1a 78 3d
       -0.011181424 -0.024587285 0.10500601 0.060572293
0002e0 3a 57 69 3d 98 a3 94 3d e2 55 16 3d 13 3a e4 3c
       0.05696795 0.072577655 0.036702998 0.027859723
0002f0 6c 19 14 3e 51 50 c3 bc c8 69 7b 3e 95 2f b0 3d
       0.14462823 -0.023842009 0.24552071 0.086028256
000300 ea af 0d bd 8d b7 f9 bc 7c 15 7d bd d4 35 56 be
       -0.034591593 -0.030483032 -0.061788067 -0.20918971
000310 a4 b6 97 3b b9 41 a9 3d 32 43 c7 bd 3e 68 9f bd
       0.0046299268 0.08264489 -0.09729613 -0.077835545
000320 01 dd 0a bd 00 f0 c3 3d a3 67 8b 3d d7 42 a5 be
       -0.033902172 0.09567261 0.068068765 -0.32277557
000330 df c0 77 bd 41 01 83 bd f4 41 31 be 87 89 4f bd
       -0.06048667 -0.063967235 -0.17310315 -0.050668266
000340 ce 34 f5 bd 52 17 af bc b0 1d 7c 3d 88 0a 55 3d
       -0.11972962 -0.021373425 0.06155175 0.052011997
000350 fd bf 9e 3c aa 9e 57 3d 83 27 16 be 0d ec 95 be
       0.019378657 0.05264155 -0.1466351 -0.29281655
000360 52 ed 6d be e9 f6 05 bd 5e cb 8f bd f2 53 b8 3c
       -0.23235062 -0.032706175 -0.07021211 0.022500966
000370 24 91 ce bd 8c 74 98 bd c2 1f 63 be 26 28 ae bb
       -0.10086277 -0.074441046 -0.22180083 -0.0053148447
000380 91 c3 b4 bd 0d 9f bf bd 7c bd 6b bd ce 44 eb bd
       -0.08826364 -0.093565084 -0.057553753 -0.11487733
000390 30 6b c9 3d 27 07 02 bd fa 09 5f bc e3 ac 06 be
       0.098348975 -0.031745102 -0.013613218 -0.13151889
0003a0 b5 e2 20 bd 5f ec 63 3d 68 d8 a7 3c 58 9b 13 be
       -0.039278705 0.055645343 0.020488933 -0.14414728
0003b0 36 98 c3 bd 61 ee f6 bc 47 f4 f3 bd a6 06 15 be
       -0.09550516 -0.030142965 -0.119118266 -0.14553317
0003c0 c7 ec a1 bd a0 16 c5 3c 91 b3 c8 3d d1 b4 10 3d
       -0.0790649 0.02405864 0.097998746 0.03532869
0003d0 b4 a1 cb 3c b5 12 31 bd f6 80 1c bd 56 54 ed 3c
       0.02485738 -0.04323073 -0.038208924 0.028970879
0003e0 21 94 11 be 83 4f 79 bd c6 b1 94 bb 0d 7f 86 bd
       -0.14216663 -0.060866844 -0.004537794 -0.06567202
0003f0 04 1e d8 3d 8e 3c 82 bd c7 ac 15 be ba 87 86 3b
       0.105526 -0.06359206 -0.1461669 0.0041055353

encoder.layers.4.bias f4 [12]
000000 40 15 5b 3e a0 67 17 3e c7 36 3d bc bd 1c 1a be
       0.21394825 0.14785624 -0.0115487045 -0.15050025
000010 21 73 99 be 07 85 50 3e 2d 15 3a be d3 9c 07 be
       -0.2997065 0.20363246 -0.1817214 -0.13243417
000020 d6 2a c5 3c e6 21 c5 3d 8f f7 97 be d7 e6 cb bd
       0.024068277 0.09625606 -0.2968106 -0.099561386

decoder.layers.0.weight f4 [32, 18]
000000 1e 0c ab 3e 9c a6 be bd 9e ac cd 3d 99 1e 00 be
       0.33407682 -0.09309122 0.1004269 -0.12511672
000010 c6 24 3a be 75 31 80 3c 37 3c 2c be 16 ee 1d bd
       -0.1817809 0.015648583 -0.16819845 -0.038557135
000020 f2 f5 4e be c1 80 dc 3c 90 cc be 3e 04 26 48 3e
       -0.20211008 0.026916863 0.37265444 0.19545752
000030 29 b9 95 be a5 bd d1 bd 15 7f 0d 3d cc 33 0d bd
       -0.29242828 -0.1024125 0.034545023 -0.034473225
000040 35 a6 32 3e bd 3a 72 bd 04 0c 1c bc fe 8e d0 bd
       0.17446215 -0.05913805 -0.009524349 -0.101835236
000050 41 b9 ae bd 50 a4 94 bd bf b5 cc 3d b1 0f 39 3c
       -0.08531428 -0.072579026 0.09995603 0.011295245
000060 0b c1 06 3d 52 b1 2b 3e 33 4d 26 3e ab 41 ba bd
       0.032898944 0.16766861 0.16240387 -0.090945564
000070 c4 5a 64 3e f1 cf e1 bc e6 6c a8 3e 7f 62 dd bd
       0.2230025 -0.027564975 0.32895583 -0.10809802
000080 5d 4e 1e 3e 13 77 06 be 0e 82 69 3d c3 b0 27 be
       0.1545958 -0.1313136 0.057008795 -0.16376023
000090 b5 7f 3c bd 9e 32 b9 bd 02 83 76 bd da de c0 3d
       -0.04602023 -0.090428576 -0.060183533 0.094175056
0000a0 df b5 05 3e d7 da 32 3e 5e 8f 0c be 24 2b 0a 3c
       0.1305766 0.17466293 -0.13726565 0.008433137
0000b0 a8 9b c4 be d4 2c 00 be 2b eb 07 3e 08 bb 36 be
       -0.38400006 -0.125171 0.13273303 -0.17844784
0000c0 fe a9 b1 bd 74 9b 2b 3c 30 3a cc 3d b4 cf e5 bd
       -0.086750016 0.010474075 0.09972036 -0.11221257
0000d0 16 b1 dd bd 36 b7 d1 3c 10 70 02 be 8c 70 fe bc
       -0.10824792 0.025600057 -0.12738061 -0.031059526
0000e0 17 a5 5e 3d 41 00 10 3d 41 e0 5c 3e 58 c3 a2 3c
       0.05435666 0.035156492 0.21569921 0.019868538
0000f0 bf fb b2 3e 0b 25 04 3e ab 54 f1 bb 32 fa b2 3e
       0.34957692 0.12904756 -0.0073648295 0.3495651
000100 7e db 08 3d 5d d6 12 be b0 d6 54 3d 58 f4 c8 3d
       0.03341245 -0.14339586 0.051962554 0.0981223
000110 62 a6 2c 3c 4d 38 d7 3d d5 b1 6d 3d ac 29 96 3e
       0.010537716 0.105087854 0.058030922 0.29328668
000120 d5 ab 8f bd 28 5e e7 3d 7f 26 6a bc 4c 04 66 3e
       -0.07015196 0.11297256 -0.014291405 0.22462577
000130 1a c8 92 be 60 05 28 3e 5a 50 e4 bc 44 66 9a bd
       -0.2866829 0.164083 -0.027870346 -0.07539037
000140 63 12 36 3d e0 83 c3 bd 3e 24 af be 4e f0 1f be
       0.04445113 -0.095466375 -0.34207338 -0.15619013
000150 ee a6 d9 bd 75 50 44 3e fe ed 63 be 41 09 5c 3e
       -0.106275424 0.19171317 -0.22258756 0.21487905
000160 ff 86 bc 3c da 81 4e be b1 f0 e4 bd 06 40 d6 bd
       0.02301359 -0.20166722 -0.11178721 -0.1046143
000170 2e bd 8d 3d 9c e1 10 be 4e 20 fa bc 16 e6 67 bd
       0.06920849 -0.14148563 -0.030532982 -0.05661591
000180 89 e5 aa 3e 3e a0 2e 3d 2d e9 9a bc 71 fd a0 be
       0.33378246 0.042633288 -0.018910015 -0.3144336
000190 8b 9f b7 bd e9 4f ff 3d e8 fa 25 3d c9 97 46 be
       -0.08965977 0.124664135 0.040522486 -0.19393839
0001a0 c7 49 9e bd e8 5b 4d be 81 6e 3a be 00 90 02 3c
       -0.07728916 -0.2005459 -0.18206216 0.007968903
0001b0 ca 71 7a 3d 0d c6 cf bd fc 9b 13 be d4 4b 66 3d
       0.061143674 -0.10145197 -0.14414972 0.05622466
0001c0 e0 e3 d6 bd d8 fb 50 bd 94 39 47 bc d8 16 d4 bd
       -0.104926825 -0.051021427 -0.012159724 -0.103559196
0001d0 ba 74 9a be a5 bc 8e 3d 41 e9 85 3d 7e ca 0b be
       -0.3016718 0.06969575 0.0653863 -0.13651463
0001e0 3a dd 2d 3d 0c 76 5b bd e5 b2 eb 3d 31 72 7c be
       0.042447306 -0.053579375 0.11508731 -0.24652936
0001f0 eb 6b 81 3d 0f 34 60 3e 79 34 83 3e 6f 34 34 3c
       0.06319412 0.21894859 0.2562597 0.010998829
000200 78 73 e3 3d 1b 22 08 3e 15 6d 18 be 61 1f a1 3d
       0.11106008 0.1329426 -0.14885361 0.07867313
000210 80 41 53 3e 02 fc f6 3d 8d 20 a6 3d 29 14 59 3e
       0.20630455 0.120597854 0.08111677 0.21199097
000220 dc 31 9d 3d d8 38 05 bd fb 73 8f 3d 66 6c 19 be
       0.076755255 -0.032524914 0.070045434 -0.14982757
000230 16 f3 ea 3d fd 4d 89 bd ee aa 18 be 27 c7 7a 3e
       0.11472146 -0.06704328 -0.14908955 0.24490033
000240 f4 ad 3c be 02 72 e3 bd e0 de ff b9 08 d7 e4 3c
       -0.18425733 -0.1110573 -0.00048803445 0.027934566
000250 87 46 81 3e 3f 97 f3 bb 0c 8e 52 3e a5 c2 3c be
       0.2524912 -0.0074338014 0.20561999 -0.18433626
000260 15 9d 65 ba cf c9 ad be 90 2b 15 3e 20 0d 89 bb
       -0.0008759064 -0.3394303 0.14567399 -0.004182473
000270 26 56 06 3d 35 99 68 3e 54 b6 4b be 82 19 1b be
       0.032797 0.22714694 -0.19893771 -0.15146449
000280 51 98 20 3e 07 e1 87 3e 79 6b 2f be 09 78 6d 3d
       0.15683104 0.2653887 -0.17130841 0.057975803
000290 9f 99 4a 3e ce 5e 85 be ad cc 73 3e b4 b3 13 be
       0.19785164 -0.26048893 0.23808546 -0.1442402
0002a0 a3 e6 90 bd 2b 7f 80 bd 70 6e 97 3e f9 27 c1 ba
       -0.070752405 -0.06274255 0.29576445 -0.0014736644
0002b0 b6 92 24 be 63 b2 60 be 1d cf 0c be 87 df 78 3e
       -0.16071591 -0.21943049 -0.13750882 0.24304019
0002c0 d8 76 90 3e 1b 61 8d 3e c0 f0 48 3e d9 3c 82 3d
       0.2821567 0.27613148 0.19623089 0.06359262
0002d0 c3 c3 cd 3c 96 f5 04 3c 44 1c 79 3e a9 fd 61 be
       0.02511776 0.008115193 0.24327189 -0.2206942
0002e0 3e 09 ad be 91 6f 1c 3e c8 cd 7e bd fd 85 88 3e
       -0.33796114 0.15276934 -0.062207967 0.26664725
0002f0 7a cf 2d bd 9f f6 06 3e f3 6b b9 3d 45 28 1c 3e
       -0.042434193 0.13180016 0.09053793 0.15249737
000300 50 94 ab 3e d9 03 2d 3e a7 b1 41 3e b3 4c 69 bd
       0.3351159 0.16895999 0.18915425 -0.05695791
000310 1b 57 f1 3d 50 50 ab 3e a3 d8 92 3d 35 99 b0 3d
       0.11784192 0.3345971 0.071702264 0.08622972
000320 e8 62 7d be d1 0d 46 be b6 3f 39 be 57 7a 38 be
       -0.24744761 -0.19341208 -0.1809071 -0.18015419
000330 83 5e 8f be e6 71 14 3e bb 29 00 be 27 0d b8 bc
       -0.28001794 0.14496574 -0.12515919 -0.022467209
000340 65 61 85 3e 3c bd 36 be 4d 36 98 3d 4d ea b3 3d
       0.2605087 -0.17845625 0.07432232 0.08784924
000350 c2 3e 5f be a1 15 d9 3d a1 9b 2a bd 01 09 07 3e
       -0.21801284 0.105998285 -0.041652326 0.13187028
000360 bf 79 5c be af 1a 53 bc dd 25 08 be 2f 37 0d be
       -0.21530817 -0.01288478 -0.13295694 -0.13790582
000370 a2 1b 18 3e 12 93 0e 3b 8b e7 a4 bd 21 62 0a 3e
       0.14854291 0.0021755141 -0.08051976 0.13513996
000380 1b 56 55 be 0d 2a 91 3e 2f f7 8d bd 4e 73 33 3e
       -0.20833628 0.28352395 -0.06931912 0.17524454
000390 1a 56 90 bd 77 97 bb bd e3 77 fd bc 7d b1 54 3c
       -0.070476726 -0.09159749 -0.030940956 0.01298177
0003a0 b5 40 11 be 7a 11 b7 3b 09 6f 9c 3e 3e 46 7f bd
       -0.1418484 0.0055868 0.30553463 -0.062322848
0003b0 1a c7 36 be f8 7e 50 3d 6c 9c a1 be 33 81 0d be
       -0.17849389 0.050902337 -0.31564653 -0.13818817
0003c0 d6 5a 74 3e 5a b3 55 be 1f 47 e1 3d 4f b0 b9 bd
       0.23862776 -0.20869198 0.109998934 -0.09066831
0003d0 8f d1 44 be 28 3b 04 3e 09 45 29 bd 83 cf 63 3d
       -0.19220565 0.12913191 -0.041325603 0.05561782
0003e0 f6 ac 1f bd da 18 22 3e 52 87 e8 bd e4 ad 2a 3e
       -0.038983308 0.15829793 -0.11353935 0.16667897
0003f0 79 de 42 3e ed 08 70 bd ae d8 37 3e f3 a3 cb bd
       0.19030179 -0.058602262 0.1795375 -0.0994338

decoder.layers.0.bias f4 [32]
000000 fb c4 53 3e 21 5a 9e 3e f3 1c 89 3d 4d 6d 82 bd
       0.20680611 0.30928138 0.06694975 -0.06368504
000010 eb ca a1 3e ee e6 26 be 89 33 b1 3d 64 a1 99 bd
       0.31600127 -0.1629903 0.08652408 -0.07501486
000020 3a 4a 55 3d 5a eb b0 bc 32 6c 24 3e fd 2e 1b 3e
       0.05207274 -0.0215966 0.16056898 0.15154643
000030 42 91 36 3e 2d 35 b8 3e 22 de 8f 3e 29 7d 37 bd
       0.17828849 0.3597807 0.2809916 -0.044797096
000040 24 5d 85 3d 9e 4c 18 3e 64 bc 88 be d5 c0 af 3e
       0.06511906 0.14872977 -0.2670623 0.34326807
000050 71 9a 38 3e 41 4e 4c 3c ca 66 77 3e b5 87 c9 bd
       0.18027665 0.012469829 0.24160305 -0.09840337
000060 2a 8e a5 3e 64 49 ac 3e 62 0f c4 3e 56 b6 4d 3e
       0.32335025 0.33649743 0.38292986 0.20089087
000070 29 1e 59 3e df a9 fc b9 e4 85 1c be 7e db 8c 3d
       0.21202911 -0.0004819175 -0.1528545 0.06877802

decoder.layers.2.weight f4 [32, 32]
000000 40 99 72 3e 07 75 0f 3d 76 6b 94 3d 4e 8d 56 be
       0.23691273 0.035023715 0.07247059 -0.20952341
000010 0a 2d 0d 3e b5 b9 4e 3d 9b ad d7 3c 64 aa bd 3d
       0.13786712 0.050470073 0.026327899 0.09261015
000020 01 d8 53 be 6e 40 88 bd 6e 48 ce 3d a4 65 e5 3d
       -0.20687868 -0.06652914 0.100724086 0.11201027
000030 04 13 09 be e0 21 24 3e b3 9f 29 3e e4 1d fa 3a
       -0.1338616 0.16028547 0.16564827 0.0019082394
000040 9f 49 0c bd 18 e1 8d bd d7 bb 01 be 4a 8b 1c 3e
       -0.034249898 -0.06927699 -0.12669311 0.1528751
000050 f0 47 c6 3d ab eb 98 bb e1 30 26 3e 10 33 44 3d
       0.0968169 -0.0046667657 0.16229583 0.04790026
000060 58 7c 2e 3e 1d ec 02 be 35 1d 8a 3d f9 f9 e6 3d
       0.17039621 -0.12785383 0.06743852 0.11278147
000070 3c 30 4a 3e 3d e8 11 3e 70 e6 4e bd 6e 73 c0 3d
       0.19744962 0.14248748 -0.05051273 0.093970165
000080 42 8b 18 3e 0d a1 e3 bd a2 42 90 bd c2 1a 0e be
       0.14896873 -0.111147024 -0.07043959 -0.13877395
000090 ed 8e dd 3d fe a6 74 bd e4 8c f9 3d 19 65 b4 3d
       0.108182766 -0.05972957 0.12185076 0.08808345
0000a0 b6 67 ef bc 0a 41 74 bd a2 25 5d bc 7c 55 af 3d
       -0.029224258 -0.05963234 -0.013497742 0.08561227
0000b0 f8 ff 47 be 72 7e 8d 3e 04 08 a7 3e 37 6b 3c be
       -0.19531238 0.27635533 0.32623303 -0.18400274
0000c0 4f 8e 85 bc 64 dd 14 be 09 e8 0d bc 08 ef c8 3d
       -0.01630321 -0.14537579 -0.0086612785 0.098112166
0000d0 d9 41 b5 3d 1d e6 a2 bd 3e dd e3 3d 9c 8b d9 bb
       0.0885045 -0.07954047 0.11126183 -0.006638957
0000e0 3d d7 af 3e 02 c2 f2 3d b2 c5 c5 3d 99 fd ca 3d
       0.343439 0.1185341 0.09656848 0.09911651
0000f0 e5 6f 0c 3e 42 68 39 3e c8 7e 2d be fa 34 c5 3d
       0.1371456 0.18106177 -0.16942894 0.09629245
000100 ea 19 31 3e 9d 1a 43 3e 66 2b a6 bc 10 62 03 be
       0.17295042 0.19053121 -0.020284366 -0.12830377
000110 1f ec 52 3e 9f 30 fd bd 17 0b 12 3d ac 3b c0 3d
       0.20597886 -0.12362789 0.035655107 0.093863815
000120 fd 2c 99 3c 6a a1 39 3e c6 cd 8c 3e f0 9f 8e 3e
       0.01869821 0.18127981 0.27500743 0.27856398
000130 5e f7 a2 bc da 1c 75 3e a5 02 f2 3d be 0b f7 bd
       -0.019893344 0.23936787 0.11816911 -0.120627865
000140 4f 76 2b 3e 74 87 82 3e ae a2 eb bd d1 98 ac 3d
       0.1674435 0.25493968 -0.11505638 0.08427585
000150 78 03 a0 3c 06 c2 62 3e c5 75 87 3e 1f ef fc bc
       0.019532904 0.22144327 0.2645704 -0.03087574
000160 b9 c5 ce 3d 24 ca 25 bd cc f6 8d 3e de bf 03 3d
       0.10096306 -0.04047598 0.27727354 0.0321654
000170 9a 7d 0b 3e 9f 48 c7 bb dd 0f b3 bd f9 73 62 bd
       0.13622132 -0.006081655 -0.0874326 -0.05528638
000180 44 68 70 3d c9 02 53 be be c4 ed bd 4c 4d 21 3e
       0.058693185 -0.20606531 -0.11609791 0.15752143
000190 33 9c 16 3e ac b1 99 3d 5b 9f 9f bc ef 63 e8 3d
       0.14708023 0.07504591 -0.019485166 0.11347186
0001a0 4c 08 f8 3d 44 76 b1 3d c9 74 10 3e cc 9e 1d 3d
       0.121109575 0.086651355 0.1410705 0.03848152
0001b0 15 db 44 3c be 9d dc 3d e1 fd 39 3d 99 11 c6 bd
       0.012015124 0.107722744 0.045408133 -0.09671325
0001c0 8d a2 05 be 29 f4 9b 3e 05 91 83 bd cd a4 19 be
       -0.1305029 0.30459717 -0.06424145 -0.15004273
0001d0 b1 8d ad 3c 13 dd c6 bd 44 e2 ef 3d 7c 63 2d 3d
       0.021185728 -0.09710135 0.117130786 0.042331204
0001e0 20 ed 51 3e a9 b0 3b 3e 9e 8e 53 3d 4d 3f 67 3e
       0.20500612 0.18329109 0.051649682 0.22582741
0001f0 36 df d6 bd ad e1 a2 3d e8 39 0d 3e 28 45 ce bc
       -0.10491793 0.079532005 0.1379162 -0.02517946
000200 d9 e5 d5 3d 7e 64 dd bd 91 d3 56 3e 89 ec 4e 3d
       0.104442306 -0.10810183 0.20979144 0.050518546
000210 4c e0 da bd ba 08 9a 3c 89 12 52 3d 87 a5 93 3d
       -0.106873125 0.01880299 0.051287208 0.07209306
000220 7a d5 fe 3d 04 57 55 bd f7 8f 39 3e ff 91 2c 3e
       0.12443061 -0.052084938 0.18121324 0.16852568
000230 c4 fe 08 3e d3 71 08 3e ea b6 2e bc ce 93 8c 3d
       0.13378435 0.1332467 -0.010663727 0.06864129
000240 5d 84 f6 bd 52 37 20 3e 54 59 03 3d 04 66 99 bd
       -0.12036965 0.15646103 0.03206761 -0.07490161
000250 77 76 e2 bd 85 7a 18 3e cd 45 82 bd 02 36 60 bd
       -0.110577516 0.14890487 -0.0636097 -0.054739006
000260 d8 b9 ff 3d 59 8e 83 3e a1 e6 18 3e 5f 23 8e 3e
       0.12486619 0.2569454 0.14931728 0.2776136
000270 24 04 84 be 5c a7 ef 3d d1 49 cc 3d 9e 1e 12 be
       -0.2578441 0.11701843 0.09975017 -0.14269492
000280 58 2b 81 3e 1e 05 2d 3e f0 e0 ab 3d 2a e4 54 bc
       0.2522838 0.16896483 0.08392513 -0.012993852
000290 9d 74 48 3e 4b da b4 bc 9c 50 12 bd 7e ae 90 3d
       0.19575734 -0.022076746 -0.035721406 0.07064532
0002a0 d6 5b 0d be f2 4f 0e 3c 67 27 85 3d 63 7f a7 3d
       -0.13804564 0.008686053 0.06501656 0.08178594
0002b0 3d 84 3c 3d f5 fd 7d 3d f8 f9 7b 3e b1 63 25 be
       0.04602455 0.06200977 0.24607074 -0.1615131
0002c0 76 18 7f 3d 51 8f 03 bd a5 08 6c bd f6 b8 ee ba
       0.062279187 -0.0321191 -0.05762543 -0.0018213082
0002d0 8d 59 13 3e dc a8 38 3e 7c 27 cf 3d b3 e1 01 3e
       0.1438963 0.18033165 0.10114953 0.12683754
0002e0 b2 b1 b3 3d 75 20 89 3d e5 0c 48 3e 67 50 c9 bc
       0.08774127 0.06695644 0.19536169 -0.024574472
0002f0 79 25 e5 3c 37 d2 31 bd a7 f2 9e 3d f6 09 18 3d
       0.02797197 -0.043413367 0.07761126 0.037118874
000300 e1 7c c1 3d b4 fe 04 3e 76 47 15 bd 91 db c4 3d
       0.09447647 0.12987787 -0.036445104 0.096121915
000310 79 34 87 3b f0 63 62 3d 37 5e 51 bd 0f ab b0 bd
       0.0041261283 0.05527109 -0.05111524 -0.08626377
000320 0a 7b e3 3c be e8 bd 3d 73 fa 5a bc 7b 83 2e 3e
       0.02776863 0.09272908 -0.013365376 0.17042343
000330 f0 f0 80 3e 03 4c 1b be 4d 11 db 3c 04 a3 68 3e
       0.2518382 -0.15165715 0.026741648 0.22718436
000340 b1 ab c9 3d b1 a6 09 3e 6b 24 e6 3d 13 2a 87 bc
       0.09847201 0.13442494 0.11237415 -0.016499555
000350 6f a1 73 3e 3a 70 81 3d ba 18 b2 3d 9d 72 fa 3d
       0.23792051 0.06320234 0.086961225 0.12228892
000360 20 f1 2a be d6 cb 1b 3e 4f ff c7 bd c9 4d 22 3d
       -0.16693544 0.15214476 -0.09765493 0.039624963
000370 03 78 4f bd eb af be bd 06 1b 8f 3d b7 62 42 3e
       -0.05065156 -0.093108974 0.06987576 0.18982969
000380 35 83 84 3d 2d ea b6 3d 7e e3 ce bc 8e 1c 27 3e
       0.06470338 0.08931384 -0.025254961 0.16319486
000390 08 e2 1c be 11 d9 53 bd b9 93 19 3e e3 f0 82 3c
       -0.15320599 -0.051720683 0.14997758 0.015984004
0003a0 5b 8e cb 3c 5c d0 1d 3e ed 93 03 ba 11 60 82 3d
       0.024848154 0.15411514 -0.0005019296 0.063659795
0003b0 92 de 98 3b 05 eb 7d 3d 8a c2 d8 3b 90 7d fd 3c
       0.0046652043 0.06199171 0.0066149877 0.030943662
0003c0 a6 73 65 bd 06 00 61 3e d6 e4 b8 3d 33 d0 b3 3d
       -0.056018494 0.21972665 0.09028022 0.08779945
0003d0 45 47 43 be b3 d3 17 3d 82 ae 96 bd c1 79 fc 3c
       -0.19070156 0.037067126 -0.073575035 0.030819776
0003e0 ef b1 d7 3d 32 62 8a 3e 81 25 59 bd 99 9c 0c 3e
       0.10531985 0.27028042 -0.053014282 0.13731612
0003f0 34 cc 07 be 50 b1 1e 3e f7 9b fa bd 3d bc ec bd
       -0.13261491 0.15497327 -0.12236779 -0.11559341

decoder.layers.2.bias f4 [32]
000000 c0 2c b5 3e 8f b2 6c 3e f9 13 15 3e 29 a9 ad bc
       0.35385704 0.2311499 0.145584 -0.021198826
000010 29 f0 ce bd b2 ae 5b 3e 0e 37 2f 3d 40 cc 5b 3c
       -0.10104401 0.2145336 0.042777114 0.013415396
000020 fd 37 0f 3d 63 86 93 3d 63 2a 74 3e 2e 1a 96 3e
       0.034965504 0.072033666 0.23844294 0.2931685
000030 72 02 97 3e 88 01 db 3d 4d 9c ee bc 0e ea 91 bd
       0.29494053 0.106936514 -0.029127264 -0.071247205
000040 c6 3c be bc d2 41 dc 3d 5f b3 1d bd 02 d5 77 3e
       -0.023222338 0.10754742 -0.03850114 0.2420235
000050 d6 9b c9 3d c1 86 dc 3c 42 29 92 3e d9 f6 4f 3d
       0.098441765 0.026919724 0.28547102 0.05077252
000060 79 3c 74 3d 73 df a1 3d 1b 3e 0c be 2b fc 11 be
       0.059627984 0.07903948 -0.13695566 -0.1425635
000070 b4 7a e0 bd 4e fe 80 3e ed 9c 9f bd c4 41 07 be
       -0.10960904 0.2519402 -0.07793603 -0.13208681

decoder.layers.4.weight f4 [24, 32]
000000 e3 7f 7d bb 17 31 09 3e b5 54 35 3d e8 01 09 be
       -0.0038680963 0.13397633 0.044270236 -0.13379633
000010 c4 5f 20 3d 41 cc 0a 3d 38 12 82 bd fa ef 34 bc
       0.03915383 0.033886198 -0.06351131 -0.011043543
000020 71 7b 80 3d ed 30 59 bd f2 4f 9f 3d 6e 68 21 bc
       0.062735446 -0.053025175 0.0777892 -0.009851558
000030 69 e9 41 bd f8 5e 06 bb 25 5f 17 3c 29 4f b2 3d
       -0.047341738 -0.0020503383 0.009238993 0.08706505
000040 81 87 09 bc 65 b6 a8 3d 1f e4 3a 3d 8a b0 78 bd
       -0.008394123 0.08237914 0.04562771 -0.060715236
000050 92 e3 83 bd c5 81 ea 3c eb 14 91 3c e9 d8 73 bc
       -0.0643989 0.028626332 0.01771017 -0.014883258
000060 58 d2 9b 3d 08 18 87 3d 8a a1 1e bd 72 93 f7 bd
       0.07608479 0.065963805 -0.038728274 -0.1208867
000070 c7 a6 b5 3c b4 73 02 bd a4 41 b9 bc 4d ce 59 bd
       0.022174252 -0.031848624 -0.022614308 -0.05317526
000080 e9 4b 29 bc df db 74 bd 7e 40 9f 3d 10 64 f7 3d
       -0.01033304 -0.059779998 0.07775973 0.12079632
000090 90 a3 a1 bd c7 1b 02 3d b9 32 c5 bd b5 c4 ae 3d
       -0.07892525 0.03176477 -0.09628815 0.08533613
0000a0 62 f1 2f 3d 2a 50 58 bb e2 39 03 be fc f5 52 bd
       0.04295481 -0.0033006766 -0.1281505 -0.05150412
0000b0 51 e5 b2 3d 8d 84 a9 3c 0e d6 be bc 90 86 1e 3c
       0.08735145 0.020693088 -0.023295429 0.009675637
0000c0 98 b8 c2 3d f8 2a 83 bd d2 e0 2f 3b 52 8c c7 3d
       0.09507865 -0.0640468 0.0026836884 0.09743561
0000d0 61 b8 88 3c 27 10 ed bc 9a 8d be 3d 1c c7 b8 bd
       0.016689481 -0.028938366 0.09304352 -0.09022352
0000e0 db 05 8e bb 44 3b 1d bd 55 50 ed 3c 08 5d 69 bb
       -0.004334194 -0.0383866 0.02896897 -0.003560843
0000f0 be ee ec 3b 46 9e 96 bd e4 0d c1 bd 58 c1 06 3d
       0.0072306087 -0.07354407 -0.094264776 0.03289923
000100 07 94 1c 3e 81 17 d1 bc f5 38 89 bb fa 6e d3 bd
       0.15290843 -0.025523903 -0.004187698 -0.103239015
000110 2c 04 58 3d 0c 25 b6 3d 86 a3 ff bd 0c b0 f4 3c
       0.052738354 0.08893785 -0.124823615 0.029869102
000120 2b 87 8a bd 53 46 6a 3d 46 42 11 be b9 49 ea bd
       -0.067640625 0.057195973 -0.14185438 -0.11439843
000130 fc 88 93 3d cf 2e 87 bd 9f 7a 51 3c 98 76 04 bd
       0.07203862 -0.06600725 0.012785583 -0.032339662
000140 f6 79 fa 3c 44 78 dd 3b f0 a2 ae 3d 82 f1 ee 3d
       0.030575734 0.0067587215 0.085271716 0.11667158
000150 9a cb 70 3d b0 c4 2f bd 47 bd 1b be 61 79 a0 3d
       0.05878792 -0.042912185 -0.15208922 0.07835651
000160 8b cf 43 3d a4 be e6 bd ef bb 09 3d 27 ba 72 3d
       0.04780535 -0.112668306 0.033626493 0.05925956
000170 97 81 83 bc 7e f7 e9 bd 6c 98 19 bb 65 54 f4 bc
       -0.016053004 -0.114241585 -0.0023436798 -0.029825399
000180 6c a1 65 3d 02 4e 40 bd 15 fc ba bd 73 e5 91 bd
       0.056062147 -0.046949394 -0.09130112 -0.07123842
000190 f0 80 91 3c 74 95 98 bc dd fb 80 bd 9c 04 c0 bc
       0.017761678 -0.018625952 -0.06298039 -0.023439698
0001a0 ca a2 81 bc 1e 09 e3 bd 4a 4e f0 3d f2 7c c2 3d
       -0.015824694 -0.11085723 0.117336825 0.09496488
0001b0 84 7b 47 bd 27 41 5a bd 95 97 02 3e 77 e0 79 3d
       -0.048701778 -0.05328479 0.12753136 0.061005082
0001c0 8a 0d f0 bc 07 e7 fb 3c 1f 02 a7 3c 54 16 c7 bd
       -0.02930333 0.03074981 0.020386754 -0.097210556
0001d0 ec 55 6e 3d 8a c1 46 3c 5c 7b 96 3d 34 f9 a4 bc
       0.05818741 0.012131104 0.07347748 -0.02013836
0001e0 3a 49 1e bd 5f b7 4a bd 8f 98 cf bb 05 8c bc 3c
       -0.038644053 -0.049491283 -0.006335325 0.023015985
0001f0 5a c1 b4 3b 62 ca c5 bd 63 07 5d 3d 6f 52 a2 3d
       0.0055162134 -0.09657742 0.053962123 0.07925879
000200 b3 c7 04 3d ec 5e bc 3d f4 50 e7 3d ca 1d be bd
       0.03241701 0.091977924 0.112947375 -0.092830256
000210 ce a9 9a 3d f0 15 5b bd 9f 02 30 bb 4b 1f 79 3c
       0.07551919 -0.053487718 -0.002685703 0.015205215
000220 dd 19 85 3d 9e 76 36 bc 58 fe ad bc 50 f6 e4 3d
       0.06499074 -0.011136679 -0.021239445 0.11179793
000230 b8 18 c9 bd c4 d9 90 3c e0 90 40 bc bf ce 81 3d
       -0.09819168 0.017681964 -0.011753291 0.06338262
000240 e6 5e af 3d 66 c5 18 bd da 1b 91 bd e6 7d a4 bd
       0.08563022 -0.03729763 -0.070853904 -0.08031826
000250 10 c7 ad bd 11 7f a1 bb 99 e7 0c be 6d 4c 0d bc
       -0.08485234 -0.0049284776 -0.13760222 -0.008624178
000260 f2 be 0f 3d e3 95 14 bd fc f3 09 3d 30 d2 80 bd
       0.03509421 -0.036275756 0.033679947 -0.0629009
000270 b6 28 0f 3d 8c 73 d9 3a 35 de 89 3c eb 5e b4 bb
       0.034950934 0.0016590222 0.01682959 -0.005504479
000280 4e df 12 3e e6 1e e6 3c 23 6d b5 bc bb 9c 9f 3d
       0.14342996 0.028090905 -0.022146767 0.07793566
000290 8b 09 7b bd b6 09 6c bc 4d aa 88 3d 32 46 88 3d
       -0.061288398 -0.014406612 0.06673107 0.06654014
0002a0 f4 9b 69 3d d2 9a 14 3d 40 1d 8d 3c 43 18 e2 bd
       0.057033494 0.03628046 0.017225862 -0.11039784
0002b0 08 9d c9 bd 30 66 5c 3d 05 b7 36 bc c5 9e 00 3d
       -0.098444045 0.05380839 -0.011152034 0.031401414
0002c0 be 76 07 bd 76 64 7b 3d 72 56 13 bc 30 18 ac ba
       -0.033072226 0.061375104 -0.008992778 -0.0013129767
0002d0 68 d7 91 3c 03 83 e6 bc 56 1f 74 3d fe 30 7e bd
       0.017802909 -0.028138643 0.059600197 -0.06205844
0002e0 76 74 f0 bc 80 d7 77 3a cd 81 6e 3d de fe 55 bd
       -0.029352408 0.0009454414 0.058229256 -0.052245013
0002f0 67 da e2 3c 86 e9 88 3c 97 1f e2 3b f3 dd 6d 3d
       0.027692033 0.016712915 0.0069007385 0.058072995
000300 01 ff a8 bd e9 71 ba 3d ef a7 9a 3d 43 f9 92 3c
       -0.08251763 0.09103758 0.07551562 0.017941123
000310 3f a2 0f 3d fd c1 08 be da 25 07 3d 4e bc 1a 3e
       0.03506684 -0.1335525 0.032995082 0.15110895
000320 7d fa cf bb 73 64 0e 3e ad d1 66 ba 8a ed 0f be
       -0.006346999 0.13905506 -0.0008805048 -0.14055458
000330 c5 c7 1a 3e 5c 00 42 bd 57 8b 03 be 2a eb b7 3c
       0.15115269 -0.047363624 -0.12846123 0.022451002
000340 d6 5c b2 3d 0e 70 18 3d 7a 1f 1f bd 1f ac 03 3e
       0.08709113 0.03721624 -0.038848378 0.12858628
000350 f9 c7 a7 bc 7a 39 20 bd d1 f3 b0 3d ba 85 e6 3d
       -0.020481097 -0.039117314 0.08640254 0.11255975
000360 23 cb 3c 3d 7b 71 dc 3d ad 76 51 3d d7 32 fe bd
       0.046092164 0.10763832 0.05113857 -0.12412041
000370 ff f4 31 bd 9c 47 fb bc c7 a2 52 be 18 c0 02 be
       -0.043446537 -0.030673794 -0.20569907 -0.1276859
000380 36 c8 ae bd 7e e1 e2 3d 58 33 92 3c f9 c9 54 bd
       -0.08534281 0.110781655 0.017846748 -0.05195043
000390 a0 76 8a bc 42 2b 0c bd 78 fa 64 3d b9 34 0c 3d
       -0.016902268 -0.03422094 0.055902928 0.034229968
0003a0 97 24 cf 3d c7 bb c2 3d b9 a7 64 bd 30 41 c6 bd
       0.10114401 0.09508472 -0.055824015 -0.09680402
0003b0 5b 3e 91 bd dc e4 b7 bd bf b3 3f bc 32 5c f9 3c
       -0.070919715 -0.08979198 -0.01170057 0.03043947
0003c0 46 27 83 3d bb 31 0e be fc 42 00 be 49 eb 2b 3b
       0.06403975 -0.13886158 -0.12525553 0.002623277
0003d0 cf 2a 88 3d 1e 02 a1 bc c9 92 a2 bd 6a 1c d3 3c
       0.0664879 -0.01965433 -0.07938153 0.025770385
0003e0 72 cf aa bd ea 0f 0a be 6c d8 9a 3d 1b f1 38 3c
       -0.08340348 -0.13482633 0.075608104 0.011287953
0003f0 f3 07 06 3d 80 0a 07 3e bf ec c1 3d 45 ce 32 bd
       0.032722425 0.13187599 0.09468984 -0.043653745

decoder.layers.4.bias f4 [24]
000000 37 67 2f bd 52 56 14 bb b7 f0 09 3e 75 24 9e 3d
       -0.042823043 -0.0022634459 0.13470732 0.077217974
000010 fc 33 2f bc 9f 75 0c bd 94 04 95 bd 6f 82 fb 3d
       -0.010693546 -0.03429186 -0.07276264 0.122807376
000020 37 98 3b 3e bc 4d b0 3d 90 67 10 3d a7 d7 ab bc
       0.18319784 0.08608577 0.035255015 -0.020976854
000030 f5 ab 80 3d 00 fc 17 3e 46 c1 4c bd 92 d4 d1 bd
       0.06282798 0.14842224 -0.049989007 -0.10245623
000040 c2 0c ae bd f2 52 bd bd cf 3d 85 3c 24 e0 71 be
       -0.08498527 -0.09244336 0.016264824 -0.23620659
000050 a3 74 f6 3c 38 15 0a be f0 fc 47 bd 66 15 63 bd
       0.030084914 -0.13484657 -0.048825204 -0.05544033
