m4_ws/src/morphing_lander/learned_models/2024-05-21_16-56-45/model_10.pth (torch, 33902 bytes, 22 tensors)

cond_normalizer.mean f4 [12]
0	0xbeefd019	-0.46838453
1	0xbc0e3cb2	-0.008681463
2	0xb9e972fe	-0.000445269
3	0x3a737654	0.00092873466
4	0x3cec182e	0.028820124
5	0x3c0bc6b3	0.00853126
6	0xbbd48437	-0.006485488
7	0x3f0c51ed	0.5481251
8	0x3f0fb57b	0.5613629
9	0x3f0c7a0c	0.5487373
10	0x3f0f6b93	0.5602352
11	0x421b1a99	38.775974

cond_normalizer.variance f4 [12]
0	0x3e02f949	0.12790407
1	0x3aac716f	0.0013156364
2	0x3aac1af5	0.0013130592
3	0x3aab0ad6	0.0013049494
4	0x3d92e5a3	0.07172706
5	0x3d66c969	0.056344423
6	0x3de05fda	0.10955782
7	0x3cbabe1d	0.022795731
8	0x3cbece41	0.023291709
9	0x3cbb09ff	0.022831915
10	0x3cc16c71	0.02361128
11	0x43906860	288.81543

output_normalizer.mean f4 [12]
0	0xbb4cc7be	-0.0031246985
1	0xbae6d36d	-0.0017610617
2	0x3c688f6f	0.0141943535
3	0x3847f29a	4.7671238e-05
4	0x3b2591a0	0.0025263801
5	0x3a48cf26	0.0007660262
6	0x3c41c5be	0.011826931
7	0x3a9a765b	0.001178454
8	0x402a74cd	2.663379
9	0x3d9d829f	0.076909296
10	0x3ee6d244	0.45082295
11	0xb9928ca1	-0.00027952067

output_normalizer.variance f4 [12]
0	0x3e1b4613	0.1516345
1	0x3da93096	0.0826122
2	0x3d0e6c90	0.034771502
3	0x38e2c638	0.00010813441
4	0x3baf0fff	0.005342483
5	0x3ca73d41	0.02041495
6	0x3e8363ad	0.25661984
7	0x40070b59	2.1100676
8	0x428f5a6a	71.67659
9	0x432d5868	173.34534
10	0x40d1ae7e	6.5525503
11	0x3ec54ec0	0.38536644

encoder.layers.0.weight f4 [32, 24]
0	0x3c25147b	0.010075684
1	0xbe0c68b0	-0.1371181
2	0xbc9f21ab	-0.019425234
3	0xbce767c1	-0.028247716
4	0xbd9f6699	-0.07783241
5	0x3e1dddbe	0.15416619
6	0x3ce40079	0.027832257
7	0xbe05d557	-0.13069664
8	0xbd7f218b	-0.06228785
9	0xbe31b05c	-0.17352432
10	0xbc225976	-0.009909024
11	0xbd97ddc9	-0.07415349
12	0xbdba4169	-0.09094507
13	0x3cdd4aa0	0.027013123
14	0x3deded42	0.11617519
15	0x3df31e58	0.11871022
16	0x3c720fd4	0.0147742815
17	0x3cda0cb3	0.026617384
18	0xbdaa4af8	-0.083150804
19	0x3d1d301d	0.038375963
20	0x3da8b66d	0.0823792
21	0x3d01d31f	0.03169548
22	0xbda750bc	-0.08169696
23	0xbda6f294	-0.08151737
24	0x3dd14caf	0.10219704
25	0x3dd09ca9	0.101861306
26	0x3bbfdf9b	0.0058555133
27	0x3e2ecbec	0.17069978
28	0xbdbbd52d	-0.091715194
29	0xbc82ac83	-0.0159514
30	0xbe21e742	-0.15810874
31	0x3e6a7b2e	0.22898552
32	0x3dfccfe4	0.123443395
33	0x3ddf14d4	0.108926445
34	0xbd0d5a2b	-0.03450982
35	0xbdaa04d5	-0.08301703
36	0x3e0415cd	0.12898941
37	0xbdb5a02e	-0.088684425
38	0xbdbf2caa	-0.09334691
39	0xbe1b354b	-0.15157048
40	0xbde2e06b	-0.110779606
41	0xbe0dc9cd	-0.13846512
42	0xbe1080e2	-0.14111665
43	0x3c1e3ba0	0.00965777
44	0xbe3981b8	-0.1811589
45	0x3db1ea33	0.08687248
46	0xbe1a9afe	-0.15098187
47	0x3e02c16b	0.12769096
48	0xbe1e2795	-0.15444787
49	0x3e17c09a	0.14819565
50	0x3c48ca70	0.012255296
51	0xbe31c4eb	-0.17360274
52	0xbb733f54	-0.0037116604
53	0xbdd316a5	-0.103070535
54	0xbdeff695	-0.11716954
55	0x3db9d201	0.09073258
56	0xbc851131	-0.016243549
57	0xbd0e38b5	-0.03472205
58	0xbdec7183	-0.11545088
59	0xbc5322e0	-0.012886733
60	0x3c02cee0	0.007983893
61	0x3ba5614a	0.005046998
62	0xbc763e82	-0.015029551
63	0xbde59148	-0.11209351
64	0x3d28b73b	0.041190367
65	0x3c2cc395	0.010544677
66	0x3cb78d0e	0.022406127
67	0xbe3b5fe9	-0.18298306
68	0xbdb487e3	-0.08814981
69	0x3cb20255	0.021729628
70	0xbd929067	-0.07156449
71	0x3d6abde4	0.05731
72	0xbdcbe21f	-0.099552386
73	0xbde2d0aa	-0.11074956
74	0x3d75a4ea	0.059971727
75	0x3cd04414	0.025423087
76	0x3cabe613	0.020983731
77	0x3e25a2d5	0.16175397
78	0xbe444292	-0.1916602
79	0x3e38f6ab	0.18062846
80	0x3e3693f3	0.17829876
81	0xbe5b11d7	-0.21393524
82	0xbd4e0e75	-0.050306756
83	0xbd2ca043	-0.042145025
84	0xbcf21984	-0.029553182
85	0x3de9fd68	0.114252865
86	0x3df66ac5	0.120320834
87	0xbe0c0dc4	-0.13677126
88	0x3d7a986b	0.061180513
89	0x3dd8c1c6	0.10583834
90	0xbc8b2b78	-0.016988501
91	0x3de1075c	0.10987732
92	0x3dd01bfe	0.10161589
93	0xbb51af39	-0.003199531
94	0x3c38a159	0.011268937
95	0xbdba5b5b	-0.09099456
96	0xbe00b814	-0.1257022
97	0x3dc2c597	0.095103435
98	0xbe271216	-0.16315493
99	0xbdca5eb8	-0.098813474
100	0xbe1c4bb7	-0.15263258
101	0x3e2d9009	0.16949476
102	0xbe1df926	-0.15427074
103	0xbbf70f32	-0.007539653
104	0xbd91a95f	-0.07112383
105	0xbd6c8442	-0.05774332
106	0x3c796ce4	0.015223715
107	0xbe10eef5	-0.14153655
108	0xbd0ee2f0	-0.034884393
109	0xbe0d21c9	-0.1378242
110	0x3e0423a8	0.12904227
111	0x3d075951	0.033044163
112	0xbda2bfff	-0.079467766
113	0xbdc5600c	-0.0963746
114	0xbe126f48	-0.14300263
115	0xbd9390c0	-0.07205343
116	0xbd54a1a9	-0.051911984
117	0x3e445316	0.1917232
118	0x3e31b28f	0.17353271
119	0x3db6fe73	0.08935251
120	0xbda97322	-0.08273913
121	0x3d35976d	0.044333864
122	0x3d213f93	0.03936727
123	0x3d2c20fa	0.042023636
124	0xbddabc87	-0.1068049
125	0xbd70c8ba	-0.058785178
126	0xbd747563	-0.05968226
127	0x3d34c668	0.044134527
128	0x3dcf1743	0.10111859
129	0x3d9eb6ed	0.07749734
130	0x3dd50014	0.104004055
131	0xbdecda19	-0.11565036
132	0x3dd629da	0.10457201
133	0x3dfc7457	0.123268776
134	0xbe06bb76	-0.13157448
135	0xbd1cbb6f	-0.038264688
136	0xbd91bdd3	-0.07116284
137	0xbcfed00d	-0.031105066
138	0x3c1ed8ef	0.009695276
139	0x3d2bc679	0.041937325
140	0xbdc02f3b	-0.093840085
141	0xbe20567b	-0.1565799
142	0x3d873241	0.06601382
143	0xbc2ba97d	-0.010477421
144	0x3d649b0b	0.055811923
145	0xbde9c01f	-0.11413597
146	0xbd97fbf0	-0.074211
147	0x3df4b2f1	0.11948193
148	0xbe0a8eb1	-0.13530995
149	0xbe35a7da	-0.17739812
150	0x3db98d6a	0.09060176
151	0xbdf6d338	-0.120520055
152	0xbd8fc019	-0.070190616
153	0x3d9a2410	0.075264096
154	0x3d0b28d1	0.033974472
155	0xbdb9074d	-0.09034596
156	0x3d5f8d2a	0.054577984
157	0x3e0bfb9e	0.13670203
158	0xbd7cd13e	-0.061722986
159	0x3d6151b7	0.05500957
160	0x3e1cd2e6	0.15314826
161	0xbe2d49bf	-0.16922663
162	0xbd58b496	-0.052906595
163	0x3e244b7a	0.16044417
164	0xbd024469	-0.031803522
165	0x3e1c93da	0.15290776
166	0xbba0d00c	-0.0049076136
167	0xbd453f27	-0.04815593
168	0xbd866b22	-0.06563403
169	0x3dbbaa4c	0.09163341
170	0x3e1d32db	0.15351431
171	0x3dc32108	0.095277846
172	0x3d992326	0.07477407
173	0x3def3be4	0.11681345
174	0xbd812743	-0.06306317
175	0x3d836f8a	0.06417759
176	0xbde185f8	-0.11011881
177	0x3cf54757	0.029941244
178	0x38a3b874	7.806803e-05
179	0xbd9d55cd	-0.07682381
180	0x3c54f180	0.012997031
181	0xbdb8e83e	-0.09028672
182	0x3da42409	0.08014686
183	0xbe22e650	-0.1590817
184	0x3de6e1d7	0.11273544
185	0x3e1eb1bb	0.15497486
186	0xbdff6e31	-0.12472189
187	0x3daf4891	0.08558763
188	0xbe2614d7	-0.16218887
189	0x3d6025cd	0.05472355
190	0xbcecf1fc	-0.02892398
191	0xbd9bc1d2	-0.07605328
192	0xbde8e689	-0.11372096
193	0xbd94d047	-0.07266288
194	0xbd92e15b	-0.071718894
195	0x3e1b8ea7	0.15191136
196	0x3e0f7cb7	0.14012419
197	0x3e18cd91	0.14922167
198	0xbe1f19f4	-0.15537244
199	0x3ca6601f	0.020309506
200	0x3ce614b5	0.028086046
201	0x3e053446	0.13008222
202	0xbe309644	-0.17244822
203	0xbce77aa9	-0.028256731
204	0x3db944ba	0.09046312
205	0x3cc852fc	0.024453633
206	0xbd666130	-0.05624503
207	0xbd4d41a4	-0.050111428
208	0xbd688e44	-0.0567763
209	0x3d22279e	0.039588563
210	0x3cc842d2	0.024445925
211	0xbdb5dba6	-0.08879785
212	0x3cd3a1b6	0.025833946
213	0x3e0eaa24	0.13932091
214	0xbe023fe6	-0.12719688
215	0xbbce3a57	-0.0062935757
216	0xbdb9dcb3	-0.09075298
217	0xbd81bee7	-0.0633524
218	0x3d0541c6	0.03253343
219	0x3dae7c10	0.08519757
220	0xbdab6f20	-0.08370805
221	0x3cd7798f	0.02630308
222	0x3dd51335	0.10404054
223	0xbc88a515	-0.01668028
224	0xbdb6c616	-0.08924501
225	0xbdf554ce	-0.11979066
226	0x3d4e4067	0.050354388
227	0x3cd7be57	0.026335878
228	0xbd226c60	-0.039654136
229	0xbd9a90d4	-0.07547155
230	0x3cc27bb5	0.023740629
231	0x3da5d920	0.08098054
232	0x3e30c6fd	0.17263408
233	0xbe1648b0	-0.14676166
234	0x3c8c1584	0.017100103
235	0x3e12b0ec	0.14325303
236	0xbe057b26	-0.13035259
237	0xbca6ae06	-0.020346653
238	0x3cb796be	0.022410747
239	0x3cac3811	0.021022828
240	0x3d903f8e	0.07043372
241	0x3da4866d	0.08033452
242	0x3dfdc5a9	0.12391216
243	0xbdaf1bcf	-0.08550226
244	0xbd448a54	-0.047983482
245	0x3e52ef7e	0.20599172
246	0xbd45cd51	-0.048291508
247	0x3d8049d1	0.06264079
248	0xbe2b4f91	-0.16729571
249	0x3d811a5f	0.06303858
250	0xbe286332	-0.1644409
251	0x3dd3d781	0.103438385
252	0x3d0acf89	0.033889327
253	0xbe0df61f	-0.13863419
254	0x3d92921f	0.07156777
255	0xbde5945e	-0.112099394

encoder.layers.0.bias f4 [32]
0	0xbdfd09e7	-0.12355404
1	0x3e266f5d	0.16253419
2	0xbd5df596	-0.054189287
3	0xbe22530e	-0.15851995
4	0xbdf094f1	-0.11747158
5	0xbd4669d7	-0.04844078
6	0xbd1d5492	-0.03841073
7	0x3e072878	0.13199031
8	0x3d3f0b01	0.046641354
9	0xbdca6aad	-0.09883628
10	0xbca9330d	-0.020654226
11	0xbc96b523	-0.01839692
12	0xbe14161e	-0.14461562
13	0x3de0d383	0.10977843
14	0x3e02486d	0.1272294
15	0xbcba2141	-0.022720935
16	0x3e4c7a8e	0.19968626
17	0xbe32fe3c	-0.17479795
18	0xbd9be26e	-0.076115474
19	0x3e391411	0.18074061
20	0x3d604fda	0.054763652
21	0x3ddaa3e6	0.106757924
22	0xbdc5d2cc	-0.09659347
23	0x3cc406b9	0.023928987
24	0x3e154c9b	0.14580004
25	0xbd4f1fdc	-0.050567493
26	0x3d70e540	0.05881238
27	0xbd3ae616	-0.045629583
28	0xbb1e6ff2	-0.0024175611
29	0xbd1e0f11	-0.038588587
30	0xbdcd322b	-0.100193344
31	0x3e04f3c8	0.1298362

encoder.layers.2.weight f4 [32, 32]
0	0x3df56fff	0.11984252
1	0x3b6c0524	0.0036013806
2	0x3c5f846e	0.013642414
3	0xbd412308	-0.04715255
4	0x3d081cb8	0.033230513
5	0x3d2f9beb	0.042873304
6	0x3d2ed149	0.04268006
7	0x3e062bfb	0.13102715
8	0xbd92f059	-0.07174749
9	0xbdd4dc68	-0.10393602
10	0xbdfc326b	-0.12314304
11	0x3de766cc	0.11298904
12	0x3dce59a8	0.10075694
13	0x3dfbf19a	0.12301941
14	0xbcb597fc	-0.022167198
15	0x3de7b915	0.113145985
16	0xbe0dbd1a	-0.13841668
17	0x3de71446	0.11283164
18	0x3cde2180	0.027115583
19	0xbd823724	-0.063581735
20	0xbe1f536e	-0.1555917
21	0xbd0e23e4	-0.034702197
22	0xbdd0a265	-0.10187224
23	0xbe19c98d	-0.15018292
24	0x3d810236	0.0629925
25	0xbdbaa66b	-0.09113773
26	0xbd32714e	-0.043565087
27	0xbca03bb8	-0.019559726
28	0x3cce0de0	0.0251531
29	0xbe293500	-0.16524124
30	0x3c068d39	0.008212381
31	0xbd201a2b	-0.039087456
32	0xbd339a8b	-0.043848556
33	0x3d6c6371	0.057712022
34	0xbd9eded1	-0.077573426
35	0x3c4f1235	0.012638618
36	0xbd8542c2	-0.06506874
37	0xbdc6e1bc	-0.09711024
38	0xbe024204	-0.12720495
39	0xbb967293	-0.004591295
40	0xbd83931f	-0.064245455
41	0xbe05681f	-0.13028
42	0xbde8ab5a	-0.11360808
43	0x3d1806f3	0.037116002
44	0x3ddce189	0.10785205
45	0xbd4a75b7	-0.049428668
46	0xbccc91f5	-0.024971941
47	0xbd7289a1	-0.059213284
48	0x3e06ab4e	0.13151285
49	0xbd704f3e	-0.05866932
50	0xbc96f50f	-0.0184274
51	0x3d9620fe	0.073305115
52	0x3ce0b8e9	0.027431922
53	0xbd86b8df	-0.0657823
54	0x3da4c729	0.08045799
55	0xbdbdaafa	-0.09261127
56	0xbe18010a	-0.14844146
57	0x3ce8cb52	0.028417263
58	0xbd21f81b	-0.039543252
59	0x3e017cf8	0.12645328
60	0xbdbe7b73	-0.0930089
61	0xbdde8887	-0.10865884
62	0xbe1e3482	-0.15449718
63	0xbddab2d1	-0.10678638
64	0x3da3d920	0.08000398
65	0xbe210960	-0.15726233
66	0x3db83b61	0.08995701
67	0xbd871c66	-0.065972134
68	0x3e29e420	0.16590929
69	0xbd47e12a	-0.048798718
70	0xbd5b84a6	-0.0535933
71	0x3d984f0f	0.07436954
72	0x3e209ed9	0.15685596
73	0xbcfd9e55	-0.030959288
74	0xbdd899b2	-0.1057619
75	0x3dc8f733	0.098127745
76	0x3e07a46a	0.13246313
77	0x3e10dd40	0.141469
78	0x3daf3262	0.08554532
79	0x3de7501e	0.11294578
80	0x3cc55b0c	0.024091266
81	0x3db6052e	0.08887707
82	0x3d1c2b5e	0.038127296
83	0x3da8846c	0.082283825
84	0xbc2ca82f	-0.010538145
85	0xbccd5314	-0.025064029
86	0xbdfc99f2	-0.1233405
87	0x3e02fba4	0.12791306
88	0xbdf8994e	-0.121386155
89	0xbd3d08a8	-0.046150833
90	0xbdcf21ce	-0.101138696
91	0x3daa9a4a	0.083302096
92	0x3d9e3357	0.07724636
93	0xbb264cf5	-0.002537546
94	0x3e3104ed	0.17287035
95	0x3d857f36	0.06518404
96	0xbc28e5bf	-0.010308682
97	0xbe0d3b3a	-0.13792124
98	0xbd3d450c	-0.046208426
99	0x3d968a63	0.07350614
100	0xbc2dc66a	-0.010606388
101	0x3e16f71d	0.14742704
102	0xbd319dc1	-0.043363336
103	0x3d19f90a	0.037591018
104	0x3daa51d6	0.0831639
105	0x3adead7a	0.0016988956
106	0xbe205b16	-0.15659747
107	0x3e32dbeb	0.17466705
108	0xbd466f85	-0.048446197
109	0xbd54bd7d	-0.051938523
110	0xbd5c5ae8	-0.053797632
111	0xbd232d79	-0.039838288
112	0x3e0d993f	0.1382799
113	0xbddcf147	-0.107882075
114	0x3deaa535	0.11457292
115	0x3daaa085	0.08331398
116	0x3cef7de5	0.029234836
117	0x3dda293b	0.10652395
118	0x3d74b6dc	0.0597447
119	0x3defe702	0.11713983
120	0x3ce1ec47	0.027578486
121	0xbd60ea4b	-0.05491094
122	0xbd9b062c	-0.075695366
123	0xbda2581a	-0.0792696
124	0x3dd0f946	0.10203795
125	0xbda0d29d	-0.07852671
126	0x3de64390	0.11243355
127	0x3e13f940	0.1445055
128	0x3dcf22e9	0.101140805
129	0x3e33b698	0.17550123
130	0x3daf2e85	0.08553795
131	0xbd81f897	-0.06346243
132	0xbd20de98	-0.039274782
133	0x3e0a2872	0.13491991
134	0x3daaef34	0.083464056
135	0x3c93efcc	0.01805868
136	0x3d87c02a	0.06628449
137	0x3e05d7a4	0.13070542
138	0xbbae2f55	-0.005315701
139	0x3bd45e1c	0.0064809453
140	0x3dbc54aa	0.09195836
141	0x3e04623b	0.12928097
142	0xbe147747	-0.14498626
143	0x3e182018	0.14855993
144	0xba21768a	-0.00061593263
145	0xbc9a6379	-0.01884626
146	0x3e04dd28	0.1297499
147	0x3d211def	0.039335188
148	0xbce57800	-0.028011322
149	0x3e138f7e	0.14410207
150	0x3e220a76	0.15824303
151	0x3ddfb731	0.10923613
152	0xbe0a21db	-0.13489477
153	0x3dd04917	0.10170191
154	0xbcd8dc94	-0.026472367
155	0x3de2194c	0.11039981
156	0x3cdfc6f9	0.027316557
157	0x3d28ef34	0.041243747
158	0x3d2c1852	0.04201538
159	0x3e25b780	0.16183281
160	0x3d38f332	0.045153804
161	0xbd1f44c7	-0.03888395
162	0x3d43d9d9	0.047815178
163	0xbd4c08c6	-0.049813055
164	0x3e213df8	0.15746295
165	0xbdd47dc3	-0.1037555
166	0x3cab4c1b	0.020910313
167	0xbdb49d52	-0.08819069
168	0x3cd29984	0.025707968
169	0x3c801937	0.015637023
170	0x3e32e700	0.17470932
171	0x3d8f79e2	0.07005669
172	0x3e050829	0.12991394
173	0x3d8604b3	0.06543865
174	0xbdd7cca0	-0.10537076
175	0xbdee864c	-0.11646709
176	0x3cd21320	0.025643885
177	0xbdb6fee1	-0.08935333
178	0xbc36a5b3	-0.011147904
179	0x3d81aa8a	0.06331356
180	0x3e046d1c	0.12932247
181	0x3d1d490c	0.03839974
182	0xbd1402fb	-0.036135655
183	0x3ded2ea6	0.11581163
184	0x3e1c0cf1	0.15239312
185	0x3e1bc4b1	0.1521175
186	0x3c31e6ed	0.01085828
187	0x3dc3025f	0.095219366
188	0x3d99e913	0.075151585
189	0x3d8a8e2f	0.067654006
190	0xbc3fca42	-0.011705937
191	0x3d1a68bb	0.037697535
192	0xbd656a44	-0.056009546
193	0x3d701730	0.058615863
194	0x3e0f263a	0.13979426
195	0x3e4677a4	0.19381577
196	0xbe12e205	-0.14344032
197	0x3e0d75c5	0.13814457
198	0x3e044874	0.12918264
199	0xbdb9ed16	-0.09078424
200	0xbd20fc30	-0.039303005
201	0xbc8c040d	-0.017091775
202	0x3dac48ab	0.08412298
203	0xbe00436a	-0.12525716
204	0x3dfd32dc	0.12363216
205	0xbc801c47	-0.015638484
206	0x3b8762c9	0.004131649
207	0xbde6da78	-0.11272138
208	0x3e08320c	0.13300341
209	0x3db13d4d	0.0865427
210	0xbda5c066	-0.08093338
211	0xbd9497d5	-0.07255522
212	0x3bcd45b0	0.006264411
213	0x3d96b9e2	0.07359673
214	0x3d850997	0.0649597
215	0x3c2a5d8c	0.01039828
216	0x3d9f8dd6	0.07790725
217	0xbddde03d	-0.10833786
218	0xbdebc54b	-0.1151224
219	0xbdd99581	-0.10624219
220	0xbd48ce5e	-0.049024932
221	0xbd114445	-0.035465498
222	0x3d6ec8db	0.05829702
223	0x3e00ce19	0.1257862
224	0x3cc6b8c8	0.024258032
225	0xbd4f97b0	-0.05068177
226	0xba24f814	-0.000629307
227	0xbda043f8	-0.07825464
228	0x3dbd90bd	0.09256122
229	0x3d9a5fda	0.075378135
230	0x3e04e4c5	0.12977894
231	0x3e013c7b	0.12620728
232	0xbe34f20f	-0.17670463
233	0xbe118777	-0.14211832
234	0xbda5e13e	-0.08099602
235	0xbd1011c4	-0.035173193
236	0xbe206e3d	-0.15667053
237	0x3bcd74c1	0.0062700217
238	0x3de1212d	0.10992656
239	0x3d7db15a	0.061936714
240	0xbcf256dd	-0.029582435
241	0x3bc147f9	0.0058984724
242	0x3d6f4216	0.058412634
243	0x3df814d2	0.12113346
244	0x3e174f8e	0.14776441
245	0x3d7e5248	0.06209019
246	0xbcf06db4	-0.029349186
247	0x3dad5000	0.084625244
248	0x3e1f636c	0.1556527
249	0x3d42209a	0.047394373
250	0x3dc4d155	0.096102394
251	0xba8fc41e	-0.0010968482
252	0xbd9398b9	-0.07206864
253	0x3e1480d0	0.14502263
254	0xbdbff6d7	-0.09373253
255	0x3d683fff	0.056701656

encoder.layers.2.bias f4 [32]
0	0xbd0b365e	-0.033987395
1	0x3e0a941b	0.1353306
2	0xbd99a65c	-0.07502434
3	0xbddf511a	-0.10904141
4	0xbd7fb463	-0.06242789
5	0xbe0208b7	-0.12698637
6	0xbd2d87b1	-0.042365734
7	0x3e600f58	0.21880853
8	0x3d0fb835	0.035087783
9	0xbda3fd56	-0.08007304
10	0x3dcb50d1	0.09927524
11	0xbce3035f	-0.027711568
12	0x3e035c6d	0.12828226
13	0xbd81fead	-0.06347404
14	0x3e3f839f	0.18702553
15	0x3cea9460	0.028635204
16	0x399880c6	0.00029087643
17	0xbd65125c	-0.055925712
18	0xbe2ae2af	-0.16688035
19	0x3dd49a82	0.103810325
20	0x3c63ae8e	0.013896598
21	0xbd41e4ca	-0.04733733
22	0xbd200ca1	-0.039074544
23	0x3c512594	0.012765307
24	0x3d316efd	0.043318737
25	0xbe26a6cc	-0.16274565
26	0x3d811643	0.06303074
27	0xbe1d9c50	-0.1539166
28	0x3cd267e2	0.0256843
29	0xbdb1e815	-0.08686844
30	0x3d8fa893	0.07014575
31	0x3e0d9568	0.13826525

encoder.layers.4.weight f4 [12, 32]
0	0x3e0c95b8	0.13728988
1	0xbcfc11df	-0.03077024
2	0xbe36b1c8	-0.17841256
3	0xbe08aaf6	-0.13346466
4	0xbdb63d4c	-0.0889841
5	0xbd26dad3	-0.04073603
6	0xbe163311	-0.14667918
7	0x3bea558c	0.0071513113
8	0xbd98f3d7	-0.07468384
9	0xbdc98d82	-0.098414436
10	0x3e103ef4	0.14086515
11	0xbd315769	-0.04329625
12	0xbd2d09a5	-0.042245526
13	0xbcf9d2b1	-0.030495973
14	0x3e053d29	0.13011612
15	0x3df78847	0.1208654
16	0xbd7772f7	-0.060412373
17	0xbe0b52e6	-0.13605842
18	0x3e12f52f	0.14351343
19	0xbe20f35d	-0.15717836
20	0xbdbbd1c0	-0.09170866
21	0x3dfa1c7e	0.12212466
22	0x3dec7116	0.11545007
23	0xbdaf9664	-0.085736066
24	0xbdb103a9	-0.08643276
25	0xbdd37c5f	-0.10326456
26	0x3dfd04af	0.12354409
27	0x3d780a73	0.06055684
28	0xbdff902c	-0.124786705
29	0xbdb92552	-0.090403214
30	0x3d6e6177	0.05819842
31	0x3da5ccbd	0.08095691
32	0xbe24d25f	-0.16095875
33	0xbd996d34	-0.07491532
34	0x3db61a4e	0.08891736
35	0x3cfd73e7	0.030939056
36	0xbe2144c2	-0.15748885
37	0x3b955c1e	0.0045581004
38	0xbd9b35bf	-0.07578611
39	0x3d76c47d	0.06024598
40	0xbe0f89cd	-0.1401741
41	0x3c802990	0.015644819
42	0x3d3cc483	0.046085846
43	0x3c969dfe	0.018385883
44	0xbe303110	-0.17206216
45	0x3d79b3f2	0.060962625
46	0x3ce4e920	0.027943194
47	0x3da96cb1	0.08272684
48	0xbc8c94d5	-0.017160812
49	0xbe24aad6	-0.16080794
50	0xbe038788	-0.1284467
51	0xbe166e6f	-0.14690565
52	0x3e0eaffb	0.13934319
53	0x3acfb80f	0.00158477
54	0xbe05ae4b	-0.13054769
55	0xbccf6516	-0.025316756
56	0x3d177fd3	0.036987137
57	0xbe05e9c8	-0.13077462
58	0xbe480cb8	-0.19536102
59	0xbde83e2b	-0.113399826
60	0xbbc8ed8c	-0.0061318334
61	0x3dc3be1f	0.09557747
62	0x3beba975	0.0071918317
63	0xbd9efa59	-0.07762594
64	0xbe098d68	-0.13432848
65	0x3da03ed4	0.078244835
66	0x3b8dea9e	0.004330947
67	0x3d78899e	0.060678117
68	0x3da77e41	0.08178378
69	0xbcc55e3a	-0.024092782
70	0xbd8f3854	-0.069931656
71	0xbdece30b	-0.115667425
72	0x3e02169e	0.1270394
73	0x3d838f6c	0.0642384
74	0x3e084949	0.13309206
75	0xb96a17f9	-0.0002232491
76	0x3d28099f	0.0410248
77	0x3d6b2e94	0.057417467
78	0x3d0bb3e0	0.03410709
79	0xbcc6a9b1	-0.024250837
80	0xbc8a0559	-0.016848253
81	0xbd99bb10	-0.075063825
82	0xbd8af660	-0.067852736
83	0xbe0d04d6	-0.13771376
84	0xbd5686e5	-0.05237474
85	0x3db44589	0.08802325
86	0xbcce2672	-0.025164817
87	0xbd919ed2	-0.07110371
88	0xbdb05324	-0.08609608
89	0xbba76c61	-0.0051093553
90	0xbd9a3305	-0.075292625
91	0x3c83bc1d	0.01608091
92	0xbddf20e9	-0.10894949
93	0xbd8ffb5d	-0.070303656
94	0xbe11bdd2	-0.14232567
95	0x3d482b97	0.048869696
96	0x3d68b41e	0.056812398
97	0x3e013849	0.12619127
98	0xbc26bbe8	-0.010176636
99	0xbd905dd5	-0.07049147
100	0xbe23a20b	-0.15979783
101	0xbd8e251b	-0.06940671
102	0xbdcc8175	-0.099856295
103	0x3db637cf	0.088973634
104	0xbe231581	-0.15926172
105	0xbdc30b2b	-0.095236145
106	0x3e03db37	0.12876593
107	0xbd736a8f	-0.059427794
108	0xbe009a9b	-0.12558977
109	0xbde61fdd	-0.11236546
110	0x3d2a3379	0.041552994
111	0xbe3d94ae	-0.18513748
112	0x3d9d33a2	0.07675864
113	0xbe244cf0	-0.16044974
114	0xbddb082c	-0.10694918
115	0x3cd9308e	0.02651241
116	0x3d941f0b	0.072324835
117	0xbdd195de	-0.10233663
118	0x3db94c9b	0.090478145
119	0xbceeb3d1	-0.029138478
120	0xbe079a2f	-0.1324241
121	0xbe25cc64	-0.1619125
122	0xbdd442bf	-0.10364293
123	0x3d759856	0.059959732
124	0xbe19eb6c	-0.15031213
125	0xbe152df0	-0.14568305
126	0xbd860a54	-0.06544939
127	0xbd5c2d93	-0.0537544
128	0xbdc1d672	-0.0946473
129	0xbe2c4a90	-0.16825318
130	0x3e45b104	0.19305807
131	0xbdfce422	-0.123482004
132	0x3ce6f564	0.028193183
133	0x3e29a01a	0.1656498
134	0xbe08af99	-0.13348235
135	0xbe265b45	-0.16245754
136	0xbdae7c16	-0.08519761
137	0x3e18a59d	0.14906926
138	0xbc2de2aa	-0.010613123
139	0xbdb45b12	-0.08806433
140	0x3d809ccf	0.06279909
141	0x3b6b3444	0.0035889307
142	0xbe191180	-0.14948082
143	0x3e1c0f5a	0.15240231
144	0xbdf6da92	-0.12053408
145	0x3db95bbc	0.090507
146	0x3e397bf5	0.18113692
147	0x3d321a90	0.043482363
148	0x3dc3d035	0.09561197
149	0x3e0f002b	0.13964908
150	0x3e038e9d	0.12847371
151	0xbe0e5a19	-0.13901557
152	0xbdecb4df	-0.11557936
153	0x3e30b6f0	0.17257285
154	0xbcdbf7c2	-0.026851539
155	0x3d5e241c	0.054233655
156	0x3e1afa9a	0.1513466
157	0xbce23790	-0.027614385
158	0xbe1a6680	-0.15078163
159	0xbd83d628	-0.064373314
160	0x3dfffd81	0.12499524
161	0x3c99fbd5	0.01879684
162	0xbcff547a	-0.031168211
163	0xbde6f8ae	-0.11277901
164	0xbdd15e54	-0.1022307
165	0x3e047c01	0.12937929
166	0x3e06e75e	0.13174197
167	0xbd953083	-0.072846435
168	0xbda9cdec	-0.082912296
169	0x3b722fa1	0.0036954659
170	0x3d838ef6	0.06423752
171	0x3d71f0c0	0.059067488
172	0xbdd285f4	-0.10279456
173	0x3d3ce764	0.04611911
174	0x3e0603a6	0.1308733
175	0xbc9eb570	-0.019373626
176	0x3d84b7dd	0.06480382
177	0xbb917cc9	-0.0044399244
178	0x3e06927f	0.13141821
179	0x3d53f75f	0.051749583
180	0xbd096575	-0.033544023
181	0xbd57668d	-0.052588034
182	0x3e064350	0.13111615
183	0xbc17d68a	-0.009267459
184	0xbdaec023	-0.08532741
185	0x3d90e5c0	0.07075071
186	0xbd4d451e	-0.050114743
187	0x3d1bde1f	0.038053628
188	0x3df871cf	0.12131082
189	0xbcf6e0e3	-0.030136531
190	0x3e1c082d	0.15237494
191	0xbde4200c	-0.11138925
192	0x3da05d37	0.07830279
193	0xbb2b70bf	-0.0026159731
194	0xbd22e5bd	-0.039769877
195	0xbe2b87d9	-0.1675104
196	0x3d1403d0	0.03613645
197	0x3dc2840e	0.09497844
198	0x3cc857a3	0.024455851
199	0x3d105a21	0.035242204
200	0xbda94720	-0.08265519
201	0x3df2f53c	0.11863181
202	0x3de3c767	0.11122017
203	0xbdf831c1	-0.12118865
204	0xbd844fa9	-0.064605065
205	0xbcb0e888	-0.021595255
206	0xbcfdcc01	-0.030981066
207	0x3d427a17	0.047479715
208	0xbd0ea31e	-0.03482353
209	0x3d0ee954	0.034890488
210	0x3dd8e92a	0.105913475
211	0x3d7c1b46	0.061549447
212	0x3d8d0fe5	0.06887797
213	0x3d78f08f	0.06077629
214	0xbe106fc5	-0.14105137
215	0xbe34197d	-0.17587848
216	0xbe0d7988	-0.13815892
217	0xbcabd8ed	-0.020977462
218	0x3d1f24b7	0.038853373
219	0x3d87ce8d	0.06631193
220	0xbdbde465	-0.092720784
221	0xbd16781a	-0.03673563
222	0xbdffc730	-0.12489164
223	0x3d00c9a3	0.031442296
224	0xbe140586	-0.14455232
225	0xbdb5c5da	-0.08875628
226	0xbc8af54b	-0.016962668
227	0xbdcc05a4	-0.09962013
228	0x3e26cc76	0.16288933
229	0x3c96ca9c	0.018407159
230	0x3d05ebc1	0.032695536
231	0xbd9bc933	-0.07606735
232	0xbc000bd6	-0.007815322
233	0x3de4fdab	0.11181196
234	0x3e132c33	0.1437233
235	0xbdbe0f36	-0.09280245
236	0xbdb27568	-0.087138
237	0xbd2b1c42	-0.041774996
238	0xbd8251d7	-0.06363266
239	0xbe0fedd0	-0.14055562
240	0xbcf738f4	-0.030178525
241	0x3db1a9ad	0.08674941
242	0x3e1eb08b	0.15497033
243	0x3dc171bc	0.09445521
244	0x3d92b8e8	0.07164174
245	0xbdb72420	-0.08942437
246	0xbde925b8	-0.113841474
247	0x3e22c6ab	0.15896098
248	0xbe0980fa	-0.13428107
249	0xbceb6483	-0.028734451
250	0x3da016b4	0.0781683
251	0xbdad90b1	-0.08474863
252	0x3e29fc31	0.1660011
253	0xbc979b37	-0.01850663
254	0xbdbf102d	-0.09329257
255	0x3d4163b9	0.047214244

encoder.layers.4.bias f4 [12]
0	0x3d43f799	0.04784355
1	0x3ca6fe8e	0.020385053
2	0x3ded790d	0.11595354
3	0xbdeff871	-0.11717308
4	0xbdef2c5a	-0.11678381
5	0x3d86545f	0.06559061
6	0xbcbe99cc	-0.023266695
7	0xbdb0af5c	-0.08627197
8	0x3e0d4f17	0.13799702
9	0x3e2358f8	0.15951908
10	0xbdac3807	-0.08409124
11	0x3b4ebb5a	0.0031544776

decoder.layers.0.weight f4 [32, 18]
0	0x3e87bdd6	0.2651202
1	0xbd9f2db7	-0.07772391
2	0x3d9cabea	0.076499775
3	0xbde06012	-0.10955824
4	0xbd5a4a4f	-0.053293522
5	0x3c3b20b6	0.011421373
6	0xbe408d33	-0.18803863
7	0xbd0984ab	-0.033573788
8	0xbe1399cc	-0.14414138
9	0xbccfed01	-0.025381567
10	0x3e86c556	0.2632243
11	0x3e45da17	0.19321476
12	0xbe70f5e9	-0.23531307
13	0xbdaf9571	-0.085734256
14	0x3d00475c	0.031318054
15	0xbd23a52a	-0.039952435
16	0x3e4abccc	0.19798583
17	0xbc2ba0cc	-0.010475349
18	0x3dcc74a8	0.09983188
19	0xbdfad744	-0.1224809
20	0xbdb8170e	-0.08988772
21	0xbd918cb1	-0.07106913
22	0x3d42f6c3	0.04759861
23	0xbd572fa6	-0.052535675
24	0x3d087f0e	0.033324294
25	0x3e4c64bd	0.19960304
26	0x3dc4fcd9	0.09618539
27	0xbe83df2d	-0.25756207
28	0x3d985d00	0.07439613
29	0x3d16b3dc	0.03679262
30	0x3e330721	0.17483188
31	0xbe29694d	-0.16544075
32	0x3e13f415	0.14448579
33	0xbe22afef	-0.15887426
34	0x3c1050d0	0.00880833
35	0xbd9fd9d1	-0.07805217
36	0xbd4c464a	-0.04987172
37	0xbe44ce02	-0.1921921
38	0x3d3ae46f	0.045628008
39	0x3e405607	0.18782817
40	0x3e13b202	0.14423373
41	0x3e0a6ee0	0.13518858
42	0xbdaa6ff1	-0.083221324
43	0xbcd339a0	-0.025784314
44	0xbe5cf70d	-0.21578617
45	0xbe002ed8	-0.1251787
46	0x3daa06e9	0.08302099
47	0xbe30d618	-0.1726917
48	0xbcb0bc5e	-0.021574195
49	0xbd44fe10	-0.048093855
50	0x3d5f61c3	0.054536592
51	0xbe22ce69	-0.15899052
52	0xbe528f3c	-0.20562452
53	0x3e199db8	0.15001571
54	0xbdd87ca2	-0.10570647
55	0xbddbc46f	-0.10730826
56	0x3e1b119b	0.15143435
57	0x3db75d53	0.08953347
58	0x3e0f2726	0.13979778
59	0x3d3392dd	0.04384123
60	0x3e3d7616	0.18502077
61	0x3e0abbe1	0.13548233
62	0xbd6da026	-0.058014058
63	0x3c80d4bd	0.015726442
64	0x3df309ad	0.1186708
65	0xbceda8ae	-0.029011097
66	0x3e212657	0.15737282
67	0x3d6ee617	0.0583249
68	0xbd660657	-0.05615839
69	0x3d5dca9b	0.054148298
70	0x3b815657	0.00394706
71	0x3dccc968	0.09999353
72	0xbe085d42	-0.13316825
73	0x3e0bc0f0	0.13647819
74	0xbd1b0564	-0.037846938
75	0x3e2e02c9	0.1699325
76	0xbe10b987	-0.14133273
77	0x3e12489a	0.14285508
78	0x3cfc3974	0.030789115
79	0xbdb3de6a	-0.087826565
80	0x3e163c09	0.14671339
81	0xbdece9f3	-0.1156806
82	0xbe6d2e25	-0.23162134
83	0xbe84b395	-0.2591826
84	0xbdf1e494	-0.11811176
85	0x3e5a538a	0.2132093
86	0xbe55ccdd	-0.2087893
87	0x3e737710	0.23775887
88	0x3d4eb474	0.050465062
89	0xbdd03ec4	-0.101682216
90	0xbd1740c7	-0.03692701
91	0xbe713c27	-0.23558103
92	0x3e07418e	0.13208601
93	0xbdf31b92	-0.11870493
94	0xbe21cf58	-0.15801752
95	0xbddd96ed	-0.108198024
96	0x3e2a8a91	0.16654421
97	0x3dd6061e	0.104503855
98	0xbc4c9d77	-0.012488714
99	0xbe48941b	-0.19587748
100	0x3e406a7b	0.18790619
101	0x3e02c30b	0.12769715
102	0xbe037bb2	-0.12840155
103	0xbe087522	-0.13325933
104	0x3cc5c6c9	0.02414264
105	0xbdb6bf5f	-0.0892322
106	0xbe0eb9c8	-0.13938057
107	0xbd47f7ac	-0.048820183
108	0x3cf30a41	0.029667975
109	0xbe23d2ed	-0.1599843
110	0xbe495aa5	-0.19663484
111	0x3d6ae0ef	0.05734342
112	0xbd77518f	-0.060380515
113	0xbdafca7a	-0.08583541
114	0xbd9b8c62	-0.07595135
115	0xbe0a06c9	-0.13479151
116	0xbc6fefa6	-0.014644539
117	0x3dcf77bf	0.10130262
118	0x3d329190	0.04359585
119	0xbe424818	-0.18972814
120	0xbd4dd47d	-0.050251473
121	0xbd8020e2	-0.06256272
122	0x3e12a81f	0.14321946
123	0xbe7c3cbe	-0.24632546
124	0x3d836d2b	0.064173065
125	0x3e1b867f	0.15188025
126	0x3e1cf66c	0.15328377
127	0x3d91a6ab	0.071118675
128	0x3e138cbf	0.14409159
129	0x3e1c2b35	0.15250857
130	0x396f6ab8	0.00022832572
131	0x3cdc5ecc	0.026900671
132	0x3dd4c06d	0.10388265
133	0x3e5173b2	0.2045429
134	0xbdd4dc94	-0.103936344
135	0x3e1b6bd7	0.15177856
136	0x3e0f9a69	0.14023747
137	0xbdad4e97	-0.084622554
138	0xbdb11f10	-0.08648503
139	0xbe1d9e71	-0.15392472
140	0x3e053cfa	0.13011542
141	0xbd99be34	-0.075069815
142	0xbe1919db	-0.1495127
143	0x3e0bf03f	0.13665865
144	0xbe29cb0b	-0.16581361
145	0xbe4366f2	-0.1908224
146	0x3e206ce4	0.15666538
147	0x3df0536d	0.11734662
148	0x3e227337	0.15864263
149	0xbde47943	-0.11155941
150	0xbcf9f751	-0.030513437
151	0xbd84bec5	-0.06481699
152	0xbd4b48e1	-0.04963005
153	0xbe802a85	-0.2503244
154	0x3e1cff6c	0.1533181
155	0x3cd9237f	0.026506184
156	0x3d8a1c18	0.0674364
157	0x3e3c0142	0.18359855
158	0xbe5fd185	-0.21857269
159	0xbe220edc	-0.15825981
160	0x3dd84da6	0.10561685
161	0x3df13db9	0.11779351
162	0xbde17d10	-0.11010182
163	0x3dd873cf	0.10568964
164	0x3e5f3d18	0.21800649
165	0xbe6f374a	-0.23360935
166	0x3e683578	0.22676647
167	0xbe2b8419	-0.1674961
168	0xbd2f800a	-0.042846717
169	0xbdc88d69	-0.09792597
170	0x3e170db2	0.14751318
171	0xbd993f7e	-0.07482813
172	0xbe157af2	-0.14597681
173	0xbe3d8413	-0.18507414
174	0xbe527ada	-0.20554677
175	0x3e532962	0.20621255
176	0x3e7b5dab	0.2454745
177	0x3e5eaeae	0.21746323
178	0x3e2901b3	0.16504554
179	0x3da0355a	0.07822676
180	0xbd1dcd33	-0.03852577
181	0x3d4237d9	0.04741654
182	0x3e363fc7	0.17797767
183	0xbe798515	-0.24367173
184	0xbe74de8c	-0.2391302
185	0x3e488fe7	0.19586144
186	0xbd04cda5	-0.03242268
187	0x3e6f5451	0.23372008
188	0x3ce20908	0.027592197
189	0x3e140dca	0.14458385
190	0x3d17efe9	0.03709403
191	0x3da02636	0.07819788
192	0x3e8986bd	0.2686061
193	0x3e8a373b	0.26995263
194	0x3e8046a6	0.250539
195	0xbd04e584	-0.032445446
196	0x3e64707c	0.22308534
197	0x3e2912c7	0.16511069
198	0x39db52be	0.00041832583
199	0x3e00d232	0.12580183
200	0xbe6f2c6c	-0.2335679
201	0xbe48a57e	-0.1959438
202	0xbd5db2ba	-0.054125525
203	0xbdfdb0bc	-0.12387225
204	0xbe43396f	-0.19064878
205	0x3de84c17	0.11342638
206	0xbdb82172	-0.08990754
207	0x3cc95c47	0.024580134
208	0x3e086a1f	0.13321732
209	0xbe6a014b	-0.22852056
210	0x3da1655a	0.078806594
211	0x3e2301c1	0.15918638
212	0xbe27bfa2	-0.16381696
213	0x3e2c3dec	0.16820496
214	0x3cf1b3ef	0.029504744
215	0x3e20e494	0.15712196
216	0xbdbb2505	-0.0913792
217	0xbc09ebeb	-0.008418064
218	0xbdf8b7b6	-0.12144415
219	0xbdd0eafc	-0.1020107
220	0x3c8886b4	0.016665794
221	0xbd580905	-0.052742977
222	0xbd5fd19d	-0.054643262
223	0x3e0ced9a	0.13762513
224	0xbe21355b	-0.1574301
225	0x3e192d54	0.14958698
226	0x3bb5b0f6	0.005544777
227	0x3e393eca	0.18090358
228	0xbd9104b3	-0.070809744
229	0xbe0eddfc	-0.13951868
230	0xbd973bfe	-0.073844895
231	0xbcb49a68	-0.022046283
232	0xbe47f716	-0.1952785
233	0x3d8fd909	0.07023818
234	0x3e38ad9d	0.18034978
235	0xbd9f854a	-0.07789095
236	0xbe223187	-0.15839206
237	0x3cccf97e	0.02502131
238	0xbe07bb76	-0.13255104
239	0xbe2b6708	-0.16738522
240	0x3e5b1441	0.21394445
241	0xbe396956	-0.18106589
242	0x3da55785	0.08073334
243	0xbe497abc	-0.19675726
244	0xbe60d1db	-0.21955054
245	0x3e30646f	0.17225812
246	0x3b764a56	0.0037580929
247	0x3da96d39	0.08272786
248	0xbcdf3cba	-0.027250636
249	0x3e2e08ad	0.16995497
250	0xbdacc746	-0.08436446
251	0x3e329dfb	0.17443077
252	0x3dc98d23	0.09841373
253	0xbd5aa5ca	-0.053380765
254	0x3e2c9e0c	0.16857165
255	0xbdcd94c8	-0.100381434

decoder.layers.0.bias f4 [32]
0	0x3b65824e	0.0035020295
1	0x3e31ae4c	0.17351645
2	0xbca6e2b7	-0.020371778
3	0xbdfc3bc8	-0.1231609
4	0x3dfecd84	0.12441543
5	0xbe005c35	-0.12535174
6	0x3d916b7d	0.0710058
7	0xbe56e038	-0.2098397
8	0xbcf8fdd4	-0.030394472
9	0xbe3a326f	-0.18183301
10	0xbc584279	-0.013199442
11	0xbca370f5	-0.019951323
12	0x3e2db9d3	0.16965418
13	0x3e4cfda8	0.20018637
14	0x3d7d2eae	0.061812095
15	0xbd8f7911	-0.070055135
16	0xbd090583	-0.033452522
17	0xbc51917a	-0.012791032
18	0xbe420ebc	-0.18950933
19	0x3e02d123	0.12775092
20	0x3c4516e4	0.012029383
21	0xbe0bda87	-0.1365758
22	0x3d4d38f6	0.05010315
23	0xbe1c83f0	-0.15284705
24	0x3debb549	0.11509187
25	0x3e53f2ab	0.20698039
26	0x3e0d5c80	0.13804817
27	0x3cf7a618	0.030230567
28	0x3d92e23b	0.07172056
29	0xbdf4e9ad	-0.119586326
30	0xbdfb3fec	-0.122680515
31	0xbc921400	-0.017831802

decoder.layers.2.weight f4 [32, 32]
0	0x3dcb7762	0.0993488
1	0x3c9e1ef9	0.019301878
2	0x3e19172b	0.14950244
3	0xbd9a8e5f	-0.075466864
4	0xbd0c8148	-0.03430298
5	0xbc8fad06	-0.017538559
6	0xbdb3365e	-0.08750604
7	0x3d0e9a93	0.034815382
8	0xbe0fc782	-0.1404095
9	0x3ca28a4c	0.019841336
10	0x3dabc281	0.08386708
11	0x3d866802	0.06562807
12	0xbe0aa4d1	-0.13539435
13	0xbd48e362	-0.049044974
14	0xbcac1b65	-0.021009156
15	0x3d4a2400	0.04935074
16	0x3a0cce1f	0.00053712906
17	0xbe0199f1	-0.1265638
18	0xbdf8cda7	-0.121486
19	0x3dee5a78	0.11638349
20	0x391d7e74	0.00015019794
21	0xbce5c333	-0.02804718
22	0x3d297352	0.041369744
23	0x3d99cb54	0.07509485
24	0x3d9baaec	0.0760096
25	0xbdc9a092	-0.098450795
26	0xbca856a6	-0.02054913
27	0x3d921e32	0.071346655
28	0x3d8bfbb3	0.06835117
29	0xbdf1a8a2	-0.11799742
30	0xbc8e23cb	-0.017351052
31	0xbd0dc751	-0.03461391
32	0x3d5e383e	0.054252855
33	0xbdc8fc7c	-0.098137826
34	0x3c8fc460	0.017549694
35	0xbd879c3d	-0.06621597
36	0x3b94a9d4	0.0045368467
37	0xbb656e21	-0.003500827
38	0x3d717d1c	0.058957204
39	0x3c093e6b	0.008376698
40	0x3d6920ef	0.056916174
41	0xbd430a77	-0.047617402
42	0xbda6c006	-0.08142094
43	0x3d68df2d	0.056853462
44	0xbe4efc0c	-0.20213336
45	0x3e2c49d5	0.1682504
46	0x3e2bd201	0.16779329
47	0xbdcc8f20	-0.099882364
48	0x3cc5b6c3	0.024135
49	0xbcdbd3a7	-0.026834322
50	0x3de37ef5	0.111081995
51	0x3e0c1ffa	0.13684073
52	0x3dc2289a	0.094804004
53	0xbde2227d	-0.11041734
54	0xbccb71e6	-0.024834584
55	0xbd89305f	-0.06698679
56	0x3e4c4ebd	0.19951911
57	0x3dc4d8a3	0.09611633
58	0x3e02e4fe	0.12782666
59	0xbc689857	-0.014196477
60	0x3c465d92	0.01210727
61	0x3d52a08f	0.05142265
62	0xbe06579d	-0.1311936
63	0xbd947bf7	-0.07250207
64	0x3d208f39	0.039199088
65	0x3e30c991	0.17264391
66	0xbdf250a9	-0.11831791
67	0xbdc0b7e2	-0.09410073
68	0x3dc3c746	0.09559493
69	0xbe06af9d	-0.13152929
70	0xbd1a6570	-0.037694395
71	0xbc8046bb	-0.015658727
72	0x3c7c925f	0.015415757
73	0x3e40e5ac	0.18837613
74	0x3e67005d	0.22558732
75	0x3e4e6d0b	0.20158784
76	0xbe0184f8	-0.1264838
77	0x3e2eafba	0.17059222
78	0xbac3815a	-0.0014915869
79	0xbe028cfe	-0.12749097
80	0x3e1b8fe8	0.15191615
81	0x3e407b52	0.18797043
82	0xbdcc743e	-0.09983109
83	0x3d0b7960	0.0340513
84	0x3c1ef020	0.009700805
85	0x3e039d11	0.12852885
86	0x3e1fbd39	0.15599526
87	0xbd3e02c2	-0.04638935
88	0xbb345e44	-0.0027522007
89	0xbdd9b067	-0.10629349
90	0x3e510337	0.20411383
91	0xbda387be	-0.07984875
92	0x3dba7044	0.09103444
93	0xba6f4dec	-0.0009128738
94	0xbd663e92	-0.056212015
95	0xbde48347	-0.11157852
96	0xbcac9273	-0.021065926
97	0xbe007e12	-0.12548092
98	0xbe1d1760	-0.15340948
99	0x3e1cbd90	0.15306687
100	0x3e03b4c2	0.12861922
101	0x3d15e951	0.03659946
102	0xbdf23337	-0.11826175
103	0x3d511a83	0.051050674
104	0x3da96909	0.08271987
105	0x3d55d4c6	0.05220487
106	0x3d7d6759	0.061866138
107	0xbd8bc374	-0.06824389
108	0x3d61adb5	0.0550973
109	0xbd0682bc	-0.03283952
110	0xbad65df0	-0.00163549
111	0xbcb774d0	-0.022394568
112	0x3cbbae83	0.022910362
113	0x3e1145ce	0.14186785
114	0xbcbefada	-0.023312975
115	0xbd3e693d	-0.04648708
116	0x3e0f83db	0.14015143
117	0xbdd8cf85	-0.10586456
118	0x3d791b93	0.060817312
119	0x3e2617c9	0.16220011
120	0x3e39ebc1	0.18156339
121	0x3e127ca4	0.14305359
122	0x3dafcf52	0.08584465
123	0x3e14cdb0	0.14531589
124	0xbda22ed4	-0.07919088
125	0xbcb7dacb	-0.022443196
126	0x3e27af07	0.16375361
127	0xbc7a5ec0	-0.015281379
128	0x3e07a2e9	0.13245739
129	0xbd1094a8	-0.03529802
130	0x3e019bda	0.12657109
131	0xbdd18b41	-0.10231639
132	0xbddbd876	-0.10734646
133	0xbce3599e	-0.027752694
134	0xbce84064	-0.028351016
135	0xbcc60a79	-0.024174916
136	0x3d6dc2e7	0.0580472
137	0xbdd23801	-0.10264588
138	0x3e0dfde6	0.13866386
139	0x3e06ea50	0.1317532
140	0x3da1d398	0.079016864
141	0x3e0e5e74	0.13903219
142	0x3d539d40	0.051663637
143	0x3dcae018	0.09906024
144	0xbe12133d	-0.14265151
145	0xbd8175c7	-0.06321292
146	0x3c9d3c3e	0.019193765
147	0x3d03d458	0.03218493
148	0xbcd39711	-0.02582887
149	0x3e1fe4f7	0.15614687
150	0xbdc0a16d	-0.094057895
151	0xbdf1cc10	-0.118065
152	0x3e1a8b7a	0.15092269
153	0x3e10d0a7	0.14142095
154	0x3e1e2993	0.15445547
155	0x3e2d59de	0.16928813
156	0xbe200273	-0.15625934
157	0x3df23dce	0.118281946
158	0x3dc86809	0.09785468
159	0xbdd9f90e	-0.106432065
160	0x3e1838f1	0.14865471
161	0x3dbfebbc	0.09371135
162	0x3c978350	0.018495232
163	0x3d7ecbe6	0.06220617
164	0x3e257cfa	0.16160956
165	0xbdb06666	-0.08613281
166	0xbde01498	-0.10941428
167	0xbd426ce0	-0.047467113
168	0xbdc894df	-0.0979402
169	0x3bc3fd42	0.0059811184
170	0x3cb01ae1	0.021497192
171	0x3b80e542	0.0039335797
172	0xbb895c7f	-0.0041919346
173	0xbcc1447f	-0.023592232
174	0x3dfed84e	0.124436006
175	0xbe20d6b8	-0.15706909
176	0xbc9d9995	-0.019238273
177	0xbd921ff7	-0.07135003
178	0xbd667d6b	-0.05627195
179	0xbde189b6	-0.110125944
180	0x3dd0b9ad	0.10191665
181	0x3db1181c	0.086471766
182	0x3b876864	0.0041323174
183	0x3d6af5e7	0.057363417
184	0xbb47341a	-0.0030396045
185	0x3dbc0cc0	0.09182119
186	0x3db565e7	0.08857327
187	0xbd67ba7d	-0.056574333
188	0xbddfe6ba	-0.109326795
189	0xbe0dd8ff	-0.13852309
190	0x3e03bd03	0.12865071
191	0xbc82c6a0	-0.015963852
192	0x3d94bd04	0.07262614
193	0x3cf51cbe	0.029920932
194	0xbb7ef78e	-0.0038904878
195	0x3e144b10	0.14481759
196	0xbc4bbf0e	-0.012435688
197	0x3e0fd964	0.14047772
198	0xbd814244	-0.06311467
199	0xbcaed96e	-0.021343913
200	0xbcc8c3bd	-0.024507398
201	0x3da4f8a2	0.080552354
202	0xbd177566	-0.036977194
203	0x3deb5ce7	0.11492329
204	0x3e5a482d	0.21316595
205	0xbe0c6605	-0.13710792
206	0x3d2faa7e	0.042887203
207	0x3e2c852e	0.16847679
208	0x3da571c0	0.08078337
209	0x3db922f8	0.09039873
210	0x3e209c47	0.15684615
211	0xbc17699f	-0.009241491
212	0x3e20a4d2	0.15687874
213	0xbd731fc1	-0.059356455
214	0x3d9ce174	0.07660189
215	0x3dfd648a	0.12372692
216	0xbe0db5cd	-0.13838883
217	0x3e179873	0.14804249
218	0xbe055a05	-0.13022621
219	0x3de1a12f	0.110170715
220	0xbd453a49	-0.04815129
221	0xbe169b2a	-0.14707628
222	0x3d802c59	0.06258459
223	0x3e1688f0	0.14700675
224	0x3b04dc44	0.002027289
225	0x3e10daf0	0.14146018
226	0xbe0ff5ee	-0.14058658
227	0x3d820a56	0.06349628
228	0xbe0c44e1	-0.1369815
229	0xbd2af57d	-0.041738022
230	0x3dde2c5c	0.10848305
231	0xbd2dd708	-0.042441398
232	0xbba2cd87	-0.0049683484
233	0x3daebdeb	0.08532318
234	0xbde256e8	-0.11051732
235	0x3cf2629b	0.029588034
236	0xbdc5c73d	-0.09657142
237	0x3cf736b4	0.030177452
238	0x3ce31f5e	0.027724918
239	0x3d237b05	0.039912242
240	0xbd21de7a	-0.03951881
241	0x3ddb54ce	0.107095346
242	0x3dbe55f2	0.092937365
243	0x3dea620b	0.114444815
244	0xbd96bfb5	-0.07360784
245	0xbcac8b89	-0.02106263
246	0xbe07a9cf	-0.1324837
247	0xbb42c414	-0.0029718922
248	0x3de5fde1	0.11230064
249	0x3e1b6aa8	0.15177405
250	0xbd88de3c	-0.06683013
251	0x3d473722	0.048636563
252	0xbe1c4f80	-0.15264702
253	0x3dd4a607	0.1038323
254	0xbdf2b5f2	-0.118511096
255	0xbe05876c	-0.1303994

decoder.layers.2.bias f4 [32]
0	0x3e309aad	0.17246504
1	0x3e168131	0.1469772
2	0x3cdd8f69	0.027045922
3	0xbdec350f	-0.115335576
4	0xbddb8c70	-0.10720146
5	0x3de13307	0.10996061
6	0x3cee6909	0.029102819
7	0xbcde54c2	-0.027140025
8	0x3ccd3c04	0.025053032
9	0x3d76219f	0.060090657
10	0x3e179096	0.14801249
11	0x3e20b3ce	0.1569359
12	0x3e25e317	0.16199909
13	0x3e0b91b2	0.13629797
14	0xbde1c357	-0.11023586
15	0x3c23de89	0.010001787
16	0xbde5d2bb	-0.11221834
17	0xba87bdee	-0.0010356286
18	0xbd8ffbc5	-0.07030443
19	0x3e10fee7	0.14159738
20	0xbca420bc	-0.02003514
21	0x3da511e1	0.08060051
22	0x3e427895	0.18991311
23	0x3d5bf13e	0.053696863
24	0x3e156c51	0.145921
25	0x3d7893d7	0.060687866
26	0xbe3523e0	-0.17689466
27	0xbdd618ab	-0.10453924
28	0xbddc87f6	-0.1076812
29	0x3e10036e	0.14063808
30	0xbe388810	-0.18020654
31	0xbd8525b1	-0.0650133

decoder.layers.4.weight f4 [24, 32]
0	0xbb50ddbc	-0.0031870445
1	0x3e153ab4	0.14573175
2	0x3d785a17	0.06063279
3	0xbe1cfef0	-0.15331626
4	0x3e08281e	0.13296553
5	0x3d3938e4	0.04522027
6	0xbdaca34d	-0.08429585
7	0x3c9be07c	0.01902794
8	0x3c1eb701	0.009687186
9	0xbd89b7e4	-0.067245275
10	0x3dbd87ba	0.092544034
11	0xbb99ebf2	-0.0046973163
12	0xbd1822d7	-0.0371426
13	0x3da81861	0.08207775
14	0xbcdc0db8	-0.02686201
15	0x3df6571d	0.12028334
16	0xbc8f9651	-0.017527731
17	0x3d29b4ee	0.041432314
18	0xbc11b5a7	-0.008893407
19	0xbdd92a21	-0.106037386
20	0xbd8f3e82	-0.06994344
21	0x3d1f8031	0.038940612
22	0x3d80e47d	0.06293581
23	0xbd5fe482	-0.05466128
24	0x3db52633	0.088451765
25	0x3db69352	0.08914818
26	0xbcdc3833	-0.026882267
27	0xbdbda67e	-0.092602715
28	0xbca66c42	-0.020315293
29	0xbca58926	-0.020206999
30	0xbd292846	-0.041298173
31	0xbe03f147	-0.12885009
32	0xb8a4ae40	-7.852586e-05
33	0xbd4f5b05	-0.050623912
34	0x3da78261	0.08179165
35	0x3dce9a00	0.10087967
36	0xbe0c61a8	-0.13709128
37	0x3d1b7895	0.037956793
38	0xbdeefe0a	-0.11669548
39	0x3dcf3d97	0.10119169
40	0x3cde9c7a	0.027174223
41	0x3c233b31	0.009962843
42	0xbe22f761	-0.1591468
43	0xbd397dac	-0.045285866
44	0x3dcbacb6	0.09945051
45	0xbd634124	-0.055482045
46	0x3c46c371	0.012131558
47	0x3c915ef0	0.017745465
48	0x3df519f3	0.1196784
49	0xbd9a18e8	-0.07524282
50	0xbc2aba84	-0.010420445
51	0x3e0ca528	0.13734877
52	0x3d491baa	0.049098648
53	0x3c509ee4	0.012733195
54	0x3df197a9	0.11796505
55	0xbe05760c	-0.13033313
56	0x3cc2e949	0.02379288
57	0x3c1c25b9	0.009530478
58	0xbc57cc39	-0.013171249
59	0xbdbfe58a	-0.09369953
60	0x3dfdaa62	0.123860136
61	0xbda47fdf	-0.08032202
62	0xbdc1fe45	-0.09472326
63	0x3e112ca7	0.1417719
64	0x3e09d31d	0.1345944
65	0xbd64426b	-0.055727404
66	0xbb8a442a	-0.0042195516
67	0xbe031441	-0.12800695
68	0x3dd15807	0.10221868
69	0x3d94ab7a	0.07259269
70	0xbdceb7e7	-0.1009367
71	0x3db4b78f	0.088240735
72	0xbc9a4b75	-0.018834809
73	0x3d401b2d	0.046900917
74	0xbe29bb5c	-0.16575378
75	0xbe1c8392	-0.15284565
76	0x3d27f1a6	0.04100194
77	0xbddabaa7	-0.10680132
78	0x3daaf4c1	0.08347464
79	0xbdaba35e	-0.08380769
80	0x3dd97897	0.10618704
81	0x3c0866d1	0.008325295
82	0x3dfbef98	0.12301558
83	0x3e05ebd6	0.13078246
84	0xbc980376	-0.018556338
85	0xbdae4a71	-0.08510292
86	0xbe309c8c	-0.17247218
87	0x3dffb994	0.12486568
88	0x3d68c867	0.056831744
89	0xbe110390	-0.14161515
90	0x3d7f2857	0.06229433
91	0x3d01d45d	0.031696666
92	0x3ded5f6e	0.115904674
93	0xbe12c558	-0.14333093
94	0xbd9e2988	-0.07722765
95	0xbde156b4	-0.110028654
96	0x3d739a08	0.059473068
97	0xbda1d7a0	-0.07902455
98	0xbdcb4740	-0.09925699
99	0xbe13012e	-0.14355919
100	0xbd160d42	-0.036633737
101	0xbcc79aa9	-0.02436574
102	0xbd92196b	-0.07133754
103	0xbd27602a	-0.040863194
104	0xbd3dce79	-0.046339486
105	0xbe23d276	-0.15998253
106	0x3dee21bd	0.11627529
107	0x3dc76022	0.09735133
108	0xbda281a8	-0.07934886
109	0xbe036c51	-0.12834288
110	0x3e02ba1d	0.12766309
111	0x3d322a3d	0.043497313
112	0xbd097bde	-0.033565395
113	0x3b81527f	0.003946602
114	0x3da9fe79	0.0830049
115	0xbdbb54ca	-0.091470316
116	0x3d11b1b9	0.03556988
117	0x3d072c01	0.03300095
118	0x3df752a7	0.120763116
119	0x3dc5f12f	0.09665143
120	0xbe2c4950	-0.16824841
121	0xbd523b80	-0.051326275
122	0x3d038eb3	0.03211851
123	0xbd68e723	-0.056861054
124	0xbdfb3bf5	-0.12267295
125	0xbe1523af	-0.14564393
126	0x3ddacf4b	0.10684069
127	0x3d8446d2	0.064588204
128	0x3d2c681b	0.04209147
129	0x3dbc3498	0.09189719
130	0x3dfc755c	0.12327072
131	0xbe065d3b	-0.13121502
132	0x3e0f0728	0.13967574
133	0xbd91732b	-0.07102045
134	0xbc5dad42	-0.013530077
135	0x3e019ba5	0.1265703
136	0x3d905d52	0.070490494
137	0xbd5a95f1	-0.05336565
138	0xbcaef260	-0.021355808
139	0x3e0746f0	0.13210654
140	0xbdc7438a	-0.09729679
141	0xbe1183b9	-0.14210404
142	0xbcf780df	-0.030212818
143	0x3dda672a	0.10664208
144	0x3e067aa5	0.13132723
145	0xbd42f485	-0.047596473
146	0xbdda2ec0	-0.10653448
147	0xbd93e7c2	-0.07221939
148	0xbdc6189b	-0.09672662
149	0xbd022e76	-0.03178259
150	0xbe10f6ab	-0.14156596
151	0xbd18d6b1	-0.03731412
152	0x3dd8402e	0.10559116
153	0xbd97e32f	-0.07416379
154	0xbd4e0131	-0.050294105
155	0xbe1700ff	-0.14746474
156	0x3e06a064	0.13147122
157	0x3c7f6f0a	0.015590439
158	0xbcd47a97	-0.025937362
159	0xb8349e7a	-4.3062937e-05
160	0x3e320fb6	0.17388806
161	0x3d246b17	0.04014119
162	0xbc4fb052	-0.012676315
163	0x3e171161	0.14752723
164	0xbde74484	-0.11292365
165	0xbb92f721	-0.0044850265
166	0x3db1fa34	0.086903006
167	0x3d86695a	0.06563063
168	0x3dc4951a	0.09598751
169	0x3dff21b9	0.12457604
170	0x3d511331	0.051043693
171	0xbdf81fd6	-0.12115447
172	0xbdc8125c	-0.09769127
173	0x3e1ec2e9	0.1550404
174	0xbc791b7b	-0.015204306
175	0x3c3f86ef	0.0116898855
176	0xbdbd89fc	-0.09254834
177	0x3ddd82a6	0.10815935
178	0xbc0014af	-0.007817431
179	0xbc1f9459	-0.009739959
180	0x3bdceedc	0.0067423414
181	0x3cf277ea	0.029598195
182	0x3d943b5a	0.07237883
183	0xbdf0e25a	-0.11761923
184	0xbe04d7ab	-0.12972896
185	0x3da6ddbf	0.081477635
186	0x3c745baf	0.014914437
187	0xbde115fa	-0.1099052
188	0xbd919462	-0.0710838
189	0x3ca6c4cb	0.02035751
190	0x3d1af08d	0.037827063
191	0x3e04f53d	0.12984176
192	0xbdc86de1	-0.09786583
193	0x3e16213f	0.1466112
194	0x3de7690a	0.112993315
195	0x3dfff66b	0.124981724
196	0xbd2a7466	-0.041614912
197	0xbe110ba2	-0.14164594
198	0xbd730dd8	-0.059339374
199	0x3e14b3b5	0.14521678
200	0x3a9c703a	0.0011935302
201	0x3aa3f52e	0.0012508982
202	0xbc878025	-0.016540596
203	0xbe02f216	-0.12787661
204	0x3e394484	0.18092543
205	0xbd935d3b	-0.07195517
206	0xbd744f1c	-0.059645757
207	0x3db8e568	0.09028131
208	0xbc6f601b	-0.014610316
209	0x3df912ee	0.12161814
210	0xbcd54aec	-0.026036702
211	0x3da6bd25	0.08141545
212	0x3d1815e4	0.03713025
213	0xbbf16465	-0.0073667043
214	0x3d020312	0.03174121
215	0x3ddaafd0	0.10678065
216	0xbd256026	-0.040374897
217	0x3dac82af	0.084233634
218	0x3e0ab320	0.13544893
219	0xbd83f870	-0.0644387
220	0x3e12ce6e	0.14336559
221	0xbd1cad71	-0.038251344
222	0xbdec3f04	-0.11535457
223	0xbd7ee0d4	-0.06222613
224	0xbdf7ac0a	-0.12093361
225	0x3dd5bd1e	0.10436462
226	0xbd1a75fe	-0.037710182
227	0xbddae787	-0.106886916
228	0xbdb57305	-0.08859829
229	0xbdc23b2f	-0.094839446
230	0x3d1d4dbc	0.03840421
231	0x3c930fa3	0.017951792
232	0x3df7a4c5	0.12091974
233	0x3defc54f	0.117075555
234	0xbe05b71c	-0.13058132
235	0xbdf92d68	-0.12166864
236	0xbdd6550a	-0.10465439
237	0xbd8afd2b	-0.06786569
238	0xbd3560ca	-0.04428176
239	0x3daf8970	0.08571136
240	0x3d650eb1	0.055922214
241	0xbe365d39	-0.17808999
242	0xbe1cfc90	-0.1533072
243	0xbcb97319	-0.02263789
244	0x3d83b961	0.064318426
245	0x3a13938c	0.0005629591
246	0xbddcb6a7	-0.10777026
247	0x3df7f62e	0.12107502
248	0xbdbd242f	-0.09235417
249	0xbe30acef	-0.17253469
250	0x3dd0e4e4	0.101999074
251	0x3d8766e2	0.0661142
252	0x3d49f469	0.049305353
253	0x3dd65198	0.104647815
254	0x3d8d810c	0.06909379
255	0x3d362af0	0.044474542

decoder.layers.4.bias f4 [24]
0	0xbd365868	-0.044517905
1	0x3c8cf20f	0.017205266
2	0x3e09d95f	0.13461827
3	0x3df01ceb	0.11724266
4	0x3c0f185f	0.008733838
5	0xbd4fd3bb	-0.05073903
6	0xbdd4988f	-0.10380661
7	0x3e14bb6e	0.14524624
8	0x3e1df084	0.1542378
9	0x3e0ac8c4	0.13553149
10	0x3db45dac	0.08806929
11	0xbc5a8902	-0.013338329
12	0x3d38849e	0.04504835
13	0x3df0162c	0.11722979
14	0xbd24f47b	-0.040272217
15	0xbd02ee88	-0.031965762
16	0xbd410364	-0.047122374
17	0x3d0c7496	0.034290873
18	0x3bfea8ae	0.007771573
19	0xbe14bb28	-0.1452452
20	0x3d814c8f	0.063134305
21	0x3b0c1cac	0.0021379394
22	0xbd44d8cd	-0.04805832
23	0x3e12ed09	0.14348234
