m4_ws/src/morphing_lander/learned_models/2024-05-15_17-17-39/model_0.pth (torch, 33108 bytes, 22 tensors)

cond_normalizer.mean f4 [11]
0	0xbfb58df3	-1.4183944
1	0xbcfa0a99	-0.030522631
2	0xb9f8cf84	-0.00047456857
3	0x3a456faa	0.0007531593
4	0x3cd74598	0.026278302
5	0xba831462	-0.0010000581
6	0xbbdd3ade	-0.0067514023
7	0x3f07d164	0.5305388
8	0x3f0a5908	0.540421
9	0x3f07d23e	0.5305518
10	0x3f0a36fb	0.53990144

cond_normalizer.variance f4 [11]
0	0x3fe94c47	1.8226403
1	0x3bb38066	0.005477953
2	0x3aa7badc	0.0012796777
3	0x3b07951e	0.0020688246
4	0x3d2d400c	0.042297408
5	0x3d38e9da	0.045144893
6	0x3ed3a5fe	0.4133758
7	0x3c7c99b2	0.015417503
8	0x3c92eb16	0.017934363
9	0x3c827691	0.015925677
10	0x3c9067ee	0.017627683

output_normalizer.mean f4 [12]
0	0xbb8539d0	-0.0040657297
1	0xbb37b13b	-0.0028029222
2	0x3c6eb62f	0.014569803
3	0xb8230128	-3.8863305e-05
4	0x3b60ce99	0.003430283
5	0x3a57db08	0.00082342373
6	0x3bfa948a	0.007647102
7	0x3c12376b	0.0089243455
8	0x40454309	3.0822165
9	0x3c3aaccb	0.011393736
10	0x3f1beed8	0.6091132
11	0x3ad74d3b	0.0016426215

output_normalizer.variance f4 [12]
0	0x3df50d6e	0.11965452
1	0x3d8e6d72	0.06954469
2	0x3e284ad2	0.16434792
3	0x3a245b55	0.0006269713
4	0x3c6721bb	0.014107163
5	0x3c8adc91	0.016950877
6	0x3e9ca00a	0.3059085
7	0x3f0adcea	0.5424334
8	0x42727d64	60.62245
9	0x41ef6672	29.925022
10	0x40e33314	7.099985
11	0x3f1854cd	0.59504396

encoder.layers.0.weight f4 [32, 23]
0	0xbbc65b18	-0.0060533397
1	0xbe39ae9f	-0.18133019
2	0xbbe90ed4	-0.0071123634
3	0xbcf65c3d	-0.03007328
4	0x3d6619d2	0.056176968
5	0xbd7ac55a	-0.061223365
6	0x3dcddabc	0.10051486
7	0x3d8b704d	0.06808529
8	0xbddeab1e	-0.10872482
9	0xbe323a34	-0.17405015
10	0xbe056c25	-0.13029535
11	0x3d982788	0.07429415
12	0x3d8e7203	0.0695534
13	0x3d5bd947	0.05367401
14	0xbcfe612b	-0.031052193
15	0x3ddff80a	0.109359816
16	0x3e4aaa81	0.19791605
17	0x3d6e045e	0.058109634
18	0xbe364588	-0.17799962
19	0xbe1626de	-0.14663264
20	0x3de69c88	0.11260325
21	0x3e1d2b4f	0.15348552
22	0xbda71c04	-0.081596404
23	0x3deaacea	0.11458762
24	0x3e1b6b0d	0.15177555
25	0xbd130720	-0.035895467
26	0xbe079ab2	-0.13242605
27	0xbd9d678c	-0.076857656
28	0xbe0a9ff8	-0.13537586
29	0x3d8af0d9	0.06784219
30	0xbcd1716c	-0.02556678
31	0x3db01245	0.08597235
32	0x3dae9522	0.085245386
33	0x3e2d1522	0.16902593
34	0x3c28958a	0.010289559
35	0xbe04564e	-0.12923548
36	0x3dbc7dc0	0.092036724
37	0x3d92f031	0.07174719
38	0x3e07d3d6	0.13264403
39	0xbe10a403	-0.14125066
40	0xbe4e310e	-0.201359
41	0x3e17b393	0.14814596
42	0xbd4f4f57	-0.050612774
43	0xbdddc84e	-0.10829221
44	0x3e3ad6c0	0.18245983
45	0xbc0ec338	-0.008713536
46	0xbe5684e6	-0.20949134
47	0x3cef5fc8	0.029220477
48	0x3e077206	0.1322709
49	0xbc3a33e6	-0.011364913
50	0xbc3adb78	-0.0114048645
51	0x3dd9a23b	0.10626646
52	0xbddabe6b	-0.106808506
53	0x3e10cf04	0.1414147
54	0x3b5c23c0	0.0033590645
55	0xbe4c6291	-0.19959475
56	0x3e196ec9	0.14983667
57	0xbe2d32e7	-0.16913949
58	0x3da06bf6	0.07833092
59	0xbdac75dd	-0.08420918
60	0xbe1ecc43	-0.15507607
61	0xbe4808f5	-0.19534667
62	0x3d6236cc	0.05522804
63	0x3d0d2916	0.03446301
64	0xbdd29633	-0.102825545
65	0x3dd6aa44	0.10481694
66	0xbc2ea41a	-0.010659242
67	0xbe415362	-0.18879464
68	0xbdb0ffd1	-0.08642543
69	0x3d58aef3	0.05290122
70	0xbe238dc9	-0.15972055
71	0x3c818650	0.015811116
72	0xbb90f93b	-0.004424242
73	0xbe489a2d	-0.19590063
74	0x3d6b7075	0.057480294
75	0xbe3429c6	-0.1759406
76	0xbe01f33d	-0.12690444
77	0xbda8d155	-0.08243052
78	0xbe51bca1	-0.20482112
79	0xbe0e8107	-0.13916408
80	0x3d828869	0.063736744
81	0xbc57aefa	-0.013164276
82	0xbdc2b43b	-0.095070325
83	0xbdc2db50	-0.09514487
84	0x3d1fbd9d	0.03899919
85	0x3c65a06c	0.014015298
86	0xbe1b9439	-0.15193261
87	0x3db53242	0.088474765
88	0x3c5ffc33	0.013670969
89	0xbca06a10	-0.019581825
90	0xbcad8ef2	-0.021186326
91	0x3dd52114	0.104067
92	0x3d5cfdb4	0.053952888
93	0xbdb638c9	-0.0889755
94	0x3cde7c26	0.027158808
95	0x3da08164	0.07837179
96	0xbe1fd8a0	-0.1560998
97	0x3d56f53c	0.052479967
98	0xbddeb707	-0.108747534
99	0x3e32d1be	0.17462823
100	0xbd05adc2	-0.03263641
101	0xbc5c0fa4	-0.013431463
102	0x3e4048cf	0.18777774
103	0xbe521700	-0.20516586
104	0x3dae3d6b	0.08507808
105	0xbe44ce35	-0.19219287
106	0x3ce690bc	0.028145187
107	0xbe37d105	-0.17950828
108	0x3e37f29b	0.1796364
109	0xbe32f2e1	-0.17475463
110	0x3e2848db	0.16434042
111	0x3d8d218e	0.06891166
112	0xbdd27778	-0.10276693
113	0x3d9232f7	0.07138627
114	0xbe4fa07c	-0.20276064
115	0xbd54589b	-0.051842313
116	0xbc2403d5	-0.010010679
117	0x3d53f1aa	0.05174414
118	0xbe0bcd75	-0.13652594
119	0x3dc33a02	0.095325485
120	0x3e44cb3c	0.19218153
121	0xbdd4d96c	-0.103930324
122	0xbe365397	-0.17805324
123	0x3e23578c	0.15951365
124	0xbb9a53ad	-0.004709682
125	0x3d8ad3cf	0.067786805
126	0xbe39c2dd	-0.1814074
127	0xbdc40204	-0.09570697
128	0x3e3ee3b7	0.18641554
129	0x3e0cd8d1	0.13754584
130	0x3da8ed38	0.08248371
131	0xbd77dfc8	-0.06051615
132	0x3da764cc	0.08173522
133	0xbe054b3f	-0.13016985
134	0xbddf1499	-0.108926006
135	0x3c9e7265	0.019341657
136	0x3e034726	0.1282011
137	0x3c585f70	0.013206348
138	0x3e1d77b6	0.15377697
139	0xbe038502	-0.12843707
140	0xbe0287e9	-0.12747158
141	0x3d93cbd2	0.0721661
142	0xbdbd5c02	-0.09246065
143	0x3dbf17e8	0.09330732
144	0x3b87b514	0.0041414592
145	0x3e49d378	0.19709575
146	0x3d9d506d	0.076813556
147	0x3d9191ef	0.07107913
148	0x3dec1710	0.11527836
149	0x3dbf1649	0.093304224
150	0x3bbfa1f2	0.005848163
151	0x3d190d1d	0.03736602
152	0x3e1e9346	0.15485868
153	0x3e07b236	0.13251576
154	0x3e2c8aa0	0.16849756
155	0xbe055b9c	-0.13023227
156	0x3dadc55d	0.0848491
157	0x3e44937a	0.19196883
158	0xbe3a3563	-0.18184428
159	0xbd8cbb41	-0.06871653
160	0x3d8677a4	0.065657884
161	0x3dd87400	0.10569
162	0x3d08c8c2	0.033394583
163	0x3e306580	0.17226219
164	0xbe0b1dcb	-0.13585584
165	0x3d190b9f	0.0373646
166	0xbe2c45bd	-0.16823478
167	0xbdfea856	-0.12434451
168	0x3e415639	0.18880548
169	0xbb4ddcd2	-0.0031412137
170	0xbd0677c2	-0.032829054
171	0xbe28e96a	-0.1649529
172	0xbdac1be0	-0.08403754
173	0x3d4da120	0.05020249
174	0xbdb4aa38	-0.08821529
175	0xbe214734	-0.15749818
176	0x3df044fe	0.11731909
177	0x3e1f99a0	0.15585947
178	0x3d3fce69	0.046827707
179	0xbe1a88e6	-0.15091285
180	0x3d4d6ab3	0.050150584
181	0xbc48faeb	-0.012266855
182	0xbe1a92e8	-0.15095103
183	0xbe1eee68	-0.15520632
184	0x3dc7fbdc	0.09764835
185	0x3e23e5c8	0.16005623
186	0xbd02e7f6	-0.031959496
187	0xbe1309ab	-0.14359157
188	0xbe2db2e1	-0.16962768
189	0x3e4800a3	0.19531493
190	0x3d5541e9	0.05206481
191	0x3e483584	0.19551665
192	0x3d54578d	0.051841307
193	0x3e449a87	0.19199573
194	0xbc8887b3	-0.016666269
195	0xbdeba076	-0.11505215
196	0xbe2466e4	-0.16054875
197	0x3dda03f7	0.106452875
198	0x3e260b0a	0.16215149
199	0xbe3e06ac	-0.18557233
200	0xbe10fc6e	-0.14158794
201	0xbde8fc90	-0.113762975
202	0xbd35f25e	-0.044420592
203	0xbe2a6ed4	-0.1664384
204	0xbdaf7934	-0.085680395
205	0x3e1056b5	0.14095576
206	0x3dd7db03	0.1053982
207	0xbd784f89	-0.060622726
208	0x3d665fbf	0.056243654
209	0xbe438d13	-0.19096784
210	0x3df09a29	0.11748154
211	0xbd3efd7a	-0.046628453
212	0x3d977caa	0.07396825
213	0x3dd6c570	0.10486877
214	0xbddd16c7	-0.1079536
215	0x3d816bb4	0.06319371
216	0xbbed2f52	-0.007238307
217	0x3e2fd039	0.17169274
218	0x3d90a218	0.07062167
219	0xbd86a92e	-0.06575237
220	0xbe2e2c60	-0.17009115
221	0x3dfab304	0.12241176
222	0xbe0f184d	-0.13974114
223	0xbe0d6ab2	-0.13810232
224	0x3c0b3df7	0.00849866
225	0xbe4511c6	-0.19245061
226	0x3d466dcf	0.048444565
227	0xbe360c19	-0.17778052
228	0x3e5749be	0.21024224
229	0xbde36110	-0.111024976
230	0xbdbccd9b	-0.09218904
231	0x3e0b6800	0.13613892
232	0xbdd7db5e	-0.10539888
233	0x3df4e04a	0.11956842
234	0xbddd742b	-0.10813173
235	0xbdfa865b	-0.122326575
236	0xba6ac505	-0.000895575
237	0x3dedb117	0.11606043
238	0x3dc7daf5	0.097585596
239	0xbd8efda0	-0.06981969
240	0xbe389bce	-0.18028185
241	0x3cb1c978	0.021702513
242	0xbe20a48f	-0.15687774
243	0x3dbd1468	0.09232408
244	0x3de7bcf2	0.11315335
245	0xbe030a2f	-0.12796853
246	0x3e342799	0.1759323
247	0xbe115c3d	-0.14195342
248	0x3e1d6b8d	0.15373059
249	0x3e2aae93	0.16668157
250	0xbd71b784	-0.059012905
251	0x3df9e899	0.122025676
252	0xbe0ddb6e	-0.13853237
253	0xbe3409f9	-0.1758193
254	0xbd147a5f	-0.036249515
255	0x3d06ce3d	0.032911528

encoder.layers.0.bias f4 [32]
0	0xbe06f9af	-0.13181184
1	0x3e480dc4	0.19536501
2	0xbb32168e	-0.0027174088
3	0x3e4e643d	0.20155425
4	0x3d4caf83	0.04997207
5	0x3c4a9580	0.012364745
6	0xbe41ad62	-0.18913797
7	0x3e3942e9	0.1809193
8	0xbe16dfb0	-0.14733768
9	0x3cdfbdb6	0.02731214
10	0xbe06fdce	-0.13182756
11	0x3e29d1ec	0.16583985
12	0xbd28ea4f	-0.04123908
13	0x3e032234	0.12806016
14	0x3d770e30	0.060316265
15	0x3c995dde	0.018721517
16	0x3dd4d94a	0.10393007
17	0xbe4c7e93	-0.19970159
18	0xbe372fd9	-0.17889346
19	0x3e0cbe1b	0.13744394
20	0xbe3882e8	-0.18018687
21	0xbca0ddb6	-0.01963697
22	0xbdf04c36	-0.11733286
23	0xbdbf22fe	-0.09332846
24	0x3e22545a	0.1585249
25	0x3e342148	0.17590821
26	0x3cc58a47	0.024113787
27	0x3e0ce80b	0.13760392
28	0xbdca631a	-0.098821834
29	0x3db0107d	0.08596895
30	0xbe4552cf	-0.1926987
31	0xbe037c09	-0.12840284

encoder.layers.2.weight f4 [32, 32]
0	0xbe1307a8	-0.1435839
1	0x3e04c24c	0.12964743
2	0x3e0e2ff2	0.13885477
3	0xbe2883bc	-0.16456503
4	0x3e33eaed	0.17570086
5	0xbe02fa92	-0.12790897
6	0xbc072d0f	-0.008250489
7	0xbde88d56	-0.11355083
8	0x3b90d422	0.0044198195
9	0xbdcf92d8	-0.1013543
10	0xbdfd8bdc	-0.12380192
11	0xbdd7d065	-0.10537795
12	0xbd3caf8c	-0.046065852
13	0xbe15ef4d	-0.14642067
14	0xbdab766f	-0.08372199
15	0x3d415287	0.047197845
16	0x3d6241e9	0.055238638
17	0xbdd19c23	-0.10234859
18	0x3e2417ca	0.160247
19	0xbda98dc2	-0.08278991
20	0x3dbd2bb9	0.09236855
21	0xbc064d8f	-0.008197202
22	0x3d4bee18	0.04978761
23	0xbdba879c	-0.09107897
24	0x3c84cff2	0.016212437
25	0x3e06a59d	0.13149114
26	0x3e019d09	0.1265756
27	0x3dddd95b	0.10832473
28	0xbe2ce45f	-0.16883992
29	0xbd2c3162	-0.042039283
30	0x3d876c44	0.06612447
31	0x3dfdfe83	0.1240206
32	0xbca9bc7f	-0.020719765
33	0x3e06a50d	0.131489
34	0xbde32a14	-0.1109201
35	0xbdb0f050	-0.08639586
36	0xbe0ce6b3	-0.1375988
37	0x3e00e2fb	0.12586586
38	0x3d0c12e2	0.034197696
39	0x3dc69565	0.096964635
40	0xbdf2dab6	-0.11858122
41	0x3e0fa9bc	0.14029592
42	0xbdf9faee	-0.12206064
43	0xbe15515a	-0.14581814
44	0xbda73cd2	-0.081658974
45	0x3da6ac65	0.081383504
46	0xbe39d78d	-0.18148632
47	0xbe1e9c1d	-0.1548924
48	0x3e29d4b1	0.16585042
49	0x3df4c09e	0.11950801
50	0xbca51ec4	-0.020156272
51	0x3c4ceb3f	0.012507259
52	0x3d495e60	0.04916227
53	0x3d87b375	0.066260256
54	0xbe19a4bd	-0.15004249
55	0xbe1b80ee	-0.15185902
56	0x3d70c0ad	0.0587775
57	0xbe18edfb	-0.14934532
58	0xbd8215e5	-0.06351832
59	0x3d6fc380	0.058536053
60	0xbdefb189	-0.11703784
61	0x3d97db52	0.07414879
62	0xbe21ed7b	-0.15813248
63	0x3dbf8085	0.09350685
64	0xbdd13363	-0.10214879
65	0x3e12ca61	0.14335014
66	0x3d8074e4	0.06272295
67	0x3defa4ba	0.11701341
68	0xbe0b0a56	-0.13578162
69	0x3d1e50d2	0.038651295
70	0xbdbcf3ba	-0.09226175
71	0xbdd4b49c	-0.10386011
72	0xbde68a0c	-0.11256799
73	0xbe0243cd	-0.12721176
74	0xbd974591	-0.073863156
75	0xbe05dcc8	-0.13072503
76	0xbd34b3f1	-0.044116918
77	0xbe014362	-0.12623361
78	0x3e25d1e2	0.16193345
79	0xbdd9578d	-0.10612402
80	0xbd2f34fc	-0.04277514
81	0xbdb43372	-0.08798875
82	0x3e200a7d	0.15629001
83	0x3c097278	0.008389108
84	0xbe12a212	-0.14319637
85	0x3d93ae08	0.07210928
86	0x3e0dc22f	0.13843606
87	0xbc46b065	-0.012127017
88	0x3e1977b0	0.14987063
89	0x3cdb351b	0.026758721
90	0x3d55015e	0.052003257
91	0x3e15fe8e	0.14647886
92	0x3df88761	0.121351965
93	0x3d9be566	0.07612114
94	0xbca386e8	-0.01996179
95	0x39de3d48	0.00042388798
96	0x3e314e8d	0.17315121
97	0x3e2257e6	0.15853843
98	0xbe227cb6	-0.15867886
99	0x3d7bd4a8	0.0614821
100	0xbdaa5231	-0.08316458
101	0x3d583053	0.05278046
102	0x3e14d55f	0.1453452
103	0x3e2e3c5c	0.17015213
104	0xbddaa5f3	-0.106761836
105	0xbe1f3a94	-0.1554969
106	0xbe1acc29	-0.15116943
107	0xbe12ee9a	-0.14348832
108	0x3d3fdf53	0.046843838
109	0x3dfdaa88	0.12386042
110	0x3c5150a6	0.012775576
111	0xbd53cbcb	-0.051708024
112	0xbdfefc28	-0.12450439
113	0x3d78a061	0.060699824
114	0xbb7ee56c	-0.003889407
115	0x3d69a740	0.057044268
116	0xbd93f260	-0.07223964
117	0xbdccd417	-0.100013904
118	0x3ce619aa	0.02808841
119	0x3d906003	0.07049563
120	0x3dc75b87	0.09734254
121	0xbda6d9a8	-0.081469834
122	0xbcc2802d	-0.02374276
123	0x3e138948	0.14407837
124	0x3e039a2a	0.12851778
125	0xbc62248c	-0.013802659
126	0x3cf8d629	0.030375557
127	0x3c99ae3a	0.018759836
128	0xbdbc2fef	-0.0918883
129	0xbdef443a	-0.11682935
130	0x3e184eb7	0.14873777
131	0x3d966def	0.07345187
132	0xbdd288e7	-0.10280018
133	0xbe00ced5	-0.125789
134	0xbd3e6cd1	-0.046490494
135	0xbd8041e0	-0.06262565
136	0x3d9cdfe5	0.07659892
137	0xbc070230	-0.008240268
138	0x3e0ead9f	0.13933419
139	0x3e240769	0.16018452
140	0xbdb14ace	-0.08656846
141	0xbe0bc99b	-0.13651125
142	0x3d4ed27c	0.050493702
143	0x3d8993d3	0.06717648
144	0xbc976ef9	-0.018485533
145	0xbdcb2ce4	-0.099206716
146	0xbd1bd7b4	-0.038047507
147	0x3da5f8a5	0.08104066
148	0xbdbf749b	-0.093484126
149	0xbd42b526	-0.047536038
150	0xbc167b8e	-0.009184731
151	0xbe14b6f7	-0.1452292
152	0x3d5de684	0.054174915
153	0xbe25f743	-0.16207604
154	0xbdd7532c	-0.10513911
155	0x3d210af7	0.039317098
156	0xbe1b9aaa	-0.15195718
157	0xbe298ee5	-0.16558416
158	0xbd397599	-0.045278165
159	0xbdb12c1e	-0.08650993
160	0xbad99c98	-0.0016602455
161	0x3e2ee181	0.1707821
162	0x3d545440	0.05183816
163	0x3d3cdd6e	0.04610961
164	0x3d8f1261	0.069859274
165	0x3d8e2b5b	0.06941863
166	0xbda48fe0	-0.080352545
167	0x3daa0cc6	0.083032176
168	0xbe232b9e	-0.15934607
169	0xbdc2baa5	-0.09508256
170	0x3e2027a5	0.15640123
171	0xbdac319c	-0.084079
172	0xbe2b13d0	-0.16706777
173	0xbe062225	-0.13098963
174	0x3d10a3ba	0.03531239
175	0xbe216faa	-0.15765253
176	0x3e11d13b	0.14239971
177	0xbcd3ce5d	-0.025855238
178	0xbe23e5f3	-0.16005687
179	0xbdde0992	-0.10841669
180	0x3dd6b20f	0.10483181
181	0x3de315ea	0.11088164
182	0x3c9a189f	0.018810568
183	0x3d5f5338	0.054522723
184	0x3e1b67ca	0.15176311
185	0xbd9f83f6	-0.077888414
186	0x3d59af2c	0.053145573
187	0x3c269ec6	0.0101696905
188	0xbdcdecd9	-0.10054941
189	0xbcc40c26	-0.023931574
190	0xbd9498fd	-0.07255743
191	0x3d557e91	0.052122656
192	0x3e22c63f	0.15895937
193	0x3e058b42	0.13041404
194	0x3db7bb42	0.089712635
195	0xbe3242d5	-0.17408307
196	0xbc9f915f	-0.019478498
197	0x3bdb2d7a	0.006688771
198	0xbde5a6ef	-0.11213481
199	0xbaffd7c2	-0.0019519257
200	0xbe0d1297	-0.13776623
201	0x3c422b74	0.01185118
202	0x3df679d0	0.12034953
203	0xbe05f53b	-0.13081829
204	0x3e1d8083	0.15381055
205	0x3e24eb8d	0.1610548
206	0x3e019940	0.12656116
207	0xbe368b18	-0.17826498
208	0xbdc3eed7	-0.095670395
209	0x3e26ca13	0.16288023
210	0x3dd8982c	0.105758995
211	0x3c8296e1	0.015941085
212	0x3ccbe69e	0.02489024
213	0xbe1f93be	-0.15583703
214	0x3e11b5ba	0.1422948
215	0xbd2f88af	-0.04285496
216	0x3cae41eb	0.021271667
217	0xbe286a0d	-0.16446705
218	0xbe053e02	-0.13011935
219	0xbd984c4a	-0.07436426
220	0x3dfdca5e	0.12392114
221	0x3d950208	0.07275778
222	0x3d4ee1f8	0.05050847
223	0x3d665978	0.056237668
224	0x3e113fcf	0.14184497
225	0xbe01bf8c	-0.12670726
226	0x3dcbd946	0.09953551
227	0x3d95c5ec	0.07313141
228	0x3dffaca6	0.12484102
229	0x3e0ff1f1	0.14057137
230	0xbc01f380	-0.00793159
231	0xbd895091	-0.0670482
232	0x3de0db93	0.109793805
233	0x3e04b291	0.12958743
234	0xbd6b78ee	-0.057488374
235	0x3d764c97	0.060131636
236	0x3dd11d16	0.10210626
237	0xbdfb25f2	-0.12263097
238	0xbd96b48b	-0.073586546
239	0x3cd6ebda	0.02623551
240	0x3de939a8	0.1138795
241	0x3bb5f1e0	0.0055525154
242	0x3dac5e0e	0.08416377
243	0x3a728773	0.0009251751
244	0x3dc4e1a4	0.0961335
245	0x3d437c62	0.047726043
246	0x3db383d3	0.08765378
247	0xbd5a1454	-0.053242043
248	0x3cf272f9	0.029595839
249	0xbe30b241	-0.17255498
250	0xbdd78140	-0.10522699
251	0xbdde6ad0	-0.108602166
252	0x3db26501	0.08710671
253	0xbdcdce8d	-0.10049162
254	0xbc504df3	-0.012713897
255	0x3da7aa8a	0.081868246

encoder.layers.2.bias f4 [32]
0	0xbc9c5c08	-0.019086853
1	0x3e0229a1	0.12711193
2	0x3df106fb	0.117689095
3	0xbdaa94cc	-0.08329162
4	0xbd69cbbb	-0.05707906
5	0xbd2fc6e9	-0.042914305
6	0x3df62e21	0.12020517
7	0x3c9804c4	0.01855696
8	0xbdea0bab	-0.11428007
9	0xbcf156fc	-0.029460423
10	0x3de42d94	0.11141506
11	0x3e191bcb	0.14952008
12	0x3d255b46	0.04037025
13	0xbd874f57	-0.0660693
14	0x3cf744d8	0.030184194
15	0x3d10d946	0.035363458
16	0x3bd061c1	0.0063593094
17	0x3deb7fad	0.114989616
18	0xbca08089	-0.01959254
19	0x3d178dc6	0.03700044
20	0x3e21e28f	0.15809081
21	0xbd4fae76	-0.05070349
22	0xbe099461	-0.13435508
23	0xbda52703	-0.080640815
24	0x3d8b862c	0.06812701
25	0xbd1ae247	-0.03781345
26	0xbc92768c	-0.017878793
27	0xbe2041e9	-0.15650143
28	0x3ba1feeb	0.0049437187
29	0xbca5cbb2	-0.020238731
30	0xbe1bf44a	-0.15229908
31	0x3ddfdaf3	0.10930433

encoder.layers.4.weight f4 [12, 32]
0	0x3db01caf	0.08599221
1	0x3de02937	0.10945361
2	0x3de5905d	0.11209176
3	0xbdc88d13	-0.09792533
4	0x3dd1e78e	0.10249244
5	0xbdb6e725	-0.08930806
6	0xbc930242	-0.017945413
7	0x3c21c2ae	0.009873075
8	0x3e164c3b	0.14677517
9	0xbe17b75b	-0.14816038
10	0xbe17778e	-0.147917
11	0x3d248cdd	0.0401734
12	0x3cbf072e	0.023318853
13	0x3d79916c	0.0609297
14	0x3c3cd75e	0.011525957
15	0x3dd6cacf	0.104879014
16	0xbce7f2ce	-0.02831402
17	0xbe009652	-0.12557343
18	0xbc5fe651	-0.013665752
19	0xbd77bc79	-0.060482476
20	0x3db0f04c	0.08639583
21	0x3d511d52	0.051053353
22	0x3de24a55	0.11049334
23	0xbd4e8bb5	-0.050426204
24	0xbd9ae982	-0.07564069
25	0xbd604f8b	-0.054763358
26	0x3da62fa7	0.08114558
27	0xbe1a602c	-0.15075749
28	0xbc979357	-0.018502874
29	0x3e00f90e	0.12595007
30	0x3de9411d	0.113893725
31	0xbdbc4971	-0.09193695
32	0x3e11763d	0.1420526
33	0xbca6d015	-0.020362893
34	0xbe235025	-0.15948541
35	0xbe1f252f	-0.15541528
36	0x3e0aad68	0.13542712
37	0x3e156fe4	0.14593464
38	0x3c6a8c75	0.014315714
39	0xbd126eba	-0.03575013
40	0x3d6fe9f1	0.058572713
41	0xbe29fa1b	-0.16599314
42	0xbc57c931	-0.013170526
43	0xbdf5ea91	-0.120076306
44	0x3e1dbe39	0.15404595
45	0x3e1a2d4e	0.15056345
46	0xbd31d166	-0.04341259
47	0xbdc906dd	-0.09815762
48	0x3e1d9b12	0.15391186
49	0xbbd825f0	-0.0065963194
50	0x3e14742b	0.1449744
51	0x3e156677	0.14589868
52	0x3e05b7f5	0.13058455
53	0x3dda040b	0.106453024
54	0xbe2bbb70	-0.1677072
55	0x3d2d2e26	0.04228034
56	0xbb7c00f1	-0.003845271
57	0xbe1398de	-0.14413783
58	0x3e221c4b	0.15831105
59	0xbe29a574	-0.16567022
60	0x3e1182f9	0.14210118
61	0x3dcb8eef	0.09939372
62	0x3d4cefe3	0.05003346
63	0xbd9e868c	-0.077405065
64	0x3d268585	0.040654678
65	0x3cabaa27	0.020955158
66	0x3e04f344	0.12983423
67	0x3d80aa4c	0.062824816
68	0x3d981fd0	0.07427943
69	0x3da6e467	0.08149033
70	0x3da7c56e	0.081919536
71	0x3dc933a3	0.09824302
72	0xbc579634	-0.01315837
73	0xbe2982b5	-0.16553767
74	0xbe10f22d	-0.14154883
75	0xbe2052cb	-0.15656583
76	0x3e226151	0.15857436
77	0x3cb606c8	0.02222003
78	0xbe134747	-0.14382659
79	0xbbebe75f	-0.0071992124
80	0x3e15befa	0.14623633
81	0x3e130a6b	0.14359443
82	0xbd7ce2ee	-0.061739855
83	0x3e1577a7	0.14596425
84	0xbd8b2398	-0.06793898
85	0x3d946f69	0.07247812
86	0xbe03b696	-0.1286262
87	0x3d85d894	0.065354496
88	0xbe28dde5	-0.16490896
89	0xbd5ba7ff	-0.05362701
90	0x3b65027e	0.0034944112
91	0xbe1f462a	-0.15554109
92	0x3bb8922f	0.005632661
93	0xbd9159f8	-0.07097238
94	0xbd6d9143	-0.05799986
95	0xbdcf3a25	-0.10118512
96	0xbe27be3b	-0.16381161
97	0xbd961d73	-0.07329836
98	0x3c717452	0.014737206
99	0xbd84e559	-0.06489057
100	0xbbc179aa	-0.005904396
101	0x3e039378	0.12849224
102	0x3d96a360	0.0735538
103	0x3bdbba2f	0.0067055444
104	0x3bc2dbae	0.005946598
105	0x3b975d49	0.0046192748
106	0xbd4da7cc	-0.05020885
107	0x3d1d5d33	0.03841896
108	0x3de5977f	0.11210536
109	0x3dde3435	0.108498015
110	0x3d878464	0.066170484
111	0x3e056865	0.13028105
112	0xb9917ec0	-0.0002775099
113	0xbd2ef9f1	-0.04271883
114	0xbde109a5	-0.10988168
115	0x3e1b1842	0.15145972
116	0xbd998e9d	-0.074979044
117	0x3dea7e8e	0.1144992
118	0x3c6ea3a8	0.014565386
119	0x3dd1eaca	0.102498606
120	0xbc070387	-0.008240587
121	0xbdbe488e	-0.092911825
122	0x3d9af956	0.07567088
123	0xbe34ec6b	-0.17668311
124	0xbe03b052	-0.1286023
125	0xbd937bea	-0.07201369
126	0x3d612668	0.054968268
127	0xbd43544f	-0.047687825
128	0x3dce5f46	0.10076766
129	0x3d8b976d	0.068159916
130	0x3d2646a7	0.040594723
131	0xbd94f431	-0.07273138
132	0xbd5ff642	-0.05467821
133	0x3d05fafe	0.032710068
134	0xbd4fdf9c	-0.05075036
135	0xbe0e6792	-0.13906696
136	0xbd03e6ec	-0.032202646
137	0x3e1bf637	0.15230642
138	0xbdeb515b	-0.11490127
139	0x3de89ab6	0.11357634
140	0x3d6aaeec	0.057295725
141	0xbe0f2f2f	-0.13982843
142	0x3d4c3cc0	0.049862623
143	0x3e1eda8e	0.1551306
144	0x3dd0f624	0.102031976
145	0xbc5de023	-0.013542208
146	0xbe11f0ac	-0.14251965
147	0xbe00c61e	-0.12575576
148	0x3e218349	0.15772738
149	0xbcc6e2da	-0.024278093
150	0xbdbe7dbb	-0.09301325
151	0x3e2e9c37	0.17051779
152	0xbd27b809	-0.040946994
153	0xbdc04bcf	-0.09389459
154	0x3db855b2	0.0900072
155	0xbdf80896	-0.12111013
156	0x3d9be794	0.076125294
157	0xbcd47bc5	-0.025937924
158	0x3c41fc54	0.011839945
159	0xbd0cdffa	-0.03439329
160	0x3cbccb89	0.023046272
161	0xbd9635d9	-0.073344894
162	0xbdce21fa	-0.10065074
163	0x3e20a1e9	0.15686764
164	0xbd61c01f	-0.05511486
165	0x3d25b08c	0.04045157
166	0x3dd27468	0.10276109
167	0x3d028bda	0.031871654
168	0x3db621dc	0.08893177
169	0x3d93f0b0	0.07223642
170	0x3e329773	0.17440586
171	0xbe255c3a	-0.16148463
172	0xbcc40399	-0.023927497
173	0xbd7e3b5f	-0.06206834
174	0x3c5e9e63	0.013587567
175	0xbdb8891b	-0.09010526
176	0x3cfdf9f7	0.031002982
177	0xbd2e8fd3	-0.04261763
178	0x3d9bb173	0.07602205
179	0xbbc1488d	-0.0058985413
180	0x3e267685	0.16256149
181	0xbe23ebfc	-0.1600799
182	0xbd88d7d0	-0.06681788
183	0xbe173adb	-0.14768545
184	0x3cf8a388	0.030351415
185	0x3e255de5	0.16149099
186	0xbe1766eb	-0.14785354
187	0xbd1e05ba	-0.03857968
188	0x3aecfb1a	0.0018080205
189	0x3dbb9c8c	0.09160718
190	0xbe27a77b	-0.16372482
191	0x3d823bba	0.06359048
192	0xbd8f63db	-0.07001468
193	0xbd89d195	-0.06729428
194	0xbd975f5f	-0.073912375
195	0xbe376db5	-0.17912944
196	0x3c50adc6	0.012736743
197	0x3e06c98d	0.13162823
198	0x3d621d2e	0.05520361
199	0xbd8c6dbb	-0.06856867
200	0xbcd30d67	-0.025763227
201	0x3d8853e2	0.066566244
202	0x3db18301	0.08667565
203	0x3d9b6d97	0.07589262
204	0xbe206977	-0.15665232
205	0xbd6452b1	-0.055742923
206	0xbd816033	-0.06317177
207	0xbe356550	-0.17714429
208	0xbe24cd4c	-0.1609394
209	0xbbf631ef	-0.0075132768
210	0xbd1d0f89	-0.038344894
211	0x3df5c9d4	0.12001386
212	0xbdd97269	-0.10617525
213	0xbd04314d	-0.03227358
214	0x3e04cf37	0.12969671
215	0x3d6ac82b	0.0573198
216	0xbde6c6b1	-0.11268366
217	0xbda7975a	-0.08183165
218	0xbe26349f	-0.16231011
219	0x3db29e96	0.08721654
220	0xbd1e4610	-0.038641036
221	0x3e1e9f53	0.15490465
222	0x3d534eee	0.051588945
223	0x3db8a5c6	0.09015994
224	0xbcca90b9	-0.024727212
225	0xbd8412f5	-0.06448928
226	0xbc657dfc	-0.014007088
227	0x3e172f61	0.14764167
228	0x3d5b05ad	0.05347221
229	0x3d741b2e	0.059596233
230	0xbd20aa95	-0.03922518
231	0x3d7a61e1	0.0611285
232	0xbd555e6c	-0.052092
233	0x3d3c452a	0.045964397
234	0xbd6200e3	-0.055176627
235	0xbce301e2	-0.027710859
236	0x3e17b8a3	0.14816527
237	0x3e128492	0.14308384
238	0xbd51b07d	-0.051193703
239	0x3e315828	0.17318785
240	0x3dcda1b5	0.10040609
241	0xbdfb9bce	-0.12285577
242	0xbd9e0560	-0.07715869
243	0xbd9b5d14	-0.075861126
244	0xbe1af9ea	-0.15134397
245	0x3db05eda	0.086118415
246	0x3cbb212d	0.022842968
247	0x3e0d63a8	0.13807547
248	0x3c304d37	0.010760597
249	0xbd594ff3	-0.05305476
250	0x3c4b9314	0.012425203
251	0x3dc1a2e2	0.094548956
252	0x3a1fd5d0	0.0006097229
253	0x3e15b504	0.14619833
254	0x3d88e515	0.06684319
255	0xbd7e94a6	-0.06215348

encoder.layers.4.bias f4 [12]
0	0x3e285fd0	0.164428
1	0xbdca8cbe	-0.09890126
2	0x3e2279ed	0.15866823
3	0x3dcb2ce3	0.09920671
4	0xbe1ea2cb	-0.15491788
5	0x3c622498	0.01380267
6	0x3e2eb255	0.17060216
7	0xbe150f23	-0.14556555
8	0xbe1c1f33	-0.15246277
9	0x3df7b96a	0.12095912
10	0x3d957c00	0.07299042
11	0xbe2362aa	-0.15955606

decoder.layers.0.weight f4 [32, 17]
0	0x3e0f4aca	0.13993374
1	0xbcab2bb2	-0.020894859
2	0xbdace060	-0.08441234
3	0xbd90aa33	-0.07063713
4	0xbe4b86b7	-0.19875608
5	0xbcae961a	-0.021311808
6	0x3e22d611	0.15901972
7	0x3e2b7878	0.16745174
8	0xbd2b9bf6	-0.041896783
9	0xbe2769e7	-0.16348992
10	0xbe257bc6	-0.16160497
11	0x3e70fb77	0.23533426
12	0xbdf9d29c	-0.12198374
13	0x3e117b07	0.14207087
14	0x3de3d920	0.11125398
15	0xbe04f6cb	-0.12984769
16	0x3d765f38	0.0601494
17	0xbe3622cf	-0.17786716
18	0x3e3a9572	0.18221071
19	0xbe66cea0	-0.22539759
20	0xbe48caa6	-0.19608554
21	0x3e6c0e80	0.23052406
22	0xbd3e92b4	-0.046526626
23	0xbaec9ade	-0.0018051525
24	0x3b27cec9	0.0025605431
25	0x3dba282c	0.090896934
26	0x3e565952	0.2093251
27	0xbd5a4f43	-0.053298246
28	0xbe28e69a	-0.16494218
29	0x3d9c0134	0.07617417
30	0x3e29c746	0.16579923
31	0x3d9732aa	0.0738271
32	0xbdd5bef7	-0.10436814
33	0x3e32a362	0.17445138
34	0xbd0007fb	-0.03125761
35	0x3e595724	0.21224648
36	0x3db36b76	0.08760731
37	0x3e627fda	0.22119084
38	0x3e052357	0.13001762
39	0x3e4bfcf2	0.1992071
40	0xbccfbc01	-0.025358202
41	0xbe322292	-0.17396
42	0x3e103da2	0.14086011
43	0xbe3660eb	-0.17810409
44	0xbb869abd	-0.0041078017
45	0x3ccb4b1a	0.024816085
46	0x3e621aca	0.22080532
47	0xbdf1e10c	-0.118105024
48	0xbdcdee38	-0.10055202
49	0x3daa9215	0.08328644
50	0xbe518308	-0.2046014
51	0xbcb0eba8	-0.021596745
52	0xbd3bcea2	-0.045851357
53	0x3e22de75	0.15905173
54	0xbb4078be	-0.0029368843
55	0xbdf0f88d	-0.11766157
56	0x3dcc1f8f	0.09966957
57	0x3e627621	0.22115375
58	0x3e4e8649	0.20168413
59	0xbe629eea	-0.22130933
60	0x3e4f988d	0.20273037
61	0xbe00733d	-0.1254396
62	0xbcf9b600	-0.030482292
63	0xbe435407	-0.19075023
64	0x3dc2d693	0.09513583
65	0xbe410ed3	-0.18853311
66	0xbdb0595a	-0.086107925
67	0x3e292d2f	0.16521142
68	0xbce49338	-0.02790223
69	0x3c719bb2	0.014746593
70	0xbd715d4c	-0.058926865
71	0x3dfbfd60	0.12304187
72	0xbc710552	-0.014710741
73	0xbc331895	-0.010931154
74	0xbdc962df	-0.09833311
75	0xbd6c58de	-0.057701938
76	0xbe1885af	-0.14894746
77	0x3d019636	0.031637393
78	0x3e000968	0.12503588
79	0xbd380612	-0.044927664
80	0xbe6f4e6d	-0.23369761
81	0xbe095b12	-0.13413647
82	0x3dd49463	0.10379865
83	0xbe35410b	-0.17700593
84	0xbe4740d1	-0.19458319
85	0x3a69326c	0.0008895758
86	0xbe5b8ac3	-0.21439652
87	0xbda9ddd7	-0.08294266
88	0x3d122425	0.035679
89	0xbe4eb88a	-0.20187584
90	0x3df2cb75	0.118552126
91	0x3d8bae47	0.0682035
92	0x3e22f5d4	0.15914088
93	0xbd059cb3	-0.032620143
94	0x3e71f1c3	0.23627381
95	0x3e014021	0.1262212
96	0x3e73e60c	0.23818225
97	0xbd30d33c	-0.0431702
98	0x3dc7be63	0.0975311
99	0x3e0b6bfd	0.13615413
100	0xbe665604	-0.2249375
101	0x3e38b62f	0.18038248
102	0x3e18a94e	0.14908335
103	0xbe463626	-0.19356593
104	0xbe655846	-0.22396955
105	0x3d4e03f5	0.050296742
106	0xbd56f0be	-0.052475683
107	0xbe21079e	-0.15725562
108	0x3d6a17aa	0.057151474
109	0xbe5a89b9	-0.213416
110	0x3d2e9068	0.042618185
111	0xbd1c7ae7	-0.038203146
112	0xbd93a587	-0.07209306
113	0xbdb2fa36	-0.0873913
114	0x3db2ba7b	0.087269746
115	0xbcf3bd58	-0.029753372
116	0x3e399ab3	0.1812542
117	0x3dc9fe49	0.09862954
118	0xbe18d171	-0.14923646
119	0x3c376fb0	0.011196062
120	0xbe60d2d2	-0.21955422
121	0xbe4935b6	-0.19649395
122	0x3dd01f32	0.101622
123	0xbe288de8	-0.16460383
124	0x3dc00a72	0.09376992
125	0x3d2e485e	0.042549483
126	0x3df25d63	0.11834218
127	0xbe649488	-0.22322285
128	0x3d1fd0d2	0.039017506
129	0xbdc25b58	-0.09490079
130	0x3c237757	0.009977183
131	0xbd4d7ef2	-0.050169893
132	0x3d4bb6da	0.049734928
133	0x3e3a568a	0.18197075
134	0x3dbe95d4	0.09305921
135	0xbe25c4ed	-0.16188402
136	0x3e6089dd	0.2192759
137	0x3e217eb9	0.15770997
138	0x3e633440	0.221879
139	0xbe29b2d7	-0.16572128
140	0xbd1ceb82	-0.038310535
141	0xbe71148f	-0.23542999
142	0x3d2d2916	0.04227551
143	0x3ddaf752	0.10691704
144	0x3e743778	0.23849285
145	0x3d4d3b16	0.050105177
146	0x3d806d80	0.062708855
147	0x3b112883	0.002214939
148	0x3e216570	0.15761352
149	0x3e0058e8	0.12533915
150	0xbd0779b6	-0.033075057
151	0xbe4f8792	-0.2026656
152	0x3dd6a911	0.104814656
153	0x3dd94423	0.10608699
154	0xbd88678f	-0.06660377
155	0xbe3f60af	-0.18689226
156	0x3db4a8da	0.088212684
157	0xbe6826b4	-0.22671014
158	0x3e4720e8	0.19446146
159	0x3e613648	0.21993363
160	0x3e55f251	0.20893218
161	0xbc9bfdc0	-0.019041896
162	0xbdf98e3e	-0.12185334
163	0xbdc4d838	-0.09611553
164	0xbd525cdf	-0.0513581
165	0x3d6e16ba	0.058127142
166	0xbdb1613d	-0.08661125
167	0x3b46cd54	0.0030334787
168	0x3c0f9dda	0.008765662
169	0x3dec9b22	0.11553027
170	0x3dfb8f8a	0.12283237
171	0x3d20146a	0.03908197
172	0xbe6f67d8	-0.23379457
173	0xbe03f607	-0.1288682
174	0xbe5ff83e	-0.2187204
175	0x3e23e0d4	0.16003734
176	0xbd9af2d2	-0.075658455
177	0x3ddc2fe6	0.107513234
178	0xbe6f1a26	-0.23349819
179	0x3d3107f1	0.043220464
180	0xbd23f205	-0.04002573
181	0xbc39df4a	-0.01134474
182	0x3de8bca7	0.113641076
183	0x3e5d7ca0	0.21629572
184	0xbe43f5c4	-0.19136721
185	0x3e354975	0.17703803
186	0xbcaf48c1	-0.021396996
187	0xbbfd987a	-0.007739124
188	0xbe6edca8	-0.23326361
189	0xbc29cd4d	-0.010363889
190	0xbd56cab8	-0.05243942
191	0x3d5e718b	0.0543075
192	0x3e6bedea	0.23039976
193	0x3e3e59fa	0.18589011
194	0x3dad59e5	0.08464412
195	0xbe22265b	-0.15834944
196	0xbd49a659	-0.049230907
197	0xbdcb0804	-0.09913638
198	0x3d891f33	0.06695404
199	0xbcf6bf38	-0.030120477
200	0x3e1bb032	0.15203932
201	0xbe67967c	-0.22615999
202	0xbe76d3b1	-0.24104191
203	0xbdae5315	-0.085119404
204	0x3ab7c2f5	0.0014019894
205	0x3d1f7e2d	0.03893869
206	0xbdab4a7c	-0.08363816
207	0xbd86af7f	-0.06576442
208	0x3dade9ee	0.08491884
209	0x3d04b5f9	0.032400105
210	0x3b532c83	0.0032222576
211	0xbd259d78	-0.040433377
212	0xbe6c16c8	-0.23055565
213	0xbdec88fe	-0.11549567
214	0x3e52a807	0.2057191
215	0x3e53472a	0.20632616
216	0x3d1a1e93	0.037626814
217	0x3d53a47a	0.05167053
218	0x3e308539	0.1723832
219	0xbdc41be7	-0.095756344
220	0x3dabce94	0.08389011
221	0xbd8505f3	-0.06495275
222	0x3e0ce9db	0.13761084
223	0x3e52c508	0.20582974
224	0x3e5b63c2	0.21424773
225	0xbe422cc7	-0.18962394
226	0xbe214db9	-0.15752305
227	0xbd949bf0	-0.07256305
228	0xbde74792	-0.11292948
229	0xbd37c3d9	-0.04486451
230	0xbe17db6c	-0.14829797
231	0xbde25001	-0.11050416
232	0xbe1a77ef	-0.15084814
233	0xbe3b68e0	-0.18301725
234	0xbe577f76	-0.21044716
235	0x3c3e513a	0.011616046
236	0x3e56afeb	0.20965545
237	0x3e1d1a5e	0.1534209
238	0xbd86fc51	-0.06591094
239	0xbe152fc3	-0.14569001
240	0x3e093b1b	0.13401453
241	0xbe65414e	-0.22388193
242	0x3e02faa6	0.12790927
243	0xbd34eb68	-0.044169813
244	0x3c577a13	0.013151663
245	0x3e6a6ab6	0.2289227
246	0x3da52f76	0.08065693
247	0xbdef47f8	-0.11683649
248	0xbd192d82	-0.037396915
249	0x3da675bd	0.081279255
250	0xbe1ee1f3	-0.1551588
251	0x3e32482c	0.17410344
252	0xbd893dc8	-0.06701237
253	0xbd5080c0	-0.050904036
254	0x3e3e00a1	0.18554927
255	0x3d531986	0.051538013

decoder.layers.0.bias f4 [32]
0	0xbe029efa	-0.12755957
1	0xbe2fab00	-0.17155075
2	0x3e6f46ee	0.23366901
3	0xbb22da08	-0.0024849195
4	0xbd4b3f7e	-0.049621098
5	0xbc7b038a	-0.015320668
6	0x3d69ff0d	0.057128
7	0x3dd504b0	0.10401285
8	0x3d4dd61e	0.050253026
9	0x3d4a6ab0	0.04941815
10	0xbceae677	-0.028674347
11	0x3ba42fcc	0.0050105806
12	0xbcde5fcd	-0.02714529
13	0xbe242530	-0.16029811
14	0xbce22077	-0.027603371
15	0x3e01102b	0.12603824
16	0xbe6d750e	-0.23189184
17	0x3dbff9bb	0.09373804
18	0x3e0eb33c	0.1393556
19	0xbc9ddc43	-0.019270068
20	0x3e79b4da	0.24385396
21	0xbcd55dad	-0.026045645
22	0xbd12d576	-0.035848103
23	0x3db7ddcb	0.089778505
24	0xbe1703aa	-0.14747491
25	0xbdb60274	-0.08887187
26	0xbe23ad00	-0.15983963
27	0x3e173238	0.1476525
28	0x3d7125f2	0.058874078
29	0xbe227d60	-0.1586814
30	0x3e295c7e	0.16539189
31	0x3e6beaf6	0.23038849

decoder.layers.2.weight f4 [32, 32]
0	0x3dce8e86	0.10085778
1	0x3e1d8029	0.1538092
2	0xbe0014b1	-0.12507893
3	0x3dbe62bc	0.09296176
4	0x3e224288	0.15845692
5	0x3daff33d	0.08591316
6	0x3e2dc0c7	0.1696807
7	0x3ce65e8b	0.028121253
8	0x3e1ad374	0.15119725
9	0xbe37a67c	-0.17934602
10	0x3e23f4a0	0.16011286
11	0xbdd02bc8	-0.101646006
12	0xbcd5e9cf	-0.026112465
13	0xbd2ab2b0	-0.041674316
14	0xbc8e433a	-0.01736604
15	0xbdf7e16a	-0.12103541
16	0x3a7c0cd4	0.00096149486
17	0xbbac4e3a	-0.005258349
18	0xbde53e82	-0.11193563
19	0x3df89d6a	0.12139399
20	0xbd8f1a04	-0.06987384
21	0xbc28a36e	-0.010292871
22	0xbc4f1cd2	-0.012641149
23	0x3cab3601	0.020899775
24	0xbdb6a82b	-0.08918794
25	0x3da1e49b	0.07904931
26	0x3dd3c786	0.103407905
27	0x3df14dd4	0.11782423
28	0x3d99fffb	0.075195275
29	0xbdb898a3	-0.09013488
30	0xbdbb674a	-0.0915056
31	0xbdc80071	-0.09765709
32	0xbd3deea4	-0.046370164
33	0xbd3a876f	-0.045539316
34	0xbd4d890c	-0.050179526
35	0xbe02e9fc	-0.1278457
36	0xbd882641	-0.06647921
37	0xbc14642b	-0.009057085
38	0xbe2ce964	-0.16885906
39	0x3d972ccd	0.07381592
40	0xbcb8bbe8	-0.022550538
41	0xbd31abbd	-0.043376673
42	0xbd857d5b	-0.0651805
43	0xbdd89b6a	-0.10576518
44	0x3d08fb2a	0.033442654
45	0x3df40509	0.11915023
46	0xbdf7176f	-0.120650165
47	0xbda7e1db	-0.081973754
48	0xbe0ce74b	-0.13760106
49	0x3d425170	0.047440946
50	0x3de2f590	0.110819936
51	0xbe0317c5	-0.12802036
52	0xbd3ffb70	-0.04687065
53	0x3d374a66	0.044748686
54	0xbd1d40fb	-0.03839205
55	0x3c0209e5	0.007936929
56	0x3e16f20c	0.14740771
57	0xbd6a76af	-0.05724209
58	0xbdafbac7	-0.08580547
59	0xbc35d442	-0.0110979695
60	0x3e0a09eb	0.13480346
61	0x3d990bcf	0.074729554
62	0x3c239ed9	0.009986603
63	0xbd8a54f5	-0.067544855
64	0xbe2003ec	-0.15626496
65	0x3daa2af8	0.08308977
66	0xbce6e7ff	-0.028186796
67	0xbc8e579a	-0.017375756
68	0xbe1b29fc	-0.15152735
69	0x3dd29533	0.10282364
70	0x3d999b4f	0.07500326
71	0x3d7f30da	0.062302448
72	0x3e072f86	0.13201723
73	0xbdb5aa7e	-0.088704094
74	0x3d7f8558	0.062383026
75	0x3dac620d	0.08417139
76	0xbe1d8ca4	-0.15385681
77	0x3e1c5bed	0.15269442
78	0x3c872a7a	0.016499747
79	0x3d4fecf3	0.05076308
80	0x3d8317e6	0.06401043
81	0x3e0be623	0.13662009
82	0xbde29dec	-0.110652775
83	0xbdad32c9	-0.08456952
84	0xbe1266dc	-0.1429705
85	0xbdc5811a	-0.09643765
86	0xbd2d9619	-0.042379472
87	0x3dfe000a	0.12402351
88	0xbddf3524	-0.10898808
89	0x3db8a519	0.09015865
90	0x3dc919f3	0.098194025
91	0x3d6912c8	0.056902677
92	0x3e274f5f	0.16338871
93	0xbe095b28	-0.1341368
94	0xbdbee71c	-0.09321424
95	0x3e06c6d9	0.13161792
96	0xbd52cc07	-0.051464107
97	0x3a151adb	0.00056879007
98	0xbe050a45	-0.12992199
99	0x3dded12d	0.10879741
100	0x3dd68559	0.10474653
101	0xbdaa08e1	-0.08302475
102	0x3d8e8fae	0.069609985
103	0xbe258498	-0.16163862
104	0xbce60a2d	-0.028081024
105	0x3deeda0b	0.11662682
106	0x3dbe1b16	0.0928251
107	0xbda33f2e	-0.07971035
108	0x3c4d4f06	0.012531048
109	0xbe23a1c5	-0.15979679
110	0xbe0722e2	-0.131969
111	0xbc38dba9	-0.01128284
112	0x3d490b0d	0.049082804
113	0x3e134bf2	0.1438444
114	0xbe15d46d	-0.14631815
115	0xbde65edb	-0.11248561
116	0xbdb8e029	-0.0902713
117	0xbcd92c19	-0.026510285
118	0xbe225499	-0.15852584
119	0xba48b0ae	-0.0007655722
120	0x3db76d87	0.089564376
121	0xbddc562a	-0.10758622
122	0x3d9be7fe	0.076126084
123	0xbd64594f	-0.055749234
124	0xbc528e5b	-0.012851323
125	0x3e1075d5	0.1410745
126	0x3e1d5370	0.1536386
127	0x3ddb22ff	0.10700034
128	0x3e196d14	0.14983016
129	0x3d8541d7	0.065066986
130	0xbca50f6a	-0.020148952
131	0xbbb34167	-0.005470443
132	0xbe107fe1	-0.14111282
133	0xbe186bff	-0.14884947
134	0x3de28465	0.110604085
135	0xbe2b3f57	-0.16723381
136	0xbdd6c69a	-0.10487099
137	0x3dd47139	0.10373158
138	0x3c4e1ee3	0.012580606
139	0x3dc301c0	0.09521818
140	0xbe12e840	-0.14346409
141	0xbdfffeda	-0.12499781
142	0x3e3322bf	0.17493723
143	0x3e1f3145	0.15546139
144	0xbda94f62	-0.08267094
145	0x3c7244fa	0.014786953
146	0x3e1e244d	0.15443535
147	0xbe2eda6a	-0.17075506
148	0xbd521925	-0.05129351
149	0x3d114df1	0.03547472
150	0xbdc3f074	-0.09567347
151	0x3d97162c	0.07377276
152	0xbe213e64	-0.15746456
153	0xbe237749	-0.15963472
154	0xbcb9cc38	-0.022680387
155	0x3d8b7c7c	0.06810853
156	0xbd83fb62	-0.06444432
157	0x3d66f849	0.056389127
158	0x3e3191b9	0.17340745
159	0xbcaf62be	-0.021409389
160	0x3e01163e	0.12606141
161	0xbd0aeeb6	-0.03391906
162	0xbdb341c7	-0.087527804
163	0x3dd2fad5	0.10301749
164	0x3c0be178	0.008537643
165	0x3d8107dc	0.06300327
166	0x3deab29d	0.11459849
167	0x3e0bf596	0.13667902
168	0x3bfc1b02	0.0076936493
169	0xbddccad4	-0.10780874
170	0x3c084265	0.008316611
171	0xbdd58250	-0.10425246
172	0x3e17a2f1	0.14808251
173	0x3c77678a	0.015100369
174	0x3dbcdae9	0.09221441
175	0xbd869e03	-0.06573107
176	0x3e06a656	0.1314939
177	0xbd6de30c	-0.058077857
178	0x3d3c6864	0.045997992
179	0x3dd793a0	0.10526204
180	0xbdbec4ed	-0.09314904
181	0x3e3137ce	0.17306444
182	0x3e1c2c04	0.15251166
183	0x3cd12a73	0.025532937
184	0x3e15ce3f	0.14629458
185	0x3cca65c8	0.024706736
186	0xbddb7ebd	-0.10717533
187	0xbda57572	-0.080790415
188	0xbc27d32f	-0.010243221
189	0xbe3258db	-0.17416708
190	0x3e27db77	0.16392313
191	0x3d9c8f80	0.07644558
192	0x3c04e846	0.008112019
193	0x3ddf187b	0.10893341
194	0xbc98482c	-0.018589102
195	0x3db8772d	0.09007106
196	0x3ce15419	0.027505921
197	0xbe2ee40e	-0.17079183
198	0x3c822890	0.015888482
199	0xbe0e9d2e	-0.13927147
200	0xbe1f3fa5	-0.15551622
201	0xbdb80e64	-0.0898712
202	0xbd135f7d	-0.035979737
203	0x3db8bce9	0.09020407
204	0x3c7a6f27	0.01528529
205	0xbca601a4	-0.020264454
206	0x3e0384f3	0.12843685
207	0x3dfcc630	0.12342489
208	0x3df6fb59	0.120596595
209	0xbda88967	-0.082293324
210	0x3e0fc28c	0.14039057
211	0x3d3dc70f	0.046332415
212	0xbe2a52fd	-0.1663322
213	0xbd3ee3b5	-0.046603877
214	0x3dfb843d	0.12281082
215	0x3be9a714	0.007130513
216	0x3defc6a7	0.11707812
217	0x3cf0b2d1	0.029382141
218	0xbdb27f73	-0.08715715
219	0x3df1705e	0.117890105
220	0xbe2b0ade	-0.16703364
221	0x3e302136	0.17200169
222	0x3db22b8b	0.086997114
223	0x3e203d1c	0.15648311
224	0x3daa865d	0.08326409
225	0x3e0b0009	0.13574232
226	0xbdfee9ac	-0.12446913
227	0xbe1ec103	-0.15503316
228	0xbdd14526	-0.10218267
229	0x3d482975	0.04886766
230	0x3d512068	0.051056296
231	0x3db8c226	0.09021406
232	0xbdf5dd3d	-0.120050885
233	0x3d9c20ba	0.076234296
234	0x3e1cffe8	0.15331995
235	0xbe1bb4a9	-0.15205635
236	0x3ded369b	0.11582681
237	0x3e0b688f	0.13614105
238	0x3dad805c	0.08471748
239	0x3dd280c5	0.10278467
240	0xbe33c4ce	-0.17555544
241	0xbc619e2e	-0.013770623
242	0xbd8f728b	-0.07004269
243	0x3d112b42	0.035441644
244	0xbd90758a	-0.07053669
245	0x3d87ee53	0.066372536
246	0x3cbfd529	0.023417072
247	0x3e26c975	0.16287787
248	0xbe0a094c	-0.13480109
249	0x3d52bc78	0.05144927
250	0xbc1310c8	-0.008976169
251	0x3e1cde2e	0.1531913
252	0x3e29670c	0.16543216
253	0x3d33bb61	0.04387987
254	0x3cafc51b	0.021456292
255	0xbc627132	-0.013820933

decoder.layers.2.bias f4 [32]
0	0xbe0e6a27	-0.13907681
1	0x3d36a110	0.044587195
2	0x3ca8253b	0.020525565
3	0xbdebf4bd	-0.115212895
4	0xbe084916	-0.1330913
5	0xbe05e688	-0.13076222
6	0xbd50c738	-0.05097124
7	0xbdbd6ec6	-0.09249644
8	0x3d03cc74	0.032177404
9	0xbdaa97aa	-0.08329709
10	0xbc246176	-0.010033002
11	0xbe140e69	-0.14458622
12	0xbc8301b1	-0.015992017
13	0xbc73c566	-0.014878606
14	0xbd8204d6	-0.06348579
15	0x3cc18847	0.023624552
16	0x3cf81e91	0.030288013
17	0xbdbaf529	-0.09128792
18	0x3db849f4	0.089984804
19	0x3de88ba3	0.113547586
20	0xbcc39090	-0.023872644
21	0x3b7fa694	0.00390092
22	0x3d74b9bf	0.059747454
23	0x3d90f1de	0.070773825
24	0xbe319775	-0.17342933
25	0xbc4397c5	-0.01193804
26	0x3e25ce93	0.16192083
27	0x3e1322a9	0.1436869
28	0x3dccf2e3	0.100072645
29	0xbe0e0857	-0.13870369
30	0xbe112d8a	-0.14177528
31	0xbd13db38	-0.036097735

decoder.layers.4.weight f4 [24, 32]
0	0x3e1e60ee	0.15466663
1	0xbe2266ec	-0.15859574
2	0x3e0a746e	0.13520977
3	0xbde9365e	-0.11387323
4	0x3bdcf982	0.006743611
5	0xbca7813a	-0.020447362
6	0xbe03ab01	-0.12858202
7	0x3ca140a6	0.019684147
8	0x3ac3e600	0.0014945865
9	0xbd80fb8e	-0.0629798
10	0xbd1edc3c	-0.03878425
11	0xbcafb13c	-0.021446817
12	0x3db37d36	0.087641165
13	0x3d952d14	0.072839886
14	0x3e1358d2	0.14389351
15	0x3deb0dc9	0.11477239
16	0xbd9d6dc0	-0.07686949
17	0x3d71d27e	0.05903863
18	0x3dd7a1b5	0.1052889
19	0xbdd8494f	-0.105608575
20	0x3d38b56d	0.045094896
21	0xbdefcf39	-0.117094465
22	0x3d484927	0.04889789
23	0x3d13d15c	0.036088333
24	0x3d927791	0.07151712
25	0xbdf81ee7	-0.12115269
26	0x3d8eef05	0.06979183
27	0x3d471cb6	0.048611365
28	0xbc2016e1	-0.00977108
29	0x3df0bb1c	0.11754438
30	0x3d95ac1d	0.07308219
31	0x3d7453ee	0.059650354
32	0xbda4f892	-0.080552235
33	0x3db3275e	0.08747743
34	0x3e00fd28	0.12596571
35	0xbd77fbf7	-0.060543027
36	0x3dea61c0	0.114444256
37	0x3dcc65a1	0.09980322
38	0x3d3b64ec	0.045750543
39	0xbe0312af	-0.12800096
40	0xbe0d0cb5	-0.13774379
41	0xbd0a9be8	-0.03384009
42	0x3d528c6c	0.051403448
43	0xbe2778b5	-0.1635464
44	0x3e1187cf	0.14211963
45	0x3e036998	0.1283325
46	0x3e25bbf9	0.16184987
47	0x3e089c7e	0.13340947
48	0x3e34ee5e	0.17669055
49	0xbd923c9f	-0.07140469
50	0x3de9f699	0.11423988
51	0x3d0b9336	0.03407594
52	0x3e3951f5	0.1809767
53	0xbd9f22fc	-0.077703446
54	0x3e0a5ab1	0.13511159
55	0x3dfca78d	0.12336645
56	0xbe224e35	-0.15850146
57	0xbdf6a655	-0.12043444
58	0x3ca235f0	0.01980111
59	0xbd38793d	-0.045037497
60	0xbd78f900	-0.06078434
61	0xbdf85227	-0.12125044
62	0x3e092483	0.13392834
63	0xbde1c425	-0.1102374
64	0x3cb98dc3	0.022650605
65	0x3db962f9	0.09052081
66	0xbda1458f	-0.078745954
67	0xbe1aba49	-0.15110125
68	0xbd85c7f8	-0.06532282
69	0x3d8feb2c	0.07027277
70	0x3d86dba2	0.065848604
71	0x3cda26c9	0.026629822
72	0x3dd6ac2d	0.10482059
73	0xbe24c3b9	-0.16090287
74	0x3cbccae9	0.023045974
75	0xbe0640b7	-0.13110624
76	0x3dfd23e6	0.12360363
77	0xbc6ed50e	-0.014577163
78	0xbca96eb2	-0.020682666
79	0x3dd5a422	0.104316965
80	0xbc2688ab	-0.01016442
81	0x3e2e6fce	0.17034838
82	0xbcb409e7	-0.021977378
83	0xbd7446da	-0.05963788
84	0xbc162d93	-0.009166139
85	0xbe105afc	-0.14097208
86	0x3e115ba8	0.1419512
87	0xbcd34567	-0.02578993
88	0xbd722e51	-0.059126202
89	0xba947010	-0.0011324901
90	0x3c921514	0.017832316
91	0xbd1e9c54	-0.038723305
92	0x3cefd75b	0.029277494
93	0x3d70507b	0.058670502
94	0xbe23d7c9	-0.16000284
95	0xbd5e640e	-0.05429464
96	0x3e0d099e	0.137732
97	0x3d8254ba	0.063638166
98	0x3d9f64b8	0.077828825
99	0x3c8e65e8	0.017382577
100	0xbe1a1cac	-0.1505
101	0x3d946d1e	0.07247375
102	0xbe05d710	-0.13070321
103	0x3c9253a4	0.017862149
104	0xbcd92975	-0.026509026
105	0x3dc1aa12	0.094562665
106	0xbe08cf41	-0.13360311
107	0xbe15e4d0	-0.14638066
108	0x3e21061a	0.15724984
109	0x3cfeee9b	0.031119635
110	0xbe1f25c4	-0.1554175
111	0xbcaaa86a	-0.02083226
112	0x3cb6856c	0.022280417
113	0xbe274c40	-0.16337681
114	0x3dc9b1e1	0.09848381
115	0x3dffd274	0.124913126
116	0xbd57fa35	-0.05272885
117	0xbe224166	-0.1584526
118	0x3e1e99c6	0.15488347
119	0x3e0b9ae4	0.13633305
120	0x3e1fcb5b	0.15604918
121	0x3e23965b	0.15975325
122	0x3e20d2a5	0.15705355
123	0x3b338ebc	0.0027398309
124	0xbe2cb9e4	-0.16867787
125	0x3d99954c	0.07499179
126	0x3db1ba24	0.08678082
127	0x3e1144e4	0.14186436
128	0x3e12eb03	0.14347462
129	0x3e24e02b	0.16101138
130	0xbd1301b7	-0.035890307
131	0x3dc152eb	0.094396435
132	0xbddef6ea	-0.10886939
133	0xbc2311a2	-0.009952934
134	0x3d4e3478	0.050343007
135	0xbcae50e5	-0.021278808
136	0x3df6be1d	0.1204798
137	0xb9f4a4d5	-0.00046662116
138	0xbd1c6c72	-0.03818936
139	0xbaaa056e	-0.0012971589
140	0xbe2f5a07	-0.17124186
141	0xbe2f5813	-0.17123441
142	0x3e0ad70c	0.13558596
143	0x3dbba7b0	0.09162843
144	0x3dc45d0e	0.09588061
145	0x3e1f82d3	0.15577249
146	0x3d8a6c68	0.06758958
147	0xbc5ef18e	-0.013607396
148	0xbd5cf301	-0.053942684
149	0x3bf5bdb1	0.0074994196
150	0x3e246012	0.16052273
151	0x3e2c530c	0.16828555
152	0xbe2ed138	-0.17071998
153	0x3e128ef3	0.14312343
154	0x3d1483c5	0.036258478
155	0xbdff8b25	-0.124777116
156	0xbe1b998b	-0.1519529
157	0xbd756b60	-0.059916854
158	0xbddb9293	-0.10721316
159	0x3e31b28a	0.17353263
160	0x3e2571e2	0.16156724
161	0xbe141aaa	-0.14463297
162	0xbd4bd534	-0.049763873
163	0xbcb077c4	-0.021541484
164	0xbe0f1f30	-0.13976741
165	0xbe20944f	-0.15681575
166	0xbdde4658	-0.10853261
167	0xbd930e42	-0.07180454
168	0x3e19dd7b	0.15025894
169	0xbdec7200	-0.11545181
170	0x3df0cc1c	0.11757681
171	0xbc1f0958	-0.009706818
172	0x3dab73d0	0.08371699
173	0x3cb227e3	0.021747535
174	0x3e0752fc	0.1321525
175	0xbe0dc4c8	-0.13844597
176	0x3e0d8ddb	0.13823645
177	0x3e111e0f	0.14171623
178	0xbdfee702	-0.12446405
179	0xbdef7322	-0.11691882
180	0xbd9e8b77	-0.077414446
181	0xbd8bb703	-0.06822016
182	0xbde601fb	-0.112308465
183	0x3d803ab9	0.062612005
184	0xbd04ea62	-0.032450087
185	0x3c56091a	0.013063693
186	0x3e2012b1	0.1563213
187	0xbe2f0e8e	-0.17095396
188	0xbe29037b	-0.16505234
189	0xbda08a0e	-0.07838832
190	0x3e252212	0.16126278
191	0x3d7b1653	0.061300587
192	0xbc733ecb	-0.014846514
193	0xbd2b98bd	-0.04189371
194	0xbe204d70	-0.1565454
195	0x3dcb7af2	0.09935559
196	0xbe2db6ae	-0.16964218
197	0x3e2b511b	0.16730158
198	0xbd0135e8	-0.03154555
199	0x3bb82329	0.005619426
200	0xbda30b37	-0.079611234
201	0x3de40eff	0.11135673
202	0xbdff8426	-0.12476377
203	0x3d1d04fa	0.038334824
204	0xbdd8ba98	-0.10582465
205	0x3de4df0a	0.11175354
206	0xbda625e4	-0.08112696
207	0xbe2efdd6	-0.17089018
208	0x3d6af921	0.057366494
209	0xbd288d7e	-0.041150562
210	0x3e226728	0.15859663
211	0x3cc72222	0.024308268
212	0x3e18a049	0.14904894
213	0x3dee9082	0.116486564
214	0x3c012924	0.007883344
215	0x3cdb09c9	0.026738064
216	0x3d5781b4	0.05261393
217	0x3d139e88	0.03603986
218	0xbd070ca9	-0.032971058
219	0x3e1dea23	0.15421347
220	0x3e0c2815	0.13687165
221	0xbd5b051c	-0.05347167
222	0xbdad9154	-0.08474985
223	0x3dd15030	0.10220373
224	0x3e0be4a9	0.13661446
225	0x3db1bc0e	0.08678447
226	0xbe220256	-0.15821204
227	0xbd0a8a3f	-0.033823248
228	0xbb5fd8a9	-0.003415624
229	0x3d64589a	0.05574856
230	0xbcd70df4	-0.02625177
231	0x3e21f3af	0.15815614
232	0x3d96dd15	0.07366387
233	0xbdc2e4dd	-0.095163085
234	0xbd6abc78	-0.057308644
235	0x3e134c7c	0.14384645
236	0x3da6d124	0.08145359
237	0x3e279260	0.16364431
238	0x3d7043cc	0.058658406
239	0xbe263ff3	-0.16235332
240	0xbcf0ece6	-0.029409837
241	0x3db4632e	0.088079795
242	0x3e2d49d5	0.16922696
243	0x3de7dd32	0.113214865
244	0xbe2556c6	-0.16146383
245	0x3e006326	0.12537822
246	0x3de7257a	0.11286445
247	0xbda3c8fb	-0.07997318
248	0xbd8129ee	-0.063068256
249	0xbe2c5afb	-0.16831581
250	0x3e1843fe	0.14869687
251	0xbe196484	-0.1497975
252	0xbe2862dd	-0.16443963
253	0xbda42756	-0.08015315
254	0x3d312165	0.043244738
255	0x3e1c64e7	0.15272866

decoder.layers.4.bias f4 [24]
0	0x3de2a075	0.11065761
1	0xbe0cbc09	-0.13743605
2	0xbe2889ac	-0.16458768
3	0xbd09aa52	-0.033609696
4	0xbe035728	-0.12826216
5	0xbccd3048	-0.025047436
6	0x3e1e77f3	0.15475444
7	0x3e1eb571	0.15498902
8	0x3cf1371b	0.029445222
9	0xbe0f604f	-0.14001583
10	0xbd26369a	-0.040579416
11	0xbe2a257a	-0.16615859
12	0xbde70742	-0.11280681
13	0x3dd4be5a	0.10387869
14	0xbe01e87b	-0.1268634
15	0xbd6eb5b6	-0.05827876
16	0x3e1966cf	0.14980625
17	0xbbf59ed4	-0.0074957404
18	0x3e07ebd0	0.13273549
19	0x3db6252b	0.08893808
20	0xbe0b0745	-0.13576992
21	0x3d2296cd	0.039694596
22	0x3d836636	0.064159796
23	0xbdd742b6	-0.10510771
