m4_ws/src/morphing_lander/learned_models/2024-05-15_17-17-39/model_30.pth (torch, 33518 bytes, 22 tensors)

cond_normalizer.mean f4 [11]
000000 f3 8d b5 bf 99 0a fa bc 84 cf f8 b9 aa 6f 45 3a
       -1.4183944 -0.030522631 -0.00047456857 0.0007531593
000010 98 45 d7 3c 62 14 83 ba de 3a dd bb 64 d1 07 3f
       0.026278302 -0.0010000581 -0.0067514023 0.5305388
000020 08 59 0a 3f 3e d2 07 3f fb 36 0a 3f
       0.540421 0.5305518 0.53990144

cond_normalizer.variance f4 [11]
000000 47 4c e9 3f 66 80 b3 3b dc ba a7 3a 1e 95 07 3b
       1.8226403 0.005477953 0.0012796777 0.0020688246
000010 0c 40 2d 3d da e9 38 3d fe a5 d3 3e b2 99 7c 3c
       0.042297408 0.045144893 0.4133758 0.015417503
000020 16 eb 92 3c 91 76 82 3c ee 67 90 3c
       0.017934363 0.015925677 0.017627683

output_normalizer.mean f4 [12]
000000 d0 39 85 bb 3b b1 37 bb 2f b6 6e 3c 28 01 23 b8
       -0.0040657297 -0.0028029222 0.014569803 -3.8863305e-05
000010 99 ce 60 3b 08 db 57 3a 8a 94 fa 3b 6b 37 12 3c
       0.003430283 0.00082342373 0.007647102 0.0089243455
000020 09 43 45 40 cb ac 3a 3c d8 ee 1b 3f 3b 4d d7 3a
       3.0822165 0.011393736 0.6091132 0.0016426215

output_normalizer.variance f4 [12]
000000 6e 0d f5 3d 72 6d 8e 3d d2 4a 28 3e 55 5b 24 3a
       0.11965452 0.06954469 0.16434792 0.0006269713
000010 bb 21 67 3c 91 dc 8a 3c 0a a0 9c 3e ea dc 0a 3f
       0.014107163 0.016950877 0.3059085 0.5424334
000020 64 7d 72 42 72 66 ef 41 14 33 e3 40 cd 54 18 3f
       60.62245 29.925022 7.099985 0.59504396

encoder.layers.0.weight f4 [32, 23]
000000 21 6c 17 3d 1a 20 6f bd e4 80 0e 3b 4c 50 f0 bc
       0.036968354 -0.058380224 0.0021744305 -0.029335164
000010 13 7c ee 3d 6a 95 f5 bd 85 99 da 3d 8a 40 ee 3d
       0.11644759 -0.11991389 0.10673813 0.116334036
000020 ec d2 0b bd bb 65 76 be 16 4c 19 be 0a 02 c3 3d
       -0.034136698 -0.24062245 -0.1497043 0.09521873
000030 9f 19 8e 3d a9 5b 07 3d cd 19 d5 bc b4 dc 77 3d
       0.069384806 0.0330464 -0.02601328 0.060513213
000040 06 ba b9 3d 1f 3f a4 3c cf 8a 17 bd fd 1a 0b be
       0.09068684 0.02004963 -0.036997613 -0.13584514
000050 d7 68 bf 3d 6c 99 f3 3d a9 b4 7e bd 52 b5 20 3d
       0.093461685 0.11894497 -0.06218401 0.03923542
000060 ef 13 dc 3d 83 81 63 3c f6 bd 16 be ff ce 01 bd
       0.107459895 0.0138858585 -0.14720902 -0.031691547
000070 f5 2a 5a be e1 16 09 3e b9 a8 bc bd 4f 5c 2c 3d
       -0.2130545 0.13387634 -0.09211869 0.04208022
000080 61 23 b6 3d 59 67 70 3e dc 82 4b 3c 31 19 dc bc
       0.08893467 0.23476924 0.012421336 -0.026867481
000090 3f 62 9f 3c f5 46 e8 3d 5e 54 18 3e af 60 a2 bd
       0.019456027 0.11341659 0.14875934 -0.07928597
0000a0 fa 74 c3 bd 9b 28 ab 3c c2 ad 38 bd 20 1c af bd
       -0.09543796 0.020893386 -0.045087583 -0.08550286
0000b0 62 24 dc 3d ae 0b 7a bc 69 5c 9e bd 7e 7c aa 3b
       0.10749127 -0.015261574 -0.077324696 0.005202829
0000c0 0d 3c 74 3d 0f d6 ee bc 54 f0 c3 3b 09 45 f0 3d
       0.05962758 -0.029154805 0.005979577 0.117319174
0000d0 80 b4 85 bd 4d 37 7d 3e c5 e6 8a 3d f6 e4 87 be
       -0.06528568 0.24728127 0.06782297 -0.2654187
0000e0 a3 17 54 3e 95 5c 53 be 1f 0b 28 3d 06 ed 97 bc
       0.20712142 -0.20640786 0.04102623 -0.018545639
0000f0 a8 83 fd bd d5 7b 88 be 97 c5 cc 3c 06 bc 8f 3d
       -0.12378627 -0.26656976 0.024996562 0.070182845
000100 46 b5 02 bd db a5 db 3d 8d 7a 3b 3d 32 32 cb bd
       -0.031911157 0.10724994 0.04577117 -0.09921683
000110 b0 1b f8 bc c0 83 c5 3c ac 26 87 bd ad 38 84 ba
       -0.03028664 0.024110675 -0.06599173 -0.0010087691
000120 a6 2a 53 bd 1e 07 77 be f7 61 34 3d fb a6 5d be
       -0.051554345 -0.24123809 0.04403874 -0.21645729
000130 31 c6 35 be dc 19 d0 3b 60 e3 37 be 0e 1d 52 be
       -0.17751385 0.006350739 -0.1795783 -0.20518896
000140 2f 23 49 3d 2d 51 2c 3d 3d db 05 bd a2 29 03 be
       0.04910582 0.042069603 -0.032679785 -0.1280885
000150 82 98 da 3d 9c 1e 19 3c 9e dd 1f bd d6 5a bb bb
       0.1067362 0.009345677 -0.03902971 -0.0057176156
000160 0f 37 be 3c e5 98 20 bd 3f f4 44 bd 03 59 ba 3d
       0.023219613 -0.03920831 -0.048084494 0.09099009
000170 96 b7 12 bc 5b 62 dd 3b 38 31 ec 3c a5 ed de 3d
       -0.008954903 0.0067561097 0.028832063 0.10885171
000180 ec 93 78 be e2 14 13 bc 06 50 7b bd c8 7e 44 3e
       -0.24275178 -0.008977147 -0.061355613 0.19188988
000190 4e 14 6e 3d 8b b0 6f bb bc f1 46 3e ea 5f 67 be
       0.058124833 -0.0036573734 0.19428152 -0.22595182
0001a0 81 a2 21 3c 76 f1 9c bd 4c 83 e9 3c 47 f3 4d be
       0.009865404 -0.076632425 0.02850499 -0.20112334
0001b0 d5 b5 d3 3d 35 52 0e bd 7a 69 4e 3c 8e 08 b3 3d
       0.10337416 -0.034746367 0.01259839 0.08741866
0001c0 de 5b 3f bc 01 90 c9 3d af 15 d5 bd 6e b4 c7 bb
       -0.011679618 0.0984192 -0.104045264 -0.006094507
0001d0 02 8f f6 bc 52 d9 b4 3b d1 a1 15 be 30 5c 20 3e
       -0.030097488 0.0055190707 -0.1461251 0.15660167
0001e0 0a 53 94 3e 41 95 c7 bd 75 d1 7d be c2 85 08 3d
       0.28969604 -0.09745265 -0.24786933 0.033330686
0001f0 83 dc b0 3c 6d c3 e9 3d b1 e1 41 be 68 e8 bd bb
       0.021589523 0.11414228 -0.1893375 -0.0057955272
000200 6d 4e 83 3d 4a e7 d0 3d 94 be dc 3d e2 8b dd 3c
       0.06411443 0.10200365 0.107785374 0.02704424
000210 da 21 fa 3c d4 f5 a5 bc 9b 68 a0 bd 84 22 be 3a
       0.03053372 -0.020258822 -0.07832452 0.0014506136
000220 d9 4d 90 3d cd 51 a4 3c 45 a7 56 3d 84 88 67 bc
       0.07046098 0.020058537 0.052405614 -0.014131669
000230 dd dd 09 bd 56 9a bd 3d 49 5f ff bb 17 13 7e 3a
       -0.03365885 0.09257953 -0.0077933413 0.00096921757
000240 87 a1 e7 3d 49 f7 23 3e 11 58 7c 3d f3 56 4b 3d
       0.11310106 0.160123 0.061607424 0.049643468
000250 f5 f7 56 3e 76 e0 01 3e e1 82 b4 bc 86 30 8c 3b
       0.20993026 0.12683281 -0.022035064 0.0042782454
000260 00 13 88 3e 76 5d 5c 3e 2b 9d bc 3d 87 f6 83 bd
       0.26576996 0.21520028 0.09209665 -0.06443506
000270 a9 99 4a bc 63 ef 1f 3e fa 20 07 be 33 8a a6 bd
       -0.012365737 0.15618663 -0.13196173 -0.08131828
000280 22 dc c1 3d 44 01 af 3d 28 b1 39 3d 05 97 89 3d
       0.09465815 0.08545163 0.045334965 0.06718258
000290 2a de 12 be 71 b2 af 3d eb 55 66 be 1d 94 01 be
       -0.14342561 0.08578957 -0.22493713 -0.12654157
0002a0 0f 8f 3b 3e 2e 1e 1e bd cd 23 8b bc ee a3 36 be
       0.18316291 -0.038603 -0.016984845 -0.17835972
0002b0 5a df 28 bd aa 4f 7f bc fa 16 55 bd e6 b0 0f be
       -0.04122863 -0.015582958 -0.052023865 -0.14032325
0002c0 e1 42 ef 3c b1 9a a1 3d 8c 3b 88 bc aa 37 55 bd
       0.029206695 0.07890833 -0.016629957 -0.05205504
0002d0 e0 99 ce 3d 29 eb 3d 3d 21 b5 a9 bd 30 cd 91 bd
       0.10087943 0.046366844 -0.08286501 -0.071192145
0002e0 53 0b 28 3d 4b a3 9b 3d eb a1 87 bc 6b cc 26 be
       0.041026425 0.07599505 -0.0165567 -0.16288917
0002f0 df 63 3f be 3a 99 88 3e 8c f2 c9 3d 08 c7 34 3e
       -0.18690442 0.26679403 0.09860715 0.1765405
000300 ef 53 88 3d 17 29 7f 3e de be 82 3b c2 a9 0c be
       0.06656634 0.24918018 0.0039900383 -0.13736632
000310 90 e9 bc bc f6 5a 9f 3d e3 42 22 3e 3b b6 42 be
       -0.02306059 0.07781021 0.15845828 -0.19014828
000320 cf 3b 82 bd 67 a5 a3 3c 37 44 ba bc 18 62 d5 bd
       -0.06359064 0.01997633 -0.022737605 -0.104191005
000330 5b 06 f0 bc b8 93 f7 3d 2a a8 d2 3d a0 71 f1 3b
       -0.029299906 0.12088722 0.10285981 0.0073682815
000340 ca 07 dc 3d 12 54 e0 bd e6 98 a8 3d b1 06 69 bd
       0.10743673 -0.10953535 0.08232288 -0.056891147
000350 9d 01 d3 3d fb 51 18 3e 04 5a 41 bd 92 e3 4b 3d
       0.10303042 0.14875023 -0.047204986 0.049777575
000360 51 e2 74 bc 5e 5c 43 3e df e5 4c 3d e3 b1 d7 3c
       -0.014946536 0.19078204 0.05002391 0.02632994
000370 ce 51 81 bc 52 d9 10 3e ba 81 be bd 8d 59 c0 bc
       -0.015786078 0.14145401 -0.09302087 -0.023480201
000380 62 ae 78 3c 05 db c2 bd 38 fb e2 3d 87 03 89 bd
       0.015178295 -0.09514431 0.110830724 -0.06690126
000390 11 f9 56 3e e8 74 28 ba 9b f3 5a bd b8 1a dd 3d
       0.20993449 -0.0006426112 -0.053454977 0.10796112
0003a0 f6 a0 54 bd cb 0d 1c 3e 63 3f 28 be 3c 92 41 be
       -0.051911317 0.15239637 -0.1643043 -0.1890344
0003b0 dd c1 41 bd ea ce 08 3e 5c a7 96 3c eb 8c a9 bd
       -0.047304023 0.13360181 0.01839035 -0.08278831
0003c0 d6 b1 5d be 37 58 d8 3b 99 0c 95 bd ca 0d 2c 3d
       -0.2164987 0.006602313 -0.072777934 0.042005338
0003d0 15 94 1a 3d 53 06 33 be d0 ab b3 3d 90 f7 5c bd
       0.03773888 -0.17482881 0.08773005 -0.05394703
0003e0 c2 59 70 3d c9 fc 31 3e bb 1f 9a 3b ce c3 18 3e
       0.05867935 0.17381586 0.0047034896 0.14918444
0003f0 73 28 88 bd 87 79 7c bd 25 d8 1c bc ca a9 8b bc
       -0.0664834 -0.061639335 -0.009573017 -0.017048735

encoder.layers.0.bias f4 [32]
000000 87 b4 a1 bd 7d e6 90 3c c6 5c 5a bd 9c 45 1b 3e
       -0.07895761 0.01768803 -0.053311132 0.15163273
000010 25 eb 3f bd 54 3d 59 bd 6a 86 65 bd 36 c7 03 3d
       -0.04685511 -0.053037003 -0.05603639 0.032172404
000020 d8 fc ff bd 0a db 49 3e de 94 34 be 05 93 58 3e
       -0.12499398 0.19712463 -0.17634913 0.21149834
000030 47 ab 03 bd a3 91 75 3d 90 7c 95 bd 6d 8b 45 bd
       -0.032145765 0.059953343 -0.07299149 -0.04822867
000040 af 6e 8c 3e ee 01 fe bd 5d f6 a4 bd aa 21 c5 bb
       0.27428195 -0.12402712 -0.080548026 -0.006015976
000050 51 24 33 be dc bf 3a bd ed ac ff bd 85 77 f2 bd
       -0.17494322 -0.045593128 -0.12484155 -0.11839203
000060 bd 57 8f 3e d7 c9 37 3d 0a 6b 18 3e 7b dc 95 3e
       0.27996626 0.044870224 0.14884582 0.29269776
000070 f7 55 cb bd 40 a1 a2 3d c9 82 3f be 56 06 89 bd
       -0.09928506 0.07940912 -0.18702234 -0.066906616

encoder.layers.2.weight f4 [32, 32]
000000 c9 8c db bd 4b 23 07 3e 12 c2 23 3e f9 4d dd bd
       -0.10720212 0.13197057 0.15992 -0.10805888
000010 0a fb 1c 3e 00 f0 e8 bd 80 86 0e bc 5d 20 94 bd
       0.15330139 -0.11373901 -0.0086990595 -0.07232735
000020 21 8e a7 3c 1d f6 72 bd a2 b1 4a bd c1 b0 ff bc
       0.020453515 -0.059316743 -0.04948581 -0.031212213
000030 65 30 fe 3b b4 ff e4 bd 9e 85 63 bd 09 b7 52 3d
       0.007757234 -0.11181584 -0.05554735 0.051444087
000040 6e 0d 09 3d 5a 5f 02 bd 92 d6 34 3e 91 cd 8b bc
       0.033460073 -0.031829216 0.17659977 -0.017065795
000050 a1 2b d7 3d 27 4f 8c 3c 51 d0 82 3d cf 02 cb bd
       0.105063684 0.017127587 0.063873895 -0.09912645
000060 70 6b f5 3c 54 de 00 3e fa 7c c1 3d 6e cc c8 3d
       0.029958457 0.12584811 0.094476655 0.09804617
000070 85 c7 cf bd 33 da 4c bc 6a f8 a6 3d 4f ca 81 3d
       -0.10145477 -0.012503195 0.0815285 0.063374154
000080 d4 8c fb bd 34 64 5d 3d 77 73 ce bd 51 42 ce bc
       -0.1228272 0.05405064 -0.10080617 -0.025178107
000090 55 62 b2 bd c6 11 c5 bc ec f8 fe bd dd ff 2f 3d
       -0.087101616 -0.024056327 -0.12449822 0.04296862
0000a0 d2 cf ea bd 1b 1f 0f 3e 13 9f 09 be a8 c8 c2 3c
       -0.1146542 0.1397671 -0.13439588 0.023777321
0000b0 56 4c 03 be 0d 62 f1 3d e9 2a 3a be a3 03 5c bd
       -0.12822089 0.1178628 -0.18180431 -0.053714406
0000c0 dc e5 3f 3e 09 33 ff bc b8 5f 47 bd 8f 8b ed bd
       0.18740028 -0.031152265 -0.04867527 -0.11598884
0000d0 bc 0c 61 bd d9 ad 42 3c 33 aa 32 be 71 7d 29 be
       -0.054943785 0.011882269 -0.17447738 -0.16551758
0000e0 a6 bb f8 3d 0a 7d ae bd 6b f9 39 3d 18 c6 1c 3e
       0.12145166 -0.08519943 0.04540388 0.15309942
0000f0 04 3e 4c be 20 89 52 3d 83 23 0d be 60 ab 6c bd
       -0.19945532 0.051400304 -0.13783078 -0.057780623
000100 ab 92 b6 bd 8c 74 b2 3d 1e 33 6d 3d 0f c3 0a 3e
       -0.089146934 0.08713636 0.057910077 0.13550971
000110 16 12 dd bd 3e f1 5e bc 51 52 e4 bd 4d b9 b0 bd
       -0.10794465 -0.013607321 -0.11148513 -0.08629093
000120 0c d3 ef bd 81 9e 6e bd 21 cd a8 bd c9 2d cb bc
       -0.11710176 -0.05825663 -0.0824225 -0.024802106
000130 8a 9d c1 bd c5 b9 c7 bd f8 1f 23 3e c5 24 d3 bd
       -0.09453876 -0.097522296 0.15930164 -0.103097476
000140 ae ef 80 bb 2d c1 10 be ff 6c 05 3e 82 c3 b6 bd
       -0.003934822 -0.1413619 0.1302986 -0.08924009
000150 ae ca 17 be b1 1c 99 3d ee 6c cb 3d 42 a9 ac bd
       -0.1482341 0.074761756 0.09932886 -0.08430721
000160 0e 4c 2d 3e 8f 4f c1 3c b0 aa 6a 3d 3e f9 28 3e
       0.16923544 0.023597507 0.057291687 0.16501328
000170 3a 38 f0 3d 00 66 9f 3d d2 2d f7 bc c4 75 94 bc
       0.11729474 0.07783127 -0.030173216 -0.018122561
000180 f1 0f 49 3e 7a 41 1e 3e 2b 5c 08 be 6c 62 d7 3d
       0.19634987 0.15454665 -0.1331641 0.10516819
000190 db 24 41 bd e3 5e 9f 3d 2d a4 33 3e 8f 69 3d 3e
       -0.04715429 0.0778177 0.17543097 0.18497299
0001a0 60 14 aa bd 48 e0 f4 bd 59 67 7b bd 90 b5 84 bd
       -0.083046675 -0.11956841 -0.061377857 -0.06479943
0001b0 19 50 e9 3d 51 81 12 3e d7 e6 4c 3d a3 08 9c bb
       0.113922305 0.14307143 0.050024834 -0.0047617718
0001c0 ad 13 92 bd 90 c6 d6 3d bb fb 9f 3c dd eb 21 3e
       -0.07132659 0.104870915 0.019529214 0.15812631
0001d0 81 26 72 bd ab a8 57 bd c1 0a 6a 3d 49 08 e6 3d
       -0.05911875 -0.05265109 0.057139162 0.11232049
0001e0 59 46 28 3e 51 14 c1 bc d5 cd 6b 3d 7f 55 f9 3d
       0.16433086 -0.023569258 0.057569344 0.1217451
0001f0 f0 5a 22 3e 7e 02 45 3d 71 c0 20 3d 68 d9 bb 3c
       0.15855002 0.04809808 0.039246026 0.022930816
000200 35 6c 09 be 07 ca 27 bd a1 47 78 3d 81 ec 5d 3d
       -0.13420184 -0.040964153 0.060615186 0.054180626
000210 38 bd e1 bd 8c e6 0e be 0e 8a d6 bd 52 fe 70 bd
       -0.11022419 -0.13955134 -0.104755506 -0.05883629
000220 e7 c2 13 bc f8 dc 95 3d 36 c1 e8 3c 6e ae 54 3e
       -0.009018636 0.07317537 0.028412443 0.20769665
000230 66 ce 08 be f3 b4 96 bd 3d 74 76 bd 5a bc 56 bc
       -0.13359985 -0.07358732 -0.060169447 -0.01310643
000240 c5 88 6e 3d 72 b1 0f be 77 58 34 3b 78 12 01 bd
       0.058235902 -0.14032534 0.002751855 -0.031511754
000250 5a 71 81 bd 29 59 43 bd 5d 22 a8 bd 50 86 1c be
       -0.06320448 -0.04769245 -0.08209679 -0.15285611
000260 c1 4c 11 3e 68 b3 43 bd 8e d8 aa 3d f2 f3 33 3e
       0.14189436 -0.047778517 0.08342086 0.17573527
000270 e7 54 1a be c9 11 b3 bd 12 d6 9a bc de 55 0b be
       -0.1507145 -0.087436266 -0.018900905 -0.13606974
000280 f6 9d 71 3d 92 c9 67 3e 00 ba fb 3d 93 97 e7 3d
       0.058988534 0.22635487 0.12291336 0.11308207
000290 59 b9 1b 3e c8 2e 01 3e 3b ea b9 3d d0 a3 15 3e
       0.15207423 0.12615502 0.09077879 0.14613271
0002a0 6d 08 b2 bd 73 e7 5f bc 38 6f 69 3e 98 d8 fb bd
       -0.08693013 -0.013666022 0.22796333 -0.12297171
0002b0 df 32 07 3b 9a 58 c5 bd 69 e1 c7 3d 5c b8 55 bd
       0.0020629687 -0.0963604 0.097597905 -0.052177772
0002c0 2a 76 14 3e 4c 6c cc 3d 7d 70 c0 bd 6d 39 9b 3d
       0.14498201 0.099815935 -0.093964554 0.075793125
0002d0 b3 ca 0a 3e bf a6 34 3e 28 05 9a 3d 35 6c 19 3e
       0.13553886 0.17641734 0.07520515 0.14982684
0002e0 08 ca 2e 3e 24 ef b4 ba a8 9e ee 3d 02 a1 85 3d
       0.17069256 -0.001380418 0.11651355 0.065248504
0002f0 04 1f df 3b f9 4c 60 3d b8 b8 13 bd 11 2b 1a 3e
       0.0068091173 0.054760907 -0.036064833 0.15055491
000300 3a b4 40 3e 81 71 18 3e 7d f9 18 3e d0 1a fc bd
       0.18818751 0.14887048 0.14938922 -0.123098016
000310 b6 e7 50 3d c3 84 63 3d 5c 8c 7b bd 5c b0 2c 3d
       0.051002227 0.055546533 -0.061413154 0.042160377
000320 9f 13 8e bd 75 71 07 3d 5b 63 32 3e a1 1c 11 be
       -0.06937336 0.033067185 0.17420714 -0.14171077
000330 ca 54 58 3e 0f 2b 36 3e e6 9b 14 3e 81 37 a7 bd
       0.21126094 0.17789863 0.14512596 -0.081648834
000340 06 9b 91 bd 11 44 3c 3e d5 25 17 3e b1 d2 d4 3d
       -0.071096465 0.1838534 0.14760526 0.10391749
000350 37 4a 66 3d 08 00 8c bd 44 82 38 3e 10 0b f3 3c
       0.05622312 -0.068359435 0.18018442 0.029668361
000360 cf 0c 81 3d 8a d5 bf bd 8a 80 2c bd b0 c0 36 bd
       0.06301271 -0.09366901 -0.042114772 -0.044617355
000370 dc b3 10 3e c3 2e e1 3d 2a ef ad 3d a8 36 d7 3d
       0.14131111 0.10995247 0.084928825 0.10508472
000380 8b 47 0c 3e 4a 5c e6 bd 26 4f da 3d 1d ed 55 3d
       0.13699166 -0.112480715 0.106596276 0.052228082
000390 e5 10 cd 3d 70 81 1c 3e 9c 95 35 bc 8a ef 85 bd
       0.10012988 0.15283751 -0.011083033 -0.06539829
0003a0 38 ed 01 3e c0 7b c7 3d c0 6b 15 bd 6e 92 20 3d
       0.12688148 0.097404 -0.03647971 0.039202146
0003b0 24 1e cc 3d df 06 c0 bd d3 05 86 bd d4 26 68 3d
       0.09966686 -0.093763106 -0.0654408 0.056677654
0003c0 47 7b af 3d 78 44 24 bc f9 63 c1 3d 77 32 81 3c
       0.08568435 -0.01002609 0.094428964 0.015771134
0003d0 b2 5e eb 3d 3e 56 bc 3c 00 ac d2 3d 89 01 52 bd
       0.11492671 0.022990342 0.10286713 -0.051270995
0003e0 d8 f2 1e 3d 2b d3 1e be c6 5e 83 bd 01 8c 87 bd
       0.038805813 -0.15510242 -0.06414561 -0.066185005
0003f0 e9 23 90 3d 58 82 b9 bd a7 32 6a 3c b5 dd 21 3d
       0.07038099 -0.09058064 0.014294303 0.039518077

encoder.layers.2.bias f4 [32]
000000 65 6d e8 b9 50 55 8e 3e b4 27 5e 3e 42 44 9c bd
       -0.00044331994 0.27799463 0.21694833 -0.07630207
000010 b2 13 37 3e 12 d9 10 be 7a f7 f6 3c 25 9d b1 bc
       0.17878607 -0.14145306 0.030147303 -0.021681378
000020 6d 98 8c bd 00 28 8c bd e8 4a 98 3b 4d 88 a7 3e
       -0.068650104 -0.06843567 0.0046476014 0.32721177
000030 79 e0 9a bd da a3 56 bd be 24 a9 bd f7 91 46 bd
       -0.07562346 -0.052402355 -0.08258961 -0.048479047
000040 dc c8 4b bd 09 3f 71 3e 58 cd 04 bd 80 4d ad bd
       -0.0497521 0.23559202 -0.032422394 -0.084620476
000050 13 40 80 3e 2a 87 b5 bd 6d 83 64 3c 5e 9d 13 be
       0.25048885 -0.08863671 0.01394735 -0.144155
000060 e6 ee 8d 3b d7 41 42 bd 38 f6 24 bd 5b 22 cf bd
       0.0043314574 -0.04742607 -0.040273875 -0.10113975
000070 4b 9e 40 bd e4 6e 3a bd 05 4d cd bd 97 9d 08 bd
       -0.04702596 -0.04551591 -0.10024456 -0.033353414

encoder.layers.4.weight f4 [12, 32]
000000 0c 9a 8d 3d 59 8e 56 3e 47 c2 fa 3d 21 ca 4c be
       0.06914148 0.20952739 0.12244087 -0.19998981
000010 2c 2c 5f 3e 1b 97 51 be 7e e9 96 bd ca 8c 2b bd
       0.21794194 -0.20467798 -0.07368754 -0.041882314
000020 99 bd 0a 3d cf 10 51 be c6 73 3f be 8d 8b 96 3d
       0.03387222 -0.20416568 -0.18696508 0.07350836
000030 9b a3 b9 bd 99 2b 33 3d 06 83 a2 bd 9d 01 1d bc
       -0.090644084 0.04374275 -0.07935147 -0.009582904
000040 a6 60 09 be 10 7c c9 bd 17 72 c7 bc 3d f6 1b be
       -0.13415775 -0.09838116 -0.024346394 -0.15230651
000050 2f 30 40 3e 1b 7e 8b bd 6f aa 53 3d 84 2c 4f be
       0.1876838 -0.06811162 0.05167621 -0.20231825
000060 86 9c a3 bd cc 63 f4 bd cf 8b 13 bd da f5 9c bd
       -0.07988839 -0.11933097 -0.036022004 -0.0766408
000070 6f 06 bf bd b3 53 aa 3d d4 c5 47 3d 54 0e 1a be
       -0.09327399 0.083167456 0.048772648 -0.15044528
000080 be da 35 3e 9f ab 45 be fd 90 63 be c1 16 8a bd
       0.17759225 -0.1930375 -0.22223277 -0.06742621
000090 ea 72 f9 bc 41 78 5b 3e 66 56 88 3d 51 75 64 3c
       -0.030450303 0.21432592 0.06657104 0.013943986
0000a0 81 02 0b 3e f3 a8 e7 bd 16 23 a9 3c 49 49 66 be
       0.13575174 -0.113115214 0.020646613 -0.22488894
0000b0 7c e6 66 3e 65 d8 29 3e 48 49 c1 3c 24 34 50 bd
       0.2254886 0.16586454 0.023594514 -0.050830975
0000c0 43 5f 66 3e 7e a4 94 bd 45 82 35 3e c4 18 63 3e
       0.22497277 -0.07257937 0.17725475 0.22177416
0000d0 0f c4 c9 bd 32 be 17 3e 86 6b b9 bd 37 cc fe 3d
       -0.09851848 0.14818648 -0.090537116 0.12441295
0000e0 e2 0e 2a 3c 4a 5d f1 bd ce 18 45 3e 41 69 60 bd
       0.010379525 -0.117853716 0.19247743 -0.054787878
0000f0 58 ad 3b 3e 40 0a ca 3d 77 a2 96 3d c0 ae 1c bd
       0.18327844 0.09865236 0.073552065 -0.038252592
000100 b2 1b a5 3d f1 e3 5d 3d ac 30 14 3e e8 82 48 3d
       0.08061923 0.05417246 0.14471692 0.048952967
000110 d1 7c 33 3e 15 17 c2 3d 7c d5 c0 3d 78 0e e9 3d
       0.17528082 0.09477059 0.09415719 0.11379713
000120 e0 cf fe 3c 4f 22 1e be 2d 8d ef bd 1d 8c 15 be
       0.031104982 -0.15442775 -0.11696849 -0.1460423
000130 7b a9 2a 3e ea 32 31 3d 70 ec c3 bd 0c 31 25 38
       0.16666214 0.043261446 -0.09566581 3.9384744e-05
000140 a0 15 0d 3e 9e 6c 68 3e c2 5f bc bc 5e cd 35 3e
       0.1377778 0.22697684 -0.02299488 0.17754123
000150 4d 92 94 bd da 01 35 3d 4a 1d ac b9 d9 13 6c 3d
       -0.07254467 0.04419122 -0.00032828219 0.057636116
000160 6c 47 10 be 98 e0 33 bd 5f 0d a8 3b 52 c8 c0 bd
       -0.14089745 -0.04391536 0.005128547 -0.09413208
000170 e5 d7 61 3b be 4d 7f bd d2 06 5a bd e6 8f c7 bd
       0.0034460959 -0.06233 -0.05322916 -0.09744243
000180 d0 21 0f be 8b d5 7b be 1e 01 eb bb b0 f2 02 3d
       -0.13977742 -0.24593179 -0.007171764 0.031969726
000190 4e 26 31 be d2 c0 54 3e fa ba fd 3d 85 06 92 3d
       -0.17299768 0.2077668 0.123891786 0.0713015
0001a0 63 e4 fc 3d 1e 03 8a 3d 54 1f a1 bc 98 60 cf bc
       0.12348249 0.06738876 -0.019668259 -0.025314614
0001b0 01 bf 6b 3e 52 87 09 3e e0 6a 06 3e 55 1b 56 3e
       0.23022081 0.13430527 0.13126707 0.20908864
0001c0 8d e5 b7 3d b8 c1 ce bd e2 d3 cf bd de db 67 3e
       0.0897933 -0.10095543 -0.10147835 0.22642466
0001d0 f9 91 86 be 18 0a 49 3e 27 a9 e8 bc 62 5a 75 3e
       -0.26283243 0.19632757 -0.02840097 0.2396026
0001e0 e8 a0 bf bc ff e9 5f ba b1 b2 22 3e 62 cd 93 bd
       -0.023392156 -0.0008541643 0.15888478 -0.07216908
0001f0 2f bd 7b bd cd c4 48 bd da 4d ea 3d ac 41 88 ba
       -0.061459716 -0.04901581 0.1144063 -0.0010395548
000200 17 92 af 3d b5 dd da bd 6a 6d 57 3d 54 50 9b 3c
       0.08572786 -0.106868185 0.05259458 0.018959202
000210 8d d0 21 be 21 34 17 3e c2 c4 4b bc a1 6a bb bd
       -0.15802212 0.1476598 -0.012437047 -0.09151197
000220 3a aa 8f 3d 2c 11 3c 3e b5 db 9c bd bc b5 da 3d
       0.0701489 0.18365926 -0.07659093 0.10679194
000230 e9 39 1e 3e fd 89 fc bd 8e 76 f8 3d b6 a2 87 3e
       0.15451778 -0.12331007 0.121319875 0.26491326
000240 97 1f 2d 3e ec 06 12 bd 04 fd 18 be 32 a1 0c bd
       0.16906582 -0.035651132 -0.14940268 -0.034333415
000250 e7 bc 3d bd e2 ac 97 3d e0 4c 4a bd b4 f3 a7 3e
       -0.04632273 0.07406022 -0.04938972 0.32803118
000260 84 e4 30 bd af c9 5f 3b aa e2 3a 3e c0 f1 4c bd
       -0.04318668 0.0034147312 0.18250528 -0.05003524
000270 b0 9e 01 3e 54 a5 5e 3c a1 b6 9c 3d 2e e0 97 ba
       0.1265819 0.013589222 0.07652021 -0.0011587196
000280 a6 fb 20 3d d2 fb 89 be d7 d1 00 be bd 43 69 3e
       0.03930249 -0.26949936 -0.12580048 0.22779746
000290 b2 a9 36 be a0 51 ed 3d f3 41 1a 3e b3 9b a4 3d
       -0.17838171 0.11587834 0.1506422 0.0803751
0002a0 40 3b 47 3e d0 e8 e5 3d ed a7 51 3e f0 71 86 be
       0.19456196 0.11226046 0.20474215 -0.26258802
0002b0 30 8d 84 3d 22 ef 11 bd 1a c1 b4 3d 1c f6 0f 3c
       0.06472242 -0.035628445 0.08825894 0.008786704
0002c0 b4 5d c7 3d eb b7 c1 bd 5f 75 b6 3d e2 38 9e 3d
       0.09734669 -0.09458908 0.089091055 0.07725693
0002d0 da ab 80 bd 4b 99 35 bd 0b 7d 51 bd 5f c7 fc bc
       -0.06282778 -0.044335645 -0.05114464 -0.030856786
0002e0 4c 8e ff 3c e6 05 68 3e c5 2e 83 bd 55 ab c3 bb
       0.031195782 0.226585 -0.06405405 -0.005971352
0002f0 7a 2b 34 3d 91 23 ce 3d 42 a8 e8 bd 77 98 c1 3d
       0.043986775 0.100653775 -0.11360218 0.094529085
000300 80 4d 84 bd 01 e4 66 bd 3d b7 03 be c5 71 4b be
       -0.064600945 -0.056369785 -0.12862869 -0.19867618
000310 ec 95 79 bd 90 f4 26 3d a4 51 05 3c 8d 64 cf bd
       -0.060933992 0.040760577 0.00813714 -0.101266004
000320 f9 ae 86 bd d2 f0 b8 3c 8c cd a8 3c 58 f4 d7 3b
       -0.06576342 0.02257577 0.020605825 0.0065904073
000330 8d 6b 41 be 3a 89 1b bd ee 63 b7 bd d4 12 24 be
       -0.18888684 -0.037972666 -0.08954607 -0.16022807
000340 f8 9b 1d be f1 98 81 bd 87 86 16 bd 6e bc 0b 3d
       -0.15391529 -0.063279994 -0.03674939 0.034115247
000350 ef 4b a3 bd 00 d3 97 bd 90 a2 48 3c 9d 47 22 bd
       -0.079734676 -0.07413292 0.012245789 -0.039619077
000360 a0 73 0f be a4 13 ac bd e9 fe 20 be 3d bc ac 3c
       -0.14008951 -0.08402184 -0.1572224 0.021085853
000370 c2 ee a7 bd bf a1 de 3d 37 fe ef 3c 82 48 3e 3d
       -0.08199836 0.10870694 0.029296024 0.046455868
000380 69 e1 ee bc 10 1a fe 39 09 f6 7d bd e8 4b a2 3d
       -0.029160218 0.00048466073 -0.062002216 0.07924634
000390 e7 a7 1a 3c dd 56 e1 bc 7b 7c 8e bd e0 3e 99 3c
       0.009439445 -0.02750724 -0.069573365 0.018706739
0003a0 ef 1f ee bd db dd 11 3c b1 d7 b3 bd fa e8 43 bd
       -0.116271846 0.008902992 -0.08781374 -0.047829606
0003b0 4d 2c 87 3d 2f 31 fb 3d e6 f7 a4 bd e7 a6 7a 3d
       0.066002466 0.122652404 -0.080550954 0.061194327
0003c0 b5 6d 46 3d f3 64 04 be 27 08 90 bd 0a 2c f9 bd
       0.04844447 -0.12929134 -0.07032805 -0.12166603
0003d0 ea 2a 9f bd f4 15 89 bc 19 d5 ce bc 6c 84 2d bc
       -0.07771857 -0.0167341 -0.025248097 -0.010590654
0003e0 50 3f e9 3b fb 9d f4 bd 17 b7 3e bd 54 7f 85 3c
       0.007118143 -0.11944195 -0.046561327 0.016296066
0003f0 70 1d 02 bd d6 3e ba 3d fc 05 b8 3b b5 76 a0 bd
       -0.031766355 0.09094016 0.005615948 -0.078351416

encoder.layers.4.bias f4 [12]
000000 89 23 64 3e 22 a5 8b be 5d 96 65 3e 3a cc 46 bd
       0.2227918 -0.27274424 0.2242064 -0.04853461
000010 98 26 80 be 8d 69 2b be 8c f9 f8 3d fe ff da bd
       -0.25029445 -0.16739483 0.12156972 -0.10693358
000020 a5 85 87 bd 4f 6e 17 3e 92 b3 ae 3d 23 fa 05 be
       -0.066172875 0.14788173 0.08530344 -0.13083701

decoder.layers.0.weight f4 [32, 17]
000000 2b ef 1d 3e 65 e4 88 bc 23 cc 2d bd 1a fb dd bd
       0.15423267 -0.01671047 -0.042431008 -0.108389094
000010 79 5a 99 be 1c 3a 2f bb bd 14 ac 3e 89 25 45 3e
       -0.29951838 -0.0026737517 0.33609572 0.192526
000020 a2 63 b5 3c cb 83 09 be 81 71 33 be 4e 6c 88 3e
       0.022142235 -0.13429181 -0.17523767 0.2664513
000030 ae 3c 5e be 91 84 4d 3e 1e 1c 29 3e 12 82 95 bd
       -0.21702835 0.20070101 0.16514632 -0.073001996
000040 32 2c 0c 3e ee 6e 87 be e7 1e 72 3e 05 59 a4 bd
       0.13688734 -0.2645182 0.23644601 -0.08024792
000050 93 68 0b bd d3 9a 80 3e b3 f9 15 3d 17 41 f8 bd
       -0.034035277 0.25118122 0.036615085 -0.1212179
000060 c1 61 4f bd c6 29 73 3e 5e 70 56 3e 01 23 c4 bd
       -0.050630335 0.23746404 0.20941302 -0.09576989
000070 f7 66 98 be 75 ba 07 3d f6 b3 52 3e c0 d5 07 3e
       -0.29766056 0.033136804 0.20576462 0.13265133
000080 ef 60 66 bd 79 fe 70 3e 77 61 00 be 2c c5 88 3e
       -0.056244787 0.23534574 -0.1253718 0.2671293
000090 6f e8 2a 3e 04 23 93 3e e6 b6 28 3e 41 df 81 3e
       0.16690229 0.28737652 0.1647602 0.25365642
0000a0 07 c0 55 3c 27 ee 80 be 20 65 56 3e 87 c4 82 be
       0.013046271 -0.25181696 0.20937014 -0.25540563
0000b0 57 9f cd bc cb 26 89 3d 29 bf fe 3d 16 2f 35 be
       -0.025100393 0.06696852 0.12438805 -0.17693743
0000c0 d9 4f 13 be 98 3c 1d 3d 03 ad 8b be 01 fc 88 bd
       -0.14385928 0.038387865 -0.27280435 -0.06688691
0000d0 61 39 84 bc 47 d5 6d 3e 94 f7 b6 3d d5 cc e1 bd
       -0.016140642 0.2322589 0.089339405 -0.11025397
0000e0 7f 86 ed 3d 84 51 a9 3e a5 42 5f 3e 7d 25 03 be
       0.11597919 0.33070004 0.21802767 -0.1280727
0000f0 47 94 21 3e 71 66 b6 bd dd 72 72 bc 84 54 d8 bd
       0.1577922 -0.08906258 -0.014797893 -0.10562995
000100 bb 7e 28 3d 51 7f 70 be 34 ac 0a be a9 ae d3 3d
       0.041136485 -0.23486067 -0.13542253 0.10336048
000110 cf aa 09 be 3a 01 bc 3d cf 47 87 3d 40 34 28 3e
       -0.13444065 0.091799214 0.06605493 0.16426182
000120 39 4c ca 3d 5e 66 7a 3d 8a 35 a7 bc 2d 9f 0b be
       0.098778196 0.06113278 -0.020411272 -0.1363494
000130 34 29 8e be ae be a1 3d 23 c2 d4 3d 2b 88 86 3c
       -0.2776581 0.078976974 0.10388591 0.016422352
000140 7b 64 f4 bd dc df e5 bd 1c f1 cb 3d fa b5 36 be
       -0.11933228 -0.112243384 0.09958097 -0.17842856
000150 af e5 3b be 64 95 3d 3d 55 56 b0 be 5b 38 0f bd
       -0.18349336 0.046285048 -0.34440866 -0.034965854
000160 31 26 f1 3c 2a ed a5 be 75 0c df 3d 00 77 ee bc
       0.029437156 -0.32407504 0.10891048 -0.029109478
000170 2e 76 a4 3e 72 92 d8 3c 86 cd 0d 3e 6b ac 84 3e
       0.32121414 0.026437018 0.13847932 0.25912794
000180 cb 82 c8 3e 80 10 e1 bc cd b9 03 3d eb 13 f4 3d
       0.39162287 -0.027473688 0.032159615 0.119178616
000190 5c ab 56 be 8b ce de 3d da 56 37 3e c8 f4 72 be
       -0.20963806 0.10879239 0.17904225 -0.23726189
0001a0 bb 24 67 be 4c 14 a8 3d 4a ca 9c bd 59 bb 3c be
       -0.22572605 0.08206996 -0.07655771 -0.18430842
0001b0 5c 16 ac 3d 51 80 39 be 6d 85 9a 3d 7c 1b cb bc
       0.08402702 -0.18115355 0.0754498 -0.024793379
0001c0 da 70 5f bd 11 ae d7 bd 1e 2b 22 3e 3f 87 22 bd
       -0.054550983 -0.105312474 0.1583676 -0.039679762
0001d0 f0 82 2b 3e c2 1c ac 3d 87 6f 11 be 99 4a c1 3d
       0.16749167 0.084039226 -0.142027 0.094380565
0001e0 54 d9 9d be 43 0d 80 be b2 8f 0e 3e 14 4e 67 be
       -0.3082987 -0.25010118 0.13922003 -0.22588378
0001f0 5c 66 a7 3d 8a 5a f1 3d 5d 46 54 3e cf e0 cd bd
       0.081738204 0.11784847 0.20729966 -0.100526445
000200 dc 81 ed 3c 4c 82 92 bd b3 3d aa 3d 7e 2c a4 bd
       0.028992586 -0.071537584 0.083125494 -0.08016299
000210 23 57 ab 3c 40 a5 31 3e 7b 7a a3 3d c9 ad 2e be
       0.020915573 0.17348194 0.07982346 -0.17058481
000220 65 53 89 3e 59 23 07 3e cb d9 a7 3e 58 56 5a be
       0.26821437 0.13197078 0.3278335 -0.21322
000230 88 30 ab bd e7 2d 93 be cd 7c fd 3d 94 6b 38 3e
       -0.08358866 -0.28745958 0.123773195 0.18009788
000240 53 67 39 3e c5 9c b0 ba 9b 8e 00 3d a3 a2 50 bb
       0.18105821 -0.0013474455 0.031386 -0.003183522
000250 1a cc 2e 3e c2 36 5d 3d 50 56 b4 bd b1 78 79 be
       0.17070046 0.0540073 -0.08805525 -0.24362446
000260 f3 e9 b5 3c 91 3e b1 3d ad b3 9b bd cf 2c 4b be
       0.022206282 0.08654512 -0.0760263 -0.19841312
000270 8c ba b8 3d 63 95 96 be 7e 02 65 3e 77 9d 97 3e
       0.09019956 -0.29410848 0.22364232 0.29612324
000280 68 dc 5f 3e 5f ed bf 3c 0f 82 09 be ce d5 d5 bd
       0.21861422 0.023428617 -0.1342852 -0.10441171
000290 c0 40 a5 bd a3 f0 9b 3b 29 2b e1 bd db b9 98 3a
       -0.08068991 0.0047589107 -0.1099456 0.0011652069
0002a0 2e 12 49 3b 7f 2a ba 3d f2 09 1e 3e 62 53 fd 3c
       0.0030681002 0.09090137 0.15433481 0.03092355
0002b0 2d f2 5f be f7 48 17 be 1c a7 84 be fe 48 42 3e
       -0.21869726 -0.14773928 -0.25908744 0.18973157
0002c0 46 07 c0 bc 38 2e 00 3e 16 34 2d be 9b 37 58 3d
       -0.023440968 0.12517631 -0.169144 0.052787405
0002d0 90 31 38 bd bd ae 85 bc 61 e9 1d 3e 2c 94 3e 3e
       -0.04496914 -0.016318673 0.15421058 0.1861121
0002e0 94 cd 35 be 4d 23 2c 3e 96 c1 0a bd a3 fb 41 bd
       -0.17754203 0.16810341 -0.033876024 -0.04735912
0002f0 2b f2 1b be 63 11 b2 3d fc e2 42 3d 09 55 c7 3d
       -0.15229098 0.086947225 0.04757975 0.09733016
000300 c5 0c 5f 3e 26 72 a1 3e f6 7d 43 3d db 2f 1d be
       0.21782215 0.315324 0.047727548 -0.15350287
000310 77 78 65 bd 9e 21 93 bd b1 06 d6 3d 1f 8c 4e 3d
       -0.056023087 -0.07184146 0.10450495 0.0504266
000320 13 2f 8c 3d 1d 19 9f be d4 ed a5 be 6b bc 31 be
       0.06844916 -0.31073847 -0.3240801 -0.17357032
000330 58 e2 bb bd 9e 46 e0 3d 05 b4 91 3c 48 00 79 3d
       -0.09174031 0.10950969 0.017786035 0.060791284
000340 f1 39 cc 3d 2a 30 b5 3d 7b 4d 6d bd b9 a9 ca bd
       0.09971989 0.08847077 -0.05793522 -0.09895653
000350 d5 9d 88 be 09 6b 7e be 8f a9 0c 3e 3d 0f 8e 3e
       -0.26682916 -0.24845518 0.13736556 0.27746
000360 40 f9 4e 3d 8e 55 b3 bc e9 2a 43 3e 3c d7 6b bd
       0.050530672 -0.021891382 0.19059338 -0.05757831
000370 c7 e4 8b bb 63 e8 ec bd 86 8b 4d 3e ff ad 79 3e
       -0.0042692157 -0.11567762 0.20072755 0.2438278
000380 cd aa 8b 3e 31 31 c7 bd a7 a9 ad bd ef 41 43 bd
       0.27278748 -0.097261794 -0.08479624 -0.0476703
000390 09 a1 d3 bd 15 2d 91 bd 9b 77 55 be 5a 6e 00 be
       -0.103334494 -0.07088677 -0.20846407 -0.12542096
0003a0 19 2a 02 be a6 f0 f3 bd 16 ef 4e be 0a b5 03 3d
       -0.12711371 -0.119111344 -0.20208392 0.032155074
0003b0 84 7a 63 3e f6 76 0b 3e 5b ef 9e 3a 41 96 80 be
       0.22214705 0.13619599 0.0012125777 -0.25114635
0003c0 58 8c 4a 3e df 96 af be e1 58 55 3d 7e b0 d5 bd
       0.197801 -0.34294793 0.052086715 -0.10434054
0003d0 24 bf 81 3d 19 9f c7 3e 18 a9 7b 3d 8c 50 aa bd
       0.06335285 0.3898857 0.061440557 -0.08316144
0003e0 31 f7 03 bd 8a 89 20 3e ca 44 6c be 3d 65 36 3e
       -0.032218162 0.15677467 -0.23073116 0.17812057
0003f0 2c 09 77 bd 6e 66 fc bc f6 2b 3f 3e 8a cc 00 3e
       -0.06031148 -0.030810561 0.18669114 0.12578025

decoder.layers.0.bias f4 [32]
000000 4f a0 8c 3d 4c 55 80 bd 8d 8f 30 3e 49 dc b8 3d
       0.06866514 -0.06266269 0.1724226 0.09026391
000010 bf d1 fd bd 58 74 52 3e 37 62 37 3e b6 03 9d 3e
       -0.123935215 0.20552194 0.1790856 0.30666894
000020 ac 5b 6c 3e 56 a1 56 3e d7 f5 8b 3d 79 d6 ea 3c
       0.23081845 0.20959982 0.068339996 0.028666722
000030 08 64 ee bd a6 59 0f be 78 8f 3e 3e b1 60 a8 3e
       -0.11640173 -0.13999042 0.18609416 0.3288627
000040 f4 a2 f5 bd e3 9a 9e 3e 7c a4 ad 3e cd 7d 03 3e
       -0.119939715 0.30977544 0.33914554 0.12840958
000050 4d 70 f4 3d 0e d8 12 3e b0 04 a3 3d ec e1 84 3e
       0.11935482 0.14340231 0.079598784 0.25953615
000060 34 7f 36 be 2d 66 40 be 98 58 99 bd 32 0d b7 3e
       -0.17821962 -0.18788977 -0.07487601 0.35752255
000070 89 76 4b 3e 15 81 24 bc f3 1c 8c 3e da f9 df 3e
       0.19869436 -0.010040541 0.27365837 0.4374531

decoder.layers.2.weight f4 [32, 32]
000000 d1 d4 f1 bc 29 1d 8c 3e f4 2a 22 bb a3 c8 1b 3e
       -0.029520424 0.27365997 -0.002474484 0.15213256
000010 81 42 78 3e 9c 6a d0 3d 53 5d 06 3e 6b f5 3f bd
       0.24244119 0.10176584 0.13121538 -0.04686491
000020 1c 89 3a 3e 07 93 79 be 01 5d 12 3e 88 ef cc bd
       0.18216366 -0.24372493 0.1429329 -0.100066245
000030 5c 50 f7 3c ef 27 68 bc 40 9f a4 bc 75 ec de bd
       0.030189686 -0.014169677 -0.020095468 -0.10884944
000040 0f 72 bb 3d eb 74 a1 3d 10 cd 2e bd e1 97 55 3e
       0.09152614 0.078836285 -0.04267603 0.20858718
000050 eb 5f c8 3b 9a 0c 12 bc 06 ba 09 3e bb 8e c8 bd
       0.00611495 -0.008914137 0.13449869 -0.09792849
000060 8e ae 18 bd 6b 21 69 3e 0e 71 2d 3e d4 4c 17 3e
       -0.037275843 0.22766654 0.16937658 0.14775401
000070 43 9b 09 3e 1a 6c 35 be c6 d4 b6 bc 3b 4b 15 bd
       0.13438134 -0.17717019 -0.022318255 -0.0364487
000080 6b f1 e9 3b 3e 1b ad 3c 36 7c 2d 3d 80 d4 5a bc
       0.007139375 0.021131154 0.042354785 -0.013356328
000090 2e 83 fc 3d 06 bd 00 be c8 a9 2e be 8f 3b e5 3d
       0.12329708 -0.12572107 -0.17056954 0.111930005
0000a0 e7 e9 2d be 95 86 b4 3c 58 a3 d0 bb c7 59 d4 3a
       -0.16983758 0.02203683 -0.0063671283 0.0016201072
0000b0 10 d2 3c 3e 3d a7 5b 3e dd 24 b9 bd 83 b0 81 bd
       0.18439507 0.21450515 -0.09040234 -0.06332495
0000c0 90 53 0f be f3 20 86 bc 02 f4 3d 3d b9 27 1b be
       -0.1399672 -0.016373133 0.046375282 -0.15151872
0000d0 23 49 1f 3c c8 30 81 3d 65 24 45 3d de 1e a0 3d
       0.009722027 0.063081324 0.04813041 0.078183874
0000e0 b2 79 85 3e ae 70 0e 3c e1 41 97 3c c2 20 58 bd
       0.2606941 0.008693857 0.01846403 -0.052765615
0000f0 eb 24 84 bb 06 03 4b 3e 58 06 e4 3b 70 cb 9f 3b
       -0.0040327213 0.19825372 0.006958764 0.0048765466
000100 4e 37 77 bd 98 a4 c9 3d 11 eb 7d bd de fb 5c 3b
       -0.060355477 0.09845847 -0.061991755 0.003371946
000110 be 44 2f be a8 9e 29 3e 9f d5 c7 3d d7 13 24 3e
       -0.17116067 0.16564429 0.09757542 0.16023193
000120 f1 04 1a 3e bf 07 23 bd c7 27 02 3e 05 bf 9e 3d
       0.15040947 -0.03980231 0.12710486 0.07751278
000130 b0 3f f3 bd 66 83 01 3e d9 ed 06 3e b2 16 c6 3d
       -0.11877382 0.12647781 0.13176669 0.096722975
000140 4b 55 cb 3c 3b f9 55 3e 1f 6a 67 bc 2a 4e f2 bc
       0.024820944 0.20895855 -0.014124422 -0.029578287
000150 f5 8c 1c be 1d 88 1c bd 0a 04 15 bc bf 7a 59 3e
       -0.15288146 -0.038215745 -0.009095201 0.2123823
000160 e0 40 f5 bd c6 86 54 3d bb a2 dd 3d e6 36 08 3e
       -0.119752645 0.051886342 0.10822054 0.13302192
000170 89 f5 3b 3e b0 bb c4 bd 22 07 19 bc ca 68 dd 3d
       0.18355383 -0.09606111 -0.0093400795 0.108110026
000180 f2 f6 60 3b 27 a8 a2 3d 03 27 71 bd 33 f7 19 3e
       0.0034326878 0.07942229 -0.058875095 0.15035705
000190 33 47 a1 3d a0 64 69 bd db 9f 93 3d 23 81 e5 bd
       0.07874908 -0.05698073 0.072082244 -0.112062715
0001a0 e4 c3 7b 3b e0 ab 41 3e 15 d9 d9 3d 08 6b 95 bd
       0.003841632 0.18913221 0.10637108 -0.07295805
0001b0 5d d9 0b 3e 1d 4e 2e bd 52 1f 79 bd b9 33 84 3d
       0.13657136 -0.042554963 -0.060820885 0.06455178
0001c0 57 9e f9 3c 70 0c 7d 3e 76 20 ab bd 11 0f 8b bd
       0.03047101 0.24711776 -0.08355801 -0.06789983
0001d0 12 c6 4b bd 4d 5d 93 3d 66 9f 18 bd 6a 4a 86 3c
       -0.04974944 0.0719553 -0.03726139 0.016392905
0001e0 de 36 4b 3e 65 67 dd bd 50 89 17 3e 9b cd 9c bb
       0.19845149 -0.108107366 0.14798474 -0.0047852523
0001f0 67 25 50 3c 7c e3 4f 3e be ae 4a 3e af ad 24 3e
       0.01270423 0.20301622 0.19793221 0.1608188
000200 5c 8a 74 3e f0 f5 cd 3c b6 8f 08 bd e2 fc 7b 3c
       0.23880905 0.025141686 -0.03334018 0.015380116
000210 10 bd 29 be 89 47 39 3d 11 3e 60 3e d7 29 81 3c
       -0.16576028 0.045234237 0.21898676 0.015767021
000220 75 0f 53 3d ba 64 69 3e 0a 6f bd 3d f3 95 e5 3d
       0.051528413 0.2279233 0.09249695 0.11210241
000230 00 89 e7 bd 70 45 d0 bd 16 30 af 3e 32 d8 91 3e
       -0.113054276 -0.10169494 0.34216374 0.28485256
000240 cc 56 de bc 41 5d 12 3e 92 54 8b 3e fe b8 84 bd
       -0.027140997 0.14293386 0.2721296 -0.06480597
000250 bb 8f 19 bd 11 74 4b 3e 70 30 67 bc 57 ab 5e 3e
       -0.037490588 0.19868495 -0.0141106695 0.21745048
000260 2d 67 c8 bd 03 df 2b be 17 06 ae bb e9 4c 64 3e
       -0.09785304 -0.16784291 -0.0053107846 0.22294964
000270 3e ef 77 3d 54 11 9c 3d 63 59 68 3e d7 e1 0c 3e
       0.060530894 0.076204926 0.22690348 0.13758026
000280 dd db 99 3d b5 7e 0e 3d 7d 77 31 bd e9 f7 9f 3d
       0.07512639 0.034788806 -0.043326844 0.07810957
000290 76 71 2a 3d d8 ee 14 3b b7 38 c6 3d 45 d1 a7 3d
       0.04161211 0.002272537 0.09678786 0.08194212
0002a0 7a d1 8f ba e4 56 f9 bd a9 8c 00 bc 60 8c 6d bd
       -0.0010972463 -0.12174776 -0.007846036 -0.0579952
0002b0 28 82 4f 3e 50 99 23 3d 4f f0 1f 3d 4a c7 ce bd
       0.20264494 0.039941132 0.039047536 -0.10096605
0002c0 d5 0d f9 3d a6 d7 55 bd d9 8b 50 3d e5 2d e0 3d
       0.121608414 -0.05220761 0.05091462 0.10946254
0002d0 38 bd 94 bd b2 5f 2a 3e f5 9c 50 3e c9 25 89 bc
       -0.07262653 0.16638067 0.20372374 -0.01674165
0002e0 6c 5f 1a 3e 61 ee 2e 3d ff c7 93 bd aa 2c cf bd
       0.15075463 0.042707805 -0.072158806 -0.10115941
0002f0 11 6e 45 bc ba 57 36 be da 76 3a 3e ba 26 8e 3d
       -0.012050168 -0.17806903 0.18209401 0.0694098
000300 e6 ec dd bc e8 3b 51 3e 0e f1 c4 3d f2 71 3a 3e
       -0.027090501 0.20433009 0.0961629 0.18207529
000310 cb e9 3f 3e 12 9d 82 be d0 21 38 3d 05 1f f0 bd
       0.18741529 -0.2551046 0.04495412 -0.117246665
000320 83 93 24 be fc 6b 0e be fd cd 16 3c 52 73 3e 3e
       -0.16071896 -0.1390838 0.009204385 0.18598679
000330 8e 57 f1 3d d3 41 9d 3d 47 67 ca 3c 8a 0c d7 3d
       0.11784278 0.076785706 0.02470745 0.105004385
000340 21 1e 3c 3e a4 31 29 bc a9 01 c2 3d ea 9a bf 3d
       0.18370868 -0.010326777 0.09472973 0.093557194
000350 71 c6 a6 bd 03 2e 96 bd 4c 77 57 3e 2d b3 ac bc
       -0.081433184 -0.07332995 0.21041602 -0.021081531
000360 5e 0e 0b 3e 14 57 21 3e ee 69 87 3d 5c 2d b6 3d
       0.135797 0.15755874 0.06612001 0.0889537
000370 e9 a0 f2 bd b5 58 50 3e 41 6f a8 3d 4c 19 6f 3e
       -0.118470974 0.20346339 0.08224345 0.23349494
000380 99 b2 39 3e 86 f4 8b 3d 2c d0 0a be ff 88 7d bd
       0.18134536 0.068337485 -0.13555974 -0.061898228
000390 b5 47 47 be 97 27 0e 3e d5 8e cc 3d 21 8a 37 3e
       -0.19460948 0.1388229 0.099881805 0.17923786
0003a0 40 23 34 bd 03 b3 3f 3e f6 f5 3e 3e c6 3e 8b 3b
       -0.04397893 0.18720631 0.18648514 0.0042494265
0003b0 61 cc 2f 3d 93 22 c1 3d ee 59 42 3e a0 72 49 3e
       0.04291952 0.09430423 0.18979618 0.19672632
0003c0 11 0f fd bd 37 51 b7 bc 89 66 02 bb c4 4b a2 3c
       -0.12356389 -0.022377593 -0.0019897541 0.019811518
0003d0 68 0d 19 bd 53 c5 68 3d 1f 4f fa bc 0d b4 6e 3e
       -0.0373663 0.056828808 -0.030555306 0.23310871
0003e0 63 5b 2e be d5 df 0e bd f1 1b 29 bd 9d 2c 32 3e
       -0.17027049 -0.03488143 -0.041286413 0.17399831
0003f0 b3 dd 14 3e 7e ea 99 3d 66 f2 b9 3d 34 ec a9 3d
       0.14537697 0.07515429 0.09079437 0.08297005

decoder.layers.2.bias f4 [32]
000000 55 50 00 be 59 82 8b 3d 05 e4 0a 3e 78 1d ad bc
       -0.12530644 0.06811971 0.13563545 -0.021132216
000010 1c 58 28 3d 6d 8d 02 be d5 3b b5 bd 1c 0a 67 bc
       0.041099653 -0.12749262 -0.08849303 -0.014101531
000020 6c ca 06 3e 75 ee 82 bd a3 c9 92 3d bd 38 68 bd
       0.13163155 -0.06393138 0.071673654 -0.056694735
000030 33 dd 11 3e a8 de dd b7 0f f1 91 3d 31 5c 4f 3e
       0.14244537 -2.6448935e-05 0.071260564 0.20250012
000040 ff 6e 30 3e b3 95 3c bd 56 85 76 3e aa 91 a1 3e
       0.17229842 -0.0460412 0.24074301 0.31556445
000050 0d 1b 0a bc c1 3f 0d 3e bf f9 55 3e da 26 5e 3e
       -0.008429301 0.13793851 0.20896052 0.21694508
000060 d3 09 1a be a3 fc a1 3d 3a 8d 85 3e 68 1a 64 3e
       -0.1504281 0.07909515 0.2608431 0.22275698
000070 66 5a 0b 3e b8 34 ff bc 4c e5 2b bd 9c 90 f3 bc
       0.13608703 -0.031153068 -0.04196672 -0.029732041

decoder.layers.4.weight f4 [24, 32]
000000 fa 81 ed 3d 2e 83 df bd d9 d5 b4 3d f4 77 a5 bd
       0.11597057 -0.109136924 0.08829851 -0.0807952
000010 77 b1 ed 3b 6e 04 87 bc d2 bc c7 bd c8 71 0f bb
       0.0072538215 -0.016481604 -0.097528115 -0.0021887887
000020 f5 e6 e3 bc 44 9e 39 bd 25 60 08 bd d1 b0 c8 3c
       -0.02782009 -0.04531695 -0.033294816 0.024498375
000030 b9 80 66 3d 01 4a de 3c a5 1c 80 3d f0 7f a9 3d
       0.056275103 0.027134897 0.062554635 0.08276355
000040 94 98 ce bd bd ee 1f 3d ff 5b 54 3d d5 7c bf bd
       -0.10087696 0.039046038 0.051845547 -0.09349982
000050 c5 48 9e 3c 60 7e 03 be a8 6f e3 3c 72 8f b1 bc
       0.019321809 -0.12841177 0.027763203 -0.021674845
000060 78 0d a3 3c d8 38 84 bd 61 af 45 3d e8 f4 a7 3c
       0.019903883 -0.064561546 0.048262957 0.020502523
000070 82 fa 84 3b 8a 6f 6f 3c 7d 01 7f 3d 7e 25 2e 3d
       0.004058183 0.014613995 0.06225728 0.042516224
000080 bc d2 61 bd 31 9f a8 3d c7 65 d2 3d f4 c2 72 bd
       -0.055132613 0.08233488 0.10273319 -0.059267953
000090 ec 08 8c 3d 2f 02 ac 3d b1 58 19 3d 4e c8 29 be
       0.06837639 0.08398854 0.0374381 -0.16580316
0000a0 92 73 0f be be 70 d1 3c 43 38 9e 3c dc 9a ea bd
       -0.1400893 0.025566455 0.019313937 -0.11455318
0000b0 72 43 85 3d db ee a8 3d ed 49 9a 3d 9a 58 79 3d
       0.06507005 0.08248683 0.075336315 0.060875513
0000c0 fe 4d d9 3d 99 2b 3b bc e8 3b 81 3b 73 c5 22 bd
       0.10610579 -0.011423969 0.003943909 -0.039739083
0000d0 4d 05 19 3e 70 85 ca bd 95 97 f6 3d 56 bd 3d 3d
       0.14943428 -0.098887324 0.12040631 0.046323143
0000e0 f5 8c c9 bd bb 47 bb bd 57 7f 97 3b 24 9a 80 bd
       -0.098413385 -0.09144541 0.0046233344 -0.062794
0000f0 ea ac 51 bc 45 4f 86 bc 64 9b 84 3d d3 e0 11 be
       -0.012797574 -0.01639522 0.06474951 -0.1424592
000100 54 b9 ee 3c 61 9e b7 3d a3 9c 6a bd f4 9b f8 bd
       0.029141106 0.08965755 -0.057278287 -0.12139121
000110 15 0c 7f bd ec 83 22 3d c5 d0 9a 3d 65 80 ba 3c
       -0.06226738 0.03967659 0.07559351 0.022766301
000120 a6 7c dd 3d bf 19 f3 bd a5 fe 1c 3d 5b 06 93 bd
       0.108147904 -0.11870145 0.038328785 -0.071789466
000130 19 f2 f4 3d 80 3a 8c bc b9 07 ac bc 5f 59 c3 3d
       0.11960239 -0.017117739 -0.020999776 0.095385306
000140 ce 47 38 bb 26 cf 36 3e d8 b2 0b bc e7 c9 23 bd
       -0.002811897 0.17852458 -0.008526526 -0.03998747
000150 10 d4 b3 3b 0b 52 09 be 75 c8 15 3e 44 46 8a bc
       0.0054879263 -0.13410203 0.1462725 -0.016879208
000160 69 d3 27 bd 1a 36 b3 3a d0 3e 0e 3d 3c de 99 bc
       -0.0409731 0.001367274 0.03472787 -0.018782727
000170 32 03 2c 3d cc 39 31 39 f9 18 b3 bd e5 fa 0d bd
       0.041995235 0.00016901566 -0.087449975 -0.0346631
000180 08 98 e1 3d e2 62 b5 3c b9 81 c9 3c 31 57 04 3d
       0.11015326 0.022141878 0.02459799 0.032309715
000190 40 18 c3 bd 83 f2 2c 3d 21 54 ab bd 07 79 0f bd
       -0.0952611 0.042223465 -0.08365656 -0.03502753
0001a0 fc e3 20 bc 63 eb b3 3d 76 07 ea bd 3d fa 09 bd
       -0.009819981 0.08785131 -0.11427204 -0.03368591
0001b0 2c 99 fb 3d 82 a6 7a 3d 0e 22 4a bd 41 b2 01 bd
       0.122850746 0.06119395 -0.049348883 -0.031664137
0001c0 1d 84 00 3c 6b 7d be bd 23 ba 30 bc 58 5b 1d 3d
       0.007843998 -0.09301265 -0.010786566 0.03841719
0001d0 2d da 76 bd 13 8c 10 be 30 52 03 3e 20 20 18 3d
       -0.060266662 -0.14115934 0.12824321 0.03714001
0001e0 a8 61 fc 3d 7b 42 c6 3d 79 24 ff 3d 28 94 17 bd
       0.12323314 0.09680649 0.124581285 -0.037006527
0001f0 f4 57 9e bd 80 70 3e 38 86 1f 94 3d 67 52 a9 3d
       -0.077316195 4.5404304e-05 0.07232575 0.0826767
000200 d6 b3 d1 3d 30 c8 83 3d 81 ae 28 bd a3 6f 5a 3d
       0.10239379 0.06434667 -0.041182045 0.05332912
000210 8f d3 c5 bd d6 cb 8d bd 71 e7 57 3d c1 03 cb bc
       -0.09659492 -0.06923644 0.052710954 -0.024782063
000220 80 f0 97 3d 6b fe 28 3d 67 05 e2 bc be 08 5c bd
       0.074189186 0.041258257 -0.027590467 -0.053719275
000230 c0 6c ef bd 0d 24 1e be 04 a2 6c 3c bb aa 27 3d
       -0.11690664 -0.1544344 0.014442924 0.040934306
000240 70 f1 d6 3d d7 8a 32 3e 2c c2 5b 3d f7 b4 97 bd
       0.10495269 0.17435776 0.053651974 -0.07407563
000250 84 b4 2a bd 33 d0 d3 3a 44 97 cc 3d 9f 94 6d 3d
       -0.04167606 0.0016160071 0.09989789 0.058003064
000260 8d 9e a1 bd e0 11 95 3d 61 a1 2b 3d 17 bc 9e bd
       -0.07891569 0.072788 0.04190195 -0.07750719
000270 77 49 bb bd 4a d7 bb b9 31 fe f8 bd 7a 8a dd 3d
       -0.09144872 -0.00035827822 -0.12157858 0.10817428
000280 e5 c6 f2 3d e0 b5 fb bd 20 29 3a bd fb 81 4f 3c
       0.11854342 -0.12290549 -0.045449376 0.012665267
000290 4d 84 b5 bd e9 52 16 be 65 1c 93 bd 10 74 25 bd
       -0.08863125 -0.14680065 -0.0718315 -0.04039389
0002a0 fa 72 0a 3e 7d 8f 7c bd 98 59 c2 3d 9f 98 a9 bc
       0.13520423 -0.06166028 0.09489745 -0.020702658
0002b0 1c 20 a0 3d 77 d9 1c bd f9 fa 7c 3d a5 93 d2 bd
       0.078186244 -0.038293328 0.061762784 -0.10282067
0002c0 f2 2e 0b 3e 3b 82 3e 3e 80 10 92 bd cd f7 98 bd
       0.13592127 0.18604366 -0.071320534 -0.07469139
0002d0 2e 02 8f bd a6 de 73 bd 9b 43 9c bd f9 5e 28 3d
       -0.069828376 -0.059538506 -0.07630082 0.041106198
0002e0 fc b3 ab 3c 7a 2f cf 3c 25 76 23 3e 22 c7 0c be
       0.020959847 0.025291193 0.15963037 -0.13747838
0002f0 ea bc e9 bd 5d ee e9 ba 1d b4 a6 3d ca 76 a4 3d
       -0.114129856 -0.0017847527 0.08139823 0.0803047
000300 01 19 10 bd c5 03 01 be ed 9c 0f be f4 2d 88 3c
       -0.035180096 -0.12599094 -0.14024706 0.016623475
000310 3b be 14 be df e7 1f 3e 47 ac de bc fd 2d cf 3a
       -0.14525692 0.15615796 -0.027181758 0.0015806552
000320 30 ff bf bd f9 85 8c 3d ab 1f 06 be ee 02 2c 3c
       -0.09374845 0.06861491 -0.13098018 0.010498745
000330 59 6c bf bd 86 c7 95 3d db 35 e2 3b b2 b6 db bd
       -0.093468376 0.07313447 0.0069033927 -0.10728206
000340 ac da 9d 3d bc 25 f0 bd 8c 76 3b 3e 9a 68 a2 bc
       0.07707724 -0.11725947 0.18306941 -0.019825269
000350 5a e2 f3 3d d4 34 00 3e 18 08 16 3b 8c eb 2d 3c
       0.119084075 0.12520152 0.0022893008 0.010615241
000360 be 15 06 3d a8 1c af 3b 39 c3 a7 bc 7d f8 19 3e
       0.03273558 0.0053439923 -0.020478832 0.15036197
000370 1f 23 44 3d 8c 62 40 b8 70 d3 fc bd d5 e1 af 3d
       0.047885057 -4.5868146e-05 -0.12345016 0.08587996
000380 13 4d cf 3d 79 cc dd 3d e3 07 4d be 13 b9 94 bd
       0.101221226 0.10830016 -0.2002254 -0.072618626
000390 44 91 94 bd 4b a5 a8 3d 89 6d 5d bd b1 c3 ec 3d
       -0.0725427 0.08234652 -0.05405954 0.11560763
0003a0 90 62 1b 3d 50 10 f1 bc 3f f1 a2 bd c4 d4 c5 3d
       0.037935793 -0.029426724 -0.0795617 0.096597224
0003b0 cb f2 48 3d d3 6f ce 3d b3 b7 5c 3a 1b 2e 22 be
       0.04905967 0.100799225 0.00084197073 -0.158379
0003c0 fc 07 85 bd 49 1c d0 3d 4b 61 f3 3d e4 dd 57 3d
       -0.064956635 0.10161645 0.118837915 0.052701846
0003d0 d4 ae 12 be fc 2f b9 3d f5 d7 9c 3c 75 7b e6 bd
       -0.14324504 0.090423554 0.019145945 -0.11254016
0003e0 1b 50 73 bd ce f9 20 be 58 74 ef 3d d6 dd 1a be
       -0.059402566 -0.15720293 0.11692113 -0.15123686
0003f0 c9 85 c8 bd d2 e6 11 bb e3 88 a2 3d a4 d1 e2 3d
       -0.097911425 -0.0022262824 0.07936265 0.11075142

decoder.layers.4.bias f4 [24]
000000 ef 54 a1 3d 44 01 fc bd 81 0a 03 be 34 de 58 bd
       0.07877528 -0.12304929 -0.12796976 -0.052946284
000010 c2 ff dc bd 96 9a 9d 3a aa 3a c8 3d 1b 4e e3 3d
       -0.107909694 0.001202422 0.09776814 0.11098882
000020 bc bb ea 3c 43 d2 aa bd 9d 4c fe bc 57 67 da bd
       0.028653972 -0.083408855 -0.031042391 -0.10664242
000030 fc 70 04 be 82 34 ca 3d 1e de e0 bd 87 ba c6 bd
       -0.12933725 0.09873296 -0.109798655 -0.09703546
000040 b7 39 b7 3d ca b7 cf bd 5f 2c 7d 3d 9d b3 1d 3d
       0.08946555 -0.10142477 0.061809894 0.03850137
000050 1f 52 1f be 02 63 1e bd 01 fe 61 3d 44 43 21 be
       -0.1555867 -0.03866864 0.055173878 -0.15748316
