m4_ws/src/morphing_lander/learned_models/2024-05-15_17-17-39/model_90.pth (torch, 33518 bytes, 22 tensors)

cond_normalizer.mean f4 [11]
00000000: f38d b5bf 990a fabc 84cf f8b9 aa6f 453a
00000010: 9845 d73c 6214 83ba de3a ddbb 64d1 073f
00000020: 0859 0a3f 3ed2 073f fb36 0a3f
-1.4183944 -0.030522631 -0.00047456857 0.0007531593 0.026278302 -0.0010000581 -0.0067514023 0.5305388
0.540421 0.5305518 0.53990144

cond_normalizer.variance f4 [11]
00000000: 474c e93f 6680 b33b dcba a73a 1e95 073b
00000010: 0c40 2d3d dae9 383d fea5 d33e b299 7c3c
00000020: 16eb 923c 9176 823c ee67 903c
1.8226403 0.005477953 0.0012796777 0.0020688246 0.042297408 0.045144893 0.4133758 0.015417503
0.017934363 0.015925677 0.017627683

output_normalizer.mean f4 [12]
00000000: d039 85bb 3bb1 37bb 2fb6 6e3c 2801 23b8
00000010: 99ce 603b 08db 573a 8a94 fa3b 6b37 123c
00000020: 0943 4540 cbac 3a3c d8ee 1b3f 3b4d d73a
-0.0040657297 -0.0028029222 0.014569803 -3.8863305e-05 0.003430283 0.00082342373 0.007647102 0.0089243455
3.0822165 0.011393736 0.6091132 0.0016426215

output_normalizer.variance f4 [12]
00000000: 6e0d f53d 726d 8e3d d24a 283e 555b 243a
00000010: bb21 673c 91dc 8a3c 0aa0 9c3e eadc 0a3f
00000020: 647d 7242 7266 ef41 1433 e340 cd54 183f
0.11965452 0.06954469 0.16434792 0.0006269713 0.014107163 0.016950877 0.3059085 0.5424334
60.62245 29.925022 7.099985 0.59504396

encoder.layers.0.weight f4 [32, 23]
00000000: 66f1 1dbb afe9 213b 7015 f23b f4dd 37bd
00000010: 5dd5 763e 714c 7abe a85d 303e cf21 573e
00000020: 5da8 15bd 959d 9dbe cb57 42be a8eb c73d
00000030: b996 6b3c e00a 883d 781a c3bc 74c0 933c
00000040: c3f8 7d3d 9aa4 3d3d cf60 913a 48ae 00be
00000050: 9dea a83d c40c c53d 0048 56bd 8cbb 90bb
00000060: 33dd 0dbc b93a 463b 427d 3dbe 3ee3 28bd
00000070: ccf0 9ebe d33a 253e 75cb e7bd 3a5f 8a3c
00000080: 9aaf b23d eae6 3d3e 8ea0 6f3d 8bd6 5dbb
00000090: f235 8e3c 98db 40bd 2b27 d43d 871b aebd
000000a0: cd3c 59bd 81fc 993a 31e2 51bd ae88 87bd
000000b0: b9d9 fe3d 61c4 cabc e856 39bd e878 0e3b
000000c0: ca74 fc3d 4cd3 07bd 8d49 953c 648b a33d
000000d0: 7224 c2bd 46a4 853e 2c70 2e3d 7e4c 8ebe
000000e0: ae22 5f3e ad41 52be 3bac 573d c8be 033d
000000f0: 7f22 fabd 4862 8fbe 8dbe e93c a327 a23d
00000100: b4ae c7bc 45d9 e43d 8d3f ce3c 4e80 06be
00000110: 93ed a0bc 7f5d 883c 01e3 c7bd b290 16bd
00000120: 0b7d e8bd af2c 46be de18 b43c 6f74 38be
00000130: 1ed0 25be be26 df3c c0fc 1bbe 7339 02be
00000140: 615a a23c 5984 043d e97a c7bd 0cae 92bd
00000150: acd3 b23d 6f29 b43b 123a b5bc 1aa1 43bc
00000160: e921 003d 4bcd 96bc 49bf 1ebd 130f d03d
00000170: f47c fcbb 43a9 73bb 20b1 0fbb b459 8d3d
00000180: 7bd7 b9be 8836 3dbd 429c e3bd 4053 693e
00000190: 0b4c 0f3d 807b af3c 4fe9 373e fea6 6fbe
000001a0: 8c8a ab3b 721a 1e3c ad11 023d f18b 5ebe
000001b0: f41e ee3d 4bc2 2cbd 9ce8 c3bb e846 a63d
000001c0: 90ac 26bd a0b3 863d b436 e4bd c76b 47ba
000001d0: 5e17 723b b89a d0ba cb67 29be 257b 723e
000001e0: 0b67 c43e 65d3 09be 3abb a4be d524 963c
000001f0: 1ea5 9bbd 1dc6 b03d 83ef 80be acaa 1dbb
00000200: 24f2 1e3c d221 e13d 3be2 853d 517a ca3c
00000210: befb 2a3d 9c4a e33b 3bc2 a9bd 2397 0e3a
00000220: 418f 853d 3feb 693c 988d 5ebc c617 50ba
00000230: f89f 9b3b 8077 d43d 618f 503c 5509 e83c
00000240: 68bf e13d 7256 a23e 3c5f 043d 72df 093e
00000250: 3a07 163e d3f1 db3d 70bd 9ebc 53d1 233d
00000260: a9db 8a3e 31dd a53e 7b74 883d f864 25bb
00000270: a1a1 233c f0df 213e 4d92 1bbe 34a2 cebd
00000280: d04d ba3d e59a 0e3d 13e6 24bb 8c92 f63c
00000290: 328b 3bbe a838 ef3d 86cb 95be d35e 28be
000002a0: bd3f 863e d080 0bbd 611a 31ba 3e6e 28be
000002b0: d482 53bd a30c 5d3c b03c 7e3c 1d80 03be
000002c0: 60b2 c43c de01 943d 2a0c 69bd 061b abbb
000002d0: 54b0 de3d 2db5 193d cc18 bbbd 721f 7fbd
000002e0: 8ae8 3c3b e18b 523d 5f85 04bd 1740 41be
000002f0: 1530 80be 7a30 8c3e d39c c13d 8042 8c3e
00000300: 8770 133d 3f7e 913e 3882 eebb a539 0dbe
00000310: 2a19 44bc 2c14 123e 2d1f 2a3e fb42 45be
00000320: c445 5cbd 8deb 1b3d 3584 fabb 3792 0dbe
00000330: 394a 06bd 7e10 da3d 190e 9b3d 870b 1a3d
00000340: 5f47 1b3e 945f 363c 728b 143d 9b2c 82bd
00000350: 17e9 053e 7581 013e abe1 42bd 4c4a c63c
00000360: 2068 84bd 0f86 243e 51cb f93c f984 81bd
00000370: 7015 e7bc b96f 163e 2ce4 c9bc b3c4 8cbc
00000380: 03eb 0a3d 96db 1fbd f711 e93d 6c78 81bd
00000390: c5f0 3d3e 5d65 5b3c 03e8 8ebd 338c d43d
000003a0: 2b17 d0bd 302c ec3d deb6 53be 0464 3bbe
000003b0: d369 5abd d0b9 fb3d d8fe bc39 5b0c 71bd
000003c0: d7df 43be 4676 c8bc 3070 10bd 669c ad3d
000003d0: f6ae 873d 1f65 46be 88f0 b33d ff5a 1dbd
000003e0: 8b1c 433d ab06 323e aab3 d73b b9b3 123e
000003f0: 49c4 78bd 4a76 26bd 1f76 ccbb 2287 103d
-0.0024100184 0.0024705937 0.0073878095 -0.044889405 0.24104829 -0.24443223 0.17223227 0.2100899
-0.036537517 -0.30784288 -0.18978803 0.09761745 0.014379197 0.06642699 -0.023816332 0.018036105
0.062004816 0.046299554 0.0011091473 -0.12566483 0.08247874 0.096215755 -0.05231476 -0.0044168886
-0.008658695 0.0030247404 -0.18504813 -0.04123234 -0.31043088 0.16135721 -0.11318103 0.01689111
0.087248996 0.18545118 0.058502726 -0.0033849801 0.017359708 -0.04708442 0.10359033 -0.08501344
-0.0530365 0.0011748226 -0.051241104 -0.066178665 0.12443871 -0.024751844 -0.045248896 0.0021739546
0.12326963 -0.033160493 0.018223548 0.07985571 -0.09479608 0.26101893 0.042587444 -0.27792734
0.21790573 -0.20532866 0.052654486 0.032164365 -0.12213611 -0.2800467 0.028533245 0.07917716
-0.024375297 0.111742534 0.025176788 -0.13134882 -0.019644534 0.016646145 -0.097600944 -0.036759086
-0.11351975 -0.19352983 0.021984514 -0.18013166 -0.16192672 0.027240153 -0.15233135 -0.12717228
0.019818487 0.03235278 -0.0974024 -0.07162103 0.087317795 0.0054981033 -0.022122417 -0.011940265
0.03128234 -0.018408438 -0.038756642 0.10159125 -0.0077053253 -0.0037179745 -0.0021925643 0.06901875
-0.3629721 -0.046194583 -0.11113788 0.22785664 0.03498463 0.021421194 0.17960094 -0.23403546
0.005235022 0.00964986 0.03175514 -0.21733071 0.116269976 -0.04217748 -0.005978657 0.08118993
-0.040691912 0.065772295 -0.11143246 -0.00076073076 0.0036940197 -0.001591525 -0.165435 0.23679788
0.38359866 -0.13459547 -0.32174093 0.01832811 -0.07599853 0.08631537 -0.25182733 -0.0024058027
0.0097012855 0.10992779 0.06537291 0.024716528 0.041743986 0.0069363844 -0.08289 0.0005439391
0.06521464 0.014277278 -0.013583563 -0.0007938113 0.0047492944 0.10374355 0.012729497 0.028324762
0.11022836 0.31706578 0.032317385 0.13464144 0.14651194 0.10739484 -0.01937744 0.03999455
0.27120712 0.32395318 0.06662842 -0.0025237184 0.009987266 0.15808082 -0.15192528 -0.100895315
0.09096873 0.034815688 -0.002516155 0.030099176 -0.18314818 0.11680728 -0.2925684 -0.16442423
0.26220503 -0.034058392 -0.0006755945 -0.16448304 -0.05163844 0.013491782 0.015517399 -0.1284184
0.024010837 0.07226919 -0.056896366 -0.0052217273 0.10873476 0.0375263 -0.09135589 -0.062285848
0.0028825128 0.05140293 -0.032353755 -0.18872105 -0.25036684 0.27380735 0.0945374 0.27394485
0.035995986 0.2841663 -0.007278707 -0.13791521 -0.01196889 0.14265507 0.16613455 -0.19263832
-0.05377747 0.038066436 -0.007645155 -0.13825308 -0.032785628 0.10647677 0.07571048 0.03760865
0.15163945 0.011131186 0.036265798 -0.06356164 0.13077198 0.1264704 -0.047578495 0.02420535
-0.06465173 0.16066764 0.030492457 -0.06324191 -0.028208464 0.14691056 -0.024644934 -0.017183637
0.03391553 -0.039027773 0.1138038 -0.06321797 0.18548878 0.013390866 -0.069778465 0.103783034
-0.10160669 0.115318656 -0.20675227 -0.18299872 -0.053323578 0.122913 0.00036048028 -0.058849674
-0.19128357 -0.02447046 -0.03526324 0.08477096 0.06625168 -0.19374512 0.08786112 -0.03841686
0.047634643 0.17385356 0.006582697 0.14326371 -0.060734067 -0.040640153 -0.006239667 0.035285123

encoder.layers.0.bias f4 [32]
00000000: 3b26 4dbd 6caf df3b f736 a2bc a0fd 9b3e
00000010: d3ad 4039 c280 5abc c19f e2bc 08d7 13b8
00000020: 00f2 68bd e297 b43e bc8c 0bbe 6890 913e
00000030: a4e0 7fba c7b0 823d 7602 dbbc 90fd e0bc
00000040: 21aa f33e 1ee8 4ebd 5361 34bd a6f9 5ebc
00000050: d0ae 07be a545 22bc 2a3c f4ba 8b25 9bbd
00000060: a44e 123f c246 393d 0a78 cd3e 137a e73e
00000070: 3568 7cbd 5519 353d 0a1b 0cbe 138a 03bd
-0.050085288 0.006826332 -0.0198016 0.30466938 0.00018375301 -0.013336362 -0.027664067 -3.5247795e-05
-0.056871414 0.35272127 -0.13627905 0.28430486 -0.0009760952 0.06381374 -0.026734572 -0.027464658
0.47590736 -0.050514333 -0.044038128 -0.0136093255 -0.1325028 -0.0099043 -0.0018633653 -0.0757552
0.57151246 0.045233496 0.40130645 0.45210323 -0.061622817 0.04421361 -0.1368219 -0.0321141

encoder.layers.2.weight f4 [32, 32]
00000000: 2964 67bd b2f5 be3d 64ed d23d 8141 04bb
00000010: deed 053e e860 e2bd 264b 5ebc d801 5fbd
00000020: 297d 733c 92f3 a63b 1a92 a3bd 15d0 163d
00000030: eec5 2ebb 4b99 63bd 02f0 c63b a3c0 ac3d
00000040: 8fe0 fb3d 5b4d 183c ec6e 2a3e 8f47 6d3b
00000050: eefe 993d 04c9 633c 6ea4 3f3d b549 0abe
00000060: 92d1 003e f54a f93d 0ddb 213e cfd9 4d3e
00000070: 8829 c4bd fe86 983b d885 973d 45b4 bc3d
00000080: c774 a4be bb02 b2bd 7f52 3bbe 09ad bebc
00000090: 5a8d 1dbe 333d 78be 73a1 97be 60a7 85bd
000000a0: 81dc 30be 061f 303e bdab 48be c9e0 153d
000000b0: 52e9 c4be f3ad 903d e26b d1be 1754 96be
000000c0: 8d96 543e a387 48be 9e87 dbbd f2ac 93be
000000d0: 2c8b 34be 4ce4 e5bd 390a a7be d7c1 97be
000000e0: 82e8 f23d 07d4 eebd 27ef da3d e771 4a3e
000000f0: 4eda bfbe 7018 cc3c d35d 36be d771 87be
00000100: 8894 26be 7ea8 263c 44f6 f9bb a0ae 5d3e
00000110: 9651 29be 1a3e 56be 07e2 5cbe 8529 01be
00000120: 6a88 37be b70d 9c3d b380 94bd 7562 9a3d
00000130: c1da aebe e36f 95bd 6425 303c 8bd8 9fbe
00000140: 860d df3d 5f90 50be 093d a73d 9849 63be
00000150: 1076 27be 3ae7 5d3d adb3 b93b 427a 28be
00000160: 75b4 8a3e 7940 1f3d 33c2 503e 40a2 a73e
00000170: 17ac 103d 66aa b43d 3f92 70bd a052 3dbe
00000180: 2a67 383e 687f da3d 6a15 0ebe ba18 003e
00000190: 87cc b9bc 62f2 7a3d 6921 323e 81ca 323e
000001a0: e4af 93bd 2b80 e5bd 5cd7 c0bd 17b2 5ebd
000001b0: 64ed bd3d 299e 3f3e 4789 6a3d 735f ad3b
000001c0: 9b44 9abc af09 9d3d 23db 913d 1832 363e
000001d0: 2bc9 85bd b01b 5bbd 1dd3 553d 4611 7f3c
000001e0: 6261 523e bba6 403b b3a9 5e3d d84b 0d3e
000001f0: fd0c 033e 8715 a43d 986f 233d 95a1 553d
00000200: 9851 a0be 74e0 32be 3c03 27bc 5732 6f3d
00000210: a07e 2ebe d633 b6be bdd8 8dbe de37 18be
00000220: 8498 89bd 4131 e03d 1a32 f4bc c2ac 643e
00000230: 03f1 c6be a4bc e7bd 043e 7fbe c6d5 7fbe
00000240: 2528 ad3d ccfb 97be 4865 4fbd 1d79 5abe
00000250: 3e94 1bbe c33b 11be 5d7c 6ebe 20d4 8cbe
00000260: 8d42 173e 0ced 96bd 1ee0 223e 4cdc 6c3e
00000270: 9021 9abe 063f d6bd ac43 67bd 25d4 aabe
00000280: 3d2e 523d be9a 5a3e e4fa fd3d cdad ed3d
00000290: 9978 323e 30e3 ff3d 52e0 2a3e ff27 133e
000002a0: ab4f a9bd da52 4dbd 3bf1 383e 6d80 15be
000002b0: 0967 9f3c 75c0 a7bd cf32 e53d e6a2 37bc
000002c0: 93e3 063e 4f28 c13d 7b9f 7fbd de60 df3d
000002d0: 2f20 0b3e 68c1 273e 3b95 a53d 82f5 933d
000002e0: 85e6 1e3e 9274 0b3c 5a98 c73d 8ec8 363d
000002f0: c96c 7c39 18d1 753d 1950 e6bc eefc 4f3e
00000300: a247 243e db14 d13d 4eca 0f3e 666e a1bd
00000310: b6c9 873d 0474 603d 1bdf 6839 722b 083d
00000320: 9335 85bd b4fe c63c badf 013e c290 06be
00000330: 9791 4d3e 48eb 2b3e 50ed 0d3e ec6c 33bd
00000340: b851 3bbd 2f7b 1f3e 57b4 283e 55ae 063e
00000350: 40d8 2d3d 2e71 82bd 1885 2d3e 5f9c 1fbd
00000360: be0f b23d 695e a5bd 69bd be3b 6343 b3bb
00000370: b903 e63d c450 dd3d 4718 ad3d 0459 103e
00000380: b229 003e 1ef7 dabd 9fd6 c13d 11f3 ae3d
00000390: 18bf da3d 4e6b e83d d279 573c d933 37bd
000003a0: 65e5 e13d 31dd 093e 58d8 9fbd bf76 b33d
000003b0: 2cfb 7b3d ab10 09bd 270b 3dbd b714 793d
000003c0: 7fba 1e3e 6bb2 1a3c aed6 ef3d a726 093d
000003d0: 161c b03d 84fa 163d 8948 b33d 7598 debd
000003e0: 838d fd3d 8d1d 07be c9cc 173b 9ffb 343d
000003f0: f953 443d 189a 56bd 3321 483b 7c1a 6e3d
-0.056492005 0.093242064 0.10299185 -0.0020180645 0.1307902 -0.1105364 -0.0135677215 -0.054445118
0.0148613835 0.005094954 -0.07986851 0.036819536 -0.0026668268 -0.055566113 0.0060710916 0.0843518
0.122986905 0.009295787 0.16643876 0.0036205982 0.07519327 0.013902906 0.04678767 -0.1350468
0.12579945 0.121725 0.15806217 0.20102619 -0.09578234 0.004654764 0.073985755 0.09214071
-0.32120344 -0.08691927 -0.18293189 -0.023275869 -0.15385953 -0.24242096 -0.29615363 -0.06526065
-0.17271616 0.17199335 -0.19596763 0.036591325 -0.3845926 0.07064428 -0.4090262 -0.2936103
0.20760556 -0.19582991 -0.10719226 -0.28842884 -0.17631215 -0.11225185 -0.32624987 -0.29640076
0.118607536 -0.11661535 0.10690146 0.19770013 -0.3747124 0.024913996 -0.17809229 -0.2645404
-0.16267598 0.010172008 -0.007628234 0.21648645 -0.16535029 -0.20922127 -0.21570598 -0.12613495
-0.17923132 0.076198034 -0.0725111 0.075383104 -0.3415127 -0.07296731 0.010751102 -0.31219897
0.10891251 -0.20367573 0.081659384 -0.22196043 -0.16353631 0.054175593 0.005667171 -0.16452888
0.27090803 0.038879845 0.20386581 0.32740974 0.035320368 0.088215634 -0.05873322 -0.1848855
0.18008104 0.10668832 -0.13875356 0.12509432 -0.022680534 0.06126631 0.17395557 0.17460062
-0.07211283 -0.11206087 -0.094160765 -0.05436906 0.09273794 0.18712677 0.057259824 0.0052909194
-0.018831542 0.076678626 0.07121875 0.17792547 -0.0653251 -0.0534932 0.052203286 0.015568083
0.20544961 0.0029396254 0.054361057 0.13798463 0.12797923 0.080119185 0.039901346 0.05215605
-0.3131225 -0.17468435 -0.010193642 0.058397617 -0.17040491 -0.35586423 -0.2770442 -0.14865062
-0.06718543 0.109468944 -0.029809047 0.22331527 -0.38855752 -0.11315277 -0.24926001 -0.24983892
0.084549226 -0.29684293 -0.0506337 -0.21335264 -0.15193269 -0.14182954 -0.23289628 -0.2750559
0.14771481 -0.07369432 0.15905806 0.23130912 -0.3010373 -0.104612395 -0.05646102 -0.33364978
0.051313628 0.21348092 0.12401369 0.116054155 0.17428817 0.124945045 0.16687134 0.14370726
-0.082671486 -0.05012784 0.18060772 -0.14599772 0.01945831 -0.08191005 0.111913316 -0.011208272
0.1317275 0.094315164 -0.06240795 0.10907148 0.13586496 0.16382372 0.08085104 0.07224561
0.15517624 0.008511679 0.09745856 0.044624858 0.00024073118 0.06001386 -0.028114365 0.20311329
0.16042951 0.10209056 0.14042017 -0.07882385 0.0663027 0.05479814 0.00022208357 0.033244558
-0.06504359 0.024291374 0.12683001 -0.13141158 0.2007507 0.16788971 0.13860059 -0.043805048
-0.04573223 0.15574335 0.16475044 0.1315244 0.04244256 -0.063692436 0.16945302 -0.038967486
0.08694409 -0.08074648 0.0058209193 -0.0054706796 0.11231179 0.108064204 0.08451896 0.14096457
0.12515905 -0.10691665 0.09464764 0.08542455 0.106809795 0.11348592 0.013151603 -0.04472718
0.11030082 0.13463284 -0.07804936 0.087628834 0.061518833 -0.03346316 -0.046153214 0.06081077
0.1550083 0.009441952 0.11710869 0.033484127 0.08599107 0.036860004 0.08754069 -0.108689226
0.12380507 -0.13194866 0.0023162833 0.044185277 0.047931645 -0.05239305 0.0030537366 0.058130726

encoder.layers.2.bias f4 [32]
00000000: 0034 ae3d 58ec a23e 969e b63e 6abe 2dbd
00000010: c9bb 683e beea 14be 2500 463d 067f 6e3d
00000020: b49c 60bd 5541 85bd 4c77 e73b 7d27 d33e
00000030: 5fae 71bd 8062 d4bc ee1f 5bbd 71ba 00bd
00000040: 75f8 fbbc f73a de3e 33ee d4bc c686 84bd
00000050: 9b53 973e 3bce 3cbd 307d 043e 7dcd fabd
00000060: 51e6 283d 2359 a3bb 034d f0bc 300a 2cbe
00000070: cce9 e9bc 3e09 82bd 6505 02be d8ae b0bb
0.08506012 0.3182094 0.35667866 -0.04241792 0.22727884 -0.14542672 0.04833998 0.058226608
-0.054836944 -0.06506602 0.007063782 0.41241065 -0.059004184 -0.025925875 -0.053497247 -0.031427804
-0.030758122 0.43404362 -0.025992488 -0.064710185 0.29555973 -0.046095114 0.1293838 -0.12246225
0.04123527 -0.004984991 -0.029333597 -0.16800761 -0.028553866 -0.06349419 -0.1269737 -0.0053919367

encoder.layers.4.weight f4 [12, 32]
00000000: b167 643d 5eab b43e 2add 563e 1a07 71be
00000010: a6f0 ba3e a26e 5fbe ad27 c7bd 44f0 55bd
00000020: a0de bf3a bed4 65be 224b 4ebe f76b 1d3e
00000030: 8140 f4bd 6bab b03c 4515 d2bd 57ea 08bd
00000040: 5af9 2abe b118 83bd 9f8e 2bbd e142 2fbe
00000050: 1def b63e 6fa4 a6bd c7bd b23e 6463 5ebe
00000060: 930b c4bd 5fa9 02be 2799 a9bd 6bda 733e
00000070: 9e15 f2bd 1801 2f3e a57e b43d 6e1d 22be
00000080: 860c 463e 4359 b6be 78fe 9ebe 1b94 bebc
00000090: 672c 46be 3124 613e 61e3 9e3d 8961 e13c
000000a0: 7a1d 283e 035d bcbd 390a df3c 8c54 a0be
000000b0: ab15 7b3e 82de 0d3e 84c2 2a3d 36a8 12bd
000000c0: a8ea 7d3e 2770 d8bd ae68 353e c1db 6a3e
000000d0: e846 92be 3768 233e 6703 cbbe 8172 0c3e
000000e0: 0418 aa3c d9a0 cfbd 2f80 583e ffc9 abbe
000000f0: c299 3e3e 909e b8bd 48a7 be3c b8a5 15bd
00000100: ce19 223e c191 0c3e 5731 7b3e 98a3 1b3d
00000110: 5936 883e eaf5 973d 29be 7f3d d1e2 de3d
00000120: f041 943c fec1 2dbe 7bd6 11be a182 37bd
00000130: 4bfa 0f3e c026 093d 092f 9bbd c58d d53b
00000140: ff83 c93d da5c ba3e ee0b 69bd 1f12 243e
00000150: 3ae9 df3c 1c8b b13d ac23 113e 31c0 613d
00000160: fcdb 09be 6d2e 98bc 4a4c 293d 8a47 00be
00000170: bc6a 47bc ae2a 71bd 952d a4bd 6163 b1bd
00000180: a5e2 bdbd 890e c1be ee46 75bd fb9f 903d
00000190: 24f4 9abe cdaf 5e3e e85c 083e 9e14 b83d
000001a0: 65c3 1d3e fdec 9a3d e4c8 61bc 580b b2bd
000001b0: ccae 803e d418 dc3d 4927 183e 3de3 573e
000001c0: ad3a db3d fce6 d4bd dab5 91bd f840 753e
000001d0: 4013 d6be a5da 573e 9448 9dbe dba4 803e
000001e0: 25d4 2f3b 4b3d cf3c ad33 443e 6636 bcbe
000001f0: d0ed 04bd 0931 21be 19fd 273d 8c82 813c
00000200: 9616 d23d 5f22 39be 3b45 af3c ec9b 843c
00000210: 210d 6ebe a3a1 ef3d 599c cebc e3ea cbbd
00000220: 4d3c 6f3d 1f99 143e a895 b9bd 3bbc 953d
00000230: 5544 073e 2b37 24be 51a5 ee3d a530 4c3e
00000240: 0427 093e 842f fdbc 8aa3 10be 39ae 33bd
00000250: 984f 0cbe e1c8 993d f7ef 78be ddeb 9a3e
00000260: ebfc 18bd 9066 9bbb f1c4 2e3e 675f abbe
00000270: bbeb e33d 07d5 61bd 8152 43bc 8834 a9bb
00000280: 55d7 1b3c 44f9 d7be 1289 74be a3b2 593e
00000290: 8bb7 abbe 99c2 b63d eae8 083e f355 803d
000002a0: ff7a 3f3e d617 d43d 73c3 433e f697 b9be
000002b0: b792 5a3d 8f8c a1bd 4fd2 a73d 4e06 bfbc
000002c0: 8c34 903d ecb7 27be 6baa 8b3d 569c 7c3d
000002d0: 4b44 78be c647 58bd f454 acbe 8c94 46bd
000002e0: 8d82 723c 9d9c 4e3e 1cfc 9ebd 2d68 91be
000002f0: 2073 753c d6f7 5cbb 1ecb 20be 8cc8 8b3d
00000300: 62e5 25be b1a8 2bbe c5b3 92be d746 4dbe
00000310: f4b9 26be a2c4 9a3d cae0 8e3c 2d42 22be
00000320: 3681 93bd b198 363d 9935 843c 1e7c 1bbe
00000330: e948 26be 3dc0 3d3d e45a f1bd 7c8f f5bd
00000340: c214 0abe 3c06 67be 5982 92bc c923 a63c
00000350: 53f2 3bbe 8775 d0bd 2929 e7bd a19f 50bd
00000360: 2a36 43be 2dc0 09be 012f febd cc61 7a3e
00000370: add3 c4bd d65d f83d 2427 ab3d a288 58bc
00000380: 7e78 cebd 5e00 dfbd e24a 78be 5ccf a43c
00000390: ed7d c6bd 3fa9 a8bb 444c 80bd ac01 77bd
000003a0: 4e66 04be 2f29 7a3c 7380 b2bd bb65 53be
000003b0: 5a6e 683d fe0f f93d d978 fdbd b048 453d
000003c0: 084b 1e3d e2b6 91be 2220 83bd 7b9b 08be
000003d0: ffd8 36be 89b3 83bd 15b1 21be 0d40 1bbd
000003e0: 2ebd a5bd e407 3fbe ba4b 14bd 60cf 833e
000003f0: f2ee 66bd cfcf 063e 3b35 963d bcdb fcbd
0.05576295 0.35286993 0.20982805 -0.23537865 0.36511725 -0.21819547 -0.097243644 -0.05223109
0.0014638491 -0.22444436 -0.20145848 0.15373217 -0.11926366 0.021566113 -0.10257963 -0.03342661
-0.16696683 -0.06401194 -0.04188406 -0.17115356 0.35729304 -0.08136832 0.34910414 -0.21717602
-0.0957252 -0.12759922 -0.082811646 0.23813789 -0.118205294 0.17090261 0.08813218 -0.15831539
0.19340715 -0.35614976 -0.3105352 -0.023263982 -0.19352876 0.21986462 0.07758213 0.027512329
0.16417494 -0.09197428 0.027226554 -0.31314504 0.24519984 0.13854411 0.04168941 -0.03580495
0.24796546 -0.10568266 0.17715713 0.22935392 -0.28569722 0.15957724 -0.39651033 0.13715555
0.020763405 -0.10138101 0.21142648 -0.33552548 0.18613341 -0.090146184 0.023273125 -0.036534995
0.15830156 0.13727476 0.2453054 0.037997812 0.26603964 0.07419951 0.06243721 0.108831055
0.018097848 -0.16968533 -0.14241974 -0.04480231 0.14060323 0.03348422 -0.075773306 0.0065171444
0.098396294 0.36398965 -0.056896143 0.16022538 0.02733289 0.08669111 0.14173764 0.05511493
-0.13462824 -0.018576825 0.04133252 -0.1252729 -0.012171444 -0.058878593 -0.080165066 -0.08661533
-0.09271745 -0.37706402 -0.059882097 0.07061764 -0.3026439 0.2174675 0.13316691 0.089883074
0.15406568 0.07564733 -0.013780806 -0.0869357 0.2513336 0.10746923 0.14858736 0.21082778
0.10704551 -0.10395619 -0.071147636 0.23950565 -0.41811562 0.210795 -0.30719435 0.25125775
0.002682933 0.025297781 0.19160338 -0.36760253 -0.03245336 -0.15741362 0.041012857 0.01580932
0.10258214 -0.18079518 0.021395316 0.01618763 -0.23247196 0.11700752 -0.025221037 -0.099569105
0.058407117 0.14511536 -0.09061748 0.07311293 0.1320966 -0.1603667 0.11652625 0.19940431
0.1339379 -0.030906446 -0.14124885 -0.043867324 -0.13702238 0.07509018 -0.2431029 0.30258074
-0.037350576 -0.004742451 0.17067315 -0.33471224 0.111289464 -0.0551348 -0.011921526 -0.005163733
0.009511788 -0.42182362 -0.23880413 0.21259551 -0.3353847 0.08923835 0.133701 0.062663935
0.18699263 0.10356109 0.19117527 -0.3624875 0.053362574 -0.078881375 0.0819441 -0.023318436
0.070412725 -0.16378754 0.06819614 0.06167253 -0.24244802 -0.052802823 -0.33658564 -0.04848151
0.014801634 0.2017693 -0.0776293 -0.28399792 0.014981061 -0.0033717058 -0.15702483 0.06825361
-0.16200784 -0.1676357 -0.28652778 -0.20046555 -0.16281873 0.07557036 0.017441172 -0.15845557
-0.072023794 0.04457921 0.016138839 -0.15184066 -0.1623875 0.04632591 -0.11784914 -0.11990258
-0.13484481 -0.22560972 -0.01788442 0.020280736 -0.18354158 -0.101786666 -0.112871476 -0.050933484
-0.1906363 -0.13452215 -0.12411309 0.24451369 -0.096106865 0.12127273 0.08357075 -0.01321617
-0.10081576 -0.10888742 -0.24247316 0.020118408 -0.09691987 -0.005147129 -0.062645465 -0.06030433
-0.12929651 0.015268608 -0.08715906 -0.20644276 0.056745864 0.121612534 -0.123765655 0.048165023
0.038645774 -0.2845984 -0.06402613 -0.13340561 -0.17856215 -0.06430728 -0.15790208 -0.03790288
-0.08092724 -0.18655354 -0.03620503 0.25744152 -0.05638022 0.1316521 0.07334372 -0.123465985

encoder.layers.4.bias f4 [12]
00000000: 2396 783e 05e1 9abe 017e b73e caea 69bd
00000010: fe74 7bbe 916d 63be 1e04 acbc 7c67 66be
00000020: 564b 52be 7c5e b9ba bdde 2f3d 87b7 93be
0.24276023 -0.302498 0.3583832 -0.057108678 -0.24556348 -0.22209765 -0.020998057 -0.22500414
-0.20536551 -0.0014142538 0.04293703 -0.28850958

decoder.layers.0.weight f4 [32, 17]
00000000: 5b44 1d3e 99c0 10bd 47ab 8ebc fb2b c2bd
00000010: dada 8bbe a816 86bc a94f aa3e af5a 1d3e
00000020: 0400 093d 38d2 e6bd 4069 10be f3e3 803e
00000030: 8c7a 3bbe 4452 623e 07ae 383e dcd0 38bd
00000040: 6f35 1d3e 8e50 87be 4d67 6a3e 9f3a a43c
00000050: 866f 08bc 3394 423e 25e1 4a3a 4ea6 30be
00000060: dc2a 823d c8b5 943e 81ca 803e 5e17 89bd
00000070: 73ae dbbe a8ad debb 8f7d 023e bcaf 0e3d
00000080: a3d4 0fbe 1e41 1d3e 4a0e 20be d4c9 973e
00000090: f551 3e3e 20a9 b33e 2cca 113e 3d64 743e
000000a0: db76 233c 0fbf 53be 0110 843e 4d89 80be
000000b0: b1df 32bc 067a 443d d952 f53d db67 21be
000000c0: a9fe 03be 2869 503d 2795 82be bdab 8bbd
000000d0: 88e9 dd39 ae28 5e3e 31ac e83d 376f f8bd
000000e0: 2276 e63d 30e2 dd3e 93ab 613e 9562 a0bd
000000f0: 5e62 b73d 35e2 e2bc af7d fb3c fd2c 9f3b
00000100: 67bf 6c3d dcb2 55be 8633 e6bd 8a72 e33d
00000110: 7a9a 45be 53c7 d03d 87af 063e 6d68 533e
00000120: 14f0 903d 460a 463d da22 3e3d 3319 973c
00000130: 3c04 83be 4d33 193e 16dc 293e 2c04 893d
00000140: a886 1bbe 383a 73bd df18 e43d c0b9 22be
00000150: 4578 0bbe f7f9 253d a650 b7be 3a4a 22bd
00000160: 4ff4 063d 7bd9 89be a488 c43d ab12 ddbd
00000170: 0368 b03e 9db9 b83c 52f5 223e 25d7 8c3e
00000180: cec3 c83e b8c0 97bb 36e3 07bc 1afa bd3d
00000190: aeca 60be 4639 8e3d 8a35 103e ee31 7bbe
000001a0: ff03 77be 00d9 ca3d 4507 ecbc 8d31 35be
000001b0: 71c9 493c 337e e0bd b742 a13d 7c77 883a
000001c0: 5cc5 ffbb 6948 93bd 19f9 3e3e b695 9f3a
000001d0: e1c5 383e 526d d43d 6739 cfbd 8352 d73d
000001e0: b4db adbe 61b8 6dbe b16c f23d f036 3bbe
000001f0: 3c43 503d 81b1 a13d d4b7 2c3e 391a 9abd
00000200: 600c 383d a649 83bd 98a9 753d c68f 24bd
00000210: ae81 c33b 4905 213e 488f 8d3d b3ea 36be
00000220: 8879 823e 5a30 e93d 4dc5 a03e ab7e 56be
00000230: 0e25 37bd 1dcc 96be 4f6a a13d 7ce0 4a3e
00000240: f428 303e 2c03 6c3c c521 a63c 34ce c7bb
00000250: 41d9 433e 1834 973d 6af5 90bd 36ce 5bbe
00000260: 3685 1a3d ebd0 c23d 3e13 97bd 75b6 34be
00000270: 2e68 243d 8c2b 82be 4adf 4e3e 2449 943e
00000280: 03aa 7a3e 11ab df3c b554 eebd 50a7 5cbd
00000290: 94c4 92bd 9221 e9bb 7264 dbbd 518a 2b3c
000002a0: 16ed 413c 5ded b93d ae1f ff3d 310f 1e3d
000002b0: 70f0 31be 4e98 e2bd 2e5e 7bbe 2ce1 463e
000002c0: 4017 9ebc 1dc5 133e fdb9 51be 3201 213d
000002d0: f5fa 9f3b 332c f9ba 8276 093e 0a07 143e
000002e0: a2ea 4abe bc55 053e e8b5 7cbd da60 5cbd
000002f0: 74e8 dfbd 0a41 933d 5113 6e3d 7f4a fd3c
00000300: f301 363e 0231 c33e df92 c33b 3002 91bd
00000310: 0b12 46bd 461c a03c 239d e73d 9a9a 1a3e
00000320: ee36 6c3c ccaf bcbe ccf4 c2be 9c72 6abe
00000330: 2ed3 08be a8fd 943d 97b1 963d b3e4 8b3d
00000340: 7e49 293c 62d9 3a3d 81ec 7dbd c9ef 8f3c
00000350: c8d1 91be 8ec2 5dbe 8b53 663e 2b7c 0d3f
00000360: 98a7 1a3d 3479 09bd 177b 0d3e e4a2 ebbd
00000370: 5c11 89bc c2b5 25be 38c4 673e 4a2f 6e3e
00000380: 1e90 ad3e 1633 8bbd 11b9 95bd 7337 9fbd
00000390: 3c69 0d3c d60a 64bd b503 46be c176 18be
000003a0: c9fa 23be 71f8 12be e710 7fbe 0988 01bd
000003b0: caa7 123e 32f4 883d 954b 1a3b 83b9 83be
000003c0: 7eff 473e bfe0 aabe 6792 973d 49fa e3bd
000003d0: fa08 293d 7a79 ca3e a965 893d 5f20 8abd
000003e0: c33b 0abd 7b8b 1d3e 6e6f 59be 27fb 323e
000003f0: 843d 91bd 79f9 1bbd 2420 373e 5dde de3d
0.15358107 -0.035339925 -0.017415656 -0.09481045 -0.27315408 -0.016368225 0.332639 0.15366624
0.03344728 -0.11270565 -0.1410265 0.2517391 -0.18308467 0.22101694 0.18035136 -0.04512106
0.15352415 -0.26428646 0.22890969 0.020047484 -0.0083273705 0.19001846 0.00077392376 -0.1725094
0.06355831 0.29044938 0.25154498 -0.0669391 -0.42906532 -0.006795604 0.1274321 0.034835562
-0.14045958 0.15356871 -0.15630451 0.2964617 0.18585952 0.3508997 0.14237279 0.23866363
0.009977068 -0.20678352 0.2579346 -0.25104752 -0.01091759 0.047967933 0.119786926 -0.15762274
-0.12890114 0.050881535 -0.2550442 -0.06819866 0.000423264 0.21695206 0.11360968 -0.121305875
0.11253001 0.4333663 0.22038107 -0.07831303 0.08954309 -0.027695755 0.030699579 0.004857658
0.057799723 -0.2086901 -0.11240296 0.11105831 -0.1929721 0.10194268 0.13152896 0.20645304
0.07077041 0.04834964 0.046419956 0.018444633 -0.25589168 0.14960976 0.16587862 0.06690249
-0.15188086 -0.059381694 0.11137556 -0.1589117 -0.13620098 0.04052159 -0.35803717 -0.03962157
0.032947835 -0.26923737 0.09596375 -0.10794576 0.34454355 0.022549445 0.15913895 0.27507892
0.39211887 -0.004631128 -0.008293917 0.09276219 -0.21952316 0.06944518 0.14082924 -0.24530765
-0.24122618 0.09904671 -0.02881206 -0.17694683 0.012316094 -0.109615706 0.07874053 0.0010411586
-0.0078055095 -0.071915455 0.1864971 0.0012175355 0.18044235 0.10372414 -0.101183705 0.10513785
-0.33956683 -0.23214866 0.118371375 -0.18282676 0.05084537 0.07895184 0.16867 -0.07524533
0.044933677 -0.06410532 0.05997619 -0.040176176 0.0059663868 0.15724672 0.06912094 -0.17862968
0.25483346 0.113861755 0.3140053 -0.20946757 -0.044713072 -0.294526 0.07881605 0.19812196
0.17203122 0.014405053 0.020279774 -0.0060975794 0.19125845 0.07382983 -0.07078059 -0.21465382
0.037724696 0.09512504 -0.07376717 -0.17647727 0.040138416 -0.2542385 0.20202366 0.28962052
0.24478917 0.02730325 -0.1163725 -0.0538705 -0.071664006 -0.0071145976 -0.10712518 0.010469989
0.011836311 0.090784766 0.12457214 0.038588706 -0.17376876 -0.11064206 -0.24547645 0.19421834
-0.019298196 0.14430661 -0.20481105 0.03930778 0.0048822113 -0.0019010365 0.13424113 0.1445581
-0.19816068 0.13020986 -0.061696917 -0.053803302 -0.10933009 0.071901396 0.05812389 0.030919312
0.17774181 0.38123327 0.005968436 -0.07080495 -0.04835705 0.019544732 0.11309268 0.15098038
0.014417393 -0.36852872 -0.3807739 -0.22895283 -0.13361809 0.072749436 0.07358091 0.0683073
0.010332463 0.04561747 -0.061993126 0.017570393 -0.28480363 -0.21656248 0.22492807 0.5526759
0.037757486 -0.033562854 0.13816486 -0.11505678 -0.01673191 -0.16182616 0.22633445 0.23260227
0.33899015 -0.06796853 -0.07310689 -0.07774248 0.008631047 -0.055674396 -0.19337352 -0.14889051
-0.16013636 -0.14352585 -0.24908791 -0.031623874 0.14321819 0.066872016 0.0023543586 -0.25727472
0.19531056 -0.33374593 0.07400971 -0.111317225 0.041268326 0.39545804 0.06708843 -0.067444555
-0.0337484 0.15385239 -0.21233913 0.1747862 -0.07091811 -0.038079713 0.17883354 0.10882256

decoder.layers.0.bias f4 [32]
00000000: 7f44 ee3d e4cf ee3d e4f3 323e b7c6 1d3e
00000010: 877f d4bc 800b 733e 53cd 633e 338c b33e
00000020: 616e 843e 3086 7c3e f452 bc3d 7ae7 dd3c
00000030: 346c 573d 11b3 93bd 5428 683e e18b c23e
00000040: 25fd ccbd 7c4e ea3e 32d0 cb3e 6b9a 343e
00000050: 9e35 ba3c d170 523e 8792 8e3e 26a6 a13e
00000060: 1ce2 3dbe 2383 fbbd 9c9c 1b3d 16b9 ce3e
00000070: dd61 733e b8b5 e03c d86b 9e3e 6f28 0e3f
0.11634158 0.11660746 0.1747585 0.15407835 -0.025939716 0.23734856 0.22246294 0.350679
0.25865462 0.24660563 0.091955096 0.027087916 0.052593425 -0.072118886 0.22671634 0.37997344
-0.10009221 0.45763004 0.39807278 0.17637031 0.022730645 0.20550849 0.27846166 0.31572074
-0.18543285 -0.12280872 0.03799115 0.40375584 0.237678 0.0274304 0.30941653 0.55530447

decoder.layers.2.weight f4 [32, 32]
00000000: 1c28 0abd 2186 aa3e 2297 dcbb 82b2 d13d
00000010: 75ee 663e 239c e23d 95da 023e e223 27bd
00000020: ddbb 343e 74ae 40be 8252 153e a0c7 41be
00000030: 12dc 0d3e 3b42 0ebd 8d29 38bb 0c5e d1bd
00000040: 789c cd3d 59ee f33d 649c d7bc b4d9 6a3e
00000050: 450a 9dbc c9d2 703c 1d84 393e f66a cabd
00000060: 6e71 7ebb 6069 843e a0e6 1d3e e994 1f3e
00000070: 4f90 0a3e 7ab1 37be a283 93bc d971 11bd
00000080: f1ab fd3c 4b25 e53d 6729 423d 6d88 2e3d
00000090: 5961 1c3e feeb a0bd c063 1dbe 56e0 193e
000000a0: 83f8 05be d790 6c3d 3a51 5c3d a546 65bd
000000b0: 04ea 8c3e 677c 883e a913 b8bd ec70 49bd
000000c0: d7cf ecbd fe4d 313c 931a 633d 7d98 bdbd
000000d0: 1b4f 1fbd e5b6 c73d a9f6 8d3d 4d15 933d
000000e0: 54c3 933e 7fc2 8d3d fc51 823d bf72 e1bc
000000f0: 13a6 35bb 8d88 4c3e aaf8 763d b3bc 383d
00000100: fd90 87bd 525a 913d 13ba 09bd 75d4 67bc
00000110: a810 11be 735d 263e fb4c ca3d 1ac8 213e
00000120: 4a96 183e 94e0 4cbd be69 f93d 7cd8 913d
00000130: 4331 afbd 6cc3 ee3d db39 fe3d f2c8 b83d
00000140: 5c9d ba3c 9635 563e 1116 06bb 61cd d0bc
00000150: 3abe ffbd e3b8 fcbc 6d42 983a cc1f 563e
00000160: 272b d6bd 1337 1a3d 1008 793d 8593 093e
00000170: 31d5 413e 3191 cebd 63c9 ca3c 8a0a b83d
00000180: f213 a6bc 890f 0f3e 20a2 ccbd cd22 3f3e
00000190: 5368 f73c fd91 6cbd 1489 423c 11f8 e7bd
000001a0: 19fb 55bc 0940 5e3e 64d7 d03d 646d c0bd
000001b0: 6053 9c3e 1522 c63c 46d6 a3bd 652b 563d
000001c0: eb15 253c 9de7 ae3e 348b aebd 1c4f 47bd
000001d0: e9c2 91bd f4d3 313e fc2b ae3d a48a ebbc
000001e0: 8e04 4d3e 1b20 4fbe e450 3d3e c0b6 06bc
000001f0: a621 92bc 9804 3f3e 2ec6 563e 934a 693e
00000200: ee2f 743e 7761 64bc 8186 81bd 4925 203d
00000210: a877 1fbe 55bf 7b3d dade 583e 1902 9e3c
00000220: 6e9f 813d 083c 583e a2c2 a43d 21cb 9b3d
00000230: e4f0 99bd 6704 61bd 8d0e b33e e12a 973e
00000240: 6eec 14bd a584 2f3e 4ab0 883e 623c 5ebd
00000250: 84b9 4fbd c07a 553e 2910 893d 0dfe 5b3e
00000260: a469 d6bd 439f 68be 5f8f 323c 8c96 6b3e
00000270: d920 853d 1a68 723d eded 543e 7cf4 453e
00000280: ad1d 713d d133 143e c3ed f1bc 5364 c83c
00000290: 1301 773d a954 673c b9b9 a13d 2c5c ab3d
000002a0: 7224 aabb f712 00be bc4e 823c b282 8dbd
000002b0: 0145 853e d667 703c 5e9a 7c3d 1520 b4bd
000002c0: e164 cf3d 6b94 413c 6d5e c33d d7af ef3d
000002d0: 507e afbd 17de 473e cffb 6a3e 1441 57ba
000002e0: 2ebe 3c3e f59d 863d 16b3 78bc 8d18 9bbd
000002f0: da0e 5dbc 54c0 3fbe 6347 453e bf0d 483d
00000300: c716 a53c c666 4a3e 6164 d73d 7c5f 673e
00000310: 80b2 783e 9dfc 4bbe d169 4a3d 3f94 8abd
00000320: 91c6 2cbe 39d5 bbbd 075d a53d 6857 283e
00000330: 17a3 1b3e b768 063e 7693 943c d629 e53d
00000340: eb91 453e 99ff 583b a24a 7c3d 767f 013e
00000350: 84d4 c8bd 5a54 3abc 7353 753e c39f 04bd
00000360: 549f 033e 3e1c 2d3e ce41 153e 6d2b 903d
00000370: 9258 f7bd 4471 5c3e 8064 b83d 88f0 723e
00000380: 3485 393e 9ea1 283d f66e 12be 6923 b2bc
00000390: 55a1 68be f13d 0d3e 9692 e73d 301a 423e
000003a0: ab6e 32bd da3a 373e 0a35 483e f2c7 983d
000003b0: 885a 85bd c7be 7a3d a2ea 423e 0437 543e
000003c0: f15c 0bbe c259 1abb be07 3a3c 3b9c 8e3b
000003d0: c20e a8bc 4a70 4b3d 8369 84bd 89b9 7a3e
000003e0: e625 41be 24e8 91bd c4e9 e4bc 3bf6 283e
000003f0: 37a6 0d3e 4d4b 993d 9aea d73d ac0a dc3d
-0.033729658 0.33305457 -0.0067318836 0.10239126 0.22551902 0.11064937 0.12778695 -0.040805705
0.17649789 -0.18816549 0.14582255 -0.18923807 0.13853481 -0.03473113 -0.0028100938 -0.10223016
0.1003961 0.119106956 -0.02631969 0.2293461 -0.019169936 0.014698693 0.18116803 -0.098836824
-0.0038824934 0.25861645 0.15420008 0.15584148 0.13531612 -0.17938796 -0.018007103 -0.035508964
0.030965777 0.11188754 0.047402766 0.042610575 0.1527151 -0.07857512 -0.15370083 0.15026984
-0.13083081 0.057755318 0.0537884 -0.055975575 0.2752229 0.2665741 -0.08988125 -0.049179956
-0.1156308 0.010821817 0.055445265 -0.092576005 -0.0388938 0.09751681 0.06931812 0.07181797
0.2885996 0.06921863 0.063632935 -0.027520536 -0.0027717396 0.19973965 0.06029574 0.045101833
-0.06619451 0.07097305 -0.03362472 -0.014149775 -0.1416651 0.16246586 0.09877964 0.15798989
0.1490108 -0.050018862 0.12178372 0.07121369 -0.08554318 0.116583675 0.12413379 0.09022702
0.022780113 0.20918879 -0.002045993 -0.025488557 -0.12487455 -0.03084988 0.0011616476 0.20910567
-0.104574494 0.03765018 0.060798705 0.1343518 0.18928982 -0.10086287 0.024754232 0.08986385
-0.020273183 0.1397077 -0.099918604 0.18665619 0.030201113 -0.057756413 0.011873502 -0.11326612
-0.013060355 0.21704115 0.101973325 -0.093958646 0.3053236 0.024186173 -0.07999854 0.052287478
0.010076026 0.34161082 -0.08522645 -0.04865943 -0.07117254 0.1736601 0.08504483 -0.028752632
0.20021269 -0.20227091 0.18487889 -0.008222282 -0.01783831 0.18654096 0.20974037 0.22782354
0.23846409 -0.013939253 -0.06324483 0.039098058 -0.15572989 0.061461765 0.21178761 0.01928811
0.06329237 0.2111665 0.08044936 0.07607103 -0.07516649 -0.05493584 0.3497204 0.29524902
-0.03635829 0.17140444 0.26696998 -0.054256804 -0.05071403 0.20847607 0.066925354 0.21483631
-0.10469368 -0.22717004 0.01089844 0.23006648 0.06500406 0.05918131 0.20793886 0.19331545
0.05886619 0.14472891 -0.029532319 0.0244619 0.06030376 0.014119306 0.07896752 0.0836719
-0.005192333 -0.12507235 0.015906684 -0.06909694 0.26029208 0.014673194 0.061670654 -0.08795182
0.10126663 0.011815171 0.09539495 0.11703461 -0.08569014 0.19518314 0.2294762 -0.00082112965
0.18431923 0.06573097 -0.015179416 -0.07573042 -0.01349231 -0.18725711 0.19265513 0.048841234
0.020152463 0.19765767 0.10517193 0.22595018 0.24286842 -0.19920583 0.04941732 -0.06766557
-0.16872622 -0.09171528 0.08074384 0.16439593 0.15198933 0.13125883 0.018136721 0.1118962
0.19293945 0.0033111332 0.061594613 0.12646279 -0.09806159 -0.01137265 0.23957615 -0.032378923
0.12853748 0.16905305 0.14575884 0.07039533 -0.1207744 0.21527582 0.09003544 0.23724568
0.18117219 0.041169755 -0.1430014 -0.0217454 -0.22717793 0.1379316 0.11307256 0.18955302
-0.043562572 0.17893544 0.19551483 0.074600115 -0.06511408 0.061217096 0.19034818 0.20724112
-0.13609673 -0.0023552035 0.011354385 0.00435212 -0.02051485 0.049667634 -0.06465437 0.24484839
-0.18862113 -0.071243554 -0.0279435 0.1650018 0.13832937 0.074850656 0.105427936 0.10744223

decoder.layers.2.bias f4 [32]
00000000: 1afd f9bd 78b9 083e 705d 253e e407 3b3d
00000010: dbe3 4f3d f5fe d2bd 73bf b7bd 3701 113b
00000020: 6890 043e 75c2 19bd 3f17 893d a606 7ebd
00000030: 929e 293e 753f 163c e945 cc3d a82f 773e
00000040: 335a 4a3e bcc0 80bd bc82 873e 74b7 b63e
00000050: 92d6 52bc 920e 283e e333 713e e910 5e3e
00000060: 77c2 2ebe bc22 d03d a870 963e 7b6f 5d3e
00000070: 059e d43d 6800 18bc 3cb0 b139 ee9b 25bd
-0.122064784 0.13352 0.16148925 0.045661822 0.05075441 -0.103025354 -0.08972063 0.0022125968
0.12945712 -0.037538964 0.06693887 -0.06201806 0.16564396 0.009170403 0.09974272 0.24139273
0.19760971 -0.06286761 0.2646693 0.3568684 -0.01286854 0.16411808 0.2355495 0.21686138
-0.1706637 0.10162875 0.29382825 0.21624558 0.10381702 -0.009277441 0.00033891376 -0.04043191

decoder.layers.4.weight f4 [24, 32]
00000000: 444d e23d 13b4 88bd 23cf a53d 7ac4 c2bd
00000010: b384 ca3b 4ce8 043d 8e77 adbd 083f d13b
00000020: 48d9 d1bc dfb0 f6bc f122 96bc d8fc 003d
00000030: 3bd3 593d 5be6 543c 1d84 373d f17d 9e3d
00000040: 18cd ccbd 008e 2a3d 46f6 2d3d 0966 bdbd
00000050: 400e 173d 3118 f9bd 1d98 ca3c c2fc e9bc
00000060: 2bb7 af3c d6a4 36bd 51c3 633d ce00 e43c
00000070: fead b43c 8389 0936 bba0 a13d d4cf 1e3d
00000080: b5f2 3fbd 6ded 523d 39e9 d83d a8e0 afbd
00000090: 1b34 853d 0fcb 6f3d 367b 533b c6ef 22be
000000a0: aa9d 0abe 495c e03c 7d30 253c 342e d0bd
000000b0: 1dfb 603d 095f 9f3d b639 8f3d dccc 6d3d
000000c0: 8dd2 d83d b39c a6ba 7f99 483b a663 11bd
000000d0: 4e6e 1c3e a4a7 c4bd 8f75 e33d 91ed 2d3d
000000e0: fdb8 3ebd 59e5 7ebd 9510 393c b68b 55bd
000000f0: d899 11bb 32d9 fcb5 1127 003d 4458 1cbe
00000100: 91c9 0d3d 18c5 de3d 5f2b 2bbd 2e35 a0bd
00000110: 8ddf 74bd 45c1 40bd 839b d53d 581e da3c
00000120: 7e83 c53d b7fc cdbd c8e4 0d3d 0a89 97bd
00000130: 0872 e63d 0515 a6bc 4b66 91bc 8492 bc3d
00000140: a9de 043b 251d 203e 0b11 8abb 8c13 18bd
00000150: 9afb 5ebb 5192 0bbe 4e3a 173e 6c5b 86bc
00000160: 34a1 4cbd fd98 4fbc b5ec 163d c6d7 37bc
00000170: 2a19 a83c 12af 51ac 3438 23bd 1bdb 77bc
00000180: 12c5 883d cf14 1cbc 2af4 833c 9449 193d
00000190: 99d1 bfbd f29e 3f3c b845 9dbd 6e74 17bd
000001a0: 85b5 47bc 07e7 e03c b011 e4bd ed35 f9bc
000001b0: 4e30 fa3d f1bc 5b3d 520b 40bd 190f e6bc
000001c0: 7f18 0d3c ae54 a9bd 564d 47bc 3a09 1e3d
000001d0: fe40 74bd 19a3 0dbe 4f54 013e 0f1e 143d
000001e0: d1b6 913d d17f b73d 1694 fa3d f247 19bd
000001f0: 0452 a2bb 3eaa 08bc d1cc 493d 8c9c a73d
00000200: 0723 403d 6c8a 693d 51e2 37bd 4863 563d
00000210: c7f6 b6bd b66c 98bd 1826 db3c 11ae a4bc
00000220: 035d 873d cfdd 333c 170d b4bc 355b 57bd
00000230: 6fad cbbd 6397 12be d436 fd3b fce8 2b3d
00000240: b5e3 d73d d6c5 183e 2681 753d 716b 9dbd
00000250: 38ac 0ebd 67ed 11bc efee a13d 5215 523d
00000260: fb7e 36bd 31ef 943d d129 573d d4d6 88bd
00000270: 15ea e9bc f194 893a 2c62 eebd d498 ca3d
00000280: 3bb6 c73d cd07 e9bd 1f34 2abd 1e33 0a3d
00000290: 3658 aebd 5dba d6bd ed54 3ebc 3f41 0fbd
000002a0: 1bb9 053e 400c 23bd 8b6b c53d e1a8 b3bc
000002b0: ca35 8f3d 5884 56bd 017b 543d ff17 d6bd
000002c0: a62a 073e 9fd3 fd3d f5b2 96bd 0957 8fbd
000002d0: 8abd a1bd 334d 7fbd a719 88bd 7c66 1b3d
000002e0: 6e7e 01bc e504 c73c 2e0d 293e 862a f2bd
000002f0: a6c0 90bd 80c2 d0bb 2687 7d3d eff2 9f3d
00000300: ff0e 37bd e60b 6dbd 2505 05be e1f9 9f3c
00000310: 9b54 15be 7787 f73d ecab 9abb 3b5d 343c
00000320: b93b a9bd d4f8 013d 46f3 eabd 7a0f e93c
00000330: b4af e1bd 28a9 9c3d e359 d3bb e977 e5bd
00000340: 9661 8d3d a301 85bd c168 293e 38ac 89bc
00000350: fc5a a83d 51b3 ff3d e0bf 593c c928 5e3c
00000360: ebc6 953d 9939 a63b a7f5 ecbc 356e 063e
00000370: 55ed 0c3c 7208 2f2c 93a5 11bd 9f6c a83d
00000380: ad5f eb3d d1cf dabb 9914 37be cbac a4bd
00000390: ee36 93bd 6463 e73c 0b1f 45bd 6056 ef3d
000003a0: 0084 1c3d 6271 2bbc 3186 bdbd 0705 d13d
000003b0: ee36 383d 40e7 d93d 9590 09bb dd7c 20be
000003c0: b7ff 76bd becf ec3d 69c3 f23d a9db 693d
000003d0: ca84 10be 7b6e b13d 1ab5 0a3c 65a3 debd
000003e0: 6418 91bd cdd2 18be 74f6 e93d bc52 12be
000003f0: 16c1 fdbc 25a3 80b8 2720 46bc aca4 b13d
0.110498935 -0.066749714 0.08096149 -0.09510131 0.0061803698 0.032448098 -0.08470069 0.0063856877
-0.025616303 -0.030113636 -0.018327208 0.03149113 0.05317996 0.012994374 0.044803727 0.07738865
-0.10000056 0.041639328 0.042471193 -0.09247977 0.036878824 -0.12162817 0.024730736 -0.028562907
0.021449646 -0.044590794 0.05560619 0.027832415 0.022055622 2.0494633e-06 0.07891985 0.03877242
-0.046862323 0.051495958 0.10591359 -0.08587772 0.06504079 0.05854326 0.0032269484 -0.15911779
-0.13536707 0.027387755 0.010082361 -0.101650625 0.05492698 0.077817984 0.06993429 0.058056697
0.105870344 -0.0012711495 0.003060907 -0.035495423 0.15276453 -0.096022874 0.11106407 0.04246289
-0.046563137 -0.06223044 0.011295457 -0.05213519 -0.0022216942 -1.8838675e-06 0.031287257 -0.15268046
0.034616057 0.108774364 -0.04178941 -0.07822643 -0.059783507 -0.047059316 0.10430052 0.026625797
0.09644221 -0.10057967 0.03464201 -0.07399185 0.112522185 -0.020273695 -0.017748972 0.09207633
0.0020274317 0.15636118 -0.0042134575 -0.037128016 -0.0034024478 -0.13630034 0.14768335 -0.016401015
-0.049958423 -0.012670753 0.036846835 -0.011220878 0.020519812 -2.979787e-12 -0.03984852 -0.015127922
0.06678213 -0.0095264455 0.016107637 0.037423685 -0.093661495 0.01169561 -0.076793134 -0.03697627
-0.012189274 0.027453912 -0.11136186 -0.030421222 0.12216245 0.053646985 -0.046885796 -0.028083371
0.008611797 -0.082681045 -0.012164434 0.038583018 -0.059632294 -0.13831748 0.12629817 0.03616148
0.071149476 0.08959926 0.122352764 -0.037422128 -0.0049536247 -0.00834137 0.049267594 0.08184156
0.046908405 0.057016775 -0.044893567 0.052340776 -0.08933788 -0.0744261 0.026751563 -0.020102533
0.066095375 0.010978176 -0.021978898 -0.052577216 -0.09945189 -0.14315562 0.0077274833 0.041970238
0.105414785 0.14919218 0.05993762 -0.076865084 -0.03483221 -0.008906699 0.07906901 0.051289864
-0.04455469 0.07272185 0.052530114 -0.066816 -0.028554002 0.0010496659 -0.116398185 0.09892431
0.097515546 -0.11378441 -0.041553613 0.033740155 -0.08512919 -0.10484765 -0.011616928 -0.034974333
0.13058893 -0.039806604 0.09639653 -0.021931114 0.06992681 -0.052372307 0.05187512 -0.10453796
0.13199863 0.12393879 -0.07358352 -0.069990225 -0.0789748 -0.062329482 -0.06645518 0.037939534
-0.007903678 0.024294326 0.16508934 -0.11824517 -0.07067995 -0.0063708425 0.061896466 0.07810008
-0.044692036 -0.057872675 -0.12990244 0.019528331 -0.14583056 0.12086385 -0.0047202017 0.011008556
-0.08263344 0.03173144 -0.11472182 0.028449763 -0.11019841 0.076494515 -0.0064499243 -0.11204512
0.06903379 -0.06494453 0.16543867 -0.016805753 0.08220479 0.12485374 0.0132903755 0.013559529
0.07313331 0.005072784 -0.02892573 0.13127978 0.008601506 2.4873684e-12 -0.035558295 0.08223843
0.11492858 -0.0066776057 -0.17878951 -0.0804077 -0.071882114 0.028245635 -0.048125308 0.116863966
0.038211823 -0.010464044 -0.092541106 0.10206037 0.04497426 0.106398106 -0.0020990719 -0.15672632
-0.060302462 0.11563061 0.11853678 0.05709425 -0.14113155 0.086636506 0.00846603 -0.10871009
-0.0708473 -0.14924164 0.1142396 -0.14289373 -0.03097586 -6.133904e-05 -0.012092627 0.08673987

decoder.layers.4.bias f4 [24]
00000000: f01b 8a3d 2b44 f7bd 012e bfbd 2207 4abd
00000010: 8370 cdbd 5b20 1d3c 369b 813d 0165 bb3d
00000020: 217c 143d 91c5 90bd 24ea 8ebd 5104 b1bd
00000030: 8296 cabd 8680 df3d dc31 b1bd baf0 cdbd
00000040: f6b4 823d 87e8 f3bd f8b8 923d cdb0 5b3d
00000050: ae43 05be cda4 bebd 54cb 163d 76a3 53be
0.0674361 -0.12073549 -0.093349464 -0.04932321 -0.100312255 0.009590234 0.06328432 0.09150124
0.03625119 -0.07068933 -0.069782525 -0.086434014 -0.09891988 0.10913186 -0.08652088 -0.100556806
0.06382172 -0.119095854 0.07164186 0.053635407 -0.13014099 -0.09308777 0.036815003 -0.20667824

prior_network.layers.0.weight f4 [32, 11]
00000000: ae38 0b3e 0946 37bd 3f6b 323c b67a bcbc
00000010: fd25 9cbc 7f06 e73c 8898 f5bc 76fb 28be
00000020: 920d 48be 42f1 c9bd cf28 53be 9aec 7e3d
00000030: 34ba 0c3e 3caf b0be f602 6bbe 457f 1e3e
00000040: 3805 38bc 6758 dbbd e13a 013e 2b1c 80bd
00000050: 93f0 1cbd 4749 89bd 98fb 1dbb acab a73b
00000060: 0681 86be 0a62 b43e 1ae3 1dbe 21c0 633d
00000070: e389 2a3b ba9f 9f3d 3141 1dbe fa58 e53c
00000080: 0bc4 3d3c 9e67 8d3d cc4f 523e 5031 4bbe
00000090: 5416 28bc 94c2 153c 7a3b 0ebe cf4e 2cbc
000000a0: c829 163e 20a9 a4bd ab2c c53c d659 d4bc
000000b0: b18b 243e f0ff 903d f845 193d 4d9a 94bd
000000c0: 60fc f9bd 6580 af3c a0b7 b8bb cf5b 18be
000000d0: 7935 16bc 03a1 b2bd 5506 a5bd 8699 4b3c
000000e0: 6774 92bc 4ddb 7bbd a97b 653c 986b a7bd
000000f0: 5957 8c3d afe4 b6ba 44d1 25be 14df 2d3e
00000100: 856f ca3d be7a 04bd 688c a8bc 9f26 e83d
00000110: a9b7 bd3e b66b 153e 8bc6 a53d 3b11 33be
00000120: 152f bc3c 9a2d 12be 53e6 19be f810 e03c
00000130: aa03 80bc 6892 993e e6f6 553d e497 263d
00000140: 28d8 a2bc f17c 6bbd 9553 3b3e f7fe 3a3d
00000150: 795d 20be 1bd7 3dbe 884f c93c b9d3 b1bc
00000160: ded1 8bba 55eb a33d a2f2 00be f004 9b3e
00000170: 504f 673e ca44 e0bd 66e0 f43b 8cf5 aebc
00000180: 5e6e 9abc 6cf6 08bd 07d4 903d 6a40 b43c
00000190: d064 163e b4fc 65bd 275e f0bd 2d24 9dbd
000001a0: 5822 9eb9 f189 803b 9c66 59bd 5adb 633e
000001b0: c0b5 833e f3e6 243e 60e9 ecbb 7d8a a3bc
000001c0: 7747 083e 88e0 71be 3984 d93a 4a40 36bd
000001d0: d98e 10bd d457 d6bd f48d dbbd 5512 f7bd
000001e0: 409e 1f3e 033b 87be d3c9 753d 986a 533e
000001f0: 74ff d0bd ae61 8ebc 246b adbd ead7 cb3d
00000200: 39b7 a43d 8880 c43d 1e7d b13c 0e4f 743d
00000210: 6c77 00be 942d 523d 4aa2 1bbc 3ced d73c
00000220: fadf 113c 85da e6bd a134 013e 20cc c73c
00000230: 0140 9a3b 9b13 073d a3b3 2ebd 3f72 263b
00000240: 8c8a 113d b1dc 7f3e f307 b7be 25c4 95bd
00000250: 2cdd df3d dba3 3abc 9d23 3abd e6f4 543e
00000260: d268 21be 865e ae3c 3ddf e23d ce24 313e
00000270: 181b d63c 7a73 dd3d c583 44bd 82c7 3c3e
00000280: fee1 283e dfa4 02bd 5149 9fbd 9468 1a3e
00000290: 1318 19be b07d 31be faf0 5a3e 257b fb3b
000002a0: e152 94bd e64d 4ebd 58ff e3bc 77b1 90bd
000002b0: 0401 133d cec0 11bd 4a13 1fbd 2b44 403d
000002c0: 88b2 4cbd 4352 123e 8f80 b63d d22a 71bd
000002d0: ba7f c73d 20f9 b13b f847 7cbd 33c2 3e3e
000002e0: 02e2 003e 8973 3b3e 74e3 0b3e adea c03d
000002f0: a6b7 7cbd f3eb e83d 2b49 8bbe 6b8c 503d
00000300: 781e b63e a74e 353d caf5 443d 81d6 97bd
00000310: 51bd ab3d 2534 f5bd f0de afbb 4c65 5e3d
00000320: b62f dc3c 63bc 81bd b7f3 0a3c 17a6 3a3e
00000330: 91da 84bc 6711 aa3d eb05 dd3d fc6f 0b3d
00000340: 3b69 d63c 3304 b43b a90c 3d3e fa79 6abe
00000350: 0b75 c13e d893 e0bd 68e7 203c 5f74 bebc
00000360: 1da6 89bd 3d31 cd3d 80bf 863d 6fa7 adbd
00000370: bf34 77bd 67af 57bc 03b4 f43d 40a9 b93e
00000380: 4992 97bc ec1a 273c 13f8 a73c 19bc ae3d
00000390: c0ad 473d 5f00 abbd dfd4 19be da3c 9eba
000003a0: 5cc3 493d a3e7 923e d5f0 a1be 160f d03d
000003b0: 0530 783b 564e d73b 3379 edbd c323 553d
000003c0: 92ef 373d eb4d f83c c408 5c3e 81b5 e43d
000003d0: c70b 143c f060 e33c 35da 85bb 7191 173e
000003e0: 50d4 263e c075 21be 133d 993d cdc8 29bd
000003f0: ecbb 89bd 18ea d83d b162 b43c 2dce 0dbe
0.1359584 -0.044744525 0.010889827 -0.023007732 -0.019061083 0.02820134 -0.02997996 -0.16502175
-0.19536427 -0.098604694 -0.20621036 0.06223736 0.13742906 -0.34508693 -0.22950348 0.15478237
-0.011231713 -0.10710221 0.12620117 -0.062553726 -0.038315367 -0.0670343 -0.002410626 0.0051169004
-0.26270312 0.35231048 -0.15418664 0.05560315 0.0026022128 0.07794137 -0.153569 0.027996529
0.011582385 0.06904529 0.20538253 -0.1984303 -0.01025923 0.009140629 -0.13889876 -0.010516836
0.14664376 -0.080400705 0.02406915 -0.025921743 0.16068913 0.07080066 0.037420243 -0.07255993
-0.1220634 0.021423528 -0.005637124 -0.14878772 -0.009168022 -0.08722117 -0.08057848 0.01242674
-0.01787777 -0.06148844 0.014006534 -0.08174819 0.06852598 -0.0013953651 -0.1619311 0.16979629
0.09884552 -0.03234362 -0.020574763 0.113354914 0.37054184 0.1459187 0.0809451 -0.17487042
0.02297167 -0.14275208 -0.15029268 0.027351841 -0.015626747 0.29994512 0.052237414 0.040672198
-0.019878462 -0.0574922 0.18293603 0.04565331 -0.15660657 -0.18539087 0.024574056 -0.021707403
-0.0010667404 0.080038704 -0.12592557 0.30277205 0.22588849 -0.109506205 0.0074730394 -0.02135732
-0.018851455 -0.03343813 0.07071691 0.022003371 0.14686894 -0.0561492 -0.11736708 -0.076729156
-0.00030161696 0.003922694 -0.05307637 0.22251645 0.25724602 0.16103725 -0.007229969 -0.019963497
0.13308512 -0.23620808 0.0016595192 -0.044494905 -0.03529248 -0.10465971 -0.10720435 -0.120640434
0.15587711 -0.2641221 0.060006928 0.20646131 -0.10204974 -0.017380562 -0.08467701 0.09953292
0.080427594 0.09594828 0.021666106 0.059645705 -0.12545556 0.051312998 -0.009499142 0.02635824
0.008903498 -0.11272148 0.12617733 0.024389327 0.004707337 0.03297768 -0.042651784 0.0025397686
0.03553252 0.24986531 -0.35748252 -0.07312802 0.10930857 -0.011391605 -0.04544412 0.20796546
-0.15762642 0.021285307 0.110777356 0.17299196 0.026135966 0.10813041 -0.047977228 0.18435481
0.16492459 -0.031895515 -0.07777656 0.15078956 -0.1495059 -0.17333102 0.21380988 0.007674592
-0.072423704 -0.05036726 -0.027831718 -0.07065099 0.03588964 -0.035584264 -0.038836755 0.04694001
-0.04997495 0.14289193 0.08911239 -0.058878727 0.09741159 0.0054313093 -0.061592072 0.18628769
0.12586215 0.18305792 0.13660985 0.09419761 -0.06169858 0.11373129 -0.2720426 0.050915163
0.3557012 0.04426446 0.048085965 -0.0741396 0.083857186 -0.119728364 -0.0053671524 0.054295823
0.02687822 -0.0633476 0.008480958 0.18227421 -0.016217502 0.083041005 0.107921444 0.034042343
0.026173225 0.0054936646 0.1846186 -0.22898093 0.3778461 -0.10965699 0.009820797 -0.02324885
-0.06721137 0.10019157 0.065794945 -0.08479201 -0.060353037 -0.013164378 0.11948397 0.3626194
-0.018502371 0.01019929 0.020504033 0.085319705 0.048749685 -0.0834968 -0.1502261 -0.0012072579
0.049258575 0.2869235 -0.31629053 0.101591274 0.0037870419 0.0065706177 -0.115953825 0.05203606
0.044906206 0.030310592 0.21487719 0.111674316 0.009036011 0.027756184 -0.00408485 0.14801575
0.16291928 -0.15767574 0.07482352 -0.041451264 -0.067252964 0.10591525 0.022019716 -0.13848181

prior_network.layers.0.bias f4 [32]
00000000: a17c 823b 2978 6ebd 0994 02bb da8a b73b
00000010: f1fc 603d e30b f43e 1484 06bd c12a 133e
00000020: 2f82 e9bc d273 7abd 61fb 2ebc a1b7 1dbe
00000030: ea2f ac3e db95 10bd d380 a6bd a69b a63e
00000040: 91d4 e53e 8f41 19be d99b 9a3e e1c0 95bd
00000050: 4f0b 89bb f394 dcbc 1e1d ebbd 5b52 a7bc
00000060: a7cd 98bd 4670 d43e 7967 343c 072f 6f3c
00000070: 1170 043e 27b7 5f3e 5a76 323e 70bc 493e
0.003982142 -0.058220062 -0.0019924662 0.005601269 0.054928724 0.4766532 -0.032840803 0.14371778
-0.02850446 -0.06114561 -0.010680051 -0.1540208 0.33630306 -0.035299163 -0.0813004 0.32540625
0.44888738 -0.14966415 0.30197027 -0.07312179 -0.0041822563 -0.026926493 -0.11480163 -0.020425012
-0.074611 0.41491908 0.011010998 0.014598615 0.12933375 0.21847211 0.1742796 0.1970079
