m4_ws/src/morphing_lander/learned_models/2024-05-15_17-17-39/model_10.pth (torch, 33518 bytes, 22 tensors)

cond_normalizer.mean f4 [11]
-1.4183944 -0.030522631 -0.00047456857 0.0007531593 0.026278302 -0.0010000581 -0.0067514023 0.5305388
0.540421 0.5305518 0.53990144
00000000: f38d b5bf 990a fabc 84cf f8b9 aa6f 453a
00000010: 9845 d73c 6214 83ba de3a ddbb 64d1 073f
00000020: 0859 0a3f 3ed2 073f fb36 0a3f

cond_normalizer.variance f4 [11]
1.8226403 0.005477953 0.0012796777 0.0020688246 0.042297408 0.045144893 0.4133758 0.015417503
0.017934363 0.015925677 0.017627683
00000000: 474c e93f 6680 b33b dcba a73a 1e95 073b
00000010: 0c40 2d3d dae9 383d fea5 d33e b299 7c3c
00000020: 16eb 923c 9176 823c ee67 903c

output_normalizer.mean f4 [12]
-0.0040657297 -0.0028029222 0.014569803 -3.8863305e-05 0.003430283 0.00082342373 0.007647102 0.0089243455
3.0822165 0.011393736 0.6091132 0.0016426215
00000000: d039 85bb 3bb1 37bb 2fb6 6e3c 2801 23b8
00000010: 99ce 603b 08db 573a 8a94 fa3b 6b37 123c
00000020: 0943 4540 cbac 3a3c d8ee 1b3f 3b4d d73a

output_normalizer.variance f4 [12]
0.11965452 0.06954469 0.16434792 0.0006269713 0.014107163 0.016950877 0.3059085 0.5424334
60.62245 29.925022 7.099985 0.59504396
00000000: 6e0d f53d 726d 8e3d d24a 283e 555b 243a
00000010: bb21 673c 91dc 8a3c 0aa0 9c3e eadc 0a3f
00000020: 647d 7242 7266 ef41 1433 e340 cd54 183f

encoder.layers.0.weight f4 [32, 23]
0.011462346 -0.1831376 -0.036495898 -0.03782522 0.06418268 -0.03974916 0.09460776 0.07666022
-0.1091155 -0.17605892 -0.12418806 0.07672498 0.075456865 0.053058825 -0.038259033 0.08489062
0.16527726 0.07333498 -0.1258084 -0.13663954 0.11270605 0.15207721 -0.07185485 0.10753782
0.12750953 -0.037566837 -0.14140344 -0.06700185 -0.116874844 0.07155453 -0.019300628 0.053727064
0.07898893 0.17400406 0.0035510217 -0.089504965 0.07570577 0.06185244 0.113696344 -0.12572369
-0.16267116 0.115115024 -0.06018822 -0.10194155 0.1477331 -0.032978687 -0.1748611 0.01166737
0.09560037 -0.018153792 0.00039298623 0.10382986 -0.08388552 0.16568193 -0.002154043 -0.20066163
0.16703442 -0.1734989 0.05192982 -0.097424574 -0.13632031 -0.20088787 0.042475883 0.047455724
-0.05978297 0.08600626 -0.00091342337 -0.15917514 -0.07170849 0.06543132 -0.10637942 0.023035629
-0.012204081 -0.17192088 0.037477914 -0.18522757 -0.11839995 -0.036294103 -0.20132965 -0.14493579
0.06281565 -0.013857231 -0.08069218 -0.09394652 0.049951795 -0.0018854428 -0.11663118 0.08170361
0.018306486 -0.013579979 -0.013984546 0.09948972 0.03549384 -0.061226744 0.015572164 0.078544095
-0.13159603 0.027453577 -0.08509333 0.14620969 -0.040481213 0.0026165866 0.17681767 -0.19171374
0.08118045 -0.15915881 0.024573334 -0.14501064 0.15414703 -0.13770795 0.13860887 0.059817996
-0.081507 0.06137316 -0.16839474 -0.030486286 -0.01120699 0.052848794 -0.13828257 0.09842021
0.1871864 -0.09532619 -0.16389419 0.14538604 -0.0024354835 0.073091604 -0.18004526 -0.061300036
0.1554094 0.11045331 0.058154814 -0.03936097 0.055462 -0.097534046 -0.08791189 0.02537494
0.121154815 0.018964771 0.12047112 -0.08535171 -0.08555172 0.058259852 -0.07021224 0.06698273
0.031077879 0.18387452 0.09011139 0.049660936 0.13838367 0.10167951 -0.0019867425 0.005619828
0.18051632 0.104348026 0.13454492 -0.12119253 0.050395183 0.1585856 -0.15569845 -0.064874694
0.049749356 0.10460223 0.012146662 0.13131408 -0.14130025 0.044221576 -0.14443126 -0.11289019
0.18642135 -0.03215417 -0.024472628 -0.15388258 -0.06417995 0.025885511 -0.07568783 -0.13076417
0.09284666 0.12977839 0.042828787 -0.1182092 0.067785524 0.011866514 -0.120350406 -0.12608439
0.08468789 0.1440331 -0.034910325 -0.15401523 -0.15335193 0.18546861 0.062861934 0.17436248
0.0409465 0.20251684 -0.006493755 -0.11659525 -0.10991729 0.09845828 0.14800939 -0.16514575
-0.13584435 -0.0830763 -0.050150227 -0.15249254 -0.08060115 0.115389615 0.07342503 -0.056314074
0.07354189 -0.15548036 0.098703094 -0.016405774 0.04753577 0.13157833 -0.091431394 0.075561285
-0.012494466 0.18502542 0.06160017 -0.04812625 -0.13184744 0.1497499 -0.1105455 -0.11222069
-0.031205446 -0.14996272 0.061118457 -0.14299841 0.19859233 -0.077552855 -0.08844685 0.09321617
-0.108686805 0.113529064 -0.08976896 -0.09135888 -0.0016036781 0.115859866 0.06263296 -0.056828305
-0.16856785 0.015110992 -0.13233274 0.07881454 0.08513014 -0.112749904 0.14152506 -0.11039738
0.12307998 0.15441513 -0.04874891 0.114786096 -0.11937825 -0.14158964 -0.0036010337 0.026741581
00000000: 90cc 3b3c 6c88 3bbe b97c 15bd 9eee 1abd
00000010: 3572 833d 04d0 22bd b7c1 c13d 0900 9d3d
00000020: f277 dfbd ca48 34be 4f56 febd fc21 9d3d
00000030: 2189 9a3d 3654 593d 81b5 1cbd 22db ad3d
00000040: 713e 293e a630 963d ebd3 00be 3ceb 0bbe
00000050: 6ed2 e63d 21ba 1b3e a328 93bd ca3c dc3d
00000060: dc91 023e afdf 19bd 10cc 10be 4438 89bd
00000070: 145c efbd 2e8b 923d 5a1c 9ebc e910 5c3d
00000080: f3c4 a13d 1f2e 323e 42b8 683b 614e b7bd
00000090: a00b 9b3d fc58 7d3d a1d9 e83d b6bd 00be
000000a0: 4593 26be 6dc1 eb3d ec87 76bd bbc6 d0bd
000000b0: 5947 173e a914 07bd ca0e 33be 7f28 3f3c
000000c0: 20ca c33d 43b7 94bc b809 ce39 c0a4 d43d
000000d0: 2ccc abbd 86a8 293e d82a 0dbb 3e7a 4dbe
000000e0: 120b 2b3e b2a9 31be 5db4 543d 8986 c7bd
000000f0: 8d97 0bbe 8db5 4dbe 31fb 2d3d ef60 423d
00000100: fdde 74bd 0d24 b03d ce72 6fba cffe 22be
00000110: e7db 92bd db00 863d 74dd d9bd 37b5 bc3c
00000120: a0f3 47bc 070c 30be 7182 193d 4cac 3dbe
00000130: ac7b f2bd 20a9 14bd 5c29 4ebe 0c6a 14be
00000140: 7ea5 803d 7009 63bc f141 a5bd 0867 c0bd
00000150: 419a 4c3d f620 f7ba 54dc eebd 3954 a73d
00000160: 7cf7 953c 8f7e 5ebc 701f 65bc 44c1 cb3d
00000170: fd61 113d e5c8 7abd 6422 7f3c badb a03d
00000180: 1cc1 06be 53e6 e03c 6945 aebd feb7 153e
00000190: a1cf 25bd 0a7b 2b3b b10f 353e 9b50 44be
000001a0: f041 a63d 87fa 22be 044e c93c ab7d 14be
000001b0: b8d8 1d3e 5003 0dbe 7cef 0d3e b703 753d
000001c0: 24ed a6bd 6c62 7b3d ac6f 2cbe 60be f9bc
000001d0: 869d 37bc fa77 583d f299 0dbe 8990 c93d
000001e0: cbad 3f3e 613a c3bd e1d3 27be 14e0 143e
000001f0: a29c 1fbb 0db1 953d c95d 38be bf15 7bbd
00000200: a423 1f3e 5835 e23d be33 6e3d f838 21bd
00000210: 1f2c 633d eebf c7bd 260b b4bd 1bdf cf3c
00000220: 0420 f83d 025c 9b3c 90b9 f63d e1cc aebd
00000230: bd35 afbd e2a1 6e3d 6fcb 8fbd 3e2e 893d
00000240: 0997 fe3c 9a49 3c3e 528c b83d 4469 4b3d
00000250: 73b4 0d3e 593d d03d 0234 02bb 8926 b83b
00000260: 45d9 383e 6bb4 d53d 25c6 093e ca33 f8bd
00000270: 2e6b 4e3d 4364 223e 6a6f 1fbe 06dd 84bd
00000280: fbc5 4b3d b239 d63d cb02 473c 3377 063e
00000290: 03b1 10be af21 353d cae5 13be f932 e7bd
000002a0: 3de5 3e3e 17b4 03bd d27a c8bc 6593 1dbe
000002b0: c770 83bd da0d d43c 3902 9bbd 0be7 05be
000002c0: 6426 be3d a0e4 043e 3d6d 2f3d aa17 f2bd
000002d0: 23d3 8a3d c46b 423c 467a f6bd 441c 01be
000002e0: d870 ad3d 6a7d 133e 21fe 0ebd 2bb6 1dbe
000002f0: 4a08 1dbe 7ceb 3d3e c2bd 803d 148c 323e
00000300: 84b7 273d 9360 4f3e 91c9 d4bb 7ec9 eebd
00000310: 511c e1bd 7fa4 c93d c68f 173e f81b 29be
00000320: c81a 0bbe e823 aabd 536a 4dbd 0127 1cbe
00000330: 3712 a5bd 6451 ec3d dd5f 963d 96a9 66bd
00000340: 219d 963d 3e36 1fbe d924 ca3d 6765 86bc
00000350: deb4 423d 78bc 063e 6240 bbbd e0bf 9a3d
00000360: 97b5 4cbc 4e77 3d3e 7650 7c3d 0820 45bd
00000370: 0403 07be 0a58 193e ae65 e2bd f6d3 e5bd
00000380: 90a2 ffbc d48f 19be 5957 7a3d 2d6e 12be
00000390: ca5b 4b3e 08d4 9ebd 9f23 b5bd 1fe8 be3d
000003a0: 3097 debd ed81 e83d cad8 b7bd 5d1a bbbd
000003b0: 8232 d2ba f047 ed3d b645 803d ccc4 68bd
000003c0: 0d9d 2cbe 1894 773c 3c82 07be 8469 a13d
000003d0: b658 ae3d 6ce9 e6bd f2eb 103e 0618 e2bd
000003e0: 5b11 fc3d 001f 1e3e f0ac 47bd f914 eb3d
000003f0: 957c f4bd e0fc 10be 52ff 6bbb 2911 db3c

encoder.layers.0.bias f4 [32]
-0.10218753 0.1644639 0.007251876 0.1804341 0.06163733 -0.009107979 -0.14860046 0.15058778
-0.12923975 0.025909975 -0.1364135 0.16404498 -0.021586431 0.147018 0.032081664 0.025486037
0.1063702 -0.14686939 -0.16502796 0.11151529 -0.15556642 -0.0011266411 -0.116178595 -0.064525366
0.1440185 0.14739464 0.019715693 0.14611383 -0.093423836 0.06392059 -0.17502292 -0.08151433
00000000: b247 d1bd 3969 283e 25a1 ed3b b7c3 383e
00000010: 6d77 7c3d a239 15bc b82a 18be af33 1a3e
00000020: 6d57 04be 2841 d43c fbaf 0bbe 68fb 273e
00000030: 07d6 b0bc e38b 163e 1068 033d 18c8 d03c
00000040: 9fd8 d93d ee64 16be 17fd 28be 2162 e43d
00000050: ce4c 1fbe cdab 93ba 0bef edbd e025 84bd
00000060: 9679 133e 9fee 163e ce82 a13c dd9e 153e
00000070: ff54 bfbd cce8 823d 3539 33be fcf0 a6bd

encoder.layers.2.weight f4 [32, 32]
-0.1333469 0.1274639 0.14310147 -0.14213543 0.16176412 -0.12471783 -0.010938696 -0.103541955
0.004326096 -0.083700284 -0.096300215 -0.06448403 -0.021241559 -0.13872635 -0.077790014 0.047982007
0.04983567 -0.07587889 0.1597001 -0.05250423 0.09496938 -0.0036315229 0.053033005 -0.09850076
0.013385986 0.12499242 0.11709366 0.09343425 -0.1400276 -0.036492594 0.06853709 0.08257051
-0.02015222 0.12138474 -0.06781166 -0.073606685 -0.07943563 0.09758169 0.018431319 0.079512
-0.091893226 0.115563065 -0.08401095 -0.13855553 -0.03752382 0.061433442 -0.14797306 -0.09267286
0.14424261 0.09981036 -0.004749941 0.0030121086 0.036509614 0.04201424 -0.09829736 -0.10471256
0.045797527 -0.135266 -0.055933863 0.047930792 -0.10538805 0.072201535 -0.12070401 0.062942505
-0.09111882 0.11994612 0.07419277 0.11772773 -0.112349615 0.030169012 -0.08270919 -0.09148278
-0.10104589 -0.1244482 -0.059436686 -0.14320146 -0.040478855 -0.12843904 0.16689515 -0.11547549
-0.039458048 -0.07370403 0.15980835 0.0010213796 -0.13296768 0.073942706 0.14290996 -0.012960562
0.13160934 0.023505818 0.029531738 0.12203403 0.12650447 0.08290514 -0.012643303 -0.0068821087
0.18323676 0.15076809 -0.14501446 0.060729392 -0.07676649 0.057247493 0.14440955 0.16934812
-0.10368584 -0.15380181 -0.13116343 -0.11191793 0.04895468 0.12753613 0.026744835 -0.04125295
-0.12859686 0.038880944 0.0009344146 0.067935966 -0.06594896 -0.10030577 0.034851264 0.064739585
0.10389668 -0.07611413 -0.015421013 0.11954457 0.13510282 -0.0042000157 0.03455965 -0.00076604227
-0.046624284 -0.06366241 0.13940519 0.05721164 -0.05741234 -0.0718536 -0.0035229158 -0.036234792
0.06403676 0.02091285 0.1199514 0.15500878 -0.039581463 -0.08627516 0.03339664 0.044559207
0.008899512 -0.055831507 0.01780195 0.08216778 -0.04340535 -0.0083835125 0.023920402 -0.09362905
0.064852394 -0.11096475 -0.04854528 0.06265931 -0.09984105 -0.11022236 -0.0021124408 -0.038759544
0.005932285 0.17380755 0.05942373 0.05743542 0.0774234 0.07465792 -0.04438704 0.08466516
-0.1472923 -0.05571932 0.14040597 -0.065590635 -0.13341825 -0.11921746 0.04417749 -0.1416397
0.12159153 -0.023872808 -0.14937171 -0.07769102 0.11002866 0.1153533 0.024185734 0.05321872
0.15219133 -0.0636738 0.06110204 0.033583675 -0.08841612 -0.017294077 -0.0661747 0.045116063
0.1617217 0.116795085 0.096291676 -0.17165384 -0.023602765 0.014627084 -0.11005631 -0.0041694827
-0.12813066 0.0034780372 0.11320214 -0.15558507 0.1492236 0.15729834 0.12683474 -0.16128488
-0.112374626 0.12757182 0.11110537 0.011814029 0.032294214 -0.14100054 0.14874429 -0.058107622
0.011744356 -0.15499412 -0.13992342 -0.09379596 0.121668614 0.07269994 0.05826662 0.029104702
0.14127378 -0.12326986 0.09889381 0.060288556 0.10906222 0.14250393 -0.013763683 -0.07228342
0.1131443 0.1115155 -0.055909373 0.046443336 0.092640415 -0.11751798 -0.07165107 0.033837385
0.09710604 -0.00760407 0.08252616 -0.0036771118 0.104717426 0.035617627 0.09215274 -0.060215235
0.021489566 -0.17520115 -0.09851006 -0.08286216 0.07864141 -0.10326731 -0.002116344 0.05820905
00000000: 178c 08be e685 023e 3189 123e f38b 11be
00000010: 7ea5 253e 106c ffbd 3738 33bc ce0d d4bd
00000020: ecc1 8d3b 0e6b abbd 0c39 c5bd 3410 84bd
00000030: c702 aebc 480e 0ebe 5f50 9fbd c888 443d
00000040: 7d20 4c3d 6466 9bbd 6c88 233e ad0e 57bd
00000050: 4e7f c23d d8fe 6dbb 2339 593d c4ba c9bd
00000060: e550 5b3c 07fc ff3d cdce ef3d 755a bf3d
00000070: 6563 0fbe 4279 15bd 2d5d 8c3d ba1a a93d
00000080: 4516 a5bc 9098 f83d d7e0 8abd 1abf 96bd
00000090: 26af a2bd e9d8 c73d 47fd 963c 30d7 a23d
000000a0: 8432 bcbd 54ac ec3d ef0d acbd 80e1 0dbe
000000b0: 94b2 19bd a2a1 7b3d 4086 17be 45cb bdbd
000000c0: 56b4 133e 6069 cc3d 65a5 9bbb cc66 453b
000000d0: 1b8b 153d 2017 2c3d 2050 c9bd 8a73 d6bd
000000e0: 3096 3b3d 2c83 0abe e81a 65bd 1453 443d
000000f0: b1d5 d7bd 66de 933d aa33 f7bd 00e8 803d
00000100: 819c babd 50a6 f53d 61f2 973d 3c1b f13d
00000110: 8e17 e6bd 0125 f73c 7063 a9bd 535b bbbd
00000120: 26f1 cebd b3de febd e273 73bd 67a3 12be
00000130: 28cd 25bd 8685 03be 90e6 2a3e 6a7e ecbd
00000140: c39e 21bd 23f2 96bd cda4 233e d0df 853a
00000150: ae28 08be 466f 973d fd56 123e 8958 54bc
00000160: 99c4 063e 468f c03c 8bec f13c faec f93d
00000170: 638a 013e 2cca a93d db25 4fbc 5083 e1bb
00000180: 6ba2 3b3e f362 1a3e ac7e 14be 62bf 783d
00000190: c037 9dbd 597c 6a3d 19e0 133e 9869 2d3e
000001a0: 3e59 d4bd 397e 1dbe b54f 06be 3a35 e5bd
000001b0: b484 483d d598 023e fc17 db3c daf8 28bd
000001c0: e5ae 03be a041 1f3d 81f3 743a 0322 8b3d
000001d0: 4010 87bd 1d6d cdbd 33c0 0e3d 3096 843d
000001e0: c8c7 d43d bae1 9bbd 6ba8 7cbc c9d3 f43d
000001f0: 6558 0a3e 49a0 89bb 6b8e 0d3d 3ad0 48ba
00000200: 1bf9 3ebd 7061 82bd 3cc0 0e3e c156 6a3d
00000210: 3429 6bbd fb27 93bd b8e0 66bb ef6a 14bd
00000220: b425 833d 6d51 ab3c 14a9 f53d 9fba 1e3e
00000230: 2c20 22bd 08b1 b0bd eaca 083d b783 363d
00000240: 42cf 113c 94af 64bd 65d5 913c 9547 a83d
00000250: cfc9 31bd 005b 09bc b8f4 c33c 96c0 bfbd
00000260: 55d1 843d 7d41 e3bd 6ad7 46bd 8653 803d
00000270: 7779 ccbd 43bc e1bd e070 0abb 54c2 1ebd
00000280: 9d63 c23b 9bfa 313e 4c66 733d 6741 6b3d
00000290: 2990 9e3d 40e6 983d 2fcf 35bd ed64 ad3d
000002a0: cbd3 16be f139 64bd 95c6 0f3e 6254 86bd
000002b0: cb9e 08be 4928 f4bd 75f3 343d ff09 11be
000002c0: fb04 f93d e890 c3bc e6f4 18be 781c 9fbd
000002d0: b556 e13d 5a3e ec3d 2921 c63c dffb 593d
000002e0: 0bd8 1b3e 6967 82bd 2246 7a3d 098f 093d
000002f0: 8313 b5bd 4fac 8dbc 9a86 87bd 9fcb 383d
00000300: 609a 253e 4332 ef3d 9234 c53d 06c6 2fbe
00000310: 965a c1bc 70a6 6f3c 3465 e1bd 28a0 88bb
00000320: af34 03be c8ef 633b 86d6 e73d b151 1fbe
00000330: 12ce 183e d112 213e f7e0 013e dd27 25be
00000340: ab24 e6bd 30a2 023e 368b e33d a18f 413c
00000350: f046 043d 7262 10be 6c50 183e 4202 6ebd
00000360: 666b 403c c7b6 1ebe 1648 0fbe 1918 c0bd
00000370: 652d f93d b5e3 943d fba8 6e3d fc6c ee3c
00000380: 13aa 103e e974 fcbd d688 ca3d 22f1 763d
00000390: 035c df3d 8dec 113e 1281 61bc 5409 94bd
000003a0: 33b8 e73d 3d62 e43d 3a01 65bd 5e3b 3e3d
000003b0: 42ba bd3d 44ad f0bd ccbd 92bd 1299 0a3d
000003c0: 88df c63d 902b f9bb 7a03 a93d b3fb 70bb
000003d0: 1776 d63d cae3 113d 93ba bc3d 40a4 76bd
000003e0: e30a b03c ee67 33be a4bf c9bd a3b3 a9bd
000003f0: bf0e a13d d07d d3bd 5cb2 0abb 9d6c 6e3d

encoder.layers.2.bias f4 [32]
-0.0084860725 0.10551848 0.09267288 -0.0650842 -0.0069939 -0.011119744 0.09240776 0.00047540222
-0.12182688 -0.008690212 0.13247643 0.16473654 0.01906651 -0.0812565 -0.0051601776 0.01350065
0.023710016 0.15307464 -0.00037772098 0.01425291 0.12083797 -0.06393625 -0.10095823 -0.052289847
0.094558746 -0.03463241 -0.034816697 -0.13410619 0.028268019 -0.037901867 -0.15645838 0.090687074
00000000: 2b09 0bbc 131a d83d 47cb bd3d dd4a 85bd
00000010: 162d e5bb 962f 36bc 4840 bd3d 683f f939
00000020: 5f80 f9bd 6461 0ebc e7a7 073e b2b0 283e
00000030: 5f31 9c3c cf69 a6bd b516 a9bb d531 5d3c
00000040: 823b c23c 99bf 1c3e da08 c6b9 0a85 693c
00000050: e679 f73d 02f1 82bd 30c3 cebd e12d 56bd
00000060: 04a8 c13d b7da 0dbd f49b 0ebd 2253 09be
00000070: 5592 e73c fd3e 1bbd a036 20be 25ba b93d

encoder.layers.4.weight f4 [12, 32]
0.07447531 0.08806592 0.096015036 -0.10562054 0.079892084 -0.106874555 -0.028910786 0.0024812191
0.13695349 -0.15575553 -0.16878629 0.015588505 0.009879161 0.053696387 -0.0064267633 0.08302703
-0.049795408 -0.15794948 -0.02629286 -0.07960426 0.061346512 0.039324004 0.06723346 -0.062239863
-0.09701438 -0.044612285 0.07295321 -0.11350761 -0.035747148 0.110465996 0.10875804 -0.10986563
0.15187316 -0.015232867 -0.16359814 -0.14998084 0.10500623 0.1278137 0.022481458 -0.028980318
0.051803652 -0.15633735 -0.006263688 -0.12530759 0.14999075 0.15299153 -0.035929423 -0.11366823
0.15544572 0.005392426 0.15424642 0.150823 0.115005165 0.07864276 -0.1197618 0.023256475
0.0063646864 -0.15279347 0.13989149 -0.13417673 0.14494078 0.08581371 0.0395219 -0.070795804
0.052649878 0.012838068 0.12741324 0.05989542 0.092247166 0.09042141 0.08608472 0.10548793
0.006764248 -0.15516576 -0.12615845 -0.15306841 0.16189152 0.027923184 -0.11370602 0.012068268
0.14019658 0.14623167 -0.04821528 0.16310474 -0.09073835 0.05835736 -0.08638985 0.076107346
-0.14822184 -0.050404854 0.0010503483 -0.14161257 0.0091363 -0.06873641 -0.053913176 -0.094591886
-0.16066626 -0.09542219 0.012771608 -0.054908104 -0.04606456 0.11232324 0.07712233 0.016777383
0.022070033 0.014832647 -0.053407017 0.023570007 0.12682506 0.11609806 0.05498688 0.12099312
0.0038111566 -0.07231254 -0.11444041 0.14213996 -0.095931925 0.1024488 0.00020559784 0.11039275
-0.02042954 -0.06933885 0.07940974 -0.14380269 -0.11906192 -0.07445338 0.06666542 -0.045601703
0.08779234 0.05902519 0.06425922 -0.055320185 -0.033817794 0.056611747 -0.043607716 -0.12812567
-0.015630096 0.15281278 -0.098276235 0.13803856 0.068774976 -0.13328557 0.05576634 0.17897041
0.10289597 0.0057139415 -0.1484563 -0.1043763 0.13314302 -0.008891654 -0.05472299 0.2090147
-0.039031275 -0.06358912 0.11007733 -0.09202536 0.082420826 -0.002314556 0.038591284 -0.032723486
0.032283302 -0.098034576 -0.095975034 0.16771986 -0.045863446 0.0343466 0.11668033 0.04596339
0.10754509 0.08312645 0.18402849 -0.17884678 -0.011838328 -0.048568167 0.027594699 -0.070274614
0.041110136 -0.048358943 0.0849658 0.007990793 0.11996423 -0.15046175 -0.029438997 -0.13563716
0.036854897 0.17555514 -0.13569313 -0.03220381 0.008731349 0.09141403 -0.14787662 0.06851749
-0.057424694 -0.052463733 -0.089418024 -0.18044904 -0.014708829 0.107002854 0.040282756 -0.07264809
-0.023807637 0.05550546 0.0650176 0.059795354 -0.15919867 -0.051804557 -0.060376566 -0.16406107
-0.14428496 -0.019139744 -0.030707948 0.09689555 -0.09325382 -0.03535476 0.08177493 0.03397347
-0.11838329 -0.06446087 -0.16401215 0.061533343 -0.046791337 0.13264003 0.037257425 0.08093071
-0.028123451 -0.03057597 -0.018399855 0.12618934 0.022883447 0.0329862 -0.049254216 0.044854976
-0.067385994 0.03465591 -0.061858032 -0.010775805 0.12692253 0.12804301 -0.04820268 0.15725441
0.087484 -0.08232323 -0.07753298 -0.0774478 -0.11217959 0.061016306 0.0001492834 0.097573504
0.015498708 -0.06869306 -0.0021110564 0.06017653 -0.009143672 0.1275853 0.044583157 -0.06576609
00000000: 8386 983d e85b b43d 88a3 c43d 954f d8bd
00000010: 769e a33d 0ce1 dabd 50d6 ecbc f39b 223b
00000020: 893d 0c3e 617e 1fbe 50d6 2cbe ee66 7f3c
00000030: 34dc 213c bef0 5b3d 9997 d2bb 130a aa3d
00000040: 45f6 4bbd 82bd 21be 2064 d7bc 8f07 a3bd
00000050: 7b46 7b3d 3512 213d b2b1 893d 3aef 7ebd
00000060: 7aaf c6bd 5fbb 36bd 7e68 953d ae76 e8bd
00000070: 9a6b 12bd ff3b e23d 89bc de3d 3b01 e1bd
00000080: a384 1b3e 4693 79bc 4586 27be 9494 19be
00000090: 820d d73d 98e1 023e 092b b83c 2268 edbc
000000a0: 1130 543d e616 20be a03f cdbb a250 00be
000000b0: 2d97 193e d0a9 1c3e bb2a 13bd e4ca e8bd
000000c0: 2a2d 1f3e f3b2 b03b c6f2 1d3e 5871 1a3e
000000d0: d487 eb3d 750f a13d ad45 f5bd 5d84 be3c
000000e0: dc8e d03b e475 1cbe b73f 0f3e a065 09be
000000f0: 5b6b 143e 19bf af3d b7e1 213d 64fd 90bd
00000100: 66a7 573d c356 523c 9e78 023e e654 753d
00000110: 15ec bc3d dc2e b93d 304d b03d 0e0a d83d
00000120: a0a6 dd3b c6e3 1ebe ae2f 01be f7bd 1cbe
00000130: e4c6 253e 29bf e43c b4de e8bd fcb9 453c
00000140: b18f 0f3e c1bd 153e 637d 45bd ee04 273e
00000150: 07d5 b9bd 2108 6f3d 29ed b0bd 2bde 9b3d
00000160: 77c7 17be 5275 4ebd d7ab 893a e302 11be
00000170: 6bb0 153c adc5 8cbd 10d4 5cbd 64b9 c1bd
00000180: b285 24be b66c c3bd 0240 513c 52e7 60bd
00000190: 31ae 3cbd ba09 e63d 50f2 9d3d b970 893c
000001a0: 37cc b43c a104 733c 51c1 5abd e315 c13c
000001b0: 6ede 013e d2c4 ed3d ec39 613d 3ecb f73d
000001c0: 99c4 793b 9918 94bd bc5f eabd 238d 113e
000001d0: f577 c4bd add0 d13d c095 5739 9815 e23d
000001e0: da5b a7bc 8701 8ebd 93a1 a23d 0341 13be
000001f0: bcd6 f3bd 047b 98bd e187 883d dac8 3abd
00000200: 78cc b33d 66c4 713d 579a 833d 6b97 62bd
00000210: 8784 0abd b8e1 673d 019e 32bd 6033 03be
00000220: b00a 80bc f47a 1c3e 0d45 c9bd fb59 0d3e
00000230: e5d9 8c3d 037c 08be 3f6b 643d 0544 373e
00000240: 1fbb d23d 043c bb3b ee04 18be 3ec3 d5bd
00000250: a556 083e 4dae 11bc 3725 60bd f307 563e
00000260: 42df 1fbd 033b 82bd 3970 e13d cb77 bcbd
00000270: 40cc a83d ceaf 17bb e511 1e3d 1009 06bd
00000280: 7f3b 043d 5ac6 c8bd 8f8e c4bd c1be 2b3e
00000290: 4fdb 3bbd 05af 0c3d 19f6 ee3d 1c44 3c3d
000002a0: 9a40 dc3d 333e aa3d f771 3c3e 9c23 37be
000002b0: 8cf5 41bc 6aef 46bd 470e e23c 23ec 8fbd
000002c0: 1a63 283d 0714 46bd 8d02 ae3d d1eb 023c
000002d0: ceaf f53d a512 1abe 0d2a f1bc 78e4 0abe
000002e0: 29f5 163d bac4 333e 24f3 0abe 24e8 03bd
000002f0: ef0d 0f3c 4737 bb3d f86c 17be e652 8c3d
00000300: 2836 6bbd 36e4 56bd cc20 b7bd a2c7 38be
00000310: 4dfd 70bc 5024 db3d 88ff 243d 86c8 94bd
00000320: 3c08 c3bc b159 633d f327 853d f9eb 743d
00000330: fa04 23be 0431 54bd 6b4d 77bd a0ff 27be
00000340: 70bf 13be f4ca 9cbc 3c8f fbbc 2d71 c63d
00000350: dcfb bebd 27d0 10bd 9d79 a73d c427 0b3d
00000360: f072 f2bd 1004 84bd cdf2 27be 630a 7c3d
00000370: 46a8 3fbd cad2 073e 3e9b 183d 00bf a53d
00000380: 2763 e6bc 757a fabc 4bbb 96bc c737 013e
00000390: 1176 bb3c 8a1c 073d cabe 49bd dab9 373d
000003a0: ab01 8abd 5bf3 0d3d d95e 7dbd 018d 30bc
000003b0: fbf7 013e b51d 033e 2c70 45bd 4d07 213e
000003c0: d02a b33d 1599 a8bd 9cc9 9ebd f49c 9ebd
000003d0: 6abe e5bd 3cec 793d f588 1c39 9ed4 c73d
000003e0: 4bee 7d3c f2ae 8cbd a659 0abb aa7b 763d
000003f0: 57cf 15bc b9a5 023e d49c 363d 5fb0 86bd

encoder.layers.4.bias f4 [12]
0.13937612 -0.09982433 0.17773706 0.07181306 -0.13650112 -0.018403675 0.15443812 -0.108829394
-0.12305275 0.1258089 0.0679582 -0.12778834
00000000: 9db8 0e3e b370 ccbd b400 363e ba12 933d
00000010: f3c6 0bbe 4ec3 96bc 0725 1e3e f2e1 debd
00000020: 1503 fcbd 0cd4 003e ab2d 8b3d f2da 02be

decoder.layers.0.weight f4 [32, 17]
0.13298048 -0.013922137 -0.080875225 -0.08047843 -0.21821788 -0.010058616 0.20300367 0.16330211
-0.021640114 -0.16102186 -0.17132838 0.23785852 -0.14945418 0.15132488 0.120824896 -0.119069986
0.07943119 -0.18439959 0.18208699 -0.20165434 -0.18723202 0.21062267 -0.042811584 -0.02842242
-0.018094264 0.1411562 0.19671658 -0.066274635 -0.21312234 0.09165906 0.19068213 0.10802045
-0.07158335 0.20511326 -0.054355185 0.21719979 0.09323679 0.21085112 0.112115875 0.21341094
-0.008430497 -0.2010196 0.15034467 -0.20540248 -0.017513024 0.0425667 0.21066336 -0.14637594
-0.123780996 0.060016867 -0.23838484 -0.040362425 -0.029650582 0.17394345 0.014637518 -0.11975761
0.10566419 0.24334669 0.20511198 -0.18874621 0.18115708 -0.11426358 -0.01568628 -0.16222262
0.074328095 -0.2078061 -0.10622703 0.14216995 -0.0314028 0.012927596 -0.043643516 0.10456231
-0.0028366342 -0.014196465 -0.09211618 -0.07590665 -0.17009929 0.024560375 0.13675341 -0.017242067
-0.17815402 -0.13108976 0.10810396 -0.1732164 -0.19132829 0.0011105285 -0.21722797 -0.061850455
0.053154387 -0.21786694 0.12798522 0.014232512 0.16298172 -0.015834289 0.24505268 0.1659265
0.2745929 -0.014977271 0.07401697 0.11367252 -0.23807387 0.15386024 0.15941109 -0.19614705
-0.20729312 0.05849949 -0.050750982 -0.16387796 0.053784754 -0.20605019 0.058192793 -0.028199371
-0.066463694 -0.10512974 0.109294355 -0.029745948 0.17450348 0.08863233 -0.14324427 0.026811989
-0.22486307 -0.20990838 0.10818668 -0.1685147 0.10324205 0.04718135 0.14914834 -0.19117448
0.043924183 -0.08157733 0.029624177 -0.058878653 0.062420737 0.19601892 0.10320331 -0.1431152
0.22537243 0.1580986 0.23307507 -0.15695633 -0.046449743 -0.22979043 0.063722976 0.09905245
0.22785552 0.060818333 0.047681075 -0.023372823 0.16199583 0.0893877 -0.07092614 -0.23934136
0.06571199 0.094564416 -0.066598706 -0.19053811 0.07652709 -0.24031372 0.2032683 0.22186084
0.19643354 -0.0021690778 -0.13307895 -0.107481055 -0.058072254 0.03466818 -0.08626247 0.00644265
0.0109676765 0.11380523 0.10957768 0.029482897 -0.2084771 -0.12658793 -0.20441459 0.15238014
-0.03457752 0.100948565 -0.21962689 0.06675073 -0.039583933 -0.028743058 0.09672207 0.22389284
-0.17907496 0.17764802 -0.00729214 -0.007257319 -0.21205957 0.015175507 -0.028512616 0.05433744
0.22240497 0.2293847 0.067019664 -0.15630512 -0.04010185 -0.09875948 0.0632843 -0.01728946
0.11121358 -0.26773724 -0.28245348 -0.12801231 -0.017620511 0.0510762 -0.08177617 -0.053996123
0.104397394 0.042741187 -0.00067067967 -0.051568422 -0.2145127 -0.14825761 0.17396088 0.20075361
0.08129041 0.028421743 0.16735521 -0.090190515 0.058967397 -0.050731346 0.13105491 0.1958461
0.21532835 -0.18397567 -0.15553437 -0.0675579 -0.09450158 -0.0614403 -0.1403569 -0.109606914
-0.15266804 -0.16447517 -0.2051926 0.012470065 0.20898762 0.1531749 -0.049351405 -0.15388002
0.1453689 -0.23372264 0.10782659 -0.0338412 0.0017836723 0.26951376 0.070495546 -0.093946286
-0.0556337 0.0747437 -0.15953547 0.1905241 -0.057735167 -0.038676966 0.20242478 0.076870665
00000000: 092c 083e ad19 64bc e9a1 a5bd e0d1 a4bd
00000010: 8274 5fbe e5cc 24bc 32e0 4f3e ab38 273e
00000020: 9c46 b1bc eae2 24be b570 2fbe 2f91 733e
00000030: 840a 19be e9f4 1a3e 0b73 f73d f7da f3bd
00000040: d2ac a23d 3fd3 3cbe 0375 3a3e 7a7e 4ebe
00000050: c0b9 3fbe 78ad 573e 335b 2fbd 23d6 e8bc
00000060: 6c3a 94bc 408b 103e 1270 493e ffba 87bd
00000070: be3c 5abe bfb7 bb3d 2d42 433e d339 dd3d
00000080: 4b9a 92bd 3609 523e 8ba3 5ebd 9f69 5e3e
00000090: eef2 be3d 5be9 573e 029d e53d 6688 5a3e
000000a0: 1120 0abc 15d8 4dbe f4f3 193e 0755 52be
000000b0: 7977 8fbc 6c5a 2e3d 23b8 573e 93e3 15be
000000c0: e480 fdbd 3fd4 753d 281b 74be 1253 25bd
000000d0: c7e5 f2bc 3b1e 323e 33d2 6f3c 7a43 f5bd
000000e0: 7866 d83d e02f 793e e008 523e b046 41be
000000f0: 3e81 393e 0603 eabd 8380 80bc b01d 26be
00000100: 5439 983d 1fcb 54be 8f8d d9bd 0095 113e
00000110: 39a0 00bd 45ce 533c 8bc3 32bd c424 d63d
00000120: d3e6 39bb 4a98 68bc 68a7 bcbd f274 9bbd
00000130: 822e 2ebe d732 c93c 1609 0c3e 3c3f 8dbc
00000140: 026e 36be 653c 06be 9c65 dd3d a45f 31be
00000150: 90eb 43be 278f 913a 0271 5ebe e756 7dbd
00000160: 6ab8 593d 8318 5fbe 8f0e 033e 7b2f 693c
00000170: aee4 263e e9b6 81bc 17ef 7a3e a3e8 293e
00000180: 7197 8c3e 3a63 75bc 3696 973d 23cd e83d
00000190: a3c9 73be 8a8d 1d3e a93c 233e c6da 48be
000001a0: a644 54be 299d 6f3d 43e0 4fbd a0cf 27be
000001b0: 674d 5c3d d2fe 52be 915b 6e3d 5e02 e7bc
000001c0: 1e1e 88bd 434e d7bd b8d5 df3d c6ad f3bc
000001d0: 0ab1 323e de84 b53d a0ae 12be d1a4 db3c
000001e0: 8142 66be 39f2 56be fa90 dd3d 1e8f 2cbe
000001f0: 9170 d33d 3b41 413d 58ba 183e 3ec3 43be
00000200: d8e9 333d 0412 a7bd 67ae f23c be2a 71bd
00000210: e3ac 7f3d 2fb9 483e 425c d33d ca8c 12be
00000220: 08c8 663e 99e4 213e 3bab 6e3e 29b9 20be
00000230: 1642 3ebd 2f4e 6bbe 3181 823d 03dc ca3d
00000240: f552 693e a51c 793d 3b4d 433d 5d78 bfbc
00000250: 3ce2 253e e610 b73d b941 91bd e715 75be
00000260: 0294 863d fdaa c13d e764 88bd 6c1c 43be
00000270: 3cba 9c3d cd14 76be 9125 503e 7d2f 633e
00000280: e025 493e 1627 0ebb d945 08be 071f dcbd
00000290: 2cdd 6dbd 3900 0e3d 61aa b0bd de1c d33b
000002a0: c5b1 333c b712 e93d 436a e03d 1e86 f13c
000002b0: 057b 55be 44a0 01be 0f52 51be 8a09 1c3e
000002c0: 28a1 0dbd 1fbe ce3d dfe5 60be 9bb4 883d
000002d0: c322 22bd 9076 ebbc 3816 c63d 2a44 653e
000002e0: 6d5f 37be 5de9 353e e7f2 eebb cece edbb
000002f0: 2526 59be b1a2 783c 4a93 e9bc ef90 5e3d
00000300: 21be 633e d3e3 6a3e 9b41 893d 730e 20be
00000310: d641 24bd 6942 cabd 339b 813d a0a2 8dbc
00000320: f2c3 e33d db14 89be be9d 90be a915 03be
00000330: e458 90bc 4735 513d 447a a7bd 0a2b 5dbd
00000340: 4dce d53d 6211 2f3d 8dd0 2fba 6939 53bd
00000350: 38a9 5bbe d8d0 17be cd22 323e 5b92 4d3e
00000360: 967b a63d b7d4 e83c 2a5f 2b3e ceb5 b8bd
00000370: cc87 713d accb 4fbd 4233 063e e18b 483e
00000380: 097f 5c3e 1e64 3cbe 6744 1fbe cc5b 8abd
00000390: 0b8a c1bd d3a8 7bbd b8b9 0fbe 9779 e0bd
000003a0: 0355 1cbe 2e6c 28be 021e 52be 3e4f 4c3c
000003b0: da00 563e e2d9 1c3e b324 4abd b992 1dbe
000003c0: 96db 143e fd54 6fbe 30d4 dc3d 129d 0abd
000003d0: 1cca e93a b5fd 893e f85f 903d e966 c0bd
000003e0: 2ae0 63bd 3a13 993d 445d 23be c018 433e
000003f0: b67b 6cbd bd6b 1ebd 7148 4f3e 5e6e 9d3d

decoder.layers.0.bias f4 [32]
-0.08350396 -0.12069241 0.25729147 0.013607438 -0.07818226 0.034988727 0.058864433 0.15260096
0.08193172 0.07208392 -0.04102105 0.020758653 -0.04352963 -0.16721499 0.0206742 0.18305941
-0.2402782 0.14685822 0.19217221 0.0027155937 0.21051016 -0.0072348327 -0.01033983 0.08608189
-0.14408448 -0.10448937 -0.105313875 0.19837344 0.068430945 -0.1260634 0.17213236 0.28169242
00000000: 2004 abbd 952d f7bd b5bb 833e bbf1 5e3c
00000010: 051e a0bd 5750 0f3d d51b 713d 6d43 1c3e
00000020: d1cb a73d bca0 933d b005 28bd 0d0e aa3c
00000030: 204c 32bd 683a 2bbe f15c a93c ed73 3b3e
00000040: 7d0b 76be 0062 163e cbc8 443e 1af8 313b
00000050: fa8f 573e 2d12 edbb 6468 29bc b44b b03d
00000060: e28a 13be 86fe d5bd cdae d7bd 6822 4b3e
00000070: 8625 8c3d c416 01be 7743 303e fd39 903e

decoder.layers.2.weight f4 [32, 32]
0.058909006 0.17682734 -0.09165239 0.09991857 0.16516282 0.07900385 0.15643668 0.0015877995
0.16383292 -0.19871923 0.1428995 -0.08451278 -0.043109592 -0.04961104 -0.016424712 -0.12078806
0.018460326 0.01209801 -0.084603146 0.14106084 -0.040228963 -0.02072936 0.008836383 -0.01325025
-0.08402197 0.108775295 0.112151615 0.12215355 0.094031245 -0.11516074 -0.066521004 -0.07076823
-0.009659543 -0.053821713 -0.015782418 -0.10588859 -0.014878172 -0.03804163 -0.13870126 0.112173356
-0.06818763 -0.0056712674 -0.036381878 -0.055506732 0.079319604 0.1397344 -0.10525101 -0.052081138
-0.13508761 0.005705237 0.07882804 -0.15214258 -0.038698237 0.058427297 -0.01238285 0.047730066
0.15721513 -0.07782746 -0.06854975 -0.044310104 0.0866648 0.11564964 -0.014230017 -0.07212889
-0.12012743 0.11360428 -0.020371024 0.008360179 -0.14892925 0.13153872 0.09230568 0.10433726
0.14623271 -0.067654766 0.101741575 0.088892266 -0.11503885 0.15989658 0.05373307 0.06611057
0.05645572 0.17639305 -0.066490375 -0.051246367 -0.13583489 -0.07707927 -0.007920588 0.14274843
-0.09373683 0.10107432 0.13082163 0.09169692 0.1842329 -0.108162954 -0.053368628 0.13717644
-0.010936041 0.021284154 -0.08925538 0.1204674 0.07547686 -0.0650788 0.085050896 -0.12955147
-0.020191517 0.14659502 0.109619424 -0.0705265 0.046728462 -0.12619604 -0.099706806 0.027315224
0.04040688 0.16878818 -0.119660676 -0.0898558 -0.06919381 0.0009905563 -0.1130897 0.02347549
0.12908426 -0.07921399 0.09791109 -0.040037427 0.0005379924 0.16562401 0.17108266 0.1311626
0.17062005 0.08961123 -0.029661346 0.01657692 -0.13232613 -0.08950597 0.13463801 -0.10980942
-0.050954074 0.12654826 0.042813584 0.099505045 -0.120740995 -0.112868264 0.22826977 0.19052763
-0.060167592 0.058462095 0.19827047 -0.13278106 -0.036004804 0.062165193 -0.07486711 0.110548
-0.13091086 -0.13401903 0.008509083 0.12050942 -0.024456888 0.07567045 0.20107964 0.009852454
0.101411134 -0.055509597 -0.091301836 0.07744328 0.008985687 0.03060124 0.10471011 0.10930601
0.004359479 -0.12640072 -0.014837469 -0.10817478 0.13265488 0.013643499 0.06321032 -0.089765355
0.12588033 -0.074656874 0.026522193 0.0881714 -0.09217706 0.16804396 0.14357641 -0.0010969574
0.1441152 0.021920396 -0.12377494 -0.104999095 -0.016692095 -0.1944533 0.14909254 0.07461998
0.0025061653 0.13312618 0.016822781 0.111575425 0.07889677 -0.17298067 0.04335692 -0.108982325
-0.13095364 -0.09877299 -0.010794451 0.13024497 0.03796521 -0.0008766596 0.10980459 0.13723557
0.15233782 -0.046018258 0.13980353 0.07967527 -0.12780358 -0.039663255 0.14384067 0.010992993
0.10968706 0.072252825 -0.04985571 0.122985326 -0.12859148 0.17725813 0.097401656 0.18085895
0.08028308 0.11315135 -0.1409346 -0.15635155 -0.13409561 0.032398567 0.03351139 0.07460776
-0.13531587 0.07883547 0.13670428 -0.14566085 0.086046144 0.117851555 0.07717622 0.095939085
-0.18292017 -0.038657054 -0.081395544 0.013798814 -0.0852384 0.041432057 -0.0054372153 0.141143
-0.15111168 0.02948677 -0.032734767 0.123393685 0.13505663 0.030458676 0.0105467355 -0.028572151
00000000: 924a 713d 3a12 353e 40b4 bbbd 1ba2 cc3d
00000010: 7120 293e c5cc a13d f030 203e b61d d03a
00000020: d1c3 273e 0e7d 4bbe 3f54 123e 0915 adbd
00000030: af93 30bd f234 4bbd 1e8d 86bc bb5f f7bd
00000040: 1c3a 973c bb36 463c 6a44 adbd 4172 103e
00000050: 20c7 24bd 9ed0 a9bc 7ac6 103c 9417 59bc
00000060: b613 acbd 95c5 de3d bfaf e53d a42b fa3d
00000070: 7493 c03d 65d9 ebbd 2a3c 88bd efee 90bd
00000080: 0f43 1ebc 2874 5cbd 214a 81bc 1edc d8bd
00000090: 94c3 73bc 8ad1 1bbd b407 0ebe 25bb e53d
000000a0: f5a5 8bbd 0ad6 b9bb 2a05 15bd 075b 63bd
000000b0: 5172 a23d 8916 0f3e d78d d7bd 0853 55bd
000000c0: 6854 0abe fff2 ba3b 9870 a13d 44cb 1bbe
000000d0: 0b82 1ebd 7651 6f3d 70e1 4abc 9a80 433d
000000e0: 01fd 203e 0164 9fbd d063 8cbd 837e 35bd
000000f0: 517d b13d b8d9 ec3d 0425 69bc 50b8 93bd
00000100: 5f05 f6bd 5ca9 e83d 22e1 a6bc 22f9 083c
00000110: e980 18be 16b2 063e c30a bd3d c6ae d53d
00000120: 07be 153e 958e 8abd e35d d03d 260d b63d
00000130: 7d99 ebbd eebb 233e 3517 5c3d fb64 873d
00000140: 1d3e 673d 61a0 343e 1b2c 88bd b6e7 51bd
00000150: 4d18 0bbe bcdb 9dbd 5bc5 01bc a52c 123e
00000160: 18f9 bfbd 0e00 cf3d 1bf6 053e 98cb bb3d
00000170: 8da7 3c3e 8a84 ddbd 1099 5abd fb77 0c3e
00000180: 152d 33bc 1b5c ae3c 86cb b6bd 9db7 f63d
00000190: 9d93 9a3d 0948 85bd 2a2f ae3d 24a9 04be
000001a0: ae68 a5bc 011d 163e 2680 e03d 3370 90bd
000001b0: 5866 3f3d 8939 01be 1533 ccbd 2dc4 df3c
000001c0: af81 253d cfd6 2c3e a810 f5bd 5106 b8bd
000001d0: 7cb5 8dbd 8ed5 813a 939b e7bd ac4f c03c
000001e0: aa2e 043e f23a a2bd 9c85 c83d 49fe 23bd
000001f0: 0f08 0d3a 5799 293e 4b30 2f3e 7d4f 063e
00000200: 06b7 2e3e 1886 b73d 5afc f2bc 52cc 873c
00000210: 8080 07be e84e b7bd 8cde 093e c3e3 e0bd
00000220: 38b5 50bd de95 013e 4c5d 2f3d 4dc9 cb3d
00000230: 0e47 f7bd 7a27 e7bd 8dbf 693e ad19 433e
00000240: 4b72 76bd f375 6f3d 6a07 4b3e c2f7 07be
00000250: c679 13bd eea0 7e3d ed53 99bd fd66 e23d
00000260: 7f0d 06be 493c 09be ae69 0b3c a5cd f63d
00000270: d059 c8bc 1cf9 9a3d d2e7 4d3e 306c 213c
00000280: a4b0 cf3d 085e 63bd 75fc babd 959a 9e3d
00000290: b438 133c 74af fa3c 4172 d63d d4db df3d
000002a0: f6d9 8e3b 316f 01be db18 73bc bd8a ddbd
000002b0: aed6 073e fc88 5f3c 6a74 813d e6d6 b7bd
000002c0: c6e6 003e b4e5 98bd 1245 d93c 3593 b43d
000002d0: 54c7 bcbd b713 2c3e b205 133e c8c7 8fba
000002e0: ef92 133e 6792 b33c b77d fdbd c409 d7bd
000002f0: dcbd 88bc c41e 47be b7ab 183e 5cd2 983d
00000300: 7a3e 243b 3b52 083e eecf 893c a881 e43d
00000310: a194 a13d d821 31be 0797 313d 2032 dfbd
00000320: b618 06be 7e49 cabd 36db 30bc f05e 053e
00000330: 6881 1b3d a1cf 65ba 3be1 e03d 7b87 0c3e
00000340: 72fe 1b3e a47d 3cbd a828 0f3e ca2c a33d
00000350: f1de 02be f075 22bd f84a 133e f41b 343c
00000360: 9ca3 e03d 4af9 933d 8035 4cbd bbdf fb3d
00000370: 7cad 03be 2883 353e 857a c73d 1733 393e
00000380: 756b a43d e5bb e73d 2951 10be 9f1a 20be
00000390: 5c50 09be 5cb4 043d 3d43 093d f4cb 983d
000003a0: 3e90 0abe 7e74 a13d 35fc 0b3e 1e28 15be
000003b0: f638 b03d 285c f13d 910e 9e3d b67b c43d
000003c0: 6d4f 3bbe dc56 1ebd b5b2 a6bd 6c14 623c
000003d0: 7891 aebd a9b4 293d ab2a b2bb ca87 103e
000003e0: 05bd 1abe 3d8e f13c e414 06bd d4b5 fc3d
000003f0: 494c 0a3e 7984 f93c 37cc 2c3c 2510 eabc

decoder.layers.2.bias f4 [32]
-0.13590656 0.039158124 0.060297456 -0.0904629 -0.0801644 -0.14644277 -0.043719526 -0.10984709
0.05301664 -0.052845743 0.021346787 -0.14956537 0.033051632 -0.03917511 -0.05477807 0.058068298
0.05878007 -0.06186513 0.10898208 0.1544245 -0.0145578375 0.040903293 0.10311875 0.091019824
-0.1778763 0.02213227 0.17224964 0.15898868 0.1292849 -0.09425392 -0.097212166 -0.0330161
00000000: 172b 0bbe 4564 203d 77fa 763d 9d44 b9bd
00000010: 3c2d a4bd 18f5 15be 3f13 33bd 83f7 e0bd
00000020: fa27 593d c774 58bd 75df ae3c aa27 19be
00000030: 2661 073d 1576 20bd f85e 60bd 06d9 6d3d
00000040: 5fc3 703d 4a66 7dbd ff31 df3d 7521 1e3e
00000050: ff83 6ebc 368a 273d ec2f d33d 9a68 ba3d
00000060: 3425 36be bc4e b53c 3662 303e eecd 223e
00000070: 4363 043e 3308 c1bd 2c17 c7bd e43b 07bd

decoder.layers.4.weight f4 [24, 32]
0.12823695 -0.15109941 0.09901754 -0.0973675 -0.008364657 -0.03665491 -0.13770324 -0.0038766435
-0.025951166 -0.08427342 -0.056044396 -0.004959265 0.047016803 0.04897187 0.10025146 0.08344876
-0.10783641 0.02740507 0.07051322 -0.07946928 0.011178118 -0.14274415 0.020528255 0.0036981162
0.046668235 -0.11714328 0.04089317 0.014799557 -0.023363622 0.068652764 0.045942865 0.032701466
-0.06368003 0.086572595 0.12473564 -0.042949986 0.110554606 0.10274906 0.052964117 -0.12963891
-0.12328411 0.003978335 0.052646138 -0.1199019 0.1220719 0.117478125 0.13066415 0.11423455
0.14975138 -0.030457215 0.06906067 0.0033276528 0.17628756 -0.0719881 0.14892745 0.114860155
-0.13134643 -0.09956558 0.028422037 -0.038973805 -0.033336207 -0.072165966 0.09045977 -0.10608083
0.025484946 0.09038509 -0.049283072 -0.12423339 -0.03744676 0.081315935 0.08938567 0.040980525
0.13418087 -0.12983595 0.05008307 -0.08837476 0.13518818 0.003573253 0.0017554383 0.12730482
0.008644846 0.19707285 0.004883658 -0.022627158 0.013592615 -0.118068546 0.17581321 0.00015785178
-0.044118755 0.015138797 0.046774346 -0.018947951 0.058161546 0.01675125 -0.11399693 -0.025992703
0.12824388 0.058912974 0.065385185 0.0052666334 -0.11915254 0.07048758 -0.11096273 0.005580527
-0.016552383 0.09974581 -0.11876781 -0.100689806 0.14525396 0.042793207 -0.11365368 -0.020915095
0.022880761 -0.12228541 0.049599633 0.06983421 -0.062122293 -0.15067695 0.1393126 0.09167156
0.13852924 0.13293494 0.15048173 -0.0090169655 -0.13925423 0.030309355 0.080607146 0.119175956
0.1315309 0.113656476 -0.027795903 0.07012977 -0.092065156 -0.017891528 0.050175227 -0.025129754
0.11308913 0.016201133 -0.034227025 -0.009794672 -0.15076055 -0.15993649 0.08738455 0.072809145
0.105149746 0.16047494 0.05955428 -0.026245425 -0.032929655 0.01982492 0.13461171 0.13003351
-0.14110689 0.11645144 0.04717312 -0.09875157 -0.121861085 -0.017883508 -0.092880785 0.1468847
0.13724802 -0.123110205 -0.051103476 -0.025553988 -0.11977491 -0.14905153 -0.10712952 -0.06441601
0.1444471 -0.099200055 0.0937271 -0.008927415 0.0727061 0.002276393 0.098208815 -0.12331446
0.13602136 0.14341933 -0.08732455 -0.07712636 -0.072476536 -0.06347706 -0.101306714 0.04799336
-0.016580798 0.021168798 0.1537818 -0.16256355 -0.1508881 -0.033080786 0.118191674 0.062207814
-0.033353906 -0.0744754 -0.16051976 0.06607445 -0.17861265 0.14775912 -0.039735068 -0.016662154
-0.10649349 0.09039326 -0.15284373 0.003950106 -0.123458385 0.091940865 -0.05915231 -0.17372312
0.05306298 -0.08130861 0.1472666 -0.025562927 0.12285364 0.0994389 -0.018079238 -0.008208349
0.03581553 0.0027877353 -0.052007616 0.14457285 0.10466871 -0.012893471 -0.09306101 0.072988026
0.09439038 0.076882884 -0.20838802 -0.060925946 -0.042322323 0.03458771 -0.048008144 0.13647602
0.03249493 -0.09402887 -0.07291442 0.10855361 0.05451808 0.13423519 0.011622606 -0.18210913
-0.07183716 0.071471915 0.13012552 0.059697706 -0.18915124 0.084954105 0.057109833 -0.11328252
-0.082150586 -0.18958251 0.111482605 -0.1839193 -0.17141919 -0.03440376 0.06485795 0.13703857
00000000: 8c50 033e ceb9 1abe b5c9 ca3d 9d68 c7bd
00000010: ea0b 09bc 7523 16bd 1402 0dbe 490f 7ebb
00000020: 8a97 d4bc 8b97 acbd cf8e 65bd 5481 a2bb
00000030: b194 403d ba96 483d a350 cd3d 2fe7 aa3d
00000040: 56d9 dcbd 9980 e03c 3c69 903d cac0 a2bd
00000050: 6d24 373c 862b 12be df2a a83c 185c 723b
00000060: 3127 3f3d d1e8 efbd 997f 273d d779 723c
00000070: 1165 bfbc d299 8c3d 962e 3c3d f9f1 053d
00000080: ad6a 82bd f94c b13d 6675 ff3d 53ec 2fbd
00000090: 746a e23d 196e d23d e7f0 583d 10c0 04be
000000a0: 617c fcbd b15c 823b 7aa3 573d 218f f5bd
000000b0: d500 fa3d 5f98 f03d d3cc 053e cef3 e93d
000000c0: 6d58 193e 6981 f9bc ae6f 8d3d c014 5a3b
000000d0: ba84 343e 7f6e 93bd 7080 183e cd3b eb3d
000000e0: ae7f 06be 0ae9 cbbd 55d5 e83c ffa2 1fbd
000000f0: 8c8b 08bd c0cb 93bd f942 b93d e840 d9bd
00000100: cec5 d03c d11b b93d 0cdd 49bd 136e febd
00000110: c661 19bd f888 a63d d60f b73d 32db 273d
00000120: b666 093e b7f3 04be e823 4d3d d3fd b4bd
00000130: c56e 0a3e 3d2d 6a3b bc16 e63a 325c 023e
00000140: 1da3 0d3c 77cd 493e 1807 a03b 975c b9bc
00000150: 8fb3 5e3c eccd f1bd 6108 343e 0485 2539
00000160: deb5 34bd b808 783c 7596 3f3d bc38 9bbc
00000170: cd3a 6e3d eb39 893c 3977 e9bd a6ee d4bc
00000180: 5d52 033e bb4e 713d abe8 853d b993 ac3b
00000190: 3f06 f4bd cb5b 903d 6e40 e3bd dadc b63b
000001a0: dd98 87bc 8847 cc3d 8a3c f3bd 7536 cebd
000001b0: 74bd 143e ee47 2f3d 43c3 e8bd 2256 abbc
000001c0: 6f70 bb3c c670 fabd fc28 4b3d 3d05 8f3d
000001d0: f273 7ebd 0f4b 1abe f6a7 0e3e 4dbe bb3d
000001e0: 9cda 0d3e 1920 083e e217 1a3e e5bb 13bc
000001f0: a998 0ebe 534b f83c 5c15 a53d 8612 f43d
00000200: 09b0 063e bac4 e83d 3cb4 e3bc 32a0 8f3d
00000210: a88c bcbd 4191 92bc 8a84 4d3d eadc cdbc
00000220: 469b e73d 3db8 843c a331 0cbd d579 20bc
00000230: f960 1abe 64c6 23be acf6 b23d f61c 953d
00000240: c058 d73d 8b53 243e 30ef 733d a500 d7bc
00000250: 3fe1 06bd df67 a23c a7d7 093e 8127 053e
00000260: 537e 10be 187e ee3d 9a38 413d 433e cabd
00000270: 4e92 f9bd 6f80 92bc 4838 bebd f168 163e
00000280: bf8a 0c3e 3421 fcbd e151 51bd 9956 d1bc
00000290: 8c4c f5bd f7a0 18be b966 dbbd 8bec 83bd
000002a0: f1e9 133e 6629 cbbd fef3 bf3d 4b44 12bc
000002b0: f0e6 943d 892f 153b b421 c93d 4b8c fcbd
000002c0: 2f49 0b3e 84dc 123e 37d7 b2bd 6df4 9dbd
000002d0: 946e 94bd 4300 82bd e579 cfbd af94 443d
000002e0: 74d4 87bc 306a ad3c fa78 1d3e 0f77 26be
000002f0: 6982 1abe b87f 07bd 7a0e f23d 9fcd 7e3d
00000300: 1b9e 08bd 8f86 98bd 4b5f 24be 0b52 873d
00000310: 3ce6 36be 2b4e 173e 3dc1 22bd 127f 88bc
00000320: 4219 dabd 1a20 b93d 1183 1cbe e46f 813b
00000330: c0d7 fcbd 7e4b bc3d b149 72bd 79e4 31be
00000340: 9158 593d 2185 a6bd 0ecd 163e 5869 d1bc
00000350: b09a fb3d 9fa6 cb3d e91a 94bc 507c 06bc
00000360: 4eb3 123d 70b2 363b f005 55bd e80a 143e
00000370: 8c5c d63d 233f 53bc c596 bebd bf7a 953d
00000380: be4f c13d c674 9d3d ab63 55be 7c8d 79bd
00000390: 2c5a 2dbd d8ab 0d3d 30a4 44bd 5fc0 0b3e
000003a0: 6719 053d 3592 c0bd 2854 95bd 5b51 de3d
000003b0: 5a4e 5f3d f374 093e be6c 3e3c d17a 3abe
000003c0: 5c1f 93bd de5f 923d a03f 053e 9585 743d
000003d0: ddb0 41be 6bfc ad3d 00ec 693d aa00 e8bd
000003e0: 913e a8bd eb21 42be fe50 e43d 5755 3cbe
000003f0: 8388 2fbe f5ea 0cbd 3fd4 843d d753 0c3e

decoder.layers.4.bias f4 [24]
0.07934621 -0.11991001 -0.13283223 -0.03250916 -0.11196599 -0.020731619 0.12189885 0.1186978
0.032748226 -0.109526895 -0.028094992 -0.13862269 -0.11793697 0.09564845 -0.107493214 -0.062309954
0.1346122 -0.031107403 0.113105476 0.07304072 -0.13050416 0.023127059 0.06892471 -0.110882096
00000000: 4480 a23d 6193 f5bd 2c05 08be 5328 05bd
00000010: 6d4e e5bd 5bd5 a9bc 1ba6 f93d d517 f33d
00000020: 0123 063d a34f e0bd 7827 e6bc 1bf3 0dbe
00000030: f088 f1bd 56e3 c33d 6725 dcbd b938 7fbd
00000040: c8d7 093e f4d4 febc d8a3 e73d 5f96 953d
00000050: e2a2 05be f574 bd3c 6628 8d3d 2716 e3bd

prior_network.layers.0.weight f4 [32, 11]
0.019743709 -0.19611499 -0.06570069 0.0324877 0.08917421 0.1790934 0.20177658 -0.18083179
-0.24337654 -0.08708893 -0.24600333 0.2273592 0.012361115 -0.2086476 -0.073643975 0.26015934
-0.083459355 0.067281894 0.1904427 -0.010347178 -3.996781e-05 -0.04696376 -0.0035590695 -0.12296151
-0.15836568 0.13223402 -0.14299671 0.14679313 0.07808961 0.050623555 -0.16869023 0.088937625
0.032798573 0.037906043 0.11222521 -0.09389318 -0.007575598 0.018746808 -0.16095673 0.0719138
0.2365789 -0.15144464 0.08102907 -0.05617907 -0.05493626 0.1213539 -0.012918403 -0.098359555
-0.17621979 -0.13299754 -0.17159641 -0.124950595 0.04338465 -0.09691788 -0.05050421 -0.03466736
0.03496516 -0.16289628 0.16345441 -0.15147528 0.16554154 0.0073440764 -0.20241535 0.26743826
0.18473747 -0.044456977 -0.019058337 0.19415161 0.23779497 0.08105629 -0.0883092 -0.2548186
0.1327207 -0.21160033 -0.21033305 0.022834655 -0.03243972 0.24935706 0.0023055144 0.03835788
0.21157905 -0.21148758 0.22561234 0.217483 -0.20444788 -0.2552225 0.026575616 -0.021437967
0.17223792 -0.031816445 -0.034467995 0.15883578 0.16655053 -0.16379854 0.052574117 -0.10563412
0.062439613 0.04093647 0.1022243 -0.18060718 0.1196059 -0.09667896 -0.07889347 -0.032067608
-0.055464767 0.010464355 -0.21383357 0.049128857 0.18264389 0.13552207 -0.13943766 -0.11445025
0.023231518 -0.14105262 0.08872626 -0.10043435 0.069137625 -0.16068536 -0.16800803 -0.18592352
0.24847923 -0.24243023 -0.067830466 0.16045272 -0.05972379 0.083639026 -0.16618302 0.16118707
0.11800385 0.081618 -0.08180626 0.018409627 -0.1740635 0.12572777 0.106468365 0.22774202
-0.08087883 -0.25281286 0.1946314 -0.039419394 -0.078886636 -0.032061026 -0.15503564 0.15649593
0.030920519 0.2087246 -0.19329976 -0.097932234 -0.044763837 -0.11944242 0.045878932 0.22458835
-0.24872701 0.087822795 -0.07705867 0.16884458 -0.08944755 0.22373535 -0.1443906 0.18495242
0.11014173 -0.07834988 -0.14173283 0.18443945 -0.2103285 -0.21694438 0.11087258 0.010272291
0.003161477 -0.19039398 -0.07308924 -0.05189584 0.14068316 -0.031920444 -0.06442502 0.16325274
-0.17095256 -0.023500051 0.20700218 -0.019413712 0.09676337 -0.24560575 0.024361547 0.05264484
0.09846349 0.17014883 -0.038093377 -0.12893003 -0.16758108 0.05724255 -0.16289864 -0.03234651
0.11811718 -0.04145649 0.018296896 -0.15126121 0.045161873 -0.16959003 -0.11497048 0.027174259
-0.05789692 0.11286737 -0.12121508 0.2576117 0.03859129 0.07868136 0.25878385 0.0025856642
-0.07638763 0.057494164 0.18478532 -0.18525518 0.19291024 -0.17859493 -0.10611994 -0.21004951
-0.10831084 0.19067134 0.16952926 -0.1400327 -0.21593302 -0.09748598 -0.09232897 0.15232345
0.07108296 0.08539493 -0.067837216 0.10522056 0.06885699 -0.1460275 -0.20428258 -0.099512815
-0.03959408 0.16774225 -0.15269889 0.23078218 -0.063429475 0.045524888 -0.21642359 -0.051954288
-0.06190033 0.015072592 0.085139915 0.05883338 0.025663681 0.124123245 0.044726297 0.13767165
-0.011185301 -0.21562505 0.0765565 -0.086832725 -0.10380205 0.024111638 -0.23457389 -0.032376185
00000000: 8fbd a13c 5ed2 48be 158e 86bd d311 053d
00000010: f8a0 b63d 4364 373e 859e 4e3e f82b 39be
00000020: b337 79be ae5b b2bd 4ce8 7bbe dad0 683e
00000030: 4686 4a3c b7a7 55be a7d2 96bd 9b33 853e
00000040: bdec aabd 17cb 893d 6903 433e 3687 29bc
00000050: 1ca3 27b8 125d 40bd 473f 69bb 3fd3 fbbd
00000060: 9d2a 22be 5b68 073e bb6d 12be f050 163e
00000070: 72ed 9f3d a55a 4f3d 22bd 2cbe ee24 b63d
00000080: cc57 063d 5e43 1b3d 55d6 e53d 114b c0bd
00000090: b93c f8bb e892 993c d7d1 24be 8b47 933d
000000a0: bd41 723e 4e14 1bbe 92f2 a53d 061c 66bd
000000b0: d804 61bd 6588 f83d b6a7 53bc bc70 c9bd
000000c0: f672 34be 8230 08be f8b6 2fbe 19e6 ffbd
000000d0: 1ab4 313d e27c c6bd 81dd 4ebd 5dff 0dbd
000000e0: a137 0f3d 48ce 26be 9860 273e 561c 1bbe
000000f0: b983 293e 94a6 f03b f845 4fbe abed 883e
00000100: d22b 3d3e 8518 36bd 3b20 9cbc aecf 463e
00000110: 8680 733e d700 a63d 74db b4bd 9577 82be
00000120: efe7 073e c2ad 58be 8c61 57be be0f bb3c
00000130: 83df 04bd 7557 7f3e 1d18 173b 271d 1d3d
00000140: 2ea8 583e 3390 58be ec06 673e ddb3 5e3e
00000150: c95a 51be 86ac 82be 1bb5 d93c ad9e afbc
00000160: 235f 303e f651 02bd 502e 0dbd d9a5 223e
00000170: 398c 2a3e ceba 27be f557 573d b456 d8bd
00000180: aec0 7f3d 00ad 273d f95a d13d 17f1 38be
00000190: f0f3 f43d 9eff c5bd e692 a1bd 5359 03bd
000001a0: 062f 63bd b072 2b3c 30f7 5abe 573b 493d
000001b0: 0007 3b3e 4cc6 0a3e bfc8 0ebe e564 eabd
000001c0: 0650 be3c 1970 10be 1db6 b53d 86b0 cdbd
000001d0: 0798 8d3d b48a 24be 4c0a 2cbe bc62 3ebe
000001e0: 5771 7e3e a13f 78be b3ea 8abd b84d 243e
000001f0: efa0 74bd f04a ab3d e22b 2abe 390e 253e
00000200: 01ac f13d 5727 a73d 0a8a a7bd c9cf 963c
00000210: b43d 32be c8be 003e 160c da3d 3435 693e
00000220: cda3 a5bd b070 81be 744d 473e 3b76 21bd
00000230: 518f a1bd 6c52 03bd aac1 1ebe 7840 203e
00000240: 074d fd3c e7bb 553e 5ff0 45be b290 c8bd
00000250: 495a 37bd 3a9e f4bd 8ceb 3b3d 7dfa 653e
00000260: 4bb2 7ebe 70dc b33d f0d0 9dbd 98e5 2c3e
00000270: 4730 b7bd e11a 653e 21db 13be 2b64 3d3e
00000280: fd91 e13d e775 a0bd 6922 11be b2dd 3c3e
00000290: 5b60 57be ab26 5ebe 2a11 e33d 1c4d 283c
000002a0: c830 4f3b a4f6 42be d0af 95bd bb90 54bd
000002b0: 3f0f 103e 03bf 02bd 44f1 83bd ba2b 273e
000002c0: 300e 2fbe 2e83 c0bc 61f8 533e 8109 9fbc
000002d0: e02b c63d 1380 7bbe de91 c73c 1ea2 573d
000002e0: 3aa7 c93d 7f3b 2e3e cd07 1cbd 3c06 04be
000002f0: 609a 2bbe 2a77 6a3d e7ce 26be c67d 04bd
00000300: 6ce7 f13d 48ce 29bd 5fe3 953c 38e4 1abe
00000310: a8fb 383d 02a9 2dbe a575 ebbd 8d9c de3c
00000320: 5225 6dbd 0227 e73d 9d3f f8bd aee5 833e
00000330: e711 1e3d b123 a13d 517f 843e 3f74 293b
00000340: 1e71 9cbd 007f 6b3d 5d38 3d3e 89b3 3dbe
00000350: 438a 453e 97e1 36be 6955 d9bd 3817 57be
00000360: 13d2 ddbd 593f 433e 1499 2d3e bb64 0fbe
00000370: 8c1d 5dbe bba6 c7bd f916 bdbd aefa 1b3e
00000380: f193 913d 89e3 ae3d 3dee 8abd e17d d73d
00000390: e504 8d3d 3c88 15be 742f 51be 60cd cbbd
000003a0: 672d 22bd a0c4 2b3e 195d 1cbe 2a52 6c3e
000003b0: 50e7 81bd 4e78 3a3d 259e 5dbe 05ce 54bd
000003c0: 338b 7dbd 08f3 763c d65d ae3d 45fb 703d
000003d0: a43c d23c 5434 fe3d ec32 373d ccf9 0c3e
000003e0: 8d42 37bc d0cc 5cbe a7c9 9c3d 5bd5 b1bd
000003f0: 2b96 d4bd c585 c53c 2334 70be e49c 04bd

prior_network.layers.0.bias f4 [32]
0.14937304 -0.06773362 -0.007924094 0.0077942214 0.009840141 0.29982066 -0.07108822 0.15251736
-0.16064227 -0.057474043 -0.04592723 0.04777696 0.26358247 0.044587977 -0.10247654 0.12040557
0.23470706 -0.07677093 0.15805542 -0.15570162 0.117063105 -0.12383724 -0.17547493 -0.07369778
-0.21599343 0.26656756 0.030032987 0.08652995 0.10861696 -0.044691514 0.16183148 0.2573149
00000000: 3ff5 183e edb7 8abd 0fd4 01bc ab66 ff3b
00000010: 8b38 213c 1882 993e b396 91bd 832d 1c3e
00000020: 687f 24be e769 6bbd 311e 3cbd c6b1 433d
00000030: 48f4 863e e2a1 363d 38df d1bd 3297 f63d
00000040: 0c57 703e 143a 9dbd 48d9 213e 3f70 1fbe
00000050: c8be ef3d 619e fdbd b3af 33be ddee 96bd
00000060: 622d 5dbe 8b7b 883e bd07 f63c 9d36 b13d
00000070: 9272 de3d 730e 37bd 27b7 253e c7be 833e
