m4_ws/src/morphing_lander/learned_models/2024-05-15_17-17-39/model_60.pth (torch, 33518 bytes, 22 tensors)

cond_normalizer.mean f4 [11]
000000 f3 8d b5 bf 99 0a fa bc 84 cf f8 b9 aa 6f 45 3a
       -1.4183944 -0.030522631 -0.00047456857 0.0007531593
000010 98 45 d7 3c 62 14 83 ba de 3a dd bb 64 d1 07 3f
       0.026278302 -0.0010000581 -0.0067514023 0.5305388
000020 08 59 0a 3f 3e d2 07 3f fb 36 0a 3f
       0.540421 0.5305518 0.53990144

cond_normalizer.variance f4 [11]
000000 47 4c e9 3f 66 80 b3 3b dc ba a7 3a 1e 95 07 3b
       1.8226403 0.005477953 0.0012796777 0.0020688246
000010 0c 40 2d 3d da e9 38 3d fe a5 d3 3e b2 99 7c 3c
       0.042297408 0.045144893 0.4133758 0.015417503
000020 16 eb 92 3c 91 76 82 3c ee 67 90 3c
       0.017934363 0.015925677 0.017627683

output_normalizer.mean f4 [12]
000000 d0 39 85 bb 3b b1 37 bb 2f b6 6e 3c 28 01 23 b8
       -0.0040657297 -0.0028029222 0.014569803 -3.8863305e-05
000010 99 ce 60 3b 08 db 57 3a 8a 94 fa 3b 6b 37 12 3c
       0.003430283 0.00082342373 0.007647102 0.0089243455
000020 09 43 45 40 cb ac 3a 3c d8 ee 1b 3f 3b 4d d7 3a
       3.0822165 0.011393736 0.6091132 0.0016426215

output_normalizer.variance f4 [12]
000000 6e 0d f5 3d 72 6d 8e 3d d2 4a 28 3e 55 5b 24 3a
       0.11965452 0.06954469 0.16434792 0.0006269713
000010 bb 21 67 3c 91 dc 8a 3c 0a a0 9c 3e ea dc 0a 3f
       0.014107163 0.016950877 0.3059085 0.5424334
000020 64 7d 72 42 72 66 ef 41 14 33 e3 40 cd 54 18 3f
       60.62245 29.925022 7.099985 0.59504396

encoder.layers.0.weight f4 [32, 23]
000000 1b bd 11 b9 57 93 45 bb cb 82 24 3c bc 60 c8 bc
       -0.00013898725 -0.0030147636 0.010040949 -0.024460189
000010 ae a6 49 3e de 3a 47 be 7e 2d 34 3e 42 74 34 3e
       0.1969249 -0.1945605 0.17595479 0.17622474
000020 ab e1 19 bd ea 50 88 be dc b5 3b be 70 99 aa 3d
       -0.03756873 -0.26624233 -0.18331093 0.08330047
000030 02 cf c9 3c 7d 98 90 3d 57 59 35 bd 51 88 94 3d
       0.024634842 0.07060335 -0.044274654 0.07252563
000040 8b 5e a0 3d bf 6d 6b 3d c8 2f ec bb f3 fd 06 be
       0.07830533 0.05747771 -0.0072078444 -0.13182811
000050 3e 36 a9 3d 36 13 cb 3d d1 f1 6c bd 5e 62 cb ba
       0.08262299 0.099157736 -0.0578478 -0.0015516987
000060 34 71 9c 3c 98 a6 a0 bb bc 62 22 be a3 3e 39 bd
       0.019096948 -0.004902672 -0.15857977 -0.04522575
000070 40 fb 88 be 55 54 27 3e c2 a4 bf bd 94 80 14 3d
       -0.2675419 0.16340764 -0.09357597 0.036255434
000080 97 e9 95 3d ea fb 44 3e a0 fe 6b 3d b1 6e 3e 3b
       0.07319944 0.19236723 0.057615876 0.0029057676
000090 8f a7 92 3c 9c ff 69 bb db 05 0c 3e a5 1f da bd
       0.017902164 -0.0035705334 0.13674109 -0.10650567
0000a0 7f f1 64 bd dc 1b 1b 3b cd 69 17 bd 5e 8f 8e bd
       -0.05589437 0.0023667729 -0.036966134 -0.06960939
0000b0 a2 c8 f6 3d f6 88 48 bc b4 92 6d bd 19 b2 1a 3c
       0.120499864 -0.012239685 -0.058001235 0.009441876
0000c0 74 ab c9 3d 5c 55 b5 bc 96 63 fd 3b ab 6c e7 3d
       0.09847155 -0.02213543 0.007732819 0.11300024
0000d0 8f 8c b9 bd d3 da 83 3e 4a bc 5f 3d 07 96 89 be
       -0.090600125 0.25752887 0.054622926 -0.26872274
0000e0 7b 19 59 3e 3a fe 54 be f1 08 39 3d 87 d7 d9 3c
       0.21201126 -0.20800105 0.045174543 0.02659203
0000f0 72 3b fa bd a0 06 8d be ec 22 bf 3c 88 a6 93 3d
       -0.122183695 -0.27544117 0.023332082 0.07209498
000100 cb be c5 bc de 18 d6 3d c7 3a d8 3c 21 23 02 be
       -0.024138829 0.10453962 0.026395215 -0.12708713
000110 26 58 ef bc bc c4 2e 3c 66 02 c2 bd 0a 30 e5 b9
       -0.029216837 0.010667022 -0.09473114 -0.00043714076
000120 8b 21 f3 bd b0 3b 67 be c3 fb 27 3d e4 63 48 be
       -0.11871632 -0.22581363 0.041011583 -0.19569355
000130 4a 6e 2f be 5c 26 32 3c 6c d0 32 be 46 34 13 be
       -0.17131916 0.010873403 -0.17462319 -0.1437541
000140 86 b9 81 3c d0 64 34 3d 06 10 88 bc b7 4a af bd
       0.015835535 0.044041455 -0.016609203 -0.085591726
000150 aa f9 b5 3d ce 8b 59 bb a0 1a a6 bc b6 d3 08 bd
       0.0888551 -0.0033194902 -0.020276368 -0.03340503
000160 88 d8 cb 3c 77 80 da bc f2 60 32 bd de d4 c2 3d
       0.024883524 -0.026672585 -0.043549486 0.095132574
000170 3a 88 13 bc bc fb 85 bb a4 25 b2 bb be 08 97 3d
       -0.009004647 -0.004088847 -0.005436616 0.07374714
000180 c0 7f a7 be 96 ed 89 bc 4c ac d5 bd 41 77 58 3e
       -0.32714653 -0.016836923 -0.10433254 0.21139242
000190 5a c2 23 3d f5 28 69 3c 67 6f 48 3e c4 e6 6c be
       0.03998027 0.014230956 0.19573747 -0.23134905
0001a0 0c df 7c 3c ee ce e1 3a ae 6b 07 3d b1 36 5d be
       0.015434038 0.0017227808 0.033061676 -0.21602894
0001b0 e3 5f e8 3d d2 d2 3e bd 11 27 1d bc 4b 52 95 3d
       0.11346414 -0.046587773 -0.009591834 0.07291087
0001c0 b7 31 24 bd e9 7a 86 3d 1f 86 f1 bd ed f8 e2 bb
       -0.040086474 0.06566412 -0.1179316 -0.006926647
0001d0 ce 2a 69 ba a1 2b 6d bc e9 97 05 be c1 5b 4e 3e
       -0.0008894623 -0.014475734 -0.1304623 0.20152189
0001e0 78 5c b4 3e 82 00 0a be 08 e2 93 be 7d 19 a4 3c
       0.35226798 -0.13476756 -0.28883386 0.020031685
0001f0 09 91 85 bd fc bd ca 3d 1a 5f 5f be 7c d1 e6 bb
       -0.06521804 0.09899518 -0.21813622 -0.0070440155
000200 f1 9f 22 3d da 3d ef 3d a2 0d 93 3d 8f 4d 14 3d
       0.039703313 0.11681719 0.07180335 0.03620678
000210 0a 8a 0e 3d 69 80 05 3c f5 33 af bd c7 25 19 bb
       0.034799613 0.008148291 -0.08554832 -0.0023368464
000220 8b c4 74 3d 19 af 70 3c ee 81 35 bb 59 05 96 bb
       0.05975775 0.014690184 -0.0027695852 -0.004578274
000230 7f 10 7e 3b 22 e2 cf 3d 26 4a 23 3c 04 a1 75 3c
       0.0038767157 0.10150553 0.009966409 0.014992002
000240 52 e8 f0 3d 4d fa 83 3e 5c b7 09 3d 79 52 c4 3d
       0.117630616 0.25776902 0.03362213 0.09586043
000250 bd fb 22 3e 31 40 d5 3d 14 34 e6 bb c5 0f 2a 3d
       0.15916343 0.10412634 -0.007025251 0.041518945
000260 28 92 8a 3e b0 29 9d 3e e0 c4 a0 3d 56 0a 15 3c
       0.27064633 0.30695868 0.07850051 0.009096703
000270 0e 24 5a 3b c7 81 1f 3e 96 94 1c be e6 62 d7 bd
       0.003328565 0.1557685 -0.15291056 -0.1051691
000280 0d f3 ba 3d 28 7a 68 3d c6 4a a2 bb dd 6d 09 3d
       0.091283895 0.056757122 -0.0049527613 0.03355204
000290 7c ef 15 be 3c aa e0 3d 63 a8 86 be 33 cb 22 be
       -0.14642137 0.1096997 -0.26300344 -0.15897827
0002a0 d9 fc 67 3e 67 07 16 bd 53 0f ea bb 62 bc 27 be
       0.22655047 -0.036628153 -0.00714294 -0.16380456
0002b0 13 4a 46 bd b7 24 de 3b d9 e8 0b 3b 20 c4 12 be
       -0.048410486 0.006779279 0.0021348505 -0.14332628
0002c0 8b de f7 3c 68 29 ae 3d ea 46 4e bd 1a 6c 72 bb
       0.030257484 0.08503991 -0.050360598 -0.0036990703
0002d0 ae 39 d7 3d 48 c9 1d 3d 60 c6 bd bd 5c 1a 86 bd
       0.105090484 0.038522035 -0.09266353 -0.065479964
0002e0 82 f9 30 3b 31 ce 88 3d ae 07 1e bd eb 3d 29 be
       0.0027004187 0.06679953 -0.038581543 -0.16527526
0002f0 49 0e 73 be c0 d6 8e 3e 3e dc c9 3d 3d 92 73 3e
       -0.23735918 0.27898216 0.09856461 0.23786254
000300 99 90 4e 3d 73 31 83 3e eb 46 ad 3b 5e e0 08 be
       0.050430868 0.25623664 0.005287995 -0.1336684
000310 fe 52 1e 38 85 8d 02 3e 23 58 2c 3e c9 97 48 be
       3.7747428e-05 0.12749298 0.16830496 -0.19589151
000320 06 0f 8e bd 19 25 da 3c fe 4c 94 bc c2 a1 03 be
       -0.06936459 0.026629018 -0.018103119 -0.12854674
000330 6e 54 38 bd 11 c2 c4 3d 02 37 a8 3d e0 b5 09 3d
       -0.045002393 0.09607328 0.08213617 0.033620715
000340 74 66 18 3e f3 90 f2 bb f0 23 4c 3d 9a f9 73 bd
       0.14882833 -0.007402533 0.04983896 -0.05956421
000350 6c 38 0f 3e 68 ce 03 3e c0 6a 6e bd 76 b2 95 3c
       0.13986367 0.12871706 -0.058207273 0.018273573
000360 90 3f 3c bd b7 be 3b 3e a5 c9 04 3d d5 a2 66 bd
       -0.045959055 0.1833447 0.032418866 -0.056307632
000370 fe 5c f0 3c e9 b9 13 3e 97 df 2b bd 36 85 3b bc
       0.029341217 0.14426388 -0.04196128 -0.011445334
000380 ff a5 36 3d 2f cc 22 bd 9b a2 e0 3d 15 ce 84 bd
       0.0445919 -0.039745506 0.109685145 -0.064846195
000390 46 e9 47 3e d2 9c a2 3b 6f 58 79 bd 1a 22 d3 3d
       0.1952258 0.004962542 -0.060875352 0.10309239
0003a0 b3 8c ab bd 89 76 fb 3d b1 e0 49 be d2 00 44 be
       -0.083764456 0.12278468 -0.19714619 -0.19140938
0003b0 a4 e2 66 bd f2 4b 01 3e 38 ad 01 3c a6 ab 85 bd
       -0.056368485 0.12626627 0.007914834 -0.0652688
0003c0 45 76 4d be b3 c2 6d bc a7 36 35 bd fa 5b 9e 3d
       -0.20064647 -0.014511752 -0.044241574 0.07732387
0003d0 89 58 86 3d df d8 43 be 7c 06 ac 3d 6c 37 51 bd
       0.065598555 -0.19125699 0.08399674 -0.051078245
0003e0 bf 38 3d 3d a0 58 36 3e 20 d8 64 3c 1a e8 1d 3e
       0.046196695 0.17807245 0.013967544 0.15420571
0003f0 55 34 74 bd a2 5c 45 bd f7 64 1c bb bb 10 ed 3c
       -0.05962022 -0.048184045 -0.002386389 0.028938642

encoder.layers.0.bias f4 [32]
000000 ec af 69 bd c0 0b 5f 3b 09 5e fe bc eb de 72 3e
       -0.057052538 0.0034034103 -0.031050699 0.23717849
000010 29 a0 83 bb e7 0c d1 bc f2 20 08 bd b2 41 c2 b9
       -0.0040168953 -0.025518848 -0.033234544 -0.0003705151
000020 54 b0 a6 bd 42 ae ad 3e 72 c2 1a be 9e c1 91 3e
       -0.08139101 0.3392201 -0.15113238 0.2846803
000030 21 dc ca 39 3d 8d 88 3d f9 0c a1 bc da 5c ff bc
       0.0003869245 0.06667564 -0.019659506 -0.031172205
000040 04 f3 e4 3e e2 b2 6d bd 34 dc 5d bd fa 33 80 bc
       0.44716656 -0.058031924 -0.05416508 -0.015649784
000050 4c da 12 be ed d4 01 bd 86 63 ce bc ba 88 be bd
       -0.14341086 -0.031697202 -0.02519394 -0.09303422
000060 db 6c fe 3e b4 b3 24 3d 93 b8 b6 3e 8d b4 d9 3e
       0.49692425 0.04021044 0.35687694 0.42520562
000070 49 fd 72 bd 5b cb 39 3d 99 17 26 be c0 09 11 bd
       -0.059323583 0.04535995 -0.1621994 -0.03540969

encoder.layers.2.weight f4 [32, 32]
000000 91 af aa bd e1 ae d5 3d 8e 17 03 3e 8b e2 04 bd
       -0.08334268 0.10433746 0.12801954 -0.03244261
000010 4d 30 11 3e fc b1 e0 bd dc bb 9f bc db f4 91 bd
       0.14178582 -0.10971448 -0.019498758 -0.071267806
000020 9b 74 8e 3c db 83 5b bc 75 83 89 bd 7b 56 19 3c
       0.017389586 -0.013398136 -0.067145266 0.009358997
000030 df 71 46 ba 1f 21 8c bd ce 2f 94 bc d7 64 81 3d
       -0.00075700687 -0.06842255 -0.018089201 0.06318062
000040 ed 75 a1 3d a6 df 02 3b e3 b2 36 3e a5 d8 af bb
       0.07883821 0.001996973 0.17841677 -0.005366402
000050 fe 83 b8 3d 03 fc 4f 3a 22 8d 57 3d 71 d7 03 be
       0.090095505 0.0007933976 0.05262483 -0.12875153
000060 63 22 b0 3d 45 b0 03 3e 97 5b 03 3e 82 01 29 3e
       0.08600309 0.1286021 0.12827908 0.16504481
000070 b6 7e d4 bd 5a 38 9e ba 11 94 a9 3d 5b d2 be 3d
       -0.10375731 -0.0012071237 0.082801946 0.09317466
000080 15 a6 90 be 80 65 60 bd 1c 45 18 be da 64 cb bc
       -0.2825171 -0.054784298 -0.14870113 -0.024828363
000090 aa 6a 04 be f0 90 35 be 96 15 86 be f0 19 e0 bc
       -0.12931314 -0.1773107 -0.26188344 -0.027356118
0000a0 8d 35 1a be 34 9b 31 3e c9 c3 41 be a6 ea 28 3d
       -0.1505949 0.17344362 -0.18922342 0.041239403
0000b0 10 91 a0 be 44 97 b0 3d 81 0b b6 be b0 ab 7e be
       -0.31360674 0.08622602 -0.35555652 -0.24870181
0000c0 46 2e 58 3e f2 2d 1d be da ae b0 bd 71 d0 73 be
       0.21111402 -0.15349558 -0.086271 -0.23809983
0000d0 5d bd 2e be 6c 9b 81 bd ef 6a 96 be 2a f2 87 be
       -0.17064424 -0.063284725 -0.2937846 -0.26551944
0000e0 77 ab 09 3e 42 da e5 bd 0a e6 db 3d ee 62 50 3e
       0.13444315 -0.1122327 0.10737236 0.20350239
0000f0 28 5a b1 be f0 33 0c 3d 3b a1 2d be 6c 4b 6d be
       -0.34639096 0.03422922 -0.16956036 -0.23173302
000100 54 8f 17 be 52 14 ff 3b d5 5e 70 3c 02 cf 4a 3e
       -0.14800769 0.007784405 0.014671047 0.1980553
000110 ff 15 20 be 20 6f 26 be c2 7f 64 be f1 20 02 be
       -0.15633391 -0.16253328 -0.2231436 -0.12707879
000120 02 27 26 be d9 55 57 3d d3 5a c8 bd aa 13 4f 3d
       -0.16225818 0.052572105 -0.09782948 0.050555862
000130 9a 89 92 be 9f b6 a3 bd b9 8e 68 3d 87 ac 98 be
       -0.28620607 -0.079938166 0.056776736 -0.29819128
000140 2a 86 a8 3d b4 81 5c be 8f d0 bb 3d 53 ff 49 be
       0.08228715 -0.21533853 0.09170639 -0.19726305
000150 81 6f 41 be 4e 21 93 3d 77 fe fa 3c a0 8a 2c be
       -0.18890192 0.07184087 0.030638916 -0.16849756
000160 32 d0 82 3e d6 bd f6 3c 2c 3e 31 3e eb a2 9a 3e
       0.25549465 0.030119818 0.17308873 0.30202422
000170 4f 04 61 3d b1 15 aa 3d 20 b4 67 bd b2 e4 33 be
       0.05493575 0.083049186 -0.056568265 -0.17567709
000180 6d d2 47 3e 3e 8e fc 3d a5 fd 0c be 11 0f e8 3d
       0.19513865 0.12331818 -0.13768633 0.11330999
000190 48 35 e3 bc 37 3f 8d 3d 54 8a 39 3e c2 e3 3d 3e
       -0.027735367 0.06896823 0.18119174 0.18543914
0001a0 9e 6a 96 bd 11 f5 ee bd 45 77 92 bd 5a 28 6c bd
       -0.07344554 -0.116678365 -0.07151655 -0.05765567
0001b0 a4 75 cc 3d 58 41 39 3e 33 5a 87 3d fb 27 fd 3b
       0.09983376 0.18091333 0.06609001 0.0077257133
0001c0 a5 86 1b bd f6 f3 d0 3d e9 bd 8e 3d c7 52 35 3e
       -0.037970204 0.10202782 0.06969816 0.17707358
0001d0 2a 56 77 bd f6 8a 89 bd 4f 35 42 3d fa 1b 1f 3d
       -0.060384907 -0.06715958 0.04741412 0.03884504
0001e0 68 24 47 3e 67 d7 e1 38 0b 53 4f 3d fb b8 08 3e
       0.19447482 0.00010768958 0.050616305 0.13351814
0001f0 07 e2 0e 3e 3c 73 9b 3d a7 d3 3b 3d 95 06 6a 3d
       0.1395341 0.075903386 0.045856144 0.057135183
000200 f1 13 91 be 67 62 12 be d7 df 8b 3c 88 fb 5a 3d
       -0.28335527 -0.1429535 0.017074509 0.053462535
000210 af 94 1a be b0 de 95 be b4 9c 7b be 4c f6 f2 bd
       -0.15095781 -0.2927146 -0.24571496 -0.11863384
000220 b6 8b 39 bd 75 e5 de 3d 05 f3 e5 bc c8 f7 64 3e
       -0.045299254 0.10883609 -0.028069982 0.22360146
000230 46 ff a2 be 20 2c ce bd cb 9f 59 be 09 6a 54 be
       -0.31835383 -0.1006701 -0.21252362 -0.20743574
000240 14 9f ae 3d 00 e8 85 be 37 20 0c bd 0a 71 25 be
       0.085264355 -0.26153564 -0.03421041 -0.16156402
000250 19 d0 1e be 84 ca dd bd d6 09 51 be d6 9e 7f be
       -0.1550907 -0.108296424 -0.20413908 -0.24962935
000260 f5 68 21 3e 82 2b 90 bd 18 96 1e 3e e9 64 6e 3e
       0.15762694 -0.070395485 0.15486944 0.23280682
000270 c3 b7 8e be ef f9 cd bd 42 9f 4d bd 5f 44 9c be
       -0.27874574 -0.10057437 -0.05020071 -0.30520913
000280 28 49 8d 3d 5e d4 69 3e 16 49 04 3e 47 61 da 3d
       0.06898719 0.22834918 0.12918505 0.106630854
000290 26 72 2f 3e 69 1a 12 3e e1 53 25 3e 92 0a 21 3e
       0.17133388 0.14267887 0.16145279 0.15726689
0002a0 d0 f3 a0 bd 32 22 46 bd c7 84 55 3e f2 61 10 be
       -0.078590035 -0.048372455 0.20851432 -0.14099863
0002b0 78 27 06 3d 3f 7f b4 bd 38 1a 01 3e 44 49 58 bb
       0.032752484 -0.08813333 0.12607658 -0.0033002654
0002c0 69 b1 05 3e f0 98 e2 3d 0b b1 8e bd b5 b3 dc 3d
       0.13055958 0.11064327 -0.06967362 0.10776464
0002d0 b0 37 12 3e 49 8a 25 3e a2 f5 a6 3d 65 50 d2 3d
       0.14279056 0.16166033 0.081523195 0.1026924
0002e0 63 6b 1b 3e 1a 02 d3 3b ca 74 c1 3d 43 64 1a 3d
       0.15177684 0.0064394595 0.09446104 0.037693273
0002f0 df 97 0a 3c bf 66 71 3d 8c 70 dc bc bb d3 54 3e
       0.00845906 0.058935877 -0.026909135 0.20783894
000300 88 98 3e 3e 9a 7d fd 3d 66 fe 16 3e 9c 34 b4 bd
       0.18612874 0.12377472 0.14745483 -0.08799097
000310 06 0a 83 3d 13 af 82 3d ed 01 21 bc 38 2c 3f 3d
       0.06398396 0.06381049 -0.009827119 0.04667303
000320 52 93 81 bd c2 c5 dd 3c 89 c4 1d 3e e3 2e 08 be
       -0.06326927 0.027071837 0.15407003 -0.13299136
000330 c2 d8 5e 3e 78 2e 36 3e b4 9a 23 3e ab 94 26 bd
       0.21762374 0.17791164 0.15976983 -0.040669125
000340 b6 58 62 bd 5a 11 3c 3e ba 68 28 3e ac 8b 06 3e
       -0.055260383 0.18365994 0.164462 0.13139218
000350 ea ca 55 3d 46 23 9c bd fe ab 33 3e 36 b3 99 bc
       0.052195467 -0.076239154 0.17546079 -0.018762212
000360 1c 51 a0 3d a6 45 aa bd 78 2d 41 39 f1 0f 41 bc
       0.078279704 -0.08314066 0.00018422853 -0.011783586
000370 0c 52 02 3e df 98 e4 3d bc 42 b6 3d ba 5b 17 3e
       0.12726611 0.1116197 0.08899447 0.14781085
000380 3c ab 03 3e a3 31 eb bd 48 fd c1 3d dc a7 7e 3d
       0.1285829 -0.11484077 0.09472138 0.062171802
000390 2c 0e d3 3d 31 01 0a 3e 07 7d be ba ec 32 73 bd
       0.103054374 0.13477017 -0.0014533111 -0.059374735
0003a0 62 e2 ed 3d 62 df fb 3d d4 c1 5e bd 54 d1 92 3d
       0.11615445 0.12298466 -0.054384068 0.071688324
0003b0 7f 97 93 3d 9d 3c 77 bd 9f 54 79 bd 8f f8 67 3d
       0.0720663 -0.06036054 -0.060871717 0.05663353
0003c0 a8 04 fb 3d 07 7f aa 3c 25 55 e4 3d 79 eb 03 3d
       0.122567475 0.020812524 0.111490525 0.032206986
0003d0 e9 3b ca 3d 0c 38 15 3c 23 4d b9 3d 72 e3 be bd
       0.09874708 0.009107601 0.09047916 -0.093207255
0003e0 49 fb c2 3d 10 77 10 be 1d 8a 95 bc 98 95 3f 3c
       0.09520585 -0.14107919 -0.018254334 0.011693381
0003f0 b5 b7 45 3d f3 60 9e bd 4b f2 49 3c 3c 8b 66 3d
       0.0482709 -0.07733335 0.012325834 0.056285128

encoder.layers.2.bias f4 [32]
000000 da 02 3b 3d 3b c9 a2 3e f8 8e a6 3e 2d 50 6c bd
       0.045657016 0.31794152 0.32530951 -0.05769365
000010 15 40 64 3e df 59 1f be d4 e7 2f 3d b2 fd c2 3c
       0.2229007 -0.15561627 0.042945698 0.023802612
000020 3c 46 83 bd f8 13 92 bd a9 9a c1 3b c5 ef c9 3e
       -0.064098805 -0.07132715 0.0059083295 0.39440742
000030 cf 7c 96 bd 60 d9 43 bc 28 fe 97 bd 19 e9 3d bd
       -0.07348024 -0.011953682 -0.07421523 -0.046364877
000040 3b 30 26 bd b7 6e c1 3e bd db de bc ef fa 9f bd
       -0.04057334 0.3777978 -0.027204389 -0.07811534
000050 8d 22 97 3e 5f e2 8f bd be f6 fd 3d 85 09 0f be
       0.29518548 -0.07025599 0.12400578 -0.13968475
000060 3a ba d3 3c f2 c4 b6 bc 8d c4 29 bd 93 c7 d7 bd
       0.025845636 -0.022310708 -0.04144721 -0.10536113
000070 65 30 28 bd 17 e6 35 bd b7 9c af bd d9 1c aa bc
       -0.041061778 -0.044408884 -0.08574813 -0.020765709

encoder.layers.4.weight f4 [12, 32]
000000 58 b5 82 3d 7f c3 9d 3e 1c e5 41 3e 76 9e 6f be
       0.06382245 0.30813214 0.18935055 -0.23400292
000010 f3 95 a2 3e 0e ae 64 be 63 81 c6 bd d8 3b 3f bd
       0.31755027 -0.22332022 -0.09692647 -0.04668793
000020 c0 d8 a3 3b 00 d4 66 be 8c 0e 4e be 38 fc 09 3e
       0.005000204 -0.22541809 -0.20122737 0.1347512
000030 bd c9 ee bd b1 d2 01 3d b3 5f c5 bd fb 3e 16 bd
       -0.11659572 0.03169507 -0.09637394 -0.036681157
000040 a7 a1 2f be d4 5d 82 bd 86 22 0c bd 65 b0 31 be
       -0.17151509 -0.063655525 -0.03421261 -0.17352445
000050 c9 86 9a 3e a7 9d a1 bd 52 0b 86 3e 66 64 60 be
       0.30180958 -0.07891398 0.26180512 -0.21913299
000060 1b db b9 bd 54 89 01 be 4e 81 a7 bd 15 52 ae 3d
       -0.09074994 -0.12650043 -0.0817896 0.0851175
000070 41 a5 f4 bd a0 04 b7 3d 32 29 38 3d 67 13 1d be
       -0.11945582 0.08936429 0.044961162 -0.15339433
000080 78 5c 3d 3e 70 52 9e be 14 11 97 be 3c 73 de bc
       0.18492305 -0.3092227 -0.29505217 -0.027154557
000090 eb 56 15 be 59 2e 6c 3e 6c 9b ae 3d 1d b6 b3 3c
       -0.14583938 0.23064555 0.08525738 0.021937424
0000a0 a8 db 29 3e dc ee b3 bd a7 6d 06 3d fb 6f 97 be
       0.16587698 -0.08785793 0.032819416 -0.29577622
0000b0 e5 12 80 3e 0d d5 1c 3e 60 f4 23 3d f6 c0 e8 bc
       0.25014415 0.15315647 0.040027976 -0.028412323
0000c0 83 ff 84 3e a4 9d e0 bd c2 05 3a 3e 49 dd 75 3e
       0.2597619 -0.109675676 0.18166259 0.24010195
0000d0 0c 71 6a be 43 41 23 3e 2b 00 a1 be 1f 14 12 3e
       -0.22894686 0.15942864 -0.3144544 0.14265488
0000e0 92 ae af 3c 75 00 d7 bd f2 89 62 3e 17 88 26 be
       0.021445546 -0.10498134 0.22122934 -0.16262852
0000f0 b3 16 4b 3e 55 d8 71 3d 9a e3 9d 3d 60 1d 1a bd
       0.19832878 0.0590442 0.07709427 -0.03762567
000100 37 f8 e4 3d 80 a4 27 3e 02 8b 68 3e 62 b5 63 3c
       0.11180156 0.16371346 0.22709277 0.0138982255
000110 66 fd 90 3e 91 96 6f 3d 51 38 76 3d 5e cb b1 3d
       0.28318328 0.0584932 0.0601123 0.08681367
000120 25 6a 9b bb 69 ce 37 be 9d ab 1a be 8d 2f 64 bd
       -0.004742878 -0.17949833 -0.15104528 -0.05570941
000130 fd 0e fe 3d 0f 2d f3 3c 9c 91 ec bd ad 81 c7 bc
       0.124052025 0.029684572 -0.1155121 -0.024353826
000140 76 ad b5 3d 07 52 a5 3e 75 9d 1f bd 41 38 14 3e
       0.08870976 0.32289144 -0.038968522 0.14474584
000150 be 99 46 3d 71 4b 0a 3d c9 7e 27 3e 70 de 02 3d
       0.048486464 0.033763353 0.16356958 0.031950414
000160 cb 5d 2b be 72 b2 5c bd 7d 56 2b bc 1d 58 4f bd
       -0.16734998 -0.053881116 -0.010457632 -0.05062114
000170 80 33 b8 bc 19 ad 74 bd 8f 92 84 bd 26 a4 e0 bd
       -0.022485495 -0.05973539 -0.06473266 -0.10968809
000180 c1 9e f2 bd d2 a3 ac be 9b 00 67 bd 4d 5c 80 3d
       -0.11846686 -0.33718735 -0.05639706 0.06267605
000190 c2 a8 86 be 73 e9 63 3e ea 75 0f 3e 3a 71 a2 3d
       -0.26300627 0.22257023 0.14009824 0.079317525
0001a0 1f 09 1c 3e 0e 98 a8 3d 1c 39 0f bc 29 91 9c bd
       0.15237854 0.08232127 -0.008741643 -0.076448746
0001b0 05 b5 80 3e cd e7 fa 3d 04 43 15 3e c3 50 60 3e
       0.25138107 0.12251244 0.14576346 0.21905808
0001c0 12 a0 ee 3d 6f 14 f6 bd 7b 36 a6 bd bc 51 7a 3e
       0.11651625 -0.12015616 -0.0811586 0.24445242
0001d0 1b 87 bc be 41 5d 53 3e 31 3d 66 be 70 f1 81 3e
       -0.36821827 0.20641042 -0.2248428 0.25379515
0001e0 8f e6 f3 bb 96 7d 5f 3c e3 0e 43 3e 94 37 3a be
       -0.007443256 0.013640782 0.19048648 -0.18185264
0001f0 10 ba 17 bd 67 50 7b bd 50 17 cd 3d fb b9 a6 3b
       -0.037042677 -0.061355975 0.10014212 0.0050880886
000200 44 0b b5 3d f0 72 2b be 40 6a a3 3c da 8b bb 3c
       0.08840039 -0.16743064 0.019948125 0.022893835
000210 7e e7 5f be 54 c9 0d 3e 6c 4d 2d bc c5 c9 c6 bd
       -0.21865651 0.13846332 -0.010577541 -0.09706453
000220 7a 88 93 3d 4d 34 33 3e 43 12 a1 bd e6 d9 99 3d
       0.07203765 0.1750042 -0.07864811 0.07512264
000230 36 be 19 3e a1 cf 0a be b7 a1 f3 3d 50 bd 6d 3e
       0.15013966 -0.13555767 0.11896079 0.23216748
000240 5c d4 24 3e 73 4a 47 bd 3d 3c 0f be ce b6 fa bc
       0.16096634 -0.048654985 -0.13987823 -0.030604746
000250 ec 96 f2 bd e7 98 96 3d 76 0a 4e be ec d9 a4 3e
       -0.11845192 0.073533826 -0.20121178 0.3219751
000260 69 e7 1c bd 1d 16 6c ba 0d 5a 39 3e 0c f5 43 be
       -0.038306627 -0.00090059807 0.18100758 -0.19136447
000270 ae ad 00 3e 68 e7 a3 3b 3f b1 36 3d 10 aa b6 bb
       0.12566254 0.005001951 0.04460263 -0.0055744722
000280 de 24 bb 3c 4d 2e c8 be 0c f8 5d be 5a 4b 6e 3e
       0.022844728 -0.39097825 -0.21676654 0.23270932
000290 ec 1e 9a be 56 86 e2 3d ad 42 1a 3e c2 42 92 3d
       -0.30101717 0.11060779 0.15064497 0.07141639
0002a0 cb 9f 4c 3e 9f 2f e6 3d 95 fb 4f 3e 29 75 b0 be
       0.19982831 0.11239552 0.20310815 -0.34464386
0002b0 a9 21 89 3d d1 1c 77 bd 1d d1 bd 3d 28 35 85 bb
       0.06695873 -0.060330216 0.09268401 -0.0040651746
0002c0 f4 13 ba 3d 34 b9 19 be a0 29 a1 3d d0 24 a1 3d
       0.09085837 -0.15012056 0.078692675 0.078683496
0002d0 2d 3b 4e be ac 23 29 bd ae ae 8e be c4 e8 09 bd
       -0.20139761 -0.041293785 -0.27867645 -0.03366925
0002e0 8d 6c dc 3c 4e dc 5c 3e ad 11 62 bd 29 71 15 be
       0.02690723 0.21568415 -0.05519264 -0.14593948
0002f0 93 d2 15 3d 14 7d 93 3d 77 9d 01 be aa 6e a7 3d
       0.036577772 0.07201591 -0.12657724 0.08175404
000300 35 76 00 be fb d3 29 be a5 2a 85 be ea f0 41 be
       -0.12545092 -0.1658477 -0.26009098 -0.18939558
000310 97 9b 2b be 59 e4 a2 3d 4f ab aa 3c 3e 66 04 be
       -0.16758572 0.0795371 0.02083364 -0.12929627
000320 ae d7 86 bd 92 3e 2c 3d 17 c2 b0 3c 16 ac fa bd
       -0.065841064 0.04205186 0.021576924 -0.12239854
000330 bc a9 23 be 3c df 5d 3d 36 09 c6 bd de 5a ea bd
       -0.15982717 0.05416797 -0.096697256 -0.11443113
000340 5e b5 0a be 88 bc 3c be 70 e1 1d bd c0 d4 fe 3c
       -0.13545749 -0.18431294 -0.038545072 0.031107306
000350 ef 13 43 be 81 fc af bd d9 2a 09 be 9e a5 2b bd
       -0.19050573 -0.08593083 -0.13395251 -0.04190599
000360 d0 4e 2d be 48 58 e4 bd 69 0d f9 bd e1 e7 0b 3e
       -0.16924596 -0.11149651 -0.12160761 0.13662674
000370 e4 01 a3 bd 0f 65 da 3d 99 ba 80 3d 1f e6 e1 3c
       -0.07959345 0.10663807 0.06285591 0.02757555
000380 ae 91 8e bd f8 b6 cb bd 24 b3 4b be 61 7c 64 3d
       -0.0696138 -0.09947008 -0.19892555 0.05578268
000390 7c 1f b4 bd e4 5a d3 bb 64 98 84 bd 9c 74 a2 bc
       -0.08795068 -0.006450044 -0.06474379 -0.019830994
0003a0 73 13 04 be 40 d7 0d 3c 8f c4 b8 bd 97 f4 2b be
       -0.12898044 0.008657277 -0.090218656 -0.16792522
0003b0 99 b6 7d 3d aa d9 06 3e 9c 56 e0 bd 18 17 8f 3d
       0.061941717 0.1316897 -0.109540194 0.06986827
0003c0 c6 cf 26 3d c5 20 74 be 6c 35 98 bd 9f 47 07 be
       0.040725492 -0.23840626 -0.074320644 -0.13210915
0003d0 36 5f 35 be 01 54 49 bd 77 96 28 be c0 00 eb bc
       -0.17712101 -0.049152378 -0.16463648 -0.028686881
0003e0 f8 37 20 bd 3c 89 1e be 31 37 0c bd 8f 5c 00 3e
       -0.039115876 -0.15482038 -0.034232322 0.12535308
0003f0 35 35 2b bd 5e e8 b8 3d 43 78 0f 3d 05 99 ce bd
       -0.04179879 0.090286955 0.0350268 -0.1008778

encoder.layers.4.bias f4 [12]
000000 62 52 7e 3e 95 9f 9c be 3e d4 a5 3e af 3d 8b bd
       0.24836114 -0.305905 0.3238849 -0.067988746
000010 ca b8 84 be 4f 79 5b be 59 b4 88 3c ed 58 46 be
       -0.25922233 -0.21432994 0.016687559 -0.1936986
000020 5e fb 23 be 98 34 20 3d db d8 74 3d db 56 83 be
       -0.16013858 0.039112657 0.059777122 -0.25652203

decoder.layers.0.weight f4 [32, 17]
000000 a6 29 16 3e c7 16 bc bc ef b8 db bc 4c 47 be bd
       0.14664325 -0.02296008 -0.026821582 -0.092909425
000010 4f 44 91 be e3 6b 9f bb db 8c a8 3e 17 d2 3a 3e
       -0.28372428 -0.004865156 0.32919964 0.18244205
000020 01 da dd 3c 0c 05 f2 bd 32 2d 16 be 88 a5 85 3e
       0.027081491 -0.11817369 -0.14665678 0.26102853
000030 ac 47 4d be 37 12 5e 3e d0 dc 38 3e f7 71 4d bd
       -0.20046872 0.21686636 0.18052983 -0.050157513
000040 c5 a9 1a 3e be 74 85 be 61 5f 6d 3e 40 ca a1 bc
       0.15103824 -0.2606563 0.23180915 -0.01974976
000050 ce f4 fd bb b3 7a 55 3e 30 13 eb 3c 22 f0 2f be
       -0.0077501303 0.20847587 0.028695673 -0.17181447
000060 94 be 1e 3d 0b c6 92 3e d4 a8 7b 3e 26 ad c8 bd
       0.03875597 0.2866672 0.24576122 -0.097986504
000070 b6 93 c0 be a0 23 28 3b d6 00 1b 3e 45 a2 8c 3d
       -0.37612695 0.0025656 0.15137038 0.06866888
000080 fd 00 ea bd 5f 8b 38 3e 34 70 19 be 1a 9e 8c 3e
       -0.1142597 0.18021916 -0.14984208 0.27464372
000090 7f 76 34 3e 07 67 a0 3e f3 aa 20 3e 29 a6 7d 3e
       0.17623328 0.31328604 0.15690212 0.24770416
0000a0 ee b4 f3 3b 8b a5 58 be ca d5 7b 3e c5 c6 80 be
       0.00743734 -0.211569 0.24593273 -0.2515165
0000b0 31 af a8 bc 16 74 50 3d 9c 15 e0 3d 17 6a 24 be
       -0.02059135 0.05089196 0.10941622 -0.16056095
0000c0 8a 01 07 be 28 d5 45 3d 69 9c 83 be 5c b7 74 bd
       -0.13184181 0.048298985 -0.2570527 -0.059745178
0000d0 ff 7e 66 bc 22 78 5e 3e 0a 14 c7 3d eb 73 ea bd
       -0.014068364 0.21725515 0.09720619 -0.11447891
0000e0 9e 9b e9 3d a8 2e c2 3e 48 27 6c 3e 54 5f c2 bd
       0.11406635 0.3792622 0.2306186 -0.09490839
0000f0 5e 20 07 3e 41 d2 88 bd 8a e3 34 3c 98 c8 04 bd
       0.13195941 -0.06680728 0.011040578 -0.032417864
000100 0d 70 5b 3d 03 03 60 be e1 49 f7 bd a5 ed e3 3d
       0.053573657 -0.21876149 -0.12074638 0.111293115
000110 94 ed 33 be d0 c7 bf 3d 97 9d d7 3d 69 f2 37 3e
       -0.17571098 0.09364283 0.10528105 0.17963566
000120 b7 d1 cc 3d 88 df 84 3d b0 c6 de 3b 48 04 b4 bc
       0.100009374 0.06487948 0.0067985877 -0.021974698
000130 9c da 8f be 72 a4 02 3e b3 f5 20 3e 28 3c 60 3d
       -0.28096473 0.12758043 0.15718727 0.05474487
000140 8d 2d 07 be b2 db 9b bd d2 09 e2 3d 60 62 27 be
       -0.1320097 -0.07610263 0.11037029 -0.16346121
000150 08 15 18 be 88 e3 25 3d 90 b5 b5 be d0 a5 33 bd
       -0.14851773 0.040500194 -0.35490084 -0.043859303
000160 a9 ef 09 3d a4 35 97 be c2 b1 d0 3d 5e a6 9b bd
       0.033675823 -0.29533112 0.101901546 -0.076000914
000170 5b 5f b0 3e 5d 23 d2 3c af b8 15 3e 2e c6 89 3e
       0.3444775 0.025651628 0.14621232 0.26909012
000180 a6 fe c2 3e fd 35 42 bb 68 a6 c5 b8 1f 0a c2 3d
       0.38084906 -0.002963423 -9.4246876e-05 0.09474587
000190 5c dd 63 be c4 30 9f 3d c7 30 18 3e a3 f0 74 be
       -0.2225241 0.07772973 0.14862357 -0.2391992
0001a0 7c 56 7b be 01 80 dd 3d 15 b2 3c bd 4d 23 31 be
       -0.2454471 0.108154304 -0.04606827 -0.17298622
0001b0 c9 aa 09 3d 36 dc 11 be 2b ac 95 3d c2 1d 3a bc
       0.03361014 -0.1424416 0.07308229 -0.011359634
0001c0 26 cb 99 bc 5a 50 92 bd 56 0d 49 3e a4 61 7d bc
       -0.018773627 -0.07144232 0.19633994 -0.015465174
0001d0 ad 03 3a 3e 53 7f d1 3d a2 f9 ee bd 77 55 c3 3d
       0.18165465 0.10229363 -0.116687074 0.095377855
0001e0 9a 1a a7 be c4 89 7c be 22 d0 0d 3e 12 9b 4b be
       -0.32637483 -0.24661928 0.13848928 -0.19883373
0001f0 47 56 8e 3d 49 0e b1 3d a4 eb 4d 3e de f5 a8 bd
       0.0695005 0.08645303 0.20109421 -0.082500204
000200 dc 11 23 3d 9e ca 5e bd 11 f8 91 3d 47 75 45 bd
       0.039811954 -0.05439245 0.07127393 -0.048207548
000210 b3 bd 4d 3c ed 99 28 3e a7 54 9a 3d 7d 09 33 be
       0.012557435 0.16464968 0.075356774 -0.17484088
000220 a7 25 81 3e 15 d9 00 3e 72 93 a0 3e 34 b1 53 be
       0.2522404 0.1258281 0.31362492 -0.20673066
000230 85 ce 70 bd 86 32 93 be 4c 11 b8 3d e8 7e 47 3e
       -0.058790702 -0.28749484 0.08987674 0.19482005
000240 21 1d 2f 3e aa cf 17 3c f3 6f d9 3c 41 e5 37 bb
       0.17100956 0.00926582 0.02654264 -0.002806023
000250 3c 66 45 3e 30 16 81 3d 9b 79 9e bd 97 86 65 be
       0.1927728 0.0630306 -0.07738038 -0.22414623
000260 c9 17 f3 3c 40 7d b7 3d 9f c4 97 bd 0b 5c 43 be
       0.029674428 0.089594364 -0.07410549 -0.1907808
000270 8a dc 59 3d e4 0d 8b be 59 10 5a 3e 72 d4 94 3e
       0.053188838 -0.27159035 0.21295299 0.29068333
000280 46 ae 6e 3e 34 79 c3 3c 77 07 f3 bd c7 a4 5c bd
       0.23308668 0.023861505 -0.11866658 -0.05386808
000290 91 02 7b bd d1 a4 2b bb e8 32 e4 bd 8c 9d af 3b
       -0.061281744 -0.0026190768 -0.11142522 0.005359357
0002a0 44 7e dd 3b c1 e8 b4 3d 47 79 05 3e fa a0 2f 3d
       0.006759437 0.08833457 0.13034545 0.04287813
0002b0 20 e3 3d be 79 59 e1 bd 0b f0 82 be 44 2d 51 3e
       -0.18543673 -0.11003394 -0.25573763 0.20427424
0002c0 b0 9c ff bc f4 f3 15 3e 57 27 37 be 82 ca 4c 3d
       -0.031202644 0.14643842 -0.178861 0.049997814
0002d0 00 94 93 bc 02 40 09 bc 71 cc 22 3e 33 9d 20 3e
       -0.018014908 -0.008377077 0.158983 0.15684967
0002e0 f1 ca 46 be 7d eb 11 3e 90 b1 61 bd 30 cb 7b bd
       -0.19413354 0.14249988 -0.055100977 -0.06147307
0002f0 3c 3c f5 bd 05 d5 9c 3d 3b 52 78 3d e4 f2 7f 3d
       -0.119743794 0.07657818 0.060625296 0.062487498
000300 7f cc 4f 3e d1 f9 bf 3e e3 81 33 3d 1c 40 d0 bd
       0.20292853 0.37495282 0.04382504 -0.10168478
000310 d7 69 7a bd 34 3c 06 bb 0d 81 e7 3d 49 7d df 3d
       -0.061136093 -0.0020482661 0.11303911 0.10912568
000320 ee 62 20 3d 6c ab ae be ab 9f b5 be d3 48 50 be
       0.039156847 -0.3411516 -0.3547338 -0.2034028
000330 0f 8c c9 bd 33 57 84 3d 4d 77 7d 3d e5 b2 4a 3d
       -0.09841167 0.064619444 0.061881352 0.049487013
000340 16 f1 1e 3d fd 4e 40 3d c3 5c b5 bd 5a 51 f4 ba
       0.038804136 0.04695033 -0.088555835 -0.0018639967
000350 e7 1e 92 be 76 2b 68 be 42 05 53 3e 6c 1f f6 3e
       -0.28539202 -0.22672829 0.20607474 0.48070848
000360 a1 30 05 3d c1 be 33 bd f6 b5 0f 3e ef 3e e3 bd
       0.03251708 -0.04388309 0.14034256 -0.11095988
000370 92 f4 d4 bc f5 be 1a be 55 36 61 3e 7b 66 5b 3e
       -0.025995526 -0.15111907 0.21993382 0.21425812
000380 10 f8 9c 3e 82 43 78 bd 5d fe 7c bd dc 0a 90 bd
       0.30658007 -0.060611255 -0.061766017 -0.07033321
000390 55 e9 0b bd 4f ef 6d bd 6b 40 50 be 24 0a 20 be
       -0.03415807 -0.05808955 -0.20337074 -0.15628868
0003a0 e7 05 20 be 6a 42 07 be 2e 18 65 be 80 65 26 bb
       -0.15627252 -0.13208929 -0.22372505 -0.0025390089
0003b0 55 29 38 3e 93 49 c7 3d 68 58 cc bb 7b 8c 81 be
       0.17984517 0.0973083 -0.006236125 -0.2530249
0003c0 83 b0 45 3e fd 7e aa be 6b c0 8b 3d 79 b8 d4 bd
       0.19305615 -0.3330001 0.0682381 -0.10386748
0003d0 73 76 2c 3d 6a 83 ce 3e df 18 82 3d 8f bb 92 bd
       0.04210515 0.40334636 0.063524 -0.0716468
0003e0 cc 3b e8 bc b3 4a 21 3e e8 84 59 be de 92 37 3e
       -0.028348826 0.15751152 -0.21242106 0.17927119
0003f0 be 1c 7b bd 35 08 e8 bc ab e0 3d 3e f8 2f e0 3d
       -0.061306708 -0.028324226 0.18542735 0.10946649

decoder.layers.0.bias f4 [32]
000000 c8 c1 d8 3d ba 06 02 3d 45 80 20 3e 51 f6 09 3e
       0.10583836 0.031744696 0.15673931 0.13472869
000010 d7 69 ae bd 65 73 74 3e 10 09 60 3e 8f 2c b0 3e
       -0.08516281 0.23872145 0.21878457 0.34408996
000020 dc 95 83 3e 3d 21 72 3e 24 d1 b9 3d c6 25 e0 3c
       0.2570027 0.23645492 0.090730935 0.027361762
000030 79 28 ab bc f5 23 f3 bd 31 a1 62 3e f1 7d bc 3e
       -0.020893322 -0.11872093 0.22131802 0.36814836
000040 8b 7b ce bd ef 65 d7 3e 8e f0 c7 3e bf 20 25 3e
       -0.10082158 0.42069957 0.39050716 0.16125773
000050 74 df 7a 3d 13 e8 3a 3e fa a8 51 3e f7 54 9c 3e
       0.061248258 0.18252592 0.20474616 0.30533573
000060 b8 5b 3d be 0a ea 36 be 8b 66 f1 bc 77 35 cc 3e
       -0.18492019 -0.17862716 -0.029467842 0.3988454
000070 1f b1 6d 3e 1a a7 72 3c 38 ac 9b 3e f8 9a 09 3f
       0.23212098 0.014810348 0.3040483 0.5375209

decoder.layers.2.weight f4 [32, 32]
000000 81 22 e4 bc 34 e3 99 3e 73 46 47 bc 73 55 ee 3d
       -0.027848484 0.30056155 -0.0121627925 0.11637392
000010 f7 1f 66 3e 16 ab e8 3d b1 ad 04 3e 5f 92 12 bd
       0.22473131 0.11360757 0.12956883 -0.03578412
000020 d6 f6 37 3e ea 4d 4a be 19 b8 15 3e 6c 72 2f be
       0.17965254 -0.19756284 0.14621009 -0.17133492
000030 70 e5 d8 3d c4 7e 2b bd 73 fb 04 bb b1 b8 c9 bd
       0.10590637 -0.04186894 -0.0020291477 -0.0984968
000040 63 7d ce 3d 43 87 ec 3d 7f f4 dc bc 7f e5 6a 3e
       0.10082509 0.115492366 -0.026972054 0.22939108
000050 bc 6b 32 bc 19 d1 6a 3c cc c7 32 3e 2f 9a c2 bd
       -0.010889944 0.014332079 0.17459029 -0.095020644
000060 2e 47 a6 ba ee cd 82 3e d1 1b 23 3e a8 d1 20 3e
       -0.0012686008 0.25547737 0.1592858 0.15704978
000070 ba ea 09 3e 89 d8 2f be ef 9b 8d bc d9 1b 11 bd
       0.13468447 -0.17172445 -0.017286269 -0.03542695
000080 7d df e7 3c 1a 6f 95 3d e5 21 30 3d 03 7e 04 3d
       0.02830481 0.072965816 0.043001074 0.032346737
000090 2b fc 0c 3e 95 1e a4 bd 6c 9a 25 be a8 27 15 3e
       0.1376807 -0.080136456 -0.16172189 0.14565909
0000a0 be fd 0e be 88 7b 60 3d 81 76 1c 3d 9a 11 2e bd
       -0.13963982 0.05480531 0.03819895 -0.042497255
0000b0 91 c8 66 3e 1d ce 72 3e d2 09 a8 bd 65 53 3f bd
       0.22537448 0.23711438 -0.08204998 -0.04671039
0000c0 b6 54 f0 bd 38 02 b2 39 97 8b 49 3d d6 a4 e1 bd
       -0.11734907 0.0003395246 0.04920539 -0.11017768
0000d0 fd 8d c7 bc a3 9a ae 3d 55 4f 45 3d 37 33 a5 3d
       -0.024359697 0.08525588 0.04817136 0.08066409
0000e0 f3 e2 90 3e 5c 35 0b 3d 20 85 09 3d 70 0e e5 bc
       0.2829815 0.033986434 0.033574224 -0.027960986
0000f0 1d 8a 34 bc 95 13 53 3e 76 29 18 3d ce 4a e9 3c
       -0.011019257 0.20612939 0.037148915 0.028478052
000100 75 3d 83 bd b8 bc af 3d a4 64 2d bd b7 0b 8e bb
       -0.064082064 0.08580917 -0.042332307 -0.0043348926
000110 5a 0f 08 be 0c 3f 27 3e 1d e9 c8 3d 7f bc 22 3e
       -0.13287106 0.16332644 0.09810088 0.15892218
000120 cb 1a 19 3e c3 73 35 bd 79 92 00 3e af cf 8b 3d
       0.14951627 -0.044299852 0.12555875 0.06826722
000130 0d b5 b0 bd cd c1 01 3e c5 65 01 3e 99 f4 bd 3d
       -0.08628283 0.12671585 0.12636478 0.09275169
000140 f0 69 d0 3c 2e 2f 59 3e 6e 8c 76 bb 4b e0 c4 bc
       0.02544114 0.21209404 -0.0037620324 -0.024032732
000150 5c 58 0f be dd ec e9 bc 6c c6 a9 ba 0e 83 56 3e
       -0.1399855 -0.028555328 -0.0012952811 0.20948431
000160 e5 81 e2 bd a5 09 01 3d dc ff 99 3d 55 8f 0a 3e
       -0.11059932 0.03150334 0.075195044 0.1353124
000170 8b 81 41 3e 2f db c8 bd e4 49 90 3c b3 fe bb 3d
       0.18897073 -0.09807431 0.017613359 0.091794394
000180 95 b9 32 bc 2d 63 f6 3d fb 6c 89 bd 54 74 34 3e
       -0.010908504 0.12030635 -0.067102395 0.176225
000190 0a 77 55 3d c8 b4 77 bd 77 5d 08 3d 75 01 ec bd
       0.052115478 -0.06047514 0.03329226 -0.115237154
0001a0 2c 7d 76 bb 7c 53 52 3e bb 46 d7 3d 54 38 c0 bd
       -0.003761123 0.2053966 0.10511538 -0.09385744
0001b0 3f a0 66 3e dc 4d db 3a c3 bb 95 bd da 95 67 3d
       0.22522067 0.0016731578 -0.07311203 0.056539394
0001c0 16 39 91 3c 3f 5a 9f 3e b5 48 a2 bd 90 56 58 bd
       0.017727416 0.3112354 -0.07924024 -0.052816927
0001d0 6e a4 7f bd 56 c0 12 3e 1a f5 1e 3d 24 38 4f bc
       -0.06241267 0.14331183 0.038807966 -0.012647662
0001e0 88 44 56 3e 17 da 11 be bb d2 2c 3e e2 a9 9f bb
       0.2092458 -0.14243351 0.16877262 -0.0048725465
0001f0 c2 e4 eb bb 6b 2c 42 3e b1 c6 55 3e 73 bc 53 3e
       -0.007198901 0.18962257 0.20876576 0.20677356
000200 a4 32 74 3e ca 23 84 3a 93 71 54 bd 3f a0 1b 3d
       0.23847443 0.0010081467 -0.051866125 0.03799462
000210 93 48 40 be b1 53 71 3d 29 a2 5c 3e 23 56 a5 3c
       -0.18777685 0.058917705 0.21546234 0.020182675
000220 c4 ab 77 3d 32 a5 5f 3e e1 fc bb 3d c1 d5 c5 3d
       0.060466543 0.21840361 0.09179092 0.09659911
000230 8b 8e c8 bd d2 f7 83 bd 1e 8d b2 3e fe 89 95 3e
       -0.09792813 -0.06443752 0.3487329 0.29206842
000240 d3 d5 0b bd 52 fe 29 3e 44 7c 89 3e 91 87 68 bd
       -0.034139466 0.16600922 0.2685262 -0.05676991
000250 28 c9 2f bd 47 2c 55 3e eb f3 72 3d 66 2b 5e 3e
       -0.042916447 0.20817672 0.05931465 0.21696243
000260 8f 4d d5 bd 73 f2 48 be 6a 0f 75 3c 1d 21 6a 3e
       -0.10415184 -0.19623737 0.014957288 0.22864194
000270 43 86 87 3d 4d 06 83 3d 3c c7 58 3e ee 0a 40 3e
       0.06617405 0.06397686 0.21169752 0.1875417
000280 dc 46 85 3d 18 40 0b 3e 6d 85 cb bc ff 5a 04 3d
       0.06507656 0.13598669 -0.024843896 0.032313343
000290 37 75 8c 3d 54 84 23 3c 56 63 a8 3d 96 02 a7 3d
       0.068582945 0.00998028 0.08222072 0.0815479
0002a0 82 43 78 bb ed 67 08 be f6 da 37 3b 22 4e 87 bd
       -0.0037882035 -0.13320895 0.0028054095 -0.066066995
0002b0 00 2d 81 3e 2d 84 a1 3c 3a b4 72 3d 4c 43 b2 bd
       0.25229645 0.019716347 0.05925391 -0.08704242
0002c0 58 2a d5 3d c2 ca 8f 3b d1 a7 bc 3d c7 b1 ef 3d
       0.10408467 0.0043881843 0.09211696 0.1170383
0002d0 91 86 b5 bd bb d8 3f 3e 63 2d 67 3e 96 ff 8b ba
       -0.08863557 0.1873502 0.22575907 -0.0010681029
0002e0 cd 2c 38 3e 85 9b 8e 3d ef eb 00 bd 37 d7 a1 bd
       0.1798584 0.06963257 -0.031475004 -0.07902377
0002f0 3b 59 45 bc 47 1f 39 be 11 56 47 3e f5 84 44 3d
       -0.0120452 -0.18078338 0.19466425 0.04797836
000300 5c 86 4d 3c cf 9c 5c 3e 0e 09 d3 3d 58 5e 58 3e
       0.012544241 0.21544193 0.103044614 0.2112974
000310 d1 86 5f 3e df 17 51 be 7c 63 5b 3d 4e 34 92 bd
       0.21828772 -0.20419262 0.053561673 -0.071388826
000320 7d 7d 2b be 59 d8 c7 bd 87 b0 82 3d e2 93 2f 3e
       -0.16747089 -0.09758062 0.06381326 0.17146257
000330 81 1a 13 3e 63 2c f0 3d 47 8f b0 3c 55 8f e2 3d
       0.14365579 0.11727216 0.021552695 0.11062495
000340 6f 37 46 3e 07 84 c8 3a 30 76 91 3d a5 e7 04 3e
       0.19357084 0.0015298136 0.071026206 0.1297899
000350 7f 3c c5 bd d5 5c b6 bc 90 66 72 3e ac 39 d4 bc
       -0.09630679 -0.022261063 0.23671937 -0.025906406
000360 dd df 0c 3e 14 b4 2a 3e 69 9f fa 3d ae fa 99 3d
       0.13757272 0.16670257 0.12237436 0.075185165
000370 57 05 ee bd 88 93 57 3e 38 55 b4 3d 4b 76 70 3e
       -0.11622112 0.21052372 0.08805317 0.23482625
000380 32 dc 38 3e c0 57 5d 3d 52 a5 14 be 9c 6a 23 bd
       0.18052748 0.054038763 -0.1451619 -0.039896592
000390 b8 38 73 be d3 01 0e 3e 49 55 e3 3d 47 b9 40 3e
       -0.23752105 0.13867883 0.11100251 0.18820678
0003a0 1b 7e 37 bd ff c4 36 3e a2 7d 44 3e 0e b8 5e 3d
       -0.044797998 0.17848586 0.1918855 0.054374747
0003b0 1d 8a fb bc 7b 48 8d 3d 20 23 42 3e 2a 26 53 3e
       -0.030705506 0.0689859 0.18958712 0.20620027
0003c0 1e 00 0e be 05 c4 89 bb 03 91 27 3c 02 34 24 3c
       -0.13867232 -0.0042042756 0.010227445 0.010022165
0003d0 a8 d4 08 bd 4b b5 4f 3d 69 09 64 bd d6 56 78 3e
       -0.03340593 0.050710004 -0.055673037 0.24251875
0003e0 0e 79 40 be 0e ab 93 bd fc b5 01 bd fe 42 29 3e
       -0.18796179 -0.072103605 -0.031667694 0.16529462
0003f0 d6 8f 0f 3e ac d1 8f 3d e6 05 d8 3d 8d 7c d4 3d
       0.14019713 0.070224136 0.10548 0.10375319

decoder.layers.2.bias f4 [32]
000000 d7 75 f5 bd d7 1e dc 3d cb 99 21 3e 7a 6d c5 3c
       -0.11985367 0.1074807 0.15781324 0.024100054
000010 c1 56 4d 3d 14 01 d8 bd b0 4e ba bd 0b b2 8d 3a
       0.050131563 -0.10547081 -0.0909704 0.0010810507
000020 70 8c 06 3e 09 e0 48 bd 9d e0 89 3d 02 82 76 bd
       0.1313951 -0.04904178 0.06732295 -0.06018258
000030 9b 8c 26 3e d9 56 2d 3c 77 0a c5 3d 19 1d 71 3e
       0.16264574 0.010579788 0.09621137 0.23546256
000040 88 f2 49 3e c3 68 56 bd 0c be 87 3e e7 8c b4 3e
       0.19721425 -0.052346002 0.26512182 0.3526375
000050 27 af 50 bc 33 4e 24 3e 49 22 6e 3e cf af 5f 3e
       -0.012737072 0.16045456 0.23255266 0.2184441
000060 82 c2 28 be 76 8a ca 3d a4 30 95 3e 0b 37 60 3e
       -0.16480449 0.098896906 0.29138672 0.21895997
000070 7b 53 df 3d d0 bc 9a bc de be 08 bc cd a4 19 bd
       0.109045945 -0.018888861 -0.0083462875 -0.037510682

decoder.layers.4.weight f4 [24, 32]
000000 58 ae e9 3d 1f cd a3 bd 98 d9 aa 3d bf cd a6 bd
       0.114102066 -0.07998108 0.08342284 -0.08144712
000010 43 32 db 3b b8 f6 5b 3c 5e 34 a4 bd 5f 36 81 3a
       0.0066893413 0.013425522 -0.08017801 0.0009858123
000020 71 a1 f0 bc c5 96 14 bd bd da b7 bc fe 23 e2 3c
       -0.029373856 -0.036276598 -0.02244317 0.027605053
000030 50 10 5d 3d e8 d6 98 3c b9 f3 4d 3d 60 19 9d 3d
       0.053970635 0.018657163 0.05028126 0.076708555
000040 62 72 d0 bd 0b b9 12 3d 53 66 38 3d 36 ec c5 bd
       -0.10178067 0.035821002 0.04501946 -0.09664194
000050 d4 c3 ef 3c 5d 49 01 be 97 69 c9 3c be 1e f5 bc
       0.029268183 -0.12625642 0.024586482 -0.029921886
000060 4b aa 93 3c 39 26 5f bd e6 24 52 3d 9b 20 bd 3c
       0.018025538 -0.05447981 0.05130472 0.023086837
000070 4f 8d 46 3c 8f 71 04 3a 11 12 95 3d 2c 76 3a 3d
       0.0121186515 0.0005052322 0.072788365 0.045522854
000080 32 ff 4b bd c9 88 6c 3d 3a 97 d6 3d 43 18 9a bd
       -0.04980392 0.057747636 0.10478063 -0.07524159
000090 fa 9e 83 3d aa d1 72 3d 44 ca 5a 3c 36 a5 25 be
       0.06426807 0.059281982 0.013353888 -0.16176304
0000a0 65 4f 0d be 52 83 dc 3c a0 a7 21 3c 82 0c dc bd
       -0.13799818 0.026918087 0.009866625 -0.10744573
0000b0 6f a3 67 3d 17 50 a1 3d 80 c2 8d 3d ed 70 6d 3d
       0.056552347 0.07876604 0.069218636 0.057969023
0000c0 00 a6 d7 3d 57 fa b0 bb 7d 78 2e 3b 04 35 1e bd
       0.10529709 -0.0054009366 0.002662211 -0.03862478
0000d0 3f fd 18 3e 50 49 ca bd 6c 3d e7 3d 21 13 31 3d
       0.14940356 -0.098772645 0.11291012 0.043231133
0000e0 59 0a 70 bd 98 3e a4 bd e0 82 e7 3b f8 4b 69 bd
       -0.05860362 -0.08019751 0.007065162 -0.056957215
0000f0 fc 42 ea bb 84 af ba b9 92 52 24 3d 3a fc 1c be
       -0.0071490984 -0.00035607454 0.040117808 -0.15330592
000100 a5 a6 09 3d 88 f8 e4 3d 74 28 46 bd 43 44 c5 bd
       0.03360619 0.11180216 -0.048378423 -0.096321605
000110 8d b6 7e bd 48 35 94 bc 7e 57 cd 3d 47 b2 cb 3c
       -0.062185813 -0.018091813 0.100264534 0.024865283
000120 54 ba c9 3d 7b 5f d9 bd d9 65 21 3d 44 c8 9a bd
       0.098499924 -0.106139146 0.03940377 -0.07557729
000130 80 7a ec 3d 4b 78 c2 bc 67 77 98 bc f0 f1 b9 3d
       0.115468025 -0.023739 -0.018611623 0.09079349
000140 95 7f 99 ba d0 0e 23 3e bc f6 e1 bb 32 f7 21 bd
       -0.0011710996 0.1592362 -0.006895868 -0.039542384
000150 08 51 fe 3a 8f b0 0b be 32 f4 17 3e 19 0c 8d bc
       0.0019402811 -0.1364157 0.14839247 -0.017217683
000160 e0 a5 49 bd 24 e8 0b bc a3 40 12 3d 00 62 52 bc
       -0.049230456 -0.008539233 0.035706174 -0.012840748
000170 81 bc ca 3c 19 22 05 b8 fd 78 30 bd 72 98 73 bc
       0.024748089 -3.1741427e-05 -0.043084133 -0.014867889
000180 08 4a 96 3d cd 3c 89 bc 48 99 8f 3c f9 4d 11 3d
       0.07338339 -0.016752625 0.017529145 0.03547475
000190 96 7d c0 bd ad 8c 90 3c 19 67 a0 bd 1e a8 18 bd
       -0.093989536 0.017645204 -0.07832164 -0.037269704
0001a0 6e 3e 38 bc f6 7d 62 3d f8 ee e3 bd 23 81 fe bc
       -0.011245353 0.055295907 -0.11129564 -0.031067437
0001b0 cd 7b fb 3d 95 61 62 3d 1b f5 3f bd a6 96 e6 bc
       0.122794725 0.055268843 -0.04686461 -0.028148007
0001c0 16 b7 0d 3c 6c a4 b3 bd 3b 71 3d bc 9d f6 1e 3d
       0.008649608 -0.08771595 -0.011562641 0.038809408
0001d0 62 d0 73 bd ad b5 0d be bb 2d 02 3e 85 a8 16 3d
       -0.0595249 -0.13838835 0.12712757 0.036781806
0001e0 e3 d9 b2 3d 2e ef b9 3d 37 98 fb 3d d7 3b 17 bd
       0.08732965 0.09078823 0.12284892 -0.036922302
0001f0 9b 7f 03 bd 17 bc 17 bc 19 5b 3b 3d 04 99 a5 3d
       -0.032104116 -0.009261153 0.045741174 0.08085826
000200 8a ff 5a 3d 62 d0 57 3d c1 c4 32 bd 34 c5 83 3d
       0.053466357 0.052688964 -0.04364467 0.06434098
000210 16 95 b6 bd d3 25 99 bd c7 64 04 3d 05 b0 a7 bc
       -0.08915155 -0.074779175 0.03232267 -0.020469675
000220 34 db 8d 3d 84 42 77 3c c6 58 aa bc e2 48 5a bd
       0.06926575 0.015091542 -0.020794284 -0.053292163
000230 ad 78 d1 bd 70 35 14 be 38 f9 85 3b f2 55 30 3d
       -0.10228095 -0.1447351 0.004088547 0.043050714
000240 31 3b da 3d 45 f3 15 3e 1d 9a 72 3d 2a c4 9b bd
       0.10655821 0.14643581 0.059229005 -0.07605775
000250 7d c1 1a bd ee 70 d2 bb 2e 5f ad 3d 37 8f 50 3d
       -0.03778218 -0.0064221537 0.0846542 0.05091783
000260 4e 79 65 bd 28 08 8f 3d e1 36 55 3d 24 b1 8a bd
       -0.05602389 0.069839776 0.05205429 -0.06772068
000270 72 47 6c bd e4 98 a2 3b ef 07 01 be 9f af ca 3d
       -0.057685323 0.0049620736 -0.12600683 0.09896778
000280 61 e1 c9 3d 7e 20 e8 bd d0 cd 2c bd cf 97 10 3d
       0.09857441 -0.113343224 -0.042188466 0.035301026
000290 8f e1 af bd 05 3f e1 bd dd 0c b8 bc 62 73 10 bd
       -0.08587944 -0.10998348 -0.022467071 -0.035266288
0002a0 65 78 05 3e eb 14 18 bd 21 96 c6 3d 47 29 bc bc
       0.13034208 -0.037129324 0.096966036 -0.022968901
0002b0 b2 ee 94 3d 6a 63 5a bd 35 fd 55 3d 27 db d4 bd
       0.0727209 -0.053317465 0.05224343 -0.103933625
0002c0 76 bd 07 3e 51 32 16 3e f2 2e 95 bd e3 8e 93 bd
       0.13255867 0.14667632 -0.07284345 -0.07204988
0002d0 47 00 9f bd f3 d9 7e bd 16 6a 8c bd 48 9d 1d 3d
       -0.07763725 -0.06221957 -0.06856172 0.038480073
0002e0 fa 4f d3 3b bf 0e a5 3c b1 9a 28 3e b5 37 f7 bd
       0.006448743 0.020148633 0.1646526 -0.12071172
0002f0 e1 9e ae bd cc f4 21 bc 3d 68 92 3d ae 04 a6 3d
       -0.085263975 -0.009885024 0.07148788 0.08106361
000300 f0 d0 30 bd 62 56 8c bd 26 7d 09 be 2c 30 6e 3c
       -0.04316801 -0.06852414 -0.13426647 0.014537852
000310 24 1b 16 be 27 eb 09 3e b1 a6 c5 bb 89 4d b2 3b
       -0.14658791 0.1346861 -0.006031834 0.005441372
000320 af 6e b3 bd 6b f5 3a 3d 29 a5 ef bd 21 89 bb 3c
       -0.087613456 0.045644205 -0.11701424 0.022892537
000330 fa 22 d7 bd 8e 65 98 3d c9 e9 22 39 6b 3e e6 bd
       -0.10504718 0.07441245 0.00015536616 -0.11242374
000340 c9 66 8b 3d fa d5 c2 bd bc 9c 2c 3e 77 80 96 bc
       0.06806714 -0.09513469 0.16856664 -0.018371804
000350 3a 57 c2 3d 90 45 fe 3d 1f 0c 12 3c 91 e1 33 3c
       0.094892934 0.12415612 0.008914023 0.010979072
000360 f4 ce 47 3d 25 e9 87 3c af 49 d6 bc a5 87 0b 3e
       0.04878135 0.016590664 -0.026158182 0.13625963
000370 ac 0d 01 3d 05 54 80 b7 50 94 71 bd 03 5d b3 3d
       0.03150718 -1.5297914e-05 -0.058979332 0.08757975
000380 c2 dd d9 3d f3 76 28 3d 42 3c 3a be 74 96 9c bd
       0.10638 0.041129064 -0.18187049 -0.07645884
000390 a9 27 93 bd ad 4b 2a 3d ad ca 87 bd a5 48 ef 3d
       -0.07185299 0.041576076 -0.06630454 0.11683778
0003a0 86 71 27 3d 5a 19 a9 bc a2 43 bc bd d3 09 d0 3d
       0.04087975 -0.020641971 -0.091925874 0.10158124
0003b0 2a 46 38 3d 72 f7 d8 3d e6 6b ab bb f4 9b 20 be
       0.04498879 0.105940714 -0.0052313684 -0.15684491
0003c0 ab 85 78 bd 07 1e e7 3d de 58 f3 3d 53 d5 60 3d
       -0.06067435 0.11285024 0.118821844 0.05489094
0003d0 57 24 0f be fc 87 b4 3d 61 8f 1d 3c 2b 50 e3 bd
       -0.13978706 0.088149995 0.009616704 -0.11099275
0003e0 11 c6 57 bd 34 a0 1c be ca 47 ef 3d d1 ad 14 be
       -0.052679125 -0.15295488 0.116836146 -0.1451943
0003f0 a2 3f 72 bd 84 6f 13 bb 75 c5 23 3c a1 ab b6 3d
       -0.059142716 -0.0022496888 0.009995808 0.08919454

decoder.layers.4.bias f4 [24]
000000 5a 20 92 3d ab 26 ff bd 65 cb d8 bd f3 83 49 bd
       0.07135077 -0.12458547 -0.105856694 -0.049198102
000010 89 28 c9 bd 66 67 2b 3c f7 e4 9f 3d 3e 43 c7 3d
       -0.098221846 0.010461664 0.078073435 0.09729622
000020 2a 35 f8 3c c5 14 94 bd c3 03 5c bd 8e af b7 bd
       0.030298788 -0.07230524 -0.053714525 -0.08969031
000030 da f1 de bd 2c 70 db 3d f9 15 c3 bd 71 71 da bd
       -0.10885973 0.107147545 -0.09525675 -0.106661685
000040 81 56 97 3d 0b 6f ee bd f9 57 91 3d ef a6 25 3d
       0.07389546 -0.116422735 0.070968576 0.040442403
000050 78 b6 1e be 22 96 94 bd 03 2a 22 3d 0e ae 43 be
       -0.15499294 -0.07255198 0.039590847 -0.19109365
