m4_ws/src/morphing_lander/learned_models/2024-05-15_17-17-39/model_20.pth (torch, 33518 bytes, 22 tensors)

cond_normalizer.mean f4 [11]
00000000: f38d b5bf 990a fabc 84cf f8b9 aa6f 453a
00000010: 9845 d73c 6214 83ba de3a ddbb 64d1 073f
00000020: 0859 0a3f 3ed2 073f fb36 0a3f
-1.4183944 -0.030522631 -0.00047456857 0.0007531593 0.026278302 -0.0010000581 -0.0067514023 0.5305388
0.540421 0.5305518 0.53990144

cond_normalizer.variance f4 [11]
00000000: 474c e93f 6680 b33b dcba a73a 1e95 073b
00000010: 0c40 2d3d dae9 383d fea5 d33e b299 7c3c
00000020: 16eb 923c 9176 823c ee67 903c
1.8226403 0.005477953 0.0012796777 0.0020688246 0.042297408 0.045144893 0.4133758 0.015417503
0.017934363 0.015925677 0.017627683

output_normalizer.mean f4 [12]
00000000: d039 85bb 3bb1 37bb 2fb6 6e3c 2801 23b8
00000010: 99ce 603b 08db 573a 8a94 fa3b 6b37 123c
00000020: 0943 4540 cbac 3a3c d8ee 1b3f 3b4d d73a
-0.0040657297 -0.0028029222 0.014569803 -3.8863305e-05 0.003430283 0.00082342373 0.007647102 0.0089243455
3.0822165 0.011393736 0.6091132 0.0016426215

output_normalizer.variance f4 [12]
00000000: 6e0d f53d 726d 8e3d d24a 283e 555b 243a
00000010: bb21 673c 91dc 8a3c 0aa0 9c3e eadc 0a3f
00000020: 647d 7242 7266 ef41 1433 e340 cd54 183f
0.11965452 0.06954469 0.16434792 0.0006269713 0.014107163 0.016950877 0.3059085 0.5424334
60.62245 29.925022 7.099985 0.59504396

encoder.layers.0.weight f4 [32, 23]
00000000: aa0a c83c 6380 0ebe 2a49 99bc 77f3 2fbd
00000010: 9632 913d e553 30bd 80e3 bd3d 579e e83d
00000020: 7ae8 18bd 8b2b 5abe 8703 ffbd 7995 b33d
00000030: 0258 bb3d ecb5 933c 3499 28bc d9cc 353d
00000040: c413 ee3d 84be 133d 188b 2abd 830a ffbd
00000050: ab14 ed3d 27dd 1b3e 4160 71bd b38c c93d
00000060: 9694 dd3d b1d0 74bc c23d 1ebe 9256 57bd
00000070: 15d7 e6bd e212 bc3d 731e f9bc 94d0 4f3d
00000080: 9ad3 bc3d 84d8 443e 0793 c3bc f9fa 3bbd
00000090: 248c 253d 89e0 b13d 831f d93d c91b cfbd
000000a0: a1cd 12be cdc2 b33d 4604 f1bc 614b 86bd
000000b0: 9fd6 113e e6d9 d7bb 47e5 ffbd 5edf 44bc
000000c0: 3316 683d c4e1 f9bc e50e 043c c1c8 ef3d
000000d0: a1ec 84bd c231 623e 3fdb 2f3d eb48 7dbe
000000e0: 4386 413e fed1 4dbe 0224 0d3d 902e afbd
000000f0: 59d5 dcbd 7722 6ebe 57f5 d33c f3ab 6e3d
00000100: 1176 26bc 4c67 b63d 03f2 dd3c fce4 e9bd
00000110: d050 55bd 9576 353d 4379 afbd 7284 933c
00000120: b21c 04bd 6cb1 2bbe 2bcb 243d 63a1 4bbe
00000130: 31b2 03be e291 c1b9 221f 3fbe b233 2ebe
00000140: 504e 663d 0f7d b53c 1608 8abd 31e3 cabd
00000150: c6f7 813d ba9e b73a b37a a2bd cb8e 3e3d
00000160: 7efb f53c 0a53 88bb 1474 85bb 05ff cc3d
00000170: 8636 813b 6062 06bd f997 8f3b dac1 d23d
00000180: b78e 24be 8f94 dd3c 05d3 81bd 217e 2f3e
00000190: fa29 f73c c945 61bc ea30 383e fa25 52be
000001a0: e924 293d 6c28 17be fa9e 013d de96 1ebe
000001b0: 4382 f93d d4b3 9ebd 22ec 9f3d f4ac 983d
000001c0: b103 18bd 14bb a73d f527 febd 14b4 97bb
000001d0: 32e1 e7bc 45f9 d33c 1c7c 1fbe 1662 f13d
000001e0: 6cf8 643e 756c b6bd 9461 31be 96aa d53d
000001f0: 3ca3 bd3c 395c ac3d f02c 51be 260f 3bbd
00000200: 71ef c93d 58c4 a23d 1f08 433d fceb a8bc
00000210: 1b8d 243d aa67 2bbd 61d9 a2bd 0eb1 633c
00000220: 2a83 c73d 8eab f93b d4fa a63d 2ba9 42bd
00000230: 14c6 62bd 09da 5c3d cb02 50bd e2a3 1a3d
00000240: ba0e 5c3d 0406 2f3e d6e8 b93d 6616 093d
00000250: 8722 243e 1c85 e03d 8106 ecbb 866f a7bc
00000260: 5be7 4b3e 89f0 e93d 9943 cd3d 87a2 dabd
00000270: 94bb ef3c a408 0c3e 2945 08be 08af 72bd
00000280: 9f06 3d3d 0eb3 cf3d eadc 363c 2270 b53d
00000290: b68e 17be de96 5c3d 832f 11be 2c5d d8bd
000002a0: 63c9 443e dbdc f0bc f22b 06bd 1090 1bbe
000002b0: 6244 3cbd 24e5 80bc 63d4 a2bd f8fd e4bd
000002c0: 712c 783d c6dd cb3d 2351 1f3b 4861 3dbd
000002d0: 94a2 ab3d 9836 193d 9dae b3bd f95d c0bd
000002e0: 17af 8c3d c881 cb3d bc9e 1ebd e788 27be
000002f0: 7fe3 12be ff30 603e cae3 af3d 1a44 2c3e
00000300: c129 8e3d 85c9 653e 9196 0d3b de9b 05be
00000310: dd16 6abd 1c14 933d c601 1e3e abbb 30be
00000320: 1d01 ddbd ec59 cfbc 33c2 5cbb 95f5 07be
00000330: efbd 60bd bafd e83d 28b5 923d cecb 1abd
00000340: 92d0 a13d e6b6 04be 8e30 b83d bc04 93bc
00000350: 659c 243d dca6 1a3e d32b 92bd 6783 b03d
00000360: d0ce adbc 748e 463e 9ca9 6c3d ac69 9cbc
00000370: 150f b7bd 34eb 233e 5fee c3bd 3a28 88bd
00000380: a953 3fbd a31b 16be 482f a33d 4fc6 d1bd
00000390: 3e01 453e 0f90 1abd fead 92bd abe2 a83d
000003a0: 2b9b d7bd 3263 103e e099 dfbd ed12 e5bd
000003b0: 5c0d c8bc 4eb1 113e 6fc5 163d 71dd b0bd
000003c0: 9c81 3fbe f490 ba3c 66b0 b8bd aef3 313d
000003d0: 76db 7a3d 8c54 06be 7594 d93d f4f4 a1bd
000003e0: c236 db3d ff76 1a3e 8a42 d9bc 8fe2 fe3d
000003f0: f15f c1bd 0965 d4bd aed8 babc 73c6 5ebb
0.024419148 -0.13916163 -0.018711645 -0.042956796 0.070897266 -0.043048758 0.09271908 0.11358326
-0.037331082 -0.21305673 -0.12451845 0.08768744 0.091476455 0.018031083 -0.010290433 0.04438481
0.11624864 0.03607036 -0.041636556 -0.12453177 0.11576208 0.15221082 -0.058929686 0.09841289
0.10819356 -0.014942334 -0.15453246 -0.052572794 -0.112714924 0.09183289 -0.030410027 0.050736025
0.09220047 0.19223219 -0.023873819 -0.045893643 0.04041685 0.08685405 0.106017135 -0.101127215
-0.14336254 0.0877739 -0.029420983 -0.06557346 0.14242028 -0.006587255 -0.12494903 -0.0120161455
0.056661796 -0.030503161 0.008060192 0.11708213 -0.06490446 0.22089294 0.0429337 -0.24734847
0.18898873 -0.20099637 0.034458168 -0.08553803 -0.1078288 -0.23255335 0.025873823 0.058269452
-0.010159985 0.08906421 0.02709294 -0.114206284 -0.052079022 0.04430254 -0.08568051 0.01800749
-0.03225393 -0.167669 0.04023282 -0.19885783 -0.12860943 -0.0003692052 -0.1866422 -0.17011908
0.05622703 0.02215436 -0.067398235 -0.099066146 0.06346087 0.0014009096 -0.07933559 0.046522897
0.030027147 -0.0041602897 -0.0040726755 0.100095786 0.0039432673 -0.03280866 0.00438213 0.102908805
-0.16070066 0.027048377 -0.06339077 0.17137958 0.030171383 -0.013749548 0.17987409 -0.205223
0.041294966 -0.14761513 0.031645752 -0.15487239 0.121830486 -0.07749143 0.07808711 0.07454863
-0.037112895 0.08189979 -0.12409965 -0.0046296213 -0.028305624 0.025875697 -0.15574688 0.117862865
0.2236039 -0.08907405 -0.1732238 0.10432927 0.023149125 0.084160276 -0.20427299 -0.045668744
0.09860123 0.07947606 0.047615167 -0.020620339 0.04017363 -0.04184691 -0.07951618 0.013897194
0.097418144 0.007619328 0.081533104 -0.047524612 -0.055364683 0.053918872 -0.050783914 0.037753947
0.05372498 0.17092139 0.09077613 0.033468626 0.16028796 0.109628886 -0.0072029238 -0.02043892
0.19912474 0.114228316 0.10022659 -0.10675531 0.029264249 0.13675171 -0.13307633 -0.059248954
0.046148892 0.10141574 0.011161068 0.08859278 -0.14800534 0.053854816 -0.1417828 -0.10564646
0.19217448 -0.029402187 -0.032756753 -0.15191674 -0.045963652 -0.015734263 -0.07950666 -0.11181253
0.060589258 0.09954409 0.0024309836 -0.046235353 0.08380619 0.03740558 -0.08773539 -0.09392924
0.06869333 0.09936863 -0.0387256 -0.16360818 -0.14344595 0.2189369 0.08588369 0.16822854
0.06941558 0.22440155 0.0021604637 -0.1304774 -0.05715071 0.0718157 0.15430364 -0.1725909
-0.10791228 -0.025311433 -0.0033685088 -0.13277276 -0.054868635 0.113765195 0.07163459 -0.03779202
0.0790111 -0.12960395 0.08993636 -0.017946593 0.040188212 0.15102714 -0.07137265 0.08618813
-0.02121678 0.19390279 0.05777894 -0.019093357 -0.089384235 0.16007692 -0.0956695 -0.066482976
-0.046710644 -0.1465898 0.079680026 -0.102429025 0.19238755 -0.03773504 -0.071620926 0.082463585
-0.10527643 0.1410034 -0.10918021 -0.111852504 -0.024420433 0.14227793 0.03680938 -0.086359866
-0.18701786 0.022774197 -0.0901802 0.04344528 0.06124445 -0.1311819 0.10624019 -0.07908049
0.107038036 0.15084456 -0.026520986 0.12445556 -0.094421275 -0.103708334 -0.022808399 -0.0033992797

encoder.layers.0.bias f4 [32]
00000000: e117 ebbd 6321 df3d f265 45bd 6190 3a3e
00000010: a7ee 80bc a43f 39bd 421d e7bd 9e23 a23d
00000020: e0d8 09be 7561 bb3d bb30 1abe 68bd 053e
00000030: cc43 bebc b5d7 9f3d 146d b0bc 734a 05bd
00000040: 2580 2e3e 7aee cdbd 96f6 03be 1274 683d
00000050: ad53 31be 00b6 a0bb 9a3e 07be e1ca cbbd
00000060: d0d6 2c3e bc00 d43d 0377 a13d 6786 453e
00000070: 3ec2 e5bd a55d e23d 45a0 39be 2f3e 9bbd
-0.11479164 0.1089504 -0.048192926 0.18219139 -0.015738798 -0.045226708 -0.11284877 0.0791695
-0.13461637 0.09149448 -0.15057652 0.13060534 -0.023225687 0.07804815 -0.021536388 -0.032541703
0.17041071 -0.100552514 -0.12887034 0.05675132 -0.17317076 -0.0049045086 -0.13207474 -0.099508055
0.1687882 0.103517026 0.07884028 0.19289552 -0.112186894 0.110530175 -0.18127544 -0.0758022

encoder.layers.2.weight f4 [32, 32]
00000000: 39e8 ecbd 4229 083e 5f56 193e 6d69 ffbd
00000010: 095b 123e ff2e ecbd c2a5 b6bc 3045 b3bd
00000020: 054e 333c e619 9cbd 41b6 97bd 6254 20bd
00000030: af16 6dbc a1f9 fbbd 0b21 82bd 2f1b 503d
00000040: 47eb da3c 7a8a 8cbd 8db2 2b3e 48fe 62bd
00000050: 6c23 d53d 36d6 113b c58f 7c3d c78d ddbd
00000060: 546b 733c ff81 f33d 2dd1 c53d 9125 b83d
00000070: 800a fbbd 4b41 09bd 8c54 9e3d b9dc 483d
00000080: 9a2d f0bc a930 dc3d 8029 5bbd f11d 59bd
00000090: 695e 69bd 4499 873d 281c d3bc c5c9 a93d
000000a0: d9c4 9abd d6cc d73d 34a0 adbd 7a97 21bd
000000b0: dcf9 12bd a1ac d03d 574b eabd d82c 19bc
000000c0: 3c23 193e e4cd 413d f885 ccbb b988 acbc
000000d0: 4dc0 4f3c 8bd0 273d 2fd7 cbbd c7a9 d3bd
000000e0: 1566 aa3d 1cd8 c5bd f65a 08bb bb13 a83d
000000f0: d3f5 eebd e89a 8b3d eebb d0bd 8484 053d
00000100: f276 abbd b3cc e63d d72b 993d c1c7 ea3d
00000110: 0aed bebd 3eb3 bf3c aa8e a2bd 7a7d 9cbd
00000120: 0a7c cfbd 2ba5 e0bd c7fe 7abd 2bee c0bd
00000130: 56fd 3fbd 3e12 f4bd 07c9 293e e2b7 c6bd
00000140: c49a 09bd 93ec 9dbd 66e1 1b3e 96d1 84bc
00000150: 65c0 0abe f7fb 983d 869a 073e dc5f f1bc
00000160: f7e6 073e e68b ca3c d620 d53c 8e85 db3d
00000170: f05b 033e 8563 a93d 4d63 8cbc 4aa2 5f3c
00000180: 6cc9 473e 9119 123e 6609 02be ab66 9a3d
00000190: d019 57bd 2361 893d 01c9 1b3e 2ada 2e3e
000001a0: f34d b6bd 0672 17be 1320 b1bd a096 b2bd
000001b0: c68a 993d b489 0b3e c038 463d 4790 f5bc
000001c0: 82f3 e8bd 5460 553d f64b fd3b a278 ce3d
000001d0: a8ae 7dbd 3761 97bd 169c 343d 7ec3 b13d
000001e0: a5d7 013e 1bfe 53bd dad3 c13b 05c5 d23d
000001f0: 7d22 1b3e 208f 923c 5e8d 173d 1eb2 1bbb
00000200: 10a9 84bd cfc8 1ebd 3b2c dd3d ecc9 ea3c
00000210: 597d 8fbd 5998 78bd 80ac 04bd 4753 15bd
00000220: 6acb 143d d6fe fd3c 3b4e a23d 2938 1b3e
00000230: 7a3c 56bd 2501 a4bd 740f d9bb 0589 043d
00000240: f20b 283c 8094 9dbd 3daf 3d3d 6936 6c3d
00000250: 9bde cfbc fd8c b6bc e6ee 01ba 710e c2bd
00000260: b265 de3d f671 a5bd a982 963b 7c76 d93d
00000270: 1e5b dcbd 5381 b1bd ac8c 093c 2fc8 5fbd
00000280: d76e 0c3d f3af 3c3e 1042 c73d 436f b03d
00000290: 89e4 ee3d 281b b93d 5279 4d3c b804 e03d
000002a0: 144f fabd 5101 a9bc eeb2 3f3e be29 e1bd
000002b0: d519 a0bd cad6 d1bd 4082 a03d ace9 f6bd
000002c0: 7b90 043e 3d02 bb3c de7b 00be 4bf4 68bc
000002d0: 198a f73d 1cb1 1c3e 9ac4 2d3d 685e ba3d
000002e0: 7a3e 253e 7d7c 07bd 29d7 8f3d 433a 823d
000002f0: b2a7 13bd 01b2 a93c 36a4 5dbd fdab b83d
00000300: 2410 3d3e 2c2f fb3d 9bb1 093e f690 1dbe
00000310: bb24 c83c 6ee7 063d f891 b0bd e173 743c
00000320: 8e2b c7bd 9fcf 793c b289 173e b51e 2fbe
00000330: 819d 243e 4be2 2f3e f1e7 153e 1daa 0fbe
00000340: 4ed0 ccbd c230 fa3d 7ad3 033e 2a9d 003d
00000350: 5435 4c3d cb80 b9bd f4d6 293e 6505 f6bc
00000360: fb72 f63c 8f01 04be e475 eebd 4d5d a6bd
00000370: a3f1 0d3e 5596 b53d 85d9 963d efcb 813d
00000380: 71c9 1c3e efe0 ecbd f031 eb3d c1d8 683d
00000390: 2d61 dd3d 1ff2 1a3e 17d9 5dbc 2747 80bd
000003a0: 6b55 fa3d 992c c63d 32d1 fbbc e353 243d
000003b0: a6c5 c23d 297b cbbd 353d 65bd a11d 373d
000003c0: 8799 b93d 5bf8 14bc d123 ba3d ea9b ea3b
000003d0: f778 f03d d792 183d 4ad3 d33d 0ac6 64bd
000003e0: 0a8b 033d 19da 27be 0db7 acbd d2ee 75bd
000003f0: 1e70 a33d 6a5a c2bd 2c0b 453c 5991 263d
-0.115677305 0.13296989 0.14974354 -0.1247128 0.1429254 -0.11532401 -0.022295836 -0.08753431
0.010943894 -0.07622127 -0.07407809 -0.039142974 -0.01447074 -0.12303472 -0.06353959 0.050807174
0.026723517 -0.0686235 0.1676733 -0.055418283 0.10407147 0.0022252924 0.061660547 -0.108180575
0.014857132 0.11890029 0.09659038 0.0899154 -0.12257862 -0.033509534 0.0773097 0.049038623
-0.02931862 0.10751469 -0.053506374 -0.05300707 -0.056974802 0.0662103 -0.025770262 0.082904376
-0.07557077 0.10537116 -0.08477822 -0.0394511 -0.035882816 0.10189176 -0.11440151 -0.0093490705
0.14954847 0.047315493 -0.0062415563 -0.021061288 0.012680125 0.040970366 -0.099531524 -0.10335117
0.08320252 -0.0966036 -0.002080617 0.08206888 -0.11667981 0.068166554 -0.10192095 0.03259708
-0.083722964 0.11269512 0.07479065 0.11463881 -0.09322555 0.023400899 -0.07937367 -0.0764112
-0.101310804 -0.10969003 -0.06127813 -0.09420427 -0.04687246 -0.11917542 0.16580592 -0.097030416
-0.03359486 -0.077111386 0.15222701 -0.01621322 -0.13549955 0.074699335 0.1324254 -0.029464655
0.132717 0.024724912 0.026016634 0.10718833 0.1282804 0.08270935 -0.017137194 0.013649533
0.1951043 0.14267565 -0.12698898 0.075391136 -0.05251485 0.067079805 0.15213396 0.1707541
-0.089015864 -0.1478959 -0.08648696 -0.08720136 0.07497172 0.13626748 0.048393965 -0.029976023
-0.113745704 0.05209382 0.0077300025 0.10081603 -0.061934143 -0.07391589 0.044094168 0.08679865
0.12679918 -0.051756006 0.0059151473 0.10291485 0.15149875 0.017890513 0.037000053 -0.002375729
-0.064775586 -0.038765725 0.10799452 0.028660737 -0.0700633 -0.060692165 -0.03239107 -0.036456373
0.036326803 0.031005304 0.079250775 0.15158142 -0.05230377 -0.08008031 -0.0066241566 0.032357235
0.010256754 -0.0769434 0.0463097 0.057669077 -0.025374701 -0.022284025 -0.0004956558 -0.09475411
0.108592406 -0.08078377 0.0045932126 0.10618302 -0.10759567 -0.08667245 0.008395355 -0.05463427
0.034285393 0.18426494 0.09729397 0.086149715 0.11664683 0.09038383 0.012541132 0.109384
-0.12222114 -0.02063051 0.187206 -0.1099429 -0.07817427 -0.10246046 0.07837343 -0.12056288
0.1294574 0.022828216 -0.12547252 -0.0142184 0.12086887 0.15301937 0.042423822 0.09100038
0.16137114 -0.033077706 0.070234604 0.06358769 -0.0360486 0.020714762 -0.054111682 0.09017179
0.18463188 0.12264857 0.13446657 -0.1538733 0.024431577 0.032935552 -0.08621591 0.014920206
-0.09725104 0.015247255 0.1479862 -0.17101558 0.16075708 0.17176168 0.1463926 -0.14029737
-0.100006685 0.12216331 0.1287364 0.031399883 0.049855545 -0.090577684 0.16585904 -0.03003187
0.030084124 -0.1289122 -0.116435796 -0.081232645 0.13861708 0.08866564 0.07365707 0.06337725
0.15311219 -0.1156634 0.11484134 0.056847338 0.108095504 0.15131424 -0.013540528 -0.06263571
0.122233234 0.09676475 -0.0307394 0.040119063 0.09510355 -0.099356 -0.055966575 0.04470599
0.09062486 -0.009092416 0.09088863 0.0071596997 0.11741822 0.037249412 0.103430346 -0.055852927
0.03211502 -0.16391791 -0.08433352 -0.06004221 0.07980369 -0.09489901 0.012026589 0.040665958

encoder.layers.2.bias f4 [32]
00000000: 9843 d63b 87e9 4b3e 497c 083e 0d1b a6bd
00000010: 1356 c23d a63b b7bd 6024 1d3d e725 0cbc
00000020: 51ca cabd 1ce7 35bd ed98 943d 8bd6 7c3e
00000030: d2f2 0bbd eec8 99bd 3c6f 3dbd 62ac 91bc
00000040: cfc5 25bd e34a 273e 7c10 b33b 3536 81bd
00000050: cfc4 293e 7fa2 75bd 21b1 4bbd 446a dabd
00000060: 48a3 6d3d 004f 3abd 37b8 4dbd a9a1 edbd
00000070: d43e abbc 0ba8 f3bc 7c88 12be efe6 a63c
0.0065388195 0.19913302 0.13328661 -0.08110628 0.094890736 -0.08946924 0.038364768 -0.0085539585
-0.0990187 -0.044409856 0.07255731 0.24691217 -0.03416712 -0.075090274 -0.04624866 -0.017782394
-0.040471848 0.16337161 0.0054646116 -0.06309167 0.16578983 -0.05996942 -0.04972947 -0.106648
0.058017045 -0.045485497 -0.05022451 -0.116031 -0.020903982 -0.029743215 -0.14309877 0.02037379

encoder.layers.4.weight f4 [12, 32]
00000000: 990a a43d 56ee 013e 32c4 a63d e341 0abe
00000010: ce79 033e 1fcd 0fbe 938b 25bd 4bae 51bc
00000020: 842e cf3d 91b8 2ebe b4a6 2bbe b703 943c
00000030: 8755 e5bc 633d 4c3d 59c5 d1bc 57fb 4e3d
00000040: 2f07 90bd ce85 0bbe 91fc 90bc 25dd d1bd
00000050: 85cf ca3d 28e3 e7b9 1275 043d fdaf 0fbe
00000060: 1653 a7bd 9951 a1bd 35f7 1d3d 7112 c8bd
00000070: 9c3e 50bd f688 ca3d 1b20 993d c249 eebd
00000080: 00f1 2a3e 3ea8 d2bd 47ed 30be 9d92 fcbd
00000090: 0be2 823d 217a 243e 5740 343d 1091 cebb
000000a0: db32 a23d 3b20 0bbe 2e59 c13b 6f02 22be
000000b0: 3a25 343e 4f68 2a3e a0e4 a0bc f7af e1bd
000000c0: e042 363e 2ba7 03bd 0f76 303e 343f 3a3e
000000d0: d798 83ba c8c4 b03d d6cc 9fbd f8db 8c3d
000000e0: 5310 613c 5b1b 1bbe 5acc 083e 312f afbd
000000f0: 34de 223e c676 af3d a22e 523d ed9b 72bd
00000100: dcfa 8e3d 12c5 7c3c b8ac 083e f239 933d
00000110: 00a9 073e a641 f83d 9e27 db3d 9c99 fc3d
00000120: 1af1 293d f5ce 13be 9fb4 d7bd 63d5 24be
00000130: 83be 3f3e 8908 403d 2803 babd d91b cb3c
00000140: 70da 183e ceae 473e 7cb2 dcbc 2655 453e
00000150: 7b8e eabd b4e5 2b3d 25fb 5cbd 5fe6 b13d
00000160: 9947 0abe 32f5 01bd e791 d73b d218 02be
00000170: 9a73 9b3c 8cb6 84bd 8ad2 4fbd e874 b3bd
00000180: 34ee 1ebe 5a05 28be 4e26 d43c fc32 aebc
00000190: d21d afbd a2b3 1a3e 1a2d c33d 66bb 393d
000001a0: 473a 7c3d 85ab 253d 288f 2abd effe bc3c
000001b0: ab2e 333e 2176 043e d359 a63d 5c67 1f3e
000001c0: b3c5 0e3d 54ea a1bd 2926 e6bd b45f 393e
000001d0: 1e30 30be a536 0e3e 4e68 4fba d8b7 3f3e
000001e0: 06bd d3bc 6462 0fbd 96d5 d93d 7c8d c6bd
000001f0: 6fbf c0bd e9de 81bd a36d ca3d 39dd f4bc
00000200: 0dee 9c3d 7ee1 ecbc 4bef a43d 421a f7bc
00000210: 2345 97bd 3ea1 ad3d ccd6 15bd 2820 ecbd
00000220: f7fa 343c d9af 243e 35ba c0bd 60c6 193e
00000230: dae3 cd3d 04d7 04be fdad 9a3d f382 5e3e
00000240: 884a f23d f312 833b 046c 22be 24c0 9ebd
00000250: 73a9 1d3d fea4 a13c 3413 eebc 0728 8a3e
00000260: 17c0 41bd cabd f8bc da39 0a3e 1721 8dbd
00000270: d20d c43d ef21 aa3b 06af 823d c757 e1bc
00000280: a801 203d d20a 38be 7d86 aebd ebf8 473e
00000290: 4d50 acbd 76c0 9d3d 8d95 0d3e 6e83 8e3d
000002a0: 1c04 1b3e 01f2 d13d c8f3 4a3e 8153 48be
000002b0: bdc8 e83c 7db4 00bd 56a0 483d e1c5 d7bc
000002c0: 3927 8d3d b45f 6abd b986 bc3d 1533 473d
000002d0: e00d 0e3d b61a cfbd bc6c 5dbc 71a2 8abd
000002e0: e09a 1c3d f12b 543e 3dfb e8bd 7648 61bc
000002f0: f93b e83c 6837 c33d 904e ffbd a593 a03d
00000300: 8eeb 49bd 041d 40bc 79e6 babd c2b2 3bbe
00000310: 1a67 91bc daa7 983d 331c e03c 4f07 a4bd
00000320: 5aed 03bd 26d6 333d 5a3e 663d 0afe 713d
00000330: 0a98 25be 6243 4dbd 2012 74bd 24bf 13be
00000340: 0f45 0dbe 2b1f 82bc da97 cabc 8def 893d
00000350: b5cd 22bd 9542 05bd bafb 3f3d ad75 27ba
00000360: 9270 e6bd a610 5ebd deb5 20be ae2d 213d
00000370: 995c 6fbd 89ec fb3d 0f85 013d 52f9 973d
00000380: f82f a3bc 7e6e 5e3c daba f7bc 355b e73d
00000390: de94 bf3c cf8e 553c 98be 56bd 57ba 1b3d
000003a0: 5fd0 99bd e401 de3c 9545 81bd 747c ecbb
000003b0: 2554 d93d 38f7 033e dc0e 3fbd 483c f03d
000003c0: 74ac a73d 8fd3 a8bd 0d2f 87bd 3bea afbd
000003d0: 89d0 8dbd 086d 0d3d 16c5 60ba 26f2 1a3d
000003e0: d636 d53c de08 b6bd a6ce 88bc 2cc6 fa3c
000003f0: ba1f fabb 889d de3d d7a0 8b3c 6efd 74bd
0.08009834 0.12688574 0.0814289 -0.13501696 0.12839434 -0.14043091 -0.04041631 -0.012797902
0.10116294 -0.17062594 -0.16762811 0.018068178 -0.027994884 0.04986323 -0.025606798 0.050532665
-0.0703262 -0.13625261 -0.017698558 -0.10247258 0.099028625 -0.00044228998 0.03233821 -0.14031978
-0.08170144 -0.07876892 0.038565833 -0.097691424 -0.05084096 0.098894045 0.07476827 -0.11635162
0.16693497 -0.10285996 -0.17278014 -0.12332652 0.063907705 0.16062213 0.04400667 -0.006303914
0.07919856 -0.13586514 0.0059005236 -0.15821241 0.17592326 0.16641353 -0.019640267 -0.11019891
0.17798948 -0.032141846 0.17232536 0.18188173 -0.0010040057 0.08631283 -0.07802741 0.06877893
0.013736802 -0.15147154 0.13359204 -0.08553923 0.15905076 0.08567576 0.051314004 -0.059230734
0.069814414 0.015427845 0.13347137 0.071887866 0.13248062 0.121218964 0.10700916 0.12333986
0.041489698 -0.14434417 -0.105324976 -0.16097026 0.18725018 0.04688314 -0.09082633 0.024793552
0.14927077 0.19500276 -0.026940577 0.19270763 -0.11452957 0.04196711 -0.053950448 0.08686518
-0.13503875 -0.031727977 0.006578672 -0.1270478 0.018976022 -0.064801306 -0.050737895 -0.087625325
-0.15520555 -0.16408291 0.025897171 -0.021264546 -0.0855061 0.15107587 0.09530087 0.045344733
0.061579015 0.040446777 -0.04164043 0.02307078 0.17498271 0.12935688 0.08122601 0.15566772
0.03485651 -0.07906023 -0.11237747 0.18102914 -0.17205855 0.13888033 -0.0007911966 0.18722475
-0.02584697 -0.035005942 0.106364414 -0.09694955 -0.09411513 -0.06341345 0.09884193 -0.029890643
0.07662592 -0.028916117 0.08053454 -0.030163888 -0.07386234 0.0847802 -0.0365818 -0.11529571
0.011046163 0.16082706 -0.09410516 0.1501708 0.10053225 -0.12972647 0.07552717 0.2172964
0.11830622 0.0040000617 -0.15861517 -0.07751492 0.038491677 0.019731995 -0.029061891 0.26983663
-0.04730233 -0.030363936 0.13498631 -0.06891077 0.095729485 0.0051920335 0.06381039 -0.027507676
0.03906408 -0.17972878 -0.08521745 0.19528548 -0.08413754 0.07702725 0.1382658 0.06958662
0.15138286 0.10251237 0.19819558 -0.19563104 0.028416032 -0.031422127 0.048981033 -0.026339473
0.06892247 -0.057220176 0.09205384 0.0486327 0.0346812 -0.101125166 -0.013514694 -0.067692645
0.038233638 0.20719887 -0.11376045 -0.013750186 0.02834891 0.09532052 -0.124661565 0.07840661
-0.049296908 -0.011725668 -0.091259904 -0.1832991 -0.017749358 0.0745389 0.027357196 -0.080092065
-0.032208778 0.0439054 0.056211807 0.05908016 -0.1617128 -0.05011309 -0.059587598 -0.14428383
-0.13795875 -0.015884003 -0.024730612 0.06735144 -0.03974696 -0.0325342 0.046870925 -0.00063880795
-0.1125194 -0.054215096 -0.15694377 0.039350204 -0.058437917 0.12300975 0.031621035 0.07420601
-0.019920334 0.013576148 -0.030240465 0.11296693 0.023386415 0.0130345365 -0.052427858 0.038019504
-0.07510447 0.02710051 -0.063121 -0.0072169844 0.106117524 0.12887275 -0.04664503 0.11730248
0.0818719 -0.082434766 -0.06600771 -0.08589598 -0.069245405 0.03452781 -0.000857429 0.037828587
0.026027124 -0.0888841 -0.0167001 0.030612074 -0.0076331766 0.108698905 0.017044468 -0.059812002

encoder.layers.4.bias f4 [12]
00000000: 1cd5 2a3e 60f5 4bbe 2bbe 433e ec43 3f3c
00000010: 506c 40be c24b bfbd 6427 293e 9991 9dbd
00000020: 8359 c8bd 65c5 203e a397 b73d 8cc6 d9bd
0.16682857 -0.19917822 0.19115512 0.011673909 -0.18791318 -0.093406215 0.16518933 -0.07693786
-0.09782698 0.157003 0.08964469 -0.10633573

decoder.layers.0.weight f4 [32, 17]
00000000: f2bb 0c3e ce2f 00bc e8d5 87bd 5e1c c5bd
00000010: 9b83 88be d78c 973b 6685 903e 9e5a 303e
00000020: 0db0 c1ba 8455 22be d0ab 39be 3d58 883e
00000030: ef75 52be bc30 373e 5d3c 123e cc40 cdbd
00000040: 035b e83d 4729 5dbe 5789 4a3e afd0 1bbe
00000050: 77ac 05be 550c 5b3e 94b3 78bc eddb 96bd
00000060: 6e78 43bd 8114 493e ee69 293e b1a8 a9bd
00000070: c038 81be 8ecc a13d 89ad 553e e8e7 0e3e
00000080: 4fa3 2bbd a88e 6b3e d8d1 b4bd 10e3 783e
00000090: 5ede 0b3e d573 743e a68a ef3d 6523 743e
000000a0: 4e30 c63c 9750 79be 275e 3f3e 9eb9 7abe
000000b0: e845 f3bc 38a8 8e3d d74e 353e 9695 3cbe
000000c0: 1efb 1bbe 451d f83c 0214 8fbe 1133 5ebd
000000d0: 6de5 05bd 673c 4a3e 1b0f 483d eaa1 ecbd
000000e0: 4e01 d43d 16cc 953e 9cc8 4b3e 0123 1abe
000000f0: 3d8a 353e 2cb5 cabd fb43 12bc 5676 09be
00000100: a2c8 253d 54e2 75be 3e10 10be 80ef d63d
00000110: 4813 88bd 275e 2b3d 71fc 493c 3375 d73d
00000120: 82a5 133d 8054 173c d30e 07bd f7e6 02be
00000130: cab5 6cbe 661a 373d a4bd ea3d 3e7d c33c
00000140: caa4 edbd 66d0 1ebe b8a2 9c3d 40f1 50be
00000150: d4c5 64be c64b 203d 2ce5 94be a166 17bd
00000160: f456 493d f6ee 95be 7b60 0b3e 512b 92bc
00000170: 42fd 863e 9ccc e23c f805 383e 4645 663e
00000180: 3576 ba3e de92 54bd e97b 6e3d e5fe f73d
00000190: 6ee9 65be b6f9 113e 31f9 2a3e dacd 59be
000001a0: 5473 58be 32a8 8b3d 37b9 81bd 1d06 2dbe
000001b0: dbd3 7c3d b0ed 47be 3dd7 973d da0d debc
000001c0: 6c15 80bd afd2 dfbd 9b59 e43d 9f4a 0abd
000001d0: 0f1f 2c3e e27a a63d a7cc 0fbe 387f 863d
000001e0: b9d5 8abe 176d 6ebe e82d ef3d d202 52be
000001f0: d905 e23d a41d bd3d 99bf 373e d754 17be
00000200: fbc0 1e3d 6592 a4bd fa2c 933d adb3 d6bd
00000210: 99bc 4f3d 8ed7 443e f0de c33d db0f 14be
00000220: 35c0 7d3e 7c4a 193e c790 933e 9ca0 2dbe
00000230: 6da1 99bd 0bbc 79be fbbc cf3d 7093 0e3e
00000240: 5191 593e e129 1c3d 5e8a 3a3d 6e9c b5bc
00000250: 4007 083e 11f1 833d 72c9 bfbd 05c2 84be
00000260: fbcc 173d 2966 b73d 4237 78bd 6879 39be
00000270: e8f8 a83d d7d2 8cbe 10ff 5f3e 50db 823e
00000280: 4a1e 4b3e fdfa f63b c12a 14be 6b82 edbd
00000290: 0fa7 84bd baed e6ba 8c3f afbd 4e4e 803c
000002a0: 5dd2 8b3c 552b ec3d 907f 093e 7982 cf3c
000002b0: b666 61be 56e8 0abe 3268 67be 290f 323e
000002c0: 9dd7 acbc 4167 e33d 7280 4dbe f1ff 803d
000002d0: b6d0 39bd 9829 c7bc aa8f dd3d c4a9 583e
000002e0: dff0 33be 41e7 313e a8b7 4dbc 2e42 d9bc
000002f0: 4b12 40be d028 543d 75fd 813c e0dc 9f3d
00000300: c7c1 5b3e 6ce2 8f3e c24b 443d 17e2 20be
00000310: 8ba6 26bd 8f8c c3bd b941 8b3d cdce 5d3c
00000320: 26f6 953d 8654 9cbe c1bb a3be 5fb6 2bbe
00000330: 6e55 4abd a3cd ab3d 40c0 efbc 2293 16ba
00000340: 2c17 a53d 5457 853d 66a0 5fbd 04f1 c0bd
00000350: 5a8a 72be 09e9 56be f2fc 123e f677 773e
00000360: 4b68 c03d f742 b8bb 5298 443e 9203 79bd
00000370: 4d24 933c 749e 94bd f28f 223e c3f8 553e
00000380: 7cf0 633e ca6e 28be 5e8d fcbd 172e 41bd
00000390: 42c9 dcbd 98a8 9bbd 1de7 3dbe 1131 fcbd
000003a0: 78db 01be 9688 04be 1e68 53be 9a33 c53c
000003b0: c6d0 603e e771 0f3e 7d07 4fbc bf84 5abe
000003c0: 89c5 313e e6d6 98be 454b 8e3d 1944 8bbd
000003d0: 96a8 253d 3642 b13e 2b88 673d 38b1 a5bd
000003e0: e478 4abd 692c 083e 3554 6cbe 04cb 413e
000003f0: eba2 80bd e3c3 2bbd aff8 4f3e 1b63 e63d
0.1374357 -0.0078238975 -0.06632596 -0.09624551 -0.26662907 0.0046249437 0.28226775 0.17222068
-0.0014777199 -0.15852934 -0.18131948 0.2662982 -0.205528 0.17889684 0.1428084 -0.10022125
0.11345484 -0.21597777 0.19778953 -0.15216325 -0.13054071 0.21391423 -0.0151795335 -0.07366166
-0.047722273 0.19636728 0.16544315 -0.082841285 -0.2523861 0.07900344 0.2086698 0.13955653
-0.04190379 0.23003638 -0.08829087 0.24305367 0.13659045 0.23872311 0.11696367 0.23841627
0.024192955 -0.24347149 0.1868826 -0.2448487 -0.02969642 0.06965679 0.17705856 -0.18416438
-0.15232512 0.030287394 -0.27944952 -0.05424792 -0.0326895 0.19749604 0.04884253 -0.1155432
0.10351811 0.29257268 0.19900745 -0.15052415 0.17728515 -0.09897837 -0.008927341 -0.13424048
0.04047454 -0.24012119 -0.14068696 0.104949 -0.066443026 0.041837838 0.012328253 0.10520401
0.036046512 0.009236455 -0.03297312 -0.12783419 -0.23116222 0.04470291 0.11461952 0.023863431
-0.11603697 -0.15509185 0.07648224 -0.2040453 -0.2234109 0.039134763 -0.29081094 -0.03696311
0.04915519 -0.29283875 0.13611023 -0.01784292 0.26365095 0.027685456 0.17971027 0.22487363
0.3641831 -0.051897876 0.05822364 0.12109164 -0.22452328 0.14255413 0.16696621 -0.21269932
-0.21137744 0.0681919 -0.06334155 -0.16896863 0.06172548 -0.19524264 0.074141 -0.027106214
-0.06254086 -0.109288566 0.111499034 -0.03376257 0.16808723 0.08128907 -0.14042912 0.06567234
-0.27116182 -0.23283802 0.11678678 -0.20508888 0.110362716 0.09234169 0.17944182 -0.14778458
0.03875826 -0.08035735 0.07186313 -0.10483489 0.05071697 0.19222853 0.09564006 -0.14459173
0.24780352 0.1496982 0.28821394 -0.16955799 -0.07501493 -0.24388139 0.10143467 0.1392343
0.2124684 0.038125876 0.045542113 -0.022169318 0.13284016 0.06442464 -0.093645945 -0.25929275
0.03706072 0.089550324 -0.060599573 -0.18112719 0.082506 -0.27504608 0.21874642 0.25557947
0.19835773 0.0075372444 -0.14469434 -0.11597141 -0.064771764 -0.0017618455 -0.085570425 0.015662339
0.017068082 0.115317024 0.13427567 0.025330769 -0.22011837 -0.13565192 -0.22598341 0.17388596
-0.021098906 0.111036785 -0.20068529 0.06298817 -0.045365058 -0.024311826 0.10818417 0.2115851
-0.17572354 0.17373373 -0.012555994 -0.026520815 -0.18756978 0.051796734 0.015867928 0.078058004
0.21460639 0.28102434 0.04792381 -0.15711246 -0.04068617 -0.09548294 0.06799645 0.013538075
0.0732234 -0.30533236 -0.31979182 -0.16768788 -0.04939788 0.083888315 -0.029266477 -0.00057439704
0.0806106 0.06510797 -0.054596327 -0.0942097 -0.2368559 -0.20987333 0.14354303 0.24166855
0.09394892 -0.005623217 0.1919873 -0.06079442 0.017961645 -0.07256785 0.15875223 0.20895676
0.22259706 -0.16448513 -0.12331651 -0.047163095 -0.107805744 -0.07600516 -0.18545194 -0.12314046
-0.12681377 -0.12942728 -0.20645186 0.024072457 0.21954641 0.14008294 -0.012636063 -0.21339701
0.1736051 -0.29851454 0.0694795 -0.06800098 0.04044398 0.34620827 0.056526344 -0.080904424
-0.049431697 0.13298191 -0.23078997 0.189251 -0.06281074 -0.04193486 0.20309709 0.112493716

decoder.layers.0.bias f4 [32]
00000000: 2241 023c d762 9dbd 2bbc 693e 3555 6a3d
00000010: 1eb1 eabd 7ef4 103e a826 e53d 09f6 793e
00000020: f10e 2a3e 71f1 173e 08b7 743c 5ef4 b23c
00000030: 42f0 b0bd d84e 24be 7455 ff3d ac0f 8b3e
00000040: 6aa0 29be d6e3 693e 41ed 8b3e e586 a63d
00000050: 80eb 243e f093 b13d c969 0a3d cb87 403e
00000060: 3a98 26be bae6 15be 791d 93bd 7db8 983e
00000070: f40b 163e a4b6 6ebd 8193 6b3e f8f6 b33e
0.007950099 -0.07684868 0.22825687 0.057210166 -0.11459564 0.14155766 0.11189014 0.24410261
0.16607262 0.14838196 0.014936216 0.021845039 -0.086395755 -0.16045702 0.12467471 0.27160394
-0.165651 0.22840819 0.27329448 0.08131198 0.16105461 0.08670795 0.03379229 0.18801801
-0.16269007 -0.14638796 -0.07183356 0.29828253 0.14652997 -0.05827965 0.23005487 0.3514936

decoder.layers.2.weight f4 [32, 32]
00000000: b279 55bc 48bf 5d3e 7c30 45bd d78d f63d
00000010: 4d95 463e 25aa a63d 3241 1e3e 1057 12bd
00000020: 4c30 403e 50c0 6dbe a67a 093e a9fc aabd
00000030: b389 d8bc 695b 2bbd 6d65 8abc a9fc cfbd
00000040: ccb3 953d b846 2e3d d8e7 7bbd 081f 393e
00000050: 56ae 52bc f964 9bbc d6db 9d3d 06ef 93bd
00000060: 9625 b0bd 6801 2a3e 99b2 003e dbeb 123e
00000070: 869a fe3d 37af 25be 92e8 0fbd 12b4 65bd
00000080: 1e84 813c 8145 38bd aedc b43c 2bfd 90bd
00000090: af5b 673d 22d8 d6bd adf3 06be d893 fa3d
000000a0: c751 f1bd 632c b43c 1772 83bc 4296 35bc
000000b0: 6da7 0f3e cec1 3a3e 89ad bbbd 1053 37bd
000000c0: 8c5a 16be cf49 27bd 70d8 7f3d dc45 1bbe
000000d0: 20e4 cabb 007c 943d d729 dd3c 1771 a83d
000000e0: e9c4 623e 5d48 5abd 4c4b 02bd b9c1 82bd
000000f0: 8e4e 033d c957 283e bdfb c43b df35 14bd
00000100: e756 9dbd 3c06 e13d bea3 62bd e6f2 d03a
00000110: 5ba7 26be a4d6 253e 3937 cf3d 8b3c 1b3e
00000120: 36d9 163e 5bfa 4ebd e78d 043e e630 983d
00000130: c380 eebd e8a4 083e c9f7 d53d bbcb 9d3d
00000140: 5256 d93c 936d 3f3e 66e7 17bd a6d1 17bd
00000150: ce5e 1abe eddf 42bd 7535 86bc dc99 473e
00000160: 2080 dabd 4a6d a43d 706f fe3d 3439 eb3d
00000170: eeeb 3a3e 92ae d1bd 3385 1bbd 60e4 f83d
00000180: 3ae3 653c a89c 323d 8b41 88bd dab4 063e
00000190: 50ff b23d f785 5cbd 0d40 ba3d a9b5 e5bd
000001a0: 8ed9 b63b ed2c 353e 51fb f23d a9fb 85bd
000001b0: a9fa c73d 74be a6bd a735 84bd 4994 7a3d
000001c0: d6eb e63c 5c83 4d3e 74d9 b6bd 935a 8dbd
000001d0: ba4b 64bd ba59 443d 2cf1 84bd cfae 113d
000001e0: 03be 313e 0c06 d3bd 4677 f13d 06a8 82bc
000001f0: 97c6 9c3c 18d0 453e 6c7f 443e 199f 0f3e
00000200: 85e1 5f3e 2057 873d 896e 08bd f88c 083d
00000210: e34e 0dbe 81a3 943b b8ad 363e 3adc b6bc
00000220: f51c 6a3c 258c 443e 6a86 8d3d 874e d53d
00000230: 0aff efbd 7593 d9bd 85a1 9e3e e5ce 7d3e
00000240: ec70 1ebd d9fb e13d ebc8 7f3e ccf3 abbd
00000250: 8da7 08bd c15d 213e 9816 6bbd 9f8b 373e
00000260: 547f f0bd 73ab 1cbe c523 373c c619 443e
00000270: 6d36 d33c 2769 b03d 4e82 673e 565a 813d
00000280: 3c4f ae3d 5722 f2bc 56dd 80bd 1b04 923d
00000290: 9511 813c 4cca 4a3c cb88 d03d 59cd b73d
000002a0: a31d e83b 53b0 fcbd e70e 8ebc 383a bcbd
000002b0: 6aba 2e3e 7bb7 fa3c 09a5 3f3d 01c9 c7bd
000002c0: 84e0 fd3d e623 9cbd a0c9 073d 76b5 ba3d
000002d0: 43da aebd 8ea3 293e 3968 333e e411 0ebb
000002e0: ff99 163e 0b89 db3c 1f35 d4bd 8d06 d7bd
000002f0: 6031 85bc c99c 42be fb35 283e e1ab 9c3d
00000300: 87c9 8ebc e450 233e e122 843d 59cb 153e
00000310: 097d 103e 3d40 7cbe a5cf 5f3d 727c f4bd
00000320: 5b08 05be 4ccc f9bd 70c3 0838 8c1a 303e
00000330: 2efc 903d 390d f73c 59fe 6b3d daf5 013e
00000340: e4c2 3d3e 1131 02bd cd32 f33d ff27 b83d
00000350: 90c3 b7bd 0040 85bd a087 363e 5f0b 45bb
00000360: ebd2 e53d 01d1 f53d 42fc f739 3c85 eb3d
00000370: 0e03 d9bd 0e04 443e 8cbb c73d 0948 563e
00000380: 0536 0d3e 31a6 df3d 9a5c 10be 242c bcbd
00000390: ffb6 23be 747b bd3d 4b7a 753d 4e76 0b3e
000003a0: c48a c8bd e722 143e d68e 243e b417 9dbd
000003b0: 0b78 833d f858 df3d 13dc 103e c937 183e
000003c0: 8d88 1ebe ccbb 14bd 2b66 4abd 9591 863c
000003d0: 6a05 90bd c2e8 123d 9655 eebc a13b 3e3e
000003e0: 55ef 26be 1772 6c3c 7e5b abbc c0cb 123e
000003f0: 68ef 033e 7998 793d 0a90 383d ea10 853c
-0.013029503 0.21655 -0.04814194 0.120387726 0.19392891 0.08137921 0.15454558 -0.03572756
0.18768424 -0.23217893 0.13425693 -0.08348972 -0.026432848 -0.041835222 -0.016894067 -0.10155613
0.07309684 0.04254791 -0.0615004 0.18078244 -0.012858948 -0.018969046 0.07707946 -0.072233245
-0.08600919 0.16602099 0.1256813 0.14347784 0.12431817 -0.1618012 -0.035133906 -0.05607993
0.015810069 -0.04498816 0.022077885 -0.07079538 0.05648392 -0.10490443 -0.13178892 0.1223523
-0.11783176 0.021993821 -0.016045613 -0.011083188 0.14028712 0.18237993 -0.091639586 -0.04475695
-0.14682978 -0.040841874 0.06246227 -0.15163368 -0.0061917454 0.072502136 0.02699749 0.08224695
0.22145428 -0.053291667 -0.03181009 -0.06384606 0.032057337 0.16439737 0.006011455 -0.036184188
-0.07682591 0.10987517 -0.055331938 0.001594153 -0.16274779 0.1619516 0.10117955 0.15159814
0.14731297 -0.050531726 0.12944756 0.07431202 -0.11645653 0.13344157 0.10447652 0.07704874
0.026530419 0.18694143 -0.037085913 -0.03706517 -0.15075228 -0.047576834 -0.016382912 0.19492286
-0.10668969 0.08028658 0.12423599 0.1148552 0.18254063 -0.10238375 -0.037968826 0.12152934
0.014031226 0.04360643 -0.06653126 0.13154927 0.08740103 -0.053838696 0.09094248 -0.112162896
0.0055801338 0.17692919 0.11864341 -0.06542141 0.097646065 -0.08141795 -0.06455546 0.061176572
0.028188627 0.20069641 -0.08928195 -0.06902041 -0.05573628 0.047937132 -0.064913124 0.0355671
0.1735764 -0.10303888 0.11790328 -0.01594926 0.019137664 0.19317663 0.19189233 0.14025535
0.21863373 0.06608415 -0.03330854 0.033337563 -0.13799624 0.0045360927 0.17839706 -0.02232181
0.01428913 0.19194086 0.06910403 0.104153685 -0.11718567 -0.10623828 0.30982605 0.24785955
-0.03868191 0.11034364 0.24978988 -0.0839611 -0.033362914 0.1575842 -0.057394594 0.17924355
-0.11743036 -0.15299778 0.011177962 0.19150457 0.025782788 0.08613806 0.22608301 0.06316058
0.085112065 -0.02955739 -0.062922165 0.07129689 0.015755454 0.012377333 0.10182341 0.08974714
0.007083611 -0.12338319 -0.01734109 -0.09190792 0.17063299 0.030605068 0.04678825 -0.09755135
0.123963386 -0.076240346 0.03315127 0.09116642 -0.08537724 0.16566297 0.17520227 -0.0021678144
0.14707182 0.026798746 -0.103616945 -0.10499296 -0.016258895 -0.19005121 0.16426842 0.07649971
-0.01743008 0.15948826 0.06451965 0.14628352 0.14110197 -0.2463388 0.054641385 -0.119377986
-0.12991469 -0.1219717 3.2606942e-05 0.17197627 0.070793495 0.030157672 0.05761561 0.12691441
0.18531376 -0.031785075 0.11874924 0.08992004 -0.089728475 -0.06506348 0.17825174 -0.0030066592
0.1122187 0.12002755 0.00047299458 0.11500022 -0.10596286 0.19142172 0.097525686 0.20925917
0.13790138 0.1092037 -0.14097825 -0.09188107 -0.15987776 0.092520624 0.05993108 0.13619348
-0.097920924 0.14466439 0.16070113 -0.07670537 0.06419381 0.10905641 0.14146452 0.1486503
-0.15481777 -0.03631191 -0.04941384 0.01642684 -0.07032283 0.035866506 -0.029093545 0.18577434
-0.16302235 0.014431498 -0.02091765 0.14335537 0.12884295 0.060936425 0.04505924 0.016243417

decoder.layers.2.bias f4 [32]
00000000: c01c 00be db4f 633d e043 d13d 28b8 56bd
00000010: e4bd 75ba a8ef 10be 443e 8ebd 4fe9 7ebd
00000020: 6405 d53d 82a4 4fbd 9b89 643d 1cc6 c1bd
00000030: 8bb5 d53d 56b7 b4bc 9728 8f3c f2cf 123e
00000040: 0477 053e d3db 2bbd 9d4b 463e fb21 863e
00000050: dc70 83bb 6b04 cf3d 1b8f 2f3e f832 2e3e
00000060: 15f7 1fbe 607b 5c3d 87c0 663e c33d 533e
00000070: c655 143e e960 69bd 6057 86bd 0b3d 97bc
-0.12510967 0.055496078 0.10218024 -0.05242172 -0.0009374304 -0.14153922 -0.0694547 -0.06223422
0.10401419 -0.050693996 0.055795293 -0.094616145 0.10435017 -0.022060078 0.01747541 0.14337137
0.13033682 -0.041957688 0.19364782 0.261978 -0.0040112566 0.101082645 0.17144434 0.1701163
-0.15621598 0.053828597 0.22534381 0.20629029 0.14485845 -0.056977186 -0.06559634 -0.018461725

decoder.layers.4.weight f4 [24, 32]
00000000: 78cc f13d 37cc f1bd b803 b63d f76b c3bd
00000010: 0314 833a 1261 e4bc 59be e9bd e920 893a
00000020: 6056 edbc d718 5dbd 2612 1ebd 3b35 c33c
00000030: 9aab 623d c67a 103d 495b 9a3d 0541 ab3d
00000040: b048 d6bd 1373 473d 48b0 6e3d 8e59 babd
00000050: 9a64 4a3c 4c05 0bbe e0b2 c53c 6e20 08bc
00000060: 0127 243d fbfd 9dbd 34f0 2c3d 977d 623c
00000070: 6dad bc3a 7fa1 0d3d 4549 803d 9e69 273d
00000080: 7f8b 88bd af37 9d3d c2a5 cc3d 73ab 84bd
00000090: 8690 983d e535 bc3d 0044 1e3d eb37 24be
000000a0: 1c56 11be 0b0a fc3c 7ee0 c53c c6a7 f3bd
000000b0: 745d 9b3d 483a ca3d e11d c63d 01a6 943d
000000c0: 88fb e13d 5c09 be3b f0cf 6c3c 5de9 07bd
000000d0: 99dd 153e e057 cabd adcb fd3d 9493 833d
000000e0: dc35 b7bd 606d c7bd 1399 523a b658 8dbd
000000f0: 7696 a9bb 46f3 18bd 12ca 8d3d aa1b 08be
00000100: 812d bd3c 5030 ab3d 20ee 58bd 8595 fabd
00000110: e3bd 65bd 648a 833d 6f76 9d3d 2e62 073d
00000120: 846e f23d b8e7 f0bd 1f07 213d d0bc 93bd
00000130: 4c0a 043e fccd 54bb 2645 80bc 1a72 e23d
00000140: 6b6a 3a3b 1c87 493e a137 e539 4ec1 fcbc
00000150: b457 dc3b 3c68 05be 9b40 1d3e 449f 82bb
00000160: 9799 0bbd 3ac4 023c 49a8 213d 88a6 92bc
00000170: 4d64 6a3d 3159 163b b6ca cbbd 85d7 13bd
00000180: f2b9 f83d 48e6 663d 9fe5 3b3d dbab 8a3c
00000190: cbb2 c9bd 2b6c 743d 9218 b4bd bc1c 7bbc
000001a0: 4117 86bc 81ac e03d 7aac ecbd ebfa 4abd
000001b0: dcc0 053e 1178 8a3d ce8c afbd 7631 14bd
000001c0: 1bba 5d3c 66c7 b4bd e206 8e3a 29b0 193d
000001d0: 7a6d 90bd b594 1abe a1dc 053e d4e9 2b3d
000001e0: f5f5 093e 435f 033e 7f9d 0c3e a096 ddbc
000001f0: 2b9d dabd 86e8 033c 7f95 c13d 5849 ca3d
00000200: adaa 003e ce96 913d 9e90 1fbd 95b2 2c3d
00000210: e41b ddbd 761c d0bc 14e3 4e3d 4fee 21bd
00000220: b029 b93d 5155 073d 8837 32bd fa0f 32bd
00000230: 6520 10be 1f65 2dbe b92b 603d b718 1e3d
00000240: feed c53d 51b5 323e 10e1 203d 9fea 80bd
00000250: 7fdd 10bd e1d5 2f3c e490 e13d f7f5 973d
00000260: 2ce5 d4bd 1c01 b43d 5b94 123d b619 bdbd
00000270: dc44 cebd 5856 2abb 543e f1bd b402 e53d
00000280: 1f63 0a3e 7db0 e0bd c39b 40bd 0289 5dbc
00000290: ada2 c5bd 692e 14be 5816 b8bd 4cde 60bd
000002a0: 2865 163e 155f 96bd e493 bf3d 5417 eebb
000002b0: 9854 933d 3e72 46bb 2923 af3d 15df d7bd
000002c0: f944 0d3e c3c7 3f3e 4f0b 95bd e8db 92bd
000002d0: 1fc8 8abd 62ef 69bd ecdf aabd 3e2e 2a3d
000002e0: 903f 303c 2ce0 1e3d c4af 203e 430b 1fbe
000002f0: 2582 00be 97b6 1ebc 4321 c93d 13fe 8c3d
00000300: 23bc 12bd ed8c e1bd 678f 15be e998 4d3d
00000310: 07d1 1dbe 4a64 213e d6d7 0fbd 3302 01bc
00000320: 69f3 cebd 2ece 893d cb11 12be 96d7 eebb
00000330: 0d51 c8bd 2459 9f3d d279 a6bb bcf8 fcbd
00000340: 45b4 9b3d 6e1d f2bd 00b3 3a3e 7b92 c5bc
00000350: b861 013e 11e8 f03d ce6a 81bb cc47 bb3b
00000360: 1d5f 6c3c c297 0ebc 5bc0 f5bc a293 1e3e
00000370: 0946 7d3d bcd2 a2ba 585b f4bd 80db ad3d
00000380: 8ea2 a13d adc9 e73d dc61 57be 416e 6fbd
00000390: e88c 69bd 8ddb 383d 3150 d6bc 5b80 003e
000003a0: ba16 da3c 2430 23bd 3ad2 81bd 22d0 ba3d
000003b0: c07b 563d e0d9 fd3d 26fb 4bbb bbac 2fbe
000003c0: 6407 92bd 67f5 c53d 6f4e fb3d 120a 163d
000003d0: 4c4e 34be 4686 af3d a26a 223d 1bdd 00be
000003e0: fa40 9cbd 3faf 1cbe 3686 ee3d d3b4 28be
000003f0: 9b22 fbbd ada9 29bc d49c cb3d 2af6 123e
0.118065774 -0.11806529 0.08887428 -0.09542077 0.0010000471 -0.027878318 -0.11413259 0.0010462078
-0.02897185 -0.053978767 -0.038591526 0.023829093 0.055339433 0.035273336 0.075369425 0.08362011
-0.10463083 0.048693728 0.058273584 -0.090991125 0.012353087 -0.1357624 0.024133146 -0.008308513
0.04007626 -0.077144586 0.042221263 0.013823888 0.0014394947 0.034577843 0.06263975 0.04087221
-0.06667232 0.076766364 0.09992553 -0.06478014 0.07449441 0.09189967 0.03863907 -0.16036956
-0.14193004 0.030766508 0.024154898 -0.118972346 0.07586184 0.098743975 0.09673668 0.07258225
0.11034304 0.0057994556 0.014453873 -0.033181537 0.14635314 -0.09880042 0.12392364 0.06424633
-0.0894582 -0.097376585 0.0008033674 -0.06901686 -0.005175407 -0.03734138 0.069233075 -0.13291803
0.023092987 0.08358824 -0.05296147 -0.1223555 -0.056089293 0.0642288 0.07688605 0.033052616
0.118374854 -0.11762947 0.03931343 -0.072137475 0.12894553 -0.003247141 -0.015657973 0.110569194
0.0028444778 0.19680446 0.0004371973 -0.030853894 0.006724322 -0.13028044 0.15356676 -0.003986271
-0.03408202 0.007981354 0.03946713 -0.017901674 0.05722456 0.0022941346 -0.099507734 -0.036094207
0.12144841 0.056371957 0.04587328 0.01692765 -0.09848555 0.05967347 -0.08793749 -0.015326675
-0.01636851 0.109704025 -0.11556335 -0.0495557 0.13061851 0.06761182 -0.08571778 -0.036179982
0.0135331405 -0.08827095 0.0010835791 0.037521515 -0.07052131 -0.1509579 0.13072444 0.041971043
0.13472731 0.12829308 0.13731955 -0.027049363 -0.10674509 0.008051043 0.09452342 0.098772705
0.12565108 0.07108842 -0.038956277 0.042162497 -0.10796335 -0.025404196 0.050509527 -0.03953391
0.090411544 0.03304035 -0.04350999 -0.043472268 -0.14074858 -0.16933106 0.054729197 0.03859779
0.09664534 0.17451979 0.039277136 -0.062947504 -0.035367485 0.010732145 0.11013964 0.07419961
-0.103952736 0.08789274 0.035786014 -0.092334196 -0.10071728 -0.0025991406 -0.11779466 0.11182156
0.13514374 -0.109711625 -0.047023546 -0.013521435 -0.096501686 -0.14470829 -0.08988637 -0.0548995
0.14687026 -0.07342354 0.0935438 -0.0072659645 0.07193869 -0.0030280496 0.08551628 -0.105405964
0.13795842 0.18728547 -0.072775476 -0.0717085 -0.06776451 -0.05711306 -0.08343491 0.041548006
0.010757342 0.038788006 0.1569205 -0.1553164 -0.12549646 -0.0096870875 0.09820797 0.06884398
-0.035823952 -0.110132076 -0.14605485 0.050194655 -0.15411769 0.15760913 -0.035117947 -0.0078740595
-0.101050206 0.06728779 -0.142646 -0.0072888834 -0.09781084 0.07780674 -0.00508044 -0.1235213
0.07602743 -0.118220195 0.18232346 -0.024117699 0.12634933 0.11763013 -0.0039494997 0.005715346
0.014426974 -0.008703174 -0.029998949 0.15486005 0.06183437 -0.0012422423 -0.11931485 0.08489132
0.07892333 0.113177635 -0.21033424 -0.058454756 -0.057019144 0.045131255 -0.026161285 0.12548964
0.026622165 -0.039840832 -0.06338926 0.091217294 0.05236411 0.12395072 -0.0031125038 -0.17155735
-0.07130316 0.096659474 0.122708194 0.036630698 -0.17607993 0.085705325 0.039652474 -0.12584345
-0.07629581 -0.15301226 0.116466925 -0.16475229 -0.1226246 -0.010355395 0.09942022 0.14351717

decoder.layers.4.bias f4 [24]
00000000: bd29 a03d d3c9 04be fb5d 06be 7022 23bd
00000010: 64a8 f4bd 15c0 09bc 8a0c e73d 27e6 f03d
00000020: eb4f 003d 6bba d0bd 6e75 afbc a586 fcbd
00000030: 3729 0abe 20cd b03d 0e45 ffbd 24fd 9abd
00000040: b2d2 ea3d d782 92bd 55d0 a33d e3ad 453d
00000050: 667f 1fbe 5f47 26bc 0e4a 833d cd76 0fbe
0.07820461 -0.12967615 -0.13121788 -0.039827764 -0.119461805 -0.008407612 0.112816885 0.11762648
0.031326216 -0.101918064 -0.0214183 -0.12330369 -0.13492285 0.086328745 -0.12464343 -0.07567814
0.11465968 -0.07153862 0.079987206 0.048261534 -0.15575942 -0.010148852 0.06410609 -0.14010163

prior_network.layers.0.weight f4 [32, 11]
00000000: 7350 d03b 23b3 23be d2b4 2dbd 5d9d 453d
00000010: 7720 6d3d 6ce0 103e e29c 263e 9edf 13be
00000020: cad8 4ebe 1ade 89bd dff3 50be 0b9d 463e
00000030: 192a 81bb aafb 34be ea07 7ebd 7110 683e
00000040: e168 60bd e711 103d c1b8 253e 916d 0bbc
00000050: 7a21 67b8 ab18 1bbd 6e90 80bc ac2c cbbd
00000060: 636d 0ebe 9f50 e63d 17d7 efbd 2f81 fd3d
00000070: c8c4 843d d26d 0a3d fa35 0bbe 48a9 643d
00000080: f9bb bc3c e9cc 523b 0adc 983d 9d97 9ebd
00000090: 3bc9 b4bb cc99 323b 5185 05be a16f 603d
000000a0: 6039 4f3e 126c d4bd 172d 843d b9ff fbbc
000000b0: aad9 a6bc e604 bd3d 60b7 2cbc b930 adbd
000000c0: e735 1abe 88e0 bfbd e4c6 16be 065c bdbd
000000d0: bd82 343d 7ebe 84bd 0819 dcbc ef35 3f3b
000000e0: 2967 2e3d c2f7 fdbd 2944 ff3d 1142 d5bd
000000f0: 639f 023e e9b6 0abd 0159 32be 63fa 593e
00000100: 646f 113e f14e 06bd 5707 a8bc 7c15 123e
00000110: 139d 5a3e 6b6b 203d 8513 58bd e456 68be
00000120: ffd6 c83d 1b46 37be 2ee2 36be e3e9 7b3c
00000130: a1cd d0bc 9e5f 523e 438a cdba 96af b03c
00000140: 58ee 273e 835f 29be 426f 333e f8a8 273e
00000150: e2a9 2fbe ebc6 61be 6b21 1d3d 4f51 8bbb
00000160: 1480 f13d ec2e a53a 2c72 6dbc a1bd ec3d
00000170: ea3e ed3d 8aab e7bd b15c be3c 25f6 9abd
00000180: cca5 f73c f3e3 a03c 5005 753d 8c3b 14be
00000190: b231 a13d 3708 87bd 6d40 a1bd f8ff 82bc
000001a0: b674 1ebd 8eee d13c 145a 30be fe7c 0d3d
000001b0: b3d2 103e f1ab c33d 50fc c4bd 986b b8bd
000001c0: 3842 473c 118e e9bd 184e b03d fa7c a7bd
000001d0: 1701 173d d421 04be 8fcc 0bbe edeb 1cbe
000001e0: 7cc5 443e dff1 43be 370d 80bd c8be 0a3e
000001f0: 8466 68bd 08df 4b3d 15c5 02be efe4 f83d
00000200: 6305 a83d 8848 803d 580d 20bd aa06 b43c
00000210: 8fbc 12be 0d48 d73d 121f a93d eb91 393e
00000220: d495 55bd feb8 59be 7510 1a3e d640 56bc
00000230: c685 41bd b334 c7bb d459 f1bd a593 d03d
00000240: 3b8e 2c3c 1679 243e 1152 20be 6fa1 78bd
00000250: f2d1 9fbc 94e1 a1bd 71bd c53c 0452 343e
00000260: 0861 58be 892f 5d3d c6da 2abd 8f72 f53d
00000270: 2f0a 51bd 8a6d 363e 13ec cfbd 3c06 0d3e
00000280: 7e4d 863d 4110 7abd 9fb5 efbd 1624 1d3e
00000290: f854 39be faf3 2cbe c259 b23d fef8 3a3c
000002a0: b4ac 9ebb 26c2 10be 1a02 67bd 4695 78bd
000002b0: e523 c33d a5ca 5fbc 28a5 25bd 2cb6 e63d
000002c0: 0a0e 10be 2fac 953b 8dce 343e b204 85bc
000002d0: 50e0 923d 83eb 5cbe 3740 3b3c 232c 263d
000002e0: d31d 9c3d 72ab 0d3e 0d7c 58bc 378a bdbd
000002f0: 7cf9 1dbe e4f6 0d3d 306f 1dbe 2415 cdbc
00000300: 5135 b83d fcdf 19bb ab3b 033c d3ea 02be
00000310: 2bef fb3c cac0 16be 2fb4 b0bd 8708 b33c
00000320: 26bd 17bd 9342 c33d 97bb d4bd db57 6c3e
00000330: 1d2f da3c 040f 8b3d 7c32 6d3e 2989 aa3b
00000340: 8637 76bd 2518 cf3c ab3b 143e f16c 15be
00000350: cd86 233e d29b 11be b7ee a7bd 1786 34be
00000360: b289 99bd 3dc9 103e 4f4e f83d 8f24 d2bd
00000370: fa5c 29be 134d 5ebd a348 3ebd ca16 df3d
00000380: 5160 413d 7384 573d f285 11bd 68e3 b63d
00000390: da04 653d 8f09 0cbe d419 40be 4780 93bd
000003a0: 5fbe 24bd 7b71 0f3e 4051 0abe 1fc0 453e
000003b0: b06b 27bd 7528 0a3d 2d58 2cbe 65e9 fbbc
000003c0: d791 0fbd d4d7 ac3a df96 523d 30a7 363d
000003d0: ec0d 5a3b 7b65 b43d 957d 973c 873f c13d
000003e0: 4da4 dcbb 1f23 3ebe 10b5 9a3d b9f5 87bd
000003f0: 0d47 a8bd 3e05 3aba 0467 4cbe 5ebe 17bd
0.0063572465 -0.15986304 -0.04240877 0.048245776 0.05789229 0.1414811 0.16270784 -0.14440772
-0.20199886 -0.06731816 -0.2040553 0.19395845 -0.003941786 -0.17674127 -0.062019266 0.22662522
-0.05478752 0.035173323 0.1618376 -0.008510009 -5.510587e-05 -0.037865322 -0.01569387 -0.0992063
-0.13908915 0.11245846 -0.11710947 0.123781554 0.064828455 0.03379614 -0.13594809 0.0558255
0.023038851 0.0032165593 0.07463844 -0.07743762 -0.0055171526 0.0027252315 -0.13039137 0.054793958
0.2023673 -0.10372175 0.06453913 -0.030761587 -0.020367462 0.0922945 -0.010541767 -0.08456559
-0.15059625 -0.09368998 -0.14724308 -0.09246068 0.044069994 -0.06481646 -0.026867405 0.0029176434
0.04257885 -0.12400772 0.124641724 -0.10412992 0.12756114 -0.033865843 -0.17416765 0.21286921
0.14202648 -0.03279013 -0.020511312 0.14266008 0.21348982 0.03916494 -0.05275299 -0.22689396
0.09806632 -0.17897837 -0.17859718 0.015375587 -0.025488677 0.20544288 -0.0015681464 0.0215681
0.16399515 -0.16540341 0.1752291 0.1637305 -0.17154649 -0.22048537 0.038361948 -0.004251636
0.11792007 0.0012602485 -0.014492553 0.11559606 0.115842655 -0.11312015 0.023237558 -0.075664796
0.030230425 0.019639945 0.05981952 -0.1447584 0.07870807 -0.06593364 -0.07873616 -0.015991196
-0.038685523 0.025626447 -0.17221862 0.03454303 0.14142875 0.095542796 -0.09618437 -0.09004897
0.012161784 -0.1140405 0.08608645 -0.08178134 0.036866274 -0.1290353 -0.13652252 -0.15324374
0.1921596 -0.19135235 -0.062525205 0.1354934 -0.05673839 0.049773246 -0.12770493 0.121530406
0.082041524 0.06263834 -0.039075226 0.021975834 -0.14329742 0.105117895 0.08257879 0.1812207
-0.05214484 -0.21261975 0.1504534 -0.0130769815 -0.047246717 -0.0060792803 -0.117847115 0.10184411
0.010531957 0.16061816 -0.15656306 -0.06070083 -0.01950929 -0.07904354 0.024138184 0.17609411
-0.21130764 0.05400041 -0.041712545 0.11984741 -0.051035102 0.17815223 -0.101524495 0.1377191
0.06557749 -0.061050657 -0.11704563 0.15345797 -0.1809882 -0.16889945 0.08708526 0.011411903
-0.004842365 -0.14136562 -0.05639849 -0.060689233 0.09528331 -0.013659154 -0.04044071 0.11265215
-0.14067855 0.004567645 0.17656918 -0.01623759 0.071716905 -0.21574216 0.011428884 0.040569436
0.07622876 0.13834932 -0.01321317 -0.09254878 -0.15427202 0.03465928 -0.15374446 -0.025034495
0.08994544 -0.0023479452 0.008009831 -0.12784891 0.030753693 -0.1472198 -0.08628117 0.021854652
-0.03704562 0.095341824 -0.103873424 0.23080389 0.026633793 0.067899734 0.2316379 0.005204339
-0.060111545 0.025280068 0.14475887 -0.14592339 0.15969391 -0.14219597 -0.08199828 -0.17629276
-0.074969664 0.14139266 0.12124311 -0.10260879 -0.16539374 -0.054272722 -0.04645599 0.108930185
0.047210995 0.052616548 -0.03552813 0.08930093 0.05591283 -0.13675521 -0.18759853 -0.07202201
-0.040220615 0.14008133 -0.13507557 0.1931157 -0.040874183 0.03372999 -0.16830511 -0.03075094
-0.035051193 0.001318688 0.051413413 0.044593036 0.0033272458 0.08808418 0.0184925 0.09435945
-0.0067334534 -0.18568085 0.07554066 -0.06638665 -0.08216677 -0.0007096118 -0.19961172 -0.037046783

prior_network.layers.0.bias f4 [32]
00000000: d59f e33d 4460 7fbd 1db1 37bc bbf6 bcba
00000010: 159d e23c 8d94 a63e b097 41bd 0b43 153e
00000020: f7f4 07be c4d5 0dbd 98f7 8cbc db40 cf3c
00000030: 586b 7f3e c54e 143d aa0e 90bd 227f 033e
00000040: faa2 663e 172f 4dbd 02b5 153e 549d e2bd
00000050: bddf bf3d 79b9 95bd f400 07be 0e18 6dbd
00000060: ee85 24be bd23 963e 63cf ab3c ca22 a23d
00000070: 8c94 e23d a413 8ebb eaca 193e 9ad9 733e
0.1111447 -0.062347665 -0.011211661 -0.0014416793 0.027662793 0.3253521 -0.0472638 0.14576356
-0.1327704 -0.03462769 -0.017207906 0.02529948 0.24943292 0.036207933 -0.07034047 0.12841466
0.22523108 -0.050093736 0.1461983 -0.11065164 0.093688466 -0.07310767 -0.13183957 -0.05788427
-0.16066715 0.2932414 0.020972913 0.07916792 0.11063489 -0.0043358374 0.15018812 0.23813477
