m4_ws/src/morphing_lander/learned_models/2024-05-15_17-17-39/model_40.pth (torch, 33518 bytes, 22 tensors)

cond_normalizer.mean f4 [11]
000000 f3 8d b5 bf 99 0a fa bc 84 cf f8 b9 aa 6f 45 3a
       -1.4183944 -0.030522631 -0.00047456857 0.0007531593
000010 98 45 d7 3c 62 14 83 ba de 3a dd bb 64 d1 07 3f
       0.026278302 -0.0010000581 -0.0067514023 0.5305388
000020 08 59 0a 3f 3e d2 07 3f fb 36 0a 3f
       0.540421 0.5305518 0.53990144

cond_normalizer.variance f4 [11]
000000 47 4c e9 3f 66 80 b3 3b dc ba a7 3a 1e 95 07 3b
       1.8226403 0.005477953 0.0012796777 0.0020688246
000010 0c 40 2d 3d da e9 38 3d fe a5 d3 3e b2 99 7c 3c
       0.042297408 0.045144893 0.4133758 0.015417503
000020 16 eb 92 3c 91 76 82 3c ee 67 90 3c
       0.017934363 0.015925677 0.017627683

output_normalizer.mean f4 [12]
000000 d0 39 85 bb 3b b1 37 bb 2f b6 6e 3c 28 01 23 b8
       -0.0040657297 -0.0028029222 0.014569803 -3.8863305e-05
000010 99 ce 60 3b 08 db 57 3a 8a 94 fa 3b 6b 37 12 3c
       0.003430283 0.00082342373 0.007647102 0.0089243455
000020 09 43 45 40 cb ac 3a 3c d8 ee 1b 3f 3b 4d d7 3a
       3.0822165 0.011393736 0.6091132 0.0016426215

output_normalizer.variance f4 [12]
000000 6e 0d f5 3d 72 6d 8e 3d d2 4a 28 3e 55 5b 24 3a
       0.11965452 0.06954469 0.16434792 0.0006269713
000010 bb 21 67 3c 91 dc 8a 3c 0a a0 9c 3e ea dc 0a 3f
       0.014107163 0.016950877 0.3059085 0.5424334
000020 64 7d 72 42 72 66 ef 41 14 33 e3 40 cd 54 18 3f
       60.62245 29.925022 7.099985 0.59504396

encoder.layers.0.weight f4 [32, 23]
000000 22 98 35 bc c5 b8 9f bc 5c 31 b8 3b 84 47 ad bc
       -0.011083635 -0.019497285 0.0056211185 -0.021152265
000010 33 a3 27 3e 92 f9 2b be 0a 8b 20 3e 3e 48 05 3e
       0.1637085 -0.16794422 0.15678039 0.1301584
000020 b5 69 36 bd 02 9b 80 be da fe 20 be 49 40 b7 3d
       -0.044534404 -0.25118262 -0.15722218 0.08947808
000030 68 ef f6 3c 29 21 78 3d 6d 71 3b bd 16 52 90 3d
       0.030143455 0.0605785 -0.045762468 0.07046907
000040 85 79 9c 3d 92 ad 76 3d ee 6b a4 bc 6c 40 09 be
       0.076403655 0.060224123 -0.020070996 -0.13403481
000050 49 1d a7 3d 7f c9 d2 3d bd c9 7f bd 04 5b 45 3b
       0.081598826 0.102923386 -0.062448252 0.0030114064
000060 0e 94 7e 3d 5b 8e bf bb 65 e1 14 be e9 fc 00 bd
       0.062152915 -0.0058458275 -0.14539106 -0.031491194
000070 5d 70 82 be 23 c3 15 3e 53 de ab bd 24 bf 68 3d
       -0.2547635 0.1462522 -0.08392014 0.05682291
000080 eb 9f 8b 3d 80 de 72 3e a2 bc 45 3d d5 b3 58 3c
       0.06817611 0.2371769 0.048275597 0.013226469
000090 55 89 b6 3c fe f9 4f 3d e5 a2 15 3e 8c 8a d5 bd
       0.022282282 0.05077552 0.1461292 -0.10426816
0000a0 fc c3 62 bd f0 e0 fd bb 85 0c f7 bc b7 a2 91 bd
       -0.055362687 -0.007747762 -0.030157337 -0.071111135
0000b0 82 13 f7 3d 73 dc 8f bb 58 0d 93 bd 82 88 17 3b
       0.12064268 -0.0043902933 -0.071802795 0.0023122136
0000c0 df c5 96 3d 5e b5 ce bc 06 6b 6b 3c 60 38 f6 3d
       0.0736196 -0.025232967 0.014368778 0.120224714
0000d0 9e 0c 94 bd 8d 12 81 3e 5d 01 82 3d ec 8f 89 be
       -0.07228969 0.25209466 0.06347916 -0.26867616
0000e0 66 cd 5b 3e ac 24 54 be e6 57 23 3d 63 04 f3 ba
       0.21465072 -0.20717114 0.03987875 -0.0018540736
0000f0 b5 09 05 be 0c 7b 89 be 2d 79 96 3c f3 fa 97 3d
       -0.12991984 -0.2685169 0.018368328 0.07420912
000100 9a e5 bc bc aa 76 cf 3d 79 1f dc 3c fc be fc bd
       -0.023058701 0.10130055 0.026870476 -0.12341115
000110 cf 45 13 bd 00 ab 72 3c e1 ee b3 bd 4f 1e 3a bc
       -0.035955247 0.014811277 -0.08785797 -0.011359765
000120 ba 3b b2 bd 06 28 89 be 59 31 3d 3d 6f 1a 55 be
       -0.08702798 -0.26788348 0.04618964 -0.20810865
000130 5c 33 36 be fd 74 c2 3b d5 b8 3b be a0 3d 43 be
       -0.1779303 0.0059343562 -0.18332227 -0.19066477
000140 90 21 1a 3d 23 8a 38 3d fa 31 39 bc 43 3a e2 bd
       0.037629664 0.045053612 -0.011303419 -0.11046269
000150 7a 4b d2 3d 3c c2 8e bb 1f 7c c7 bc f4 dc 8c bc
       0.10268302 -0.0043566506 -0.024351178 -0.017195202
000160 b8 9d f1 3c 15 67 0c bd e8 81 3a bd 29 9d c5 3d
       0.029494151 -0.034277994 -0.045534045 0.096491165
000170 33 6a 79 bc 57 49 30 3a bb 70 5b 3c 04 2d aa 3d
       -0.015223074 0.00067247957 0.013393576 0.08309367
000180 df af 92 be 1e 93 4f bc 3f 75 aa bd 0f 45 4a 3e
       -0.28649804 -0.012669353 -0.08323144 0.19752906
000190 e2 e7 5b 3d 30 34 39 b6 68 28 4b 3e bd 15 69 be
       0.053687938 -2.7597525e-06 0.19839633 -0.22762199
0001a0 76 88 2e 3c e3 ec 4a bd e9 73 e8 3c 62 c1 53 be
       0.010652652 -0.04954232 0.028375583 -0.20679238
0001b0 9b 36 d3 3d ac 57 22 bd 3c c8 d7 bb 68 7f ac 3d
       0.103131495 -0.03963439 -0.006585149 0.08422738
0001c0 23 12 9d bc 82 a3 b7 3d b5 f8 db bd 40 52 c2 3b
       -0.019173687 0.089667335 -0.107407965 0.005930215
0001d0 8c 3d f5 ba ab b3 04 bb fd d7 08 be 07 64 46 3e
       -0.0018710359 -0.0020248692 -0.13363643 0.19374095
0001e0 12 9f a3 3e 6e d9 ec bd a6 24 84 be 12 0a ee 3c
       0.319573 -0.11564909 -0.2580921 0.029057536
0001f0 27 61 de bc 02 2f 03 3e b8 05 44 be 7b dd 0e 3b
       -0.027145935 0.12810901 -0.19142807 0.0021799493
000200 49 35 6e 3d 5b 62 dc 3d fd e1 a9 3d 23 a3 0b 3d
       0.058156285 0.10760947 0.08295057 0.034091126
000210 ea 26 fb 3c 98 cd 76 b8 a9 13 ae bd f8 4f a7 bb
       0.030658204 -5.8842445e-05 -0.084998436 -0.0051059686
000220 0b 5a 76 3d 91 61 6f 3c 75 e6 1f 3c 36 80 e9 bb
       0.060144465 0.014610664 0.009759535 -0.0071258796
000230 17 d5 2d bc 4c c4 e3 3d 88 f6 9a 3c f0 fb a5 bb
       -0.010609887 0.11121425 0.018916383 -0.0050654337
000240 ed 89 02 3e e2 ce 3f 3e fa 6c 50 3d 27 63 74 3d
       0.12747927 0.18731263 0.05088518 0.05966487
000250 8d 2d 5e 3e c2 57 ef 3d a7 9d 55 3c 23 06 fe 3c
       0.21697064 0.1168666 0.0130380755 0.031008786
000260 62 7e 85 3e 11 96 82 3e 17 4e 9c 3d 85 e6 a6 bc
       0.26072985 0.25505117 0.07632082 -0.020373592
000270 65 6e 93 bb db 09 1e 3e 86 a9 16 be 72 c6 c7 bd
       -0.004499244 0.15433447 -0.14713106 -0.09754647
000280 0c 69 bb 3d 23 a2 69 3d 10 97 fc 3c 4a 3c 34 3d
       0.091508955 0.05703939 0.030833751 0.04400281
000290 bc 3f 0e be a8 67 e4 3d b6 cd 82 be cd bc 0c be
       -0.138915 0.11152583 -0.2554757 -0.13743897
0002a0 39 5b 45 3e fa d4 24 bd 47 97 84 bc e3 4a 30 be
       0.1927308 -0.040242173 -0.016185416 -0.17216067
0002b0 aa 37 2e bd 11 9a 6e bc 6b 8e 25 bd 0d 10 14 be
       -0.042533554 -0.0145630995 -0.040419023 -0.14459248
0002c0 6c 59 db 3c 15 3e 9c 3d 8c 61 b0 bc d3 1e c6 bc
       0.026776038 0.07629029 -0.021530889 -0.02418462
0002d0 ac 6a c6 3d c4 72 05 3d fd b3 c7 bd ba 6e 9b bd
       0.09688315 0.032580152 -0.09751127 -0.07589479
0002e0 ed 12 d1 3c d2 0d 8c 3d fb eb dc bc 7c 8e 25 be
       0.02552172 0.068385735 -0.026967993 -0.16167635
0002f0 be e2 5d be 12 51 93 3e 16 e0 d1 3d 2a 6c 48 3e
       -0.21668527 0.2877279 0.10247819 0.19572511
000300 7f 49 7c 3d 9f ac 7f 3e fe 7a fb 3b a4 3f 0a be
       0.06159353 0.24968193 0.007674574 -0.1350084
000310 7a 19 85 bc 14 bf ba 3d 48 c6 23 3e 46 ca 44 be
       -0.0162475 0.091184765 0.15993607 -0.19217786
000320 c1 ef 8c bd 6d 4e ae 3c 93 3f 89 bc 66 3b d6 bd
       -0.06881667 0.02127763 -0.016753947 -0.10460548
000330 60 b3 e5 bc 80 41 f6 3d fc 5f d2 3d 8d 5f 0e 3d
       -0.028039634 0.12024212 0.10272214 0.034759093
000340 20 84 1d 3e f6 e5 1b bd 95 93 85 3d 5a f9 a4 bd
       0.15382433 -0.038061105 0.0652229 -0.080553725
000350 43 a8 11 3e 9a 82 02 3e a6 d1 5a bd d9 ee 15 3d
       0.14224343 0.12745133 -0.053422593 0.036604736
000360 c1 8d b4 bc 14 ff 37 3e 63 4b 27 3d 3b cb a2 3b
       -0.02204025 0.17968398 0.04084338 0.0049680746
000370 13 f2 1e 3d a3 3e 13 3e 49 f4 87 bd 0f 13 b9 bb
       0.03880508 0.14379363 -0.066383906 -0.005648024
000380 ec 88 14 3d b7 2c 30 bd 1f e2 dc 3d 62 e3 82 bd
       0.03626339 -0.043011393 0.10785317 -0.06391026
000390 8d c1 50 3e 05 83 9e 3a 92 1f 66 bd 00 cb ce 3d
       0.20386334 0.001209349 -0.05618245 0.10097313
0003a0 c9 6d 75 bd fe 02 08 3e 17 47 3c be 8d 39 57 be
       -0.059919152 0.13282391 -0.18386494 -0.21018048
0003b0 5e 3f 45 bd 2e f7 04 3e 46 b7 60 3c 20 3e a1 bd
       -0.048156135 0.12984917 0.013715571 -0.078731775
0003c0 b5 5a 58 be 8e 7f d9 b8 c3 d1 8c bd 49 57 5e 3d
       -0.21128352 -0.00010371125 -0.068759464 0.05428246
0003d0 15 90 51 3d 2b ff 38 be 01 cd b5 3d 59 88 49 bd
       0.051162798 -0.18066089 0.08876992 -0.049202297
0003e0 5e 51 4c 3d 63 96 37 3e 45 b0 53 3c f7 32 20 3e
       0.049882285 0.17928462 0.012920444 0.15644442
0003f0 55 59 7a bd 65 44 30 bd 92 e7 23 bb 7b 23 1c 3c
       -0.06112035 -0.043033976 -0.0025009853 0.009529944

encoder.layers.0.bias f4 [32]
000000 f2 c7 56 bd df 86 2a 3a 72 8b 42 bd a2 aa 2d 3e
       -0.052436776 0.0006505083 -0.047496267 0.16959623
000010 42 ff 16 bd 73 ae 1b bd 16 1e c4 bc dd 14 5f 3c
       -0.036864527 -0.038008165 -0.023940127 0.013615814
000020 b5 f9 ec bd f6 ef 92 3e 21 21 2f be 3e 7f 7e 3e
       -0.11571065 0.286987 -0.17102481 0.24853227
000030 14 c4 2b bc 07 7c 7f 3d cb 2e c7 bc c1 02 33 bd
       -0.01048376 0.06237414 -0.024314305 -0.0437038
000040 23 c6 c1 3e 4f 37 8f bd e3 e6 81 bd 31 4d a2 bc
       0.3784648 -0.06992971 -0.06342866 -0.019812198
000050 95 45 2c be 43 15 35 bd 7e 79 8a bd 13 9d ea bd
       -0.16823418 -0.04420973 -0.06761454 -0.11455741
000060 5d 21 c2 3e 98 7c 28 3d 2f 8c 75 3e bf 28 ba 3e
       0.3791608 0.041134447 0.23979257 0.36359212
000070 ee ef 68 bd f0 4d 41 3d eb 0a 3b be 51 5b 0c bd
       -0.05686944 0.047193468 -0.18265884 -0.034266774

encoder.layers.2.weight f4 [32, 32]
000000 30 e1 c6 bd de a7 01 3e ad af 1f 3e f4 22 97 bd
       -0.0971092 0.12661693 0.15594359 -0.07379714
000010 b4 bc 17 3e 9d 1d e9 bd 12 3a b7 3b 85 99 83 bd
       0.14818078 -0.113826014 0.0055916393 -0.06425766
000020 cf f9 88 3c ba 4f 29 bd 65 e1 6b bd fc 5a c0 bc
       0.01672068 -0.0413358 -0.057588 -0.023480885
000030 e3 66 1f 3c 9d 9a ca bd a9 d0 0a bd f8 c5 67 3d
       0.00972912 -0.098927714 -0.0338904 0.056585282
000040 10 8d 24 3d 4d f4 1b bb 84 87 35 3e 8d b4 33 bc
       0.04017359 -0.0023796738 0.17727476 -0.01096834
000050 e2 11 d3 3d 72 5c d1 3c 0f c7 83 3d 19 2c d1 bd
       0.10306145 0.025556777 0.06434452 -0.10213489
000060 8c e3 36 3d cf 99 02 3e c6 52 d0 3d db 3c f8 3d
       0.0446506 0.12753986 0.10172038 0.12120982
000070 be 03 b9 bd 2c a1 e3 bb b7 dc a5 3d 93 9d bf 3d
       -0.09033917 -0.0069467034 0.08098739 0.09356227
000080 3b f3 4a be 75 7e a3 3b 57 6a f0 bd 93 9f 77 bc
       -0.19819348 0.00498944 -0.11739033 -0.015113729
000090 16 45 ca bd c7 30 cc bd e1 4f 37 be 11 44 a5 3c
       -0.09876458 -0.09970241 -0.17901565 0.020174058
0000a0 0a cf 00 be a5 fc 2a 3e 22 01 28 be e4 b1 1c 3d
       -0.12578979 0.16697939 -0.16406682 0.038255587
0000b0 e3 3d 5b be 92 f5 e6 3d 6d bd 86 be 7c 57 12 be
       -0.21410327 0.112773076 -0.26316395 -0.14291185
0000c0 8f a1 50 3e 62 c9 be bd e0 54 7e bd ac ca 36 be
       0.2037413 -0.093157545 -0.06209266 -0.1785075
0000d0 90 58 f3 bd 5b e6 d0 bc f7 90 75 be 85 8e 53 be
       -0.11882126 -0.025500467 -0.23981081 -0.20659836
0000e0 04 5b 08 3e ce 40 c9 bd 68 91 b7 3d d8 b2 42 3e
       0.1331597 -0.09826814 0.08963281 0.19013536
0000f0 d3 a0 8d be 30 14 3d 3d fa 70 1b be 27 cb 18 be
       -0.27661762 0.04616183 -0.15179816 -0.14921246
000100 e8 fb e2 bd 2e ad 41 3d f5 46 33 3d 76 3c 39 3e
       -0.110832036 0.047284298 0.04376884 0.1808947
000110 35 2d f8 bd ca a6 96 bd a4 af 21 be d3 86 c5 bd
       -0.121179976 -0.07356031 -0.15789658 -0.09644856
000120 b9 bd 05 be a7 69 05 3c 19 90 c0 bd 10 3c 70 3c
       -0.13060655 0.008142865 -0.094024844 0.0146627575
000130 08 43 2b be 91 e7 9f bd fc 00 04 3e 69 29 3c be
       -0.16724789 -0.0780784 0.12891 -0.18375172
000140 61 01 17 3d 16 31 3f be 48 8a ee 3d c5 b8 0f be
       0.03686655 -0.18671069 0.11647469 -0.14035328
000150 c7 c8 2d be 80 80 9f 3d 4b c5 8b 3d 89 6c eb bd
       -0.16971122 0.07788181 0.0682474 -0.11495311
000160 d9 1e 59 3e 74 ff f8 3c b0 94 f6 3d d9 2c 78 3e
       0.21203174 0.030395247 0.12040079 0.24235858
000170 36 e5 bf 3d d2 2b a9 3d d5 e8 2b bd ae ae bb bd
       0.093698904 0.08260311 -0.041970093 -0.09164177
000180 de 45 4f 3e 47 6e 1c 3e b6 5a 05 be 57 11 e5 3d
       0.20241496 0.15276442 -0.13022885 0.11184948
000190 0c ee 1d bd 0d d5 9f 3d cc 81 39 3e b7 fa 46 3e
       -0.038557097 0.07804308 0.1811592 0.19431578
0001a0 1d e0 9d bd 9f 22 f6 bd 51 94 5e bd 6e e2 84 bd
       -0.07708762 -0.12018322 -0.054340664 -0.064885005
0001b0 d9 04 f5 3d 90 ce 28 3e 94 68 80 3d 3b e8 8e 3c
       0.11963815 0.16485047 0.06269947 0.01744472
0001c0 31 e6 86 bd 74 8c 04 3e 49 24 5d 3d 49 d9 31 3e
       -0.06586874 0.12944204 0.053989682 0.17368044
0001d0 20 60 5f bd 01 7f 49 bd 1c 43 72 3d 53 7e b3 3d
       -0.05453503 -0.049193386 0.05914603 0.08764329
0001e0 c0 37 3b 3e 16 80 70 bb 64 1b 58 3d 89 1a 01 3e
       0.18282986 -0.003669744 0.052760497 0.12607779
0001f0 02 86 21 3e 83 6d 90 3d 8e 46 2f 3d b5 db 5a 3d
       0.15773776 0.07052138 0.042791896 0.053432185
000200 ed 30 50 be a5 f7 ab bd 2f a9 39 3d ad f3 80 3d
       -0.20331164 -0.08396844 0.04532736 0.062964775
000210 3c ff f8 bd 73 40 5a be 6a 44 21 be 6f 31 9d bd
       -0.12158057 -0.21313648 -0.15748754 -0.07675444
000220 7e 29 a3 bc fb 55 cd 3d 9e 35 22 bb b7 3d 62 3e
       -0.019917246 0.10026165 -0.0024751197 0.22093855
000230 20 3d 5d be 36 59 9c bd 5c 34 04 be c7 45 cd bd
       -0.21605349 -0.07634203 -0.12910599 -0.100230746
000240 d5 1e 9b 3d 5f e6 50 be ce 9f 27 bc 93 bd c8 bd
       0.0757424 -0.2040038 -0.0102309715 -0.098017834
000250 e8 24 e5 bd ad 60 a4 bd f5 41 1c be 33 78 42 be
       -0.1118868 -0.08026252 -0.15259536 -0.18991165
000260 88 3e 1d 3e 8b 68 6b bd d2 6d 08 3e d3 e7 5b 3e
       0.15355885 -0.057472747 0.13323143 0.21475153
000270 c1 16 59 be c7 02 ba bd 51 76 04 bd 81 e6 65 be
       -0.21200086 -0.09082561 -0.032339398 -0.22451212
000280 b2 61 8c 3d 78 07 74 3e 41 25 03 3e 4d 35 dc 3d
       0.068545714 0.23830974 0.1280718 0.10752354
000290 0e 4b 22 3e eb 03 0f 3e f0 a6 f7 3d 3a 20 1d 3e
       0.15848944 0.13966338 0.12092388 0.15344325
0002a0 68 7a aa bd 56 a2 18 bd 15 08 69 3e d0 3b 09 be
       -0.083241284 -0.03726419 0.2275699 -0.13401723
0002b0 1d 89 e8 3c e1 7a c2 bd af 44 e7 3d 89 a9 51 bc
       0.028385693 -0.094960935 0.11292397 -0.012796768
0002c0 86 9b 09 3e 6d ae 01 3e d5 f0 ac bd 48 ff c5 3d
       0.13438234 0.12664194 -0.084443726 0.09667832
0002d0 b7 3d 11 3e 99 ee 32 3e f5 5b a9 3d 3e 02 0c 3e
       0.14183699 0.1747383 0.082694925 0.1367273
0002e0 21 f1 24 3e 8b f9 11 3b 3d 77 ca 3d 87 f2 3f 3d
       0.16107608 0.0022273983 0.09886024 0.04686215
0002f0 72 50 4d 3c f9 b0 67 3d 1c 0e 04 bd 3e 49 42 3e
       0.012531387 0.05656526 -0.03224002 0.18973252
000300 7e 3c 46 3e fd 9e 1b 3e 55 f9 1a 3e 0b 82 d7 bd
       0.19359013 0.15197368 0.15134175 -0.105228506
000310 ec 6c 5f 3d 22 bd 80 3d 33 57 2a bd ca 42 45 3d
       0.054547235 0.06286074 -0.041587066 0.0481594
000320 ca 04 89 bd b3 52 f6 3c 5f 7c 31 3e f5 7c 0d be
       -0.066903666 0.030068731 0.173326 -0.13817199
000330 26 aa 66 3e 3d 57 37 3e 45 5e 1e 3e a6 ab 3c bd
       0.22525844 0.17904373 0.15465648 -0.046062134
000340 02 0c 8a bd 8a ee 54 3e ef 11 1e 3e f3 e0 fa 3d
       -0.067405716 0.2079412 0.15436529 0.12249937
000350 9f 00 6c 3d 78 9a 89 bd bf 4f 3a 3e b3 32 64 3c
       0.05761778 -0.06718916 0.18194483 0.013928103
000360 08 fb 92 3d 85 fa b2 bd 86 c6 b9 bb ef 3f c5 bc
       0.07176787 -0.08739189 -0.005669418 -0.024078337
000370 40 16 10 3e 29 83 e5 3d 2b 75 b0 3d 3c e1 0b 3e
       0.14070988 0.112066574 0.08616098 0.13660139
000380 e1 7f 0a 3e c1 7d e7 bd 98 42 da 3d eb 8f 5a 3d
       0.13525344 -0.113032825 0.10657233 0.053359907
000390 a3 cf d4 3d a6 a2 18 3e 0f f5 03 bc 9e ce 79 bd
       0.10391166 0.14905795 -0.008054032 -0.06098806
0003a0 91 42 02 3e e1 7f dc 3d ba 0d fa bc c1 b3 2f 3d
       0.12720706 0.107665785 -0.030524123 0.042896036
0003b0 d9 c4 ca 3d c9 a6 a0 bd 8b 60 82 bd 2d 77 8c 3d
       0.09900827 -0.07844312 -0.0636607 0.068586685
0003c0 93 13 ac 3d e9 5e 78 3c c5 bb d0 3d 0d 13 c8 3c
       0.08402171 0.015159347 0.10192064 0.024423147
0003d0 c5 5b e6 3d 2e 66 c5 3c e2 96 cd 3d 12 43 85 bd
       0.112479724 0.024096575 0.10038544 -0.06506933
0003e0 48 cd 65 3d bb f3 13 be d8 b5 3f bd 06 74 16 bd
       0.056103975 -0.14448445 -0.04680428 -0.036731742
0003f0 60 b6 82 3d ec 07 b0 bd 70 2e 77 3c 96 60 6a 3d
       0.063824415 -0.08595261 0.015086755 0.057221018

encoder.layers.2.bias f4 [32]
000000 80 1b 34 3c f1 03 9c 3e 26 44 8c 3e 97 83 92 bd
       0.010992885 0.30471757 0.27395743 -0.07154005
000010 76 cd 53 3e ff af 1e be d6 46 15 3d 10 91 59 bc
       0.20683846 -0.15496825 0.036444508 -0.0132792145
000020 64 f1 92 bd 32 e5 99 bd 78 07 f9 39 4d fa ba 3e
       -0.07174948 -0.07514419 0.00047498546 0.3651909
000030 f6 bc a6 bd cf 8c 80 bc e7 0c b5 bd 5a d1 57 bd
       -0.0814151 -0.015692143 -0.088403516 -0.052689888
000040 15 92 3a bd 28 ad 9b 3e 38 a4 f6 bc 60 a4 b3 bd
       -0.04554947 0.30405545 -0.030107602 -0.087715864
000050 6c e4 8e 3e 8e 7d b6 bd 32 eb 96 3d 43 59 1a be
       0.27908647 -0.089106664 0.07369079 -0.15073113
000060 63 b6 51 3c 27 e1 34 bd e5 c8 36 bd e4 14 9e bd
       0.012799832 -0.044160035 -0.04462518 -0.07718828
000070 c6 11 42 bd 19 a6 3a bd 55 00 b7 bd 84 31 1d bd
       -0.04738023 -0.04556856 -0.0893561 -0.0383773

encoder.layers.4.weight f4 [12, 32]
000000 5f 8e 87 3d 55 95 80 3e 84 df 1e 3e 18 26 6a be
       0.06618952 0.2511393 0.15514952 -0.22866094
000010 39 76 84 3e 1a 16 64 be de 95 bc bd a8 17 3a bd
       0.25871447 -0.22274056 -0.092082724 -0.045432717
000020 d4 71 68 3c 36 f3 5f be 01 93 46 be 43 f8 d6 3d
       0.014187295 -0.21870121 -0.19392015 0.10496571
000030 17 23 e0 bd 1f f6 29 3d 33 db b5 bd 16 f1 f2 bc
       -0.10944193 0.041494485 -0.088796996 -0.029655974
000040 fd 04 27 be ad 45 9f bd 40 17 0d bd 51 c8 2c be
       -0.16310497 -0.077769615 -0.034446 -0.1687329
000050 89 1d 71 3e 59 2c a2 bd b4 5c 04 3e a2 7a 5d be
       0.23546423 -0.07918615 0.12925988 -0.21628812
000060 7f 67 ba bd 82 c9 00 be 5a 6a 9f bd 27 34 2d bd
       -0.091017716 -0.12576869 -0.07783957 -0.042286064
000070 8a 69 e9 bd 93 9e a3 3d a5 3d 2e 3d e6 af 1e be
       -0.11397083 0.0798923 0.042539258 -0.15496787
000080 05 fe 37 3e bd 96 79 be 8c 00 86 be cc 12 21 bd
       0.17967995 -0.24373908 -0.26172292 -0.039324567
000090 c7 cd a4 bd 9c 53 6b 3e 92 2a a6 3d cc a5 85 3c
       -0.080470614 0.22981113 0.081135884 0.01631441
0000a0 3d cf 1e 3e 06 2d cb bd b4 41 d7 3c e5 10 87 be
       0.15508743 -0.09920697 0.026276447 -0.26380077
0000b0 7b e3 77 3e 4d 2e 24 3e 99 f0 fb 3c 6a c6 06 bd
       0.2420787 0.16033287 0.030754374 -0.032904066
0000c0 cf 02 80 3e 43 bf c9 bd 5a 23 39 3e c2 6e 71 3e
       0.25002143 -0.098509334 0.18079892 0.23577407
0000d0 10 2e 1f be 9d 32 21 3e 2c af 39 be 85 de 0c 3e
       -0.15544915 0.15741964 -0.18133229 0.1375676
0000e0 87 ae 9e 3c 79 3c e3 bd c7 2f 66 3e 3f 5e 40 bd
       0.01937033 -0.110955186 0.22479163 -0.04696488
0000f0 7f 44 49 3e 4e 19 c1 3d 17 1d a1 3d 77 68 18 bd
       0.19655035 0.094286546 0.078668766 -0.037209
000100 75 e8 af 3d 3c ac f9 3d ef b9 39 3e c8 74 e2 3c
       0.085892595 0.12191054 0.18137334 0.027643576
000110 e1 f0 73 3e 6b 3a 9b 3d 60 2b a2 3d a0 2f cd 3d
       0.23822357 0.07579502 0.079184294 0.100188494
000120 98 a3 fe 3b 8c 90 2b be de 45 09 be 9d f9 c7 bd
       0.0077709667 -0.16754359 -0.13405558 -0.09764407
000130 a0 c3 11 3e 3d fc 0f 3d 6f 67 ed bd 19 d6 a2 bc
       0.14234781 0.035152663 -0.11591994 -0.01987748
000140 90 03 df 3d 3e 39 8a 3e 41 6d e1 bc f5 04 25 3e
       0.10889351 0.26996797 -0.027517917 0.16115172
000150 74 f6 06 bb a9 47 ca 3c 88 da b8 3d 42 b4 2f 3d
       -0.0020593675 0.024692373 0.090260565 0.042896517
000160 01 e0 1d be 09 b3 5d bd 2e 57 89 bc 95 ff 8e bd
       -0.15417482 -0.05412582 -0.016765203 -0.06982342
000170 db 37 46 bc ad 9d 7b bd 65 a1 75 bd d4 9d dd bd
       -0.012098278 -0.06142967 -0.05996837 -0.10821119
000180 89 cb 07 be b9 75 92 be 40 f3 15 bd 1f d5 5c 3d
       -0.13261236 -0.2860544 -0.036608934 0.053914186
000190 af 1f 59 be be 49 63 3e 0c bc 0d 3e f7 68 98 3d
       -0.21203493 0.22196099 0.13841265 0.074418955
0001a0 f5 85 11 3e f3 a1 9f 3d 2c b0 61 bc dc 41 62 bd
       0.14211257 0.07794561 -0.013774913 -0.05523859
0001b0 99 24 7b 3e f2 78 05 3e 34 60 0d 3e f9 b6 61 3e
       0.2452568 0.13034418 0.1380623 0.22042455
0001c0 7d c6 e2 3d ad 88 f2 bd 57 1e b6 bd 50 0a 76 3e
       0.11073015 -0.11842475 -0.088925056 0.24027371
0001d0 f5 1c 9e be 40 fc 51 3e 00 54 d5 bd 6f 71 80 3e
       -0.30881467 0.20506382 -0.10416412 0.25086543
0001e0 65 b2 57 bc 01 2c d1 3b 1e 4e 40 3e 98 c1 7c bd
       -0.013165091 0.0063834195 0.187798 -0.061708063
0001f0 7f 4d 3b bd ed cf 45 bd 47 bb e5 3d 56 10 1a 3b
       -0.045728203 -0.048293997 0.11217361 0.0023508272
000200 89 97 b0 3d ca e5 0a be 5b 91 05 3d 50 65 12 3d
       0.08622653 -0.1356422 0.032609325 0.03574115
000210 43 8d 3e be 67 a5 22 3e d9 03 bc ba 91 f2 ba bd
       -0.18608575 0.15883408 -0.0014344408 -0.09128297
000220 70 e1 9e 3d 78 0e 40 3e 8d 2c 98 bd e6 e8 b1 3d
       0.077578425 0.1875552 -0.074303724 0.08687
000230 10 0b 26 3e 6b 8f fd bd b1 96 fd 3d ea 02 88 3e
       0.16215158 -0.123808704 0.12382258 0.26564723
000240 3b ea 34 3e bb a4 45 bd 5a 46 10 be 6a 82 c4 bc
       0.17667477 -0.048252802 -0.14089337 -0.023987968
000250 70 12 a4 bd 08 66 a0 3d 17 f5 d9 bd 8f 2c ab 3e
       -0.08011329 0.07831961 -0.1064245 0.33432433
000260 de e8 0b bd 36 06 b9 3b 27 6d 51 3e 2c 9a 43 bd
       -0.034157626 0.0056464924 0.20451795 -0.04775445
000270 4c 90 0b 3e 70 80 6f 3c 6d f9 91 3d 39 db c9 b9
       0.13629264 0.014618024 0.07127652 -0.0003850104
000280 f1 4a 08 3d 79 8a a5 be 8a dd 2f be ed d8 74 3e
       0.033274595 -0.3233221 -0.17174354 0.23910876
000290 8c 0b 6d be ec 79 fa 3d 79 f0 20 3e 06 7a 9d 3d
       -0.23148936 0.12230286 0.15716733 0.0768929
0002a0 df 7d 4d 3e 8b 75 eb 3d ba 20 51 3e dc be 9c be
       0.20067547 0.11497029 0.2042264 -0.30614364
0002b0 cd 6a 91 3d c1 7f 34 bd 79 7e bb 3d 50 e2 1c 3c
       0.07100449 -0.044067148 0.09154982 0.0095754415
0002c0 bd 67 c8 3d 2e a6 01 be 60 2a b6 3d 02 93 aa 3d
       0.097854115 -0.12661049 0.08894801 0.08328821
0002d0 45 5e fd bd 91 cd 18 bd e9 44 14 be 3e ac dd bc
       -0.12371496 -0.03730542 -0.14479412 -0.02705967
0002e0 54 cb 10 3d 29 cf 65 3e f2 b0 27 bd 66 fc 65 bc
       0.03535016 0.22442307 -0.040940233 -0.014037227
0002f0 d1 ad 3e 3d 51 2a c4 3d e3 ae ee bd 6a 54 b8 3d
       0.046552483 0.09578384 -0.11654451 0.09000476
000300 aa a5 bb bd 06 d6 f0 bd 37 e0 4a be 95 09 53 be
       -0.09162457 -0.11759572 -0.19812094 -0.20609124
000310 64 5e f5 bd 66 9e 21 3d 64 92 9f b9 5e 6d e8 bd
       -0.11980894 0.0394577 -0.00030435913 -0.11348985
000320 fe 56 99 bd cd f5 a1 3c e4 23 54 3c b1 58 75 bd
       -0.074872956 0.019770527 0.01294801 -0.059899036
000330 8a da 40 be 07 71 8b bc a8 61 ce bd 45 dd 1a be
       -0.18833366 -0.01702167 -0.1007722 -0.1512347
000340 79 7f 1d be 8d a4 ff bd 92 ec 53 bd 2d d7 a9 3c
       -0.15380658 -0.124825574 -0.051739283 0.020732487
000350 0e ee 12 be 5b bc b0 bd 48 91 88 bd 6a 69 52 bd
       -0.14348623 -0.08629676 -0.06668335 -0.051370062
000360 42 5a 2b be 5a a5 ca bd 1f 0e 22 be df 4e aa 3c
       -0.1673365 -0.098948196 -0.158257 0.020789562
000370 9e 6e cb bd 91 6b d6 3d eb 12 1f 3d 30 52 f7 3c
       -0.09933208 0.104697354 0.0388364 0.030190557
000380 11 04 28 bd fe 1d 34 bd eb d0 fd bd 30 fb 66 3d
       -0.041019503 -0.043973915 -0.123933636 0.056391895
000390 f4 85 07 bd b6 b0 15 bd b5 44 9e bd 63 97 e6 3b
       -0.033086732 -0.036545478 -0.077279486 0.0070370897
0003a0 34 a9 05 be d5 f7 69 3a aa 0f be bd 5f ed cb bd
       -0.13052827 0.00089251745 -0.092803314 -0.09957384
0003b0 e4 e9 62 3d 74 fe fc 3d c4 11 c4 bd 28 4d 39 3d
       0.055398837 0.123532206 -0.09573701 0.045239598
0003c0 6b 66 0a 3d 23 ec 38 be 7f cf 94 bd 16 55 0c be
       0.03378908 -0.18058829 -0.07266139 -0.13704333
0003d0 cb d3 fb bd 39 a7 20 bd 2e ea a3 bd 74 25 fa bc
       -0.12296256 -0.039221976 -0.080036506 -0.030535437
0003e0 97 b9 82 bc ab f5 09 be 5e 6f 81 bd 2c f1 87 3c
       -0.015957637 -0.13472621 -0.0632007 0.016594492
0003f0 49 a1 3a bd bd f9 af 3d 8f 3a 0f 3c d1 26 b5 bd
       -0.04556397 0.08592556 0.008741989 -0.08845294

encoder.layers.4.bias f4 [12]
000000 f4 cc 78 3e b8 cd 98 be 91 81 8e 3e ff 57 8a bd
       0.24296933 -0.2984445 0.27833226 -0.06755065
000010 78 6f 86 be a6 2d 4b be 29 1e 82 3d b7 53 19 be
       -0.2625692 -0.19841632 0.06353409 -0.14973341
000020 d8 27 a7 bd 77 62 bf 3d fa bf 9b 3d aa 9d 42 be
       -0.081618965 0.093449526 0.07604976 -0.19005457

decoder.layers.0.weight f4 [32, 17]
000000 6f 12 16 3e 7e 3d 90 bc 2a 9b 10 bd ae b7 b6 bd
       0.1465547 -0.017607447 -0.035304226 -0.08921753
000010 e0 7a 97 be f5 d8 bf ba 60 b9 b1 3e 20 b0 48 3e
       -0.29585934 -0.0014636802 0.34711742 0.19598436
000020 28 ca ec 3c 70 1c 03 be 16 c9 1a be e3 3c 85 3e
       0.02890499 -0.12803817 -0.1511577 0.26023015
000030 88 00 56 be be 13 54 3e 35 f3 31 3e ee 83 7b bd
       -0.2089864 0.20710656 0.17377932 -0.061405115
000040 b7 96 12 3e 60 f5 8a be 06 ff 7a 3e 30 7e 72 bd
       0.14315306 -0.2714033 0.24511346 -0.059202373
000050 02 56 dc 3b 1e 82 74 3e b8 f7 70 3d 31 06 16 be
       0.00672412 0.23877761 0.058829993 -0.146508
000060 50 e0 04 bb fa 8b 85 3e 13 15 68 3e a0 b7 c2 bd
       -0.0020275302 0.26083356 0.22664289 -0.0950768
000070 b8 a9 ab be 9a 2b 8b 3c 58 cb 3f 3e 24 d6 e3 3d
       -0.33527923 0.016988564 0.18729913 0.111248285
000080 4a c6 9a bd 97 35 5f 3e 86 29 0a be 14 e6 8b 3e
       -0.07557352 0.21797787 -0.13492402 0.27323973
000090 cb 35 25 3e 52 52 99 3e 0b 1a 2b 3e 8c db 82 3e
       0.16133802 0.29945618 0.16709153 0.25558126
0000a0 59 c2 a9 3b 62 8b 6d be 51 23 64 3e 24 c6 82 be
       0.0051806387 -0.23197702 0.22279097 -0.25541794
0000b0 79 73 a4 bc ab fd 62 3d 99 b2 e6 3d 92 47 2c be
       -0.020074593 0.055417698 0.112645335 -0.16824177
0000c0 fa 46 0e be 58 2b 33 3d ce 97 87 be 62 2a 62 bd
       -0.13894263 0.043742508 -0.26483005 -0.0552162
0000d0 94 a2 ad bc c9 23 67 3e c0 f5 bf 3d ef c8 ea bd
       -0.021195687 0.22572245 0.09373045 -0.11464106
0000e0 3b 83 e4 3d ec 5e b5 3e ec 33 71 3e 14 ed e6 bd
       0.11157843 0.35423982 0.23554963 -0.11275688
0000f0 60 f2 19 3e 32 ba a9 bd 4a 9a 28 bb ec 00 b1 bd
       0.15033865 -0.08287467 -0.002572673 -0.08642754
000100 f7 84 55 3d 3d b8 63 be 62 7d fc bd a4 33 e7 3d
       0.05212876 -0.2223825 -0.123286024 0.112891465
000110 44 d8 19 be a7 3c d4 3d 08 bf 9f 3d d5 28 38 3e
       -0.15023905 0.10363131 0.07800108 0.17984326
000120 f4 22 e1 3d 76 d9 99 3d f5 94 59 bc 28 14 bc bd
       0.10992995 0.075121805 -0.013280143 -0.09183532
000130 10 01 95 be 13 d9 ce 3d 16 b1 f2 3d f8 31 d1 3c
       -0.29102373 0.10099997 0.11850183 0.025536522
000140 89 6f e8 bd 61 d1 b6 bd 4d ae df 3d e4 bd 2a be
       -0.11349399 -0.089266546 0.10921917 -0.16674
000150 69 4d 25 be ee af 15 3d 97 de b2 be c4 f9 39 bd
       -0.16142811 0.036544733 -0.34935448 -0.04540421
000160 28 45 1d 3d a7 ce a1 be da ac e0 3d da a5 0e bd
       0.03839603 -0.31602976 0.10970469 -0.034826137
000170 cd a8 ac 3e 73 d2 0a 3d 0a 7e 0c 3e 28 76 89 3e
       0.33722535 0.033892106 0.13719955 0.2684796
000180 ad 63 c1 3e 1c bf 5e ba b1 8d 8c 3c 12 ef e1 3d
       0.3777136 -0.00084971054 0.017157407 0.11031927
000190 a0 35 5b be 4a 8a c3 3d 52 da 29 3e 7c bc 73 be
       -0.21407175 0.09547861 0.16587189 -0.2380237
0001a0 ed 70 79 be 0f 04 db 3d 3a 52 8d bd 42 91 35 be
       -0.24359484 0.106941335 -0.06900449 -0.17731193
0001b0 7e 41 94 3d 14 cb 2e be 18 eb a2 3d 18 fb 98 bc
       0.07239054 -0.17069656 0.07954997 -0.018674418
0001c0 e8 7c 1f bd 0f 6f b8 bd db e9 3c 3e aa 00 1b bd
       -0.03893748 -0.09005558 0.18448584 -0.03784243
0001d0 6e ca 2c 3e b0 f6 ad 3d 7f 6c 0d be bd 80 b3 3d
       0.16874096 0.084943175 -0.13810919 0.08764789
0001e0 c1 2d a1 be 32 9e 85 be 9e 0d 22 3e a6 28 5f be
       -0.3148022 -0.26097256 0.15825507 -0.2179285
0001f0 b4 67 ac 3d 01 2e f6 3d 95 cf 5c 3e a0 e6 a8 bd
       0.08418217 0.12020493 0.21563561 -0.08247113
000200 45 7c ee 3c 69 19 57 bd 8a 1e 8d 3d 5f 0d 7c bd
       0.02911199 -0.052514467 0.068905905 -0.06153619
000210 f5 59 4a 3c ba ca 2c 3e 1d e7 9b 3d d5 c5 33 be
       0.012350549 0.16874209 0.07612441 -0.17555936
000220 d7 ac 81 3e 93 83 09 3e 11 6c a5 3e 94 83 52 be
       0.2532718 0.13429098 0.3230901 -0.20558006
000230 33 a1 9a bd 18 86 92 be 9d 95 f4 3d fd 33 3e 3e
       -0.075502776 -0.2861793 0.11942599 0.1857452
000240 3a c6 36 3e 19 43 8d 3a 95 de 11 3d f0 fe f6 bb
       0.17849055 0.0010777443 0.03561266 -0.007537715
000250 76 7d 48 3e 99 e0 59 3d 7d ff ac bd 5b a3 72 be
       0.1957911 0.05319271 -0.08447168 -0.23695128
000260 12 78 b2 3c 0e b5 a6 3d 7e e4 9a bd 2d 3c 52 be
       0.02178577 0.08140002 -0.07563113 -0.20530768
000270 82 bf 91 3d 3d 13 93 be 9c d0 66 3e a6 84 99 3e
       0.07116605 -0.28725615 0.22540516 0.29984015
000280 8d 88 6d 3e 34 d4 e6 3c 2c 6a 03 be 93 58 97 bd
       0.23196621 0.028177358 -0.1283347 -0.07389941
000290 89 37 8f bd 5f 37 35 3b 5b 0c e8 bd d5 19 5a 3b
       -0.06993014 0.0027651412 -0.113304816 0.0033279557
0002a0 38 4f 8b 3b cb ce b4 3d 1b 0b 10 3e 28 fd 1e 3d
       0.004251387 0.08828505 0.14066736 0.038815647
0002b0 a5 2c 55 be 6f fd f5 bd 32 5b 85 be 28 0c 51 3e
       -0.20817812 -0.12011229 -0.2604614 0.20414793
0002c0 b7 48 ef bc 33 e8 0b 3e 26 dd 26 be 6d 73 58 3d
       -0.029209478 0.13662796 -0.16295299 0.052844454
0002d0 8c ce 06 bd bc cc 70 bc 0e ef 28 3e 81 ce 2f 3e
       -0.032911822 -0.01469725 0.16497442 0.17168619
0002e0 8a 49 3e be 97 88 1f 3e ed c4 36 bd 73 e0 67 bd
       -0.1858274 0.15579449 -0.044621397 -0.056610536
0002f0 71 b5 08 be 94 46 bc 3d ba ad 80 3d f2 d3 ba 3d
       -0.13350464 0.09193149 0.06283136 0.091224566
000300 b7 9c 57 3e 9e ff af 3e 79 4e 45 3d 9e ad f5 bd
       0.21055876 0.34374708 0.04817054 -0.119960055
000310 6a 9b 6b bd 62 11 18 bd 32 7d ff 3d 5b 30 9d 3d
       -0.05752126 -0.037125953 0.12475051 0.07675239
000320 23 2a 79 3d 74 77 a3 be 94 67 aa be 01 d9 39 be
       0.0608312 -0.31927073 -0.3328215 -0.18149187
000330 04 4d b7 bd 38 96 c6 3d 9a b5 00 3d a5 33 8a 3d
       -0.089502364 0.09696621 0.03142319 0.06748132
000340 04 48 a2 3d e3 00 a4 3d 53 89 ab bd 2c 5b 60 bd
       0.07923892 0.08007982 -0.08375802 -0.05477445
000350 de 09 90 be 1b c5 81 be c9 6e 20 3e 63 8d b3 3e
       -0.28132528 -0.25345692 0.15667261 0.35068807
000360 f9 58 20 3d f1 cc 1c bd d9 f1 26 3e 75 ad ab bd
       0.03914735 -0.038281385 0.16303195 -0.08382694
000370 52 69 bd bc 6b 8c 08 be d0 7c 5a 3e 45 22 63 3e
       -0.02312151 -0.13334815 0.21336675 0.22181042
000380 63 26 94 3e cb 93 6f bd 85 22 89 bd 92 9e 6c bd
       0.28935537 -0.058490556 -0.06696037 -0.057768412
000390 55 ca 9e bd a0 d5 89 bd 60 b7 52 be 81 7f 0e be
       -0.077534355 -0.06730199 -0.20577765 -0.13915826
0003a0 0f 89 14 be f8 29 f7 bd ff 29 50 be 7c 60 c0 3c
       -0.14505409 -0.12068552 -0.2032852 0.023483507
0003b0 4e 25 58 3e f5 be 02 3e c6 17 42 bc ef 14 80 be
       0.2110798 0.12768157 -0.011846488 -0.2501597
0003c0 cc 25 48 3e 46 64 a9 be ec 18 72 3d 74 3c cf bd
       0.19545668 -0.33084315 0.0591058 -0.101189524
0003d0 5e fd 81 3d b7 5a d0 3e e7 f7 8a 3d 5b cc a4 bd
       0.06347154 0.4069421 0.06785565 -0.0804679
0003e0 0a b5 a1 bc ce 42 1b 3e e8 68 60 be 6c 6d 35 3e
       -0.019739646 0.15162203 -0.21915019 0.17717522
0003f0 1e 31 6e bd d8 47 de bc 65 88 3e 3e ac 8d e8 3d
       -0.05815231 -0.027133867 0.18606718 0.11355147

decoder.layers.0.bias f4 [32]
000000 df 59 b8 3d 6b 90 3f bd 15 06 14 3e 03 84 ef 3d
       0.090015166 -0.046768587 0.14455445 0.11695101
000010 af 32 05 be 33 b3 69 3e 1e 1d 51 3e a7 80 aa 3e
       -0.13007616 0.22822265 0.20421264 0.3330128
000020 11 a5 7e 3e aa 47 69 3e 2e f5 a6 3d fb 0e ee 3c
       0.24867655 0.22781244 0.08152233 0.029059878
000030 e4 1a c9 bd 03 e6 0c be c5 8d 55 3e b2 e9 b3 3e
       -0.09819582 -0.13759618 0.20854862 0.35139233
000040 d7 01 d6 bd eb b1 be 3e 94 37 c0 3e 8c 7e 15 3e
       -0.1044957 0.37245116 0.37542403 0.14599055
000050 2f fa ba 3d 0d 14 25 3e 3f 01 05 3e 1f 7e 94 3e
       0.0912975 0.1612093 0.12988757 0.29002473
000060 05 07 38 be 61 39 58 be 02 69 88 bd 4d f1 c4 3e
       -0.17971428 -0.21115638 -0.06660654 0.38465348
000070 b2 37 60 3e 3d 6b d6 3b 6c d1 98 3e 0c fc ff 3e
       0.21896246 0.0065435455 0.29847276 0.49996984

decoder.layers.2.weight f4 [32, 32]
000000 cb f3 c5 bc f6 bc 95 3e 40 1e c7 bb 13 70 0e 3e
       -0.024164101 0.29245728 -0.006076604 0.1390994
000010 37 db 76 3e 21 da e5 3d f4 b9 09 3e 3a a1 0e bd
       0.24107061 0.112232454 0.13449842 -0.034821726
000020 d3 84 3b 3e 38 77 5e be 9d 46 1d 3e 8b 88 01 be
       0.18312387 -0.21725166 0.15358968 -0.12649743
000030 2e fd 57 3d d4 50 1d bd d9 23 16 bc 6c 61 d2 bd
       0.052731685 -0.03840716 -0.00916382 -0.10272488
000040 d2 a2 c8 3d 5c d3 cb 3d 54 da f0 bc 11 c3 66 3e
       0.097966805 0.09952423 -0.029400982 0.2253535
000050 76 f1 0a 3b b6 b8 e7 3b 4c e8 1c 3e 20 08 bc bd
       0.002120105 0.00707158 0.15322989 -0.09181237
000060 f3 fa 21 bc b9 2d 73 3e ff 48 2e 3e 4e 5a 1e 3e
       -0.009886491 0.2374791 0.17020033 0.15464136
000070 41 67 0d 3e 4a 13 2c be 19 27 a1 bc 1d dc 19 bd
       0.1380892 -0.16804233 -0.019671964 -0.037563432
000080 94 04 c4 3c f4 d7 34 3d 0a ee 29 3d c3 e8 97 3a
       0.023927964 0.04415126 0.041486777 0.0011589754
000090 29 6d ff 3d 02 e5 b9 bd 6e 96 33 be 46 64 07 3e
       0.124719925 -0.09076883 -0.17537853 0.13221845
0000a0 e2 18 1b be 75 64 14 3d a6 44 79 3c 58 b9 ff bc
       -0.15146211 0.036228616 0.015214121 -0.031216308
0000b0 33 49 49 3e 5a f8 63 3e 5b a7 9a bd f0 49 3e bd
       0.1965683 0.22262707 -0.07551452 -0.04645723
0000c0 63 0d fd bd 1e 0c 50 bb fd 69 49 3d c1 ff 01 be
       -0.12356069 -0.0031745504 0.049173344 -0.12695219
0000d0 13 62 83 bc 5b 67 9a 3d 21 dd 46 3d da d3 b8 3d
       -0.016037976 0.07539245 0.04855073 0.090247825
0000e0 3f d1 8d 3e 92 5d 4f 3c f7 0b cd 3c ba 27 df bc
       0.27698705 0.012656586 0.02503012 -0.027240623
0000f0 4a 91 8f bc 55 84 58 3e b7 63 9f 3c 4f ed 10 3c
       -0.017525334 0.2114423 0.019456727 0.008845641
000100 b7 f4 7b bd f5 06 b7 3d 40 af 51 bd 38 e6 bc 3b
       -0.061512675 0.08936874 -0.051192522 0.005764749
000110 27 01 22 be aa 6e 2a 3e 4b 3b c7 3d 29 c6 24 3e
       -0.15820752 0.16643777 0.09728106 0.16091217
000120 0e 24 1a 3e 3b c0 1f bd d5 18 00 3e 7e 3d 8f 3d
       0.15052816 -0.039001685 0.12509473 0.069941506
000130 1d 8c cc bd 66 7f 0a 3e db c8 05 3e d2 d4 c4 3d
       -0.09987662 0.13525161 0.13064902 0.09610905
000140 64 11 dd 3c bd 0f 5f 3e af 13 f1 bb a7 16 ea bc
       0.026985832 0.21783347 -0.007357083 -0.028575255
000150 72 17 1c be 6f 6c de bc 34 de 45 3c 5c 8d 57 3e
       -0.15243319 -0.027151315 0.012076903 0.21050018
000160 06 16 f1 bd 02 38 59 3d 5a 4a c1 3d 5d db 0b 3e
       -0.11771779 0.05303193 0.094380096 0.13657899
000170 ab 23 40 3e a8 4f c5 bd 97 12 8d 3b 06 23 c8 3d
       0.18763606 -0.09634334 0.0043051946 0.09772305
000180 ef a4 19 3b ca a5 cc 3d 66 cd 75 bd a4 61 30 3e
       0.0023444255 0.09992559 -0.060010336 0.17224747
000190 28 b4 74 3d d8 dc 6a bd 2f d2 6b 3d 2e d3 e3 bd
       0.059742123 -0.05733952 0.057573494 -0.11124264
0001a0 03 4a fc 3b ae 97 4a 3e d5 57 d7 3d ba bc bd bd
       0.0076992526 0.19784424 0.105147995 -0.09264512
0001b0 97 04 20 3e f8 46 b3 bc 5e b1 74 bd c2 4b 86 3d
       0.15626751 -0.021884426 -0.059739463 0.065574184
0001c0 35 74 f9 3c 47 bd 8d 3e db 10 9a bd d3 9c 81 bd
       0.03045092 0.2768347 -0.07522746 -0.0632874
0001d0 b3 55 81 bd f9 b9 cc 3d 7d f8 86 bc f5 06 11 3c
       -0.06315174 0.09996409 -0.01647591 0.008851756
0001e0 09 a9 55 3e 99 f1 ec bd 9d 66 22 3e c4 72 1a 3b
       0.20865263 -0.115695186 0.15859456 0.002356694
0001f0 86 05 ac 3b fa 53 50 3e 33 64 52 3e 39 a9 37 3e
       0.005249682 0.20344535 0.20546035 0.17935647
000200 41 20 76 3e d6 f1 83 3c d1 16 21 bd 06 3e f1 3c
       0.24035741 0.016106527 -0.0393284 0.02944852
000210 d7 96 41 be 14 ec 59 3d df 71 5e 3e e6 3f a4 3c
       -0.18905197 0.053203657 0.21723126 0.02005
000220 24 66 6a 3d c4 79 6a 3e fd bf cb 3d dd 70 e4 3d
       0.057226315 0.22898012 0.09948728 0.111543395
000230 f4 41 e3 bd b5 7f a1 bd 46 1c b2 3e e8 ac 94 3e
       -0.11096564 -0.07885686 0.34787196 0.29038167
000240 85 07 fb bc 60 35 1f 3e ac 4e 8b 3e 5c eb 55 bd
       -0.030643234 0.15547705 0.2720846 -0.05222641
000250 5e 69 1f bd c8 0f 51 3e dc e2 7e 3c 98 4c 60 3e
       -0.038918845 0.20416176 0.015557017 0.21904218
000260 97 2c c7 bd 56 e4 2f be 8c b0 cc 3b 0b 86 67 3e
       -0.09725302 -0.17176947 0.006246632 0.22609727
000270 1c 10 83 3d ca d3 8f 3d 3a ed 63 3e d6 0c 32 3e
       0.06399557 0.070228174 0.22258464 0.17387709
000280 5c 00 93 3d d2 2e c1 3d d4 c1 02 bd 30 6d 52 3d
       0.07177803 0.094327584 -0.03192313 0.05137366
000290 9f f6 7b 3d a9 a4 c1 3b c3 43 b7 3d ca fa a4 3d
       0.061514493 0.0059095216 0.089484714 0.08055647
0002a0 92 23 0f bb f6 a2 05 be 6a 6b db bb 5e 66 52 bd
       -0.002184127 -0.13050446 -0.0066961544 -0.051367156
0002b0 0c 04 6a 3e f8 96 05 3d 27 ca 55 3d 16 53 b6 bd
       0.22853106 0.03261468 0.05219474 -0.08902566
0002c0 08 ab e2 3d 3a 60 67 bc 42 7f a1 3d 34 56 ed 3d
       0.11067778 -0.014122063 0.078856006 0.115887076
0002d0 e1 e9 93 bd 01 61 36 3e 7f 71 65 3e c7 43 d1 bb
       -0.07222343 0.17810442 0.22406577 -0.0063862535
0002e0 d4 f5 2b 3e 5c 0d 65 3d 73 57 31 bd 4a 7a b2 bd
       0.16792995 0.055920944 -0.04329629 -0.08714731
0002f0 8a 00 4b bc 4c 4c 37 be 28 76 45 3e ce 19 5e 3d
       -0.012390265 -0.17900199 0.19283354 0.054223828
000300 4b 6b a1 ba 07 14 5e 3e 7c f8 ca 3d f1 44 42 3e
       -0.0012315301 0.21687327 0.09910676 0.18971612
000310 ae 63 4b 3e df e3 5d be ff 25 57 3d e0 3d ac bd
       0.19862244 -0.21668957 0.05252647 -0.08410239
000320 db 99 2b be e8 ec d2 bd d1 9a 44 3d 83 47 38 3e
       -0.1675791 -0.102990925 0.047999207 0.1799603
000330 eb 1d 0d 3e c1 db c0 3d 90 c7 d0 3c 2b 85 e0 3d
       0.13780944 0.09416915 0.025485784 0.109629
000340 57 f9 42 3e 0a 3e 17 ba de 07 a7 3d 6c cf 04 3e
       0.19040428 -0.00057694374 0.081557974 0.1296975
000350 44 56 ba bd e8 e0 35 bd 3f c2 66 3e 78 65 a8 bc
       -0.09098485 -0.04440394 0.22535037 -0.020556197
000360 a5 c4 11 3e 81 17 25 3e 1e 66 c2 3d 15 2f a7 3d
       0.1423517 0.16122247 0.094921336 0.08163277
000370 07 01 ed bd 23 30 55 3e bd 42 ae 3d fd f3 6e 3e
       -0.115724616 0.20819144 0.08508823 0.23335262
000380 b1 77 39 3e ab 75 4e 3d 60 04 10 be 59 22 5e bd
       0.18112065 0.050405186 -0.14064169 -0.054231975
000390 c0 02 65 be cd 8e 11 3e 91 a6 dc 3d 2c 80 3d 3e
       -0.2236433 0.1421463 0.107739575 0.18505925
0003a0 1b 92 28 bd 3b 75 3f 3e ad 90 3e 3e 7c fe 00 3d
       -0.041154962 0.18697064 0.18609877 0.031492695
0003b0 6e e0 c5 3c 5d 11 a8 3d d1 d1 44 3e f9 7d 52 3e
       0.024154868 0.08206437 0.19220664 0.20555867
0003c0 be 57 03 be fd 04 19 bc 10 70 a5 3b 11 48 77 3c
       -0.1282644 -0.009339568 0.0050487593 0.015092866
0003d0 70 48 10 bd a1 7d 6c 3d ef 24 0c bd 05 a1 74 3e
       -0.03522533 0.057736997 -0.03421491 0.23889549
0003e0 69 0e 3e be 47 5c 4e bd 0b ea 32 bd d7 6a 30 3e
       -0.18560185 -0.05038097 -0.043680232 0.17228256
0003f0 fe 93 15 3e 56 be 8d 3d c9 fe d2 3d 3d 40 ca 3d
       0.14607236 0.06921069 0.10302503 0.09875534

decoder.layers.2.bias f4 [32]
000000 27 eb f7 bd 82 ed b0 3d 34 52 19 3e 2c 23 3a 3b
       -0.121053986 0.08639051 0.14972764 0.0028402312
000010 80 c1 4f 3d 40 a8 ea bd 13 9e b7 bd 99 93 0b bb
       0.050721645 -0.114578724 -0.08965697 -0.0021297692
000020 53 d0 09 3e 59 45 8b bd 9b a7 90 3d a0 c0 63 bd
       0.13458376 -0.068003364 0.07063218 -0.055603623
000030 f6 34 1f 3e f9 4e f3 3b 4a 08 b5 3d 4e ad 65 3e
       0.15547547 0.0074251858 0.08839472 0.22429392
000040 76 a5 41 3e e1 88 54 bd 53 5b 84 3e d6 23 ae 3e
       0.18910775 -0.05188835 0.25850925 0.34011716
000050 b4 9b 32 bc 41 37 1c 3e f4 ac 64 3e b3 0a 63 3e
       -0.01090138 0.15255453 0.22331601 0.2217205
000060 55 87 1b be 32 1a bf 3d 86 d9 8f 3e d6 f9 64 3e
       -0.15188344 0.09331168 0.28095645 0.2236093
000070 ae 0b f8 3d 48 96 c2 bc 2c 7f d5 bc 0b f1 0b bd
       0.12111603 -0.0237533 -0.026061617 -0.034165423

decoder.layers.4.weight f4 [24, 32]
000000 1d f5 f1 3d fd 60 c7 bd c3 71 ad 3d 47 c6 9c bd
       0.1181433 -0.09735296 0.08468964 -0.07655006
000010 cc 83 b4 3b 00 ac 0e bc 4d d8 b2 bd f4 b4 5e bb
       0.0055088755 -0.008708 -0.08732662 -0.0033982368
000020 b6 1d f4 bc ab 87 22 bd e4 c8 ff bc 5a 2d cf 3c
       -0.029799324 -0.039680164 -0.031223722 0.02529018
000030 e2 fb 55 3d 92 2c d4 3c 90 5e 6b 3d 70 dd 9e 3d
       0.052242167 0.025900159 0.05746323 0.077570796
000040 42 45 d3 bd 20 08 28 3d 3d 44 3d 3d 91 ae c4 bd
       -0.10315944 0.041023374 0.046207655 -0.096036084
000050 e6 ed c3 3c a9 c2 03 be 73 80 ce 3c 54 40 df bc
       0.02391715 -0.12867226 0.025207734 -0.027252354
000060 76 14 c7 3c f5 12 7a bd 8c 77 3f 3d 93 54 9b 3c
       0.024301749 -0.061053235 0.04674487 0.018961227
000070 5a be 29 3c 0c df d1 3b cb 2a 8f 3d 09 0a 30 3d
       0.010360325 0.006404763 0.06990584 0.04297832
000080 21 65 71 bd e6 5a 96 3d d2 b8 d3 3d c0 25 8b bd
       -0.058934335 0.07341556 0.10337986 -0.067943096
000090 fc 64 86 3d f2 c3 86 3d 14 c0 d2 3c 21 0d 28 be
       0.0656223 0.06580342 0.025726356 -0.16411258
0000a0 03 11 0f be 46 f6 c8 3c 91 c2 77 3c f1 02 e5 bd
       -0.13971333 0.024531495 0.015122072 -0.11182202
0000b0 a0 c3 77 3d e6 89 9e 3d 54 bf 90 3d 5d 36 72 3d
       0.060489297 0.07741146 0.07067743 0.059133876
0000c0 f8 df d6 3d 78 90 55 bc b9 1c 1e 3b 60 9f 24 bd
       0.104919374 -0.013034932 0.0024126007 -0.040191054
0000d0 f3 c2 15 3e 3e a5 ca bd 34 0b f0 3d a8 be 34 3d
       0.14625148 -0.09894799 0.11720887 0.044127136
0000e0 64 08 ae bd 2a 9d b6 bd 62 52 be 3b 1f ef 76 bd
       -0.08497694 -0.089166954 0.0058081606 -0.060286637
0000f0 fa 36 61 bc d6 ef a3 bb bc 0b 5c 3d ab 36 17 be
       -0.013746018 -0.005002956 0.05372213 -0.14766948
000100 9c ef 10 3d 1f a8 d6 3d 2e c5 56 bd 97 c3 d3 bd
       0.03538476 0.10481285 -0.05243414 -0.1034004
000110 ce 57 80 bd b5 dd b7 3c 3c a7 b4 3d 13 22 b4 3c
       -0.062667474 0.022444585 0.0882096 0.021988904
000120 3a 0d d8 3d dd 8e e6 bd 17 11 1b 3d b7 47 97 bd
       0.10549398 -0.11257718 0.037858095 -0.073867254
000130 ec bb ee 3d c8 ff b1 bc 8d 07 a6 bc 7a 84 be 3d
       0.11656937 -0.021728411 -0.020267272 0.09302612
000140 b2 f3 64 bb dd d2 30 3e 3a ed 1d bc 2b c4 25 bd
       -0.0034935293 0.17267938 -0.009639079 -0.040470283
000150 4d 74 b9 3b bd 38 0a be 71 b4 17 3e 07 8d 93 bc
       0.005659616 -0.13498206 0.14814927 -0.018011583
000160 2e a8 2a bd f2 8e ef bb 32 a5 0f 3d ff 35 8c bc
       -0.041664295 -0.0073107416 0.035069652 -0.017115591
000170 7a 7d 14 3d f6 0e a7 bb 23 63 7b bd 1a 88 d7 bc
       0.036252476 -0.005098219 -0.06137384 -0.026310015
000180 62 d6 b4 3d 15 d1 24 bc f4 9f 9e 3c b1 6e 07 3d
       0.08829953 -0.010059615 0.019363381 0.033064548
000190 c8 0c c3 bd 7c 05 dc 3c 93 e3 99 bd c9 6c 1c bd
       -0.09523922 0.026858084 -0.075141095 -0.038189683
0001a0 74 7a 32 bc 70 1b 9a 3d 9f 25 e8 bd db fa 01 bd
       -0.010893453 0.075247645 -0.11335301 -0.031733375
0001b0 5f 64 f8 3d 55 74 6c 3d 6b c6 41 bd 2d 65 f5 bc
       0.12128519 0.05772813 -0.047308367 -0.029955471
0001c0 27 4c fa 3b 43 8c af bd 8f 83 41 bc fe ac 1d 3d
       0.0076384726 -0.08571675 -0.011811151 0.038495056
0001d0 a9 ef 7a bd e2 3f 0f be f8 fe 01 3e d7 6e 15 3d
       -0.061263714 -0.13989213 0.12694919 0.03648266
0001e0 99 b1 ee 3d 78 8b bd 3d 65 34 fb 3d 5a 75 18 bd
       0.11654968 0.09255117 0.12265853 -0.03722129
0001f0 23 db 37 bd e8 7f e8 bb 72 8b 57 3d 12 60 a2 3d
       -0.04488672 -0.0070953257 0.05262322 0.0792848
000200 35 2c 83 3d 82 51 67 3d 93 0a 31 bd 38 d1 82 3d
       0.06404916 0.056474216 -0.043222975 0.063875616
000210 b6 16 ba bd ba 34 80 bd c7 2f 1d 3d cc 2f ab bc
       -0.09086363 -0.06260057 0.038375642 -0.020896815
000220 ba 36 94 3d ee d9 08 3d 40 4e a9 bc 22 21 60 bd
       0.07237001 0.03341096 -0.020667195 -0.054719098
000230 a2 22 da bd 04 17 1b be 2d fc c0 3a 1d 92 33 3d
       -0.10651137 -0.15145499 0.0014723592 0.043840516
000240 0a 15 db 3d e0 7d 2a 3e 55 1c 6b 3d 10 93 9a bd
       0.10697372 0.1664958 0.057400066 -0.07547581
000250 63 d9 20 bd e2 53 79 bb 19 69 b9 3d 8e 85 51 3d
       -0.039269816 -0.0038044383 0.09053249 0.05115276
000260 b8 7d 80 bd 59 01 90 3d 51 00 50 3d 6d 4b 8c bd
       -0.06273979 0.07031507 0.05078155 -0.06850324
000270 0c c9 9b bd 77 32 ff 3b 52 17 04 be 5b 55 cb 3d
       -0.07606706 0.0077879983 -0.12899521 0.0992839
000280 54 a3 d3 3d 7b 00 05 be 56 05 29 bd 94 7a 07 3d
       0.10333887 -0.12988465 -0.041264854 0.033075884
000290 1c 9e b1 bd 97 eb fd bd 6b 68 36 bd 15 2e 0d bd
       -0.08672735 -0.12398451 -0.044533174 -0.034467775
0002a0 e1 e4 04 3e a3 a7 48 bd 49 8f c4 3d 01 5b be bc
       0.12977935 -0.048987996 0.09597642 -0.023236753
0002b0 69 83 9c 3d 35 46 53 bd 26 97 5f 3d ea a4 d3 bd
       0.07642252 -0.051580627 0.054587506 -0.10334189
0002c0 47 42 09 3e c4 6f 2d 3e 7c 79 91 bd 9b ab 96 bd
       0.13404189 0.16937166 -0.071032494 -0.0735695
0002d0 84 c1 98 bd 53 60 7f bd 9c 29 94 bd 54 3e 26 3d
       -0.07458785 -0.06234772 -0.07234499 0.040586784
0002e0 c7 0a 68 3c 2c b4 7c 3c 4e ed 26 3e c0 84 ff bd
       0.014162726 0.015423816 0.16301462 -0.12476492
0002f0 6a 6e d0 bd fa 25 15 bc c1 39 92 3d 17 90 aa 3d
       -0.1017731 -0.009103293 0.07139922 0.08328264
000300 96 0b 47 bd 89 8f e0 bd 09 f6 0d be 6a 96 55 3c
       -0.048595034 -0.10964877 -0.13863386 0.01303635
000310 10 08 15 be 6b 62 0e 3e cf 03 89 bc 27 7a ee 3b
       -0.14553857 0.13904731 -0.016725449 0.0072777453
000320 42 5f c0 bd 0e bd 57 3d 4f 3e f3 bd 45 4d 77 3c
       -0.09393169 0.05267053 -0.11877119 0.015094106
000330 d7 ab c5 bd 7d 08 92 3d 40 7e 98 3b d9 fb e3 bd
       -0.096519165 0.07130525 0.004653722 -0.111320205
000340 3e 10 8f 3d 8d 31 f6 bd 42 97 33 3e c0 f0 aa bc
       0.0698552 -0.1202117 0.17538169 -0.020866752
000350 2e 1e d9 3d f1 0d fc 3d ae 40 ac 3b ce 46 4c 3c
       0.106014594 0.123073466 0.005256734 0.012468053
000360 64 e3 dd 3c 9c 71 fc 3b 9d 46 c6 bc 1a 03 10 3e
       0.027085967 0.007703973 -0.024203593 0.14063683
000370 e3 f4 08 3d a9 3d 3c bb 81 64 af bd 2e 1a c9 3d
       0.033436667 -0.0028723276 -0.085640915 0.098194465
000380 56 75 e1 3d d6 ef a5 3d b2 94 3f be 6c d9 9c bd
       0.11008708 0.08102386 -0.18709067 -0.076586574
000390 ac 95 93 bd bd 96 90 3d bd bb 96 bd 6d f3 ec 3d
       -0.07206282 0.07060001 -0.07360027 0.11569867
0003a0 15 60 2f 3d a5 d8 ff bc 57 52 ba bd 1d ca ce 3d
       0.04281624 -0.031231234 -0.09097736 0.10097144
0003b0 53 69 39 3d 8b 8a da 3d 26 d6 66 bb 6c 8f 20 be
       0.04526646 0.10670956 -0.0035222857 -0.15679711
0003c0 a9 c3 79 bd 07 99 e1 3d 19 e2 f4 3d d2 b1 5e 3d
       -0.06097761 0.11015516 0.11957187 0.0543688
0003d0 d2 64 0c be 7e 56 b7 3d c7 2f 3c 3c 50 88 e6 bd
       -0.13710335 0.08952044 0.011486 -0.11256468
0003e0 b0 db 22 bd 87 11 1d be b2 2c f3 3d 25 43 16 be
       -0.03976029 -0.15338717 0.11873759 -0.14674051
0003f0 b7 02 ae bd 67 d1 14 bc a2 57 1c 3d 64 92 ba 3d
       -0.084966116 -0.0090831285 0.03816951 0.09109953

decoder.layers.4.bias f4 [24]
000000 0a 43 99 3d 92 17 fc bd 62 8c f2 bd 1a 3a 51 bd
       0.0748349 -0.12309183 -0.11843182 -0.0510808
000010 a2 f2 c7 bd 5c 42 08 3c d0 fa ad 3d 2f 70 d3 3d
       -0.097630754 0.008316603 0.08495104 0.10324132
000020 8c 38 e6 3c ae e0 9b bd 82 5c 28 bd c3 05 c7 bd
       0.028103136 -0.076112136 -0.041103847 -0.09717896
000030 b4 f9 fc bd 6d 45 d9 3d 91 c3 d6 bd f5 1b d7 bd
       -0.123523146 0.10608945 -0.1048652 -0.10503379
000040 da 43 a0 3d 98 f3 df bd 4d 8d 7e 3d c8 88 05 3d
       0.07825442 -0.10935134 0.062146474 0.032601148
000050 9d 0c 21 be aa ac 65 bd 58 4f 3e 3d 36 43 32 be
       -0.15727468 -0.05607287 0.046462387 -0.17408451
