m4_ws/src/morphing_lander/learned_models/2024-05-15_17-17-39/model_80.pth (torch, 33518 bytes, 22 tensors)

cond_normalizer.mean f4 [11]
00000000: f38d b5bf 990a fabc 84cf f8b9 aa6f 453a
00000010: 9845 d73c 6214 83ba de3a ddbb 64d1 073f
00000020: 0859 0a3f 3ed2 073f fb36 0a3f
-1.4183944 -0.030522631 -0.00047456857 0.0007531593 0.026278302 -0.0010000581 -0.0067514023 0.5305388
0.540421 0.5305518 0.53990144

cond_normalizer.variance f4 [11]
00000000: 474c e93f 6680 b33b dcba a73a 1e95 073b
00000010: 0c40 2d3d dae9 383d fea5 d33e b299 7c3c
00000020: 16eb 923c 9176 823c ee67 903c
1.8226403 0.005477953 0.0012796777 0.0020688246 0.042297408 0.045144893 0.4133758 0.015417503
0.017934363 0.015925677 0.017627683

output_normalizer.mean f4 [12]
00000000: d039 85bb 3bb1 37bb 2fb6 6e3c 2801 23b8
00000010: 99ce 603b 08db 573a 8a94 fa3b 6b37 123c
00000020: 0943 4540 cbac 3a3c d8ee 1b3f 3b4d d73a
-0.0040657297 -0.0028029222 0.014569803 -3.8863305e-05 0.003430283 0.00082342373 0.007647102 0.0089243455
3.0822165 0.011393736 0.6091132 0.0016426215

output_normalizer.variance f4 [12]
00000000: 6e0d f53d 726d 8e3d d24a 283e 555b 243a
00000010: bb21 673c 91dc 8a3c 0aa0 9c3e eadc 0a3f
00000020: 647d 7242 7266 ef41 1433 e340 cd54 183f
0.11965452 0.06954469 0.16434792 0.0006269713 0.014107163 0.016950877 0.3059085 0.5424334
60.62245 29.925022 7.099985 0.59504396

encoder.layers.0.weight f4 [32, 23]
00000000: ed43 24bb bccb 3e3b b7cb b23b 3fb6 22bd
00000010: 85f3 683e 1895 68be e77b 323e 4d17 533e
00000020: ce08 04bd 5ab3 96be 6dd5 3ebe 1e72 b03d
00000030: 5257 853c 673d 903d 509a 0bbd 401b 023d
00000040: b6ef 8e3d f381 4d3d 1931 1f39 f0d7 01be
00000050: 790c aa3d 034b c83d 1973 5bbd 5de3 a03a
00000060: ef69 0bbb fe65 7eb9 c418 35be 745e 20bd
00000070: 5ed8 96be 8464 233e 7163 e2bd ed75 f23c
00000080: 203b a83d b25e 3e3e 66e2 613d 085e 92ba
00000090: e52a 9c3c 6624 07bd 6e7e f83d d9c5 c4bd
000000a0: 909c 4cbd a567 543b 9bbd 39bd 762e 8bbd
000000b0: 461a fb3d 1b33 a8bc 2b5f 4abd d007 6d3b
000000c0: e49e ee3d 25aa 04bd 7bec 683c c1fb b73d
000000d0: c8ba c2bd 6975 873e 2baa 443d 242f 8dbe
000000e0: f9b4 5e3e 7f9e 56be 6179 553d 6230 063d
000000f0: 7801 f9bd ffe6 8dbe 0afd d93c cc79 9f3d
00000100: 70fd bfbc 6345 e23d e39b cb3c 6e79 05be
00000110: 1aae b3bc 1676 993c 3c4a cbbd be40 99bc
00000120: 7c31 02be e92c 47be 9b88 c03c a7bd 3fbe
00000130: 910b 2fbe 1385 bc3c ed91 25be 6f1b f5bd
00000140: 573c 453b b3bd f83c 1035 a1bd fcd0 9abd
00000150: 1d76 b93d b64d b1b9 6798 b9bc cd95 a1bc
00000160: 40e8 163d f442 61bc 6ed9 08bd f99d da3d
00000170: 0d0c 14bc 3119 2ebb 3d47 0ebc 809a 8a3d
00000180: df5d b2be 302e 1abd bfbb e1bd f874 653e
00000190: 9fbf 143d 9129 933c f711 403e b447 75be
000001a0: f15f 413c e364 0d3c 2849 023d 14d5 5ebe
000001b0: eda4 f23d 2e7a 31bd ca86 b1bb fb84 a03d
000001c0: b52e 29bd fe5d 853d 8d5d e9bd b16f 0b3b
000001d0: 26fe e33a 4286 a9bb 2e38 1fbe c849 653e
000001e0: 5b65 be3e 4933 0cbe fed0 a1be bb27 9f3c
000001f0: 5b1a a3bd a368 ba3d 40eb 80be 4d75 7dbb
00000200: 06ac b73c 4999 e73d cecd 8e3d 9e36 e13c
00000210: dc47 183d e114 d23b 802e a9bd 3b1a 13bb
00000220: 891e 803d ceb6 623c f710 3ebc ec64 32bb
00000230: c1bb 213b 48f0 d33d d7d7 223c ae6c b83c
00000240: 47cc e43d b418 9c3e 4e92 0f3d e6f2 ff3d
00000250: 8f65 173e a15c d03d 4aa3 39bc ea7b 343d
00000260: a273 8b3e b972 a13e 4383 8e3d 7af5 81ba
00000270: 365c ed3b 58f6 213e fbd5 1bbe 99e7 d0bd
00000280: cf23 bb3d 48aa 283d a85e 5b3b a238 fe3c
00000290: 271d 32be 17c6 ef3d d998 90be 8b25 2bbe
000002a0: 99f1 813e 3d6d 12bd d9a4 29bb ae56 22be
000002b0: fe3e 69bd 2998 6b3c ab0d 6b3c e364 0bbe
000002c0: 740e c03c 29d4 a13d 0bb5 65bd 58ee b6bb
000002d0: 6824 dd3d 0cba 193d 3d7a bcbd 4481 81bd
000002e0: 6557 2c3c bd41 753d d233 16bd 88b3 3abe
000002f0: 0c18 7bbe 3186 8a3e cc8b c43d 50a6 883e
00000300: dd2e 273d 511b 8b3e 10e1 d738 9a9a 11be
00000310: 5e44 20bc f1bf 113e 4ac5 2a3e f0cb 46be
00000320: 5974 74bd 6dd7 1e3d 7eef 1fbc 05ab 0bbe
00000330: 68f2 1abd f395 d13d 9c7a 9c3d 4f60 0e3d
00000340: 2416 1a3e 0c97 c03b 9b2c 1d3d 2f52 77bd
00000350: b272 0e3e 50ad 023e 9a0a 64bd bef4 ac3c
00000360: 8db6 58bd 0659 2a3e 6d1b e73c d776 82bd
00000370: d6f6 3fbc 0df1 133e 0545 f6bc 9785 75bc
00000380: 44ff 283d b624 22bd 3486 e23d 2a2f 83bd
00000390: 0b7b 3f3e f94f 253c f5c2 88bd 27bd d33d
000003a0: 925a c0bd a284 eb3d ef47 51be 5c88 3abe
000003b0: 8ca3 5dbd 0709 003e 7f15 7e3b d3ba 72bd
000003c0: 74ee 48be 3c6a c4bc 04fe 14bd f887 ad3d
000003d0: 4304 873d 9cf5 45be 2cc0 b53d f8b0 38bd
000003e0: 6072 3a3d 7405 363e 3b97 363c 15b4 183e
000003f0: 79a0 6dbd 6a2a 2bbd efdc 85bb e1be 143d
-0.00250649 0.0029113134 0.0054564136 -0.039724585 0.22749145 -0.22713125 0.17430077 0.20614357
-0.03223496 -0.2943371 -0.18636103 0.08615516 0.01627699 0.070429616 -0.03408271 0.03176427
0.06979315 0.050172757 0.00015181712 -0.1268003 0.0830316 0.09779932 -0.053576563 0.0012274791
-0.0021272858 -0.00024261323 -0.17685229 -0.039152578 -0.2946195 0.15956312 -0.11054123 0.029597247
0.08214402 0.18590811 0.05514755 -0.001116694 0.019063422 -0.032993697 0.121334895 -0.09608049
-0.049953997 0.003241041 -0.045346837 -0.06795971 0.12260871 -0.020532181 -0.049407165 0.0036167987
0.116514 -0.032388825 0.014216538 0.08983565 -0.09508282 0.26456764 0.048013847 -0.27575028
0.21748723 -0.20958899 0.05211771 0.032760985 -0.12158483 -0.277153 0.026609916 0.07786903
-0.023436278 0.11048391 0.024854606 -0.13034603 -0.021933604 0.018733066 -0.099262685 -0.01870763
-0.1271419 -0.19450726 0.023502639 -0.1872469 -0.17094256 0.023012673 -0.16168948 -0.11968123
0.003009578 0.030363893 -0.07871449 -0.07559392 0.090557314 -0.0003381797 -0.022655679 -0.01972475
0.036842585 -0.013748873 -0.033410482 0.10674662 -0.009036076 -0.0026565308 -0.008683977 0.0676775
-0.34837243 -0.037641704 -0.11022138 0.22407901 0.036315557 0.017964156 0.18756853 -0.23953134
0.011802659 0.00863001 0.03180805 -0.2176097 0.11847863 -0.04332941 -0.0054176794 0.07837864
-0.04130431 0.06512068 -0.113947965 0.002127629 0.0017394468 -0.0051734755 -0.15548775 0.22391427
0.37186703 -0.13691439 -0.3160476 0.019428125 -0.07964011 0.09101989 -0.25179482 -0.0038674653
0.022420894 0.11308534 0.06972848 0.027491864 0.037177905 0.0064111804 -0.08260822 -0.0022446054
0.06255824 0.013837529 -0.011600724 -0.0027220799 0.002467856 0.103485644 0.009939156 0.02251276
0.11171775 0.30487597 0.035051636 0.12497501 0.14784835 0.101739176 -0.011330435 0.044063486
0.27236658 0.3153284 0.0695863 -0.0009915077 0.0072436584 0.15816629 -0.15218346 -0.10200424
0.09137689 0.041178018 0.0033473168 0.031032864 -0.17393933 0.117077045 -0.28241614 -0.1671354
0.25379637 -0.03574871 -0.002588561 -0.15853378 -0.05694484 0.0143795395 0.01434652 -0.13612704
0.023444392 0.079017945 -0.05608086 -0.005582612 0.107979596 0.037530944 -0.092030026 -0.063234836
0.010518883 0.059877146 -0.036670513 -0.18232548 -0.24520892 0.27055505 0.09596977 0.26689386
0.040816177 0.27169278 0.0001029392 -0.14219132 -0.009781925 0.14233376 0.16676822 -0.19413733
-0.05968127 0.038779665 -0.009761689 -0.13639458 -0.037828833 0.10233679 0.076405734 0.034759816
0.15047508 0.005877381 0.038372617 -0.06038111 0.1391094 0.12761426 -0.055674173 0.021112796
-0.05290847 0.16635522 0.02821132 -0.06370323 -0.011716565 0.14447422 -0.030062208 -0.014985464
0.041259065 -0.03958579 0.110607535 -0.0640548 0.18699281 0.010089868 -0.0667781 0.10338812
-0.09392275 0.11499907 -0.20437597 -0.1821608 -0.05411105 0.12503444 0.0038770137 -0.0592602
-0.19622213 -0.023976438 -0.03637506 0.084731996 0.0659261 -0.19331974 0.088745445 -0.045090646
0.045519233 0.17775518 0.011144455 0.14912446 -0.058014367 -0.041788496 -0.004085175 0.03631485

encoder.layers.0.bias f4 [32]
00000000: 2b08 5abd 763d 283c e742 afbc ff07 923e
00000010: 2756 ed3a 336d 87bc 8399 f3bc 6c0b d8b8
00000020: 9fd1 75bd dabb b33e 3ac8 0ebe 743e 933e
00000030: 3ba1 a8ba b34b 893d 5110 b8bc 3bf9 f9bc
00000040: 4a9d ef3e 2912 5fbd 2fed 40bd 2c69 6ebc
00000050: 3114 0abe 2cb0 82bc b8a6 55bb dc24 a2bd
00000060: c12e 0e3f 5f5b 293d 3287 c93e ba66 e43e
00000070: ce52 77bd d3cf 403d 367b 15be d42d fdbc
-0.053230446 0.01026856 -0.021394206 0.28521726 0.001810734 -0.016531562 -0.029736286 -0.0001030181
-0.060014363 0.35104257 -0.13943568 0.28758585 -0.0012865433 0.067038916 -0.022468718 -0.03051435
0.4679969 -0.05446068 -0.047101196 -0.014551442 -0.13484265 -0.015953146 -0.0032600593 -0.079171866
0.5554009 0.041346904 0.39360958 0.44609624 -0.060381703 0.047073197 -0.14597782 -0.030905642

encoder.layers.2.weight f4 [32, 32]
00000000: 3fbe 8abd 3bd1 be3d 62a5 ea3d f7e2 c6bb
00000010: d9d0 0a3e d44b d5bd 5aac 93bc 94f0 80bd
00000020: 9ca6 5d3c d866 c5ba 916c 9cbd 4294 e03c
00000030: 9d76 ffbb 3c63 53bd 6417 42bb f0e5 963d
00000040: deb9 e13d e6cf 0e3c c456 2f3e 7e5c 5cbb
00000050: 6f3a a23d 8e3a d43b d0de 403d 94c6 fabd
00000060: 5192 e93d 62c5 f83d 67fe 143e af97 413e
00000070: 1069 d1bd 8037 7439 7b42 9d3d 266c bc3d
00000080: 4926 9fbe aef4 9fbd 8766 34be b4c9 cabc
00000090: 4725 18be ced6 65be 839b 93be 33ec 69bd
000000a0: c3dc 2abe dd57 313e 3d1b 4abe 6b65 213d
000000b0: e0d7 b9be 572e 973d 3ae9 cbbe 8576 8ebe
000000c0: 09ab 553e 38ca 3fbe ec62 d1bd 48fb 8bbe
000000d0: 51ce 36be 9fbf c6bd 0611 a4be c55e 95be
000000e0: 16ae ff3d 15da ecbd 3093 dd3d 4b6d 4d3e
000000f0: 14b2 bcbe d8eb df3c b899 34be e12d 82be
00000100: febc 27be 7045 033b 25f8 06bc e3e3 573e
00000110: dcf1 2dbe a799 53be 49d7 61be 7773 08be
00000120: 1037 36be ad54 8e3d e888 b3bd ca96 8a3d
00000130: 8f03 a9be 3285 97bd 2558 bf3c 7e3f a2be
00000140: 90fd cd3d 33e4 59be e294 a23d 0fd4 63be
00000150: 7ff4 35be 54a5 6d3d 5829 203c f9ba 36be
00000160: e327 883e 4bc7 133d 8318 453e 1be6 a33e
00000170: d8cd 143d 0af5 ab3d ae9e 77bd 472f 41be
00000180: 67c8 3b3e 4ab0 e53d 75b3 0cbe 79b0 f83d
00000190: 1b0a c1bc a551 863d f614 343e 4a2d 323e
000001a0: e626 9bbd c9fa e8bd 1a69 b3bd e55d 65bd
000001b0: 63b9 b43d 2164 3e3e 1d43 683d ce00 213b
000001c0: 1da6 bbbc 6a72 ac3d dad5 933d 786d 333e
000001d0: 7300 83bd 6c59 7bbd 610c 483d 7c23 d43c
000001e0: 4479 503e 24ba 7bba 961e 533d 350a 0d3e
000001f0: c625 043e ece9 9a3d 017f 2a3d 24a3 5f3d
00000200: 013f 9dbe 2d6f 29be fe56 d1bb 0d49 5e3d
00000210: db83 2bbe 2b7d aebe 588d 8abe 2024 13be
00000220: 9183 7cbd 2951 e03d ef50 0cbd 5d9d 643e
00000230: 5e85 bcbe 8eb7 e7bd 6855 7bbe b8b1 72be
00000240: 5ec3 ab3d ec7d 95be 32a6 44bd 32fa 4bbe
00000250: 7035 21be 90ec 09be 121e 6abe 496d 8dbe
00000260: bca5 1a3e c2b0 96bd 7569 223e 3e99 6e3e
00000270: a8af 98be 061f d7bd 6abf 67bd 2ad5 a6be
00000280: 2d61 673d 57a6 5f3e 45fc 033e ec08 eb3d
00000290: 5ace 333e 9cc4 0d3e 6604 293e 0aae 173e
000002a0: 7727 a6bd 62d2 51bd 09ec 403e 32f5 13be
000002b0: 89f8 b33c 2261 aabd 7431 ec3d 2483 0abc
000002c0: 314e 083e e72b cb3d daf8 81bd 8457 e23d
000002d0: f5e0 0c3e ac75 253e 57b0 aa3d ebd8 b13d
000002e0: 005d 1e3e daf5 e13b fe78 c63d 5982 2b3d
000002f0: 3ae1 2d3a 42be 733d 32ea e7bc d055 523e
00000300: 8c4b 2c3e e33e e03d 4f86 143e 5d88 a4bd
00000310: 7c33 893d 5ba3 813d c804 4bbb 429d 163d
00000320: eaff 85bd 8d95 cb3c cbd3 093e abf2 06be
00000330: 1814 4e3e 5d30 2f3e 6aa3 133e e783 35bd
00000340: 669a 3dbd b152 283e 67f7 293e e762 073e
00000350: d222 383d da93 8ebd 32e1 2f3e 670f e6bc
00000360: bf23 b03d 3b38 aabd af8a 943b 943b c4bb
00000370: 0764 eb3d 411e de3d 55dc af3d 828b 133e
00000380: 0fa4 fd3d ff62 e4bd b407 c43d fa7b 9c3d
00000390: 4dd6 d83d 6e41 f63d fcc7 c13b 44da 56bd
000003a0: 3907 db3d e68b 053e c462 94bd 3e61 a73d
000003b0: c20c 613d 9252 32bd 01e7 60bd 3d8a 5c3d
000003c0: 2229 153e 53e1 353c b6c9 ed3d 7a4c dd3c
000003d0: beec b63d f78c b23c 6195 b13d 0902 d9bd
000003e0: 6025 eb3d d0c7 0ebe 12d9 91bb 0033 0c3d
000003f0: c691 2e3d dbfb 82bd a31d ae3b fb97 683d
-0.06774568 0.09317251 0.114573255 -0.006069537 0.13556232 -0.10414854 -0.01802652 -0.06295887
0.013528492 -0.0015060557 -0.07637895 0.027414445 -0.007796122 -0.05160831 -0.0029615993 0.07368076
0.110217795 0.008716559 0.17122942 -0.0033624466 0.079213016 0.006476707 0.04708749 -0.12244907
0.11404861 0.12147023 0.14550172 0.18905519 -0.10225117 0.00023290329 0.07678696 0.09200315
-0.31083897 -0.07810341 -0.17617236 -0.024754383 -0.1485797 -0.22445223 -0.28829584 -0.057110023
-0.16685776 0.17318673 -0.19736953 0.03940336 -0.36297512 0.073818855 -0.39826375 -0.27824798
0.20866026 -0.18729484 -0.10223946 -0.2734015 -0.17852141 -0.097045176 -0.32044238 -0.29173866
0.12484376 -0.11565033 0.108190894 0.20061223 -0.36854613 0.027334139 -0.17636764 -0.25425628
-0.16380689 0.0020030402 -0.008237873 0.21083026 -0.16986793 -0.20664082 -0.22054781 -0.13325296
-0.17794442 0.069497444 -0.08766347 0.06767042 -0.33010527 -0.07398452 0.02335746 -0.31689066
0.10058129 -0.21278457 0.079385534 -0.22248863 -0.17769049 0.058018997 0.009775482 -0.17844762
0.2659293 0.036078732 0.19247632 0.32011494 0.03632912 0.08396347 -0.060454063 -0.18865691
0.18338166 0.11215265 -0.13740332 0.121430345 -0.023564389 0.06558541 0.17586121 0.17400089
-0.07575779 -0.113759585 -0.08760281 -0.055997748 0.08824422 0.18592884 0.05670463 0.002456713
-0.022906357 0.0842026 0.07218523 0.17522228 -0.0639657 -0.061364576 0.04883993 0.025895827
0.20358759 -0.0009602627 0.05154284 0.13773425 0.12905034 0.07564148 0.041625027 0.054598942
-0.3071213 -0.16546316 -0.006388544 0.054268885 -0.16749518 -0.3407987 -0.27060962 -0.1436925
-0.06164891 0.1095298 -0.03425687 0.22325654 -0.368205 -0.11314307 -0.24544299 -0.23700607
0.08386873 -0.29197633 -0.04801006 -0.1991966 -0.15743041 -0.13469148 -0.22863033 -0.2762244
0.15102285 -0.073579326 0.15860541 0.23300645 -0.29821515 -0.10503964 -0.05657903 -0.32584506
0.05648916 0.21840797 0.12889202 0.11476311 0.17559186 0.13844532 0.16505584 0.14812484
-0.08112996 -0.051226027 0.1884004 -0.14449003 0.021969097 -0.08319308 0.1153287 -0.008454118
0.13311078 0.09920483 -0.06346293 0.110518485 0.1375769 0.1615817 0.083344154 0.08683952
0.15465164 0.006895763 0.09691046 0.041872356 0.00066329876 0.059507616 -0.028309915 0.20540547
0.16825694 0.10949495 0.1450436 -0.08033822 0.06699273 0.06329986 -0.0030978192 0.036771066
-0.06542952 0.024851585 0.13459699 -0.13178508 0.20124853 0.17108293 0.14417806 -0.044315245
-0.046289824 0.16437794 0.16598283 0.13221322 0.044955082 -0.06961794 0.17175749 -0.028083516
0.08600568 -0.08311506 0.004533134 -0.0059885476 0.11493688 0.10845614 0.08586947 0.14408687
0.12384807 -0.111516945 0.09571782 0.07640834 0.1058775 0.120241985 0.0059137326 -0.052454248
0.10694737 0.13041648 -0.072454005 0.08172844 0.054943807 -0.043535776 -0.054907802 0.05384277
0.14566472 0.011101085 0.11610739 0.027014006 0.08931874 0.021795733 0.0867107 -0.10596091
0.11481738 -0.1394341 -0.0044509256 0.034228325 0.04261949 -0.06395694 0.0053135916 0.056785565

encoder.layers.2.bias f4 [32]
00000000: e738 913d e899 a33e 62e9 b13e 218c 40bd
00000010: ed20 683e 37d8 17be e9c1 413d 4c4c 3f3d
00000020: 92bb 6cbd d687 88bd f1c0 da3b d5d8 cf3e
00000030: 6281 81bd c229 b3bc 9eaf 76bd 7976 13bd
00000040: 2aaa 0bbd d250 d53e 9b7b d9bc 04e1 8cbd
00000050: 871b 983e 6f03 59bd 5b0f 073e 00f1 02be
00000060: 4703 0f3d b962 1cbc a61e 0ebd 5be6 1dbe
00000070: f58a 07bd 9e65 45bd f67e eabd d401 2cbc
0.070909314 0.3195336 0.3474837 -0.047008637 0.2266881 -0.14828573 0.047304068 0.04670362
-0.05779607 -0.06666534 0.0066758324 0.40595117 -0.06323506 -0.021870498 -0.060226075 -0.036001656
-0.034097828 0.41663224 -0.026548197 -0.06878856 0.29708502 -0.05298179 0.13189451 -0.12787247
0.034915235 -0.009545022 -0.034697197 -0.15419905 -0.033091504 -0.048192613 -0.11449997 -0.010498483

encoder.layers.4.weight f4 [12, 32]
00000000: daa8 713d 2bb0 ae3e 6ee6 503e b97f 71be
00000010: d9ba b43e 27c2 63be db3f c8bd 5511 53bd
00000020: 3fd8 f43a dd93 66be 0c09 50be f4ad 173e
00000030: 24ca f4bd 1d27 a03c a2da cdbd 4dbb 16bd
00000040: 052c 2cbe c0d7 81bd 6444 1cbd c03f 2fbe
00000050: e780 af3e 8e6a a5bd f695 a73e 001a 60be
00000060: eea9 bfbd b555 05be 3b63 abbd e562 563e
00000070: 5eb5 f6bd ce77 173e 83f4 943d f131 23be
00000080: 2f78 423e 505b b0be 392e 9dbe bb35 c3bc
00000090: 3c39 3abe 644a 673e 5df7 a43d f9b4 de3c
000000a0: 1c5f 2a3e 1c5b b6bd 0b98 fc3c 8505 9ebe
000000b0: 4daf 7e3e 367d 163e 1559 2b3d 7089 fcbc
000000c0: ad66 813e c24f dcbd 449c 363e 4446 6e3e
000000d0: 16e7 8abe 44e8 233e c69c c0be 60b8 0f3e
000000e0: 4a5d ab3c 678d cbbd 641f 5c3e 0220 9abe
000000f0: 329e 443e 8cea 52bd 5eae 333d 7d52 0cbd
00000100: c435 123e 771b 1b3e 7b73 783e c364 023d
00000110: d885 8d3e 1a24 913d 1425 803d ab24 d13d
00000120: 5b24 4e3c d306 2fbe c593 13be 8657 38bd
00000130: 30da 0a3e a8f2 063d 7901 b3bd aa91 6dbb
00000140: e190 c33d 47f8 b33e b292 4abd 8cce 1e3e
00000150: 77d8 213d 4591 943d ee3f 1e3e dfaa 483d
00000160: 0663 12be 3e05 dbbc a633 db3c c55a cfbd
00000170: 8488 41bc 530b 68bd 0ea7 8dbd 9019 b6bd
00000180: 5b98 cbbd 61f6 babe 58fc 6abd 8066 893d
00000190: 2414 95be b52a 613e 4fd4 093e 4b3b b43d
000001a0: d4e0 1d3e 1052 9f3d 9599 42bc a3ae a8bd
000001b0: 19db 803e 4435 e93d 71ef 173e 60a9 5b3e
000001c0: e9cd df3d b3d9 dcbd 1751 98bd 50c6 753e
000001d0: ab8f cebe 78f6 563e 0155 91be 462f 813e
000001e0: bcda 59ba f95f c63c fefe 433e 9950 a8be
000001f0: 0c3f 09bd d786 fcbd 36ed 763d a02f 6b3c
00000200: 7469 c33d f644 38be ff39 993c 3c3f 9c3c
00000210: 3231 6ebe 09c6 003e 5c56 a4bc f677 c3bd
00000220: ab53 853d 8d25 213e 00d7 acbd 06ec 963d
00000230: 2efd 0e3e 8972 19be df7b f13d 4e9c 563e
00000240: 0965 123e 3716 16bd 33b6 10be 94a3 22bd
00000250: fe01 0bbe 313a 9b3d 4600 76be 1659 9f3e
00000260: 8a4e 14bd 5dc9 f13a f40e 2f3e 0c83 a1be
00000270: 88f2 f23d 7b78 13bd 07cd e53b 3164 4a39
00000280: 4274 693c 65c1 d5be 6e92 6ebe 816a 5f3e
00000290: 83e4 a8be 7667 c13d f045 0c3e 4cb9 853d
000002a0: e4ff 413e cb9c d33d 6239 463e 8799 b7be
000002b0: 4e1c 643d a6c8 9ebd 9d4c ac3d dbae 8dbc
000002c0: 8dec 963d 0e4e 23be da06 8d3d 71d5 823d
000002d0: a5f7 70be 1880 4cbd 6418 a7be ce7c 3abd
000002e0: 56e0 8d3c 7b80 533e ae8b 92bd 7250 8cbe
000002f0: fb72 963c 4060 453c 19c6 1cbe 560d 933d
00000300: 16b4 1abe b4c5 34be 6705 92be 366b 46be
00000310: 6084 31be 3eda a53d 8bf0 bb3c 3fb2 19be
00000320: 1332 87bd ade5 413d 6aff b63c a6a5 18be
00000330: 0d69 20be 6388 573d 6a90 ddbd be39 eabd
00000340: b8f8 05be 82d8 5bbe ad8b e2bc bd29 eb3c
00000350: 2ef2 47be 0256 c1bd 35a0 09be 843a 3bbd
00000360: e5a6 3bbe dbb6 06be 98c0 f1bd 091d 773e
00000370: 5cd3 b5bd 6afd ff3d e034 a33d 5a76 0dbb
00000380: 4bb7 b6bd 3220 debd cfe9 6bbe e9bf 073d
00000390: 9cb1 c4bd 12dc 90ba 245b 75bd e773 37bd
000003a0: 6082 03be 2773 783c 6c66 b2bd 536c 48be
000003b0: f34e 793d 9c3a 033e 1fec f4bd 6fbb 6f3d
000003c0: 5a2f 2b3d dd1c 8abe 2c11 87bd 4b0a 06be
000003d0: 80de 38be 5644 6ebd 0ba6 27be 909f 01bd
000003e0: 730c 87bd 64a6 34be 1bc9 08bd 358d 763e
000003f0: 4816 51bd bb75 f53d de0f 843d 6b1a efbd
0.05899892 0.3411878 0.20400402 -0.23583879 0.35298803 -0.22242032 -0.097778045 -0.0515302
0.0018680169 -0.22517343 -0.20315951 0.14812452 -0.11952618 0.0195499 -0.100514665 -0.036799718
-0.16813667 -0.06339979 -0.03815116 -0.17114162 0.34278032 -0.08076964 0.327316 -0.21884918
-0.093585834 -0.13020976 -0.08368536 0.20936163 -0.12046312 0.14791796 0.072731994 -0.1593702
0.18991159 -0.34444666 -0.30699328 -0.023829332 -0.18185896 0.22586972 0.08054993 0.027185904
0.16637844 -0.089040965 0.030834218 -0.30863586 0.2487156 0.14696202 0.041833002 -0.030827254
0.25273648 -0.107574 0.17833048 0.23268992 -0.2712943 0.16006571 -0.3761961 0.14035177
0.020918507 -0.0993908 0.2149635 -0.30102545 0.19200972 -0.051493213 0.04386746 -0.034258354
0.14278322 0.15147196 0.24262802 0.031834375 0.27641177 0.07086964 0.06257072 0.10212072
0.01258191 -0.17092447 -0.14411838 -0.045005344 0.13559794 0.03294626 -0.08740515 -0.0036250153
0.09549118 0.35150358 -0.049456306 0.15508479 0.039513078 0.072542705 0.15454075 0.04899108
-0.14295587 -0.026735898 0.026758026 -0.10124735 -0.011812333 -0.056651425 -0.06916629 -0.088915944
-0.09941169 -0.36516097 -0.05736956 0.067090034 -0.2911693 0.21988948 0.13459896 0.08800372
0.15417796 0.07779324 -0.011877437 -0.08236434 0.25167158 0.11387113 0.14837433 0.2145133
0.10927946 -0.1078371 -0.07437342 0.24001431 -0.40343985 0.20992458 -0.28385165 0.2523138
-0.0008310487 0.024215685 0.1914024 -0.3287399 -0.03350739 -0.12330406 0.060284816 0.014354616
0.09541598 -0.17995057 0.018704413 0.019073121 -0.23260954 0.12575544 -0.02006071 -0.09544365
0.06510099 0.1573698 -0.084394455 0.07369237 0.13963768 -0.14985098 0.11791205 0.20958063
0.14296354 -0.03664228 -0.14132003 -0.03970678 -0.13574979 0.075794585 -0.24023542 0.31122655
-0.036207713 0.0018446852 0.17095548 -0.31545293 0.118626654 -0.03600357 0.0070129666 0.00019301545
0.014248909 -0.4174911 -0.23298046 0.21817972 -0.3298684 0.09443562 0.13698554 0.06529483
0.18945271 0.1033264 0.19357827 -0.3585932 0.055691056 -0.077531144 0.0841305 -0.017295292
0.07369337 -0.15947744 0.068860725 0.06388367 -0.23531969 -0.049926847 -0.32635796 -0.04552918
0.017318886 0.2065448 -0.07155548 -0.27405125 0.018365374 0.012046874 -0.15309943 0.07180278
-0.1510776 -0.17653543 -0.28519747 -0.19376835 -0.17335653 0.08098267 0.022941848 -0.15009402
-0.06601348 0.047338177 0.022338588 -0.1490694 -0.15665074 0.052620303 -0.108185604 -0.11436795
-0.1308316 -0.2146931 -0.027654493 0.028706426 -0.19525978 -0.09440233 -0.1344002 -0.0457101
-0.18325384 -0.13155691 -0.118043125 0.2413217 -0.08878204 0.12499507 0.079690695 -0.0021585436
-0.08921679 -0.108459845 -0.2303841 0.033142004 -0.09604189 -0.0011051914 -0.05990137 -0.044788267
-0.12842703 0.015164173 -0.08710942 -0.19572572 0.060866307 0.12815326 -0.11959099 0.05852836
0.041793205 -0.26975146 -0.06595072 -0.13089864 -0.18053627 -0.05817064 -0.16371934 -0.03164631
-0.065941714 -0.17641598 -0.033394914 0.24077304 -0.05104664 0.11985346 0.06448339 -0.11674961

encoder.layers.4.bias f4 [12]
00000000: 9dba 7a3e 08dc 9bbe 9834 b23e a05f 75bd
00000010: 0a22 80be 9f53 61be 5003 2ebc 21b9 5cbe
00000020: 930e 46be af24 443c 8315 433d 4c0a 8fbe
0.2448525 -0.30441308 0.3480575 -0.05990565 -0.2502597 -0.22004555 -0.010620907 -0.21554996
-0.19341497 0.011971637 0.047627937 -0.27937543

decoder.layers.0.weight f4 [32, 17]
00000000: c1dc 1d3e 076e 0bbd 04cc 94bc c531 c6bd
00000010: 9c74 8dbe 776f 78bc a3e7 a83e d065 253e
00000020: 1149 023d 0a29 f2bd 3602 10be 67e7 823e
00000030: e2ca 41be 9d49 5e3e 1a1e 373e 2740 45bd
00000040: 60d3 193e 4c21 82be a748 663e eea4 253c
00000050: b2d9 5abc 0125 423e e788 c93b 50f6 36be
00000060: 2915 743d b2f1 933e c1b9 803e c06b 9dbd
00000070: 0730 d4be deca bdbb 7118 103e b30a 4c3d
00000080: aac6 02be caca 2b3e dbf9 1ebe 56e4 903e
00000090: b6d3 413e d862 ab3e 72ec 193e 7182 783e
000000a0: 03c5 ef3b 6480 4dbe 6183 813e 0168 7ebe
000000b0: 9f5b 44bc c1ee 433d 69c5 ed3d 11b6 22be
000000c0: 26cd 06be 718e 493d 3d89 83be d57d 80bd
000000d0: 189e 0fbc 454e 623e 3846 d23d e82f fbbd
000000e0: f275 e23d 639a d23e 4c35 653e b7bb adbd
000000f0: 8eee d53d 3f49 24bd 6689 e43c cf39 98ba
00000100: 8bef 6a3d 4864 59be 99c3 eabd 932e e33d
00000110: 85f1 44be dc9b c03d ef00 073e 0066 493e
00000120: 0b1d a13d ed07 5a3d 0ae2 033d d69e 1b3c
00000130: f1d1 87be a042 153e 2558 293e 444f 843d
00000140: c615 17be de18 7fbd 9b16 e23d 5cd9 23be
00000150: eb34 0ebe 0dfb 293d e132 b7be c370 2abd
00000160: 29f3 093d 8107 8ebe de41 c63d 6cfa d2bd
00000170: 796e b03e 4677 c43c b3f9 1c3e 30d9 8c3e
00000180: 8292 c63e 628a 82bb 856a 21bc 2b7a ba3d
00000190: 5137 64be 6d91 8c3d 6bb4 133e e003 7abe
000001a0: 86c6 77be b0ea d03d e210 10bd 1ee8 35be
000001b0: cce7 a23c 5108 fabd 8c7b 9d3d 9a20 b9bb
000001c0: e467 4dbc 89d0 8ebd 2807 463e 52aa ddbb
000001d0: 58cb 363e db49 ce3d b1c0 ddbd d284 d73d
000001e0: 2d52 acbe 96c3 71be ddc2 f63d 100c 41be
000001f0: 2790 583d 510a a23d 4c5f 393e a101 9ebd
00000200: 4f2a 283d 5821 76bd 7a57 833d 6596 32bd
00000210: db46 153b 24e8 1e3e 99a4 883d b7d4 3abe
00000220: b382 823e 163f ed3d b1a5 9f3e 1f92 57be
00000230: 33ed 4abd b70c 96be 22f8 a53d 37ff 473e
00000240: f178 303e 9df8 4b3c 7cfb a73c e772 c0bb
00000250: 7890 453e 4129 933d 275a 90bd 88bb 5cbe
00000260: 6260 183d cfe2 c33d 043d 96bd 0a28 39be
00000270: 6b7b 243d 3aba 84be 3332 513e 7d7d 943e
00000280: c301 773e 848c d53c eb00 f1bd 3fee 5dbd
00000290: 5b39 8cbd 1280 3fbb cece d8bd 108c 4c3c
000002a0: 557f 623c 452a be3d 7b08 073e a79d 203d
000002b0: c929 36be cf70 dfbd 83be 80be 47e3 463e
000002c0: c977 96bc c24c 153e 1e96 46be 8b38 293d
000002d0: 2ab3 96bb 0151 adbb e285 103e 4157 0d3e
000002e0: 09b0 53be 8a74 fc3d ecec 8dbd 043b 84bd
000002f0: b2fb e6bd e62e 973d b212 723d b143 2e3d
00000300: d862 413e c545 c03e 66f1 a33c 5352 b1bd
00000310: cb68 56bd 26dc b93b ef60 e73d bb3a 0c3e
00000320: caa3 d43c 207e b6be 6cb8 bcbe e5e0 5ebe
00000330: 181c ecbd 7d4b 8d3d c4ac 9d3d 4e6d 853d
00000340: 10d4 213c 0d6f 313d 1f38 8ebd 0dac 8a3c
00000350: 7524 93be 02e9 5ebe b642 603e 1a2a 093f
00000360: cc3d 013d 295f 1cbd af2b 0a3e 6173 eebd
00000370: 29d1 b6bc 7887 21be 856e 613e 5566 6b3e
00000380: 656d a53e 20a7 87bd 534e 90bd 9671 a6bd
00000390: 2a72 50bb 11e7 6dbd 0e7c 48be 949e 1dbe
000003a0: 42c5 1fbe 2297 13be c49b 77be 3b33 d1bc
000003b0: 1bf8 1b3e 7a94 983d a8a1 453a f849 84be
000003c0: c336 473e 2ff9 abbe 238e 933d 32fa e0bd
000003d0: a58d 263d 8c8e cb3e 85e3 863d 7bd0 8dbd
000003e0: 44e2 07bd 0959 1d3e 0565 5abe 0ddd 333e
000003f0: ad52 8abd 9798 0ebd 4d06 393e 8dc2 e13d
0.15416242 -0.034040477 -0.018163688 -0.096774615 -0.27628028 -0.015163294 0.32989225 0.1615212
0.031807963 -0.11824234 -0.14063343 0.2556717 -0.1892505 0.21707769 0.17882577 -0.048156884
0.1502204 -0.25416028 0.22488652 0.010110123 -0.013357567 0.18959428 0.0061503532 -0.17867398
0.059590492 0.28895336 0.2514172 -0.07686567 -0.41442892 -0.005792006 0.14071824 0.04981489
-0.12771097 0.16776577 -0.15525 0.28299206 0.18928418 0.3347385 0.15031603 0.2426851
0.007317187 -0.20068508 0.25295547 -0.24844362 -0.011984735 0.047835115 0.116099186 -0.15889765
-0.13164195 0.04920811 -0.25690642 -0.062740006 -0.00876572 0.2210017 0.102672994 -0.12264997
0.110576525 0.41133413 0.22383612 -0.084830694 0.10445891 -0.040108915 0.027897548 -0.0011613908
0.057357352 -0.2122966 -0.114630885 0.11092868 -0.19232757 0.09404728 0.1318395 0.19667816
0.07866868 0.053230215 0.03219799 0.009498319 -0.2652736 0.14576197 0.1653753 0.06460431
-0.147544 -0.062279575 0.11039468 -0.16000885 -0.13887374 0.041499186 -0.35781005 -0.041611444
0.03367916 -0.277401 0.09680532 -0.103016704 0.34459284 0.023982655 0.15329628 0.2750945
0.38783652 -0.0039837817 -0.009852056 0.09105333 -0.22286727 0.06863675 0.14424293 -0.2441554
-0.24196824 0.10201013 -0.03517235 -0.17764327 0.01988592 -0.122086175 0.0768958 -0.0056496384
-0.0125369765 -0.06973369 0.19338667 -0.0067646885 0.17851007 0.100726806 -0.108277686 0.1052338
-0.33656445 -0.23609766 0.12048886 -0.18852258 0.05287185 0.07912124 0.18102759 -0.077151544
0.041055974 -0.060090393 0.06413169 -0.04360046 0.002277783 0.15518242 0.066720195 -0.18245207
0.2549034 0.11584298 0.311811 -0.21051835 -0.049542617 -0.29306576 0.08103968 0.1953095
0.17233635 0.012449411 0.02050566 -0.0058730724 0.19293392 0.07185603 -0.07048445 -0.21555912
0.037201293 0.09564745 -0.073358566 -0.1808168 0.040156763 -0.2592333 0.20429306 0.2900199
0.24121766 0.02606798 -0.11767753 -0.054182287 -0.06846877 -0.0029220623 -0.1058632 0.012484565
0.013824304 0.09285406 0.13186829 0.03921285 -0.17789377 -0.109101884 -0.2514535 0.19422637
-0.018367665 0.14580062 -0.19393203 0.04131369 -0.0045989947 -0.0052891974 0.14113572 0.13802816
-0.20672621 0.123269156 -0.06929955 -0.06456569 -0.11278476 0.07381992 0.05909986 0.042545024
0.18885362 0.3755323 0.020012569 -0.0865828 -0.052346032 0.0056719957 0.112977855 0.13694279
0.025957007 -0.356431 -0.36859453 -0.21765478 -0.11528796 0.06899164 0.07698968 0.06514989
0.00987722 0.043318797 -0.06944298 0.016927743 -0.28738752 -0.21768573 0.21900448 0.53579867
0.031553075 -0.03817669 0.13493226 -0.116431005 -0.022316532 -0.15774333 0.22014816 0.22988255
0.32310024 -0.066236734 -0.07046189 -0.081271335 -0.0031806328 -0.05808169 -0.19578573 -0.15392524
-0.15602592 -0.14413121 -0.24180514 -0.025537124 0.15231363 0.07450195 0.0007539042 -0.25837684
0.19454484 -0.3358855 0.07204845 -0.10985221 0.040662427 0.39757192 0.06586365 -0.0692453
-0.033174768 0.15365995 -0.21327598 0.17564793 -0.067540504 -0.03481349 0.1806881 0.11023436

decoder.layers.0.bias f4 [32]
00000000: ce91 e93d 3c23 bc3d 94a7 2d3e 2d6b 183e
00000010: ebe7 23bd d1d1 743e 3e79 653e 8e35 b33e
00000020: d73d 843e 58b2 783e 5511 be3d f798 c93c
00000030: ca9d 193d 8c9b b4bd 5d62 663e dddd c03e
00000040: 5a39 cdbd 4b2a e43e 9315 cb3e e19f 2e3e
00000050: acfa 0a3d 3d4c 4c3e 5c34 853e f74d a03e
00000060: 2247 3ebe 81ed 0ebe 505f 8a3c c1ed cd3e
00000070: 6726 723e f7de c53c 916e 9d3e c275 0d3f
0.11404763 0.09186408 0.16958457 0.14884634 -0.040016096 0.23908164 0.22409531 0.35001796
0.2582843 0.24286783 0.092806496 0.024609072 0.037503995 -0.08818731 0.2249846 0.37669268
-0.100207046 0.44563517 0.39664897 0.17053176 0.033930466 0.19950958 0.2601651 0.31309482
-0.18581823 -0.13957788 0.016891152 0.40220454 0.23647462 0.02415417 0.30748418 0.5525781

decoder.layers.2.weight f4 [32, 32]
00000000: b4e8 01bd 6d40 a23e bc88 3ebc dcf5 dc3d
00000010: 8f6e 603e f5fb e43d c5a7 023e 936e 20bd
00000020: cdfe 343e 6db1 43be fc08 143e 27be 3bbe
00000030: 700a 073e 485d 1ebd fc86 37bb 7650 cfbd
00000040: c9b6 cf3d ed7c f13d 0436 debc 0ad9 6a3e
00000050: 9ade 8bbc 6259 743c 74b9 373e 6d72 c8bd
00000060: 5ec5 3ebb 0418 833e a8bd 1e3e 4585 1f3e
00000070: fbf0 093e 6795 34be b9fb 98bc 05bc 0ebd
00000080: 766b 083d b137 c73d 0436 3c3d a298 363d
00000090: f81f 183e ab39 9abd 8ed7 1ebe 587f 1b3e
000000a0: 34d5 04be 0294 783d b28c 5e3d fdf0 3abd
000000b0: 6dd5 843e 7d99 823e a022 acbd 528e 3abd
000000c0: ed94 e9bd 298f 223c 9373 683d 4f84 c4bd
000000d0: 848f f8bc 18ab c53d e931 863d f8d5 9d3d
000000e0: 6385 933e 972e 5a3d 974a 5a3d 9674 c6bc
000000f0: 2ad0 44bb 6fa9 503e 99d4 623d 6b74 2e3d
00000100: db90 85bd 6481 9c3d 4bb4 17bd 7f63 35bc
00000110: 081a 0fbe 446e 263e 7510 cb3d 837f 223e
00000120: 3633 193e 033d 3ebd 8818 ff3d 4fe5 913d
00000130: 0025 b7bd 5d77 f13d 2d22 003e 5a5f ba3d
00000140: a50d c13c 2208 573e 8593 fdba ce9a c7bc
00000150: 882b 05be ff90 f5bc 99f5 81ba 285f 563e
00000160: 9706 d9bd 41ab 163d 621e 803d cb08 0a3e
00000170: 7ad5 413e 637d ccbd 399c bc3c 7ffd b83d
00000180: 476d 96bc 2da4 043e f6d0 afbd 0e30 393e
00000190: ee4b 0d3d 5973 74bd 65db 8b3c 66fe ecbd
000001a0: 143d 29bc fb02 5a3e cac9 d33d ed95 c0bd
000001b0: ff3e 903e 5b06 b13c 6e52 a1bd 6ef7 553d
000001c0: 26e6 583c e2a7 aa3e c697 a9bd 9274 4bbd
000001d0: c99b 8bbd 26fd 2c3e 03ff 993d 0770 cbbc
000001e0: f2ee 523e 920e 3dbe 44c6 363e ebe9 e3bb
000001f0: c9d9 60bc 0f6b 3e3e a395 543e 92cc 623e
00000200: 60e3 733e a7a9 6cbc 7492 79bd 0c6c 1c3d
00000210: 6f9c 2dbe 784f 7a3d fe45 5a3e fe9d 9e3c
00000220: b6d5 7f3d ce08 583e 47ac aa3d 25da a03d
00000230: 553a a3bd 75cc 73bd 69f2 b23e c1f3 963e
00000240: 4e19 14bd 639f 2d3e abde 883e 0579 68bd
00000250: bdee 4abd ac02 553e e803 853d db11 5d3e
00000260: b961 d7bd e10c 5fbe 6228 493c c721 6b3e
00000270: d99e 853d 7b99 783d d26f 563e ef4a 443e
00000280: 9385 7b3d 1a78 123e 0c0f 01bd ad28 db3c
00000290: 09a3 793d d22b 593c 58ab a33d 9cd5 ac3d
000002a0: 1622 94bb baa6 febd eb07 623c a420 82bd
000002b0: 49e9 843e 9195 693c a4c7 7a3d efdb b3bd
000002c0: eb3a d13d 0a05 213c 21e0 c13d 4f46 f43d
000002d0: 40be b1bd a6bc 463e 66d7 683e e1e0 8eba
000002e0: a995 3b3e d016 863d 18ce b6bc fc83 9cbd
000002f0: 0a40 57bc 6665 3dbe 0fa2 453e dfec 453d
00000300: f2c0 a03c da26 4b3e 7d8f d13d 261e 643e
00000310: 8781 713e 91ed 4bbe d2f7 533d 9dc1 89bd
00000320: 35e3 2abe bafe bfbd 4c73 9c3d 680d 2b3e
00000330: 3c70 1b3e 651d 003e 29d7 a13c cd66 e73d
00000340: b62b 463e 1052 413b c222 853d 200d 043e
00000350: 41eb c8bd 00c8 67bc 7ff8 743e 187e f2bc
00000360: 8e63 073e f264 263e 1768 103e 47fa 943d
00000370: 6de2 f2bd 1458 5b3e 4785 bc3d c955 723e
00000380: 1316 3a3e 5193 3a3d 93da 15be fa52 ddbc
00000390: c400 72be 4c00 0e3e 7642 e73d 4e31 433e
000003a0: fc62 32bd 6be3 383e 79f1 473e 5048 8e3d
000003b0: c70b 6dbd f693 803d e62d 433e 183f 543e
000003c0: 4bc1 0cbe 3148 2ebb f01d 373c e8a3 f23b
000003d0: e479 c3bc b14d 4c3d 198d 81bd dafb 793e
000003e0: 890e 40be bcb6 8fbd 2685 08bd 2d25 293e
000003f0: df18 0e3e 0959 963d 3e29 da3d 1eb0 d93d
-0.031716064 0.31689778 -0.01162928 0.107890815 0.21917175 0.111808695 0.12759311 -0.03916795
0.17675324 -0.19110651 0.14456552 -0.18334256 0.13187575 -0.03866318 -0.002800404 -0.101227686
0.101422854 0.11791406 -0.027125366 0.22934356 -0.017073918 0.014913889 0.17941839 -0.0978745
-0.002910934 0.2560426 0.15502036 0.15578182 0.13470833 -0.17635117 -0.018674718 -0.03484728
0.033305608 0.09727419 0.04594995 0.044579156 0.14855945 -0.075305305 -0.15511915 0.15185297
-0.12971956 0.060688026 0.054333396 -0.04563998 0.2594408 0.25507727 -0.08405042 -0.045545883
-0.114053585 0.009921827 0.056750845 -0.09595548 -0.030341871 0.09651774 0.06552488 0.07706827
0.28812703 0.053267088 0.05329379 -0.024225514 -0.0030031302 0.20377134 0.05537853 0.042591494
-0.065217696 0.07641867 -0.037037175 -0.011071085 -0.13974774 0.16253 0.09915248 0.15868954
0.14960942 -0.046444904 0.12455851 0.07123815 -0.08942604 0.11790345 0.12513037 0.09100218
0.023566077 0.20999196 -0.0019346332 -0.024365809 -0.13004887 -0.029976366 -0.0009915113 0.20934737
-0.1059696 0.036784414 0.06255795 0.13479917 0.18929091 -0.09984853 0.023023712 0.090327255
-0.018362654 0.12953253 -0.08584778 0.18084738 0.03449624 -0.059680317 0.017072389 -0.1157196
-0.010329504 0.212902 0.103412226 -0.09403596 0.28173062 0.021609476 -0.0787705 0.05223792
0.013238465 0.3333121 -0.082809016 -0.049671717 -0.06816823 0.16893443 0.07519343 -0.024833692
0.20598963 -0.1846259 0.1784907 -0.0069553754 -0.013723799 0.18595527 0.20760207 0.2214835
0.23817205 -0.014444745 -0.060930684 0.03818898 -0.16954206 0.061110944 0.21315762 0.019362446
0.06245967 0.21097109 0.083336405 0.07854108 -0.0797011 -0.059521157 0.3495057 0.29482844
-0.036156945 0.16955332 0.26732382 -0.05675604 -0.049544085 0.208018 0.06494886 0.21588843
-0.10516686 -0.21782257 0.012277694 0.22962104 0.065244384 0.060693245 0.20941094 0.1916921
0.061406683 0.14303628 -0.03150849 0.026752794 0.060946498 0.0132550765 0.079916656 0.0843918
-0.004520665 -0.12434144 0.013795833 -0.06353882 0.25959232 0.014256851 0.06122555 -0.087821834
0.10216316 0.009827862 0.09466577 0.11927473 -0.086788654 0.19407901 0.22738418 -0.0010900759
0.1831881 0.0654732 -0.02231507 -0.076423615 -0.013137827 -0.18495712 0.19300102 0.0483216
0.019623253 0.1983904 0.10232446 0.22277126 0.23584567 -0.19914843 0.05175001 -0.06726382
-0.16688235 -0.09374757 0.07639179 0.16704333 0.15179533 0.12511213 0.019755917 0.112989046
0.19352612 0.0029498376 0.0650077 0.12895632 -0.09810496 -0.014146805 0.23922919 -0.029601142
0.13221571 0.16249445 0.14102207 0.07274299 -0.118595935 0.21420318 0.09205108 0.23665537
0.18172483 0.045550648 -0.1463416 -0.027017105 -0.23633105 0.13867301 0.11291973 0.19061777
-0.04355143 0.18055503 0.19525708 0.06947386 -0.05787256 0.06278221 0.19060478 0.20727193
-0.1374561 -0.0026593322 0.011176571 0.007404793 -0.023861833 0.04987878 -0.0632574 0.2441248
-0.18755545 -0.07017276 -0.033330105 0.16518088 0.13876675 0.07341201 0.106523976 0.10629295

decoder.layers.2.bias f4 [32]
00000000: a28f f8bd 05ab 033e 9785 243e 63a7 1e3d
00000010: 6837 4e3d 4c05 d3bd 360e b7bd 4b1f 2b3b
00000020: 7ee5 043e de79 21bd 3fef 883d 7a94 7bbd
00000030: ff38 293e ee48 273c e9e3 ca3d d4ad 753e
00000040: 21b6 4a3e 58d2 74bd 179c 873e 6798 b63e
00000050: 2681 59bc 8274 273e fb74 703e 9e10 5e3e
00000060: 2ffc 2dbe edba ce3d 3638 963e a7db 5d3e
00000070: dbfe d93d 2f3c 45bc 9627 f9ba 60b9 22bd
-0.12136771 0.12858208 0.16066585 0.03873385 0.05034581 -0.10303745 -0.089382574 0.0026111181
0.1297817 -0.039422862 0.066862576 -0.061420895 0.16525649 0.010210259 0.09906752 0.23992091
0.19796039 -0.059770912 0.26486275 0.3566315 -0.01327542 0.16353038 0.23482125 0.21686026
-0.16990732 0.10094247 0.2933976 0.21665822 0.10644313 -0.012038275 -0.001900899 -0.03972757

decoder.layers.4.weight f4 [24, 32]
00000000: a390 e83d d5b8 92bd ecc4 a93d 8812 b6bd
00000010: 97ff e03b 0b73 cf3c b576 a7bd 6e6e 863b
00000020: 1db2 d4bc 6a7c efbc 2b71 a9bc f20c 003d
00000030: 8efa 563d d12a 893c 52b2 3c3d a53a 9e3d
00000040: 0689 ccbd 1315 2d3d 683f 323d bd4e bfbd
00000050: c298 0f3d 5590 fbbd 65c0 c93c 201c f5bc
00000060: 4506 c23c 35e0 3fbd 1ad1 603d c621 db3c
00000070: cb0c ad3c 8584 8637 8195 9c3d c699 223d
00000080: 2dce 53bd af24 583d eb92 d43d b74d adbd
00000090: 3f43 823d b001 633d 0f06 dc3b 0db7 24be
000000a0: 8b3a 0dbe 0f3c d53c 0edb 143c 11b7 d6bd
000000b0: f433 5c3d 177a 9e3d 4c46 8b3d d12b 673d
000000c0: 4a7c d53d f125 ecb9 ca82 ec3a 4d82 1bbd
000000d0: bc56 183e 3df3 c9bd d1bd e13d 4c87 2a3d
000000e0: 74f1 41bd 677a 8bbd 0385 093c 6d66 62bd
000000f0: 5061 423a 814f 5fb7 f0ff 0c3d da9f 1dbe
00000100: 6cc2 023d 85b5 e33d 3839 34bd 3032 a9bd
00000110: 5095 7abd 9e59 23bd 6e57 d43d a0ba d03c
00000120: 15d1 c53d c45d d1bd 949b 0f3d 2074 9abd
00000130: 2034 e63d 6693 b0bc dd01 9abc 4e31 b93d
00000140: 4cb2 6139 5c31 213e 99ab b3bb 6ca0 1dbd
00000150: 792f d7ba bf5d 0cbe e207 163e 53f1 90bc
00000160: 18f7 4abd 6548 18bc 4ace 153d e633 44bc
00000170: ea3c c23c 3bdb d9b1 9ded 23bd 2a2e 72bc
00000180: 09a1 8b3d 5d81 72bc aa3a 863c d511 133d
00000190: c37d c0bd 2f9e 403c fcc0 9ebd bd7e 18bd
000001a0: a036 4abc 1040 1f3d 3b85 e4bd 3287 fcbc
000001b0: e361 fa3d 32ee 5c3d 9d1a 40bd 674b e8bc
000001c0: cf11 0b3c bc5b acbd 62db 46bc 8b75 1d3d
000001d0: 646c 73bd 43eb 0dbe 2728 013e aa8e 143d
000001e0: 20d3 963d d367 b83d c948 fa3d 06c1 19bd
000001f0: 2abc 8fbc 36ff 0dbc 4bcf 3e3d f01d a73d
00000200: 119b 493d 97ab 403d 4145 38bd b968 603d
00000210: 5397 b7bd 2245 9cbd 8110 da3c 257b a9bc
00000220: 6744 883d bd1d 6e3c ee77 b5bc b20e 59bd
00000230: bfd0 cdbd d03d 13be 8d84 d23b f3ce 2b3d
00000240: 3c27 d83d 96f2 193e a356 733d d574 9dbd
00000250: 2525 13bd 9be4 0bbc b934 a43d 304d 503d
00000260: 178d 3fbd b46a 923d f2a8 543d c71d 8abd
00000270: 26d1 10bd 2375 f33a aad7 fbbd e682 c83d
00000280: a234 c73d 516e ecbd 3570 2abd b2c7 173d
00000290: f6d4 adbd b04b d7bd ffbd 2cbc 169c 0fbd
000002a0: a120 063e 661e 35bd e90d c73d 2d15 b3bc
000002b0: 380f 913d 377a 55bd 195f 563d 2edc d4bd
000002c0: 9284 073e 9a41 063e 5be0 95bd c9a3 8fbd
000002d0: e5bc a2bd 3c1e 7ebd 92c2 87bd dae0 1c3d
000002e0: cb36 5ebb d4c7 bd3c 4079 293e dd2e f2bd
000002f0: 5dee abbd 2932 f5bb 8131 8a3d 9c72 a23d
00000300: 68e1 1ebd ecf5 84bd d2da 05be eeb4 893c
00000310: 6bce 16be b052 033e 28e5 ddbb 399d fb3b
00000320: 9b9b aabd 1bb0 2a3d 49e4 f1bd f3b6 dd3c
00000330: bc0b e4bd 078c 9a3d 5bb1 cabb ba40 e8bd
00000340: ea52 8c3d 8bbc 8cbd 59e5 283e 0d5e 8bbc
00000350: 975b b33d 06ee fe3d 585f 363c ab15 393c
00000360: f876 953d e44a 223c f6bc e7bc 50fe 073e
00000370: 2edc a83c 5201 c9b0 15f1 40bd eff1 9e3d
00000380: c533 e43d cd0e 433c ef20 38be 45cc 9ebd
00000390: 23c3 93bd 526b 013d fb44 54bd a691 ef3d
000003a0: f96c 1f3d 254c 8bbc 0958 bdbd e64f d03d
000003b0: e0d5 383d 7687 d83d 9e1f 3fbb 9f5c 20be
000003c0: d064 78bd 2273 e03d 4d6b f23d bc31 683d
000003d0: 3e4c 10be 8f5c b23d 1edb 123c aaed debd
000003e0: 9500 99bd 4709 1bbe 761f eb3d 4fea 12be
000003f0: b3e1 31bd ff00 74b9 a535 2abb 7e4e b33d
0.11355712 -0.0716416 0.08289513 -0.08890253 0.006866406 0.025323411 -0.081769384 0.0041025197
-0.025963837 -0.02923413 -0.020683846 0.031262346 0.05248504 0.01674405 0.046068497 0.07726029
-0.09987073 0.042256426 0.0435175 -0.0934119 0.03505779 -0.122833885 0.024627874 -0.029920638
0.02368463 -0.04684468 0.054886915 0.026749503 0.021124264 1.6035754e-05 0.07645703 0.03969743
-0.051710296 0.05276936 0.10379585 -0.084620886 0.063604824 0.05542153 0.0067145894 -0.16085453
-0.13791864 0.026029615 0.00908543 -0.10484136 0.053760484 0.077381305 0.068005174 0.05643827
0.10424097 -0.00045041696 0.0018044349 -0.03796606 0.14876837 -0.09860847 0.11022533 0.041632935
-0.04734941 -0.06810456 0.008393529 -0.055273462 0.00074150134 -1.3310347e-05 0.03442377 -0.1539301
0.031923696 0.111186065 -0.04399988 -0.08261526 -0.06117755 -0.039880387 0.103682384 0.025479615
0.0965902 -0.102229625 0.03506048 -0.0754168 0.11240411 -0.02155466 -0.018799717 0.09042607
0.00021524093 0.15741485 -0.0054831025 -0.03848307 -0.0016417346 -0.13707636 0.14651445 -0.017693197
-0.049552053 -0.009294604 0.036573686 -0.011975264 0.023710687 -6.340455e-09 -0.040021528 -0.014781514
0.068178244 -0.01480135 0.016385395 0.035905678 -0.09398987 0.011756464 -0.077516526 -0.037230242
-0.012342125 0.038879454 -0.11158224 -0.030826185 0.12225702 0.0539381 -0.04690038 -0.028356267
0.008488133 -0.084159344 -0.012137266 0.038442176 -0.05942954 -0.13859276 0.12612973 0.036268868
0.07364488 0.09004178 0.12220914 -0.037537597 -0.017545778 -0.008666804 0.04658441 0.08160007
0.04922015 0.04703864 -0.04498792 0.05478737 -0.0896441 -0.076303735 0.026619198 -0.020688603
0.06653672 0.014533457 -0.022151913 -0.05299253 -0.10049581 -0.14379048 0.0064244927 0.04194541
0.10554358 0.15033945 0.059408795 -0.076882996 -0.035924096 -0.0085383905 0.080178685 0.05085486
-0.046765413 0.07149258 0.05191893 -0.06743961 -0.03535571 0.0018574338 -0.12296994 0.09790592
0.09726836 -0.11544479 -0.041610915 0.03705568 -0.08487885 -0.10512483 -0.0105433455 -0.035060965
0.13098384 -0.044218443 0.0971945 -0.021860683 0.07082981 -0.052118506 0.052336786 -0.103935584
0.13234165 0.13110963 -0.07318183 -0.070136614 -0.07946185 -0.062040552 -0.06628908 0.038300373
-0.003390717 0.023166575 0.1655016 -0.11825345 -0.083950736 -0.007482786 0.06747723 0.07932016
-0.038789183 -0.064922184 -0.13071755 0.016809907 -0.1472718 0.12824512 -0.0067717023 0.0076786545
-0.08330461 0.041671854 -0.1181112 0.027064776 -0.11135051 0.07546239 -0.006185693 -0.113404706
0.06851752 -0.06871899 0.16493739 -0.01701262 0.08757704 0.12447743 0.01113113 0.01129667
0.07298082 0.009905551 -0.028288346 0.13280606 0.020612802 -1.462505e-09 -0.047104914 0.07760989
0.11142687 0.011905384 -0.17981313 -0.07753805 -0.07214954 0.03159649 -0.051823597 0.11697702
0.038922284 -0.017004082 -0.09245307 0.101714894 0.045125842 0.10572712 -0.0029163132 -0.15660332
-0.060643017 0.1095946 0.11836872 0.056688055 -0.14091584 0.087090604 0.008963374 -0.108851746
-0.07470814 -0.15140258 0.1148061 -0.14347194 -0.043428134 -0.00023270024 -0.0025971916 0.087552056

decoder.layers.4.bias f4 [24]
00000000: f759 8c3d bd4c fbbd 31cb c4bd 1133 4abd
00000010: bb69 cebd c075 273c 65bf 883d e43d c03d
00000020: 89c5 0c3d 696b 92bd cf05 87bd bf57 b2bd
00000030: 93d4 cebd 8062 e43d 98fc babd d0ca d1bd
00000040: 4ceb 8a3d 19cf f4bd fdeb 913d 3f21 443d
00000050: da6e 0ebe b937 b3bd bb0c 183d d567 4ebe
0.06853097 -0.12270496 -0.09609068 -0.049365107 -0.1007876 0.010220945 0.066771306 0.09386805
0.03436807 -0.07149393 -0.06592905 -0.087081425 -0.10099139 0.111516 -0.0913021 -0.102437615
0.067831606 -0.11953563 0.07125089 0.04788327 -0.13909474 -0.08750863 0.037121516 -0.20156796

prior_network.layers.0.weight f4 [32, 11]
00000000: 2efc 0e3e 1353 27bd 9a34 7d3c 8398 e1bc
00000010: 8a3c 50bc 576c 3a3d 9dc9 a6bc 5f80 24be
00000020: f063 48be f79a c4bd a2a7 51be eb65 943d
00000030: cde3 063e ff12 afbe 2803 63be 58a3 213e
00000040: f837 4e3a 152e cebd b7a6 f53d 721d 80bd
00000050: 1241 1ebd 1048 92bd 3188 ecbb 1861 c73c
00000060: 9a4d 85be 35c6 af3e d07d 1fbe 2d92 493d
00000070: 016c fcbb c4cf a93d 80b0 14be 0477 113d
00000080: c1db 983c 23c9 943d 5e17 4b3e fcc0 4ebe
00000090: e7b5 433b 254b 2b3c 7d2e 0cbe 4213 a0bb
000000a0: d0b3 1b3e 3d94 a3bd e832 ea3c 28c5 b7bc
000000b0: 351e 1d3e b12f 603d a7d4 d23c c8f7 a5bd
000000c0: bdb9 03be 4e01 d03c 4358 b2ba 7bf6 1bbe
000000d0: 73c8 57bc a34e babd 53a7 afbd d556 873c
000000e0: 1c5e a9bc c084 8bbd dd06 8b3c bb8f a7bd
000000f0: a39a 8b3d b602 503b 773b 2ebe 88e6 2a3e
00000100: bdf9 c03d cdd9 1cbd 3dc1 81bc ed26 fd3d
00000110: d9d0 ba3e 7eb9 173e 0d16 a83d f6a9 2bbe
00000120: 28df c53c 5083 0dbe cfc9 16be 1e65 f23c
00000130: 70e0 16bc 7c68 9a3e 1169 783d 4b58 323d
00000140: bc94 79bc fc98 94bd 7c14 493e f77b 7b3d
00000150: ee3c 1ebe d69a 3ebe d1fd ed3c 95ca 91bc
00000160: f8ca 2c3c 7f56 b13d c2bd 05be 743f 9a3e
00000170: 82a4 623e 9c62 dfbd 97ff af3b 7eb8 a5bc
00000180: e92e a8bc 39fd 08bd 505e 903d 772f 5a3c
00000190: b911 0c3e 1213 72bd 80c4 03be 6e63 acbd
000001a0: dde8 04bc e1ca b83b dac5 52bd cf72 603e
000001b0: 9011 853e 4922 253e 6c9b c9bb 8edb 4ebc
000001c0: d841 093e b14a 6ebe ee93 113c b662 0cbd
000001d0: bb0c 13bd b583 cebd f8af d2bd dbf9 eebd
000001e0: e4eb 253e c41f 87be ebaf 383d 6f0b 603e
000001f0: 9aba efbd ca8e 89bc 7ff5 aebd 3f20 be3d
00000200: ecb8 ab3d fdd7 d13d 430e ce3c 7a0e 823d
00000210: e0a3 f9bd 110c 1e3d cea8 85bc eaeb f63c
00000220: c7fa 303c b31e eabd 94ee 023e b154 543c
00000230: af86 6ebb 3c92 be3c cc22 5bbd 0d53 06bb
00000240: 86cb 053d b3ba 7e3e 7ceb b6be bdee 97bd
00000250: ec29 f13d 0c28 94bc 5f31 39bd ea03 513e
00000260: 6c2a 20be 6143 7f3c 2d73 e13d af31 343e
00000270: 79c6 e63c 1993 e73d 0cde 75bd 7963 433e
00000280: 5104 213e 5a05 45bd 9e78 bfbd 435e 093e
00000290: d5ce 27be 7f95 30be 3f27 553e 1ce7 de3b
000002a0: 0c1c 86bd ad07 4bbd 180f 03bd 0eee 8ebd
000002b0: 7ea8 183d c7e8 f5bc 27a1 13bd 1184 4e3d
000002c0: 3baf 43bd 2ff0 123e 7353 d03d 5470 75bd
000002d0: 9518 d33d aa00 993c 2f87 54bd 84ff 423e
000002e0: 8a92 103e ab3a 463e 545e 153e 7e93 b83d
000002f0: 7feb 72bd bee2 f13d 8177 90be 2413 ec3c
00000300: ad7c b33e 1791 2a3d 7406 5c3d b043 84bd
00000310: e7e1 bc3d 642f e5bd c8b5 9abb eaed 713d
00000320: ec7f d23c 64da 5fbd 83fc 563c 0405 463e
00000330: 1225 21bc 9d02 b13d 7263 003e bf35 263d
00000340: 69b5 003d 3bc1 e33b 925d 3c3e c065 68be
00000350: 37d5 be3e 3f1f ecbd b2d3 143c 3943 13bd
00000360: f63a 73bd 2528 be3d 67a7 7d3d d722 a5bd
00000370: 859a 7abd e532 f23b 729f ca3d 10d4 ae3e
00000380: 0c28 a3bc 1404 f93b 0003 943c 3c9d bb3d
00000390: ab44 553d 7ee1 b0bd 3729 15be 73ee 903b
000003a0: 81eb 293d 6ac9 8e3e 0818 9fbe 603f d73d
000003b0: 06dd 4f3c ff5b 633b 6210 edbd 3809 4e3d
000003c0: f249 383d af72 ef3c 8748 523e b464 ff3d
000003d0: df19 b43b fced a03c 459d 52bc 93e7 233e
000003e0: 866d 203e 4b7b 24be 1c4c 923d 68b7 38bd
000003f0: 1d6c 90bd 9f50 a33d 397f 42ba 5f6c 12be
0.13963386 -0.04085071 0.015454436 -0.027538544 -0.012709746 0.045513477 -0.020359809 -0.16064595
-0.19569373 -0.0959987 -0.20474103 0.07246002 0.13172837 -0.3419418 -0.22169173 0.15784967
0.00078666164 -0.10067383 0.11994689 -0.06255616 -0.038636275 -0.07142651 -0.0072183837 0.02433829
-0.26035768 0.34330907 -0.15575337 0.04921167 -0.0077033048 0.08291581 -0.14520454 0.035513893
0.018659474 0.07264926 0.19833133 -0.20190805 0.002986306 0.010454928 -0.13689609 -0.004885108
0.15205312 -0.079872586 0.028588727 -0.022432879 0.15343554 0.054732982 0.025736166 -0.08103901
-0.12863822 0.025391247 -0.0013606626 -0.15230744 -0.013170349 -0.0909703 -0.085768364 0.016520897
-0.020674758 -0.068124294 0.016971046 -0.08181711 0.06816604 0.0031739897 -0.17014872 0.16689503
0.09422634 -0.03829365 -0.015839214 0.1236094 0.36487463 0.14816853 0.08207331 -0.16764054
0.02415426 -0.13819623 -0.14725421 0.029589232 -0.0092087835 0.3015784 0.060647074 0.043541234
-0.015233215 -0.07255742 0.1963672 0.06139752 -0.1545293 -0.18613753 0.029051693 -0.017796794
0.010546438 0.08659076 -0.13060668 0.30126536 0.22133067 -0.1090748 0.005371045 -0.020229574
-0.020530181 -0.033444617 0.07049239 0.013316981 0.13678636 -0.059100218 -0.12867928 -0.08417402
-0.00811216 0.0056394194 -0.051458217 0.21918796 0.25989962 0.1612636 -0.006152561 -0.012625588
0.13404024 -0.2327068 0.008885367 -0.034273826 -0.035900813 -0.10083715 -0.102874696 -0.1166875
0.16203266 -0.26391423 0.045089643 0.21879362 -0.11705513 -0.01679172 -0.085429184 0.09283494
0.083848804 0.102462746 0.025153285 0.063504174 -0.1218946 0.038585726 -0.016315844 0.03014179
0.0108019775 -0.11431637 0.12786323 0.012959645 -0.0036396196 0.02326309 -0.05349998 -0.002049628
0.0326648 0.24875908 -0.35726535 -0.074185826 0.11775574 -0.018085502 -0.0452131 0.2041165
-0.15641183 0.015580029 0.11008296 0.17597078 0.028170811 0.113073535 -0.060026214 0.19080915
0.15724303 -0.048100807 -0.09349178 0.13414864 -0.16387494 -0.17244528 0.20815752 0.0068024527
-0.06548318 -0.049567867 -0.031996816 -0.06978999 0.03727006 -0.030018223 -0.03604236 0.050418917
-0.047774535 0.14349435 0.10172167 -0.059921578 0.10307423 0.018677074 -0.051886734 0.19042784
0.141184 0.19358318 0.14586765 0.09012507 -0.059306618 0.11810826 -0.28216174 0.02881772
0.35056058 0.041642275 0.05371709 -0.06458223 0.09222775 -0.1119068 -0.004721377 0.059064783
0.025695764 -0.054651633 0.013121727 0.19337851 -0.009835498 0.086430766 0.12537935 0.0405786
0.031423006 0.006950525 0.18395069 -0.22695065 0.37272045 -0.11529397 0.009083675 -0.03595278
-0.0593824 0.09285001 0.061927225 -0.08063286 -0.061182518 0.007391321 0.09893693 0.34146166
-0.019916557 0.007599363 0.018067837 0.091608495 0.05206744 -0.08636759 -0.14566503 0.0044229566
0.04148436 0.27888042 -0.31073022 0.10510135 0.012686973 0.0034692285 -0.115753904 0.05030176
0.044992395 0.02922949 0.2053548 0.124703795 0.005496248 0.01964473 -0.012854879 0.16006307
0.1566678 -0.16062658 0.07143423 -0.045096785 -0.07051871 0.07974362 -0.00074194703 -0.14299153

prior_network.layers.0.bias f4 [32]
00000000: dfb8 e43b 1f28 65bd 0916 41bb a06f 943b
00000010: eeeb 6b3d cbed f33e 11a9 e7bc e8e4 0c3e
00000020: 9570 f3bc 9a1a 7fbd 95e1 00bc 0d17 18be
00000030: 7fd5 ac3e 5f2a f9bc c698 95bd f76b a53e
00000040: da70 e23e d2d1 0dbe 39f6 943e b34f 85bd
00000050: 462a 0dbc ba2e c4bc e830 e5bd f147 02bd
00000060: bfe6 acbd 2049 d33e 7de4 3f3c 6522 b03c
00000070: 4e09 f63d f065 593e b7a0 303e 72f2 4d3e
0.006980046 -0.055946466 -0.0029462597 0.0045299083 0.057598047 0.4764236 -0.02827886 0.13759196
-0.02971677 -0.06228123 -0.007866283 -0.14852543 0.33756635 -0.030415712 -0.0730453 0.32308933
0.44226724 -0.13849571 0.29094103 -0.06509342 -0.008616036 -0.023948062 -0.11190969 -0.03180689
-0.08442449 0.41266727 0.011712191 0.021500776 0.120134935 0.21230292 0.17248808 0.20112017
