m4_ws/src/morphing_lander/learned_models/2024-05-15_17-38-22/model_20.pth (torch, 33518 bytes, 22 tensors)

cond_normalizer.mean f4 [11]
000000 f3 8d b5 bf 99 0a fa bc 84 cf f8 b9 aa 6f 45 3a
       -1.4183944 -0.030522631 -0.00047456857 0.0007531593
000010 98 45 d7 3c 62 14 83 ba de 3a dd bb 64 d1 07 3f
       0.026278302 -0.0010000581 -0.0067514023 0.5305388
000020 08 59 0a 3f 3e d2 07 3f fb 36 0a 3f
       0.540421 0.5305518 0.53990144

cond_normalizer.variance f4 [11]
000000 47 4c e9 3f 66 80 b3 3b dc ba a7 3a 1e 95 07 3b
       1.8226403 0.005477953 0.0012796777 0.0020688246
000010 0c 40 2d 3d da e9 38 3d fe a5 d3 3e b2 99 7c 3c
       0.042297408 0.045144893 0.4133758 0.015417503
000020 16 eb 92 3c 91 76 82 3c ee 67 90 3c
       0.017934363 0.015925677 0.017627683

output_normalizer.mean f4 [12]
000000 d0 39 85 bb 3b b1 37 bb 2f b6 6e 3c 28 01 23 b8
       -0.0040657297 -0.0028029222 0.014569803 -3.8863305e-05
000010 99 ce 60 3b 08 db 57 3a 8a 94 fa 3b 6b 37 12 3c
       0.003430283 0.00082342373 0.007647102 0.0089243455
000020 09 43 45 40 cb ac 3a 3c d8 ee 1b 3f 3b 4d d7 3a
       3.0822165 0.011393736 0.6091132 0.0016426215

output_normalizer.variance f4 [12]
000000 6e 0d f5 3d 72 6d 8e 3d d2 4a 28 3e 55 5b 24 3a
       0.11965452 0.06954469 0.16434792 0.0006269713
000010 bb 21 67 3c 91 dc 8a 3c 0a a0 9c 3e ea dc 0a 3f
       0.014107163 0.016950877 0.3059085 0.5424334
000020 64 7d 72 42 72 66 ef 41 14 33 e3 40 cd 54 18 3f
       60.62245 29.925022 7.099985 0.59504396

encoder.layers.0.weight f4 [32, 23]
000000 01 a0 da 3d db b9 b5 3c 5e 56 0e 3c 68 1f fc bc
       0.106750496 0.02218335 0.008687584 -0.030776694
000010 7c 8b b5 bd 7d 40 88 bc a2 0b cd bc 1b dd 8e 3d
       -0.08864495 -0.016632313 -0.025029961 0.06975766
000020 42 e2 7c bc b3 6d 2f 3e f1 80 06 3e 6c 17 2a 3d
       -0.015434803 0.1713169 0.13135125 0.041526243
000030 f8 e1 8f 3d 37 70 c9 3d 9d e8 00 3e a2 0e ca 3d
       0.07025522 0.098358564 0.12588735 0.09866072
000040 fd 64 74 3d ae 47 5d 3d bc be 8e bd 99 6b 9a bd
       0.059666622 0.054023437 -0.069699734 -0.07540054
000050 19 6c 08 be ac 2c be bd 64 36 ff 3d 6c 5a 5e 3d
       -0.13322486 -0.09285864 0.12461546 0.05428545
000060 47 23 d1 bc fc 15 83 3d ff 6c 83 bd d2 98 ae bd
       -0.025529517 0.064006776 -0.06417274 -0.08525242
000070 aa 70 93 bd 46 91 18 3e 6f f4 f6 bd 17 77 63 3d
       -0.07199223 0.14899167 -0.12058341 0.055533495
000080 dc e6 03 bc a2 dc f4 3c 29 11 0a be 8a b6 e6 39
       -0.008050647 0.029890362 -0.13483109 0.0004400502
000090 c0 b3 d6 3d a3 93 e4 3d db 7d e0 bd 96 59 e2 3d
       0.10483503 0.11160972 -0.10961505 0.110522434
0000a0 f8 32 0e 3e b5 b0 4f 3d ef f2 bb 3d 03 32 cc bd
       0.1388663 0.05070563 0.09177195 -0.099704765
0000b0 02 a7 08 3e a3 2d a2 3c 99 8d d3 bc 43 5b b7 3d
       0.13344958 0.019797152 -0.025824355 0.08952954
0000c0 c2 86 d4 3d 2a c5 3f 3d 17 67 5a 3d 33 97 c0 3b
       0.103772655 0.04681889 0.05332097 0.0058773994
0000d0 33 8f 23 3e 54 1b 48 3e 76 88 a0 bd dc 0c d6 bd
       0.15972595 0.19541675 -0.07838528 -0.104516715
0000e0 09 db eb bc f3 bf 89 bc 85 a2 e8 3c 75 68 55 3c
       -0.028790968 -0.016815161 0.028397808 0.013025393
0000f0 72 1d 9b 3d 97 02 7c 3d 7f d5 7c bd 98 11 f5 bd
       0.075739756 0.061525907 -0.061727043 -0.11966246
000100 6a f6 a6 bd 20 92 58 bd 12 d4 36 3d fa 16 c0 3c
       -0.081524685 -0.05287373 0.04463584 0.023448456
000110 a7 6a dd 3d f0 b6 eb 3d 3e 12 a4 bd 37 7d e2 bc
       0.10811358 0.11509502 -0.08011292 -0.027647598
000120 97 a7 b0 3b f9 f6 3e 3c 8d 41 1d 3d ae d3 d2 3d
       0.005391072 0.011655563 0.038392592 0.10294281
000130 0a 8f 69 bd 78 d0 e5 bd 0e a9 35 be 0c cc af 3d
       -0.05702118 -0.11221403 -0.1774027 0.08583841
000140 d6 b9 2a 3e f6 84 be 3d fe 06 04 3e dc df 6a bd
       0.16672453 0.09302704 0.12893292 -0.057342395
000150 76 bb f7 bd f6 34 9a 3d cb 04 75 3d de 2b bc bd
       -0.12096302 0.07529633 0.059819024 -0.091880545
000160 d6 61 95 3c 5b 90 04 3d b0 71 c4 bd e9 26 26 bd
       0.018235128 0.03236423 -0.09591997 -0.04056445
000170 dd 12 ae 3d e3 39 81 3d b2 82 06 3e 43 e6 45 3d
       0.08499692 0.06309869 0.13135794 0.048315298
000180 3f 31 37 bd 28 ee 09 be 2c 14 17 bd a0 73 1c 3e
       -0.0447247 -0.13469756 -0.03688447 0.15278482
000190 00 7c 1f 3d 27 4f 0b be 9f 29 12 be 48 af e4 3c
       0.038936615 -0.13604413 -0.1427369 0.027915612
0001a0 46 7f ab 3c f4 67 36 3d ae 28 6f bd 0e 75 38 ba
       0.020934712 0.04453273 -0.058388405 -0.00070364855
0001b0 78 d8 80 3d 07 9d fe 3d b7 db 5c bc 11 9b 8f bd
       0.06291288 0.12432294 -0.0134801185 -0.070119984
0001c0 a1 f4 a7 bd b9 af cc bc 69 2a 45 bc 1a e2 2c 3b
       -0.08200956 -0.024986135 -0.012034037 0.0026379884
0001d0 58 f5 e2 bc b8 61 99 3d c5 6a 66 3d f8 06 43 3e
       -0.02770488 0.074893415 0.056254167 0.19045627
0001e0 2e 9f 30 be 1d 5e 0c be ce d9 2b 3e 5b 58 07 3e
       -0.17248222 -0.13707776 0.16782305 0.13217299
0001f0 cd 2c d2 bc 12 1a 12 3d 42 c8 c2 bc bf c2 88 3d
       -0.025656128 0.035669394 -0.023777131 0.0667777
000200 1d f8 2e bc 2b fd fe bd 8c 14 08 be ea 5e 74 3d
       -0.010679272 -0.12450632 -0.13289088 0.05966083
000210 36 2d 0c 3d 80 ec e8 3d 79 64 dd ba a7 ab c0 3c
       0.034222804 0.11373234 -0.0016890905 0.02351935
000220 8d 76 11 3d e1 50 13 3e a7 09 a2 3c 46 cd b2 3d
       0.03551345 0.14386322 0.019779993 0.08730559
000230 aa f5 d3 3d db 61 0a 3e d6 24 29 bc 44 eb 2f 3d
       0.10349591 0.13513891 -0.010323724 0.042948976
000240 d9 25 b3 3c af ad 3a be 0a 6b 61 3d 46 66 27 3d
       0.021868633 -0.18230318 0.05503372 0.04086902
000250 e1 ba 95 bd ef cf 2b be aa 03 58 3a db 21 b6 3d
       -0.07311035 -0.16778539 0.0008240292 0.08893176
000260 75 82 99 bd 1b 12 00 3e 13 2c 61 3c 71 47 a1 bc
       -0.07495586 0.12506907 0.013743418 -0.019687386
000270 59 90 bc bd 10 d9 9f bc e4 5a ee 3d d9 57 4f bd
       -0.0920722 -0.019512683 0.1163843 -0.050620887
000280 c0 ed f5 3d 69 a7 7f 3d 9a 1b f4 3d c3 2a b7 bd
       0.12008238 0.062415514 0.11919327 -0.08943703
000290 5a 00 2e be a7 37 0e be a1 c7 0d 3e 2f 51 2f 3e
       -0.16992322 -0.13888417 0.13845684 0.17120813
0002a0 34 c4 12 be 35 af 12 3c b2 43 15 be 02 2d 3a be
       -0.14332658 0.008952905 -0.14576605 -0.18181232
0002b0 9a 87 ef bd bc 3f 0c be 2d 8e 66 bd 27 ea 48 3e
       -0.11695786 -0.13696188 -0.056287933 0.19620572
0002c0 03 fd 9c bd bd 25 da 3c c0 c0 1e be e9 34 de bc
       -0.07665446 0.026629323 -0.15503216 -0.027124839
0002d0 23 39 b9 bb f0 98 8a 3d 7a 09 ae bc 45 75 e8 bd
       -0.005652563 0.06767452 -0.021244753 -0.113504924
0002e0 b0 b5 8d bd e7 5e 47 bc 5d 45 f2 3c f2 69 f2 bd
       -0.0691942 -0.012168623 0.02957409 -0.11836614
0002f0 50 cf 8e 3d b7 09 4b be 84 98 3e be fe 62 06 be
       0.069731355 -0.19827925 -0.18612868 -0.131237
000300 4f 3d 68 3c b7 54 06 3e b0 a1 95 3d af ad cb bd
       0.014174773 0.13118254 0.0730623 -0.09945237
000310 7e c1 b8 3d 11 9d 0a bc 42 54 b9 bd 40 a3 60 bb
       0.09021281 -0.008460299 -0.09049274 -0.0034276992
000320 2e 3d 68 3d 44 19 27 3d e1 04 c5 3d b7 f9 22 3d
       0.05669897 0.04079558 0.09620071 0.039788928
000330 e6 5c ec 3d 85 4f 05 be 59 83 71 bc 29 3a 27 3c
       0.115411565 -0.13018616 -0.014740788 0.010206738
000340 40 fb 94 3c 94 cb 84 3d 0e 8b c1 3c 66 cc cf bd
       0.018186212 0.06484142 0.023625877 -0.10146408
000350 a7 8e 02 be 56 0b c1 bd 13 24 a6 3d 6b a8 64 bd
       -0.1274973 -0.0942599 0.08112349 -0.05582468
000360 35 d3 86 3d d8 69 f6 3d b9 9e b6 3d 2f 85 88 bc
       0.06583253 0.12031907 0.08916993 -0.01666507
000370 72 bb 3d bd b0 70 32 3d cc f0 28 3e 07 d8 14 bd
       -0.04632134 0.0435645 0.16498107 -0.036338832
000380 5b 53 3a 3d b6 75 04 bb 2c 87 f6 bd a9 6b 09 bd
       0.04548965 -0.0020211763 -0.12037501 -0.03354994
000390 18 49 b1 39 e7 79 74 3d 50 83 a4 bd fe 37 0f 3e
       0.0003381453 0.059686568 -0.08032858 0.13986203
0003a0 69 e6 0e be 45 39 a1 bd 4a af b6 3c 19 34 08 3e
       -0.13955082 -0.078722514 0.022300381 0.13301124
0003b0 c9 1e 63 bd bf e7 4b 3e 61 8a 49 3c 2a 71 4f 3d
       -0.05544928 0.19912623 0.0123010585 0.05064503
0003c0 ed bc 16 be ea bd 57 bd 44 f7 fa 3d 71 af 88 bb
       -0.14720507 -0.05267135 0.122541934 -0.004171305
0003d0 16 71 78 bd 0a 87 ca 3c 0c d1 2a be 50 70 cc bd
       -0.060654722 0.024722595 -0.16681308 -0.099823594
0003e0 d7 fd 21 bd df ca 88 3d 1d b0 61 3c 79 c5 b7 bd
       -0.03954872 0.066793196 0.013774899 -0.08973212
0003f0 7b 7b d3 3c 0e f8 e9 3d be d9 88 bd bc 86 02 3e
       0.025815716 0.11424266 -0.06682156 0.1274671

encoder.layers.0.bias f4 [32]
000000 63 06 44 3d 68 ec ef 3d 4b cd 7d 3d 83 e3 26 3e
       0.047857653 0.11715013 0.06196336 0.16297726
000010 aa 26 2a 3e 25 33 bb bd f1 15 02 bd cb 12 b7 3d
       0.16616312 -0.091406144 -0.031759206 0.08939131
000020 68 9a 13 be df 1e 8d bd f3 05 05 3d 29 48 74 3d
       -0.1441437 -0.06890654 0.032476377 0.05963913
000030 71 e4 c2 3d 4a 1f d2 bd b4 6e 27 be ac 3e 37 bd
       0.09516228 -0.10259874 -0.16350824 -0.044737503
000040 71 c2 12 3e 91 3b 23 3e 48 a8 b9 bd 98 05 0c 3c
       0.14331986 0.15940692 -0.090653 0.0085462555
000050 4e 2c 97 bd b8 80 f1 3d ea 27 b6 ba 7e 14 23 3c
       -0.07381497 0.11792129 -0.0013897393 0.009953616
000060 3f 9b 8f 3d 54 f1 28 bc 2f fc 02 3e 67 e1 d0 bd
       0.07012033 -0.010311443 0.12791513 -0.10199242
000070 d5 98 09 3e e6 ec e7 bd 96 22 39 3d e1 64 2a 3d
       0.13437207 -0.11324482 0.045199 0.041600112

encoder.layers.2.weight f4 [32, 32]
000000 1a 26 19 3d 2a e9 8f bd 36 53 60 3d e3 10 2b be
       0.037389852 -0.070268944 0.054766856 -0.1670566
000010 fb ad 61 3b 7a a3 91 3d c8 e2 1e bc 34 99 31 bd
       0.0034435976 0.07111259 -0.009697624 -0.043358997
000020 13 0c 9c 3d ab 32 ef bc ee eb af 3d 62 bb 57 bd
       0.076194905 -0.029198965 0.08589922 -0.052668937
000030 79 97 a3 bd 57 43 25 be cb fa 0a be a6 84 54 bc
       -0.079878755 -0.1613897 -0.13572232 -0.012971079
000040 fa d8 ea 3d ec da 24 3d 4c 73 90 bd af ee 70 3c
       0.11467166 0.040247843 -0.07053241 0.014705344
000050 ae 91 be bb c9 28 ee bd 62 b6 c7 bb 34 2a 8d bd
       -0.005815706 -0.11628873 -0.00609474 -0.06892815
000060 01 ab ab 3c e5 b6 a9 bc 81 7a 0a bd 11 74 8a bd
       0.020955564 -0.020717094 -0.033808235 -0.06760419
000070 7b b2 95 3d f0 1a ba 3d af 41 07 bc fa bf 50 bd
       0.07309433 0.09087169 -0.008255406 -0.050964333
000080 55 44 e6 3d 52 59 f5 3d c2 6a 58 3c 1a 4e 99 bd
       0.11243502 0.11979927 0.013209047 -0.074856
000090 de 0e 8c bd 27 36 4d 3d 4e fe c4 3d a1 fb 6a 3d
       -0.06838773 0.05010047 0.09618817 0.05736888
0000a0 41 b1 73 bd dd 28 96 bc 8b 6f 43 3d e0 34 99 3d
       -0.059495214 -0.018330032 0.047713798 0.07480788
0000b0 81 6e 23 3e d5 94 2b 3d fd 29 22 3e 05 5c 61 bd
       0.15960123 0.041889984 0.1583633 -0.055019397
0000c0 73 1d 99 3c 01 68 8c 3d 7d dc de 3d b2 fb 72 3d
       0.0186908 0.06855775 0.108818986 0.059322067
0000d0 c4 5c 06 bc 5f 91 47 3d bf 6a 94 bd f7 a3 c7 3d
       -0.008200828 0.04872262 -0.07246923 0.09748071
0000e0 9e 94 70 bd ab e8 13 3e d5 2a b2 bc cd ff f9 3d
       -0.058735482 0.14444225 -0.02174894 0.12206993
0000f0 38 a5 4e ba 9e be b6 3d c0 67 9f 3d 3e 34 8c 3d
       -0.0007882896 0.08923076 0.077834606 0.06845902
000100 eb 7e 51 bd ff 7c 8f bd 7a 3b d4 bd 94 84 99 bd
       -0.05114643 -0.07006263 -0.10362907 -0.074959904
000110 a5 ac 0d be d1 50 d6 bd 92 e1 20 3d 17 8c 61 bd
       -0.1383539 -0.10464633 0.03927762 -0.05506524
000120 33 38 19 bd 6e ea 15 3e af 99 48 3d 92 0e 39 3d
       -0.03740711 0.14640209 0.04897469 0.04517991
000130 19 b5 51 3c 8b cf 27 3d 1a 20 aa 3d 82 44 8c 3c
       0.012799525 0.040969413 0.08306904 0.01712251
000140 68 44 51 3d 22 05 62 bd f0 a8 9c bc fb 2a 56 3c
       0.051090628 -0.055180676 -0.019123524 0.013071771
000150 11 cd ad 3c e9 81 16 bd 8c bd 03 be e9 80 a5 3d
       0.021215947 -0.036744986 -0.12865275 0.08081228
000160 8a 4d 1c be 8f fc bc 3d ab 27 0a be 49 64 68 bd
       -0.15263954 0.09227859 -0.13491695 -0.056736264
000170 62 db 05 3e 8d 7c ad bb 41 9d b2 bd eb 7a 10 3e
       0.13071969 -0.0052943886 -0.087214 0.1410939
000180 07 eb 1a be 66 02 d8 3d 06 be fa bd a2 12 96 bd
       -0.15128718 0.105473325 -0.12243275 -0.07327773
000190 73 0a ad 3d 40 61 e8 bd 63 40 23 bd 7b 1c 84 bd
       0.08449259 -0.11346674 -0.039856326 -0.06450745
0001a0 63 26 16 3e bb fc 03 3e 42 15 39 bd 11 bb be bd
       0.14663081 0.12889378 -0.04518629 -0.09313024
0001b0 f2 a9 9f 3d cd 91 dc 3d ee 32 02 bd db fa 1c 3c
       0.07796086 0.10769997 -0.03178685 0.009581293
0001c0 e3 97 d8 3d 3b 35 d8 3d 28 ce 8d 3d 56 44 c9 bd
       0.10575845 0.10557028 0.06924087 -0.09827487
0001d0 89 a2 cc bd 49 aa f4 3d cf 32 ea bd bf f3 59 3d
       -0.099919386 0.11946542 -0.11435472 0.05321097
0001e0 42 26 ad 3c 3d 1f 26 3e 2f 78 b2 bd 65 a0 8c 3d
       0.021136407 0.16222854 -0.087143295 0.0686653
0001f0 50 76 d4 3d 34 74 cf bd c6 12 2e bd 36 7e 0c 3d
       0.10374129 -0.10129586 -0.042498372 0.03430005
000200 be 92 06 bd 25 a4 03 bc e5 c8 56 bd 5b 78 d0 3d
       -0.032854788 -0.008034741 -0.05243768 0.10179206
000210 0a ec 62 bc 59 70 af bd f2 2e f6 3d 52 47 81 3d
       -0.013850221 -0.085663505 0.12020673 0.063124314
000220 06 71 aa bd 5f d0 43 bd 25 1e 90 3d 4d 74 55 bd
       -0.08322339 -0.04780614 0.070369996 -0.052112866
000230 03 54 a8 3d 89 f9 01 bd 4a 93 c5 bd c7 aa 51 bd
       0.08219149 -0.031732116 -0.09647234 -0.051188257
000240 b3 3b 02 3d f6 1e d1 3d 7a f9 ed 3c 72 a1 c4 3d
       0.031795215 0.102109835 0.029049624 0.09601106
000250 86 68 b6 3d d0 13 1d 3e 9b 6f 13 3e 3e 0a a6 bd
       0.08906655 0.15339589 0.14398043 -0.08107422
000260 72 d5 4f 3c 2b ac 28 bd b5 11 28 3d d5 07 0d 3e
       0.012685167 -0.041179817 0.04103251 0.13772519
000270 5f 3d 5c 3d 37 5a 82 bd fe 2a 3a bd e8 32 03 3d
       0.053769466 -0.06364863 -0.045451157 0.03203097
000280 2a c0 5b bd de b6 31 3e 5a 0e 69 3d 63 28 b2 3d
       -0.05365006 0.17354915 0.056898452 0.086991094
000290 b9 1d bd bd 35 ba 1a be 34 53 bf bd 83 31 8f bd
       -0.09234185 -0.15110095 -0.093420416 -0.069918655
0002a0 3e 38 1d 3e a1 8e c4 3b 2f b2 72 bd e5 07 dc bd
       0.15353486 0.005998448 -0.05925196 -0.10743693
0002b0 24 41 04 3d a8 8c 96 3d af 26 11 3d 0d 8e 25 3d
       0.032288685 0.07351047 0.035437282 0.040418673
0002c0 94 aa e1 3d 5c b7 51 3d f1 68 81 bd 64 ca 1c bc
       0.11018863 0.051200256 -0.06318844 -0.009569738
0002d0 a8 61 2a bd 99 bc 16 3e 15 da 97 3d b9 1f 15 3d
       -0.04159704 0.14720382 0.07414643 0.036407206
0002e0 95 2a 9e bd 00 24 04 3e 10 69 b6 3d 72 93 0c 3e
       -0.07722966 0.12904358 0.08906758 0.13728121
0002f0 18 17 43 3c f0 bf a2 3d 76 dd 1a be 90 e1 59 bd
       0.011907361 0.079467654 -0.15123543 -0.05319363
000300 4d 7f 15 3e ca a7 28 3d 30 3b c5 bd 94 94 96 3d
       0.14599343 0.04117564 -0.0963043 0.07352558
000310 0d ef 28 be 2e f9 6e 3d f1 f6 b4 3d b8 a7 dc bd
       -0.1649744 0.058343105 0.08836163 -0.10774177
000320 6f 37 8f 3d b6 dd bc bd cc b4 dc bd 48 78 7c 3d
       0.06992995 -0.092219755 -0.10776672 0.061638147
000330 59 54 36 bc 65 93 1d bd 0b 0e b8 3d 34 38 0c be
       -0.0111285085 -0.038470645 0.089870535 -0.13693315
000340 8f e6 63 bd 2f 47 04 bd e0 17 b6 3a 75 6e a0 bd
       -0.0556398 -0.03229445 0.0013892613 -0.07833568
000350 c6 3f 2f 3d a0 a2 b9 bd dc 8d 1e 3e 4d b4 d8 bc
       0.04278543 -0.090642214 0.15483803 -0.026453162
000360 aa 26 d3 3d 67 03 9e 3d 19 46 e3 3d 58 bd c2 3c
       0.10310109 0.07715493 0.110973544 0.023771927
000370 0b e6 08 3e 23 6a d7 bd d8 aa 1b 3d e5 76 a5 3d
       0.13369004 -0.10518291 0.038004726 0.08079318
000380 54 68 02 be c2 2c c3 bd 13 a8 aa 3d 06 89 28 be
       -0.1273511 -0.09530021 0.08332839 -0.1645852
000390 44 78 89 bd 19 5c 14 3e 62 dc 60 bb 11 3d 8a bd
       -0.06712392 0.14488257 -0.0034311046 -0.06749929
0003a0 76 44 bb 3d 8d 8f 0d 3e 1d ea 38 bd 54 5c aa 3d
       0.09143917 0.13824292 -0.045145143 0.083183914
0003b0 4e 4c b7 bb c5 b3 bd bc 1f c8 b0 bd cd 2d 13 3e
       -0.005593813 -0.02315701 -0.0863192 0.1437294
0003c0 cf c3 03 be 17 ef e3 bb 5e 0c 84 3d 69 a8 ff 3d
       -0.12867664 -0.006955992 0.06447671 0.124832936
0003d0 59 11 94 3d bd 1e d1 3d 35 f3 33 3c 1a 7d 07 be
       0.07229871 0.10210941 0.010983278 -0.13231316
0003e0 64 1b 24 3e 86 9a 2d 3d ff f5 37 bd 68 aa f4 3d
       0.16026074 0.042383693 -0.044912335 0.11946565
0003f0 e7 25 f0 bd 89 be b8 3d 1a b4 a5 bd 49 a3 82 3d
       -0.11725979 0.09020717 -0.08090992 0.063788004

encoder.layers.2.bias f4 [32]
000000 17 98 8f 3c 27 31 d3 bd c9 86 0b be f2 3a 73 3d
       0.017528577 -0.103121094 -0.13625635 0.059382387
000010 ad ba 9f 3d 4b d4 80 bc 6b 2d ff bc 78 7d 13 be
       0.077992775 -0.01572623 -0.031149587 -0.14403331
000020 f9 55 b0 bd 8a e7 6b bb 1e a3 90 3c ff c3 fe 3d
       -0.08610148 -0.0035996162 0.017655905 0.12439727
000030 4d b8 e1 3d e5 ce 01 3d ce 7d 07 be d1 33 c0 3d
       0.11021481 0.03169145 -0.13231584 0.09384883
000040 78 68 f1 bd 36 3a ac 3d 6f 6f b2 bc 83 53 c6 3b
       -0.11787504 0.0840954 -0.021781651 0.006052436
000050 1c 81 5c 3c d2 32 8b 3d f6 c6 ef 3d 47 5f e8 bc
       0.013458516 0.067968026 0.11707871 -0.028365744
000060 9c 3f 23 3e d8 a6 62 3e c2 bc b8 bd 10 c7 86 3e
       0.15942234 0.22133958 -0.09020378 0.26323748
000070 a8 08 53 bd e7 93 cd bc 2b 73 5a 3d 5d 26 3f 3d
       -0.051521927 -0.02509494 0.05333249 0.046667445

encoder.layers.4.weight f4 [12, 32]
000000 aa aa c8 bd 10 59 fc 3d 9e 04 cb bd 5b 4f b0 3d
       -0.097981766 0.12321675 -0.0991299 0.08608886
000010 ed 88 00 be 9b a4 12 bd c9 40 8e 3d e1 16 97 3d
       -0.12552233 -0.03580151 0.069459505 0.07377411
000020 fa 50 c3 3d 8d 6b 89 3d 0f 7f 5f 3c 87 dc 04 be
       0.095369294 0.06709967 0.013641133 -0.1297475
000030 8a 3b 24 be a3 99 21 3e 2d 99 9d 3d d9 bd 5f 3d
       -0.16038337 0.15781264 0.076952316 0.054624412
000040 bd e6 aa bd 3b 1d 18 3e f0 82 56 3d db b0 d8 3d
       -0.08344791 0.148549 0.052370965 0.105806075
000050 a5 65 e1 3c db 9f 37 3e c1 5a c1 bc 14 c3 3a 3e
       0.027514288 0.17932074 -0.023602845 0.18238479
000060 30 06 f3 bb d3 a5 5b be d8 e8 ea 3d 0a 13 5e be
       -0.007416509 -0.21449976 0.11470193 -0.2168695
000070 c1 12 f4 bd c2 dc 15 3d d5 72 db 3c dc 49 c0 3d
       -0.119176395 0.036587484 0.026788155 0.093890876
000080 7e e1 f1 bd 89 1d 16 3e 3f a3 fc bb dd 0a 11 3e
       -0.11810587 0.14659704 -0.00770989 0.141643
000090 5f 3a 18 3d e5 90 07 be 50 24 1e 3e 9b 4c cd 3d
       0.037165042 -0.13238867 0.1544354 0.10024377
0000a0 bf 7e 1f 3e 8e e0 10 3e 1c df 91 3d 96 1c 08 3e
       0.15575694 0.14148161 0.07122633 0.13292155
0000b0 27 49 fc bd 04 52 7b bd 32 15 47 3d da 60 08 bc
       -0.1231864 -0.061357513 0.048604198 -0.008323872
0000c0 6e 8b 17 3e b6 1e 4b bd ff af 4f 3e 04 8a 6d bd
       0.14799282 -0.049589835 0.20281981 -0.05799295
0000d0 cf 0e cd bd 6b c8 e0 3d db c7 04 3e 08 5f 92 3d
       -0.1001259 0.10975727 0.12966864 0.07147032
0000e0 48 61 41 3e 7f 9a 06 3e f9 a0 0c 3e d1 66 a5 3d
       0.18884766 0.13144873 0.13733281 0.08076251
0000f0 2b dd bb 3c 04 8d 16 3e e0 e9 02 3e 02 76 6d 3d
       0.02293261 0.1470223 0.12784529 0.05797387
000100 77 f5 14 bd 44 b2 3d be f2 2d a0 3d 62 50 bf 3d
       -0.036366906 -0.18525034 0.078212634 0.09341504
000110 e2 ab dd bd 2e c2 1b be 1e a9 44 bb 26 13 f1 3d
       -0.108238 -0.15210792 -0.0030008028 0.117712304
000120 08 39 d6 3d 52 f9 1f be 4c 8a ae 3c 81 ba 10 be
       0.104600966 -0.15622452 0.02130618 -0.14133646
000130 a8 bb d5 3d 87 03 0e be 6c c5 ba 3d 50 60 d0 3c
       0.10436183 -0.13868533 0.091196865 0.02543655
000140 d5 7c 82 bd 31 bb d7 bd bc 4b 4c be c1 84 a4 3d
       -0.06371466 -0.10533751 -0.19950765 0.08033133
000150 f8 f0 84 bd 28 b2 81 3d 2f 5f 0c 3e 9f d0 2d be
       -0.06491274 0.06332809 0.13708185 -0.16974114
000160 1a 0c ee 3d e3 c7 71 bd 88 70 a9 bd 20 d2 29 bc
       0.11623402 -0.059028517 -0.08273417 -0.010365039
000170 c9 09 9c bd d4 ff 8c bd e4 4a b6 ba ec 7a 29 be
       -0.07619054 -0.06884733 -0.0013907817 -0.16550797
000180 90 d2 b5 3d 08 1b 33 3d 43 5a 50 3c 23 47 11 be
       0.08878052 0.04372695 0.012716833 -0.14187293
000190 5a 2f 10 bd 9a c6 c1 3d 92 05 e7 3d 22 d2 b7 3d
       -0.035201408 0.09461708 0.11280359 0.089756265
0001a0 cd 5a c1 3d e0 18 f3 3d 33 7c 6b bd ba b4 0c 3d
       0.09441147 0.11869979 -0.057491492 0.03435204
0001b0 ba c4 ef 3d aa e8 a0 3d 14 4b 23 3e af 40 b6 3d
       0.117074445 0.07856877 0.15946609 0.08899056
0001c0 c1 9d dd 3d da b7 a3 bd c0 77 d0 bb db 7c f8 bd
       0.10821105 -0.07994051 -0.0063619316 -0.12133189
0001d0 e4 f8 04 be fd 55 6e 3d 25 b6 01 bd 2e 49 0e be
       -0.12985569 0.058187474 -0.031667847 -0.13895103
0001e0 ea 26 d4 bc f0 0d 03 bd ec 4f a8 3d 97 24 b4 bd
       -0.025897462 -0.031995714 0.08218369 -0.087960415
0001f0 60 81 d6 bc 07 ee 04 3e 5f e9 2f bd aa b6 a1 3d
       -0.026184738 0.12981425 -0.04294717 0.078961685
000200 ce 29 d8 bd 83 19 0b be 86 d9 aa bd 3a b5 30 3e
       -0.105548486 -0.1358395 -0.083422706 0.17256632
000210 da 91 20 3e 41 8f 1f 3c fb bd 22 3e 3e 35 3b bd
       0.15680638 0.009738744 0.15892784 -0.045705073
000220 1c 81 05 bd 33 9f 8a bd 27 ee 0e bd da a8 07 3e
       -0.03259383 -0.06768646 -0.03489509 0.13248006
000230 14 45 69 bd 01 06 b9 bc 6b 9b ff 3d 79 d6 07 3e
       -0.056950644 -0.02258587 0.124808155 0.13265409
000240 e1 d1 fc 3c 9b 3f 0e be fd a0 5e bc fe 0e 68 bd
       0.030861797 -0.13891451 -0.013588187 -0.056654923
000250 53 7e 90 3d 1d 75 9a bd ab 6e 0d 3e 67 43 01 be
       0.070553444 -0.07541869 0.13811748 -0.12623368
000260 40 59 8a 3d e0 4a 08 3e 7a 35 1f 3d ae 89 23 3e
       0.06755304 0.13309813 0.03886936 0.1597049
000270 0f 01 8c bd db b8 17 bd 04 05 11 be ff 2e 8a 3c
       -0.068361394 -0.037041526 -0.1416207 0.016868113
000280 33 a4 7a bd f8 bb e9 3c f3 68 4d 3d 22 18 05 3e
       -0.06119175 0.028532013 0.050148915 0.12997487
000290 49 b1 e2 bd 70 f0 ba 3d 88 57 a4 bb e0 95 db 3d
       -0.11068971 0.09127891 -0.0050153174 0.10721946
0002a0 ce 48 b4 bc 5d 7d 13 3d bc 77 8a 3d 19 d6 d6 3d
       -0.022007372 0.036008228 0.06761119 0.10490055
0002b0 90 d3 d8 bc dd 9b 80 bb 5a b1 19 be cd 53 74 bd
       -0.026468068 -0.0039248304 -0.1500906 -0.05965023
0002c0 49 7a fd bd 33 de 0c bc f7 48 fd 3d 6b 59 75 3d
       -0.1237684 -0.008597898 0.123674326 0.05989973
0002d0 97 02 c9 3c 68 75 fa 39 86 12 cb 3b 6c 75 0a bd
       0.024537368 0.0004777119 0.0061972765 -0.03380339
0002e0 75 fd 99 3d cf 86 17 3e b1 db ff 3d 39 df 37 bd
       0.07519046 0.14797519 0.12493075 -0.044890616
0002f0 24 d9 9b 3d ae a5 2a 3c 92 32 28 3e 6f 20 4e bd
       0.07609776 0.010415478 0.16425541 -0.0503239
000300 bd b0 b4 bc 19 d3 8f bd 9e 88 cc 3d 4d 40 b8 3b
       -0.022056932 -0.070226856 0.09986995 0.0056228996
000310 dd b6 a6 3d 9f 9f 22 3e e2 1c 09 be 34 93 a4 bd
       0.08140347 0.15881203 -0.13389924 -0.08035889
000320 27 c0 73 bd 09 ed 32 bd 4e 7b 97 bd 32 37 d2 3c
       -0.059509423 -0.043683086 -0.073965654 0.025661085
000330 ea cc 8b 3d 6e c0 ad 3c e6 7d ff bd 39 6f e3 3c
       0.06826194 0.021209922 -0.12475185 0.027762996
000340 52 5d 0b 3e f0 ae 23 bd 0a e3 b1 bd 77 64 96 bc
       0.13609818 -0.039961755 -0.086858824 -0.018358452
000350 24 66 29 bd 0f b1 13 be c7 f6 5a bd 01 c7 0b be
       -0.041357175 -0.14423011 -0.053458 -0.13650133
000360 89 24 21 3e 5e d9 ef 3c 68 e0 48 3c b9 fb f2 3c
       0.15736593 0.029278453 0.012260534 0.029661046
000370 bf c6 89 3d ce 45 03 3d 3c dc c9 3d 3b f0 08 be
       0.06727361 0.032048993 0.098564595 -0.1337289
000380 0e 29 86 3d 58 9b 06 bd 72 fd aa bd bc 80 da 3d
       0.06550799 -0.03286299 -0.08349122 0.106690854
000390 0c a8 3b bd 40 3c c2 3d 36 51 cc bd 31 7a e4 bd
       -0.04581456 0.09484148 -0.09976427 -0.11156119
0003a0 52 e9 e6 3d e1 c9 24 3d fd 03 a6 bc e6 49 15 be
       0.11274971 0.04023159 -0.020265574 -0.14578971
0003b0 6c e1 0a 3d d6 3f 35 bd 22 5f a3 3d ab 45 a7 3c
       0.033906385 -0.04425033 0.079771295 0.020418962
0003c0 83 43 e7 bb c3 11 03 3e 86 3f cf bd 42 81 3b bd
       -0.0070576086 0.12799744 -0.10119538 -0.045777567
0003d0 4b 15 75 bd 86 37 87 bd 65 52 e3 bd f1 8e 96 bc
       -0.05983476 -0.06602387 -0.110997 -0.018378707
0003e0 61 0d 2b bd fd 8a 40 3d ef 6e 5c bc f0 6d da 3d
       -0.041760806 0.04700755 -0.013454183 0.106655
0003f0 df 71 5b bd 13 57 83 bc 05 26 e8 bd 5f be 1c bc
       -0.053575393 -0.016032731 -0.11335377 -0.009566872

encoder.layers.4.bias f4 [12]
000000 c8 65 7c bd 28 63 d0 bd 8f ad 7e 3d 15 0d c1 bc
       -0.061620504 -0.101751626 0.062177237 -0.023565808
000010 7f c5 11 3e 9b e3 07 be 70 9c 72 3c 4e d1 de 3c
       0.14235495 -0.13270418 0.014807805 0.027199414
000020 03 d5 37 3d b7 7c 0d 3d 69 4f 85 bc 1c a7 d3 3d
       0.04488088 0.034542765 -0.016273217 0.10334608

decoder.layers.0.weight f4 [32, 17]
000000 86 e2 98 3d 25 ea ea bd 2b fa 46 3e 2a bd 70 3e
       0.07465081 -0.11470441 0.19431369 0.2350966
000010 9a 32 82 3e 2b 47 28 3e 56 ce 66 bd 80 91 00 bd
       0.2542923 0.16433398 -0.05634912 -0.03138876
000020 ce 90 a5 bd 66 84 ad 3c 85 f1 84 bd d9 17 65 3e
       -0.0808426 0.021181297 -0.06491379 0.22372378
000030 db e2 d8 bd 1e d8 b4 3d 17 94 27 be 2d 35 5d 3e
       -0.10590144 0.088302836 -0.16365086 0.21602316
000040 bb a4 a9 3d 94 59 b8 bd 7e fd 18 3e ad 44 6e be
       0.08283373 -0.09001461 0.1494045 -0.23268385
000050 89 0b eb bd a9 f3 d4 3d 95 95 17 be 26 14 d8 3d
       -0.114768095 0.10398037 -0.14803155 0.10550718
000060 fa c4 3e bd 9c 2b 12 be e9 b3 5f 3d b7 52 73 3e
       -0.04657457 -0.14274448 0.054614935 0.23762022
000070 9f b8 f9 bb 24 a5 96 bd fe 3b 3a 3e 55 22 1a 3e
       -0.0076208855 -0.07355717 0.18186948 0.15052159
000080 2b cb 55 3e 44 7b ae bd ad 1f 0c be d4 80 cd bd
       0.20878284 -0.08519605 -0.13683958 -0.10034338
000090 46 ad eb 3b 06 4b b9 3d a7 fa 10 be 05 0c 0f be
       0.0071922867 0.09047513 -0.14158116 -0.13969429
0000a0 06 00 b5 bd a4 3c 2a 3d 7a 5d 21 3e f6 7f 26 3e
       -0.08837895 0.041561738 0.15758315 0.1625975
0000b0 f7 ff 51 3e 2f b9 41 3e 10 4c 15 be 14 54 f1 3d
       0.20507799 0.18918298 -0.14579797 0.11783615
0000c0 51 e9 90 bd ab 74 4d 3e 6a 89 9f 3d 1a 43 46 be
       -0.070757516 0.20064037 0.077898815 -0.19361535
0000d0 ad d3 54 3e 81 6a 70 be cb 6b 4e 3e 12 04 2f 3e
       0.20783873 -0.23478128 0.20158307 0.17091396
0000e0 eb 8f 48 3e 73 60 45 be 41 c4 86 be 49 26 f8 bb
       0.1958615 -0.19275074 -0.26321605 -0.0075729233
0000f0 d0 62 67 be f7 0b 54 be 7d 06 d0 bd 08 02 27 3e
       -0.22596288 -0.20707689 -0.101574875 0.16309369
000100 c9 6b ac bd cd db 84 3c e1 8e ef 3d c4 d3 17 3e
       -0.08418996 0.01621809 0.11697174 0.14826876
000110 cc a6 4f be 8c 26 3c be 47 c2 2f be ae 9b 19 3e
       -0.20278472 -0.1837408 -0.17163955 0.15000793
000120 47 ee b5 bd 09 d8 2d 3e f3 38 67 be ff 61 9f bd
       -0.088833384 0.16976942 -0.22580318 -0.07782363
000130 1f 63 1f 3d 11 c3 66 3c 83 30 09 3e 4d e8 07 be
       0.03891289 0.014084593 0.13397412 -0.1327221
000140 de 11 7a be c1 0d 3a 3e 63 42 e4 bd 10 3a 22 3e
       -0.24420878 0.18169309 -0.11145475 0.15842462
000150 37 a6 06 be 1a 2f c1 bd 96 21 77 bd d1 c4 70 bd
       -0.13149343 -0.09432812 -0.060334764 -0.05878145
000160 73 43 04 3e cc 22 9f bd 0c c1 11 be 4e 0b 00 be
       0.12916355 -0.07770309 -0.14233798 -0.12504312
000170 22 0a 6f be d5 ed 84 3d 6c 76 60 be 5b 08 a1 3d
       -0.23343709 0.06490675 -0.21920174 0.07862922
000180 d8 3d e6 bc 78 0b 7d 3d 02 d3 d6 3d 28 8a a8 3d
       -0.028105661 0.061778516 0.10489465 0.08229476
000190 83 6a bb 3c 91 88 ad 3d 78 bf d9 3d 0b 16 68 3d
       0.022877937 0.084733136 0.10632223 0.056661647
0001a0 a9 63 31 3e 8e b2 3f 3d d9 15 66 be df 26 26 3e
       0.17323174 0.046801142 -0.22469272 0.16225766
0001b0 e1 f3 06 be 56 96 03 3e 83 79 48 3e 66 99 c4 3d
       -0.1317897 0.12850317 0.19577603 0.09599571
0001c0 14 e8 97 bd d4 b2 0b 3e d6 47 94 bd 77 d2 c3 bc
       -0.07417312 0.13642436 -0.07240264 -0.023904068
0001d0 51 76 69 3d a9 bf 43 be 48 32 61 3e c1 2f b1 3d
       0.0569976 -0.19116081 0.21991837 0.086516865
0001e0 11 01 02 3e 66 ac ee bd 0e 3c a2 3d 08 54 e7 3d
       0.1269572 -0.11653976 0.07921611 0.112953246
0001f0 aa d4 09 be 97 07 bd bb f1 c1 46 be 79 61 fe bd
       -0.13460031 -0.005768727 -0.1940992 -0.12420935
000200 f1 c8 1e 3e 09 b4 08 3e 50 92 06 3e 50 dd 29 3e
       0.1550634 0.13349928 0.13141751 0.1658833
000210 15 42 f2 bd 92 1b 81 be cc f7 84 be 20 c2 a0 bd
       -0.118290104 -0.25216347 -0.25970304 -0.078495264
000220 ed 4f 34 3e c8 97 b5 3c e8 0b b2 3d b0 86 aa bc
       0.17608614 0.022167102 0.08693677 -0.020816177
000230 47 9e c1 3d af e6 31 bb ba af 55 bd 8f d7 84 3d
       0.09454017 -0.0027145555 -0.05216954 0.06486427
000240 f2 53 b4 bd aa 83 4c be c9 61 ef bd cf 03 46 3e
       -0.08805074 -0.19972101 -0.11688573 0.1933739
000250 ed 1e 15 3e 78 84 40 be ea 9d be 3d 76 f7 1c 3e
       0.14562578 -0.18800533 0.093074635 0.15328774
000260 8f 2a 90 bd 23 6a d6 bc a5 1b 3f be e1 bc bb 3d
       -0.070393674 -0.026173657 -0.1866289 0.09166885
000270 bb f6 82 be 83 a7 a5 3e 45 3b 7e 3d aa b7 00 be
       -0.25578865 0.32354364 0.062068243 -0.12570062
000280 96 ce db 3d e0 27 e3 bd bc a6 5f 3e 7a da a8 3c
       0.107327625 -0.1109159 0.21840948 0.02061199
000290 9a c4 1e 3e f8 52 11 3e d8 a3 8b bc f4 46 56 3d
       0.15504685 0.14191806 -0.0170459 0.05231376
0002a0 05 33 f7 3d d6 89 93 bd 5b 52 f4 3d a3 8d 97 3d
       0.12070278 -0.072040245 0.119297706 0.07400062
0002b0 9f 79 a9 3c 64 35 3f 3e ed 21 12 3e ac 07 2c 3d
       0.020687876 0.1867271 0.14270754 0.041999504
0002c0 9c 63 3c 3d ec 12 6a be 58 ac 44 3e b0 02 c7 bd
       0.045993432 -0.2285878 0.19206369 -0.097173095
0002d0 cf 65 94 3a c9 c8 27 bd bc 41 db bd c2 2a 3c be
       0.0011321845 -0.040962968 -0.10705897 -0.18375686
0002e0 08 dc da 3d 2a 46 29 3d 9a bd 8b be 66 b3 94 be
       0.10686499 0.04132668 -0.27293092 -0.2904312
0002f0 7f 9d 61 be 5e f1 f0 3d 8f c0 91 bd a0 e4 cd 3d
       -0.22032736 0.11764787 -0.07116806 0.100533724
000300 1c b7 52 3e f5 f1 5b bd a1 e3 ac bd d6 40 a5 bd
       0.20577663 -0.053697545 -0.08441854 -0.08069007
000310 7b 4a 71 bd 23 a1 0a be f8 3c 90 bc be 5e 88 3d
       -0.05890892 -0.13538031 -0.017607197 0.06658696
000320 76 01 83 3d d2 d2 61 be 96 56 d6 bd 5d 5d 5a 3e
       0.06396763 -0.22053078 -0.10465734 0.21324678
000330 0e d4 73 3e 9b ae 3e 3e e5 91 0a bc 40 9e 22 bc
       0.23811361 0.18621294 -0.0084576355 -0.009925425
000340 88 fc 6c bd 88 50 05 be d6 73 52 3d 27 e7 24 3e
       -0.05785802 -0.13019001 0.05138 0.16103803
000350 5b b6 fc 3d f4 29 84 be 14 47 18 3d 03 62 81 3e
       0.12339469 -0.25813258 0.03717716 0.2527009
000360 3d ef 95 3c 75 88 c9 3d 07 5e b6 bc a9 82 51 3e
       0.018302554 0.0984048 -0.022261633 0.20459999
000370 4d 2e 6b be f9 6f f9 3d 04 ee 2d 3e 56 ab c4 bd
       -0.22966881 0.1217956 0.16985327 -0.09602992
000380 a8 90 23 be 26 ce 56 be 22 be cf 3d 77 53 11 be
       -0.1597315 -0.20977077 0.10143687 -0.14191996
000390 62 bb 1b be 02 46 04 3c fe f8 08 be bd ef ba bc
       -0.152082 0.008073332 -0.13376233 -0.022819394
0003a0 e1 6f 1e 3e f5 57 85 bd f8 1d 33 3e 5f d2 4a be
       0.15472366 -0.06510917 0.17491901 -0.19806813
0003b0 eb cc 88 3e 4e de 3d bd 63 95 d8 3d 0d 07 1a bd
       0.2671884 -0.046354584 0.10575368 -0.03760438
0003c0 59 f5 3b be ce d1 be bc 0f be e3 3c 9b 94 22 bc
       -0.18355311 -0.023293402 0.027800588 -0.009923126
0003d0 be 24 4a be ce a7 ee bd 36 80 2e be 9a 91 45 be
       -0.19740579 -0.116531 -0.17041096 -0.19293824
0003e0 9c 4d 43 be 46 9a cf 3d 5e b7 c9 3d 75 1b 27 be
       -0.19072574 0.10136847 0.09849428 -0.16319068
0003f0 73 47 29 be c8 d6 b6 bd 04 cd 80 3e b1 0d 18 3e
       -0.16531162 -0.08927685 0.25156415 0.14848973

decoder.layers.0.bias f4 [32]
000000 0a 21 21 be 4e 5d 43 3e f1 fd 19 be 66 2b 6e 3e
       -0.1573526 0.19078562 -0.15038277 0.23258743
000010 c6 3c 7e 3e 86 c0 05 3e 39 f7 dc bd 29 a1 13 be
       0.2482787 0.13061723 -0.107893415 -0.14416946
000020 a8 1e 45 be 2d e0 b5 bd 7d bd 84 bc a4 ca 88 3d
       -0.19249976 -0.08880649 -0.016203636 0.06679276
000030 9d d1 0b 3e 1e ec 34 be 09 23 10 be be 99 7b 3a
       0.1365418 -0.17668197 -0.14075865 0.00095977995
000040 8d 10 08 3e 52 c5 34 3e 36 22 a1 3d 02 e2 bb 3e
       0.13287564 0.17653397 0.07867853 0.36695868
000050 b3 22 3d 3d 48 32 06 3e 77 d2 73 3d c1 c6 17 be
       0.04617567 0.13105118 0.059526887 -0.14821912
000060 49 cf 3b 3e 6a 6f f5 3b b5 c0 19 3e 99 cf 26 be
       0.18340792 0.007490088 0.15014918 -0.1629013
000070 30 71 44 3e e0 74 b2 bd 2e e0 c5 3d f0 b9 19 be
       0.19183803 -0.087136984 0.096618995 -0.15012336

decoder.layers.2.weight f4 [32, 32]
000000 86 47 b8 bd 5c 3d d4 3d 8a 5d 75 bd e6 4b c7 3c
       -0.08998017 0.10363266 -0.05990366 0.024328183
000010 ce ed 47 be 51 6d df bd f0 06 98 bd 34 4e 64 bb
       -0.19524309 -0.10909522 -0.07423198 -0.0034836652
000020 3d f3 d1 bd d6 e9 f6 bd bf e6 2d 3b 34 2d 12 bc
       -0.10251472 -0.120563194 0.002653524 -0.00892191
000030 fb 57 c4 bc f1 69 e2 bd 7a 91 be bd 13 1c d4 3d
       -0.023967734 -0.11055363 -0.09305091 0.10356917
000040 25 a1 29 3c fa ee f9 3c 41 8c c7 3d 57 60 46 3d
       0.010353361 0.03050946 0.09743548 0.04843172
000050 3b 34 cf 3c 15 7e 8b bd e1 7c 94 3d 3a dd e9 3d
       0.02529346 -0.068111576 0.07250381 0.11419149
000060 f4 8a 65 3e 31 c9 17 be ee 6e 4e bd 4b 94 07 3e
       0.22416288 -0.14822842 -0.05039876 0.13240163
000070 c4 8a b5 bc 42 a2 29 be ce 0a 0c be 7a db 2b 3d
       -0.022160895 -0.16565803 -0.13675997 0.041957356
000080 69 a9 b7 3d 27 9d 72 3d 41 fd 52 3d ec d6 a5 bc
       0.08967859 0.059231903 0.051511053 -0.020244084
000090 6e 92 f1 bc 1b 40 36 be f0 33 31 be b7 f4 17 3e
       -0.029488768 -0.17797892 -0.17304969 0.14839445
0000a0 f1 53 09 3e 4e a4 1f be 1f e3 62 3e f7 c5 4b 3d
       0.13410927 -0.15590021 0.22156952 0.04974934
0000b0 43 07 8f 3d 3e 73 29 3e 5c 6c 20 bd e0 d8 3c 3e
       0.06983807 0.16547868 -0.03916584 0.18442106
0000c0 3d 41 d5 bd ad cc e0 3b d6 d4 17 3e 6d f0 04 3d
       -0.10412834 0.0068603368 0.14827284 0.03245585
0000d0 d7 94 01 3e ab 4c 7d bd 09 dd c5 3d e4 ed b1 bd
       0.12654434 -0.061840694 0.096613 -0.08687952
0000e0 cd da e7 bd 35 36 04 be a1 2e 59 3e 87 67 63 3d
       -0.1132103 -0.12911303 0.21209194 0.055518653
0000f0 b2 75 5a 3d 5f 39 15 3e 57 f2 8b bd cb 4b 39 bd
       0.0533349 0.14572667 -0.06833332 -0.045238297
000100 b3 2a c2 bd e8 74 d7 3c 66 cc dd bd 8c 80 be bd
       -0.094808005 0.026300862 -0.108300015 -0.09301862
000110 26 34 bf bd a0 8f 97 bd 3b 96 3a 3c 82 5b 1f 3e
       -0.093361184 -0.07400441 0.011388357 0.15562251
000120 78 25 e5 3c e9 b1 1b bc f4 6f 31 3e be 71 00 be
       0.027971968 -0.009502866 0.17327863 -0.12543389
000130 db a2 28 bd 69 02 29 3e b9 01 3d bc d8 dd e0 3d
       -0.041170936 0.16504826 -0.011536055 0.10979813
000140 3b 7d ab bc da f4 a0 bd 70 a3 a7 bb bf d1 2a be
       -0.020933738 -0.07859202 -0.005115919 -0.16681574
000150 0a 2f c5 bb dc fd d0 bd 15 16 6e 3e 8b 78 38 3e
       -0.0060175704 -0.1020467 0.23250611 0.18014733
000160 c0 87 6e 3e e3 62 de 3b 80 4c 0b 3e 26 44 30 3e
       0.23293972 0.0067866906 0.13603401 0.17213497
000170 3f 23 2f 3e 44 52 9b bd 07 0c 0f bd 9c fc 88 bc
       0.17103289 -0.0758405 -0.03492358 -0.016722016
000180 46 24 00 be 01 6c 9e bb 3d e9 23 3e 37 f6 44 3e
       -0.12513837 -0.0048346524 0.16006942 0.19234549
000190 9f f4 9d 3c b5 e4 32 3e 48 62 92 bb 3c 04 82 bc
       0.019281683 0.17470057 -0.0044672824 -0.01587116
0001a0 04 bd bc bb 13 85 c4 bd 0e 15 f0 3d 4c 9a a8 bc
       -0.005759837 -0.095956944 0.11722766 -0.020581387
0001b0 c0 cf a8 3b ad 61 38 3e df ac 9e 3d cb b9 09 3d
       0.005151719 0.1800601 0.07747816 0.03362445
0001c0 3b 07 3a 3e ae 3f a5 3d 87 e8 11 3e 51 ff 34 bd
       0.1816682 0.080687866 0.14248858 -0.0441888
0001d0 36 9a ba bd 1b 3e 36 bd 7e d0 1c 3d 38 ab 15 3e
       -0.09111445 -0.044492822 0.03828477 0.14616096
0001e0 73 9b f4 bc 25 c1 24 bd 37 c2 1d 3d 0b e9 b0 bd
       -0.02985928 -0.04022326 0.038515296 -0.086381994
0001f0 bd f2 cf bd dd f5 5b be a4 5a 7e 3d 00 5d df 3c
       -0.101537205 -0.21480508 0.06209816 0.027266026
000200 b7 61 04 be d2 e3 57 bd c7 e9 3b bd f4 71 cf bb
       -0.129279 -0.0527075 -0.045877244 -0.006330723
000210 a7 36 79 3c b2 e4 89 bd 87 02 ed bc 81 7a cf bc
       0.015210784 -0.06733073 -0.02893187 -0.02532697
000220 ae f7 0a bd bb 5d f8 bc b6 ee fd bc 9c 29 c7 3d
       -0.033927612 -0.030318132 -0.030997615 0.09724733
000230 91 d5 48 bd 2f 1c 50 bd c9 2c ac bc 8e 23 93 bd
       -0.049031798 -0.050808128 -0.021017449 -0.07184516
000240 56 d1 82 bd 7c 3c 7c 3d c4 a9 8e bd 4f 44 05 be
       -0.06387584 0.06158112 -0.06965974 -0.13014339
000250 7e de 3f bd 27 1f 99 3d dd 16 b3 bc e3 8d 9b bb
       -0.046843044 0.07476645 -0.021861488 -0.004747139
000260 6e ea bc 3d 59 1f f9 bc 31 63 1d bd dc 50 81 bd
       0.092244014 -0.030410456 -0.038424674 -0.06314251
000270 21 2f cf bc 71 df 77 bd f0 33 24 3e 07 53 79 3d
       -0.025291028 -0.060515825 0.16035438 0.060870197
000280 2b cb 16 be 97 ab 39 3d 9e 5c a4 bd bb 32 e1 3d
       -0.1472594 0.045329656 -0.08025478 0.10996004
000290 88 d4 09 bd c3 e6 b6 bd 79 ad 85 3d b0 ad 79 3d
       -0.03364995 -0.08930733 0.06527228 0.060956657
0002a0 e6 e0 b4 bd b9 e8 5f 3d a1 e7 3d be 7c 66 ea bc
       -0.088319585 0.0546653 -0.1854539 -0.028613321
0002b0 10 00 16 3e 74 8d 11 3e be 35 c2 bc c2 47 6d 3d
       0.14648461 0.14214116 -0.023707267 0.05792976
0002c0 ba 1a 92 bd fe 22 35 3d ba bb 32 3e b2 91 7c 3e
       -0.07134004 0.044222824 0.17454425 0.24664953
0002d0 a2 78 11 bd 85 ef 40 bd b0 74 55 be 2d 75 01 be
       -0.035515435 -0.047103424 -0.20845294 -0.12642355
0002e0 0a 24 d2 3d e8 9e 6f bc c7 54 61 3d 29 1b d4 3d
       0.1026078 -0.014625289 0.05501249 0.10356743
0002f0 b9 d3 19 3e d3 e6 15 3d 21 b2 21 3d eb 23 d0 3d
       0.15022172 0.036597084 0.039476518 0.10163101
000300 15 61 1b 3e e0 b2 79 bd 6f 2f 02 bb bb 0c a8 3d
       0.15173753 -0.060961604 -0.0019864698 0.08205553
000310 c9 25 b5 3d d3 94 bd bd 70 27 04 be 84 78 c4 3d
       0.088450976 -0.092569016 -0.12905669 0.09593299
000320 16 e5 1e be fe 9b 6d bd 40 cc 06 3d 84 34 93 bd
       -0.15517077 -0.058010094 0.03290963 -0.07187751
000330 73 5b 1e bd b9 cf 86 3d 16 f9 ca 3d 56 76 08 3e
       -0.03866143 0.06582589 0.099107906 0.13326392
000340 dc 3b f1 bd 84 52 9d 3c cf c0 6c bd 45 27 30 3d
       -0.117789954 0.019204386 -0.057801064 0.0430062
000350 40 b3 27 bc d1 9f 13 be 47 1c 94 bc 75 3f 86 bd
       -0.010235608 -0.14416434 -0.01807989 -0.06555072
000360 21 c2 b5 bd 72 6c 76 3d 30 db 54 bd de 99 a7 bd
       -0.08874918 0.060162015 -0.051966846 -0.08183645
000370 de 15 b1 3c 8e 65 06 bd 8b 21 a9 bd 85 62 c7 bd
       0.021616872 -0.032811694 -0.08258351 -0.09735588
000380 08 ac da 3d b4 15 43 3c 24 d2 85 bd a7 bc 7c bd
       0.106773436 0.01190703 -0.06534222 -0.06170335
000390 d2 15 78 3e c8 65 bd 3d 45 08 3c bd 6a cc 19 bd
       0.24227074 0.09247929 -0.045906324 -0.03754846
0003a0 84 f5 8b 3d 11 00 d0 3d 02 0a bd 3c 10 b9 1a 3e
       0.06833938 0.10156263 0.023076061 0.15109658
0003b0 9b 5d ab 3d eb 81 09 bc 1f 0f 03 be ad 8c 17 be
       0.08367463 -0.008392791 -0.12798737 -0.14799757
0003c0 ab 42 7a bb fe bd e5 3d 89 87 3a 3e 96 03 98 3e
       -0.003818671 0.11217879 0.18215765 0.29690236
0003d0 9e 13 c3 3d e9 40 83 bd 0c 81 21 bd 59 07 f6 bd
       0.09525226 -0.06408865 -0.03942971 -0.1201312
0003e0 23 89 a5 3d d2 6e c9 3c 1a 2b f5 3c b1 86 81 3b
       0.080827974 0.024588976 0.029927779 0.003952824
0003f0 c2 45 f4 3c bb 14 0e be 3e ee 3a 3e c2 62 0f 3e
       0.02981842 -0.13875096 0.18254945 0.14002517

decoder.layers.2.bias f4 [32]
000000 cb 6a 34 3e 1c 1f 96 3b a6 a1 d8 bd a7 9c 24 be
       0.17618863 0.0045813452 -0.10577707 -0.16075383
000010 a3 e2 4a bd 17 02 0b 3d fc 10 cd bd d3 0c 1b 3e
       -0.049532544 0.03393754 -0.10013005 0.15141611
000020 15 b6 23 be 5a 38 33 3c 5d 94 3c be 52 28 24 3e
       -0.15987428 0.010938728 -0.18415971 0.16031006
000030 0b 01 33 bd da 66 1b be 6b 56 10 3e 16 46 ed bd
       -0.043702167 -0.15175954 0.14095466 -0.115856335
000040 50 bb 6b 3d d8 29 52 3e de bc 82 bd d8 43 94 3d
       0.057551682 0.20523775 -0.0638368 0.07239503
000050 c6 da b2 3d 4f 78 02 3d ad 37 fe bd 33 f8 6c 3e
       0.08733134 0.031853016 -0.12412963 0.23141555
000060 7f 52 9f bb cb 5a 1f be d8 32 60 3e a9 12 4f 3e
       -0.004862129 -0.15561979 0.21894395 0.20221962
000070 4b 2e e7 3d 0d 70 a2 3d b2 0a 2f 3a 8e 24 78 3b
       0.112881266 0.07931528 0.0006677314 0.0037863585

decoder.layers.4.weight f4 [24, 32]
000000 44 c4 7a bb b5 3c 08 bb c1 1a c2 3c 39 ab 38 3e
       -0.0038263956 -0.0020788137 0.023694398 0.18034066
000010 10 66 c6 3c a6 67 c6 3d c3 87 99 bd 4c 92 60 bd
       0.024218589 0.09687738 -0.074965976 -0.05482702
000020 33 f7 1c 3e 46 3a 68 3d c1 ae e8 bd cb 11 12 3d
       0.15328674 0.0566962 -0.11361457 0.0356615
000030 c6 6c be 3c d3 4e 1d bd 8f f0 9c bd 8c 3b e7 bd
       0.023245227 -0.03840525 -0.076630704 -0.112906545
000040 d2 28 01 bd 24 1a d6 3d 23 5b 69 bd 5d e1 ff bd
       -0.03153307 0.10454205 -0.05697168 -0.124941565
000050 4b a6 1c 3e ac 6c 46 3c 2c 09 e3 bc b3 d2 b7 bd
       0.1529781 0.01211087 -0.027714334 -0.089757346
000060 e2 2b fe b9 27 be d1 3c 47 a2 d4 3a 4d 8d 9c 3d
       -0.0004847935 0.025603367 0.0016222679 0.076441385
000070 b3 f6 71 3d e7 38 b9 bd 3d e3 77 bd 2d 37 9b 3d
       0.05907316 -0.090440564 -0.060519446 0.07578883
000080 da d7 b1 bd b7 9f 5a bd 31 7f a5 bd ce 45 0a be
       -0.086837485 -0.053374972 -0.080809005 -0.13503191
000090 a9 21 3a 3d fc d1 61 3c ba 3e d4 bb 7b aa 96 3d
       0.045442257 0.013782974 -0.006477204 0.07356735
0000a0 71 0f c7 3c 78 b6 6c 3d 40 a5 11 3e 36 17 0f bd
       0.024299355 0.057791203 0.14223194 -0.034934245
0000b0 5b 52 c3 3a 18 4b a8 3d df 01 28 3e 43 69 10 be
       0.0014901863 0.08217448 0.16406964 -0.14102654
0000c0 4f 33 68 bd df 46 a1 bd 9a aa f3 3d b0 f8 4b bd
       -0.056689557 -0.07874846 0.11897774 -0.049797714
0000d0 dc 26 2d bc b6 4e 62 bd 2e 36 de bd 62 10 04 bd
       -0.010568347 -0.055250846 -0.10850178 -0.032242186
0000e0 bb 20 9e bd 31 fa b4 3d ae 23 85 3d 3c 23 17 be
       -0.077210866 0.08836783 0.06500946 -0.14759535
0000f0 fa c2 17 3c 83 01 2d 3d 97 20 ac bd 5c 4b eb 3b
       0.009262795 0.04223777 -0.084046535 0.0071806144
000100 38 48 95 3d e6 a9 84 bd d2 66 12 bd 6a 6b 17 3d
       0.07289165 -0.06477718 -0.03574259 0.036967672
000110 7a 3b 1d 3d 24 fa 0b be d4 af ab bc 6c 3f 0c be
       0.0383868 -0.1366964 -0.020957865 -0.13696069
000120 8e 71 9d 3d f4 74 08 3e 0f 77 84 bc dd a1 e7 bd
       0.076876745 0.13325864 -0.016170053 -0.1131017
000130 0d 38 c0 3a ad cf c0 bd f9 e1 51 3d 81 59 0b bd
       0.0014665142 -0.09414611 0.051240895 -0.034020904
000140 50 2d 14 3e 04 ec 31 bd 13 c4 05 be 1b 01 10 3e
       0.1447041 -0.043437973 -0.13063078 0.14062922
000150 e8 81 35 3d 4a ac d7 bd 48 b3 12 be 10 45 3c 3d
       0.04431334 -0.105309084 -0.14326203 0.0459643
000160 59 a5 74 3d 3b 8f b3 bd 17 8c 0f 3e 63 f0 a0 bd
       0.059728 -0.087675534 0.14018284 -0.0785835
000170 9b d6 55 3d fb 17 1a be 7c bd 89 3b 1d 54 90 bd
       0.052206617 -0.1504821 0.0042034965 -0.07047293
000180 bb f1 56 3d cd c1 ec bd f5 bd 15 bd b9 56 bd 3b
       0.052476626 -0.11560402 -0.03655811 0.0057781604
000190 19 1b 56 bc 16 3f 41 3e d9 31 ca 3d 2c 65 00 bd
       -0.013067984 0.18871722 0.09872789 -0.031346485
0001a0 60 c2 99 3c a6 94 5e bd e5 23 64 bd 5a 0d 4e bb
       0.018769443 -0.05434098 -0.055698294 -0.0031441064
0001b0 82 63 b7 3a 2f 35 0c 3d 1e e9 02 3e da 78 37 3d
       0.0013991448 0.034230407 0.1278424 0.044792987
0001c0 45 d1 83 3d 18 e6 e7 bc 9b 61 a9 3d 3f b9 90 bd
       0.06436399 -0.02830796 0.0827057 -0.07066583
0001d0 4c 45 db 3c 8b 6f ae bc a1 db 67 bb 72 78 bf bd
       0.026766442 -0.021293422 -0.0035378712 -0.09349145
0001e0 50 48 89 3b 95 54 24 bd 1a 19 14 3e c9 c3 bf bd
       0.0041895285 -0.040119726 0.144627 -0.09363515
0001f0 58 fd 11 be b5 99 1e 3e 8d 3f 98 3d 33 3e d6 3c
       -0.14256799 0.15488322 0.07433996 0.026152706
000200 70 72 ee bd a5 8e a1 bd 80 0a 05 3e 4d 07 05 3e
       -0.11642921 -0.078885354 0.12992287 0.12991066
000210 0c 57 3b 3c 3d 3a ff 3d e2 51 7e 3c 9b 26 7a 3d
       0.011434328 0.1246228 0.015522452 0.061071973
000220 6b b4 e8 3b a2 9e c9 bc 81 64 e6 3d 42 07 eb bd
       0.0071015856 -0.024611775 0.11249638 -0.11475994
000230 09 50 1a bc 14 d9 90 3d c7 e1 f0 bd 66 a5 01 3e
       -0.009418496 0.07072654 -0.117618136 0.12660751
000240 27 7f a0 bd 87 d1 cc bd af db ee 3d 5d bd b3 3c
       -0.078367524 -0.10000902 0.11662995 0.021940881
000250 71 2b fd 3c 35 36 79 bd ca ba 85 bd 13 56 82 bd
       0.030904504 -0.06084271 -0.06529768 -0.063640736
000260 53 42 0b 3a f3 3c 7c bd fa d3 4c bd 05 c2 0b 3e
       0.0005312312 -0.061581563 -0.050006844 0.13648231
000270 b3 26 c8 bd 3e cc d6 3d e8 b9 02 3d 0d 4f a3 bc
       -0.09773006 0.10488175 0.031915575 -0.019935155
000280 d7 cd 34 3e ff 7e 0e bd c9 6b 53 3d db d0 02 be
       0.17656647 -0.03478908 0.051616464 -0.12774985
000290 8a 83 5e 3d b0 ba 00 bd 4d 9e f6 bc e2 10 d6 3d
       0.054324664 -0.03142804 -0.03010478 0.10452439
0002a0 00 a7 b9 3d 38 1f 18 bc b0 e6 89 bd a8 a3 34 3e
       0.09065056 -0.009284787 -0.06733453 0.17640555
0002b0 3e b0 79 bb a3 5a 15 3c 03 f0 36 3e de e7 17 3e
       -0.0038099433 0.009115848 0.17864995 0.14834544
0002c0 e4 72 cb bd 0e 72 26 3e 2a 02 bf bd cc 05 01 3e
       -0.09934023 0.16254446 -0.09326585 0.12599868
0002d0 e2 67 a2 bd c8 98 00 bd 31 f9 1d 3d cf 68 a2 bd
       -0.0792997 -0.031395704 0.038567726 -0.07930147
0002e0 04 11 9b b9 31 8f 8a bb b9 c2 79 bd 10 28 74 bc
       -0.0002957658 -0.0042284955 -0.060976718 -0.01490213
0002f0 2b 83 fe 3d d9 bc 1e be 0b e0 d0 bc 7e f7 c7 3c
       0.12427362 -0.15501727 -0.025497457 0.024410006
000300 bf 39 ef bd 34 d3 5d bd 50 a4 ac bc 7d 82 ab 3d
       -0.11680936 -0.054156497 -0.021074444 0.08374498
000310 7c 3d 8c 3d e2 cf d4 3d 08 29 4b 3d 7f 37 11 3b
       0.06847665 0.10391213 0.049599677 0.0022158322
000320 69 05 7e 3c 0e fe 9a bd f0 86 30 bd 9e be d4 bd
       0.01550422 -0.07567988 -0.043097436 -0.1038792
000330 d2 1c 1c bd 13 ae 86 bd fd 6e 2c be b2 8e 74 3d
       -0.038113423 -0.06576171 -0.16839214 0.059706397
000340 f6 af 16 3e 54 29 4a 3e bb 1b 13 3e 40 45 ae bd
       0.14715561 0.19742328 0.14366047 -0.08509302
000350 dd de f8 3d 16 c3 4b bc e0 0e 72 bd 61 3a 86 bd
       0.12151883 -0.012436649 -0.059096217 -0.06554104
000360 9b e1 96 3d 19 84 53 bd 4e f8 e6 bc 2e 42 a8 bd
       0.073672496 -0.05163965 -0.028194573 -0.08215748
000370 aa 18 38 bd 44 f3 bb 3d 5b 17 93 bd ab da b9 bc
       -0.044945396 0.091772586 -0.07182189 -0.022687277
000380 76 39 c1 bc 72 07 2b be 81 a1 2a 3b ed cd 29 3e
       -0.02358697 -0.16702059 0.0026036205 0.1658246
000390 05 76 30 bd 53 0f 94 3d 5f b9 ac bd 32 ec 19 3e
       -0.043081302 0.07229485 -0.08433794 0.15031508
0003a0 e9 f6 54 bd c6 35 b8 3d 89 86 0d 3e ad 3c f3 bd
       -0.051993284 0.089946315 0.13820852 -0.11876807
0003b0 00 e2 80 bc 1a 85 20 bd 3d 2c 99 3d a5 86 66 3d
       -0.015732765 -0.039189436 0.07479141 0.05628075
0003c0 c0 a7 bc bd 76 5a a5 bd 88 ca b9 bd 2e 85 0f be
       -0.09211683 -0.08073895 -0.09071833 -0.14015648
0003d0 fc 30 04 3d bf 06 70 3d a0 d1 0a b9 8a 8e f4 3d
       0.032273278 0.058600184 -0.00013238797 0.1194125
0003e0 4a 79 84 3c 52 ee 83 bd 13 86 91 bd f4 57 ea 3c
       0.016171116 -0.0644194 -0.07105651 0.028606392
0003f0 42 eb 2c 3c 93 17 8e 3d 06 9f ba 3d cc 61 cd bd
       0.010554137 0.0693809 0.091123626 -0.10028419

decoder.layers.4.bias f4 [24]
000000 5b 58 69 3d 23 c8 a6 3d 4e ba ca 3c 59 5d c0 bd
       0.056969028 0.08143642 0.02474704 -0.09392805
000010 18 28 8e 3b 6e d7 da bd 80 50 cc 3c 96 e5 bd bc
       0.0043382756 -0.10685621 0.02494073 -0.023180764
000020 af be 86 3d 0a a8 b6 3d 79 4d 85 3d 93 9e db bc
       0.06579339 0.0891877 0.06508917 -0.026809013
000030 41 9f 87 3d 74 01 a5 3d e9 ab b5 bd b0 4e e0 3c
       0.06622172 0.08056918 -0.0887068 0.027381271
000040 5d 69 cf 3d 7d 5f 95 3d 47 bc e5 bd 45 15 89 3d
       0.10127518 0.072936036 -0.11217552 0.0669351
000050 22 4e 48 3d cd c6 62 be 92 ca d5 3c ce ea ed bd
       0.04890264 -0.22146149 0.02609757 -0.11617051
