m4_ws/src/morphing_lander/learned_models/2024-05-15_17-38-22/model_0.pth (torch, 33108 bytes, 22 tensors)

cond_normalizer.mean f4 [11]
0	0xbfb58df3	-1.4183944
1	0xbcfa0a99	-0.030522631
2	0xb9f8cf84	-0.00047456857
3	0x3a456faa	0.0007531593
4	0x3cd74598	0.026278302
5	0xba831462	-0.0010000581
6	0xbbdd3ade	-0.0067514023
7	0x3f07d164	0.5305388
8	0x3f0a5908	0.540421
9	0x3f07d23e	0.5305518
10	0x3f0a36fb	0.53990144

cond_normalizer.variance f4 [11]
0	0x3fe94c47	1.8226403
1	0x3bb38066	0.005477953
2	0x3aa7badc	0.0012796777
3	0x3b07951e	0.0020688246
4	0x3d2d400c	0.042297408
5	0x3d38e9da	0.045144893
6	0x3ed3a5fe	0.4133758
7	0x3c7c99b2	0.015417503
8	0x3c92eb16	0.017934363
9	0x3c827691	0.015925677
10	0x3c9067ee	0.017627683

output_normalizer.mean f4 [12]
0	0xbb8539d0	-0.0040657297
1	0xbb37b13b	-0.0028029222
2	0x3c6eb62f	0.014569803
3	0xb8230128	-3.8863305e-05
4	0x3b60ce99	0.003430283
5	0x3a57db08	0.00082342373
6	0x3bfa948a	0.007647102
7	0x3c12376b	0.0089243455
8	0x40454309	3.0822165
9	0x3c3aaccb	0.011393736
10	0x3f1beed8	0.6091132
11	0x3ad74d3b	0.0016426215

output_normalizer.variance f4 [12]
0	0x3df50d6e	0.11965452
1	0x3d8e6d72	0.06954469
2	0x3e284ad2	0.16434792
3	0x3a245b55	0.0006269713
4	0x3c6721bb	0.014107163
5	0x3c8adc91	0.016950877
6	0x3e9ca00a	0.3059085
7	0x3f0adcea	0.5424334
8	0x42727d64	60.62245
9	0x41ef6672	29.925022
10	0x40e33314	7.099985
11	0x3f1854cd	0.59504396

encoder.layers.0.weight f4 [32, 23]
0	0x3e2c4cbd	0.16826148
1	0x3d86ccee	0.06582056
2	0xbc075889	-0.0082608545
3	0xbd49b7d6	-0.049247585
4	0xbd9da2b2	-0.07697047
5	0xbd6c1293	-0.0576349
6	0xbd12aaa7	-0.035807278
7	0x3d6f8e4a	0.058485307
8	0xbdbb1bd1	-0.09136165
9	0x3e35afe3	0.17742877
10	0x3debf932	0.115221396
11	0x3cda374a	0.026637692
12	0x3d89211d	0.06695769
13	0x3e390c73	0.18071155
14	0x3e1f602c	0.1556403
15	0x3e37d85a	0.17953625
16	0x3dc69bb9	0.096976705
17	0x3df5aa66	0.119953915
18	0xbdfc8334	-0.123297125
19	0xbda07202	-0.07834245
20	0xbe1ac201	-0.15113069
21	0xbdd6760e	-0.10471736
22	0x3e1ec607	0.15505229
23	0x3db9d336	0.090734884
24	0x3b0895d9	0.002084127
25	0x3db18409	0.08667762
26	0xbd1f1ee8	-0.038847834
27	0xbe0a6ff7	-0.13519274
28	0xbda654dd	-0.08121655
29	0x3dc49333	0.095983885
30	0xbe3d0864	-0.18460232
31	0x3d446dd4	0.047956303
32	0x3c50dfe6	0.012748694
33	0xbcd9b638	-0.026576146
34	0xbe130af9	-0.14359654
35	0x3d0db0cc	0.034592435
36	0x3e1e254a	0.15443912
37	0x3dc3c6e0	0.09559417
38	0xbdee38e7	-0.11631947
39	0x3e155890	0.14584565
40	0x3e229ec1	0.15880872
41	0x3db1f88f	0.08689987
42	0x3df850b3	0.12124767
43	0xbe24ce8d	-0.16094418
44	0x3e2d1899	0.16903915
45	0xba2efa34	-0.00066748564
46	0x3c6c9f58	0.014442287
47	0x3e2a13dc	0.16609138
48	0x3e247c59	0.1606306
49	0x3de48706	0.11158566
50	0x3c05c8ad	0.008165521
51	0xbd25bf1a	-0.04046545
52	0x3e48e4af	0.19618486
53	0x3e35d19b	0.1775574
54	0xbe3351d5	-0.17511685
55	0xbdaf5184	-0.0856047
56	0xbd436c95	-0.047710974
57	0xbcb9661a	-0.022631694
58	0x3c076647	0.008264131
59	0x3d9a3fa0	0.07531667
60	0x3e0140f3	0.12622432
61	0x3e077cec	0.13231248
62	0xbe0b0dd2	-0.13579491
63	0xbe4c769f	-0.19967125
64	0xbe090e16	-0.1338428
65	0xbd843a10	-0.06456387
66	0x3db18d63	0.086695455
67	0x3d64c014	0.055847242
68	0x3e2ea5d4	0.17055446
69	0x3e05858e	0.13039228
70	0xbd8a2cf5	-0.06746856
71	0x3b3f661c	0.002920515
72	0x3c24621a	0.010033155
73	0x3c11d4c8	0.008900829
74	0x3cc44979	0.023960816
75	0x3db54325	0.088506974
76	0xbd9bc30b	-0.07605561
77	0xbe36008c	-0.17773646
78	0xbe34955a	-0.17635098
79	0x3da08870	0.078385234
80	0x3e31e354	0.17371875
81	0x3e0dcc0a	0.13847366
82	0x3e0ef6c6	0.13961324
83	0xbdc3d7fc	-0.0956268
84	0xbe0cb713	-0.13741712
85	0x3db14060	0.08654857
86	0x3d801c1c	0.062553614
87	0xbe3b06cf	-0.18264316
88	0xbbd54a58	-0.0065091066
89	0x3cc838db	0.024441173
90	0xbe250820	-0.1611638
91	0xbdd606c1	-0.10450507
92	0x3de4882c	0.11158785
93	0x3d93b0e3	0.07211473
94	0x3e50b311	0.20380808
95	0x3d2be6a1	0.04196799
96	0x3c5656d7	0.013082228
97	0xbe0965c5	-0.13417728
98	0xbd0bda64	-0.03414382
99	0x3e08a870	0.13345504
100	0x3ceaaa4f	0.028645663
101	0xbdfd8490	-0.123788
102	0xbe29dcc0	-0.16588116
103	0x3caa114f	0.020760207
104	0x3ba18ebb	0.004930345
105	0x3d9deb70	0.07710922
106	0xbdbd7af1	-0.09251965
107	0x3d90bf84	0.07067779
108	0x3dd70126	0.10498266
109	0x3e453a83	0.19260602
110	0xbd0c6989	-0.034280334
111	0xbd9de4c2	-0.07709648
112	0xbdcdf6d0	-0.100568414
113	0xbcd6cd50	-0.026220948
114	0x39b03817	0.00033611126
115	0xbc4d9589	-0.012547859
116	0xbd2bd3e3	-0.041950118
117	0x3da45785	0.080245055
118	0x3d7c861f	0.061651345
119	0x3e3f2763	0.18667369
120	0xbe2d2e39	-0.16912164
121	0xbe1f5c0d	-0.15562458
122	0x3e3c0ddf	0.18364666
123	0x3e17d7b2	0.14828375
124	0xbd2d1399	-0.042255018
125	0x3d0b60d4	0.03402789
126	0xbc4e9491	-0.012608663
127	0x3e140542	0.1445513
128	0x3a6ce294	0.00090364483
129	0xbe29e535	-0.16591342
130	0xbe1763c6	-0.14784154
131	0x3dbcf40a	0.09226234
132	0x3d7dac71	0.06193203
133	0x3e20cfd6	0.15704283
134	0xbbba2137	-0.005680229
135	0x3cbc01aa	0.022950012
136	0x3d19cc0b	0.037548106
137	0x3e27003e	0.16308686
138	0x3cca6fac	0.024711452
139	0x3e172456	0.14759955
140	0x3e34690d	0.17618199
141	0x3e095911	0.13412882
142	0x3c203be5	0.009779905
143	0x3d63edaa	0.055646576
144	0x3d32b1f2	0.043626733
145	0xbe420f8b	-0.18951242
146	0x3d152e76	0.03642126
147	0x3d2f99f4	0.04287143
148	0xbd2e32dc	-0.042528972
149	0xbe42d809	-0.19027723
150	0xbd068d2b	-0.032849472
151	0x3e38ba49	0.18039812
152	0xbdb85e0d	-0.09002314
153	0x3e373349	0.17890657
154	0x3ccc49a6	0.024937462
155	0x3c4dd7d1	0.012563662
156	0xbe433388	-0.19062626
157	0xbd4564c4	-0.0481918
158	0x3e1caa87	0.15299426
159	0xbdb0d5c2	-0.08634521
160	0x3e1b1c7b	0.15147583
161	0x3d87949f	0.06620144
162	0x3e1f3347	0.15546905
163	0xbe10c383	-0.14137082
164	0xbe15993d	-0.14609237
165	0xbe240759	-0.16018428
166	0x3e0a3d4e	0.13499948
167	0x3e1c7fe8	0.15283167
168	0xbe297aa9	-0.16550697
169	0x3c89fc88	0.01684405
170	0xbe0e4bb3	-0.13896064
171	0xbe54d113	-0.2078288
172	0xbdf15836	-0.11784403
173	0xbe54d469	-0.20784153
174	0xbd065cba	-0.032803275
175	0x3e4eaf20	0.20183992
176	0xbd5b2fe6	-0.053512476
177	0x3d54b89f	0.05193388
178	0xbe4b61b8	-0.19861495
179	0xbcffed9b	-0.031241229
180	0x3adbe917	0.001677784
181	0x3d927abd	0.07152317
182	0xbd8fb55c	-0.070170134
183	0xbe377ccd	-0.17918701
184	0xbdcc7ec5	-0.09985117
185	0xbcc3de0f	-0.023909597
186	0x3d90a178	0.07062048
187	0xbdea6926	-0.11445837
188	0x3d82d6ec	0.06388649
189	0xbe389a4b	-0.18027608
190	0xbe2faf41	-0.17156698
191	0xbded51e7	-0.11587887
192	0xbc0e062d	-0.008668465
193	0x3e0aa375	0.13538916
194	0x3db23225	0.087009706
195	0xbde5336c	-0.111914486
196	0x3e0d5ef8	0.13805759
197	0xbb588552	-0.003303845
198	0xbdd5fbd3	-0.10448422
199	0xba949f53	-0.0011338986
200	0x3d8fbc0c	0.07018289
201	0x3d9098d5	0.070604004
202	0x3e48a1ae	0.19592926
203	0x3da10612	0.07862486
204	0x3e19978c	0.14999217
205	0xbe17c123	-0.1481977
206	0x39d4c118	0.00040579657
207	0xbb4c8019	-0.0031204282
208	0x3d3575d9	0.04430184
209	0x3da4ba98	0.080434024
210	0x3d66911b	0.056290727
211	0xbe1629d6	-0.14664397
212	0xbe264238	-0.16236198
213	0xbdc53b7c	-0.09630486
214	0x3de4b2d7	0.111669235
215	0xbd9e1bf1	-0.07720173
216	0x3d3bc98f	0.045846518
217	0x3e1f2732	0.15542296
218	0x3dc5a9af	0.09651505
219	0xbdade499	-0.08490867
220	0xbd948c84	-0.07253364
221	0x3dd32f0e	0.10311709
222	0x3e4bb8cf	0.19894718
223	0xbda206cc	-0.07911453
224	0x3d9d9183	0.0769377
225	0x3baea148	0.005329285
226	0xbdf8e4ca	-0.12153013
227	0x3c2f130c	0.0106856935
228	0x3d5a3aba	0.053278662
229	0x3dfad09a	0.12246819
230	0xbdb77fe1	-0.08959938
231	0x3e291c0b	0.16514604
232	0xbe08d290	-0.13361573
233	0xbd8bc3f3	-0.06824484
234	0x3c1ebee0	0.009689063
235	0x3e01fca5	0.12694032
236	0xbd949cea	-0.072564915
237	0x3e371426	0.1787878
238	0x3ca990c2	0.020698909
239	0x3daefd2c	0.085443825
240	0xbe2795aa	-0.16365686
241	0xbd9c4e5e	-0.07632135
242	0x3e4e636c	0.20155114
243	0xbb6b6ff1	-0.0035924877
244	0xbdb04f56	-0.08608882
245	0x3d3719f9	0.044702504
246	0xbe3b5d7a	-0.18297377
247	0xbe1669fd	-0.14688869
248	0xbdccfbc9	-0.10008962
249	0x3d3b3228	0.04570213
250	0xbcd37b73	-0.025815701
251	0xbe12854c	-0.14308661
252	0xbc2a466d	-0.010392767
253	0x3e28958c	0.16463298
254	0xbd812223	-0.06305339
255	0x3e19adc3	0.15007691

encoder.layers.0.bias f4 [32]
0	0x3dbe4380	0.09290218
1	0x3dd56840	0.10420275
2	0x3df2f9a4	0.118640214
3	0x3e16f638	0.14742362
4	0x3e473bbf	0.19456385
5	0xbd7fa364	-0.06241168
6	0xbcbe2076	-0.023208838
7	0x3db8758d	0.09006796
8	0xbe133346	-0.14375028
9	0xbd7f4cb4	-0.06232901
10	0xbc8a5fda	-0.016891409
11	0x3e32f09d	0.17474599
12	0x3d9fc4f6	0.07801239
13	0xbdc302d4	-0.09522024
14	0xbe379c58	-0.17930734
15	0xbc05c350	-0.008164242
16	0x3e17b028	0.14813292
17	0x3e176402	0.14784244
18	0xbe393b67	-0.18089066
19	0x3d9d1f54	0.07671991
20	0xbd8bb42d	-0.06821475
21	0x3e2411df	0.16022442
22	0x3cf9e54a	0.030504841
23	0x3e03184d	0.12802239
24	0x3df00cd1	0.117211945
25	0x3de3f8dc	0.111314505
26	0x3e586a5e	0.21134326
27	0x3affe7c8	0.0019524032
28	0x3e318897	0.17337261
29	0xbde6bc95	-0.11266438
30	0x3d8c12ee	0.06839548
31	0x3dd35dd8	0.10320634

encoder.layers.2.weight f4 [32, 32]
0	0x3de28748	0.11060959
1	0xbe1408e7	-0.14456521
2	0x3dddb589	0.10825641
3	0xbe2d0acb	-0.16898648
4	0x3d726955	0.059182484
5	0x3da4d394	0.08048168
6	0xbcb37c46	-0.021909844
7	0xbd26ceb1	-0.04072446
8	0x3da823c5	0.082099475
9	0xbbba5dff	-0.0056874747
10	0x3dc7dfbf	0.09759473
11	0xbe0ef128	-0.13959181
12	0xbe2d86fe	-0.16946027
13	0xbe225c5b	-0.15855543
14	0xbe28cec3	-0.16485123
15	0xbbf85813	-0.0075788586
16	0x3df5a09f	0.11993527
17	0x3d44622a	0.04794518
18	0xbe248ea2	-0.16070035
19	0xbd38f4aa	-0.045155205
20	0xbd8beb67	-0.06832009
21	0xbdeb0b3a	-0.11476751
22	0xbb45d969	-0.00301894
23	0xbe196292	-0.14979008
24	0x3ccf559b	0.025309375
25	0xbdd46394	-0.103705555
26	0xbcf5f2ea	-0.030023057
27	0xbe24faeb	-0.16111343
28	0x3e15352d	0.14571066
29	0x3dc38a3d	0.09547851
30	0x3ce8a8b2	0.028400753
31	0xbd6845e0	-0.056707263
32	0x3e05ab75	0.13053687
33	0x3dc8309a	0.09774895
34	0xbdb17088	-0.08664042
35	0xbe2e85c2	-0.17043212
36	0xbe1c6dca	-0.15276256
37	0xbc8e6da5	-0.017386267
38	0x3d55a189	0.052156005
39	0x3d195a8a	0.03743986
40	0xbe262987	-0.16226779
41	0xbde71b5d	-0.11284516
42	0xbd1ac84f	-0.037788685
43	0x3ca88997	0.02057342
44	0x3dc6a619	0.09699649
45	0xbc487794	-0.012235541
46	0x3e058b88	0.13041508
47	0xbe2ae6ff	-0.1668968
48	0xbd71f26f	-0.059069093
49	0xbbae42a2	-0.005318002
50	0x3da263a8	0.07929164
51	0xbc44ac43	-0.012003961
52	0xbdb03e96	-0.08605687
53	0x3c8af634	0.016963102
54	0xbe2acbb3	-0.16679268
55	0x3d9a252e	0.07526623
56	0xbdedfc5e	-0.11620401
57	0x3d960d23	0.073267244
58	0xbdd9f4bb	-0.10642382
59	0x3e04be8e	0.12963316
60	0xbcc4b475	-0.02401183
61	0x3dcc3f5c	0.09973022
62	0x3b3697eb	0.0027861546
63	0x3d88dedd	0.06683133
64	0xbd7a9e79	-0.061186288
65	0xbd9f3cd9	-0.07775278
66	0xbe205a6b	-0.15659492
67	0xbd9e3ff0	-0.07727039
68	0xbe1521cf	-0.14563678
69	0xbde63092	-0.11239733
70	0x3dcd0c18	0.10012072
71	0xbd59a6ef	-0.053137716
72	0xbcd83e21	-0.026396813
73	0x3e313b63	0.1730781
74	0x3da47019	0.080291934
75	0x3da84b66	0.08217506
76	0x3d81e17c	0.06341836
77	0x3d8cf5b4	0.06882802
78	0x3e04c68b	0.12966363
79	0x3cf2a0a2	0.029617611
80	0x3d7fab26	0.06241908
81	0xbcdfb491	-0.02730778
82	0x3c2c6cfe	0.010524033
83	0x3d1e2327	0.038607743
84	0x3d84e1cf	0.06488382
85	0xbd55907d	-0.052139748
86	0xbe0c52a2	-0.13703397
87	0x3e18f95d	0.14938875
88	0xbe2ddfc3	-0.1697989
89	0x3e144417	0.14479099
90	0xbe14df4e	-0.14538309
91	0xbd331c78	-0.04372832
92	0x3e2d5376	0.16926369
93	0x3af8e4a1	0.0018989035
94	0xbd8d50b1	-0.06900156
95	0x3e2e3774	0.17013341
96	0xbe1bd617	-0.15218388
97	0x3e13a8a6	0.14419803
98	0xbe1dbf78	-0.15405071
99	0xbd815eed	-0.06316934
100	0x3dd1a4b5	0.102364935
101	0xbe123e5e	-0.14281604
102	0x3c10218d	0.008797062
103	0xbd6c4434	-0.05768223
104	0x3e25857f	0.16164206
105	0x3e257bc6	0.16160497
106	0xbd38f44e	-0.045154862
107	0xbe032a23	-0.12809043
108	0x3da9e8d6	0.08296363
109	0x3e1562ac	0.14588422
110	0x3b9a3a43	0.0047066524
111	0xbcaeadcb	-0.021323105
112	0x3db79642	0.08964206
113	0x3e114c44	0.1418925
114	0x3d68be2f	0.056822
115	0xbe1f6170	-0.15564513
116	0xbe158637	-0.1460198
117	0x3e101af4	0.14072782
118	0xbd9df09b	-0.077119075
119	0x3da81b25	0.082083024
120	0x3d020af6	0.031748734
121	0x3e25d2f1	0.16193749
122	0xbdc60edc	-0.09670803
123	0x3da2200a	0.07916267
124	0x3dec503b	0.1153874
125	0xbe1e5963	-0.15463786
126	0xbd6a433e	-0.057193033
127	0x3d663dfb	0.056211453
128	0xbde1edcd	-0.11031685
129	0xbd56445c	-0.052311286
130	0xbe06135c	-0.13093323
131	0x3e1a666c	0.15078133
132	0xbdae0d78	-0.08498663
133	0xbe271ede	-0.16320369
134	0x3df4d6ae	0.119550094
135	0x3d64ef87	0.055892494
136	0xbe07ac7e	-0.13249394
137	0xbe053ab1	-0.1301067
138	0x3d798e91	0.060926978
139	0xbdc5291b	-0.09626981
140	0x3d846e9d	0.0646641
141	0xbd8dad23	-0.06917789
142	0xbe0bdcaa	-0.13658395
143	0xbd2c305a	-0.0420383
144	0xbd3c6a51	-0.04599983
145	0x3d924fb2	0.07144107
146	0x3d7e0994	0.062020853
147	0x3ded988e	0.11601363
148	0x3e1e9ee1	0.15490295
149	0x3e24bcbe	0.16087624
150	0x3decd161	0.11563373
151	0xbdd78c31	-0.10524786
152	0xbd978622	-0.07398631
153	0xbd27a61a	-0.04092989
154	0xbb5a1648	-0.003327744
155	0x3e0fa524	0.1402784
156	0xbd493a56	-0.0491279
157	0xbe006050	-0.1253674
158	0xbe038d9d	-0.1284699
159	0xbbcd25ca	-0.0062606083
160	0xbdd43f8b	-0.10363682
161	0x3e2e7922	0.17038396
162	0x3dc94298	0.09827155
163	0x3dd1f187	0.10251146
164	0xbdc14632	-0.09437217
165	0xbe1a9fac	-0.15099972
166	0xbe18e8ba	-0.14932528
167	0xbd880d11	-0.06643117
168	0x3e1d37a8	0.15353262
169	0x3d0291ce	0.03187733
170	0xbd5882bd	-0.052859057
171	0xbde80139	-0.11328358
172	0x3d36ece8	0.044659525
173	0x3da1a10c	0.078920454
174	0x3cc7c420	0.024385512
175	0x3d5ebc91	0.05437905
176	0x3df30291	0.11865724
177	0x3d7d8751	0.061896626
178	0xbd89a9b1	-0.06721819
179	0xbb1cb398	-0.0023910757
180	0xbd105bfb	-0.03524397
181	0x3e200d42	0.15630057
182	0x3d9c2ef2	0.076261416
183	0x3d909df8	0.0706138
184	0xbd8f1312	-0.06986059
185	0x3e2c2ce1	0.16813995
186	0x3dc78641	0.09742404
187	0x3e047f38	0.12939155
188	0x3d3c3f2e	0.04595869
189	0x3db5acf5	0.088708796
190	0xbe22333b	-0.15839855
191	0xbd9befb6	-0.076140806
192	0x3e2a025a	0.1660246
193	0x3d03ebcf	0.032207306
194	0xbde983fb	-0.114021264
195	0x3db75410	0.089515805
196	0xbe29ddbd	-0.16588493
197	0x3db3b091	0.08773912
198	0x3d9b3313	0.07578101
199	0xbe1a34cc	-0.15059203
200	0x3d126469	0.03574029
201	0xbdcd6ea8	-0.10030872
202	0xbe095e51	-0.13414885
203	0x3d61b1b8	0.055101126
204	0xbd1f5f0f	-0.038909014
205	0xbda256f4	-0.07926741
206	0x3dcf3d14	0.101190716
207	0xbe168957	-0.14700828
208	0xbd830c29	-0.06398804
209	0xbd594521	-0.053044442
210	0xbcf7a588	-0.030230299
211	0xbdad79f5	-0.08470527
212	0x3d84598c	0.06462392
213	0xbdf19232	-0.11795463
214	0x3e168fc3	0.14703278
215	0xbcfd7bde	-0.030942854
216	0x3e0828d0	0.13296819
217	0x3d99389a	0.07481499
218	0x3e046b72	0.12931612
219	0x3c8c235e	0.017106708
220	0x3e1df37c	0.15424913
221	0xbe07429d	-0.13209005
222	0x3d29ec01	0.041484836
223	0x3dc71f29	0.0972274
224	0xbe243430	-0.16035533
225	0xbe1aa5b1	-0.15102269
226	0x3dedeeed	0.11617837
227	0xbe28b8ba	-0.16476718
228	0xbd5afdf3	-0.05346484
229	0x3e1dd9b2	0.15415075
230	0xbd88b5bf	-0.0667529
231	0xbdd399c6	-0.10332064
232	0x3da9c7f0	0.08290088
233	0x3e1a0bf4	0.15043622
234	0xbd8633ba	-0.06552835
235	0x3dac6952	0.08418526
236	0xbcefcbdc	-0.029272012
237	0xbd110efb	-0.035414677
238	0xbde85dd7	-0.113460235
239	0x3e0d3fc9	0.13793863
240	0xbe0bf74a	-0.13668552
241	0xbb05dced	-0.0020425871
242	0x3d5c4000	0.053771973
243	0x3e0b5d9c	0.13609928
244	0x3dd26b35	0.10274354
245	0x3dc60561	0.09668995
246	0xbb3d81fd	-0.002891659
247	0xbe2c878c	-0.16848582
248	0x3e2735a8	0.16329062
249	0x3cfddf94	0.0309904
250	0xbd7fe500	-0.06247425
251	0x3e07b323	0.13251929
252	0xbe0175fc	-0.12642664
253	0x3da5cf7d	0.08096216
254	0xbda36cb7	-0.0797972
255	0x3dab682d	0.08369479

encoder.layers.2.bias f4 [32]
0	0x3d0a829d	0.03381597
1	0xbccd5553	-0.0250651
2	0xbe1581de	-0.14600322
3	0x3d55cb17	0.052195635
4	0xbd3a04ed	-0.045414854
5	0x3c066d43	0.008204761
6	0x3cb05956	0.021526974
7	0xbe262736	-0.16225895
8	0xbe21323b	-0.15741818
9	0x3d6f82b9	0.058474276
10	0x3d1ebffe	0.038757317
11	0x3dab8641	0.08375216
12	0x3dd1a072	0.10235681
13	0x3de1ef80	0.11032009
14	0xbe0e5bfa	-0.13902274
15	0x3e241c52	0.16026428
16	0xbe03c257	-0.12867104
17	0x3e16d2b7	0.14728819
18	0x3ccfd848	0.025371686
19	0x3d510611	0.051031176
20	0xbd8a56d9	-0.06754846
21	0x3e0c345c	0.13691849
22	0x3dc7b7d4	0.09751859
23	0xbc1aed1a	-0.0094559435
24	0x3e1bc78a	0.15212837
25	0x3e1aab53	0.15104418
26	0x3d20ce3c	0.03925918
27	0x3e1906a8	0.14943945
28	0xbdedeb66	-0.11617164
29	0xbde08d32	-0.10964431
30	0x3dc6ed20	0.09713197
31	0x3df70602	0.12061693

encoder.layers.4.weight f4 [12, 32]
0	0xbdcce244	-0.10004094
1	0x3d15465e	0.03644406
2	0xbdd47083	-0.103730224
3	0x3da5b437	0.08091014
4	0xbd867f62	-0.06567265
5	0xbd5a9dbc	-0.053373083
6	0x3da0a3bb	0.07843729
7	0x3d4f8d48	0.050671846
8	0x3d9de7bc	0.077102154
9	0x3d290022	0.041259892
10	0xbb887850	-0.004164733
11	0xbe120800	-0.14260864
12	0xbe2727c6	-0.16323766
13	0x3e1b77a2	0.15182355
14	0x3d77f19c	0.06053315
15	0x3e0a01cf	0.13477252
16	0xbdace149	-0.08441407
17	0x3e00e821	0.1258855
18	0x3c98c38b	0.01864793
19	0x3dffc657	0.12489002
20	0xba664abf	-0.0008784942
21	0x3e29214b	0.16516607
22	0x3c7711ea	0.015079955
23	0x3e30d989	0.17270483
24	0xbcb26a1f	-0.021779118
25	0xbe2de07f	-0.1698017
26	0x3dcb8409	0.09937293
27	0xbd994514	-0.07483879
28	0xbe2def89	-0.16985907
29	0xbccbfa33	-0.024899578
30	0x3c4d79cd	0.012541247
31	0x3da095d1	0.07841075
32	0xbe11f3cc	-0.14253157
33	0x3dfd0707	0.12354856
34	0xbd04807f	-0.032349106
35	0x3dea34ff	0.114358895
36	0x3bb0a665	0.0053909295
37	0xbe2881a1	-0.164557
38	0x3e27195f	0.16318272
39	0x3d893979	0.06700415
40	0x3e074074	0.1320818
41	0x3daa5216	0.08316438
42	0x3d2cd424	0.0421945
43	0x3ddda00f	0.108215444
44	0xbe1229ed	-0.14273806
45	0xbdf51fed	-0.1196898
46	0x3cb8dd94	0.022566594
47	0xbd752f1c	-0.05985938
48	0x3df3b327	0.11899405
49	0xbda3ed0f	-0.080042
50	0x3e2810a2	0.16412595
51	0xbdcd78aa	-0.100327805
52	0xbe1d278c	-0.15347117
53	0x3d9e641e	0.077339396
54	0x3e1d2c9d	0.1534905
55	0x3cfe006f	0.031006066
56	0x3e1ce5d1	0.15322043
57	0x3da450ac	0.080231994
58	0x3df83dcb	0.12121161
59	0x3e077cd3	0.1323121
60	0x3ca72d07	0.020407213
61	0x3e28dbec	0.16490144
62	0x3db21572	0.086954966
63	0x3d3bde32	0.0458662
64	0xbd515310	-0.051104605
65	0xbe157b25	-0.14597757
66	0x3dd5688c	0.10420331
67	0x3e0e3d0a	0.13890472
68	0xbd8db9a8	-0.06920177
69	0xbde03bd9	-0.10948915
70	0x3d66b1bb	0.05632184
71	0x3e2e4145	0.17017086
72	0x3e234f92	0.15948322
73	0xbda111c9	-0.078647204
74	0x3d65f036	0.056137286
75	0xbdde890f	-0.108659856
76	0x3e05f89d	0.1308312
77	0xbe101736	-0.14071354
78	0x3e0d346a	0.13789526
79	0x3d1356b7	0.03597137
80	0xbd078073	-0.033081483
81	0xbd83bd64	-0.06432608
82	0xbe181901	-0.14853288
83	0x3e01dc5c	0.12681717
84	0xbd833332	-0.06406249
85	0x3de2f6d5	0.11082236
86	0x3e28b72c	0.16476125
87	0xbe023eb1	-0.12719227
88	0x3e256bd6	0.16154417
89	0xbc796188	-0.015221007
90	0xbd22c068	-0.039734274
91	0xbde340d8	-0.11096352
92	0xbdd74846	-0.10511832
93	0xbd99fe24	-0.075191766
94	0x3d4667bd	0.048438776
95	0xbdd31f4c	-0.10308704
96	0x3dccc9a1	0.09999395
97	0x3ca2e080	0.01988244
98	0x3ba2a04d	0.004962957
99	0xbe2f0727	-0.17092572
100	0xbd60c318	-0.054873556
101	0x3dc1321c	0.09433386
102	0x3d8c6131	0.06854475
103	0x3dba4282	0.090947166
104	0x3dc5cd25	0.09658269
105	0x3da47c73	0.08031549
106	0xbd5adf0c	-0.05343537
107	0x3d0adbf4	0.03390117
108	0x3deff3f4	0.11716452
109	0x3dc9e4c1	0.098580845
110	0x3e248890	0.1606772
111	0x3e2787e2	0.16360429
112	0x3dc9cbcb	0.098533235
113	0xbda155f6	-0.07877724
114	0xbc5d2e21	-0.0134997675
115	0xbe23b6c5	-0.1598769
116	0xbe06552e	-0.13118431
117	0x3d5f14cc	0.054463193
118	0xbb65898d	-0.0035024614
119	0xbe22c243	-0.15894417
120	0xbcd5b074	-0.026085116
121	0xbd391f21	-0.045195702
122	0x3d8c8cd7	0.068628006
123	0x3cedf8b4	0.029049255
124	0xbc9cc3df	-0.019136367
125	0x3e2e1c05	0.17002876
126	0xbd3a913f	-0.045548674
127	0x3db5422b	0.08850511
128	0xbdf4d332	-0.11954345
129	0xbe2f8c04	-0.17143255
130	0xbdd8b79c	-0.10581896
131	0x3e170676	0.14748558
132	0x3e05346d	0.1300828
133	0x3beb56b6	0.0071819676
134	0x3e25c664	0.16188961
135	0xbd2d2b8c	-0.042277858
136	0xbcde1109	-0.027107732
137	0xbddcc3d3	-0.10779538
138	0xbd09c019	-0.033630464
139	0x3e07a159	0.13245143
140	0xbd80d98a	-0.06291492
141	0xbc816f07	-0.015800012
142	0x3dfe4475	0.12415401
143	0x3db84bb5	0.08998815
144	0x3cfd72e3	0.030938571
145	0xbe134df0	-0.143852
146	0xbca4d2ca	-0.020120043
147	0xbd817642	-0.06321384
148	0x3da7d6b4	0.08195248
149	0xbdae5dbb	-0.085139714
150	0x3e18e4ac	0.14930981
151	0xbe1057c9	-0.14095987
152	0x3d56fd2a	0.05248753
153	0x3d9b697d	0.0758848
154	0x3cc87a19	0.024472283
155	0x3db15688	0.08659083
156	0xbd76ddff	-0.060270306
157	0x3d387fae	0.04504364
158	0xbe2cc1dd	-0.16870828
159	0xbd0649e9	-0.03278533
160	0xbd82fbf0	-0.063957095
161	0x3cc26ecf	0.023734478
162	0x3d7e5c54	0.06209977
163	0x3e081354	0.13288623
164	0xbdb843f7	-0.08997338
165	0x3da81218	0.08206576
166	0x3c8946bc	0.016757362
167	0x3dcb2d00	0.099206924
168	0xbd1ee8d3	-0.038796257
169	0x3b8e8612	0.0043494785
170	0x3d7faae9	0.062418852
171	0x3dc46070	0.095887065
172	0xbcfbb50e	-0.030725982
173	0x3b4075c0	0.002936706
174	0xbe231fa9	-0.15930046
175	0xbdf1cb93	-0.11806407
176	0xbe24809e	-0.16064689
177	0xbc92b54a	-0.017908711
178	0x3de6e6b2	0.112744704
179	0x3db70c50	0.08937895
180	0x3c422118	0.0118487105
181	0xbc09a7ff	-0.00840187
182	0x3d038f55	0.032119114
183	0xbd247955	-0.040154774
184	0x3d8a4492	0.0675136
185	0x3e0f03b6	0.1396626
186	0x3dea58b8	0.11442703
187	0x3ba6bf72	0.00508874
188	0x3db436f1	0.08799542
189	0xbdc9ab22	-0.09847094
190	0x3e2079be	0.15671441
191	0xbd86566e	-0.06559454
192	0xbcce9383	-0.025216823
193	0xbd6ac6e2	-0.057318576
194	0x3de81c35	0.11333505
195	0x3cc8a869	0.024494367
196	0x3e28c4a6	0.16481265
197	0x3e283e43	0.16430001
198	0xbe2488aa	-0.16067758
199	0xbdabfad3	-0.0839745
200	0xbd73158e	-0.059346728
201	0xbcbb28e7	-0.022846652
202	0xbd9eac4c	-0.07747707
203	0x3ceca5aa	0.028887589
204	0x3d8a3d43	0.06749966
205	0x3d5e4728	0.05426708
206	0xbe021869	-0.12704624
207	0x3db6bffa	0.089233354
208	0x3e1242cd	0.14283295
209	0xbd1ba506	-0.037999175
210	0xbdb14840	-0.08656359
211	0xbca758c6	-0.020428073
212	0xbd3418fd	-0.043969143
213	0xbe137569	-0.14400257
214	0xbdaa353d	-0.08310936
215	0xbe110a81	-0.14164163
216	0x3e3161ad	0.17322417
217	0x3d0e8cc3	0.03480221
218	0x3c927423	0.017877644
219	0x3e0ab959	0.13547267
220	0x3e08e611	0.13369013
221	0x3ddd4757	0.108046226
222	0x3e04d63d	0.1297235
223	0xbe08b445	-0.13350017
224	0x3db83348	0.08994156
225	0xbcb3d0c2	-0.02195013
226	0xbe045cd0	-0.1292603
227	0x3e0343d7	0.12818848
228	0xbdd69d18	-0.10479182
229	0x3dd53d7d	0.104121186
230	0xbe0af395	-0.13569482
231	0xbde1369f	-0.10996746
232	0x3e169228	0.14704192
233	0x3d5e9fcb	0.05435161
234	0xbc474e4e	-0.012164665
235	0xbe156999	-0.14591064
236	0x3d1e9a24	0.03872122
237	0xbda867d0	-0.08222926
238	0x3db70ff2	0.08938588
239	0x3d3efe05	0.04662897
240	0xbb9a8722	-0.004715816
241	0x3e1258da	0.14291707
242	0xbdca75a9	-0.09885723
243	0xbd9c40bd	-0.07629535
244	0xbda7187e	-0.081589684
245	0xbd773400	-0.060352325
246	0xbe2dd799	-0.16976775
247	0xbc28fac1	-0.010313691
248	0xbd404e00	-0.046949387
249	0x3d4bbf9f	0.04974329
250	0xbc9fa06c	-0.019485675
251	0x3e2dfcc7	0.16990958
252	0xbdf7c10f	-0.1209737
253	0xbd81c949	-0.0633722
254	0xbe03f78b	-0.12887399
255	0xbc87310f	-0.016502885

encoder.layers.4.bias f4 [12]
0	0xbbdd271e	-0.006749048
1	0xbde8bc54	-0.11364046
2	0x3d4061ce	0.046968274
3	0x3bb0a8b2	0.005391204
4	0x3da1434a	0.078741625
5	0xbe01e339	-0.12684335
6	0x3cfcaacd	0.030843163
7	0x389410e4	7.060336e-05
8	0x3d3402eb	0.043948095
9	0x3d225d6d	0.03963988
10	0xbbb24c84	-0.0054412503
11	0x3dfebe17	0.124386005

decoder.layers.0.weight f4 [32, 17]
0	0x3dc38115	0.09546105
1	0xbdc84ba1	-0.0978005
2	0x3e496712	0.19668224
3	0x3e768b97	0.24076687
4	0x3e739335	0.23786624
5	0x3e31fa1f	0.1738057
6	0x3c8070c9	0.01567878
7	0xbd578a64	-0.052622214
8	0xbd921764	-0.07133368
9	0x3b41effc	0.0029592505
10	0xbda75357	-0.08170193
11	0x3e746f69	0.23870625
12	0xbdc88c07	-0.09792333
13	0x3dc0e96e	0.09419523
14	0xbe1801a7	-0.1484438
15	0x3e701636	0.23445973
16	0x3db30d4f	0.08742773
17	0xbdb94317	-0.090459995
18	0x3e2ba2b1	0.1676128
19	0xbe5b3289	-0.21405996
20	0xbe0d767d	-0.13814731
21	0x3d9cd58a	0.07657917
22	0xbe388f1d	-0.18023343
23	0x3d8a82c9	0.067632265
24	0xbd89e0b4	-0.06732312
25	0xbe19babb	-0.15012638
26	0x3d1a4ed6	0.03767284
27	0x3e672f57	0.22576652
28	0x3b02f265	0.0019980904
29	0xbd6448ec	-0.055733606
30	0x3e29a3fd	0.16566463
31	0x3e19d281	0.15021707
32	0x3e505b69	0.2034737
33	0xbdd66652	-0.10468735
34	0xbe4906f7	-0.19631563
35	0xbdfb42f9	-0.122686334
36	0xbc4c6ab6	-0.012476614
37	0x3dbb1f9b	0.09136888
38	0xbe495d4f	-0.196645
39	0xbe53dbdb	-0.20689337
40	0xbd6d4e6f	-0.05793613
41	0x3dc0f000	0.09420776
42	0x3e2d3a6c	0.16916817
43	0x3e266ef5	0.16253264
44	0x3e37f73c	0.17965406
45	0x3e585f9b	0.2113022
46	0xbe219bc1	-0.15782072
47	0x3e0fe9e3	0.14054064
48	0xbd533e88	-0.051573306
49	0x3e63ac97	0.22233807
50	0x3dce0d18	0.10061091
51	0xbe74cc45	-0.23906048
52	0x3e38208f	0.1798117
53	0xbe61c01c	-0.2204594
54	0x3e505267	0.20343934
55	0x3e567cd3	0.20946054
56	0x3e46a8bc	0.19400305
57	0xbdeca6bf	-0.11555242
58	0xbe661c5d	-0.22471757
59	0xbd6ae608	-0.05734828
60	0xbe3fc102	-0.1872597
61	0xbe517453	-0.2045453
62	0xbdead08a	-0.11465557
63	0x3e2c2a67	0.1681305
64	0xbd9e9bfd	-0.07744596
65	0x3b6f81c3	0.003654585
66	0x3de3c407	0.111213736
67	0x3e1cc4a4	0.15309387
68	0xbe25681c	-0.16152996
69	0xbe1bec8c	-0.15226954
70	0xbe33857a	-0.17531386
71	0x3e273d23	0.16331916
72	0xbdea9bf0	-0.11455524
73	0x3e3d664e	0.18496057
74	0xbe4445d1	-0.19167258
75	0xbddc7f0f	-0.10766422
76	0x3d903141	0.070406444
77	0xbbc6f076	-0.0060711456
78	0x3e027f95	0.12743981
79	0xbe17f782	-0.1484051
80	0xbe44cdf3	-0.19219188
81	0x3e45fb14	0.1933406
82	0xbddfb675	-0.10923473
83	0x3e34d9df	0.17661236
84	0xbe13e881	-0.14444162
85	0xbe0e2369	-0.13880695
86	0xbdcfb50d	-0.101419546
87	0xbd45935f	-0.048236247
88	0x3e20553c	0.15657514
89	0xbd9ba6e7	-0.076001935
90	0xbe3001f6	-0.17188248
91	0xbdae4799	-0.0850975
92	0xbe573ff3	-0.21020488
93	0x3cc01060	0.023445308
94	0xbe426831	-0.18985058
95	0x3d8799c8	0.06621128
96	0xbd55554d	-0.052083302
97	0x3dceb940	0.100939274
98	0x3df0f90c	0.11766252
99	0x3d821db0	0.06353319
100	0x3c586c2d	0.013209385
101	0x3dba0a9a	0.09084053
102	0x3db9b4e9	0.09067709
103	0x3d141f36	0.036162578
104	0x3e53ecf6	0.20695862
105	0x3d2a0d98	0.04151687
106	0xbe682d17	-0.2267345
107	0x3e32344c	0.17402762
108	0xbdee563a	-0.1163754
109	0x3e1cfaa0	0.15329981
110	0x3e123c64	0.1428085
111	0x3ddb2adc	0.10701534
112	0xbd8d339a	-0.06894608
113	0x3e282f8b	0.16424386
114	0xbd517f24	-0.05114664
115	0xbd049203	-0.03236581
116	0x3d2aacb0	0.041668594
117	0xbe52ecb3	-0.20598106
118	0x3e585bbc	0.21128744
119	0x3d0d22eb	0.03445713
120	0x3d896cfa	0.06710239
121	0xbe111d66	-0.14171371
122	0x3d7677f6	0.060172997
123	0x3e386c16	0.18009982
124	0xbe58e7d4	-0.21182185
125	0xbdd08d1e	-0.10183166
126	0xbe17af2c	-0.14812917
127	0xbe2d8e61	-0.16948844
128	0x3e3baab2	0.18326834
129	0x3e30b4ff	0.17256545
130	0x3e2e9a5b	0.1705107
131	0x3e6f57f1	0.2337339
132	0xbd10aac7	-0.035319116
133	0xbe3132c9	-0.17304529
134	0xbe38b1dc	-0.18036598
135	0x3bd9a2a3	0.0066417023
136	0x3e2e10b5	0.1699856
137	0x3c367c77	0.011138073
138	0x3debfe6e	0.11523138
139	0xbd0b9ab7	-0.034083094
140	0x3e09de6c	0.13463753
141	0xbc808211	-0.01568702
142	0xbd13df75	-0.036101777
143	0x3dbd0a94	0.09230533
144	0xbda74f3b	-0.08169409
145	0xbe36c802	-0.17849734
146	0xbde743ed	-0.11292253
147	0x3e2bbfc8	0.16772377
148	0x3e240300	0.1601677
149	0xbe551d70	-0.20812011
150	0x3d8aa13f	0.067690365
151	0x3e052c04	0.13005072
152	0xbdb163ab	-0.08661588
153	0xbc9c4f0d	-0.019080663
154	0xbe1183fe	-0.14210507
155	0x3d5eb974	0.05437608
156	0xbe41f734	-0.18941957
157	0x3e5f3ad3	0.21799783
158	0x3d53863e	0.051641695
159	0xbd24621f	-0.040132638
160	0x3d005cde	0.031338565
161	0xbddb4c4c	-0.10707912
162	0x3e73d333	0.23811035
163	0x3b59392b	0.0033145647
164	0x3df8d5c6	0.12150149
165	0x3de49184	0.111605674
166	0xbce216a2	-0.027598683
167	0x3d2106df	0.039313193
168	0x3dde840c	0.1086503
169	0xbdaec3ab	-0.085334145
170	0x3d8903f0	0.06690204
171	0x3d03e693	0.032202315
172	0x3d8e1a72	0.06938638
173	0x3e338a90	0.17533326
174	0x3e576867	0.2103592
175	0x3c55cadd	0.013048855
176	0x3d912b22	0.07088305
177	0xbe318794	-0.17336875
178	0x3e0fc5d7	0.14040314
179	0xbd7c395d	-0.061578143
180	0x3c726fee	0.014797194
181	0xbd8b0882	-0.06788732
182	0xbdcd055b	-0.10010787
183	0xbdf28c95	-0.1184322
184	0x3e0acf09	0.1355554
185	0x3d9b7d01	0.07592202
186	0xbe5aff77	-0.21386515
187	0xbe6bc995	-0.23026116
188	0xbe3ada21	-0.18247272
189	0x3de4b4eb	0.1116732
190	0xbd7eeafe	-0.062235825
191	0x3d724f07	0.059157398
192	0x3e40052a	0.1875197
193	0xbce3b525	-0.027796337
194	0xbde5cb5f	-0.112204306
195	0xbdbcd573	-0.092204
196	0xbd6cba10	-0.05779463
197	0xbe14b48f	-0.14522003
198	0xbca3991d	-0.019970471
199	0x3ce6d3f7	0.028177245
200	0x3daccddd	0.08437703
201	0xbe5e835e	-0.217298
202	0xbdc41c89	-0.09575755
203	0x3e69b66d	0.22823496
204	0x3e5424c6	0.20717153
205	0x3e2794ac	0.16365308
206	0x3badc205	0.00530267
207	0xbcdb8b25	-0.026799748
208	0xbcee88e8	-0.029118016
209	0xbe1ead8c	-0.1549589
210	0x3d56578d	0.05232959
211	0x3e4d67b1	0.20059086
212	0x3dcaa267	0.09894257
213	0xbe67072f	-0.22561334
214	0x3d4aeab6	0.049540244
215	0x3e6ce05a	0.23132458
216	0x3c9eb49c	0.01937323
217	0x3e00fe7a	0.12597075
218	0xbd19d3aa	-0.037555374
219	0x3e46e96e	0.19424984
220	0xbe550e88	-0.20806324
221	0x3d9905a7	0.07471781
222	0x3e0ce103	0.1375771
223	0xbd95f2e5	-0.07321719
224	0xbe41829b	-0.18897478
225	0xbe43bc97	-0.1911491
226	0x3da2b023	0.07943752
227	0xbde1b66a	-0.11021121
228	0xbdd0954c	-0.10184726
229	0xbc8adff0	-0.016952485
230	0xbdc4e8c7	-0.09614711
231	0xbc611518	-0.013737939
232	0x3e03af10	0.1285975
233	0xbda4630f	-0.080267064
234	0x3e2bd45a	0.16780224
235	0xbe6907ee	-0.22756931
236	0x3e7aacbb	0.24479954
237	0xbd67b3a1	-0.05656779
238	0x3da4e248	0.08050972
239	0xbd3500f5	-0.044190366
240	0xbe333039	-0.17498864
241	0xbd101473	-0.035175752
242	0x3d5735a9	0.05254141
243	0xbca061e7	-0.019577933
244	0xbe21afde	-0.15789744
245	0xbdbfccad	-0.09365211
246	0xbe253419	-0.16133155
247	0xbe271b5e	-0.16319034
248	0xbe3e668c	-0.18593806
249	0x3d988ed8	0.0744912
250	0x3db87c43	0.09008076
251	0xbe4a2c73	-0.19743519
252	0xbe51ef82	-0.20501521
253	0xbe00b087	-0.1256734
254	0x3e608eeb	0.21929519
255	0x3df19b5e	0.11797212

decoder.layers.0.bias f4 [32]
0	0xbe229fb2	-0.15881231
1	0x3e0f60e7	0.14001809
2	0xbdbb01f8	-0.09131235
3	0x3e4c8b47	0.19975005
4	0x3e579ba5	0.21055467
5	0x3e2e0fb1	0.16998173
6	0xbdeea9ec	-0.11653504
7	0xbe2a709f	-0.16644524
8	0xbe3ed150	-0.18634534
9	0xbe3f66e0	-0.18691587
10	0xbd680989	-0.05664972
11	0x3aaf8468	0.00133909
12	0x3e13b3eb	0.14424102
13	0xbe5fc828	-0.21853697
14	0xbe12ac4f	-0.14323543
15	0x3b3feea4	0.0029286528
16	0x3e04e5d7	0.12978302
17	0x3e05bca4	0.13060242
18	0x3b8d05b6	0.0043036593
19	0x3e52c2ad	0.20582075
20	0x3d469880	0.04848528
21	0x3e250b1c	0.16117519
22	0x3d880d19	0.06643123
23	0xbe2ead50	-0.17058301
24	0x3e16b89e	0.14718863
25	0xbd42636e	-0.047458105
26	0x3e3ccff5	0.18438704
27	0xbe199ca6	-0.15001163
28	0x3e20bb09	0.15696348
29	0xbe45d22b	-0.19318454
30	0x3cd995c5	0.026560673
31	0xbe550d98	-0.20805967

decoder.layers.2.weight f4 [32, 32]
0	0xbe072940	-0.1319933
1	0x3dfbd439	0.12296338
2	0xbda94aaa	-0.08266194
3	0x3d3da9b5	0.046304423
4	0xbe24a01b	-0.160767
5	0xbd887067	-0.06662064
6	0xbd928db1	-0.07155932
7	0xbd8e48d7	-0.06947487
8	0xbda64025	-0.08117703
9	0xbe0dc30b	-0.13843934
10	0xbce90b7c	-0.028447859
11	0xbd015f35	-0.031584937
12	0xbc6cfc46	-0.014464444
13	0xbd973bf1	-0.0738448
14	0xbdd8fa1f	-0.10594582
15	0x3d83d141	0.064363964
16	0xbc64032a	-0.01391677
17	0xbc777e9a	-0.015105868
18	0x3d545369	0.05183736
19	0x3d08efa1	0.033431653
20	0xbb6cb25b	-0.003611705
21	0xbd7417e9	-0.059593115
22	0x3cd32277	0.02577327
23	0x3da37929	0.07982094
24	0x3e39bdad	0.18138762
25	0xbdae96d5	-0.08524863
26	0xbdcbdfb6	-0.09954779
27	0x3d7d912f	0.061906036
28	0xbd1000cb	-0.035157006
29	0xbe0efe5f	-0.13964222
30	0xbde96e99	-0.11398048
31	0xbc7b48ba	-0.015337164
32	0x3def505b	0.116852485
33	0x3df2be6a	0.11852725
34	0x3e05490b	0.13016145
35	0xbcbb8235	-0.022889236
36	0x3c6f8d62	0.014621111
37	0xbe34f409	-0.17671217
38	0xbe2a06c8	-0.1660415
39	0x3da05428	0.078285515
40	0x3def3de0	0.116817236
41	0xbd8fb167	-0.07016259
42	0x3e35ef0f	0.17766975
43	0x3d8d3e96	0.06896703
44	0x3db0e946	0.086382434
45	0x3e132aea	0.14371839
46	0xbdaaa0bd	-0.0833144
47	0x3e013032	0.12616041
48	0xbe0d534c	-0.13801306
49	0xbc8ca984	-0.017170675
50	0x3e080dfe	0.13286588
51	0x3e18768b	0.1488897
52	0x3db3f13c	0.08786246
53	0xbc90ab3c	-0.017659776
54	0x3d4c1441	0.049824003
55	0xbe148e9a	-0.14507523
56	0xbe259fc2	-0.16174224
57	0xbdf54a58	-0.119770706
58	0x3e33e8ac	0.17569226
59	0x3c1f0eb7	0.009708098
60	0x3d6ede95	0.05831774
61	0x3dfd46e2	0.123670354
62	0xbd392a6f	-0.045206483
63	0x3bc320d5	0.0059548416
64	0xbe09c104	-0.13452536
65	0x3cdb6678	0.02678226
66	0xbd9d6510	-0.07685292
67	0xbe10e721	-0.14150669
68	0xbd9ca331	-0.07648314
69	0xbdee31b2	-0.116305724
70	0xbcacab29	-0.02107771
71	0x3d95b2eb	0.073095165
72	0xbcd790a2	-0.026314083
73	0xbccf81c0	-0.025330424
74	0x3db85fc8	0.09002644
75	0xbe21e222	-0.15808919
76	0xbdc94d30	-0.098291755
77	0x3e0e15ac	0.13875455
78	0xbd8c59ca	-0.068530634
79	0x3d256dab	0.04038779
80	0xbd88112f	-0.066439025
81	0xbe0a59fc	-0.13510889
82	0xbd87b09c	-0.066254824
83	0xbddf837e	-0.10913752
84	0xbd6f5fe7	-0.05844107
85	0xbe2e7c22	-0.1703954
86	0x3e2481e4	0.16065174
87	0x3dee6beb	0.116416775
88	0x3e30c2c6	0.172618
89	0xbd5df9e6	-0.0541934
90	0x3d7c7efd	0.061644543
91	0x3dee9465	0.11649398
92	0x3e0e1934	0.13876802
93	0xbe133593	-0.14375906
94	0xbd94deb2	-0.07269038
95	0x383e0ae8	4.5309687e-05
96	0xbe077b99	-0.13230743
97	0x3c8deeb7	0.017325742
98	0x3e20844d	0.15675469
99	0x3e12fd40	0.1435442
100	0x3c9869eb	0.018605193
101	0x3e0415ac	0.12898892
102	0xbd94f66e	-0.07273565
103	0xbd9e505e	-0.077301726
104	0xbd82f5cc	-0.06394538
105	0xbdac652b	-0.08417734
106	0x3d18f941	0.037347082
107	0x3cc8c19c	0.024506383
108	0xbd8c90c6	-0.06863551
109	0x3df744d5	0.120736755
110	0x3c9094b9	0.017649041
111	0xbd4ad897	-0.049522962
112	0x3e34cfbd	0.17657371
113	0x3d0bcee3	0.03413285
114	0x3e1c10b3	0.15240745
115	0x3d6579e8	0.056024462
116	0xbe1575fe	-0.14595792
117	0xbdd0ea52	-0.10200943
118	0xbb0ab18e	-0.002116296
119	0x3d6bbf97	0.05755576
120	0xbdb436ce	-0.08799516
121	0xbdcaa950	-0.09895575
122	0x3d8c212a	0.06842263
123	0xbe05da2a	-0.13071504
124	0xbe0b33a4	-0.13593918
125	0xbe35f1f1	-0.17768075
126	0x3d75da92	0.060022898
127	0xbcabe7c4	-0.020984538
128	0xbe050c19	-0.12992896
129	0xbd54e6a5	-0.051977772
130	0xbd382ab6	-0.044962607
131	0xbba8fee4	-0.0051573385
132	0x3d6e931e	0.05824577
133	0xbd8ae435	-0.06781808
134	0xbd1594b5	-0.03651877
135	0xbd2c4cb2	-0.04206533
136	0xbd178b94	-0.036998346
137	0xbce1d583	-0.02756763
138	0xbd844ce3	-0.064599775
139	0x3e058420	0.13038683
140	0xbd50ccf6	-0.050976716
141	0xbd6413a5	-0.055682797
142	0xbce598d9	-0.028026985
143	0xbe2d3b0f	-0.1691706
144	0xbdb0803d	-0.086182095
145	0x3de89553	0.11356606
146	0xbe05121f	-0.12995194
147	0xbe18e7ad	-0.14932127
148	0xbdd01227	-0.10159712
149	0x3daaa224	0.08331707
150	0xbdc74344	-0.09729627
151	0x3c83b5a7	0.01607783
152	0x3e27d1eb	0.16388671
153	0xbce9bcbb	-0.028532377
154	0xbdf780ec	-0.12085137
155	0xbe1ffe43	-0.15624337
156	0xbcd34944	-0.025791772
157	0xbdf934ff	-0.12168311
158	0x3e285242	0.16437629
159	0x3d802b79	0.06258292
160	0xbe2cb30b	-0.16865174
161	0xbb12b710	-0.0022386946
162	0xbe009a38	-0.1255883
163	0x3d92dcf1	0.071710475
164	0xbe166df9	-0.14690389
165	0xbde7b537	-0.11313861
166	0x3cf4de0a	0.029891033
167	0x3de2753e	0.110575184
168	0xbdd45424	-0.10367611
169	0xbc6affe1	-0.014343233
170	0xbe2bd8e2	-0.16781953
171	0xbddf9f47	-0.109190516
172	0x3e020483	0.12697034
173	0x3e0b7253	0.1361783
174	0xbcc753c0	-0.024331927
175	0x3dbfd6aa	0.09367116
176	0xbdbeb520	-0.093118906
177	0x3d28508e	0.041092448
178	0x3e2da503	0.16957478
179	0x3e07ab2e	0.13248894
180	0xbcd8d524	-0.02646882
181	0xbd9e2c75	-0.07723323
182	0xbe376159	-0.17908229
183	0xbdbf6d16	-0.09346978
184	0x3df9df39	0.122007795
185	0xbd3fb354	-0.04680188
186	0x3d7691bf	0.060197588
187	0x3e0e9c03	0.13926701
188	0x3dc5db20	0.096609354
189	0xbcca5ada	-0.024701525
190	0x3c9a11fc	0.018807404
191	0x3dbbaae9	0.09163458
192	0x3e237d1d	0.15965696
193	0xbde86fd4	-0.113494545
194	0x3cc4ac4c	0.024007939
195	0x3db47bb7	0.08812659
196	0x3dca5946	0.09880309
197	0xbdb29372	-0.08719529
198	0xbe2327f2	-0.15933207
199	0x3e06b101	0.13153459
200	0xbe1c57fc	-0.15267938
201	0xbd7bd1e8	-0.06147948
202	0x3d235794	0.039878443
203	0xbd8ed373	-0.069739245
204	0xbd090aeb	-0.033457678
205	0x3d9c41ba	0.07629724
206	0x3ddd23bd	0.10797832
207	0x3e183145	0.14862545
208	0xbdef0c03	-0.11672213
209	0x3ce4ae6c	0.027915202
210	0xbdd64491	-0.10462297
211	0x3d57b74b	0.052665036
212	0xbbc1fee6	-0.005920279
213	0xbe2c403c	-0.16821378
214	0xbc37846a	-0.011201004
215	0xbd8a78d6	-0.06761329
216	0xbdb42cfa	-0.08797641
217	0x3d8d9606	0.0691338
218	0xbd1a7fde	-0.0377196
219	0xbddba4f0	-0.10724819
220	0x3d4ebe8a	0.05047468
221	0xbce12681	-0.02748418
222	0xbda27eb9	-0.07934327
223	0xbdc52d3f	-0.09627771
224	0x3db0af97	0.08627241
225	0xbd0daf1c	-0.034590825
226	0xbe0d566b	-0.13802497
227	0xbd7c3fd5	-0.061584312
228	0x3e26129b	0.16218035
229	0x3dd12f25	0.1021407
230	0xbde794cf	-0.1130768
231	0xbcf8c85c	-0.030368976
232	0x3dc03695	0.09385411
233	0xba88d6be	-0.0010439975
234	0x3d4ea662	0.050451644
235	0x3db43eea	0.088010624
236	0x3dbc8382	0.092047706
237	0x3c8837eb	0.016628226
238	0xbddb9178	-0.10721105
239	0xbde4ba86	-0.11168389
240	0x3b3b5706	0.0028585806
241	0x3daa14c8	0.08304745
242	0x3e0ea0e7	0.13928567
243	0x3e3505c8	0.17677987
244	0x3dd762fc	0.10516927
245	0xbdc57389	-0.09641177
246	0xbd50a67c	-0.050940022
247	0xbdad3831	-0.08457983
248	0x3d85ccd1	0.06533206
249	0x3d16ba6e	0.036798887
250	0xbc347448	-0.011014052
251	0x3a9705f1	0.0011522156
252	0xbc8da27f	-0.017289398
253	0xbe273e85	-0.16332443
254	0x3e319e6d	0.17345591
255	0x3e116fde	0.1420283

decoder.layers.2.bias f4 [32]
0	0x3e19f36e	0.15034267
1	0x3d90fca3	0.07079437
2	0xbe1619d3	-0.14658289
3	0xbe26ef02	-0.16302112
4	0xbd2f0549	-0.04272965
5	0xbd359806	-0.044334434
6	0xbdc11f65	-0.09429816
7	0x3d49c407	0.049259212
8	0xbe35a663	-0.17739253
9	0xbcb46715	-0.02202181
10	0xbe34c2ea	-0.17652479
11	0x3deabfb0	0.11462343
12	0xbdbb96d6	-0.09159629
13	0xbe2b5ece	-0.16735384
14	0x3e29455f	0.16530369
15	0xbe2e21d5	-0.17005093
16	0x3db88a0e	0.09010707
17	0x3e06e912	0.13174847
18	0xbd882f53	-0.066496514
19	0x3c5234be	0.0128299575
20	0x3de2c9cb	0.11073645
21	0xbdbe0d20	-0.09279847
22	0xbe2e4fc8	-0.17022622
23	0x3e07c318	0.13258016
24	0x3cdc70da	0.02690928
25	0xbe265883	-0.16244702
26	0x3e07a881	0.13247873
27	0x3e32c26f	0.17456983
28	0x3d9d8ee9	0.076932736
29	0x3e1963f1	0.14979531
30	0xbd539c52	-0.05166275
31	0x3d1a7abe	0.037714712

decoder.layers.4.weight f4 [24, 32]
0	0xbca92018	-0.020645186
1	0xbd0ad885	-0.033897895
2	0xbd034496	-0.03204783
3	0x3e2c42a6	0.168223
4	0x3d9d6856	0.07685916
5	0x3e0934d1	0.13399054
6	0xbe26f913	-0.16305952
7	0xbd88e272	-0.06683816
8	0x3e0f3f4b	0.13988988
9	0x3cd8186a	0.026378829
10	0xbe27c5cf	-0.16384052
11	0x3c103629	0.008801975
12	0x3dd046c9	0.10169751
13	0xbda7f4b6	-0.08200972
14	0xbdb5219e	-0.088443026
15	0xbe25eabb	-0.16202824
16	0xbd6eacdb	-0.058270317
17	0x3e15ad1d	0.14616819
18	0xbdbc42ae	-0.09192406
19	0xbe1fb871	-0.15597703
20	0x3e108cf1	0.14116265
21	0xbd1dab66	-0.038493536
22	0xbd73f0c8	-0.0595558
23	0xbdf50f3f	-0.119657986
24	0xb920c764	-0.00015333068
25	0x3da6282d	0.08113132
26	0xbcf5e76a	-0.030017573
27	0x3db6c1f7	0.089237146
28	0x3d5bf789	0.053702865
29	0xbde0a7a9	-0.10969479
30	0xbdd404da	-0.10352488
31	0x3e0c1e40	0.13683414
32	0xbdcedfff	-0.101013176
33	0xbd5be561	-0.05368555
34	0xbe1ec093	-0.15503149
35	0xbe1bc9c6	-0.15213689
36	0x3d962aa6	0.07332353
37	0x3d3aba23	0.04558767
38	0xbca5e2f6	-0.020249825
39	0x3dd0a931	0.10188521
40	0x3cc54987	0.024082912
41	0xbc22e9a8	-0.009943403
42	0x3e0496f9	0.12948216
43	0x3b7b275a	0.0038323016
44	0x3d10a5c6	0.035314344
45	0x3d887605	0.066631354
46	0x3e2d9e2c	0.16954869
47	0xbe060989	-0.13089575
48	0xbd69e769	-0.057105456
49	0xbdaf6aa7	-0.08565264
50	0x3df105dd	0.117686965
51	0xbd1d5c5b	-0.038418155
52	0x3c1f1014	0.009708423
53	0xbdc12782	-0.09431364
54	0xbe0e2e98	-0.13884962
55	0xbbb830e1	-0.005621061
56	0xbe1c4499	-0.15260543
57	0x3e14aec7	0.14519797
58	0x3dc6b14c	0.097017854
59	0xbe17f554	-0.14839679
60	0x3cc1a4b1	0.023638101
61	0x3d639645	0.05556323
62	0xbd9ad493	-0.075600766
63	0x3d2b37ae	0.041801147
64	0x3d1c4250	0.038149178
65	0xbd9484d5	-0.07251898
66	0xbd88a4ee	-0.06672083
67	0x3d107aa0	0.035273194
68	0x3dab7ded	0.08373628
69	0xbe29c117	-0.16577564
70	0xbd68341e	-0.056690328
71	0xbe1c0ba8	-0.15238822
72	0x3dbe714b	0.09298953
73	0x3e1d03ee	0.1533353
74	0xbc5d4969	-0.013506272
75	0xbe1678e6	-0.14694557
76	0xbd4c56a8	-0.04988733
77	0xbdec9707	-0.11552244
78	0x3d311562	0.043233283
79	0xbd06a3c8	-0.032871038
80	0x3e168ea8	0.14702857
81	0xbdc72d3f	-0.09725427
82	0xbe20dc4a	-0.15709034
83	0x3e1f3105	0.15546043
84	0x3d35e1d7	0.04440483
85	0xbe152c8f	-0.14567779
86	0xbe2a17ab	-0.16610591
87	0x3d0ee170	0.034882963
88	0x3e0fea1d	0.14054151
89	0xbdf2dde2	-0.11858727
90	0x3e0f2522	0.13979009
91	0xbddb9349	-0.10721452
92	0x3d573dd9	0.052549217
93	0xbe2006e8	-0.15627635
94	0x3c822dbb	0.015890947
95	0xbde4ddc8	-0.11175114
96	0x3daaf9ca	0.08348425
97	0xbdf79a93	-0.120900296
98	0x3ca960f3	0.020676112
99	0x3c7277ef	0.014799102
100	0xbdac13ff	-0.084022515
101	0x3e3718fe	0.17880628
102	0x3e242ed6	0.16033491
103	0xbd7a7392	-0.061145373
104	0x3cf21b27	0.029553963
105	0x3c0d92d8	0.008640967
106	0xbc3d94dd	-0.011571136
107	0xbc9dba49	-0.019253867
108	0xbd1ba239	-0.037996504
109	0x3d7e355b	0.062062602
110	0x3e0596c0	0.13045788
111	0x3d742956	0.059609734
112	0x3da09ad8	0.07842034
113	0xbd5fa133	-0.05459709
114	0x3de63371	0.112402804
115	0xbd8b7670	-0.068096995
116	0x3d12a279	0.035799477
117	0xbd1a63de	-0.037692897
118	0xbd197dc3	-0.03747345
119	0xbe20b92b	-0.15695636
120	0xbcf2afb6	-0.029624801
121	0xbda51bbf	-0.08061933
122	0x3e105aae	0.14097092
123	0xbdf7d54f	-0.12101232
124	0xbe23c6ae	-0.15993759
125	0x3e2a95f6	0.16658768
126	0x3dc790d9	0.097444244
127	0x3c08ca7a	0.008349055
128	0xbe1ca890	-0.15298676
129	0xbdb01c3d	-0.08599136
130	0x3e0b1439	0.13581933
131	0x3e244b91	0.16044451
132	0x3d963d80	0.07335949
133	0x3e2e9625	0.17049463
134	0x3d1e59a4	0.038659707
135	0x3d786651	0.06064445
136	0x3ca8918e	0.020577218
137	0xbd36ff61	-0.044677142
138	0x3e0e2bf8	0.1388396
139	0xbe0756d7	-0.1321672
140	0xbd9c1216	-0.07620637
141	0x3db7d17f	0.08975505
142	0xbe0e2ae2	-0.13883546
143	0x3e2cab7c	0.16862291
144	0xbdbc5c14	-0.0919725
145	0xbe0f44b0	-0.13991046
146	0x3e06f033	0.13177566
147	0x3d09cd65	0.033643145
148	0x3d204f0b	0.03913788
149	0xbd8ac33e	-0.06775521
150	0xbdb16ef8	-0.08663744
151	0xbdb1729e	-0.086644396
152	0x3cfb715b	0.0306937
153	0xbe08c4da	-0.13356343
154	0xbd3ed3c5	-0.046588678
155	0x3e0cfba4	0.13767868
156	0xbdcddd2d	-0.100519516
157	0x3de1df39	0.110289045
158	0x3d59676f	0.053077158
159	0xbd970eaf	-0.073758475
160	0x3e292818	0.16519201
161	0xbd4c81d7	-0.049928512
162	0x3b8f8cca	0.004380797
163	0xbe2b61b2	-0.16736487
164	0x3dd9b5bc	0.10630366
165	0x3b6b7542	0.0035928045
166	0xbda06166	-0.07831077
167	0x3ddbb5cf	0.107280366
168	0x3dae922c	0.08523974
169	0xbd73c3fb	-0.059513073
170	0xbde2bb0c	-0.110708326
171	0x3e374e2a	0.17900911
172	0xbcc89dc8	-0.024489298
173	0xbce3bd4a	-0.027800221
174	0x3e30318f	0.17206405
175	0x3e2fcaf3	0.17167263
176	0xbe055ce1	-0.13023712
177	0x3e38d288	0.18049061
178	0xbdf9bcf2	-0.121942416
179	0x3dfc003d	0.12304733
180	0xbddc1990	-0.10747063
181	0x3d165345	0.036700506
182	0x3d7ca3be	0.061679594
183	0xbd8ec223	-0.069706224
184	0x3c241d60	0.010016769
185	0x3ce3be84	0.027800806
186	0xbd778150	-0.060426056
187	0xbc50d88c	-0.012746941
188	0x3dfd8f8c	0.12380895
189	0xbe2e1d82	-0.17003444
190	0xbc85b6ed	-0.016322577
191	0x3c439b74	0.011938918
192	0xbe25ba95	-0.16184457
193	0xbd349fb0	-0.044097602
194	0xbc6e9f2a	-0.014564315
195	0x3d527441	0.0513804
196	0x3e2447c3	0.16043
197	0x3da608bf	0.08107137
198	0x3e09a8f5	0.13443358
199	0xbcf58631	-0.029971214
200	0x3d397772	0.045279928
201	0xbe0b70ae	-0.13617203
202	0xbd0d9772	-0.034568258
203	0xbe1d6625	-0.15370996
204	0xbdf53eb7	-0.119748525
205	0xbe09632b	-0.13416736
206	0xbe16faa2	-0.14744046
207	0xbb748260	-0.0037309155
208	0x3e20585b	0.15658705
209	0x3e3107d2	0.1728814
210	0x3e1fc7d8	0.15603578
211	0xbe100118	-0.14062917
212	0x3d6a990e	0.05727487
213	0xbdd943f8	-0.10608667
214	0xbdca5971	-0.09880341
215	0xbdcd0e35	-0.100124754
216	0x3e148f0c	0.14507693
217	0xbdef1031	-0.1167301
218	0xbdb27edb	-0.08715602
219	0xbdceb969	-0.10093958
220	0xbd409b63	-0.04702319
221	0x3d2c0c3e	0.042003863
222	0xbdbefa1e	-0.0932505
223	0xbd8695c3	-0.065715335
224	0xbd21860a	-0.03943447
225	0xbe2bf03f	-0.16790865
226	0x3b8e5163	0.004343198
227	0x3e0b4158	0.13599145
228	0xbda8f4ea	-0.08249839
229	0x3da73479	0.08164305
230	0xbe1de033	-0.15417556
231	0x3e21f905	0.1581765
232	0xbd7b4fbe	-0.061355345
233	0x3df6f8f7	0.12059205
234	0x3e2d72c0	0.16938305
235	0xbd9456dc	-0.072431296
236	0xbdb45693	-0.08805575
237	0xbdbad4f2	-0.09122647
238	0x3d978fbd	0.07400463
239	0x3dd1fda8	0.10253459
240	0xbd91a1ea	-0.07110961
241	0xbd6ce030	-0.05783099
242	0xbde148ab	-0.110001884
243	0xbe286696	-0.16445383
244	0x3b1aede8	0.0023640338
245	0x3e120739	0.14260568
246	0x3cb1cd4b	0.021704337
247	0x3e10dbfa	0.14146414
248	0x3d9ba44c	0.075996965
249	0xbd943f0a	-0.07238586
250	0xbd83e772	-0.06440629
251	0x3c4bed59	0.012446725
252	0xbb072ad4	-0.0020624893
253	0x3d4fdf6f	0.050750192
254	0x3e280c5f	0.16410969
255	0xbe2d48b0	-0.1692226

decoder.layers.4.bias f4 [24]
0	0x3d31a477	0.043369737
1	0x3dea5113	0.11441245
2	0x3c52f1fd	0.012875077
3	0xbe0468c7	-0.12930594
4	0xbbcf4fd1	-0.0063266535
5	0xbde6de97	-0.112729244
6	0xbc9bee1a	-0.019034434
7	0xbbee1ac5	-0.007266375
8	0x3db96f3f	0.09054422
9	0x3e09133a	0.1338624
10	0x3dbebdc5	0.093135394
11	0xbd0c9597	-0.034322347
12	0x3dc9a9c2	0.09846832
13	0x3db047f1	0.08607472
14	0xbdcad74a	-0.099043444
15	0x3d53d4e8	0.051716715
16	0x3dfafb61	0.12254978
17	0x3dadc94d	0.08485661
18	0xbda18f73	-0.07888689
19	0x3dc40374	0.09570971
20	0x3dc32218	0.09527987
21	0xbe16f901	-0.14743425
22	0x3df18de0	0.11794639
23	0xbca4f9b5	-0.0201386
