m4_ws/src/morphing_lander/learned_models/2024-05-15_17-38-22/model_90.pth (torch, 33518 bytes, 22 tensors)

cond_normalizer.mean f4 [11]
-1.4183944 -0.030522631 -0.00047456857 0.0007531593 0.026278302 -0.0010000581 -0.0067514023 0.5305388
0.540421 0.5305518 0.53990144
00000000: f38d b5bf 990a fabc 84cf f8b9 aa6f 453a
00000010: 9845 d73c 6214 83ba de3a ddbb 64d1 073f
00000020: 0859 0a3f 3ed2 073f fb36 0a3f

cond_normalizer.variance f4 [11]
1.8226403 0.005477953 0.0012796777 0.0020688246 0.042297408 0.045144893 0.4133758 0.015417503
0.017934363 0.015925677 0.017627683
00000000: 474c e93f 6680 b33b dcba a73a 1e95 073b
00000010: 0c40 2d3d dae9 383d fea5 d33e b299 7c3c
00000020: 16eb 923c 9176 823c ee67 903c

output_normalizer.mean f4 [12]
-0.0040657297 -0.0028029222 0.014569803 -3.8863305e-05 0.003430283 0.00082342373 0.007647102 0.0089243455
3.0822165 0.011393736 0.6091132 0.0016426215
00000000: d039 85bb 3bb1 37bb 2fb6 6e3c 2801 23b8
00000010: 99ce 603b 08db 573a 8a94 fa3b 6b37 123c
00000020: 0943 4540 cbac 3a3c d8ee 1b3f 3b4d d73a

output_normalizer.variance f4 [12]
0.11965452 0.06954469 0.16434792 0.0006269713 0.014107163 0.016950877 0.3059085 0.5424334
60.62245 29.925022 7.099985 0.59504396
00000000: 6e0d f53d 726d 8e3d d24a 283e 555b 243a
00000010: bb21 673c 91dc 8a3c 0aa0 9c3e eadc 0a3f
00000020: 647d 7242 7266 ef41 1433 e340 cd54 183f

encoder.layers.0.weight f4 [32, 23]
-0.004079273 -0.07070884 -0.054639317 -0.07010368 -0.10590558 -0.06537272 -0.038772903 0.09743527
0.015235913 0.15206817 0.0978477 0.009288259 0.10622984 0.1379669 0.079453096 0.1082617
0.10638925 0.01822068 -0.04130926 -0.12629187 -0.19091925 -0.15559794 0.051512565 0.015992232
-0.06638295 0.02168562 -0.026121762 -0.04349674 -0.012711979 0.11427689 -0.088913575 0.085924715
-0.032380562 0.02286622 -0.0463536 -0.028660282 0.09428394 0.105767 -0.038066104 0.102895096
0.1843618 0.03198325 0.06043284 -0.0948141 0.11434134 0.0063810716 -0.028892051 0.0009684479
0.14255883 0.08452328 0.061500218 0.014271917 0.27630663 0.40718594 -0.027772948 -0.31772807
-0.081997275 0.04795686 0.005676449 0.010512024 0.06681194 0.048448026 0.02588027 -0.052789435
0.0072589684 -0.064432286 0.009236652 -0.023578167 0.08550938 0.10234326 -0.06523025 -0.020900266
0.00035449042 0.01972502 0.05511609 0.062171284 -0.053878073 -0.17200097 -0.08870292 0.05072832
0.002741853 0.09026678 0.23596402 0.019729147 -0.052752096 0.07425162 0.04317664 -0.13297482
0.03335229 0.07579708 -0.037774585 -0.0069645694 0.1348111 0.03157629 0.05545231 0.038835313
-0.011204007 -0.020621892 -0.026200911 0.029495409 0.077508286 -0.007956089 -0.062471908 -0.07970994
-0.068075456 0.07378938 -0.014375256 0.092413396 0.07972472 0.15183246 0.07707121 -0.00834223
-0.0051598535 0.04855346 0.04700324 -4.019233e-05 -0.0047684023 -0.0032219628 0.07781635 0.30056265
-0.30677772 -0.13276012 0.28082794 0.00934027 -0.06343526 0.03392021 -0.013073783 0.023520336
0.087596364 -0.18868077 -0.2715216 -0.009242117 0.037786733 -0.0020358928 -0.0138448225 -0.0026271304
0.0047674086 0.11490953 0.009211575 -0.0007520549 0.009123887 0.19138265 0.0048755547 0.057253227
0.09725229 -0.2858664 -0.05165168 0.071046874 -0.07370772 -0.008285462 0.071417436 0.043604095
-0.20310865 0.13686715 0.035456233 -0.060567494 -0.017471112 -0.0013008228 0.10914595 -0.04848268
0.13717121 -0.009091442 -0.0012288529 -0.018617213 -0.19695546 -0.1798704 0.110585295 0.17356777
-0.17780903 -0.053250626 -0.26984027 -0.17989744 -0.088312104 0.011239225 0.015111037 0.18259892
-0.09143309 0.063650146 -0.14998764 -0.00033446867 0.026588883 0.07140077 -0.009680273 -0.07489368
-0.006047124 -0.00056985865 0.026866391 -0.1783094 0.10675205 -0.34599826 -0.23207542 -0.26870826
0.0016479057 0.21519315 0.06604599 -0.14498773 0.019053694 0.008381011 -0.0478691 -0.025416289
0.030103624 0.020973189 -0.009138904 0.047327753 0.09500717 -0.13141297 -0.017230574 -0.0026320082
-0.006593672 -0.0016029864 -0.0065127113 -0.16267982 -0.22578882 -0.08878152 0.13492687 -0.02249873
0.22314097 0.17730159 0.21014126 -0.034273643 0.011884561 0.018463353 0.25724784 -0.070415504
0.011361223 0.0050498564 -0.09606691 -0.010740699 0.027827306 0.055917848 -0.085115865 0.19476108
-0.12438042 -0.042520072 0.040531304 0.097650364 0.004633035 0.08022301 0.09683398 0.020740245
-0.0837097 -0.015505877 0.19110937 -0.042632364 -0.0031356434 0.06395274 -0.08983943 -0.09882993
0.003467158 0.07197762 0.013664503 -0.06806633 0.033352423 0.00087505137 -0.0012932509 -0.001269089
00000000: 6cab 85bb cccf 90bd 7acd 5fbd 8592 8fbd
00000010: 06e5 d8bd 22e2 85bd 56d0 1ebd 258c c73d
00000020: 0da0 793c c2b7 1b3e 6064 c83d c82d 183c
00000030: 088f d93d 3247 0d3e 4eb8 a23d 4fb8 dd3d
00000040: 9be2 d93d 8943 953c e633 29bd a852 01be
00000050: 5680 43be 1155 1fbe d7fe 523d 2402 833c
00000060: c9f3 87bd 0ba6 b13c 4efd d5bc a329 32bd
00000070: e845 50bc 010a ea3d 5218 b6bd 4cf9 af3d
00000080: 7ba1 04bd f051 bb3c 46dd 3dbd f8c8 eabc
00000090: f017 c13d 5e9c d83d 34eb 1bbd aaba d23d
000000a0: 57c9 3c3e de00 033d 6d88 773d e52d c2bd
000000b0: cb2b ea3d 4f18 d13b 06af ecbc 70df 7d3a
000000c0: f1fa 113e 8b1a ad3d a7e7 7b3d c2d4 693c
000000d0: 1078 8d3e ad7a d03e 1884 e3bc 41ad a2be
000000e0: 30ee a7bd 6a6e 443d 8101 ba3b a03a 2c3c
000000f0: b3d4 883d 7071 463d dc02 d43c bc39 58bd
00000100: a4dc ed3b 13f5 83bd 5455 173c 0027 c1bc
00000110: 8b1f af3d 5899 d13d 7097 85bd 0937 abbc
00000120: e6da b939 5d96 a13c 69c1 613d 51a7 7e3d
00000130: 41af 5cbd 0621 30be e0a9 b5bd 80c8 4f3d
00000140: a9b0 333b cadd b83d 8da0 713e 059f a13c
00000150: 9512 58bd 3c11 983d fdd9 303d 8d2a 08be
00000160: 699c 083d 803b 9b3d 86b9 1abd 0b37 e4bb
00000170: ec0b 0a3e 2456 013d f621 633d c711 1f3d
00000180: 0391 37bc 3eef a8bc 4ba3 d6bc 5ba0 f13c
00000190: aabc 9e3d 425a 02bc 8be2 7fbd f73e a3bd
000001a0: 256b 8bbd e31e 973d 3286 6bbc 3c43 bd3d
000001b0: b746 a33d f879 1b3e 83d7 9d3d d9ad 08bc
000001c0: fd13 a9bb fedf 463d 7886 403d 3094 28b8
000001d0: 4240 9cbb 9127 53bb 2e5e 9f3d 59e3 993e
000001e0: f811 9dbe 45f2 07be aec8 8f3e ef07 193c
000001f0: 58ea 81bd ebef 0a3d 6c33 56bc b8ad c03c
00000200: b965 b33d 8835 41be e104 8bbe 406c 17bc
00000210: 43c6 1a3d 9d6c 05bb 65d5 62bc ef2b 2cbb
00000220: ec37 9c3b b055 eb3d 25ec 163c 8d25 45ba
00000230: 5b7c 153c d0f9 433e 1ec3 9f3b 5c82 6a3d
00000240: 352c c73d 155d 92be b690 53bd 0681 913d
00000250: 13f4 96bd bfbf 07bc 4e43 923d 359a 323d
00000260: b7fb 4fbe e726 0c3e 8e3a 113d 9f15 78bd
00000270: 941f 8fbc 5f80 aaba e987 df3d c695 46bd
00000280: 9c76 0c3e 46f4 14bc 7611 a1ba 2083 98bc
00000290: b1ae 49be f22f 38be 8b7a e23d c0bb 313e
000002a0: 9213 36be 541d 5abd 8128 8abe 0937 38be
000002b0: fadc b4bd ba24 383c 4894 773c 36fb 3a3e
000002c0: 4641 bbbd 025b 823d 5c96 19be a05b afb9
000002d0: eed0 d93c 913a 923d 029a 1ebc dc61 99bd
000002e0: f426 c6bb 9162 15ba e816 dc3c bd96 36be
000002f0: d2a0 da3d af26 b1be 2ea5 6dbe 2194 89be
00000300: 8afe d73a 985b 5c3e 1f43 873d aa77 14be
00000310: 7e16 9c3c 8250 093c 6412 44bd d235 d0bc
00000320: e09b f63c f7cf ab3c 57bb 15bc bfda 413d
00000330: 1f93 c23d 1f91 06be 2227 8dbc c57d 2cbb
00000340: bb0f d8bb 4c1b d2ba 9568 d5bb 8a95 26be
00000350: 2f35 67be 16d3 b5bd 452a 0a3e 424f b8bc
00000360: 117f 643e 8c8e 353e 452f 573e 8562 0cbd
00000370: 76b7 423c 7540 973c fdb5 833e 0136 90bd
00000380: 6c24 3a3c 4479 a53b babe c4bd c2f9 2fbc
00000390: 17f6 e33c 1d0a 653d 3a51 aebd 736f 473e
000003a0: 29bb febd 8729 2ebd 2704 263d eafc c73d
000003b0: b7d0 973b f64b a43d e550 c63d 72e7 a93c
000003c0: fe6f abbd 5d0c 7ebc 2db2 433e 469f 2ebd
000003d0: 5e7f 4dbb a7f9 823d bcfd b7bd 5967 cabd
000003e0: 4239 633b 0169 933d 14e1 5f3c 5c66 8bbd
000003f0: 8d9c 083d b463 653a 4d82 a9ba 9057 a6ba

encoder.layers.0.bias f4 [32]
0.06471041 0.35838285 0.0016538397 0.35418612 0.41487333 -0.048308 -0.039495558 0.037187576
-0.014761608 -0.023614194 0.38570452 0.0070333886 0.34178412 -0.016401583 -0.102136336 -0.055904023
0.3689226 0.34076333 -0.041349422 -0.02850987 -0.055672914 0.41707176 0.006667408 -0.025142584
0.30579004 -0.016746322 0.0074197333 -0.06943504 0.30451235 -0.058120377 0.03130086 0.011147888
00000000: e486 843d f57d b73e a7c5 d83a e257 b53e
00000010: 476a d43e 9cde 45bd 18c6 21bd 0052 183d
00000020: acda 71bc 8e72 c1bc 107b c53e 5778 e63b
00000030: 54fe ae3e 9d5c 86bc db2c d1bd 9efb 64bd
00000040: 6ce3 bc3e 8878 ae3e 035e 29bd 888d e9bc
00000050: 4809 64bd 6e8a d53e 467a da3b d2f7 cdbc
00000060: 8390 9c3e 952f 89bc 3c21 f33b f533 8ebd
00000070: 0be9 9b3e a20f 6ebd 5535 003d a2a5 363c

encoder.layers.2.weight f4 [32, 32]
0.02400837 0.16360477 -0.14760324 -0.07167185 0.19262119 -0.0779371 -0.13259287 -0.15964791
-0.1014204 -0.27735272 0.21044068 -0.33145773 0.071703136 -0.22462283 -0.2952394 -0.04590428
0.13828307 0.17853525 -0.21719916 -0.1841482 -0.2592045 -0.017181646 -0.09040179 -0.41852048
0.058241468 -0.24110892 -0.17807117 -0.1745422 0.22628438 0.06774687 -0.09633862 -0.320332
0.20047304 0.13753736 0.043784186 -0.050201725 -0.017764693 0.15175016 0.14387156 0.0928172
0.041767843 0.10878218 0.104774095 0.1381952 0.17510153 0.08489262 0.19861479 -0.013006852
0.03430164 0.09506669 0.23652862 0.13053536 0.08386168 0.09995758 0.0032751213 0.15756848
-0.014993214 0.21325222 0.092645414 0.09971903 0.0035407108 0.100706354 0.14512324 0.14929122
0.025443647 0.008113054 0.23029505 -0.09980158 -0.05451719 0.2729991 0.20919073 0.12497583
0.22568326 0.2307577 -0.082850076 0.22851083 -0.02849599 0.29310772 0.30993488 0.2037668
-0.04686485 -0.06025797 0.22920293 0.19128719 0.20024376 -0.07843947 0.120538786 0.28328356
-0.09676969 0.29999 0.12707739 0.17648661 0.006561079 0.21932676 0.082126744 0.31872788
-0.13711703 0.17533988 -0.20363614 0.0038066963 0.17192361 -0.17876808 -0.11717906 -0.11366496
0.047648717 -0.032476775 0.05304968 -0.15348074 0.16681536 -0.08694357 -0.167924 -0.028997116
0.1556744 0.18459313 -0.022235997 -0.15592954 -0.17540532 0.17972231 -0.1438142 -0.040552028
0.083487935 0.104868755 -0.21718505 0.06981409 0.22567105 -0.16605519 -0.062330555 -0.12157725
-0.06595358 0.102528416 -0.2844774 0.21321937 0.14147772 -0.28389937 0.0053059943 -0.0636372
-0.29427812 -0.30147585 0.13810894 -0.26609412 0.17748214 -0.34392348 -0.29814053 -0.19320363
0.13806479 0.17535347 -0.16578999 -0.055506293 -0.103885606 0.2688159 0.0067808493 -0.27039102
0.09916334 -0.18034828 -0.22066866 -0.016563816 0.2005368 -0.25877687 -0.08629209 -0.25532582
0.012034572 0.08181602 0.08014961 0.03503579 -0.12272043 -0.06530414 -0.014941904 -0.037094384
0.13402458 0.062081143 -0.06700743 -0.09650365 -0.059394713 0.07366905 0.097132295 0.049195316
0.090550154 -0.005093408 0.0034960916 0.0174 -0.009820785 0.09978182 0.07193491 0.038157698
-0.07697524 0.09151097 0.070099264 0.083267264 -0.06543817 0.07937733 -0.030700225 0.024384536
0.20545308 0.10011224 0.0016866585 0.10698414 -0.12231745 0.10496406 0.075807415 -0.041748907
0.103005454 -0.0042171124 -0.007072081 0.066111125 0.03223264 0.010049686 0.07501941 -0.12575634
-0.004111866 0.043790337 0.10399256 -0.046435267 0.15068622 0.004947864 0.18747225 0.09082399
0.11369494 0.09250817 0.1927325 -0.03214592 0.15790236 -0.05467609 0.07133372 0.077253856
-0.008116021 -0.038418263 0.16038486 -0.10082255 -0.015092368 0.18677755 0.052318975 -0.0121834455
0.124705926 0.18757872 0.059015103 0.13497217 0.084987104 -0.00083423295 -0.0018821467 0.1490028
-0.07378967 0.07008814 0.14706267 0.13647823 0.20795035 0.1624807 0.041015204 -0.016908692
0.16902374 0.10671595 0.0625987 0.090997614 -0.038139265 0.08909687 -0.033934448 0.119855784
00000000: 33ad c43c 0288 273e 4e25 17be b1c8 92bd
00000010: 7d3e 453e 7c9d 9fbd 6dc6 07be be7a 23be
00000020: 80b5 cfbd 2d01 8ebe c37d 573e d4b4 a9be
00000030: 18d9 923d 8703 66be 9e29 97be 2006 3cbd
00000040: 149a 0d3e f2d1 363e 7569 5ebe 5991 3cbe
00000050: 74b6 84be 86c0 8cbc 9324 b9bd 5148 d6be
00000060: 9b8e 6e3d 42e5 76be 4a58 36be 31bb 32be
00000070: 18b7 673e dfbe 8a3d 2f4d c5bd 8e02 a4be
00000080: ce48 4d3e 98d6 0c3e 0c57 333d 53a0 4dbd
00000090: 4387 91bc 6564 1b3e 1153 133e f216 be3d
000000a0: c214 2b3d 31c9 de3d cd93 d63d 0b83 0d3e
000000b0: d14d 333e 2fdc ad3d ad61 4b3e b11a 55bc
000000c0: e07f 0c3d 53b2 c23d 8f34 723e 10ab 053e
000000d0: acbf ab3d 8fb6 cc3d 6ba3 563b a259 213e
000000e0: 19a6 75bc ca5e 5a3e e1bc bd3d 7e39 cc3d
000000f0: 450b 683b 223f ce3d 309b 143e ccdf 183e
00000100: 326f d03c 9dec 043c 77d2 6b3e c564 ccbd
00000110: 6b4d 5fbd 8ac6 8b3e 1836 563e 54f3 ff3d
00000120: 8319 673e bf4b 6c3e 4dad a9bd befe 693e
00000130: 6c70 e9bc 3712 963e c9af 9e3e 3ea8 503e
00000140: 5bf5 3fbd 10d1 76bd 2cb4 6a3e cae0 433e
00000150: b30c 4d3e dfa4 a0bd 0add f63d 8b0a 913e
00000160: 302f c6bd 4a98 993e 9320 023e e8b8 343e
00000170: 52fe d63b 3297 603e 1132 a83d 4d30 a33e
00000180: 6868 0cbe 4c8c 333e fe85 50be c479 793b
00000190: be0c 303e fb0e 37be 93fb efbd 2dc9 e8bd
000001a0: 4d2b 433d 5e06 05bd 9f4a 593d 0e2a 1dbe
000001b0: a5d1 2a3e 780f b2bd 45f4 2bbe 5c8b edbc
000001c0: 1c69 1f3e fb05 3d3e 4428 b6bc feab 1fbe
000001d0: 749d 33be 2009 383e 0844 13be e219 26bd
000001e0: b9fb aa3d 6ec5 d63d c265 5ebe b1fa 8e3d
000001f0: 5016 673e 5f0a 2abe 534e 7fbd 7efd f8bd
00000200: ac12 87bd 6bfa d13d 06a7 91be 2e56 5a3e
00000210: 89df 103e 425b 91be e8dd ad3b 3854 82bd
00000220: 9fab 96be 0b5b 9abe 6e6c 0d3e 7d3d 88be
00000230: e1bd 353e bd16 b0be e0a5 98be 2cd7 45be
00000240: db60 0d3e dc8f 333e dac4 29be 915a 63bd
00000250: fac1 d4bd 3da2 893e e331 de3b b170 8abe
00000260: 2616 cb3d 38ad 38be f7f6 61be d7b0 87bc
00000270: 8559 4d3e 677e 84be e8b9 b0bd 11ba 82be
00000280: a72c 453c 288f a73d 7b25 a43d b081 0f3d
00000290: d954 fbbd 2dbe 85bd e3ce 74bc 48f0 17bd
000002a0: bd3d 093e cc48 7e3d 313b 89bd b5a3 c5bd
000002b0: df47 73bd cddf 963d 4ced c63d 0781 493d
000002c0: 5c72 b93d 9ae6 a6bb af1e 653b 728a 8e3c
000002d0: 5ce7 20bc 695a cc3d 9c52 933d 3f4b 1c3d
000002e0: 32a5 9dbd 1a6a bb3d 3490 8f3d 0788 aa3d
000002f0: 7304 86bd 9590 a23d 0a7f fbbc 14c2 c73c
00000300: 4b62 523e a507 cd3d de12 dd3a 801a db3d
00000310: 9281 fabd 66f7 d63d eb40 9b3d e700 2bbd
00000320: 86f4 d23d b42f 8abb eabc e7bb 4565 873d
00000330: 5f06 043d 70a7 243c c7a3 993d 45c6 00be
00000340: d5bc 86bb 7f5d 333d 0dfa d43d e832 3ebd
00000350: 7d4d 1a3e b121 a23b baf8 3f3e ee01 ba3d
00000360: e5d8 e83d ec74 bd3d ab5b 453e 71ab 03bd
00000370: 28b1 213e 09f4 5fbd 6a17 923d 4537 9e3d
00000380: 0ff9 04bc 785c 1dbd ee3b 243e 0e7c cebd
00000390: fb45 77bc 9d42 3f3e 6c4c 563d 139d 47bc
000003a0: d265 ff3d a314 403e d2b9 713d 2536 0a3e
000003b0: b80d ae3d 6db0 5aba 5db2 f6ba 3194 183e
000003c0: 0a1f 97bd 5f8a 8f3d 9997 163e f3c0 0b3e
000003d0: f0f0 543e 5761 263e 8fff 273d 1984 8abc
000003e0: 8f14 2d3e e48d da3d bf33 803d f55c ba3d
000003f0: eb37 1cbd 6b78 b63d d9fe 0abd f376 f53d

encoder.layers.2.bias f4 [32]
0.2819797 -0.1528522 -0.21600431 0.24619798 0.26285025 -0.10481282 0.020039856 -0.028862627
-0.115990154 -0.08335534 0.23794833 0.35173157 0.24146207 -0.053422477 0.006466802 0.24705577
-0.07505412 0.037936676 -0.00577107 -0.0429229 0.30923688 -0.0039004406 0.29874387 -0.03864002
0.22466493 0.38883734 -0.13375294 0.42846182 0.08906134 -0.05981692 -0.026723621 -0.052075475
00000000: a55f 903e 4a85 1cbe 3c30 5dbe 531b 7c3e
00000010: 4f94 863e 1ba8 d6bd a02a a43c 5171 ecbc
00000020: 3f8c edbd 34b6 aabd baa8 733e 2916 b43e
00000030: d541 773e 87d1 5abd 78e7 d33b 30fc 7c3e
00000040: f9b5 99bd 7d63 1b3d 3e1b bdbb eccf 2fbd
00000050: 4c54 9e3e 899e 7fbb f5f4 983e ff44 1ebd
00000060: 900e 663e b015 c73e 88f6 08be 595f db3e
00000070: cb65 b63d 9602 75bd 7feb dabc 184d 55bd

encoder.layers.4.weight f4 [12, 32]
-0.31152925 0.26541615 -0.36858708 -0.02178535 -0.37923554 -0.034178343 0.18840837 0.17908031
0.21788384 0.16334252 0.013730916 -0.24643865 -0.33030608 0.25839007 0.09611146 -0.29671994
-0.097040065 0.21297726 0.14250883 0.21320175 -0.09477213 0.22476065 -0.30744234 0.3118157
-0.112632014 -0.4025869 0.21587826 -0.47628447 -0.059409745 0.19741873 0.077236354 0.19980076
-0.14655383 0.12046805 -0.24894135 0.092855394 -0.03723815 -0.1392791 0.1715139 0.075562455
0.13397937 0.105845794 0.12610261 0.11477428 -0.16860479 -0.06605804 0.08178559 -0.19195756
0.084090054 -0.07870146 0.17395033 -0.044995733 -0.106446706 0.09217101 -0.04248303 0.02107335
0.17138539 0.10020991 0.108461305 -0.012201495 0.1692352 0.11841048 0.11685291 0.022857139
0.13658145 -0.2451243 0.3571364 0.1438521 0.03818538 -0.12144918 -0.07353029 0.08555564
0.031668115 -0.18144321 -0.028461324 -0.081595674 0.19013736 -0.15727356 0.03231979 0.2861645
-0.032258246 -0.101431616 -0.2053805 0.013098266 -0.0023379358 0.04645841 0.3286927 -0.1557677
0.14107439 0.019037183 -0.10750368 0.17836323 -0.15798242 -0.13061813 -0.03711363 -0.18171935
-0.053387314 0.092246324 -0.31290203 -0.19929054 -0.21395235 0.08494129 0.12326665 0.06135185
0.09979792 0.13492252 -0.07079937 -0.030696202 0.029192856 0.08848068 0.14251885 -0.18704513
0.067058735 -0.091587074 -0.030634815 -0.07152843 -0.20112203 0.057401877 -0.25808302 -0.1014322
-0.086285844 -0.15746704 0.09167677 -0.29712874 -0.012033807 0.17000747 -0.065967225 0.081917785
0.1116065 -0.22681442 0.36628422 0.26265508 0.37654996 0.042312317 0.08150409 -0.07752279
-0.08702178 -0.112098575 -0.03030835 0.25565454 0.12447981 -0.09091137 0.103348285 0.45150298
0.10619178 -0.15074037 -0.0450326 -0.12012348 0.1677278 -0.07781084 0.38519892 -0.17118873
0.17075758 0.3073387 -0.025952673 0.39069667 -0.10057927 -0.11451155 -0.13671908 -0.020908726
0.0007229455 0.075080074 -0.18024834 0.149587 -0.0871222 0.064609006 0.06731979 0.11170552
0.017739201 0.055364236 0.17225039 0.14308846 -0.036992714 0.030878393 -0.086396955 -0.116452955
-0.11595304 -0.018887853 0.13181181 0.058775187 0.07702309 0.011530856 -0.04876411 0.0040126587
0.104396164 0.18584682 0.15090887 -0.052459177 0.18330438 0.045815077 0.17977998 -0.022040721
-0.2341171 -0.09319441 0.36757737 -0.14634079 -0.13419043 0.16480146 -0.21966621 -0.09078165
-0.08314194 -0.07228737 -0.2742633 -0.15072477 -0.03966189 -0.00017319372 -0.18666787 -0.14827631
0.13766977 -0.05899133 -0.09999133 -0.04583907 -0.22285052 -0.17628087 -0.23902525 -0.17969745
0.011365873 -0.16713722 -0.0064001908 -0.17372797 -0.093184024 -0.009112503 0.02897428 -0.14474069
-0.08904091 -0.011732014 -0.05844926 -0.011071925 -0.08717983 0.078714885 -0.028641492 -0.09977587
0.08638264 0.047064263 -0.06440926 -0.17314765 0.0050579254 -0.017104408 0.05547598 -0.022069775
0.0060188575 0.09471968 -0.075023204 -0.04005744 -0.11550993 -0.061763868 -0.1260906 0.018687364
-0.04794777 0.022640936 -0.017953614 0.089103594 -0.07303199 0.013851291 -0.057396244 -0.013917715
00000000: c380 9fbe a0e4 873e 72b7 bcbe 3177 b2bc
00000010: 292b c2be 97fe 0bbd 20ee 403e d460 373e
00000020: f11c 5f3e 4343 273e a3f7 603c 6a5a 7cbe
00000030: e11d a9be b44b 843e 16d6 c43d adeb 97be
00000040: f1bc c6bd b616 5a3e d6ed 113e 8f51 5a3e
00000050: e417 c2bd a827 663e 1569 9dbe 4fa6 9f3e
00000060: 9dab e6bd df1f cebe 310f 5d3e 8fdb f3be
00000070: a257 73bd 2328 4a3e 182e 9e3d 9298 4c3e
00000080: 3512 16be f4b7 f63d 7bea 7ebe f82a be3d
00000090: 0887 18bd 2e9f 0ebe 57a1 2f3e 7dc0 9a3d
000000a0: e331 093e aec5 d83d 0b21 013e c70e eb3d
000000b0: bca6 2cbe 7049 87bd 347f a73d 8690 44be
000000c0: 6837 ac3d 3b2e a1bd 0920 323e 724d 38bd
000000d0: bb00 dabd 28c4 bc3d b002 2ebd 05a2 ac3c
000000e0: a77f 2f3e da3a cd3d f620 de3d c7e8 47bc
000000f0: fe4b 2d3e 3281 f23d 9450 ef3d e53e bb3c
00000100: 02dc 0b3e dd01 7bbe 95da b63e f74d 133e
00000110: 4668 1c3d 59ba f8bd 0c97 96bd cc37 af3d
00000120: 6db6 013d 40cc 39be b927 e9bc a21b a7bd
00000130: 5eb3 423e 520c 21be c261 043d 2784 923e
00000140: 3921 04bd 61bb cfbd 444f 52be 1c9a 563c
00000150: 0e38 19bb 2c4b 3e3d 694a a83e 9181 1fbe
00000160: ce75 103e def3 9b3c e42a dcbd daa4 363e
00000170: 25c6 21be c2c0 05be 7604 18bd a314 3abe
00000180: a8ac 5abd a4eb bc3d b234 a0be d212 4cbe
00000190: 5316 5bbe b3f5 ad3d 3a73 fc3d 144c 7b3d
000001a0: da62 cc3d 2129 0a3e 43ff 90bd 9a76 fbbc
000001b0: db25 ef3c 5c35 b53d 76f0 113e c288 3fbe
000001c0: 1756 893d 0192 bbbd ddf5 fabc 7f7d 92bd
000001d0: eff2 4dbe 3b1e 6b3d 7523 84be afbb cfbd
000001e0: a2b6 b0bd 0a3f 21be 08c1 bb3d 4221 98be
000001f0: 7229 45bc 7016 2e3e d319 87bd 83c4 a73d
00000200: f391 e43d 0a42 68be 9b89 bb3e ba7a 863e
00000210: 28cb c03e ae4f 2d3d 9eeb a63d 45c4 9ebd
00000220: 7a38 b2bd f093 e5bd 3849 f8bc 27e5 823e
00000230: 45ef fe3d be2f babd 44a8 d33d 662b e73e
00000240: 137b d93d af5b 1abe 1b74 38bd 4d03 f6bd
00000250: d6c0 2b3e 4a5b 9fbd cb38 c53e 194c 2fbe
00000260: 13db 2e3e 805b 9d3e b39a d4bc 6509 c83e
00000270: 81fc cdbd 0885 eabd 1600 0cbe c748 abbc
00000280: 0d84 3d3a 95c3 993d 0593 38be 562d 193e
00000290: 206d b2bd ba51 843d f5de 893d ddc5 e43d
000002a0: cd51 913c 9cc5 623d 6862 303e c885 123e
000002b0: ac85 17bd aff4 fc3c e3f0 b0bd e37e eebd
000002c0: ca78 edbd b3ba 9abc adf9 063e 40be 703d
000002d0: 48be 9d3d eaeb 3c3c e0bc 47bd 9f7c 833b
000002e0: a8cd d53d a14e 3e3e db87 1a3e 6fdf 56bd
000002f0: 25b4 3b3e 97a8 3b3d 3e18 383e be8e b4bc
00000300: 65bc 6fbe b6dc bebd 1a33 bc3e 5cda 15be
00000310: 3769 09be b7c1 283e 2ef0 60be bbeb b9bd
00000320: 5246 aabd 670b 94bd 3d6c 8cbe 9857 1abe
00000330: 8274 22bd 569b 35b9 dd25 3fbe bfd5 17be
00000340: 4ef9 0c3e e5a0 71bd 41c8 ccbd c0c1 3bbd
00000350: ed32 64be f982 34be 09c3 74be 9c02 38be
00000360: ed37 3a3c 0526 2bbe b1b8 d1bb bfe5 31be
00000370: 44d7 bebd 9c4c 15bc 785b ed3c e736 14be
00000380: 155b b6bd a237 40bc 7e68 6fbd 0567 35bc
00000390: 578b b2bd 4535 a13d 90a1 eabc 4b57 ccbd
000003a0: 62e9 b03d 75c6 403d 01e9 83bd 9e4d 31be
000003b0: f4bc a53b 8b1e 8cbc c83a 633d accb b4bc
000003c0: d639 c53b 64fc c13d c4a5 99bd 4513 24bd
000003d0: 7890 ecbd 1cfc 7cbd e51d 01be 3e16 993c
000003e0: e264 44bd 7c79 b93c 7513 93bc f27b b63d
000003f0: cc91 95bd 86f0 623c 5318 6bbd 2107 64bc

encoder.layers.4.bias f4 [12]
-0.2113661 -0.09281324 0.13434869 -0.14297536 0.28244552 -0.072317444 -0.18073982 0.052335482
-0.013163519 -0.059027296 -0.14363581 0.07423337
00000000: 5b70 58be de14 bebd b492 093e 2268 12be
00000010: b39c 903e 2b1b 94bd dc13 39be bb5d 563d
00000020: cdab 57bc 9bc6 71bd 4415 13be aa07 983d

decoder.layers.0.weight f4 [32, 17]
0.03237311 -0.09197403 0.1746698 0.24554867 0.30240187 0.091515414 -0.22849198 0.008504102
-0.09410563 0.02631858 -0.008877171 0.30605787 -0.067479596 0.03568246 -0.22644483 0.13727877
0.029187122 -0.20070034 0.11712245 -0.14444408 -0.14667186 0.2217053 -0.1970473 0.16669674
0.07386223 -0.12712999 0.02555022 0.24658553 -0.0049074595 -0.09408172 0.15788026 0.1266448
0.1829205 -0.09725862 -0.14920706 -0.049211428 0.019233054 0.051926322 -0.10457911 -0.09163133
-0.04291233 0.034244567 0.09279964 0.11101916 0.20794035 0.16249715 -0.14358898 0.11735463
-0.060981616 0.19875535 0.07726486 -0.19180669 0.2243896 -0.24037842 0.1739158 0.21396686
0.12125132 -0.36030406 -0.2898029 0.019179692 -0.19536704 -0.19519937 -0.10739338 0.10877717
-0.16375035 -0.04168175 0.05040755 0.07523713 -0.306704 -0.18217719 -0.17250668 0.1145002
0.010226175 0.15615825 -0.26177692 -0.079621054 0.031453602 0.023163788 0.15584579 -0.11421968
-0.22415496 0.11518114 -0.15010461 0.103344075 -0.17166296 -0.057661075 -0.014662347 -0.04166842
0.04565264 0.0012574665 -0.07588858 -0.21697512 -0.27083305 0.055225845 -0.22555134 0.19622284
-0.032503072 0.050462496 0.056361374 0.04886659 -0.0091584865 0.041567013 0.18305086 0.11397019
0.10902324 -0.002784091 -0.131482 0.20960297 -0.1831837 0.24062695 0.2152857 0.16485293
-0.082119964 0.26597708 0.014363788 -0.05172982 0.031051015 -0.2106416 0.19206774 0.3324892
0.16654688 -0.19905216 0.1305633 -0.009599238 -0.073643915 0.12326342 -0.07854662 -0.120834924
0.2044287 0.1877786 0.08667809 0.13684231 -0.017644867 -0.22516939 -0.2232967 -0.0106814
0.21092239 0.030115327 0.035755273 -0.037029862 0.106953 0.0082582785 -0.12192404 0.15392059
-0.119606666 -0.1850762 -0.15693472 0.32901594 0.21480592 -0.18288428 0.08536338 0.1393537
-0.0741736 -0.11727812 -0.120308846 0.10047417 -0.32788768 0.42924067 0.0668328 -0.24767353
0.1959783 -0.08513058 0.21370591 0.119352266 0.23679958 0.15054241 -0.02064824 0.074011825
0.14209181 -0.066396914 0.26369697 0.11660708 -0.07970423 0.25030747 0.056696415 0.07590051
0.024557037 -0.21365182 0.1971991 -0.086676195 0.011874253 -0.052530818 -0.09042903 -0.07036075
0.16464058 0.115359694 -0.1864913 -0.45939276 -0.22363168 0.16486329 -0.15208188 0.24409762
0.2286457 -0.045698274 -0.092645496 -0.0213335 -0.023738421 -0.12628826 0.008764064 0.104557015
0.070722945 -0.17496587 -0.073681325 0.22667845 0.32151797 0.21297008 -0.06916375 -0.02366026
-0.018924884 -0.093272716 -0.038274813 0.19868681 0.09736073 -0.23832251 0.06824372 0.26246682
-0.041131556 0.088960834 -0.01812509 0.1922192 -0.21054824 0.255669 0.22949766 -0.18954611
-0.13203366 -0.22512238 0.14670347 -0.1504264 -0.08618833 -0.008985243 -0.10633867 0.01561774
0.12564807 -0.17256168 0.24149626 -0.16636276 0.2879774 0.0111408 0.15204248 0.0012847851
-0.189666 -0.07605572 0.0861084 -0.014876868 -0.19911657 0.0012199755 -0.23043326 -0.16613707
-0.20405126 0.1968418 0.10441781 -0.107453905 -0.12969477 -0.06262217 0.28899086 0.26041004
00000000: ab99 043d e15c bcbd a4dc 323e 1c71 7b3e
00000010: 6bd4 9a3e 6f6c bb3d cdf9 69be ca54 0b3c
00000020: 74ba c0bd 109a d73c 8e71 11bc 9eb3 9c3e
00000030: be32 8abd c527 123d 27e1 67be ce92 0c3e
00000040: d519 ef3c 6484 4dbe e5dd ef3d 26e9 13be
00000050: 2631 16be b706 633e c4c6 49be 8db2 2a3e
00000060: 1545 973d 5d2e 02be b24e d13c eb80 7c3e
00000070: c1ce a0bb ebad c0bd 5dab 213e 2daf 013e
00000080: 834f 3b3e 872f c7bd bcc9 18be ec91 49bd
00000090: a38e 9d3c b2b0 543d 932d d6bd 35a9 bbbd
000000a0: d7c4 2fbd 0844 0c3d bd0d be3d 035e e33d
000000b0: 51ee 543e a765 263e fd08 13be a057 f03d
000000c0: dcc7 79bd 8686 4b3e 0a3d 9e3d f968 44be
000000d0: 63c6 653e c325 76be fc16 323e 211a 5b3e
000000e0: 9d52 f83d c679 b8be 0c61 94be bb1e 9d3c
000000f0: 4c0e 48be 58e2 47be 0ff1 dbbd 91c6 de3d
00000100: 2cae 27be 7cba 2abd 2678 4e3d ed15 9a3d
00000110: 4f08 9dbe a88c 3abe 97a5 30be 157f ea3d
00000120: b08b 273c f3e7 1f3e a007 86be 5d10 a3bd
00000130: 7ed5 003d fcc1 bd3c 0a96 1f3e 02ec e9bd
00000140: e188 65be 17e4 eb3d 06b5 19be 0fa6 d33d
00000150: 6ac8 2fbe 052e 6cbd 573a 70bc 81ac 2abd
00000160: 43fe 3a3d 93d1 a43a 796b 9bbd ba2e 5ebe
00000170: a1aa 8abe 7f34 623d eef6 66be a4ee 483e
00000180: f121 05bd c3b1 4e3d 2fdb 663d 5528 483d
00000190: 7a0d 16bc 2c42 2a3d af71 3b3e 3469 e93d
000001a0: 9447 df3d 4c75 36bb 38a3 06be 29a2 563e
000001b0: 8294 3bbe e966 763e db73 5c3e 35cf 283e
000001c0: 832e a8bd 262e 883e 1856 6b3c a6e2 53bd
000001d0: b35e fe3c 6eb2 57be 68ad 443e 063c aa3e
000001e0: 448b 2a3e 54d4 4bbe 63b2 053e 1f46 1dbc
000001f0: 9fd2 96bd 8871 fc3d 0ddd a0bd 4d78 f7bd
00000200: c255 513e 0949 403e 4884 b13d 6420 0c3e
00000210: f88b 90bc ce92 66be e4a7 64be 0a01 2fbc
00000220: 0afc 573e 6bb4 f63c 1f74 123d a0ac 17bd
00000230: 2d0a db3d bb4d 073c 50b3 f9bd 5c9d 1d3e
00000240: 57f4 f4bd 9e84 3dbe 7fb3 20be c774 a83e
00000250: 15f6 5b3e 0446 3bbe ffd2 ae3d bdb2 0e3e
00000260: 54e8 97bd 832f f0bd 7c64 f6bd 67c5 cd3d
00000270: e5e0 a7be 6fc5 db3e a3df 883d 219e 7dbe
00000280: 89ae 483e f158 aebd b9d5 5a3e f66e f43d
00000290: 977b 723e ca27 1a3e 7f26 a9bc 8393 973d
000002a0: 8480 113e 1bfb 87bd 4a03 873e b1cf ee3d
000002b0: f93b a3bd 4d28 803e 803a 683d ba71 9b3d
000002c0: d72b c93c 8bc7 5abe 90ee 493e 4a83 b1bd
000002d0: 3a8c 423c 8e2a 57bd db32 b9bd 4c19 90bd
000002e0: 8a97 283e b441 ec3d 93f7 3ebe 8735 ebbe
000002f0: b4ff 64be ecd1 283e 5abb 1bbe baf4 793e
00000300: 1922 6a3e 1d2e 3bbd ecbc bdbd 98c3 aebc
00000310: 1477 c2bc b651 01be 2697 0f3c fd21 d63d
00000320: 31d7 903d 412a 33be 3ce6 96bd 651e 683e
00000330: 019e a43e d414 5a3e b9a5 8dbd 29d3 c1bc
00000340: 5c08 9bbc c405 bfbd 0dc6 1cbd 8e74 4b3e
00000350: 1065 c73d d10a 74be 5dc3 8b3d 0d62 863e
00000360: 9079 28bd 1931 b63d 127b 94bc 1cd5 443e
00000370: f599 57be 0ce7 823e 6f01 6b3e 6018 42be
00000380: d533 07be 7b86 66be 6f39 163e 6109 1abe
00000390: 8283 b0bd d736 13bc 17c8 d9bd 8de1 7f3c
000003a0: e3a9 003e 02b4 30be cc4a 773e 005b 2abe
000003b0: c671 933e e787 363c 06b1 1b3e 3c66 a83a
000003c0: ce37 42be 1ac3 9bbd 9a59 b03d 1bbe 73bc
000003d0: 37e5 4bbe 96e7 9f3a b2f6 6bbe d61f 2abe
000003e0: d0f2 50be e690 493e 01d9 d53d cb10 dcbd
000003f0: b5ce 04be 0d40 80bd 9cf6 933e 7754 853e

decoder.layers.0.bias f4 [32]
-0.05077005 0.31742448 -0.14264709 0.35693827 0.4027178 0.2130986 0.18263201 -0.1325449
-0.05424142 0.05657744 -0.010353016 0.23898053 0.29197016 -0.057830498 0.00018275162 -0.033702668
0.24689105 0.31586027 0.19847931 0.49237144 0.08710619 0.21882296 0.06872156 -0.18154973
0.28225765 0.14197755 0.26656896 -0.15473314 0.31096005 0.03275096 0.17588186 -0.011756529
00000000: 42f4 4fbd 7685 a23e 1412 12be 9dc0 b63e
00000010: 0731 ce3e 8536 5a3e e303 3b3e dab9 07be
00000020: 402c 5ebd bfbd 673d b29f 29bc 50b7 743e
00000030: 1d7d 953e acdf 6cbd 04a1 3f39 cf0b 0abd
00000040: 02d1 7c3e 70b8 a13e 293e 4b3e 1c18 fc3e
00000050: bb64 b23d 2013 603e e4bd 8c3d 2ce8 39be
00000060: 1384 903e 9062 113e ba7b 883e 5d72 1ebe
00000070: 2836 9f3e df25 063d 601a 343e 759e 40bc

decoder.layers.2.weight f4 [32, 32]
-0.059600905 0.11284486 0.0049317335 -0.008650756 -0.18078575 -0.15326495 -0.08708367 0.030236967
-0.14710023 -0.06868715 -0.007754602 0.062242478 -0.0552433 -0.11220321 -0.12413339 0.13145177
0.020192632 0.07527832 0.12445656 0.118784115 0.018367874 -0.078256264 0.11434754 0.13365954
0.2505223 -0.11634379 -0.0734888 0.21388122 -0.01990806 -0.22259328 -0.106219135 0.15928398
0.07760794 0.02570409 0.030318623 -0.04205852 -0.054324657 -0.15267527 -0.09635802 0.2169562
0.12185835 -0.1738478 0.24390945 0.028509432 0.078384236 0.23977037 -0.022706505 0.19779927
-0.12556854 -0.013740012 0.095895305 -0.02485992 0.11767945 -0.054745264 0.12070906 -0.057190005
-0.10280619 -0.09476648 0.21416748 0.061768465 0.033238564 0.18177783 -0.05021572 -0.038014527
-0.17766516 0.021011088 -0.07080453 -0.09739953 -0.17765391 -0.06327029 0.06291321 0.2199068
0.036898337 -0.08880237 0.20968826 -0.10881422 -0.020229137 0.19817507 -0.009688156 0.14575675
-0.026871823 -0.056032117 -0.009609852 -0.19406341 -0.021266676 -0.034800358 0.28032476 0.20254093
0.2527557 -0.018431803 0.2221066 0.23690945 0.1435981 0.12345321 -0.021323247 0.061661147
-0.064258374 0.050208222 0.17199087 0.17305608 0.02064616 0.18754712 0.05667296 0.0710433
0.07824387 0.009901931 0.13648118 -0.15852435 0.05803869 0.23764256 0.13064831 0.0645932
0.16872661 0.02662902 0.11380147 -0.06440345 -0.12816301 -0.009043355 0.05386565 0.15700673
0.010623252 -0.030970478 0.042227034 -0.12040338 -0.047979273 -0.13707018 0.12916763 0.02330481
-0.09966955 0.009866045 -0.034295212 -0.016058542 0.06721829 -0.11079583 -0.16151565 -0.109019734
-0.14192335 0.018320804 -0.049485516 0.1581858 -0.09280834 -0.06977503 -0.15557478 -0.06742409
-0.059184685 0.1412313 0.02081122 -0.042063724 -0.096677095 0.12149326 -0.0629689 0.024029901
0.07144402 -0.12672132 -0.09261536 0.10263771 -0.01769951 0.0061716773 0.22300248 0.1337623
-0.10694969 0.07422738 -0.07787879 0.09199846 0.049750865 -0.095387 0.00083225564 0.00037200886
-0.12078297 0.12858634 -0.17853141 0.07086466 0.10135515 0.03745021 -0.022726234 0.023932341
-0.016944833 0.11946526 0.2300884 0.32318193 -0.0149678 -0.04064872 -0.095968135 -0.100140706
0.13444942 -0.017645214 0.0798174 0.17357107 0.21189381 -0.020691045 0.05474465 0.11726102
0.13103433 -0.042310175 -0.00234106 0.063723974 0.06630952 -0.087350085 -0.08289349 0.04923393
-0.13042626 -0.0621873 0.022905445 -0.06890545 -0.03355426 0.047948048 0.07994188 0.08837525
-0.04993099 0.003280324 -0.019255927 0.03354322 -0.022174519 -0.10173578 -0.025756411 -0.05801164
-0.08499636 0.04882918 -0.028684773 -0.028691784 0.012155727 -0.011705727 -0.07037692 -0.062217034
0.13982013 0.048269525 -0.011475006 -0.025409443 0.294281 0.1020274 -0.0073127802 -0.042755924
0.054668076 0.20231833 0.025329415 0.25104135 0.057735063 -0.056496073 -0.15441883 -0.11889318
0.037248205 0.18734325 0.204564 0.38271576 0.09913019 -0.043611668 0.0013942035 -0.126951
0.12027782 0.02804177 0.078648485 0.004402896 0.072027504 -0.10953736 0.19087848 0.13683899
00000000: 1420 74bd 351b e73d 619a a13b e7bb 0dbc
00000010: e61f 39be 7df1 1cbe ec58 b2bd 84b3 f73c
00000020: 71a1 16be d9ab 8cbd 511a febb f8f1 7e3d
00000030: cc46 62bd ccca e5bd a639 febd 4b9b 063e
00000040: 056b a53c 852b 9a3d 15e3 fe3d 1645 f33d
00000050: 3978 963c d244 a0bd 0b2f ea3d 0cde 083e
00000060: 7544 803e a745 eebd 4c81 96bd ae03 5b3e
00000070: 3a16 a3bc 7eef 63be 6b89 d9bd 571b 233e
00000080: e9f0 9e3d 6291 d23c c35e f83c 8e45 2cbd
00000090: 8883 5ebd e856 1cbe 5b57 c5bd c429 5e3e
000000a0: df90 f93d 2805 32be 66c3 793e 9d8c e93c
000000b0: ea87 a03d 5d86 753e fe02 babc e48b 4a3e
000000c0: 0a95 00be ca1d 61bc c264 c43d 08a7 cbbc
000000d0: ec01 f13d 923c 60bd 5036 f73d 1140 6abd
000000e0: 0d8c d2bd ee14 c2bd b84e 5b3e ee00 7d3d
000000f0: 2925 083d f823 3a3e 00af 4dbd 1fb5 1bbd
00000100: dbed 35be 721f ac3c f701 91bd 6879 c7bd
00000110: e8ea 35be db93 81bd a4d8 803d 402f 613e
00000120: b622 173d 04de b5bd 85b8 563e fdd9 debd
00000130: 93b7 a5bc 68ee 4a3e 12bb 1ebc 4241 153e
00000140: 4c22 dcbc ef81 65bd a472 1dbc 8fb8 46be
00000150: 7437 aebc d28a 0ebd ba86 8f3e e466 4f3e
00000160: 3269 813e 4bfe 96bc ea6f 633e 6498 723e
00000170: 610b 133e 09d5 fc3d 17ae aebc 6690 7c3d
00000180: e599 83bd 23a7 4d3d 601e 303e 9d35 313e
00000190: 2322 a93c 5a0c 403e e821 683d 267f 913d
000001a0: 523e a03d b53b 223c b9c1 0b3e 3554 22be
000001b0: fab9 6d3d 9258 733e acc8 053e 7149 843d
000001c0: abc6 2c3e 1a25 da3c bf10 e93d f5e5 83bd
000001d0: 2a3d 03be 942a 14bc 3aa2 5c3d 5fc6 203e
000001e0: 260d 2e3c cdb5 fdbc 41f6 2c3d 0c96 f6bd
000001f0: ea85 44bd 205c 0cbe 8544 043e bbe9 be3c
00000200: 8d1f ccbd 31a5 213c 2379 0cbd 348d 83bc
00000210: bea9 893d ede8 e2bd 5c64 25be bd45 dfbd
00000220: 5b54 11be 8315 963c 53b1 4abd 75fb 213e
00000230: 4d12 bebd 36e6 8ebd ff4e 1fbe a415 8abd
00000240: a46b 72bd f09e 103e 4b7c aa3c 034b 2cbd
00000250: a4fe c5bd 75d1 f83d d7f5 80bd 5bda c43c
00000260: 3e51 923d 3cc3 01be 1fad bdbd b833 d23d
00000270: 90fe 90bc c83b ca3b c35a 643e fcf8 083e
00000280: 7008 dbbd 8604 983d ea7e 9fbd b069 bc3d
00000290: 90c7 4b3d 425a c3bd bb2b 5a3a 2f0a c339
000002a0: 105d f7bd 23ac 033e f0d0 36be 7e21 913d
000002b0: 4a93 cf3d 6465 193d 5e2c babc c20d c43c
000002c0: e4cf 8abc 34aa f43d 4b9c 6b3e 1a78 a53e
000002d0: 813b 75bc 467f 26bd f18a c4bd 9216 cdbd
000002e0: 1cad 093e b28c 90bc 4e77 a33d 9dbc 313e
000002f0: b1fa 583e 4480 a9bc ed3b 603d 8c26 f03d
00000300: dd2d 063e 6f4d 2dbd 786c 19bb b781 823d
00000310: 49cd 873d 9ae4 b2bd 10c4 a9bd 84a9 493d
00000320: 768e 05be 1cb8 7ebd 33a4 bb3c 4d1e 8dbd
00000330: 3170 09bd 2c65 443d 92b8 a33d 15fe b43d
00000340: 7084 4cbd b4fa 563b 9bbe 9dbc 9e64 093d
00000350: 56a7 b5bc d95a d0bd 1cff d2bc 9d9d 6dbd
00000360: 9212 aebd 1b01 483d 54fc eabc 080b ebbc
00000370: d028 473c 61c9 3fbc c621 90bd 4ad7 7ebd
00000380: 022d 0f3e 44b6 453d aa01 3cbc 7727 d0bc
00000390: 00ac 963e bef3 d03d 0ca0 efbb d620 2fbd
000003a0: a2eb 5f3d 892c 4f3e a27f cf3c 7e88 803e
000003b0: 9a7b 6c3d 6d68 67bd f81f 1ebe 447e f3bd
000003c0: 9391 183d e9d6 3f3e 3a79 513e 52f3 c33e
000003d0: c504 cb3d 26a2 32bd b5bd b63a 71ff 01be
000003e0: 3854 f63d dbb7 e53c 7512 a13d 2b46 903b
000003f0: 2883 933d 2055 e0bd a675 433e 851f 0c3e

decoder.layers.2.bias f4 [32]
0.1947921 -0.04289077 -0.08760727 -0.106043234 0.008615378 0.13641302 -0.09783018 0.22533861
-0.09051562 0.031728677 -0.1747302 0.23841964 0.100391135 -0.13607937 0.14495297 -0.055325534
0.031356543 0.24171539 -0.055496264 0.13410267 0.09086264 0.112985805 -0.0038939444 0.28680775
0.039148465 -0.06169569 0.30136248 0.24441452 0.14204341 0.035931215 0.06780372 0.20304291
00000000: 9577 473e 3bae 2fbd 716b b3bd 322d d9bd
00000010: 8427 0d3c dbaf 0b3e 305b c8bd 2abf 663e
00000020: 4160 b9bd eef5 013d 79ec 32be 4724 743e
00000030: de99 cd3d 6458 0bbe 8d6e 143e 079d 62bd
00000040: b86f 003d 3d84 773e 0d50 63bd 3652 093e
00000050: 3116 ba3d 1a65 e73d 8c31 7fbb 77d8 923e
00000060: 245a 203d 9fb4 7cbd 2f4c 9a3e cd47 7a3e
00000070: d473 113e 9c2c 133d addc 8a3d 7bea 4f3e

decoder.layers.4.weight f4 [24, 32]
-0.017459275 -0.0049105547 0.017361633 0.12375369 -0.0017586532 0.09120492 -0.0039004409 -0.062110897
0.13501465 0.033966415 -0.090532474 0.02964059 0.013548918 -0.034550108 -0.06794469 -0.077453576
-0.031267587 0.07703203 -0.013129946 -0.104372755 0.1291938 0.018566491 -0.016695088 -0.08212875
-0.04417468 0.0276659 0.0062313597 0.052692052 0.044364344 -0.097548 -0.046329845 -0.027599683
-0.059091553 -0.043397646 -0.0755014 -0.13323195 -0.010257646 0.044104002 -0.00014024005 0.078906156
0.042875562 0.053663846 0.108383544 -0.030521315 0.0064627044 0.07642937 0.12368193 -0.11324425
-0.040775515 -0.045590114 0.09186673 -0.062388632 -0.008918355 -0.0035391138 -0.06790829 -0.012447886
0.014875744 0.10498238 0.064610556 -0.0864992 -0.018182514 0.02932842 -0.042856872 0.034264315
0.0955888 -0.05652729 -0.033709187 0.02263517 0.06495887 -0.08420247 0.0017166069 -0.09025446
0.02609649 0.13401537 -0.02466847 -0.06067521 0.07216235 -0.060434833 0.04231859 -0.047111608
0.127966 0.014455711 -0.107521355 0.069782145 0.03728055 -0.04679549 -0.092712305 0.0937306
0.07335504 -0.040597014 0.13911702 -0.035491318 0.035587676 -0.14006789 0.04135649 -0.08184001
0.02225223 -0.033221785 -0.0071813343 -0.0402297 0.054635562 0.17152628 0.019096008 -0.017025186
0.014806258 -0.03285605 -0.010397509 -0.026854128 -0.0006871884 -0.023283927 0.10381374 0.004737177
0.054747537 -0.011170583 0.021921085 -0.048457943 -0.021910606 -0.079411805 -0.01260098 -0.07566918
0.1047732 -0.09021362 0.1505435 -0.062173404 -0.07519235 0.07131325 0.022479527 0.004949695
-0.08777054 -0.083606176 0.05334664 0.051586535 0.10642008 0.11938529 -0.012579491 0.07404736
-0.042953197 -0.021892058 0.07170509 -0.08001582 -0.0123405345 0.053815663 -0.07895435 0.10567452
-0.063334204 -0.07517515 0.08456084 -0.020490814 0.024838109 -0.05453114 -0.018512458 -0.03757675
-0.050348524 -0.047042888 -0.052902803 0.10926845 -0.08309967 0.06626246 0.050905067 -0.049664516
0.15769663 -0.011215882 0.064126134 -0.026681267 -0.04536355 -0.06574338 -0.012880845 0.08757013
0.050293915 0.00035027514 -0.038740393 0.14547242 -0.044820763 0.037623167 0.12341243 0.1091275
-0.09511488 0.12846637 0.0038917018 0.114438295 -0.007437446 -0.07753631 -0.003288918 -0.10176214
0.006420456 -0.05323589 -0.076618016 -0.029014766 0.090328045 -0.099541925 -0.07320214 -0.009410402
-0.16751026 -0.08260936 0.014886395 0.08966121 0.00997202 0.105032355 0.005445786 0.0030170986
-0.056961652 0.00073535636 -0.012043621 -0.076286 0.0075491946 -0.070961244 -0.11627799 0.0877543
0.109513335 0.15993027 0.096417956 -0.026757093 0.069287024 0.019237112 -0.07884664 -0.06580666
0.017972529 0.019605275 -0.0055289306 -0.092769586 -0.027501721 0.08100195 -0.047323965 -0.018268894
-0.05601028 -0.14308421 -0.011377439 0.106779136 0.0022098713 0.03908444 -0.0073607033 0.12736943
-0.039244916 0.028059859 0.097881414 -0.12410453 -0.007341253 -0.02496271 0.054362584 0.06984779
-0.021803133 -0.114318915 -0.040451042 -0.07387681 0.030288827 0.02614071 -0.021404807 0.08360125
-0.08825722 -0.09400694 -0.055431463 0.0389176 0.016118329 0.0612179 0.080782995 -0.058271874
00000000: c106 8fbc b8e8 a0bb fc39 8e3c 9372 fd3d
00000010: 9c82 e6ba a5c9 ba3d 8a9e 7fbb ff67 7ebd
00000020: 4841 0a3e 5e20 0b3d 1769 b9bd d3d0 f23c
00000030: 48fc 5d3c 6a84 0dbd 9626 8bbd fb9f 9ebd
00000040: 7112 00bd f8c2 9d3d fc1e 57bc 62c1 d5bd
00000050: 614b 043e c118 983c 23c4 88bc 1e33 a8bd
00000060: 82f0 34bd 99a3 e23c 6f30 cc3b 9fd3 573d
00000070: 63b7 353d 3fc7 c7bd 5dc4 3dbd bb18 e2bc
00000080: fc09 72bd bbc1 31bd 7aa0 9abd f56d 08be
00000090: b00f 28bc 66a6 343d 670d 13b9 8d99 a13d
000000a0: 499e 2f3d 9fce 5b3d 31f8 dd3d d607 fabc
000000b0: 18c5 d33b 0087 9c3d f44c fd3d 9aec e7bd
000000c0: 3a04 27bd b3bc 3abd a024 bc3d 398b 7fbd
000000d0: 4b1e 12bc 7af0 67bb 8013 8bbd 38f2 4bbc
000000e0: 64b9 733c 0101 d73d 8a52 843d 7e26 b1bd
000000f0: 7ff3 94bc 2842 f03c b08a 2fbd bd58 0c3d
00000100: 10c4 c33d 2989 67bd a512 0abd 646d b93c
00000110: 2809 853d 5872 acbd c5ff e03a 55d7 b8bd
00000120: 4ec8 d53c 533b 093e 8815 cabc 9286 78bd
00000130: dbc9 933d 848a 77bd 4256 2d3d 1af8 40bd
00000140: 8509 033e a5d7 6c3c 2834 dcbd f1e9 8e3d
00000150: 7db3 183d a1ac 3fbd f3df bdbd d4f5 bf3d
00000160: 2b3b 963d 0e49 26bd b174 0e3e 585f 11bd
00000170: 62c4 113d f56d 0fbe 6c65 293d bc9b a7bd
00000180: 4f4a b63c 9113 08bd 6651 ebbb e6c7 24bd
00000190: 8ac9 5f3d 96a4 2f3e 3b6f 9c3c 6778 8bbc
000001a0: f295 723c 1194 06bd 505a 2abc 30fd dbbc
000001b0: 6f24 34ba efbd bebc 4c9c d43d 523a 9b3b
000001c0: f43e 603d d204 37bc d993 b33c d67b 46bd
000001d0: df7d b3bc a8a2 a2bd 5774 4ebc 71f8 9abd
000001e0: 5593 d63d ebc1 b8bd 1328 1a3e 8aa9 7ebd
000001f0: 72fe 99bd ae0c 923d fc26 b83c 0d31 a23b
00000200: 0ac1 b3bd b739 abbd 0282 5a3d 674c 533d
00000210: c5f2 d93d 4680 f43d 361a 4ebc 24a6 973d
00000220: b1ef 2fbd f956 b3bc 1eda 923d 56df a3bd
00000230: f42f 4abc d06d 5c3d d1b2 a1bd e26b d83d
00000240: 5db5 81bd 6ef5 99bd 3c2e ad3d 5adc a7bc
00000250: 4a79 cb3c 0b5c 5fbd 70a7 97bc 14ea 19bd
00000260: 413a 4ebd 0bb0 40bd 9cb0 58bd 23c8 df3d
00000270: 2930 aabd 9db4 873d d581 503d 056d 4bbd
00000280: 3a7b 213e d2c2 37bc 9054 833d ac92 dabc
00000290: 21cf 39bd 77a4 86bd 2e0a 53bc f857 b33d
000002a0: fe00 4e3d 22a5 b739 3fae 1ebd b9f6 143e
000002b0: fa95 37bd c01a 1a3d a8bf fc3d 3d7e df3d
000002c0: 97cb c2bd b08c 033e ec0b 7f3b a05e ea3d
000002d0: d2b5 f3bb 5bcb 9ebd e38a 57bb ab68 d0bd
000002e0: b062 d23b e00d 5abd e8e9 9cbd 60b0 edbc
000002f0: e9fd b83d a3dc cbbd 01eb 95bd 162e 1abc
00000300: cf87 2bbe 192f a9bd 11e6 733c 4ca0 b73d
00000310: af61 233c 341b d73d 9072 b23b 84ba 453b
00000320: 9f50 69bd eec4 403a 9c52 45bc d63b 9cbd
00000330: 3c5f f73b 2154 91bd 2823 eebd 87b8 b33d
00000340: 8748 e03d c3c4 233e c776 c53d b131 dbbc
00000350: 5be6 8d3d 2697 9d3c 597a a1bd a4c5 86bd
00000360: 203b 933c 3e9b a03c 082c b5bb fbfd bdbd
00000370: 4a4b e1bc 5ae4 a53d c6d6 41bd a6a8 95bc
00000380: 096b 65bd ab84 12be 7068 3abc 05af da3d
00000390: 7dd3 103b 0117 203d 0e32 f1bb 226d 023e
000003a0: 47bf 20bd cadd e53c 0d76 c83d 842a febd
000003b0: e58e f0bb 997e ccbc 4dab 5e3d 5c0c 8f3d
000003c0: 7c9c b2bc 0920 eabd feaf 25bd ba4c 97bd
000003d0: 4620 f83c 0b25 d63c 2259 afbc 2237 ab3d
000003e0: 34c0 b4bd b686 c0bd 1a0c 63bd 1068 1f3d
000003f0: 960a 843c 9fbf 7a3d 8e71 a53d 7dae 6ebd

decoder.layers.4.bias f4 [24]
0.023937395 0.05395766 0.028357817 -0.022469243 0.019309076 -0.09176391 0.014918209 -0.019905487
0.1278948 0.052112266 0.0004112105 -0.022962365 0.11543763 0.09679006 -0.076325 -0.018245114
0.08276452 0.044889707 -0.060230125 0.060262408 0.07124781 -0.28056374 0.025635434 -0.23530985
00000000: 5b18 c43c b502 5d3d a74e e83c 6b11 b8bc
00000010: 112e 9e3c b8ee bbbd 816b 743c d510 a3bc
00000020: dbf6 023e ac73 553d bd97 d739 921b bcbc
00000030: 906a ec3d de39 c63d 4850 9cbd c776 95bc
00000040: 7280 a93d 45de 373d ddb3 76bd b7d5 763d
00000050: 5fea 913d 0da6 8fbe 6701 d23c 11f5 70be

prior_network.layers.0.weight f4 [32, 11]
0.032016616 -0.013002199 0.05985375 -0.09391222 0.05357959 0.18680452 0.03284354 -0.18593155
0.077212766 0.13537931 -0.04263662 0.045359474 0.22134946 -0.008789627 0.1934802 -0.015421147
0.05475049 0.009758595 -0.18931998 -0.15439014 -0.1600191 -0.19495988 -0.072658904 0.031088984
-0.15037008 0.4045384 0.049330413 -0.0870892 -0.07277261 -0.015713891 0.019316591 -0.01127293
0.012955167 -0.012187195 -0.0033701912 0.302312 -0.24564962 0.01565094 0.014777606 -0.004322213
-0.07051938 -0.04677992 0.11964922 0.0010470902 0.03964791 0.20028083 -0.09978342 0.056248724
-0.07842775 0.055445205 -0.004742944 0.048728343 0.1670104 0.06655075 0.08774852 0.14043069
0.23967831 0.1232738 -0.0004954052 0.04196696 -0.07880972 -0.10353958 0.096234895 -0.09206833
-0.04756337 0.12083993 -0.20084086 -0.04329987 -0.15197578 -0.019377911 0.06562444 0.0699938
0.19005163 0.019389797 -0.12713732 -0.05104451 -0.093443416 0.057445712 0.07615708 0.09149754
-0.029335337 -0.0067993565 0.04722935 -0.14145614 -0.114992425 0.0915714 -0.038621835 0.047540683
0.09216511 0.18408391 0.08575565 0.009387021 0.039221 0.13204966 -0.01859711 -0.11505386
-0.051268015 -0.023738597 -0.033134185 -0.00762363 -0.04704933 0.23116541 -0.39806926 0.15463969
-0.033909585 0.0029819352 0.14226745 -0.022488492 -0.1161067 -0.010898473 0.024681453 0.03892857
0.12260286 -0.25810254 0.0283117 0.18513374 -0.0061433935 -0.1236944 0.19244392 -0.048375238
-0.022866623 -0.12227759 -0.13282314 0.058539864 -0.0056101023 -0.10598374 -0.037294876 0.07602814
0.06686151 0.113532096 -0.019745871 0.11255333 0.005248163 0.06771853 -0.3791847 -0.29770222
-0.049665336 0.13974056 -0.014191112 0.10441746 -0.15008806 -0.045940444 0.0629724 0.044270832
-0.031777333 0.08716194 -0.08116763 0.06348443 0.14109443 0.1177489 -0.08734383 0.115267165
0.007158335 0.0001217377 0.20663036 0.008078126 -0.07431872 -0.24039203 0.07924342 0.008784561
-0.10110026 -0.12349739 -0.13165349 0.021835674 0.09960727 -0.14765075 -0.026419694 0.10256829
0.013940614 0.03922685 -0.042054888 -0.021798303 0.0846388 0.13924341 0.021879256 0.14182238
-0.045959514 0.061705835 -0.11038871 0.36179754 -0.02575598 -0.1408116 -0.022189075 -0.16636851
0.10118343 -0.055444464 0.12878281 -0.00064821914 0.02961884 0.24391209 -0.072861195 -0.094667606
-0.16986565 -0.019223463 0.088026755 -0.17434326 0.062354285 0.022138914 -0.07937984 0.048802797
-0.0013656521 0.026898649 -0.034089334 -0.0015728005 -0.018056555 -0.121233195 -0.062339004 -0.044558
-0.04427725 -0.16567194 0.283239 0.010896188 -0.043265563 -0.043992545 0.058240484 -0.16621114
0.14212911 0.037225217 -0.13165256 -0.03558782 0.12801772 0.28940013 -0.29434955 0.05304702
0.0004313293 0.11404287 0.08534283 0.16826428 0.11258708 0.043977506 0.149112 -0.0073317187
0.02552285 0.13996333 -0.11116774 -0.031277586 0.07045779 -0.06376795 0.04960706 0.05481138
0.16528676 0.1095614 0.07487027 0.019016508 -0.23360112 -0.2863623 -0.007576122 0.0824656
0.0001227769 0.16687217 -0.06072126 -0.12147223 -0.037019633 -0.12752458 -0.018531553 0.0476809
00000000: db23 033d 2d07 55bc 3529 753d 0d55 c0bd
00000010: 4676 5b3d af49 3f3e f386 063d d764 3ebe
00000020: ba21 9e3d e0a0 0a3e bda3 2ebd dbca 393d
00000030: 6fa9 623e 5e02 10bc ac1f 463e fba8 7cbc
00000040: 0d42 603d 84e2 1f3c 19dd 41be 7318 1ebe
00000050: 0cdc 23be 90a3 47be 31ce 94bd 53ae fe3c
00000060: 9dfa 19be a81f cf3e b00e 4a3d d35b b2bd
00000070: ce09 95bd 6bba 80bc d43d 9e3c 18b2 38bc
00000080: e941 543c cdac 47bc 6dde 5cbb a3c8 9a3e
00000090: 938b 7bbe 6636 803c c61d 723c 5aa1 8dbb
000000a0: 776c 90bd 4d9c 3fbd a60a f53d 843e 893a
000000b0: d965 223d 6b16 4d3e 405b ccbd 1065 663d
000000c0: ba9e a0bd 831a 633d b36a 9bbb 5f97 473d
000000d0: c604 2b3e c24b 883d 7fb5 b33d 10cd 0f3e
000000e0: 3b6e 753e f976 fc3d 15de 01ba 8ce5 2b3d
000000f0: fe66 a1bd 8f0c d4bd cd16 c53d 528e bcbd
00000100: cfd1 42bd ed7a f73d 3aa9 4dbe 345b 31bd
00000110: 8a9f 1bbe 6dbe 9ebc 1b66 863d e958 8f3d
00000120: e59c 423e 5ad7 9e3c 4930 02be 0c14 51bd
00000130: 435f bfbd 324c 6b3d 3ef8 9b3d 1063 bb3d
00000140: a950 f0bc 23cd debb 9073 413d e1d9 10be
00000150: 2681 ebbd c989 bb3d ee31 1ebd 05ba 423d
00000160: 10c1 bc3d 7e80 3c3e a9a0 af3d 05cc 193c
00000170: 33a6 203d 0738 073e f758 98bc 5ca1 ebbd
00000180: 69fe 51bd 7277 c2bc b6b7 07bd a5cf f9bb
00000190: ccb6 40bd a0b6 6c3e bccf cbbe de59 1e3e
000001a0: c7e4 0abd 926c 433b 8fae 113e c939 b8bc
000001b0: 59c9 edbd 828f 32bc c230 ca3c 9073 1f3d
000001c0: 3517 fb3d 0426 84be f0ed e73c b393 3d3e
000001d0: 854e c9bb 7d53 fdbd 0510 453e 1d25 46bd
000001e0: c952 bbbc ac6c fabd ca02 08be 7fc7 6f3d
000001f0: f3d4 b7bb 010e d9bd 83c2 18bd a4b4 9b3d
00000200: b0ee 883d 8483 e83d 18c2 a1bc 5c82 e63d
00000210: c8f8 ab3b 03b0 8a3d 7f24 c2be 6d6c 98be
00000220: e16d 4bbd 2618 0f3e d681 68bc d2d8 d53d
00000230: afb0 19be 0c2c 3cbd acf7 803d 5555 353d
00000240: f328 02bd f681 b23d 373b a6bd 2004 823d
00000250: 0f7b 103e 5626 f13d 52e1 b2bd 3111 ec3d
00000260: 7790 ea3b 6e4d ff38 e996 533e 1e5a 043c
00000270: 6a34 98bd 5429 76be 604a a23d 1fed 0f3c
00000280: a70d cfbd 33ec fcbd 2cd0 06be bae0 b23c
00000290: e5fe cb3d c231 17be 1d6e d8bc 530f d23d
000002a0: 2c67 643c 55ac 203d bf41 2cbd 5b92 b2bc
000002b0: 1b57 ad3d d395 0e3e 203c b33c e339 113e
000002c0: 0b40 3cbd 42bf 7c3d 7a13 e2bd 873d b93e
000002d0: 34fe d2bc eb30 10be ddc5 b5bc 825c 2abe
000002e0: 4239 cf3d bc19 63bd a4df 033e 40ed 29ba
000002f0: 36a3 f23c 17c4 793e 4038 95bd 17e1 c1bd
00000300: 43f1 2dbe 867a 9dbc 5f47 b43d 0a87 32be
00000310: 3567 7f3d ab5c b53c e691 a2bd 71e5 473d
00000320: aeff b2ba 8e5a dc3c 42a1 0bbd 6d26 ceba
00000330: 57eb 93bc 1c49 f8bd 2f57 7fbd 7382 36bd
00000340: 105c 35bd e8a5 29be b404 913e ed85 323c
00000350: 3b37 31bd 8731 34bd 938d 6e3d 4133 2abe
00000360: 4b8a 113e 7879 183d eecf 06be 89c4 11bd
00000370: 1417 033e 412c 943e fcb4 96be d547 593d
00000380: 0a24 e239 4f8f e93d 39c8 ae3d 794d 2c3e
00000390: 0e94 e63d c221 343d d1b0 183e ea3e f0bb
000003a0: 4c15 d13c 8c52 0f3e e9ab e3bd ed1c 00bd
000003b0: 2c4c 903d c598 82bd c630 4b3d e681 603d
000003c0: ef40 293e ba61 e03d 9655 993d 82c8 9b3c
000003d0: 2235 6fbe 149e 92be 1e41 f8bb b9e3 a83d
000003e0: acbd 0039 8ae0 2a3e dbb6 78bd 6fc6 f8bd
000003f0: e6a1 17bd ce95 02be 7ccf 97bc 0c4d 433d

prior_network.layers.0.bias f4 [32]
-0.09850173 -0.01552534 0.033630364 -0.0028024148 -0.056530032 0.3010759 0.17156474 0.16930774
0.35990325 0.011868182 -0.09756851 -0.13658464 -0.053521514 -0.14592959 0.02269368 0.17081654
0.044547595 0.060762 0.20387536 0.3266234 0.048923057 0.2622827 -0.009901961 0.33896476
0.38107273 0.07828888 -0.055555537 -0.020556511 0.06381679 -0.0040484285 -0.1299745 -0.105183944
00000000: 46bb c9bd ff5d 7ebc febf 093d b8a8 37bb
00000010: 098c 67bd 9f26 9a3e abae 2f3e 025f 2d3e
00000020: 3d45 b83e c372 423c 00d2 c7bd d8dc 0bbe
00000030: 6039 5bbd 916e 15be 19e8 b93c 88ea 2e3e
00000040: 8a77 363d 93e1 783d b4c4 503e 2f3b a73e
00000050: 8b63 483d eb49 863e d63b 22bc ca8c ad3e
00000060: f71b c33e ec55 a03d 348e 63bd 2166 a8bc
00000070: 61b2 823d aea8 84bb 0918 05be ae6a d7bd
