m4_ws/src/morphing_lander/learned_models/2024-05-15_17-38-22/model_30.pth (torch, 33518 bytes, 22 tensors)

cond_normalizer.mean f4 [11]
0	0xbfb58df3	-1.4183944
1	0xbcfa0a99	-0.030522631
2	0xb9f8cf84	-0.00047456857
3	0x3a456faa	0.0007531593
4	0x3cd74598	0.026278302
5	0xba831462	-0.0010000581
6	0xbbdd3ade	-0.0067514023
7	0x3f07d164	0.5305388
8	0x3f0a5908	0.540421
9	0x3f07d23e	0.5305518
10	0x3f0a36fb	0.53990144

cond_normalizer.variance f4 [11]
0	0x3fe94c47	1.8226403
1	0x3bb38066	0.005477953
2	0x3aa7badc	0.0012796777
3	0x3b07951e	0.0020688246
4	0x3d2d400c	0.042297408
5	0x3d38e9da	0.045144893
6	0x3ed3a5fe	0.4133758
7	0x3c7c99b2	0.015417503
8	0x3c92eb16	0.017934363
9	0x3c827691	0.015925677
10	0x3c9067ee	0.017627683

output_normalizer.mean f4 [12]
0	0xbb8539d0	-0.0040657297
1	0xbb37b13b	-0.0028029222
2	0x3c6eb62f	0.014569803
3	0xb8230128	-3.8863305e-05
4	0x3b60ce99	0.003430283
5	0x3a57db08	0.00082342373
6	0x3bfa948a	0.007647102
7	0x3c12376b	0.0089243455
8	0x40454309	3.0822165
9	0x3c3aaccb	0.011393736
10	0x3f1beed8	0.6091132
11	0x3ad74d3b	0.0016426215

output_normalizer.variance f4 [12]
0	0x3df50d6e	0.11965452
1	0x3d8e6d72	0.06954469
2	0x3e284ad2	0.16434792
3	0x3a245b55	0.0006269713
4	0x3c6721bb	0.014107163
5	0x3c8adc91	0.016950877
6	0x3e9ca00a	0.3059085
7	0x3f0adcea	0.5424334
8	0x42727d64	60.62245
9	0x41ef6672	29.925022
10	0x40e33314	7.099985
11	0x3f1854cd	0.59504396

encoder.layers.0.weight f4 [32, 23]
0	0x3d7f9ba3	0.062404286
1	0x3bc905d6	0.006134729
2	0xbce2e5f3	-0.027697539
3	0xbd0a0e82	-0.033705242
4	0xbdd6b318	-0.10483378
5	0xbbd29fb6	-0.0064277304
6	0xbc7c201a	-0.015388513
7	0x3d8454c1	0.06461478
8	0x3c15125d	0.009098616
9	0x3e3a7474	0.18208486
10	0x3e2502d4	0.1611436
11	0x3d3d6da2	0.046247132
12	0x3d6f4b42	0.05842138
13	0x3da96708	0.08271605
14	0x3e04ae9a	0.1295723
15	0x3de6b146	0.11264281
16	0x3d650526	0.055913113
17	0x3bcf8d69	0.006333996
18	0xbd5b3280	-0.053514957
19	0xbdb1a9e0	-0.08674979
20	0xbe1c8bb8	-0.15287673
21	0xbdec40c5	-0.11535791
22	0x3dc7c2ff	0.097539894
23	0x3d7d2b08	0.061808616
24	0xbc94f554	-0.018183388
25	0x3ccd3514	0.025049724
26	0xbd7f4404	-0.062320724
27	0xbd8d0512	-0.06885733
28	0xbd98c72c	-0.07459864
29	0x3e0fed78	0.14055431
30	0xbdedec5e	-0.11617349
31	0x3c7a959d	0.01529446
32	0x3c1ebe05	0.009688859
33	0x3cfcaf3c	0.030845277
34	0xbde5de8f	-0.1122409
35	0x3cc9c5c8	0.024630442
36	0x3e1a7d91	0.15086962
37	0x3de1c2db	0.11023494
38	0xbda5e98f	-0.081011884
39	0x3dd9cbc8	0.10634571
40	0x3e214ae2	0.15751222
41	0x3c4d2b26	0.012522494
42	0x3dd04975	0.10170261
43	0xbda083a8	-0.078376114
44	0x3e146c2a	0.14494386
45	0x3d0e8b31	0.034800712
46	0xbd05738f	-0.03258091
47	0x3d07e816	0.03318032
48	0x3d9a1d28	0.07525092
49	0x3d69cfb6	0.057082854
50	0x3d804867	0.0626381
51	0x3c8b066f	0.016970841
52	0x3e52f0ff	0.20599745
53	0x3e8cb600	0.27482605
54	0xbc1d3968	-0.009596206
55	0xbe43a30f	-0.1910517
56	0x3caecc57	0.021337671
57	0x3ccf1651	0.025279196
58	0xbc018d26	-0.007907188
59	0x3c3a3cc9	0.011367031
60	0x3dec2d3a	0.11532064
61	0x3d53908b	0.05165152
62	0xbc335e09	-0.010947713
63	0xbe04e987	-0.12979709
64	0xbcacb97a	-0.021084536
65	0xbd7d8de2	-0.061902888
66	0x3cedeea2	0.029044453
67	0x3b3550e8	0.0027666632
68	0x3db5a458	0.08869237
69	0x3e1cb053	0.15301637
70	0xbd8b1a72	-0.067921534
71	0xbd3d2664	-0.04617919
72	0x3b7b5d49	0.0038355163
73	0x3b7bff3f	0.00384517
74	0x3c58d84f	0.013235166
75	0x3d9d1786	0.07670502
76	0xbd5de34f	-0.054171856
77	0xbe5f50a3	-0.21808104
78	0xbdee21c5	-0.11627535
79	0x3d663a59	0.05620799
80	0x3dff6bb5	0.12471715
81	0x3e0da63c	0.13832945
82	0x3e68ec24	0.2274633
83	0xbc5bce30	-0.013415858
84	0xbda2726c	-0.079319805
85	0x3dcdeb2c	0.10054621
86	0x3dc41a92	0.095753804
87	0xbe04a29b	-0.12952654
88	0x3d48e6f4	0.04904838
89	0x3da830d7	0.082124405
90	0xbd1705ff	-0.036870953
91	0x3b55a7f0	0.003260132
92	0x3dedb7de	0.116073355
93	0x3d705498	0.058674425
94	0x3db5a0b2	0.08868541
95	0x3d714bc7	0.058910158
96	0xbd63241d	-0.055454362
97	0xbdf8db4e	-0.12151204
98	0xbd3e9d12	-0.046536513
99	0x3e1fdfe9	0.15612759
100	0xbc577c27	-0.013152159
101	0xbdf9da8f	-0.1219989
102	0xbdebd638	-0.11515468
103	0x3ca46bbe	0.020070907
104	0x3cd44b26	0.02591474
105	0x3e0c3726	0.13692912
106	0xbce92954	-0.02846209
107	0x3cff689f	0.031177817
108	0x3db4ff8b	0.088378035
109	0x3e225bbf	0.15855311
110	0x3d44895c	0.04798256
111	0xbcec5bf7	-0.028852446
112	0xbce24511	-0.027620824
113	0x3cb353d7	0.021890564
114	0x3ce158c0	0.02750814
115	0x3d00837c	0.031375393
116	0xbc639977	-0.013891569
117	0x3d72adbc	0.059247717
118	0x3d8214df	0.06351637
119	0x3e6e9b6e	0.23301479
120	0xbe6b061e	-0.22951552
121	0xbe161d5f	-0.14659642
122	0x3e4a08e4	0.19729954
123	0x3d89018c	0.06689748
124	0xbd8f5a4b	-0.06999644
125	0x3d250e90	0.04029709
126	0xbcb716eb	-0.022349795
127	0xbcba6d3b	-0.022757163
128	0x3c44de00	0.01201582
129	0xbe39f4b2	-0.1815975
130	0xbe56c88b	-0.20974939
131	0x3ca0eb86	0.019643556
132	0x3c169ced	0.009192687
133	0x3da28587	0.079356246
134	0xbc942242	-0.018082742
135	0x3bd6c4c4	0.006554218
136	0x3cc8fa91	0.024533542
137	0x3dec64cb	0.11542662
138	0xbc54dc6f	-0.012992009
139	0x3c83ebf1	0.016103717
140	0x3d47444a	0.04864911
141	0x3e33436b	0.17506187
142	0x3c9ca0bc	0.019119613
143	0x3d85b495	0.06528584
144	0x3ab62690	0.001389699
145	0xbe801110	-0.25013018
146	0x3ca61db2	0.020277832
147	0x3da0bae5	0.07848147
148	0xbe006c18	-0.12541234
149	0xbe220b43	-0.15824609
150	0xbc6d1df8	-0.014472477
151	0x3d36563a	0.044515826
152	0xbdec5bca	-0.11540945
153	0x3e174d63	0.14775614
154	0x3ca52620	0.020159781
155	0xbd78a6f3	-0.06070609
156	0xbbf366d8	-0.0074280314
157	0xbca34b98	-0.019933507
158	0x3da13cb2	0.07872905
159	0xbd9dccd7	-0.07705086
160	0x3de42c8e	0.11141311
161	0x3d0cccf7	0.034375157
162	0x3d995ce0	0.074884176
163	0xbd6b449b	-0.057438474
164	0xbe2ff559	-0.17183436
165	0xbe169fde	-0.14709422
166	0x3e0d04b9	0.13771333
167	0x3e3308b2	0.17483786
168	0xbe0d861b	-0.13820688
169	0x3bdd9066	0.0067615984
170	0xbe168796	-0.1470016
171	0xbe3b448e	-0.1828787
172	0xbdc70264	-0.09717253
173	0xbdb87ea2	-0.09008528
174	0xbd144ee6	-0.036208056
175	0x3e49e3fd	0.19715877
176	0xbd98490d	-0.07435808
177	0x3d0c48b1	0.03424901
178	0xbe111bbf	-0.1417074
179	0xbbfd0591	-0.007721611
180	0x3cd7d7dd	0.026348049
181	0x3da478aa	0.08030827
182	0xba92bf15	-0.0011195863
183	0xbdac4636	-0.08411829
184	0xbc8b1799	-0.016979026
185	0x3b603eba	0.0034217075
186	0x3d373bfe	0.044734947
187	0xbdeeb4d4	-0.11655584
188	0x3dbbb1ac	0.091647476
189	0xbe819bc0	-0.2531414
190	0xbe4745f6	-0.19460282
191	0xbe33e6cb	-0.1756851
192	0x3c39754f	0.011319472
193	0x3e29c2b2	0.16578177
194	0x3da31a34	0.07963982
195	0xbdbaeee1	-0.09127594
196	0x3d82dd18	0.063898265
197	0x3c6a6ac1	0.014307679
198	0xbdf893db	-0.12137576
199	0xbcc2e234	-0.023789503
200	0x3d33d642	0.043905504
201	0x3cd2f969	0.025753694
202	0x3d30c7f1	0.04315943
203	0x3d258213	0.04040725
204	0x3db2bc3c	0.08727309
205	0xbe0c7a99	-0.13718642
206	0xbcb5e778	-0.0222051
207	0xbc0bcfc3	-0.008533421
208	0x3ca82a25	0.020527909
209	0x3d0bffff	0.034179684
210	0x3cd85579	0.026407944
211	0xbe009f7d	-0.1256084
212	0xbe2364e7	-0.1595646
213	0xbda128f4	-0.07869139
214	0x3dd0c7cb	0.101943575
215	0xbcd1adc1	-0.025595548
216	0x3d11ab77	0.035563912
217	0x3e24e047	0.1610118
218	0x3debf58a	0.11521442
219	0x3c699289	0.014256128
220	0xbb3f3c0e	-0.0029180082
221	0x3d58c769	0.052924547
222	0x3e31be34	0.17357713
223	0xbc1e341f	-0.009655981
224	0x3ba37a7b	0.004988966
225	0xbc241d78	-0.0100167915
226	0xbd9b385d	-0.0757911
227	0xbcd07d4b	-0.02545037
228	0x3c58f8c5	0.013242905
229	0x3d963529	0.07334358
230	0xbdac29fb	-0.08406445
231	0x3e2f02f6	0.17090973
232	0xbe30e6b9	-0.17275514
233	0xbd9bd1b3	-0.07608356
234	0x3cb6dd8d	0.02232244
235	0x3df7620c	0.12079248
236	0xbd69b29a	-0.057055093
237	0x3e4f81c4	0.20264345
238	0xbd179c7c	-0.03701447
239	0x3d21284f	0.039345082
240	0xbe13a43a	-0.14418116
241	0xbd261df7	-0.04055592
242	0x3e0eb2d4	0.13935405
243	0x3d7bc740	0.061469316
244	0xbd134299	-0.035952184
245	0x3c942b83	0.018087154
246	0xbe0a4a91	-0.13505007
247	0xbd502bac	-0.0508229
248	0xbc7626f7	-0.015023938
249	0x3e0ddfa6	0.13854846
250	0x3dad31d0	0.084567666
251	0xbc938eed	-0.018012488
252	0x3dd4e299	0.103947826
253	0x3d16fb6d	0.036860872
254	0xbdc10016	-0.094238445
255	0x3d932141	0.07184077

encoder.layers.0.bias f4 [32]
0	0x3d30bb02	0.043147095
1	0x3e7bf9a5	0.2460695
2	0xbbc60035	-0.006042505
3	0x3e9dde76	0.30833787
4	0x3e96f83c	0.29486263
5	0xbdfd1b40	-0.12358713
6	0xbdb4f7ac	-0.08836302
7	0x3cac651e	0.02104431
8	0xbdc022b1	-0.09381617
9	0xbd7fd90b	-0.062462848
10	0x3e35854d	0.17726631
11	0xbce378cf	-0.027767567
12	0x3e7fb65b	0.24971907
13	0xbddc5a5a	-0.10759421
14	0xbe0c379e	-0.13693091
15	0xbdc9e8af	-0.09858834
16	0x3e902525	0.2815334
17	0x3e91f7d1	0.2850938
18	0xbd8ba21e	-0.06818031
19	0xbd674bb6	-0.056468688
20	0xbda7250e	-0.081613645
21	0x3e7d758c	0.24751872
22	0xbc0d0024	-0.008605991
23	0xbd13d89b	-0.036095243
24	0x3e033eca	0.12816921
25	0xbd87fe36	-0.06640284
26	0x3d01d71c	0.031699285
27	0xbe1cacc8	-0.15300286
28	0x3e86c105	0.26319137
29	0xbdfe977f	-0.12431239
30	0xbc3c44f9	-0.011491054
31	0xbbf2c8e4	-0.007409202

encoder.layers.2.weight f4 [32, 32]
0	0x3cc74838	0.024326429
1	0xbcbe7c4f	-0.023252634
2	0x3d1931b9	0.037400935
3	0xbe23f4b5	-0.16011317
4	0xbb4ec480	-0.0031550229
5	0x3d809c52	0.06279816
6	0xbbd3d400	-0.0064644814
7	0xbd138643	-0.036016714
8	0x3d9620e9	0.07330496
9	0xbcd6a2e3	-0.026200717
10	0x3da47913	0.080309056
11	0xbd3043a7	-0.04303327
12	0xbd3887c7	-0.045051362
13	0xbe2459d3	-0.1604989
14	0xbdff1d04	-0.12456706
15	0xbc415679	-0.011800402
16	0x3de9bb4c	0.11412677
17	0x3d411f25	0.047148842
18	0xbd77df09	-0.060515437
19	0x3c5c6f32	0.013454245
20	0x3b529aa4	0.003213563
21	0xbde843e7	-0.11341076
22	0xbbbf11f1	-0.005830996
23	0xbd6115da	-0.05495248
24	0x3cadd9f5	0.021222094
25	0xbc9b67e0	-0.01897043
26	0xbd0d323f	-0.034471747
27	0xbd5b1739	-0.053488944
28	0x3daf2c8e	0.0855342
29	0x3db92cc8	0.090417445
30	0x3a380d89	0.000702106
31	0xbd82422e	-0.06360279
32	0x3e301cd4	0.17198497
33	0x3e0a31bf	0.13495539
34	0x3d5a8712	0.05335147
35	0xbd85dfe2	-0.06536843
36	0xbc3ca65c	-0.011514273
37	0x3e1c3b38	0.15256965
38	0x3e23815e	0.15967318
39	0x3da23f3f	0.079222195
40	0x3c9882a4	0.018616982
41	0x3d82f4eb	0.06394371
42	0x3d99b6bf	0.07505559
43	0x3e148f44	0.14507776
44	0x3e2f6864	0.17129666
45	0x3db75c2c	0.08953127
46	0x3e6d67a2	0.23184064
47	0xbaedb121	-0.0018134454
48	0x3c9bff63	0.019042676
49	0x3db5fbad	0.08885894
50	0x3e5706e0	0.20998716
51	0x3e0306fe	0.12795636
52	0x3d1186e3	0.03552903
53	0x3d9ecf17	0.07754343
54	0x3b0ccc35	0.0021484022
55	0x3e141cb5	0.14464076
56	0xbcc5c0d8	-0.024139807
57	0x3e59f140	0.21283436
58	0x3ce6b57f	0.028162716
59	0x3e2f601d	0.17126508
60	0xbc684f06	-0.014178997
61	0x3e02ed24	0.12785774
62	0x3e0ae93e	0.13565537
63	0x3e1fc99b	0.1560425
64	0xbd3a2593	-0.04544599
65	0xbd50b9dd	-0.050958503
66	0xbd9a36e7	-0.07530003
67	0xbd93de1b	-0.07220098
68	0xbe04c6c3	-0.12966447
69	0xbdb73420	-0.08945489
70	0x3cdbb33e	0.026818868
71	0xbd57bc35	-0.052669723
72	0xbd07c246	-0.033144258
73	0x3e06d142	0.13165763
74	0x3d0d5988	0.03450921
75	0x3d01c9b4	0.0316865
76	0xbae27bfe	-0.0017279384
77	0x3d06f836	0.032951556
78	0x3d825caf	0.06365334
79	0x3c174df1	0.009234891
80	0x3d38c0be	0.04510569
81	0xbd6b1629	-0.05739418
82	0xbc95956a	-0.018259723
83	0x3bb44534	0.0055014137
84	0x3c329774	0.010900367
85	0xbcb07804	-0.021541603
86	0xbde697d5	-0.112594284
87	0x3d5c3b47	0.05376747
88	0xbe0f20f2	-0.13977411
89	0x3d98f213	0.07468047
90	0xbdf7179c	-0.1206505
91	0xbd661e5b	-0.056181293
92	0x3dde45ff	0.108531944
93	0xbbedde03	-0.007259132
94	0xbdb65c5b	-0.08904334
95	0x3dfd3bd2	0.123649254
96	0xbe0398c5	-0.12851246
97	0x3e116daa	0.1420199
98	0xbdf9c16f	-0.12195098
99	0xbb4e73ed	-0.0031502203
100	0x3df24738	0.1182999
101	0xbe076523	-0.13222174
102	0xbd8816ad	-0.0664495
103	0xbd77cdb0	-0.060498893
104	0x3dfea7a9	0.124343224
105	0x3db166b0	0.08662164
106	0x3c854ad8	0.01627104
107	0xbdc29f48	-0.09503037
108	0x3e151024	0.14556938
109	0x3db20798	0.08692855
110	0xbd3524a0	-0.04422438
111	0xbc17e7cf	-0.009271576
112	0x3e182cb8	0.14860809
113	0x3e2a3f58	0.16625726
114	0x3d25857d	0.040410507
115	0xbdd13d10	-0.10216725
116	0xbdefb4b4	-0.11704388
117	0x3e1df25b	0.15424483
118	0xbe06f8c0	-0.13180828
119	0x3c9fe847	0.019519938
120	0x3d274254	0.04083474
121	0x3e19db45	0.15025051
122	0xbdb1c51a	-0.08680172
123	0x3d6c761e	0.057729833
124	0x3e3b4117	0.18286549
125	0xbdd587cf	-0.10426294
126	0xbd206fac	-0.039169
127	0x3c132b46	0.008982485
128	0xbc3fbf73	-0.01170336
129	0x3dae3e9d	0.08508036
130	0xbdbdbcc4	-0.0926452
131	0x3e5eb145	0.2174731
132	0x3dcb67ec	0.09931931
133	0xbe370433	-0.17872696
134	0x3d86329e	0.06552623
135	0x3d762997	0.060098257
136	0xbe1a6e01	-0.15081026
137	0xbe069b54	-0.1314519
138	0x3de34cdd	0.11098645
139	0xbde7e16b	-0.11322292
140	0x3e3814e6	0.17976722
141	0xbda36116	-0.07977502
142	0xbe23329d	-0.15937276
143	0xbdb71116	-0.08938806
144	0x3e104265	0.14087828
145	0x3e2c7931	0.16843106
146	0xbd85ec9e	-0.06539272
147	0x3d1c4f38	0.038161486
148	0x3c81627e	0.015794035
149	0x3e817bc5	0.2528974
150	0x3db55ff6	0.08856194
151	0xbe30f44b	-0.1728069
152	0x3dc3adec	0.09554657
153	0xbe029ecb	-0.12755887
154	0x3d095463	0.033527743
155	0x3da11ed3	0.078672074
156	0x3e3abb36	0.18235478
157	0xbdcd9dee	-0.10039888
158	0xbd31833c	-0.043338045
159	0xbd3eedf3	-0.046613645
160	0xbd2ca7c1	-0.04215217
161	0x3e144cdd	0.14482446
162	0x3d528353	0.05139477
163	0x3d871546	0.065958545
164	0xbde89de0	-0.11358237
165	0xbe15f651	-0.14644744
166	0xbd9290a2	-0.07156493
167	0xbd8580d4	-0.06518713
168	0x3e1f1b91	0.1553786
169	0x3b86b79c	0.0041112434
170	0xbd87a079	-0.066224046
171	0xbdc35fe8	-0.09539777
172	0xbadbe730	-0.0016777273
173	0x3d9b044a	0.075691774
174	0x3d2b3ae2	0.041804202
175	0x3d24a212	0.040193625
176	0x3dd9ccb2	0.10634746
177	0x3cda7de3	0.026671356
178	0xbd7395ed	-0.059469152
179	0xbc3b8d15	-0.011447211
180	0xbd1c35d6	-0.03813728
181	0x3e0cff14	0.1376918
182	0x3d9da587	0.076975875
183	0x3ce1731a	0.027520705
184	0xbd9f49d8	-0.077777565
185	0x3df4442e	0.11927067
186	0x3db6456c	0.0889996
187	0x3e0aba0a	0.13547531
188	0xbd18c9f2	-0.037301965
189	0x3da20206	0.07910542
190	0xbe0d2e5c	-0.13787216
191	0xbd43bc97	-0.047787275
192	0x3e38113e	0.17975327
193	0x3d8e0679	0.06934828
194	0xbd084da2	-0.03327716
195	0x3daf77e1	0.08567787
196	0xbe1665ac	-0.14687222
197	0x3dc93bac	0.09825835
198	0x3dda526d	0.10660253
199	0xbdae060a	-0.084972456
200	0x3db5bb18	0.08873576
201	0xbd821c10	-0.06353009
202	0xbda1cf7d	-0.079009034
203	0x3da6bc23	0.08141353
204	0x3b328f36	0.0027246005
205	0xbc0921f6	-0.008369913
206	0x3df7161f	0.12064766
207	0xbde9cb29	-0.11415703
208	0xbd18a6fd	-0.037268627
209	0x3cd4e3fb	0.025987616
210	0x3d8892bd	0.06668613
211	0xbd4bf81c	-0.049797162
212	0x3d98a589	0.07453448
213	0xbd2c4007	-0.04205325
214	0x3e4121f2	0.18860605
215	0x3d50d3ea	0.050983347
216	0x3dcfe3b3	0.10150852
217	0x3ddd0347	0.10791641
218	0x3e09dd01	0.13463213
219	0x3cf0e816	0.029407542
220	0x3e07d51d	0.1326489
221	0xbd3597ea	-0.04433433
222	0x3d80984e	0.0627905
223	0x3dc97141	0.098360546
224	0xbd8a57d7	-0.06755035
225	0xbd399c55	-0.045315105
226	0x3e1ceed5	0.15325482
227	0xbe06156c	-0.1309411
228	0xbc0fd6fd	-0.008779285
229	0x3e43a14d	0.191045
230	0x3d8bad1c	0.06820127
231	0xbcf1c974	-0.029515006
232	0x3de37a3c	0.11107299
233	0x3e1e619d	0.15466924
234	0x3c9690f4	0.018379666
235	0x3e061116	0.13092455
236	0x3d8dd6cc	0.06925735
237	0xbc705b99	-0.014670276
238	0xbc97ca1e	-0.018528994
239	0x3e2d6501	0.16933061
240	0xbddc22fe	-0.10748862
241	0x3d8ae830	0.067825675
242	0x3e000826	0.12503108
243	0x3e12a84d	0.14322014
244	0x3e22b337	0.15888678
245	0x3e0cf0f2	0.13763788
246	0x3d299019	0.041397188
247	0xbd304d90	-0.04304272
248	0x3e3529e7	0.17691766
249	0x3dd9a80e	0.10627757
250	0xbc869afe	-0.016431328
251	0x3e221bb9	0.15830888
252	0xbd7dbff3	-0.061950635
253	0x3dc80fbf	0.09768628
254	0xbd5705c9	-0.05249575
255	0x3dc7be84	0.09753135

encoder.layers.2.bias f4 [32]
0	0x3d44e338	0.048068255
1	0xbe350239	-0.17676629
2	0xbe02eca6	-0.12785587
3	0x3e36b89a	0.17843857
4	0x3e5e6646	0.21718702
5	0xbd8994c6	-0.067178294
6	0xbcf16bce	-0.02947035
7	0xbd611d9b	-0.054959875
8	0xbe03064f	-0.12795375
9	0xbdd8c040	-0.10583544
10	0x3c991ce4	0.018690534
11	0x3e804524	0.2505275
12	0x3e5cb661	0.21553947
13	0xbd4f5337	-0.05061647
14	0xbddd5b72	-0.108084574
15	0x3e65b96b	0.22434013
16	0xbe0826a9	-0.13295998
17	0x3cc0a302	0.023515228
18	0xbd301cb4	-0.042996123
19	0xbd31cd21	-0.043408517
20	0x3e210b7c	0.15727037
21	0xbd04fb8f	-0.032466467
22	0x3e83731e	0.25673765
23	0xbd5f0459	-0.054447506
24	0x3e716fb1	0.23577763
25	0x3eb0e2b3	0.34547958
26	0xbe20e2c1	-0.157115
27	0x3ecaf2c8	0.39638352
28	0xbc8d4e90	-0.017249376
29	0xbda17a43	-0.07884648
30	0xbd13310f	-0.035935458
31	0xbd6f329d	-0.058397878

encoder.layers.4.weight f4 [12, 32]
0	0xbde62f54	-0.11239496
1	0x3e636883	0.22207837
2	0xbdbc66c5	-0.09199289
3	0x3d35fb09	0.04442886
4	0xbe88854b	-0.26664194
5	0xbd0c4ba9	-0.034251843
6	0x3e1539c2	0.14572814
7	0x3df54eb7	0.11977904
8	0x3e28a1f1	0.16468026
9	0x3e018cc8	0.1265136
10	0x3cbd1064	0.023079105
11	0xbe3157dd	-0.17318673
12	0xbe405bb7	-0.18784986
13	0x3e647b2f	0.22312616
14	0x3db3e923	0.08784702
15	0xbdcee2a9	-0.10101826
16	0xbd8c09d7	-0.06837814
17	0x3e2c9087	0.16852008
18	0x3db7f812	0.089828625
19	0x3e38f6d4	0.18062907
20	0xbc655715	-0.013997813
21	0x3e469827	0.19393979
22	0xbe332f27	-0.17498456
23	0x3e71b6c4	0.23604876
24	0xbd16d3cd	-0.036823083
25	0xbea6b454	-0.32559454
26	0x3e392f23	0.18084387
27	0xbeb91f21	-0.36156562
28	0xbd9667bf	-0.07344007
29	0x3e04cd74	0.12968999
30	0x3d564fbe	0.05232214
31	0x3e13cff7	0.14434801
32	0xbddf2ec9	-0.108975954
33	0x3e35ae6d	0.1774232
34	0xb9916c00	-0.0002773702
35	0x3e0c55e5	0.13704641
36	0x3c08f40a	0.008358965
37	0xbe03fcef	-0.12889455
38	0x3e2c9c0e	0.16856405
39	0x3e0040d4	0.1252473
40	0x3e591a50	0.21201444
41	0x3e1f4c8d	0.15556546
42	0x3d9bf72a	0.07615502
43	0x3e06f001	0.13177492
44	0xbe01f533	-0.12691192
45	0xbbac87ea	-0.0052652257
46	0x3d5d0963	0.05396403
47	0xbd6f4a46	-0.058420442
48	0x3e1a5a69	0.15073551
49	0xbd197af4	-0.037470773
50	0x3e584274	0.211191
51	0xbbfec884	-0.007775368
52	0xbda9d6c3	-0.08292916
53	0x3dedeeee	0.11617838
54	0x3d63c124	0.055604115
55	0x3dbc1f07	0.091856055
56	0x3e42ab59	0.19010676
57	0x3dfdafc1	0.12387038
58	0x3e2651ba	0.16242114
59	0x3d190ea1	0.037367467
60	0x3d729bb3	0.059230518
61	0x3e38469f	0.1799569
62	0x3e0cefdd	0.13763376
63	0x3da134c0	0.078713894
64	0x3b238661	0.0024951922
65	0xbe87807d	-0.26465216
66	0x3d952272	0.072819605
67	0x3df30c43	0.11867573
68	0xbcae2322	-0.021256987
69	0xbe20a63a	-0.1568841
70	0xbd605f64	-0.05477847
71	0x3d84800e	0.06469737
72	0x3cac230d	0.021012807
73	0xbe4f9745	-0.20272548
74	0x3c0b2878	0.008493535
75	0xbde9945b	-0.1140525
76	0x3def7e81	0.116940506
77	0xbe3a45f4	-0.18190747
78	0x3d969d25	0.07354192
79	0x3e14f1ee	0.14545414
80	0xbd96cb5d	-0.07363007
81	0xbe061ceb	-0.13096969
82	0xbe6fb58a	-0.23409095
83	0x3c05d9a7	0.008169568
84	0xbd11cc32	-0.035595126
85	0x3d30beef	0.04315084
86	0x3e80a386	0.25124758
87	0xbe537100	-0.20648575
88	0x3e0056b3	0.12533073
89	0xbc518c01	-0.012789727
90	0xbe0583c9	-0.13038553
91	0x3df06f6d	0.11740003
92	0xbddbc7e8	-0.107314885
93	0xbe19e57f	-0.15028952
94	0xbd072502	-0.032994278
95	0xbe5abea8	-0.21361792
96	0x3da2ea8e	0.07954894
97	0x3df2d84f	0.11857664
98	0x3c523934	0.012831021
99	0xbe2923ab	-0.16517513
100	0xbe15dcb5	-0.14634974
101	0x3dc389ee	0.095477924
102	0x3e1ed5b4	0.15511209
103	0x3de1b478	0.1102075
104	0x3e05b649	0.13057818
105	0x3e1f346b	0.1554734
106	0xbd5d4e0f	-0.05402952
107	0x3c41f765	0.011838769
108	0x3dd3d266	0.10342865
109	0x3de55d56	0.11199443
110	0x3e27717f	0.16351889
111	0xbd5bc858	-0.05365786
112	0x3dece8c3	0.11567833
113	0xbd92c3e3	-0.07166269
114	0x3c85016b	0.016236028
115	0xbd9adf74	-0.075621516
116	0xbe23e9d6	-0.1600717
117	0x3d874e1d	0.06606696
118	0xbe359dcc	-0.17735976
119	0xbdc4be79	-0.09606642
120	0xbd348535	-0.04407235
121	0xbde94b5b	-0.11391326
122	0x3e05740b	0.13032548
123	0xbe69e691	-0.2284186
124	0xbc16f7f7	-0.009214393
125	0x3e4d6b7a	0.2006053
126	0xbcfe6106	-0.031052124
127	0x3ddb5926	0.10710363
128	0xbd858355	-0.0651919
129	0xbe66dae7	-0.22544442
130	0xbda8aa96	-0.08235662
131	0x3e628e14	0.22124511
132	0x3e9758e4	0.29560006
133	0x3c812b3c	0.015767686
134	0x3dc37851	0.09544433
135	0xbdb4c1d7	-0.088260345
136	0xbdb47f24	-0.08813313
137	0xbddd5b91	-0.108084805
138	0xbd289ee4	-0.041167155
139	0x3e50ceac	0.20391339
140	0xbb90be6f	-0.0044172327
141	0xbdb76969	-0.08955652
142	0x3de69009	0.11257941
143	0x3e9642df	0.29347894
144	0x3c337af9	0.010954612
145	0xbe1ed493	-0.15510778
146	0xbd4d433d	-0.05011295
147	0xbdfc212a	-0.12311013
148	0x3df34b77	0.11879628
149	0xbdae603b	-0.08514448
150	0x3e92aa21	0.28645423
151	0xbe3a9590	-0.18221116
152	0x3de5a20c	0.112125486
153	0x3e84a431	0.25906518
154	0xbcacb0c6	-0.021080386
155	0x3e9d1613	0.30680904
156	0xbdbf01e7	-0.09326535
157	0xbde40a29	-0.111347504
158	0xbe1d12ac	-0.15339154
159	0xbc5ad38a	-0.013356099
160	0xbd49628c	-0.049166247
161	0x3da2e859	0.07954473
162	0x3d390d29	0.045178566
163	0x3e0b5463	0.1360641
164	0xbe0d7c54	-0.13816959
165	0x3dc167df	0.0944364
166	0x3d043667	0.032278445
167	0x3e092cfb	0.13396065
168	0x3cfbed89	0.030752914
169	0x3d87aeaf	0.06625115
170	0x3da18a96	0.07887761
171	0x3dde4846	0.10853629
172	0xbcfe666f	-0.031054704
173	0x3d20230d	0.039095927
174	0xbe12ab36	-0.14323124
175	0xbdc77949	-0.0973993
176	0xbde501eb	-0.111820064
177	0x3bd6a98c	0.0065509733
178	0x3e147328	0.14497054
179	0x3dc8403c	0.09777877
180	0x3d1fdb04	0.03902723
181	0x3c5b1912	0.013372676
182	0xbd6b89e9	-0.05750457
183	0x3bbd482a	0.005776425
184	0x3db2e177	0.0873441
185	0x3e1b7bca	0.1518394
186	0x3e2963dc	0.16542
187	0xbdbc6029	-0.091980286
188	0x3dd17eab	0.10229238
189	0x3d81786c	0.06321797
190	0x3e3fb166	0.18720016
191	0xbc4675eb	-0.012113075
192	0xbd1d996c	-0.038476393
193	0xbdf004bd	-0.11719654
194	0x3dbe49e7	0.092914395
195	0xbcc73fc0	-0.02432239
196	0x3c72f1ad	0.014828128
197	0x3e17b663	0.14815669
198	0xbe375adf	-0.17905758
199	0xbdc1532d	-0.09439693
200	0xbdc81fa6	-0.097716615
201	0xbda1f784	-0.07908538
202	0xbdb0a4f8	-0.08625215
203	0xbba04d62	-0.0048920373
204	0x3d5de141	0.054169897
205	0xbc616dba	-0.013759071
206	0xbe04459c	-0.12917179
207	0xbcd0504f	-0.02542892
208	0x3e0143e3	0.12623553
209	0xbd595814	-0.053062513
210	0xbde31f70	-0.110899806
211	0xbd394d31	-0.04523963
212	0xbd9ad8dc	-0.07560894
213	0xbe230644	-0.15920359
214	0xbdc010ca	-0.09378202
215	0xbe21f77b	-0.15817063
216	0x3df9a37a	0.12189384
217	0xbc866325	-0.016404698
218	0xbc5ab5ea	-0.013349036
219	0xbcba8d77	-0.022772534
220	0x3c82be6c	0.01595994
221	0xbcae86ec	-0.02130457
222	0x3d69ebb8	0.057109565
223	0xbe267bc5	-0.16258152
224	0x3d77e11f	0.060517427
225	0xbcfdee0f	-0.030997304
226	0xbd7ed674	-0.062216237
227	0x3df8002a	0.12109406
228	0x3c051f83	0.008125189
229	0x3dbfe663	0.09370115
230	0xbda2d2f3	-0.079503916
231	0xbdd3ca78	-0.10341352
232	0x3dd23df0	0.1026572
233	0x3d402d09	0.04691795
234	0xbc5b3faf	-0.013381883
235	0xbdfab36b	-0.122412525
236	0x3d31eb5e	0.043437354
237	0xbcc74669	-0.024325566
238	0x3d9f93e8	0.07791883
239	0x3db8c366	0.09021644
240	0xbc10a71a	-0.008828903
241	0x3e02aac4	0.12760454
242	0xbdbf2cd3	-0.093347214
243	0xbcb45105	-0.02201129
244	0xbc605868	-0.013692953
245	0xbd76f9e3	-0.060296904
246	0xbd04e1f7	-0.03244206
247	0xbb9d55d8	-0.004801493
248	0xbc89fc96	-0.016844075
249	0x3dd5e888	0.104447424
250	0xbc125d63	-0.008933398
251	0x3e4beeda	0.19915333
252	0xbcfe19b0	-0.031018108
253	0xbc0a39ec	-0.008436661
254	0xbdbae672	-0.09125985
255	0xbb4bb1ad	-0.0031081245

encoder.layers.4.bias f4 [12]
0	0xbe2dd744	-0.16976649
1	0xbdf7cfde	-0.121001944
2	0x3e0b82f0	0.13624167
3	0xbde063b1	-0.109565146
4	0x3e82907e	0.25500864
5	0xbe143c20	-0.14476061
6	0xbc9dcad3	-0.019261753
7	0x3dcd544f	0.10025846
8	0x3d729e44	0.059232965
9	0x3d394410	0.045230925
10	0xbc9a98f4	-0.018871762
11	0x3e01f332	0.12690428

decoder.layers.0.weight f4 [32, 17]
0	0x3d293aa6	0.041315697
1	0xbe0c9cd5	-0.13731702
2	0x3e75a684	0.23989302
3	0x3e686cbf	0.22697733
4	0x3ea0a0d8	0.31372714
5	0x3e1f4cb2	0.155566
6	0xbdee2738	-0.11628574
7	0xbcbc7d87	-0.023009075
8	0xbd7e9290	-0.06215149
9	0x3cc61178	0.024178252
10	0xbd82c666	-0.06385498
11	0x3e673713	0.22579603
12	0xbdf2ed65	-0.11861686
13	0x3d968d0f	0.073511235
14	0xbe32c188	-0.17456639
15	0x3e4e978b	0.20174997
16	0x3d927a07	0.07152181
17	0xbe313f3d	-0.1730928
18	0x3e0cee0e	0.13762686
19	0xbe2d278b	-0.16909616
20	0xbe24e3da	-0.16102543
21	0x3e5f509a	0.21808091
22	0xbe5d92ae	-0.21637985
23	0x3e17f0da	0.14837971
24	0xbb827cce	-0.003982163
25	0xbe132910	-0.14371133
26	0x3d6646ed	0.056219984
27	0x3e802711	0.25029805
28	0x3b97fb50	0.004638113
29	0xbde1cdaf	-0.11025559
30	0x3e3e6791	0.18594195
31	0x3e1ba9b2	0.15201452
32	0x3e58aacb	0.21158902
33	0xbd9e713c	-0.077364415
34	0xbe05df0b	-0.13073365
35	0xbdcf8c28	-0.101341546
36	0x3b8fb7c5	0.0043859207
37	0x3d993a6d	0.07481847
38	0xbe091be9	-0.13389553
39	0xbe05dd17	-0.1307262
40	0xbdc9fc6c	-0.09862599
41	0x3cf4470e	0.029819038
42	0x3e1425ba	0.14467517
43	0x3e1bb465	0.15205534
44	0x3e61b185	0.22040375
45	0x3e3790df	0.17926358
46	0xbe19b6ed	-0.15011187
47	0x3dd9eaff	0.10640525
48	0xbda26db3	-0.0793108
49	0x3e436d8c	0.19084758
50	0x3d868792	0.06568827
51	0xbe502f65	-0.2033058
52	0x3e5f77a1	0.21822979
53	0xbe6bad45	-0.23015316
54	0x3e3f4d23	0.18681769
55	0x3e50fdee	0.20409366
56	0x3e422a09	0.18961348
57	0xbe735507	-0.23762904
58	0xbe8463f3	-0.25857505
59	0x3ad6439c	0.0016347053
60	0xbe670031	-0.22558667
61	0xbe57c1ee	-0.21070072
62	0xbddbf421	-0.10739923
63	0x3e0bc6bb	0.13650028
64	0xbdbbf22b	-0.09177049
65	0x3c5b25cc	0.013375711
66	0x3de510c0	0.111848354
67	0x3e12d9fc	0.14340967
68	0xbe984397	-0.29739067
69	0xbe7c6780	-0.24648857
70	0xbdf8742c	-0.12131533
71	0x3de9b45d	0.11411355
72	0xbbe32202	-0.0069315443
73	0x3e1ab4da	0.15108052
74	0xbe7630bd	-0.2404203
75	0xbd70e938	-0.058816165
76	0x3cdcb8e8	0.026943639
77	0x3c543cda	0.012953961
78	0x3df2608f	0.11834823
79	0xbdd3760d	-0.10325251
80	0xbe8787d9	-0.2647083
81	0x3e17afba	0.14813128
82	0xbe030202	-0.12793735
83	0x3e0ca8d8	0.13736284
84	0xbe1bc29b	-0.15210955
85	0xbd73d982	-0.059533603
86	0xbcc3732f	-0.023858635
87	0xbda66b05	-0.08125881
88	0x3dfafe4c	0.122555345
89	0xbdbac5c0	-0.09119749
90	0xbdbb2665	-0.091381826
91	0xbe2a4f70	-0.16631866
92	0xbe7298d6	-0.23691115
93	0x3d9324c4	0.07184747
94	0xbe6edcfa	-0.23326483
95	0x3db049bc	0.08607814
96	0xbd2bd646	-0.041952394
97	0x3d72d784	0.059287563
98	0x3dd913f1	0.10599507
99	0x3db73963	0.089464925
100	0x3cfa801b	0.030578664
101	0x3db3fa39	0.087879606
102	0x3dd78b80	0.105246544
103	0x3da17517	0.07883661
104	0x3e2a91d6	0.16657194
105	0x3d41920a	0.047258414
106	0xbe59391f	-0.21213196
107	0x3e2383ac	0.15968198
108	0xbe4d2ba7	-0.20036183
109	0x3e006d74	0.12541753
110	0x3e57cfb3	0.21075325
111	0x3dcf7b27	0.10130911
112	0xbda11eef	-0.07867228
113	0x3df5d52a	0.120035484
114	0xbd9075a2	-0.07053687
115	0xbc14f953	-0.009092647
116	0x3d8d2aed	0.06892953
117	0xbe361002	-0.17779544
118	0x3e708e07	0.23491679
119	0x3e1db1c5	0.15399845
120	0x3e3a8917	0.18216358
121	0xbe23463a	-0.15944758
122	0x3df443c2	0.11926986
123	0x3d42b7e7	0.047538664
124	0xbd8c3b2d	-0.068472244
125	0x3c1b57fb	0.009481425
126	0xbe3ddf70	-0.18542266
127	0xbe11df5e	-0.14245364
128	0x3e286263	0.16443782
129	0x3e098928	0.13431227
130	0x3e086c09	0.13322462
131	0x3e1d80e0	0.15381193
132	0xbdf0ba84	-0.11754325
133	0xbe85d541	-0.26139262
134	0xbe88d45a	-0.2672451
135	0xbda9f687	-0.082989745
136	0x3e3a50fb	0.18194954
137	0x3d1d2875	0.03836866
138	0x3d4cc6da	0.049994327
139	0xbb92d44e	-0.004480875
140	0x3d6cc1c7	0.057801988
141	0x3c8b4488	0.017000452
142	0xbd49b868	-0.04924813
143	0x3d676ad3	0.05649836
144	0xbdd16ea3	-0.102261804
145	0xbe5431a7	-0.20722066
146	0xbdeade45	-0.11468176
147	0x3e57bbbd	0.2106771
148	0x3e118854	0.14212161
149	0xbe3218a5	-0.17392214
150	0x3dd61517	0.10453241
151	0x3e2a5ae7	0.16636239
152	0xbd785864	-0.06063117
153	0xbdd85591	-0.105631955
154	0xbe437236	-0.19086537
155	0x3e0700fc	0.1318397
156	0xbeaeba5a	-0.3412655
157	0x3edac6b8	0.42729735
158	0x3d85628a	0.065129355
159	0xbe361fac	-0.1778552
160	0x3e340849	0.17581286
161	0xbd54b6a3	-0.05193199
162	0x3e452411	0.1925204
163	0x3d4d3693	0.050100874
164	0x3e421b99	0.1895584
165	0x3e1b9a48	0.15195572
166	0xbc2d8c65	-0.010592555
167	0x3d94739f	0.072486155
168	0x3e0d1fde	0.13781688
169	0xbd767081	-0.060165886
170	0x3e1cad68	0.15300524
171	0x3de54156	0.111941025
172	0xbd0483ed	-0.032352377
173	0x3e5c9c99	0.21544112
174	0x3dd1b19a	0.10238953
175	0x3da20014	0.07910171
176	0x3ce8c18e	0.028412607
177	0xbe71ffc6	-0.23632726
178	0x3e4e5986	0.20151338
179	0xbdd6529c	-0.10464975
180	0x3bf613d2	0.007509687
181	0xbd3b67aa	-0.04575316
182	0xbdc4694e	-0.09590398
183	0xbe2b3778	-0.16720378
184	0x3dfe1916	0.124071285
185	0x3d7b52f2	0.0613584
186	0xbe842641	-0.25810435
187	0xbed05858	-0.406924
188	0xbe890f9c	-0.26769722
189	0x3e335b8a	0.17515388
190	0xbe1063e8	-0.14100611
191	0x3e5cd394	0.21565086
192	0x3e77eb29	0.242108
193	0xbd86299c	-0.06550905
194	0xbd84a3bb	-0.064765416
195	0xbd0cb52b	-0.034352463
196	0xbd800d29	-0.0625251
197	0xbe0cd02d	-0.13751288
198	0x3c68c0b9	0.014206105
199	0x3d9f3adc	0.077748984
200	0x3d39ee31	0.045393173
201	0xbe4dfa25	-0.20114954
202	0xbdc3a144	-0.09552243
203	0x3e51c673	0.20485859
204	0x3e80beb6	0.251455
205	0x3e53aafe	0.20670697
206	0xbcfd5aa0	-0.030927002
207	0xbba8f1a2	-0.005155758
208	0xbd4cf235	-0.050035674
209	0xbdf19405	-0.117958106
210	0x3d237879	0.039909814
211	0x3e2001a1	0.15625621
212	0x3e0200e6	0.12695655
213	0xbe86c5f3	-0.26322898
214	0x3d1cf31c	0.038317785
215	0x3e823d10	0.25437212
216	0x3cbf6c4b	0.023367068
217	0x3df70926	0.12062292
218	0xbaa45c24	-0.0012539667
219	0x3e67eee1	0.22649719
220	0xbe54d042	-0.20782569
221	0x3e1dfa87	0.154276
222	0x3e5259ad	0.20542021
223	0xbe0d7277	-0.13813196
224	0xbdf5d3c2	-0.1200328
225	0xbe626fad	-0.22112913
226	0x3e0d8efb	0.13824074
227	0xbe27264c	-0.16323203
228	0xbe23c4b4	-0.15993005
229	0x3c1ccb14	0.009569902
230	0xbe0dd4d1	-0.13850714
231	0xbcb06d55	-0.021536509
232	0x3e16c153	0.14722185
233	0xbd8ce55c	-0.06879684
234	0x3e3c79f1	0.18405892
235	0xbe427eea	-0.18993726
236	0x3e8cc6c7	0.27495405
237	0xbd20c3d3	-0.039249253
238	0x3e05e99d	0.13077398
239	0xbc6c5a37	-0.014425806
240	0xbe45f92f	-0.19333337
241	0x3a3ea93a	0.00072731415
242	0x3a3f1541	0.0007289239
243	0x3c8eb2c4	0.017419226
244	0xbe475d01	-0.19469072
245	0xbdfcf88f	-0.12352096
246	0xbe400606	-0.18752298
247	0xbe48a6f9	-0.19594945
248	0xbe3e2d55	-0.1857198
249	0x3de6f1b6	0.112765715
250	0x3dbcbcc7	0.09215694
251	0xbe1a37bb	-0.15060322
252	0xbe1e746e	-0.15474102
253	0xbda197f2	-0.078903094
254	0x3e856866	0.26056212
255	0x3e351b6e	0.17686245

decoder.layers.0.bias f4 [32]
0	0xbdc0fbb4	-0.094230086
1	0x3e904ec4	0.28185093
2	0xbe216313	-0.1576045
3	0x3e8d9572	0.2765308
4	0x3ea8e51d	0.329873
5	0x3dd5d23c	0.1044049
6	0xbd987f35	-0.07446138
7	0xbe215ef5	-0.1575888
8	0xbe4be700	-0.19912338
9	0x3c712dcb	0.014720391
10	0xbc5e151f	-0.01355484
11	0x3e42e5f8	0.19033039
12	0x3e209791	0.15682818
13	0xbe2399c0	-0.1597662
14	0xbe125059	-0.14288463
15	0xbc92fa63	-0.01794166
16	0x3e435585	0.19075592
17	0x3e90a08a	0.28247482
18	0x3e104eaa	0.14092508
19	0x3eec27b6	0.46124047
20	0x3d71c232	0.05902309
21	0x3e26776e	0.16256496
22	0x3d4c10ad	0.04982059
23	0xbe1fb942	-0.15598014
24	0x3e86b454	0.26309454
25	0x3d09fc77	0.033688035
26	0x3e210c86	0.15727434
27	0xbe2f166b	-0.17098396
28	0x3e8f834f	0.28029868
29	0xbd263c49	-0.040584836
30	0x3e164eaf	0.14678453
31	0xbdbd3e9d	-0.09240458

decoder.layers.2.weight f4 [32, 32]
0	0xbd6323c6	-0.055454038
1	0x3ddecb62	0.10878636
2	0xbd651c98	-0.055935472
3	0x3cd27b23	0.025693482
4	0xbe408f90	-0.18804765
5	0xbde30895	-0.11085621
6	0xbdb818cc	-0.08989105
7	0x3be77e31	0.0070646037
8	0xbdd3c031	-0.10339392
9	0xbdb85190	-0.08999932
10	0x3be9c040	0.0071335137
11	0x3d196947	0.037453916
12	0xbcb836d0	-0.022487074
13	0xbde7b677	-0.11314099
14	0xbdc28ebc	-0.09499881
15	0x3dded015	0.10879532
16	0x3c3c59d4	0.011496026
17	0x3d6d2d39	0.057904456
18	0x3dd960cf	0.10614168
19	0x3dc65a76	0.09685223
20	0x3ceb46e4	0.028720327
21	0xbd5f09d6	-0.05445274
22	0x3d9ea8d7	0.077470474
23	0x3df23bc4	0.11827806
24	0x3e6f1e7c	0.23351473
25	0xbe1e46d5	-0.15456708
26	0xbd3c78c5	-0.046013612
27	0x3e2186d6	0.15774092
28	0xbcae60cc	-0.02128639
29	0xbe3776ea	-0.17916456
30	0xbe049767	-0.1294838
31	0x3de3b27e	0.11118029
32	0x3db4bffc	0.088256806
33	0x3d5a8b8a	0.05335573
34	0x3d221851	0.03957397
35	0xbc190422	-0.009339364
36	0xbd1fea80	-0.039041996
37	0xbe30e0de	-0.1727328
38	0xbe15edb6	-0.14641461
39	0x3e374c7d	0.17900272
40	0x3e1163c2	0.14198211
41	0xbe2a8d46	-0.16655454
42	0x3e746ea4	0.23870331
43	0x3d0641f1	0.03277773
44	0x3d9dab4b	0.07698687
45	0x3e3e2b15	0.18571122
46	0xbccb8cfb	-0.024847498
47	0x3e4c780a	0.19967666
48	0xbdd4ab0e	-0.103841886
49	0x3a3c7e98	0.0007190495
50	0x3e0b89da	0.13626805
51	0xbb3928aa	-0.0028252997
52	0x3e0862f9	0.13319005
53	0xbd2d30ee	-0.04228299
54	0x3df378f5	0.11888305
55	0xbd8cefee	-0.068817005
56	0xbdcf7128	-0.10129005
57	0xbdffa51f	-0.12482666
58	0x3e71c943	0.23611932
59	0x3d8704af	0.0659269
60	0x3d41f9ca	0.047357358
61	0x3e44bf48	0.19213593
62	0xbd759034	-0.059951976
63	0xbd5aec38	-0.053447932
64	0xbdbeeffd	-0.09323118
65	0x3ce67cc7	0.02813567
66	0xbdde96ae	-0.108685836
67	0xbd9e2ad1	-0.0772301
68	0xbde6a4d4	-0.11261907
69	0xbd8b50b7	-0.068025045
70	0x3d089852	0.03334839
71	0x3e39d0c0	0.18146038
72	0x3d166ef1	0.036726896
73	0xbd501ae2	-0.050806887
74	0x3e45460a	0.19264999
75	0xbe19348f	-0.14961456
76	0xbcefa35c	-0.0292527
77	0x3e3c7ea7	0.18407689
78	0x3a816b84	0.0009873961
79	0x3dfc7e4d	0.123287775
80	0xbcb3a49d	-0.02192908
81	0xbda37e0a	-0.079830244
82	0xbc03ab84	-0.008036498
83	0xbe65702f	-0.22406076
84	0xbbc0717e	-0.0058729043
85	0xbd8dc7f7	-0.06922906
86	0x3e829a31	0.25508264
87	0x3e457629	0.19283356
88	0x3e702d17	0.234547
89	0x3c7999fa	0.015234465
90	0x3e26764d	0.16256066
91	0x3e3541e3	0.17700915
92	0x3e291def	0.16515325
93	0xbc93089c	-0.017948441
94	0xbcf1aab7	-0.029500348
95	0xbc2b7a7f	-0.010466217
96	0xbdf8dd35	-0.12151567
97	0x3b45aa2d	0.0030161247
98	0x3e23f3b2	0.16010931
99	0x3e5f00cb	0.21777646
100	0x3c76ab45	0.015055482
101	0x3e3b1cc1	0.18272687
102	0x3c09cbb5	0.008410384
103	0x3c517aa6	0.012785589
104	0x3cd40369	0.025880532
105	0xbe025c16	-0.1273044
106	0x3e07d491	0.13264681
107	0xbda4295b	-0.080157004
108	0x3cb59e42	0.02217019
109	0x3e502e03	0.20330052
110	0x3ddf0c2f	0.10890996
111	0x3d6e9c27	0.058254387
112	0x3e3380a8	0.17529547
113	0x3d6623d0	0.056186497
114	0x3dfadf0a	0.122495726
115	0xbdaafbcf	-0.0834881
116	0xbdb59330	-0.088659644
117	0xbd0b215e	-0.03396737
118	0x3d852de4	0.065028936
119	0x3e2d19ce	0.16904375
120	0xbc9e7158	-0.019341156
121	0xbd15dfd2	-0.036590405
122	0x3d213f59	0.039367054
123	0xbdafeb43	-0.085897945
124	0xbdcf891d	-0.10133574
125	0xbe5850a3	-0.2112451
126	0x3da18a18	0.078876674
127	0x3ceba33d	0.028764362
128	0xbdf3805d	-0.11889718
129	0xbcfc1e53	-0.030776178
130	0xbd18065c	-0.03711544
131	0x3b9a02ee	0.0047000563
132	0x3d8a601e	0.06756614
133	0xbd84fa31	-0.06493033
134	0xbc4c3966	-0.012464857
135	0xbd5bebb3	-0.053691577
136	0xbd0d6bfe	-0.034526818
137	0x3c1a0daa	0.009402672
138	0xbb6ef4c8	-0.003646182
139	0x3e0a452f	0.13502954
140	0xbd435add	-0.047694076
141	0xbd47dbde	-0.048793666
142	0xbd0fe8a3	-0.03513397
143	0xbd4147db	-0.047187667
144	0xbce1e82d	-0.02757653
145	0x3dd643e0	0.10462165
146	0xbc610559	-0.013734185
147	0xbd8a4fca	-0.067535
148	0xbd697357	-0.056994762
149	0x3db4ce86	0.08828454
150	0xbcea5bd2	-0.028608236
151	0xbcd7daf0	-0.026349515
152	0x3d9a4fb8	0.075347364
153	0xbcab19f8	-0.020886406
154	0xbc4320dc	-0.01190969
155	0xbd38789f	-0.04503691
156	0xbc5fd130	-0.013660714
157	0x3c24acb6	0.010050943
158	0x3e2a403d	0.16626067
159	0x3d885449	0.06656701
160	0xbdf88883	-0.121354125
161	0x3d922b0d	0.071371175
162	0xbd7d1f15	-0.06179722
163	0x3dc9db36	0.09856264
164	0x3d0e21c0	0.034700155
165	0xbdc9629c	-0.09833261
166	0x3d71cded	0.059034277
167	0x3d14ad18	0.036297888
168	0xbdde3b71	-0.10851181
169	0x3e0ac611	0.13552119
170	0xbe4bc5c9	-0.19899668
171	0x3d87ef14	0.066373974
172	0x3e0e2056	0.13879523
173	0x3ddd048f	0.10791885
174	0xbd51a4d5	-0.051182587
175	0x3d22ca0e	0.039743476
176	0xbccb6be2	-0.024831716
177	0x3dedcd92	0.11611475
178	0x3e70ef1b	0.23528711
179	0x3ea9e016	0.33178777
180	0xbcabb3cc	-0.020959757
181	0xbd5687c6	-0.052375577
182	0xbe64db1c	-0.22349209
183	0xbe124104	-0.14282614
184	0x3e07b7e7	0.13253747
185	0xbc1def1b	-0.009639527
186	0x3d2e18a8	0.042503983
187	0x3dd5ffe6	0.104491994
188	0x3e6566b8	0.22402465
189	0x3bd604a6	0.006531316
190	0x3d366e81	0.04453898
191	0x3de1ab0e	0.11018954
192	0x3e1a2f00	0.15056992
193	0xbd1669e7	-0.03672209
194	0x3b4bbb4c	0.003108698
195	0x3da34cfd	0.07973669
196	0x3db0f343	0.086401485
197	0xbdbd0b0d	-0.092306234
198	0xbdf2c5bb	-0.1185412
199	0x3d9a1caa	0.075249985
200	0xbe1cd24c	-0.15314597
201	0xbd42dbd6	-0.047572933
202	0x3cfa41e7	0.030549003
203	0xbd8f93a2	-0.070105806
204	0xbd24d56d	-0.0402426
205	0x3d660612	0.056158133
206	0x3dc1398c	0.09434804
207	0x3df79fa4	0.12090996
208	0xbde3005a	-0.110840514
209	0x3c76c672	0.0150619615
210	0xbd35fdd8	-0.044431537
211	0x3d5825b3	0.052770328
212	0xbc270106	-0.010193115
213	0xbe13ab16	-0.14420733
214	0xbcc8d4d1	-0.024515541
215	0xbd9a28e3	-0.0752733
216	0xbdb328fe	-0.08748053
217	0x3d6ea1ec	0.05825989
218	0xbd80c22b	-0.062870346
219	0xbda31d67	-0.079645924
220	0x3d05ed58	0.03269705
221	0xbd0735ec	-0.03301041
222	0xbda28ffe	-0.079376206
223	0xbdbfbfbc	-0.09362742
224	0x3e126f52	0.14300278
225	0x3d4ea9b8	0.050454825
226	0xbd4ef549	-0.05052689
227	0xbd35f97c	-0.04442738
228	0x3e942d64	0.2894088
229	0x3dbb80e6	0.09155445
230	0xbd2b9815	-0.041893084
231	0xbd3a2349	-0.045443807
232	0x3d7410bb	0.059586268
233	0x3e3e8eeb	0.18609206
234	0x3ca8ca92	0.020604406
235	0x3e7749ae	0.241492
236	0x3daa669b	0.08320352
237	0xbcd0e6af	-0.025500624
238	0xbe057f1a	-0.13036767
239	0xbe19e1d2	-0.1502755
240	0x3c54fc6a	0.012999633
241	0x3e3aa70e	0.18227789
242	0x3e5f013d	0.21777816
243	0x3ec14318	0.377465
244	0x3ddaa393	0.106757306
245	0xbd50566f	-0.05086368
246	0xbcfceff6	-0.030876141
247	0xbe0115cc	-0.12605971
248	0x3ddd3e96	0.10802953
249	0x3cf1d009	0.029518144
250	0x3d3eaa4b	0.046549123
251	0x3c37ad2e	0.011210723
252	0x3d8c2a4d	0.06844006
253	0xbe02acd5	-0.12761243
254	0x3e4b599c	0.19858402
255	0x3e1bb3c2	0.15205291

decoder.layers.2.bias f4 [32]
0	0x3e4106d5	0.18850262
1	0xbc3342cd	-0.0109412195
2	0xbddce25b	-0.107853614
3	0xbe27c550	-0.16383862
4	0xbcde5270	-0.027138919
5	0x3dda7dc8	0.10668522
6	0xbdc88064	-0.097901136
7	0x3e5472f2	0.20746973
8	0xbe186d20	-0.14885378
9	0x3c82fa1b	0.0159884
10	0xbe3b9d43	-0.1832171
11	0x3e63cf22	0.22246984
12	0x3db66b87	0.08907228
13	0xbe13d295	-0.144358
14	0x3e1b252b	0.15150897
15	0xbd91ae79	-0.07113356
16	0x3d067d81	0.032834534
17	0x3e8324b2	0.25613934
18	0xbd32084a	-0.043464936
19	0x3de6eebe	0.11276005
20	0x3da9d214	0.08292022
21	0x3dea8739	0.11451573
22	0xbd870355	-0.065924324
23	0x3e960be8	0.2930596
24	0xbae669bc	-0.0017579119
25	0xbd6b26df	-0.057410117
26	0x3e8c7d3a	0.2743929
27	0x3e6e5f1e	0.23278472
28	0x3e0f4489	0.13990988
29	0x3d74123b	0.0595877
30	0x3d5c4ec0	0.05378604
31	0x3b934192	0.0044939006

decoder.layers.4.weight f4 [24, 32]
0	0xbc940e82	-0.018073324
1	0x3b8d9cdc	0.0043216776
2	0x3c72c828	0.014818229
3	0x3e319e6a	0.17345586
4	0x3b77729a	0.0037757517
5	0x3dbf908f	0.09353744
6	0xbd3a8b55	-0.045543034
7	0xbd614e99	-0.055006597
8	0x3e2b14a5	0.16707094
9	0x3d26a6cd	0.040686417
10	0xbde5820c	-0.11206445
11	0x3d0815b1	0.03322381
12	0x3c876873	0.016529297
13	0xbd12cd12	-0.0358401
14	0xbda202a6	-0.079106614
15	0xbdc1c21e	-0.09460853
16	0xbcfca648	-0.030841008
17	0x3dba799f	0.09105229
18	0xbd3b883c	-0.04578422
19	0xbdeefe04	-0.116695434
20	0x3e1e0a1b	0.15433542
21	0x3c888a6a	0.016667563
22	0xbc9a8340	-0.018861413
23	0xbda61d3e	-0.08111046
24	0xbbd06fd9	-0.0063609895
25	0x3cb40d85	0.021979103
26	0x3be5b390	0.007009931
27	0x3d8509d6	0.06496017
28	0x3d7004f4	0.058598474
29	0xbdc095a6	-0.09403543
30	0xbd569c53	-0.052395176
31	0x3d577c31	0.052608673
32	0xbda57686	-0.08079247
33	0xbd5b2a1d	-0.05350696
34	0xbdab716e	-0.08371244
35	0xbe098462	-0.13429406
36	0x3d0df28c	0.03465514
37	0x3d11c97c	0.03559254
38	0xbc28c473	-0.010300743
39	0x3dacb788	0.08433443
40	0x3d09a600	0.033605576
41	0x3d6382c6	0.055544637
42	0x3e0c3805	0.13693245
43	0xbca5c251	-0.020234259
44	0x3c208fbf	0.009799897
45	0x3d914cd2	0.070947304
46	0x3e2221dd	0.1583323
47	0xbdeb1103	-0.11477854
48	0xbd5746a1	-0.05255759
49	0xbd794869	-0.06086007
50	0x3df8178a	0.12113865
51	0xbd38823a	-0.04504607
52	0xbc94cf38	-0.018165216
53	0xbc85f9b3	-0.016354417
54	0xbd9de60a	-0.07709892
55	0xbc1ae5db	-0.009454216
56	0xbd4d6bd6	-0.05015167
57	0x3dd80c88	0.10549265
58	0x3d9feb54	0.07808557
59	0xbdfb1c3a	-0.12261243
60	0x3c4f84af	0.012665912
61	0x3d2407ee	0.040046625
62	0xbd39dbd8	-0.045375675
63	0x3bfe634b	0.0077633015
64	0x3da4ecd7	0.08052986
65	0xbd8e91ed	-0.06961427
66	0xbd20b7c1	-0.03923774
67	0x3b854e88	0.0040681995
68	0x3d0aa6fd	0.03385066
69	0xbdc2b94d	-0.095079996
70	0xbba9f0cc	-0.005186176
71	0xbdd8e92a	-0.105913475
72	0x3d80c2a0	0.06287122
73	0x3e0633c0	0.13105679
74	0xbcb8d11e	-0.022560652
75	0xbd9fc087	-0.078003936
76	0x3d7acbc5	0.061229486
77	0xbde204b3	-0.110360526
78	0x3d4b002a	0.049560703
79	0xbc6c23c9	-0.014412829
80	0x3e123926	0.14279613
81	0xbbfb1a66	-0.007663059
82	0xbdf81477	-0.12113278
83	0x3e028181	0.12744714
84	0x3cf41833	0.029796695
85	0xbd5589ad	-0.05213325
86	0xbddc382d	-0.10752902
87	0x3db14728	0.0865615
88	0x3d1ef4a9	0.038807545
89	0xbd3cd44f	-0.04610091
90	0x3e210611	0.1572497
91	0xbd4bdf12	-0.049773283
92	0x3d54af51	0.051925007
93	0xbe1ca834	-0.1529854
94	0x3d2aef99	0.041732404
95	0xbd63581d	-0.055503953
96	0x3d1ca630	0.038244426
97	0xbdcfe0d9	-0.10150308
98	0xbcf61c9f	-0.030042944
99	0x3a31ba22	0.000677975
100	0x3d599f47	0.053130414
101	0x3e37afe3	0.17938189
102	0x3d837ccb	0.06420287
103	0xbc8cff6f	-0.017211644
104	0x3d0d6306	0.034518264
105	0xbd532d1f	-0.051556703
106	0xbd4e9945	-0.050439138
107	0xbca87bee	-0.020566907
108	0x3aef26a4	0.0018245769
109	0x3ce4fc51	0.027952345
110	0x3e0b1d12	0.13585308
111	0x3c6491b1	0.013950751
112	0x3d845d40	0.064630985
113	0xbc420d36	-0.01184397
114	0x3d3e584e	0.046470933
115	0xbd7d4c3d	-0.061840285
116	0x3cd749f0	0.026280373
117	0xbd90df76	-0.07073872
118	0xbbff6004	-0.0077934284
119	0xbd9b054f	-0.07569372
120	0x3d7c783f	0.061638113
121	0xbdb0de52	-0.08636154
122	0x3e197fb9	0.14990129
123	0xbd97d62b	-0.07413896
124	0xbde78347	-0.11304336
125	0x3e1b4d3a	0.15166178
126	0x3d02058d	0.031743575
127	0x3cbf3206	0.023339283
128	0xbde169ef	-0.11006533
129	0xbdb54f6d	-0.0885304
130	0x3df34c8b	0.11879834
131	0x3dd22cba	0.10262437
132	0x3d847900	0.064683914
133	0x3df92027	0.12164336
134	0xbb17fe09	-0.0023192188
135	0x3d9016f3	0.07035627
136	0xbd18b243	-0.03727938
137	0xbcf1239b	-0.029435923
138	0x3dc27af0	0.09496105
139	0xbdb2d227	-0.0873149
140	0xbc587863	-0.013212296
141	0x3d57dfa5	0.05270352
142	0xbdedc743	-0.11610272
143	0x3debf5c5	0.11521486
144	0xbda6bfb8	-0.08142036
145	0xbda79c8c	-0.08184156
146	0x3df0fa7c	0.11766526
147	0x3b3d74b5	0.0028908674
148	0x3c74ee59	0.014949405
149	0xbd56a811	-0.052406374
150	0xbceb7fdf	-0.028747497
151	0xbd2fa14e	-0.04287844
152	0xbd1112cd	-0.03541832
153	0xbd376405	-0.04477312
154	0xbd525961	-0.05135477
155	0x3dfd0b3b	0.12355658
156	0xbdc30f92	-0.09524454
157	0x3dbbee2f	0.09176289
158	0x3d4ee34e	0.050509743
159	0xbba0c54b	-0.0049063317
160	0x3e277a64	0.16355282
161	0xbce52a3b	-0.027974239
162	0x3d70288b	0.058632415
163	0xbdd2fef2	-0.10302533
164	0x3c92b996	0.01791076
165	0xbd87eeac	-0.0663732
166	0xbc9e17c0	-0.019298434
167	0x3dbb1220	0.091343164
168	0x3db68ecd	0.08913956
169	0xbb6d8970	-0.003624525
170	0xbd4e469b	-0.050360303
171	0x3e15ca3a	0.14627925
172	0xbd30a0e5	-0.04312219
173	0x3ce7f2b5	0.028313974
174	0x3e35b48a	0.17744651
175	0x3df3369b	0.118756495
176	0xbdc80c8b	-0.097680174
177	0x3e08b5e5	0.13350637
178	0xbd9f21ad	-0.07770095
179	0x3dfb7c84	0.12279609
180	0xbd6fc030	-0.058532894
181	0xbda985f1	-0.082775004
182	0x3b24e7c6	0.0025162562
183	0xbdcf7f1b	-0.10131665
184	0x3ba0cad1	0.00490699
185	0xbd3dcd71	-0.046338502
186	0xbd99ee0a	-0.075161055
187	0xbd0d8527	-0.034550812
188	0x3df806a9	0.12110645
189	0xbe17eada	-0.14835683
190	0xbd909d8e	-0.07061301
191	0x3cb864b0	0.022508949
192	0xbdf46052	-0.11932434
193	0xbd999b2b	-0.07500299
194	0xbcbd458f	-0.023104457
195	0x3da54fb6	0.08071844
196	0x3d031589	0.03200296
197	0x3ddffb50	0.10936606
198	0x3c6538be	0.013990579
199	0x3b8e3f88	0.0043410696
200	0xbc919247	-0.017769946
201	0xbd5b26ef	-0.053503927
202	0xbd3db09f	-0.046311017
203	0xbdadd374	-0.08487597
204	0xbb25a8d8	-0.002527764
205	0xbd793b74	-0.060847715
206	0xbe40ec30	-0.18840098
207	0x3d9104db	0.07081004
208	0x3e057c2c	0.13035649
209	0x3e401571	0.18758179
210	0x3e03ec5e	0.12883136
211	0xbda3ae90	-0.079922795
212	0x3df2eee5	0.11861972
213	0x3ca74a4a	0.020421166
214	0xbd66f5dc	-0.056386814
215	0xbd82bde2	-0.063838735
216	0x3d4afebf	0.04955935
217	0x3c0c6723	0.008569512
218	0xbcb3b3a2	-0.021936242
219	0xbdb60240	-0.08887148
220	0xbd48075f	-0.048835155
221	0x3dba051d	0.090830065
222	0xbd49e7c4	-0.049293295
223	0xbc3d9898	-0.011572026
224	0xbcfb142a	-0.030649263
225	0xbe23d99f	-0.16000985
226	0x3c032914	0.008005399
227	0x3e4682b1	0.19385792
228	0xbcaff6e7	-0.021480037
229	0x3d5f65c3	0.054540407
230	0xbd65f6ba	-0.0561435
231	0x3e0e87fc	0.13919061
232	0xbd1d9dab	-0.038480442
233	0x3db277cc	0.08714256
234	0x3e08639e	0.13319251
235	0xbe06a622	-0.13149312
236	0xbba1a9c0	-0.004933566
237	0xbc9e68cc	-0.01933708
238	0x3d9346c8	0.07191235
239	0x3d525adf	0.051356193
240	0xbdca384a	-0.098740175
241	0xbde2df12	-0.110777035
242	0xbdae6779	-0.085158296
243	0xbdef3a53	-0.11681046
244	0x3d5005de	0.050786845
245	0x3cbb0ed2	0.022834215
246	0xbc418a9b	-0.011812831
247	0x3dd3abc3	0.10335495
248	0x38e45d38	0.000108892506
249	0xbdc96346	-0.09833388
250	0xbd8fd076	-0.07022183
251	0x3cc973dc	0.024591379
252	0x3c9f1f2a	0.01942404
253	0x3da3e2cb	0.08002242
254	0x3d8fdf2d	0.07024989
255	0xbd95df53	-0.07317986

decoder.layers.4.bias f4 [24]
0	0x3d620ebd	0.055189837
1	0x3db61f8e	0.08892737
2	0x3d19341e	0.03740322
3	0xbd898f4b	-0.06716784
4	0x3c1c10ae	0.009525461
5	0xbdeb648f	-0.114937894
6	0x3c96aafb	0.018392077
7	0xbcea8076	-0.028625708
8	0x3db7ac1e	0.089683756
9	0x3d97fba7	0.07421046
10	0x3d23511f	0.039872285
11	0xbce0982a	-0.027416307
12	0x3d795f75	0.06088205
13	0x3d937c64	0.0720146
14	0xbdd228c0	-0.10261679
15	0xba872cf6	-0.0010313082
16	0x3dc3bab8	0.09557098
17	0x3d6b3c0b	0.05743031
18	0xbe019c3f	-0.1265726
19	0x3d08a216	0.033357702
20	0x3d83d93f	0.06437921
21	0xbe817a84	-0.25288785
22	0x3c3c19c3	0.011480751
23	0xbe2fb777	-0.1715983
