m4_ws/src/morphing_lander/learned_models/2024-05-20_18-08-49/model_70.pth (torch, 33710 bytes, 22 tensors)

cond_normalizer.mean f4 [11]
000000 70 50 bb be 44 50 20 bd 8c 7f 37 ba 74 3a d5 3a
       -0.36584806 -0.039139047 -0.0006999902 0.0016268031
000010 f1 65 41 3d 78 5c af 3c 38 cf d3 ba e0 a1 01 3f
       0.04721636 0.021406397 -0.0016159778 0.50637627
000020 06 09 05 3f fa 25 02 3f 69 69 04 3f
       0.51966894 0.508392 0.51723343

cond_normalizer.variance f4 [11]
000000 83 b3 ce 3d fe 7f a3 3b 16 47 e3 39 7c f9 af 39
       0.10092833 0.004989623 0.00043349777 0.0003356448
000010 14 ea 7f 3c 65 2c bc 3c d6 cc db 3d 8c 87 a8 3c
       0.015619773 0.022970388 0.10732429 0.020572446
000020 fa 6b ad 3c 91 f4 a3 3c 2a 6c b2 3c
       0.021169651 0.02001408 0.021780092

output_normalizer.mean f4 [12]
000000 04 57 c2 bb 2f c9 41 bb d3 97 88 3c f2 1c d2 38
       -0.005930783 -0.0029569378 0.016673958 0.00010018972
000010 61 9d 3c 3b a0 a4 ba 3a 48 aa c3 3b db a0 b1 3b
       0.0028780329 0.0014239736 0.005971227 0.005420787
000020 91 86 4a 40 91 30 58 3e 53 06 0a 3f ed cd 83 ba
       3.1644633 0.21112277 0.539159 -0.0010055878

output_normalizer.variance f4 [12]
000000 80 2e a2 3d 4c 08 55 3d d3 2d 54 3d cc 6c c7 38
       0.079190254 0.052009866 0.051801514 9.5093244e-05
000010 c8 14 99 3b 48 dc ac 3b 62 89 bd 3d a7 17 d2 3e
       0.004671667 0.005275283 0.09254719 0.4103367
000020 81 98 66 42 ec 2e b4 41 a3 e7 62 40 56 1c 5e 3e
       57.64893 22.522911 3.545388 0.21690497

encoder.layers.0.weight f4 [32, 23]
000000 fa 5b f9 b9 ba d2 c5 3a dc 3c 0b 3d 6a cf 0e bd
       -0.0004756151 0.0015092709 0.033993587 -0.034865774
000010 0a 80 90 3d fa 15 89 3e 4a 65 fa bd 9d 89 07 be
       0.070556715 0.2677458 -0.122263506 -0.13236089
000020 f9 10 f0 bc 98 f0 bd 3d c0 7b 1a be 17 3a eb 3c
       -0.029304968 0.09274405 -0.1508627 0.028714223
000030 5c c6 ee 3b 7d 03 23 3d 07 9b 33 3e 18 09 85 3e
       0.00728683 0.03979825 0.17539607 0.259835
000040 88 a0 d6 3b 01 18 7f 3c a4 c5 5e bc ff 75 4f bd
       0.0065498985 0.015569688 -0.013596926 -0.05064964
000050 3e 0c d2 ba bf c2 5c 3d df 16 68 3c 96 b8 b6 bd
       -0.0016025377 0.05389666 0.014165609 -0.08921926
000060 7e ef 63 3b 83 b0 a6 bd 93 1d f4 bd 69 71 f7 3d
       0.00347802 -0.08139136 -0.11919703 0.12082178
000070 87 ec 4a be d2 27 18 3e 6d 0e 8a 3e d2 b2 0f 3e
       -0.1981679 0.1485894 0.2696413 0.14033058
000080 92 ab 13 be de 53 1a be e1 21 13 3e de 7f 03 3d
       -0.14420918 -0.15071055 0.14368393 0.032104366
000090 af 00 a7 bd fd c0 1b bb 9a 37 27 3c d9 57 f5 bc
       -0.08154427 -0.0023766153 0.010206128 -0.029949116
0000a0 ea 12 10 bb 8c 77 5f 3d c1 f3 ba 3d c6 de d5 bd
       -0.002198393 0.05455737 0.091285236 -0.10442881
0000b0 71 e8 ef bd 00 06 cc 3c bf 8c 08 3e f5 7c 3d 3c
       -0.117142566 0.024905205 0.1333494 0.011565437
0000c0 5f cb b4 bc f6 8d 01 3e 46 2f 97 be 13 c3 8f 3d
       -0.022069631 0.1265181 -0.29528254 0.07019629
0000d0 90 e1 0e 3e da 53 95 3d 93 23 43 3c cb 9f 1a bd
       0.13953233 0.07291384 0.011910337 -0.037750047
0000e0 28 7e b4 bc db 9a 24 3e e2 32 91 3a d9 7b 1c 3d
       -0.022032812 0.16074698 0.0011077786 0.038204048
0000f0 77 6d 26 3d ea 70 12 3e db 32 9b bd 7b 05 d4 3d
       0.040631738 0.14300886 -0.07578059 0.10352608
000100 26 fb 3d 3c e6 12 7b 3d 34 60 bf bc 95 b7 96 bd
       0.011595523 0.06129732 -0.023361303 -0.07359234
000110 58 3c 01 3d 82 bb 2a bc 3b 2e 58 3d 09 90 1b bc
       0.03155169 -0.010420682 0.052778464 -0.00949479
000120 bd 82 28 be b0 12 25 3e 09 95 c0 be 0d 1b 4b 3e
       -0.16456123 0.1612041 -0.37613705 0.19834538
000130 a7 e3 7a be 0e ab 1c 3d e7 ef 1f 3d e5 8e 09 3e
       -0.24500905 0.038249068 0.039047148 0.13433416
000140 32 83 27 3e 6b 44 a4 3b f6 33 a4 3c c0 cf 04 3d
       0.16358641 0.005013039 0.020044308 0.03242469
000150 9a bc a3 bd 38 7c ac 3b d1 f6 8e 3c 3a ab ef bb
       -0.07994957 0.0052638315 0.017451676 -0.007314113
000160 72 1f c3 3d cd d7 d6 3d 5b e9 a9 bd 81 e6 04 be
       0.09527482 0.104903795 -0.08296462 -0.12978555
000170 2c f8 5b 3b e9 0f c8 ba db b3 25 3e 59 f9 b2 bd
       0.003356467 -0.0015263531 0.1618189 -0.087389655
000180 bc 73 59 bd aa e3 83 3d 4b 2b 91 3d 4d 94 6d 3d
       -0.05308889 0.06439908 0.070883356 0.05800276
000190 34 f5 63 bc d3 60 75 be 57 07 48 be b0 08 8c 3d
       -0.013913441 -0.23962717 -0.1953405 0.068375945
0001a0 a8 e9 63 bd 6e 90 93 3d 45 58 ab bc ab 9c 35 be
       -0.055642754 0.07205282 -0.020916114 -0.17735545
0001b0 b7 a0 2c 3c 7c 28 1e 3d fd 7b 9f bc 69 52 36 3e
       0.010536364 0.038612828 -0.019468302 0.17804874
0001c0 6c 27 b3 bd 04 25 b8 bd 8b 59 ee bc 3e 25 64 bb
       -0.087477535 -0.08991435 -0.029095432 -0.0034812237
0001d0 ea 50 ab 3d a1 39 f0 3c 9b 47 a9 3c 01 6d 99 3d
       0.083650425 0.029324355 0.020664027 0.07491494
0001e0 41 65 01 be e0 8a 4e 3e 8d f7 27 3e 0f 8d 94 3d
       -0.12636282 0.20170164 0.16403027 0.07253467
0001f0 79 02 21 3d 6b dc 09 3e 0c 1b 36 be 57 a5 a1 bd
       0.039309 0.13462989 -0.17783755 -0.07892864
000200 ba f8 38 bd fc ec 83 3e 04 a9 ba bb 6f d6 a4 bd
       -0.04515908 0.25766742 -0.0056964178 -0.080487125
000210 6d 07 eb 3d 34 26 00 bd 3c 78 11 3d 13 25 ee 3d
       0.11476026 -0.031286433 0.035515055 0.11628165
000220 45 12 8c bd 4b 62 c9 bd 8d 48 3a 3d 33 f3 9c ba
       -0.06839422 -0.09833201 0.045479346 -0.0011974334
000230 09 cc 0b bd d3 e1 8c 3e 32 4e 54 3e 33 8a 82 3e
       -0.03413013 0.2751604 0.20732954 0.25496063
000240 06 2d 54 be 7d ae 83 bd 40 0d 94 3c 26 da 39 3b
       -0.207203 -0.064297654 0.018072724 0.0028358786
000250 36 2e f5 3d 7f 6a 14 3d 6d 87 bc bc 10 45 a7 3c
       0.11971705 0.036234375 -0.023013795 0.020418674
000260 8a f4 c5 bb 08 91 0a 3e 36 89 ea bd 86 4c 21 bd
       -0.006041114 0.13531888 -0.11451952 -0.03937962
000270 41 73 78 bb ec ba 72 3d 2c 2d a2 bd a4 a7 03 bd
       -0.0037910494 0.059260294 -0.07918772 -0.032142296
000280 52 50 ff 3c 05 9e 52 bb c1 75 5f bc 67 63 08 bc
       0.03116623 -0.0032137644 -0.013638915 -0.008324481
000290 a7 93 a3 3d 62 43 25 bd 40 02 1e 3e fd 9e 94 3e
       0.07987147 -0.040347464 0.15430546 0.29027548
0002a0 ee ca 7e bd 5d aa c5 bc b1 2a 98 3d 02 c4 38 3e
       -0.062205248 -0.024129087 0.07430018 0.18043521
0002b0 52 a0 16 3e f8 83 bb 3c e4 57 5b bc 7d fa 97 3d
       0.14709595 0.022890076 -0.013387654 0.07420824
0002c0 00 03 9b bd ba 76 c8 bb 8e 47 3a 3b e1 1f 99 3c
       -0.075689316 -0.006117669 0.0028423998 0.018691959
0002d0 8b e6 36 3d ca 0d 05 3c 82 a2 05 3d 90 53 03 be
       0.044653457 0.008120963 0.032625683 -0.12824845
0002e0 48 a0 d8 bb ea ed b5 3c 4f 28 e2 3a 91 e4 b8 3d
       -0.006610904 0.022208173 0.0017254445 0.090279706
0002f0 d2 73 9d 3d 54 c9 64 be c0 4b 43 3e a2 29 ab be
       0.076881066 -0.22342426 0.19071865 -0.334302
000300 ad 1c 2c 3d 32 bf 1c 3d 48 6d 2a 3e 6e 10 82 be
       0.042019535 0.038268276 0.1664325 -0.2540316
000310 2a 7b 40 3c de 46 e4 3a a1 a2 6b be fe f4 87 3e
       0.011748115 0.001741614 -0.23011257 0.26554102
000320 13 f7 16 bb 9d 5c 95 bc 6c 80 27 3b c9 c3 85 bd
       -0.0023035451 -0.018232638 0.0025558723 -0.06531484
000330 fe 5a 11 3d ef 6c 2d 3d bd b7 2b bd 4e 34 d5 3b
       0.035487168 0.042340215 -0.041923273 0.0065064793
000340 49 97 04 be 53 cc ba 3d df e3 44 3c 8f ac 36 3d
       -0.12948336 0.09121003 0.012017219 0.04459816
000350 74 ab 9b bd 78 3f cf bd 66 c7 2f be 8d b0 05 3d
       -0.076010615 -0.101195276 -0.17165908 0.032639075
000360 e6 44 92 bd 28 7f 59 3d a6 8f 26 3b b8 42 ef bb
       -0.071420476 0.05309978 0.002541521 -0.0073016547
000370 0a 5a fd bc 9c c8 1e be 5e 55 9b 3d 6a d7 8d 3d
       -0.030926723 -0.15506214 0.07584642 0.069258526
000380 2b 9e 0c be c8 ff 91 3d 66 29 c0 bc 4f 69 ab 3d
       -0.13732211 0.071288645 -0.02345724 0.083696954
000390 c4 77 6d 3d ea a3 00 3e a8 b6 02 3c fd b5 94 3b
       0.057975546 0.12562528 0.007978119 0.0045382963
0003a0 ea 4b 40 bc db 3c 60 be ea b5 d8 3d 08 ce 8d 3e
       -0.011736849 -0.21898215 0.10581572 0.27696252
0003b0 07 f5 a5 bd c2 b3 be bd be 26 e3 bb bd 9b b8 3d
       -0.08103376 -0.0931163 -0.0069321087 0.0901408
0003c0 c2 51 3f bd bb 2e b7 bd f9 dc 7b ba 94 78 a3 3c
       -0.04670883 -0.0894446 -0.00096078176 0.019954957
0003d0 11 67 07 bd 0a d3 d8 3d 46 0f 33 bc 6a fd c2 bc
       -0.033057276 0.105871275 -0.010928934 -0.023802478
0003e0 5d 2d a1 ba f4 f4 74 bd ad 90 ca 3d 49 74 01 bd
       -0.0012296845 -0.059803918 0.09890876 -0.03160504
0003f0 b6 32 88 bb f4 32 42 bb 69 82 8f b9 d4 a0 20 be
       -0.004156436 -0.0029632421 -0.0002737225 -0.15686351

encoder.layers.0.bias f4 [32]
000000 6e 06 80 bc 74 c4 40 3c 4c 23 40 bd 44 ef 01 bd
       -0.015628066 0.011765588 -0.04690866 -0.031722322
000010 c5 94 7e 3b 64 c4 ca 3c 6f 92 b9 bc 1e d9 4f bd
       0.0038845998 0.02475185 -0.022652833 -0.05074417
000020 c8 f1 6e bb 4e e8 43 3b 1e 2d 02 bc 45 90 0f 3c
       -0.003646003 0.0029893103 -0.007945327 0.008762424
000030 a0 d5 ac 3d d7 1a 68 bd 62 9d 23 bd bd 2f 47 bc
       0.08439183 -0.05666622 -0.039945014 -0.012157378
000040 6f 9a ce bc ea a1 9b bc e9 4b c2 3e a8 45 b5 bc
       -0.025220124 -0.018998105 0.3794854 -0.022127941
000050 af 63 8e 3e 41 69 06 bd f7 d1 c2 3e a3 f4 81 bb
       0.27810428 -0.03281522 0.38050815 -0.0039659305
000060 e6 13 d1 bc 01 3e 96 bb 84 2a bd 3d 5e 8c 6d 3e
       -0.025522184 -0.004585028 0.09236625 0.23198077
000070 01 b3 00 bc 37 20 b5 3d 8a 90 fa bc 07 cb 63 bc
       -0.007855178 0.08844035 -0.0305865 -0.013903386

encoder.layers.2.weight f4 [32, 32]
000000 3b fc 9b 3d e2 3b 80 3d 58 b1 df 3d 35 c2 0b 3e
       0.076164685 0.06261422 0.109224975 0.13648303
000010 2a b2 3b 3e a7 96 df 3d 22 24 97 3d 4b b8 5e 3d
       0.18329683 0.109174065 0.07379939 0.054374974
000020 d5 ea 0b 3e f1 26 dd 3b a7 e4 77 3d 45 7e a6 3d
       0.136638 0.006749027 0.060520794 0.08129553
000030 4a ec 83 3c 70 2e 7d 3d a1 61 2e 3d eb a0 ef 3d
       0.016103882 0.061811864 0.042573575 0.117006145
000040 63 08 03 3e ea 92 f0 3d ea 1a 3c bd 41 37 99 3d
       0.12796168 0.11746772 -0.045924105 0.07481242
000050 5f cc 4c bd c2 07 f1 bc 1d 0d 32 3d 2d f5 1c 3d
       -0.04999959 -0.029422645 0.043469537 0.038319755
000060 6e e5 0b 3e 5e 97 fd 3d 5e e6 b3 3d 15 9a 01 3d
       0.13661739 0.123823866 0.087841734 0.031641085
000070 90 4d d3 3d 58 d6 5e 3b 0e 89 0b 3e 07 4f 9c 3d
       0.10317528 0.003400227 0.13626501 0.07632261
000080 b2 70 a7 3d 51 70 da 38 14 42 e4 bc 28 07 94 3e
       0.08175792 0.000104159706 -0.02786354 0.2891171
000090 11 db b2 3c f2 71 38 3e 04 3c a0 3d 0f 22 40 bd
       0.021832975 0.18012217 0.07823947 -0.04690748
0000a0 c5 b9 e8 3d 09 74 9d 3d 42 fb 17 3e d7 0b ff 3d
       0.11363558 0.076881476 0.14841941 0.1245343
0000b0 7c 80 3a 3e 01 e6 d7 3d 77 c5 47 3c 11 f3 58 3e
       0.18213075 0.10541917 0.012193075 0.21186472
0000c0 cf 14 38 3e c4 2f 7c bd 33 96 09 3e 97 0d 07 3e
       0.17976688 -0.06156899 0.13436203 0.13188778
0000d0 d5 27 03 3e 76 f8 3d 3e 70 79 f7 3d 00 76 48 3e
       0.12808163 0.18551812 0.12083709 0.19576263
0000e0 de 4e 19 3e 48 ab 43 3e c6 09 ba 3d 32 0f 09 3d
       0.14971492 0.19108307 0.090838954 0.033461757
0000f0 26 de 18 3e c8 a8 6f 3d f4 f2 ff 3d 94 db 31 bd
       0.14928493 0.05851057 0.124975115 -0.043422297
000100 9d 7d a0 3d 3e 27 1d bd c0 61 08 3e a8 a1 f8 3d
       0.07836459 -0.038367502 0.13318539 0.121402085
000110 c4 16 7f 3d 3e 1e a4 bd cf 2d 30 3e 7a 95 26 3b
       0.06227757 -0.08013581 0.17204975 0.0025418685
000120 b0 fe 17 bd b9 93 0e 3e f0 b0 50 3d d1 d6 62 3e
       -0.037108123 0.13923539 0.05094999 0.22152258
000130 a6 71 88 3d 02 43 e2 3d 1c a9 1f 3e 40 bd ed 3c
       0.06662302 0.11047937 0.15591854 0.029020905
000140 ec 72 3f 3e b2 78 f0 3d 2d ac 7f bc 82 a4 47 3e
       0.18696183 0.11741771 -0.015605015 0.19496349
000150 8c 2c 3c 3d 1b cf 33 3e 38 a8 48 3e 1b 9d 62 3e
       0.04594092 0.17559473 0.1959542 0.22130243
000160 0b c3 d4 3d 40 4a 4f 3e 93 bc 97 3d 92 d1 bd 3c
       0.10388764 0.20243168 0.074090146 0.02317122
000170 e9 5d 01 3e 80 91 59 3d 9c be 2d 3e 85 b7 28 3c
       0.1263348 0.053117275 0.16967243 0.010297661
000180 85 6f 14 3e 67 93 17 bd e9 06 be bb 92 14 60 3d
       0.14495666 -0.03700581 -0.0057991636 0.054707117
000190 f8 15 6e 3d eb cf 1c 3d c4 15 ae bb 1f cf 26 3e
       0.05812642 0.038284224 -0.0053126533 0.16289948
0001a0 3e df 4d 3e 70 b7 b5 3c cc 21 0c 3e 56 6d 6b 3e
       0.20104691 0.022182196 0.13684767 0.22990927
0001b0 f6 4f 10 3e 41 96 29 3e a6 27 6f 3d 93 52 8c 3c
       0.14093003 0.16561224 0.05838742 0.017129218
0001c0 cf 2a 18 3e 11 68 ca bc d1 24 04 3d 0e 5f d8 bc
       0.1486008 -0.024707826 0.032261673 -0.026412513
0001d0 d0 d6 83 3d 9b d3 9b 3d e8 d2 ac 3d 34 91 0a 3e
       0.064374566 0.0760872 0.08438665 0.13531953
0001e0 ae 1b 24 3e 16 a7 82 3d 78 50 d8 bb f5 eb 0c 3e
       0.16026184 0.06379525 -0.0066013895 0.13761885
0001f0 a3 15 86 3d e6 ad e5 3d 68 11 c4 3d ad 9b c9 3c
       0.065470956 0.11214809 0.095736325 0.024610365
000200 80 47 99 bd 13 3c 93 3d 85 41 9c bc 62 14 26 3e
       -0.07484341 0.071891926 -0.01907421 0.16218713
000210 d7 b8 ba bd bc 2f b0 bd 72 8d 8c 3d c4 51 aa 3c
       -0.09117287 -0.086028546 0.06862916 0.020790942
000220 f7 b9 2a 3e 4e 53 a7 3c 45 e4 15 3d d1 f9 e2 3d
       0.16672502 0.020425465 0.036594648 0.11082805
000230 ab ba 31 3e bf 8b ed 3d 98 20 d7 bd fc d1 d9 3d
       0.17356364 0.1159892 -0.10504264 0.106357545
000240 47 6d 9c 3d 14 02 ad bd 6f 31 40 bd 66 e6 87 3d
       0.076380305 -0.08447662 -0.046922144 0.06635742
000250 fa 3b b6 3d fc f7 0d 3e 7a f4 c5 bd f6 c9 74 3d
       0.08898158 0.1386413 -0.09665771 0.059762917
000260 a2 3d 3d 3d b4 44 17 3d 13 34 1e 3d c0 27 ed 3d
       0.046201356 0.036930755 0.03862388 0.11579847
000270 ab a7 76 3d 5b 03 25 3e c7 e9 89 bd 54 cc 01 3e
       0.060218494 0.16114561 -0.067340426 0.12675601
000280 66 4b 88 bc 47 e8 43 3e 19 6e ad b8 55 a2 e1 bc
       -0.016637515 0.19131576 -8.26979e-05 -0.027543226
000290 c5 4e 8c 3d ae 1c e1 bd 6d 59 b9 3d ae 6d c7 3d
       0.068509616 -0.10991798 0.0905026 0.097377166
0002a0 d8 c6 a5 bc 92 b2 a0 3d 17 d2 93 3d 08 cb f9 bc
       -0.020236418 0.078465596 0.07217806 -0.03049232
0002b0 40 fa ba bc 64 82 72 3d ca 2e 1a 3d 6f 0d a1 bd
       -0.022824407 0.05920638 0.037642278 -0.078638904
0002c0 4b a5 53 3d ad 57 63 bd 83 7c 98 3b 3e d5 f1 bc
       0.051671308 -0.055503536 0.004653515 -0.029520627
0002d0 8c 52 9c bd b1 a8 75 bd f5 60 fb 3c b8 1b 34 3d
       -0.07632932 -0.05997533 0.030685881 0.043971747
0002e0 43 6e d4 bc 0a 36 69 3d ad 81 78 3c 16 34 46 3d
       -0.025931483 0.0569363 0.015167636 0.048389517
0002f0 aa 66 82 bd 85 07 a3 bd 5b a4 f4 bb fa c1 0b bd
       -0.06367238 -0.079604186 -0.0074658818 -0.034120537
000300 e4 79 0a 3e 5f da f5 3c 4a c9 da 3d c2 53 a3 3e
       0.1352306 0.030011354 0.10682924 0.3189984
000310 90 34 90 3d e5 48 1d 3e ba 99 1c 3d 09 9d 75 3d
       0.070412755 0.15359838 0.038232543 0.059964214
000320 f6 5b 59 3e f9 82 95 bb 35 21 83 3d 88 48 28 3e
       0.21226487 -0.0045627323 0.06402818 0.16433918
000330 9b 18 01 3e 65 7d d9 bb 07 a5 8d bb 5e 20 4c 3d
       0.12607042 -0.0066372626 -0.0043226513 0.049835555
000340 35 a9 ab 3e c0 08 ac bd d6 94 e6 bc c9 3e 76 3e
       0.33527532 -0.084001064 -0.028147142 0.24047388
000350 97 79 f4 3d 8b 7b 82 3e d4 af 6d bd 2e b9 a8 bb
       0.11937254 0.2548488 -0.05802901 -0.0051490283
000360 11 f9 52 3e d9 10 5e 3e 92 a4 e2 3a 68 80 19 3e
       0.20602824 0.21686114 0.0017291477 0.1499039
000370 81 b9 c0 3d e8 ae 4d 3e 37 b8 85 bd 01 35 4c 3d
       0.09410382 0.20086253 -0.06529277 0.049855236
000380 4b ec 14 bd d2 b5 ea bc 45 f5 55 bc 91 07 7f 3d
       -0.03635816 -0.028651152 -0.013058965 0.062263075
000390 13 af 23 3e 75 cb 90 3c e1 9a d5 bd 9a 24 8b 3d
       0.15984754 0.01767514 -0.104299314 0.067940906
0003a0 30 c7 d8 bc 49 a4 ff bc c2 b8 e4 bb ff 36 f3 3a
       -0.026462168 -0.031206267 -0.0069800327 0.0018555819
0003b0 ea 9f 15 3e 37 da 59 3d 4f 8b a0 3d 41 8b 12 3e
       0.14611784 0.05318662 0.07839071 0.14310934
0003c0 d5 e0 35 3d 1a 53 f7 bd d3 be 43 bd 56 9b f8 3c
       0.04440387 -0.12076397 -0.047789406 0.030347507
0003d0 0d 5e 82 3d 56 44 ca 3d b6 8c 05 be 4d b3 88 bd
       0.06365595 0.09876315 -0.13041958 -0.06674824
0003e0 6d e3 43 bd 3c 2b 19 3e 17 ae bb 3d cc 35 a8 bd
       -0.047824312 0.14957899 0.091640644 -0.08213386
0003f0 f6 b9 13 3e f8 1c 5e 3d ff 3c 7f bb 29 57 c0 3d
       0.14426407 0.054226846 -0.0038946269 0.093916245

encoder.layers.2.bias f4 [32]
000000 33 84 9e be e2 05 da bd 82 d2 e6 bd 83 d5 8a bd
       -0.30960235 -0.10645653 -0.1127062 -0.067790054
000010 30 93 5e bd f9 8b cd bd 5c 8a a9 bd 78 bc 04 3d
       -0.054339588 -0.10036463 -0.08278343 0.0324063
000020 a1 5c 08 be 78 2c d0 bd 01 bb 44 3e 47 09 e2 3e
       -0.13316585 -0.10164732 0.19211961 0.44147703
000030 c0 8e b1 3d db e6 a2 bd 05 20 c0 3e 1b 77 d9 3e
       0.086698055 -0.079541884 0.3752443 0.42473683
000040 cd 86 5f bd a0 2c 83 3d d1 0a 21 3e 35 f1 13 3e
       -0.054571915 0.06404996 0.15726782 0.14447482
000050 fc 82 8d bd 01 9b 00 3d 59 ef d8 3c 53 13 50 3d
       -0.06909749 0.031397823 0.026481317 0.05079968
000060 3f 28 45 3b 32 34 b2 bc 2f c6 6f 3b a2 5c 70 bc
       0.0030083803 -0.021753404 0.0036586632 -0.014670523
000070 c6 a7 bd bd ce 01 f4 3c 8f 72 0c 3a d6 60 69 bd
       -0.09260516 0.029786017 0.0005357647 -0.056977116

encoder.layers.4.weight f4 [12, 32]
000000 1a 1a 0e 3e f4 aa 7b be ca ef 85 be 78 a4 db bc
       0.13877144 -0.24576932 -0.26159507 -0.026811823
000010 3a 92 52 be b6 b7 35 3c ae 1c aa be 5a a6 42 3c
       -0.20563594 0.011091163 -0.33225006 0.011880482
000020 12 52 d5 bc a0 ba 09 be 7d 68 7c 3b 5d a7 e9 3e
       -0.02604011 -0.13450098 0.0038514428 0.456355
000030 0a 3b 39 3d 09 14 50 be 71 0c c9 3e ed d9 05 3f
       0.04522232 -0.20320143 0.39267305 0.52285653
000040 04 62 f9 bd c8 d8 8a bc be 98 ae 3e dd 95 87 3d
       -0.12176898 -0.016949072 0.34100908 0.06620381
000050 ea af ce bd 17 ee 0a be 1b 29 13 be b8 9f 11 3d
       -0.10092147 -0.13567387 -0.14371149 0.03555271
000060 2e b8 4d be 03 ee f1 bb 70 2c 70 bd 12 63 ab bd
       -0.2008979 -0.0073831095 -0.05863613 -0.083685055
000070 0d 96 ae 3d 1a 27 00 3b 9d 2b 8e bd 5a cf 8f be
       0.08524714 0.0019554556 -0.06941912 -0.28087884
000080 4b 21 c0 3d 54 07 4e be 4d cc 2a be 1b 8b 8a be
       0.0938135 -0.20119983 -0.16679497 -0.27059254
000090 a9 20 d9 bd a0 6e 28 3d 63 68 95 be c3 60 39 be
       -0.106019326 0.041121125 -0.29181203 -0.18103318
0000a0 ee fb a0 bd fc ce 0c be 02 52 0d 3e e4 a5 b3 3e
       -0.07860552 -0.13750833 0.13800815 0.35087502
0000b0 21 d9 2d be f3 9f 38 be 0f 0f b6 3e fa 74 03 3f
       -0.1697736 -0.18029766 0.35558364 0.5135037
0000c0 10 50 7e be 8b b5 e3 bd 6e 42 99 3e f5 19 17 be
       -0.24835229 -0.11118611 0.29933494 -0.14755996
0000d0 d4 37 1f 3d fe c3 52 be 27 b3 ea 3c 09 b4 3e be
       0.0388716 -0.20582578 0.02864988 -0.18623365
0000e0 c0 88 5a be 1d c4 40 be c4 07 54 be 13 5e 57 be
       -0.21341228 -0.18824811 -0.20706087 -0.2103198
0000f0 ae 0f 59 be 1e 4c 45 3d aa 28 83 3d b1 46 87 bd
       -0.21197388 0.048168294 0.064042404 -0.0660528
000100 aa 4b 12 be 63 79 85 bd f9 ba 1e bd 68 46 67 3e
       -0.14286676 -0.06517293 -0.03875253 0.22585452
000110 3b 1c e7 bd fb b3 0e be 18 97 cb 3d a7 3f 30 3e
       -0.112846814 -0.13935845 0.09940928 0.17211781
000120 3e 18 9f 3d 95 83 85 3e 63 74 13 3d b8 7f a4 be
       0.07768296 0.26076952 0.035999667 -0.32128692
000130 13 63 e8 bd 78 fb 98 bd 8f ef d3 be 42 89 f7 be
       -0.11347022 -0.07469839 -0.41393706 -0.48346907
000140 71 3f 1a 3e 3c ea 9e 3d 33 23 9b be 2f 90 38 3c
       0.15063263 0.077595204 -0.30300292 0.011264845
000150 0b 4c 00 3d d4 07 bb 3d 4a c0 7d 3c ad 20 cf bd
       0.03132252 0.091323525 0.01548774 -0.10113654
000160 96 ff 35 3c d6 a9 19 bd 6e c8 15 3e b7 57 4c 3d
       0.0111083 -0.037515484 0.14627239 0.04988834
000170 aa 2d ff bd bd 8f d9 3d c3 0e 08 3e af f8 0f 3e
       -0.124598816 0.10623119 0.13286881 0.14059709
000180 76 e0 21 be 6e 4f cf bc 13 f9 d1 3d c1 af ff 3c
       -0.15808281 -0.02530643 0.10252585 0.031211736
000190 58 71 15 bd 2b 60 a2 3d fd 39 37 3e 88 22 c0 bd
       -0.036485046 0.07928499 0.17893215 -0.09381586
0001a0 8d af 6f 3d 50 2d 1a 3e 25 6c 04 3d 9a 21 99 be
       0.058517028 0.15056348 0.032329697 -0.29908448
0001b0 fe b7 03 3d b3 39 98 3d d8 88 aa bd f4 89 e2 be
       0.03215789 0.0743288 -0.08326882 -0.44245875
0001c0 fe 1d 99 3d 98 b4 43 bd fe 98 14 be 20 1e 9e 3d
       0.07476424 -0.04777965 -0.14511487 0.0772059
0001d0 c5 fe e7 3d 08 b6 46 3e 52 0c 03 3c 3d 58 e5 bd
       0.1132789 0.19405377 0.007998543 -0.11198471
0001e0 2e 27 57 3d ae 55 fc 3d 8b 51 4a 3d df d5 58 bd
       0.0525276 0.123210296 0.04939417 -0.05293834
0001f0 d3 7b bf 3d e5 3b 1f 3c 6c 5d a2 3d 47 48 8a bd
       0.093497895 0.00971887 0.07927975 -0.06752067
000200 f2 e1 03 be 41 62 57 3d 55 45 5c 3d 18 72 b8 3d
       -0.1287916 0.052583937 0.053777058 0.09006137
000210 4d 95 98 bd 8a 6a 01 3e 82 1d 5f bd 3f 24 15 3e
       -0.07450352 0.12638298 -0.0544715 0.14564608
000220 ab 8c 47 3e a9 10 8b bd 0f cf 29 bd e8 e8 0f 3d
       0.19487254 -0.06790287 -0.041457232 0.035134226
000230 af 2e e7 3d 0c 21 17 bc 4a 34 0d be 65 ef 18 be
       0.11288201 -0.009224188 -0.13789478 -0.14935072
000240 83 99 a4 3c 57 e2 18 3e 30 40 a7 bd a0 fa 79 3e
       0.020092731 0.14930092 -0.0816654 0.24412012
000250 b7 74 96 3d ef 3c 85 3d dc 36 cf bd df 44 d7 3d
       0.0734648 0.06505763 -0.101178855 0.10511183
000260 22 45 32 bd 04 3b 0d 3e 18 ee 01 bd e3 ad 1e 3e
       -0.04352296 0.13792044 -0.031721205 0.1549602
000270 85 ce 24 3e 0c 08 0e 3d 7d d9 14 be b3 19 92 3c
       0.16094406 0.034675643 -0.1453609 0.01783452
000280 df 13 b6 3d 62 bf a4 3d 1f 0d 0d bd 01 a4 ad bd
       0.08890509 0.08044316 -0.03443634 -0.08478547
000290 b7 0c 4d bd 99 a6 51 38 26 c6 b1 bd 95 b4 03 3e
       -0.050060954 4.998464e-05 -0.08680372 0.12861855
0002a0 ec 21 92 3c ac 2a 81 bc 4e b4 85 bd dc 49 fd 3d
       0.01783844 -0.015767418 -0.06528531 0.12367603
0002b0 9f 17 53 3c 62 f9 2f 3d 0f 0b 21 3e 53 91 c7 3e
       0.01288405 0.04296244 0.15726875 0.3897806
0002c0 e1 9a 8e 3d 91 b1 d4 bc cd 1d 8e bc 7a 65 74 3d
       0.069631346 -0.025963577 -0.017348194 0.059667088
0002d0 bf 2c 7d bd 93 c5 62 bc 5b f6 13 bd 67 e9 98 bd
       -0.06181025 -0.013841051 -0.036123615 -0.07466393
0002e0 33 43 87 3c 46 73 34 3d 30 fc ab bd 50 07 b7 bd
       0.016511535 0.044055246 -0.0839771 -0.089369416
0002f0 10 65 d3 3a 5a 58 e0 bc 24 1d 0f be 18 62 ac 3c
       0.0016128141 -0.02738588 -0.1397596 0.021042868
000300 3c fd ba 3d e7 9a 02 be b5 bb ea bd d9 4d 8f bd
       0.09130332 -0.12754403 -0.114615835 -0.0699727
000310 27 fa 99 bc 0f 27 37 bd ce cb 7a bd 9d 6f ff 3c
       -0.01879604 -0.044714984 -0.06122952 0.031181151
000320 60 b7 75 3c 67 02 d1 bd 52 ac 3a be 1d a7 43 be
       0.014997333 -0.10205536 -0.18229797 -0.19106717
000330 60 a2 30 be 2d 34 58 bd fe 26 25 3d de 21 f4 bc
       -0.17249441 -0.052784134 0.04032039 -0.029801305
000340 91 11 bd bd ea b3 37 be 72 ac 73 be 55 ee 2a bd
       -0.09231866 -0.17939726 -0.23796251 -0.041731197
000350 a0 f3 c9 3d 5d 19 d1 3d 03 b6 09 be 36 a3 20 3c
       0.09860921 0.10209916 -0.13448338 0.0098045375
000360 6d 1f 05 3d ec 9c 88 3c d6 e6 9f bd 6d cf 1b bc
       0.032500673 0.016676389 -0.078077 -0.009509903
000370 d3 02 a4 3d b5 0f b3 bd 27 07 03 3d ac a0 74 bd
       0.08008351 -0.0874323 0.031989243 -0.05972354
000380 c5 b6 5b 3e c0 82 00 be ce 9f 74 3d 05 c5 45 be
       0.2145644 -0.12549877 0.059722714 -0.19313438
000390 ba 55 86 3d 90 a0 fb 3d 09 6c 8e 3d 34 b3 ef bb
       0.0655932 0.12286484 0.069542 -0.007315064
0003a0 0e 7b 9f 3d fc f8 07 be 1c 81 9b be 62 fd d1 3c
       0.07787143 -0.13278574 -0.3037194 0.025633518
0003b0 82 61 d2 3c 73 3d dd 3b d1 8b ac bd c1 91 84 3c
       0.025681261 0.00675171 -0.08425105 0.016182782
0003c0 89 8a 5e 3b 2e 6d dc 3d d6 45 25 bd 83 13 ef bd
       0.0033957085 0.10763012 -0.040349804 -0.116736434
0003d0 6c 12 a4 bb 31 41 47 bb 9d 0e 42 be b0 de 6d bd
       -0.005007079 -0.0030403847 -0.18950887 -0.0580737
0003e0 f3 ff 00 3d e7 82 9d 3b 27 6b 6a bd 41 eb d3 bd
       0.031494092 0.0048068645 -0.057231095 -0.103476055
0003f0 99 6e d7 bd b2 2f e1 3d e6 a9 29 be a3 a7 98 ba
       -0.10519142 0.10995425 -0.16568717 -0.0011646639

encoder.layers.4.bias f4 [12]
000000 a0 3f be 3e 9d 35 92 3e 22 c3 a1 be ca 75 c3 3c
       0.37157917 0.2855653 -0.31594187 0.023859877
000010 f5 74 6f bd 6d ed e7 3d 3e b0 e7 bd a5 89 43 be
       -0.05846115 0.11324582 -0.113129124 -0.19095476
000020 09 3c 2d bd c7 2f 87 3d c9 87 4c bd 7e 6c b9 3c
       -0.042293582 0.0660091 -0.049934182 0.02263474

decoder.layers.0.weight f4 [32, 17]
000000 bb 5c 0f be c0 d0 5c bd e8 51 89 3d 67 e8 88 bd
       -0.14000218 -0.053910017 0.067050755 -0.06684952
000010 c9 93 a7 bd 04 e9 85 bd c9 85 61 bd 4e be 8a bd
       -0.08182485 -0.06538585 -0.055059228 -0.06774579
000020 18 7b 89 3e 75 6b 61 be 3f c8 36 3e 92 22 14 be
       0.26851726 -0.22013648 0.17849825 -0.14466313
000030 ff 0d ad 3e 5f c3 80 3e bd 7d ce 3d 78 5c 21 be
       0.3379974 0.25149056 0.100825764 -0.1575793
000040 12 d5 9c 3d e8 97 20 3e 99 2e 9b 3e e4 c1 a7 bd
       0.076578274 0.15682948 0.3030899 -0.081912786
000050 8a dc 3f be fa 29 ed 3c 2b 7c b0 3e 40 51 68 ba
       -0.18736473 0.02895068 0.34469733 -0.0008862205
000060 1c 8f 2c 3d dd ed 9b bd 2e a8 33 3c b3 2b 06 be
       0.042128667 -0.07613728 0.01096539 -0.13102607
000070 a8 29 3d bd e0 ae 8b 3e 67 ef a0 bc 96 7e 8e be
       -0.046182305 0.27281857 -0.019645406 -0.27830952
000080 b7 09 1a be cb b6 37 3d 88 19 97 3e c5 df 7c 3e
       -0.15042768 0.04485206 0.29511666 0.24694736
000090 a0 3d 8f be e5 03 67 3e 07 ea 00 3d a4 e8 70 3e
       -0.27976704 0.2256008 0.031473186 0.23526245
0000a0 da be 69 be bf a5 c0 bd 6b 02 41 be 44 ca 31 3d
       -0.2282671 -0.094066136 -0.18848579 0.043405786
0000b0 61 11 52 3e 02 0e 8c 3d 45 be b5 3d bb f5 1e 3d
       0.20514442 0.06838609 0.08874182 0.038808566
0000c0 31 1c 0e be 5b 69 b6 bd da cc 32 3e 37 6f 78 be
       -0.13877942 -0.08906814 0.17460957 -0.24261175
0000d0 ce b8 e9 bc 55 43 82 bd 61 6d 6a bd e8 6e 48 bc
       -0.028530505 -0.06360499 -0.057233218 -0.012233473
0000e0 75 6b 33 be c2 b5 03 be 57 28 94 3e 64 4e 24 bd
       -0.1752146 -0.12862304 0.28937027 -0.04011382
0000f0 67 82 c3 bd 85 31 7e be 86 47 04 be e0 f9 87 be
       -0.09546357 -0.24823578 -0.12917909 -0.26557827
000100 8c 6f d7 3d cd 4f 63 3e 6b 6b 32 3e 8d 18 5f bc
       0.10519323 0.2219841 0.17423789 -0.013616693
000110 e6 03 14 be c8 cb 1d be 51 c8 24 3e 65 bb 24 3e
       -0.14454612 -0.15409768 0.1609204 0.1608711
000120 3c 33 10 3e a2 c1 33 be 00 c6 1f 3e e6 c2 c6 bd
       0.14082044 -0.17554334 0.15602875 -0.09705143
000130 68 fe c8 bd 5a b6 68 3e 89 14 fb 3d a1 08 b4 3d
       -0.09814149 0.22725812 0.12259776 0.08790708
000140 36 df c0 bb b4 6b 19 be 88 76 dd bc 09 73 05 be
       -0.005885984 -0.14982492 -0.02703406 -0.13032164
000150 6f ae 64 3e 1a 2b 6e 3d b1 9c e9 bd fa 20 26 be
       0.22332166 0.058146574 -0.1140684 -0.16223517
000160 27 54 74 3e 4b aa cf 3d 91 eb e4 bd ff de 9a 3e
       0.23860227 0.10139903 -0.11177743 0.30248258
000170 22 ad 8e 3d c7 d2 39 3e db 5e 02 3e 5d 3f 3d 3e
       0.06966616 0.18146811 0.12731497 0.18481202
000180 86 5f 9e 3d 29 4f 34 be 5d da 92 be 48 48 a8 3c
       0.077330634 -0.17608322 -0.28682223 0.020542279
000190 ab ad 89 be 09 d1 df 3d c3 84 44 be 43 2f 22 be
       -0.2689031 0.10928542 -0.1919127 -0.15838341
0001a0 59 3a 48 bd 65 2e 1b 3e a9 e6 28 bd 07 1f 21 be
       -0.04888377 0.15154417 -0.0412356 -0.15734492
0001b0 6c c7 8a be ed e0 9f 3d 09 d3 d8 be e0 37 16 3c
       -0.27105272 0.07806573 -0.42348507 0.009168595
0001c0 67 0b 8a 3e 6d 2e 70 3e 57 0d 7f be ff 91 32 be
       0.26961824 0.2345521 -0.24907432 -0.17438506
0001d0 bf 7c 3c 3e c9 60 c5 3d a8 73 b6 3d e9 3a 89 3d
       0.18406962 0.09637601 0.089087784 0.06700689
0001e0 63 de ca bd 21 20 29 be e1 94 6e 3e a7 79 8e 3d
       -0.09905698 -0.16516162 0.2329898 0.06956797
0001f0 9d bb 5f 3e 2b c9 b9 bd 82 b1 d3 bd 4d f8 83 bc
       0.21848913 -0.09071573 -0.10336591 -0.01610961
000200 58 7e f9 3d 57 d4 f5 3b b0 6e e2 bc f3 21 45 3d
       0.12182301 0.0075021195 -0.02764067 0.04812808
000210 eb 01 0c be c3 31 9c bd 50 9f ec bd 87 ff c5 3d
       -0.13672607 -0.07626679 -0.11553824 0.096678786
000220 45 7b 66 be 35 31 85 be e7 12 29 3e fe 13 1f 3e
       -0.22507961 -0.26014104 0.16511117 0.1553497
000230 b9 47 8b 3d 29 d6 26 bd e6 a7 e8 bd b7 82 be be
       0.068007894 -0.040731583 -0.11360149 -0.37209103
000240 5f 23 08 3e ad af f6 bd 85 99 0e 3e ce b7 9a 3c
       0.13294743 -0.12045226 0.1392575 0.018886473
000250 9a 81 4e 3d e6 34 b1 bd 17 7a 59 3e 7a a7 8c 3e
       0.050416566 -0.08652668 0.2123798 0.27471524
000260 f6 88 e3 3d fd 00 01 be b5 59 88 3e b2 e2 36 be
       0.111101076 -0.12598033 0.2663094 -0.17859915
000270 8c 77 66 3e 18 4a 85 be 3f 3d b7 bd bf 45 84 3d
       0.22506541 -0.26033092 -0.08947229 0.064586155
000280 fe 1a 6f 3d 9f b4 a7 3d 63 ad 8b 3c 82 b3 46 3e
       0.05837535 0.081887476 0.01705045 0.19404414
000290 96 de 0d 3e ae 35 89 3d b1 1a 40 be 15 bc 32 be
       0.13854441 0.06699692 -0.18760182 -0.1745456
0002a0 74 71 d0 3c 6d 87 01 3e ef f4 d5 3d 39 0b 20 bd
       0.025444724 0.12649317 0.10447108 -0.039073203
0002b0 4f 61 4f 3e 66 fb 36 be 0f 50 3e 3e 8a d9 06 3d
       0.20251964 -0.17869338 0.18585227 0.032922305
0002c0 cb 36 dd 3d 67 76 9b 3e 71 19 70 3d 10 e4 8b 3e
       0.108014666 0.3036377 0.058618013 0.27322435
0002d0 4a fc 6c 3e 14 c3 bf bd 5b e7 8f 3e 57 66 03 3e
       0.23143116 -0.0936338 0.28106198 0.12832008
0002e0 c5 08 82 be 2a d6 dd bd ee 8e ee 3c c0 6b 6a bd
       -0.25397316 -0.10831864 0.029120889 -0.057231665
0002f0 f6 c2 36 be b2 d1 40 bc 6e 17 90 bd 60 d3 2e 3e
       -0.17847809 -0.011768745 -0.07035719 0.1707282
000300 c1 2c c8 3d 8f ec 2f bd ea 1f 27 3e 60 c5 b9 bd
       0.09774161 -0.04295021 0.16320768 -0.090708494
000310 8b 58 02 3e e2 72 0f 3e ef 34 11 bc 9a 59 c1 be
       0.12729089 0.14008668 -0.008862718 -0.37763673
000320 28 9a a1 bb 55 14 d1 bc 7e d0 f7 3c 19 27 57 be
       -0.004931707 -0.02552239 0.030250784 -0.21011008
000330 53 da 08 be 2c 3e 6a be c2 6a 79 3d d4 92 6d 3d
       -0.13364534 -0.22875279 0.060892828 0.058001354
000340 99 28 6e 3e b5 2c c4 3d bf 57 31 3e 18 80 03 3e
       0.23257674 0.0957884 0.17318629 0.12841833
000350 15 71 b3 3e 96 33 62 be d3 28 a4 3c ee 88 82 bd
       0.35047212 -0.22089991 0.020038998 -0.063737735
000360 04 3e 09 3e fd 12 22 be f6 ea 1b 3d 75 26 52 bd
       0.13402563 -0.15827556 0.038065873 -0.051306207
000370 e0 b7 bd 3c 00 0b d8 3d 70 45 42 be 12 8f 66 3d
       0.023158967 0.10548973 -0.18971801 0.056288786
000380 1c d4 0e 3e 14 8b 82 be 2b 5d ab bd 8a 46 0d be
       0.13948101 -0.25496733 -0.0836738 -0.1379644
000390 60 d3 27 3e db 7f a1 bd 5f bc 0b bd 78 f5 6c 3d
       0.16389227 -0.078857146 -0.03411519 0.057851285
0003a0 2a f0 bb bd 9c 05 a9 3a 7e d0 e5 bb e3 22 5c 3e
       -0.09176667 0.0012895348 -0.0070133796 0.21497683
0003b0 bb dd cd 3c 99 ec cf bd 9c de 7c 3e 58 29 c7 3b
       0.025130143 -0.10152549 0.24694294 0.0060779266
0003c0 5f f7 20 be 24 ba a9 3c 33 83 fa bd 9e 78 41 be
       -0.15719365 0.020718642 -0.122320555 -0.18893668
0003d0 65 4d 14 be 3d 08 58 3e b6 af 83 bd d8 c9 4b bb
       -0.14482649 0.21096893 -0.064299986 -0.003109565
0003e0 2d 5c 82 be 3e 6e 6f 3e 87 50 3f be 3d 33 e5 3d
       -0.2546095 0.23381898 -0.18683062 0.111914136
0003f0 95 cf 51 3e b1 9d 55 bb 7c da 75 bd 99 42 94 3e
       0.20489343 -0.0032595212 -0.060022816 0.2895706

decoder.layers.0.bias f4 [32]
000000 09 1b b2 3d a1 bb 69 3e 90 2f 80 3e e0 86 40 bb
       0.08696563 0.22825481 0.25036287 -0.0029377267
000010 f8 2a 16 be a8 37 63 be d2 3f 0c be 5c a0 1e 3e
       -0.14664829 -0.221892 -0.1369622 0.1549086
000020 66 07 37 3e 67 a4 af 3e f2 95 bb 3d e7 8b 5a 3e
       0.17873916 0.34305117 0.09159459 0.21342431
000030 68 ef d9 bd 62 1d d0 3e 96 4d f9 3e 90 dc cc 3e
       -0.10641366 0.40647417 0.48692006 0.40012026
000040 4d d1 5c 3e 88 3b 3d be 0b 52 49 be 8a 87 6e 3e
       0.21564217 -0.1847974 -0.19660203 0.23293892
000050 29 5b fb bd ac a2 98 3e c3 a1 cf 3e 32 4c e3 3c
       -0.12273247 0.2981161 0.40553102 0.027746294
000060 88 b4 56 3e 29 1d 9d bd 3a 73 c2 3d 8c 0e bd 3e
       0.20967305 -0.076715775 0.09494634 0.3692516
000070 86 66 66 3d c2 45 03 3f 38 f5 86 3e 38 3e 33 bd
       0.056250118 0.51278317 0.26358962 -0.04376051

decoder.layers.2.weight f4 [32, 32]
000000 a9 4c 81 3e b4 e3 50 bd 37 67 20 be da 6c 20 3e
       0.252538 -0.050998405 -0.15664373 0.15666524
000010 6a af 8e bd 1d c1 45 3e c1 83 0b be b7 72 70 bd
       -0.06967051 0.19311948 -0.13624479 -0.05870315
000020 ad 38 64 3e f3 fc 9c bd d8 7e 11 bd 18 84 fe 3d
       0.22287245 -0.07665434 -0.03552136 0.12427539
000030 de c3 2f 3e 50 02 78 3d fc 21 34 bd d2 3a 9d bd
       0.17164561 0.06054908 -0.043977723 -0.07677235
000040 a4 53 41 bd ad be ba bc 1b fa f4 bd e3 f2 52 3e
       -0.047198907 -0.022796 -0.11961766 0.20600466
000050 40 d3 fb 3d 01 f1 b2 bd 2a d3 08 bc 4c 56 03 be
       0.12296152 -0.08737374 -0.008351127 -0.12825888
000060 fc 26 bd bd 25 a7 2e 3e a5 41 a3 3d 9f 41 15 bd
       -0.09235951 0.17055948 0.07971505 -0.036439534
000070 50 1b 7c bd a8 26 db 3c 8c b6 b8 bd e1 35 a8 3d
       -0.061549485 0.026751831 -0.09019193 0.082134016
000080 45 ef ee bc b1 d4 e8 3d 3a 02 a9 bc 07 67 f9 bd
       -0.029166827 0.11368693 -0.020630945 -0.12177854
000090 31 4e f4 3d bb 49 23 3e 43 71 2c be 15 c5 bf 3d
       0.11928976 0.15946095 -0.16840081 0.09363762
0000a0 a3 8a 50 bd 35 0d 48 bd 0c 0b b1 bb 49 0d 45 3c
       -0.050913464 -0.04884072 -0.005402928 0.012027093
0000b0 75 6f b8 bd 8a 4c 83 3d 48 13 56 bd 16 25 51 be
       -0.09005634 0.06411083 -0.05226448 -0.20424303
0000c0 56 f0 26 3d 8a f9 81 3d e2 15 00 3e 43 cb 10 3e
       0.040756546 0.06346424 0.12508348 0.14140038
0000d0 cb bf 53 3d 12 17 bd 3d d2 11 0c be 32 25 de 3d
       0.05169658 0.09232916 -0.13678673 0.10846938
0000e0 cd e1 03 ba e3 84 fe 3c 42 c1 9c bd 4f 2c 70 3d
       -0.00050309004 0.031069225 -0.076540485 0.058636006
0000f0 0c 70 59 3e e5 bf 42 3d 3d f6 9d bc 20 ee 23 3d
       0.21234149 0.047546286 -0.019282455 0.040022016
000100 4b 1b 85 3d ff 86 cb bd f4 cc 1b bc 86 4a 88 3d
       0.06499346 -0.09937858 -0.009509314 0.06654839
000110 2d 0e 56 3e 40 2d dc 3d 18 2d 2e 3e 2a 4e e3 3d
       0.20903845 0.10750818 0.1700939 0.11098893
000120 c1 16 0e 3e 0f e5 68 bd b4 c2 cf bd c7 3c 8d bd
       0.13875867 -0.056859072 -0.101445585 -0.06896358
000130 53 96 16 3e 74 16 0e 3e 24 b0 88 bd 11 a3 f2 bd
       0.14705782 0.13875753 -0.06674221 -0.11847509
000140 3d a2 b4 3d 2d 36 09 3e 0c e1 17 3e e2 ac ee bd
       0.08820007 0.13399573 0.14831942 -0.116540685
000150 42 f0 8a 3e fd 9c dc 3d 66 7d 49 3e f3 d4 ea 3d
       0.27136427 0.10772131 0.19676742 0.11466398
000160 3d fe ae bd 1e 67 1a 3e d9 45 a6 3d 40 27 9a bd
       -0.08544586 0.15078399 0.08118791 -0.075270176
000170 0a fd c1 bd 85 f0 e0 bc d8 b5 22 be 25 b1 ca 3d
       -0.094720915 -0.027458439 -0.1588968 0.09897069
000180 9a d4 d8 3c 89 06 12 3e 20 1b 7c bd c1 f4 ad bd
       0.026468564 0.14260305 -0.061549306 -0.08493949
000190 e3 eb 28 3e df 19 c0 bd 41 d6 91 3d d7 e7 d4 bd
       0.16496234 -0.093799345 0.07120944 -0.103957824
0001a0 05 07 6c 3c 2a b5 1d 3e 6c 0e 84 3d 61 d8 b5 bd
       0.01440597 0.1540114 0.06448063 -0.088791616
0001b0 06 c4 06 be bd d4 99 3d 01 80 7d bd ac 80 e1 3c
       -0.13160715 0.0751128 -0.061889652 0.027527176
0001c0 9b df ea 3c 86 92 fb bd 57 5d 0a 3e 9a 4c 06 be
       0.028671077 -0.122838065 0.13512169 -0.13115159
0001d0 53 14 92 bd 36 95 44 3d a9 fe 4a 3d 8f 3e 8a 3d
       -0.07132783 0.04799386 0.04955927 0.06750213
0001e0 34 60 ab bd 3b 10 11 be 37 06 1b 3d aa 46 17 3e
       -0.08367959 -0.14166348 0.037847724 0.1477305
0001f0 72 35 26 3e 9e 42 16 3e 86 a1 aa bd 97 40 41 bd
       0.16231325 0.1467385 -0.083315894 -0.04718074
000200 e1 0f ad bc bc 18 b0 3d 8b 98 dd 3d c6 90 42 3e
       -0.021125736 0.08598468 0.10820111 0.19000539
000210 37 c2 41 be ef 10 16 be a2 98 2d 3e 4a fc d8 3d
       -0.18921743 -0.14654897 0.16952756 0.10594995
000220 ea 82 de 3d f0 00 26 3e da da c6 3d 4a 43 61 bb
       0.108648136 0.16211295 0.097097114 -0.0034372383
000230 c4 a6 ea bd e3 5e 1c 3e e3 49 8b 3e cb 8f 4f 3e
       -0.11457589 0.15270571 0.2720481 0.20269696
000240 dd 81 26 3e 64 23 c1 bc 52 d3 b6 3d f4 85 97 bc
       0.16260476 -0.023576446 0.08927025 -0.018496491
000250 e9 53 3c 3d fa 1f 0f 3e b7 ed f6 3d e5 d0 bc bd
       0.04597846 0.13977042 0.12057059 -0.09219531
000260 81 71 5f 3d 7c 91 c7 bd 9b 1a 10 3e 6f c6 91 3e
       0.054551605 -0.09744546 0.14072649 0.28471705
000270 e7 a5 dd bd 81 9c 3b 3e c4 f6 90 3e 31 fe 51 bc
       -0.10822659 0.1832142 0.28313267 -0.012816952
000280 c0 49 7e bd 03 ac ac 3e 0a ad 8f 3e fd 86 63 3a
       -0.062082052 0.33724985 0.28061706 0.00086794776
000290 97 95 3c be 3f f9 8c 3d db 4e 8b bc 46 de 17 3e
       -0.18416439 0.068834774 -0.017005375 0.14830884
0002a0 b3 ff ed bd 54 a7 5c 3e 53 3d 1c 3e 6c 2a 38 3d
       -0.116210364 0.21548206 0.15257768 0.04496233
0002b0 6a 54 9f 3d f2 8b 75 3d 02 93 aa 3e b1 82 a7 3d
       0.077797726 0.059947915 0.33315283 0.08179224
0002c0 ae bf ae bd e2 61 f9 bc c0 b9 60 be 91 3f 6a bc
       -0.08532654 -0.030442182 -0.21945858 -0.014297382
0002d0 7e 4c f0 bd cd d5 8f 3e c8 e5 21 3e 28 97 43 bd
       -0.1173334 0.28092805 0.15810311 -0.047751576
0002e0 5e 7a 1a 3e 58 8b 4a 3d e2 49 01 3e e7 27 68 3e
       0.15085742 0.049449295 0.1262584 0.22671472
0002f0 36 47 10 3e 7e b0 92 3e 6a 39 ef 3d a1 ad 07 be
       0.14089665 0.28650278 0.11680873 -0.13249828
000300 21 71 4d 3c 6c 19 74 3e 14 71 b2 3d 0e 27 36 ba
       0.012539179 0.23837823 0.08712974 -0.00069485686
000310 f2 c3 5a be b8 8b a1 3d c9 b1 1e be ef 6b 33 3e
       -0.2136381 0.07887977 -0.15497507 0.17521642
000320 33 75 bc bd 22 4d 21 3e 7e 37 24 3e d3 cb 5f bc
       -0.092020415 0.1575208 0.16036794 -0.013659435
000330 55 86 05 be 34 bc ea 3d 03 30 39 3e 1d 90 d6 3d
       -0.13039525 0.11461678 0.18084721 0.10476706
000340 5d 40 74 bd cf 61 08 bd 77 04 34 be c0 e2 89 3d
       -0.059631694 -0.033296403 -0.17579828 0.06732702
000350 f5 29 6b be aa 25 eb 3d aa a5 66 3e a5 6f 85 bc
       -0.22965224 0.11481793 0.22524133 -0.016288588
000360 76 e0 eb 3d 17 dd 67 bd 37 ae 28 3e 7f 7e 54 3e
       0.11517422 -0.056607332 0.16472708 0.2075138
000370 61 97 13 3e 3a bc 24 3e 34 7b 42 3e 67 df 4a be
       0.14413215 0.16087428 0.18992311 -0.19811784
000380 7e ef 07 3e 56 85 24 3e a7 22 2f 3e 81 ae 28 be
       0.13274953 0.16066489 0.17103063 -0.16472818
000390 bf 3b ce 3b 8e bd 3f bd 57 17 a2 3d 21 50 c2 3b
       0.0062937434 -0.046811633 0.07914608 0.0059299623
0003a0 48 f4 4d 3e 20 21 a3 3d 61 d5 26 3d 8f e5 87 bd
       0.20112717 0.079653025 0.040730838 -0.06635582
0003b0 f1 70 01 3e c5 66 d1 bd 51 5d ba bd b4 ac 19 3e
       0.1264074 -0.1022468 -0.0909983 0.15007287
0003c0 ed ee 24 3d fd 55 e1 bd dc ce 03 bd 5b 26 e4 3d
       0.04026692 -0.11002729 -0.0321797 0.11140128
0003d0 92 9a 3e bd fc ee 71 3e 7f 72 54 bc 43 52 35 3d
       -0.04653413 0.23626322 -0.012966751 0.044267904
0003e0 dd cc a9 3c 5b cd 3a bb 03 31 6f bd f5 98 28 3e
       0.02072757 -0.002850375 -0.05839635 0.16464598
0003f0 5d ad b9 3d 3e a0 e4 bd 6f f6 0c bd 07 89 0b be
       0.090662695 -0.11163376 -0.034414705 -0.1362649

decoder.layers.2.bias f4 [32]
000000 9f 3a f1 bd 57 a7 c6 bb 45 b6 16 3d f2 ec 28 bd
       -0.11778759 -0.006062429 0.03679492 -0.041241594
000010 c2 32 9d 3e 30 cc 7e 3e f2 dd 88 3e ff c3 20 3e
       0.30702788 0.24882579 0.2673183 0.15699767
000020 a8 83 9d bd a5 98 60 3e bb 19 31 bb 6e 4c 39 be
       -0.07691127 0.2193323 -0.0027023393 -0.18095562
000030 fd 55 70 bd aa b6 67 3c 02 c1 44 3d fa be 50 bc
       -0.058675755 0.014142672 0.04803563 -0.012740845
000040 b6 19 0d 3c d5 83 9c bd a7 70 3a 3e 20 9e eb bd
       0.008612087 -0.076423325 0.18207036 -0.11504769
000050 cd 43 16 be d6 3a a8 bc 65 18 53 3e 12 17 a0 3e
       -0.14674301 -0.020535868 0.20614775 0.312676
000060 2d c6 4e 3e 4e 91 6b bd aa 9a aa 3e dc 15 66 3d
       0.20192786 -0.05751162 0.33321124 0.05617319
000070 09 33 c8 bd 85 ea c1 bd aa 71 73 3e 5a 72 f2 3d
       -0.09775359 -0.09468559 0.23773828 0.11838217

decoder.layers.4.weight f4 [24, 32]
000000 2b 44 e9 3c 6e 11 c0 3d 06 b3 fb 3d a3 70 e1 bc
       0.028474888 0.093783244 0.122900054 -0.02751953
000010 ff 6a 39 3d db b6 60 bc d9 b0 f7 3d b8 94 04 be
       0.045268055 -0.013715471 0.12094278 -0.12947357
000020 7e 67 95 bd 8b 3a 7e bd 60 f2 df bd a4 8c 91 3d
       -0.0729513 -0.06206755 -0.10934901 0.07106903
000030 6b c8 df 3d 06 69 e7 3d 0e 53 99 b9 ae 3a 02 3b
       0.109268986 0.112993285 -0.00029244315 0.0019871402
000040 0d 00 68 bd 70 e6 8b bd 45 3b 93 bd 36 8b c3 bd
       -0.056640673 -0.06831062 -0.07189039 -0.09548037
000050 77 05 6a 3b 75 f1 41 bd 7c 4f 13 3d a6 c4 be bc
       0.0035708824 -0.047349412 0.035964474 -0.023287129
000060 66 29 3a 3b 16 81 0e 3d 9f 1a b9 bc d2 ba b4 3b
       0.0028406023 0.034791075 -0.022595702 0.005515435
000070 d8 54 14 bd ca 61 2a 3c 49 b3 04 3d c5 e3 7e bd
       -0.036213726 0.010399291 0.032397542 -0.062228937
000080 88 82 51 bc 2f 9a f3 3b 72 88 fd 3d 11 a0 cb 3d
       -0.012787469 0.0074341516 0.123795405 0.099426396
000090 05 0c e8 bc fa e4 a2 bc a7 ac e9 3c c3 56 41 3d
       -0.028326044 -0.019884575 0.02852471 0.047201883
0000a0 db 86 e4 bd da d0 be bd 5e a7 0c be 19 75 9d 3d
       -0.11158534 -0.09317179 -0.1373572 0.0768835
0000b0 5c 93 00 3e 70 ed 84 3d ef 0d fc 3c 9a f2 10 be
       0.12556213 0.064906 0.030768363 -0.14155045
0000c0 ed 72 0c 3e a5 25 0c be 27 03 fd 3c 26 85 89 3d
       0.13715716 -0.13686235 0.030885292 0.06714849
0000d0 50 db 39 3d b8 b0 bd bb c6 b4 df bd 61 76 1e 3d
       0.04537517 -0.005788889 -0.10923152 0.038687114
0000e0 05 9f 84 3d 5d 8b fb bd f1 57 29 3b 2a a1 67 bd
       0.06475643 -0.12282441 0.002583977 -0.056550182
0000f0 3c a7 ee bc d3 6d 80 3d 6a e3 02 3e 9f 40 15 bb
       -0.029132478 0.06270947 0.12782064 -0.0022774113
000100 f1 64 e2 bc dd 93 d3 3c 78 fc f2 bd be b7 e6 3d
       -0.027636023 0.025827343 -0.11864561 0.11265515
000110 00 39 93 bd 77 24 f8 bb 01 66 da bb a3 0b a2 bc
       -0.07188606 -0.0075727063 -0.006664992 -0.01978094
000120 c3 46 b2 bd 8f ef c4 bb 35 96 8e 3d ac fa 1e 3e
       -0.08704903 -0.006010003 0.069622435 0.15525311
000130 0a 4c 50 bd 4b e9 45 3d ce 17 be bd 56 30 0d 3e
       -0.050853767 0.04831819 -0.09281884 0.1378797
000140 49 57 01 be 27 3e 0a 3e 2e 5f 7b bd f3 2e 91 bd
       -0.12630953 0.13500272 -0.061370067 -0.07089033
000150 82 9e 2f bd c7 0f aa 39 42 38 85 3d dc a0 ac bd
       -0.042875774 0.00032436682 0.06504871 -0.08429119
000160 29 72 dd 3d f6 fe 73 bd e9 50 ec bc ff 66 84 3d
       0.1081279 -0.05956932 -0.028847175 0.064649574
000170 0f 84 4e bb 97 92 33 3d 05 b1 e9 3d f7 fa bd bd
       -0.0031511819 0.04384097 0.11410717 -0.09276383
000180 e5 b6 32 bd 3b 5c a9 bb c3 f5 2d bc 66 25 86 3c
       -0.043631453 -0.0051684654 -0.010617676 0.016375255
000190 95 f4 a6 bd e1 25 57 bd 00 71 66 3c d9 54 1a 3d
       -0.08152119 -0.05252636 0.014065027 0.037678573
0001a0 e2 fb 05 be c8 42 1f bd 95 c0 54 3d db ae ce bc
       -0.13084367 -0.038882047 0.051941473 -0.025229862
0001b0 c6 17 f7 3d 1b aa f7 bc 1a 2f 8f 3d df a2 be bd
       0.12065081 -0.03023248 0.06991406 -0.09308409
0001c0 b8 a4 7d 3d 5d ef 41 3b 6d c7 2b 3d 85 84 c9 bc
       0.061924666 0.0029592135 0.041938234 -0.024599323
0001d0 77 55 ca 3d b2 13 fb ba 7a b8 97 bd 69 6d d1 3c
       0.098795824 -0.001915565 -0.07408233 0.025564866
0001e0 5a 77 b8 3d fa 2a 3b 3d 03 7a ce 3d ac 0b c5 3b
       0.090071395 0.045695283 0.10081866 0.0060133543
0001f0 67 ac ff bd 93 de 11 3d 6f 61 6c bc b4 d4 9d bb
       -0.12484055 0.035612654 -0.014427527 -0.004816616
000200 82 ac 7f bd ab 0c c0 3c 12 fb c0 bc b0 a4 12 bb
       -0.062420376 0.02344354 -0.02355722 -0.0022375993
000210 2b 1d b8 bd d1 8d e4 bc 1c bb 60 3c f0 5b 13 3d
       -0.08989938 -0.027899655 0.013716485 0.03597635
000220 61 bb 54 bd 0b 6a 27 bd c2 e2 39 3d 04 39 20 bd
       -0.05193651 -0.040872615 0.04538227 -0.039116874
000230 c1 21 d5 3d 93 a2 51 3d ff 64 71 3d 57 a3 97 bd
       0.10406829 0.051180433 0.058934208 -0.074042015
000240 50 92 f7 3d 06 74 f3 3d 73 83 2c 3c ab 40 e8 bd
       0.12088454 0.11887364 0.010529387 -0.113404594
000250 49 2b bf bd 5f 50 40 bc 04 08 8d 3d 23 39 d6 bb
       -0.09334428 -0.011737912 0.068862945 -0.006537573
000260 c6 36 09 bd 45 ec a4 3d c9 33 c7 3d bf f1 ad bd
       -0.0334995 0.08052877 0.09726674 -0.08493375
000270 00 86 90 3d 84 29 a1 3c cb e8 bb 3d 44 f6 78 bd
       0.070568085 0.019673117 0.09175261 -0.060781732
000280 ee 42 6b 3b 68 e3 45 3c 32 16 9b bd 9c 28 75 bd
       0.0035898047 0.012078144 -0.07572593 -0.05985318
000290 62 0b bf 3c 8c bf 16 bd d6 d8 a3 bc 36 78 06 3d
       0.023320857 -0.036803767 -0.020000856 0.032829486
0002a0 b3 a9 8f bd a9 ae 4a 3d f1 a5 90 bc f4 7e 00 3e
       -0.070147894 0.049482975 -0.017657252 0.12548429
0002b0 b5 c4 ec 3d 0a 40 d8 3d c5 9b 1e 3d da 58 f8 bd
       0.115609564 0.105590895 0.038722772 -0.12126322
0002c0 cd a7 0f 3c b5 d8 e5 bd 48 01 07 3d a0 ad 45 bd
       0.008768034 -0.11222974 0.032960206 -0.048261285
0002d0 e3 36 56 3d 40 fa d1 bd 77 2b 2d 3e ec 06 ee bc
       0.052298438 -0.102528095 0.16911112 -0.029056035
0002e0 f5 9b 28 3d fc 21 a8 3c 17 4e 16 3d 43 d5 d5 bc
       0.041164357 0.020524018 0.036695566 -0.026102668
0002f0 74 db b3 3d b4 19 3e bd e1 17 c4 bd fa 09 ce bd
       0.08782092 -0.04641123 -0.09574867 -0.10060497
000300 fc 4a d9 3b 72 50 7b bd b0 10 af bd 42 b1 2d 3b
       0.0066312533 -0.061356016 -0.08548105 0.002650336
000310 d0 d4 ec bc 7c 9f 0a bc ff 7f c3 bc 4d 28 c9 3d
       -0.02891007 -0.008460876 -0.023864744 0.0982214
000320 b0 ce cb bc 22 5d 2a 3d bb 6f 85 bb 2d 7f 96 3d
       -0.02487883 0.041592725 -0.004072157 0.073484756
000330 a4 e9 89 bd 58 c2 98 bd 05 99 0b bd 8f 6b 9c 3d
       -0.067340165 -0.07458943 -0.034081478 0.07637703
000340 d6 12 c5 bd f8 aa 2d 3d 1b 02 82 3d 39 ea f3 3d
       -0.09622733 0.042399377 0.06348058 0.11909909
000350 29 47 bb 3c 74 55 69 3d 79 4e 01 3e 2a b3 86 bd
       0.02286108 0.05696626 0.12627591 -0.065771416
000360 4a c7 09 bd 24 0c ce 3b bb 87 46 bd 61 34 21 bd
       -0.033637322 0.0062880684 -0.048469286 -0.039356593
000370 ec c2 9a bd b1 62 6d bd 26 0e 24 3d 72 87 c1 bc
       -0.0755671 -0.057955448 0.040052556 -0.023624156
000380 2e 95 2d 3c ce bc 3f 3d ad 7d 84 bd 76 a0 3b bc
       0.010594649 0.046810918 -0.06469283 -0.011451831
000390 80 a9 ac 3d 66 8b b4 bc c5 d1 46 3d 6d 42 38 3d
       0.08430767 -0.022039127 0.048539896 0.044985224
0003a0 07 92 d7 bb ef e2 e9 bc 27 68 eb bc 89 d7 a0 bc
       -0.006578687 -0.028550593 -0.028736187 -0.019634025
0003b0 8d fc 79 3d 84 9a 5a bd 83 af c7 3a 2f b8 a0 3c
       0.061031867 -0.053370014 0.0015234802 0.019619076
0003c0 8b c0 83 3d 05 0c 8f 3d 84 c5 56 3d 8f a5 71 3d
       0.06433209 0.069847144 0.05243446 0.05899578
0003d0 f5 c6 c5 bd 02 e4 0e 3e 97 a3 29 be b5 7c b6 3c
       -0.09657089 0.13954166 -0.16566311 0.022276262
0003e0 0d 16 cb 3b d6 8a dc bc 5f cd ee bc 35 b2 98 3d
       0.006197697 -0.02692167 -0.029150663 0.07455865
0003f0 38 90 0f bc 5a d2 89 bc 0b 4e c8 bd f7 f5 b3 3d
       -0.008762412 -0.016823936 -0.097805105 0.087871484

decoder.layers.4.bias f4 [24]
000000 97 9b 91 3d ff b9 a2 bd c5 f9 db 3d de 0f f8 bc
       0.071097545 -0.07945632 0.10740999 -0.030281004
000010 52 4a 42 bd 65 c4 8b bd 76 a1 08 3c 22 70 d7 bb
       -0.04743416 -0.06824569 0.008339277 -0.0065746466
000020 87 85 cd bd d4 ad 98 3c ba 7f f8 3d fe f2 2c 3d
       -0.10035234 0.018637575 0.12133737 0.042223923
000030 56 31 3a 3d f3 b3 dd 3d 7c b1 e8 bd 9b 92 7d be
       0.045457207 0.10825338 -0.113619775 -0.24762957
000040 3e 3e ac bd 6b c6 20 be 51 2b 9a be 29 4a b7 3d
       -0.08410309 -0.1570069 -0.30111173 0.08949692
000050 4c b3 9c bd 57 52 63 be 62 9d 81 3c e9 c6 85 bd
       -0.07651386 -0.22199379 0.015822116 -0.0653208
