m4_ws/src/morphing_lander/learned_models/2024-05-20_18-08-49/model_80.pth (torch, 33710 bytes, 22 tensors)

cond_normalizer.mean f4 [11]
000000 70 50 bb be 44 50 20 bd 8c 7f 37 ba 74 3a d5 3a
       -0.36584806 -0.039139047 -0.0006999902 0.0016268031
000010 f1 65 41 3d 78 5c af 3c 38 cf d3 ba e0 a1 01 3f
       0.04721636 0.021406397 -0.0016159778 0.50637627
000020 06 09 05 3f fa 25 02 3f 69 69 04 3f
       0.51966894 0.508392 0.51723343

cond_normalizer.variance f4 [11]
000000 83 b3 ce 3d fe 7f a3 3b 16 47 e3 39 7c f9 af 39
       0.10092833 0.004989623 0.00043349777 0.0003356448
000010 14 ea 7f 3c 65 2c bc 3c d6 cc db 3d 8c 87 a8 3c
       0.015619773 0.022970388 0.10732429 0.020572446
000020 fa 6b ad 3c 91 f4 a3 3c 2a 6c b2 3c
       0.021169651 0.02001408 0.021780092

output_normalizer.mean f4 [12]
000000 04 57 c2 bb 2f c9 41 bb d3 97 88 3c f2 1c d2 38
       -0.005930783 -0.0029569378 0.016673958 0.00010018972
000010 61 9d 3c 3b a0 a4 ba 3a 48 aa c3 3b db a0 b1 3b
       0.0028780329 0.0014239736 0.005971227 0.005420787
000020 91 86 4a 40 91 30 58 3e 53 06 0a 3f ed cd 83 ba
       3.1644633 0.21112277 0.539159 -0.0010055878

output_normalizer.variance f4 [12]
000000 80 2e a2 3d 4c 08 55 3d d3 2d 54 3d cc 6c c7 38
       0.079190254 0.052009866 0.051801514 9.5093244e-05
000010 c8 14 99 3b 48 dc ac 3b 62 89 bd 3d a7 17 d2 3e
       0.004671667 0.005275283 0.09254719 0.4103367
000020 81 98 66 42 ec 2e b4 41 a3 e7 62 40 56 1c 5e 3e
       57.64893 22.522911 3.545388 0.21690497

encoder.layers.0.weight f4 [32, 23]
000000 0e 4c 48 3a 8c 96 a3 3b c0 5e c6 3c 54 a1 0c bd
       0.00076407276 0.004992312 0.024215102 -0.034333542
000010 cf 4d 9f 3d 08 2b 8a 3e 82 e2 ed bd ee f0 0a be
       0.07778513 0.26985955 -0.116154686 -0.1356847
000020 11 da 1b bd 55 ea be 3d c3 cc 12 be 66 90 e2 3c
       -0.03804976 0.09322039 -0.14335923 0.027656745
000030 79 a7 a7 3a 9f c2 d1 3c 8a d1 34 3e 05 ba 82 3e
       0.0012791 0.025605498 0.17658058 0.25532547
000040 1e b2 de 3b 6d 40 86 3a a2 a1 d1 bb cb 07 4f bd
       0.0067961356 0.0010242589 -0.006397442 -0.05054454
000050 61 ad ef ba 3c 88 59 3d 27 30 60 3c 68 47 9a bd
       -0.0018285924 0.05310844 0.013683355 -0.07533151
000060 ec d4 28 bb bb fc d2 bd ef 64 f9 bd 9c ca f9 3d
       -0.0025761677 -0.10302111 -0.12177455 0.12196848
000070 b0 2b 4c be ed db 17 3e a8 57 8a 3e 4c f8 11 3e
       -0.1993854 0.14829989 0.2702 0.14254874
000080 62 72 14 be 46 23 19 be f7 39 16 3e 94 93 1f 3d
       -0.14496759 -0.14954862 0.1467055 0.0389591
000090 6b 26 9d bd eb da 8e bc 0c 50 a8 3b 1b 39 f9 bc
       -0.07673343 -0.017438373 0.0051364955 -0.030422738
0000a0 90 b9 f8 3b 73 23 64 3d e7 40 b9 3d a0 1d d3 bd
       0.00759048 0.05569787 0.09045582 -0.10308385
0000b0 d0 7c ee bd 48 43 c9 3c 85 71 07 3e ec 39 ca 3b
       -0.116449 0.024568215 0.13226898 0.0061714556
0000c0 5d 84 c5 bc 38 6d 02 3e b9 ff a4 be 73 07 8f 3d
       -0.024110967 0.12736976 -0.3222635 0.06983843
0000d0 41 3f 06 3e 8e 2a 9f 3d d8 72 3c 3c bd 5d 29 bd
       0.13110067 0.077717885 0.01150199 -0.04134916
0000e0 25 81 57 bc 91 18 2a 3e 9e b8 82 3a 40 c4 02 3d
       -0.013153349 0.16610934 0.0009973233 0.03192544
0000f0 b0 a1 12 3d 19 4d 0f 3e 0c 49 93 bd 25 ce d1 3d
       0.03579873 0.13994254 -0.07191667 0.10244397
000100 17 78 5f 3c eb 51 8c 3d 7a 47 83 bc 80 02 88 bd
       0.0136394715 0.06851562 -0.016025294 -0.06641102
000110 26 32 1f 3d 83 40 ce bb 14 1d 1c 3d 81 59 40 bc
       0.038866185 -0.0062943115 0.03811367 -0.011740089
000120 fa 75 1f be 42 68 28 3e 7e fd c7 be 44 6e 46 3e
       -0.15572348 0.16446021 -0.39060587 0.19378
000130 dc cf 88 be 74 e9 1a 3d 12 eb a6 3c 3e ee 08 3e
       -0.26721084 0.037820294 0.020375762 0.13372132
000140 c4 88 2c 3e c3 76 39 3b 8a 5d ad 3c 73 01 cb 3c
       0.16849047 0.0028299547 0.021162767 0.024780964
000150 03 1f c2 bd 82 98 0f b9 24 da 9e 3c e8 31 9b bb
       -0.09478571 -0.00013694356 0.019391127 -0.004736174
000160 06 27 c0 3d 9d 5c d3 3d e6 de ad bd 84 5d 06 be
       0.09382443 0.10320399 -0.0848978 -0.13121611
000170 47 be f7 3a 6b df 8c bb 46 31 34 3e 05 32 ad bd
       0.0018901312 -0.0042990944 0.17596921 -0.08456806
000180 c3 eb 2e bd ee 05 70 3d bd 96 71 3d 4a 16 76 3d
       -0.04270531 0.058599405 0.058981646 0.06007985
000190 5f 11 7c bc ec 91 7b be 11 6f 42 be 44 08 82 3d
       -0.015385001 -0.24567384 -0.18987681 0.06349233
0001a0 00 81 44 bd bb 7d 99 3d 36 95 b7 bc ad bd 3b be
       -0.047974586 0.07494684 -0.022410017 -0.18334074
0001b0 2a 90 e8 3b 2e 12 18 3d c6 de 5f bc a3 c2 44 3e
       0.007097264 0.037126713 -0.013663953 0.19214873
0001c0 b0 01 97 bd 20 6a 9c bd 1f 5a 70 bc 2a e0 18 bb
       -0.07373369 -0.07637429 -0.014669924 -0.0023326972
0001d0 a6 a8 87 3d 09 33 fd 3c d9 e6 d1 3c 8b 79 a3 3d
       0.06623964 0.030908125 0.025622772 0.07982167
0001e0 7b ed 01 be b4 a1 42 3e f1 59 2d 3e c9 d4 9f 3d
       -0.12688248 0.19006997 0.16928841 0.078042574
0001f0 8f 1c 21 3d 40 c7 09 3e 93 ae 2f be b1 ae 8e bd
       0.039333876 0.13454914 -0.17156439 -0.069669135
000200 24 c1 1a bd 2d 3f 81 3e 24 d1 79 3b 7e 1b 98 bd
       -0.03778185 0.25243512 0.0038119042 -0.07427119
000210 30 a7 ec 3d 7e c9 06 bd 62 6b 1a 3d 48 7b f2 3d
       0.11555326 -0.032907 0.037700064 0.1183992
000220 b9 b2 87 bd 80 60 c4 bd 33 17 2f 3d 4c 13 a3 bb
       -0.066258855 -0.095887184 0.042746734 -0.0049766656
000230 ca ad 15 bd 58 35 8b 3e 27 cc 5e 3e 15 b2 82 3e
       -0.03654269 0.27189136 0.21757565 0.2552649
000240 d3 06 53 be a9 fa 88 bd 0d 86 ab 3c e0 ed 3c 3a
       -0.20608072 -0.06688435 0.020937944 0.0007207077
000250 8f 3e f5 3d a9 26 26 3d e8 70 9b bc 8b 18 d3 3c
       0.11974823 0.040564213 -0.018974736 0.025768539
000260 67 f3 f6 bb d9 ab 08 3e 82 58 e8 bd 86 89 0b bd
       -0.00753634 0.13346805 -0.113450065 -0.0340667
000270 81 42 e7 ba 34 31 70 3d 97 15 a2 bd 04 2c 06 bd
       -0.0017643721 0.058640674 -0.07914274 -0.03275682
000280 5f b7 fc 3c 3f 94 c5 b9 a8 a4 43 bc 55 6d 1e bc
       0.030849157 -0.0003768522 -0.011941113 -0.0096696215
000290 2d 27 92 3d f5 c2 28 bd 2c 6a 1f 3e 42 f3 92 3e
       0.071363784 -0.04120155 0.15567845 0.28701216
0002a0 14 5f 86 bd dc 46 b6 bc e9 a8 95 3d 7e 74 3d 3e
       -0.065611035 -0.022250585 0.07307608 0.1850147
0002b0 9c 14 19 3e e5 fa cf 3c 22 4b ec bb 4a a3 87 3d
       0.14949268 0.02538819 -0.007211105 0.06622942
0002c0 41 6a 9e bd d5 e6 93 bb 15 1b e3 3b 28 36 0a 3c
       -0.0773511 -0.0045136013 0.0069307187 0.008435763
0002d0 d2 88 30 3d de 8a e3 3b f1 67 00 3d c5 b4 04 be
       0.043099232 0.0069440445 0.031349126 -0.12959583
0002e0 c8 ea 7b ba 74 53 5f 3c 46 ea 25 3b 7d a1 88 3d
       -0.0009609875 0.013630737 0.002531664 0.066714264
0002f0 28 0c 9d 3d 94 07 6f be fc 33 45 3e 05 b4 af be
       0.07668334 -0.23342735 0.19258112 -0.34317032
000300 61 bd 2d 3d 37 8c a6 3c 08 fb 28 3e ad f8 81 be
       0.042416934 0.020330532 0.16502011 -0.25385037
000310 00 aa af 3b e5 26 28 3b c7 ab 77 be 1f 7f 87 3e
       0.0053608418 0.0025657949 -0.24186622 0.26464173
000320 84 48 ed bb 1d 77 6e bc 2f bc 98 3a 49 22 83 bd
       -0.0072413106 -0.014554766 0.0011652763 -0.06403024
000330 cf e9 16 3d fd fe 31 3d 8c df 27 bd 00 92 a0 3b
       0.03684407 0.043456066 -0.040984675 0.004900217
000340 3b d8 08 be 7e 50 bb 3d a3 80 1e 3c 27 3a 27 3d
       -0.13363735 0.09146212 0.009674224 0.040826943
000350 8b ca a1 bd 0e 31 bf bd 16 7c 25 be e6 67 f8 3c
       -0.0789996 -0.09335528 -0.16160616 0.03032298
000360 40 a8 a9 bd 2f fe 56 3d 39 3c cd b9 39 01 14 bc
       -0.08284044 0.052488502 -0.00039145516 -0.009033495
000370 3e ef e9 bc e5 58 25 be 8e f6 81 3d 89 27 8d 3d
       -0.028556462 -0.16147192 0.06345855 0.06892306
000380 48 5c 0d be 7a 61 92 3d f6 fe 36 bc 5f 90 be 3d
       -0.13804734 0.071474984 -0.011169186 0.0930488
000390 0d 85 8d 3d 05 8d 0a 3e a3 4a 9d 3b 06 73 63 3a
       0.06910143 0.13530357 0.004800157 0.00086765026
0003a0 fa 00 f6 bb 35 12 65 be 5a 34 f3 3d 34 99 8f 3e
       -0.0075074406 -0.22370227 0.1187522 0.28046572
0003b0 32 c3 82 bd 20 96 c9 bd a2 e7 27 bc c4 99 b9 3d
       -0.06384887 -0.09843087 -0.010248097 0.090625316
0003c0 bf 5d 33 bd 38 6f c2 bd f3 8f e6 b8 51 4a b2 3c
       -0.043790575 -0.094938695 -0.00010994067 0.021763952
0003d0 f7 f4 11 bd 9b 75 d4 3d 39 b9 0e bb ec 55 9a bc
       -0.035634007 0.10373994 -0.0021777882 -0.018839799
0003e0 99 7e fa 3a b5 b8 7a bd d0 52 c8 3d 19 36 08 bd
       0.0019111215 -0.061211307 0.0978142 -0.033254717
0003f0 b6 a5 b4 bb b5 cd 1a bb bf 3e c3 bb 41 d5 26 be
       -0.0055129183 -0.0023621146 -0.0059584077 -0.16292287

encoder.layers.0.bias f4 [32]
000000 9d de 3f bc 17 c3 6a 3c 36 01 3e bd 5c 63 02 bd
       -0.01171079 0.01432874 -0.046387874 -0.031833038
000010 75 81 11 3c 93 e6 c3 3c af 9c f1 bc 27 ae 6f bd
       0.008880963 0.023913657 -0.029493658 -0.058515694
000020 2a 69 b2 bb 93 e7 0f 3c eb c8 d4 bb 0c 11 1e 3c
       -0.0054446654 0.008783239 -0.006493678 0.009647619
000030 dd 52 be 3d c9 a3 3d bd 39 f1 17 bd 18 da 22 bc
       0.09293149 -0.046298776 -0.037095282 -0.009939693
000040 df a1 d4 bc 3f a5 89 bc 41 98 cc 3e e9 08 9d bc
       -0.025956092 -0.016802428 0.3995991 -0.019169288
000050 af 19 9d 3e fa 71 85 bc 44 4d cc 3e 55 82 0c bc
       0.30683658 -0.0162897 0.399027 -0.008575995
000060 b5 db 9d bc 32 11 d0 bb b4 a8 d9 3d 7c 45 8d 3e
       -0.019269804 -0.006349706 0.10627881 0.27592075
000070 6f 1d 22 bc 77 30 c9 3d 8d 4c f5 bc a5 2e 62 bc
       -0.009894713 0.09823697 -0.029943729 -0.013805066

encoder.layers.2.weight f4 [32, 32]
000000 c5 fe af 3d 3f d3 ae 3d 6e 3c 12 3e 51 8c 23 3e
       0.08593515 0.08536386 0.14280865 0.15971495
000010 0c 73 5c 3e bb b5 0e 3e 68 a3 b2 3d 8a 68 86 3d
       0.21528262 0.13936512 0.087225735 0.06562908
000020 ee 39 32 3e 74 73 20 3c 52 f8 9a 3d 4b d8 ed 3d
       0.17404911 0.009793151 0.075668946 0.1161352
000030 81 11 b9 3c ad bd bc 3d 73 97 4b 3d 8b 97 27 3e
       0.022591354 0.09215865 0.04970498 0.16366403
000040 62 ff 1d 3e 58 92 20 3e fe 75 4f bd ed 8c cc 3d
       0.15429452 0.15680826 -0.050649635 0.09987817
000050 d0 8d 9b bd 95 04 c2 bb 39 5f 31 3d 5a a1 54 3d
       -0.07595408 -0.0059209564 0.043303702 0.05191169
000060 12 83 32 3e d4 69 19 3e da 4c c3 3d 9d 5f 98 3c
       0.17432812 0.14981776 0.09536143 0.01860028
000070 0e bd 04 3e 97 21 ae 3b 5f dd 37 3e e4 70 b4 3d
       0.12962744 0.005314063 0.1795554 0.08810595
000080 90 8a 9f 3d be 6d 4f 3b f2 04 18 bd c1 e2 94 3e
       0.077901006 0.0031651105 -0.03711409 0.2907925
000090 71 20 b5 3c 6e a2 2c 3e 54 d2 98 3d 75 10 47 bd
       0.022110196 0.16858837 0.07461992 -0.04859968
0000a0 02 c3 d8 3d a0 31 a6 3d 18 50 13 3e 93 ed 04 3e
       0.1058407 0.08114934 0.14386022 0.12981252
0000b0 82 4a 3c 3e 03 14 d4 3d 71 a3 48 3c 37 31 4a 3e
       0.18387797 0.103553794 0.012245999 0.19745336
0000c0 9e 9a 32 3e 6b 5e 81 bd 46 0e 0d 3e 87 14 07 3e
       0.17441794 -0.06316837 0.13774976 0.13191424
0000d0 49 d2 06 3e e7 82 3b 3e b6 0f f5 3d 0c 73 44 3e
       0.13166155 0.18311654 0.11965887 0.19184512
0000e0 77 97 13 3e 45 65 40 3e 05 bf c1 3d 62 a1 31 3d
       0.14413248 0.18788631 0.09460262 0.043366797
0000f0 df 61 0f 3e d8 59 82 3d 9e 99 fe 3d e4 6b 3d bd
       0.14002179 0.063647926 0.12431644 -0.04624547
000100 28 5e 9c 3d b0 4a 32 bd 96 59 fb 3d d1 36 fe 3d
       0.076351464 -0.04352826 0.122729465 0.12412799
000110 a7 1d 6a 3d 43 09 b6 bd 0f aa 2c 3e d8 4c a2 3a
       0.057157185 -0.08888485 0.16861747 0.001238252
000120 74 b8 2e bd 91 de 11 3e c5 54 43 3d 38 0f 65 3e
       -0.042656377 0.14245059 0.047688264 0.22369087
000130 06 e7 8d 3d bb 53 d7 3d a5 37 1f 3e 7b 0b ad 3c
       0.0692883 0.10514017 0.1554857 0.021123638
000140 ff 46 39 3e b2 20 e8 3d e5 d7 88 bc ca ee 44 3e
       0.18093489 0.11334361 -0.016704509 0.19231716
000150 0c b6 2e 3d 59 b7 32 3e 5b e2 44 3e 10 37 5f 3e
       0.042654082 0.17452754 0.19226973 0.21798348
000160 07 11 c9 3d 93 50 49 3e 84 83 99 3d b3 5b ee 3c
       0.09817701 0.19659643 0.07495788 0.02909646
000170 f5 e8 eb 3d 21 f5 5e 3d 1e 64 29 3e 83 82 08 3c
       0.115190424 0.054432992 0.16542098 0.008331898
000180 17 f0 11 3e 1b 52 15 bd ab 5a 75 bc 74 b9 62 3d
       0.14251743 -0.036455255 -0.01497523 0.055352643
000190 c0 a9 63 3d a7 9a b4 3c 4a f5 0d bc 91 9f 23 3e
       0.055581808 0.0220464 -0.0086644385 0.15978839
0001a0 ce 6b 45 3e 15 e4 ce 3c 4f 34 08 3e 0f 79 6c 3e
       0.19279405 0.025255242 0.13301204 0.23093055
0001b0 28 65 14 3e ca be 26 3e b8 d1 6a 3d db e5 dc 3b
       0.14491713 0.16283718 0.05732891 0.006741268
0001c0 83 f3 10 3e 62 79 ce bc 33 af 13 3d 05 b3 ec bc
       0.14155392 -0.025204364 0.036055755 -0.028893957
0001d0 ad 59 8a 3d ee 0b 97 3d 71 a7 aa 3d 3c 5f 07 3e
       0.067553855 0.07375322 0.08332718 0.13219923
0001e0 0c 76 18 3e 81 c6 6e 3d d9 e4 42 bb a6 cf 12 3e
       0.14888781 0.058294777 -0.0029738455 0.14337024
0001f0 1e 7d 64 3d f5 7d f2 3d 58 cc bb 3d 11 b3 b9 3c
       0.055783384 0.11840431 0.09169835 0.022668393
000200 42 fb 98 bd f1 b9 91 3d 49 31 b1 bc 4f 98 30 3e
       -0.074697986 0.07115544 -0.021629946 0.17245601
000210 ca 6d b3 bd 5c b6 ae bd bb 90 8a 3d 22 6c bd 3c
       -0.08761175 -0.08530876 0.067658864 0.02312285
000220 f5 6a 2e 3e 8f 26 c5 3c 44 b8 0a 3d 84 9d ee 3d
       0.17032988 0.024066238 0.033867136 0.116511375
000230 96 a2 2f 3e 46 f6 ec 3d 6e bf cc bd 4e d4 d9 3d
       0.17151865 0.115704104 -0.0999745 0.10636197
000240 71 c6 95 3d c1 e2 a7 bd 9f ed 33 bd 15 88 93 3d
       0.0731324 -0.08197547 -0.043927785 0.0720369
000250 94 53 b0 3d 3b 31 14 3e be 58 cd bd b1 e6 6b 3d
       0.08609691 0.14471905 -0.10026692 0.05759305
000260 27 ee 63 3d 7e ec 37 3d 37 03 1b 3d 01 65 f1 3d
       0.05564704 0.04490327 0.037844863 0.11786843
000270 36 94 60 3d e7 56 28 3e ca c2 5e bd 9b d9 00 3e
       0.054828845 0.164394 -0.054384984 0.1258301
000280 e2 9c 4b bc 93 a8 43 3e 39 2d 73 3c f8 52 d7 3b
       -0.0124275405 0.19107275 0.014842325 0.00657117
000290 b7 b2 8c 3d 87 50 df bd 77 d3 bd 3d fb 55 cf 3d
       0.06870025 -0.10904031 0.09268849 0.10123821
0002a0 06 31 fe 3a 41 77 89 3d eb b7 9a 3d 44 8e ad bc
       0.0019393272 0.06712199 0.07554611 -0.021186002
0002b0 0e f0 2f bc 0a a9 72 3d e8 af 2d 3d 38 16 9e bd
       -0.010738386 0.05924324 0.042404085 -0.07719082
0002c0 1b 1d 8c 3d 70 09 62 bd 09 a4 99 3b 63 76 79 bc
       0.06841489 -0.05518478 0.004688744 -0.0152259795
0002d0 1e 37 9c bd f8 36 27 bd ed e9 00 3d 2a 38 42 3d
       -0.076277 -0.040823907 0.03147309 0.047416843
0002e0 e5 04 ed 3b fd 8a 8d 3d 3e 5e 7f 3c bb 28 2d 3d
       0.0072332495 0.069112755 0.015586434 0.04227517
0002f0 d7 a0 47 bd 53 66 97 bd 8f 6c d5 bb 03 74 dc bc
       -0.048737373 -0.07392564 -0.0065131853 -0.026910787
000300 b4 a6 08 3e c6 76 ed 3c 12 8c c6 3d 47 2b a4 3e
       0.13344842 0.0289873 0.09694685 0.32064268
000310 4a 27 8e 3d 6e 31 15 3e 30 0d 10 3d 69 c8 6d 3d
       0.069410875 0.14569637 0.035168827 0.058052454
000320 8d c2 53 3e 21 9e 1a 3a 21 d2 78 3d 5c a0 2b 3e
       0.20679684 0.0005898197 0.06074727 0.16760391
000330 a8 a2 05 3e 43 01 e4 bb ab ce 95 bb 8b a3 3c 3d
       0.1305033 -0.006958158 -0.004571756 0.046054404
000340 a0 51 a8 3e 11 94 ac bd c8 62 e7 bc a1 fc 73 3e
       0.32874775 -0.08426679 -0.028245345 0.23826839
000350 a3 00 f1 3d a1 dd 81 3e 0b fd 77 bd 51 ce f8 bb
       0.117676996 0.25364402 -0.060544055 -0.007592954
000360 14 7d 4c 3e ec c2 58 3e af 70 90 3b 16 1c 1f 3e
       0.19969589 0.21168107 0.004407964 0.15538058
000370 10 77 ac 3d 16 bc 4f 3e 60 75 84 bd 87 43 46 3d
       0.08421147 0.20286593 -0.064677 0.048404243
000380 38 09 07 bd 2e e9 01 bd ae 31 f0 bc ec 9d 88 3d
       -0.032967776 -0.031716518 -0.029320564 0.06670746
000390 09 af 1e 3e 83 cd 22 3c aa 9a e4 bd 43 4f 76 3d
       0.15496458 0.009936693 -0.11162312 0.060134184
0003a0 90 d6 d3 bc c1 51 d5 bc 42 6a bf bc d3 c5 3f 3b
       -0.025859147 -0.02603996 -0.023366097 0.00292622
0003b0 b5 85 1a 3e 54 17 52 3d 77 74 a4 3d e7 d7 06 3e
       0.15090068 0.05129178 0.080300264 0.13168298
0003c0 e9 c8 19 3d 76 83 ec bd 1a 2b 38 bd 41 62 c1 3c
       0.03754512 -0.11548512 -0.04496298 0.023606421
0003d0 73 17 7a 3d 27 85 b9 3d 14 d2 06 be 61 81 8b bd
       0.06105752 0.090586 -0.13166076 -0.068117864
0003e0 36 01 45 bd 5c a0 0d 3e 6a 91 ba 3d 10 d0 99 bd
       -0.048096858 0.13830703 0.09109767 -0.07510388
0003f0 53 42 03 3e b3 0e 86 3d db 6e d1 ba 91 e3 c0 3d
       0.1281827 0.065457724 -0.0015978472 0.09418405

encoder.layers.2.bias f4 [32]
000000 d8 d7 ae be 9c fe ca bd 26 5a e6 bd c5 3b 80 bd
       -0.3414905 -0.09911844 -0.11247663 -0.062614
000010 69 a1 68 bd 4d 66 d5 bd bd b7 a8 bd 96 68 13 3d
       -0.056794558 -0.10419903 -0.0823817 0.035988413
000020 3a 06 07 be ed 93 c4 bd 52 48 6d 3e f2 6a e7 3e
       -0.13185969 -0.09598527 0.2317212 0.4519878
000030 17 cf d7 3d f6 fd a1 bd d8 67 c6 3e 8d 95 de 3e
       0.10537546 -0.07909767 0.38751101 0.43473473
000040 05 1c 5b bd 09 ef 93 3d c8 a8 35 3e c4 78 23 3e
       -0.05349352 0.07223327 0.17740166 0.15964037
000050 97 47 8f bd c4 55 08 3d aa 4e 1f 3d d1 bb 83 3d
       -0.069960766 0.033284917 0.03889338 0.064323075
000060 bd 53 86 3b b7 38 8c bc c0 7c b7 3b 49 e0 5a bc
       0.004099338 -0.017116887 0.005599588 -0.013359138
000070 5d a3 af bd b3 c5 1a 3d 98 a6 03 3a cd 52 63 bd
       -0.08576081 0.037786197 0.0005022078 -0.055498887

encoder.layers.4.weight f4 [12, 32]
000000 16 c0 2d 3e 8c 93 76 be 35 62 84 be 8f a2 c8 bc
       0.16967806 -0.24079722 -0.25856176 -0.024491576
000010 eb cc 50 be d0 60 8a 3c 51 6d a8 be 03 e8 87 3c
       -0.2039067 0.016891867 -0.32895902 0.016590124
000020 bd c0 c0 bc 5a 79 05 be 8e a7 be 3b 73 37 f7 3e
       -0.023529405 -0.13034573 0.005818314 0.48284492
000030 60 6f 4d 3d 17 87 4a be ed 39 d9 3e fe b5 0d 3f
       0.050155044 -0.19778095 0.42427006 0.55355823
000040 3c c4 f0 bd 51 8f 52 bc f1 e0 c1 3e ca 56 91 3d
       -0.11756179 -0.012851552 0.3786693 0.07096632
000050 47 9c c4 bd e3 e8 06 be b1 c2 11 be dc 70 29 3d
       -0.0960012 -0.13174777 -0.14234425 0.041367397
000060 a3 f5 48 be 27 e1 a8 bb e2 68 66 bd 10 3b a1 bd
       -0.19624953 -0.0051537934 -0.056252368 -0.078725934
000070 34 e0 ba 3d e6 89 88 bb 6c 20 94 bd eb fc 8d be
       0.091247946 -0.0041668294 -0.072327465 -0.27732024
000080 b3 0a f9 3d 6a 2b 4e be 03 b3 2a be 40 87 8a be
       0.12160244 -0.20133749 -0.1666985 -0.27056313
000090 4c 10 e8 bd 59 6b 3c 3d b3 45 96 be 3d 2f 40 be
       -0.113312334 0.046000812 -0.2935005 -0.1876802
0000a0 a6 36 a1 bd 5e 19 0d be 8a e9 0c 3e 4a af c2 3e
       -0.078717515 -0.13779208 0.13760963 0.3802436
0000b0 be 5b 2c be 5e 6c 38 be 6a 3d c7 3e 17 c8 0b 3f
       -0.16831872 -0.18010089 0.38914043 0.5460219
0000c0 3c e9 7d be 06 fc e6 bd aa 34 ae 3e 22 46 16 be
       -0.24796003 -0.112785384 0.34024554 -0.14675191
0000d0 59 56 27 3d a4 96 55 be a5 d2 c0 3c 6f 46 3c be
       0.040853832 -0.20858246 0.023537943 -0.18386243
0000e0 3f 27 5a be 33 f3 40 be bc d1 59 be 7b e6 56 be
       -0.21304034 -0.18842773 -0.21271414 -0.20986359
0000f0 f8 c3 57 be 82 c6 1f 3d a9 7c 55 3d 2c 4c 8b bd
       -0.2107085 0.03900767 0.05212084 -0.06801638
000100 e7 1b 34 be 43 e3 95 bd df 4a 33 bd a0 95 62 3e
       -0.17588769 -0.07318737 -0.043772575 0.2212739
000110 fe 14 f2 bd 49 c1 14 be 0f 87 b8 3d 57 98 22 3e
       -0.1182041 -0.14526857 0.090101354 0.15878426
000120 97 1b 96 3d 19 c4 81 3e 6f ca 13 3d e3 66 ad be
       0.07329481 0.25344923 0.036081728 -0.3386756
000130 34 fd f3 bd ee 94 a9 bd 60 fb dd be 50 e2 00 bf
       -0.11913529 -0.08280359 -0.43355846 -0.50345325
000140 77 cf 12 3e cd c5 95 3d 91 4a a7 be 7f a3 dc 3b
       0.14336954 0.07313118 -0.32674077 0.0067333574
000150 a8 16 d8 3c 92 6f ad 3d 79 22 30 3c 7c e3 dd bd
       0.02637799 0.08468546 0.010750406 -0.10834405
000160 43 f6 6b 3b 65 5e 2c bd fb 25 0b 3e fc df 30 3d
       0.0036004938 -0.04208221 0.13588707 0.04318236
000170 fc 7d 04 be 52 70 d2 3d d0 05 03 3e b4 29 09 3e
       -0.12938684 0.1027533 0.12795186 0.13394815
000180 cb d3 40 be 1f 70 0c bd 9b 88 c4 3d cf cf da 3c
       -0.18830793 -0.034286615 0.09596368 0.026710419
000190 2b 22 2f bd 42 c7 9a 3d d6 7f 2c 3e c3 1c c5 bd
       -0.042757194 0.07557537 0.1684564 -0.096246265
0001a0 05 ec 64 3d 8d 9b 11 3e 4e ce 23 3d fb 56 9e be
       0.05588915 0.14219494 0.03999167 -0.30925736
0001b0 ed 3c df 3c 65 55 81 3d 74 a8 c8 bd 5d ae e8 be
       0.027250731 0.06315116 -0.09797755 -0.4544553
0001c0 2d 55 8c 3d 48 f1 48 bd dc 67 23 be 0c 91 9a 3d
       0.068521835 -0.04905823 -0.15957588 0.07547197
0001d0 80 e4 e3 3d ee 09 43 3e 83 eb 57 3b d0 52 ee bd
       0.11127567 0.19046757 0.0032946772 -0.11636889
0001e0 84 d9 31 3d 13 45 f5 3d 3e a7 12 3d c1 89 81 bd
       0.04342033 0.119760655 0.035804026 -0.063251026
0001f0 35 c5 bc 3d 77 19 38 3c 99 17 9f 3d 27 ae 98 bd
       0.09217302 0.01123654 0.07768173 -0.07455092
000200 bc 6a 1a be 8e 2a 31 3d 87 0b 42 3d 9e 1c ac 3d
       -0.15079778 0.043253474 0.047374275 0.08403896
000210 5e d8 ab bd af 86 fb 3d 01 01 85 bd 05 75 10 3e
       -0.08390878 0.12281548 -0.06494332 0.1410714
000220 59 df 43 3e 13 43 9b bd 5c bc 04 bd 9a b0 d8 3c
       0.19128169 -0.07581153 -0.032406196 0.026451398
000230 78 55 d8 3d e4 69 a7 bc df 09 11 be 14 ce 21 be
       0.10563177 -0.020436235 -0.14163922 -0.15801269
000240 b8 8e 56 3c 78 6a 15 3e 74 2f b7 bd 63 2f 77 3e
       0.01309555 0.14591396 -0.08944598 0.2413917
000250 7c b1 91 3d 8f 5b 76 3d 81 3a da bd c7 60 cd 3d
       0.071139306 0.06014591 -0.1065569 0.100282244
000260 ce dc 55 bd 30 d7 08 3e c8 0f 35 bd fd 40 0e 3e
       -0.05221253 0.13363338 -0.044204503 0.13891979
000270 bc 02 23 3e 24 24 f9 3c 09 5f 14 be 23 d4 f7 3b
       0.15919012 0.030412741 -0.14489378 0.0075631305
000280 ab f2 be 3d 9e 7d a0 3d ef b3 0e bd 9d 2e ae bd
       0.09323629 0.078364596 -0.034839567 -0.085049845
000290 3f 03 57 bd dc 08 5a 3b f6 2e b2 bd 9c 85 03 3e
       -0.05249333 0.003326944 -0.08700363 0.12843937
0002a0 da 53 5e 3c d9 0b 8c bc b3 72 71 bd cb 53 0d 3e
       0.013569796 -0.017095493 -0.058947276 0.13801496
0002b0 fe 76 5d 3c 72 c7 2a 3d c6 f4 32 3e 18 83 cf 3e
       0.0135171395 0.041694112 0.17476186 0.40529704
0002c0 fc 21 8a 3d 8d 33 d3 bc ca 2b a6 3b 3e c7 75 3d
       0.06744763 -0.025781417 0.005071138 0.060004465
0002d0 ba 85 82 bd c4 2e 64 bc 66 4b 00 bd 53 70 97 bd
       -0.063731626 -0.013927165 -0.031321906 -0.07394471
0002e0 a5 88 63 3c dd 1e 2f 3d f6 3e a9 bd 6a f2 b9 bd
       0.013887559 0.042754043 -0.08263962 -0.0907944
0002f0 94 70 05 3a ad d4 ca bc 93 5d 0e be 00 3f 81 3c
       0.0005090323 -0.024759615 -0.13902883 0.015777111
000300 34 e1 1c 3e 1f f0 f5 bd ab 83 d4 bd c1 f5 7d bd
       0.15320283 -0.1200869 -0.10376676 -0.062001947
000310 ff 00 da bb 56 d4 08 bd 44 eb 53 bd 38 4d 1c 3d
       -0.006652951 -0.033405624 -0.05173804 0.03815958
000320 f7 19 bf 3c 29 09 bd bd 20 f8 59 be e3 b9 52 be
       0.02332781 -0.09230263 -0.21286058 -0.20578723
000330 92 29 36 be a9 92 1d bd 3e 24 c5 3c 91 c1 45 bd
       -0.17789295 -0.038469944 0.024065133 -0.048280302
000340 c8 df a1 bd d1 91 37 be dd 8d 85 be 34 ea 31 bd
       -0.07904011 -0.17926718 -0.26084796 -0.043436244
000350 f6 21 df 3d 57 f2 e5 3d ee 1a 10 be 6a 03 33 3c
       0.108951494 0.11227863 -0.14072773 0.010926107
000360 7a 7b 3a 3d 78 af b7 3c 47 7c 8d bd 49 fc 5c 3b
       0.045527913 0.022422537 -0.0690847 0.003371971
000370 23 02 a6 3d e5 8b bd bd 22 1b ea 3c ad 11 42 bd
       0.08105876 -0.092551984 0.028577391 -0.04738014
000380 a9 06 8e 3e 34 60 f6 bd f5 ee 8a 3d 46 6d 3e be
       0.27739456 -0.12030068 0.06783859 -0.18596372
000390 1d 0f 92 3d 1a fe 00 3e d9 bb 9b 3d 4f 4d a9 bb
       0.07131789 0.12596932 0.076041885 -0.0051666866
0003a0 24 6d a4 3d ec b6 00 be d6 39 a8 be a5 ee 73 3c
       0.080286294 -0.12569779 -0.32856625 0.01488844
0003b0 07 f5 a1 3c 43 91 8d 3c fc 5c c3 bd 53 ef b1 3b
       0.019770158 0.01728118 -0.0953922 0.005430141
0003c0 73 9d 3e 3c 15 1b de 3d fa d7 57 bd 6b bd f4 bd
       0.0116342185 0.10845009 -0.052696206 -0.11950191
0003d0 99 7e 38 b9 2f 51 15 3b b0 f1 49 be 1d c3 72 bd
       -0.00017594769 0.0022783985 -0.19721103 -0.059268106
0003e0 95 67 2b 3d a1 75 02 3c 0a 3f 4e bd e6 ed bd bd
       0.04184683 0.007962615 -0.050353087 -0.09273891
0003f0 96 45 d8 bd 7a 17 cc 3d 1b 58 2b be a6 e8 d9 3b
       -0.105601475 0.09965415 -0.16732828 0.0066500483

encoder.layers.4.bias f4 [12]
000000 b0 e5 bf 3e 97 4b 92 3e e7 3c a2 be 21 0b e0 3c
       0.37479925 0.28573295 -0.3168709 0.027349057
000010 ec 99 5e bd 70 f0 f5 3d bf 0f 06 be 3d c5 52 be
       -0.05434601 0.120087504 -0.13091944 -0.20583053
000020 d4 79 77 bd b3 0c 63 3d bf 48 7f bd 03 52 9a 3a
       -0.06041892 0.055432033 -0.062325235 0.0011773709

decoder.layers.0.weight f4 [32, 17]
000000 09 9b 0a be a1 41 48 bd 88 73 73 3d 0c 2a 8e bd
       -0.13535704 -0.048890714 0.05943635 -0.069416136
000010 ec e5 9e bd e5 48 62 bd 3a 16 91 bd 90 9f 85 bd
       -0.07758698 -0.0552453 -0.070843175 -0.06524575
000020 0d af 8d 3e ea ae 62 be ce 83 38 3e f5 e6 12 be
       0.27672616 -0.22137037 0.1801903 -0.14345916
000030 73 4c bd 3e c2 28 77 3e e5 dd ba 3d 9e 41 28 be
       0.3697239 0.24136642 0.09124354 -0.16431281
000040 83 c7 8a 3d 78 0a 26 3e e8 e5 9c 3e 65 b7 9a bd
       0.06776335 0.16214931 0.30644155 -0.07554511
000050 ef 28 3c be 10 c2 c1 3c 1a f9 ad 3e 57 c2 e3 3b
       -0.1837499 0.023652107 0.33979112 0.0069506573
000060 2c 3c 16 3d ed 33 9d bd dc ae 47 3c 42 8e 03 be
       0.036678478 -0.0767592 0.012187686 -0.12847236
000070 45 ff 3d bd 24 0d 8b 3e 7d 03 a9 bc 2d 21 8e be
       -0.046386022 0.27158463 -0.020631546 -0.27759686
000080 d6 db 19 be 41 2c 36 3d c5 46 94 3e 4c 0a 79 3e
       -0.15025267 0.044475798 0.28960243 0.24320334
000090 18 6d 8a be 1e 8f 68 3e 59 58 fa 3c 85 54 6c 3e
       -0.27036357 0.22710845 0.030559706 0.23079117
0000a0 4f 9f 75 be 56 d5 eb bd 9a 28 40 be da 19 23 3d
       -0.23986553 -0.115153 -0.18765488 0.039819576
0000b0 07 ba 4f 3e 57 4f 8a 3d 56 f5 b5 3d 05 c8 3a 3d
       0.20285808 0.06753414 0.08884685 0.04560091
0000c0 97 8e 06 be 54 54 a7 bd 9a 45 3a 3e 9c 81 6f be
       -0.13140331 -0.08170381 0.18190613 -0.23389286
0000d0 02 bf 97 bc 02 35 8d bd 22 8f 47 bd ea 72 64 bc
       -0.018523697 -0.06894876 -0.048720486 -0.013943413
0000e0 61 35 2f be 59 e6 10 be 08 cd 95 3e 3e 3f 08 bd
       -0.17110206 -0.1415037 0.2925799 -0.033263437
0000f0 f4 33 bb bd 47 5b 87 be 68 ab 04 be a3 f9 8a be
       -0.09140769 -0.26436827 -0.12956011 -0.27143583
000100 0b 9b b7 3d 65 e3 51 3e d0 be 20 3e 3d 9b db bc
       0.08965119 0.204969 0.15697789 -0.026807422
000110 cf 53 17 be 0d 9d 20 be 1f aa 20 3e 55 fc 21 3e
       -0.14778064 -0.1568491 0.15689896 0.15818913
000120 fd 1f 0f 3e 5c 37 32 be 94 87 28 3e 0f 7b be bd
       0.13977046 -0.1740393 0.16457969 -0.09300815
000130 95 4a e5 bd 90 05 64 3e 4e 16 fa 3d 06 c5 a9 3d
       -0.11195866 0.22267747 0.122112855 0.08289532
000140 11 55 0a bb fa 38 19 be b5 d6 de bc b8 4c 05 be
       -0.0021107832 -0.14963141 -0.02720199 -0.13017547
000150 71 50 63 3e cf 12 61 3d 2f 18 eb bd bc 0f 26 be
       0.22198655 0.054949578 -0.11479222 -0.1621694
000160 4d 8d 71 3e 87 d0 cc 3d 61 ca df bd f8 46 9c 3e
       0.23589058 0.10000711 -0.109272726 0.30522895
000170 96 a4 83 3d a6 b4 32 3e 56 51 05 3e 2c 6d 37 3e
       0.06427877 0.17451724 0.13019308 0.1791274
000180 01 35 95 3d e1 2f 2c be 9a 22 94 be 4b 7f 90 3c
       0.072855 -0.1681514 -0.2893265 0.017638823
000190 fa 04 8b be 44 ee d9 3d 57 f7 3b be fc ed 1d be
       -0.27152234 0.10641149 -0.18356071 -0.15422815
0001a0 10 07 5e bd b5 4b 17 3e 42 b7 33 bd bf c0 1e be
       -0.054205954 0.14774974 -0.04387594 -0.15503214
0001b0 ab 6a 91 be 99 c7 ba 3d bf 33 db be 79 d0 8a 3c
       -0.28401694 0.091201015 -0.42812917 0.01694511
0001c0 02 b2 89 3e ef f7 6e 3e ba 6f 83 be 8f f4 2f be
       0.26893622 0.23336767 -0.25671178 -0.17183135
0001d0 d7 a4 3a 3e 79 0b c5 3d a2 cb b5 3d 66 ff 87 3d
       0.18226944 0.09621329 0.088767305 0.0664051
0001e0 68 7e c9 bd 70 3e 1d be a0 6e 6e 3e 46 1f 91 3d
       -0.09838563 -0.1535585 0.23284388 0.07086043
0001f0 53 6e 5d 3e b2 dc c2 bd 99 66 ea bd 2e 20 9a bc
       0.21624117 -0.095147505 -0.1144535 -0.018814173
000200 eb 28 00 3e 5c a7 7e 3c ff fb 0a bd 4b a7 59 3d
       0.12515609 0.015542831 -0.03393173 0.05313806
000210 1d ee 05 be 65 36 8d bd a2 cf dd bd 6f a6 d2 3d
       -0.13079114 -0.068951406 -0.108306184 0.10285651
000220 65 e2 64 be 48 4e 85 be 76 7e 1c 3e 08 48 14 3e
       -0.22351988 -0.26036286 0.15282616 0.14480603
000230 e6 df 82 3d e9 b5 19 bd 8f 28 04 be 74 24 bf be
       0.063903615 -0.037527 -0.12906097 -0.373325
000240 27 c5 f6 3d 97 3c 0b be 73 c4 0e 3e b2 b6 9f 3c
       0.120493226 -0.13597332 0.13942127 0.019496296
000250 31 c7 6c 3d ab d0 90 bd 85 8a 66 3e 0f b8 93 3e
       0.05780715 -0.0707105 0.22513779 0.28851363
000260 5b 98 fe 3d a1 86 f8 bd 74 77 89 3e 4e fb 2f be
       0.12431403 -0.121350534 0.26848948 -0.17185709
000270 37 b7 63 3e 57 3b 81 be 6f a6 b3 bd ce 7f 96 3d
       0.2223786 -0.25240585 -0.08771979 0.073485956
000280 09 5a 6a 3d 05 46 b6 3d 9b 61 af 3c 9e 94 4a 3e
       0.05721477 0.08900074 0.021408847 0.19783255
000290 6e 3c 0e 3e 4f c1 92 3d 1b a1 3b be ac b2 2d be
       0.1389024 0.07165777 -0.18323176 -0.16962689
0002a0 4a 28 f2 3c 4b cd 05 3e a7 26 e6 3d 92 04 f5 bc
       0.029560227 0.13066594 0.11237841 -0.029909406
0002b0 3a d3 44 3e 8c 12 31 be e4 b9 37 3e 27 31 15 3d
       0.19221202 -0.17292231 0.17942005 0.03642383
0002c0 c4 0a e9 3d 2b cc 9e 3e b2 31 8d 3d e4 f7 94 3e
       0.113790065 0.31015143 0.06894244 0.29095376
0002d0 64 8e 6f 3e e6 b9 bb bd de 51 93 3e ba e8 02 3e
       0.23394161 -0.09166317 0.28773397 0.1278409
0002e0 b9 c0 80 be 65 df d9 bd 22 b3 f5 3c d4 fc 65 bd
       -0.25147036 -0.10638312 0.029992644 -0.05614932
0002f0 2e c5 35 be 92 79 d6 bb 9f bb 87 bd 8f 7f 2b 3e
       -0.17751 -0.006545254 -0.06627583 0.16747878
000300 cb cf b0 3d 9a 6f 61 bd 6b 90 27 3e 79 51 9b bd
       0.08633383 -0.055038072 0.16363685 -0.07583899
000310 1f 90 0a 3e d1 ba 06 3e 6d 70 6c bb e8 b9 d4 be
       0.1353154 0.13157202 -0.0036077753 -0.41548085
000320 00 05 03 ba e2 ee a6 bc 68 84 10 3d 9c b9 51 be
       -0.00049979985 -0.02037758 0.035282522 -0.2048096
000330 32 b0 0a be 1e 7c 6b be db e0 57 3d fb d9 49 3d
       -0.13543776 -0.22996566 0.052704673 0.049280148
000340 02 13 68 3e 05 37 c0 3d f6 0f 39 3e e1 a4 05 3e
       0.22663501 0.09385494 0.18072495 0.13051178
000350 34 cd af 3e 7a 59 75 be e3 b8 83 3c 78 83 96 bd
       0.34336245 -0.23959914 0.016079372 -0.073492944
000360 47 ce 06 3e 82 53 24 be 78 1c 10 3d 26 c9 5d bd
       0.13164626 -0.1604748 0.0351834 -0.05414691
000370 35 d5 a5 3c a5 fc ea 3d 4a 81 38 be 1a 47 5b 3d
       0.020243267 0.11473969 -0.1801807 0.053534605
000380 77 d2 14 3e bf 19 81 be 96 13 a0 bd 20 16 01 be
       0.14533411 -0.25214955 -0.07816236 -0.12606096
000390 9b 2f 28 3e 51 43 8f bd 54 bb 24 bd bd 27 68 3d
       0.1642441 -0.069952615 -0.040217713 0.056678522
0003a0 c0 64 c7 bd 07 bf b4 3b 67 ca 76 bc e6 6f 51 3e
       -0.097360134 0.0055159363 -0.015062905 0.20452842
0003b0 4e cc 71 3c 0a cf dd bd 30 05 77 3e 88 6e b1 3b
       0.014758183 -0.10830505 0.24123073 0.0054147877
0003c0 2b b4 15 be 0b ac aa 3c 63 03 f1 bd 4e 52 40 be
       -0.1461951 0.02083399 -0.11768224 -0.18781397
0003d0 7a 5a 0f be df b4 50 3e ec 20 84 bd 07 40 97 bb
       -0.13999358 0.20381497 -0.06451592 -0.004615787
0003e0 d5 0a 82 be ca 9d 75 3e 09 30 3a be a7 44 dd 3d
       -0.2539889 0.23985973 -0.18182386 0.1080411
0003f0 a9 17 4e 3e a0 da ca bb b7 13 82 bd 4a 45 91 3e
       0.20126213 -0.006190613 -0.063514166 0.28373176

decoder.layers.0.bias f4 [32]
000000 86 98 db 3d 92 5f 73 3e e5 88 87 3e 81 20 06 3c
       0.10722451 0.23766926 0.2647163 0.0081864605
000010 bc eb 0c be f1 de 62 be f8 7a fe bd 50 57 26 3e
       -0.137618 -0.22155358 -0.12425798 0.16244245
000020 71 6c 46 3e 87 c0 b3 3e 5b 8b d0 3d 71 f0 5f 3e
       0.19377305 0.35107824 0.1018283 0.21869065
000030 1b 86 c2 bd 43 94 d7 3e 05 dc fb 3e 83 81 d2 3e
       -0.09498235 0.42105302 0.491913 0.41114435
000040 a8 f6 5c 3e d1 76 1a be 3b 04 46 be 7a df 73 3e
       0.21578467 -0.15084387 -0.19337551 0.23815718
000050 69 3b d7 bd c3 93 9d 3e f2 ae d2 3e 12 5e c6 3c
       -0.105093785 0.30776796 0.41149098 0.024214778
000060 df ab 59 3e c9 0a 7d bd b1 6b d9 3d 12 9e c0 3e
       0.2125697 -0.061777864 0.10616244 0.37620598
000070 5f 11 84 3d 93 8e 05 3f b4 3f 8a 3e 26 1c 3f bc
       0.06448626 0.52170676 0.27001727 -0.011664426

decoder.layers.2.weight f4 [32, 32]
000000 68 0d 81 3e 6b 6b 1a bd 91 c6 21 be d0 9e 23 3e
       0.2520554 -0.037700098 -0.15798403 0.15978551
000010 ff 81 93 bd 5b 29 43 3e 53 3a 0b be 6e 38 73 bd
       -0.07202529 0.19058745 -0.13596468 -0.059379987
000020 96 7d 62 3e 72 a6 8c bd d3 ff 1f bd 48 fd fc 3d
       0.2211822 -0.068676844 -0.039062332 0.12352997
000030 d3 72 2f 3e 7d 5d 88 3d eb da 33 bd 7a 4e 9e bd
       0.17133646 0.066584565 -0.04390995 -0.07729812
000040 51 69 39 bd c2 ad 80 bc 8a 78 ec bd ab ea 50 3e
       -0.045266453 -0.015707854 -0.115464285 0.20402019
000050 f8 f9 f0 3d 1a fa b3 bd d2 0e ea bb 4c 62 01 be
       0.11766428 -0.087879375 -0.00714288 -0.12635154
000060 85 78 ad bd 9c 32 24 3e 16 1f a4 3d 5e 97 04 bd
       -0.08470253 0.16034931 0.08013742 -0.032370917
000070 e4 13 66 bd a5 d5 cb 3c c6 d6 b8 bd d4 6d b9 3d
       -0.056171313 0.024882147 -0.0902534 0.09054151
000080 89 bc 0e bd 55 21 e6 3d 0c 1c c3 bc 5a f4 dd bd
       -0.03484777 0.11236826 -0.023817085 -0.10837622
000090 20 e0 fb 3d d1 14 2a 3e eb e7 22 be 86 4a b7 3d
       0.12298608 0.16609503 -0.15908782 0.08949761
0000a0 44 9c 3e bd de 37 3d bd 13 4c 98 bb 1b f7 1d 3c
       -0.046535745 -0.046195857 -0.0046477406 0.009641434
0000b0 98 2d b3 bd a6 eb 68 3d 23 8f 46 bd 14 cc 51 be
       -0.08748931 0.056865357 -0.04847635 -0.20488006
0000c0 8f 5c 31 3d f4 97 9f 3d 8c e0 00 3e 5a 69 0e 3e
       0.04330116 0.07792655 0.12585658 0.13907376
0000d0 94 57 6d 3d 66 2f ba 3d fc 9a 07 be 88 e9 e2 3d
       0.05794485 0.09091072 -0.13242716 0.11079699
0000e0 db d0 31 bb 3b 29 1d 3d ef 85 a1 bd e3 21 81 3d
       -0.0027132544 0.0383694 -0.07886874 0.063052915
0000f0 a8 8c 5f 3e ba 1c 52 3d 6f 1a c0 bc 3b 5a 30 3d
       0.21831 0.051296927 -0.023450105 0.0430548
000100 7b 67 9f 3d 93 5c b5 bd 30 34 95 bc 28 18 ae 3d
       0.07783409 -0.08855548 -0.018213362 0.08500701
000110 1a 8f 52 3e c1 32 db 3d 2d a8 31 3e e6 a2 e3 3d
       0.20562401 0.1070304 0.1734931 0.11115055
000120 82 08 0f 3e 5b d4 46 bd 18 34 ca bd d2 8e 8a bd
       0.13968089 -0.04854236 -0.09873217 -0.06765522
000130 0b f9 17 3e 5f ae 1f 3e c1 fc 98 bd 9c 24 ed bd
       0.14841096 0.15593861 -0.07470084 -0.11579248
000140 e9 2c bf 3d a3 10 1c 3e d5 e0 1e 3e a6 57 eb bd
       0.09334738 0.15240721 0.15515454 -0.11491327
000150 b6 26 8a 3e aa 8c e6 3d 83 47 58 3e 2d 31 f3 3d
       0.2698266 0.11257298 0.2112103 0.11874614
000160 15 61 8b bd ce f6 08 3e 8e 3f 7c 3d 21 f3 5b bd
       -0.06805626 0.13375399 0.061584048 -0.053698663
000170 0a c5 a3 bd 82 2e 08 bd 1d 56 1a be 74 af e3 3d
       -0.079965666 -0.03324748 -0.15071912 0.111174494
000180 42 23 1a 3c f7 20 25 3e f7 06 4b bd d7 81 bb bd
       0.00940782 0.16125856 -0.04956719 -0.09155624
000190 55 93 29 3e cb ce b9 bd 05 c0 9f 3d f5 73 c1 bd
       0.16560109 -0.09072646 0.07800297 -0.09445945
0001a0 5f 32 72 3c 31 c4 30 3e 9b 1e 8d 3d 08 94 b8 bd
       0.014782517 0.17262341 0.06890603 -0.0901261
0001b0 4b a5 05 be 15 cf a2 3d c2 81 5e bd 6d 97 e6 3c
       -0.13051336 0.07949654 -0.054322965 0.028148377
0001c0 64 5a 02 3d cb 6c f8 bd ca 33 0f 3e cc 7a 01 be
       0.031824484 -0.121301256 0.139846 -0.126445
0001d0 e5 ca 9b bd 8b 3f 64 3d 94 0b 7c 3d 99 82 91 3d
       -0.076070584 0.05572466 0.06153448 0.07104988
0001e0 9d cf a3 bd ff 22 14 be f3 e3 27 3d 83 3b 21 3e
       -0.079985835 -0.14466475 0.040988874 0.15745358
0001f0 39 f8 39 3e 14 0f 1d 3e 29 94 a8 bd 43 ea 13 bd
       0.18161096 0.15337783 -0.08231384 -0.03611208
000200 0f 5e 8b bc b1 b7 b5 3d 1d 8f e1 3d 6e 26 37 3e
       -0.017012624 0.08872927 0.11013625 0.17885754
000210 ce f5 42 be 35 27 18 be 75 0f 2d 3e ae 07 e0 3d
       -0.1903908 -0.14858706 0.16900428 0.10938965
000220 2b d8 e3 3d 8e 71 25 3e 37 d2 ca 3d 8e 93 7b ba
       0.11125215 0.16156599 0.099033765 -0.00095968775
000230 c5 43 f1 bd 92 9d 18 3e f3 c8 8a 3e ee 9d 52 3e
       -0.11780504 0.14903858 0.27106437 0.20568058
000240 1a 3a 23 3e 65 31 05 bd 89 97 ae 3d 1a 48 8d bc
       0.15940133 -0.03251781 0.08524997 -0.017246295
000250 e6 c7 32 3d 22 a1 0f 3e f8 56 f5 3d d6 42 c3 bd
       0.04364767 0.14026311 0.119794786 -0.09534232
000260 6f e9 49 3d d9 fd d2 bd 57 19 17 3e 1e 55 90 3e
       0.049294885 -0.10302324 0.1475576 0.2818994
000270 9c 99 e8 bd 16 52 3d 3e 60 53 92 3e 50 71 98 bc
       -0.11357424 0.18488345 0.28579235 -0.01860872
000280 b2 2e 82 bd e8 8f ae 3e 93 55 90 3e 3f 67 b6 bb
       -0.06356563 0.34094167 0.28190288 -0.005566507
000290 b9 06 30 be be bf 86 3d e2 aa 81 bc d9 f1 1a 3e
       -0.17190064 0.06579541 -0.015828554 0.1513132
0002a0 e7 32 e2 bd 43 f8 5d 3e c7 da 21 3e 61 49 37 3d
       -0.11044865 0.21676736 0.15806113 0.044747714
0002b0 3e 26 a3 3d e8 7e 7e 3d 44 ad a9 3e cf fe a3 3d
       0.079662785 0.062132746 0.33140004 0.08007585
0002c0 cf 46 be bd d2 d6 08 bd 64 65 70 be e7 70 34 bc
       -0.092908494 -0.033407994 -0.23476177 -0.011013246
0002d0 dc db d6 bd 21 63 8f 3e 3c f6 1f 3e fd 2b 6f bd
       -0.104911536 0.28005317 0.15621275 -0.05839156
0002e0 02 ab 18 3e d6 e6 74 3d 7a d3 03 3e 5f 35 65 3e
       0.14908984 0.059790455 0.1287364 0.2238364
0002f0 db 6d 0f 3e fc ad 92 3e b7 f4 f1 3d 77 c7 0e be
       0.1400675 0.28648365 0.11814254 -0.13943277
000300 ea 8e 88 3b a8 ab 78 3e c9 5e af 3d c2 00 7e bc
       0.0041674273 0.24284232 0.08563001 -0.01550311
000310 dd 9a 5f be b1 3b 99 3d 94 24 2a be bd 93 2e 3e
       -0.2183642 0.07482088 -0.16615516 0.17048545
000320 3b 97 c1 bd 85 0b 24 3e df 32 25 3e 54 e2 d7 bc
       -0.09452673 0.1602002 0.16132687 -0.026353039
000330 4a 38 16 be 3b 8f d7 3d 63 4f 36 3e db 7d d2 3d
       -0.1466991 0.10525366 0.17803721 0.10277911
000340 d2 6a 81 bd 7d 35 38 bd bf 42 39 be 3d 73 8c 3d
       -0.063192025 -0.044972885 -0.18091868 0.068579175
000350 d9 9c 76 be 4f ff ee 3d 96 2e 6c 3e b0 91 c5 bc
       -0.2408327 0.1166979 0.23064646 -0.02411732
000360 f8 93 df 3d ee d2 79 bd 5e 3b 2a 3e a0 47 55 3e
       0.10916895 -0.060992174 0.1662421 0.20828104
000370 ef f1 1a 3e 31 a7 2a 3e 71 1b 41 3e dc c9 5e be
       0.15131353 0.16665341 0.18858124 -0.2175669
000380 54 31 00 3e f9 8b 22 3e a1 c9 31 3e fe 93 22 be
       0.12518817 0.15873708 0.17362072 -0.15876767
000390 73 57 3b 3c ba 99 2c bd ee 5d b0 3d db eb fb 3b
       0.011434424 -0.042138793 0.08611666 0.0076880283
0003a0 89 e4 55 3e 12 54 a3 3d 77 fe 17 3d 19 c7 80 bd
       0.2088796 0.079750195 0.03710791 -0.06287975
0003b0 82 d8 00 3e 69 bb de bd d0 92 b8 bd a6 3c 20 3e
       0.12582591 -0.108755894 -0.09012377 0.15648136
0003c0 5a 1e 4a 3d 89 dd db bd 9b 53 85 bc 25 5a f1 3d
       0.04934535 -0.10735614 -0.016275218 0.11784772
0003d0 64 ad 41 bd a1 d4 76 3e 32 8a 4f bb 37 b7 50 3d
       -0.0472845 0.24104549 -0.0031668064 0.050955977
0003e0 69 15 a0 3c f5 32 e1 bb c7 61 79 bd eb c1 2c 3e
       0.01954146 -0.0068725296 -0.060884263 0.16870849
0003f0 b2 7c c4 3d c5 93 db bd a6 89 11 bd 2c 35 04 be
       0.09594096 -0.10721544 -0.035531662 -0.12910908

decoder.layers.2.bias f4 [32]
000000 93 63 ed bd 30 1b a6 bb 08 cb 3e 3d ba ce 11 bd
       -0.11591258 -0.005069159 0.046580344 -0.03559754
000010 64 2c 9f 3e 00 19 80 3e ed da 89 3e 1d 9d 22 3e
       0.31088555 0.25019073 0.2692484 0.15880246
000020 1f 25 96 bd b7 71 64 3e d5 96 ec 3b a0 93 37 be
       -0.07331299 0.22309004 0.007220129 -0.17927408
000030 5c d6 5a bd 1c 0c b3 3c af d1 3d 3d 6a 2b 7c bc
       -0.053427085 0.02185636 0.046342548 -0.01539121
000040 ff bb 64 3c fe 23 93 bd 4c 8f 3d 3e 36 77 e8 bd
       0.013960837 -0.07184599 0.18511695 -0.11350863
000050 37 f6 17 be f5 4e 6c bc c1 03 54 3e cc ee a2 3e
       -0.14840017 -0.014423122 0.20704557 0.31822813
000060 02 45 56 3e 45 43 6b bd ac 55 ab 3e 8e 33 7e 3d
       0.20924762 -0.0574372 0.334638 0.062060885
000070 fc ba cc bd 32 c7 bb bd 4e 59 75 3e 98 fd ff 3d
       -0.09996602 -0.09168853 0.23959848 0.12499541

decoder.layers.4.weight f4 [24, 32]
000000 c4 b3 f5 3c 16 27 b7 3d 77 06 ef 3d 2b 48 b7 bc
       0.029992945 0.08943002 0.11671155 -0.02237328
000010 a1 18 38 3d 11 2d 4e bc dd 81 f8 3d 93 7e 01 be
       0.044945363 -0.012583987 0.121341445 -0.1264594
000020 0d 36 8c bd 0a 20 87 bd 90 c4 e1 bd 86 39 88 3d
       -0.06846247 -0.06597908 -0.110238194 0.06651597
000030 33 9b da 3d f3 7b d4 3d 63 c2 b6 bb 71 6a a4 b9
       0.10674133 0.10375204 -0.005577372 -0.00031359823
000040 02 b4 76 bd 73 69 8d bd 7a 79 93 bd 00 0a ca bd
       -0.060230263 -0.069048785 -0.07200904 -0.098651886
000050 08 45 c8 3b 73 65 4b bd fa 14 12 3d e0 bd b6 bc
       0.006111745 -0.049657296 0.035664536 -0.022307336
000060 95 89 41 3b b7 a9 07 3d 4e e1 ba bc f4 82 c6 3b
       0.0029531468 0.033120837 -0.022812512 0.0060580913
000070 34 d6 12 bd 49 4f 1b 3c 9a 93 04 3d 50 7b 79 bd
       -0.03584881 0.009479352 0.032367326 -0.060908616
000080 32 09 a0 bc 1c cf 23 3c d4 82 e0 3d a2 fe da 3d
       -0.019535635 0.009998109 0.109624535 0.106930986
000090 12 5d f5 bc dd f1 89 bc 06 4f fd 3c e6 aa 44 3d
       -0.029951606 -0.016838962 0.03092147 0.048014544
0000a0 2e e3 e4 bd b4 26 bb bd 49 28 18 be 96 5f 8a 3d
       -0.111761436 -0.091382414 -0.14859118 0.06756513
0000b0 93 f6 f2 3d e3 5c 61 3d 22 3d a6 3c 6d 93 0e be
       0.118634365 0.055020224 0.020292822 -0.13923426
0000c0 dd 8f 06 3e a0 f0 0d be 60 ad 02 3d 34 4d 7f 3d
       0.13140817 -0.13861322 0.031903625 0.062329486
0000d0 c9 8d 3e 3d 3d de 8f bc 54 b2 e0 bd 19 bd 26 3d
       0.046521936 -0.017562026 -0.109715134 0.04070768
0000e0 69 2d 84 3d 67 2a 01 be cf e9 b9 3b 26 d3 61 bd
       0.06453974 -0.12613831 0.005673624 -0.055133007
0000f0 e6 cb ff bc b5 c3 4e 3d 61 6b 02 3e 2a 2a 6a bb
       -0.031225156 0.05047961 0.12736274 -0.0035730698
000100 d4 e3 ce bc 10 7a d1 3c a8 df f1 bd 81 80 fc 3d
       -0.025255121 0.0255709 -0.11810237 0.12329198
000110 6f aa 97 bd 9c e2 05 bc 00 19 d4 bb 4d a6 98 bc
       -0.074055545 -0.008171704 -0.006472707 -0.018633986
000120 50 23 af bd ce 3f 01 bc d6 80 84 3d 41 d0 1d 3e
       -0.08551657 -0.007888747 0.06469886 0.15411474
000130 69 21 4f bd 4b 94 44 3d 76 64 c3 bd 5e 69 0b 3e
       -0.05056897 0.047992986 -0.09540646 0.13614413
000140 34 e2 fc bd 39 9e 08 3e 61 66 7d bd bd a3 92 bd
       -0.12347832 0.13341607 -0.061865214 -0.07160137
000150 72 a8 2c bd 9f 7b 89 bb da 82 7f 3d 04 3c af bd
       -0.04215283 -0.004195645 0.06238065 -0.08556369
000160 87 45 d6 3d 50 a2 66 bd f3 00 fa bc f5 e3 75 3d
       0.1046248 -0.056307137 -0.03051803 0.06003185
000170 7f ef 82 bb a1 34 2b 3d 22 00 e5 3d 5f 61 bd bd
       -0.0039958353 0.041798238 0.11181666 -0.09247088
000180 1e aa 2a bd 2e 0c a0 bb 23 2f 6d bc bc b0 90 3c
       -0.041666143 -0.0048842644 -0.01447657 0.017662399
000190 e7 24 a4 bd 35 6c 58 bd c6 3c 59 3c 0b ee 29 3d
       -0.08014851 -0.05283757 0.013259118 0.04148678
0001a0 7a af 10 be 9e fa 32 bd f1 ae 39 3d 14 f8 ce bc
       -0.14129439 -0.04369604 0.045332853 -0.025264777
0001b0 6a ab ee 3d 5a 72 50 bc 90 96 8c 3d dd 20 ac bd
       0.116537884 -0.012722576 0.06864655 -0.08404706
0001c0 2c 7b 81 3d b1 0a 09 3a a5 ed 29 3d 11 bd aa bc
       0.06322321 0.00052277284 0.0414864 -0.020842107
0001d0 67 59 c5 3d 63 14 31 bc ef 90 95 bd aa 53 d8 3c
       0.09636193 -0.010808083 -0.073030345 0.026407082
0001e0 0f bb b0 3d 18 94 22 3d 30 81 cc 3d d6 7b 0c 3c
       0.086294286 0.039692014 0.09985578 0.008574447
0001f0 bd 7f ed bd 14 38 08 3d 01 d8 46 bc 4f 44 2b bb
       -0.1159663 0.033256605 -0.01213646 -0.0026133244
000200 05 f8 81 bd 0b 18 d8 3c 50 ff d8 bc a5 67 85 3a
       -0.06346134 0.026378652 -0.02648893 0.0010177983
000210 3b e7 b7 bd 37 13 e1 bc 50 26 63 3c d5 97 09 3d
       -0.089796506 -0.027474983 0.013864115 0.033592064
000220 96 57 3c bd 9a 76 10 bd 65 a2 11 3d b0 2d ec bc
       -0.045981966 -0.035269357 0.035555262 -0.02883038
000230 71 69 c8 3d c8 d0 3e 3d 19 02 60 3d 39 7e 92 bd
       0.09785736 0.046585828 0.0546895 -0.07152981
000240 a3 64 f2 3d d5 e3 ef 3d 12 cb 27 3c ae bf d9 bd
       0.11835601 0.117133774 0.010241287 -0.10632263
000250 1c 3c b1 bd 8d 88 87 bc fc 8d 8a 3d 44 16 bf bb
       -0.08654043 -0.016544605 0.067653626 -0.0058315117
000260 b6 96 08 bd 75 4d ae 3d 21 3e c9 3d 80 b3 b2 bd
       -0.033346854 0.085108675 0.09826303 -0.08725643
000270 88 76 94 3d 71 9c c1 3c 92 e1 b8 3d 0d f8 7d bd
       0.072491705 0.023634167 0.09027399 -0.062004138
000280 77 e3 7a 3c b4 42 11 3c 41 81 9a bd 7d f0 73 bd
       0.015313021 0.008866001 -0.075441845 -0.05955552
000290 f7 7a c0 3c db 22 12 bd 00 4a 9e bc 5a 6d 0e 3d
       0.023496134 -0.035677772 -0.019322395 0.034772255
0002a0 19 65 81 bd 98 a1 3d 3d 23 a1 72 bc e9 01 ed 3d
       -0.06318111 0.046296686 -0.014808926 0.1157263
0002b0 59 58 dc 3d 96 4a c6 3d 6e 8a 19 3d a1 33 00 be
       0.107590385 0.09682195 0.037485532 -0.12519695
0002c0 17 0d 09 3b 27 43 f9 bd 2d e9 07 3d 5c 9a 60 bd
       0.0020912343 -0.121710114 0.033181358 -0.05483471
0002d0 07 5a 23 3d 67 2e d7 bd 29 c8 2d 3e ed 40 e6 bc
       0.03988078 -0.105068974 0.16970886 -0.02810713
0002e0 88 da 2d 3d b9 6b 4c 3c 8e 92 14 3d b6 f0 d1 bc
       0.042444736 0.012476855 0.036272578 -0.025627475
0002f0 52 b5 97 3d d0 40 4c bd fa 75 c2 bd 18 b2 ca bd
       0.07407631 -0.049866498 -0.094951585 -0.0989725
000300 70 17 f5 3b c6 51 5e bd 7f cf a8 bd 8d f8 d0 39
       0.0074796006 -0.054277204 -0.08242702 0.00039858036
000310 e0 ac fc bc f2 7a 19 bc 88 6e cd bc 3c ab c2 3d
       -0.030844152 -0.009367691 -0.02507712 0.095053166
000320 e0 c7 4f bc ac 61 31 3d 14 f8 b5 bb dc 64 86 3d
       -0.012681931 0.043306038 -0.005553255 0.06562206
000330 85 8a 6d bd 6b 03 a4 bd 4e 12 27 bd 27 a7 96 3d
       -0.05799343 -0.080084644 -0.04078894 0.073561005
000340 2b 80 c0 bd 5e 60 fa 3c 30 73 7c 3d 6c 8d ef 3d
       -0.09399446 0.03056353 0.06163329 0.11696896
000350 07 d8 e3 3c e3 6e 69 3d b3 4f fe 3d 5a 94 87 bd
       0.02781297 0.056990515 0.12417545 -0.06620093
000360 fd a1 0d bd 82 75 17 3c af ef 4e bd 03 ea 21 bd
       -0.034578312 0.009244325 -0.05052155 -0.03952981
000370 ee 23 a5 bd db 9c 52 bd 04 c9 1c 3d 0a e8 d2 bc
       -0.08063494 -0.05141912 0.03827764 -0.02574541
000380 cd 91 0b 3c 27 da 24 3d ca c4 a5 bd ce c6 2d bc
       0.008518648 0.04024711 -0.08094175 -0.010606481
000390 0d 23 ae 3d b2 fa ad bc d3 c1 48 3d bc dc 2a 3d
       0.08502779 -0.021237705 0.04901297 0.041714415
0003a0 f8 eb a4 3b b8 45 d9 bc 73 9f ab bc 48 28 cb bc
       0.0050330125 -0.026522502 -0.020950055 -0.024799481
0003b0 4d db 6a 3d bd 2b 74 bd 9e 22 a9 3c a2 69 60 3c
       0.057338048 -0.059612025 0.02064639 0.01369706
0003c0 2f 1f 6f 3d 34 d7 91 3d d1 cd 52 3d 58 af 6c 3d
       0.05837935 0.07121125 0.051465813 0.05778441
0003d0 74 d9 a2 bd 28 52 0a 3e 3b 57 28 be 88 b4 bb 3c
       -0.07951632 0.13507903 -0.16439526 0.022913232
0003e0 ae 61 1c 3c 12 1d e4 bc fd 8d ee bc 5c 86 94 3d
       0.009544773 -0.027845893 -0.02912044 0.072521895
0003f0 b2 60 c1 bb 49 a8 79 bc 0c 7c c8 bd 72 1a b5 3d
       -0.0059014196 -0.015237876 -0.09789285 0.08842935

decoder.layers.4.bias f4 [24]
000000 bf 22 89 3d 7a cf a9 bd ad 7b d7 3d 7d 30 f5 bc
       0.066960804 -0.08291526 0.10521636 -0.029930348
000010 84 b5 48 bd f5 2e 8c bd 89 04 0c 3b de 22 d1 bb
       -0.04900123 -0.06844894 0.0021365008 -0.0063823303
000020 50 43 bf bd 78 2d 81 3c 8f 98 eb 3d be 02 27 3d
       -0.09339011 0.015768752 0.115037076 0.0407741
000030 50 ba 4b 3d ab f7 e8 3d 56 84 ea bd 90 69 78 be
       0.04973823 0.11375364 -0.11451022 -0.24259019
000040 a8 d0 b4 bd 0d f5 22 be 65 f8 9a be d2 c5 b9 3d
       -0.088288605 -0.15913792 -0.30267635 0.09070934
000050 b7 6a 96 bd e4 ae 65 be aa 1f 8a 3c 27 83 9e bd
       -0.07344573 -0.22429997 0.016860802 -0.07739859
