m4_ws/src/morphing_lander/learned_models/2024-05-20_18-08-49/model_0.pth (torch, 33300 bytes, 22 tensors)

cond_normalizer.mean f4 [11]
0	0xbebb5070	-0.36584806
1	0xbd205044	-0.039139047
2	0xba377f8c	-0.0006999902
3	0x3ad53a74	0.0016268031
4	0x3d4165f1	0.04721636
5	0x3caf5c78	0.021406397
6	0xbad3cf38	-0.0016159778
7	0x3f01a1e0	0.50637627
8	0x3f050906	0.51966894
9	0x3f0225fa	0.508392
10	0x3f046969	0.51723343

cond_normalizer.variance f4 [11]
0	0x3dceb383	0.10092833
1	0x3ba37ffe	0.004989623
2	0x39e34716	0.00043349777
3	0x39aff97c	0.0003356448
4	0x3c7fea14	0.015619773
5	0x3cbc2c65	0.022970388
6	0x3ddbccd6	0.10732429
7	0x3ca8878c	0.020572446
8	0x3cad6bfa	0.021169651
9	0x3ca3f491	0.02001408
10	0x3cb26c2a	0.021780092

output_normalizer.mean f4 [12]
0	0xbbc25704	-0.005930783
1	0xbb41c92f	-0.0029569378
2	0x3c8897d3	0.016673958
3	0x38d21cf2	0.00010018972
4	0x3b3c9d61	0.0028780329
5	0x3abaa4a0	0.0014239736
6	0x3bc3aa48	0.005971227
7	0x3bb1a0db	0.005420787
8	0x404a8691	3.1644633
9	0x3e583091	0.21112277
10	0x3f0a0653	0.539159
11	0xba83cded	-0.0010055878

output_normalizer.variance f4 [12]
0	0x3da22e80	0.079190254
1	0x3d55084c	0.052009866
2	0x3d542dd3	0.051801514
3	0x38c76ccc	9.5093244e-05
4	0x3b9914c8	0.004671667
5	0x3bacdc48	0.005275283
6	0x3dbd8962	0.09254719
7	0x3ed217a7	0.4103367
8	0x42669881	57.64893
9	0x41b42eec	22.522911
10	0x4062e7a3	3.545388
11	0x3e5e1c56	0.21690497

encoder.layers.0.weight f4 [32, 23]
0	0xbd763d8b	-0.060117286
1	0xbe1366c5	-0.14394672
2	0x3e1cbd10	0.15306497
3	0xbd0107ad	-0.03150146
4	0x3d48de18	0.04903993
5	0x3e4f96ef	0.2027242
6	0xbc5541c6	-0.01301617
7	0xbd8d890d	-0.06910906
8	0x3da5e33c	0.08099982
9	0x3d855f37	0.065123014
10	0xbe2a8d39	-0.16655435
11	0x3d6894fc	0.056782708
12	0x3d766bad	0.06016128
13	0xbd276d43	-0.040875684
14	0x3e0cec6e	0.13762066
15	0x3dcdec73	0.10054865
16	0x3e3d167b	0.18465607
17	0x3e3bab26	0.18327007
18	0x3c6a8038	0.014312796
19	0xbdee8c45	-0.11647848
20	0xbd7a8bee	-0.061168604
21	0x3ca12cd4	0.019674696
22	0xbce92135	-0.028458217
23	0xbde557cd	-0.11198387
24	0xbd1e3d25	-0.03863253
25	0xbe18fcb8	-0.14940155
26	0xbe492cf4	-0.19646055
27	0x3e34adb0	0.17644382
28	0xbe22a1b8	-0.15882003
29	0x3e2527ba	0.16128436
30	0x3e4ec8d8	0.20193803
31	0x3e389d4b	0.18028753
32	0xbdae7fb0	-0.08520448
33	0xbe374d1f	-0.17900513
34	0x3e1aa974	0.15103704
35	0x3de77df6	0.11303322
36	0xbd31af93	-0.04338033
37	0x3d7071d3	0.0587023
38	0x3d103276	0.035204373
39	0xbe228237	-0.15869986
40	0xbd5a4868	-0.05329171
41	0x3e3f363d	0.18673034
42	0x3dc7f76f	0.09763991
43	0xbe24a1bc	-0.16077322
44	0xbe33534c	-0.17512244
45	0x3cadc36c	0.021211348
46	0x3e2ab888	0.16671956
47	0x3db418b5	0.08793775
48	0xbd93ff6d	-0.07226453
49	0x3e32257c	0.17397112
50	0xbe14861c	-0.14504284
51	0x3dd813cd	0.10550652
52	0x3e0866e1	0.13320495
53	0x3b7237c5	0.003695951
54	0x3d079f5b	0.033110958
55	0x3d24e6aa	0.04025904
56	0xbd569139	-0.05238459
57	0x3e24a5f6	0.16078934
58	0xbd0f1968	-0.03493634
59	0xbdbce324	-0.09223011
60	0x3d9e0e64	0.077175885
61	0x3e31a2fc	0.1734733
62	0xbe3f9aa6	-0.18711337
63	0x3e324783	0.17410092
64	0x3dd3030a	0.10303314
65	0x3e1429da	0.1446909
66	0xbd3b25dd	-0.045690406
67	0xbe0ad2bb	-0.1355695
68	0x3daf8cff	0.08571815
69	0x3dcc01fb	0.09961315
70	0x3dd1b78a	0.102400854
71	0xbe4ee5d3	-0.20204858
72	0xbe208ba5	-0.1567827
73	0x3dd2d9d1	0.102954514
74	0xbe2494fc	-0.16072458
75	0x3e39b830	0.18136668
76	0xbdc28880	-0.094986916
77	0xbe04b2bf	-0.12958811
78	0x3d86554d	0.065592386
79	0x3d37333f	0.044726606
80	0x3de7d848	0.11320549
81	0x3cac191f	0.021008072
82	0x3ddc9517	0.10770624
83	0x3df48655	0.11939684
84	0xbe3517f6	-0.17684922
85	0x3daa0e94	0.08303562
86	0x3d0bba10	0.03411299
87	0x3e1d9fd4	0.15393001
88	0x3e1083ac	0.14112729
89	0x3de7ca05	0.11317829
90	0xbe237939	-0.15964212
91	0xbe4fabaf	-0.20280336
92	0xbccf4ba3	-0.025304621
93	0xbd1b1977	-0.037866082
94	0x3e26ab7c	0.16276354
95	0xbd99d33b	-0.07510992
96	0xbcb1d947	-0.021710051
97	0x3d847876	0.064682886
98	0x3d5162b1	0.05111951
99	0xba99aecb	-0.0011725066
100	0xbddbee29	-0.10738785
101	0xbe4d6d75	-0.20061286
102	0xbe482d34	-0.19548494
103	0x3dac9a5e	0.08427881
104	0xbdf1c69d	-0.118054606
105	0x3da068d3	0.07832494
106	0xbdd511ed	-0.1040381
107	0xbd4faf92	-0.050704546
108	0xbda29fa3	-0.079406045
109	0xbc9e379b	-0.019313624
110	0xbda0b6d0	-0.07847369
111	0x3e19a1b8	0.15003097
112	0xbe2fa2e0	-0.17151976
113	0xbe32d2cf	-0.1746323
114	0xbdcc3365	-0.0997074
115	0x3d413311	0.04716784
116	0x3e44b50b	0.19209687
117	0x3ce0c8e4	0.027439542
118	0x3cd4739c	0.025934033
119	0x3cf0758c	0.029352926
120	0xbdc0db78	-0.0941686
121	0x3e3b1b3b	0.18272106
122	0x3da9dc80	0.0829401
123	0x3ddc40b5	0.107545294
124	0x3d5187ec	0.051155016
125	0x3d9bd94b	0.07609805
126	0xbe0c0487	-0.13673602
127	0xbe31ce1d	-0.17363782
128	0xbe26603c	-0.16247648
129	0x3e44a6e8	0.19204295
130	0x3c754f13	0.014972466
131	0xbe247169	-0.16058888
132	0x3d003916	0.03130444
133	0xbddac49a	-0.1068203
134	0xba6979ea	-0.0008906411
135	0x3d99b810	0.0750581
136	0xbe18b081	-0.14911081
137	0xbe207b9a	-0.1567215
138	0x3e193c2f	0.14964364
139	0xbdde42b4	-0.10852566
140	0xbdcbf265	-0.099583425
141	0x3e33fb9a	0.17576447
142	0x3e053cd3	0.13011484
143	0x3e513899	0.20431747
144	0xbd10ed35	-0.03538247
145	0xbd6dec6d	-0.0580868
146	0xbe2573bc	-0.1615743
147	0x3c8da05c	0.01728838
148	0xbd81e2e1	-0.06342102
149	0x3cf88441	0.030336501
150	0x3dfa0acc	0.122090906
151	0xbdbe6350	-0.09296286
152	0x3e0af17f	0.13568686
153	0x3da7d92f	0.08195721
154	0xbdc3c882	-0.09559728
155	0xbe1915d3	-0.14949732
156	0x3d646fb2	0.055770583
157	0x3d6a1b8e	0.057155184
158	0xbe3d7eaf	-0.18505357
159	0xbdd29ede	-0.10284208
160	0x3c43371b	0.011914994
161	0x3d4c10c4	0.049820676
162	0xbdcfcc30	-0.101463675
163	0x3d7c9f99	0.06167564
164	0x3d4ce4cc	0.050022885
165	0x3c5afd84	0.013366107
166	0x3d8a6af6	0.067586824
167	0x3e512370	0.20423675
168	0xbd35936a	-0.044330038
169	0xbe2e47a6	-0.17019519
170	0x3cc72e77	0.024314148
171	0x3dd55c2f	0.10417973
172	0x3e22d769	0.15902485
173	0x3cd19b06	0.025586616
174	0xbe1db944	-0.15402704
175	0x3e43a1c6	0.1910468
176	0xbddf8535	-0.10914079
177	0x3bc34754	0.0059594307
178	0xbd9c4124	-0.07629612
179	0x3e30bb1d	0.17258878
180	0x3e0b4ee8	0.13604319
181	0x3d992745	0.07478193
182	0x3dd74cb7	0.10512679
183	0xbdefa632	-0.11701621
184	0xbe14ac5c	-0.14518875
185	0x3de1f166	0.11032371
186	0xbd4d73d5	-0.050159294
187	0x3dc1edd0	0.09469187
188	0x3d23a9a5	0.039956708
189	0xbe0f2cc3	-0.13981919
190	0x3e342171	0.17590882
191	0xbdb2c852	-0.08729614
192	0xbe2295ca	-0.15877452
193	0x3d1cd01f	0.038284417
194	0x3dadf1d1	0.084933884
195	0xbe50b5a1	-0.20381786
196	0xbe19bbe3	-0.1501308
197	0xbce79911	-0.02827123
198	0xbe2ef19f	-0.17084359
199	0x3db8cb35	0.09023134
200	0xbda95963	-0.08269002
201	0x3d838197	0.06421202
202	0x3e2ae2e2	0.16688111
203	0xbdc35df5	-0.09539405
204	0x3d4a448a	0.04938177
205	0x3d94e7e3	0.072707914
206	0xbd67ff4d	-0.05663996
207	0x3dbe6019	0.09295673
208	0xbe4d0b11	-0.20023753
209	0x3e1d5a49	0.15366472
210	0xbdd8fc6f	-0.10595023
211	0x3e0ef11c	0.13959163
212	0xbdaa72b1	-0.08322657
213	0x3d506524	0.050877705
214	0xbdea076d	-0.114271976
215	0x3d2577c2	0.040397413
216	0xbb834aeb	-0.0040067337
217	0x3bf4c249	0.0074694497
218	0xbd85af72	-0.06527604
219	0xbcd8bacc	-0.02645626
220	0xbe22f0df	-0.15912198
221	0xbe3f9859	-0.1871046
222	0x3d8a732e	0.0676025
223	0x3e4bd50a	0.19905487
224	0xbe1b2215	-0.1514972
225	0x3e0aa7b9	0.13540544
226	0xbe0d2970	-0.13785338
227	0x3d9aef89	0.07565219
228	0x3ce3a177	0.027786953
229	0x3e14c648	0.14528763
230	0x3e1040e3	0.14087252
231	0xbe42eaef	-0.19034933
232	0xbd726bb4	-0.059184745
233	0xbdedb043	-0.11605885
234	0x3d31f725	0.043448586
235	0x3e4ea208	0.20178998
236	0xbcac6a9d	-0.02104693
237	0xbd40f591	-0.04710919
238	0x3d235554	0.039876297
239	0x3dd97bd4	0.106193215
240	0xbdbc1f39	-0.09185643
241	0xbd1e857e	-0.038701527
242	0x3decb1fa	0.11557384
243	0xbc43f705	-0.0119607495
244	0x3d467944	0.04845549
245	0x3c505b83	0.012717131
246	0xbd9f618e	-0.07782279
247	0xbe30c91b	-0.17264216
248	0xbe1daeb6	-0.15398678
249	0xbde9b70c	-0.114118665
250	0x3e05edd8	0.13079011
251	0xbdab92bc	-0.08377597
252	0xbcd38f6e	-0.025825229
253	0x3d77daf0	0.06051153
254	0x3df266ae	0.11835991
255	0xbe4cc526	-0.19997081

encoder.layers.0.bias f4 [32]
0	0x3d75b60d	0.05998807
1	0x3e008972	0.12552431
2	0x3cf8518f	0.030312328
3	0x3d0a6152	0.033784218
4	0x3d5f8a08	0.054574996
5	0x3d2e118c	0.042497203
6	0xbe314769	-0.17312397
7	0xbe59c8ba	-0.21267977
8	0xbe0121fd	-0.12610622
9	0x3ca0088a	0.019535322
10	0x3e122172	0.14270571
11	0x3d2f5c21	0.04281247
12	0x3e03ad94	0.12859184
13	0xbe429b0d	-0.1900446
14	0xbe2e9a8b	-0.17051141
15	0x3da66c67	0.08126145
16	0xbe309fee	-0.17248508
17	0xbe1a4d44	-0.15068537
18	0x3dcb48ed	0.09926019
19	0xbdb3f747	-0.08787399
20	0x3d912a28	0.07088119
21	0xbc6ed44c	-0.014576983
22	0x3e2797b9	0.16366471
23	0x3d9e9c56	0.077446625
24	0xbcf3ff13	-0.029784715
25	0x3da68faa	0.081328705
26	0x3e3dac84	0.1852284
27	0x3e05aa46	0.13053235
28	0x3d57ab33	0.052653503
29	0xbe3ab0a1	-0.18231441
30	0xbdd128cf	-0.10212862
31	0xb9bb721b	-0.00035752435

encoder.layers.2.weight f4 [32, 32]
0	0x3dc258ef	0.09489619
1	0xba8a5db0	-0.0010556486
2	0x3df18750	0.11793387
3	0x3c03b929	0.008039751
4	0x3e2676b0	0.16256213
5	0xbd81472f	-0.06312405
6	0xbd6a574b	-0.057212155
7	0x3b1f02d5	0.0024263163
8	0xbd781dd9	-0.06057534
9	0x3e0bea8a	0.13663688
10	0x3d546267	0.051851656
11	0x3cc876a4	0.024470635
12	0xbe294df7	-0.16533647
13	0xbda1e5f5	-0.07905189
14	0xbdc7fa0d	-0.0976449
15	0xbca89623	-0.020579403
16	0xbc0646de	-0.008195607
17	0x3c719ea1	0.014747293
18	0x3dc8e610	0.09809506
19	0xbe072293	-0.13196783
20	0x3dc01aa3	0.093800806
21	0xbdd789aa	-0.10524304
22	0x3dbbc090	0.09167588
23	0xbd186b7e	-0.037211888
24	0xbe051830	-0.12997508
25	0x3e0e71f7	0.13910662
26	0x3d4fd6c7	0.050741937
27	0xbd335a68	-0.04378739
28	0xbe0efec7	-0.13964377
29	0xbdfa9c32	-0.12236823
30	0xbbec5422	-0.007212178
31	0xbb48234d	-0.003053862
32	0x3d63908f	0.055557784
33	0xbe0f6389	-0.14002813
34	0xbe1ba76b	-0.15200584
35	0x3e304ba4	0.17216355
36	0xbdef01da	-0.11670275
37	0x3e04211e	0.12903258
38	0xbc91513a	-0.017738927
39	0xbe2163fa	-0.15760794
40	0x3cb63b2e	0.022245016
41	0x3cb1d704	0.021708973
42	0x3e028751	0.12746932
43	0x3b96aa77	0.0045979577
44	0x3e21e63c	0.15810484
45	0x3d52a2cf	0.051424798
46	0xbce3458a	-0.02774312
47	0x3e1f6077	0.15564142
48	0xbcc9f5c9	-0.024653332
49	0xbe1f4c21	-0.15556385
50	0x3e001837	0.12509237
51	0x3d8bf96e	0.06834684
52	0x3dd33d3f	0.10314416
53	0x3e0f3bdc	0.13987678
54	0x3e02bdd1	0.12767722
55	0x3e2ed969	0.17075123
56	0x3d81e962	0.06343342
57	0x3dfdb2b1	0.12387598
58	0x3c9dd2d1	0.019265564
59	0xbc8f3f9a	-0.017486382
60	0x3dd578d4	0.10423437
61	0xbd59608e	-0.053070597
62	0xbdc9a5f8	-0.09846109
63	0xbe31e40f	-0.17372154
64	0x3d1e2c09	0.038616214
65	0xbdf70a62	-0.12062527
66	0x3d366929	0.044533882
67	0xbded828f	-0.11597168
68	0x3d33699a	0.04380188
69	0xbe0e97d4	-0.13925105
70	0x3dd0e45f	0.10199808
71	0xbd62fabd	-0.055414904
72	0xbe1662b4	-0.1468609
73	0x3dd32e11	0.10311521
74	0x3c953ffd	0.018218989
75	0x3e135665	0.14388426
76	0x3c2194ea	0.009862164
77	0x3ce60690	0.028079301
78	0x3e1ef673	0.155237
79	0xbd5c4102	-0.053772934
80	0xbcf12f2d	-0.02944144
81	0x3d470f91	0.04859883
82	0xbe2ad172	-0.1668146
83	0x3dfa5116	0.12222497
84	0xbdd173e9	-0.10227186
85	0x3dcf989f	0.10136532
86	0x3e2affba	0.16699114
87	0x3e27aecd	0.16375275
88	0xbd2bed39	-0.04197428
89	0x3e113848	0.14181626
90	0x3c7cd996	0.015432736
91	0xbb27053d	-0.00254853
92	0x3d903363	0.07041051
93	0xbd44d079	-0.048050378
94	0x3d260d23	0.040539872
95	0xbdc15cab	-0.09441503
96	0x3db841b0	0.08996904
97	0xbe047f58	-0.12939203
98	0xbddf4a7b	-0.10902878
99	0xbe0d9a3a	-0.13828364
100	0xbb10997d	-0.0022064142
101	0x3d2562b6	0.04037734
102	0xbdfc0ed5	-0.123075165
103	0x3ddf499e	0.10902713
104	0x3e0a831c	0.13526577
105	0xbd686960	-0.05674112
106	0x3db05178	0.08609289
107	0x3e1669f0	0.1468885
108	0x3dbaa8fb	0.09114262
109	0x3e16dd3c	0.14732832
110	0xbcc734cc	-0.024317168
111	0xbdcd82a4	-0.10034683
112	0xbd305e7d	-0.04305886
113	0xbded7c54	-0.11595979
114	0xbd5b8e55	-0.053602535
115	0xbdb4a6a9	-0.088208504
116	0x3d843e0b	0.06457146
117	0xbda58f17	-0.08083933
118	0x3c19fc31	0.009398506
119	0x3d64bbea	0.05584327
120	0x3dde6214	0.10858551
121	0xbd183c07	-0.03716662
122	0xbe070e64	-0.13189083
123	0x3dfb1580	0.1225996
124	0x3bf90503	0.0075994744
125	0x3d06b7bb	0.032890063
126	0xbd5d2ff2	-0.054000802
127	0xbdc970b4	-0.098359495
128	0xbe15d69f	-0.14632653
129	0x3dfeead9	0.124471374
130	0xbc3bb391	-0.011456386
131	0x3dbd6b1a	0.092489436
132	0xbd99f167	-0.07516747
133	0xbde18307	-0.110113196
134	0x3c9bf3ea	0.019037206
135	0x3d33337e	0.04375028
136	0x3da5728c	0.08078489
137	0xbe2213c9	-0.1582786
138	0xbc4570a2	-0.01205078
139	0x3d6577a6	0.05602231
140	0x3e1088f9	0.14114751
141	0x3e2f7720	0.17135286
142	0xbe159a4a	-0.14609638
143	0x3e1f3681	0.15548135
144	0xbd6bbe49	-0.057554517
145	0xbda1c3cc	-0.078986734
146	0xbc8b80b4	-0.017029144
147	0xbd4059dd	-0.0469607
148	0x3ded9866	0.11601333
149	0x3e1905a9	0.14943565
150	0xbe164eaf	-0.14678453
151	0x3db1d45b	0.08683082
152	0xbe023668	-0.12716067
153	0x3b9ade8c	0.0047262367
154	0x3dbcf035	0.09225503
155	0x3de6acf7	0.11263459
156	0x3aafae79	0.0013403437
157	0x3dfd3686	0.12363915
158	0xbe17db5e	-0.14829776
159	0x3e1ce0a7	0.15320073
160	0xbce99559	-0.028513597
161	0x3e2a8e96	0.16655955
162	0x3c877040	0.016533017
163	0xbdb40014	-0.087890774
164	0x3d2ab8ee	0.04168027
165	0xbe2e84c9	-0.17042841
166	0x3e0ff459	0.14058055
167	0x3e2ea03a	0.17053309
168	0xbdd16c40	-0.10225725
169	0x3e1ee745	0.1551791
170	0x3e174d78	0.14775646
171	0xbd92cff5	-0.07168571
172	0xbd857616	-0.06516664
173	0x3cc1b710	0.023646861
174	0x3d390a5e	0.045175903
175	0xbe02dc09	-0.12779249
176	0x3e0eaea5	0.13933809
177	0xbdf9632e	-0.1217712
178	0xbd090612	-0.033453055
179	0xbe3231da	-0.1740183
180	0xbe104d13	-0.14091901
181	0xbdd15b74	-0.102225214
182	0x3d006f5e	0.031356208
183	0x3db9d1fe	0.09073256
184	0xbd5e582f	-0.054283317
185	0x3da25530	0.079264045
186	0xbbb58346	-0.0055393307
187	0x3d81fcf2	0.063470736
188	0xbde761ae	-0.11297928
189	0xbd80aecb	-0.06283339
190	0xbd521021	-0.051284913
191	0xbd52d963	-0.051476847
192	0x3d5328bd	0.051552523
193	0xbcf10298	-0.029420182
194	0xbc6a0e1e	-0.014285592
195	0x3dd4df38	0.10394138
196	0x3cf366c4	0.029712088
197	0x3e047221	0.12934162
198	0xbdb34058	-0.08752507
199	0xbd295c17	-0.04134759
200	0x3dea600f	0.11444103
201	0xbdd03d38	-0.101679265
202	0x3c3475d2	0.011014419
203	0x3d81a84a	0.06330927
204	0xbb64501f	-0.0034837795
205	0xbdaa44dd	-0.08313916
206	0xbdea6c99	-0.114464946
207	0xb9a3fcdd	-0.0003127818
208	0x3e0552cd	0.13019867
209	0xbe10f31e	-0.14155242
210	0xbdd99031	-0.106232055
211	0x3e27b6d4	0.16378337
212	0x3d6e15f5	0.05812641
213	0x3e0f5221	0.13996173
214	0xbe11c304	-0.14234549
215	0xbe1ae633	-0.15126877
216	0x3d183b6a	0.037166037
217	0x3ddc2ee6	0.10751133
218	0xbdbf16a3	-0.093304895
219	0x3df2e284	0.11859611
220	0xbc130eda	-0.008975709
221	0x3e050b2e	0.12992546
222	0xbe24513d	-0.16046615
223	0xbda65659	-0.08121938
224	0xbdc7b4d1	-0.09751285
225	0xbd9b6368	-0.075873196
226	0x3bcea3fb	0.006306169
227	0xbe1d5f43	-0.1536837
228	0x3e22b6ec	0.15890092
229	0x3c2b829c	0.010468151
230	0xbe08469c	-0.13308185
231	0x3c8a96a6	0.016917538
232	0xbd1d229c	-0.038363084
233	0xbd51890a	-0.05115608
234	0xbbc925af	-0.0061385254
235	0xbdb8283d	-0.0899205
236	0x3e1cc6e4	0.15310246
237	0x3e0760fe	0.13220593
238	0xbd878a80	-0.06618214
239	0x3e29c37f	0.16578482
240	0x3d55bd9f	0.05218279
241	0xbe09909d	-0.13434072
242	0xbe0b4c65	-0.13603361
243	0x3d13d5d4	0.036092594
244	0x3db097b1	0.08622683
245	0x3db4f40c	0.08835611
246	0xbe1fa586	-0.15590486
247	0xbe0ac4e8	-0.13551676
248	0xbda9ef1a	-0.08297558
249	0x3e1fb10a	0.15594879
250	0x3e09e3b2	0.13465765
251	0xbd77c6f9	-0.06049249
252	0x3e1f5e5d	0.1556334
253	0xbd36f3f9	-0.044666264
254	0xbc8b8044	-0.017028935
255	0x3df96195	0.121768154

encoder.layers.2.bias f4 [32]
0	0xbe2c5882	-0.16830638
1	0xbe280335	-0.16407473
2	0xbe224cc3	-0.15849595
3	0xbdff3020	-0.12460351
4	0xbe1b8cf8	-0.15190494
5	0xbdd3e046	-0.10345511
6	0xbddd90d1	-0.10818637
7	0x3d4dc7db	0.050239425
8	0xbddc9089	-0.107697554
9	0xbe1a6a6d	-0.1507966
10	0xbdd6c05c	-0.104859084
11	0x3df11419	0.117714114
12	0x3d90b7c7	0.07066303
13	0x3d59df90	0.05319172
14	0x3ddfb836	0.10923807
15	0x3cdf1608	0.027232185
16	0xbd63c3b3	-0.055606555
17	0x3e258942	0.16165641
18	0xbdcc358a	-0.09971149
19	0x3dd2cb85	0.102927245
20	0x3d463aba	0.04839585
21	0x3e2b78d6	0.16745314
22	0xbe04da1f	-0.12973832
23	0x3d1e1140	0.03859067
24	0x3e218f83	0.15777402
25	0x3d03ceb2	0.032179542
26	0xbd1811d4	-0.037126377
27	0x3c4df93d	0.01257163
28	0xbe0af5bf	-0.13570307
29	0x3c11bd14	0.008895177
30	0x3bceb896	0.0063086255
31	0xbddb8a7d	-0.10719774

encoder.layers.4.weight f4 [12, 32]
0	0x3d42cbb6	0.047557555
1	0xbdcef799	-0.10105819
2	0xbddcb8a6	-0.107774064
3	0x3e2e4ec6	0.17022237
4	0xbe0054f8	-0.12532413
5	0x3cff7820	0.03118521
6	0xbe30874e	-0.17239115
7	0x3d8e1c62	0.06939007
8	0x3d3a6df9	0.045515034
9	0x3dc15494	0.0943996
10	0x3d4baec1	0.049727205
11	0x3de87b9f	0.11351704
12	0x3db6d9dc	0.08928272
13	0xbda0fc65	-0.078606404
14	0x3d7e681f	0.062111016
15	0x3dcc780a	0.09983833
16	0xbca45403	-0.020059591
17	0xbca69f40	-0.020339608
18	0x3e1e3a39	0.15451898
19	0x3d5cd3e1	0.053913
20	0xbdd0915e	-0.101839766
21	0xbd9b7cde	-0.07592176
22	0xbce5f869	-0.028072553
23	0x3d42ba8a	0.04754118
24	0xbdf4a67f	-0.11945819
25	0x3d88565e	0.06657098
26	0x3e23a3ee	0.15980503
27	0x3dce072e	0.10059963
28	0x3de4a602	0.11164476
29	0x3d8cb210	0.068699
30	0x3c902d59	0.017599748
31	0xbe2fd4ca	-0.17171016
32	0x3c4f9cf4	0.012671698
33	0xbd9e3b56	-0.07726161
34	0xbd1a8466	-0.03772392
35	0xbe055a7a	-0.13022795
36	0x3c6ca695	0.014444013
37	0x3d9050eb	0.07046684
38	0xbe115596	-0.14192805
39	0xbd92124e	-0.071323976
40	0x3caf40c3	0.021393185
41	0x3d671eca	0.056425847
42	0x3e1191f8	0.14215839
43	0x3cb62a04	0.022236831
44	0xbe1c9def	-0.15294622
45	0xbd78e7f5	-0.060768086
46	0x3d558046	0.052124284
47	0x3d5fe154	0.05465825
48	0xbe1f86a6	-0.15578708
49	0xbd4df4a2	-0.05028213
50	0x3d98453c	0.074350804
51	0xbd8cd957	-0.06877392
52	0x3e10c470	0.14137435
53	0xbdeefe49	-0.11669595
54	0x3deb7479	0.11496825
55	0xbe2a0022	-0.16601613
56	0xbe072b9d	-0.13200231
57	0xbdb78571	-0.08960999
58	0xbda0a0de	-0.07843183
59	0xbd4939c9	-0.049127374
60	0xbe1bd08a	-0.1521627
61	0x3e071128	0.13190138
62	0x3e27d161	0.16388465
63	0x3da0ff08	0.07861143
64	0xbd824251	-0.06360305
65	0xbe1cab0c	-0.15299624
66	0xbe101e10	-0.14073968
67	0x3e26d078	0.16290462
68	0xbe173c9f	-0.14769219
69	0xbe084746	-0.13308439
70	0x3cc4d694	0.0240281
71	0x3e24b667	0.16085206
72	0x3d972eaf	0.07381951
73	0x3e2886e7	0.16457711
74	0x3d938a11	0.072040685
75	0x3bb0afb5	0.0053920397
76	0xbe02b206	-0.12763223
77	0xbe27073f	-0.16311358
78	0xbdc95555	-0.09830729
79	0xbda7c884	-0.08192542
80	0x3e1c4233	0.15259628
81	0x3db3ca66	0.08778839
82	0xbdc567d8	-0.09638947
83	0x3d11d693	0.035605025
84	0x3bffa8c9	0.007802103
85	0x3dc891ce	0.09793435
86	0xbb7f7003	-0.0038976676
87	0xbdb8146f	-0.089882724
88	0xbcf0eb9c	-0.029409222
89	0xbd9d21c2	-0.076724544
90	0x3dd5107f	0.10403537
91	0xbd54e5de	-0.05197703
92	0xbdf1b9b1	-0.11802996
93	0x3de602dd	0.11231015
94	0x3df37732	0.11887969
95	0x3d9f7163	0.07785299
96	0xbddf4b62	-0.1090305
97	0xbdc1d407	-0.09464269
98	0x3c410a64	0.0117822625
99	0xbdb56616	-0.08857362
100	0xbda3468f	-0.07972442
101	0x3c959dee	0.018263783
102	0x3dfe2925	0.124101914
103	0xbe019ee5	-0.1265827
104	0xbcf28ce2	-0.029608194
105	0x3d9cacca	0.076501444
106	0x3c9afd98	0.018919751
107	0xbd845790	-0.06462014
108	0xbcae24aa	-0.021257717
109	0xbc45a39f	-0.012062936
110	0x3def9118	0.11697596
111	0xbc846fe2	-0.016166631
112	0x3cf61b08	0.030042186
113	0xbda52899	-0.08064384
114	0xbd86f75b	-0.06590148
115	0x3afb9bd9	0.0019196226
116	0x3d0a202f	0.0337221
117	0x3e2fc1c7	0.17163764
118	0x3c74ab1a	0.014933372
119	0xbe22660f	-0.15859245
120	0x3ca20f8c	0.019782804
121	0x3d6ca074	0.057770208
122	0x3d567df6	0.05236622
123	0xbe123761	-0.14278938
124	0x3cf79572	0.030222628
125	0xbcba3279	-0.022729145
126	0x3d86d6dd	0.06583951
127	0xbe2aa368	-0.16663897
128	0xbdc831cc	-0.09775123
129	0x3d55b9e0	0.052179217
130	0xbaeacb5e	-0.0017913391
131	0x3d571d3b	0.05251811
132	0xbdcba17b	-0.09942909
133	0x3d857889	0.06517131
134	0xbd945ff6	-0.072448656
135	0x3e1ef18b	0.15521829
136	0x3df28e7d	0.11843584
137	0xbdfc5c4f	-0.12322294
138	0xbd906802	-0.07051088
139	0x3da70582	0.081553474
140	0x3d875cac	0.06609473
141	0xbd21ee53	-0.039533924
142	0xbe173ce0	-0.14769316
143	0x3d0432b0	0.032274902
144	0xbc556562	-0.01302466
145	0x3df262b2	0.11835231
146	0xbd0fad62	-0.03507746
147	0x3e2d8df0	0.16948676
148	0x3b95f0d7	0.0045758295
149	0x3d10b701	0.035330776
150	0xbda1fdf7	-0.07909768
151	0x3d8df72b	0.06931909
152	0xbdb3a2f8	-0.08771318
153	0x3d7fc2f2	0.062441774
154	0x3df11c5b	0.117729865
155	0x3e2be603	0.16786961
156	0x3ddbd362	0.107336774
157	0x3cb62254	0.022233166
158	0xbe2ca76b	-0.1686074
159	0x3d0b72e0	0.0340451
160	0x3d3a475a	0.045478202
161	0x3dc6eba3	0.09712913
162	0xba62bc00	-0.000864923
163	0xbdfe4017	-0.12414568
164	0x3c94ccae	0.018164005
165	0x3cdf4010	0.027252227
166	0xbdbe3ac4	-0.092885524
167	0x3e17e9e4	0.14835316
168	0x3d80a89e	0.06282161
169	0x3badde79	0.005306062
170	0xbdefc905	-0.11708263
171	0xbd527c45	-0.051388044
172	0xbcbb3456	-0.022852104
173	0x3db522cd	0.08844528
174	0xbcea906e	-0.028633323
175	0x3e2fe3cb	0.1717674
176	0x3da3640c	0.07978067
177	0xbd2b10dc	-0.041764125
178	0xbdfd46d7	-0.12367027
179	0x3d6f9f9a	0.058501817
180	0xbd82703b	-0.063690625
181	0xbcec0363	-0.028810209
182	0xbd5d760c	-0.054067656
183	0xbdac65cd	-0.084178545
184	0x3d0718b3	0.03298254
185	0x3da11e90	0.078671575
186	0xbe0fc174	-0.1403864
187	0xbe0d535a	-0.13801327
188	0x3d09a24d	0.033602048
189	0xbd79b164	-0.06096019
190	0xbe2d0049	-0.1689464
191	0x3db9e3fe	0.09076689
192	0xbe25912b	-0.16168658
193	0xbd4dd4e8	-0.05025187
194	0xbd7c760d	-0.06163602
195	0x3d430d18	0.04761991
196	0x3b55d2ed	0.0032626942
197	0xbd6fbd98	-0.05853042
198	0x3cc38279	0.023865925
199	0x3dd6caeb	0.10487922
200	0x3d85c71b	0.06532117
201	0x3cd84177	0.026398404
202	0x3d0f11ee	0.03492921
203	0xbe01bd9f	-0.12669991
204	0xbe07e11b	-0.13269465
205	0x3ca12084	0.019668825
206	0x3e348b37	0.17631231
207	0x3dd943ec	0.10608658
208	0xbd8a420b	-0.06750878
209	0xbe194f19	-0.1497158
210	0xbda2c252	-0.0794722
211	0xba93fcf2	-0.0011290594
212	0x3e06330c	0.1310541
213	0x3e11ef13	0.14251356
214	0xbb8cf29f	-0.0043013836
215	0x3d949c4b	0.07256373
216	0x3d94a7f4	0.07258597
217	0x3d984294	0.07434574
218	0x3cb82a62	0.022481147
219	0x3d8ada50	0.06779921
220	0x3de118a4	0.10991028
221	0xbe17c44d	-0.14820977
222	0x3e1b403d	0.15161224
223	0x3bd07e85	0.0063627386
224	0x3e2fa2ef	0.17151998
225	0xbd94e91a	-0.07271023
226	0x3e09c074	0.13452321
227	0xbded9a0b	-0.11601647
228	0x3ddbf072	0.10739221
229	0x3e18e2ac	0.14930218
230	0x3e0092b3	0.12555961
231	0x3c38e1c8	0.011284299
232	0x3de0bcbd	0.10973499
233	0xbd0dd35a	-0.03462539
234	0xbe24067d	-0.160181
235	0x3e2eb4ae	0.17061111
236	0x3e0617f2	0.13095072
237	0x3d7c00c8	0.061524183
238	0x3d4afec7	0.04955938
239	0x3dcc5c76	0.09978573
240	0x3c8f5949	0.01749863
241	0x3dff940f	0.12479412
242	0x3e14f9e1	0.14548446
243	0xbdfe491c	-0.12416288
244	0xbc712006	-0.014717108
245	0x3b046d8c	0.0020206897
246	0xbe02c9d6	-0.12772307
247	0xbcf52838	-0.029926404
248	0x3d893223	0.06699016
249	0x3d30e8f8	0.043190926
250	0x3d407016	0.046981893
251	0xbda15b91	-0.07878793
252	0xbde6a48a	-0.11261852
253	0x3e241565	0.16023786
254	0xbdf61d9a	-0.12017365
255	0x3de2efe7	0.11080914

encoder.layers.4.bias f4 [12]
0	0x3dca1265	0.0986679
1	0x3dd7b4ac	0.10532507
2	0xbe062179	-0.13098706
3	0x3de78d23	0.113062166
4	0xbdd4fe59	-0.104000755
5	0x3b83fc1c	0.0040278565
6	0xbc3d700f	-0.011562361
7	0xbdb00fb9	-0.08596749
8	0x3d892e5f	0.06698298
9	0x3dee04a3	0.11621978
10	0xbe2fa814	-0.1715396
11	0xbcc887b7	-0.024478776

decoder.layers.0.weight f4 [32, 17]
0	0xbe194c9d	-0.14970632
1	0xbcbb99c0	-0.022900462
2	0x3e04e8a4	0.1297937
3	0xbde10454	-0.10987154
4	0xbe48cc55	-0.19609196
5	0xbdb0e386	-0.08637147
6	0x3df0baf9	0.11754412
7	0xbdee0f64	-0.11624029
8	0x3e3f0f6e	0.1865823
9	0xbd8c27f4	-0.06843558
10	0x3d3a1b54	0.04543622
11	0xbe62f7cd	-0.22164841
12	0x3e3dc9e4	0.18534046
13	0x3e713ad4	0.23557597
14	0x3d9e2822	0.077224985
15	0xbe4da48c	-0.20082301
16	0x3d41ab4e	0.04728251
17	0x3d8dbc46	0.06920676
18	0x3e6c0c7e	0.2305164
19	0xbcdedbcc	-0.027204417
20	0xbe0e4427	-0.13893186
21	0x3d093508	0.03349784
22	0x3e738c24	0.23783928
23	0xbdfa7abb	-0.1223044
24	0xbd51d7cd	-0.051231194
25	0xbe1f6610	-0.15566278
26	0xbc5c9475	-0.013463129
27	0xbe3ecd39	-0.18632974
28	0xbe31fed6	-0.17382368
29	0x3e2b64f7	0.16737734
30	0x3dcac9a2	0.0990174
31	0xbe2d7181	-0.1693783
32	0xbd064c04	-0.032787338
33	0x3e263897	0.16232525
34	0x3e4f06b2	0.20217398
35	0x3e74a8bf	0.23892497
36	0xbe4dbc7a	-0.2009143
37	0x3e3dd0d1	0.18536688
38	0x3cb723bc	0.022355907
39	0x3e5fd333	0.2185791
40	0xbe547b20	-0.20750093
41	0xbd866bf8	-0.06563562
42	0xbe2a362e	-0.1662223
43	0x3e3d42cf	0.18482517
44	0x3e0ee88f	0.13955902
45	0xbd604e27	-0.054762032
46	0x3dafa273	0.085759066
47	0x3c8a5bf1	0.016889544
48	0xbe24ab4e	-0.16080973
49	0xbde101a6	-0.109866425
50	0x3e1e61ca	0.15466991
51	0xbe6c950c	-0.23103732
52	0xbc3847b3	-0.011247563
53	0xbd6dee1b	-0.058088403
54	0xbcd25fea	-0.025680501
55	0x3c6c3993	0.014418024
56	0xbe0943a8	-0.13404715
57	0xbd603a4e	-0.054743104
58	0x3e4db218	0.20087469
59	0xbd0386fc	-0.032111153
60	0xbe049429	-0.12947144
61	0xbe49e90a	-0.19717804
62	0xbe4ee026	-0.20202693
63	0xbe5e8057	-0.21728645
64	0x3d953099	0.0728466
65	0x3e48a088	0.19592488
66	0x3e169039	0.14703454
67	0xbd5f2ede	-0.054488055
68	0xbdbbb568	-0.0916546
69	0xbde0f05b	-0.10983344
70	0x3e3ac43a	0.18238917
71	0x3e279959	0.16367091
72	0x3dddbef1	0.10827435
73	0xbe551bed	-0.20811434
74	0x3deb768c	0.114972204
75	0xbe4d8137	-0.20068823
76	0xbd4c4f88	-0.049880534
77	0x3e06e601	0.13173677
78	0x3d96255e	0.07331346
79	0x3e3408cb	0.17581479
80	0xbd6db75e	-0.0580362
81	0xbe2aaca6	-0.16667423
82	0xbd41eddf	-0.047345992
83	0xbe1959f7	-0.14975725
84	0x3e5c6823	0.215241
85	0x3e0b92dd	0.13630243
86	0xbd7de2a8	-0.061983734
87	0xbe485db9	-0.19567002
88	0x3e680f13	0.22662
89	0x3d106c56	0.035259567
90	0xbdc49a59	-0.09599752
91	0x3e7c8585	0.24660309
92	0x3dc615e4	0.09672144
93	0x3de6156a	0.11234553
94	0x3ce64157	0.028107328
95	0x3e6ebf40	0.23315144
96	0x3da9632f	0.08270871
97	0xbe70c7a1	-0.23513652
98	0xbe6e0154	-0.23242694
99	0x3d93e55a	0.0722148
100	0xbe5f9827	-0.21835385
101	0x3e29992f	0.16562341
102	0xbe47e555	-0.19521077
103	0xbd9b1a79	-0.07573409
104	0xbd85a514	-0.06525627
105	0x3e040e12	0.12895992
106	0xbe312765	-0.17300184
107	0xbe3ff58f	-0.18746017
108	0xbe4ebb4a	-0.20188633
109	0x3d6e1b0c	0.058131263
110	0xbe5f8f59	-0.21832027
111	0x3d820959	0.06349439
112	0x3e0e6347	0.13905059
113	0x3e68ef46	0.22747526
114	0xbe4aaeac	-0.19793195
115	0xbe3ac399	-0.18238677
116	0x3e4d4ceb	0.20048873
117	0x3de4bfaf	0.11169373
118	0x3dc4c055	0.09606997
119	0x3d41a7d6	0.0472792
120	0xbd5be0ce	-0.053681187
121	0xbe3adc81	-0.18248178
122	0x3e608e78	0.21929348
123	0x3d1876cf	0.03722268
124	0x3e6ff326	0.23432598
125	0xbdca9e6b	-0.09893497
126	0xbd41b537	-0.04729196
127	0xbb3d27a5	-0.0028862741
128	0x3db7102a	0.0893863
129	0x3d53d679	0.05171821
130	0xbd93317b	-0.07187172
131	0x3d146b16	0.036234938
132	0xbdbfaf54	-0.09359613
133	0xbd12bef6	-0.035826646
134	0xbd9c9178	-0.076449335
135	0x3e12f0d0	0.14349675
136	0xbe62d272	-0.22150591
137	0xbe6a4d81	-0.22881128
138	0x3e6e60f3	0.2327917
139	0x3e23609f	0.15954827
140	0xbb234f31	-0.0024919028
141	0xbd069985	-0.03286125
142	0x3da0e0e7	0.07855397
143	0xbe61fbd7	-0.22068726
144	0x3df24346	0.11829238
145	0xbdc758cf	-0.09733736
146	0x3daac5af	0.083384864
147	0xbbb8faef	-0.005645148
148	0x3d101216	0.035173498
149	0xbe1c2ba5	-0.15251024
150	0x3e246f53	0.16058092
151	0x3e687fa2	0.22704938
152	0x3d6b90e0	0.05751121
153	0xbe6e569b	-0.23275225
154	0x3e3e6039	0.18591394
155	0xbe00a328	-0.12562239
156	0x3e59f0f3	0.21283321
157	0xbe39d355	-0.18147023
158	0xbdeceac4	-0.115682155
159	0xbd69046c	-0.056888983
160	0xbc8f55fd	-0.017497057
161	0x3e1dbf04	0.15404898
162	0xbd93abfb	-0.07210537
163	0x3e40e193	0.1883605
164	0x3dac76f4	0.08421126
165	0x3c98a5f2	0.018633816
166	0xbe364b00	-0.17802048
167	0xbe1b1be8	-0.15147364
168	0x3d537df4	0.05163379
169	0x3e1be382	0.15223506
170	0x3dcc954c	0.099894136
171	0xbc8b09de	-0.016972478
172	0x3e6b0eb0	0.22954822
173	0xbe4c943c	-0.19978422
174	0x3e65ae40	0.22429752
175	0x3cf19aa5	0.029492686
176	0x3c6e3706	0.014539486
177	0x3e3c2de3	0.1837688
178	0x3e152d9e	0.14568183
179	0x3e145332	0.14484861
180	0x3e4ed8cb	0.20199887
181	0xbda2e4c9	-0.079537936
182	0x3e5a30ba	0.2130765
183	0x3e332249	0.17493547
184	0xbe6fc55a	-0.23415127
185	0xbda46a7e	-0.08028124
186	0x3d8c23df	0.06842779
187	0xbb01f200	-0.001982808
188	0xbe0e8b9a	-0.13920441
189	0xbd366114	-0.044526175
190	0xbdfd6c25	-0.123741426
191	0x3de55da7	0.111995034
192	0x3e38f236	0.18061146
193	0xbc8cda3b	-0.017193904
194	0x3e58ba3f	0.21164797
195	0xbdd276bd	-0.10276554
196	0x3e052239	0.13001336
197	0x3e59cf1c	0.21270412
198	0xbd801ea2	-0.06255843
199	0xbe32a3f3	-0.17445354
200	0x3c92cde3	0.01792044
201	0xbbeeff57	-0.0072936225
202	0x3d5613fe	0.05226516
203	0xbe45068b	-0.19240777
204	0xbd7cc1d8	-0.0617083
205	0xbe2adcde	-0.16685817
206	0x3d139877	0.036034074
207	0x3cac2fa0	0.021018803
208	0x3e4fd145	0.20294674
209	0x3e1f95f8	0.15584552
210	0x3e2d0c53	0.16899233
211	0x3e38b420	0.18037462
212	0x3e70b542	0.23506644
213	0xbe27565c	-0.16341537
214	0x3d54a0e8	0.051911265
215	0xbdb09ea8	-0.08624011
216	0x3e457855	0.19284184
217	0xbe2e07eb	-0.16995208
218	0x3cd93bf8	0.026517853
219	0xbd7b5823	-0.06136335
220	0x3ca4e6cf	0.02012959
221	0x3c3cc04d	0.011520457
222	0xbe782157	-0.24231468
223	0x3dc54ceb	0.096338116
224	0x3e323465	0.174028
225	0xbe5612e5	-0.20905645
226	0xbe0c4dfa	-0.1370162
227	0xbe406bcc	-0.18791121
228	0x3e103de8	0.14086115
229	0xbe515bd3	-0.20445184
230	0x3c27c4c5	0.010239785
231	0x3dd1a5e1	0.10236717
232	0xbe04cc46	-0.12968549
233	0xbca5c57e	-0.020235773
234	0xbd1d94c8	-0.038471967
235	0x3e489f39	0.19591989
236	0x3b5612f2	0.00326651
237	0xbe0d40f0	-0.13794303
238	0x3e01acde	0.126636
239	0xbdaf7145	-0.08566526
240	0xbdae634f	-0.08515035
241	0x3d2fbfa2	0.042907365
242	0xbcd94fd9	-0.026527332
243	0xbe3f7583	-0.18697171
244	0xbe319398	-0.17341459
245	0x3ddf893d	0.10914848
246	0xbde5c048	-0.11218315
247	0xbe06ae1b	-0.13152353
248	0xbe6fc03a	-0.23413172
249	0x3e3124a6	0.17299137
250	0xbe6e9319	-0.23298301
251	0x3df9e34b	0.12201556
252	0x3e6341cc	0.22193068
253	0x3a88bb0c	0.0010431721
254	0xbd6c2250	-0.05764991
255	0x3e4bec8c	0.19914454

decoder.layers.0.bias f4 [32]
0	0xbc59ba9e	-0.013289122
1	0xbda50343	-0.08057263
2	0xbd2ac3d6	-0.04169067
3	0xbe3cdff0	-0.184448
4	0xbe0f9a50	-0.1402371
5	0xbe69fb4e	-0.22849771
6	0xbe608d59	-0.2192892
7	0x3ba256d5	0.004954199
8	0x3e4a7c63	0.19774012
9	0x3dfffc28	0.12499267
10	0xbde59af1	-0.11211193
11	0x3e3d0dcf	0.18462299
12	0xbe014db6	-0.126273
13	0x3e653d05	0.22386558
14	0x3e543e6d	0.20726939
15	0x3d923d39	0.071405835
16	0x3e21ed20	0.15813112
17	0xbe6b2b76	-0.22965798
18	0xbe73305c	-0.23748916
19	0x3e5b2b6b	0.21403281
20	0xbe00fe15	-0.12596925
21	0x3ca0b83e	0.019619104
22	0x3e5e43b8	0.2170552
23	0x3ded4ba7	0.11586695
24	0x3de48fb6	0.11160223
25	0x3d1eb975	0.038751084
26	0xbe2b9de7	-0.16759454
27	0x3d82dcee	0.06389795
28	0xbd012ddd	-0.03153788
29	0x3e5fd228	0.21857512
30	0x3cbfee3a	0.023429025
31	0xbe25bc35	-0.16185077

decoder.layers.2.weight f4 [32, 32]
0	0x3e1010c7	0.140689
1	0xbe0bcd9a	-0.1365265
2	0xbdb7c25f	-0.0897262
3	0x3e2ac12a	0.16675249
4	0xbdff901b	-0.12478658
5	0x3e0bbd9d	0.1364655
6	0xbe05e183	-0.13074307
7	0xbdd25be4	-0.10271433
8	0x3e2de374	0.16981298
9	0xbe2d8eab	-0.16948955
10	0xbe128029	-0.14306702
11	0x3de7b2d9	0.11313409
12	0x3dca7e91	0.09887422
13	0x3d7f05d1	0.062261406
14	0xbc4270b5	-0.011867692
15	0xbc7bb422	-0.015362771
16	0xbdb39f1a	-0.087705806
17	0xbc236e20	-0.009974986
18	0xbe25fb18	-0.16209066
19	0x3e1484e1	0.14503814
20	0xbd57290e	-0.052529387
21	0xbdae1a99	-0.08501167
22	0x3da96f8d	0.0827323
23	0xbe2b9e3b	-0.16759579
24	0xbe1af8a8	-0.15133917
25	0x3d60e79f	0.05490839
26	0x3ca0327f	0.019555328
27	0xbd01af2b	-0.031661194
28	0xbe08aaa1	-0.1334634
29	0x3ce10d05	0.027472029
30	0xbd15657c	-0.036473736
31	0x3d5acab1	0.053415958
32	0x3cc1145b	0.023569277
33	0x3dc33b24	0.095327646
34	0x3c74e34b	0.014946769
35	0xbd772b9b	-0.06034432
36	0x3d96b5d1	0.073588975
37	0x3dee8d15	0.11648003
38	0xbd566a29	-0.052347336
39	0x3d5d601d	0.05404674
40	0xbb2c9079	-0.002633123
41	0xbda5e4fe	-0.081003174
42	0xbbf04fb4	-0.00733372
43	0xba605282	-0.00085572165
44	0xbdb208c8	-0.08693081
45	0x3e24ab85	0.16081055
46	0xbd2d5288	-0.042315036
47	0xbdd5344a	-0.10410364
48	0xba66ae78	-0.00087998016
49	0x3e1b0f40	0.15142536
50	0x3dd42c39	0.10359997
51	0x3ddcaddf	0.10775351
52	0x3da32682	0.07966329
53	0x3e123ad0	0.14280248
54	0xbe249f34	-0.16076356
55	0x3d441069	0.047867212
56	0x3d9dfbfd	0.077140786
57	0x3c7cab02	0.015421631
58	0xbdc84245	-0.09778265
59	0x3c31c8d5	0.010851105
60	0x3e0eb9fc	0.13938135
61	0xbc8bccc1	-0.017065408
62	0x3cbc2c68	0.022970393
63	0x3e05268a	0.13002983
64	0xbcd62687	-0.026141418
65	0xbcce9114	-0.025215663
66	0x3d9e9e69	0.07745058
67	0xbd7666bc	-0.06015657
68	0x3e246240	0.16053104
69	0x3d83e2b5	0.06439725
70	0x3d8de502	0.069284454
71	0x3deeb908	0.11656386
72	0x3dda40c9	0.10656888
73	0xbd253396	-0.0403324
74	0xbe28b91a	-0.1647686
75	0xbdc4c23a	-0.09607358
76	0x3d8ad118	0.06778163
77	0x3e03d79e	0.1287522
78	0x3ab92031	0.0014123974
79	0xbe15c049	-0.14624132
80	0x3d47267c	0.048620686
81	0x3d29f34e	0.0414918
82	0x3e00f951	0.12595107
83	0xbe172dd0	-0.1476357
84	0x3e30db31	0.17271115
85	0x3db50953	0.08839669
86	0x3e16c888	0.14724934
87	0x3d9a24ed	0.07526574
88	0xbe18eec9	-0.1493484
89	0x3e2b1231	0.16706158
90	0x3df6fea6	0.12060289
91	0xbac3de75	-0.0014943617
92	0xbe01132d	-0.12604971
93	0x3c05b914	0.008161802
94	0xbe0c689a	-0.13711777
95	0xbd216f5a	-0.039412834
96	0xbc468cbe	-0.0121185165
97	0xbc98a8bd	-0.018635148
98	0xbe2c14d4	-0.1680482
99	0x3ccedd80	0.025252104
100	0x3e238eb4	0.15972406
101	0xbde03176	-0.10946934
102	0x3e1778df	0.14792202
103	0xbe32c993	-0.17459707
104	0xbbe68440	-0.0070348084
105	0x393b9a11	0.00017891104
106	0x3d9ac005	0.07556156
107	0xbd54c00e	-0.05194097
108	0xbdf6ffed	-0.12060533
109	0x3de45dde	0.11150716
110	0xbd959353	-0.073034905
111	0x3c0d01f5	0.008606424
112	0x3cd4bbcb	0.025968453
113	0xbe347c24	-0.17625481
114	0x3e02cb53	0.12772875
115	0xbe1c1703	-0.15243153
116	0xbdda3d6f	-0.10656249
117	0x3cdc2a21	0.026875557
118	0x3d08981e	0.033348195
119	0x3d92ea28	0.07173568
120	0xbd931151	-0.07181037
121	0xbe3442cb	-0.17603604
122	0x3d32dc39	0.043667052
123	0x3d3dfcf7	0.046383824
124	0x3df1bd1a	0.118036464
125	0x3e1c8dd0	0.15288472
126	0xbe1aae9c	-0.1510567
127	0xbb3cd7b8	-0.0028815102
128	0xbe0a11a9	-0.134833
129	0xbe22117e	-0.15826985
130	0xbdc48eb8	-0.09597534
131	0x3e08bb0f	0.13352607
132	0xbe08e023	-0.13366751
133	0xbe238cfc	-0.1597175
134	0x3e306d0e	0.17229101
135	0x3d5e5db0	0.054288566
136	0x3dcf9419	0.10135669
137	0xbd730fd1	-0.059341256
138	0x3d62da07	0.05538371
139	0xbcdd8397	-0.027040286
140	0xbdf9366b	-0.121685825
141	0x3d3613de	0.04445254
142	0x3ded5c80	0.115899086
143	0x3d8377ea	0.06419356
144	0x3e2f6892	0.17129734
145	0xbd2ac81e	-0.041694753
146	0x3daec6d1	0.08534015
147	0xbcacec23	-0.021108693
148	0x3d9ddafe	0.07707785
149	0x3d4cfdd0	0.050046742
150	0x3cc72c4b	0.024313113
151	0xbdf0f003	-0.117645286
152	0xbd162258	-0.036653847
153	0xbe1d09f0	-0.15335822
154	0xbc24e4a6	-0.01006428
155	0x3ddb8a6b	0.107197605
156	0xbe1bef5b	-0.15228026
157	0x3e15b000	0.1461792
158	0x3e28bab3	0.1647747
159	0x3cbb2f57	0.022849722
160	0xbe1700fa	-0.14746466
161	0x3e0e1db0	0.13878512
162	0x3e0a04f8	0.13478458
163	0xbd57a586	-0.05264809
164	0xbe0634cc	-0.13106078
165	0x3c8c6266	0.017136764
166	0x3cbc7fb7	0.023010118
167	0x3dd01fcd	0.101623155
168	0xbddc99f9	-0.107715555
169	0xbc269185	-0.0101665305
170	0xbcf4afd1	-0.029868992
171	0xbda5eb99	-0.08101577
172	0x3e1e7fe3	0.15478472
173	0xbe2a4acc	-0.16630095
174	0x3e0d6533	0.13808136
175	0xbd84323a	-0.064548925
176	0xbdcdb427	-0.10044127
177	0xbd02e086	-0.031952403
178	0xbdd1720c	-0.10226831
179	0xbdf4227b	-0.11920639
180	0xbc09ce18	-0.008410953
181	0x3e2fb3ff	0.17158507
182	0xbd6544fd	-0.055973995
183	0xbd87730a	-0.06613739
184	0xbb754b3a	-0.0037428872
185	0xbdd02e1c	-0.10165045
186	0xbd53d279	-0.051714394
187	0x3c3ab336	0.011395266
188	0xbd6d9923	-0.05800737
189	0x3d9aca19	0.07558078
190	0xbdc0ec69	-0.09420092
191	0xbd44c3c0	-0.048038244
192	0xbccdf9d4	-0.025143541
193	0x3da14bc0	0.07875776
194	0xbe0be171	-0.13660218
195	0xbd1069a3	-0.035256993
196	0xbe2c2b95	-0.168135
197	0x3e01bfdc	0.12670845
198	0xbdb6315f	-0.088961355
199	0x3e22155c	0.1582846
200	0xbd7d5864	-0.061851874
201	0xbd95bf9c	-0.07311937
202	0xbdc4eb80	-0.096152306
203	0xbddf121c	-0.10892126
204	0x3d63a8a0	0.055580735
205	0xbdf9b9e1	-0.12193657
206	0xbd0e9070	-0.034805715
207	0xbe0ac7c1	-0.13552763
208	0xbe17bc88	-0.14818013
209	0x3de1c687	0.11024194
210	0xbdf8cee3	-0.121488355
211	0xbd3a44a5	-0.04547562
212	0xbcad9ea4	-0.02119381
213	0xbe16e18e	-0.1473448
214	0x3c2a8707	0.01040817
215	0x3d5c1881	0.053734306
216	0x3d09f79e	0.03368341
217	0xbe25900c	-0.16168231
218	0x3d926ba5	0.07149438
219	0xbc8b8274	-0.017029978
220	0xbda2b5c6	-0.07944827
221	0xbe23f877	-0.1601275
222	0x3d19e2a3	0.037569653
223	0xbd8644df	-0.06556105
224	0x3dd62471	0.104561694
225	0x3da01d98	0.078181446
226	0x3e19bae2	0.15012696
227	0xbe2f54a2	-0.17122129
228	0x3d02916b	0.031876963
229	0xbcc71cf6	-0.024305802
230	0x3e23f669	0.16011967
231	0xbd029ac6	-0.031885885
232	0x3e1abf17	0.15111957
233	0x3d095380	0.033526897
234	0x3d6b5c17	0.05746087
235	0xbcb482fd	-0.022035116
236	0x3e21279c	0.15737766
237	0xbd6c6ee9	-0.05772296
238	0xbdde3320	-0.10849595
239	0x3db39717	0.087690525
240	0x3d6dea10	0.058084548
241	0xbe00b687	-0.12569629
242	0xbd4f5891	-0.050621573
243	0x3db82019	0.08990497
244	0xbde4bee6	-0.111692235
245	0x3e0c7bed	0.13719149
246	0xbdb4aef0	-0.08822429
247	0x3db12bcb	0.08650931
248	0x3d0f8098	0.035034746
249	0x3d8e0cf7	0.069360666
250	0xbd127be1	-0.03576267
251	0x3dc87a94	0.09789005
252	0x3e0349f5	0.12821181
253	0xbded2f33	-0.11581268
254	0xbdf672d9	-0.12033624
255	0xbd4f674c	-0.05063562

decoder.layers.2.bias f4 [32]
0	0xbe0b4425	-0.13600214
1	0xbd64b386	-0.05583527
2	0x3dbd7ccd	0.092523195
3	0xbd5cc0d6	-0.05389484
4	0x3e2f51b9	0.17121018
5	0xbcf203c5	-0.029542813
6	0x3cad827b	0.021180382
7	0x3dc65fde	0.09686254
8	0xbc1bb434	-0.009503413
9	0x3e179746	0.148038
10	0xbbd9767c	-0.006636439
11	0xbe28284f	-0.16421627
12	0xbc6e900f	-0.014560713
13	0x3be1f20e	0.0068953102
14	0x3d5c0ae2	0.053721316
15	0x3c3b87a5	0.011445914
16	0x3d0fd21a	0.035112478
17	0x3c887062	0.01665515
18	0xbca96492	-0.020677838
19	0xbdda38de	-0.10655378
20	0xbe13ba34	-0.144265
21	0xbd8e2f5f	-0.06942629
22	0x3b0aec4b	0.002119797
23	0xbc3e8575	-0.011628498
24	0xbd661900	-0.056176186
25	0x3d153664	0.036428824
26	0x3e29330f	0.16523384
27	0xbdeb4e09	-0.114894934
28	0xbc12d86e	-0.008962734
29	0xbd0c6124	-0.034272328
30	0x3da82841	0.08210803
31	0xbb75c709	-0.0037502667

decoder.layers.4.weight f4 [24, 32]
0	0xbd05acf8	-0.03263566
1	0x3dd2e4a4	0.10297516
2	0x3e1e7ede	0.15478083
3	0xbdd5801c	-0.104248255
4	0x3d53ccfd	0.051709164
5	0xbe0b0e1c	-0.13579601
6	0x3e12f325	0.14350565
7	0xbe2a8f43	-0.16656213
8	0xbd910ff5	-0.07083122
9	0xbd4ff444	-0.05077006
10	0xbe0a8d1e	-0.13530394
11	0x3da1d61e	0.07902168
12	0x3df1eecf	0.11813127
13	0x3ddba44e	0.10724698
14	0x3c1c6a27	0.009546793
15	0x3bd7f632	0.006590628
16	0xbde09810	-0.109665036
17	0xbe068a01	-0.13138582
18	0xbe1626cb	-0.14663236
19	0xbdc0c869	-0.09413225
20	0xbd5b1f7b	-0.05349682
21	0xbddd7f09	-0.10815246
22	0x3ce5ed39	0.028067218
23	0xbe13108b	-0.1436178
24	0xbd557a09	-0.052118335
25	0x3d8d3ed4	0.06896749
26	0xbd5d4a3a	-0.054025866
27	0xbd3cc8e5	-0.046090025
28	0xbd690a79	-0.056894753
29	0x3d0cc77a	0.034369923
30	0x3c045042	0.008075776
31	0xbde91af5	-0.11382095
32	0xbc10ad53	-0.008830386
33	0xb822ca6e	-3.8812337e-05
34	0x3e2a5686	0.16634569
35	0x3db7774a	0.089582995
36	0x39292af4	0.00016133097
37	0xbd7f313f	-0.062302824
38	0x3d112cf7	0.035443272
39	0x3cce6b86	0.025197756
40	0xbe016eea	-0.12639967
41	0xbe1af988	-0.15134251
42	0xbdea53eb	-0.11441787
43	0x3dc08e8b	0.09402188
44	0x3e1b13f8	0.15144336
45	0x3decd73d	0.11564491
46	0x3d5b0bb9	0.053477976
47	0xbe1fced5	-0.15606244
48	0x3e371fd6	0.17883238
49	0xbe10a432	-0.14125136
50	0x3cc7b6ad	0.024379099
51	0x3dbbc582	0.09168531
52	0x3d1a5912	0.0376826
53	0x3d7cc2d2	0.061709233
54	0xbdc66888	-0.096879065
55	0x3d9e3d42	0.07726528
56	0x3e168c8f	0.14702056
57	0xbe0380bd	-0.12842079
58	0xbcfc8597	-0.03082542
59	0xbd8220f8	-0.063539445
60	0xbc9fafb0	-0.019492954
61	0x3dfffbd0	0.12499201
62	0x3e253419	0.16133155
63	0x3c40b9fa	0.01176309
64	0xbcb07d17	-0.021544022
65	0x3d0d6ade	0.034525745
66	0xbe14bf9f	-0.14526223
67	0x3dd17156	0.10226695
68	0xbd8c39cc	-0.068469614
69	0x3cde8d6d	0.027167046
70	0xbd8acaf4	-0.067769915
71	0xbcd510c1	-0.026008965
72	0xbdd20aa0	-0.10255933
73	0x3d30a2bf	0.043123957
74	0x3dc74913	0.09730735
75	0x3e2b364d	0.16719933
76	0xbdb6a9ca	-0.089191034
77	0x3d768643	0.060186636
78	0xbda5aa93	-0.08089175
79	0x3e0b11f7	0.13581072
80	0xbe0cabb5	-0.13737376
81	0x3e177dbb	0.14794056
82	0xbd4214da	-0.047383167
83	0xbdcb86d3	-0.09937825
84	0xbd814c17	-0.06313341
85	0x3c921499	0.017832087
86	0x3dab4d03	0.08364298
87	0xbda7294d	-0.081621744
88	0x3e273505	0.16328819
89	0xbdcf0fd3	-0.1011044
90	0x3ad87863	0.001651537
91	0x3e100b60	0.14066839
92	0xbbb58cd8	-0.0055404715
93	0x3d172a67	0.036905672
94	0x3e200c10	0.15629601
95	0xbdee996c	-0.11650357
96	0xbd2567d7	-0.040382233
97	0x3d8cbe86	0.06872277
98	0x3c94baa0	0.018155396
99	0xbddd0361	-0.1079166
100	0xbe02edc2	-0.1278601
101	0xbe072593	-0.13197927
102	0x3e203db1	0.15648533
103	0x3cf90391	0.030397208
104	0xbde19519	-0.11014766
105	0x3df2d8ee	0.11857782
106	0x3e2a7d2a	0.16649309
107	0xbc945b4d	-0.018109942
108	0x3ddfce8b	0.10928067
109	0xbdcb56b2	-0.09928645
110	0x3e207d38	0.15672767
111	0xbdb8a5fd	-0.09016035
112	0x3d8c389f	0.06846737
113	0x3ce719db	0.028210571
114	0x3d0f5975	0.034997422
115	0xbd0e46c8	-0.03473547
116	0x3e190142	0.14941886
117	0x3d4740ee	0.048645906
118	0xbdcaf4a5	-0.099099435
119	0x3d083bc5	0.033260126
120	0x3de456d1	0.111493714
121	0x3d541eef	0.051787313
122	0x3e365b59	0.17808284
123	0x3e2e285c	0.17007583
124	0xbe050e5f	-0.12993763
125	0x3e1d4954	0.15360004
126	0xbde87b01	-0.11351586
127	0xbd8d7dd2	-0.06908764
128	0xbd90b516	-0.070657894
129	0x3d4e19f4	0.05031772
130	0x3c75748f	0.014981403
131	0x3dea6c2c	0.114464134
132	0xbd918b5f	-0.07106661
133	0xbdbc6fd6	-0.092010185
134	0x3cd2ef69	0.025748925
135	0x3dfdf57e	0.124003395
136	0xbd65d024	-0.0561067
137	0xbd7860f4	-0.060639337
138	0x3e19200a	0.14953628
139	0xbdd56f5d	-0.104216315
140	0x3e05c831	0.13064648
141	0x3d95464c	0.07288799
142	0x3e2b9fe3	0.1676021
143	0xbdab2547	-0.083567195
144	0x3e288c48	0.16459763
145	0x3e2da37b	0.16956894
146	0x3caee98a	0.021351594
147	0xbe2b4870	-0.16726851
148	0xbe24004a	-0.16015735
149	0x3cedeaae	0.029042568
150	0x3def9a17	0.11699312
151	0xbd8d30eb	-0.06894096
152	0xbdb52cd9	-0.08846445
153	0x3d8cf2fe	0.068822846
154	0x3dbbf64e	0.09177838
155	0xbe26aa9c	-0.1627602
156	0x3df0e5ef	0.11762606
157	0x3db6c797	0.089247875
158	0x3e092703	0.13393788
159	0xbd75b062	-0.059982665
160	0xbd01e6b3	-0.031714153
161	0x3bc3513b	0.005960611
162	0xbe1af3e9	-0.15132107
163	0x3e2b509a	0.16729966
164	0x3d0d676d	0.034522463
165	0xbd0f6aa0	-0.035013795
166	0xbd0bf160	-0.03416574
167	0xbb1663b3	-0.002294761
168	0xbdbc02e3	-0.09180238
169	0x3e2ac990	0.16678452
170	0xbe024930	-0.12723231
171	0x3e2e066d	0.16994639
172	0x3e2cf60f	0.16890739
173	0x3e0466cc	0.12929839
174	0x3d5dc5eb	0.054143827
175	0xbe1692aa	-0.14704385
176	0x3c2129c6	0.00983662
177	0xbe004d0d	-0.12529393
178	0x3d98cdd1	0.07461131
179	0xbda5692a	-0.08076699
180	0x3db555f6	0.088542864
181	0xbdf8b603	-0.12144091
182	0x3e286148	0.1644336
183	0xbe0ec0f1	-0.13940789
184	0xbd9acd26	-0.0755866
185	0x3d072756	0.032996498
186	0x3ddf6a33	0.10908928
187	0xbe2cd4bf	-0.16878031
188	0x3de1e17e	0.11029337
189	0xbe1d39be	-0.15354058
190	0xbe043ed4	-0.12914592
191	0xbdc06fa5	-0.093962945
192	0xbd8781a1	-0.066165216
193	0xbdb7f4c9	-0.08982236
194	0xbe0d8eeb	-0.1382405
195	0x3e17238b	0.14759652
196	0x3cccbed4	0.024993338
197	0xbc87ede8	-0.016592935
198	0xbdc242f2	-0.09485425
199	0x3d908f35	0.070585646
200	0xbe10c5aa	-0.14137903
201	0x3d0f63dd	0.035007346
202	0xbd199fbb	-0.037505846
203	0x3dc5e821	0.09663416
204	0xbe081b90	-0.13291764
205	0xbd8db4ef	-0.06919276
206	0xbd444bc9	-0.047923837
207	0x3e23bcd4	0.15990001
208	0xbd57f266	-0.052721404
209	0x3dce2e4e	0.10067426
210	0x3d386e30	0.045026958
211	0x3dfaf832	0.12254371
212	0x3dcd03f0	0.10010517
213	0xbca58d85	-0.020209083
214	0x3e19ef3c	0.15032667
215	0xbd456b52	-0.04819805
216	0x3d019a8c	0.031641528
217	0xbc970e3d	-0.018439407
218	0xbc55c522	-0.013047488
219	0xbe2b07c1	-0.16702177
220	0xbd841284	-0.06448844
221	0xbdd464e5	-0.103708066
222	0x3e1d7e97	0.15380321
223	0x3c6f261a	0.014596486
224	0xbdc57c1f	-0.09642815
225	0x3dbc063e	0.09180878
226	0xbd8b8363	-0.068121694
227	0x3e0e7251	0.13910796
228	0x3e2a5009	0.16632093
229	0xbd873916	-0.06602685
230	0x3d9b09e4	0.07570246
231	0x3bd7e03a	0.006588009
232	0xbddb4bfe	-0.10707854
233	0xbe2eeb7a	-0.17082015
234	0xbd071421	-0.03297818
235	0xbc3eb355	-0.011639436
236	0x3cae494b	0.021275183
237	0x3cffde6b	0.031233987
238	0xbced16a6	-0.028941464
239	0x3cd8eae5	0.026479194
240	0x3e146edd	0.14495416
241	0x3d93a23c	0.07208678
242	0x3de1d0dd	0.11026166
243	0x3d51a0bd	0.051178683
244	0xbdedd225	-0.116123475
245	0x3ddcb321	0.107763536
246	0xbe09ac4d	-0.13444634
247	0x3db9bf82	0.0906973
248	0x3d15a854	0.036537483
249	0xbd91a338	-0.0711121
250	0xbdcc9cb8	-0.09990829
251	0x3e08e8bd	0.13370033
252	0xbd365fea	-0.044525065
253	0x3c72111a	0.014774585
254	0xbd3d17c6	-0.04616525
255	0x3dd03fd8	0.10168427

decoder.layers.4.bias f4 [24]
0	0x3dba77e7	0.09104901
1	0xbda2adc7	-0.07943302
2	0x3e09b61d	0.13448377
3	0xbc90fc15	-0.017698327
4	0xbb6a2ea8	-0.0035733376
5	0xbd8e77c1	-0.06956435
6	0x3d823f7e	0.063597664
7	0xbd002fc6	-0.03129556
8	0xbe0e7b79	-0.13914289
9	0x3e0b17e5	0.13583334
10	0x3e17d6e1	0.14828064
11	0x3de9d5ff	0.1141777
12	0x3d83e873	0.064408205
13	0x3dc036ee	0.09385477
14	0xbd69e4da	-0.057103015
15	0xbe1824a6	-0.1485773
16	0x3df81687	0.12113672
17	0xbca407e5	-0.020023296
18	0xbe16496c	-0.14676446
19	0x3e319f9f	0.17346047
20	0xbdaaf9be	-0.08348416
21	0xbe11ad40	-0.14226246
22	0x3e25ed88	0.16203892
23	0x3e1cb325	0.15302713
