m4_ws/src/morphing_lander/learned_models/2024-05-20_18-08-49/model_90.pth (torch, 33710 bytes, 22 tensors)

cond_normalizer.mean f4 [11]
000000 70 50 bb be 44 50 20 bd 8c 7f 37 ba 74 3a d5 3a
       -0.36584806 -0.039139047 -0.0006999902 0.0016268031
000010 f1 65 41 3d 78 5c af 3c 38 cf d3 ba e0 a1 01 3f
       0.04721636 0.021406397 -0.0016159778 0.50637627
000020 06 09 05 3f fa 25 02 3f 69 69 04 3f
       0.51966894 0.508392 0.51723343

cond_normalizer.variance f4 [11]
000000 83 b3 ce 3d fe 7f a3 3b 16 47 e3 39 7c f9 af 39
       0.10092833 0.004989623 0.00043349777 0.0003356448
000010 14 ea 7f 3c 65 2c bc 3c d6 cc db 3d 8c 87 a8 3c
       0.015619773 0.022970388 0.10732429 0.020572446
000020 fa 6b ad 3c 91 f4 a3 3c 2a 6c b2 3c
       0.021169651 0.02001408 0.021780092

output_normalizer.mean f4 [12]
000000 04 57 c2 bb 2f c9 41 bb d3 97 88 3c f2 1c d2 38
       -0.005930783 -0.0029569378 0.016673958 0.00010018972
000010 61 9d 3c 3b a0 a4 ba 3a 48 aa c3 3b db a0 b1 3b
       0.0028780329 0.0014239736 0.005971227 0.005420787
000020 91 86 4a 40 91 30 58 3e 53 06 0a 3f ed cd 83 ba
       3.1644633 0.21112277 0.539159 -0.0010055878

output_normalizer.variance f4 [12]
000000 80 2e a2 3d 4c 08 55 3d d3 2d 54 3d cc 6c c7 38
       0.079190254 0.052009866 0.051801514 9.5093244e-05
000010 c8 14 99 3b 48 dc ac 3b 62 89 bd 3d a7 17 d2 3e
       0.004671667 0.005275283 0.09254719 0.4103367
000020 81 98 66 42 ec 2e b4 41 a3 e7 62 40 56 1c 5e 3e
       57.64893 22.522911 3.545388 0.21690497

encoder.layers.0.weight f4 [32, 23]
000000 a1 ed ff 3a 6e ab bf 3b ec bf ac 3b c9 a9 f5 bc
       0.0019525775 0.0058492934 0.0052719023 -0.029988186
000010 2c a0 ae 3d 7b 90 8c 3e 07 93 c7 bd ad a1 0d be
       0.08526644 0.2745398 -0.0974484 -0.13831206
000020 0f 18 26 bd 10 41 c2 3d fa 1b 08 be 82 aa ee 3c
       -0.040550288 0.09485066 -0.13291922 0.029134039
000030 c1 08 fb 37 88 b1 8b 3c 5d 28 43 3e f7 f0 83 3e
       2.9925608e-05 0.017052427 0.19058366 0.2576978
000040 0b 22 1d 3c 08 ab 2b bc 04 fc 89 3b 16 f8 5d bd
       0.009590636 -0.010477789 0.004210951 -0.05419167
000050 0e 48 9c bb e7 71 49 3d 7b 8a 20 3c 3d 30 78 bd
       -0.004769332 0.04918089 0.009798641 -0.06059288
000060 bd 2e 3d bb f1 80 d8 bd 0a c2 f8 bd 12 cd ff 3d
       -0.002886697 -0.105714686 -0.12146385 0.12490286
000070 11 82 4d be 0b 39 17 3e 28 a9 8a 3e cf 09 10 3e
       -0.20069148 0.14767854 0.2708218 0.14066242
000080 de 3c 15 be 6e 88 1e be 99 02 16 3e 69 52 3a 3d
       -0.14574 -0.15481731 0.14649428 0.04548875
000090 70 05 98 bd 18 b3 16 bc b7 b9 89 ba 45 4a 08 bd
       -0.07422912 -0.009197973 -0.0010507618 -0.033273954
0000a0 ed 6e 24 3c db cf 6b 3d 8e 54 c1 3d 4b 92 c7 bd
       0.010036212 0.057571273 0.09439956 -0.097447
0000b0 a3 4a e4 bd a0 42 ee 3c 18 91 06 3e 74 a1 b5 3b
       -0.11147048 0.029084504 0.13141286 0.0055429284
0000c0 a9 bc 3a bc 88 1c 08 3e 26 d5 b3 be 2a 75 90 3d
       -0.011397519 0.13292134 -0.35123557 0.07053597
0000d0 0d 44 02 3e 35 97 a4 3d a7 2e 80 3c b1 d6 37 bd
       0.12721272 0.08036653 0.015647246 -0.04488248
0000e0 31 27 1b bc 3d ef 2e 3e 84 ad c9 3b ca 78 07 3d
       -0.009469793 0.1708345 0.006154718 0.033074178
0000f0 60 a9 16 3d d2 52 11 3e e0 c2 87 bd d1 f0 d2 3d
       0.036782622 0.1419175 -0.06628966 0.10299838
000100 f3 b8 69 3c 7c d0 84 3d 90 aa ab bc 5a ee 91 bd
       0.014265287 0.06485078 -0.020955354 -0.0712554
000110 72 b0 0f 3d 4c 50 bd bb 9d 2e 03 3d e5 64 75 bc
       0.03508038 -0.0057773944 0.032026876 -0.014977668
000120 cf e2 18 be e7 e8 29 3e 56 f6 cc be 03 5c 42 3e
       -0.1493027 0.16592751 -0.4003169 0.18980412
000130 c4 ea 8d be f4 22 1e 3d 9b 66 dd 3b 65 31 06 3e
       -0.27718174 0.038607553 0.0067566163 0.1310478
000140 17 3c 32 3e ba 90 14 3b 0d e0 c6 3c 47 55 09 3d
       0.17405735 0.0022669272 0.024276758 0.033528592
000150 7d 8b bc bd d1 59 f0 ba 84 83 c2 3c a6 00 b3 bb
       -0.09206293 -0.0018337314 0.023744352 -0.005462724
000160 e6 f5 cb 3d f7 84 de 3d 33 02 a3 bd 7a 4a 00 be
       0.09959011 0.10865205 -0.07959404 -0.1252841
000170 dd 17 60 3b 58 e5 d5 ba 5f 38 32 3e 16 ce a0 bd
       0.003419391 -0.001631896 0.17404316 -0.07851808
000180 50 09 20 bd 87 cf 5e 3d 97 b0 66 3d 66 3c 80 3d
       -0.03907138 0.054397132 0.056320753 0.0626152
000190 6f fc 42 bc 0e fd 80 be e1 5c 43 be 90 5d 6d 3d
       -0.011901005 -0.25193065 -0.19078399 0.057950556
0001a0 6d e9 0e bd 23 13 aa 3d d6 2f 84 bc 95 bb 3f be
       -0.03489058 0.08304431 -0.016136091 -0.187239
0001b0 71 b6 4c 3b 44 51 19 3d 8e e1 29 bc a1 5d 46 3e
       0.0031236673 0.037431017 -0.010368718 0.19371654
0001c0 ab dc 96 bd a5 a7 9c bd 71 95 52 bc 28 a1 d5 ba
       -0.07366308 -0.07649163 -0.012853012 -0.0016298639
0001d0 66 63 70 3d d0 2e eb 3c 17 e8 e6 3c 43 d6 a7 3d
       0.058688544 0.028708845 0.028186841 0.08195164
0001e0 39 a4 00 be 3a a2 3b 3e 43 4e 32 3e ea 84 a5 3d
       -0.12562646 0.18323603 0.17412667 0.08081992
0001f0 6c f0 20 3d b5 f2 09 3e 0c 28 2b be 86 29 84 bd
       0.039291784 0.13471492 -0.16714495 -0.064532325
000200 37 0c 06 bd 77 cc 87 3e 5d e8 97 3c 43 28 86 bd
       -0.032726493 0.26523182 0.018543417 -0.06550648
000210 3a e2 f6 3d ec 43 00 bd 46 e8 25 3d f3 a9 f7 3d
       0.12054868 -0.031314775 0.040504716 0.12092962
000220 8a 90 82 bd 8d 1d be bd 7c 01 27 3d e4 26 53 bb
       -0.06375225 -0.0928298 0.0407729 -0.0032219226
000230 3c ed 0a bd 11 98 8b 3e 6f fb 65 3e 95 16 84 3e
       -0.03391765 0.27264455 0.22459196 0.2579848
000240 4b 2d 4d be f0 40 8d bd ca fe 82 3c b8 7f e3 38
       -0.20036809 -0.068971515 0.015990634 0.00010847993
000250 0a 95 f6 3d bc f7 2d 3d 57 bf 99 bc 2c ed ea 3c
       0.12040146 0.042472586 -0.018767996 0.028677545
000260 76 bb b5 bb aa 5e 0a 3e 9d 16 e3 bd 21 21 f5 bc
       -0.0055460287 0.13512674 -0.110882975 -0.029923024
000270 39 d4 9e 3a fc 34 7e 3d c9 63 9a bd c7 8f f2 bc
       0.0012117691 0.06206225 -0.07538564 -0.029609574
000280 db 11 0e 3d 33 60 db b9 3a 69 a0 bb c9 48 24 bc
       0.034684997 -0.0004184261 -0.0048953565 -0.010027119
000290 7c 95 8e 3d c1 20 34 bd 31 80 23 3e 32 34 90 3e
       0.06962106 -0.04397655 0.1596687 0.28164822
0002a0 24 25 8c bd ea 40 f5 bc 17 0c 96 3d 74 57 42 3e
       -0.068430215 -0.02993818 0.07326525 0.18978673
0002b0 85 a0 19 3e e1 32 d7 3c f0 d1 84 bb b1 55 8a 3d
       0.1500264 0.026269378 -0.004053347 0.067546256
0002c0 ff 94 9c bd 41 ec e1 ba 15 47 2e 3c 71 60 94 3b
       -0.07645606 -0.0017236547 0.010637064 0.0045280983
0002d0 39 c9 3e 3d 20 27 2e 3c 2e fa 0e 3d 0c ee 00 be
       0.04657862 0.010629445 0.03490656 -0.12590808
0002e0 29 f7 16 bb 99 70 0d 3c ef 7f fd 3a 5b 34 5d 3d
       -0.0023035503 0.008632802 0.0019340495 0.05400501
0002f0 c9 78 97 3d b2 84 76 be 33 c6 44 3e fa fe b1 be
       0.07396085 -0.24074057 0.19216232 -0.34764844
000300 02 a9 3e 3d 55 4b 00 3c 1c 5e 24 3e 3c ca 82 be
       0.046547897 0.007830461 0.16051525 -0.25544918
000310 7d 99 0c 3c 34 ac 9b 3b bf 2b 77 be b7 74 8a 3e
       0.008581516 0.004750753 -0.24137782 0.2704217
000320 0f 08 53 bc 19 e7 77 bc f6 f9 ac ba 53 a2 7a bd
       -0.012880339 -0.015130782 -0.0013197053 -0.06118996
000330 1a 40 23 3d 03 a0 3c 3d 5e cf 1b bd 3a 3f 55 3b
       0.039856054 0.046051037 -0.038039558 0.0032538907
000340 f2 5e 0d be 12 b4 b9 3d 5d fb 86 3c 8d bf 18 3d
       -0.1380575 0.09067549 0.016477281 0.037292052
000350 85 fa 9e bd a9 a5 aa bd e1 38 1e be 4f 51 0b 3d
       -0.077626266 -0.083323784 -0.15451385 0.03401309
000360 43 a5 c0 bd 70 3a 4d 3d 6c 89 83 3b 36 af df bb
       -0.09406521 0.05010456 0.0040141847 -0.0068263067
000370 32 18 e0 bc 1e d1 22 be cb 45 7f 3d 0a c5 8f 3d
       -0.027355287 -0.15900084 0.06232242 0.07020004
000380 ea 6f 0e be 25 69 94 3d 9d f4 16 bc bd 88 bc 3d
       -0.1390988 0.07246617 -0.009213594 0.09205768
000390 10 72 8b 3d ba a1 0a 3e 76 2f 1c 3b a1 73 8c b9
       0.06808865 0.13538256 0.0023832 -0.0002678903
0003a0 cc 85 c8 bb 3b 87 67 be b5 1e 09 3e 62 a9 92 3e
       -0.0061194655 -0.2261018 0.1339062 0.28644854
0003b0 ec 65 48 bd 13 ab d1 bd 5b df 2e bc dd 21 bd 3d
       -0.048925325 -0.10237708 -0.010673369 0.092349745
0003c0 20 b3 15 bd 4e fd d0 bd 45 27 02 39 62 ed cd 3c
       -0.03654778 -0.10204564 0.00012412395 0.025137607
0003d0 10 7e 0a bd 39 f5 d4 3d 2a 46 95 ba a2 c9 81 bc
       -0.03381163 0.10398335 -0.0011388708 -0.015843216
0003e0 c3 43 91 b9 04 68 7e bd a7 21 c8 3d bb 7d 0c bd
       -0.00027707042 -0.062110916 0.09772044 -0.034299593
0003f0 66 93 c6 bb 16 5e aa ba 5e aa 98 bb 9d 19 27 be
       -0.0060600517 -0.001299801 -0.004658981 -0.16318364

encoder.layers.0.bias f4 [32]
000000 5d 83 8a bb a6 1e 6a 3c 33 e8 2a bd f7 47 ef bc
       -0.0042270855 0.014289534 -0.04172535 -0.02920912
000010 03 f0 2f 3c a6 b5 c1 3c ba ad e1 bc bf cc 62 bd
       0.010738376 0.023646187 -0.02754866 -0.055371042
000020 3b 63 8c bb 5e 3f 4d 3c 91 07 b1 bb df 44 86 3c
       -0.00428429 0.012527315 -0.0054025133 0.016390262
000030 a8 79 cf 3d 47 ee 39 bd 60 43 10 bd 93 37 4a bc
       0.10130626 -0.045393255 -0.035220504 -0.0123423515
000040 18 51 c7 bc c5 6a 6e bc b6 f4 d4 3e 64 2a 3b bc
       -0.02433066 -0.014551823 0.4159295 -0.011423681
000050 c8 da a6 3e 7b 64 30 bc a5 59 d3 3e c5 73 1a bc
       0.32588792 -0.010766144 0.4127933 -0.009427016
000060 3a ce 63 bc d2 4d d8 bb e2 08 f6 3d f5 e7 a0 3e
       -0.013904149 -0.006601074 0.12013413 0.3142697
000070 84 f6 3f bc 54 a4 e2 3d 6b 98 cc bc 6b 31 24 bc
       -0.011716489 0.11066499 -0.024975022 -0.010021548

encoder.layers.2.weight f4 [32, 32]
000000 d6 c9 b8 3d fb b6 bc 3d 71 45 1f 3e b4 14 37 3e
       0.09022872 0.09214588 0.15553834 0.17878991
000010 3f 0e 6d 3e cf cb 19 3e 75 0d ca 3d 02 7b 93 3d
       0.23149966 0.15019153 0.09865848 0.07201196
000020 8b e4 46 3e 5d bf 26 3c d7 cb b0 3d 5b 62 10 3e
       0.1942312 0.0101774605 0.08632629 0.1410002
000030 8a 54 e2 3c 91 d6 f1 3d e8 f5 5b 3d d9 3d 42 3e
       0.027628202 0.118085034 0.05370131 0.18968906
000040 e2 94 30 3e 11 e7 31 3e 7f f3 89 bd 62 7a ed 3d
       0.17244294 0.17373301 -0.06735896 0.11595608
000050 ed cc d5 bd b7 d6 72 3b de 16 29 3d 74 78 7c 3d
       -0.10439477 0.003705425 0.041281573 0.06163831
000060 12 c1 4a 3e 27 8f 1d 3e 02 c9 c4 3d 15 ae 01 3a
       0.19800213 0.1538664 0.09608652 0.00049469
000070 5a 65 19 3e ea 93 09 3c 6b 48 56 3e 1d 36 c9 3d
       0.14980069 0.008397082 0.20926063 0.098247744
000080 0a 81 9f 3d d9 03 20 3c 03 41 0e bd 65 8b 95 3e
       0.07788284 0.009766542 -0.03472997 0.29207912
000090 eb ca c4 3c f7 eb 2d 3e 41 cf 95 3d 29 0c 43 bd
       0.02402254 0.16984545 0.07314921 -0.04761902
0000a0 da fc d2 3d c4 3c aa 3d 12 b2 11 3e 0f 4e 09 3e
       0.10302134 0.083123714 0.14228085 0.13408683
0000b0 66 64 3c 3e 32 b8 c8 3d 3e 2f 66 3c 48 cc 44 3e
       0.18397674 0.098007575 0.014049349 0.19218552
0000c0 4c 3c 2f 3e 74 70 82 bd 73 7e 11 3e 7d 85 09 3e
       0.17112845 -0.06369105 0.14208393 0.13429828
0000d0 84 08 0d 3e cc 07 3d 3e 80 33 f6 3d 00 34 43 3e
       0.1377278 0.18460006 0.120215416 0.19062805
0000e0 f7 66 12 3e 32 c2 44 3e 13 43 c4 3d 4d c9 51 3d
       0.1429709 0.19214705 0.09583106 0.051217366
0000f0 65 93 09 3e 1d 83 80 3d a7 ad ff 3d b3 0e 3c bd
       0.13435133 0.06275008 0.124842934 -0.045912456
000100 01 c0 9d 3d 05 71 34 bd 13 c9 f9 3d aa 64 fd 3d
       0.077026375 -0.044053096 0.12196555 0.12372716
000110 c9 ed 57 3d c1 8c b0 bd 1a 8d 2a 3e 7f 95 d5 3a
       0.052717004 -0.08620597 0.16655388 0.0016295164
000120 7c 41 3d bd 01 6d 12 3e 3e bf 3f 3d 8c 92 66 3e
       -0.04620503 0.14299394 0.046813242 0.2251684
000130 68 48 8e 3d 0d 6f c1 3d f9 bf 1f 3e 7f 77 91 3c
       0.06947404 0.094450094 0.15600576 0.017757175
000140 76 ae 34 3e 07 70 e3 3d 2e df 68 bc 42 5a 45 3e
       0.17644677 0.11105352 -0.014213366 0.19272712
000150 7f 5f 35 3d c4 85 32 3e 38 7f 43 3e 6e da 5d 3e
       0.044280525 0.1743384 0.19091499 0.21665356
000160 d6 f6 c0 3d 93 0e 49 3e 75 dd 97 3d 68 c2 0c 3d
       0.0942208 0.19634466 0.074152865 0.034365088
000170 8e 15 df 3d 09 5b 57 3d 1b c8 23 3e ed 01 05 3c
       0.10892783 0.052577052 0.15994303 0.008118135
000180 fa a0 11 3e db 28 06 bd 55 ce 6c bc 79 bc 57 3d
       0.14221564 -0.032753807 -0.01445349 0.052669976
000190 e3 cf 66 3d af 95 89 3c 4a 3b 2e bc 6c 36 22 3e
       0.0563506 0.016795008 -0.010634253 0.15841073
0001a0 cb 1d 3d 3e 97 51 d6 3c bf 75 06 3e 26 19 6a 3e
       0.18468396 0.026161952 0.13130854 0.22861156
0001b0 54 20 16 3e 32 77 20 3e 16 97 6a 3d bd 3b 02 3b
       0.1466077 0.1567047 0.057272993 0.0019872033
0001c0 b2 0a 0b 3e 90 db d3 bc 0a 35 23 3d 7b 59 fa bc
       0.13578299 -0.025861531 0.039845504 -0.030560246
0001d0 da ef 92 3d 30 f0 9a 3d 68 b3 aa 3d 90 01 06 3e
       0.07174654 0.075653434 0.08335 0.13086534
0001e0 69 e2 12 3e 61 d7 6e 3d 3e 08 9e ba 50 a0 17 3e
       0.14344181 0.05831087 -0.00120569 0.14807248
0001f0 a8 07 47 3d 60 78 ee 3d 26 02 ad 3d 3c c5 ae 3c
       0.048591286 0.116440535 0.084476754 0.021334283
000200 8c 35 8e bd 81 24 92 3d 67 a0 67 bc 1b 8e 36 3e
       -0.06943807 0.07135869 -0.014137364 0.17827646
000210 c9 3a b3 bd 17 f6 9c bd d3 11 8e 3d f2 fd dd 3c
       -0.08751447 -0.076641254 0.069369934 0.02709863
000220 de 8e 31 3e 81 eb d2 3c a1 79 10 3d 35 8d 00 3e
       0.17339656 0.025747063 0.035272244 0.12553866
000230 6a a3 2a 3e 3f ff e3 3d 25 14 bf bd f3 b2 d9 3d
       0.166639 0.11132669 -0.09330014 0.10629835
000240 e2 b0 8f 3d 24 ec 9e bd 45 03 2e bd 31 f8 a4 3d
       0.070161596 -0.07759884 -0.042483587 0.08055151
000250 4a 22 ae 3d 2d e7 15 3e 08 c8 ce bd 8f 34 74 3d
       0.08502634 0.14638968 -0.10096747 0.059620436
000260 c1 5e 77 3d b3 a3 51 3d 4f 37 09 3d aa f2 f5 3d
       0.0603931 0.051181506 0.033500012 0.12009175
000270 31 16 5f 3d bd 5a 25 3e 79 10 28 bd db 9a 04 3e
       0.054464523 0.16147895 -0.041031335 0.12949698
000280 74 59 f4 bb ec 60 43 3e 0c d2 d7 3c ba 1c ee 3c
       -0.0074569527 0.19079942 0.026345275 0.029066432
000290 b4 f9 8c 3d 1f bc dc bd 91 94 c8 3d 38 b6 d8 3d
       0.068835646 -0.10778069 0.09793962 0.105816305
0002a0 41 43 d3 3c a7 6d 82 3d a2 67 a5 3d 2d 9a ad bb
       0.025788905 0.06368571 0.08076407 -0.00529792
0002b0 f7 a7 bd 39 33 79 73 3d 32 aa 3b 3d 54 f2 9b bd
       0.00036174033 0.059441756 0.045816608 -0.0761458
0002c0 46 f0 ab 3d a8 45 61 bd d6 35 95 3b a2 fb 44 3a
       0.08395438 -0.05499807 0.004553537 0.0007514303
0002d0 e6 df 9b bd 65 d6 02 bd 1c 0e 06 3d 0b 20 55 3d
       -0.076110646 -0.031942744 0.0327283 0.05203251
0002e0 38 66 cd 3c 1e 01 85 3d 45 e6 82 3c e9 96 0a 3d
       0.025073156 0.06494354 0.015978942 0.033835325
0002f0 2d e2 f0 bc 13 a9 81 bd 35 91 a8 bb e0 64 87 bc
       -0.029404724 -0.063310765 -0.005144263 -0.016527593
000300 4a 67 09 3e ea 43 ed 3c 52 a9 c5 3d 24 3b a3 3e
       0.13418308 0.028963048 0.09651436 0.31881058
000310 e8 dc 8b 3d 7a f0 12 3e 38 52 09 3d 27 cd 6c 3d
       0.06829244 0.14349547 0.033525676 0.057812836
000320 88 c8 4e 3e e9 35 37 3b 49 34 75 3d ea 8e 2d 3e
       0.20193684 0.0027955717 0.059864316 0.16949049
000330 fc 41 07 3e 30 5b 20 bc f6 04 7f bb a9 e1 35 3d
       0.13208765 -0.009787366 -0.003891287 0.04440466
000340 53 81 a5 3e 69 2f ac bd 9c 4a d9 bc 64 0f 73 3e
       0.3232523 -0.0840748 -0.026524834 0.2373634
000350 75 a6 f4 3d bd dd 81 3e 63 69 7a bd 7b e6 03 bc
       0.11945812 0.25364485 -0.06113566 -0.008050556
000360 fe 39 48 3e 21 90 58 3e c6 5f 9d 3b d6 3d 23 3e
       0.19553372 0.21148731 0.004802677 0.15941557
000370 f3 df 9f 3d 45 b9 4c 3e e3 c4 86 bd 92 71 45 3d
       0.07806387 0.1999255 -0.06580522 0.048204012
000380 d4 76 fd bc 50 37 00 bd 5e 40 fe bc 4e aa 85 3d
       -0.03094045 -0.03130275 -0.031036552 0.06526624
000390 18 48 1a 3e ba 4e 0e 3c 2c 14 f9 bd fd 56 62 3d
       0.15066564 0.008685762 -0.121620506 0.05525874
0003a0 1a 12 0c bd c3 5c ec bc a0 7e 0e bd 71 00 08 3b
       -0.03419695 -0.028852826 -0.034788728 0.0020752216
0003b0 f5 4c 15 3e 87 3e 20 3d dd b9 af 3d 2c ca f4 3d
       0.14580138 0.03912213 0.085803725 0.11952624
0003c0 0b 0c fa 3c 24 76 f6 bd a3 77 42 bd 28 c1 7f 3c
       0.03052332 -0.12034252 -0.047477376 0.015610017
0003d0 3f 39 67 3d 33 78 b0 3d 18 74 0c be ab 78 94 bd
       0.05645108 0.08616676 -0.13716161 -0.07249578
0003e0 fc 0f 47 bd 79 e9 06 3e 5d 74 b0 3d dc 84 93 bd
       -0.04859923 0.13175 0.086159445 -0.07203075
0003f0 0e 26 e8 3d 84 38 81 3d 21 ce 19 bc 7e 89 b4 3d
       0.11335383 0.063096076 -0.009387524 0.08815287

encoder.layers.2.bias f4 [32]
000000 ed 07 c0 be 0e e1 b9 bd 8c f7 dd bd f1 28 67 bd
       -0.37506047 -0.09076129 -0.108382314 -0.05643553
000010 99 20 67 bd d5 2e e0 bd 5e ca a1 bd a9 ae 15 3d
       -0.056427572 -0.109464325 -0.078999266 0.036543522
000020 ca 12 03 be 9d 12 b7 bd ae b7 87 3e ef e7 ea 3e
       -0.12800136 -0.08939097 0.26507324 0.45880076
000030 e2 d5 fe 3d 7d 24 99 bd 6f 9b ca 3e 93 c2 e1 3e
       0.12443139 -0.07477663 0.3957171 0.4409376
000040 e0 b1 4e bd 55 12 a7 3d 00 ee 43 3e e1 c1 30 3e
       -0.050462604 0.081577934 0.19133759 0.17261459
000050 dc 01 95 bd 97 c6 12 3d d0 b2 55 3d 09 b7 9c 3d
       -0.07275745 0.03583392 0.052172482 0.07652099
000060 d8 92 c1 3b c4 b5 41 bc 35 a4 1b 3c d8 af 28 bc
       0.0059073977 -0.011823121 0.009499599 -0.010295831
000070 1a 86 9f bd 4b 3a 45 3d 72 3c a3 3b 69 87 56 bd
       -0.0778925 0.048151296 0.004981571 -0.05237523

encoder.layers.4.weight f4 [12, 32]
000000 42 3a 48 3e 57 8d 74 be ed a9 83 be d0 47 c1 bc
       0.19553474 -0.23882042 -0.2571558 -0.023593813
000010 e5 99 4c be b8 c7 c5 3c 34 de a7 be 0f dc 95 3c
       -0.19980581 0.024143085 -0.32786715 0.018293409
000020 4b cd bc bc 47 76 03 be c8 ae 64 3b 7d 2e 01 3f
       -0.02304711 -0.12838088 0.0034894217 0.5046156
000030 ef de 4e 3d ab 5d 46 be 2b 3c e6 3e c9 07 14 3f
       0.050505575 -0.19371669 0.4496778 0.5782438
000040 e2 e9 ec bd d4 78 3b bc 0a 24 d2 3e 7d 94 94 3d
       -0.11568047 -0.011442382 0.4104312 0.072548844
000050 ff eb bd bd 4e 71 04 be 5a e2 12 be 1c 07 2c 3d
       -0.09273528 -0.12933847 -0.14344159 0.041998968
000060 9c 6c 47 be 41 5a a2 bb 94 89 61 bd 89 c8 9b bd
       -0.19475025 -0.0049546068 -0.055062845 -0.076066084
000070 0b 86 c0 3d 28 a0 83 bc 18 a9 9a bd 6f 4a 8d be
       0.09400567 -0.01606758 -0.07551783 -0.2759585
000080 a6 05 17 3e 0e 47 4e be 8c 12 2b be 61 bb 8a be
       0.14748248 -0.20144293 -0.16706294 -0.27096084
000090 34 ab ea bd a1 02 56 3d 0f d7 96 be 41 33 43 be
       -0.11458436 0.0522486 -0.29460952 -0.1906252
0000a0 fb be a2 bd d1 37 0d be 45 f6 0a 3e c7 4e d0 3e
       -0.07946583 -0.13790824 0.13570507 0.40685102
0000b0 31 e9 2d be 1d 73 37 be 68 6a d6 3e ce ec 12 3f
       -0.16983487 -0.17915006 0.41878057 0.57392585
0000c0 4c 36 7e be 0a 38 ec bd bc d9 c0 3e 32 64 17 be
       -0.248254 -0.11534126 0.37666118 -0.14784315
0000d0 70 ca 2c 3d 57 4c 57 be 40 5a 9d 3c fa b6 3b be
       0.042185247 -0.21025215 0.019208074 -0.18331519
0000e0 2b cd 5a be d0 68 42 be 21 9c 5b be 75 1b 55 be
       -0.21367328 -0.18985295 -0.21446277 -0.20811255
0000f0 64 60 56 be 08 87 f7 3c 44 17 3a 3d c6 20 8d bd
       -0.20935208 0.030215755 0.045432344 -0.06891017
000100 62 01 53 be 70 35 a6 bd c6 95 48 bd fa 47 5c 3e
       -0.20605996 -0.08115661 -0.04897096 0.21511832
000110 4b 94 05 be 52 07 1b be de 47 a3 3d 60 fb 18 3e
       -0.1304485 -0.15139511 0.07972692 0.14939642
000120 a2 6a 8b 3d 87 a8 7b 3e 78 95 16 3d da bd b2 be
       0.06807448 0.24576007 0.03676364 -0.3491047
000130 13 cc ff bd 6b 46 be bd d2 ce e3 be da c2 03 bf
       -0.12490096 -0.09290775 -0.4449373 -0.51469195
000140 aa 91 0a 3e 96 88 8b 3d ab 77 ae be 8c b6 0f 3b
       0.13532129 0.06813161 -0.34075674 0.0021928875
000150 af 2d b2 3c 84 2b 9b 3d 17 39 c7 3b 9c e4 e9 bd
       0.0217503 0.07576659 0.0060798037 -0.11420557
000160 74 9a 8c bb aa f3 3f bd 9e fb 00 3e 31 95 06 3d
       -0.004290873 -0.046863236 0.12595984 0.032857124
000170 55 01 09 be e6 47 ca 3d 0f 2b 00 3e 2e e0 00 3e
       -0.13379414 0.09876995 0.12516426 0.12585518
000180 6d c1 5c be 5a 1a 27 bd a9 c7 b8 3d 23 13 c0 3c
       -0.21558161 -0.040796615 0.09022457 0.023446625
000190 65 0f 4e bd 8a 44 91 3d fa 51 24 3e f0 cd c5 bd
       -0.05030765 0.07093151 0.16046897 -0.0965842
0001a0 96 60 5d 3d a6 f9 0a 3e cf c1 5f 3d 09 91 9e be
       0.05404719 0.13571796 0.05462819 -0.30970028
0001b0 00 7a d3 3c a9 4c 5a 3d 42 5c ce bd 3f e5 e8 be
       0.02581501 0.053295765 -0.100761905 -0.454874
0001c0 8b 47 82 3d c9 21 4c bd 93 c3 24 be 08 01 99 3d
       0.06361302 -0.049836908 -0.1609023 0.074709
0001d0 47 7f e0 3d a7 b0 3f 3e ec 65 1f 3b b2 06 f3 bd
       0.10961776 0.18719731 0.0024322225 -0.118665114
0001e0 37 cd 15 3d 3f 50 ef 3d 5a c8 cd 3c 3f 4d 91 bd
       0.03657266 0.116852276 0.02511995 -0.07094812
0001f0 76 f1 ba 3d 08 47 8b 3c 95 fa a1 3d cb 1f a1 bd
       0.09128086 0.017001644 0.07909123 -0.07867392
000200 1a 9c 2b be 93 6a 15 3d 2c 2b 2f 3d bb 98 a3 3d
       -0.16758767 0.03647859 0.04276578 0.079881154
000210 58 6e c0 bd d2 4b f3 3d 80 cd 92 bd 4f f2 0b 3e
       -0.093960464 0.11879696 -0.07168102 0.13666652
000220 8d 7d 41 3e bf bb a6 bd d7 db b8 bc 60 48 c2 3c
       0.1889555 -0.081412785 -0.022565765 0.023716152
000230 9d 46 d0 3d f6 5f ea bc 05 59 0f be 16 d3 22 be
       0.101697184 -0.02861021 -0.13998802 -0.15900835
000240 3d 5e 0c 3c 87 c9 12 3e 98 f1 b6 bd d5 84 75 3e
       0.00856739 0.14334689 -0.08932799 0.23976453
000250 66 48 8e 3d 49 33 66 3d 40 21 e0 bd eb bc c7 3d
       0.06947403 0.056201253 -0.10943842 0.0975283
000260 35 f8 6b bd 19 c3 05 3e 3f 47 60 bd d3 45 03 3e
       -0.057609756 0.13062705 -0.054755446 0.12819605
000270 42 bd 21 3e ee 9f e9 3c 49 19 16 be 5a bf 90 3a
       0.15794852 0.028518643 -0.14658083 0.0011043355
000280 6f d4 cd 3d 19 c5 a4 3d a5 11 07 bd ba f1 a6 bd
       0.10050284 0.08045406 -0.03297581 -0.081515744
000290 99 04 3d bd 6a 64 96 3b e9 5b a6 bd 59 f0 0a 3e
       -0.046146963 0.004589607 -0.08122999 0.13568248
0002a0 3f 9b 6d 3c 23 62 62 bc bb c3 67 bd 6e f0 0d 3e
       0.014502346 -0.013817343 -0.056583147 0.13861248
0002b0 57 5b 92 3c 78 23 3a 3d 1e d1 34 3e 1a 53 cf 3e
       0.01786582 0.045443982 0.17657897 0.4049309
0002c0 fd 62 8e 3d 5a 37 af bc f6 a2 e2 3b bc d6 7d 3d
       0.06952474 -0.021388698 0.006916399 0.061972365
0002d0 2e 4d 7b bd 18 e2 12 bc bd 11 d2 bc 76 32 92 bd
       -0.0613529 -0.008965038 -0.025643224 -0.07138531
0002e0 a5 b8 89 3c ba 37 3b 3d 0f 48 99 bd 03 b9 ab bd
       0.016811678 0.045707442 -0.07484447 -0.083848976
0002f0 c5 79 2b 3a 2f 3f 8d bc b9 bf 06 be b5 28 9d 3c
       0.00065412774 -0.017242042 -0.13159074 0.01918445
000300 5d 69 3f 3e 5a 9e fd bd f1 38 d1 bd 22 c6 80 bd
       0.18692537 -0.12383719 -0.10215939 -0.06287791
000310 d6 45 a3 bb 74 30 b5 bc 7d b0 57 bd d7 98 03 3d
       -0.0049826903 -0.02211783 -0.052658547 0.03212818
000320 b2 af cc 3c 6a 6e bf bd b5 ae 7a be a2 79 5a be
       0.024986122 -0.09347232 -0.24480708 -0.21335462
000330 d6 46 43 be dd b1 12 bd a0 61 7b 3c 55 83 70 bd
       -0.1906999 -0.035814155 0.0153431 -0.058718998
000340 26 50 9c bd 39 fb 3d be 60 41 8b be 02 62 4f bd
       -0.076324746 -0.18552865 -0.27198315 -0.050630577
000350 44 25 e7 3d 0a 38 e6 3d a5 8d 21 be 60 ec 73 3b
       0.11286405 0.11241157 -0.1577669 0.0037219748
000360 ce a7 43 3d 34 e9 a4 3c 73 f5 90 bd 7a 22 e2 3b
       0.047767453 0.020130731 -0.07078066 0.0069010826
000370 19 e8 9d 3d da d6 e0 bd 1d 27 98 3c d7 42 40 bd
       0.07710285 -0.1097848 0.018573338 -0.046938743
000380 4f a6 a1 3e f2 d2 f6 bd ef 26 90 3d 9f e9 3b be
       0.31572196 -0.120519534 0.07038676 -0.18350838
000390 cf 99 98 3d f2 fc 03 3e c7 c4 9c 3d 76 c6 09 bc
       0.07451212 0.1288946 0.0765472 -0.008409133
0003a0 d6 80 a5 3d 02 ba fd bd 59 f0 b2 be c0 f9 27 3c
       0.08081214 -0.12388994 -0.34948996 0.010252416
0003b0 0f 19 30 3c 63 b5 ba 3c fd 1b cb bd 5d b5 16 3a
       0.010748162 0.02279157 -0.09917448 0.0005749071
0003c0 f1 90 78 3c 4a bd d9 3d 54 dc 6c bd 71 4b fc bd
       0.0151712755 0.10631807 -0.05782731 -0.12319077
0003d0 f4 15 21 3b 9e d5 a3 3b e9 08 55 be 1a 3c 81 bd
       0.0024579735 0.0049998304 -0.2080418 -0.063102916
0003e0 94 9f 39 3d 90 4d ed 3b d3 a5 4b bd b7 cd ae bd
       0.0453182 0.007241912 -0.04971869 -0.08535331
0003f0 e0 fa d9 bd 5e 39 ad 3d ee bf 32 be 57 a6 15 3c
       -0.10643554 0.084582075 -0.17456028 0.009133897

encoder.layers.4.bias f4 [12]
000000 64 58 bf 3e 2f cb 90 3e d4 34 a2 be 68 11 0c 3d
       0.37372124 0.28280017 -0.3168093 0.034196287
000010 7c d9 48 bd 6e 81 fc 3d 19 54 17 be 99 0c 5f be
       -0.049035534 0.12329374 -0.14778174 -0.2178215
000020 23 6a 90 bd 0a 72 43 3d 24 92 8f bd 68 d3 b3 bc
       -0.07051494 0.047716178 -0.07010296 -0.021951392

decoder.layers.0.weight f4 [32, 17]
000000 db 63 06 be 6b cb 46 bd 3b 46 41 3d cb 71 90 bd
       -0.1312403 -0.04853384 0.047186118 -0.07052954
000010 0a e7 91 bd 3a 7b 30 bd 14 48 c4 bd 84 33 7b bd
       -0.07124145 -0.043086268 -0.0958406 -0.061328426
000020 f5 89 91 3e c5 b1 66 be c9 8c 3c 3e d7 98 0e be
       0.28425565 -0.22528751 0.1841308 -0.13925491
000030 85 01 d1 3e b7 ee 6c 3e f1 04 a7 3d 16 d4 2e be
       0.40821472 0.23137937 0.081552394 -0.17073092
000040 ee 43 73 3d 20 2c 2c 3e 73 16 a0 3e 8e c0 a1 bd
       0.059390955 0.16813707 0.31267127 -0.07898055
000050 1c e5 37 be 2b e9 c2 3c 8e ff a9 3e c8 ce 5f 3c
       -0.17958492 0.023792824 0.33202785 0.01366014
000060 5d 0e f2 3c ec d0 a3 bd 4d 86 68 3c 37 4a 00 be
       0.029547865 -0.07998833 0.014192176 -0.1252831
000070 79 da 39 bd c7 9f 89 3e 9c 33 c7 bc 79 5a 8f be
       -0.045374367 0.26879713 -0.024316601 -0.27998713
000080 e4 9e 1c be e9 a0 27 3d ad fb 91 3e 4e 19 78 3e
       -0.15294987 0.04092494 0.28512326 0.24228403
000090 a8 35 89 be 27 b4 66 3e 2c 05 0e 3d ff 03 61 3e
       -0.2679875 0.2252966 0.0346729 0.2197418
0000a0 a7 7f 7a be 0b 80 06 be 4b 45 40 be f8 7e 1e 3d
       -0.24462758 -0.13134782 -0.18776433 0.038695306
0000b0 45 95 4d 3e b3 a7 8b 3d de 58 ad 3d 75 d7 29 3d
       0.20076473 0.068190955 0.08464216 0.04146524
0000c0 c1 05 0b be e7 40 af bd 50 36 36 3e 43 0f 72 be
       -0.13576414 -0.08557301 0.17794156 -0.23638634
0000d0 a5 40 d8 bc f2 13 94 bd 22 d5 2f bd 0e 57 4b bc
       -0.026398012 -0.07230367 -0.04292787 -0.012410892
0000e0 a6 a7 2c be 2d 3c 1f be 90 b1 98 3e ca bc 11 bd
       -0.16860828 -0.15550299 0.2982297 -0.035580434
0000f0 ed 7e bf bd 3a e9 8d be a8 f2 05 be 9a 26 8e be
       -0.09350381 -0.27717 -0.13080847 -0.27763826
000100 5e 51 a8 3d 74 c3 47 3e 3d 10 17 3e e8 4d 07 bd
       0.082186446 0.19508153 0.14752288 -0.03303328
000110 30 eb 1d be 35 ab 28 be 89 8f 21 3e b0 43 21 3e
       -0.15421748 -0.1647156 0.1577741 0.15748477
000120 0f 6d 0c 3e 04 19 30 be 37 3b 2f 3e f7 38 bb bd
       0.13713478 -0.17197043 0.17112432 -0.091417246
000130 10 69 e3 bd 70 7b 6a 3e eb 76 ff 3d c9 58 a8 3d
       -0.111040235 0.2289865 0.12473854 0.082200594
000140 01 95 11 3b aa 87 17 be 64 ba cf bc 92 9f 03 be
       0.0022214057 -0.14797845 -0.025357433 -0.1285384
000150 f1 ab 63 3e 2d 85 44 3d d0 9d f2 bd dd 51 22 be
       0.22233559 0.04797857 -0.118465066 -0.15851541
000160 ab 6c 6f 3e e1 00 cd 3d cd 82 d6 bd 1e 70 9d 3e
       0.23381297 0.10009933 -0.10474167 0.307496
000170 14 94 75 3d 6e e4 39 3e 32 83 11 3e be 27 36 3e
       0.05995567 0.18153545 0.14210203 0.17788598
000180 2c b0 99 3d 0d 1b 25 be 7f 12 94 be 7a a5 94 3c
       0.07504305 -0.161236 -0.2892036 0.018145312
000190 01 b6 8a be 38 74 d9 3d 64 3c 3b be 9c fe 22 be
       -0.27091983 0.1061787 -0.18284756 -0.15917438
0001a0 ca 4b 6e bd 30 1c 15 3e db 79 3f bd ab e8 1d be
       -0.058177747 0.14561534 -0.04674707 -0.15420787
0001b0 5c 18 98 be 01 b4 c6 3d ed 0a dc be 16 01 cd 3c
       -0.29706085 0.09702302 -0.42977086 0.025024932
0001c0 47 fb 89 3e 75 23 71 3e 77 63 86 be 58 ff 32 be
       0.26949522 0.23548682 -0.2624776 -0.17480218
0001d0 45 ab 33 3e 91 23 b8 3d 5c cf ab 3d 0c fd 86 3d
       0.17545803 0.08991159 0.0838916 0.065912336
0001e0 42 38 c5 bd 79 21 16 be 74 5f 6e 3e 82 3b 9c 3d
       -0.09629871 -0.14661206 0.232786 0.07628538
0001f0 7e 0a 51 3e 08 ed be bd b6 fd f6 bd 4a 17 e0 bc
       0.20414159 -0.09322554 -0.1206011 -0.027354855
000200 4c d8 f1 3d bf 91 95 3c 23 34 2d bd 3c fd 6b 3d
       0.118088335 0.018257974 -0.04228605 0.05761455
000210 8f 78 08 be 15 b7 91 bd 01 50 e1 bd 03 4a cd 3d
       -0.1332724 -0.07114998 -0.11001588 0.10023882
000220 14 2d 61 be ec 58 85 be 51 14 11 3e 07 35 11 3e
       -0.21989852 -0.26044405 0.14167906 0.14180385
000230 6a 30 6e 3d b4 86 0b bd 17 46 19 be cb ce c3 be
       0.05815164 -0.03406401 -0.14968143 -0.38243708
000240 7a 36 fe 3d ac c7 01 be d5 39 0c 3e 62 04 fd 3c
       0.12412734 -0.12673825 0.13693936 0.030885879
000250 3a 46 8d 3d dc 8f 8a bd 56 f4 66 3e 03 df 93 3e
       0.0689816 -0.0676572 0.22554144 0.28881082
000260 10 10 01 3e d4 60 ea bd 78 59 8b 3e 21 78 2f be
       0.12603784 -0.1144425 0.27216697 -0.1713567
000270 f0 56 64 3e 69 02 7c be 80 84 b7 bd 01 89 a0 3d
       0.22298789 -0.24610294 -0.08960819 0.078386314
000280 4b d7 5b 3d cf fd 9d 3d 28 05 27 3c c0 33 4b 3e
       0.053672116 0.07714426 0.0101941 0.1984396
000290 3e 73 06 3e d0 5b 98 3d 0b b2 3b be 8a 47 2d be
       0.13129899 0.07439387 -0.18329637 -0.16921821
0002a0 99 4e f2 3c 06 6e 05 3e 62 d9 ea 3d 74 15 ca bc
       0.029578494 0.13030252 0.11467244 -0.024668433
0002b0 57 dc 3f 3e f5 77 30 be e2 68 34 3e 71 87 19 3d
       0.18736397 -0.1723326 0.17618135 0.037482683
0002c0 1d ce dc 3d 4f 38 a0 3e ae 6a 7c 3d b3 15 96 3e
       0.107815005 0.3129296 0.061625175 0.2931343
0002d0 b6 84 74 3e 6d 84 b9 bd f9 8a 96 3e 98 c3 04 3e
       0.2387875 -0.09058461 0.29402903 0.12965238
0002e0 66 b3 7c be ab 96 d0 bd 9b 5a 04 3d 5d 24 78 bd
       -0.2467781 -0.10184988 0.03231297 -0.060581554
0002f0 c3 fc 37 be 14 db 83 bb 06 93 8e bd 93 88 25 3e
       -0.17967515 -0.004023919 -0.06961636 0.1616538
000300 c5 ba 9d 3d c6 34 74 bd 74 00 2b 3e 79 68 9e bd
       0.07701639 -0.05962064 0.16699392 -0.0773477
000310 37 b1 03 3e 36 e2 03 3e b7 0c 26 3c 36 3b e6 be
       0.12860571 0.12879261 0.010134867 -0.4496705
000320 99 cd 9a 3a b9 f9 9b bc ab 49 16 3d 84 65 4f be
       0.001181054 -0.019039975 0.03669135 -0.20253569
000330 c7 33 10 be 14 64 76 be 46 a4 46 3d 7b 16 49 3d
       -0.14082251 -0.24061614 0.048496507 0.049093705
000340 8f 67 65 3e 80 52 c6 3d c0 a4 3a 3e 33 0b ff 3d
       0.22402786 0.096837044 0.1822691 0.12453308
000350 7f 8e b4 3e cc c0 7d be 70 61 8c 3c a4 da a9 bd
       0.35264966 -0.24780577 0.017136306 -0.082936555
000360 1a cc 07 3e f5 db 1f be 12 55 1f 3d 6a 8b 4f bd
       0.13261452 -0.1561125 0.03889949 -0.050670065
000370 75 42 c5 3c 10 24 ff 3d 5b bd 2c be e9 c3 16 3d
       0.02407954 0.1245805 -0.16869108 0.03680793
000380 0c 58 17 3e af 5b 7c be 94 31 8d bd 47 ff 01 be
       0.14779681 -0.2464435 -0.06894222 -0.12695037
000390 bd 32 32 3e 26 71 9e bd 01 fa 81 bd 05 ba 62 3d
       0.17402168 -0.07736425 -0.063465126 0.055353183
0003a0 4e af e1 bd 15 c6 f8 3b 69 69 7d bc 95 84 4e 3e
       -0.11019765 0.0075919726 -0.015467026 0.20167764
0003b0 1a 1e 57 3c b4 97 dd bd 76 87 70 3e 47 e0 bf 3b
       0.013129735 -0.10819951 0.23489174 0.0058555934
0003c0 17 54 10 be fc 29 ba 3c b2 3d dd bd 39 9b 44 be
       -0.14094578 0.022725098 -0.10802783 -0.19199838
0003d0 eb c2 10 be 56 25 45 3e 1b 50 98 bd f5 c2 01 bb
       -0.14136855 0.19252524 -0.07437154 -0.0019800041
0003e0 1e 00 83 be cd 04 79 3e 1c 2f 37 be 94 94 db 3d
       -0.25586027 0.24318238 -0.17889065 0.107216984
0003f0 3a 3e 4d 3e 1a 20 b9 bb cb 4a 84 bd 5a 1f 8f 3e
       0.20043269 -0.0056495788 -0.06459578 0.27953607

decoder.layers.0.bias f4 [32]
000000 31 58 0b 3e 06 20 7a 3e 56 d8 8d 3e 23 b9 e0 3c
       0.13607861 0.24426278 0.27704114 0.02743203
000010 12 49 02 be 9f a5 61 be 1d 8b e5 bd 61 a1 29 3e
       -0.12723187 -0.22035836 -0.112081744 0.16565467
000020 c6 fb 52 3e 24 5b b6 3e bc c8 e1 3d 19 f1 69 3e
       0.20603856 0.3561641 0.11024615 0.22845878
000030 28 e1 9a bd 36 51 e0 3e fb f4 fd 3e 73 b7 d4 3e
       -0.075624764 0.4381196 0.49600968 0.4154621
000040 72 f6 5f 3e 63 41 f1 bd 9c 19 47 be f8 4f 76 3e
       0.21871355 -0.1178005 -0.19443363 0.24053943
000050 c8 29 aa bd 84 63 a0 3e 1b f3 d3 3e c0 d5 c3 3c
       -0.083087504 0.31325924 0.41396412 0.023905635
000060 68 41 5b 3e b6 9a 59 bd 43 32 ee 3d 22 f3 c3 3e
       0.21411669 -0.05312606 0.116306804 0.38271433
000070 50 64 86 3d ca 55 07 3f 5b bb 8e 3e 1f 34 d9 3c
       0.06562102 0.5286528 0.27877316 0.026514111

decoder.layers.2.weight f4 [32, 32]
000000 92 aa 81 3e ad bf fa bc 36 1a 22 be 0c b4 26 3e
       0.25325447 -0.030608976 -0.15830311 0.1627962
000010 5f 35 8b bd 58 35 46 3e 4a cf 06 be f5 89 56 bd
       -0.06797289 0.19356287 -0.13165012 -0.05237766
000020 7b 11 66 3e 62 59 71 bd 2f b2 07 bd 73 97 01 3e
       0.22467606 -0.058923133 -0.033128913 0.1265543
000030 ce 30 34 3e cb d3 9d 3d a5 71 25 bd 36 2c 9c bd
       0.17596743 0.07706412 -0.040391583 -0.0762562
000040 0d 02 26 bd 7a 4c d3 bb 29 a4 db bd 43 9e 54 3e
       -0.0405293 -0.0064483257 -0.107246704 0.20763497
000050 e4 e9 01 3e b0 b2 b4 bd 96 ad 0d bc 1a 26 fc bd
       0.12686878 -0.088231444 -0.008647343 -0.12311955
000060 df ea a0 bd c3 c5 2a 3e 7a f5 a5 3d 80 e2 0e bd
       -0.07857298 0.16677003 0.081034616 -0.034883976
000070 5b 91 45 bd 12 3f d4 3c 81 bd b9 bd 2a 8e cb 3d
       -0.048234325 0.02590898 -0.09069348 0.09939225
000080 54 f9 1f bd 28 67 e5 3d df 44 ad bc 26 bd c7 bd
       -0.039056137 0.11201316 -0.021151004 -0.09752874
000090 72 81 fe 3d 5e c0 27 3e a3 67 1a be 20 3e b7 3d
       0.124270335 0.16381976 -0.15078597 0.08947396
0000a0 55 19 35 bd 14 38 15 bd 25 71 19 bc 7b 75 72 bb
       -0.04421361 -0.036430433 -0.009365355 -0.0036996293
0000b0 16 bc ae bd 91 e9 7d 3d b9 97 35 bd 3d e6 4e be
       -0.08531968 0.061990324 -0.044334147 -0.20205016
0000c0 56 2e 22 3d 9a ce c4 3d db c4 f1 3d a2 c5 03 3e
       0.03959497 0.096097186 0.11805125 0.1286836
0000d0 99 65 62 3d cd 28 b9 3d 3e eb 02 be c6 d0 de 3d
       0.055272672 0.09040985 -0.1278505 0.10879664
0000e0 22 29 b9 3a a2 e6 15 3d d9 cb a4 bd e9 38 85 3d
       0.0014126638 0.0365969 -0.08046693 0.065049954
0000f0 fc 69 5b 3e 36 6f 45 3d 38 11 b1 bc 1e 1c 37 3d
       0.21427149 0.048201762 -0.021614656 0.04470455
000100 84 bf ba 3d b6 a8 b6 bd 55 50 e9 bc a8 1f d0 3d
       0.0911856 -0.08918898 -0.028480688 0.10162288
000110 ac fa 51 3e 71 02 d8 3d 35 11 32 3e 1c 91 e7 3d
       0.2050578 0.10547341 0.17389376 0.11306974
000120 da 57 10 3e 57 97 78 bd ce 08 b9 bd d1 ec 8a bd
       0.14096013 -0.060691204 -0.090348825 -0.067834504
000130 1d f7 1f 3e 5b 0a 31 3e 9e 43 b7 bd 6b c4 f1 bd
       0.1562161 0.17289107 -0.08948444 -0.11805042
000140 cc f1 bb 3d b2 73 34 3e ed a5 19 3e 68 e8 e8 bd
       0.091769785 0.1762226 0.15004702 -0.11372453
000150 07 b4 8f 3e 0c 71 f1 3d 74 ba 64 3e a7 dc f0 3d
       0.28067037 0.1178914 0.22336751 0.11760836
000160 50 b2 6d bd f6 77 05 3e e2 a4 25 3d 9f 24 3c bd
       -0.05803138 0.13034043 0.040440448 -0.045933362
000170 61 27 a7 bd f6 3a 30 bd a7 c3 0f be 0c fd ea 3d
       -0.08161808 -0.04302498 -0.14039479 0.11474046
000180 aa cf b2 bc 3e e4 30 3e d5 0f 39 bd 84 cd dd bd
       -0.021827538 0.17274567 -0.045181114 -0.108302146
000190 81 75 29 3e 7a bb b6 bd cd 87 a6 3d 5a 50 bd bd
       0.1654873 -0.08922477 0.08131371 -0.092438415
0001a0 b9 17 57 3c ad 5e 37 3e a9 cb 88 3d 54 d4 bc bd
       0.0131282145 0.1790721 0.0667947 -0.09220186
0001b0 cd 8d 06 be dc 42 9e 3d 3e a5 4e bd 56 3e d3 3c
       -0.1314003 0.07727596 -0.050450556 0.02578656
0001c0 6e db 05 3d e3 69 06 be 26 42 0e 3e ee 58 fd bd
       0.032679968 -0.1312633 0.13892421 -0.123704776
0001d0 16 a2 ac bd fb 35 7a 3d a8 e2 8e 3d 33 01 93 3d
       -0.08429353 0.061086636 0.06976825 0.07177963
0001e0 3e df ae bd 16 58 21 be 75 7e 2d 3d 8e 9f 25 3e
       -0.08538674 -0.15756258 0.042356927 0.16174147
0001f0 66 39 47 3e c6 af 21 3e 3c 8a a8 bd 51 5a ec bc
       0.1945549 0.15789708 -0.08229491 -0.02885166
000200 2e f8 8d bc 81 cf b5 3d 20 6b dd 3d 08 04 2f 3e
       -0.017330255 0.08877469 0.10811448 0.17091382
000210 2a 7a 46 be 41 46 16 be 77 aa 27 3e d4 d2 e2 3d
       -0.1938254 -0.14675237 0.16373621 0.110753685
000220 05 c9 e2 3d 25 f6 2a 3e a8 c2 c8 3d ab 73 9e ba
       0.11073498 0.16695459 0.09802753 -0.0012088915
000230 cf 78 fc bd b6 74 13 3e 7b 63 8a 3e ef 03 53 3e
       -0.1232773 0.1439999 0.27029023 0.2060697
000240 68 48 22 3e 12 56 39 bd 08 75 b6 3d 82 6a 82 bc
       0.15847933 -0.0452481 0.08909041 -0.015919928
000250 02 9d 1e 3d 1a 6b 0b 3e 07 7b ec 3d 6e 9a c1 bd
       0.038723953 0.13615075 0.11546903 -0.09453283
000260 3c c2 38 3d a8 56 db bd f2 61 16 3e 1d d7 8f 3e
       0.04510711 -0.10709888 0.146858 0.28093806
000270 c6 41 df bd a7 71 3e 3e e1 50 8e 3e d8 3e f2 bc
       -0.10901217 0.18598042 0.2779608 -0.029570982
000280 5b 07 89 bd 0f 43 af 3e a2 0f 90 3e 57 a4 fe bb
       -0.06690856 0.3423085 0.28136927 -0.0077710557
000290 70 c9 30 be 18 40 7f 3d d7 d3 a2 bc 6f 76 16 3e
       -0.17264342 0.062316984 -0.019876404 0.14693616
0002a0 b4 b3 e3 bd f7 00 5c 3e f2 6e 1e 3e 2f d2 33 3d
       -0.1111826 0.21484743 0.1547201 0.04390162
0002b0 dc 15 90 3d b5 49 7a 3d a4 f2 aa 3e b4 85 a8 3d
       0.07035419 0.06110545 0.33388245 0.08228627
0002c0 bf b2 c6 bd 9c d8 21 bd 4b bd 72 be b1 24 35 bc
       -0.09702062 -0.039513215 -0.23705022 -0.011056111
0002d0 06 bb d9 bd f7 73 8f 3e 6b 9b 1e 3e fc 0f 7c bd
       -0.10631375 0.28018162 0.15488975 -0.06153868
0002e0 27 0c 19 3e b3 99 70 3d bc 40 05 3e 0d a6 65 3e
       0.14946042 0.05874033 0.13012975 0.22426625
0002f0 75 91 12 3e 6e 32 93 3e 6e 9c ea 3d 67 c2 16 be
       0.143133 0.28749412 0.11455618 -0.14722596
000300 12 c4 06 bc a2 03 7b 3e e4 3a ae 3d e6 b6 e2 bc
       -0.008225458 0.24513105 0.08507326 -0.027675103
000310 4a c0 63 be ae 06 91 3d d4 02 35 be 2c b5 2a 3e
       -0.22241321 0.07081352 -0.1767686 0.16670674
000320 e7 aa cb bd a5 16 28 3e a4 8d 26 3e d3 66 23 bd
       -0.099447064 0.16414888 0.16264969 -0.039892983
000330 f7 01 2a be 9c 61 c0 3d da 3e 33 3e f7 89 c8 3d
       -0.16602312 0.093936175 0.17504445 0.0979194
000340 01 29 8d bd 94 31 6d bd 40 56 41 be 24 bf 8d 3d
       -0.068925865 -0.05790861 -0.18880558 0.06921223
000350 e0 8c 80 be 14 40 f0 3d 44 36 71 3e c8 4f 05 bd
       -0.2510748 0.11730972 0.23555857 -0.03254679
000360 ef a4 d3 3d 0f 9e 81 bd ca cb 2a 3e 73 aa 54 3e
       0.10334193 -0.063289754 0.16679302 0.20768146
000370 ee c7 1d 3e 51 81 2f 3e 04 72 3d 3e a0 fe 73 be
       0.15408298 0.17139174 0.18500525 -0.238276
000380 ff 02 f0 3d 70 3b 21 3e 14 88 36 3e 23 30 26 be
       0.117193215 0.1574533 0.17825347 -0.162293
000390 a8 12 3e 3c 2d 53 2e bd 9b 40 ab 3d a5 87 54 3c
       0.011601128 -0.04255979 0.08361932 0.012971793
0003a0 0e 22 57 3e 8c 1c a0 3d f4 7b 12 3d b5 c3 8d bd
       0.21009085 0.07817945 0.035762742 -0.06922094
0003b0 5c 09 fd 3d 0d 29 ef bd c6 97 c0 bd c3 ce 20 3e
       0.12355301 -0.11677752 -0.094039485 0.15703873
0003c0 ae 25 4b 3d f2 06 df bd 7c b4 78 bc f3 f9 f7 3d
       0.04959648 -0.108899966 -0.01517975 0.12108221
0003d0 16 f2 3a bd 62 dc 79 3e 6e d3 ef 3a b9 93 4a 3d
       -0.045641027 0.24400476 0.0018297264 0.049457286
0003e0 f7 f5 56 3c 75 50 32 bc 96 5f 7d bd 2a 20 2f 3e
       0.013120166 -0.01088344 -0.061858736 0.17102113
0003f0 01 62 c1 3d 10 db dc bd 4c 28 21 bd 3f fb 07 be
       0.09442521 -0.1078397 -0.03934507 -0.13279437

decoder.layers.2.bias f4 [32]
000000 ac 8d e2 bd 6a 90 9a bb 55 94 58 3d 3d 94 12 bd
       -0.11062178 -0.0047169225 0.052875835 -0.035785902
000010 12 93 9f 3e 82 f4 7f 3e c8 76 89 3e f9 44 21 3e
       0.31166893 0.24995616 0.26848435 0.15748967
000020 2e 4b 8d bd be 37 69 3e dc c6 97 3c fd fa 32 be
       -0.06899105 0.2277517 0.01852744 -0.17478557
000030 cc 29 60 bd 52 36 aa 3c ce 21 3d 3d 6d dc 9a bc
       -0.05472736 0.020777855 0.046174817 -0.018903935
000040 a2 8e 50 3c 91 16 9a bd c2 58 3e 3e ad 6e e5 bd
       0.012729319 -0.075238355 0.18588546 -0.1120275
000050 a3 3d 14 be de 1b 92 bb af 42 55 3e 88 f5 a3 3e
       -0.14476638 -0.0044588884 0.20826219 0.32023263
000060 18 ed 5d 3e ab 25 6c bd ff a4 aa 3e 0d b8 81 3d
       0.21672475 -0.05765311 0.33329007 0.06333933
000070 06 c9 d7 bd 00 b4 c2 bd 0e 54 77 3e ed 36 05 3e
       -0.10536389 -0.095069885 0.24153158 0.13009234

decoder.layers.4.weight f4 [24, 32]
000000 ec 5f 24 3d 6e 65 c4 3d 07 2d e8 3d 6c c8 8e bc
       0.04013054 0.09589659 0.11336713 -0.017429553
000010 2f 67 2a 3d 67 0b 50 bc 55 1f f7 3d 99 cf 03 be
       0.04160231 -0.012698031 0.12066523 -0.12872161
000020 1d 16 85 bd 66 be 78 bd bd 65 e6 bd ff 3f 93 3d
       -0.064983584 -0.060728453 -0.11249874 0.07189941
000030 01 ad cc 3d 65 92 c4 3d e0 bd 9b bb 4b 1d a3 b9
       0.099939354 0.09598235 -0.0047528595 -0.00031111608
000040 60 f9 49 bd ee 61 78 bd 52 68 93 bd 88 86 c7 bd
       -0.04931009 -0.060640268 -0.07197632 -0.09742457
000050 0d 64 86 3c d9 ba 5c bd 5e 5b 06 3d 73 7a c5 bc
       0.01640513 -0.05388913 0.03280198 -0.02410624
000060 3c 3f 89 39 4e 98 08 3d 2b ad b9 bc c7 88 a0 3b
       0.0002617779 0.033348374 -0.02266558 0.0048991176
000070 04 e4 fa bc 41 0e ac 3b 6d dc f0 3c 52 86 82 bd
       -0.030626304 0.0052507226 0.029401982 -0.06373276
000080 22 8b 03 bc 91 47 40 3c ee c3 ed 3d 60 b0 be 3d
       -0.008028777 0.011735813 0.11609636 0.093109846
000090 c2 61 fd bc 3b ce 9d bc 44 cf dd 3c b0 95 3f 3d
       -0.030930404 -0.019263377 0.027076371 0.046773612
0000a0 d1 88 d9 bd 87 bd be bd 7e dd 0c be 07 b5 91 3d
       -0.10621799 -0.09313493 -0.13756368 0.07114606
0000b0 85 9e f9 3d 3e 72 73 3d 86 88 b5 3c e3 c8 0b be
       0.12188438 0.05943512 0.022159826 -0.13650851
0000c0 bc 26 08 3e e6 87 09 be cf 05 f2 3c 85 5a 89 3d
       0.13296026 -0.13430747 0.029543785 0.06706718
0000d0 c8 13 45 3d c8 6c 08 bc aa 42 e0 bd 0e 88 1e 3d
       0.048114568 -0.008326717 -0.10950215 0.03870397
0000e0 1c a0 85 3d 81 06 fa bd a4 70 51 3b f2 11 61 bd
       0.06524679 -0.12208272 0.0031958008 -0.054948755
0000f0 e7 49 d3 bc 76 46 68 3d 3d a1 00 3e 00 8a b5 bb
       -0.025792075 0.05670782 0.12561508 -0.0055401325
000100 3e e9 e4 bc ca 01 f3 3c c6 9c f7 bd f8 ca 0f 3e
       -0.02794325 0.029663939 -0.12090449 0.1404227
000110 f3 6c 94 bd 2a b6 c6 bb f2 bb 23 bb 98 8a 84 bc
       -0.07247343 -0.006064196 -0.002498385 -0.016179368
000120 d7 e0 a8 bd 7e ce 46 bc 18 00 66 3d 05 10 15 3e
       -0.0824601 -0.0121341925 0.056152433 0.14556892
000130 73 55 4b bd 4c 49 54 3d ba 1e d3 bd b2 ed 12 3e
       -0.049642038 0.051827714 -0.10308595 0.14348486
000140 33 ab 00 be 89 32 06 3e 7c f3 72 bd 37 7b 92 bd
       -0.12565307 0.13105215 -0.059314236 -0.071524076
000150 17 e1 11 bd 25 db 00 bc da ad 80 3d 23 7a aa bd
       -0.035615053 -0.007864748 0.062831596 -0.08324077
000160 bf 15 d6 3d 23 d3 49 bd 5c 56 de bc c8 23 72 3d
       0.104533665 -0.04927362 -0.027140789 0.059116155
000170 19 2f 81 bb 6c 3e 1e 3d df d0 e7 3d 83 04 b5 bd
       -0.003942382 0.03863375 0.11319136 -0.08838751
000180 cb a7 d5 bc b3 65 c1 bb 64 ff 2a bc 3b 8d 83 3c
       -0.026080986 -0.005902016 -0.010436866 0.016058555
000190 cb 20 a2 bd 7f cf 54 bd c0 d6 66 3c 28 dc 31 3d
       -0.07916411 -0.051955696 0.014089286 0.043422848
0001a0 c9 65 0e be 84 d0 31 bd 42 bf 25 3d 9b b0 ac bc
       -0.13906015 -0.043411747 0.0404656 -0.021080306
0001b0 7d 5c ec 3d 31 65 7b bc aa c4 8a 3d 06 cd b3 bd
       0.11541078 -0.01534395 0.06775792 -0.087793395
0001c0 af 0d 5a 3d f4 e1 4f ba a3 40 2c 3d 5a 27 9f bc
       0.053235706 -0.0007930093 0.04205383 -0.019427944
0001d0 e4 34 ad 3d 52 60 48 bc bd 2e 93 bd 36 be de 3c
       0.08457354 -0.012229996 -0.07186649 0.027190309
0001e0 ff 32 af 3d 0e 0b 1d 3d a9 b0 cc 3d 19 6e 3b 3c
       0.085546486 0.03834062 0.09994633 0.011439824
0001f0 07 b0 e7 bd a9 16 0d 3d 8b 0f 38 bc a4 df 82 ba
       -0.113128714 0.03444544 -0.0112341745 -0.0009984863
000200 f9 33 85 bd 8c 7e ae 3c 22 26 01 bd 9c 3d 5d bb
       -0.065040536 0.021300577 -0.031530507 -0.0033758646
000210 b4 72 b5 bd 9c 43 da bc 99 f0 62 3c 92 a5 fc 3c
       -0.088597685 -0.026643567 0.013851308 0.030840669
000220 45 4e 4b bd 9a 1d 13 bd 5e 35 10 3d d8 15 04 bd
       -0.04963519 -0.035916902 0.035207145 -0.032247394
000230 c4 be be 3d 48 1a 2a 3d 5e 75 47 3d fd 7a 9c bd
       0.093137294 0.04152897 0.048695914 -0.07640646
000240 34 f6 e1 3d a0 00 e4 3d 97 4c 38 3c 9d 61 da bd
       0.11033288 0.11132932 0.011248729 -0.106631495
000250 50 7d ba bd cf 11 50 bc 0c da 8c 3d cc 33 b7 bb
       -0.09105933 -0.012699558 0.06877527 -0.0055908915
000260 c5 c3 02 bd aa 53 a4 3d 5e e1 c7 3d 29 27 aa bd
       -0.03192498 0.0802377 0.09759782 -0.083082505
000270 66 14 89 3d 4f e7 ad 3c 7c 84 bb 3d a7 98 76 bd
       0.06693344 0.02122846 0.09156129 -0.060204174
000280 05 34 7c 3c ee 08 6b 3c 4b a7 9a bd e0 2c 68 bd
       0.015393262 0.014345391 -0.0755144 -0.05668342
000290 ea 21 bd 3c 9f 91 11 bd 90 49 9f bc 90 17 19 3d
       0.02308746 -0.035539266 -0.019444257 0.037375987
0002a0 b5 34 62 bd 4a 95 37 3d c3 74 4e bc 79 e4 f7 3d
       -0.055226047 0.044820108 -0.01260108 0.121041246
0002b0 21 ea d3 3d a1 34 c6 3d 62 0f 0f 3d 72 b9 ee bd
       0.10347391 0.09678007 0.03492678 -0.11656465
0002c0 51 c8 8d 3b d3 0b e8 bd 5a 1b 05 3d 9d 29 55 bd
       0.004326858 -0.1133038 0.032496788 -0.05204164
0002d0 39 9d 41 3d e0 e7 dd bd c5 3c 2d 3e 8c f9 e2 bc
       0.04726908 -0.10835242 0.16917713 -0.027706884
0002e0 df 28 2d 3d ff 64 98 3c c2 b7 14 3d 62 34 d5 bc
       0.042275306 0.018602846 0.036308058 -0.026025955
0002f0 02 27 a3 3d 89 9e 2f bd b6 aa c2 bd 84 48 cb bd
       0.079664245 -0.0428758 -0.09505217 -0.09925941
000300 75 32 47 3a 35 da 59 bd eb 8c b3 bd dc 60 a4 3a
       0.0007598766 -0.053186614 -0.08767112 0.0012541073
000310 1a 18 fa bc b8 d1 0f bc 84 1f c9 bc 52 31 c4 3d
       -0.03052907 -0.008778028 -0.02455116 0.095797196
000320 d2 ff ac bb aa 81 23 3d 91 7b 48 bb e4 63 5f 3d
       -0.0052795196 0.03991858 -0.003059123 0.054538622
000330 8b 82 4b bd eb 90 b2 bd 95 22 30 bd f1 46 8d 3d
       -0.049685042 -0.08719047 -0.04300173 0.068982966
000340 58 aa b3 bd 88 91 b0 3c e3 34 7e 3d e7 9a e1 3d
       -0.08772725 0.02155377 0.062062155 0.110158734
000350 6a 8d fe 3c b1 15 5f 3d b2 e2 fe 3d 27 91 85 bd
       0.03107329 0.054464046 0.124455824 -0.06521826
000360 fc 96 0d bd 98 1f fb 3b 0c a0 50 bd 10 25 1c bd
       -0.034567818 0.0076636784 -0.050933883 -0.038121283
000370 33 62 ab bd 8f 49 5b bd d9 83 1f 3d 90 71 ce bc
       -0.083683394 -0.053536948 0.0389441 -0.025200635
000380 0f cc 98 3c c4 ac 10 3d a6 a6 c0 bd d7 9b 20 bc
       0.01865199 0.035321012 -0.09406786 -0.00980278
000390 e2 29 ae 3d 79 68 b3 bc 4f 45 44 3d df 95 20 3d
       0.08504082 -0.021900402 0.04791766 0.03920543
0003a0 d7 6e 18 3c 2e ff c4 bc 26 79 65 bc d2 21 fb bc
       0.00930377 -0.02404746 -0.014005935 -0.030655775
0003b0 6b 1c 71 3d 74 0f 68 bd ee f8 fd 3c 62 3c 75 3c
       0.058864992 -0.056655362 0.031002488 0.01496801
0003c0 69 5b 7d 3d e2 f1 8b 3d a7 3e 4a 3d bf 64 5f 3d
       0.061854754 0.06833245 0.049376156 0.05453944
0003d0 62 31 8c bd 72 0e 05 3e a5 41 28 be 98 9e b7 3c
       -0.068453565 0.12993792 -0.16431291 0.02241449
0003e0 7b 1a 31 3c 75 94 e9 bc 36 81 f3 bc 0b 64 92 3d
       0.010809536 -0.028513173 -0.029724699 0.07147988
0003f0 2a 80 32 bb b8 c7 07 bc 38 8e cb bd 1f 0e b4 3d
       -0.0027237036 -0.008287363 -0.099392354 0.08791756

decoder.layers.4.bias f4 [24]
000000 67 71 7f 3d 1a 57 ac bd a5 50 d5 3d 07 35 f3 bc
       0.06236401 -0.08415051 0.10415772 -0.029688371
000010 f7 54 4b bd 86 48 8d bd a8 6a 5a 39 37 3f c4 bb
       -0.049641576 -0.068985984 0.00020829833 -0.005988981
000020 49 d1 ad bd 5f cb 61 3c bf 86 df 3d f1 b5 22 3d
       -0.084871836 0.013781398 0.10914373 0.039724294
000030 2d 88 5c 3d 83 df f5 3d c7 2c df bd bc de 78 be
       0.053840805 0.12005522 -0.108972125 -0.24303716
000040 d6 91 c6 bd 9f fc 25 be a2 6f 98 be 7d 01 c4 3d
       -0.09695785 -0.16209649 -0.2977267 0.09570596
000050 dd 57 84 bd 5a ef 66 be 08 ec 97 3c aa 2a b6 bd
       -0.06462071 -0.22552243 0.018545166 -0.08894856
