m4_ws/src/morphing_lander/learned_models/2024-05-20_18-08-49/model_40.pth (torch, 33710 bytes, 22 tensors)

cond_normalizer.mean f4 [11]
000000 70 50 bb be 44 50 20 bd 8c 7f 37 ba 74 3a d5 3a
       -0.36584806 -0.039139047 -0.0006999902 0.0016268031
000010 f1 65 41 3d 78 5c af 3c 38 cf d3 ba e0 a1 01 3f
       0.04721636 0.021406397 -0.0016159778 0.50637627
000020 06 09 05 3f fa 25 02 3f 69 69 04 3f
       0.51966894 0.508392 0.51723343

cond_normalizer.variance f4 [11]
000000 83 b3 ce 3d fe 7f a3 3b 16 47 e3 39 7c f9 af 39
       0.10092833 0.004989623 0.00043349777 0.0003356448
000010 14 ea 7f 3c 65 2c bc 3c d6 cc db 3d 8c 87 a8 3c
       0.015619773 0.022970388 0.10732429 0.020572446
000020 fa 6b ad 3c 91 f4 a3 3c 2a 6c b2 3c
       0.021169651 0.02001408 0.021780092

output_normalizer.mean f4 [12]
000000 04 57 c2 bb 2f c9 41 bb d3 97 88 3c f2 1c d2 38
       -0.005930783 -0.0029569378 0.016673958 0.00010018972
000010 61 9d 3c 3b a0 a4 ba 3a 48 aa c3 3b db a0 b1 3b
       0.0028780329 0.0014239736 0.005971227 0.005420787
000020 91 86 4a 40 91 30 58 3e 53 06 0a 3f ed cd 83 ba
       3.1644633 0.21112277 0.539159 -0.0010055878

output_normalizer.variance f4 [12]
000000 80 2e a2 3d 4c 08 55 3d d3 2d 54 3d cc 6c c7 38
       0.079190254 0.052009866 0.051801514 9.5093244e-05
000010 c8 14 99 3b 48 dc ac 3b 62 89 bd 3d a7 17 d2 3e
       0.004671667 0.005275283 0.09254719 0.4103367
000020 81 98 66 42 ec 2e b4 41 a3 e7 62 40 56 1c 5e 3e
       57.64893 22.522911 3.545388 0.21690497

encoder.layers.0.weight f4 [32, 23]
000000 fe d2 af bc ea 5a 83 bd f6 0d 45 3d a1 6a 24 bd
       -0.021462914 -0.06413825 0.048109017 -0.04014075
000010 d9 5e b7 3d 64 8c 86 3e e4 9a 01 be 9c cd f4 bd
       0.08953638 0.26278985 -0.12656742 -0.119532794
000020 f8 b2 bd bc 84 d6 c0 3d 29 f7 20 be 02 02 ea 3c
       -0.023156628 0.094159156 -0.15719284 0.02856541
000030 dc 52 47 bd 25 d4 16 3c c4 b0 00 3e f9 68 61 3e
       -0.048663005 0.009205853 0.1256743 0.220127
000040 8d 51 ba 3b fe 7b a1 3b b7 f8 df bc ca b0 9c bc
       0.005685991 0.004928111 -0.027340276 -0.019127268
000050 8f 92 e3 3c 20 14 a5 3d 3b 4a 5a 3d ba ca de bd
       0.027779846 0.08060479 0.053293448 -0.10878511
000060 72 7a da bb 33 72 71 bd 9d fe f2 bd de e4 02 3e
       -0.0066674286 -0.0589468 -0.1186497 0.12782618
000070 b2 45 4b be 58 bb 29 3e 93 49 89 3e 8e e7 19 3e
       -0.19850805 0.16575372 0.26813945 0.15029737
000080 26 d0 13 be c6 48 27 be d6 1d 1c 3e 5d de 71 3d
       -0.14434871 -0.16336355 0.15245757 0.059049953
000090 81 62 55 bd e8 06 25 3d 68 b0 1b 3d 35 89 95 bd
       -0.052095894 0.04028979 0.03801003 -0.07301561
0000a0 48 81 cf bc 68 91 a2 3d 27 cc 9d 3d df a0 02 be
       -0.0253302 0.0793789 0.077049546 -0.1275668
0000b0 f7 e0 0c be 42 c7 34 3c 46 b1 de 3d 72 79 5a 3c
       -0.13757692 0.011033835 0.10873656 0.013334619
0000c0 7a e9 97 bb 3b 09 08 3e e8 0e 68 be 0e b8 7c 3d
       -0.004635987 0.13284771 -0.22661936 0.061698966
0000d0 d5 7d 18 3e 47 45 7c 3d f6 3c 0c bb fc 75 fa bc
       0.14891751 0.061589506 -0.002139864 -0.030573837
0000e0 25 81 85 bd 49 c5 15 3e 2a 50 9d bc ad 2d 6b 3c
       -0.06518773 0.1462604 -0.019203264 0.014354152
0000f0 c2 52 03 3d cd d1 15 3e f5 b2 c0 bd 0c 5b d3 3d
       0.032061346 0.14630814 -0.09409133 0.103201
000100 cc 4b 40 bb 73 24 6e 3d fe d0 bf bc a0 53 98 bd
       -0.0029342053 0.05814023 -0.023415085 -0.07437825
000110 9b 4d ec 3c 29 9f bb bc 5c 5f a5 3d 18 8b 35 bc
       0.028845599 -0.022903042 0.08074829 -0.011080526
000120 3d 19 3d be 73 bd 20 3e 95 c4 b3 be 80 2b 24 3e
       -0.18466659 0.15697269 -0.35110918 0.16032219
000130 cf ad e0 bd 3a 33 5d 3d ab d7 5c 3d 3a a8 07 3e
       -0.10970651 0.05400393 0.053916615 0.13247767
000140 07 a4 05 3e 47 37 9b ba e3 00 0b 3d b7 7b 10 3d
       0.13050853 -0.0011842035 0.033936393 0.035274234
000150 50 64 c5 bd b5 85 2d 3c 71 f9 b3 bb 75 7b b1 3a
       -0.09638274 0.01059096 -0.005492382 0.0013540821
000160 c3 da bf 3d e9 9b d1 3d 64 ce ad bd 12 26 02 be
       0.09367897 0.102348156 -0.084866315 -0.12709835
000170 de 8e b4 bc c5 a2 13 bd 3d 1d 0e 3e ec 92 b2 bd
       -0.02204078 -0.0360439 0.13878341 -0.087194294
000180 bf b2 a5 bd 86 2d 85 3d 8a 75 d0 3d 95 f7 4c 3d
       -0.08090734 0.065028235 0.10178669 0.0500408
000190 65 b9 08 bd a1 75 6b be fd 5b 56 be 68 da a4 3d
       -0.03337993 -0.2299409 -0.20933528 0.0804947
0001a0 42 ba ae bd 30 4b e4 3c 03 ae 9b bd 09 74 05 be
       -0.085316196 0.027867883 -0.076015495 -0.13032545
0001b0 9e d8 ad bb 17 7b e8 3c 10 66 73 bd 4b 42 21 3e
       -0.005305364 0.028379006 -0.059423506 0.15747945
0001c0 c7 68 d3 bd ae a5 da bd e4 60 4b bd 70 b7 71 bb
       -0.10322719 -0.10676132 -0.04965295 -0.003688302
0001d0 df 61 0c 3e b6 df 04 3d 1c c2 20 3d 5a 5e 17 3d
       0.1370921 0.03243991 0.039247617 0.036955215
0001e0 f9 59 0f be 72 da 6c 3e 8d 95 12 3e 4f 76 6b 3d
       -0.13999166 0.23130205 0.14314862 0.057485875
0001f0 a8 29 c9 3c 94 85 09 3e f4 ad 27 be 89 95 e7 bd
       0.024555996 0.13429862 -0.16374952 -0.113078184
000200 02 2c 92 bd 82 12 7c 3e 72 78 fe bb 61 bc 0b be
       -0.071373 0.24616435 -0.007765823 -0.1364608
000210 63 46 76 3d 0c 61 68 bd dd a5 d3 3c 08 3e d2 3d
       0.06012572 -0.056733176 0.025835926 0.10265738
000220 3a 7a a4 bd a8 2c d7 bd bb 5a 4e 3d a5 c9 12 bc
       -0.08031125 -0.105065644 0.050379496 -0.008959209
000230 ae ac 5c bb 78 cf 8d 3e 11 17 57 3e 3b 38 7b 3e
       -0.003367226 0.2769735 0.21004893 0.24533169
000240 2b 10 4a be 85 d8 50 bd 7e 49 43 3c 39 73 c7 3b
       -0.1973273 -0.05098774 0.011919377 0.0060867337
000250 a5 36 b4 3d 07 d8 bf 3c 56 c5 26 bd 33 0e 89 3c
       0.08799485 0.02341844 -0.040715538 0.016730404
000260 dd 2e 64 bc 95 de 07 3e 75 f0 e1 bd 19 e1 38 bd
       -0.013927189 0.13268502 -0.11032192 -0.045136545
000270 65 18 a1 bc b8 65 66 3d 1e 78 aa bd db 35 0d bd
       -0.019664953 0.05624935 -0.08323692 -0.03447519
000280 4f 71 f7 3c 39 07 94 bc b9 22 01 bd 7b 29 36 3b
       0.030205397 -0.01806985 -0.031527255 0.002779572
000290 06 28 af 3d 8a 49 20 bd 7f 6c 13 3e a3 b6 8d 3e
       0.08552556 -0.039132632 0.14396857 0.27678403
0002a0 07 94 46 bd 58 14 c9 bc e1 14 98 3d d6 1b 28 3e
       -0.048481014 -0.024545833 0.07425857 0.16416869
0002b0 40 4f 10 3e 82 ec 33 3d ea 93 c5 bc e8 d4 ae 3d
       0.14092731 0.043926723 -0.024118382 0.085367024
0002c0 ed 12 97 bd 99 19 df bb 8f 86 06 38 7c c0 04 3d
       -0.07376657 -0.0068084714 3.2073407e-05 0.03241013
0002d0 a1 07 2b 3d 4f 28 88 3b f3 4b ed 3c 50 81 05 be
       0.041755322 0.004155196 0.02896688 -0.1303761
0002e0 78 cb e8 bc 22 ce 5c 3d d5 1f ba bb 0b 97 26 3e
       -0.028417334 0.05390752 -0.005680064 0.16268556
0002f0 ce 4d a0 3d 05 ad 6a be 23 bf 0a 3e b6 d1 76 be
       0.0782734 -0.22917564 0.13549475 -0.24103436
000300 43 35 4e 3d e7 c3 98 3d 33 66 27 3e cc b1 73 be
       0.050343763 0.074592404 0.1634758 -0.23798293
000310 8f 48 42 3c 63 6a 07 3c 09 03 61 be 29 bb 64 3e
       0.01185812 0.008265111 -0.21973814 0.22337021
000320 b6 2d bc 3c 52 a3 c0 bc 00 48 bc 3b ce ee 7c bd
       0.022971015 -0.023515377 0.0057458878 -0.06175118
000330 62 81 0a 3d 00 02 31 3d 0d 9c 0d bd 10 e8 8d 3b
       0.033814795 0.043214798 -0.03457265 0.0043306425
000340 9d 19 07 be 25 a9 ae 3d de b1 61 bd a3 f8 a8 3d
       -0.13193364 0.085283555 -0.055101268 0.08250549
000350 65 99 bb bd 07 b5 ea bd 22 e3 0a be 12 21 32 3d
       -0.09160117 -0.114603095 -0.13563207 0.04348857
000360 73 2a a8 bc 85 ac 46 3d 91 61 6a bd 62 89 82 bc
       -0.020528054 0.04850437 -0.057221953 -0.01593465
000370 ff 59 68 bd d5 c6 2c be aa 37 b9 3d 58 23 b5 3d
       -0.056726452 -0.16872723 0.0904382 0.08844632
000380 05 54 f4 bd fb 3c a5 3d 1a 19 85 bd 5a cb 63 3d
       -0.11930088 0.08068272 -0.06498928 0.055613853
000390 80 a5 d2 3c de b3 cc 3d e8 e6 46 bb d5 c0 80 bd
       0.025713682 0.099952444 -0.0030350033 -0.0628678
0003a0 b2 d3 7a bb d9 fa 54 be bc c1 d0 3d 31 29 85 3e
       -0.0038273153 -0.20798816 0.10193202 0.2600799
0003b0 df a3 de bd ea 85 96 bd 9d 77 86 bc 13 12 b4 3d
       -0.108711 -0.07349761 -0.016414458 0.0879251
0003c0 20 37 b0 bd 90 9f 98 bd a2 27 16 bd d4 70 03 3d
       -0.08604264 -0.07452309 -0.03665889 0.032090023
0003d0 98 55 37 bd 0c 35 bc 3d 78 de 42 bd ef ee 11 bd
       -0.044759363 0.091898054 -0.047575444 -0.035628255
0003e0 f3 f5 25 bc de 5e 80 bd 33 66 be 3d 45 9e 10 bd
       -0.01012944 -0.062680945 0.09296837 -0.035307188
0003f0 48 90 a8 bb f8 61 82 bc a0 4c 71 3c 56 74 08 be
       -0.005144153 -0.015915856 0.0147277415 -0.13325629

encoder.layers.0.bias f4 [32]
000000 f8 59 8c bd e2 80 1e 3d eb 0e 52 bd 67 04 19 bd
       -0.06853098 0.03869713 -0.051283758 -0.037357714
000010 b8 b4 81 bc ce 86 1d 3c 9b 28 c3 bc e8 cf 95 bd
       -0.015833244 0.0096146595 -0.023823073 -0.073150456
000020 01 a8 c4 bc c4 77 4d bc ff e4 32 3c d5 95 6d 3c
       -0.024005892 -0.012540761 0.010918855 0.014501055
000030 3d 44 29 3d f7 fc c3 bd 43 70 d4 bd 7d 2d 3f bc
       0.041324843 -0.095697336 -0.10372975 -0.01166856
000040 5d 02 1a bd 51 9c 5f bd d7 d6 84 3e c9 89 86 bd
       -0.03759991 -0.054592434 0.2594516 -0.06569249
000050 03 ef 0a 3e 8b 10 ad bd 54 6c 89 3e ef 80 57 bc
       0.13567738 -0.08450421 0.2684046 -0.013153299
000060 41 dd 59 bd ae b9 54 bc 9b 13 93 3d 4e cf bf 3d
       -0.05318952 -0.012983723 0.07181474 0.09365712
000070 72 19 2b bc ef a7 2c 3d e4 0f 5f bd d9 a2 13 bc
       -0.010443078 0.04215234 -0.054458514 -0.009010994

encoder.layers.2.weight f4 [32, 32]
000000 e6 7e 8b 3d 46 66 08 bc ed 04 a1 3d 44 86 5a 3d
       0.06811313 -0.008325165 0.07862268 0.053350702
000010 76 2e f9 3d 36 bd 45 bc c8 15 67 3d 74 ce 37 3d
       0.12167065 -0.012069037 0.056417257 0.044874623
000020 e5 14 2d 3d b6 f5 7e ba 55 9a 2d 3d 56 ed a3 3c
       0.042256255 -0.0009725945 0.04238351 0.020010632
000030 a3 5b 93 bc de 33 35 bd 2e ce 17 3d 5e 78 6d bb
       -0.017988032 -0.044238918 0.037061863 -0.0036235075
000040 6c 39 e1 ba a7 b2 27 3c ac fc be 3c 42 56 c1 bc
       -0.0017183251 0.010235465 0.023313843 -0.023600701
000050 89 4d aa 3c e9 a7 2f bd 8a e6 5c 3d 07 58 cb 3c
       0.020788925 -0.04288474 0.053930797 0.024822248
000060 4b 8e 1d 3c c9 39 93 3d 86 33 5b 3d 55 79 4b 3d
       0.009616445 0.07188756 0.053515933 0.049676258
000070 b9 03 d3 3c cd 0a 21 3c f6 be 45 3d a4 78 7e 3d
       0.025758611 0.009829235 0.048277818 0.06212677
000080 58 29 ac 3d 06 ba 9c bb f2 ef 0c bd bd 0a 8f 3e
       0.08406323 -0.004782918 -0.034408517 0.2793788
000090 30 d1 d7 3b cf 61 43 3e 55 60 a0 3d 7a ed 52 bd
       0.0065862164 0.1908028 0.07830874 -0.051496007
0000a0 23 c8 dc 3d 8d e3 88 3d 74 ce 1b 3e e5 03 a9 3d
       0.107803605 0.06684027 0.15215474 0.08252696
0000b0 c1 e5 3e 3e d0 53 f0 3d 10 74 04 3c f1 fa 61 3e
       0.18642332 0.11734736 0.008084312 0.22068383
0000c0 dd 2f 2b 3e f0 88 78 bd 57 99 04 3e 0b 55 e8 3d
       0.16717477 -0.06067747 0.1294912 0.11344346
0000d0 87 64 fe 3d 74 6a 2f 3e 9e 87 f8 3d 07 94 47 3e
       0.12421518 0.17130452 0.12135242 0.19490062
0000e0 15 57 27 3e 14 89 2f 3e b5 da be 3d 72 16 91 3c
       0.16341813 0.17142135 0.09319059 0.017710898
0000f0 4c 83 27 3e 07 fa 66 3d 53 ce e1 3d 11 33 35 bd
       0.1635868 0.05639079 0.11025681 -0.044238154
000100 af a8 9f 3d f6 30 4f bb 4a df 0c 3e df 38 e4 3d
       0.07795846 -0.0031614876 0.13757053 0.1114366
000110 b0 6b ae 3d 6d 55 91 bd f4 fe 30 3e 32 f1 20 bb
       0.085166335 -0.07096372 0.17284757 -0.0024557826
000120 b2 a7 4b bd 1b 76 09 3e 94 07 59 3d 28 c3 48 3e
       -0.049720474 0.1342396 0.052985743 0.19605696
000130 98 bf 9e 3d 6c 35 0b 3e f5 57 1d 3e ae 6f 08 3d
       0.07751387 0.13594598 0.15365584 0.03330963
000140 09 12 33 3e 28 ef fe 3d 2b ee 8b bb 3b 9a 36 3e
       0.17487349 0.12447959 -0.004270335 0.17832272
000150 f7 99 7c 3d 94 6f 25 3e c1 d2 4f 3e 4a bb 61 3e
       0.06167027 0.16155845 0.2029524 0.22044101
000160 88 ba ff 3d f1 9a 46 3e 92 61 c8 3d e9 da a2 3c
       0.1248675 0.19395043 0.09784235 0.019879775
000170 ab 34 12 3e 35 c3 60 3d e7 1d 30 3e 6b 41 1c 3c
       0.14277904 0.054873664 0.17198907 0.009537081
000180 3a ee 15 3e 73 9a 06 bd 1c ce d6 bb cc 7a 59 3d
       0.14641657 -0.032862138 -0.006555332 0.053095624
000190 32 93 47 3d 73 ee 92 3d 5b f4 7f bb 0b f5 27 3e
       0.04872436 0.07174387 -0.003905556 0.1640207
0001a0 e8 26 4f 3e 52 66 8a 3c 98 6c 0e 3e cc ca 49 3e
       0.20229685 0.016894493 0.13908613 0.19706267
0001b0 55 68 07 3e 96 b7 34 3e 89 1a 6b 3d 28 4f 50 ba
       0.13223393 0.17648157 0.057398353 -0.00079463655
0001c0 7c 69 12 3e af 8a d3 bc 80 e9 04 3d 5c 2c 0d bd
       0.14298052 -0.025822965 0.032449245 -0.034466133
0001d0 09 d3 91 3d 3d ab 83 3d 41 2d af 3d 41 83 09 3e
       0.0712033 0.064291455 0.085535534 0.13428976
0001e0 0e 61 42 3e 7e fc 4f 3d a3 b4 0c bc 47 bf 05 3e
       0.18982336 0.050777905 -0.008587989 0.13061248
0001f0 9e ea 93 3d 94 20 e1 3d ec e0 cd 3d e9 48 c1 3c
       0.07222484 0.10992542 0.10052666 0.023594337
000200 d8 fa a8 bd 56 8d a9 3d d1 a9 eb bc 9e 3a 03 3e
       -0.0825097 0.08278911 -0.028767498 0.1281533
000210 ed aa c0 bd 4e 74 db bd eb d9 7a 3d db c3 da 3b
       -0.094076015 -0.10715543 0.06124298 0.00667618
000220 af 15 f8 3d 50 8f be 3b f2 87 14 3d 97 1e 93 3d
       0.12113511 0.005815424 0.03626246 0.07183569
000230 f0 64 4b 3e cc 14 ff 3d 61 3f f1 bd 22 fe da 3d
       0.19862723 0.124551386 -0.11779667 0.10693003
000240 f7 45 5e 3d 20 5f ba bd 72 89 64 bd 25 d4 6d 3c
       0.054265942 -0.09100175 -0.05579514 0.014515911
000250 5c ea b5 3d f4 5e ed 3d 63 cb bf bd c4 4e 5e 3d
       0.08882591 0.115903765 -0.09364965 0.054274336
000260 c6 b2 8e ba 3e a0 3b 3c da c2 65 3d 53 1f fc 3d
       -0.0010887019 0.011451779 0.056094028 0.12310662
000270 f7 93 5c 3d 09 7f 26 3e c8 48 d6 bd 9f 3d fb 3d
       0.053852048 0.16259398 -0.10463101 0.12267613
000280 65 83 c4 bc 9e 7c 45 3e 3a 86 a9 3a 06 f2 96 bd
       -0.023988435 0.19285819 0.0012933679 -0.07370381
000290 9d 28 8e 3d 99 7a e4 bd ed 7b c3 3d a2 99 cf 3d
       0.0694134 -0.11156196 0.09545121 0.10136725
0002a0 08 ee 46 bd 49 00 d0 3d f0 5b 93 3d 59 f6 96 bd
       -0.048566848 0.101563044 0.0719527 -0.07371206
0002b0 a1 35 1c bd 96 f9 73 3d 62 21 0c 3d 6c a2 a3 bd
       -0.038137082 0.059564196 0.034211524 -0.07989964
0002c0 65 93 2c 3d d2 03 65 bd 31 d9 aa 3b 67 88 b8 bd
       0.042132754 -0.055911846 0.0052138795 -0.09010392
0002d0 78 87 9e bd 0f ba b9 bd 29 4d 04 3d e6 a4 3e 3d
       -0.07740682 -0.09068691 0.03230015 0.04654398
0002e0 d3 96 3f bd 4a 0e 80 3d e4 15 7f 3c 8b fb 3a 3d
       -0.046774697 0.062527254 0.015569184 0.045650046
0002f0 10 73 b1 bd c7 1d 84 bd 44 ed 00 bc db a7 29 bd
       -0.086645246 -0.06450992 -0.0078690685 -0.041419845
000300 ef 83 0a 3e 1a 52 11 3d d8 b7 dd 3d 90 ea 9f 3e
       0.13526891 0.03547869 0.10826081 0.31233644
000310 97 1a 95 3d 60 f8 27 3e ab 1b 1d 3d fe 2a 67 3d
       0.07280462 0.16403341 0.038356464 0.056437485
000320 46 bf 4f 3e e9 cf 80 bc 65 b7 86 3d cd b3 04 3e
       0.20287809 -0.01572414 0.065779485 0.12959214
000330 d0 fa fe 3d f9 ee 5e bb 49 7f ea bb 18 59 44 3d
       0.124501824 -0.003401695 -0.007156287 0.04793653
000340 8d 21 a6 3e c2 57 ae bd f3 89 c5 bc d9 b8 66 3e
       0.32447472 -0.08512832 -0.02411363 0.22531451
000350 e8 8e fe 3d 6e 39 76 3e 5b 12 5f bd 1d 68 00 bc
       0.12429601 0.24045345 -0.054460865 -0.007837323
000360 31 f2 65 3e 9f 75 4f 3e 5e f7 e2 3a 0f 6f 15 3e
       0.2245567 0.20259713 0.0017316153 0.14593147
000370 fe a7 d5 3d 32 92 56 3e ce ca 91 bd 08 b4 46 3d
       0.104324326 0.20954207 -0.0711876 0.048511535
000380 5f b9 ef bc a0 15 ab bc 3b cb 98 3c 1f 5f 2b 3d
       -0.029263197 -0.020884335 0.018651595 0.04183876
000390 e5 0b 25 3e be 81 5c 3d 13 8f b1 bd 1c ef 88 3d
       0.16117819 0.05383467 -0.08669867 0.066862315
0003a0 ba ca e7 bc 67 bf e8 bc 57 3b 03 3d 0d 28 07 bd
       -0.02829491 -0.02841158 0.032039013 -0.03299718
0003b0 58 78 17 3e 82 03 cd 3d 22 b8 44 3c 04 fd 25 3e
       0.14792001 0.10010435 0.012006791 0.16209799
0003c0 0b 8e 81 3d 2e 56 b9 bd b5 ce 66 bd 65 20 3a 3d
       0.06325921 -0.090496406 -0.056349475 0.04544105
0003d0 7e 92 99 3d f4 f8 d6 3d 0d c3 0c be c1 b6 bc bd
       0.07498644 0.10496703 -0.13746281 -0.09214545
0003e0 75 5f 22 bd 64 ba 2b 3e 49 89 c5 3d 02 65 a0 bd
       -0.039641816 0.16770321 0.09645326 -0.07831766
0003f0 1e 7e 34 3e e6 20 68 3c 25 88 25 3c 09 cb 8f 3d
       0.17626235 0.014168 0.01010326 0.07021148

encoder.layers.2.bias f4 [32]
000000 0e 04 27 be 3d 06 03 be 75 1e e8 bd b7 5a a1 bd
       -0.1631014 -0.12795348 -0.11333934 -0.078786306
000010 35 d8 67 bd 74 13 c3 bd 4c 6a b4 bd 6d 69 93 3c
       -0.056602675 -0.09525195 -0.08809337 0.017994607
000020 23 57 f0 bd 5d fe ea bd 03 ca d1 3b 29 9f bc 3e
       -0.1173537 -0.11474297 0.0064022555 0.3684018
000030 9b fb 16 3d 4d 50 a6 bd f4 78 96 3e fd 10 b4 3e
       0.036861043 -0.08120785 0.29389155 0.3516921
000040 92 0c 72 bd 95 fa 31 3d 9a 03 d5 3c 01 d8 c0 3d
       -0.05909402 0.043451864 0.026002694 0.094161995
000050 76 44 9f bd a3 fe 3a 3c 77 0c b9 bc ca 04 c7 3c
       -0.0777673 0.011413249 -0.022588952 0.024294276
000060 d2 30 fa ba ee a7 1d bd c4 29 6c bb 1c 9e c2 bc
       -0.0019088036 -0.03849023 -0.0036035636 -0.023757033
000070 d7 b3 e9 bd 55 42 37 3c db 4a e2 bb bf e0 6c bd
       -0.11411255 0.011185248 -0.006905896 -0.057831522

encoder.layers.4.weight f4 [12, 32]
000000 ae 0a bd 3d 98 61 7e be 3a 32 85 be 5c 82 d4 bc
       0.092305526 -0.24841917 -0.26014882 -0.025941066
000010 cd e8 4f be 6f 19 31 3b 87 7a a6 be cf 75 71 3c
       -0.2030365 0.0027023216 -0.32515356 0.01473756
000020 1a 1c d8 bc 45 35 0a be 91 41 c5 bc 4e b2 a8 3e
       -0.026380587 -0.13496883 -0.024079116 0.32948536
000030 93 1d 2c 3d 1a d0 51 be 9d e2 7a 3e e1 cf be 3e
       0.04202039 -0.2048954 0.24500509 0.37267974
000040 71 38 f5 bd c0 da a3 bc 72 30 0a 3e fc 8d 6a 3d
       -0.11973656 -0.020001769 0.13495043 0.057264313
000050 a5 18 d9 bd 61 3a 09 be f3 f5 15 be bb 1d fc 3c
       -0.10600404 -0.13401176 -0.14644603 0.030775895
000060 e9 6f 4b be 2c f6 2c bb aa 4f 47 bd 2d 84 a5 bd
       -0.19866909 -0.0026391847 -0.048659958 -0.08081851
000070 2b 22 98 3d 04 de 2b 3b c2 51 6d bd 31 ac 8f be
       0.07428392 0.002622486 -0.0579393 -0.2806106
000080 15 18 5c 3d 6e e9 42 be a3 e6 20 be 3a 7f 86 be
       0.053733904 -0.19034359 -0.15712981 -0.2626894
000090 51 33 99 bd 2d 63 11 3d e0 5d 8c be 53 46 18 be
       -0.07480491 0.035494972 -0.2741537 -0.14870577
0000a0 a1 64 94 bd 1a 67 01 be 29 15 ed 3d 39 1c 61 3e
       -0.07245756 -0.12636986 0.115763016 0.21983422
0000b0 b5 ef 29 be 3f 1d 2c be 58 ff 55 3e 54 39 b9 3e
       -0.16595347 -0.16808031 0.20898187 0.3617655
0000c0 8d e3 72 be 3e e1 ca bd f8 c8 ba 3d c7 8f 16 be
       -0.23719616 -0.09906243 0.09120363 -0.14703284
0000d0 0a e5 2c 3d 55 8c 40 be ae e0 39 3d 28 29 3d be
       0.042210616 -0.18803532 0.045380287 -0.18472731
0000e0 a0 94 4d be 2e f2 37 be fc 5b 34 be 4b fd 46 be
       -0.20076227 -0.17963478 -0.17613214 -0.19432561
0000f0 54 e2 5a be 0b 99 82 3d 38 36 c5 3d c8 f2 4d bd
       -0.213754 0.06376847 0.09629482 -0.050280362
000100 21 9a b0 bd 25 7a 62 bd 15 88 0e bd 65 5f 6d 3e
       -0.08623148 -0.055292267 -0.034797747 0.23180921
000110 7a a7 e9 bd 12 96 05 be ff 13 dd 3d c0 d3 39 3e
       -0.11408897 -0.13045529 0.107948296 0.18147182
000120 eb c9 ae 3d 10 fc 89 3e e3 51 88 3d 17 7e 54 be
       0.085346065 0.2695012 0.06656244 -0.20751224
000130 f2 4e d8 bd 2f bb 81 bd 01 b1 93 be 4c 88 b1 be
       -0.105619326 -0.063345306 -0.2884598 -0.346743
000140 72 7d 22 3e 54 ed a6 3d d1 0b f0 bd 3f 11 bc 3c
       0.15868166 0.081507355 -0.11721004 0.022957442
000150 a3 a8 1f 3d 9e d8 c9 3d a4 4e c3 3c 45 e5 b9 bd
       0.038979184 0.098557696 0.02384121 -0.09076933
000160 c7 ff 84 3c 1a 57 0d bd 2e 35 1e 3e e3 d3 66 3d
       0.016235245 -0.034506895 0.15449974 0.056354415
000170 fc 7a e9 bd 50 5e f2 3d 8c 62 09 3e 4a 36 19 3e
       -0.114004105 0.11834395 0.13416499 0.14962116
000180 33 ed d4 bd 2d 74 c9 bb 9c 46 e9 3d aa 8d 23 3d
       -0.10396805 -0.0061478824 0.11390421 0.039930023
000190 8b 21 b4 bc e9 2c af 3d 11 67 49 3e 29 fd b2 bd
       -0.02198865 0.08553488 0.19668223 -0.08739693
0001a0 98 bf 83 3d 0b 86 2b 3e 6e 63 f8 3c 79 4f 55 be
       0.06433028 0.16750352 0.03032085 -0.20831098
0001b0 7b c3 1f 3d 20 28 c9 3d 13 98 eb 3c 94 f6 a4 be
       0.039004784 0.09822106 0.028759038 -0.32219374
0001c0 11 8a ae 3d 2e 86 38 bd 63 d6 9c bc 9b 27 a6 3d
       0.08522428 -0.04504984 -0.019145196 0.08113023
0001d0 d9 0b f1 3d b1 45 4e 3e 82 32 e0 3c a5 56 d8 bd
       0.11769838 0.20143773 0.027367834 -0.10563401
0001e0 3a 4c 87 3d 13 87 02 3e d6 c3 af 3d 98 51 f8 bc
       0.06606336 0.12746839 0.085822746 -0.030312344
0001f0 ee 86 c6 3d be b1 8e 3c c7 a1 ab 3d 19 24 51 bd
       0.096937045 0.017418738 0.08380466 -0.051059816
000200 8d b5 b8 bd 79 51 a1 3d fa 1e 89 3d 4b 10 d3 3d
       -0.09019003 0.07876868 0.066953614 0.10305842
000210 c9 c1 38 bd d2 02 08 3e 97 df d1 bc f5 36 28 3e
       -0.045106683 0.13282326 -0.025619311 0.16427214
000220 c0 8f 50 3e 7d 57 3f bd 7e 57 31 bd c6 17 f8 3d
       0.20367336 -0.046714295 -0.04329633 0.121139094
000230 30 88 00 3e 93 cf ae 3c 49 14 95 bd 44 25 13 bd
       0.12551951 0.021339213 -0.0727926 -0.03592421
000240 88 2a 11 3d c4 5a 20 3e e7 e5 10 3c db 6d 7f 3e
       0.03544095 0.15659624 0.0088438755 0.2494425
000250 46 f3 a1 3d 5c bd 9d 3d 21 20 9b bd 19 ad eb 3d
       0.07907729 0.07702133 -0.075744875 0.11507625
000260 a4 7c d4 bc 19 82 15 3e ac 84 25 3d 9f 48 55 3e
       -0.02593834 0.1460041 0.04040973 0.20828484
000270 1e 54 2a 3e 3c 19 52 3d 70 ac 01 be 57 f1 68 3d
       0.1663365 0.051293597 -0.12663436 0.056870785
000280 e7 bb 42 3d 68 35 a0 3d bf 03 0b bd df de b6 bd
       0.04754248 0.078226864 -0.03393912 -0.08929228
000290 20 14 48 bd 99 1e 28 bc 35 a8 c0 bd 9f c6 e7 3d
       -0.048847318 -0.010261201 -0.09407083 0.11317181
0002a0 f9 9a 8a 3c d8 6c a1 bc b5 41 b4 bd ae 87 44 3d
       0.0169196 -0.019705221 -0.08801595 0.047980957
0002b0 25 d1 7f 3b 66 0a 1d 3d f3 12 87 3d e1 ac 98 3e
       0.0039034572 0.038339995 0.06595411 0.29819396
0002c0 bc 60 8d 3d 2c 1c 17 bd 2a 62 fd bd 14 64 50 3d
       0.06903216 -0.0368921 -0.12372239 0.050876692
0002d0 97 6d 8e bd 54 8b c7 bc 6c 2b 70 bd a5 ef a2 bd
       -0.06954496 -0.024358429 -0.05863516 -0.07955865
0002e0 85 68 98 3c 02 79 21 3d 7b ff d0 bd 09 ff ca bd
       0.018604526 0.039422043 -0.10204979 -0.09911925
0002f0 8d f5 d5 ba 28 30 2d bd 18 2a 1b be 01 d7 9d 3c
       -0.001632379 -0.042282254 -0.15152776 0.01926756
000300 80 6a b3 bc ca fc e5 bd cd e3 eb bd 9b 7f 83 bd
       -0.02190137 -0.11229856 -0.11518059 -0.06420823
000310 af 65 b1 bc 8f 39 6a bd bb 8e 46 bd 69 51 46 3d
       -0.021654932 -0.0571838 -0.048475962 0.048417483
000320 04 36 83 3c 11 c0 c9 bd 09 92 66 bd d8 c4 c9 bd
       0.016016968 -0.09851087 -0.056291614 -0.09851998
000330 01 05 0c be 5a f4 6c bd 24 17 0b 3e 43 16 9e 3d
       -0.13673784 -0.05785022 0.13583046 0.0771909
000340 b7 c5 c2 bd 54 2f 25 be 48 b2 c0 bd ac 91 83 bc
       -0.09510367 -0.16131335 -0.094090044 -0.016060673
000350 28 c7 b3 3d 20 cf d0 3d 05 db ae bd 88 76 17 3d
       0.087782204 0.10195756 -0.085378684 0.036978275
000360 96 da 08 3d 8b 34 cf 3c ba 7f 84 bd d2 f5 45 bc
       0.033411585 0.02529361 -0.064696744 -0.012082534
000370 ad 52 aa 3d 59 84 d7 bd 7a 0d a1 3d 86 a1 5f bd
       0.083165504 -0.1052329 0.078638986 -0.0545974
000380 86 5f a7 3d 02 64 f6 bd aa fe 60 3d dd ff 47 be
       0.081725165 -0.12030794 0.054930367 -0.19531198
000390 fd 98 88 3d 94 b4 fd 3d 16 fb 91 3d 96 a5 0d bc
       0.06669805 0.12387958 0.07127969 -0.008645436
0003a0 87 9b a6 3d a0 da 08 be 72 37 28 be 76 6b 0d 3e
       0.08135133 -0.13364649 -0.164274 0.13810524
0003b0 c5 e8 77 3d e7 44 93 bb 5b db e1 3c 24 b6 0b 3e
       0.06052472 -0.004494298 0.027570417 0.136437
0003c0 45 4e 70 bb 65 f2 ec 3d 9c 67 c3 3d cf 82 c4 bd
       -0.0036667746 0.115696706 0.09541246 -0.09595262
0003d0 15 fd 4e bc aa e7 0b bc 1a 98 16 be 0b e9 1a bd
       -0.012633582 -0.00853912 -0.1470646 -0.037819903
0003e0 4e 93 c5 3c 20 75 e5 3b cc 14 6f bd 0d 03 f1 bd
       0.024118092 0.007002488 -0.058369443 -0.1176816
0003f0 27 be d4 bd 82 0b 02 3e 6a 16 0e be a6 b8 dd bb
       -0.10387831 0.12699702 -0.13875738 -0.0067663966

encoder.layers.4.bias f4 [12]
000000 31 80 aa 3e 8f d5 82 3e f0 12 92 be ba 17 b2 3c
       0.33300927 0.25553557 -0.28530073 0.02173983
000010 cc 84 97 bd 19 bd ae 3d 47 41 a7 bc 04 d9 aa bd
       -0.07398376 0.08532161 -0.020416869 -0.08342174
000020 a9 9d f5 3c 3e 72 c9 3d 60 19 0c bd bb e8 92 3d
       0.029982405 0.09836243 -0.034203887 0.07173296

decoder.layers.0.weight f4 [32, 17]
000000 d5 1d 19 be 78 bb 69 bd e6 39 be 3d 9d 1b 5d bd
       -0.14952786 -0.05706355 0.09288387 -0.053981412
000010 31 8c cc bd 03 c5 cd bd 8a 6f a3 3c 97 b2 b0 bd
       -0.09987677 -0.10047343 0.019950647 -0.08627813
000020 4f a4 94 3e 06 9c 3b be f1 b4 1f 3e df 3c 32 be
       0.29031608 -0.18321237 0.15596367 -0.17406033
000030 d5 76 82 3e 92 af 87 3e dd 32 e5 3d f3 42 21 be
       0.25481287 0.26501137 0.11191342 -0.15748195
000040 83 43 a6 3d cb 86 2b 3e 74 73 b1 3e 75 3d 03 be
       0.081183456 0.16750638 0.34658396 -0.12816413
000050 b0 37 3e be f8 43 47 3d 23 a4 b6 3e d2 09 94 bd
       -0.1857593 0.048648804 0.356721 -0.072284356
000060 5a e2 03 3d e8 2d 6a bd d3 4e b6 3b 22 49 f0 bd
       0.032198288 -0.057172686 0.005563596 -0.11732699
000070 25 ce 56 bd d1 e8 8a 3e 07 73 05 bc 17 80 8a be
       -0.05244269 0.2713075 -0.0081451 -0.2705085
000080 d0 32 0f be 08 aa 57 3d 44 7a a5 3e 22 40 9d 3e
       -0.13984227 0.05265239 0.32319844 0.30712992
000090 63 94 9d be ff e5 60 3e aa ee ee 3c 35 dd 7e 3e
       -0.30777273 0.21962737 0.029166538 0.24889071
0000a0 e3 84 5e be 9b e2 2b bd d4 d6 3d be 42 b4 49 3d
       -0.2173038 -0.041964155 -0.18538982 0.049244173
0000b0 e6 fb 56 3e e8 65 6d 3d 78 4e bf 3d 6b 15 0b 3d
       0.20994529 0.057958513 0.093411386 0.033955973
0000c0 a8 b9 13 be 6d 6e c1 bd 23 7e 2b 3e a0 5a 64 be
       -0.14426291 -0.0944489 0.16747336 -0.22300196
0000d0 b0 9a ca bb 02 9b b2 bd fe 80 73 bd fb 9c b4 bc
       -0.006182991 -0.08720972 -0.05944919 -0.02204751
0000e0 60 5e 35 be 83 08 dc bd dc 4d 91 3e db 95 27 bc
       -0.17711782 -0.10743811 0.28379714 -0.010228599
0000f0 c6 10 cc bd 3a 3c 6a be 85 ed 31 be 1d b9 7c be
       -0.09964137 -0.22874537 -0.17375763 -0.2467999
000100 39 ca 08 3e 0f fd 80 3e 1e 32 51 3e 10 10 21 3c
       0.13358392 0.25193068 0.20429274 0.00983049
000110 a2 05 02 be 4b 2e 0f be 21 84 1d 3e c0 d0 2f 3e
       -0.12697461 -0.13982503 0.15382434 0.17169476
000120 16 b8 16 3e 9c c9 33 be 50 20 10 3e 5e 21 09 be
       0.1471866 -0.17557377 0.14074826 -0.13391635
000130 a2 6e 92 bd 6a c1 5f 3e b6 a8 f9 3d 8c 3b ab 3d
       -0.07150008 0.21851125 0.12190382 0.08360967
000140 56 c0 81 bc 3d 13 1c be e6 74 f8 bc 60 98 08 be
       -0.015838783 -0.15241714 -0.030329179 -0.13339376
000150 64 41 66 3e 89 24 86 3d 4e 99 e7 bd d1 6e 2c be
       0.22485882 0.06549937 -0.113085374 -0.16839148
000160 bc e7 7c 3e 41 84 d4 3d cb 85 ee bd b9 7f 99 3e
       0.24697775 0.10376788 -0.11646613 0.29980257
000170 ba 3f 84 3d b2 df 39 3e d7 2c e5 3d 7c 7d 44 3e
       0.064574674 0.18151739 0.11190193 0.19188493
000180 5e 3f 77 3d a6 d0 47 be 50 bf 90 be e8 98 cb 3c
       0.060363166 -0.19513187 -0.2827096 0.024853185
000190 1c e7 87 be 9e 43 ea 3d ab dc 43 be 8e 39 0e be
       -0.2654351 0.11438678 -0.19127147 -0.13889143
0001a0 78 a5 44 bd bb 49 21 3e 38 cb 2e bd 32 10 2f be
       -0.048009366 0.15750782 -0.042674273 -0.17096022
0001b0 a6 03 65 be ee 94 1d 3d 76 d6 d2 be 85 fe b0 bb
       -0.22364673 0.03847211 -0.41179246 -0.005401435
0001c0 4f 97 88 3e a0 e0 69 3e b7 e0 69 be 6a 8f 33 be
       0.2667794 0.22839594 -0.22839628 -0.17535177
0001d0 1e 7e 45 3e 84 79 d1 3d de 53 c1 3d 19 38 98 3d
       0.19286391 0.102282554 0.094398245 0.07432575
0001e0 f9 1f c9 bd 5b c1 4c be 68 a8 6b 3e bd 84 8a 3d
       -0.098205514 -0.19995634 0.2301346 0.06763599
0001f0 67 53 68 3e b8 e1 cd bd 36 97 90 bd 3d ff c3 bb
       0.22688065 -0.10052818 -0.07060091 -0.0059813545
000200 e1 08 ce 3d 68 fa 97 ba a4 2e 1e bd 73 1d c8 3c
       0.10060287 -0.0011595013 -0.0386187 0.024428105
000210 28 4b 17 be fe 8c bc bd c1 69 06 be 8a ec ad 3d
       -0.14774764 -0.092065796 -0.1312628 0.08492382
000220 4d 8e 71 be 46 b6 7c be 88 2c 39 3e 7e 58 29 3e
       -0.2358944 -0.24678907 0.18083394 0.16537663
000230 a2 4e 8d 3d be e5 77 bd 01 ec 02 bd 45 ca 98 be
       0.06899764 -0.060521834 -0.031963352 -0.2984182
000240 29 3c 22 3e bf 47 d5 bd 80 0a 16 3e 6e 90 c5 bb
       0.15843262 -0.10414075 0.14652443 -0.0060291803
000250 62 31 0e 3d ff 3f df bd 41 5f 4a 3e f6 20 85 3e
       0.034715064 -0.10900878 0.19762899 0.2600171
000260 c3 0f c1 3d 4b 51 0b be ae b0 85 3e 41 d0 3f be
       0.094268344 -0.1360523 0.26111358 -0.18731786
000270 19 dd 64 3e 0c 50 70 be c6 46 ba bd 00 34 c3 bb
       0.22349967 -0.23468035 -0.0909553 -0.0059571266
000280 64 42 91 3d d3 04 c8 3d 85 ad fa 3b 55 ac 4b 3e
       0.07092741 0.09766545 0.0076500797 0.19889958
000290 96 f7 29 3e d7 12 39 3d 2e 46 5f be 21 9c 4e be
       0.16598353 0.045183983 -0.21804115 -0.20176746
0002a0 33 3c 0d b9 30 dc c8 3d 29 fd cc 3d 11 1f 2a bd
       -0.00013469234 0.098076224 0.10009224 -0.041533533
0002b0 24 7e 54 3e b7 ac 37 be 66 b7 54 3e f7 ec 12 3d
       0.20751244 -0.17936979 0.20773086 0.03587052
0002c0 8d e7 0f 3d b2 04 97 3e 90 28 90 3d d0 fc 6e 3e
       0.035132933 0.2949577 0.07038987 0.23338628
0002d0 a7 50 67 3e 29 d4 e8 bd 40 16 8a 3e 04 d9 23 3e
       0.2258936 -0.11368591 0.269701 0.16000754
0002e0 64 94 6e be bd 7d a8 bd 42 92 64 3d 34 6d 63 bd
       -0.23298794 -0.08227108 0.055803545 -0.055524066
0002f0 45 d5 32 be 27 db c1 bc 21 a6 67 bd 76 ef 2f 3e
       -0.17464168 -0.02366407 -0.056554917 0.17181191
000300 f8 49 e3 3d be 0c 00 bd 15 16 16 3e 3f e0 ce bd
       0.11098093 -0.031262152 0.14656861 -0.10101365
000310 5a 56 36 3e 37 59 15 3e 75 6b ae bc 6a 4c 96 be
       0.17806378 0.14584814 -0.021291474 -0.29355174
000320 c7 21 8b bc c1 31 23 bd e8 c2 89 3c 35 8d 65 be
       -0.01698388 -0.03984237 0.016816571 -0.22417147
000330 0e 0e f7 bd e3 6b 5f be 9e 5a 8a 3d e4 2c 94 3d
       -0.120632276 -0.218185 0.06755565 0.07235125
000340 26 2b 75 3e 09 ed cc 3d e5 93 37 3e 82 a4 fc 3d
       0.23942241 0.10006148 0.17927511 0.12336065
000350 4e f2 a8 3e 92 96 27 be f6 11 bb 3c 13 68 4b bd
       0.32997364 -0.16366032 0.022835713 -0.0496598
000360 49 99 13 3e 7b c4 26 be cb 06 11 3d 0a 6d 64 bd
       0.14413942 -0.16285889 0.03540687 -0.05576805
000370 7a 35 af 3c 26 82 97 3d db 86 56 be 59 32 a6 3d
       0.021387804 0.07397871 -0.20949881 0.08115072
000380 8f d6 10 3e 0c c6 83 be d6 b3 c6 bd cf e4 3d be
       0.14144348 -0.25737035 -0.0970227 -0.18544315
000390 51 c5 22 3e f9 d9 86 bd 22 b9 66 3b e2 f6 43 3d
       0.15895583 -0.06584544 0.0035205563 0.047842868
0003a0 bc ec c2 bd f3 98 85 bc f2 11 7f bb 86 7d 62 3e
       -0.0951781 -0.016308283 -0.0038920608 0.22118196
0003b0 78 00 fd 3c a5 c6 ce bd e6 0f 82 3e 3f 33 73 3c
       0.030884013 -0.10096482 0.25402755 0.014843761
0003c0 87 05 39 be a8 39 cd 3c ce 22 fc bd 20 07 44 be
       -0.18068515 0.025051907 -0.12311326 -0.19143343
0003d0 95 3d 4e be b1 0f 58 3e b2 99 16 bd 54 66 ad bb
       -0.20140679 0.21099736 -0.03676767 -0.0052917395
0003e0 5d 8e 81 be 80 fa 61 3e 27 a0 4d be 4d 87 2b 3e
       -0.25303927 0.22068214 -0.20080625 0.16750832
0003f0 01 a0 84 3e 84 1e 4e 3d 7d c3 1d bc 06 d9 a1 3e
       0.25903323 0.05032207 -0.009629128 0.31610888

decoder.layers.0.bias f4 [32]
000000 3c e5 5b 3c 0f 39 2f 3e a9 fe 3a 3e b5 e0 23 bd
       0.013421353 0.1711161 0.18261208 -0.04000922
000010 09 4e 2f be 7a b6 60 be 09 33 2e be d6 14 02 3e
       -0.17119612 -0.2194461 -0.17011656 0.12703261
000020 df 98 04 3e 49 ef 91 3e 6b 7e 25 3d f9 c9 2d 3e
       0.1294894 0.28502873 0.040403765 0.16971578
000030 b9 06 0d be 35 c2 ad 3e 58 6e dd 3e ae 28 b1 3e
       -0.13772096 0.3393723 0.43248248 0.3460135
000040 50 04 3d 3e db e4 85 be ee 55 4f be 0e d1 59 3e
       0.18458676 -0.26151165 -0.20247623 0.21271154
000050 1f e2 31 be 2d c2 75 3e ba f8 b2 3e 99 2c 09 3d
       -0.17371415 0.23999853 0.34955388 0.033489797
000060 f6 62 36 3e 66 91 bd bd f3 eb 84 3c c0 9b a5 3e
       0.17811188 -0.09256248 0.01622579 0.3234539
000070 19 70 db 3b b9 b1 df 3e 9b be 58 3e 2a ff f7 bd
       0.0066967127 0.4369028 0.2116646 -0.121092156

decoder.layers.2.weight f4 [32, 32]
000000 a5 12 7f 3e 93 9d b9 bd 9a 4f 20 be d5 36 23 3e
       0.24909456 -0.09063258 -0.15655366 0.15938886
000010 fa 2c 97 bd 8f 8c 44 3e cb 1b 03 be b5 d2 83 bd
       -0.073816255 0.19194244 -0.12803571 -0.064366736
000020 c1 fa 5b 3e 2a 3d ec bd e3 1f 2e bd 2f 8f fc 3d
       0.21482374 -0.115351036 -0.04251088 0.123319976
000030 72 b0 2f 3e e2 ff 44 3d b7 86 54 bd 23 d7 bb bd
       0.17157152 0.04809559 -0.051886287 -0.091718934
000040 20 86 78 bd 32 dc 92 bc 44 ef 05 be 97 c3 4b 3e
       -0.060674787 -0.017927263 -0.13079554 0.1989883
000050 20 0d db 3d 7d 8f ce bd d9 fd d7 3a 58 bb 07 be
       0.10695863 -0.10085962 0.0016478851 -0.1325506
000060 a2 ce 04 be d8 93 3a 3e 9d 81 93 3d df 13 1c bd
       -0.12969449 0.1822046 0.07202456 -0.038104888
000070 a2 56 a1 bd a3 b0 bf 3c 65 5e b5 bd 48 65 9d 3d
       -0.07877852 0.023399657 -0.08855895 0.076853335
000080 01 95 40 bd e4 7f ec 3d cd 44 b8 bc c2 ee 01 be
       -0.0470171 0.11547831 -0.022493744 -0.12688735
000090 89 ec f5 3d f1 23 16 3e 20 0c 32 be 3f 90 cb 3d
       0.12008006 0.14662148 -0.17387438 0.09939622
0000a0 ef b5 48 bd 32 be 9e bd 90 b0 b0 bc d6 de b6 3c
       -0.04900163 -0.077511206 -0.021568567 0.022323053
0000b0 a9 fd c8 bd e2 0e aa 3d be 2a aa bd 6e c3 47 be
       -0.09814007 0.0830362 -0.08308934 -0.19508144
0000c0 04 39 1a 3d 21 c9 93 3d 30 d1 13 3e 45 97 1a 3e
       0.03765203 0.07216097 0.14435267 0.15096767
0000d0 13 80 8b 3d a1 6b b3 3d 07 2e 32 be 9e d4 d9 3d
       0.068115376 0.08760763 -0.1740037 0.10636257
0000e0 68 96 03 3b a6 53 f5 3c 82 1e 8c bd c3 fc 25 3d
       0.0020078663 0.029947113 -0.068417564 0.040524255
0000f0 9f 80 59 3e f3 a0 11 3d af 04 af bc 5a 7a 3d 3d
       0.21240471 0.035553884 -0.021364538 0.04625926
000100 99 fa 01 3d f4 c5 c1 bd d8 37 88 3c 9d 80 ff 3b
       0.03173313 -0.09461585 0.01662819 0.0077973143
000110 33 87 63 3e 16 96 d9 3d 95 4d 36 3e 87 ba da 3d
       0.22219543 0.1062433 0.17803033 0.106801085
000120 f2 1f 18 3e 61 66 9a bd c6 7d d7 bd 8b 85 92 bd
       0.14855936 -0.075390585 -0.10522036 -0.071543775
000130 4d b6 11 3e 48 c6 c2 3d b6 19 89 bd a9 e6 05 be
       0.14229698 0.095104754 -0.06694357 -0.13076271
000140 84 34 b4 3d 50 8b c5 3d 52 9c 11 3e 51 dc f2 bd
       0.08799079 0.096457124 0.14219788 -0.11858428
000150 cc 67 8d 3e 7b 01 d6 3d eb 4d 39 3e e7 5e e8 3d
       0.27618253 0.10449501 0.1809613 0.11346226
000160 6b 68 03 be d2 06 3e 3e 8d 67 f1 3d 77 f5 d7 bd
       -0.12832801 0.18557289 0.11787329 -0.105448656
000170 43 1c e6 bd 90 cf 70 bc 3f 5c 34 be 90 d8 aa 3d
       -0.11235859 -0.014697924 -0.17613314 0.08342087
000180 73 74 5b 3d c5 69 77 3d 27 fe 06 be 64 4c 43 bd
       0.05357785 0.060403604 -0.13182889 -0.047680274
000190 f5 7b 2b 3e d5 bc ce bd f9 5f 64 3d d2 e0 02 be
       0.16746505 -0.100946106 0.05575559 -0.12781075
0001a0 58 72 61 3c 73 2e 94 3d 06 c0 5b 3d ec 61 b6 bd
       0.013760172 0.07235422 0.053649925 -0.08905396
0001b0 12 f5 08 be 3a ad 9f 3d 7c 0f af bd 13 ce 6c 3c
       -0.13374737 0.07796712 -0.08547875 0.014453429
0001c0 b0 db da 3c 08 9d 0b be c0 80 04 3e 0d 39 10 be
       0.026716083 -0.13634121 0.12939739 -0.14084263
0001d0 f9 35 86 bd 5d 50 cd 3c ce 25 44 3c 62 ef 7b 3d
       -0.06553263 0.025062734 0.011971904 0.06150759
0001e0 c0 24 9a bd bd a5 15 be 33 d4 50 3c 06 bc a8 3d
       -0.07526541 -0.14614005 0.012745905 0.082389876
0001f0 e9 04 01 3e 3d 91 03 3e f5 e3 ef bd d0 93 7f bd
       0.1259953 0.12848373 -0.11713401 -0.062396824
000200 e6 d3 e5 bc b6 8c 8c 3d 7a 59 d5 3d e5 25 5e 3e
       -0.028055143 0.06862776 0.10417457 0.21694143
000210 59 ee 3b be 92 0b 19 be cb e4 34 3e 86 f2 9e 3d
       -0.18352641 -0.1494582 0.17665403 0.077611014
000220 96 f4 e2 3d 93 f8 0c 3e 30 11 9f 3d bb 2b 28 bc
       0.11081807 0.13766699 0.0776695 -0.010264332
000230 15 14 dd bd 6c 94 0d 3e 0a 4e 90 3e 4d ad 4f 3e
       -0.10794846 0.1382615 0.2818454 0.20280953
000240 ab ab 31 3e 18 3e d1 ba 38 44 bf 3d 89 73 ad bc
       0.17350642 -0.001596394 0.093391836 -0.021173256
000250 ef 2d 50 3d 8b f0 25 3e a1 0e 10 3e 78 80 ba bd
       0.050825056 0.16205041 0.1406808 -0.09106535
000260 70 86 91 3d a7 1b dd bd 4c 36 0c 3e cc 9c 93 3e
       0.0710572 -0.1079629 0.13692588 0.28830564
000270 2b f1 e7 bd 40 c2 37 3e 52 34 86 3e 92 3f 09 3c
       -0.11325296 0.17945194 0.26211792 0.008376973
000280 a4 63 40 bd 18 9b aa 3e 8d 17 97 3e fa ca 9a 3c
       -0.046970025 0.33321452 0.29510155 0.018895615
000290 28 1f 3f be c1 a3 af 3d ec ef fa bb f3 b8 27 3e
       -0.18664229 0.085761555 -0.0076579954 0.16379146
0002a0 3f bb dc bd e3 4f 4c 3e 40 2a 0d 3e fa 28 57 3d
       -0.10777902 0.1995235 0.13785648 0.052529313
0002b0 3a 51 b3 3d 95 34 31 3d 81 a5 a2 3e f1 55 ae 3d
       0.08755727 0.043263037 0.31766894 0.08512486
0002c0 bb 30 66 bd 2b 91 1e bc eb 35 0f be ec 71 dd bb
       -0.056198817 -0.009678165 -0.13985412 -0.0067579653
0002d0 db 0a 0a be 02 41 98 3e a4 79 21 3e 87 8e 92 bc
       -0.13480704 0.29737097 0.15769058 -0.017890228
0002e0 a8 bb 22 3e e0 f3 18 3d 7e 0a fb 3d c9 7f 6a 3e
       0.15891898 0.037341952 0.122578606 0.22900309
0002f0 d5 f6 f2 3d 79 a0 89 3e e8 96 c0 3d f3 f5 d9 bd
       0.11863486 0.26880243 0.09403783 -0.10642614
000300 e2 49 f6 3c b6 28 5d 3e b1 9e c0 3d f4 ba 38 3d
       0.030064527 0.21597561 0.09405268 0.045100167
000310 70 d4 33 be 57 d1 ba 3d 3f 39 ec bd b2 e0 32 3e
       -0.17561507 0.0912196 -0.11534356 0.17468527
000320 3e bb 7e bd 13 44 12 3e a9 d4 00 3e 3c 1f ee 3c
       -0.062190287 0.14283781 0.12581123 0.029067628
000330 6e 3d ad bd b3 2a 00 3e 51 18 3a 3e 6c e7 ec 3d
       -0.084589824 0.12516288 0.18173338 0.11567578
000340 9a 8f d9 bc 8d cb f8 3b 7e 35 bd bd 11 ef 9e 3d
       -0.026557732 0.0075926245 -0.092387185 0.07760442
000350 8b 7b 22 be bb 27 e0 3d 16 ac 4b 3e 7e d0 a4 3c
       -0.1586744 0.10945078 0.19889864 0.020118948
000360 7d f0 0e 3e 47 31 11 bd 6c d4 29 3e 33 97 49 3e
       0.13958926 -0.035447385 0.16584939 0.19686584
000370 f2 30 03 3e 22 d9 fb 3d 80 93 35 3e b2 c0 06 be
       0.1281164 0.12297274 0.17732048 -0.13159445
000380 3b 9c 11 3e 25 25 2a 3e 63 0d 1e 3e 12 1b 2f be
       0.14219753 0.16615732 0.15434794 -0.1710017
000390 a7 fe c0 3b bd 20 71 bd 6d 00 a0 3d be df de bc
       0.005889732 -0.058869112 0.07812581 -0.027206298
0003a0 7d 39 3f 3e 8b 80 aa 3d db 64 1c 3d 25 e3 8f bd
       0.18674274 0.08325299 0.03818212 -0.07025746
0003b0 c7 ce 04 3e 05 24 a9 bd bc 82 a8 bd a2 df 10 3e
       0.12969504 -0.08258823 -0.082280606 0.14147809
0003c0 6b 76 19 3d 26 ff f4 bd 20 9f 53 bd 66 2f c6 3d
       0.037466448 -0.11962728 -0.051665425 0.09677009
0003d0 fe 3d 80 bd 9c 26 5b 3e a3 24 3b bd 65 db 24 3d
       -0.06261824 0.21401447 -0.045689236 0.040248293
0003e0 85 17 01 3d 05 f2 31 3c d9 20 5c bd 4c e7 27 3e
       0.03151657 0.010860925 -0.053742263 0.16396827
0003f0 81 37 d9 3d 7e 78 f9 bd ff 0f 1c bd a4 32 fd bd
       0.1060629 -0.12181185 -0.038101193 -0.123631746

decoder.layers.2.bias f4 [32]
000000 6c cc 08 be e6 51 dc bc 75 14 85 3c b2 1e 69 bd
       -0.13359231 -0.026894521 0.016245106 -0.05691404
000010 35 20 91 3e e4 b4 69 3e 48 42 6d 3e 56 7c 14 3e
       0.28344885 0.2282291 0.23169816 0.14500555
000020 15 3b ba bd cf e9 4a 3e 47 c3 39 bd b5 16 3a be
       -0.090933 0.19815753 -0.045352247 -0.18172725
000030 37 89 9a bd 57 32 0c 3c a8 28 29 3d 79 44 8f bb
       -0.07545703 0.008556924 0.04129854 -0.0043721762
000040 3f f0 6d 3c 02 fb 97 bd cd 98 1f 3e 34 a7 ee bd
       0.014522611 -0.07420923 0.15585633 -0.11652985
000050 d5 77 10 be 9e 11 58 bd a4 b1 42 3e 2b 25 91 3e
       -0.14108212 -0.052751176 0.19013077 0.2834867
000060 cd d1 1c 3e c3 3b 60 bd d2 03 a1 3e 3e c0 37 3c
       0.15314408 -0.054744493 0.31448227 0.011215268
000070 fa 7e b2 bd 5d 18 cd bd 55 d0 5e 3e df 19 b8 3d
       -0.08715625 -0.100144126 0.2175916 0.089893095

decoder.layers.4.weight f4 [24, 32]
000000 dc 15 c0 ba 5b db cc 3d 63 db f5 3d 56 e4 63 bd
       -0.0014654952 0.10002776 0.12004735 -0.05563768
000010 dd d2 49 3d 82 0d a9 bc 76 19 f2 3d 73 e3 13 be
       0.04927336 -0.020636324 0.118212625 -0.14442234
000020 bb 02 9f bd a9 2d 40 bd ef 81 fc bd af bd 8a 3d
       -0.07764193 -0.046918545 -0.1232947 0.067744605
000030 77 c3 f1 3d 5f fc d4 3d 26 76 f6 3b 58 1d 95 3c
       0.1180486 0.103996985 0.0075214086 0.018202469
000040 99 79 8e bd 88 a1 9f bd fb bb 99 bd 07 44 cc bd
       -0.06956787 -0.077944815 -0.075065576 -0.09973913
000050 33 21 02 3b 3a 43 0c bd d5 22 13 3d 6d c3 de bc
       0.0019856214 -0.0342438 0.03592189 -0.027192796
000060 f3 3f 53 3b be d1 26 3d d3 b2 b8 bc d6 ec 30 bc
       0.0032234162 0.04072737 -0.022546208 -0.010798654
000070 76 19 39 bd f2 69 16 3b 0f 3c fc 3c 43 f3 7f bd
       -0.045190297 0.0022951332 0.030790357 -0.06248785
000080 28 1e b0 bc 3c 49 3e 3c 58 ef 07 3e 27 6c c8 3d
       -0.021498755 0.01161414 0.13274896 0.097862534
000090 33 95 9a bc 93 c3 df bc 2e f3 e0 3c 2c 31 32 3d
       -0.018869972 -0.027314937 0.027459707 0.043503925
0000a0 00 12 f0 bd 19 1a ba bd f5 ad 05 be 72 ca ae 3d
       -0.11722183 -0.09087009 -0.1305464 0.08534707
0000b0 07 94 05 3e b5 34 b4 3d ae 03 4b 3d 7a 82 0e be
       0.13044749 0.087991156 0.049564056 -0.1391696
0000c0 80 1a 1d 3e d1 99 0a be 27 ba 10 3d 37 4b 9c 3d
       0.1534214 -0.13535239 0.03533378 0.076315336
0000d0 6f 54 4c 3d 1c e0 a3 3c 9e b3 d8 bd 6e 2f 20 3d
       0.04988521 0.020004325 -0.10581134 0.039107732
0000e0 c5 8b 8c 3d 66 bb f6 bd ee d8 3b 3b 05 7a 7f bd
       0.068625964 -0.12047462 0.0028663236 -0.062372226
0000f0 2f de b8 bc c9 5a 8d 3d 81 a0 0a 3e 54 66 00 bb
       -0.022566883 0.069020815 0.1353779 -0.0019592242
000100 25 8f df bc b4 d3 1c 3d c6 21 05 be b3 ee 9f 3d
       -0.027289936 0.038287833 -0.13001165 0.078092
000110 6c e0 9d bd fc cf 31 bc 2c aa 03 bc 26 4e d1 bc
       -0.07708821 -0.01085281 -0.008036178 -0.02554996
000120 d4 67 cd bd 27 d9 b7 3b 1d b8 9b 3d 77 be 24 3e
       -0.10029569 0.0056106034 0.07603476 0.16088282
000130 cd 99 94 bd a7 c9 5a 3d 3b e4 b4 bd 8b fc 0e 3e
       -0.07255898 0.053414967 -0.08832594 0.13963525
000140 14 87 f4 bd 52 32 10 3e 31 5d 85 bd 6b f5 9f bd
       -0.119398266 0.14081696 -0.065119155 -0.07810482
000150 a5 96 2f bd bd 7a 40 bb 89 4e 84 3d 77 b4 b1 bd
       -0.042868275 -0.0029370033 0.06460292 -0.08676999
000160 5e 77 e3 3d 03 24 a6 bd 12 0a e0 bc a3 1d 7b 3d
       0.11106752 -0.081123374 -0.027348552 0.06130756
000170 0e 93 cd bb a1 36 01 3d 4d fb eb 3d 0b 33 da bd
       -0.006273634 0.03154624 0.11522541 -0.10654267
000180 68 d3 6a bd e4 97 be 3b 57 c3 ff bb e8 68 13 bd
       -0.05733052 0.0058164466 -0.0078052687 -0.03598872
000190 22 68 b4 bd cd c1 54 bd 9d c4 95 3c 2d b5 f2 3c
       -0.08808924 -0.051942635 0.01828223 0.029627407
0001a0 06 ad f7 bd a6 b3 2c bc f7 da b7 3d 38 b8 2d bd
       -0.120935485 -0.010540878 0.08977311 -0.042412013
0001b0 24 c4 db 3d e7 78 85 bd a7 ea dc 3d 8e 41 ef bd
       0.1073077 -0.06517201 0.10786944 -0.116824254
0001c0 6d 72 85 3d cf e0 22 bc e4 94 47 3d 6e ea 48 bd
       0.065159656 -0.009941294 0.048725978 -0.049051695
0001d0 cd 90 b9 3d 56 4a c7 3c 8b 92 a1 bd 4f d0 d5 3c
       0.09060822 0.024327438 -0.07889279 0.026100306
0001e0 e5 9b cb 3d f3 ec 27 3d 10 90 dd 3d 8e 06 a5 3b
       0.09941844 0.040997457 0.10818493 0.005036182
0001f0 5e 03 14 be 1a c3 34 3d 8a b7 97 bc 9e 55 8d bc
       -0.1445441 0.044131376 -0.018520135 -0.01725274
000200 81 65 90 bd 8a aa 45 3d 53 94 05 bd 09 8c 31 3d
       -0.0705061 0.04825834 -0.032612156 0.04334644
000210 30 ba b7 bd 65 ba 01 bd 37 0f 7d 3c 6e 33 5a 3d
       -0.08971059 -0.0316719 0.015445522 0.053271703
000220 c0 db 8d bd 55 28 54 bd 2c d6 83 3d 4e a2 ab bd
       -0.069266796 -0.051796276 0.064373344 -0.083805665
000230 10 3a bb 3d 58 bf 37 3d ab f5 a1 3d 17 67 78 bd
       0.09141934 0.044860214 0.079081856 -0.06064519
000240 8b 57 0c 3e 6f 55 0e 3e d8 b7 38 3c d9 b5 1d be
       0.1370527 0.13899778 0.0112743005 -0.154014
000250 88 ed e2 bd ce 6a 00 bb fc cd 92 3d f7 05 ea bb
       -0.11080462 -0.001959491 0.07168195 -0.0071418243
000260 fd e6 07 bd 9c 18 55 3d 96 81 cd 3d dd 98 be bd
       -0.033179272 0.052025422 0.10034482 -0.093065
000270 45 72 a4 3d 36 52 4c 3c a0 d0 c1 3d 2f d7 84 bd
       0.08029608 0.0124707725 0.0946362 -0.064863555
000280 53 4a 75 3c 8e 95 3c 3b 5d 13 a8 bd d4 82 4f bd
       0.014971334 0.0028775665 -0.08206818 -0.050661877
000290 ce b4 d3 3c 7c 46 20 bd 1e 1f ae bc f2 09 94 3c
       0.02584305 -0.03912972 -0.021255072 0.018071149
0002a0 be 7e b2 bd 27 1f 88 3d 4d 89 dc bc f3 02 11 3e
       -0.087155804 0.06646567 -0.026920939 0.14161281
0002b0 1b bf 0a 3e 44 01 da 3d 52 2a 9e 3d c1 d8 0e be
       0.13549463 0.10644773 0.07722916 -0.13949873
0002c0 d6 6a d4 3b 21 a0 da bd c0 db 09 3d d0 66 50 bd
       0.0064824624 -0.106750734 0.033656836 -0.0508793
0002d0 98 71 5b 3d 6c e6 bc bd 47 0d 2e 3e 58 1d fd bc
       0.05357513 -0.09223637 0.16997252 -0.030897781
0002e0 c0 4a 21 3d fd d2 da 3c d8 7a 1b 3d 8e 20 07 bd
       0.039377928 0.026711935 0.03795895 -0.03299003
0002f0 73 3a e0 3d 9f 06 56 bd 22 da c8 bd 45 14 d4 bd
       0.10948648 -0.052252408 -0.098072305 -0.103554286
000300 f3 94 ef 3a 6a 0d cb bd 26 4f f0 bd c3 e3 3b 3d
       0.0018278643 -0.09914668 -0.11733846 0.045871507
000310 75 8c c4 bc 74 c7 6c bc 1a bb d3 bc ad 42 df 3d
       -0.023992756 -0.01445185 -0.025846053 0.10901389
000320 a1 2d c4 bd 8c 24 9d 3c 91 b2 a7 bc a5 f3 b8 3d
       -0.095790155 0.019182466 -0.02047089 0.090308465
000330 76 f3 c4 bd c0 f9 25 bd a7 4c 2c bd d6 11 a3 3d
       -0.09616749 -0.040521383 -0.04206529 0.07962386
000340 3e 30 b2 bd 3c 07 a9 3d c4 14 81 3d fc b9 f9 3d
       -0.08700608 0.08253333 0.06302789 0.12193677
000350 c0 01 10 3d 0c 4c 2d 3d 2c a4 03 3e d1 f9 92 bd
       0.03515792 0.042308852 0.12855595 -0.07176555
000360 4b 3d 27 bd 0a c7 d3 bb 66 54 58 bd d1 5a 80 bd
       -0.040829938 -0.0064629363 -0.052814864 -0.06267322
000370 40 68 6a bd b2 af b0 bd 61 5c 44 3d 78 ee 73 bc
       -0.057228327 -0.08627261 0.047939662 -0.014888398
000380 7e 2b 1d bb 4d 9d a7 3d 4c 04 8d bd e6 bc b3 3c
       -0.0023982222 0.081842996 -0.06885585 0.02194066
000390 fd 0f bf 3d fa 20 e7 bc 52 33 48 3d 01 40 89 3d
       0.093292214 -0.028213967 0.048877068 0.06701661
0003a0 c0 f9 4e bd 3e 98 88 bd f5 14 94 bd 2f f9 6b bb
       -0.05053115 -0.06669663 -0.0723056 -0.003600668
0003b0 39 35 50 3d 5e 82 cf bc 39 ea d5 bc 1c 78 4b 3d
       0.050832007 -0.025330719 -0.026112663 0.049675092
0003c0 3c f1 a7 3d bd be 9c 3d 92 5b 93 3d 33 c8 58 3d
       0.08200309 0.07653568 0.071952 0.0529253
0003d0 cf 78 ae bd 5d b8 1f 3e 36 35 30 be 3e 54 ca 3c
       -0.08519136 0.15597673 -0.17207798 0.024698373
0003e0 fc ae 8a bc 54 4f a5 bc 9b 03 ee bc 5d 30 bf 3d
       -0.016929142 -0.020179428 -0.029054454 0.093353964
0003f0 f3 1a fa bb aa c8 cf bc 95 10 c3 bd 84 f3 ba 3d
       -0.007632607 -0.025364239 -0.09524647 0.09128478

decoder.layers.4.bias f4 [24]
000000 6a d3 aa 3d a4 97 85 bd 65 5e e4 3d 75 ec c1 bc
       0.08341105 -0.06523064 0.11150817 -0.023672322
000010 c3 ed 15 bd 23 d9 89 bd e1 31 cc 3c 16 3e 90 bb
       -0.0366037 -0.06730869 0.024926128 -0.0044019325
000020 df 0f f6 bd 2f 13 11 3d e5 db 13 3e 54 93 5a 3d
       -0.12014746 0.035418686 0.14439352 0.05336316
000030 c4 4d f6 3c 81 36 a3 3d 1c 3c ce bd 38 9f 78 be
       0.030066378 0.0796938 -0.10070059 -0.24279487
000040 18 d9 46 bd a3 c8 16 be 2a 87 92 be 41 94 b7 3d
       -0.04854688 -0.14724974 -0.28618747 0.08963824
000050 9c e8 b9 bd 9f f6 5d be ae 52 d0 3c 3b 17 a7 bc
       -0.0907757 -0.2167611 0.02543005 -0.02039682
