m4_ws/src/morphing_lander/learned_models/2024-05-20_18-08-49/model_50.pth (torch, 33710 bytes, 22 tensors)

cond_normalizer.mean f4 [11]
00000000: 7050 bbbe 4450 20bd 8c7f 37ba 743a d53a
00000010: f165 413d 785c af3c 38cf d3ba e0a1 013f
00000020: 0609 053f fa25 023f 6969 043f
-0.36584806 -0.039139047 -0.0006999902 0.0016268031 0.04721636 0.021406397 -0.0016159778 0.50637627
0.51966894 0.508392 0.51723343

cond_normalizer.variance f4 [11]
00000000: 83b3 ce3d fe7f a33b 1647 e339 7cf9 af39
00000010: 14ea 7f3c 652c bc3c d6cc db3d 8c87 a83c
00000020: fa6b ad3c 91f4 a33c 2a6c b23c
0.10092833 0.004989623 0.00043349777 0.0003356448 0.015619773 0.022970388 0.10732429 0.020572446
0.021169651 0.02001408 0.021780092

output_normalizer.mean f4 [12]
00000000: 0457 c2bb 2fc9 41bb d397 883c f21c d238
00000010: 619d 3c3b a0a4 ba3a 48aa c33b dba0 b13b
00000020: 9186 4a40 9130 583e 5306 0a3f edcd 83ba
-0.005930783 -0.0029569378 0.016673958 0.00010018972 0.0028780329 0.0014239736 0.005971227 0.005420787
3.1644633 0.21112277 0.539159 -0.0010055878

output_normalizer.variance f4 [12]
00000000: 802e a23d 4c08 553d d32d 543d cc6c c738
00000010: c814 993b 48dc ac3b 6289 bd3d a717 d23e
00000020: 8198 6642 ec2e b441 a3e7 6240 561c 5e3e
0.079190254 0.052009866 0.051801514 9.5093244e-05 0.004671667 0.005275283 0.09254719 0.4103367
57.64893 22.522911 3.545388 0.21690497

encoder.layers.0.weight f4 [32, 23]
00000000: 2135 c7bc 153b 14bd a92b 413d 4321 1fbd
00000010: 7e2a bb3d 96f8 863e 9f8b 11be 892b ffbd
00000020: ba40 e0bc 7424 c03d 75b9 16be 464a e13c
00000030: 4bd5 f3bc 1bcc 963c a7e9 163e dff0 7f3e
00000040: 08e0 953a 236e 983c c6c8 c3bc d0f7 fcbc
00000050: b613 933c 4cd1 913d 5e51 223d 72dd dfbd
00000060: 5746 9ebc 1378 62bd 36e5 f1bd b228 013e
00000070: fd08 4bbe 5a2e 263e 1d16 893e aeaf 163e
00000080: 858e 13be b20f 23be dfb5 173e 444a 2b3d
00000090: 0c90 80bd c34e b03c 730d 323d 8605 48bd
000000a0: 92fb 08bb 31c0 7c3d 5709 a43d 1960 f9bd
000000b0: 442e 07be c57f 6b3c ae40 093e ab36 163c
000000c0: e9ab 3ebc a340 073e d764 81be c371 873d
000000d0: 5b17 0c3e d3e7 813d 68aa 803c ff7c 0cbd
000000e0: 4f71 36bd 5609 1c3e 7866 c0bb cb71 dd3c
000000f0: 9881 383d a324 163e 4b38 b6bd 549b d23d
00000100: 739a 2a3c fe5f 843d a7f4 98bc e0eb 8ebd
00000110: a31a 123d 9dcd 8abc b4c1 943d d9b1 d3bb
00000120: efa3 3abe 3824 223e 3a8b b5be 56d2 3d3e
00000130: c584 29be 4fcf 5e3d 7dd3 4a3d a43e 063e
00000140: 328a 1a3e 3a2e 00ba c329 163d 7162 f83c
00000150: 155a a5bd f124 5f3c 082b db3b 3895 06bc
00000160: 5d81 c13d 43fe d53d c383 a6bd b2d6 01be
00000170: 0cf1 e53b ff83 20bc 59c1 103e bbdf b7bd
00000180: 6ce8 8abd 7e8d 8a3d c707 ad3d 0256 473d
00000190: 1db2 8fbc 7abe 6fbe b202 49be ddad 9e3d
000001a0: eaea aabd d268 383d 9600 f5bc b638 2bbe
000001b0: ad2d c53b 1daf 123d 0310 f9bc ac1d 303e
000001c0: 5ad8 b8bd d9be bfbd 9a4f 0ebd b2b2 6abb
000001d0: ddda ea3d ed0e f73c 4cd5 e33c 87ac 7e3d
000001e0: ece8 08be 9548 5e3e d2e1 133e b2db 9b3d
000001f0: f820 ea3c 6944 023e d2be 34be d84a d8bd
00000200: 3bc6 3fbd 9bb2 843e 4068 02bc 11ca d5bd
00000210: 9e83 c93d 4d93 35bd b868 123d c6e3 ec3d
00000220: 034c 88bd db4a c2bd b6e0 4a3d d7c2 193b
00000230: 74c6 50bc 9a70 8f3e 29ce 543e 2a53 803e
00000240: 420d 5bbe ee1b 67bd 34da 8e3c 72ca 683b
00000250: d895 cd3d ea6e e23c 8a1a 15bd a1d6 c03c
00000260: e425 c2bb 7892 063e a11d f4bd e3df 40bd
00000270: bc49 1bba 15c8 7b3d 3fe1 a0bd 2b17 f2bc
00000280: 9956 103d 7228 8dbb e060 d6bc 82ac 2b3b
00000290: d58e b33d efc9 24bd 6187 183e 3ac4 923e
000002a0: 1401 5abd de8f b8bc 1885 963d 20c1 2c3e
000002b0: 7ce9 123e c11a f73c 5237 04bc 25ce a73d
000002c0: 8558 a9bd 6830 1abc 77e6 a8bb e691 f13c
000002d0: e744 343d 8ebb c53b 083e 003d 39f8 02be
000002e0: ce9e a5bc 5eac 253d 23ce 01bb 905b 0d3e
000002f0: a778 9f3d ac71 5abe 5f36 273e d5ce 96be
00000300: 23ed 5b3d a6cf 7b3d 311b 273e 3760 7abe
00000310: ac70 733a bfb8 423c 9682 65be decb 7e3e
00000320: 6398 963c bc04 7ebc e1b4 223b 7aac 82bd
00000330: d165 0d3d 94aa 363d 34a0 17bd 549a 503c
00000340: 3435 08be e1c3 b03d 7b4e 2cbc f48f 8a3d
00000350: aadf 9abd 3641 eabd 4c54 25be 61ae 183d
00000360: 726d 65bd 3d27 443d e54e 95bc 60ba b4bc
00000370: c0fa cfbc e119 26be a1b7 a83d 7bb9 a43d
00000380: fe19 0bbe 961e 9a3d 6c6e 32bd 6d47 8b3d
00000390: b6a8 2d3d f4a4 ea3d f1bc 523c 301f d7bc
000003a0: 686b 1abb 0c2a 56be 6220 c93d ff4e 883e
000003b0: c9f2 fbbd fb1e a5bd 0768 80bc e411 b23d
000003c0: dec7 9bbd c80b a0bd 747f c7bc 7055 1b3d
000003d0: 8b1e 00bd fbfa d23d 130e f0bc e013 07bd
000003e0: d8d2 c2ba 4b25 7ebd 1725 bf3d b943 0ebd
000003f0: 8cef 98bb d620 7eb9 712a 21bb 2ac6 05be
-0.024317326 -0.036189158 0.04716078 -0.03885008 0.09138964 0.2636153 -0.14213417 -0.124594755
-0.027374614 0.09381953 -0.14719184 0.027501237 -0.029764792 0.018407872 0.14737569 0.24994229
0.0011434564 0.018607205 -0.023899447 -0.030879885 0.017953735 0.07119998 0.03962838 -0.10930909
-0.01932065 -0.055290293 -0.11811297 0.1261318 -0.19827648 0.16228619 0.26774684 0.14715454
-0.14409836 -0.15923956 0.14815472 0.041818872 -0.06277475 0.021521932 0.043469857 -0.048833393
-0.00209019 0.061706726 0.08009594 -0.12176532 -0.13201243 0.014373724 0.1340358 0.009168307
-0.011637666 0.1320825 -0.25272247 0.06613495 0.13680784 0.06343045 0.015706256 -0.034298893
-0.044541653 0.15237936 -0.00587159 0.0270318 0.045045465 0.14662413 -0.08897456 0.10283533
0.0104128 0.064636216 -0.018671347 -0.06978583 0.035669934 -0.016943747 0.072635084 -0.00646041
-0.18226598 0.15834129 -0.35457784 0.18537268 -0.16554554 0.054396924 0.049518097 0.13109833
0.1509178 -0.0004889701 0.03666092 0.030320378 -0.080738224 0.013619647 0.0066884793 -0.008214287
0.09448502 0.10448887 -0.081306 -0.12679556 0.0070172604 -0.009797095 0.14136256 -0.0897822
-0.06782612 0.06765269 0.08448749 0.048666008 -0.017540986 -0.23412505 -0.19629934 0.077480055
-0.083455876 0.04502184 -0.029907506 -0.16720852 0.006017408 0.035811532 -0.030403143 0.17198819
-0.09025641 -0.09362573 -0.034743883 -0.0035812077 0.11467526 0.030158484 0.027811669 0.062176254
-0.13370103 0.21707375 0.14441612 0.07610263 0.028580174 0.12721409 -0.17650917 -0.1056115
-0.046819907 0.25917515 -0.007959425 -0.10438932 0.09839557 -0.04432993 0.0357444 0.11566882
-0.06655123 -0.09486934 0.049530707 0.002346208 -0.012742627 0.28015596 0.20781769 0.2506345
-0.21391776 -0.05642312 0.017438032 0.0035521057 0.10038346 0.027640779 -0.036402263 0.023539843
-0.005924927 0.13141811 -0.11919714 -0.047088515 -0.0005923768 0.06147011 -0.07855462 -0.029552063
0.035238836 -0.0043078 -0.02616924 0.0026195352 0.087674774 -0.04023164 0.14895393 0.28665334
-0.053223684 -0.022529539 0.07349604 0.16870546 0.1434688 0.030164124 -0.00806983 0.08193616
-0.08268837 -0.009410955 -0.0051544267 0.029488515 0.044011023 0.006034321 0.031309158 -0.12790002
-0.020217326 0.040447585 -0.0019806705 0.1380446 0.077866845 -0.21332425 0.16329335 -0.29454675
0.053692948 0.061477326 0.16318966 -0.24450766 0.0009286504 0.011884867 -0.22413096 0.24882457
0.01838321 -0.015504058 0.002482705 -0.063805535 0.034520928 0.04459627 -0.037018016 0.012732107
-0.13301545 0.08631111 -0.010516758 0.06765738 -0.07562192 -0.11438219 -0.16145438 0.037275676
-0.05601258 0.047888983 -0.018226096 -0.022061527 -0.025388122 -0.1622081 0.082381494 0.0804319
-0.13584134 0.07525365 -0.043562338 0.06800733 0.042397223 0.114572436 0.01286243 -0.026259989
-0.0023562554 -0.20914477 0.0982063 0.2662277 -0.12302167 -0.0806255 -0.015674604 0.086948186
-0.07606481 -0.07814747 -0.024352767 0.037923276 -0.031279128 0.10301777 -0.029303586 -0.03297794
-0.0014863862 -0.062047284 0.09333246 -0.034732554 -0.004667228 -0.0002423556 -0.0024591947 -0.13063875

encoder.layers.0.bias f4 [32]
00000000: 6ed7 63bd 7f9e b63c 0f6a 2dbd 629c 27bd
00000010: 7d61 73bb 4cf4 533c 65da 94bc 4961 80bd
00000020: ece3 66bc 23bf 77bb 9cb8 ca3a c99f 813c
00000030: 32f4 6c3d b970 b1bd d35d a7bd ac6f 55bc
00000040: 8c04 f4bc 7b8f 18bd d44b a43e 54e0 62bd
00000050: 16f4 473e 0eff 82bd 5a34 a63e 8634 6139
00000060: b7fa 3ebd 6897 8fbb 8886 8c3d 72c2 113e
00000070: 1d71 4abc 27aa 853d 5e88 0bbd dbd8 43bc
-0.05562537 0.022292374 -0.042337473 -0.040920623 -0.0037136965 0.012936663 -0.018170545 -0.06268556
-0.014092427 -0.0037803135 0.0015466395 0.015823262 0.05785007 -0.08664078 -0.081721924 -0.013027113
-0.029787324 -0.03724621 0.32089102 -0.055389717 0.19526705 -0.06396304 0.32461816 0.00021477239
-0.04662582 -0.0043820627 0.06861597 0.14234331 -0.01235607 0.065265946 -0.034065597 -0.011953558

encoder.layers.2.weight f4 [32, 32]
00000000: 5b3d 8b3d efe2 e33c 5a2a aa3d 41da 973d
00000010: cf3c 1a3e 25ff 2d3d 34d8 6c3d 8888 383d
00000020: 5ea9 843d 257b 5c3a 64bc 333d 7280 d83c
00000030: 04f5 28bc 41e1 9bbb e95b 183d 3dff 263d
00000040: c0e8 393d 642e 363d c6ec bbba 239a bb3c
00000050: bb20 483c ec2b 31bd 358e 4d3d c448 d53c
00000060: 0c0c 903d 0704 ce3d 8639 b03d acb4 3b3d
00000070: 2bf2 403d e92c 063a 27c3 973d f170 813d
00000080: 8764 ad3d a958 c8bb af1c e3bc f52b 923e
00000090: 1046 303c e5ff 3e3e 4be3 a73d 4166 4abd
000000a0: 835d e93d f494 933d e4b0 1c3e 1a5b e93d
000000b0: 4bd1 403e 36c2 ed3d 50bb 243c 86ce 6a3e
000000c0: d1ea 3e3e ff7a 74bd 53c1 023e 8d82 fa3d
000000d0: eb0c fd3d fb57 383e 9a1e f73d f50d 4b3e
000000e0: b3c2 223e dfd2 393e 1d51 b33d e08c b73c
000000f0: e234 2a3e bac5 7a3d eac6 f43d cea6 2dbd
00000100: 5eaf a13d 05c4 d4bc 29d4 0e3e 7197 eb3d
00000110: b91a 8c3d 91c4 a0bd 3638 343e ed32 38ba
00000120: 5d6c 21bd 328d 0f3e b741 5c3d 247f 5e3e
00000130: 4039 9c3d f4d4 063e 028d 1e3e 7ba8 233d
00000140: 4111 463e ded4 fe3d bb45 0fbc dfc0 3f3e
00000150: 1fc9 5c3d d6f4 2c3e 24c6 4d3e ccc3 643e
00000160: e3fd e63d 9eda 4e3e 551a a33d 8d67 a93c
00000170: b8c4 123e 2848 833d 160c 313e c73c 333c
00000180: 2984 163e 93de 11bd 4037 10bb 3c7d 683d
00000190: 1d86 4d3d dcde 7f3d 166c 63ba 8a33 293e
000001a0: 7649 523e 5f7a 993c fcc1 0f3e 6bc5 643e
000001b0: 90b0 0a3e eee9 323e 5090 6f3d 5832 923c
000001c0: e8b3 233e e334 c8bc 348c ea3c e889 eabc
000001d0: 48b6 823d 4ff0 943d 0eba ac3d 9ab1 0c3e
000001e0: d701 333e 4bc2 703d 3598 56bc 2628 073e
000001f0: 8625 9c3d c6d0 e83d ab8b cc3d 91b0 ce3c
00000200: 92db a4bd e697 9d3d 7be8 cebc 6ed6 103e
00000210: d807 c3bd b411 d2bd f2b8 893d 540a 153c
00000220: f4bd 123e 60db b83c 154c 173d 6984 cd3d
00000230: 5b3a 4d3e 7ffc fd3d 93e3 eabd b3ee dc3d
00000240: c43e 9f3d 4697 b1bd 419d 5bbd a21e 1e3d
00000250: c28f ba3d e181 f83d 9ac8 c0bd 4aaf 713d
00000260: eec8 ae3c 0304 c33c edb6 453d 07c3 fb3d
00000270: 53c9 813d ef8d 2a3e 3800 c1bd 8ac8 fd3d
00000280: 1317 b1bc 4983 443e d6a6 bdbb 8bc1 94bd
00000290: b1d6 8c3d dd10 e4bd 10fd be3d 7038 ca3d
000002a0: f073 17bd 8d5a cb3d bab3 933d 5709 6fbd
000002b0: 3ce5 03bd 36b0 723d ee8d 0f3d a932 a3bd
000002c0: 5f97 1f3d cdc6 64bd 49de 9d3b 0549 88bd
000002d0: ba41 9ebd 2928 a7bd 783d fc3c e07c 373d
000002e0: bb4d 5ebd 255a 683d ed47 773c 8d90 453d
000002f0: bb6b a6bd 8288 a4bd a592 03bc f573 23bd
00000300: 116c 0b3e 483b 073d 7b92 e43d 8201 a23e
00000310: 29ed 903d 5914 243e 9046 2b3d 1e56 6e3d
00000320: 30fb 573e 09e6 12bc 36f7 883d bf30 1f3e
00000330: 1e22 043e 5558 4bbb 0595 b8bb fca8 4f3d
00000340: 5ac6 af3e 5853 abbd 333f cdbc 965c 6e3e
00000350: ba90 003e 090a 7f3e 8257 61bd 55da 89bb
00000360: e78d 5b3e b4bc 583e 8805 0f3a 57e8 163e
00000370: 5808 dc3d 9a92 5b3e efe4 8bbd 4ba2 4d3d
00000380: c232 f1bc 0556 c6bc 8244 303c fd8e 783d
00000390: 87d8 1c3e 3ec1 153d 21ae 98bd d5d6 b33d
000003a0: fdc3 c1bc 21d6 11bd de41 f23c e0e0 f6bb
000003b0: 5958 0d3e 5ebf a13d d4bc 453d 12e5 1e3e
000003c0: 33ad 763d 30a4 d1bd 5db3 41bd 987c 323d
000003d0: 4b70 903d 74f4 d53d 0b08 0dbe 8a3f 90bd
000003e0: e7f2 68bd da74 233e 8474 a33d 4c28 bcbd
000003f0: 589f 2e3e ea1e 553d c0a7 81b8 61c9 b53d
0.06798812 0.027818171 0.08308859 0.074146755 0.15062259 0.042479653 0.057823375 0.04505208
0.06477617 0.0008410684 0.043880835 0.026428435 -0.0103123225 -0.004757077 0.037197027 0.040770758
0.045387983 0.044477835 -0.0014337532 0.022900647 0.012214835 -0.043254778 0.050184447 0.026035674
0.07033548 0.10059362 0.08604722 0.0458266 0.04710595 0.00051183865 0.07410269 0.0632037
0.0846644 -0.0061140847 -0.027723638 0.28549162 0.010758892 0.18652304 0.081976496 -0.049413923
0.11394789 0.07206145 0.15301853 0.11394329 0.18829839 0.116093084 0.010054424 0.22930345
0.18644263 -0.05968761 0.1276906 0.12231932 0.123559795 0.18002312 0.12066384 0.19829543
0.15894584 0.18146847 0.087557055 0.022406042 0.16621736 0.061223723 0.11952002 -0.042395405
0.07894777 -0.025972376 0.1394812 0.115034945 0.068410344 -0.07849992 0.17599568 -0.00070266315
-0.039409984 0.14018705 0.053773608 0.21728188 0.07628107 0.13167173 0.15483478 0.039955597
0.1934252 0.12442945 -0.008744652 0.18725918 0.05390274 0.16890272 0.20095116 0.22340316
0.11278894 0.20200583 0.07964007 0.02067926 0.14332855 0.06410247 0.17289767 0.010939783
0.14698853 -0.035612654 -0.0022005588 0.056760058 0.05017673 0.062468395 -0.0008675469 0.16523567
0.20535836 0.018735109 0.14038843 0.22340934 0.13543916 0.1747205 0.058487236 0.017846271
0.15986598 -0.02443928 0.028631307 -0.028630212 0.06382424 0.07272398 0.084339246 0.13739625
0.1748117 0.058779042 -0.013097812 0.13198909 0.076243445 0.113679454 0.09987577 0.025230678
-0.08049692 0.07694988 -0.02525734 0.14144298 -0.095229805 -0.10257283 0.06724729 0.009096701
0.14330274 0.022565544 0.03693779 0.10035021 0.20041792 0.124016754 -0.114691876 0.10787716
0.077756435 -0.08671431 -0.053616766 0.038603432 0.09109451 0.121341474 -0.09413262 0.05900506
0.021336045 0.023805624 0.048270155 0.12293058 0.06337228 0.16655706 -0.0942387 0.123917654
-0.021617448 0.19190706 -0.0057877107 -0.07263478 0.06876887 -0.11136029 0.093256116 0.09874046
-0.0369758 0.099293806 0.072120145 -0.058358517 -0.032201037 0.05925008 0.035047464 -0.07968647
0.038962718 -0.055853654 0.004817758 -0.06654552 -0.0772738 -0.08161957 0.03079103 0.044796824
-0.05427335 0.056726594 0.015092832 0.048233557 -0.08126017 -0.08033849 -0.008030568 -0.039905507
0.13615443 0.03301552 0.111607514 0.31641775 0.07076485 0.16023387 0.04181534 0.058187596
0.21091914 -0.0089659775 0.06687777 0.15545939 0.1290364 -0.0031027992 -0.005632999 0.050698265
0.34331018 -0.08365506 -0.02505455 0.23277506 0.12555209 0.24906172 -0.055015095 -0.0042069354
0.2144085 0.21165735 0.00054558413 0.14737068 0.10743779 0.21442643 -0.06830775 0.050203603
-0.029443149 -0.02421094 0.010758521 0.06068324 0.15316974 0.036561243 -0.074550875 0.0878121
-0.023653025 -0.0356046 0.029572424 -0.0075341314 0.13803233 0.078978285 0.048275784 0.15517071
0.06022377 -0.102363944 -0.047290195 0.043575853 0.07052668 0.10447016 -0.137726 -0.07043369
-0.056872275 0.15962544 0.07981208 -0.091873735 0.17052972 0.052031435 -6.182445e-05 0.088763006

encoder.layers.2.bias f4 [32]
00000000: 162a 5ebe 1fc5 fdbd c0c0 eabd ba8a a1bd
00000010: 9dfb 60bd 1043 cbbd b17d adbd 159c b23c
00000020: 942a 05be 6edd eabd 2d58 b53d 6ceb d23e
00000030: 815b 553d 3324 adbd f743 ad3e 706a c93e
00000040: 1cd2 6ebd 13ed 493d 95d0 c43d ecd5 dc3d
00000050: 622f a0bd e91e a13c 02d5 84bb ac99 da3c
00000060: 3d52 43bb 0cd5 0ebd d6d5 22bb 7c9e a9bc
00000070: 527e e5bd 2116 ae3c 050a 70bb 2842 72bd
-0.21695742 -0.123911135 -0.114625454 -0.07887788 -0.054927457 -0.099249005 -0.08471239 0.021802941
-0.13004524 -0.114680156 0.08854709 0.41195238 0.052089218 -0.0845417 0.33840916 0.39339018
-0.058305845 0.049298357 0.09610096 0.1078299 -0.078215376 0.01966806 -0.004053713 0.026684605
-0.0029803657 -0.034871146 -0.0024846694 -0.020705454 -0.11205734 0.021250786 -0.0036627066 -0.059145123

encoder.layers.4.weight f4 [12, 32]
00000000: 6f22 cd3d 38fd 80be bf31 87be 7909 efbc
00000010: 10aa 5cbe 9b49 943b 2ca5 aabe e22d 213c
00000020: c3f5 eabc 4ab5 0dbe a283 30bc 1ef0 c73e
00000030: 9d1d 2e3d da85 56be 8cdd a03e 0147 e33e
00000040: e9c8 fdbd ca50 b1bc 9d4c 773e 72e4 733d
00000050: 03bb d9bd 624b 0ebe 5e22 19be a686 fb3c
00000060: 2d80 50be 8451 cfbb 208b 7dbd a44a b6bd
00000070: aa28 9c3d b565 013c a401 89bd ecc7 92be
00000080: 427d 763d e1d8 4abe bb3d 27be f850 89be
00000090: 6052 c4bd 6a7b 143d 4a87 92be 5277 28be
000000a0: 3048 9dbd 86b2 08be 06e1 003e a726 8f3e
000000b0: d02d 2cbe 2a40 35be 6aa5 8c3e 8b3f dd3e
000000c0: 8462 7abe 2737 d7bd 2833 473e 2578 17be
000000d0: e21c 203d 7f0d 4abe 8182 133d d7b1 3fbe
000000e0: b416 56be 2a17 3dbe 3ba8 48be d582 53be
000000f0: 1691 5bbe be0c 7c3d 6afd 9e3d 4b57 7cbd
00000100: dfe7 c5bd 7ac0 5ebd 9be3 05bd b68e 6e3e
00000110: 2a28 d5bd d32f 07be a5bc e43d 57cc 3a3e
00000120: 6bc8 ae3d f371 8a3e 6095 513d e6cb 86be
00000130: 1378 dabd d556 7ebd 6388 b2be 3b74 d4be
00000140: 8409 243e 4438 a93d 9374 5ebe c6e2 a53c
00000150: 3e6f 1d3d a570 cc3d be2c c93c c92e bcbd
00000160: a033 9f3c 6193 05bd b15c 233e 0a8b 743d
00000170: dbfc edbd efe7 e43d 7a8e 0f3e f8d4 1b3e
00000180: d89c e8bd 5ae9 11bc 247a e83d 632a 233d
00000190: fe5f abbc c437 ac3d 5ce4 473e 4cae b7bd
000001a0: ae2a 823d 73ec 283e 3d76 c13c 5f2c 88be
000001b0: 6bfb 173d 27c9 c13d 58ca 17bd 4f72 cbbe
000001c0: 2645 ac3d fe27 3abd dca3 c2bd 74ea a33d
000001d0: e167 ef3d 0dde 4c3e 4fe2 b03c 41ee dabd
000001e0: e7b7 863d c757 023e 94f6 a13d 2b8a 05bd
000001f0: 755a c43d d2fd 3b3c 870a ab3d 0602 58bd
00000200: bd6e c5bd b78b 943d d476 843d 6808 cf3d
00000210: f160 49bd c933 063e 9566 03bd bf90 203e
00000220: 80a4 4e3e d169 54bd 0385 3abd 3ab6 a93d
00000230: 6da7 fb3d 3e83 6d3c 3789 d0bd e7c9 bbbd
00000240: 1435 043d 1c87 1e3e 6c4b bebc 7c11 7e3e
00000250: d03d 9f3d 7ba2 973d 5180 adbd b7ad e63d
00000260: 76d1 ebbc e8bc 133e 7081 873c 9901 483e
00000270: 8749 283e 92a1 2c3d 3700 08be 27f1 403d
00000280: fc57 823d caa0 a03d 5b8a 0cbd a83f b3bd
00000290: e9df 5ebd b40a e3bb 7f60 c2bd 02a1 ea3d
000002a0: 084c 9e3c ceba 99bc 0263 a7bd b65f a73d
000002b0: 4dd7 ed3b 5c87 243d e663 dd3d 2d33 af3e
000002c0: 3064 8d3d 176b 0cbd 7c5c a7bd 458f 633d
000002d0: 043e 82bd 756d a7bc 380f 5dbd 015c a2bd
000002e0: 97a8 883c e86e 263d 1e57 cabd 4921 c6bd
000002f0: 84d4 5f3a 5d98 11bd a1d7 1dbe c16b 913c
00000300: ca38 9e3b 4cc5 03be 8bdd 00be 7e00 99bd
00000310: 92d8 f2bc 27f7 5fbd 0a45 83bd bd7d 103d
00000320: fcdc 313c 319b debd a46c fabd 1e4b 16be
00000330: 9b84 1dbe 1118 85bd 3ad4 b83d 3a41 ab3c
00000340: 8f12 d1bd ec31 32be ba6e 2fbe b018 f1bc
00000350: a599 b63d 1f22 c43d 30bc f1bd 7dd8 a03c
00000360: 4971 c23c fa3b 823c 69b2 a3bd 391b 9abc
00000370: d460 a63d b288 cbbd 9578 383d 2eee 85bd
00000380: 09fe e73d 8e3e 01be 08c3 553d e1e2 49be
00000390: dd30 813d 5622 fb3d 9bc1 823d 8234 54bc
000003a0: ec9f a03d d0eb 0cbe 2919 68be f168 ac3d
000003b0: f73c 423d 7826 96bb d425 c6bc fb84 9b3d
000003c0: 758a adbb d2a2 e33d 9ed6 fb3c 9b71 d5bd
000003d0: e508 35bc 543d 0cbc 6809 2abe 8b4c 42bd
000003e0: f92b aa3c 774a 803b 0a53 80bd 49cb ecbd
000003f0: f863 d7bd a45a fa3d 2950 22be ce66 0fbc
0.10016333 -0.2519319 -0.2640514 -0.029179322 -0.21549249 0.004525376 -0.3332914 0.0098375995
-0.028681641 -0.13838688 -0.010773571 0.39050382 0.04250871 -0.20949498 0.31419027 0.4439011
-0.12391836 -0.021644969 0.2415032 0.059544034 -0.10631373 -0.13895944 -0.14954516 0.030703854
-0.20361395 -0.006326856 -0.061900258 -0.08900955 0.076249436 0.007897784 -0.06689766 -0.28668153
0.06017805 -0.19809295 -0.16332142 -0.26819587 -0.09586024 0.03625051 -0.28618842 -0.16451767
-0.07679784 -0.13349351 0.1258584 0.27959177 -0.16814351 -0.17700258 0.2746995 0.43212542
-0.24451643 -0.10508566 0.19453108 -0.14791925 0.039090045 -0.19731711 0.03601313 -0.18720184
-0.20907098 -0.18465868 -0.19595425 -0.20655377 -0.21442065 0.06153559 0.07763179 -0.061606687
-0.096633665 -0.05438278 -0.032687765 0.23296627 -0.10408051 -0.13201837 0.111687936 0.18242012
0.085343204 0.2704006 0.051167846 -0.26327437 -0.106674336 -0.06209453 -0.3486968 -0.41494927
0.16019255 0.08262685 -0.21724157 0.020249736 0.038436167 0.09982423 0.024557468 -0.09188611
0.019433796 -0.032611255 0.15953328 0.05970291 -0.11620494 0.1117705 0.14019194 0.1521796
-0.113580406 -0.008905733 0.113514215 0.039835345 -0.020919796 0.08409074 0.19520706 -0.08968791
0.06355797 0.16496448 0.02361595 -0.26596352 0.037105005 0.09462195 -0.037058204 -0.39735648
0.084116265 -0.045448296 -0.0950391 0.08003703 0.11689735 0.2000658 0.021592287 -0.106899746
0.06578045 0.12728797 0.07908359 -0.03260247 0.09587566 0.01147409 0.08351617 -0.052736305
-0.09640262 0.07253211 0.06467977 0.10109025 -0.049164716 0.13105692 -0.03208025 0.15680216
0.2017994 -0.051858727 -0.045537006 0.0828671 0.12287793 0.014496623 -0.10182422 -0.09169369
0.03227718 0.15481228 -0.023229323 0.24811357 0.07775462 0.074040376 -0.0847174 0.11263602
-0.028786402 0.14427531 0.016541213 0.1953186 0.16434298 0.042146273 -0.13281332 0.04710498
0.06364438 0.07843168 -0.034311634 -0.08752376 -0.054412756 -0.006928766 -0.094910614 0.11456491
0.019323364 -0.018765833 -0.08173181 0.08172552 0.007258332 0.04016815 0.1081007 0.34218732
0.06903875 -0.034281816 -0.08171937 0.055556554 -0.06359485 -0.020437935 -0.05396959 -0.079277046
0.016681952 0.040633112 -0.098798975 -0.096743174 0.0008538442 -0.035545696 -0.15414287 0.017751576
0.004828547 -0.12868232 -0.12584512 -0.07470797 -0.029644284 -0.054679062 -0.064096525 0.035276163
0.010855909 -0.10869444 -0.12227753 -0.14677092 -0.15382616 -0.06498731 0.09024854 0.020905126
-0.10208618 -0.17401856 -0.17132083 -0.029430717 0.08916024 0.095768206 -0.11803472 0.01963448
0.02373566 0.01589774 -0.079930134 -0.018811809 0.08123937 -0.09938182 0.04503687 -0.0653957
0.1132775 -0.12621519 0.05218795 -0.19715454 0.06308148 0.122624084 0.063845836 -0.012951972
0.07843003 -0.1376183 -0.22665848 0.084184535 0.04742142 -0.0045822226 -0.02418796 0.075937234
-0.0052960464 0.1111504 0.030741986 -0.10422059 -0.011049484 -0.008559544 -0.1660515 -0.04743628
0.02077292 0.003915127 -0.062658384 -0.11562211 -0.105171144 0.122243196 -0.15850891 -0.008752538

encoder.layers.4.bias f4 [12]
00000000: 8932 b83e fcc3 8d3e a9d0 9cbe fb97 553c
00000010: 3fbd 92bd 4a78 c73d 0e78 8cbd 56c2 09be
00000020: 790e 0a3a 6e8f b83d da77 f1bc dc76 743d
0.35976055 0.27688587 -0.30627945 0.013036723 -0.07165002 0.0973974 -0.06858836 -0.1345304
0.0005266439 0.09011732 -0.029476095 0.059683666

decoder.layers.0.weight f4 [32, 17]
00000000: 4ca5 1abe d5cc 72bd 3436 b93d de46 67bd
00000010: beaa c6bd e6e2 b9bd 15e6 f538 b216 b0bd
00000020: 6421 8e3e 0872 47be c3ee 263e 77fa 25be
00000030: 45b9 8b3e dbf7 843e 39b1 dc3d 68b8 22be
00000040: 5856 9f3d 7cf9 1c3e db9c a43e 9639 d5bd
00000050: bdf0 47be 0ef5 2e3d bb59 b63e 9f82 18bd
00000060: c2c0 233d d4bf 98bd 82a2 1a3c bb96 01be
00000070: 5079 37bd fb94 8d3e f978 6ebc 6fec 8cbe
00000080: dae1 15be 8450 423d a1dd 9c3e 4698 903e
00000090: 60b7 96be a59e 653e b25e fc3c e981 7a3e
000000a0: 8e31 57be 176d 81bd 29bc 44be 050d 4b3d
000000b0: 18ac 573e 7918 913d 6d82 bd3d 9c7b 003d
000000c0: 0653 15be ffde c5bd 7056 293e 9605 78be
000000d0: f255 8abc 98f6 92bd 9ae3 87bd 0d30 4fbc
000000e0: a3f3 39be 60b9 dcbd 3a84 8e3e ed7b f5bc
000000f0: 4446 bbbd fa6c 6bbe 6c47 08be caca 83be
00000100: e2dd f03d 54e5 723e fffd 413e 973e 8fbb
00000110: 92e2 0abe 6a35 15be 1d64 203e f2f2 2b3e
00000120: 583a 163e 815e 33be aa97 123e dc81 e4bd
00000130: 7975 b2bd 6fe9 673e 5a32 f53d ad72 b43d
00000140: f172 53bc 3d9c 1dbe accc 02bd 3503 0abe
00000150: f7e6 633e e845 833d bc8d e6bd a1d4 2abe
00000160: b435 7a3e f8c1 d33d 6272 eebd 9eaf 993e
00000170: 3488 833d 634f 3c3e 5add f13d 0820 403e
00000180: 6455 903d 3fb8 41be 7992 91be b3e6 bd3c
00000190: f4a0 88be b46c e63d 40fa 44be 36a6 15be
000001a0: 790c 42bd c2d3 1d3e fe33 2abd 6d33 28be
000001b0: dbaa 76be c55f 473d 7142 d6be 2b4f 0bbc
000001c0: ee6c 893e bc19 6a3e 8fa5 70be 194a 33be
000001d0: 82ae 423e 9599 cd3d 0dc2 bd3d 2011 893d
000001e0: e51d cebd 0af6 44be a326 6a3e e46b 893d
000001f0: e8e0 653e e357 c2bd d5e9 bbbd 9fbb 58bc
00000200: ac0f f43d 1949 253b 600d b5bc 22f8 0e3d
00000210: 0946 14be 3b84 b2bd 41a5 01be 960b b43d
00000220: 4348 70be 8e7e 80be 39c1 323e a352 263e
00000230: 2380 8a3d 743e 60bd d53d 89bd bcd4 abbe
00000240: f232 163e 7011 e6bd 8ca8 133e 6271 be3b
00000250: 9c31 1d3d 1f0c cfbd 2f1f 503e b036 883e
00000260: ba24 ce3d 73b4 0fbe fbea 883e e849 3ebe
00000270: ec3e 663e c9cd 7dbe bac8 bebd 5ab7 8f3c
00000280: 3ee4 853d 0fc0 a83d 95da 2a3c e6bc 4a3e
00000290: 48da 183e 4652 7d3d 097d 47be 9a53 3abe
000002a0: 9b7c a53c 961b f43d d7bd c93d d162 22bd
000002b0: 5ba9 583e fce6 41be 0a37 4d3e 56f3 dd3c
000002c0: b121 8f3d 3c75 9a3e ff37 803d f27b 843e
000002d0: 7dcb 6d3e f8cc bbbd 9c28 8f3e bee1 133e
000002e0: 5d3b 78be 5c75 c0bd 0b36 2e3d b871 6bbd
000002f0: 7044 34be 3fea 56bc 3a4d 69bd f938 2f3e
00000300: cbef da3d 141d 08bd 824e 1e3e 34e3 cabd
00000310: 2c66 273e 2eb5 103e bdf8 22bc 78c0 a0be
00000320: 2786 7fbc b6f9 1cbd 9a8b 933c 6d7b 63be
00000330: 242e 00be 8078 62be 6717 8b3d bdce 8f3d
00000340: 3678 723e 8804 c73d 3116 353e 1114 053e
00000350: b480 ad3e 522d 44be 64ce a43c f37b 62bd
00000360: 3c11 103e 12ed 26be 5459 0e3d 9116 66bd
00000370: 925b a93c b0fa a73d 0630 51be 1d02 983d
00000380: f0e1 113e 61a8 83be 0ad4 b7bd 231c 27be
00000390: 9ecd 203e 5744 8dbd e743 0bbc 4609 643d
000003a0: cc3a abbd fd2e 4cbc b817 07bc 63e1 5c3e
000003b0: 9339 d33c 3d86 d6bd 2003 803e a5cc 453c
000003c0: e046 34be 56d6 ac3c b000 fcbd 5ed8 44be
000003d0: d2d2 2fbe 5338 583e 473e 6fbd 8cea ebba
000003e0: 50f8 7ebe 0ff9 6c3e e780 49be dadf 0d3e
000003f0: a00d 6e3e fce6 bc3c 447e 14bd c72a 9a3e
-0.15102118 -0.059277374 0.090435416 -0.05646407 -0.09700535 -0.090764806 0.000117253665 -0.08598079
0.2775985 -0.19477093 0.16302018 -0.16208826 0.27289787 0.2597035 0.1077599 -0.15890658
0.07780141 0.15329546 0.3215092 -0.10411374 -0.19525428 0.04271417 0.35615334 -0.037233945
0.03997875 -0.07458463 0.009438159 -0.12655155 -0.044793427 0.27652726 -0.014555209 -0.27524135
-0.14636937 0.047440067 0.3063784 0.28241175 -0.2943678 0.224238 0.030806873 0.2446362
-0.21014997 -0.06319635 -0.19212402 0.049572963 0.21061742 0.07084746 0.09253392 0.031367883
-0.14582452 -0.09661674 0.1653688 -0.24220881 -0.016886685 -0.0717594 -0.066352084 -0.012645734
-0.18159346 -0.10777545 0.27835256 -0.029966319 -0.091442615 -0.2299079 -0.13308495 -0.25740653
0.11761071 0.23720294 0.18944548 -0.004371475 -0.13562992 -0.14571157 0.1566319 0.16791895
0.14670694 -0.17516519 0.14315668 -0.11157581 -0.087138124 0.22647642 0.119724944 0.08810935
-0.012905822 -0.15391631 -0.03193347 -0.13477786 0.22256075 0.06409818 -0.112575024 -0.16682674
0.24434549 0.10339731 -0.116429105 0.30016798 0.06422463 0.18389659 0.118097976 0.18762219
0.07047537 -0.1891794 -0.28432062 0.023181295 -0.26685297 0.11251202 -0.19236088 -0.14614186
-0.047375176 0.1541281 -0.04155349 -0.16425867 -0.24088614 0.048675317 -0.41847566 -0.008502762
0.2684092 0.2286138 -0.23500656 -0.17508735 0.19011882 0.10039059 0.09265528 0.066927195
-0.10064296 -0.19234481 0.22866301 0.06710032 0.22449076 -0.09489419 -0.09175459 -0.013228326
0.11917052 0.0025220572 -0.022101104 0.034904607 -0.14479841 -0.08716627 -0.12660696 0.08791272
-0.23465066 -0.25096554 0.17456521 0.16242461 0.067627214 -0.05474706 -0.06701247 -0.3356074
0.14667872 -0.11233795 0.14419764 0.005811856 0.03837739 -0.10109734 0.20324396 0.26604223
0.10065599 -0.1403368 0.26741776 -0.1858288 0.2248494 -0.24785532 -0.09315629 0.017543484
0.06537674 0.08239757 0.010428091 0.19798622 0.14927018 0.06184604 -0.19481291 -0.18195954
0.020201018 0.11919324 0.09850662 -0.03964502 0.21158354 -0.1893577 0.20040527 0.02709357
0.06988848 0.30167568 0.062606804 0.25875813 0.23222156 -0.09169954 0.2796067 0.14441583
-0.24241395 -0.093973845 0.04253201 -0.057481498 -0.17604232 -0.013117372 -0.056958415 0.17111577
0.10690268 -0.033230856 0.15459636 -0.09906617 0.16347569 0.14131615 -0.009946999 -0.31396842
-0.015595949 -0.03832408 0.018010903 -0.22215052 -0.12517601 -0.2211628 0.06791573 0.07021854
0.2367867 0.09717661 0.17684247 0.12995936 0.33887255 -0.19157913 0.020117946 -0.05529399
0.14069074 -0.16301373 0.03475316 -0.056173865 0.020673547 0.08202112 -0.20428476 0.07422278
0.14246345 -0.257144 -0.0897599 -0.16319327 0.15703437 -0.068978004 -0.008500076 0.055672906
-0.08360824 -0.012462375 -0.008245401 0.21570353 0.02578429 -0.10474823 0.25002384 0.012072717
-0.17605162 0.021098297 -0.12304819 -0.19223163 -0.17170265 0.21115236 -0.058409 -0.0017998978
-0.24899411 0.23141883 -0.19678079 0.13854924 0.23247385 0.02305936 -0.03625323 0.30110762

decoder.layers.0.bias f4 [32]
00000000: 8bc3 1c3d 5068 4f3e e0d6 583e 36f4 f1bc
00000010: b8dd 2bbe 4efe 62be 08d5 24be a3aa 0f3e
00000020: fe33 123e ec59 a33e 5ebb 943d cccb 3b3e
00000030: e7a1 05be ad61 bb3e cd82 ec3e 5e4b c13e
00000040: 35d9 4f3e 8f6e 7dbe 04b2 57be 5a1e 633e
00000050: f958 24be 51d7 8a3e 6ee9 c53e b1c1 e23c
00000060: 6ac7 503e d292 c2bd c79e 5c3d c9d4 b13e
00000070: 243e d33c f504 f63e 6a7e 6f3e d123 d4bd
0.03827242 0.20254636 0.21175718 -0.029535394 -0.16783798 -0.22167322 -0.1609689 0.14029936
0.14277646 0.31904542 0.072623 0.18339461 -0.13050042 0.36597958 0.46193543 0.37752813
0.20297702 -0.24749206 -0.21064001 0.22179547 -0.16049565 0.27117398 0.38654655 0.02768025
0.2038857 -0.0950066 0.05386236 0.34732655 0.025786467 0.48050657 0.23388067 -0.10358394

decoder.layers.2.weight f4 [32, 32]
00000000: 5639 7c3e 3d22 9ebd ca1e 20be a9bc 233e
00000010: 3b07 97bd edbf 443e ae99 03be b076 81bd
00000020: 7c66 5b3e 37ee c9bd 4a77 27bd 3439 fc3d
00000030: bd4a 2f3e 6335 513d 5843 46bd a89f b6bd
00000040: 6212 70bd 697f a7bc 4283 03be 59f7 4b3e
00000050: 272c de3d 4ca9 c8bd ccaf d2bb 5aa4 06be
00000060: 6ae1 eebd 6428 373e ca13 9a3d 9e80 15bd
00000070: 3ce5 98bd 09fc c53c 3d50 b6bd c6bf a13d
00000080: b2ba 4ebd 0a61 ec3d 7ca1 9ebc 1c33 fbbd
00000090: d870 f73d d5eb 1d3e 5f86 2dbe cab9 cd3d
000000a0: 8ef6 50bd e2cb 86bd 8ed8 37bc 4d24 be3c
000000b0: 5c00 c2bd 01b4 953d 58e4 87bd f346 4fbe
000000c0: b34a 243d 3c20 8c3d f826 0e3e b033 1b3e
000000d0: 87e1 7c3d 7f89 bc3d 25b2 18be 8b2b df3d
000000e0: a621 a5bb ee7d 023d b6c5 96bd 4ca0 393d
000000f0: 98ff 5b3e 286f 373d fd4b 9cbc 4b10 333d
00000100: ca27 233d c517 dbbd f21c c93a da22 003d
00000110: 753a 613e 4cd6 d93d 5157 373e 4e91 d63d
00000120: 74f1 153e 18bf 92bd dfd1 dfbd d2fe 92bd
00000130: d46a 123e e50d dc3d 9aac 72bd 1127 00be
00000140: 04e7 b83d 3922 e13d 085a 143e 9b38 f1bd
00000150: 7238 8d3e 8b72 cd3d d412 373e 2593 e93d
00000160: 8817 f2bd 8915 313e 3bc0 e43d 1378 dbbd
00000170: 38fe dabd 7c10 95bc b318 2dbe 93ef bb3d
00000180: bf11 8f3d 8f8f e33d 227a aabd 84cb 80bd
00000190: 98b9 293e 8d39 ccbd 5251 553d cb80 f5bd
000001a0: 39d0 853c b07e f73d b036 763d 9a4d b6bd
000001b0: bd24 08be 8788 a03d f66e 9abd 043d d63c
000001c0: dd33 df3c 08b0 08be d683 063e 06cd 0cbe
000001d0: d43e 84bd 0c4c 233d 1503 0e3d 62cf 803d
000001e0: 9781 93bd 49cc 0dbe 860a 103d 6300 f33d
000001f0: 9af7 083e 35c9 083e beb7 99bd eb34 88bd
00000200: 7843 b1bc a520 9c3d 0274 d43d d3c9 523e
00000210: 49ac 3ebe 7d54 18be 5072 2c3e d43a ae3d
00000220: 2c75 e63d bd37 1a3e 0b17 b03d bd1c 1abc
00000230: 7a55 e2bd 8649 0e3e 307f 8d3e 4cfb 533e
00000240: 5a5d 2e3e 72d2 81bc d5c7 b43d 50f3 9fbc
00000250: cfe2 4c3d 2ec1 1f3e 9b63 0b3e 2d97 bdbd
00000260: f725 843d 4096 d7bd 58d6 093e c557 933e
00000270: cfc2 e5bd 586a 383e 771c 8b3e 2c78 5cbb
00000280: a1cd 5bbd ec12 ac3e 3bed 943e 194a 9b3b
00000290: 415a 40be 265e a23d c82d 33bc 3821 243e
000002a0: 7546 d4bd d1e4 553e ece1 1e3e 0d2b 733d
000002b0: c2d5 a83d 6956 583d 8bc7 a63e 0002 b83d
000002c0: 35b6 71bd 73c1 e0bc 1e3a 28be 6825 d5bb
000002d0: 7574 01be 8119 963e bf52 263e b087 dabc
000002e0: c353 1e3e 2aef 243d 7569 033e 448e 6d3e
000002f0: 61ac 023e fa01 903e 6fc3 d63d a1a4 e6bd
00000300: 544c c63c 3213 683e 781f b93d 685b e33c
00000310: 60c1 43be dad9 ae3d 8b86 04be d372 333e
00000320: 642b 8cbd eada 1a3e df67 163e 235f 9d3c
00000330: 1907 d2bd 78d0 f83d 4e55 3b3e 87ce ef3d
00000340: 7624 1cbd 999d 5ebc 7ddd 04be e7a8 a03d
00000350: a8eb 40be e452 f33d 6bb6 603e 575e a63b
00000360: c8d9 023e 7da4 34bd 491d 2b3e a1a7 503e
00000370: 9088 083e 2bfb 113e 8b87 433e 1928 1fbe
00000380: 6c68 173e afa2 283e 2328 223e 8e7e 25be
00000390: c3e1 b73b f90f 67bd 7f40 a03d 7131 79bc
000003a0: f0cd 463e 84f3 ad3d 9ac5 333d ee1b 8cbd
000003b0: 9767 043e a69a acbd 504f b9bd 28ce 133e
000003c0: 7034 1e3d 362d d4bd 16d6 45bd 3c4a d13d
000003d0: cc2e 61bd 8a3d 673e c3c2 dabc 8478 263d
000003e0: 2da7 dc3c 80e7 d63b 0a44 6fbd cfd6 233e
000003f0: 9e49 c83d c808 f4bd 46cd e3bc 4fd1 04be
0.24631247 -0.07721374 -0.15636745 0.15989937 -0.07374426 0.19213839 -0.12851593 -0.06321466
0.21425813 -0.09859889 -0.040885247 0.12315598 0.17118354 0.051076304 -0.048404068 -0.08917171
-0.05861128 -0.020446496 -0.1284304 0.19918574 0.10848265 -0.09797916 -0.006429648 -0.13148633
-0.11664088 0.17886502 0.07523306 -0.036499612 -0.07465598 0.024168031 -0.08902023 0.07897906
-0.050471015 0.11541946 -0.019364111 -0.12265608 0.1208207 0.15421994 -0.1694579 0.10045202
-0.051016383 -0.06581856 -0.011221064 0.023210669 -0.09472725 0.07309724 -0.0663535 -0.20241909
0.0401103 0.06842086 0.13882053 0.15156436 0.061738517 0.09205913 -0.14911707 0.10896977
-0.0050394116 0.031858377 -0.07361929 0.045318887 0.2148422 0.04478374 -0.019079203 0.04371671
0.039832868 -0.10697893 0.0015343709 0.031283237 0.21994956 0.10636577 0.17904402 0.104769334
0.14642888 -0.071653545 -0.109287016 -0.07177509 0.14298564 0.10744838 -0.059246637 -0.12514903
0.09028438 0.109928556 0.14487469 -0.11778375 0.27582127 0.10031613 0.17878276 0.11405019
-0.118208945 0.17293371 0.111694776 -0.10716262 -0.1069302 -0.018196337 -0.16903953 0.091765545
0.06985807 0.11111366 -0.08324076 -0.062888175 0.16574705 -0.099719144 0.052079506 -0.11987456
0.01633464 0.120847106 0.060110748 -0.0890152 -0.13295265 0.078385405 -0.07540695 0.026152141
0.02724641 -0.133484 0.13136229 -0.13750085 -0.06457296 0.039867446 0.034670908 0.06289555
-0.07202452 -0.1384746 0.035166286 0.11865308 0.13375703 0.13358004 -0.07505749 -0.06650718
-0.021638617 0.07623414 0.10373689 0.20584802 -0.18620409 -0.1487598 0.16840482 0.08507314
0.112528175 0.15060325 0.08598145 -0.009406266 -0.110514596 0.13895234 0.276361 0.20701331
0.17027798 -0.015847418 0.088271774 -0.0195252 0.05002099 0.15601036 0.13612215 -0.0925735
0.06452554 -0.10526705 0.13460672 0.287779 -0.112187974 0.18009317 0.27170154 -0.0033640964
-0.0536629 0.33608186 0.29087242 0.0047390577 -0.18784429 0.07928114 -0.010936208 0.16028297
-0.10365001 0.20888068 0.1551587 0.05936723 0.08243896 0.052816782 0.32574114 0.089847565
-0.059011657 -0.027435994 -0.1642842 -0.0065047033 -0.12642081 0.29316333 0.16242503 -0.026676029
0.1546164 0.040267147 0.12833197 0.23198801 0.1276107 0.28126508 0.10486495 -0.11261869
0.024206318 0.22663572 0.09039205 0.027753547 -0.19116735 0.08537646 -0.12941949 0.1752427
-0.068442136 0.15122572 0.14688061 0.019210404 -0.1025526 0.12149137 0.1829426 0.11709314
-0.03812071 -0.013587379 -0.12975116 0.078447156 -0.18839896 0.118810445 0.21944587 0.005077164
0.1277839 -0.04410218 0.1671039 0.20376445 0.13333344 0.14255969 0.19094674 -0.1554264
0.14785928 0.16468309 0.15835623 -0.16161558 0.0056116297 -0.056411717 0.07824802 -0.015209542
0.19414496 0.084937125 0.04388962 -0.06841265 0.12930141 -0.08427934 -0.09048331 0.14434111
0.038624227 -0.10360186 -0.04829987 0.10219237 -0.05497627 0.22582069 -0.026704198 0.040642276
0.026935184 0.0065583587 -0.058414496 0.15999912 0.09779666 -0.119157374 -0.027807843 -0.1297047

decoder.layers.2.bias f4 [32]
00000000: 4728 06be 4b33 86bc be33 a13c 73ac 44bd
00000010: 3586 973e f679 793e 2fba 823e 8ddc 1d3e
00000020: 3ccc b7bd 91a7 563e 74c2 e8bc 5316 3bbe
00000030: 7ce9 93bd bca7 983b 5d91 383d d6eb 75bc
00000040: aa98 663c 23f4 9ebd f05b 323e 521b f0bd
00000050: 5772 13be 0fa0 25bd 1dca 4e3e 80eb 9a3e
00000060: 2f86 393e aca3 73bd 6387 a73e 0549 383d
00000070: 9b04 b6bd 7b99 c8bd 1d60 6a3e 7e55 d43d
-0.13101302 -0.01638188 0.019677993 -0.048016023 0.2959458 0.2436293 0.25532672 0.15416165
-0.089745015 0.20962359 -0.028413035 -0.18270235 -0.07222268 0.0046586674 0.045060504 -0.015009841
0.014074484 -0.07761409 0.17417884 -0.11723961 -0.14399086 -0.040435847 0.20194288 0.30257797
0.18117593 -0.05948226 0.3272048 0.04499151 -0.08887597 -0.09794899 0.22888227 0.10367869

decoder.layers.4.weight f4 [24, 32]
00000000: faa6 6d3b f86c c33d 4788 f33d c5fb 7abd
00000010: 69d0 313d 5bf5 a0bc dd48 f03d 182c 0fbe
00000020: 7fcc 9fbd f038 83bd 2c82 f0bd e585 873d
00000030: e327 e73d 31b8 da3d 3b16 573b e2de 1c3c
00000040: 6f73 90bd 56c2 9bbd f810 9abd 85ef d0bd
00000050: b43e 743b 17cb 36bd a9cc 013d e540 ebbc
00000060: 5f53 0bbb dd55 1a3d 7f0e ecbc baed 59bb
00000070: 1ce7 3bbd 8146 313b 4c62 f43c f842 8bbd
00000080: 4a11 c6bc 3446 243c 8753 fb3d 885b b53d
00000090: 912c e1bc 8efb b7bc 19b7 e83c 21b2 3f3d
000000a0: b786 efbd 4734 babd a824 12be db67 9f3d
000000b0: b48e 023e 8540 a23d e56a fa3c 0024 10be
000000c0: c031 163e 9f00 0ebe 136b fd3c 3a9e 903d
000000d0: aaa2 453d 9253 3dba 6372 e0bd 33f2 1a3d
000000e0: 9f6a 833d b8da febd e90e 713b 0a72 6abd
000000f0: 9d42 eebc 1e5b 6e3d ad6a 053e 6875 8ebb
00000100: 502f f2bc a64d 153d 4752 febd bc30 bc3d
00000110: dab1 9abd b236 29bc c903 17bc 1b97 eebc
00000120: b7f7 c0bd 8323 873b fb17 983d af1f 273e
00000130: 02d3 7fbd 535c 3b3d 0779 bbbd 0c30 103e
00000140: c28d f2bd 8621 103e 71ad 83bd 5ef1 95bd
00000150: 8ebc 27bd c082 f93a 0ed4 823d bd68 b2bd
00000160: a776 e33d 502e 93bd f9b1 e0bc a9bd 7f3d
00000170: b48b cfbb 8e77 123d a9fd e83d 0d4f d4bd
00000180: 32e4 4fbd d71b 743a a7c2 0abc 47ff bc3b
00000190: 8609 adbd 3cf4 57bd 345e 813c c224 df3c
000001a0: 3786 01be 4b3f bebc 59e1 8b3d f3fa e8bc
000001b0: 0241 e13d 2f59 6ebd 0b86 c03d 91d3 e1bd
000001c0: d174 8d3d d626 383b ef49 413d fc78 2fbd
000001d0: dede c93d 0934 9a3c 96d5 9dbd 156c cb3c
000001e0: 87f3 c13d b5a0 383d 4656 d63d bd7d 453a
000001f0: 4453 0bbe ca77 023d c426 8fbc d712 45bc
00000200: be89 a0bd 641d 083d de8e c9bc 0511 e63b
00000210: 7d72 b9bd bbbd f1bc e877 643c 2408 333d
00000220: f24e 77bd 7df8 3ebd 692b 5e3d 267b 84bd
00000230: aedf d43d d180 373d b216 873d 96d3 8abd
00000240: 6cbf 0a3e 1c94 0a3e 489f 123c c890 06be
00000250: 3c04 dcbd 02a6 37bc 33d3 8e3d 29ca e1bb
00000260: 7134 06bd 72f9 843d 2e25 c83d 989e b3bd
00000270: e26f 9a3d 4a40 953c 6591 be3d 2837 7fbd
00000280: a8e6 ed3b 393f 993b 0821 a7bd ef80 5ebd
00000290: 1667 c93c 8e6a 1cbd 1009 a8bc e5af e63c
000002a0: 0afb a4bd afa5 653d 0500 94bc 94e6 083e
000002b0: eeb3 063e 767d d43d 9fb6 3e3d 0484 08be
000002c0: 351b 203c 8a96 dbbd c32d 0a3d 59d2 46bd
000002d0: c1a2 453d 67c5 bfbd f5ab 2d3e 5a9d f7bc
000002e0: 10c0 223d 0aec dc3c 18f0 173d 12c6 d6bc
000002f0: f61d c43d b2d3 41bd f3c1 c6bd 41c8 d2bd
00000300: b914 6a3a 52da bebd 870a d1bd 7248 df3c
00000310: 5044 d3bc 6e77 3dbc 4077 ccbc 382e de3d
00000320: 1ca6 8fbd 74dc 003d 252b 13bc 3cff b13d
00000330: d896 9fbd 5326 26bd 4ed9 20bd e33e 933d
00000340: 7888 bdbd 4b9d 903d 40e0 7c3d a08a 023e
00000350: 9df6 dc3c e869 333d 4082 033e 07e2 8dbd
00000360: 371c 15bd 102e 1c3b 8af7 52bd d7df 42bd
00000370: 87b1 84bd 94b9 8abd d4c3 373d d06b 9abc
00000380: 403e 183c 9cda 893d 2a09 8bbd 4c9f 073b
00000390: 28fe b23d 73be c3bc f86d 4a3d d51b 6b3d
000003a0: 0463 2fbd 0421 34bd 2dce 77bd 4dc9 83bc
000003b0: 0a27 693d a6f4 fdbc 0b14 c6bc 831f 083d
000003c0: 8b47 8f3d 407d 843d f000 793d 3d65 4d3d
000003d0: 5e32 d2bd f724 173e 05dc 2cbe 1bc5 bf3c
000003e0: 7043 b8bb b5e7 f1bc cc38 f2bc 64aa ac3d
000003f0: be4c 96bc 5ba2 c1bc ff76 c3bd 236a b83d
0.0036262856 0.095422685 0.11891227 -0.061275262 0.043411646 -0.019648245 0.117326476 -0.13981664
-0.078026764 -0.06407344 -0.11743578 0.06617335 0.11286905 0.10679663 0.0032819647 0.009574624
-0.07053267 -0.07605426 -0.07522768 -0.10201935 0.003726882 -0.044627275 0.03168932 -0.028717468
-0.002125941 0.03767954 -0.028815506 -0.0033253268 -0.0458747 0.002705008 0.029832028 -0.06799883
-0.024178166 0.010026503 0.12271791 0.08855349 -0.027487071 -0.022458818 0.02840762 0.046800736
-0.11695617 -0.09092002 -0.14271796 0.07783481 0.1274975 0.079224624 0.03056855 -0.14076233
0.14667416 -0.13867424 0.030934846 0.07061429 0.04825083 -0.0007222231 -0.109593175 0.037828635
0.06416821 -0.12444061 0.0036782569 -0.057237662 -0.029084498 0.058192365 0.13028975 -0.004347492
-0.029563576 0.036451004 -0.12418037 0.09188983 -0.07553454 -0.010327982 -0.009217211 -0.029124787
-0.09422248 0.0041241064 0.07426449 0.1632068 -0.062457092 0.045742344 -0.091539435 0.14080828
-0.118434444 0.14075288 -0.06429566 -0.07321428 -0.040951304 0.0019036159 0.063881025 -0.087113835
0.111066155 -0.07186568 -0.027428614 0.062436733 -0.0063337926 0.035758547 0.11376507 -0.1036664
-0.050754733 0.000931201 -0.00846926 0.005767736 -0.08449082 -0.052723154 0.01579199 0.027239207
-0.12648855 -0.02322354 0.06830091 -0.028439974 0.109987274 -0.05819052 0.09400567 -0.11026681
0.069070466 0.002809932 0.04718965 -0.04283999 0.09856962 0.01882364 -0.07706754 0.024831811
0.09470277 0.045075137 0.10465674 0.000753369 -0.13605982 0.03185252 -0.01747454 -0.012028418
-0.07838772 0.033231154 -0.024604257 0.007021072 -0.0905504 -0.029509416 0.0139446035 0.043708935
-0.060378022 -0.046623696 0.054240618 -0.06468801 0.10394226 0.044800583 0.06596126 -0.06778638
0.13549584 0.13533062 0.008949108 -0.13141167 -0.10742995 -0.011209013 0.06973877 -0.0068905544
-0.032764856 0.064928904 0.097727165 -0.08770484 0.07540871 0.018219132 0.093050756 -0.06230846
0.0072601624 0.004676726 -0.08160597 -0.05432218 0.024585288 -0.038187556 -0.020512134 0.028160045
-0.080556944 0.05606621 -0.018066416 0.13369209 0.13154575 0.10375492 0.04656088 -0.1333161
0.009772112 -0.107220724 0.033735048 -0.048540447 0.048250917 -0.093638234 0.16960128 -0.030226398
0.039733946 0.026968021 0.037094206 -0.026217494 0.09576027 -0.04732103 -0.09704962 -0.10292102
0.00089294795 -0.09318985 -0.10207086 0.027256224 -0.02578941 -0.011564119 -0.024959207 0.10848659
-0.07014105 0.03146024 -0.008982454 0.0869126 -0.07792443 -0.040563893 -0.039269738 0.07189729
-0.09254545 0.07061251 0.0617373 0.12748194 0.026973063 0.043802172 0.12842655 -0.06927877
-0.03640386 0.0023831166 -0.051505603 -0.04757675 -0.06479173 -0.067736775 0.04486449 -0.018850237
0.009292185 0.067311496 -0.06788857 0.0020694314 0.08739883 -0.023894524 0.04942128 0.05739959
-0.042819038 -0.0439768 -0.06049936 -0.016087199 0.056921996 -0.031000447 -0.02417948 0.033233177
0.069960676 0.06469202 0.06079191 0.050145376 -0.10263513 0.14760195 -0.16880806 0.023409417
-0.0056232736 -0.029529432 -0.029568098 0.08430937 -0.01834714 -0.023636987 -0.09544181 0.09004619

decoder.layers.4.bias f4 [24]
00000000: 895f 973d 3ce7 93bd 0167 df3d b713 ddbc
00000010: c400 33bd 1d42 89bd 37c6 9c3c e411 e1bb
00000020: 6037 eebd af82 cc3c 0478 0e3e b8c5 413d
00000030: 8dbc 313d e9dd b73d 76d6 dcbd d47e 7cbe
00000040: cec5 86bd 41b2 19be bdb2 9abe 7520 b43d
00000050: ce51 b8bd a1c3 5fbe 53ac 923c 5124 2abd
0.07391269 -0.07221839 0.10908318 -0.02698694 -0.043701902 -0.06702063 0.019137485 -0.006868588
-0.11631656 0.024964659 0.1391297 0.0473077 0.043392707 0.08977873 -0.10783093 -0.24657756
-0.06580697 -0.15009405 -0.3021449 0.08795253 -0.08999978 -0.2185197 0.017904436 -0.04153854

prior_network.layers.0.weight f4 [32, 11]
00000000: 2c18 2e3e cee7 42bd d12d 643d b4f6 e73d
00000010: a955 283d b64e 1b3d 6e6f 0c3e d4b6 4d3e
00000020: dee8 523e 9fcc 9f3d 29ed b13d ec53 44bd
00000030: 888d 2abe 1ae6 d7bd 8370 e33d 415f c1bd
00000040: 1e7f 123e 60a2 343c cfef 60be 18c0 833c
00000050: 8656 22be 6e72 6a3c 0dba d03d b7bd 9d3d
00000060: 4d1f 0bbe 3679 863d 083a bc3a 172d cf3c
00000070: 8606 e03d 1bef be3d be8f 9f3d d561 3a3c
00000080: 7415 2d3e 51d6 87bc 43b9 e53c 4168 c33c
00000090: f512 97bc b5b4 cabc 7e8e 2dbc 1aba eebd
000000a0: 1e2f ad3d 5697 8d3c cc1f dcbd f0a6 e63c
000000b0: dcc4 363e e7f1 b13d 9520 bf3d b571 1ebe
000000c0: 82c4 293e 7255 41be 731a 3c3d 84bc 80bc
000000d0: f339 7cbd bea0 1e3e bc32 c2bd 5477 363e
000000e0: c445 0fbd d4f3 4cbd 3453 a7be 0ef5 4b3d
000000f0: 0f0f e0bd f740 073e 72fd 023d 95cb ef3d
00000100: 07cf 63be f2a0 1abd aa92 9bbd 40e8 89bd
00000110: e046 fabd 2da7 273e 94dc 2e3e 6526 35bd
00000120: e78d 85bd dd44 a1bd 5ce4 a2bc aeed f13b
00000130: 5973 ce3d 2405 773e b5d5 2b3e 9763 85bd
00000140: 6454 1e3d b237 66bd 3c7e f53c 680c 303e
00000150: b35c 75bd d97a 62be 997d 2ebe b756 22be
00000160: bf10 79bd 40f0 4fbd b121 e7bd cab7 24bd
00000170: 1b37 f03d a90d 243e 7b9b 3c3c 81f4 37bd
00000180: acdf 1fbe e8f8 a5bd 6011 4bbe 7f0c 28be
00000190: df28 b03d 6f3d 973d 23d4 20be 6989 1b3e
000001a0: 0485 d4bd c4aa 083e 30d0 a53d b195 673d
000001b0: 907b 653d b523 cebc 18a2 f5bd b7ec d73d
000001c0: 2f44 18be b7e8 87be 0e1a 023e e003 9b3c
000001d0: e180 c8bd feb0 0cbd bc0c c13b 7ac8 293e
000001e0: e190 9f3d f44f 153e 0160 353e e006 86be
000001f0: 2a04 e73d 9980 a6bd 7965 9dbd bc8d d2bc
00000200: 9d07 fe3d 72c9 a5bc 0615 4ebe bae7 a1bc
00000210: 7c25 033e 7d70 c5bd 17d8 5b3e 45b3 3d3e
00000220: 8f9b 393e b80f 24be 699b abbd c8b9 873d
00000230: 705f 53bd 49cd 30be 2df9 58be 5e24 f73b
00000240: f7dc ba3c ed09 a63e 7abd 253e 8f8d 723d
00000250: d623 88bc 911f 543d c4c2 1c3e 59e2 efbd
00000260: 4271 913d df2e da3d 6ce5 d33d b292 47bc
00000270: e789 013d 7ba4 a33c 2df6 fdbd 4ad2 92bc
00000280: 4c47 ad3d d794 ac3d 9c64 b2bd bc64 1c3e
00000290: e0eb 53be 220e 34bd b67b c0bc 0cd4 3ebe
000002a0: e952 c0be 4583 17bd 5d60 2a3e ce19 8abc
000002b0: 4613 873b 16da d2bc ef3f 27bd 9253 023d
000002c0: a59b ec3b b574 47bd ebcf 853d 5580 403d
000002d0: fa7a f2bc 15d2 03bd b38c 893d efa1 e9bd
000002e0: 01b1 693d c20e c83d f466 acbd 0dce 6c3d
000002f0: 40b3 5e3c 1557 f23d c32a 4c3e 69dc 1ebe
00000300: c6cc 05bd 5ced 793d 72cf 44bd 3328 c8bd
00000310: 775c 4d3d 2b47 fabc cfc1 f9bc 68fc d7bd
00000320: 8b09 343e 4389 103d 53d1 25be 4768 27be
00000330: 0996 523c 0d2c 96bd 8939 a83d 7860 d0ba
00000340: e6d2 bc3d 1f8a 343e a058 7abc 6a3d 883d
00000350: 4ab0 bfbb df11 833d 31f9 0a3e 9d7f 0b3d
00000360: ee58 393c a3b5 603c eca4 5cbc 23e4 1a3c
00000370: b424 093d 7352 193e 9c23 a8be 2203 88be
00000380: 00ff 3fbd cf71 2a3e b562 783d 4df3 64bd
00000390: 3998 87bd 68c0 673c 9a1a c53d 71cb 3e3e
000003a0: 3e98 953d df73 05be ceb8 243e 41b4 4bbe
000003b0: e903 c1bd 9788 f1bd 4a67 3ebe 0c07 5f3d
000003c0: 4306 113e fdeb f33c 5cc4 093d da7a f93d
000003d0: ae3c aebe e3bb 3c3e a22d 4cbd e382 2ebc
000003e0: 914d 4a3b 69b0 ccbc fca6 813d 223c 8abd
000003f0: e2a6 f4bb 6f19 fabb 15a5 f8bd 5edd a23e
0.17001408 -0.047584347 0.055707756 0.11326352 0.041097317 0.03791686 0.13714382 0.20089275
0.20596644 0.078027 0.08687813 -0.047931597 -0.16655552 -0.10541935 0.11105444 -0.09441996
0.14306304 0.011025041 -0.2196648 0.016082808 -0.15853319 0.014309509 0.10191736 0.07702201
-0.13586159 0.06566088 0.0014360556 0.025290055 0.10938744 0.093229495 0.077910885 0.011375864
0.16902715 -0.016581686 0.028042441 0.023853423 -0.018441657 -0.024744371 -0.010593055 -0.1165659
0.084562525 0.017284077 -0.10748252 0.028155774 0.17848533 0.08688717 0.093323864 -0.15473063
0.16578868 -0.18880251 0.04592366 -0.015714891 -0.061578702 0.15491006 -0.09482333 0.17818958
-0.034978643 -0.05003722 -0.32680666 0.04979425 -0.10940372 0.13208376 0.031979986 0.11708752
-0.22246943 -0.037751146 -0.07596333 -0.06733751 -0.122205496 0.16372366 0.17076331 -0.04422607
-0.06521206 -0.07874463 -0.01988428 0.00738307 0.100805946 0.24123055 0.16780742 -0.06513136
0.0386547 -0.05620546 0.02996742 0.17192233 -0.059902858 -0.22117175 -0.17040099 -0.15853392
-0.060806986 -0.05076623 -0.11285723 -0.040214337 0.117292605 0.16020836 0.011511679 -0.04491091
-0.15612668 -0.08104116 -0.19830847 -0.16411017 0.086015455 0.073847644 -0.15705924 0.15189137
-0.10376933 0.13346392 0.08096349 0.05653924 0.05602604 -0.02516351 -0.119938076 0.10543197
-0.1486976 -0.26544735 0.12705252 0.018922746 -0.09790207 -0.03434848 0.0058914106 0.16580382
0.07791305 0.14581281 0.17712404 -0.2617712 0.11280091 -0.08129997 -0.0768537 -0.02570235
0.12403796 -0.020237658 -0.20125207 -0.019763816 0.12807268 -0.09640596 0.2146915 0.18525417
0.18125747 -0.16021621 -0.083792515 0.06627232 -0.05160469 -0.1726581 -0.21188803 0.007542177
0.022810442 0.32429448 0.16185561 0.059217032 -0.01661865 0.051787917 0.15308672 -0.11713094
0.0710168 0.10653471 0.10346493 -0.012180971 0.031625655 0.019975891 -0.1240047 -0.01792254
0.084608644 0.084268264 -0.08710596 0.15272802 -0.20695448 -0.04395879 -0.02349649 -0.18635577
-0.37563255 -0.036990423 0.16638322 -0.016858008 0.0041221706 -0.025738757 -0.040832456 0.03181798
0.0072207027 -0.048695285 0.06533798 0.046997387 -0.029599655 -0.03218277 0.06716289 -0.114078395
0.05705357 0.0976844 -0.08418074 0.057813693 0.013592541 0.11833016 0.19938187 -0.15513767
-0.03266599 0.06101738 -0.048049398 -0.097732924 0.05013701 -0.030551514 -0.030487923 -0.105461895
0.17581765 0.035287153 -0.16193132 -0.16348372 0.012853154 -0.07332621 0.08214099 -0.001589789
0.09219913 0.17630814 -0.015279919 0.06652339 -0.0058498727 0.06399893 0.13571621 0.03405725
0.011312706 0.013715181 -0.013467055 0.009453806 0.03348227 0.14972858 -0.32839668 -0.2656489
-0.046874046 0.16644977 0.06064101 -0.055896092 -0.06620831 0.014144994 0.096242145 0.18632294
0.073044285 -0.13032483 0.16086122 -0.1989298 -0.09424574 -0.117936306 -0.18594089 0.05445008
0.14162545 0.029775614 0.03363453 0.12181635 -0.3403067 0.18431048 -0.049848206 -0.010651323
0.0030868987 -0.024986463 0.06330678 -0.06749751 -0.007466183 -0.0076324265 -0.12140862 0.31809515

prior_network.layers.0.bias f4 [32]
00000000: 772d 103e 0a41 5f3c aab4 88bd d18e bcbc
00000010: 4678 783c 01a0 8a3c 5c98 0bbc 145c 8abd
00000020: 9535 333e a645 5cbd f460 aebb 4a7f 213e
00000030: e05a b9ba a8f1 11be cb33 d63d 25a3 0ebd
00000040: 329d b83e baf7 c9bd bd58 84bd 3534 2d3e
00000050: 0b1f e4bd ed4a 2b3c 4951 4fbd e319 38bd
00000060: 7368 ccbd fee1 5cbc e209 c6bd d3e1 bdbd
00000070: a5d3 403c 88b7 603e 93a4 403e 5549 4bbd
0.14079843 0.013626346 -0.06675084 -0.023017319 0.015165394 0.016921999 -0.008520212 -0.06755844
0.17500909 -0.05377736 -0.0053216163 0.15771213 -0.0014141463 -0.14252341 0.104590975 -0.034823555
0.3605743 -0.09861703 -0.06462238 0.16914447 -0.111387335 0.010454875 -0.05061463 -0.044946562
-0.099808596 -0.013481615 -0.09669854 -0.09271588 0.01176921 0.21945012 0.1881278 -0.04963048
