m4_ws/src/morphing_lander/learned_models/2024-05-20_18-08-49/model_30.pth (torch, 33710 bytes, 22 tensors)

cond_normalizer.mean f4 [11]
000000 70 50 bb be 44 50 20 bd 8c 7f 37 ba 74 3a d5 3a
       -0.36584806 -0.039139047 -0.0006999902 0.0016268031
000010 f1 65 41 3d 78 5c af 3c 38 cf d3 ba e0 a1 01 3f
       0.04721636 0.021406397 -0.0016159778 0.50637627
000020 06 09 05 3f fa 25 02 3f 69 69 04 3f
       0.51966894 0.508392 0.51723343

cond_normalizer.variance f4 [11]
000000 83 b3 ce 3d fe 7f a3 3b 16 47 e3 39 7c f9 af 39
       0.10092833 0.004989623 0.00043349777 0.0003356448
000010 14 ea 7f 3c 65 2c bc 3c d6 cc db 3d 8c 87 a8 3c
       0.015619773 0.022970388 0.10732429 0.020572446
000020 fa 6b ad 3c 91 f4 a3 3c 2a 6c b2 3c
       0.021169651 0.02001408 0.021780092

output_normalizer.mean f4 [12]
000000 04 57 c2 bb 2f c9 41 bb d3 97 88 3c f2 1c d2 38
       -0.005930783 -0.0029569378 0.016673958 0.00010018972
000010 61 9d 3c 3b a0 a4 ba 3a 48 aa c3 3b db a0 b1 3b
       0.0028780329 0.0014239736 0.005971227 0.005420787
000020 91 86 4a 40 91 30 58 3e 53 06 0a 3f ed cd 83 ba
       3.1644633 0.21112277 0.539159 -0.0010055878

output_normalizer.variance f4 [12]
000000 80 2e a2 3d 4c 08 55 3d d3 2d 54 3d cc 6c c7 38
       0.079190254 0.052009866 0.051801514 9.5093244e-05
000010 c8 14 99 3b 48 dc ac 3b 62 89 bd 3d a7 17 d2 3e
       0.004671667 0.005275283 0.09254719 0.4103367
000020 81 98 66 42 ec 2e b4 41 a3 e7 62 40 56 1c 5e 3e
       57.64893 22.522911 3.545388 0.21690497

encoder.layers.0.weight f4 [32, 23]
000000 29 67 cb bc ad df d1 bd 8e c4 84 3d 95 36 e9 bc
       -0.024829464 -0.10247741 0.06482802 -0.02846841
000010 bb 51 d4 3d 4b d1 87 3e 9b 15 be bd 64 52 d6 bd
       0.10367151 0.26526865 -0.09281465 -0.104649335
000020 ee e3 82 bc dc 54 f7 3d 28 7a 10 be 4d 78 3b 3d
       -0.015977826 0.120767325 -0.14109099 0.045769025
000030 03 b7 d7 3b 5b 0e e8 bb 5e 0d 85 3d 12 6d 12 3e
       0.006583096 -0.0070817894 0.0649669 0.1429942
000040 19 b8 41 3d 23 8e 8f 3b 7c e5 b8 bc 14 23 d3 bc
       0.04729471 0.0043809577 -0.022570364 -0.025773562
000050 1c 6e 8c 3c c2 60 93 3d 3e 0a 42 3d 3b 8d aa bd
       0.017142348 0.071961895 0.04737305 -0.08327719
000060 60 66 c9 3b e6 33 97 bd ed a8 f4 bd e8 e3 05 3e
       0.0061462373 -0.07382946 -0.119462825 0.1307522
000070 5d 9a 4b be 2f 22 29 3e ff 9a 89 3e 40 a1 22 3e
       -0.19883104 0.16516946 0.26876065 0.15881824
000080 bd 26 14 be fe ac 2e be d4 92 20 3e 70 a5 92 3d
       -0.14467902 -0.17058179 0.1568101 0.07160461
000090 83 cb 13 bd a4 e0 27 3d 11 53 2e 3d 7e 93 ac bd
       -0.036082756 0.04098572 0.042559687 -0.084265694
0000a0 ad 6f b6 bc 33 90 dc 3d ea ea 97 3d 23 28 08 be
       -0.022270048 0.10769691 0.07417853 -0.13296561
0000b0 5c 3e 12 be b4 8d fd 3b 75 a0 7b 3d 98 30 10 3d
       -0.142816 0.0077378396 0.06143232 0.035202593
0000c0 33 3d b1 bc ca 63 00 3e 17 b0 41 be 7f 81 7d 3d
       -0.021635627 0.12538067 -0.18914829 0.061891075
0000d0 0d 10 ed 3d aa 27 05 3d bc 53 82 bc 08 7d ee bb
       0.11575327 0.03250853 -0.015909068 -0.0072780885
0000e0 03 fb 5e bd ed ba 07 3e 56 ca 85 bb b8 2a 29 bc
       -0.054438602 0.132549 -0.004082958 -0.010325126
0000f0 c3 d0 15 bb 37 99 b5 3d ed 57 b4 bd 75 49 6a 3d
       -0.0022860027 0.08867114 -0.08805833 0.05719896
000100 0f 93 37 3c ad 86 92 3d 10 8f 8f bc ac 1f 8c bd
       0.011204495 0.071545936 -0.017524272 -0.068419784
000110 63 6c 2b 3d 2f 77 6e bc fe e3 c7 3d 0c 13 c7 bc
       0.041851413 -0.014554783 0.09760283 -0.024301074
000120 bf fd 32 be d6 69 28 3e 91 74 9a be ea 15 c7 3d
       -0.17479609 0.16446623 -0.30167058 0.09720977
000130 ad 6e 6f bd 46 a7 fd 3c 23 aa 4b 3d 1b cd eb 3d
       -0.058455158 0.030963551 0.049722802 0.1151373
000140 44 1a b7 3d ce 61 e5 3a 63 01 70 bb f4 38 36 3d
       0.08940557 0.0017500462 -0.003662192 0.04448791
000150 10 d6 a9 bd 5b 33 56 3c 5a e0 dd bc 2f 4b 43 3b
       -0.08292782 0.013073768 -0.027084518 0.0029799452
000160 a3 8b cb 3d 01 7b d0 3d ea e5 ad bd fd e6 00 be
       0.09938743 0.10179711 -0.08491118 -0.12588115
000170 96 df 1c bd bf 78 eb bc fa 11 0b 3e 93 82 ae bd
       -0.038299166 -0.0287441 0.13581076 -0.08520999
000180 b3 76 ab bd e6 b0 82 3d 9c 46 a0 3d dd 57 4e 3d
       -0.083722495 0.06381397 0.07825968 0.05037676
000190 74 4c 47 bd 65 3d 6b be 8c e9 51 be 97 47 ae 3d
       -0.048656896 -0.22972639 -0.20499247 0.085097484
0001a0 b0 5e 8c bd 5a dc ce 3c e8 33 ad bd 65 42 82 bd
       -0.06853998 0.025251556 -0.08457166 -0.0636032
0001b0 42 30 0e bd 8e 6b 35 3b af c8 8b bd fa f3 16 3e
       -0.03471399 0.0027682516 -0.06825387 0.14741507
0001c0 06 7d ee bd 14 ad f5 bd 27 16 7b bd eb b2 ce 3b
       -0.1164494 -0.11995903 -0.061300423 0.00630795
0001d0 04 b7 2b 3e ac 9d da 3c f9 d6 4c 3d a7 08 2c 3c
       0.16769034 0.026686512 0.0500097 0.01050011
0001e0 71 86 11 be d6 57 61 3e ed c7 10 3e 47 8b 79 3d
       -0.14211442 0.22006163 0.14138766 0.06092384
0001f0 39 14 ab 3c d3 a8 f5 3d 2e 35 1f be ee fb cd bd
       0.020883666 0.11995091 -0.1554763 -0.100578174
000200 f1 89 f9 bd b7 99 3a 3e ec b1 0a bc 33 33 d9 bd
       -0.12184513 0.182227 -0.008465271 -0.106054686
000210 cf 55 9f 3c e9 5a 95 bd cc 40 96 3c e3 a1 b3 3d
       0.019450096 -0.0729273 0.018341444 0.08771112
000220 bd b1 c8 bd f6 e7 e7 bd cb 51 88 3d 82 a3 1d bd
       -0.09799526 -0.1132354 0.06656226 -0.03848601
000230 b8 54 f7 bb a6 37 82 3e fb b9 4f 3e 86 1c 73 3e
       -0.007547941 0.2543308 0.2028579 0.2374135
000240 14 1b 00 be b3 b2 1f bd a6 5e 70 bc 44 0f f4 3c
       -0.1251033 -0.03898878 -0.014671003 0.029792435
000250 8e 6a bd 3c dd 02 c2 3c 97 18 f9 bb c2 a5 d9 bc
       0.023122098 0.023683006 -0.0076018083 -0.026568297
000260 b5 dc ed ba 98 a5 43 3d 99 2c 62 bd e0 1a 28 bd
       -0.0018147441 0.047765344 -0.055218313 -0.041041255
000270 e2 38 a1 bc 0a 3b ab 3d 2d af 8b bd 83 9b a0 bc
       -0.019680444 0.0836087 -0.068205215 -0.019605404
000280 e8 e1 70 3d 1b ce ea bb 85 a4 0c bd a4 7a 9b 3c
       0.05880919 -0.007165683 -0.034336586 0.018979378
000290 60 01 98 3d 1f 99 ee bc 12 53 0b 3e c7 a6 65 3e
       0.07422137 -0.029125748 0.13605908 0.22426902
0002a0 b9 e9 73 bd 21 40 30 bd 70 65 c3 3d c4 08 0a 3e
       -0.059549067 -0.043029908 0.09540832 0.13479906
0002b0 42 66 16 3e d3 b7 27 3d a4 ad 96 bd 14 76 cb 3d
       0.14687446 0.040946793 -0.07357338 0.09934631
0002c0 e2 16 65 bd 90 46 01 bb 74 c6 97 bc cf 47 21 3d
       -0.055930026 -0.0019725896 -0.018527247 0.039375123
0002d0 45 c5 7b 3d 74 1a 6c 3c 47 e5 20 3d f0 01 ea bd
       0.061467428 0.014410604 0.039281156 -0.11426151
0002e0 6b 89 d5 bc e9 a6 95 3d a4 5f 2c ba 00 04 2c 3e
       -0.026066503 0.07307226 -0.0006575531 0.16798401
0002f0 7b 99 b3 3d 43 ae 63 be 25 e5 f2 3d 5f 83 31 be
       0.087695085 -0.22234444 0.11860112 -0.1733527
000300 6f 94 04 3d 06 ee 9e 3d f4 76 16 3e 80 21 66 be
       0.03236812 0.07760243 0.14693815 -0.22473717
000310 b1 b6 4b 3c e5 79 17 bd ba a9 33 be 91 f9 34 3e
       0.012433694 -0.036981482 -0.17545214 0.17673327
000320 46 c8 ad 3c 86 37 ef bc ae b7 3d ba 1b 65 5e bd
       0.021213662 -0.02920128 -0.0007237148 -0.05429564
000330 a8 8d 05 3d 11 c4 2f 3d 21 43 f2 bc 2c 0b d8 3c
       0.032605797 0.042911593 -0.029573025 0.026372515
000340 4b 05 ee bd ee e8 ca 3d 3e 31 aa bd dd d4 cd 3d
       -0.11622103 0.09907709 -0.083101735 0.10050366
000350 34 24 9c bd f5 c0 87 bd d1 31 e6 bd 40 8f 29 3d
       -0.07624093 -0.066286005 -0.112399705 0.04139638
000360 f5 e6 35 3c 9b 95 13 3d ce 59 95 bd 07 7c ad bc
       0.011102428 0.036031347 -0.072925195 -0.021177305
000370 93 4b df bd 08 2b fb bd 4e e9 98 3d 24 20 ab 3d
       -0.109030865 -0.12264067 0.07466374 0.0835574
000380 2d 5c d5 bd 35 49 bf 3d 1b b8 a7 bd 3f 1c 39 3d
       -0.10417972 0.09340135 -0.08189412 0.045192953
000390 0c 41 50 3c ce ff bc 3d a0 ea 8a 3c 50 5c d1 bd
       0.012710821 0.09228478 0.016957581 -0.10222685
0003a0 1f 7f b2 bc ac 57 27 be c3 6a f6 3d 66 ab 7d 3e
       -0.021789132 -0.16342038 0.12032082 0.24772415
0003b0 6b 9c 89 bd 8f 6b 54 bd df 0f 9e bc d4 8c cf 3d
       -0.067192875 -0.05186039 -0.019294677 0.10134283
0003c0 87 ae be bd 97 c6 46 bd fd 59 20 bb 51 32 da bc
       -0.09310632 -0.048529234 -0.00244677 -0.02663532
0003d0 15 58 4e bd 2d b1 cd 3c 2d 2c 8f bc 72 95 42 bd
       -0.05037697 0.025108898 -0.01747712 -0.047505803
0003e0 3c dc a1 bc a6 50 47 bd fd 40 cd 3d ee a3 01 bd
       -0.019758336 -0.048660897 0.10022161 -0.031650476
0003f0 0e d9 44 3c 93 62 ec bc 5e fb a6 3d f2 fa 15 be
       0.0120146405 -0.028855598 0.08153413 -0.1464651

encoder.layers.0.bias f4 [32]
000000 12 65 b1 bd 13 aa 6c 3d c7 07 9f bd 23 2d 81 bd
       -0.08661856 0.057779383 -0.07765155 -0.06307437
000010 f6 51 31 bc da 74 8f 3b cc a1 91 bd da cc e3 bd
       -0.010822764 0.0043779435 -0.071109384 -0.11123057
000020 d5 7f 8b bd a3 8d ae bc 9f 2a a9 bc cb 95 3a bc
       -0.068114914 -0.021307772 -0.020650206 -0.0113882525
000030 9c 82 0b 3d 64 a9 0a be a9 68 13 be 9b 9c 5a bc
       0.034060106 -0.1354118 -0.14395393 -0.013343002
000040 04 24 97 bd 0e 76 a8 bd 14 13 1d 3e 84 e4 b4 bd
       -0.07379916 -0.08225642 0.15339309 -0.088326484
000050 70 40 72 3d e4 1e d6 bd 62 0e 2e 3e 0a eb 94 bc
       0.059143484 -0.10455111 0.16997674 -0.018178482
000060 25 14 c7 bd b9 fd 18 bd 90 b6 97 3d 5a 5b 1e 3d
       -0.09720639 -0.037351344 0.07407868 0.03866134
000070 57 d2 7a bd de 90 3a bd 8e 57 c5 bd c8 04 98 bd
       -0.061235752 -0.045548312 -0.0963584 -0.07422787

encoder.layers.2.weight f4 [32, 32]
000000 20 82 44 3d 52 25 d1 bc e8 06 89 3d 2a 9e 59 3c
       0.04797566 -0.025530491 0.066907704 0.013282338
000010 c2 18 f4 3d 42 d7 67 bd 93 bf 6c 3c 57 24 8d 3c
       0.11918785 -0.05660177 0.014449972 0.017229242
000020 30 bc a8 3b 30 66 32 3d 69 af ac 3c 32 c3 47 3c
       0.005149387 0.043554485 0.021079736 0.012192534
000030 f4 c9 29 bd 97 fa a5 bd 62 ac cc ba da 14 1b bd
       -0.041452363 -0.08104437 -0.0015615339 -0.037861682
000040 bc ef 88 bc 0a b4 43 bc cd 43 67 3d 7e 5a 2f bd
       -0.016715877 -0.01194478 0.056461144 -0.04281091
000050 bc 20 2e 3d a0 03 7f bd b8 2e 53 3d b3 35 da bb
       0.042511687 -0.062259316 0.051558226 -0.0066592335
000060 be ef 6b bd b0 a0 95 3d 79 c0 6b 3c 36 4a c3 3c
       -0.057601683 0.07306039 0.014389151 0.023839097
000070 c2 b7 b3 bc 98 f7 95 bb 66 fd 06 3b 31 8e a7 3c
       -0.021938208 -0.0045766346 0.0020597815 0.020453544
000080 8b 77 a7 3d 70 31 1e bd eb 92 84 bd 10 01 6b 3e
       0.08177098 -0.038621366 -0.06473335 0.22949624
000090 77 93 13 bd 7a ac 20 3e 79 3f 7e 3d 41 f2 8b bd
       -0.036029305 0.15690795 0.06207225 -0.06833316
0000a0 5a 53 a6 3d bc 8b 43 3d e1 61 1b 3e ca 5a 29 3d
       0.08121367 0.047740683 0.15174057 0.04134635
0000b0 e0 ae 30 3e 4f 5d bb 3d 92 12 5b bb 18 6d 3b 3e
       0.1725421 0.091486566 -0.0033427817 0.18303335
0000c0 f6 69 c1 3d c7 d2 aa bd 60 d1 ea 3d ff b6 bb 3d
       0.094440386 -0.08340984 0.11465716 0.09165763
0000d0 87 78 ea 3d 98 74 19 3e 64 4f e9 3d a2 23 3c 3e
       0.1144877 0.14985883 0.11392096 0.18372968
0000e0 c0 2a 0a 3e f9 f7 0a 3e 39 99 9b 3d ea ce ca 3c
       0.1349287 0.13571157 0.07597584 0.024756867
0000f0 68 28 18 3e de 7e 73 3c 2b ca 81 3d 69 3d 80 bd
       0.14859164 0.01486179 0.063373886 -0.06261713
000100 1b e9 9b 3d c4 88 c8 bc 50 04 f5 3d 9c 46 4f 3d
       0.07612821 -0.024479277 0.11963713 0.050604448
000110 fc 90 93 3d 0b b1 cc bd 82 4e 29 3e 00 ad 7d bc
       0.07205388 -0.09994706 0.16533855 -0.015483141
000120 9a 0f a8 bd cc 2d eb 3d db 87 67 3d 01 bd 32 3e
       -0.08206101 0.114833444 0.056526046 0.17454912
000130 43 39 83 3d 74 ce de 3d 29 ec 1c 3e 61 a3 17 39
       0.06407406 0.108792216 0.15324463 0.00014461346
000140 3c 7d d3 3d 93 87 d8 3d 9e d6 c5 bc 93 67 1f 3e
       0.10326621 0.10572734 -0.024150189 0.15566854
000150 f9 b0 45 3d ee 52 10 3e 1c 19 4f 3e 86 2d 5b 3e
       0.048264477 0.14094135 0.20224422 0.21404085
000160 7e 5b ce 3d 16 e8 22 3e 77 21 a7 3d a7 9f 0a 3d
       0.100760445 0.15908846 0.0816068 0.033843663
000170 df 9c 06 3e 82 b7 52 3c d1 70 07 3e d5 43 77 ba
       0.13145779 0.0128611345 0.1322663 -0.000943241
000180 b9 f6 1a 3e de 91 7f bd 71 f1 e7 bc ca 02 10 ba
       0.1513318 -0.06239497 -0.02831337 -0.00054935797
000190 9b d5 7c 3c 3e 2c 28 3d d0 34 81 bc d8 28 1b 3e
       0.015431787 0.041057818 -0.015772253 0.151523
0001a0 37 8c 36 3e ff 01 32 ba a1 8e 0d 3e 98 75 2a 3e
       0.17826925 -0.00067904586 0.1382394 0.16646421
0001b0 12 bd e3 3d ec a4 1a 3e 48 98 74 3d b5 53 56 bd
       0.11120047 0.15101975 0.05971554 -0.052325923
0001c0 1e 4a 92 3d 4e ce 51 bd 43 7a 81 3c cf b2 61 bd
       0.07143043 -0.051222138 0.01580537 -0.055102166
0001d0 29 7b 8d 3d dc 02 31 3d 76 00 9d 3d 1e a8 05 3e
       0.069082566 0.043215618 0.076661035 0.13052413
0001e0 1e e0 32 3e 01 6c 8f 3c 4f 40 c1 bc 48 e0 1a 3e
       0.17468306 0.017507555 -0.023590235 0.15124619
0001f0 18 50 5d 3d 6b 78 9a 3d 44 11 87 3d da 8f 62 3c
       0.05403146 0.07542499 0.0659509 0.013828242
000200 bb 63 b7 bd 1d 39 ac 3d ea 53 ad bc 8e dd bc 3d
       -0.08954569 0.08409331 -0.021158177 0.09221946
000210 3a d3 c1 bd 24 57 e4 bd 9a 85 73 3d fa 11 8a 3c
       -0.094641164 -0.11149433 0.059453584 0.016854275
000220 5c 4c 9b 3d 49 db 50 bd 78 4d 0e 3d b5 b5 36 3d
       0.07582924 -0.050990377 0.03474185 0.044606883
000230 14 91 28 3e 30 41 f9 3d 45 48 f9 bd 72 87 d8 3d
       0.16461593 0.12170637 -0.121719874 0.10572709
000240 63 8b c6 3b de c7 c3 bd ab 3f 75 bd 2e 83 d4 bc
       0.0060590967 -0.09559606 -0.05987517 -0.025941458
000250 e8 5e a3 3d 64 96 d4 3d b9 59 d5 bd c3 5c 6e 3d
       0.07977086 0.10380247 -0.10417504 0.058193933
000260 fc 54 52 bd fc 38 bd bb 93 1c 57 3d 76 bb ed 3d
       -0.05135058 -0.0057746153 0.052517485 0.11608021
000270 be 2c 22 3d 8d 01 1e 3e 39 f6 eb bd 3c 42 06 3e
       0.03959345 0.15430279 -0.115215726 0.13111204
000280 46 5d 2e bc 41 70 46 3e 30 2a e0 3c e0 2c 7b bd
       -0.010642355 0.19378759 0.027363867 -0.061322093
000290 02 fb 8f 3d b0 3f e4 bd 9e e1 fb 3d e9 80 08 3e
       0.07030298 -0.1114496 0.122988924 0.13330425
0002a0 e9 0e 3e bd 60 15 e1 3d 7c 09 b9 3d d2 4d b1 bd
       -0.04640094 0.10990405 0.09035012 -0.08657421
0002b0 97 e9 16 bd 6e f3 75 3d 2e cb 54 3d 23 7d a3 bd
       -0.036843862 0.060046606 0.05195158 -0.07982852
0002c0 cd 5e af 3d 28 c8 63 bd 80 2b ba 3b 91 20 e3 bd
       0.08563004 -0.055610806 0.005681455 -0.11090196
0002d0 1b 68 9e bd 5c 1a ad bd 6c 71 4a 3d 70 14 8f 3d
       -0.077347 -0.08452293 0.049424574 0.0698632
0002e0 11 c9 09 bd 68 ab 98 3d 1e 0d 83 3c 7b 64 78 3d
       -0.033639017 0.07454568 0.015997466 0.0606427
0002f0 46 fe ab bd c5 8b 1f bd c8 a5 ee bb 76 8c b2 bc
       -0.08398108 -0.038951654 -0.0072829463 -0.021795493
000300 a1 ec 0b 3e 98 1e 0d 3d 8d d1 ae 3d 84 30 86 3e
       0.13664486 0.034453005 0.085360624 0.2620889
000310 02 e7 90 3d b5 ec 23 3e b6 ae e2 3c e2 26 31 3d
       0.07075311 0.16008265 0.0276712 0.043249972
000320 be 81 33 3e e4 35 11 bd 5a 3a 8c 3d 07 a9 cc 3d
       0.17529961 -0.035451785 0.06847067 0.09993177
000330 5d 55 ca 3d 39 88 32 bc 20 5c 38 bc a6 ff 2a 3d
       0.09879563 -0.010896736 -0.011252433 0.04174771
000340 2e cc 83 3e ce ff c4 bd 0f 57 f7 bc 16 c9 50 3e
       0.25741714 -0.09619103 -0.03019288 0.20389208
000350 b9 37 f2 3d ef 27 5f 3e c7 d1 8e bd 64 3d 92 bc
       0.118270345 0.21792577 -0.069736056 -0.017851539
000360 ec 85 4b 3e f4 07 2b 3e b8 70 dd bb 71 72 25 3e
       0.19875306 0.16702253 -0.006757822 0.16156937
000370 db ef b3 3d 64 c5 3a 3e 05 f0 a0 bd dc 46 1e 3d
       0.08785983 0.18239361 -0.0785828 0.038641796
000380 a8 f9 24 bd 2f 20 08 bd c0 1f c9 3c a2 cf 20 bc
       -0.040277153 -0.033233818 0.024551272 -0.0098151285
000390 d9 c3 25 3e 74 92 31 3d 73 57 bc bd bf dc 3e 3d
       0.16187991 0.04335256 -0.09196367 0.04659724
0003a0 46 47 03 bd 79 58 0c bd a6 69 aa 3c a8 08 72 bd
       -0.032050394 -0.03426406 0.02080233 -0.059090286
0003b0 dd 8a 13 3e ab f3 e3 3d 30 5d 85 bc 8b e6 20 3e
       0.14408441 0.1113046 -0.016279787 0.15712945
0003c0 5d 2b 88 3d 05 29 ae bd e3 7e ad bd 59 28 43 3d
       0.06648896 -0.085039176 -0.08471467 0.0476459
0003d0 33 5d 8b 3d c3 d3 bb 3d af 1c 20 be 3f f4 c6 bd
       0.06804886 0.0917125 -0.15635942 -0.09714555
0003e0 76 0b f4 bc b5 b9 2a 3e c7 af ca 3d 87 3e 9c bd
       -0.029790621 0.16672404 0.09896808 -0.07629114
0003f0 a4 4c 2f 3e fb 3d f9 bc 7c b4 24 3c e6 2f 87 3d
       0.1711908 -0.030425062 0.010052796 0.06600933

encoder.layers.2.bias f4 [32]
000000 da 7a b5 bd 1a 41 1e be 1b 53 0e be 76 b3 bd bd
       -0.08861323 -0.15454522 -0.1389889 -0.09262745
000010 25 a2 d0 bd 69 64 bc bd c7 c0 e2 bd f2 1a bc bc
       -0.101871766 -0.09198839 -0.110719256 -0.022962067
000020 d5 7d b6 bd 2e db fc bd fd 8d 92 bd af 24 8f 3e
       -0.08910719 -0.12346493 -0.07155988 0.27957675
000030 c2 70 55 3d 61 1e 80 bd f4 9e 45 3e 39 f3 7e 3e
       0.052109487 -0.06255794 0.19298917 0.2489747
000040 22 10 b7 bd 59 83 b5 3d d2 4e 80 bd d3 33 dd 3d
       -0.08938624 0.08862943 -0.06265034 0.108009
000050 5e 74 41 bd e1 28 81 3d 40 2e aa bd bf dd 99 3d
       -0.047230117 0.06306625 -0.08309603 0.07512998
000060 ab 4d 97 3b 0b 84 af bc b3 f6 35 bc c8 0a d1 bc
       0.004617413 -0.021425268 -0.011106181 -0.025517836
000070 99 98 fa bd 41 da 40 bc 32 00 a8 bc 00 51 7d bd
       -0.12236137 -0.011770786 -0.020507906 -0.061844826

encoder.layers.4.weight f4 [12, 32]
000000 12 16 21 3d 49 62 66 be e5 33 76 be 1b d9 57 bb
       0.03932769 -0.2249843 -0.24043234 -0.0032935801
000010 36 0a 44 be a3 0b 1b bc 5d 58 99 be 3b d4 15 3d
       -0.1914452 -0.009463224 -0.29950228 0.036579352
000020 2d e0 b9 bc 1d a0 e1 bd 78 cc fc bc 7c 4d 63 3e
       -0.022689903 -0.11016867 -0.030859217 0.22197527
000030 d1 d2 0c 3d 06 5c 3a be b7 54 0c 3e 63 2a 7e 3e
       0.034380738 -0.18199167 0.13704191 0.24820857
000040 7a 42 d5 bd d1 03 c8 bc 1a 8d b1 3d b7 e6 42 3d
       -0.1041307 -0.024415882 0.08669491 0.047583308
000050 aa 72 d2 bd 81 d2 fd bd a6 91 01 be 0b 69 ba 3c
       -0.10275777 -0.12393666 -0.12653217 0.022755167
000060 a3 62 33 be 59 41 6d 3b 9e 2b f2 ba ac 4a 50 bd
       -0.17518096 0.003620228 -0.0018476134 -0.050852463
000070 9e b4 a3 3d 3f dc 53 3c ca ff 4b bd 7e be 81 be
       0.07993434 0.012930929 -0.049804486 -0.25340647
000080 38 47 03 3c 61 10 27 be 7d 6e 0b be ac 26 72 be
       0.008012585 -0.16314842 -0.13616367 -0.23647565
000090 c6 5b 71 bd 5f 97 e5 3c da d2 7a be a1 86 04 be
       -0.058925413 0.02802628 -0.24494496 -0.12941982
0000a0 ef 2d 8f bd df c7 c8 bd 4b ec e7 3d 41 76 ee 3d
       -0.06991183 -0.098037474 0.11324366 0.11643649
0000b0 69 90 30 be 2b 68 11 be df 99 dd 3d 10 6d 6f 3e
       -0.17242588 -0.14199893 0.10820364 0.23381448
0000c0 85 0d 65 be 94 92 cc bd b9 24 4c 3d 54 5c 1d be
       -0.22368439 -0.09988895 0.04983971 -0.15367252
0000d0 94 c3 3b 3d 6f 57 35 be b2 a8 87 3d cf cb 42 be
       0.045840815 -0.17709135 0.06623973 -0.1902306
0000e0 e1 b4 36 be ba 27 33 be 21 79 02 be b7 f9 26 be
       -0.17842437 -0.17495623 -0.1274152 -0.16306196
0000f0 bc 8e 55 be 66 ae a0 3d 77 68 ea 3d a5 f1 8a bc
       -0.2085523 0.07845764 0.11445706 -0.016960928
000100 65 12 1a bd 8f a6 91 bd b3 0c 44 bd e1 f1 5f 3e
       -0.0376152 -0.07111847 -0.047863673 0.21869613
000110 9e 18 fb bd 61 6d fb bd e1 8b b9 3d d9 84 2e 3e
       -0.12260555 -0.12276722 0.09059883 0.17042865
000120 2c 68 b2 3d 45 10 7f 3e 3d f0 a9 3d 64 8b ed bd
       0.087112755 0.2490855 0.08297775 -0.11598852
000130 71 c6 c4 bd 13 59 a7 bd 92 15 4c be 2c f7 67 be
       -0.09608162 -0.081712864 -0.19930103 -0.22652882
000140 29 81 1b 3e 4e 8d ad 3d 26 1e 98 bd 40 2c 01 3d
       0.1518599 0.08474217 -0.07427625 0.03153634
000150 ae b2 1b 3d 35 a1 be 3d 15 c0 af 3c 72 dc ab bd
       0.0380122 0.093080916 0.021453897 -0.08391656
000160 0c 38 65 39 eb 4e 15 bd f0 dd f0 3d 74 74 01 3d
       0.00021860021 -0.036452215 0.11761081 0.0316052
000170 83 8f f1 bd 54 f3 e4 3d 85 90 05 3e 22 82 ff 3d
       -0.11794951 0.11179224 0.13043411 0.12475993
000180 9b 6d 93 bd 4c ae 56 bb d1 22 ee 3d dc ae 2d 3d
       -0.0719864 -0.0032757698 0.116277345 0.042403087
000190 bf b1 ae bc 1b 03 bc 3d 17 1c 50 3e 21 1f b3 bd
       -0.02132499 0.0918028 0.20323215 -0.08746172
0001a0 55 1d 8b 3d 69 f2 28 3e c5 9e 3b 3d 13 45 06 be
       0.06792704 0.16498722 0.04580571 -0.13112287
0001b0 35 69 39 3d c8 a6 c6 3d 9b 1d c9 3d 75 7c 4c be
       0.04526635 0.0969978 0.098201 -0.19969352
0001c0 32 f0 b6 3d 33 d8 30 bd 3b 2f c5 bb a2 9d ac 3d
       0.08932532 -0.043174934 -0.006017593 0.084285036
0001d0 af 87 f4 3d 53 48 4f 3e 47 32 3b 3d 44 ef cf bd
       0.11939942 0.20242433 0.045702245 -0.10153058
0001e0 6e 8e 8a 3d da 7c 06 3e 8f f5 9d 3d a4 8a 17 bd
       0.067654476 0.13133565 0.07712852 -0.036997452
0001f0 f0 c4 c6 3d 59 42 97 3c 6b 4b c5 3d e2 d3 74 bd
       0.097055316 0.018464254 0.096335255 -0.05977238
000200 a3 98 6a bd de be da 3d 9a f3 af 3d 33 b5 07 3e
       -0.057274472 0.10680936 0.08591385 0.13252716
000210 ef f6 24 bd 80 f9 0f 3e 39 ac c7 ba d6 7b 2c 3e
       -0.040274557 0.1406002 -0.0015233821 0.16844115
000220 b9 f8 56 3e ae c4 b2 bc d4 93 e2 bc cc 4d f4 3d
       0.20993318 -0.0218223 -0.02765838 0.11928901
000230 29 65 08 3e f0 b0 3a 3d c8 56 a5 bd b1 82 08 bd
       0.1331984 0.045578897 -0.08073193 -0.033327762
000240 e2 24 36 3d 65 d0 23 3e 8b bb 44 3c 8b d0 81 3e
       0.044468768 0.15997465 0.012007604 0.25354418
000250 fe 58 a9 3d a7 20 a5 3d cc 40 24 bd 5b 49 f7 3d
       0.08268927 0.080628686 -0.040100858 0.12074538
000260 05 d5 46 bc 0b b2 1c 3e 83 c5 9b 3d e4 95 66 3e
       -0.012135749 0.15302293 0.07606032 0.22518116
000270 8a b6 2b 3e b1 24 66 3d 96 c5 ec bd e1 1d a5 3d
       0.16768852 0.056187335 -0.11561124 0.080623396
000280 36 06 c9 3c 3f 26 af 3d bb e0 1c bd 7c 0c ce bd
       0.024539094 0.08552217 -0.038300257 -0.10060975
000290 2a f1 e2 bc 2c 1b b1 bc ed 5b b1 bd 2e 55 08 3e
       -0.027702887 -0.021619402 -0.086601116 0.13313743
0002a0 33 c2 35 3c 45 cd c0 bc 49 11 e2 bd 5f 85 3c bd
       0.011093664 -0.02353538 -0.11038453 -0.04602563
0002b0 d5 3b b0 bc 95 b1 2e 3d 91 7a d4 bc 5d 47 38 3e
       -0.021512905 0.042649824 -0.02593735 0.17995973
0002c0 cc 04 8a 3d 66 27 32 bd 01 a7 13 be 48 82 1c 3d
       0.06739196 -0.043494605 -0.14419176 0.038210183
0002d0 3e 69 9c bd 9f 7d cf bc 33 27 84 bd 24 08 c5 bd
       -0.07637261 -0.025328455 -0.06452789 -0.09620693
0002e0 ea 37 87 3c 0c ff f0 3c 43 de bb bd 35 17 d4 bd
       0.016506154 0.02941849 -0.091732524 -0.10355989
0002f0 cc 31 7f 3a e2 32 3b bd 05 c7 22 be 82 bf f6 3c
       0.00097348983 -0.045702823 -0.15896232 0.030120615
000300 b5 f1 80 bd 4e 2c a9 bd e1 b2 c9 bd ac 4c 29 bd
       -0.06296102 -0.082604036 -0.098485716 -0.041332886
000310 db 3d 91 bc 60 17 84 bd 71 fa 81 bc 7c 7e 88 3d
       -0.01772969 -0.06449771 -0.01586649 0.0666475
000320 e5 72 8d 3c 3b 5a 9d bd 66 53 c0 ba 5f b3 92 bd
       0.0172667 -0.07683226 -0.0014673292 -0.071631186
000330 38 f1 f8 bd 40 b4 23 bd 63 f3 1f 3e 1e 50 f2 3d
       -0.12155384 -0.03996682 0.15620188 0.118316874
000340 aa b8 b8 bd f2 a9 19 be c3 00 7b bd fe 2f 17 bc
       -0.09019597 -0.15006235 -0.061280023 -0.009227751
000350 a5 8c b4 3d 53 c7 e1 3d c2 a6 0f bd 84 1c 42 3d
       0.08815888 0.11024346 -0.035071142 0.047390476
000360 5c ae 3f 3d af ee ea 3c 80 5a 08 bd a0 cb fc 3a
       0.04679714 0.028678266 -0.033289433 0.0019286759
000370 69 4f ad 3d 63 48 ef bd 1d a3 d9 3d 24 c5 14 bd
       0.08462412 -0.116837285 0.106268145 -0.03632082
000380 6a 21 97 3d b1 92 c2 bd ae d2 99 3d c9 3e 2d be
       0.0737942 -0.095006354 0.07510887 -0.16918482
000390 18 37 9a 3d 67 22 00 3e 49 70 bd 3d 50 42 c5 ba
       0.075300395 0.12513123 0.09249932 -0.001504967
0003a0 37 0b b4 3d 4e 73 cc bd 3c ba 17 be d5 90 36 3e
       0.087912016 -0.0998293 -0.14817137 0.17828687
0003b0 cc a2 af 3d 52 17 d8 3c 59 48 80 3d 2a 97 3f 3e
       0.08575973 0.026378307 0.06263799 0.18710008
0003c0 86 dd 05 3c 3d c4 ff 3d dc 56 f8 3d 0e 9d b2 bd
       0.008170491 0.12488601 0.12125942 -0.08721362
0003d0 cd d8 fc bb c9 d4 15 3b 82 02 07 be 1f 1d c8 bc
       -0.0077162744 0.0022862426 -0.1318455 -0.024427949
0003e0 85 0e 30 3d 2c d2 89 3c a0 a6 a1 bc 32 ff c0 bd
       0.042982597 0.01682385 -0.019732773 -0.09423675
0003f0 3d c0 cd bd 79 c1 0c 3e fe 6f 05 be cd 46 db 3c
       -0.10046432 0.13745679 -0.13031003 0.026767159

encoder.layers.4.bias f4 [12]
000000 16 9f 82 3e f1 f8 3a 3e ef 59 63 be 90 fe 31 3d
       0.25511998 0.18259026 -0.22202276 0.04345566
000010 dd b8 a4 bd 07 f7 d1 3c d3 21 92 3c 07 32 0e bd
       -0.080430724 0.025630487 0.017838394 -0.03471568
000020 1a f7 51 3d ba e7 b1 3d 3a 7b b2 bd 60 de 01 3d
       0.051261045 0.086867765 -0.0871491 0.031706214

decoder.layers.0.weight f4 [32, 17]
000000 ab 7e 17 be 46 76 80 bd f8 ba e1 3d 51 90 6b bd
       -0.14794414 -0.06272559 0.110219896 -0.057510678
000010 0c db d3 bd 4e 7d b9 bd 28 83 24 3d c4 9b bd bd
       -0.10344514 -0.09057103 0.040164143 -0.092582256
000020 24 44 9a 3e 92 71 0f be 22 2b 0f 3e a4 a8 41 be
       0.30130112 -0.14008167 0.13981298 -0.18911988
000030 7d 42 69 3e 8a 69 82 3e be c6 cc 3d 44 fe 2f be
       0.2277927 0.25471145 0.099988446 -0.17186838
000040 a2 59 8e 3d b1 89 13 3e 99 d5 a9 3e cc e0 e6 bd
       0.0695069 0.14407994 0.33170775 -0.11273345
000050 28 68 24 be 85 16 a2 3d ce ce a3 3e 10 a5 07 be
       -0.16055357 0.079144515 0.31993717 -0.1324656
000060 16 c0 39 bd 8a bc 80 bd 2b 5a 42 3c a8 7c 10 be
       -0.045349203 -0.06285961 0.011862318 -0.14110053
000070 4b 63 a9 bd 23 bc 60 3e de 81 83 3c a7 c1 7a be
       -0.08270892 0.21946768 0.016053136 -0.24487935
000080 f1 78 e4 bd 7f 8b 9a 3d 91 71 98 3e c6 c3 9b 3e
       -0.1115588 0.07546138 0.29774144 0.304228
000090 91 47 97 be 6b 69 58 3e 20 c4 5c 3d d0 b3 6c 3e
       -0.29546788 0.21133964 0.053897977 0.23115468
0000a0 0e e1 83 be 43 e5 a2 bd 14 f2 50 be 68 50 97 3d
       -0.2575764 -0.079538845 -0.20404845 0.07388383
0000b0 a1 25 66 3e c5 e6 28 3d c1 50 a6 3d 16 c3 0f 3d
       0.22475292 0.041235704 0.08120871 0.035098158
0000c0 99 22 0e be b3 fc b5 bd d3 7d 2d 3e fa c6 41 be
       -0.13880385 -0.08886089 0.1694253 -0.1892356
0000d0 5c 58 6b bc 1c ba bd bd 47 9b 3d bd b8 fa 26 3b
       -0.014364328 -0.09264013 -0.046290662 0.002547903
0000e0 46 d7 1e be 90 f8 08 be 2f 84 81 3e d9 87 82 3c
       -0.15511808 -0.13376069 0.2529616 0.015933918
0000f0 0c 65 bd bd 98 80 6b be 7b 33 6a be be 5a 7b be
       -0.09247789 -0.22998273 -0.228712 -0.24546334
000100 39 e8 07 3e c7 27 81 3e 0c 28 51 3e 42 5f f0 3b
       0.1327218 0.2522566 0.20425433 0.0073355744
000110 28 cb e1 bd ca e8 06 be 05 9e 20 3e 49 22 27 3e
       -0.11025077 -0.1317474 0.1568528 0.16321672
000120 38 0b 12 3e 31 ad 3a be 71 d2 0f 3e 24 43 23 be
       0.14262092 -0.1823013 0.14045121 -0.15943581
000130 07 95 17 bd 52 af 55 3e 0d 8b e6 3d 48 18 c7 3d
       -0.037007358 0.2086766 0.112569906 0.09721428
000140 17 16 f9 bc 51 f0 1b be 3a 29 00 bd ae 1b 09 be
       -0.030406041 -0.15228392 -0.031289317 -0.13389465
000150 d8 7a 66 3e c1 a7 9e 3d 48 73 e1 bd 71 e0 35 be
       0.22507799 0.0774684 -0.11008316 -0.17761399
000160 f5 1e 7a 3e 7d 4d d0 3d 48 82 ed bd 2f ee 98 3e
       0.24425872 0.1017103 -0.11597115 0.2986922
000170 44 27 86 3d 8e 04 39 3e 5c ec d4 3d 14 1f 3f 3e
       0.06550458 0.18068144 0.103966445 0.18664199
000180 96 15 7f 3d de 4c 58 be 5a 12 90 be d4 b3 d4 3c
       0.062276445 -0.21123073 -0.28139 0.025964655
000190 ee 4c 87 be 4b e7 ec 3d 75 85 3d be f1 f8 04 be
       -0.2642588 0.11567553 -0.18507941 -0.12985589
0001a0 59 ac 2b bd 63 bd 11 3e f0 4b 8a bd cb 46 31 be
       -0.04191241 0.14232402 -0.06752765 -0.17312162
0001b0 f2 b3 57 be 37 d2 12 3d 33 c4 c2 be c7 53 e8 3b
       -0.21064737 0.035845008 -0.38040313 0.007090065
0001c0 80 fa 7e 3e a7 4e 63 3e b9 19 70 be 63 99 46 be
       0.24900246 0.22197972 -0.23447312 -0.1939445
0001d0 06 22 35 3e 53 87 af 3d 30 cb 9f 3d 55 4d 7e 3d
       0.1768876 0.08570733 0.07802427 0.06208547
0001e0 5b b0 c3 bd ff c4 43 be ce 4c 6e 3e 7f 00 99 3d
       -0.095551215 -0.19118117 0.23271486 0.07470798
0001f0 85 06 61 3e af 5c df bd 63 b6 a0 bd 13 3a 93 bc
       0.21975143 -0.1090635 -0.078472875 -0.017972028
000200 5f 37 be 3d 0f 23 a6 3b 75 b1 71 bd ee d4 2f 3a
       0.09287905 0.0050700973 -0.059007127 0.0006707449
000210 dd c5 16 be b2 c3 b8 bd df 47 05 be 80 a6 b0 3d
       -0.14723916 -0.09021701 -0.13015698 0.08625507
000220 f6 2b 6c be 48 64 79 be 3f 32 44 3e cd 13 22 3e
       -0.23063645 -0.2435466 0.19159792 0.15827866
000230 37 94 7e 3d b9 cb 52 bd 29 eb cc 3b 4d c4 8a be
       0.062153067 -0.051463816 0.006253619 -0.2710289
000240 26 ca 2c 3e 81 c2 ab bd 69 bc 11 3e 95 1c ae bc
       0.16873989 -0.08386708 0.14232029 -0.021253863
000250 ff 4d 7a 3c 0e e6 f0 bd eb b3 40 3e 27 f3 80 3e
       0.015277385 -0.117626294 0.18818633 0.2518551
000260 74 71 af 3d e1 c6 25 be 71 e5 66 3e 54 f0 2d be
       0.08566561 -0.16189148 0.22548462 -0.16986209
000270 f8 cf 67 3e 31 ce 48 be c6 8e b2 bd 2e 85 4c bd
       0.22637928 -0.19609906 -0.08718638 -0.049931698
000280 b2 ea ca 3c 90 d3 ee 3d 75 65 61 bc a9 15 59 3e
       0.024770115 0.11661446 -0.013757099 0.21199669
000290 bd 16 25 3e 23 d3 e6 3c 77 36 68 be 94 9a 51 be
       0.16121955 0.02817685 -0.22677027 -0.20469123
0002a0 59 7e 8d bb e4 61 be 3d b2 18 b6 3d f8 83 23 bd
       -0.0043180403 0.09296015 0.08891429 -0.039920777
0002b0 a2 ca 4c 3e 55 63 29 be ea 56 67 3e 1f 4e 10 3d
       0.19999173 -0.16541798 0.22591749 0.035230752
0002c0 bd 43 b3 3c a1 48 81 3e 95 96 c2 3d bc f1 59 3e
       0.021882886 0.25250724 0.095013775 0.2128362
0002d0 83 06 73 3e cc 0e f8 bd b3 72 75 3e 15 36 31 3e
       0.23732953 -0.12112197 0.23969536 0.17305787
0002e0 ce 58 63 be fa 7c 91 bd 2b 82 8b 3d b7 f0 2f bd
       -0.22201845 -0.071039155 0.06811937 -0.042954173
0002f0 4c 20 2f be af b8 e2 bc 13 55 7e bd 43 7d 2e 3e
       -0.17102164 -0.027675955 -0.06209285 0.17039971
000300 37 c6 ee 3d 58 46 12 bd 57 83 12 3e a9 75 d0 bd
       0.116589 -0.035711616 0.14307915 -0.10178692
000310 9a 75 46 3e dd 9b 11 3e 9d 54 f8 bc 2a 3e 8e be
       0.19380799 0.14219613 -0.030313784 -0.27781802
000320 52 1d 9c bc 01 fb 2d bd 13 07 70 3c 64 56 68 be
       -0.01905695 -0.042475704 0.014650124 -0.22689205
000330 f8 42 cd bd 4b dc 59 be af 4f 85 3d 4a ff 7a 3d
       -0.10022539 -0.21275441 0.06509339 0.06127862
000340 c9 d6 6f 3e 0d ad e6 3d 45 e3 3d 3e 02 fc e8 3d
       0.23421778 0.112634756 0.18543728 0.11376192
000350 80 c0 a3 3e 84 ca 08 be d9 ce 94 3c f7 de 4d bd
       0.31982803 -0.13358504 0.018165039 -0.050261464
000360 b8 73 10 3e 67 22 2a be 39 26 f5 3c 1f ed 77 bd
       0.14106643 -0.16614686 0.029925453 -0.06052887
000370 9b 6b 91 3c e5 11 3e 3d 0d 5b 5d be 19 93 bf 3d
       0.017751506 0.046403784 -0.21616764 0.093542285
000380 f6 af 14 3e 6d b6 7a be df f2 d8 bd 25 8d 56 be
       0.14520249 -0.24483652 -0.10593199 -0.2095228
000390 8e fd 0b 3e f9 e4 a5 bd 0d 4a 7e 3c 46 1b 4e 3d
       0.13670942 -0.08100314 0.015520585 0.05031898
0003a0 c6 48 e1 bd 25 69 87 bc 11 2e 76 bb 7b 04 65 3e
       -0.110002086 -0.016529629 -0.0037564079 0.2236499
0003b0 2d d3 02 3d f7 92 cd bd b5 f9 67 3e 93 df 8a 3b
       0.031939674 -0.10037797 0.2265385 0.004238078
0003c0 50 83 29 be 36 26 ee 3c f9 65 ac bd 17 55 3f be
       -0.16553998 0.029070955 -0.08417887 -0.18684803
0003d0 6c 07 7e be 10 3d 2d 3e 7f 91 84 bc c2 ca db bb
       -0.24807519 0.16917825 -0.01618266 -0.00670752
0003e0 ad a5 82 be df 43 5e 3e 77 f8 57 be 20 3c 45 3e
       -0.25517026 0.21705578 -0.21090876 0.19261217
0003f0 81 8f 91 3e 8e 54 98 3d 7f 5c 65 3c 5e c4 99 3e
       0.28429797 0.074380025 0.013999104 0.3003263

decoder.layers.0.bias f4 [32]
000000 c9 99 1d bc 8d 87 b4 3d 41 b6 e2 3d ad a1 9a bd
       -0.009619185 0.08814917 0.110699184 -0.075503685
000010 4a fe 2b be c1 7b 5c be 4d 5b 3c be d9 0b c2 3d
       -0.16796222 -0.21531583 -0.18394203 0.09474916
000020 8e 4d 04 3e 3f 1b 61 3e 1e 23 72 bc db 68 23 3e
       0.1292021 0.2198305 -0.01477888 0.15957968
000030 a0 10 0c be 98 b9 9a 3e 91 4e bb 3e e5 e3 8e 3e
       -0.13678217 0.30219722 0.3658338 0.27908245
000040 a1 b9 24 3e c5 f9 85 be 2a 09 54 be ba ea 50 3e
       0.16086437 -0.26167122 -0.20706621 0.20402041
000050 a9 c7 23 be 95 d8 2b 3e bb d7 83 3e 2a 19 30 3d
       -0.15994133 0.16781838 0.25750527 0.04299275
000060 81 5a f3 3d 9c 89 a4 bd 3b e1 62 bd 2a ed 87 3e
       0.118824966 -0.080340594 -0.055390578 0.2654813
000070 ac 03 a9 bc e4 80 be 3e 21 e3 18 3e 49 82 e9 bd
       -0.020631634 0.3720771 0.14930393 -0.11401803

decoder.layers.2.weight f4 [32, 32]
000000 81 39 67 3e 21 ab d3 bd 5b 06 11 be a7 8c 1f 3e
       0.2258053 -0.103353746 -0.1416258 0.15580998
000010 e9 7a 9d bd c9 2c 43 3e bc 52 00 be 71 33 82 bd
       -0.07689459 0.19060053 -0.1253156 -0.06357468
000020 20 e7 55 3e 4b b4 fd bd 31 da 4e bd 41 22 01 3e
       0.20888948 -0.12387904 -0.050501052 0.12610723
000030 e6 8c 2a 3e f1 6b 42 3d 9a 46 84 bd b1 6f ac bd
       0.16655311 0.047466222 -0.06458779 -0.08419741
000040 57 79 83 bd 18 00 87 bc 97 5f 09 be a6 03 4c 3e
       -0.06419628 -0.016479537 -0.13415371 0.19923267
000050 8c 73 b4 3d 1a ab cc bd da c2 83 3c 49 5f 0a be
       0.08811101 -0.099935725 0.016084123 -0.13512911
000060 13 35 1d be 05 45 26 3e 06 20 84 3d e6 36 30 bd
       -0.15352277 0.16237266 0.064514205 -0.043021105
000070 47 e1 a9 bd 1d e9 e4 3c 04 b2 9e bd fe 4b 83 3d
       -0.08294921 0.027943188 -0.077487975 0.06410979
000080 c2 37 32 bd 7c 67 ad 3d 23 0d b6 bc 9a 5e e6 bd
       -0.043510206 0.08467004 -0.022223061 -0.112485126
000090 dd 72 f5 3d 1e f9 10 3e c0 6b 13 be ce b3 d0 3d
       0.11984799 0.1415753 -0.14396572 0.10190545
0000a0 76 6b 3c bd ca ac b9 bd 41 b5 f5 bc db 57 bf 3c
       -0.04600092 -0.0906616 -0.029993655 0.023357322
0000b0 9f d7 d2 bd 00 fe dd 3d 26 71 91 bd 55 f4 2a be
       -0.10295033 0.10839462 -0.071016595 -0.16694768
0000c0 1b 8a 10 3d 5b d9 ae 3d d4 51 17 3e 59 b9 19 3e
       0.035287958 0.08537551 0.14777309 0.15012111
0000d0 4e 0f 97 3d 78 22 af 3d 8b b0 58 be 9e c9 d3 3d
       0.07375966 0.08551496 -0.21161096 0.1034119
0000e0 f5 ed 97 3c 82 75 f6 3c 5d 20 8f bd 13 79 89 3c
       0.018546084 0.030085329 -0.06988595 0.016781365
0000f0 bf ea 4e 3e 47 23 f7 3c 46 2f c2 bc d7 19 6c 3d
       0.20206736 0.030168189 -0.023704182 0.05764183
000100 65 10 b0 3c 46 8b b0 bd e2 91 01 3d df 05 a9 bc
       0.021492193 -0.08620314 0.031633265 -0.020632682
000110 f6 97 63 3e 74 75 da 3d 8b e0 1f 3e 5c 51 e6 3d
       0.22225937 0.10666934 0.15613 0.11245987
000120 33 5b 16 3e fb 4c 96 bd ec a6 dc bd 51 35 95 bd
       0.14683227 -0.073389016 -0.10774025 -0.0728556
000130 9f 44 0f 3e f0 30 bf 3d e5 95 97 bd b9 d9 0f be
       0.1399102 0.09335506 -0.07401637 -0.14047898
000140 65 70 af 3d 57 7f a0 3d a2 6e 0d 3e cc fc f0 bd
       0.085663594 0.07836788 0.13811734 -0.11766967
000150 cd 86 89 3e a3 9b ce 3d 36 ce 30 3e db 48 e4 3d
       0.26860657 0.10088279 0.17266163 0.111467086
000160 d5 0d 11 be 19 36 44 3e 8a 66 ef 3d 22 be da bd
       -0.14165433 0.19161262 0.1168948 -0.10680796
000170 20 c3 ee bd ee 6e 41 bc e8 e0 37 be 46 0c 78 3d
       -0.11658311 -0.011806233 -0.17956889 0.06055858
000180 9d 0f 07 3d 1c 25 be 3b 81 f0 2f be b4 69 a7 bc
       0.032973874 0.0058027636 -0.17181589 -0.020436145
000190 b5 0b 2b 3e 91 57 d1 bd fe 78 8a 3d 0a 7a 05 be
       0.16703685 -0.1022178 0.06761359 -0.13034835
0001a0 fc a2 3e 3c 68 70 24 3d 74 e7 58 3d d3 69 b6 bd
       0.011635538 0.04014626 0.052955106 -0.08906903
0001b0 81 a0 09 be dd 6f a2 3d 1d 7a a5 bd 21 e1 4b 3c
       -0.13440134 0.079314925 -0.08079932 0.012443812
0001c0 30 ef cd 3c 2f 9c 16 be 94 bc 03 3e ac 13 12 be
       0.025138468 -0.14708017 0.12864906 -0.14265317
0001d0 f3 92 97 bd ed 43 be 3c 35 43 38 3c f5 b7 77 3d
       -0.07401075 0.023225749 0.011246492 0.06047817
0001e0 8a 08 96 bd 2a 46 23 be 9f f3 8a 3c f3 1c 77 3d
       -0.073258474 -0.15944734 0.01696187 0.060330343
0001f0 00 d8 f8 3d b3 97 02 3e 5e c0 09 be 74 3a 75 bd
       0.12150574 0.12753181 -0.13452289 -0.0598702
000200 a3 5c f7 bc c6 71 8b 3c e0 82 8b 3d 69 5e 63 3e
       -0.03019554 0.017022025 0.06812072 0.22203983
000210 ac 8b 36 be 55 5c 18 be d1 c3 49 3e fe 3e 8d 3d
       -0.17826718 -0.14878972 0.19703604 0.068967804
000220 1a 92 eb 3d 4c c0 b8 3d 16 da 96 3d 80 c6 1e bc
       0.11502476 0.09021053 0.07365815 -0.009690881
000230 9f e8 cf bd f6 67 01 3e b6 2f 88 3e 23 42 47 3e
       -0.10151791 0.12637314 0.265989 0.19458823
000240 1a 26 35 3e 37 df 16 3c f5 79 d1 3d e7 24 ae bc
       0.17690316 0.009208492 0.102283396 -0.02125783
000250 ba 51 9e 3d b7 eb 20 3e 26 c0 fa 3d 51 c2 b3 bd
       0.07730432 0.15714918 0.12243681 -0.08777297
000260 88 67 89 3d 21 30 c1 bd d3 ec f0 3d 76 f9 80 3e
       0.067092 -0.09433008 0.11763921 0.25190324
000270 a4 76 ee bd a0 65 2f 3e c0 96 69 3e a0 07 06 3d
       -0.11643723 0.1712861 0.22811413 0.032722116
000280 7b e8 40 bd 12 d0 95 3e a5 f9 92 3e aa 70 c0 3b
       -0.04709671 0.29260308 0.2870609 0.0058728056
000290 1b fe 32 be eb 6a b0 3d e6 3b 07 3c 61 41 20 3e
       -0.17479746 0.08614143 0.008254027 0.1564994
0002a0 b7 03 ca bd d5 15 31 3e 7c d7 a7 3d 90 54 16 3d
       -0.0986399 0.17293485 0.08195397 0.03670174
0002b0 cb 7f d5 3d 45 38 28 bb f0 f2 8f 3e 96 45 52 3d
       0.10424765 -0.0025668305 0.28115034 0.051335894
0002c0 99 05 8b bd a8 be 59 3c 0a b0 dc bd 60 1c 7e bc
       -0.06788177 0.013290085 -0.10775764 -0.015509695
0002d0 ce 5d e5 bd e1 06 8d 3e 36 8d f6 3d f7 3c 93 bc
       -0.111995324 0.2754431 0.120386526 -0.017973406
0002e0 e8 70 02 3e ee b1 23 3d 76 ea cf 3d fa a6 38 3e
       0.12738383 0.03996461 0.10152142 0.18032447
0002f0 3e 89 b8 3d c8 fb 66 3e fc c9 86 3d 97 74 b7 bd
       0.09010552 0.22556984 0.06581494 -0.089577846
000300 2a 4f 0f 3d cd db 1b 3e 3c 65 91 3d ed fb 28 3d
       0.034987606 0.15220566 0.07099387 0.04125588
000310 48 b5 1c be 92 fc ad 3d 44 62 b8 bd a4 3a 18 3e
       -0.15303528 0.084954396 -0.09003118 0.1486612
000320 9d 8d 3f bd b8 d2 de 3d a8 ba 75 3d 19 60 eb 3b
       -0.046765912 0.10880035 0.059992462 0.0071830866
000330 f9 aa 40 bd d1 c7 b6 3d 83 ea 0f 3e fe 8d 98 3d
       -0.047038052 0.08924831 0.14054303 0.07448958
000340 79 b4 14 bd 4e 0f 00 3d 9a 94 18 bd f6 7b 36 3d
       -0.036304925 0.031264596 -0.037251092 0.044551812
000350 9b cf db bd 7d 16 7e 3d a3 95 07 3e 4c 07 b5 3c
       -0.10732957 0.062033165 0.13240676 0.022098206
000360 1b 6b ee 3d 5d 08 af bc 36 04 0b 3e 2a c3 10 3e
       0.116415225 -0.021366293 0.13575825 0.14136949
000370 bf 97 ab 3d e3 46 6d 3d eb 2c 04 3e c8 47 c5 bd
       0.08378553 0.05792893 0.1290776 -0.09632832
000380 da 6c 1b 3e cb 43 22 3e 4a ce 26 3e 33 ba 2a be
       0.15178242 0.15846173 0.1628963 -0.16672592
000390 84 44 29 3c 86 05 65 bd 58 cc c0 3d 18 76 11 bd
       0.010331277 -0.05591347 0.094139755 -0.035513014
0003a0 81 74 40 3e 83 63 ab 3d d1 5e 36 3d aa 7e 8d bd
       0.18794443 0.0836859 0.044524018 -0.06908925
0003b0 4b e8 08 3e 47 3c a0 bd d2 38 8d bd 7d 7d 0c 3e
       0.13369863 -0.07823997 -0.06895603 0.13719745
0003c0 23 d7 19 3d 20 91 ff bd fb 12 56 bd 39 40 bc 3d
       0.037558686 -0.12478852 -0.052264195 0.09191937
0003d0 a2 fb 7e bd 2c 28 49 3e bc 8b 94 bd 51 10 2c 3d
       -0.062251695 0.1964423 -0.07253215 0.042007748
0003e0 80 56 42 3d c2 08 fa 3c 85 7e 19 bd 8e 1c 35 3e
       0.047445774 0.030521754 -0.037474174 0.17686674
0003f0 e7 85 d7 3d e0 78 ff bd 14 8b 8f bd 07 e8 d6 bd
       0.10523587 -0.12474227 -0.07008949 -0.104934745

decoder.layers.2.bias f4 [32]
000000 c6 4b 07 be fa 64 11 bd 09 e5 95 3c a7 0b 78 bd
       -0.13212499 -0.03549669 0.018297689 -0.060557988
000010 58 bf 83 3e 3e c2 38 3e 90 98 27 3e fa b3 06 3e
       0.2573192 0.18042848 0.16366792 0.13154593
000020 87 46 ae bd 61 11 40 3e b8 dd 49 bd c8 8f 32 be
       -0.08509546 0.1875663 -0.049283713 -0.1743766
000030 26 51 9d bd a4 07 15 ba dd ed 18 3d a4 f4 1a 3b
       -0.076814935 -0.00056850375 0.03733622 0.0023644352
000040 d0 8d 77 3c 92 21 89 bd 40 47 e4 3d 11 bd ed bd
       0.015109494 -0.06695856 0.11146402 -0.11608327
000050 89 57 0d be b7 8f 61 bd e3 5c 21 3e 09 9d 6d 3e
       -0.13802923 -0.055068698 0.1575809 0.23204435
000060 dd 73 d2 3d 13 24 55 bd a3 c3 87 3e 95 20 88 bd
       0.102760054 -0.052036356 0.26516446 -0.066468395
000070 d7 0d b5 bd ce 8e c4 bd d5 18 42 3e 5b cf 86 3d
       -0.0884053 -0.0959755 0.18954785 0.06582519

decoder.layers.4.weight f4 [24, 32]
000000 6c a0 0d bc 36 26 cd 3d ef d6 03 3e 9a 20 78 bd
       -0.008644205 0.10017054 0.1287496 -0.060577966
000010 eb 82 5d 3d fc c2 fa bc 96 19 e2 3d 2b c6 18 be
       0.05407993 -0.030610554 0.110400364 -0.14919345
000020 e4 18 95 bd 8c 7f 33 bd d9 c6 f6 bd 4a a6 94 3d
       -0.07280138 -0.04382281 -0.12049646 0.072582796
000030 e9 fa 04 3e 57 ac d1 3d aa a3 f9 3b 93 03 c2 3c
       0.1298634 0.10237949 0.007618387 0.023683345
000040 4d 12 91 bd d5 78 a3 bd f5 af ac bd 9c 3f c1 bd
       -0.07083569 -0.07982031 -0.08431999 -0.09435961
000050 04 87 d2 3a c0 38 b0 bc c9 cf 1a 3d 91 cf 07 bd
       0.0016061966 -0.021511436 0.037795816 -0.033156935
000060 3d 42 db 3b 3c 20 48 3d 2c 2d d6 bc 95 f2 5b bc
       0.006691246 0.048858866 -0.026144587 -0.013424535
000070 44 8f 39 bd 14 62 46 3c 5b dd ec 3c 06 7b 88 bd
       -0.045302644 0.012108345 0.028914144 -0.0666409
000080 10 f8 65 bc a0 bf fd 3b ea 06 1a 3e 03 74 be 3d
       -0.0140361935 0.0077437907 0.150417 0.09299471
000090 40 fe 25 bc 5d 27 12 bd 0c 7f 79 3c 72 f4 3c 3d
       -0.010131419 -0.03568207 0.015228044 0.04613156
0000a0 c0 68 eb bd b9 dd c8 bd 69 dd e0 bd ac c1 b6 3d
       -0.11494589 -0.09807915 -0.10979731 0.08923659
0000b0 c1 9b 10 3e c0 1d be 3d 83 d9 7d 3d 95 5f 12 be
       0.14121915 0.09283018 0.061975013 -0.14294274
0000c0 7b 48 1f 3e df 9c 09 be 7f 55 fe 3c 82 cf a9 3d
       0.15554993 -0.13438748 0.031046627 0.08291532
0000d0 6d 5a 43 3d d9 cc 1f 3d 0b f2 d1 bd bc b3 13 3d
       0.04769366 0.039013717 -0.10251244 0.03606008
0000e0 1b 6d 8f 3d 77 db ec bd fb f6 c0 bb fa ea 76 bd
       0.07003232 -0.11565297 -0.0058888174 -0.060282685
0000f0 f0 4e 8f bc 1f 03 bc 3d 3e a9 0d 3e 99 11 48 3b
       -0.017493695 0.09180283 0.13834092 0.0030528067
000100 43 c8 f7 bc b4 0e 1a 3d f1 96 06 be c5 80 ad 3d
       -0.03024686 0.03761168 -0.13143517 0.084718265
000110 42 1d 9b bd d9 62 fe bb 53 46 a6 bb a5 1e c8 bc
       -0.0757394 -0.0077632484 -0.0050743013 -0.024428675
000120 0d 38 c9 bd 03 cc 5b 3c fc b8 a3 3d 76 c0 23 3e
       -0.09825144 0.013415339 0.07994267 0.15991387
000130 6f e7 98 bd 1a c0 74 3d 91 30 bd bd 37 97 0e 3e
       -0.074660175 0.059753515 -0.09237779 0.13924871
000140 e3 80 fc bd 11 af 10 3e 24 5d 8b bd 51 f3 a0 bd
       -0.12329271 0.14129283 -0.068048745 -0.07858909
000150 73 5e 3c bd 61 c8 25 bb 6a d6 8f 3d de 68 ac bd
       -0.04598851 -0.0025296437 0.07023318 -0.08418439
000160 06 4e f1 3d 63 2d ae bd 37 af a6 bc be 00 98 3d
       0.1178246 -0.085047506 -0.02034722 0.074220166
000170 e3 44 05 bc 93 2f 00 3d c6 a6 f0 3d 50 9b de bd
       -0.0081341 0.03129537 0.117505595 -0.10869467
000180 f2 34 6a bd e6 de fd 3c e8 e6 51 ba 00 6a b5 bd
       -0.0571794 0.030990075 -0.0008007125 -0.088581085
000190 0c 9d c5 bd 2e 1e 4a bd fd b0 ba 3c fe 8d de 3c
       -0.09649095 -0.049345188 0.022789473 0.027167317
0001a0 50 01 d4 bd 1d 8d de 3c 91 37 f4 3d 03 60 45 bd
       -0.10351813 0.027166897 0.11924661 -0.048187267
0001b0 22 d7 d0 3d 2c d5 c9 bd ee d1 f8 3d 93 f0 dc bd
       0.10197283 -0.098551124 0.12149416 -0.107880734
0001c0 89 26 7f 3d 51 1f 82 bc de c0 48 3d 75 d2 3e bd
       0.06229261 -0.015884073 0.049012057 -0.046587426
0001d0 42 af a9 3d 35 c4 13 3d c8 69 a6 bd 19 93 f0 3c
       0.08285381 0.03607579 -0.08125645 0.029367017
0001e0 02 ef df 3d ce 5e 1f 3d 4d c1 f7 3d 79 3b 16 3d
       0.10934259 0.038908772 0.12097416 0.03667781
0001f0 41 bc 17 be 00 fa 83 3d c0 fa b9 bc a3 3b eb bc
       -0.14817907 0.06444168 -0.022702575 -0.02871496
000200 c1 69 78 bd 32 e4 62 3d fe 32 ce bc f4 b6 a2 3d
       -0.06064773 0.055393405 -0.0251708 0.07945052
000210 8d d8 bd bd e3 10 1f bd c5 c5 2a 3c 35 59 a1 3d
       -0.092698194 -0.038834464 0.0104231285 0.07878343
000220 61 7c 8a bd 67 be 35 bd 95 0d ab 3d 8b d4 b7 bd
       -0.06762005 -0.044371035 0.083522 -0.08976086
000230 2e f8 c7 3d c6 cb ff 3c a2 45 e0 3d 3d 6f 84 bd
       0.097641334 0.031225096 0.109507814 -0.064665295
000240 84 fd 0e 3e 03 17 1a 3e 65 ee 61 3b 85 fe 2b be
       0.13963896 0.15047841 0.003447437 -0.1679631
000250 a9 be e6 bd 1a 6a bf bb 54 0c 95 3d c6 f7 52 bc
       -0.11266834 -0.0058415057 0.07277742 -0.012876457
000260 a2 86 2b bd 45 4c 5b 3d ef 47 c8 3d 9a 85 c2 bd
       -0.041876443 0.053539533 0.09779345 -0.09498139
000270 0d 4b c7 3d c3 f1 d6 3c 32 1d b5 3d ca 29 93 bd
       0.09731112 0.026238328 0.08843459 -0.07185705
000280 48 9a 23 b9 e3 8a 3d ba ab ac e0 bd 24 68 7d 3d
       -0.00015602366 -0.00072304736 -0.10970434 0.061866894
000290 d7 bf fa 3c 70 8a 24 bd ad ff a8 bc f5 89 d2 3b
       0.030609054 -0.040171087 -0.020629728 0.006425137
0002a0 54 57 bb bd 8d c6 b4 3d 57 3d 6f bd 1f 5d 16 3e
       -0.09147516 0.08826933 -0.058408108 0.1468396
0002b0 5d 01 05 3e 0d 03 e7 3d ea 85 e1 3d e8 35 15 be
       0.12988801 0.11279879 0.1101187 -0.14571345
0002c0 5c c6 cd 3b 61 67 e3 bd 8d e1 14 3d 1b cd 87 bd
       0.00627975 -0.11103702 0.036347914 -0.06630918
0002d0 e4 df 6d 3d 1b 2e c8 bd 58 fd 2f 3e 37 d8 02 bd
       0.058074847 -0.09774419 0.17186487 -0.03194448
0002e0 7f 28 08 3d 93 aa 9a 3c 80 01 28 3d b0 f5 93 bd
       0.033241745 0.018880164 0.041017056 -0.072245955
0002f0 92 46 d5 3d 7c 13 c5 bd 40 7d cd bd ff 14 d6 bd
       0.10413851 -0.09622857 -0.10033655 -0.104532234
000300 f9 f5 44 bc b7 6c bf bd c5 11 11 be 49 b9 77 3d
       -0.012021535 -0.093469076 -0.14166935 0.060479436
000310 ae f1 ff bc ef db 29 bc 8b 79 95 bc a3 ed d8 3d
       -0.031243172 -0.010367378 -0.018246433 0.105922006
000320 a5 60 d3 bd 4f 69 d1 3c 1d 47 31 bd 43 1c bb 3d
       -0.10321168 0.02556291 -0.04328071 0.0913625
000330 5f b6 ed bd bf 11 2d bd 4d d5 5f bd c6 43 bb 3d
       -0.1160705 -0.042253252 -0.05464678 0.09143786
000340 7c dd a1 bd 36 db ac 3d fd f5 81 3d 08 c5 ee 3d
       -0.07903573 0.08440249 0.06345747 0.116586745
000350 62 98 39 3d 66 2a c7 3c e5 5e ff 3d 28 5a 92 bd
       0.04531134 0.02431221 0.124692716 -0.07146102
000360 6f 9a 29 bd 61 37 23 bc 85 87 41 bd 6a e0 a4 bd
       -0.041407045 -0.009961934 -0.047248382 -0.08050616
000370 d2 f1 7f bd df 79 fc bd 3f ed 4e 3d 4d b5 af bc
       -0.062486477 -0.123279326 0.050519224 -0.021448756
000380 c8 a1 52 bc 3f 9d b7 3d 31 22 91 bd af 4a 1d 3d
       -0.0128559545 0.08965539 -0.070865996 0.038401302
000390 26 8e e9 3d e0 82 20 bd 6f f2 51 3d 60 3b 88 3d
       0.11404066 -0.039187312 0.051256593 0.0665195
0003a0 77 57 70 bd cf 10 ce bd fc 3a 9b bd b0 da 8f 3a
       -0.058677163 -0.100618 -0.0757961 0.0010975208
0003b0 95 8a 4f 3d 3b 78 22 bd 99 02 79 bc 1a 87 62 3d
       0.05066927 -0.039665442 -0.015198373 0.055304624
0003c0 ac 2d b4 3d bf 63 a9 3d 3d d8 e0 3d f0 12 56 3d
       0.08797774 0.08270978 0.10978744 0.052264154
0003d0 2c 0e 9b bd 87 90 2f 3e 8e 7e 34 be b0 b2 f8 3c
       -0.075710624 0.17144977 -0.17626402 0.030358642
0003e0 a1 2c 12 bd 4d 00 7a bc 66 46 36 bd 6e 36 bc 3d
       -0.035687093 -0.015258861 -0.04450073 0.09190069
0003f0 93 2e 15 bb 7c a5 c1 bc de 94 b5 bd b0 02 be 3d
       -0.0022763356 -0.02363848 -0.08866285 0.09277856

decoder.layers.4.bias f4 [24]
000000 81 28 b5 3d f7 81 82 bd ee a8 ed 3d e7 e0 9c bc
       0.08845616 -0.06372445 0.116044864 -0.01915021
000010 d6 aa ed bc cb 70 87 bd 25 5f cb 3c e8 b9 04 bc
       -0.029012125 -0.066133104 0.024825642 -0.008100964
000020 cf e3 f3 bd 9d 71 8d 3d c8 21 18 3e 6b 74 80 3d
       -0.119086854 0.06906436 0.14856637 0.06272205
000030 98 06 fa 3c 72 4c a2 3d e0 28 bd bd 18 35 70 be
       0.030520722 0.07924737 -0.09236312 -0.23457754
000040 4f d0 09 bc 66 89 00 be 11 06 86 be 13 2c c1 3d
       -0.008411481 -0.12552413 -0.26176503 0.094322346
000050 eb db ab bd db 9f 56 be c4 12 d3 3c d5 b6 1a 3c
       -0.083915554 -0.20959418 0.025765784 0.009443005
