m4_ws/src/morphing_lander/morphing_lander/mpc/rl/MorphingLander.onnx (onnx, 737783 bytes, 12 tensors)

model._model.a2c_network.sigma f4 [5]
000000 fb 33 2a bf a8 e9 06 bf 7d b6 d0 be 92 70 08 bf
       -0.66485566 -0.5270028 -0.40764228 -0.5329677
000010 84 0e 04 bf
       -0.5158465

model._model.a2c_network.actor_mlp.0.bias f4 [512]
000000 df c3 9f 3d 66 24 af 3c 38 06 0c 3e 3f 86 60 3d
       0.07801031 0.02137966 0.13674247 0.054815527
000010 13 fe 80 be 2a 8a a6 bd 8a f1 5b be 2e 83 74 bd
       -0.25193843 -0.081318215 -0.21478859 -0.059695415
000020 30 a4 fd bd 6a 53 68 3e e2 85 96 3e 1f 98 73 3d
       -0.12384832 0.2268807 0.2939902 0.059471246
000030 08 16 3a 3e ff c2 a1 3e 16 64 a3 be 7b 9d 66 3e
       0.18172467 0.31594083 -0.31912297 0.22521012
000040 bf 6d b5 3d e9 74 97 3e 25 6d ff bd 07 35 66 3e
       0.08858823 0.29581383 -0.124719895 0.22481166
000050 a2 75 90 3e d0 bb 36 3e 01 71 40 be 62 6f 82 3e
       0.28214747 0.17845082 -0.18793108 0.25475603
000060 f2 27 56 be 92 7e a4 3d 9b 6d 32 be 23 af 8b 3b
       -0.20913675 0.08031954 -0.17424624 0.0042628213
000070 42 20 2e 3e 1c d9 2c 3e 1f 62 47 3e 78 8d d2 bd
       0.17004493 0.16879696 0.19471024 -0.10280889
000080 f4 f4 55 3e 44 b7 17 3e 98 9a 81 bc 67 9b 73 be
       0.20894223 0.14816004 -0.015820786 -0.2378975
000090 ea df 89 3c b5 32 84 3e 77 e2 87 3e b5 9c ae 3d
       0.016830403 0.25819936 0.26539966 0.08525983
0000a0 73 ba 1e bd f9 12 97 3e 50 6d 50 3e ff 75 10 3e
       -0.03875203 0.29506662 0.203542 0.14107512
0000b0 a5 f4 05 bd 4f 72 75 3e 2a 69 77 be fd f0 99 3e
       -0.032704014 0.23969387 -0.2416121 0.30066672
0000c0 e3 61 f0 3d 2d 18 ab be 46 d2 cb be 40 44 58 3e
       0.117374204 -0.33416882 -0.39808863 0.21119785
0000d0 73 7e 0b 3d b3 65 08 bb b7 17 bc 3e e5 73 b8 3e
       0.03405614 -0.002081257 0.36736843 0.3602592
0000e0 f2 e4 1f be 7b 6b 83 be e9 12 59 be 7a 49 13 be
       -0.1561468 -0.2566794 -0.2119862 -0.14383498
0000f0 a7 0f 16 be 05 a6 a6 3e 76 20 97 3e cb a3 ac be
       -0.14654408 0.32548538 0.29516953 -0.33718714
000100 ee 49 55 3e 0e 91 f6 be f7 18 96 3e 54 87 85 3e
       0.20828983 -0.48157543 0.29315922 0.2607981
000110 b0 76 1a be 7a e2 38 3d f9 71 36 be 2d 26 9e 3d
       -0.15084338 0.04513786 -0.17816915 0.07722125
000120 fb c0 d7 3e 96 b3 3a be 27 18 46 be 4a bc 8d be
       0.4213942 -0.18232569 -0.19345151 -0.27682716
000130 c1 45 82 3e 9f f5 9d 3d b9 d5 00 3e a4 80 e7 3d
       0.25443843 0.07712864 0.12581529 0.11303833
000140 54 df fb bb 87 82 2c 3e 9e 62 9e 3e 86 bc cd 3e
       -0.007686535 0.16846667 0.30934614 0.40182894
000150 df 09 a6 bd 7f 04 bf be 1f 32 a7 bd 69 58 6b 3d
       -0.081073515 -0.37308118 -0.08163857 0.05745736
000160 2c bc a6 3e 5d 08 98 bd b7 4d cd bd 35 59 90 3e
       0.3256544 -0.0742347 -0.100245886 0.2819306
000170 0b 2b aa 3e e4 7d 66 3e 71 0d 79 3e b9 96 7e 3e
       0.33235964 0.22508961 0.24321534 0.24862184
000180 07 3b 64 3e 88 91 80 3e 5b a1 14 3d 99 a6 9f be
       0.22288142 0.25111032 0.036286693 -0.3118179
000190 3e 7d 1c 3e ed 0d 96 3d 99 56 dc bc 8d fe b1 3e
       0.15282151 0.07326875 -0.026896762 0.3476452
0001a0 e1 da 61 3e fb 43 3a be df 45 78 3e 33 45 c8 3d
       0.22056152 -0.18189995 0.24245404 0.09778824
0001b0 c9 ef b5 bd 1b ae bc bd ce f0 e2 3d 2d 2c 5b be
       -0.08883626 -0.092128955 0.11081086 -0.2140357
0001c0 37 83 88 be 19 95 80 be 75 af 2f be 22 42 b6 3d
       -0.2666261 -0.25113752 -0.17156775 0.088993326
0001d0 09 f4 61 be b6 09 91 3e d9 dd 5e be 23 11 20 be
       -0.22065748 0.2832772 -0.21764316 -0.15631537
0001e0 98 45 ba 3e 48 f1 0d 3e a9 be 37 bd e5 91 24 3e
       0.3638122 0.13861573 -0.044859562 0.1607128
0001f0 11 74 32 be 92 6c 93 bd e9 0e e8 bd 9b 5b 85 3e
       -0.17427088 -0.071984425 -0.11330969 0.26046452
000200 4b f7 0f be bc eb 6a be 8f 4b df bd 40 cb 4d be
       -0.14059179 -0.22941488 -0.109030835 -0.20097065
000210 00 29 87 3d 2c 4e 8d 3e 2f 03 82 3e d8 48 03 3e
       0.06599617 0.27598703 0.25393054 0.12820756
000220 b4 64 62 3d ae 20 67 3e 66 b4 00 be a3 49 a6 3d
       0.05527182 0.2257106 -0.12568817 0.08119514
000230 c5 0c bb 3d c6 10 85 bc 54 a0 1c 3e f5 3f 63 be
       0.09133295 -0.01624335 0.15295535 -0.22192366
000240 64 07 0b be 97 d4 6a 3e a0 06 9c 3e 30 ad 9a be
       -0.13577038 0.22932659 0.30473804 -0.30210257
000250 db d5 5f 3e 07 c8 44 3d 9f 4d 51 be 70 8c 3c be
       0.21858923 0.048042323 -0.20439766 -0.18412948
000260 5e 9a a1 3e e9 24 8c be 46 ca 4c 3c 39 24 cf bd
       0.31563085 -0.2737191 0.012499398 -0.10114331
000270 ea 41 db bc b2 52 a3 3e 3d 63 09 3e 17 00 8f bd
       -0.026764829 0.3189903 0.13416763 -0.06982439
000280 8b 0e fa bd 70 b4 8e 3e ff dd ed bb ab ed 84 be
       -0.12209805 0.27872038 -0.00725913 -0.25962576
000290 43 9e ae 3e 17 a3 8c be de 88 bb bd da 32 8a 3e
       0.3410512 -0.27468178 -0.09156965 0.26991922
0002a0 80 28 f8 3d ac 18 88 3d 24 f7 ce bd 72 c0 7d 3e
       0.121171 0.06645331 -0.10105732 0.24780443
0002b0 19 ae 28 3e 1b b0 91 3e ac 3a 9a 3e 48 3b eb 3c
       0.16472663 0.2845467 0.30122888 0.028714791
0002c0 07 a7 18 3e 6c c7 31 bd 33 29 45 be ce 6a 98 be
       0.14907466 -0.043403074 -0.19253998 -0.29768986
0002d0 19 ba bd bc 23 8f db 3d bc bd cb be 23 97 63 3d
       -0.023160027 0.107206605 -0.39793193 0.055564057
0002e0 11 2c 87 ba d9 10 85 3e 56 e5 ad bd c8 23 0c 3e
       -0.0010312815 0.25989416 -0.08491008 0.13685524
0002f0 ac 41 0a 3e 91 4d 48 3e 9b 58 94 3e 16 c5 a5 3e
       0.13501614 0.19560839 0.2897385 0.32376927
000300 aa c3 55 3e c0 56 a4 3d aa 0d 4b 3e 14 d6 66 3c
       0.20875421 0.08024359 0.19829431 0.014089126
000310 ca 0b 3b be f0 eb 1f 3d 0a 0b 1e 3e 42 4a a9 3d
       -0.18266216 0.039043367 0.15433899 0.08266117
000320 5a 8d 90 bd 52 ee 2b be 8e 50 8b be 75 72 12 3c
       -0.07058211 -0.1679013 -0.27209896 0.0089384215
000330 d8 20 d4 be 3e 56 63 be f4 ca e8 bd 33 4b a8 bc
       -0.41431308 -0.22200868 -0.11366835 -0.02054367
000340 d4 58 40 3e fc 2d 25 3e da 06 1b be db 41 d3 3e
       0.18783885 0.16130823 -0.15139332 0.4126118
000350 b7 b2 b5 3e 89 1b 86 be 29 35 20 3e 7c c7 1c 3e
       0.3548791 -0.26192883 0.15645279 0.15310472
000360 2d 69 bb bd 28 7c 37 bd 97 d1 76 3e 83 52 af bd
       -0.0915092 -0.04479614 0.2410339 -0.0856066
000370 26 01 b7 bd 9e 92 74 be 8b 3e cb bd 6d 1f 80 bd
       -0.08935766 -0.23884055 -0.099240385 -0.06255994
000380 d3 14 4a 3e 52 32 9c 3e 8f 12 98 3d 69 49 4a 3c
       0.19734506 0.3050714 0.07425415 0.012346604
000390 79 de 8e bd 46 6f 44 3d 28 be af 3d a5 02 4c be
       -0.06976027 0.04795768 0.08581191 -0.19922884
0003a0 07 95 7e bd c4 2a 2a 3e 13 39 35 be 73 e0 92 be
       -0.062153842 0.16617876 -0.17697553 -0.28686866
0003b0 7b c0 51 3e a7 92 7f 3e 7b a7 a5 be 8d 09 28 be
       0.20483582 0.24958287 -0.3235434 -0.16409893
0003c0 12 15 90 be 3b 83 62 3e bf 1f 25 be bb 23 01 3e
       -0.28141075 0.22120373 -0.16125391 0.12611286
0003d0 01 02 bc 3d 52 e7 42 3e 38 50 9a 3b 2a c2 3b bc
       0.0918007 0.19033554 0.00470927 -0.011459867
0003e0 b3 cd 7b 3e 21 50 a5 be c1 f4 75 be ab fd e7 bd
       0.24590187 -0.32287696 -0.24019147 -0.1132768
0003f0 1e bb 11 be 31 c9 a9 bd 6b d5 19 be 46 18 aa 3c
       -0.14231536 -0.08290327 -0.15022819 0.020763528

model._model.a2c_network.actor_mlp.0.weight f4 [512, 14]
000000 9b be eb bc f7 0f c1 3d 27 d1 86 3e 8f 14 49 3d
       -0.028777411 0.09426873 0.26331446 0.04909187
000010 65 e1 01 bd 37 c4 19 3e 2d d1 73 bd 6e 86 3d bd
       -0.031709094 0.15016256 -0.059525657 -0.04627078
000020 19 0e 1c bd 0b c2 b0 3d 35 5b 8e bc 33 e1 de bc
       -0.038099382 0.08630761 -0.017377475 -0.027206993
000030 d7 a4 28 bc fd 21 cc bd b5 fe c0 3d 3e 5c 4b bd
       -0.010293207 -0.0996742 0.094235815 -0.049648516
000040 8e 41 47 3e 8e f8 70 bd 6f aa 25 3e 9f 17 22 bd
       0.19458601 -0.05883079 0.16178297 -0.039573308
000050 3f 98 eb bd 07 31 0b 3a 62 21 08 bc 4a 32 96 3d
       -0.11503648 0.0005309735 -0.00830874 0.073338106
000060 32 fd 7d bd 68 b6 96 3b e7 82 af bd e6 a2 6e bd
       -0.062009044 0.0045993812 -0.085698895 -0.05826082
000070 97 0d df 3d 3f 3d cc 3e 95 0a ab bb 79 0e a2 bc
       0.10891264 0.39890477 -0.0052197673 -0.019782292
000080 b0 11 c5 3c 93 cb a1 3d 33 ac 82 3d df 92 06 be
       0.024056286 0.07900157 0.06380501 -0.13141964
000090 c9 2a 52 be 7c b2 b6 bd 1f 59 d9 3d 04 45 c0 3d
       -0.20524134 -0.08920762 0.106127016 0.09388164
0000a0 a7 05 2d 3c 10 87 a0 3d ee f3 84 3e e1 44 5c 3c
       0.01056043 0.07838261 0.25967354 0.013444156
0000b0 1e 76 cf 3d 79 f3 ff bc a4 72 22 3d ff 0f 64 bd
       0.10129951 -0.031244026 0.03966011 -0.055679318
0000c0 ec 25 05 be 21 f4 36 be 78 49 c9 bc b5 d3 44 bd
       -0.13002747 -0.17866565 -0.024571165 -0.048053462
0000d0 b7 eb f2 3c 10 f2 d0 3c 7a 24 10 bd 17 c5 de 3c
       0.029653413 0.02550605 -0.035191037 0.02719359
0000e0 aa e0 0b 3f 5f c9 21 3e 06 ff 9f 3e fc 1b f2 bd
       0.54639685 0.15799473 0.31249255 -0.11821744
0000f0 7e 0f 0b be 76 4c 1f be d9 4b 1d be cd ec a3 3e
       -0.13580129 -0.15556511 -0.15360965 0.32016602
000100 25 f6 f2 3d 67 95 b5 3e a6 67 f5 bd ce e0 52 be
       0.118633546 0.35465547 -0.1198266 -0.20593569
000110 ba 97 4e 3e 5b f9 54 bd 00 1f 0f 3e 7b ab b1 3d
       0.20175067 -0.051995616 0.1397667 0.086752854
000120 cb d1 89 3e c7 7a b8 be c5 d3 51 be d1 b2 bd 3d
       0.26917872 -0.36031172 -0.2049094 0.09262622
000130 94 08 04 3e 1d a2 4f bd 26 eb 5e 3e 12 c0 6f 3e
       0.12893897 -0.050691713 0.2176939 0.23413113
000140 8e 58 e2 be a1 1c 75 be de 42 84 3e e7 9b 70 3b
       -0.44208187 -0.23936702 0.25832266 0.0036714019
000150 99 64 ed bd cf 71 d4 be dc d6 d5 be 5b b4 b7 3c
       -0.11591453 -0.4149308 -0.41765487 0.022424867
000160 e0 a6 01 bd 53 64 92 be 8d 97 52 3d 17 41 5b be
       -0.031653285 -0.28592166 0.05141406 -0.21411549
000170 6e c0 2d be c1 7e 59 be a3 92 24 be 09 aa 18 be
       -0.16967937 -0.21239759 -0.16071562 -0.14908613
000180 22 b4 a2 3e 28 a5 19 bd d5 21 18 3e af 0b 7d be
       0.31778055 -0.03751102 0.14856656 -0.24711488
000190 ea 0e 2f be 6a 72 3a 3c e4 5b e5 3c 06 fa 82 be
       -0.17095533 0.0113798175 0.027997918 -0.25581378
0001a0 99 94 26 bd 4d 5f 49 be c2 df bc 3b af ae c6 bd
       -0.040669058 -0.1966526 0.0057639787 -0.09701287
0001b0 5f a2 86 3c 06 a3 7a be d1 1d c4 bc 53 7f 16 bd
       0.016434846 -0.24476251 -0.023939999 -0.03674252
0001c0 cc 9d 52 3d 91 f9 58 be 12 14 69 3e a1 21 81 3d
       0.051420018 -0.21188952 0.22761562 0.06305242
0001d0 2f 83 78 3e ec 9d d0 3d f9 f8 64 be 71 6d 1b 3e
       0.24268793 0.10186371 -0.223606 0.15178467
0001e0 08 cf 98 bd 4c d8 ab bd 66 93 38 be db b0 24 be
       -0.07461363 -0.08390865 -0.18024978 -0.1608309
0001f0 d0 55 4f 3d 5f 8f 16 be 77 4f 9d 3d 9f 80 97 be
       0.050618947 -0.14703129 0.07681172 -0.29590318
000200 65 61 84 3e 60 0b 0a be 09 93 14 3e de da 6b 3d
       0.25855556 -0.13480902 0.14509214 0.057581775
000210 11 79 9c 3e 22 41 5c 3e f0 9a 1f 3e e9 5b 3e be
       0.30561116 0.21509221 0.15586448 -0.18589748
000220 d1 65 40 bd 7b e6 71 bd d6 ac 1a bc 53 e1 46 be
       -0.0469721 -0.059057694 -0.009440621 -0.19421892
000230 58 d8 4f 3e 3f c7 5e be 25 73 16 3e 4e 0d 06 3d
       0.20297372 -0.21755694 0.14692362 0.032727532
000240 d3 88 ff 3d 8f 7f 7e be 39 73 07 3f f6 db 8d 3c
       0.12477269 -0.24853347 0.5291019 0.0173168
000250 01 e8 0d 3e 34 9e 20 be 9d 8f e7 bc 6f ef 61 3d
       0.13858034 -0.1568535 -0.028266722 0.055159982
000260 97 b6 96 be a1 d2 76 3e 5c 57 24 3e e9 61 65 3c
       -0.2943618 0.24103786 0.1604895 0.014000394
000270 1e eb b8 3c 70 c4 e1 bc 43 13 42 3e af 47 55 be
       0.02257305 -0.027559489 0.1895266 -0.20828126
000280 c1 2e 84 be 0a ba 88 bd 0e db 9a bd 73 e9 d5 3d
       -0.2581692 -0.06676109 -0.075613126 0.104449175
000290 87 6b fa 3d b2 ef 13 be 57 4f 59 bb 0a 44 80 3d
       0.122275405 -0.14446905 -0.0033158862 0.062629774
0002a0 7e 4d b9 3d 31 46 f8 bd 38 83 46 3e ca ec 26 3e
       0.090479836 -0.12122763 0.19385993 0.16301265
0002b0 0e 87 b9 3c 5c 3d 09 be ec a9 b5 bc fc 31 52 3d
       0.022647407 -0.13402313 -0.022175752 0.0513172
0002c0 f6 bb 95 bb 4b 55 77 bc e0 49 f1 3d 7c 53 42 3e
       -0.004569526 -0.015096019 0.11781669 0.1897716
0002d0 c9 fe 43 bc 9d c6 0d bc 77 23 74 bd ea d4 4c bc
       -0.011962601 -0.00865331 -0.059604134 -0.012501935
0002e0 bf 9b 18 3e e4 9a 37 3e 0c 22 e7 bc d4 bb ad bd
       0.14903162 0.1793018 -0.028214477 -0.08483091
0002f0 8c ff f6 3e bc 96 85 3d 53 ad dc bc a1 52 0b bd
       0.48241842 0.06522891 -0.026938116 -0.034014348
000300 87 cd 94 bd 49 8d ee bc ca ce 5f bd 1d 27 61 3d
       -0.07265764 -0.029120104 -0.05464057 0.054968942
000310 12 e6 26 3e d2 1a ad 3e 81 ae ac be b8 98 87 be
       0.16298702 0.33809525 -0.33726886 -0.26483703
000320 d1 6b 1c bd 2e 18 4e 3e ff 37 85 bd c2 30 d9 3c
       -0.03818876 0.20126411 -0.06504821 0.026512507
000330 24 a1 36 3e 8b 30 3c be a8 8e 8e be ff ff 31 3e
       0.17834908 -0.18377893 -0.27843213 0.17382811
000340 84 be 16 be f7 1e 0f bd 30 67 83 be 1a 1c 0a 3e
       -0.14721113 -0.03494164 -0.25664663 0.13487282
000350 bc b8 73 3e 2a b4 ac 3d 0c 6d 36 be c0 4b 41 be
       0.2380094 0.08432801 -0.17815036 -0.18876553
000360 2f e6 65 be ce dd 83 3e 5d cd 55 3e 8c b8 a0 3e
       -0.2245109 0.2575516 0.20879121 0.31390798
000370 67 5c b2 3d b3 25 16 3c 48 14 32 3e 16 2e e3 bd
       0.087090306 0.009164262 0.17390549 -0.110927746
000380 24 74 96 be 3a 84 0b bf cd 04 01 3e ee 8a a7 bd
       -0.29385483 -0.54498637 0.12599488 -0.081807956
000390 db 3e 43 be 1f 91 47 be a6 a0 24 3d 26 29 a1 be
       -0.19066946 -0.19488953 0.04019227 -0.31476706
0003a0 ec 7c bc be c8 4c 2a 3e bc fd 3b be ed 78 1d 3e
       -0.36814058 0.16630852 -0.1835851 0.15378161
0003b0 e5 94 5f bd 47 a2 1d be 32 b9 f8 bc 21 a3 9e be
       -0.054585356 -0.15393935 -0.030361746 -0.30983832
0003c0 64 48 0e be d5 7b 9b be 8b 3c 73 3e 11 38 2e be
       -0.13894802 -0.30367914 0.23753564 -0.17013575
0003d0 b9 5e 13 3e 48 7b 02 3d 65 7b 09 3e ad 44 b0 bd
       0.14391603 0.03185585 0.13425978 -0.08606849
0003e0 ff 20 ec 3c 6a 47 d8 bd 8f 53 75 3d 79 da 7e 3e
       0.028824328 -0.10560496 0.05989414 0.24888028
0003f0 65 a6 13 be 78 4e af 3d e1 3e 49 bd 74 4d 86 be
       -0.14418943 0.085598886 -0.04913223 -0.26230967

model._model.a2c_network.actor_mlp.2.bias f4 [256]
000000 64 7b 29 be 45 82 e4 bd 92 73 d9 bc c7 28 0d be
       -0.16550976 -0.111576594 -0.026544366 -0.13785087
000010 d4 b1 9b 3b 6f 4f 1c bf df 75 76 3c e1 3f ac bd
       0.0047514234 -0.61058706 0.015042751 -0.084106214
000020 78 a6 cf bd 4f 57 e6 3c f2 2d ef be 0b b3 51 be
       -0.10139173 0.028117804 -0.4671474 -0.20478456
000030 9f e9 c1 bd 39 58 ce bc 71 f6 df bd e8 38 c4 bc
       -0.09468388 -0.025188552 -0.10935677 -0.023952916
000040 45 a5 db bd ad 8a d7 bc e6 63 6d bd 7d b5 9d bd
       -0.10724882 -0.026311243 -0.0579566 -0.07700632
000050 c5 a6 69 be 16 09 d0 bd 56 88 93 bd a2 52 ef bd
       -0.22817524 -0.10157983 -0.072037384 -0.11685683
000060 7e f3 97 3c c3 77 c3 bd 22 7d b5 3d 16 41 e5 bc
       0.018548723 -0.09544327 0.08861758 -0.027985137
000070 d0 34 cc bd d2 02 1f 3d 57 ed 83 be 7e 9f cc be
       -0.09971011 0.03882105 -0.25767013 -0.39965433
000080 9a 76 e4 3d 0e 43 c7 bc 43 6e b7 bd 1e c5 81 be
       0.11155434 -0.024323966 -0.08956578 -0.253457
000090 c2 f9 4b be 03 e2 9e bd 38 2e f0 bd 4a 09 15 be
       -0.19919494 -0.07757952 -0.117275655 -0.14554325
0000a0 c0 df 91 be cd fc b8 be 54 8d 0d 3d c2 f6 03 bd
       -0.2849102 -0.36130372 0.03455861 -0.03221775
0000b0 ea c0 29 be 18 ab ad bc 6b 45 06 be 18 15 6c 3d
       -0.16577497 -0.021199748 -0.13112418 0.057637304
0000c0 29 00 74 bd e9 08 48 bb ef 47 48 3e 9c ba 23 bb
       -0.059570465 -0.003052289 0.1955869 -0.0024983054
0000d0 35 9d 91 3d b4 18 22 be 19 10 89 bd ba a3 0b be
       0.07110063 -0.15829736 -0.066925235 -0.13636675
0000e0 df 52 37 be 08 58 49 be f4 02 4f bd c8 b9 10 3d
       -0.17902707 -0.19662488 -0.050539926 0.035333425
0000f0 7b 43 9c bd 68 86 a0 3d 16 de ab bd 0f 2b 56 bd
       -0.076300584 0.07838136 -0.08391969 -0.052287158
000100 e2 d6 c7 bb 46 b0 11 3d 01 23 ad be 3d 18 13 be
       -0.006098614 0.035568498 -0.33815768 -0.14364715
000110 e2 43 e7 bd 9d 50 72 3b 7e 7c 5c be 81 1f c5 bc
       -0.112922445 0.0036974319 -0.21531865 -0.024062874
000120 b0 07 ad bd c2 c4 d3 bd c7 2b f2 bd 02 3d 81 3d
       -0.08448732 -0.10340263 -0.11824756 0.063104644
000130 63 65 ca bd cd ce 96 bd 91 a5 18 3b 62 ac 03 bd
       -0.09882619 -0.07363663 0.0023292045 -0.03214682
000140 06 5c 8b 3d c6 66 8b bc d7 f8 c6 bd eb 0a cd bd
       0.068046615 -0.01701678 -0.09715431 -0.10011848
000150 ab d7 16 be 92 03 67 bd 8e 6b 3c 3d db 04 7c be
       -0.14730708 -0.05639989 0.04600101 -0.24611227
000160 0f df f2 3d 1e b5 2c be 0e dd 37 bd d6 06 f7 bb
       0.11858951 -0.16865966 -0.04488855 -0.0075386567
000170 8e 25 a0 bd 66 f8 a9 bd 9e 6d a6 be 1f 03 65 3c
       -0.07819663 -0.08299331 -0.32505506 0.013977795
000180 7f 75 04 be 4f 28 06 3d a9 b2 69 bb 40 f7 c6 bd
       -0.12935446 0.032753285 -0.0035659468 -0.09715128
000190 f0 79 24 bc 2f 90 f5 bd 08 32 51 be e7 ad ff bd
       -0.010038838 -0.119903915 -0.20429242 -0.12484341
0001a0 52 c4 87 3d 4a af 17 be 55 5d 92 bd af 3f 16 3d
       0.06629242 -0.14812961 -0.07146708 0.036681827
0001b0 6c a8 0a be f6 dd 40 bd f9 7f 24 be 96 e0 e7 bd
       -0.1354081 -0.04708668 -0.16064443 -0.11322133
0001c0 1a cd 14 3a 4c 11 7a be d3 b7 9d bd c7 28 d1 bc
       0.00056763145 -0.2442066 -0.07701077 -0.02553214
0001d0 43 f6 f1 bd 6d 16 7a be fd cc d4 bc c4 d8 cf bd
       -0.11814549 -0.24422617 -0.025976652 -0.10148767
0001e0 b7 82 25 3d 40 2f 44 3d 27 a1 f9 bc 32 aa c6 3c
       0.040407863 0.047896624 -0.030472351 0.024251077
0001f0 68 2b bf 3d 3b c4 f2 bd 4e 60 bd bd 94 0a 65 be
       0.09334451 -0.11853834 -0.09246884 -0.22367316
000200 3a 8a 20 bd bf f6 0c 3d 81 fe ed be b7 58 28 3d
       -0.039194323 0.034415003 -0.46483234 0.04110023
000210 5e 76 7b bd a6 91 7c bd 53 4d d3 bd e7 f9 16 3d
       -0.06139218 -0.06166234 -0.10317483 0.03685942
000220 93 10 1e be de f4 b4 bb 56 7f 99 bd f0 9d b6 bd
       -0.1543601 -0.0055223545 -0.074949905 -0.08916843
000230 5c ee 95 3d 9b f3 16 be ef e4 d5 bd 56 5a f5 bd
       0.07320854 -0.14741366 -0.10444056 -0.11980121
000240 d3 b1 6d be 59 73 24 bf 55 6b 28 3c 00 57 5b be
       -0.23212366 -0.64238507 0.010279496 -0.21419907
000250 73 df 30 be ab d5 75 be f5 7a c0 bc 7a 1b b0 3c
       -0.17272739 -0.24007289 -0.02349613 0.021497477
000260 74 75 a9 be 73 9f c9 bd f4 c3 d3 3c dd fc e5 bc
       -0.33097422 -0.09844866 0.025850274 -0.028074676
000270 4e 1f 83 be 0e 31 0a 3d ea 59 0a be a5 6b 0c 3e
       -0.2560982 0.03373819 -0.13510862 0.13712938
000280 1e b8 23 be f1 89 70 bd 04 ae 4d bd 35 8c 88 3c
       -0.15988204 -0.0587253 -0.050214782 0.016668418
000290 d3 4e 25 bd cf 2f 3a 3e df 61 35 bd 8d 4e 28 3e
       -0.040358376 0.181823 -0.04428279 0.16436215
0002a0 ae 47 bf bd d8 f7 0e be 91 52 fd bd 35 24 1e 3d
       -0.09339844 -0.13961732 -0.12369264 0.03860875
0002b0 13 8b c2 bc 1d f6 a0 3a c6 f5 83 be c4 d1 b1 bd
       -0.023747956 0.0012280379 -0.25773448 -0.08682588
0002c0 e7 3a 1f be ab b9 54 bd 93 d0 e4 be 42 a8 61 be
       -0.15549813 -0.05193488 -0.4469038 -0.22036842
0002d0 6f 03 fc bd 3e fc 17 bd e8 f6 57 be bc a9 87 3c
       -0.123053424 -0.03710579 -0.21090281 0.016560428
0002e0 01 b4 a2 bd 50 a3 9a bd 61 d6 3a bc 35 c0 24 3d
       -0.07944489 -0.07550681 -0.011403651 0.040222365
0002f0 99 a0 55 3d 2a 6e c6 bd d5 94 43 ba ab 0d 08 bc
       0.05215511 -0.09688981 -0.00074608374 -0.00830404
000300 db a8 8f bc b6 93 78 bb a4 94 0f be a8 e1 ca be
       -0.017536571 -0.003792984 -0.14021546 -0.39625287
000310 58 9d 0d be 90 cc 65 3b a8 64 1a bd 16 4d 43 be
       -0.13829553 0.0035064556 -0.03769365 -0.19072375
000320 34 12 3c be 2a de 17 bd ae ef 12 3c e1 71 9d bd
       -0.18366319 -0.037077107 0.008968277 -0.07687736
000330 ea 01 35 be 7c bc 18 bd e5 8b 21 bd 16 98 07 39
       -0.17676511 -0.037289128 -0.039440054 0.0001293126
000340 4f 4b 8e bc fd 0d f9 ba c6 46 44 bb a2 d3 0b be
       -0.017369894 -0.0019001361 -0.002994941 -0.1365495
000350 e3 f2 c6 bd 1a 31 6f be cd 22 29 be f2 e4 3c be
       -0.09714296 -0.23358575 -0.16517182 -0.1844671
000360 6b 0c 4c 3d 43 83 57 3c dd ae 48 3d b0 06 9a bc
       0.04981653 0.013153854 0.048994888 -0.018802017
000370 8a 76 1b bd 7d 8b bb 3d c9 c2 24 be 29 bb 45 bd
       -0.037954845 0.09157465 -0.1608993 -0.048274193
000380 37 ba 75 3d b9 2d 06 3d f8 98 d6 be 83 f4 09 be
       0.05999204 0.03275845 -0.4191358 -0.1347218
000390 83 92 03 be de d1 80 bd 1b 8c 51 bd 5d 75 5a bd
       -0.12848859 -0.06290029 -0.051159006 -0.053334583
0003a0 b3 06 94 bd 30 9d 9a bd 4f 79 e9 3d 62 94 4b bd
       -0.0722784 -0.075495124 0.11400091 -0.049702056
0003b0 e5 a9 53 bb 4a 61 1f bd e3 95 6e be ee e2 43 be
       -0.003229731 -0.03891114 -0.23299365 -0.19129536
0003c0 64 28 73 be ea 7e d6 bd a1 53 9a bd c5 86 d8 bd
       -0.23745877 -0.10473426 -0.07535482 -0.1057258
0003d0 80 c0 10 be fa d0 70 be 34 da b1 bd 76 c1 04 bd
       -0.14135933 -0.23517218 -0.08684197 -0.03241106
0003e0 2e ff b9 be 46 0a cb bd 52 0c ff bd fe 57 18 be
       -0.363275 -0.09914069 -0.12453522 -0.14877316
0003f0 e0 63 10 be e0 9f 87 bd 4a 8d 03 3d ca c9 5b be
       -0.141006 -0.066222906 0.032117166 -0.21463695

model._model.a2c_network.actor_mlp.2.weight f4 [256, 512]
000000 4e 87 fd 3b 7d 5f b8 bd 55 53 0e 3e 0e ea e8 bd
       0.007737077 -0.09002588 0.13898976 -0.113727674
000010 66 d0 9d bc c9 9c 1c bd 91 f7 d9 3d 45 6c ba bc
       -0.019264411 -0.03823546 0.10642923 -0.022756705
000020 06 14 21 bd 38 3f 91 be d7 f1 a7 bd da 54 8e bd
       -0.039325736 -0.28368545 -0.08200424 -0.06949778
000030 91 d5 14 be 91 90 57 3c 9b ba ac 3c 9f 31 f7 bd
       -0.14534594 0.013157026 0.021085074 -0.12070011
000040 c1 0a 0d be c3 ba 34 bd 0b cb 89 ba bb 5c 2a be
       -0.13773634 -0.044123422 -0.0010512782 -0.16636936
000050 ae 8c 29 be f1 11 3d be 2b 33 49 3d 1b f1 0d 3c
       -0.16557571 -0.18463875 0.049121063 0.008663441
000060 4b ad f9 3d 52 98 01 3e 6f 1e 97 bd f2 45 e5 bc
       0.12191256 0.12655762 -0.073788516 -0.027987454
000070 fb 77 b8 bc 8f 07 6b bd c8 a0 82 bd 7b ae ad bc
       -0.022518149 -0.057380255 -0.06378323 -0.021201363
000080 88 51 20 be 4a 8d d2 39 e0 ef 32 3e 42 0b 23 3e
       -0.15656102 0.0004015959 0.17474318 0.15922263
000090 5e 89 08 be 6b b2 a6 bd 2b 7a e9 bd 54 c0 41 3d
       -0.13333651 -0.08139499 -0.11400255 0.04730256
0000a0 b2 1e f6 bd 98 4e af bc b3 86 26 be d6 b2 d6 bc
       -0.120175734 -0.021399781 -0.16262321 -0.026208322
0000b0 e1 f7 37 3d 2a 97 3d be fb 31 02 3e 41 3d a5 bd
       0.04491413 -0.18514696 0.12714379 -0.08068324
0000c0 5d 1d b0 bd a9 21 36 3d 2c 68 c7 bc a4 fd 10 be
       -0.085993506 0.044465695 -0.024341665 -0.14159256
0000d0 b9 0b 0c 3d c5 68 c5 3d ea ba 24 be 81 d0 58 be
       0.034190867 0.09639124 -0.16086927 -0.21173288
0000e0 6e b7 d4 3d 3e b6 2d bd 3a 1a bb bd cb 24 80 3c
       0.10386549 -0.042410128 -0.09135862 0.015642544
0000f0 82 be 65 3d ad 07 02 be f2 4b 8d bd bc 98 01 3e
       0.056089886 -0.1269824 -0.06899251 0.1265592
000100 f5 c9 74 3d 55 37 35 3e 0c 04 b9 bd 15 6e 71 3d
       0.059762914 0.17696889 -0.09033975 0.058942873
000110 f1 a4 81 bb e3 84 11 be 89 6f 11 3e 8c 49 df bd
       -0.00395643 -0.14210849 0.14202704 -0.109027
000120 ca d5 69 bd 31 36 81 bd 8b 56 e2 3c 51 59 49 3e
       -0.05708865 -0.06309164 0.027629158 0.19662978
000130 2b 81 35 bd f7 8d 72 3d d3 4d 89 bc 54 95 1a be
       -0.044312637 0.05921742 -0.016760742 -0.15096027
000140 ee 56 4b 3d 45 9e ec bd 4f f6 e4 bd d6 2b 7f be
       0.04964345 -0.11553625 -0.11179792 -0.24919066
000150 8d 77 01 3c 27 35 0a bd d0 2c 1a bd 2f 21 96 3d
       0.007902038 -0.033742096 -0.037640393 0.07330548
000160 99 d9 3b be 52 b6 21 bd 7e 34 47 3d 06 dd 39 3d
       -0.18344726 -0.039480515 0.048634045 0.0453768
000170 74 2d b1 bd ee 7c 7c 3d 95 92 b0 bd ad 31 3f be
       -0.086512476 0.06164258 -0.08621708 -0.18671294
000180 99 7e d4 bd 4d 7b ee bd 6d 21 d1 bd 98 80 9e 3d
       -0.10375709 -0.116446115 -0.102114536 0.07739371
000190 f7 db 2f bd 86 79 38 be c8 0e 0d be 9e af 16 be
       -0.042934384 -0.18015108 -0.1377517 -0.1471543
0001a0 1c 27 e6 bd 19 e0 f2 3d eb da ff bd 10 a7 0d bd
       -0.11237928 0.118591495 -0.12492927 -0.03458315
0001b0 7b 0d 35 bb 2b af 83 3e 0e fb 1c be c5 bc 31 3e
       -0.0027626443 0.2571958 -0.15330145 0.17357166
0001c0 ff 96 1d 3e bd 8a 97 ba ff 28 32 3c b0 52 17 bd
       0.15389632 -0.0011561733 0.010874032 -0.03694409
0001d0 4a c3 cc 3d c9 b1 59 be ab fe d3 3c af db 78 bd
       0.09998186 -0.21259226 0.025878271 -0.06075638
0001e0 bd cf 89 be 93 96 45 3d 93 2e 03 3d 7a 1a 42 be
       -0.26916304 0.048239302 0.03202684 -0.18955413
0001f0 7e a8 80 3d af 34 a9 3c 17 14 ae ba 83 6b 77 3c
       0.06282137 0.020655004 -0.0013281134 0.015101316
000200 ae 99 0f bd 61 28 ed 3d d1 84 1c 3c 7c ad 2b be
       -0.03505867 0.11579967 0.00955315 -0.16765398
000210 1c 60 59 3a 50 2b 8c bd 80 e0 ad bd 43 f6 8c bd
       0.00082922145 -0.06844199 -0.084900856 -0.06882908
000220 ba 69 80 be e2 21 7f 3b 37 08 fc 3c a8 85 b9 3a
       -0.25080663 0.0038930108 0.030765636 0.0014154213
000230 ae 19 c3 bd 7a 56 5c 3d fd 08 a1 bd 53 90 ee 3c
       -0.095263824 0.053793408 -0.078630425 0.029121554
000240 12 18 d6 3c db 96 3a bc b3 f2 39 be 80 9d 93 3e
       0.026134524 -0.011388506 -0.18158989 0.288311
000250 75 e8 b5 bd 60 19 50 3d ee 90 93 bd eb 24 ae bd
       -0.08882228 0.05080545 -0.072053775 -0.08503135
000260 cf dd 64 bd 65 d9 b4 3d 01 f2 6e 3b 27 7d 06 3e
       -0.055875596 0.08830527 0.0036460164 0.1313368
000270 f5 62 82 bd c2 ae 55 bd af 09 6e bd 09 86 8f 3d
       -0.06366531 -0.052168615 -0.058114704 0.07007987
000280 f0 18 1a 3d 9c 1e 24 3b 43 ab 12 bd c1 6f 19 3d
       0.03762144 0.0025042659 -0.03580786 0.037460092
000290 d1 bd a3 bd 83 1f ed 3d fe d0 3c 3e 87 8d 2d 3d
       -0.07995189 0.11578276 0.18439099 0.0423713
0002a0 d3 5b 24 3d 28 d3 f6 bc 8f 4d 6c bc 14 93 ba bd
       0.040126633 -0.030129984 -0.014422788 -0.09110084
0002b0 a4 7e 91 bc a5 f0 43 be 7e e3 be bd 1e d5 02 3d
       -0.017760582 -0.19134767 -0.093207344 0.031941526
0002c0 d0 44 c5 bd 11 d9 e2 bc d8 21 a4 3c 28 2f 1b bd
       -0.096322656 -0.027691396 0.02003567 -0.03788677
0002d0 c7 82 29 bd 9f ca a4 3c ee aa 3c 3d 35 6e 46 bd
       -0.041384485 0.020116149 0.04606145 -0.048444945
0002e0 15 54 b6 3b 12 98 28 bc fa 36 03 bd 31 d6 56 bd
       0.0055642226 -0.010290163 -0.03203485 -0.052450363
0002f0 51 5b 51 bc 9e b4 f4 bd e1 6d 8c bd 40 a9 fe bc
       -0.012778119 -0.119485125 -0.06856895 -0.031086564
000300 cf 21 93 bd ea 58 81 bd a9 b9 7a 3c a5 24 3c be
       -0.07184183 -0.06315787 0.015303054 -0.18373354
000310 14 8a 35 bd 11 c8 36 3d 74 2f ee bd 0e 6c b9 bd
       -0.044321135 0.044624392 -0.11630145 -0.09053813
000320 46 4c 15 bd 5d f6 06 bd 8c b2 c5 3d 0c af 65 3d
       -0.036449693 -0.032949794 0.09653196 0.05607514
000330 80 6d 75 3e df 0d 87 3c 3b 78 d0 bd d7 49 f4 bd
       0.23967552 0.016486106 -0.10179182 -0.11928146
000340 1b 89 9f 3c d6 b5 92 3b f1 a3 b6 3d b8 f6 82 be
       0.019474557 0.004477243 0.08917988 -0.25578856
000350 5e d5 55 bd 13 48 14 3e 4b 28 24 3d 9c bf 25 be
       -0.052205436 0.14480619 0.04007749 -0.16186374
000360 70 49 7a bd 6c af ee bd 36 46 82 be 70 ca b2 3d
       -0.06110519 -0.11654553 -0.25444192 0.08730018
000370 17 3d f9 3d ac 08 b6 bc fd 32 17 3e 37 81 2c 3c
       0.12169855 -0.022220932 0.14765544 0.010528854
000380 95 5f 1d be 14 a9 9a bd 2b 31 0d 3c c9 f5 8c 3d
       -0.15368493 -0.0755178 0.00861768 0.06882817
000390 2c 2d ae bd a5 86 2d bb cc 4a 2f 3c 40 34 d2 bd
       -0.085047096 -0.002647796 0.010698985 -0.10263872
0003a0 d4 99 a0 bd 9a a6 0e bc 81 d0 ad 3d 6d c0 db 3d
       -0.078418404 -0.008706713 0.084870346 0.10730062
0003b0 a4 81 d4 bd b0 72 1c bd 95 9c 26 3e 88 4f 46 bd
       -0.103762895 -0.038195312 0.16270669 -0.04841569
0003c0 db 49 30 3e 39 9a 63 be 7c 80 df 3c 4c fc e4 bd
       0.17215674 -0.222268 0.027282946 -0.11180934
0003d0 01 5a 94 3d d2 41 b5 3d d3 f9 9e bd 10 3f 32 3c
       0.072437294 0.08850445 -0.07762494 0.010879293
0003e0 4d 4d af bd db 78 2d 3e e1 8c bf bd b6 c9 3e bd
       -0.08559666 0.16940634 -0.093530424 -0.046579085
0003f0 ca bd 2c 3c e2 3b 12 3e 5b 0f 82 bb 91 ce e5 bc
       0.010543296 0.14280656 -0.0039691157 -0.0280526

model._model.a2c_network.actor_mlp.4.bias f4 [128]
000000 b2 0f 8c 3a 9d 56 16 3d 40 4d c3 bd 7e a9 9a bc
       0.001068583 0.036703695 -0.09536219 -0.018879648
000010 e2 48 29 be f7 80 8c bd 48 37 d8 bc e2 82 ed bc
       -0.16531709 -0.068605356 -0.026393548 -0.028993074
000020 ac 39 1e bd 3e f1 6f bd 91 bf 25 bd e4 45 92 be
       -0.03862922 -0.058579676 -0.040465895 -0.28568947
000030 4f 77 ed bd 5a 80 6c bd 91 e2 a9 bd 9f 4f 17 be
       -0.11595022 -0.057739593 -0.08295167 -0.14776467
000040 13 86 16 be d1 67 fd 3c 39 dc a0 bd fd c9 91 bd
       -0.14699583 0.030933293 -0.07854504 -0.07118604
000050 0f 0a 0b bd 68 91 10 3d a1 3b 2c be fb 0f 54 be
       -0.03394514 0.03529492 -0.16819622 -0.20709221
000060 16 99 1c be 5a fb 80 3d 66 35 20 be 7f 31 e2 bd
       -0.15292773 0.062979415 -0.1564537 -0.11044597
000070 f9 ff 83 be 79 d2 96 3d 6d aa be bd d3 30 2f bd
       -0.2578123 0.07364363 -0.0930985 -0.04277117
000080 60 e8 f4 bd 55 b8 f3 bc 04 ef dd 3c a0 94 6e bc
       -0.119583845 -0.029750982 0.02709151 -0.014561802
000090 72 af ec bd 34 95 36 be be d4 b5 3a ad 72 1b be
       -0.11556901 -0.17830354 0.0013872606 -0.15180464
0000a0 44 7f ae bd 18 6d f1 bd 12 30 fd bd 6a f6 d1 bd
       -0.08520368 -0.11788386 -0.12362684 -0.10252078
0000b0 0a c0 72 be a3 bb eb bc 72 bf 3c 3d c9 19 f2 bc
       -0.2370607 -0.028775996 0.046081014 -0.029553311
0000c0 ed 8b a4 bd f9 34 56 bd 6b 3b 47 bd 15 67 81 bc
       -0.08034501 -0.052296612 -0.04864065 -0.015796224
0000d0 18 54 82 be 6d e5 c7 3b f6 f2 37 3c f8 ce 13 3d
       -0.25454783 0.0061003477 0.01122736 0.036086053
0000e0 f6 70 ea bd ba 60 68 3d 22 ec 3b bb 1a 6c d1 3a
       -0.11447327 0.05673287 -0.0028674682 0.0015977651
0000f0 61 cc 91 bc 5e 12 60 bb 2e 6c cb bd 1c 23 8a bd
       -0.01779765 -0.0034190635 -0.09932743 -0.06744978
000100 3e 03 b8 bd 72 04 ca bd 55 66 ec 3b ff 0c 89 bb
       -0.089849934 -0.09864129 0.0072143474 -0.0041824575
000110 6d e1 3e 3d e9 ac 67 bd eb 99 18 be 7e 45 f4 3d
       0.0466017 -0.056561384 -0.14902465 0.11927317
000120 fa 22 3c 3d db 69 06 be 86 90 9b be d9 9d 27 3d
       0.045931794 -0.13126318 -0.303837 0.04092202
000130 63 63 99 bd 34 b3 9d 3d 3d 53 08 be 85 4d be 3c
       -0.0748966 0.07700196 -0.13313003 0.023230324
000140 43 cb 51 be 23 99 dc bd cc c4 9b 3c c8 c6 1f 3d
       -0.20487694 -0.10771396 0.019014739 0.039007932
000150 53 63 6a be 78 d7 25 3d 22 e4 cd bd 6a c5 ca bc
       -0.22889452 0.04048869 -0.100532785 -0.024752337
000160 2e f9 eb bd 2f 97 20 be d2 3d 48 bd e1 ca a3 38
       -0.11522137 -0.15682672 -0.04888708 7.810235e-05
000170 4c 60 b9 3d e2 94 2b 3c 9f b0 b0 bc 39 61 f0 bd
       0.0905157 0.010472508 -0.021568595 -0.11737294
000180 21 e8 f3 ba d6 23 5a 3d cf 09 3a 3c af 65 1a be
       -0.0018608609 0.053256832 0.011354878 -0.15077852
000190 b1 53 f7 bd f0 42 10 3c 29 76 72 be bb 80 26 be
       -0.1207651 0.008805022 -0.23677887 -0.16260044
0001a0 0b c2 4c be d7 44 3c be 1b 8f d0 ba 55 2f 04 be
       -0.19995897 -0.18385635 -0.0015911789 -0.1290868
0001b0 1e be 01 3d 79 c6 11 3b 67 6d aa bc 8a b3 2b be
       0.03167545 0.0022243543 -0.02080412 -0.16767707
0001c0 18 74 f4 3d 73 04 0e bd 88 52 14 bc ce 34 fb bd
       0.119362056 -0.03467221 -0.00905288 -0.12265931
0001d0 18 11 80 bd 14 88 13 3d 4f 56 22 3d 5a 89 d8 3c
       -0.062532604 0.036018446 0.03963309 0.026432682
0001e0 00 c9 fb bd ff c2 16 be 22 ee bc bd c3 2c d2 bd
       -0.12294197 -0.14722823 -0.09225108 -0.10262444
0001f0 a4 88 36 bd 14 db 6f bd a1 6d 6b be 1d ac 42 be
       -0.044563904 -0.05855854 -0.22991039 -0.19010969

model._model.a2c_network.actor_mlp.4.weight f4 [128, 256]
000000 4c 21 0f bd bc c9 16 bb 95 1a 4f bd df b2 0f 3c
       -0.034943864 -0.0023008427 -0.05056246 0.008770674
000010 21 d8 e0 bd 08 e9 d3 bb 75 a4 e3 3c e1 df 89 3c
       -0.10978723 -0.0064669885 0.02778838 0.016830387
000020 2b 49 5f 3d cf 0a 10 3c 96 21 e2 3c 4f 78 81 3c
       0.054513138 0.0087916395 0.027603906 0.015804438
000030 42 e5 22 3c a5 c5 5c 3b eb c6 8b bd ec 25 77 bd
       0.009942355 0.0033687141 -0.0682505 -0.0603389
000040 e0 14 30 3d 6d 54 24 3b 01 9c ca bd d3 30 f2 bc
       0.042988658 0.0025074736 -0.09893037 -0.029564297
000050 27 a3 52 bd 69 15 37 3c 2e d5 0c bd 17 91 99 bc
       -0.051425125 0.011174538 -0.03438299 -0.018745942
000060 69 37 3a bc c7 7e ef 3d b3 0e c3 37 3a 14 7f 3d
       -0.01136575 0.11694103 2.3252656e-05 0.06227515
000070 fe ab aa bb ea 9c 04 be 14 3c 5e bc 75 a6 25 3d
       -0.0052084913 -0.12950483 -0.013564128 0.04044195
000080 1c e7 8b bd 96 e9 00 bb 58 6d 43 bc 71 50 1b be
       -0.0683119 -0.0019670478 -0.011927925 -0.15167405
000090 8b 78 a2 3d 0b f9 b3 bd 43 f0 04 be 7c 0f 88 3c
       0.07933148 -0.087877356 -0.12982278 0.016608946
0000a0 da 7d 0d bd dc ee c7 3d 35 22 90 bc 14 d9 5e bd
       -0.03454385 0.09762356 -0.017594436 -0.05440624
0000b0 0d ad 98 bd 3e 97 24 bd ae 67 c8 bd 78 6c b8 bd
       -0.07454882 -0.0401833 -0.097854 -0.09005064
0000c0 7b 05 bc 3b 6a 9e 0f be 87 3c d3 3c 1f 35 6c 3c
       0.005737958 -0.14025274 0.025785698 0.014416962
0000d0 4b 3b 93 bc 20 7e 19 3d 8c 3d a1 bc 74 c7 33 3d
       -0.017972609 0.037473798 -0.019682668 0.043891385
0000e0 30 42 94 3c 39 ff 84 bc b9 fc 2c be c1 a5 5a bc
       0.018097967 -0.01623498 -0.16893281 -0.013345183
0000f0 72 10 3b 3d 2e 42 b0 bd 3b ff 06 3d 72 fa 9b bc
       0.04566998 -0.08606373 0.03295825 -0.01904032
000100 f4 8a e7 3c 21 30 9c bd 92 46 9d 3c e4 88 28 bb
       0.0282645 -0.07626367 0.01919869 -0.0025716359
000110 ce bc a6 3c 5d 8e 13 3d 0b 5b 7f 3b 3e ef a9 bc
       0.020353701 0.03602444 0.0038964178 -0.020743962
000120 a1 16 70 bd 90 41 c3 3c 5a f8 9d 3b cf 53 04 be
       -0.05861533 0.023834974 0.0048208656 -0.12922595
000130 5a bb f4 bc 40 d0 68 bd a4 82 cd bc 52 83 dc bc
       -0.029874492 -0.056839228 -0.025086708 -0.026918087
000140 3c d3 33 3c b7 ae c7 bd ae 66 b8 bd 89 ff c2 3c
       0.010975655 -0.09750121 -0.090039596 0.02380349
000150 50 7a 0d bc bb 9b 21 ba a2 db 95 bc 78 72 df bb
       -0.008635119 -0.0006164868 -0.018293206 -0.0068190657
000160 f5 2f c4 3c ff 60 7d bd 1b 8b 3e 3d 67 fd 8e bb
       0.023948649 -0.06186008 0.04651938 -0.004363704
000170 eb 47 0e 3d 65 a1 05 3d 67 19 ab bc ac 85 f4 ba
       0.034736555 0.03262462 -0.020886136 -0.001865556
000180 7b 37 fb 3c 93 d2 3e 3d 9f f9 91 bd c7 66 b9 3d
       0.030666104 0.046587538 -0.071276896 0.09052806
000190 e5 5a d7 bd 18 b6 cf 3c c7 fb a2 3d dc 79 ce 3c
       -0.10515384 0.025355384 0.07958179 0.025204591
0001a0 fa 7d 4f bd bd 50 a9 bc 51 78 b0 3d c1 07 68 be
       -0.05065725 -0.020668382 0.086166985 -0.22659208
0001b0 0d 75 2a 3b 85 bd c4 3d f4 09 08 3c 0a e1 28 bd
       0.002600971 0.096064605 0.008303154 -0.04123024
0001c0 26 31 7a bd 9a a5 72 bd 74 95 1c bd ca 2c a4 3b
       -0.061082028 -0.05923996 -0.038228467 0.005010222
0001d0 60 a0 fc bb 4e f4 95 3c d5 04 8f bd c3 85 88 bc
       -0.007709548 0.01830497 -0.069833435 -0.016665345
0001e0 eb 68 8f bc 5f 77 15 bd 51 71 57 3d ea 51 80 bd
       -0.017506083 -0.036490794 0.0525983 -0.06265624
0001f0 c6 d7 80 bd 34 76 3a bd 3e b8 c2 bd a9 7a 27 3d
       -0.062911555 -0.045522884 -0.09507798 0.040888462
000200 95 7e b5 3c 8f fc 73 bd 81 ac f2 3c 62 d4 26 be
       0.022155086 -0.05956703 0.029623272 -0.16291955
000210 fa c8 de bd d0 15 bf 3d da e3 59 3d 67 39 03 bc
       -0.10878177 0.09330332 0.05319581 -0.008009291
000220 af c4 4d 3d 77 06 b4 3d 27 36 2b bc a8 d6 12 3d
       0.0502364 0.087902956 -0.010449923 0.035849243
000230 d9 2e 8f bd 2f 4e c9 bd 86 de 86 bc e2 71 45 3c
       -0.06991357 -0.098293655 -0.01646353 0.012051078
000240 87 b8 b1 bb 44 4e 41 bb 8e d4 a0 bd 1d f7 bf 3d
       -0.0054236087 -0.0029496113 -0.078530416 0.09373305
000250 d8 60 ca 3d c8 c4 6d 3c 6d 6b 2f be fa 28 ac bd
       0.09881753 0.014512248 -0.17130823 -0.08406253
000260 af fe 92 3d 3d 4b bc bb a8 23 33 bc 9f 68 e5 bd
       0.07177483 -0.005746274 -0.010933794 -0.112015955
000270 1d 43 ec 3c ce bf 83 3d 74 67 e4 bd 8e 2a c5 bd
       0.028840596 0.06433068 -0.111525446 -0.09627257
000280 31 e8 43 bc d4 56 2e 3d cc 02 d5 bc 95 12 a7 bc
       -0.011957214 0.042563275 -0.02600231 -0.020394603
000290 5f 0b 89 bd 97 d4 30 bc eb 3d 9f bd 99 97 31 3d
       -0.06691622 -0.010792873 -0.07775482 0.043357465
0002a0 0f c7 66 3d d6 8f 68 3d 63 46 21 be f1 f4 9e bd
       0.05634218 0.056777798 -0.15749507 -0.077615626
0002b0 3c c4 0f bd 7d c0 74 bb 1f 41 af 3d b8 ad 2a be
       -0.035099253 -0.0037346177 0.08557343 -0.16667831
0002c0 46 1c 82 bd dd a1 27 3c ce 00 7d 3d 04 95 1e 3d
       -0.06353049 0.010231462 0.061768346 0.03871633
0002d0 d1 f6 f1 bd d4 31 40 bd ee 8c 76 bd de 35 62 bd
       -0.118146546 -0.04692252 -0.060192995 -0.055227153
0002e0 0b b5 44 3d 0d 44 99 bd 9b 6f 60 bd 05 c0 ef bd
       0.04802422 -0.07483683 -0.054793935 -0.11706547
0002f0 b9 76 5f be 14 d8 2b 3d c6 f8 7b bd f9 68 b6 3d
       -0.21822633 0.041954115 -0.061516546 0.08906741
000300 69 2c 81 3d 8d aa ab 3c 13 1b 87 bc 3b 65 64 bc
       0.06307299 0.020955348 -0.016492402 -0.013940151
000310 e3 b7 0a 3d 03 d2 c0 bc 43 3b 40 bc cf 2b d2 3c
       0.033866774 -0.023537641 -0.011732879 0.025655655
000320 4b ed 8a bd 47 4a b3 3d 2e f9 75 3d f9 45 1e bc
       -0.06783541 0.08754402 0.06005209 -0.0096602375
000330 94 f0 76 3c 67 48 6d bd 86 8f 96 be ad 44 23 bd
       0.015072007 -0.057930376 -0.29406375 -0.039860416
000340 8c 72 13 3c 20 90 fe bc 70 ea 23 3c 31 6c 2f 3d
       0.008999478 -0.031074584 0.010004625 0.04282779
000350 0b 9d 20 3a 11 f6 a7 3d 93 ea 99 bc 89 49 38 3d
       0.0006126917 0.0820123 -0.018788612 0.044992004
000360 34 f0 22 3d dc bb df bd b7 80 2c bd ab 2a 27 3d
       0.039779857 -0.10924503 -0.04211494 0.040812176
000370 69 fb 5f be 74 fe 43 bd f8 27 4f 3d 76 64 b2 bd
       -0.21873249 -0.047850087 0.050575227 -0.08710568
000380 a7 c7 5a bd 5b 4d 91 bd 32 fd 9c 3b 99 0b 26 3e
       -0.05341306 -0.070948325 0.0047909254 0.16215362
000390 7a 76 c3 bd c5 28 97 bd 89 3f 66 bd bb 80 33 3d
       -0.09544082 -0.07380823 -0.056212936 0.04382394
0003a0 bf a0 fd bd d5 80 ae bd 9d 1e b8 bd 3a b1 51 bc
       -0.123841755 -0.085206665 -0.08990214 -0.012798602
0003b0 31 46 bf 3a 5b f6 1f bd a6 2e 7e bd ec 95 05 bd
       0.0014593062 -0.039053302 -0.062056206 -0.03261368
0003c0 4d ce 1f bd 84 06 c0 bd fe 78 99 bd fa 4a cc bd
       -0.039015103 -0.09376243 -0.074937806 -0.09975238
0003d0 91 d5 12 bc 95 52 ca 3b 11 3f 3c bd 68 62 41 bd
       -0.008962051 0.0061743953 -0.045958582 -0.04721299
0003e0 c7 db be 3d 0a 7e cb 3d 99 2d d7 3d 10 fc fa bb
       0.09319263 0.099361494 0.10506744 -0.0076594427
0003f0 7b 31 a6 3c 18 b0 40 bc 17 d9 b5 bd d1 ea 05 3e
       0.020287266 -0.011760734 -0.08879297 0.13077857

model._model.a2c_network.value.weight f4 [1, 128]
000000 22 85 09 3d b3 a0 88 ba 46 f7 67 bc 99 c9 80 bd
       0.03357423 -0.0010423869 -0.014158076 -0.06288452
000010 3b a2 4a 3c 61 94 a6 3c 06 8c 43 3c 2b 07 79 3d
       0.01236778 0.020334424 0.01193524 0.06079785
000020 36 c0 09 bc ea 96 29 3d d6 83 75 ba c0 a8 de 3d
       -0.008407643 0.04140369 -0.00093656534 0.1087203
000030 5d f5 9d bc 1c d5 39 bc 62 65 43 bb 13 c4 22 bd
       -0.019282037 -0.011342313 -0.0029815068 -0.039737772
000040 48 6f 60 3c ae 34 28 3c 7f 01 d9 bb e5 6c 11 3d
       0.0136984065 0.010266466 -0.006622493 0.03550424
000050 b8 20 8b 3d bb ca 68 bc 5c 1e ef bb 97 a2 59 ba
       0.0679335 -0.014208491 -0.0072973203 -0.0008302121
000060 7d 44 7c 3b bb be 4c bd 09 dc c4 bb 6e cf c5 3c
       0.003849297 -0.049986582 -0.0060076755 0.024146762
000070 f3 9b 23 3d fa 4d 9d bd c1 ab 85 3b b7 da 83 3b
       0.039943647 -0.076808885 0.0040793126 0.0040238756
000080 17 33 8e bb e6 f8 20 3c 65 e4 1d 3d fb 71 96 3c
       -0.0043395865 0.009824967 0.038547892 0.018364897
000090 db 0a 0c 3c 18 e0 85 3d 8c 5e 3c 3d c0 22 86 3c
       0.00854751 0.06536883 0.045988604 0.016373992
0000a0 a5 19 36 3d cf 19 e6 3c 83 60 99 bb 7e 53 0a bc
       0.04445805 0.028088478 -0.0046806945 -0.008442758
0000b0 59 f6 7e bc 4b dc 5f 3d 3c 83 fb 3c dd bd 3a bd
       -0.015561664 0.054653447 0.030702226 -0.045591224
0000c0 07 42 a6 3c 59 5a 29 3d 36 94 cc 3c a7 90 68 bc
       0.020295156 0.041345928 0.024973016 -0.014194644
0000d0 e8 fc b2 bc 48 2f 8c 3c 90 70 90 3b 04 3b 11 bc
       -0.02184911 0.01711239 0.0044079497 -0.008864168
0000e0 3e f4 4f 3d b0 f1 93 3b d0 92 b3 3c 8d e0 a3 ba
       0.050770037 0.0045148954 0.021920592 -0.0012502834
0000f0 b4 f3 a7 bc 24 57 3e bd 52 2e 49 bb 99 24 e7 bb
       -0.020501949 -0.046469823 -0.0030697775 -0.0070539233
000100 42 c2 4c 3c 45 09 0b 3c 81 e3 55 bc a9 3c f2 bc
       0.012497487 0.008486097 -0.013054729 -0.02956994
000110 15 42 42 bd b6 74 81 bc 24 29 3c 3d 8e d6 91 3d
       -0.047426302 -0.015802722 0.045937672 0.07121001
000120 94 b6 88 3c a7 cf f1 bb be dc 33 bd ee 06 d5 bc
       0.016688623 -0.0073794904 -0.043911688 -0.02600428
000130 8c 3d 93 bc 3a 27 0f 3c 3f cd 9c 3c ae ed f0 bb
       -0.017973684 0.00873738 0.019140838 -0.0073525524
000140 5a e3 27 bc 0b c8 d6 3a 35 83 71 3c e8 f7 ce 3b
       -0.010247076 0.0016386522 0.014740755 0.006316174
000150 9e 66 9a 3c 31 12 c1 bc 8f b7 39 3d 54 21 63 bd
       0.01884776 -0.023568245 0.04534107 -0.055451706
000160 72 b0 16 3c 2b 1a c9 3b 8d a6 66 bd 6b 93 30 3d
       0.009197341 0.0061371527 -0.05631118 0.04310934
000170 e0 e8 3a bd c7 60 92 bc 33 4a 4a bc ce cd f7 bb
       -0.045632243 -0.017868413 -0.012346792 -0.0075623756
000180 7d 1f 4c 3b 3e ca b3 3d d1 a3 5c 3b fb fd b6 3b
       0.0031146698 0.08778809 0.0033666978 0.005584476
000190 1b ef 7e 3d ca 9b 17 3c 67 8f f1 bc c1 07 ae 3d
       0.062239747 0.009253452 -0.029487325 0.08497573
0001a0 1e 01 a5 b8 52 73 41 3d 1d 00 bb 3b e3 5e b2 bc
       -7.868021e-05 0.04722912 0.0057068006 -0.021773761
0001b0 29 65 f4 bb 19 06 21 bd 98 7d 35 3a 2e eb d5 bb
       -0.0074583483 -0.039312456 0.0006923317 -0.0065282797
0001c0 a1 96 60 bb 5a f8 a5 bc 6d 4e 47 bd 3d 9b 7c bc
       -0.003426947 -0.020260025 -0.048658777 -0.015417871
0001d0 cf 78 fa 3b 21 be 85 3c 23 96 2e bd f9 0a 4f bb
       0.007643796 0.016326012 -0.04262365 -0.0031592234
0001e0 e4 f9 d6 bc e6 0b 57 3c 22 f9 55 3c 35 1d 51 3c
       -0.026242204 0.013125395 0.013059886 0.012763311
0001f0 d8 01 1c 3d cb 81 4b 3d dc b7 f7 3c d8 35 ae 3b
       0.038087696 0.049684327 0.030239038 0.0053164773

model._model.a2c_network.mu.bias f4 [5]
000000 82 aa 8d bd ba f6 fd bc d1 30 ba bd 5c ce b9 bd
       -0.069172874 -0.031001437 -0.09091342 -0.09072563
000010 3d 7a b5 bd
       -0.08861206

model._model.a2c_network.mu.weight f4 [5, 128]
000000 92 b7 95 3c 78 8c 33 bc 07 3f 54 bc 56 14 b1 3a
       0.01827601 -0.010958783 -0.01295448 0.0013510089
000010 4f c6 65 3c 09 b5 7a ba 48 95 aa 3a f4 9c 81 3c
       0.014024331 -0.00095637195 0.001301446 0.015821911
000020 0a 5b 6a b8 27 c4 91 3c 8c 7e 3b bd 27 ce 71 3d
       -5.5874734e-05 0.017793728 -0.04577498 0.059034493
000030 54 a6 b6 ba 5b 3c 78 bc d5 36 6c 3d ec 6e 88 3d
       -0.0013935068 -0.015151109 0.05766948 0.06661782
000040 84 8b 20 3d 47 23 fa bc cb 07 66 3c 46 62 92 bc
       0.039195552 -0.0305344 0.014039944 -0.017869126
000050 a7 df 1f 3c a2 2a ba bb 48 b6 0b 3c db 2e 3d bc
       0.009757913 -0.0056813518 0.008527346 -0.011546816
000060 15 12 a7 3d 59 b9 a4 bb 20 33 57 bc 08 39 50 bc
       0.08157746 -0.005026978 -0.013134748 -0.01270891
000070 8a d7 54 3d de 1d 26 bb 75 e9 30 bd fa e8 8c 3c
       0.051963367 -0.0025347392 -0.043191392 0.017200936
000080 fc 67 e0 3c d7 0d ee 3c e3 b2 12 3c c3 ce 3c 3c
       0.027393334 0.029059334 0.008953783 0.011523905
000090 99 29 69 3c f1 c9 c8 3c 2b 0d 8b 3c 99 ef 9c 3d
       0.014231109 0.024510356 0.016974052 0.07662887
0000a0 40 ef 3f 3c 6d 58 12 bd ca fc 1f 3c 06 87 50 3d
       0.0117147565 -0.03572886 0.009764859 0.05091002
0000b0 65 6d 56 3d 20 7e 3f 3b 04 71 e9 bb 55 c2 d6 b9
       0.05235042 0.0029219463 -0.007124068 -0.0004096205
0000c0 af 61 aa 3d c9 a0 5e bc 3f 89 a6 bc 38 9b 07 bd
       0.08319413 -0.013588139 -0.020329116 -0.033107013
0000d0 f8 c9 20 3d 4c 51 e4 b7 22 89 af bc de 5e 3e bd
       0.039255112 -2.7217575e-05 -0.021427695 -0.04647719
0000e0 61 10 80 3c 57 46 0d bd 3e 96 3f bc b6 66 4a 3d
       0.01563281 -0.03449091 -0.011693535 0.04941436
0000f0 67 77 98 bc 7c 44 9b 39 95 ef a2 bc 31 d7 0a bb
       -0.018611623 0.0002961493 -0.019889632 -0.0021185393
000100 9b 68 3a bc a5 ec 8a bb 81 81 c9 bc c0 e2 1f bd
       -0.011377479 -0.004239636 -0.024597885 -0.039034605
000110 9f a8 9a bc 46 3c 2a bb e9 90 dc bc 79 2e f6 bc
       -0.018879233 -0.0025975867 -0.026924567 -0.030051457
000120 49 97 f1 bc d6 d4 20 3b 2f 5d 65 3b 6a dc c5 3b
       -0.029491084 0.0024540923 0.0034998169 0.0060382383
000130 8b 30 4c 3c 2f 57 bc 3c c7 87 62 3c c0 76 0e bd
       0.012462745 0.022990791 0.013826317 -0.034781218
000140 8b ef 2d 3d e4 b3 62 bb 69 cd 96 bc 3e 92 17 bd
       0.042464774 -0.0034592086 -0.018408494 -0.0370047
000150 6e d4 91 3d 0a 4f 2c 3c f2 97 11 bc 5f ee 01 3b
       0.07120596 0.010516891 -0.008886324 0.0019825918
000160 59 3e e7 3b f4 b7 eb 3b c1 67 59 bb fd 65 f5 3c
       0.007056993 0.00719356 -0.0033173414 0.029955858
000170 95 0a b2 bc 49 05 09 3d 41 58 73 bd 86 8e 0e 3d
       -0.021733562 0.033452306 -0.059410337 0.03480389
000180 27 48 24 bc c8 d2 2a 3d 99 22 6f 3b 1e ba 9c 3c
       -0.010026968 0.041704923 0.0036489128 0.019131716
000190 17 a3 4e bc 1a 03 00 bd 7b d1 a7 3c 69 61 2e 3b
       -0.012612126 -0.031252958 0.02048563 0.0026608354
0001a0 69 e3 54 bc 58 cb 08 3d 62 e0 c3 3c aa 53 1a bd
       -0.012993672 0.03339705 0.023910705 -0.037677445
0001b0 e1 81 1e 3d 6e 4f 55 ba aa f3 53 3d c6 8e 0d bd
       0.03869808 -0.0008137141 0.051746048 -0.034559987
0001c0 bc 24 c6 b9 5d 33 be 3c 54 a0 6c 3d c8 6a b8 bc
       -0.00037792872 0.023217851 0.05777009 -0.022511855
0001d0 c6 98 37 3c c5 46 88 bc a1 e6 45 bc 2c a4 8c bd
       0.011205858 -0.016635308 -0.012078912 -0.06867251
0001e0 3e 8b 64 3c 2f 29 f6 bc 98 5d db 3c 57 e7 d3 3c
       0.013949214 -0.030048935 0.026778027 0.025867147
0001f0 17 2b 93 bc 72 36 94 3c 6b 22 14 bb c9 f1 80 ba
       -0.017964883 0.018092368 -0.0022603523 -0.0009837683
000200 47 f7 c6 bc 0d 9f c6 3c 9c 7a 38 bd 43 08 8e 3c
       -0.024287833 0.024245763 -0.045038804 0.017337924
000210 26 69 b7 3c b2 53 f5 3c e6 fb 5f 3c c4 d2 7c 3c
       0.022389006 0.029947136 0.013670897 0.01543111
000220 27 63 35 3c ee 40 0b bc df ab 07 3c 3d b3 e3 ba
       0.011071003 -0.008499367 0.008280723 -0.0017372143
000230 eb 07 a2 3c 1b 29 5f bb 63 6d a4 ba 16 9e 36 3d
       0.019779166 -0.00340516 -0.0012544807 0.044584356
000240 5d 13 df bc fd 98 bf 3a b9 2c 28 3d 36 6e 57 bc
       -0.027230913 0.0014617738 0.041058276 -0.013148835
000250 02 5c 13 3d ca d8 03 bd 0d 3e 38 3d 3c f1 3b 3d
       0.035976417 -0.032189168 0.04498105 0.045884356
000260 d8 e8 3b 3d 12 a5 06 ba c9 42 6b 38 09 17 80 bd
       0.045876354 -0.0005136292 5.6090565e-05 -0.062543936
000270 7d b8 4b bd 01 72 77 3c 58 9d b7 3c 7f a7 cc 3b
       -0.04973649 0.015102864 0.022413895 0.006245553
000280 1b 2d d2 ba b5 bf b9 3c 3a 33 3e bd 1e 26 71 3c
       -0.0016035171 0.02267442 -0.046435572 0.0147185605
000290 33 29 7c 3c 1b d4 eb 3c 04 3e d0 3c 2c dc 23 3d
       0.015390682 0.028787663 0.025420196 0.040004894
0002a0 18 47 df 39 03 f5 55 bb cc 1d 19 3d b4 2b 0e 3c
       0.00042586843 -0.003264726 0.037381932 0.008677412
0002b0 75 58 61 3d 01 92 36 bc d1 74 c6 3c 27 d4 e1 bb
       0.055016 -0.0111432085 0.024225624 -0.0068917456
0002c0 ac e0 47 3b f7 7b b2 bc d6 58 ab bb 0d 84 1d bd
       0.0030498905 -0.021787627 -0.005229096 -0.03845601
0002d0 65 74 e9 bb bd 34 22 3d 96 38 5c bc 64 26 45 3b
       -0.007124471 0.039601076 -0.0134412255 0.0030082697
0002e0 40 84 ac bc 4b 8b 45 3d 6d 88 19 3c 00 f3 0d bd
       -0.021059155 0.048228543 0.009370905 -0.03465557
0002f0 db d2 96 bc 72 1c 48 bc a6 da 6a 3c b2 a4 21 bd
       -0.01841109 -0.012213813 0.014334356 -0.039463706
000300 03 03 9b 3d 2b 79 72 bb 37 0b 15 3d 55 51 6b bb
       0.07568934 -0.0036998491 0.03638765 -0.0035906632
000310 a8 4c e1 3c ab a1 0c bc 73 78 c1 3a 90 4a 81 bb
       0.027502373 -0.0085834665 0.0014760628 -0.003945656
000320 e6 90 ee 3c c1 a2 c1 bd ac 59 f8 b9 a5 8c 10 3d
       0.029121827 -0.09454871 -0.00047369057 0.03529038
000330 4b 01 d9 3c cf 80 3d 3d a6 0d f9 bb 64 c4 1c 3c
       0.026489874 0.04626542 -0.007600504 0.009568308
000340 de 5f f8 3c 23 7e 0f bd 40 f5 a6 bc e5 ff 68 3b
       0.03031915 -0.035032403 -0.020380616 0.0035552916
000350 d1 13 98 3c c0 8d 0c ba 90 87 c2 ba a6 a5 0f ba
       0.018564137 -0.00053616986 -0.0014841426 -0.00054797006
000360 ae 51 48 3c 13 d0 6f bb d3 07 a2 bc d5 37 fb 3c
       0.012226505 -0.0036592528 -0.019779122 0.030666271
000370 fb 35 24 bc ba ab c7 3c c4 05 a2 bc db a2 a9 3c
       -0.010022636 0.024373878 -0.01977814 0.020707538
000380 2a 8b 94 bc 27 55 c1 bb ec 9b b5 bc 1e 37 dd 3d
       -0.018132765 -0.0059000435 -0.022169076 0.108015284
000390 ae f2 1a bc 14 f0 29 bc 54 f9 0b bb 7b 09 a4 bc
       -0.009457273 -0.0103721805 -0.0021358328 -0.020024052
0003a0 a5 84 7c 3d 89 f2 92 3c 1f 92 b8 bd 9e 3f 0a 3d
       0.061649937 0.017937915 -0.090122454 0.033752076
0003b0 a5 5a b6 3b 13 83 2c bc e6 d0 eb bb 6f 11 19 bd
       0.005565005 -0.010529297 -0.0071965335 -0.03737014
0003c0 91 7d 8d bd 8f 4f 2b 3d 1b b8 f9 bb fd e5 2d bd
       -0.069087155 0.04182392 -0.007620824 -0.042455662
0003d0 c2 63 d6 bb 30 fe 7b 3d 29 1f 92 3a 0f 1d 57 3d
       -0.006542654 0.06152171 0.0011148202 0.052517947
0003e0 a7 1d 9b 3c 57 bb 9c ba 29 36 a0 3c 19 19 84 bc
       0.018935038 -0.0011957687 0.019557076 -0.016125249
0003f0 e7 fa 75 bb fa d6 df 3c 38 8b 5e 3d 2c 57 a7 bb
       -0.0037533583 0.027324189 0.054331988 -0.0051068272
